reachability_classification/weights/Separateq0qgqkckMultiplePassGNNReachabilityNet_epoch_70.pt (torch_old, 53383 bytes, 26 tensors)

x_lin.0.weight f4 [8, 1, 1, 2]
000000 ca ab 73 3e 66 64 72 be e9 55 8f be 91 27 8c bf
       0.23796001 -0.23671111 -0.27995232 -1.0949575
000010 3c 25 7e 3d e3 28 5e 3f 4f 1b ed be ab 9c c8 3e
       0.06204723 0.8678114 -0.46309897 0.39182028
000020 45 ec 93 3e 21 8e 36 bf fe 1b 1e bf e0 3d 5b 3e
       0.28891197 -0.7131062 -0.6176146 0.21410322
000030 0a 4f 41 bf 9d 01 ff 3d 45 61 09 bf 97 e9 c8 3e
       -0.7551123 0.124514796 -0.53664047 0.39240715

x_lin.0.bias f4 [8]
000000 50 ad c3 3e 69 9d 61 3f b5 cf 26 bf 46 0a f0 3e
       0.38218164 0.88130814 -0.65160686 0.46882838
000010 56 f7 02 bf 62 fc 80 3f 51 4e 1b be 9b ef 90 bd
       -0.51158655 1.0077021 -0.15166594 -0.07076951

y_lin.0.weight f4 [8, 1, 1, 2]
000000 33 8e 2c 3f 08 84 92 3d d8 c0 23 3f 85 b2 e9 3e
       0.6740448 0.07154089 0.6396613 0.45644012
000010 bc b6 18 3d 41 7a 9b 3f 59 c7 ea 3e fe db 04 bf
       0.037283644 1.2146684 0.45855215 -0.5189818
000020 d8 67 53 3c 62 f9 19 bf c6 bb 02 be 55 52 e8 bd
       0.012903176 -0.6014615 -0.12766942 -0.113438286
000030 81 12 21 bf 82 1f 35 3e 2a 9a 0e 3f fe 83 25 3e
       -0.6291886 0.176878 0.55703986 0.16163632

y_lin.0.bias f4 [8]
000000 15 b1 2a bf bc 8e 24 3f b5 ef 62 be 39 7f 85 bd
       -0.66676456 0.64280295 -0.22161753 -0.065184064
000010 9c a6 14 be 44 7c 13 bf b1 f8 0f 3f 96 45 49 3e
       -0.14516681 -0.5761149 0.5623885 0.19655451

th_lin.0.weight f4 [8, 1, 1, 2]
000000 13 b9 af bd d6 a0 a3 bc 59 94 93 3e 8d b8 91 3e
       -0.08580222 -0.019974153 0.28824118 0.28461114
000010 fd 14 c9 b9 28 06 f2 bf 70 ff a9 be 14 c2 f5 3e
       -0.00038353345 -1.8908129 -0.33202696 0.47999632
000020 d5 05 ea 3e e2 fc 1a bf ad 1d 03 bf e5 91 a3 be
       0.45707574 -0.6054212 -0.51217157 -0.31947246
000030 67 19 d4 3e f7 9a d5 3e 0e da 64 bc 71 ed ee bf
       0.4142563 0.4171979 -0.013968004 -1.8666211

th_lin.0.bias f4 [8]
000000 18 55 43 3e 9a a0 14 3d 70 bd ce 3c 3c e9 ee be
       0.1907543 0.036285974 0.025236815 -0.4666232
000010 db d4 b3 3e 63 f8 f3 bd 25 32 8a bf 62 d8 ed 3d
       0.35123333 -0.119126104 -1.0796553 0.11613537

config_lin.0.weight f4 [32, 24, 1, 1]
000000 8f e2 00 3f 75 cd 3e be c7 d6 e7 be 19 e0 96 bd
       0.503457 -0.18633063 -0.4528105 -0.07366962
000010 27 80 d9 3e a9 0c 5c 3e 5d 2d bc bd 86 3c a8 3e
       0.42480585 0.21489204 -0.0918834 0.32858676
000020 e3 ad ae be 6f 84 97 bf d3 4a 95 bd 79 3d b6 3e
       -0.3411704 -1.183729 -0.07289662 0.35593775
000030 27 74 d7 bd 64 97 46 bf 65 af 75 bf 30 20 12 bf
       -0.10520201 -0.77574754 -0.95970756 -0.57080364
000040 11 1b 3c 3e 67 9e 0f be 40 f3 60 3e f5 61 c2 3d
       0.183697 -0.1402527 0.21967793 0.0949134
000050 ff 7e c0 3d eb 9d 81 bd bc 99 1e 3e 56 e6 25 3f
       0.093992226 -0.063289486 0.15488333 0.6480459
000060 7f 99 9e bd a1 d6 9f be e9 f7 53 3e 80 32 a0 3e
       -0.07744121 -0.31218436 0.20700039 0.31288528
000070 ab b6 15 3f 03 d2 90 3e 6f 85 2c be af 09 2c 3c
       0.58481854 0.28285226 -0.16847776 0.010500356
000080 1e 45 d9 be 96 4e 79 be d8 1d ff 3d 8d 0b 71 be
       -0.42435545 -0.24346384 0.12456864 -0.23539563
000090 43 91 97 3c 2b 8e 1d 3e 94 ef 66 3e ea 62 13 be
       0.018501883 0.15386264 0.2255233 -0.14393201
0000a0 bd e2 0c 3e 04 06 0c bd f6 2f 1a 3e f1 a4 ba bd
       0.13758369 -0.034185424 0.15057358 -0.09113491
0000b0 1f f7 a2 be f6 f4 a1 3d 9c e8 35 be 49 f0 e2 3e
       -0.31829163 0.07908051 -0.17764515 0.44323948
0000c0 e8 5e ba 3d 6b 9c 1e 3e c8 06 8f be 67 ff a5 3d
       0.09100133 0.15489356 -0.2793486 0.08105355
0000d0 e6 cc b5 be b2 e7 d3 3d 95 34 75 3e 31 bc 8f 3e
       -0.35507888 0.10346927 0.2394584 0.28073266
0000e0 4c 48 7e 3e 68 74 b7 bc 9e de 25 3e 44 c2 d7 3c
       0.24832267 -0.022394374 0.16198203 0.02633775
0000f0 30 8f b2 3e b9 78 46 3e d2 4d e2 bd dc 0f e5 3d
       0.34874868 0.1938199 -0.11049999 0.111846656
000100 6d e0 9e bd 10 91 e0 3c dd d6 a5 be bb 6b 22 be
       -0.077576496 0.027412921 -0.3239049 -0.15861408
000110 a4 e4 8f 3e 5f cc 8d 3c f0 10 bb 3d 86 cc fe be
       0.28104126 0.017309366 0.0913409 -0.49765414
000120 29 98 0e bd bd 54 50 be 6a 3f 19 bf a9 92 d8 be
       -0.03481308 -0.20344825 -0.5986239 -0.42299393
000130 fe 66 3c bf 1f e0 8e be 7e d0 64 bd 9c de 87 be
       -0.73594654 -0.27905366 -0.055862896 -0.26537025
000140 d4 4a 55 3c 1f 59 02 3e 33 58 6d 3e f6 8e 5f 3e
       0.013018329 0.1272931 0.23178177 0.21831879
000150 42 57 1e 3e 98 e6 8f be 33 88 5b be 8d 2a 83 bd
       0.15462974 -0.28105617 -0.21438675 -0.064046
000160 c9 44 0e bd 86 14 2e 3e e6 1c 16 be d5 d9 81 3e
       -0.034733567 0.17000017 -0.14659461 0.25361505
000170 b3 4f 15 3e c2 e9 cf 3d e4 c4 1b 3e 3b cb aa be
       0.14581184 0.10152008 0.15211827 -0.33358178
000180 f4 50 c5 3d 76 74 9b 3e 26 4b ff 3d d5 2b a0 3e
       0.09634581 0.3036229 0.12465505 0.3128344
000190 0e 43 92 bf b4 f0 41 3e 23 cf af be 5a bc 09 be
       -1.1426713 0.18939477 -0.3433772 -0.13450757
0001a0 ca 4b 3a 3e 86 87 0f 3f a2 9f 1f be ab 4a 8d be
       0.18192974 0.5606617 -0.15588239 -0.2759603
0001b0 cf db a8 be 85 5b ae 3d 5a 67 71 be ed 58 89 3e
       -0.329802 0.0851355 -0.23574582 0.26825657
0001c0 11 68 00 3d ef f4 d3 be 9c 47 a8 3f 7c 94 a2 be
       0.031349245 -0.41397807 1.3146853 -0.3175391
0001d0 de 1e 02 3f bd 99 c0 3e e8 55 9a be 2b b3 ed 3f
       0.5082835 0.37617293 -0.30143666 1.8570303
0001e0 4e b1 65 be c6 e5 22 3e ed 5a 8e be 02 e9 06 3e
       -0.22430918 0.15907964 -0.27803746 0.13174823
0001f0 00 15 5c 3e 75 45 b6 3e 90 9b 35 3e 3e af 2d bf
       0.21492386 0.35599867 0.17735124 -0.67845523
000200 24 17 e5 3c 08 5e 87 3e 86 1a 54 bf d1 da 12 bf
       0.027965136 0.26438928 -0.8285297 -0.5736514
000210 3d f9 1b be 8a 94 0b 3a b7 a8 63 3e 4a c7 6f be
       -0.15231796 0.0005324563 0.22232328 -0.23415866
000220 44 54 d1 bc bb 0a c8 3d 47 ad ca bc 2a ae 24 be
       -0.025552876 0.09767672 -0.024740828 -0.16082063
000230 7e f7 bf be bd 71 94 be 7b 4d f5 3e e2 4c ca bd
       -0.3749351 -0.28993025 0.47910675 -0.098779455
000240 b5 95 dc bc 3c a3 94 3e e4 8d bd 3e 61 1d ff bd
       -0.026926855 0.29030788 0.37022316 -0.124567755
000250 dd 0a ff 3b 74 a2 c4 be 12 93 0e 3e da 1b 90 be
       0.0077832774 -0.38405192 0.1392329 -0.2814625
000260 ed a1 e9 3d 24 e1 bf be c6 b2 c5 be 77 31 d4 3d
       0.11407838 -0.37476456 -0.38612956 0.10360997
000270 02 6f 35 bd a9 43 e1 3d eb e9 84 3e d9 25 fe bc
       -0.04429532 0.10999233 0.25959715 -0.031023907
000280 1d 05 53 3d b8 3a 9d be fd c8 66 be 46 de 8f 3e
       0.05151855 -0.3070886 -0.22537608 0.2809927
000290 ae 68 5c bf a2 a4 8b bd a6 65 ee bd c1 9d db be
       -0.8609723 -0.068185106 -0.11640482 -0.42893794
0002a0 a3 e3 e1 bd 2a 21 4b be 0e fe 92 3e 1f fe 26 bd
       -0.110297464 -0.1983687 0.28709453 -0.040769693
0002b0 45 5a a5 bd 1c 52 b6 be 06 e4 4f bd 32 7e d4 bd
       -0.08073858 -0.3560952 -0.05075457 -0.10375632
0002c0 88 c7 c8 bd e4 91 0b bf b8 24 b0 3c 55 c2 5a 3b
       -0.098036826 -0.54519486 0.021501884 0.003337999
0002d0 0d 0b a7 3e 2a 01 d4 3e c7 d6 0f bc 6d e4 06 bf
       0.3262562 0.41407138 -0.008779234 -0.526923
0002e0 e9 d2 1f be da 75 1f be 2c 3c 88 3d 1c d5 cb bc
       -0.156078 -0.155723 0.06652102 -0.024881892
0002f0 57 4b fe 3d 45 09 4f be 7e 70 f4 3d 4d 7d 9c be
       0.12416714 -0.2021838 0.11935519 -0.30564347
000300 32 1c 67 bc fc fc 82 3f 94 cc 19 be a4 e5 c1 be
       -0.014105843 1.0233455 -0.15019447 -0.37870514
000310 e4 12 c3 3d a6 24 be 3e f4 b1 a0 3e 7a ad 60 be
       0.095250875 0.37137336 0.31385767 -0.21941176
000320 71 3d 19 bd 57 62 cf bd 6e a9 fc be d0 1a 38 bf
       -0.03741211 -0.10126179 -0.49348015 -0.7191591
000330 dd 03 82 bd 69 eb 7c 3e db 68 8e 3e 03 9d 45 3d
       -0.06348393 0.24699177 0.27814373 0.04824544
000340 42 42 86 3d c7 93 aa 3d 6d e9 11 bd a0 c6 02 bd
       0.065556064 0.083289675 -0.035623003 -0.031927705
000350 48 ac 81 be ca 18 a0 be 39 77 d6 bd 7f a1 ea 3d
       -0.25326753 -0.31268913 -0.10471959 0.11456584
000360 a5 a4 f4 3e bd de 0f 3f 65 43 0c bf e2 4d 26 be
       0.47781864 0.56199247 -0.54790336 -0.16240647
000370 bd eb a4 3e b8 30 8d 3e ee bb ce bd 30 9b 5e 3e
       0.32211104 0.27576232 -0.100944385 0.21738887
000380 62 ee 4e be 35 c8 7e 3e b5 43 eb 3e d0 f1 44 3e
       -0.20208123 0.2488106 0.45950094 0.19232869
000390 8f 31 83 bd c1 db 96 be 90 26 b0 bd f1 44 16 be
       -0.06405937 -0.29464534 -0.08601105 -0.14674737
0003a0 71 2e 54 3e 15 a9 52 3d 4f 46 39 3e d6 31 ad 3e
       0.20720841 0.05143078 0.18093227 0.33827084
0003b0 b1 bc b6 3b c0 36 14 bd e8 90 94 be 04 9e 9f 3e
       0.005576693 -0.036185026 -0.29016805 0.31175244
0003c0 fb b3 05 bf ed b1 b6 bd af 96 83 3e 4e ed 0b be
       -0.52227753 -0.089206554 0.257009 -0.13664743
0003d0 ad b4 e9 be 99 11 c3 3d ad 8a fe bd 74 3a 19 3e
       -0.45645657 0.09524841 -0.12428794 0.14963704
0003e0 b5 84 cf 3e 37 00 3c 3e 51 08 6b be 32 52 9a 3e
       0.40530935 0.18359457 -0.22952391 0.30140835
0003f0 a1 0d 62 3e 5f 84 9f bd c7 c3 e2 be 5b 08 d4 3e
       0.22075512 -0.0778892 -0.4428999 0.41412625

config_lin.0.bias f4 [32]
000000 20 b9 14 3e 22 15 95 3e aa 3d a7 be eb bc 55 3e
       0.14523745 0.29117686 -0.32664233 0.20872848
000010 24 20 7e 3e 1b 92 e0 bc 50 e4 f0 bd 79 00 b9 be
       0.24816948 -0.027413419 -0.11762297 -0.36133173
000020 65 08 f0 bd 4a ed a0 3d b2 cd dc be 0f 2b 38 3e
       -0.11720351 0.07857759 -0.43125683 0.17985176
000030 91 59 8b 3d 0a 92 84 3e 3e fa e4 3c cf 69 03 3f
       0.06804193 0.2589267 0.027951356 0.51333326
000040 b8 58 41 bc 98 67 10 be bd a3 02 bf 71 85 00 3e
       -0.011800937 -0.14102018 -0.51031095 0.12550904
000050 c2 28 ce 3d 06 ff 4e be f0 e5 84 3d 90 d0 3a be
       0.10066368 -0.20214471 0.064891696 -0.18243623
000060 95 fd 4a 3e d4 85 33 3d dc 79 11 be 50 e5 43 3d
       0.19823296 0.0438288 -0.14206642 0.04782611
000070 1f 24 bf 3e 17 08 6b be 77 3d 8b 3c d1 6a 0f 3e
       0.37332246 -0.22952305 0.016997082 0.14005591

config_lin.2.weight f4 [32, 32, 1, 1]
000000 3c b7 a9 3e fb c1 20 3e cd 11 92 3d f2 68 5b bd
       0.3314761 0.15698998 0.071323015 -0.05356688
000010 9f a0 0c 3f 33 32 0d be bb ca d9 be f2 99 a0 3c
       0.5493259 -0.1378868 -0.42537484 0.019604657
000020 2b 33 76 3d 7e 04 8a 3c 2f f4 10 bf 5f aa ad bd
       0.06010739 0.016847845 -0.56622595 -0.08479761
000030 fa 06 ab be e0 5b 07 bf 5e 6b a5 be 41 a6 82 3e
       -0.3340376 -0.52874565 -0.32308477 0.25517467
000040 65 8e 92 bd 21 ac fe 3c c1 65 d0 be 8b 43 a8 3d
       -0.07156066 0.031087937 -0.40702632 0.08216008
000050 fd e4 71 3e b9 1d 79 3e 3c b5 9c bd 88 da 9d 3d
       0.23622508 0.24327745 -0.07651755 0.07707697
000060 fb 75 b7 be 85 fa 4d 3e 9a 78 fa 3e e0 f9 3c bf
       -0.358322 0.20115097 0.48920137 -0.7381878
000070 82 54 c1 3b b6 9e 09 bf 1f 78 96 bd a7 e6 70 bf
       0.0058999667 -0.537578 -0.0734713 -0.9410195
000080 87 47 98 3e dd 07 6c 3d b8 b6 e5 bd 59 1c 92 be
       0.2974207 0.057624687 -0.112164915 -0.28537253
000090 d9 03 2d 3f 77 a5 b0 be e9 8f e3 be 65 4b 58 3e
       0.67583996 -0.3450124 -0.44445732 0.2112251
0000a0 f5 76 9d 3e 1e 17 d8 be ba f6 2f be fd 4c 4b bd
       0.3075482 -0.42205137 -0.17183962 -0.04963397
0000b0 4c 40 5e 3e 61 6b 4b 3e 82 29 04 be 1d 7b 3d 3d
       0.21704215 0.1986518 -0.12906459 0.046259988
0000c0 09 4e 25 bf 48 1c b4 be 4e 7c 1e be 4e b0 f7 be
       -0.645722 -0.35177827 -0.15477106 -0.48376697
0000d0 4c 13 ae be 45 e6 c6 3e af ac 24 bf 69 02 80 be
       -0.33999097 0.38847557 -0.64325994 -0.2500184
0000e0 e6 29 1d bf e9 58 f2 3d 13 b7 09 3f d0 55 c9 3d
       -0.61392057 0.118333645 0.53794974 0.098308206
0000f0 bc 46 2e bf 91 b0 07 bf 8c 1b 0d 3d f9 6d ee bc
       -0.6807668 -0.53003794 0.0344501 -0.029105173
000100 53 6c e6 bd 32 ed 45 3e 6c d9 72 3d 36 f5 77 bd
       -0.1125113 0.19328764 0.05928938 -0.060536586
000110 1b e9 cb 3d a4 b2 24 bf 26 89 d7 bc da ff 22 3e
       0.09956571 -0.64335084 -0.026310515 0.15917912
000120 58 b7 cc 3c bd d2 a9 be 36 eb b0 3d f7 96 4f 3d
       0.024989769 -0.33168593 0.08638613 0.05068108
000130 28 24 47 bd 78 42 86 bd a4 a6 41 bd d5 0b cd bd
       -0.048618466 -0.06555647 -0.04727806 -0.100120224
000140 1c 24 be 3d 76 e3 04 be 98 86 85 3e 23 7d 31 3e
       0.09284231 -0.12977394 0.2607925 0.17332892
000150 5c d3 84 3d d0 c6 f5 3c 9e 45 c2 3d 2f c8 19 be
       0.06485626 0.030002028 0.09485935 -0.1501777
000160 d8 17 f8 3b 91 66 e0 bd 7b 3c 77 be ff d2 b8 bb
       0.007571202 -0.10957063 -0.24144165 -0.005640387
000170 32 28 bd be bc a0 87 bd dd 35 d5 3d 6c bc a2 3c
       -0.3694473 -0.066224545 0.10410664 0.019865237
000180 8d 3a 37 3f d4 26 a8 bd 81 e4 26 bf 75 b6 bd 3e
       0.71573716 -0.08210531 -0.6519242 0.37053266
000190 e6 86 ba be f8 1b ac 3d 7f 8c df 3e 4f f0 12 bf
       -0.36431044 0.08403772 0.43661878 -0.5739793
0001a0 65 d3 5e bd d8 6a 23 be fc 02 d5 3a 93 01 1a 3d
       -0.05440082 -0.15958726 0.00162515 0.037599158
0001b0 0a 56 8e bf 36 8d b5 bd 59 c3 d1 be 4e 3c a1 bd
       -1.1120007 -0.088648245 -0.4096935 -0.0787283
0001c0 47 1c 81 be 5a fd 0d 3e b3 ae 90 be 2a e2 38 3e
       -0.25216886 0.13866177 -0.28258285 0.18055025
0001d0 75 5f d1 be f7 cf 91 3d dd ec 2e bf 71 79 24 be
       -0.4089314 0.07119744 -0.68330175 -0.16061951
0001e0 8a 4f d7 be 41 3b 32 3e bb bb f1 3d b0 d9 a8 3d
       -0.4205287 0.17405416 0.11803385 0.082446456
0001f0 9a 6c ec bd 5e 4a 37 3e 44 76 b5 3e 08 3c 0b 3f
       -0.115441516 0.17899463 0.35441792 0.54388475
000200 af 94 af 3d f3 82 4e be 1d 7b 85 3e 75 1e 49 3e
       0.08573281 -0.2016714 0.2607049 0.19640525
000210 49 4d f6 be 6a 41 d5 be 88 98 0c bd fd cb 14 3e
       -0.4810584 -0.4165147 -0.034325153 0.1453094
000220 69 99 48 bd 34 12 56 be 81 34 97 3e dd 7f 49 bf
       -0.04897443 -0.20905381 0.29532245 -0.7871073
000230 34 12 1e 3e 2d 3d c7 3d 0a 13 42 3e 45 47 ea be
       0.15436631 0.09728465 0.18952575 -0.457575
000240 90 0f b6 3d d6 7f bd bd 9f 2d 8c 3d db 62 92 3d
       0.08889687 -0.092528984 0.06844639 0.071477614
000250 c4 b0 0f be 0e 8c 3f 3c 41 7d 19 3e 45 9b 6e 3d
       -0.14032274 0.0116911065 0.14989187 0.058253545
000260 df 98 9e 3e de 19 0b bf e6 1b 0c be e5 03 aa bd
       0.30976006 -0.54336345 -0.13682517 -0.08301524
000270 e7 f0 c1 be 1c 20 85 be 3b 5f 0d bd cf e7 80 bf
       -0.37879106 -0.2600106 -0.034514647 -1.0070742
000280 95 ed 60 be 26 69 f8 be 75 12 cd 3d 15 bd 67 3e
       -0.2196563 -0.48517722 0.10013286 0.22630723
000290 ea c5 c3 bd bc f6 fd bd 23 2f 67 be bb fd 9a 3b
       -0.095592335 -0.124005765 -0.22576575 0.004729954
0002a0 b7 d8 cf bd 1c e5 4f 3e 38 08 48 3e 6f d6 9a 3e
       -0.10148757 0.20302242 0.19534385 0.30241725
0002b0 94 44 00 be 19 c6 74 3e b9 47 bf be fb 00 22 be
       -0.1252616 0.23903693 -0.37359408 -0.15820687
0002c0 5a 41 70 3e b5 b9 17 be ed 2d 9f 3e cc 25 85 bd
       0.2346243 -0.14816935 0.31089726 -0.0650135
0002d0 97 58 02 3e cf 78 ed be 03 36 75 be 88 ef 8a 3d
       0.12729107 -0.46381232 -0.23946385 0.06783968
0002e0 0d 2b 82 bd e0 74 5c 3e 2c 5f 3c 3e ef 3b 2b be
       -0.063558675 0.2152896 0.1839568 -0.16722082
0002f0 8f 16 bc bd 30 82 8f be 88 07 63 bd 85 fb 4e 3e
       -0.0918399 -0.28029013 -0.055427104 0.20213135
000300 31 22 25 be f0 dd 84 bd 73 3d 8c bd c5 57 27 be
       -0.16126324 -0.06487644 -0.06847658 -0.16342075
000310 47 10 19 bd 7b 7d d9 be 45 27 bf 3c 88 be c6 3d
       -0.03736904 -0.42478547 0.023334155 0.0970431
000320 db 27 04 bf 43 fb 27 bf 77 4d 30 3e a1 88 4c 3e
       -0.51623315 -0.6561777 0.1721705 0.19973995
000330 62 fa ef 3e 30 b0 d7 3d 7a 8b 5c bf b2 34 c9 3c
       0.46870714 0.10531652 -0.86150324 0.02456126
000340 6e 1f 27 be 85 e2 e7 3d ec 34 a9 bd 53 c2 9e be
       -0.16320583 0.11322502 -0.08262047 -0.31007633
000350 6c 1f 06 be 59 a3 03 3e 3e 28 67 bb 6a c8 2b bf
       -0.13097924 0.12855281 -0.003527179 -0.6710268
000360 44 0f 0d bd 9a 78 22 be 58 f6 f4 be fc ac 5e bd
       -0.034438387 -0.15866318 -0.47844195 -0.05436419
000370 2c 5d 96 3d 92 3f 25 3e 68 c3 88 3e cf 8f f6 3d
       0.0734199 0.16137531 0.26711583 0.12039148
000380 29 1b ec be 02 ab 4c 3e 4d b1 07 bf 75 4e dc be
       -0.46114472 0.1998711 -0.53004915 -0.43028608
000390 57 b1 85 be 39 9a c3 3e ae 55 f1 3e 10 e5 56 3c
       -0.26111862 0.382036 0.4713568 0.013116136
0003a0 80 34 66 3e d8 c7 19 bf 29 a5 5b bf 1c d0 4e 3b
       0.22480965 -0.6007056 -0.8579889 0.0031557148
0003b0 a0 11 0b 3e 8a c6 22 bf ca b9 cb bb 74 db 83 3d
       0.13580942 -0.63584197 -0.006217216 0.06438342
0003c0 e7 cb ea bd 8b 83 a7 3d a9 57 79 3c 9b e6 8d 3d
       -0.114646725 0.08179387 0.015218654 0.0692875
0003d0 77 48 ff be 7f d3 b6 3e 7b c5 26 bf 21 ce df be
       -0.49859974 0.35708234 -0.6514508 -0.4371195
0003e0 3e e1 c7 be e6 a6 f5 be 0b e2 71 be c1 6b 7c 3d
       -0.39039034 -0.47978896 -0.23621385 0.0616262
0003f0 4b c3 fd 3d 07 24 a7 bd de 04 08 3e 59 90 60 3e
       0.12390765 -0.081611685 0.13283107 0.21930064

config_lin.2.bias f4 [32]
000000 7c 4a f7 3d 3c a2 b0 3c 61 1f 8a be 3d e8 1d be
       0.12074754 0.021561734 -0.26977065 -0.15420623
000010 a3 49 02 be e1 c1 aa be 84 21 cb 3d 67 e9 39 be
       -0.12723403 -0.33351043 0.09918502 -0.18155442
000020 70 31 0a bd 22 07 84 be c1 f3 a0 3d c5 ba 9d bd
       -0.033738554 -0.25786692 0.07858992 -0.07701639
000030 b5 6a b7 be 82 04 08 bd 69 43 b4 bd 37 0f e0 bd
       -0.35823599 -0.033207424 -0.0880192 -0.10940402
000040 fb 3d 03 be 3d 66 c4 be e3 f1 c5 be 67 ac 4f 3e
       -0.12816612 -0.38359252 -0.38661107 0.2028061
000050 7f b6 5f be 8f 3b fe bd ea e9 a7 3e c6 b4 91 3e
       -0.2184696 -0.12413704 0.3279565 0.28458232
000060 17 c8 c2 be ed 46 80 3e 22 a7 4d bd 8c 39 18 bd
       -0.3804328 0.25054112 -0.05020822 -0.037164256
000070 c9 26 89 3e 03 b9 e1 be e0 8f d8 3d f2 40 8d 3c
       0.26787403 -0.44086465 0.10574317 0.017242882

vertex_lin.0.weight f4 [32, 64, 1, 1]
000000 f1 0c 90 be 7c f7 ce bc 15 7e 10 bd cf b4 c9 bd
       -0.28134874 -0.025264494 -0.03527649 -0.098489396
000010 4a 77 77 3e e9 89 1e 3e 1c 1a 6c 3d 20 a5 1d bc
       0.24166599 0.15482296 0.057642087 -0.009621888
000020 c4 14 13 be 2e b9 37 be cc b4 8c be ec 3d bb 3e
       -0.1436339 -0.17941734 -0.27481687 0.3657068
000030 ce 73 21 bd 57 34 96 3e ba 9d 97 bd 0d e7 63 be
       -0.03941708 0.29336807 -0.07403131 -0.22256108
000040 d9 46 0e be 57 25 86 3e 11 7a a8 3e d4 33 57 3e
       -0.13894214 0.26200363 0.3290563 0.21015865
000050 cc 3c ec 3d 8d f5 84 bd 4d 9f a1 3d 0e 2e 33 be
       0.115350336 -0.064921476 0.07891712 -0.17498037
000060 c7 f6 bc be 64 18 15 3e 04 32 6e be 84 56 a6 bd
       -0.36907026 0.14560086 -0.23261267 -0.0812197
000070 3a 54 f7 3d e8 47 9f 3d f8 dd f1 3d a0 e8 67 be
       0.12076612 0.07777387 0.11809915 -0.22647333
000080 e2 3a 30 3e b1 1e b1 3e 93 1c 1c 3d 01 9c 5c 3e
       0.17209962 0.34593728 0.038113188 0.21543886
000090 e8 41 1b bf 12 50 33 3d cb 75 fb bc 10 dc 3a 3e
       -0.6064744 0.043777533 -0.030695817 0.1824801
0000a0 ba 37 85 3d 7e 58 be 3e a2 c8 fa 3d d3 90 de be
       0.065047696 0.3717689 0.12245299 -0.43469867
0000b0 14 55 f0 3d 0f ac 12 3e a4 2e 70 3e 26 81 88 be
       0.11734977 0.14323448 0.23455292 -0.26661032
0000c0 2f fe 87 3e 47 32 d4 be 7b bf 68 be 0d 9a a7 be
       0.26561114 -0.4144461 -0.22729294 -0.3273472
0000d0 57 13 b0 be 35 71 49 3b b1 fa 0a be ea 55 dd 3e
       -0.34389755 0.0030737643 -0.13572194 0.4322961
0000e0 d7 ff b9 be 27 f5 52 be 6d fd b1 be 0b 0d f6 bd
       -0.36328003 -0.2060133 -0.3476366 -0.120142065
0000f0 18 7e 02 bf 63 ce 4c be 68 24 e1 be 31 fc 65 3e
       -0.50973654 -0.20000605 -0.43973088 0.22459485
000100 80 08 a1 be 54 3e ab 3e b8 be ae 3c 8c f5 df 3e
       -0.31451797 0.3344599 0.021331176 0.43742025
000110 3c 53 a9 bd d5 cd 8d be 08 1c a8 3e 2f fb fe 3c
       -0.08267829 -0.276961 0.32833886 0.031125633
000120 57 c8 c2 3e 37 23 bc bc 9b 0c 57 be f9 fa 6c 3e
       0.38043472 -0.02296601 -0.21000902 0.23142613
000130 0c b5 3a be a7 50 c7 3e 1f 19 6b 3e 79 4f f0 be
       -0.18233126 0.3892872 0.22958802 -0.46935633
000140 b6 8b f4 3d 2f 31 01 be 9d da 19 be 6d 64 46 3e
       0.1194071 -0.12616418 -0.150248 0.19374247
000150 d2 32 5b be 57 3d b8 3b 7a 49 d3 bd 7a 85 91 3e
       -0.21406105 0.0056225467 -0.10316749 0.28422147
000160 e3 bf 98 bd ca 44 a5 3c f0 91 be 3e 6a e4 85 3e
       -0.074584745 0.020174403 0.37220716 0.2615083
000170 4c 0f be be 6e 0f ff 3d b9 6e 78 3e eb e5 9e 3e
       -0.37121046 0.12454115 0.24260987 0.31034788
000180 ee 1c 5d be 10 ae a4 bd 4f 07 05 be c8 63 4e 3d
       -0.21593067 -0.08041012 -0.1299107 0.050388128
000190 81 09 02 be 18 24 db bc 95 c7 49 bd 38 8f 54 3c
       -0.12698938 -0.02675061 -0.049262602 0.012973599
0001a0 f3 ed 86 be c7 a5 3a 3c 31 70 2c be b9 26 0d bf
       -0.26353416 0.011392063 -0.16839673 -0.5513721
0001b0 b6 04 2e bf b8 f3 a4 3d c9 59 14 3e 61 71 97 3e
       -0.6797594 0.08054298 0.14487375 0.2957869
0001c0 a0 8b 7b 3e 2e b0 67 3e f4 b8 42 3c 8e dd db bd
       0.24564981 0.22625801 0.011884917 -0.107356176
0001d0 8b 91 ab 3d c7 34 bf bd 66 01 7a be 94 b2 0b 3f
       0.083773695 -0.09336238 -0.24414596 0.54569364
0001e0 8c b0 be be 05 05 1d 3e d3 4b b6 be a3 36 d1 3d
       -0.3724407 0.15333946 -0.35604724 0.10215499
0001f0 fa a4 5b be 58 d6 36 be 8e 40 35 be bc 53 da 3c
       -0.21449652 -0.17855203 -0.17700407 0.026651256
000200 f0 d3 a7 be 9e 5e 86 3e 26 87 2e bd 20 af 48 be
       -0.32778883 0.26244062 -0.042609356 -0.19598055
000210 88 db 13 be bf d3 0d 3e a2 a7 d9 3d d7 aa 00 3e
       -0.14439213 0.13850306 0.106276765 0.1256517
000220 bd 42 96 be 85 ac 79 3e 37 d3 85 3e 83 fb d9 3e
       -0.29347792 0.24382217 0.26137707 0.425747
000230 04 1e 43 3e 7e f0 b0 be 8b 03 85 3c 1b b6 02 be
       0.19054419 -0.3455848 0.016237041 -0.1276478
000240 74 7e e0 bc b8 14 d5 3d 94 b1 19 3e 24 96 69 be
       -0.027404048 0.104043424 0.15009147 -0.2281118
000250 85 dd bc ba d7 62 10 3e fe 29 5e bc d6 63 d0 bc
       -0.001440928 0.14100204 -0.013559816 -0.02543823
000260 ed 4b 11 3e 0d ec 32 3e 98 31 ed be 01 7c 4f bd
       0.1418912 0.17472859 -0.463269 -0.05065537
000270 14 03 84 3e 61 6c 4e be 0f 0e d6 be a1 dd 55 bc
       0.25783598 -0.20158531 -0.418076 -0.013053329
000280 42 3e 1f bd fd 44 d1 3e b9 6e 68 be 79 c2 c7 3c
       -0.038877733 0.40872946 -0.22698487 0.024384724
000290 c3 79 aa be 04 87 0e 3d 2a fa a7 be ed 56 c0 be
       -0.33296022 0.03479673 -0.32808048 -0.3756632
0002a0 ef c3 60 be 5f 1d bf be 7b c3 87 bc 8d 50 b0 3e
       -0.21949743 -0.37327096 -0.016572705 0.34436455
0002b0 1e e2 15 be dd c2 1e be df f3 89 be 7d 29 8b 3e
       -0.14637038 -0.15504022 -0.2694387 0.2718009
0002c0 cb c1 37 3e 6f e7 03 bf ea 1b 66 be f6 56 5a bd
       0.1794502 -0.51525015 -0.22471586 -0.05330559
0002d0 39 19 0b 3e 05 d1 02 3d 4f a0 d4 3d 55 b5 48 be
       0.1358384 0.031937618 0.10382139 -0.19600423
0002e0 30 02 8e 3e ee 6f 90 bc 53 0b ec 3d c9 62 8e 3d
       0.27736044 -0.017631497 0.115255974 0.069524355
0002f0 38 bf 92 bc 80 62 8d 3e 68 af f1 bd e0 0f 83 3e
       -0.017913446 0.27614212 -0.11801034 0.2559805
000300 4c c8 bd be 4d 19 ce be 90 f6 ed 3d 36 de ba 3e
       -0.37066877 -0.40253678 0.11619294 0.36497658
000310 e1 ad 4c be d5 79 cc bc f1 95 84 be da ff a3 be
       -0.19988205 -0.024960438 -0.25895646 -0.32031137
000320 86 81 d3 3e 2c c5 aa bc ee 81 ff 3c 98 d0 73 be
       0.41309756 -0.020845972 0.031189885 -0.23810041
000330 e6 77 8c bd 11 63 c4 3e ae 9a 9e 3e b6 02 e1 be
       -0.06858806 0.38356832 0.30977386 -0.4394738
000340 55 20 a5 3e 6b c2 34 3e 7a 1e a1 3c 4f 8c 40 bf
       0.3225123 0.1765229 0.019667853 -0.75214094
000350 4c 8b 14 3e 3b 57 95 3e 9b 2c 52 be 09 90 d2 3c
       0.14506263 0.29168114 -0.20524828 0.025703447
000360 34 41 8d bc 54 79 4f be 54 e0 68 3e 63 9f 42 3e
       -0.017243005 -0.20261127 0.22741824 0.19006114
000370 29 a2 03 be ae ad 0f be b9 eb ec 3e 83 b8 0e 3e
       -0.12854828 -0.14031097 0.46273592 0.13937573
000380 56 ab dc be 16 42 2a 3f 8b 8b 8d be 1c 38 70 bd
       -0.4309947 0.6650709 -0.27645525 -0.05864726
000390 a2 8d d8 3d 83 88 bf bd 45 af 33 bd f1 2f 7a be
       0.10573889 -0.093522094 -0.043868322 -0.2443235
0003a0 96 25 96 3c d9 2a f1 be f5 55 fc bd cb 94 f2 3c
       0.01832847 -0.47103003 -0.123210825 0.029611966
0003b0 8a d4 d3 3d 15 44 4f be 93 20 86 3d ba fb ae 3e
       0.10343273 -0.20240815 0.06549182 0.34176427
0003c0 ef 1b 97 3e a2 22 a8 3d 68 91 98 be 9f 23 44 be
       0.295135 0.08209731 -0.29798436 -0.19154213
0003d0 c7 f2 8a 3d f6 e6 de 3e 90 b4 f0 bd 74 41 58 bf
       0.06784587 0.43535584 -0.117531896 -0.84474874
0003e0 ed 85 68 3e 61 86 91 3e 68 00 28 3e 9a d2 02 be
       0.22707339 0.28422835 0.16406405 -0.1277565
0003f0 d4 e1 74 be 5b 57 bb bc 2a e7 b8 be 4e 95 33 3e
       -0.23914272 -0.022868803 -0.36113864 0.17537424

vertex_lin.0.bias f4 [32]
000000 61 18 06 be cd bc d2 bc d4 9d 52 bd ba e1 39 be
       -0.13095237 -0.025724793 -0.051420048 -0.18152514
000010 ef 90 84 be 47 e0 f0 bb 42 7a 4d 3c f4 9e 4b bd
       -0.25891826 -0.0073509547 0.012541356 -0.049712136
000020 a5 70 05 3e e2 d7 8b be d8 da 22 bc ab 80 b0 3d
       0.13031252 -0.27313143 -0.009939872 0.086182915
000030 3b 9d 51 3e 6c 90 2c be 44 f3 bc 3c f4 a8 64 bc
       0.20470135 -0.16851968 0.023065217 -0.013956297
000040 a0 95 72 3e e8 a9 bb bc 5c dd 0e be e0 f5 f0 bd
       0.2368989 -0.022908166 -0.1395163 -0.11765647
000050 a3 2c 5e be 00 21 82 be 91 b5 2e be 5a f3 02 3e
       -0.21696715 -0.25415802 -0.1706145 0.12788144
000060 42 98 39 3e 5c 45 29 3e 84 79 9c be f3 90 97 be
       0.18124488 0.16530365 -0.3056146 -0.29602775
000070 be cf 51 3d b8 ba 88 bd b9 1a 85 3e 7b 9b 69 be
       0.05122351 -0.06676239 0.2599695 -0.22813217

vertex_lin.2.weight f4 [32, 32, 1, 1]
000000 29 af a7 bc ec b8 ad 3c 48 6f 7d 3d 42 a5 25 3e
       -0.020469265 0.021206342 0.061873704 0.16176322
000010 5f 2c fa 3d 4e 0d 77 3e 42 b4 7d 3d 62 75 44 be
       0.12215494 0.24126169 0.061939485 -0.19185403
000020 20 9d b0 3e f9 28 1d 3e 8c 86 b5 bd 29 11 a0 3e
       0.34494877 0.15347661 -0.088635534 0.31263092
000030 f0 4e 71 3d e8 92 2e 3e 6e be 0b 3d d2 f3 7e be
       0.05891317 0.17048228 0.034117155 -0.24897698
000040 dd e6 c6 3e 29 14 8e 3e 38 14 12 3d 6b 02 1c 3e
       0.3884801 0.27749756 0.035663813 0.15235297
000050 0b 59 25 3e 00 64 94 3d 2f 81 54 bd 26 6b 75 3e
       0.16147248 0.07245636 -0.05188101 0.23966655
000060 5f 72 69 be 86 31 2c 3b 52 fe ad bc 58 12 b0 bd
       -0.22797535 0.0026274635 -0.021239433 -0.08597249
000070 50 cb 11 be a5 17 0c be bc 3e ea 3d c2 70 89 be
       -0.14237714 -0.13680895 0.11437747 -0.2684384
000080 54 13 1e be 89 a2 e9 be d7 cf 83 be 4e fb 19 3e
       -0.1543706 -0.45631817 -0.25744507 0.15037271
000090 bb 99 a1 be 7a c7 1c be b6 d4 9a be 82 15 92 be
       -0.315626 -0.1531047 -0.3024041 -0.28532034
0000a0 bd b0 af be 98 3f e1 3d 91 cf 8f be e8 a6 0f bf
       -0.34314528 0.10998458 -0.28088048 -0.56114054
0000b0 80 a8 4c bf 63 d1 05 be 3c cb 14 3d 0f ac 02 3e
       -0.7994461 -0.13068156 0.036326632 0.12760948
0000c0 cc a7 b1 3e be af 8c bd 67 86 a7 bd dd 45 0f bf
       0.3469833 -0.06869458 -0.08179932 -0.5596598
0000d0 e7 d0 0e be 2c bb aa bb 19 7c 07 3f 4b 2d 90 3e
       -0.13946877 -0.005210301 0.52923733 0.28159556
0000e0 bb fb b3 3d b9 9e 11 bf 8b 11 fc bd 92 d2 37 be
       0.08788248 -0.56882817 -0.123080336 -0.1795142
0000f0 c7 26 44 bd 93 fc 5c bd a8 5e 45 3c 1f 86 be be
       -0.047888543 -0.05395181 0.012046494 -0.372117
000100 0a 02 24 3d 72 d1 86 3e 94 48 34 bd e8 97 61 3e
       0.040041007 0.2633167 -0.04401453 0.22030604
000110 df a0 4c be 34 07 aa 3e 76 78 aa be 76 57 e4 be
       -0.19983242 0.3320862 -0.3329503 -0.44597977
000120 10 5d 8d 3e c6 66 ee be a7 e3 66 be d7 f7 24 be
       0.27610064 -0.46562785 -0.2254778 -0.16110168
000130 50 36 a5 be a3 7d bc bd 10 71 86 3d b5 d2 3d be
       -0.32268 -0.09203651 0.06564534 -0.1853741
000140 09 06 42 3e b2 dd 8c 3e 97 73 13 bf 77 86 e3 be
       0.18947615 0.2751289 -0.5759825 -0.44438526
000150 b1 ad 09 bf 11 38 c7 bc 7e 0a 48 3d 17 fb 20 bf
       -0.5378066 -0.024318727 0.04883813 -0.6288313
000160 a9 07 16 3e 80 ef 26 3b 2b 25 19 bf f2 8f 57 be
       0.1465136 0.0025472343 -0.5982234 -0.21051005
000170 3d d3 a3 3d 22 8b 0e 3e 44 db 14 bf 63 73 96 be
       0.07999275 0.13920262 -0.5814707 -0.29384908
000180 ea da 74 3e 76 c3 6c be 2b 7d a9 3d 4e 7d ce bd
       0.23911634 -0.23121437 0.08275827 -0.10082494
000190 7f 7e 3e 3c 25 a6 32 3c f1 9b fb 3b f9 5b 28 3e
       0.011626839 0.01090387 0.007678502 0.16441335
0001a0 5a 98 2b be 54 98 06 bf 01 97 7b be 0e e4 5a bd
       -0.16757336 -0.52576184 -0.24569322 -0.053440146
0001b0 a6 d8 30 bd b1 0a b2 be 16 b8 75 3b 0a a3 4d 3e
       -0.043175362 -0.34773782 0.0037493757 0.20081726
0001c0 94 5d 0e be b4 22 47 3e 12 45 8b bc 86 76 33 bd
       -0.13902885 0.19446832 -0.017000709 -0.043814205
0001d0 9b 3c 13 bf cb ec ac 3e cf 25 12 bf 67 19 a8 be
       -0.5751435 0.3377441 -0.5708894 -0.3283188
0001e0 bc b9 10 bd 36 85 e3 3e c4 48 df bd 62 64 f4 bd
       -0.03533338 0.4443757 -0.10902551 -0.11933209
0001f0 b9 9e c2 3c 32 a2 1b 3f a4 83 17 3e 13 f2 c0 be
       0.023757325 0.60794365 0.1479631 -0.37684688
000200 ce f1 24 3e 85 b3 97 bb 9f 48 2c be b8 1a 0a 3d
       0.16107866 -0.0046295547 -0.16824578 0.033716887
000210 6a fb 87 3e 71 3e e8 be f3 35 16 bf 19 b0 37 be
       0.26559 -0.4536014 -0.5867607 -0.1793827
000220 0e 46 10 bf e9 0d 86 3c 6a 0c a1 3e 71 83 27 be
       -0.56356895 0.016364055 0.31454784 -0.16358735
000230 3d ba 81 3e 69 2f b1 be 10 bc 0e 3e 5f e2 dc be
       0.253374 -0.34606484 0.13938928 -0.43141457
000240 62 50 90 3e 21 1e cf be af 56 53 3e 5c f3 99 3d
       0.28186327 -0.40452674 0.20638536 0.0751712
000250 fc f0 fe 3d 27 9e b4 3d 99 ee 3f 3c 83 c3 f9 be
       0.12448308 0.08819228 0.011714601 -0.48781976
000260 10 f0 d3 bd 65 15 9f 3d b2 3c d3 3e a0 91 13 3d
       -0.10348523 0.077677526 0.41257244 0.03602755
000270 37 c5 37 bf 83 b3 65 bc ed 5e 88 bd 34 da bb 3d
       -0.717853 -0.01401985 -0.06658731 0.09172478
000280 3c bb 80 be 60 e0 d1 bd 87 18 11 3d 4d 4b 11 3d
       -0.25142848 -0.10247874 0.03542378 0.035472203
000290 f7 75 a4 bd 28 63 af 3e c8 e8 f3 3c 44 ac 4d bf
       -0.080303125 0.34255338 0.029774085 -0.8034098
0002a0 81 79 0f 3e b7 f7 f3 3c be 49 b1 3e 1b 72 12 bf
       0.14011194 0.029781206 0.34626573 -0.5720536
0002b0 24 83 1f 3e c9 4a b2 be da 31 aa be 55 b8 e9 3d
       0.1557737 -0.34822682 -0.3324116 0.11412112
0002c0 09 30 1c 3e cf a2 67 be 3c f0 1e bf 74 c6 8d bd
       0.15252699 -0.226207 -0.6208532 -0.069226176
0002d0 32 01 e1 be 0b 24 00 bf be e9 36 bd da 2e 5f 3e
       -0.43946224 -0.50055 -0.044656508 0.21795216
0002e0 4b a5 a3 3d b5 e8 73 bf 4b 04 77 bd b3 75 b0 bb
       0.079905115 -0.9527696 -0.06030683 -0.0053851246
0002f0 73 f9 a7 bd d2 47 53 be f8 81 df 3e 5d 65 43 be
       -0.082018755 -0.20632866 0.43653846 -0.19081636
000300 42 63 0e bf f3 9a eb be c6 cb 38 be ba 15 3d be
       -0.55620205 -0.46016654 -0.18046483 -0.1846532
000310 da cb ea be 6c 5f 92 be 36 fc 00 bf d7 4b 63 3e
       -0.4585865 -0.28588426 -0.50384843 0.221969
000320 b7 d0 45 be 68 73 08 be 8c 7c f9 3d 0d 1e 42 be
       -0.193179 -0.13325274 0.121819586 -0.18956776
000330 af 85 97 3d a6 7a 73 bd 03 09 f2 be 68 0c bc 3e
       0.07398545 -0.05944314 -0.472725 0.36728215
000340 56 5f 91 3e 14 f4 6f 3d 27 39 e4 be 19 a3 8e be
       0.28393048 0.05858238 -0.44574854 -0.2785881
000350 38 1d 06 3e d0 35 70 3e 0f 1b 4f 3e 1b 40 ca 3d
       0.13097084 0.23458028 0.20225166 0.098755084
000360 00 92 4f be 80 a3 4b be ad 5c 0c 3f 7a c3 1f 3e
       -0.20270538 -0.19886589 0.5482891 0.15601912
000370 9a 0d 11 3e 44 8e ee bd e1 7f 46 bd 58 97 8b be
       0.14165345 -0.11648229 -0.0484618 -0.27263904
000380 05 65 d0 3d 1a cf 71 3e ee 20 24 bf f8 f6 85 3e
       0.10175518 0.23614159 -0.64112747 0.26164985
000390 80 30 21 be 8f d3 bb 3d a1 cb 95 3d 45 8c 5e bd
       -0.15741158 0.09171211 0.0731423 -0.05433299
0003a0 72 ed 10 3e 49 f7 03 3e 3b c0 b5 bd 41 b3 36 3e
       0.14153078 0.128873 -0.08874556 0.17841817
0003b0 5d 9a 35 be 3a e1 3e 3d 90 aa d7 be dd 2a d9 3d
       -0.17734666 0.04660151 -0.42122316 0.10603879
0003c0 fc ef bb be a4 e1 39 3e f8 39 f1 bd 6e 82 c5 3e
       -0.3670653 0.18152481 -0.11778635 0.38576072
0003d0 0a ce 09 bd d5 43 bc bd 3c 70 d5 be 9a 45 06 3f
       -0.03364376 -0.091926254 -0.4168719 0.52449954
0003e0 96 c1 c6 be 8b 93 c6 be 88 d6 b9 be db 33 b2 bb
       -0.3881957 -0.3878444 -0.36296487 -0.0054383106
0003f0 a3 74 e4 3c d5 2b fc be 36 46 e6 be fd 70 bd be
       0.027887648 -0.4925219 -0.44975442 -0.37000266

vertex_lin.2.bias f4 [32]
000000 6d ff 3d be ea 34 d1 bd 25 f0 dd 3a 5a 81 99 bd
       -0.18554468 -0.10215171 0.001693253 -0.07495375
000010 00 79 58 3d ff 36 65 3e c7 f1 3d 3e 25 51 2d 3e
       0.05284977 0.2238426 0.18549262 0.16925485
000020 ca 41 b3 be ea 29 b6 bd 20 62 4b 3e 6e b3 82 be
       -0.3501113 -0.08894713 0.1986165 -0.2552752
000030 f8 55 2f be 5a ee 1a be 53 dc 17 bd ac 8d 8a 3e
       -0.17122638 -0.15129986 -0.037075352 0.27061212
000040 62 01 5d 3e 01 d5 3e be 13 56 7e be fb 9c 3c be
       0.21582559 -0.18635942 -0.24837522 -0.18419258
000050 fa 8e 37 be 3e 5d 5f 3e d8 9f 5e 3d ca 88 cf be
       -0.17925635 0.21812913 0.054351658 -0.4053405
000060 45 55 19 be ea 65 92 3e 66 4a 2b 3e d1 0c 47 3e
       -0.14973934 0.2859338 0.167276 0.19438483
000070 f1 1f 74 3d 0e 53 d5 bd 07 ce 39 3e 81 30 a3 bc
       0.059600774 -0.10416232 0.18145 -0.01992059

edge_lin.0.weight f4 [32, 1, 68, 1]
000000 46 da fa bc 0a bc 33 be 0d d3 87 bd 07 ec 69 bf
       -0.030621659 -0.175522 -0.066320516 -0.91375774
000010 52 07 55 3e 2c 25 21 3f e7 5d 4a bd 1b ec 53 3e
       0.20803574 0.62947345 -0.04940596 0.20695536
000020 99 44 84 be 12 35 f8 be 15 b4 41 be ce 42 5a 3d
       -0.25833586 -0.4847799 -0.18916352 0.053286366
000030 86 41 27 3e 7f 33 ec bc a7 f6 3b be fd 7a cd 3c
       0.16333589 -0.028833149 -0.18355809 0.02508306
000040 ec 41 c1 3d 1c cf 06 be d4 39 68 3e 0d 61 fb bd
       0.09436402 -0.13164943 0.2267831 -0.1227437
000050 10 36 4e be 3b 2e a5 3e 7f e4 b3 be 3b 3f e8 3d
       -0.2013781 0.32261834 -0.35135266 0.11340185
000060 77 3d e7 3c a9 fc eb 3e d9 8b b8 3e 00 3d 45 be
       0.02822755 0.46091202 0.36044195 -0.19261551
000070 99 99 19 3e fe 91 c0 3d cc f5 c1 bd 6b fb 87 3e
       0.14999999 0.09402846 -0.0947071 0.26559004
000080 b9 6f 90 bf b2 e3 2d 3e 3f 7d a4 bd ba 8f cb 3d
       -1.1284095 0.1698139 -0.08031701 0.09939523
000090 44 86 0b 3e 02 65 12 be 09 ec 14 3e b2 24 11 3f
       0.13625437 -0.14296344 0.14543165 0.5669662
0000a0 98 ee 8c 3b 68 22 5c bd 31 35 37 bf bb f4 6c be
       0.0043009035 -0.05374375 -0.7156554 -0.23140232
0000b0 f9 cf c1 be 1a 52 df 3c 2c 89 ec 3d 5d ca f3 3c
       -0.37853983 0.027260829 0.11549601 0.02975958
0000c0 9f cf d5 be 6a 1d 2a 3e da 1b 64 3e ba 09 91 3e
       -0.41759965 0.16612783 0.2227625 0.28327733
0000d0 51 ee 4e 3d 77 d5 2f bf 3b 17 ac be fe 3e d9 3d
       0.050520245 -0.68685097 -0.33611473 0.10607718
0000e0 80 78 b6 be 68 63 80 bb f5 21 8e 3b 45 e4 db 3e
       -0.3563881 -0.0039181 0.004337544 0.42947593
0000f0 9a 30 84 3e 43 1e ce bc a8 8f d6 3e 6d 82 4e be
       0.2581833 -0.025160914 0.41906476 -0.20166941
000100 42 72 8d 3e d3 64 8d 3e 81 98 c4 be 89 4c 9d 3d
       0.27626234 0.27615985 -0.383976 0.076806135
000110 9a 9d 6a be 46 b0 7d 3e d4 3e 32 3e df f2 39 3e
       -0.22911683 0.24774274 0.1740678 0.18159054
000120 34 b8 b4 bc 64 a6 4e 3c 4b 05 c5 3d 0e 34 af bd
       -0.022060491 0.012612913 0.0962015 -0.085548505
000130 31 aa 1c 3f 18 76 31 3e f1 97 a2 be 9a 4e db bc
       0.6119719 0.17330205 -0.31756547 -0.026770879
000140 a0 21 a1 be 74 e0 9c 3e b2 09 31 3e da 55 dc 3d
       -0.31470966 0.30639994 0.17288855 0.107585624
000150 68 0d cf bc d0 98 87 3e 24 d0 f4 3d 97 d3 20 be
       -0.025274947 0.26483774 0.11953762 -0.15705715
000160 06 1b c9 3d 1e 89 b6 3d 8a 98 7a bd 80 53 f0 bd
       0.098196074 0.08912872 -0.06118063 -0.11734676
000170 a6 30 b7 bd ce f7 94 3e fc 9c 1e be d9 04 d0 bd
       -0.08944826 0.2909531 -0.15489572 -0.101571746
000180 37 cb 31 be b4 cf a1 3d 2a 7b 1c be f9 b5 6d bf
       -0.17362677 0.07900944 -0.15281358 -0.92855793
000190 e5 ba 06 3f 5c ee e1 bc 1a 86 f4 bd cf a9 af 3d
       0.5262893 -0.027579479 -0.1193964 0.0857731
0001a0 3e cb 6e be 10 c2 db 3c 43 14 fb 3c 29 8b 61 3e
       -0.23319718 0.026825935 0.03064931 0.22025742
0001b0 30 52 88 3c 06 d9 ad bd b7 aa b6 3d e4 2a 48 3e
       0.016640753 -0.084886596 0.0891928 0.19547611
0001c0 56 d8 be bd d5 50 7a be 2b 8a 02 3d 30 fe 2f bc
       -0.093186066 -0.24444897 0.03187005 -0.010741755
0001d0 57 af 9e 3d 89 01 41 be 84 01 5c bc b2 1f fc bd
       0.07748287 -0.18848242 -0.013428096 -0.12310733
0001e0 ae ab cd bc 9d 3d 89 3e 12 73 8e be 9f 75 81 3e
       -0.025106277 0.2680482 -0.27822167 0.2528505
0001f0 c2 b4 c3 bd 17 f6 29 be 31 7c 35 3d d8 4b d0 3d
       -0.09555961 -0.16597782 0.04430789 0.10170716
000200 e6 c9 1c bc 62 8d c7 be be 92 6b 3e 14 fd 92 bd
       -0.009569621 -0.38975054 0.23005196 -0.07177177
000210 07 56 80 be f1 51 fe be f2 59 cd 3e 94 23 91 bd
       -0.25065634 -0.4967189 0.40107685 -0.07086864
000220 3c c8 ba 3d 8c c6 2b be 25 d0 dc 3e df 45 0a 3e
       0.09120223 -0.16774958 0.43127552 0.13503216
000230 5c 67 4c bf e2 92 4c be c7 c4 5b 3e b6 83 ae 3c
       -0.79845214 -0.19977906 0.21461783 0.021303039
000240 33 e5 e7 3e 53 8c 0e 3d b1 30 7e bf 50 12 86 bd
       0.45292053 0.034801792 -0.9929305 -0.065464616
000250 5a 89 c9 3c 61 28 43 bc 9a e5 1f 3e fb 9f 01 3e
       0.024601627 -0.011911483 0.1561493 0.12658684
000260 7c c6 56 be f4 de 6f 3e 1c 2a 00 be 64 18 c4 be
       -0.20974153 0.23424894 -0.12516063 -0.3829986
000270 f2 b5 33 bd a3 98 92 be 8a 22 0c 3e 64 21 cb 3e
       -0.04387469 -0.28632078 0.1368505 0.39673913
000280 24 28 1c 3d 90 ca 25 bf ce 57 14 be 0c 1a e2 be
       0.03812422 -0.6476221 -0.1448662 -0.44160497
000290 d4 be 2a bc a4 53 c4 be c1 4f 0a 3c f4 59 86 bd
       -0.0104214735 -0.38345063 0.008441866 -0.06560126
0002a0 e5 fe 31 3e 38 bf e2 bc aa 03 99 3e 50 c3 d5 be
       0.17382391 -0.02767907 0.29885608 -0.41750574
0002b0 40 f4 89 be 7a 32 78 3c f2 65 db be e0 13 b6 be
       -0.2694416 0.015148753 -0.42851216 -0.35562038
0002c0 ac e8 42 3e 47 93 b3 3e 87 0c 09 3e 39 56 e5 3c
       0.1903407 0.350733 0.13383685 0.027995216
0002d0 0f 48 1f bf 53 e4 10 be f1 5c f5 3d a7 f2 5c bc
       -0.6221933 -0.14149599 0.11980618 -0.013485587
0002e0 81 95 b7 3e ad 92 0a 3e 67 f0 a8 be 23 8b 10 be
       0.3585625 0.13532515 -0.32995912 -0.14115576
0002f0 24 78 3d be bd b8 88 be 1b cd cf 3d 44 a3 59 be
       -0.18502861 -0.26703444 0.10146543 -0.21253687
000300 51 3a 64 3d 01 93 8d 3e 94 0e 1b 3c d4 62 c3 be
       0.055719677 0.27651218 0.009463925 -0.38161337
000310 0d b1 68 3d 82 d0 5a bf 3b 86 a6 bb cc b6 01 bf
       0.056809474 -0.8547441 -0.0050819195 -0.5066955
000320 85 3d 1f be 08 26 95 3e c4 a0 ae be 52 21 c9 3e
       -0.15550812 0.29130578 -0.3410703 0.39283234
000330 13 61 b7 be 92 d2 9d 3d ef 97 ce be ef 28 7c be
       -0.3581625 0.07706179 -0.4035029 -0.2462499
000340 44 7d 86 bd 05 f0 d0 3e 53 5e 94 3e 4b e3 97 3b
       -0.06566861 0.4080812 0.28978214 0.0046352497
000350 4d 5e 36 3e 42 97 24 bf 0e de 19 3e 59 38 d9 be
       0.1780941 -0.642933 0.15026113 -0.42425802
000360 bd e0 b5 be ed 26 ba be 3c 81 38 be 0e 10 b9 3e
       -0.35523024 -0.36357823 -0.18018049 0.3614506
000370 23 49 59 3e ef 65 15 be 95 cf 86 be 06 ca 33 3d
       0.21219306 -0.14589666 -0.26330248 0.043893836
000380 aa a9 44 bf 94 a7 55 3e 16 95 a7 bc 46 2c ee be
       -0.76821387 0.20864707 -0.020456832 -0.46518153
000390 29 c8 4c 3e 74 71 0a 3f 45 c8 ad bd 05 89 ec bd
       0.1999823 0.54079366 -0.08485464 -0.11549572
0003a0 b6 99 78 be 36 3a 25 3e 2c 38 5b 3e 88 90 72 3e
       -0.24277386 0.16135487 0.21408147 0.23687947
0003b0 3a 4f cc 3e c0 41 28 3e 45 7f a8 be 71 c4 fd bc
       0.39904195 0.16431332 -0.329096 -0.03097746
0003c0 21 1b a4 3e 8c 2c 64 3e ca 77 b6 3c d8 ba ba 3e
       0.32051948 0.22282618 0.022273917 0.36470675
0003d0 94 3c ef 3e 96 da 57 be bc a4 cf 3e ef 68 81 be
       0.46725905 -0.21079478 0.4055537 -0.2527537
0003e0 3d 71 f9 bd 63 7e 55 be cb 78 bd be 0b aa df 3d
       -0.121798016 -0.20848994 -0.3700622 0.10921105
0003f0 d5 5a 24 3e fb 97 8f ba d1 d9 05 3e c8 d8 a8 3d
       0.16050275 -0.0010955328 0.13071372 0.08244473

edge_lin.0.bias f4 [32]
000000 01 61 d2 3b 0d 1c 40 3e 7f 2d 6a 3e d7 b0 86 3c
       0.006420255 0.187607 0.22868918 0.016441746
000010 91 fd db bd 49 36 1c 3e 2a c7 e5 3d 7a 46 69 3e
       -0.10741723 0.15255083 0.11219628 0.22780791
000020 a9 39 bd bd c8 08 0a 3e 99 98 ef bd 4c 3a 99 bd
       -0.092395134 0.13479912 -0.116990276 -0.07481822
000030 80 da 9b 3b 18 6e 39 3e 53 06 0a bd 81 6b f2 3d
       0.004756272 0.18108404 -0.033697437 0.11836911
000040 6f 17 c0 bd 71 6b 11 bd 6f 79 40 bd aa da 8c be
       -0.093794696 -0.035502855 -0.046990808 -0.27510577
000050 6a fc 02 3d 17 f7 15 bd 0b 7f 01 3e 9c 88 ac bc
       0.031979002 -0.036612596 0.1264612 -0.021061234
000060 66 51 9b 3d 1c 04 98 3d 13 f1 ca bc 5b 02 56 3e
       0.07583885 0.07422659 -0.024773156 0.20899336
000070 01 a1 b0 bb 83 92 cf bd ba e2 da bc 72 04 01 3e
       -0.005390287 -0.10135367 -0.02671944 0.12599352

edge_lin.2.weight f4 [32, 32, 1, 1]
000000 8c d1 42 3e 10 36 33 be 8d ab 03 bf 85 4b bf 3e
       0.19025248 -0.17501092 -0.5143364 0.37362304
000010 87 38 49 be 7a a4 a7 3e 1d 2b 48 3c 07 23 0c bf
       -0.1965047 0.32742673 0.01221731 -0.5474095
000020 03 e0 03 be ca 40 08 be 79 f6 7b 3f 3f 2e a1 3e
       -0.12878422 -0.13305965 0.9842296 0.31480595
000030 5e 3d 29 3f 77 a3 ee bd ca 51 38 3d 8c 2b 03 bf
       0.66109264 -0.11652272 0.044999875 -0.5123832
000040 54 98 4f 3f 43 c4 46 be 98 a4 9e 3e e1 d3 d5 be
       0.8109181 -0.19410805 0.3098495 -0.41763213
000050 5f a2 eb 3e 64 72 0b 3e 18 4d 8a 3e 88 03 d2 3d
       0.46022317 0.13617855 0.27011943 0.1025458
000060 70 e6 ca 3e 70 10 be 3e e3 ba 09 3f bf ae 39 3e
       0.39628935 0.37121916 0.5380079 0.18133067
000070 aa a6 65 be 1b 15 26 3f e3 0b 25 3f d2 90 e3 3e
       -0.22426859 0.64875954 0.6447126 0.44446427
000080 b8 3d fa 3c 18 a0 a7 3c 45 e5 db be bf 95 9f 3e
       0.030547008 0.02046208 -0.42948356 0.31168935
000090 d5 a0 25 be ea 06 f1 3e b0 47 90 3e 14 23 00 bf
       -0.16174634 0.47075588 0.28179693 -0.50053525
0000a0 b7 c6 0b be aa 25 dc be c9 c9 81 3f 5e 9c 14 3e
       -0.13650022 -0.42997485 1.0139705 0.14512774
0000b0 36 22 49 3f 6a 0c 37 bd d9 15 4a 3e 13 96 dd be
       0.78567827 -0.044689573 0.19734897 -0.4327856
0000c0 e1 55 67 3f f8 a4 4e bb 4b 36 ce 3e 53 a7 d3 be
       0.90365416 -0.0031531435 0.40275797 -0.41338596
0000d0 9e 3b b1 3e 05 9d 92 3e 02 ea 6b bd 8f b9 95 3e
       0.34615797 0.2863542 -0.057596214 0.29243132
0000e0 d0 02 c0 bd c4 49 b8 3e 16 32 45 3f 68 75 72 3e
       -0.093755364 0.3599378 0.7702955 0.236776
0000f0 73 79 8c be 18 2d 36 3f 86 5a 20 3f 55 c0 1d 3f
       -0.27436408 0.7116256 0.6263813 0.616216
000100 f7 1e e8 3e 4e 43 01 3e ab 1a cc bd d6 63 90 3e
       0.45336124 0.12623331 -0.09966024 0.2820117
000110 78 25 90 3e 9f 3a f5 3e 9b 45 b3 bc a8 ae 24 3f
       0.28153586 0.47896287 -0.021883776 0.64329004
000120 05 41 87 3e aa 8d 90 bc 29 bf e4 be 0b c8 c8 3d
       0.26416793 -0.017645676 -0.44677094 0.0980378
000130 27 06 85 be 70 52 b9 3e 83 d8 a1 be 8c 97 92 bc
       -0.25981256 0.36195707 -0.31610498 -0.017894529
000140 15 33 70 bd c8 24 cb 3b 1c e0 d6 bc 65 e2 be bb
       -0.058642466 0.006199453 -0.02622991 -0.005825328
000150 b4 4f 1e 3e 04 2e e0 3e b0 48 5e bd ad 29 8d 3d
       0.15460092 0.43785107 -0.05426854 0.06892715
000160 e0 f7 ec bd 7c e8 0e be dc 1f ac be 91 f9 08 3e
       -0.11570716 -0.13955873 -0.33618057 0.13376452
000170 68 74 a6 be ba 80 f8 be 96 a1 8a be b7 de 64 bf
       -0.32510686 -0.4853571 -0.27076405 -0.89402336
000180 4e 78 dc 3d d3 05 c8 be ed b3 6b be 77 0b b6 3e
       0.10765134 -0.39066944 -0.23017855 0.35555622
000190 31 35 1e bc c8 e6 93 3d 41 29 55 3e fe 5f 34 3e
       -0.0096562365 0.072217524 0.20816518 0.17614743
0001a0 dc 06 77 bd d2 2a be 3d ee 06 83 3f 04 9e ad 3d
       -0.060309276 0.09285511 1.023649 0.08477405
0001b0 6b b1 7d 3f 25 16 26 3e 00 07 12 3d e6 04 b8 be
       0.99098843 0.16219385 0.035651207 -0.35941237
0001c0 c6 99 3f 3f ad ae 5b be d3 d1 0e 3f b5 3a 9d be
       0.74844015 -0.21453352 0.55788916 -0.30708852
0001d0 ab 2c 0c 3e 8e ea a6 3e c9 09 81 3c b6 b4 8a 3d
       0.13688914 0.32600826 0.015751736 0.06772749
0001e0 ab 72 d4 3e 21 a9 1b 3f 28 b6 6e 3f a4 48 9c 3c
       0.41493735 0.60804945 0.932467 0.019077606
0001f0 5b 1f c5 be ba 70 23 3f 95 d0 57 3f 00 a9 c7 be
       -0.38500485 0.6384388 0.84302646 -0.38996124
000200 af 4d 09 3e c9 11 c4 3d a3 60 bf be f0 3d dd 3e
       0.1340854 0.09573705 -0.37378415 0.43211317
000210 e3 dd fc 3d 11 02 5d 3e f1 da 21 3d 5d b3 f4 bd
       0.12347009 0.2158282 0.03951544 -0.11948273
000220 1f dd 63 be 34 2d ee bd dd 01 98 3f 74 e6 59 3e
       -0.2225232 -0.116297156 1.1875569 0.21279317
000230 84 4a 57 3f f7 3c 06 3f d9 e5 31 be 4f d2 f9 be
       0.84098077 0.52436775 -0.17372836 -0.48793265
000240 56 7c 66 3f 05 64 95 bd 81 c4 8b 3e 01 0e 9f be
       0.9003347 -0.07294468 0.27298358 -0.31065372
000250 6a fa 3e 3e a5 1f 09 3e 76 e3 84 3e 4c 54 a3 3e
       0.18650213 0.13390978 0.2595479 0.3190025
000260 5a d7 d5 3e 38 4e bf 3e 33 7f 3d 3f 4b 66 47 3d
       0.41765863 0.37364364 0.74022216 0.04868154
000270 2a 4a 0e bf 51 0b 27 3f e5 92 29 3f 3c e2 da be
       -0.55581915 0.6525164 0.6623977 -0.42750728
000280 0c 90 9d 3e 74 56 a0 3e b7 49 5a be b4 90 bc 3e
       0.30773962 0.31315958 -0.21317182 0.3682915
000290 2b 6f ab 3e 9c d2 f5 3e b0 92 c3 bd c7 2c ae 3e
       0.33483252 0.48012245 -0.09549463 0.34018537
0002a0 84 e5 ba 3c 05 ac 17 3e c2 48 60 be 2b 9b 6e 3e
       0.02281452 0.14811714 -0.21902755 0.2330138
0002b0 03 4f dc bd 36 a4 38 3e a7 42 19 3d 4a bc e8 3d
       -0.10757258 0.18031392 0.03741708 0.11364038
0002c0 f6 b1 d1 3d 9b 37 d0 bd 26 64 82 bf d1 5e 8b be
       0.102390215 -0.10166856 -1.0186813 -0.27220777
0002d0 8c d2 ab 3e ce b8 8b 3e d4 41 05 be e6 5f e5 3e
       0.33559072 0.27289432 -0.13013393 0.44799727
0002e0 fd 19 94 be 22 56 ed be 1e 5f 91 be e5 49 fe 3e
       -0.28926077 -0.46354777 -0.2839288 0.49665752
0002f0 8b 40 4a 3e 26 35 83 bc 7f 78 95 be e7 21 21 be
       0.19751184 -0.016016554 -0.29193494 -0.15735589
000300 ec 88 48 3e c8 8f 87 bd 96 68 3d bf 32 1a b2 3e
       0.19583482 -0.06619221 -0.7398771 0.3478561
000310 47 f9 f5 bd dd 73 82 3e 72 26 f9 bd 49 6a c4 be
       -0.120104365 0.25479022 -0.12165536 -0.3836234
000320 d1 2d 15 be 6b 88 9f 3c 83 39 90 3f 00 b1 ad bd
       -0.14568259 0.019474229 1.1267551 -0.08481026
000330 bd 54 5d 3f 57 5e 98 3e 89 8e 7a be 0b 92 9a be
       0.86457425 0.29759476 -0.24468435 -0.30189547
000340 3d d0 48 3f ce 08 b4 be 6c ce ad 3e fe 16 63 be
       0.78442746 -0.35162967 0.3394655 -0.2217674
000350 3a 9b 9f 3e 5f f1 81 3e 43 89 c6 3e d7 bb 06 3f
       0.31173116 0.25379464 0.38776597 0.5263037
000360 5d 75 85 3e a4 6a a3 3e 50 79 3a 3f aa 61 94 3d
       0.26066104 0.31917298 0.7284136 0.072451904
000370 a7 04 09 bf d7 8f fb 3e 11 f6 32 3f 61 8a 0a be
       -0.53522724 0.4913318 0.6990672 -0.1352935
000380 e2 0a 23 3e 6a 45 6d bd 57 ee b8 be c9 5f b3 3e
       0.1592212 -0.057927527 -0.3611934 0.35034016
000390 21 03 80 3d ec 20 80 3e 85 40 4f 3c 1a a4 35 be
       0.06250597 0.25025117 0.01264966 -0.17738381
0003a0 b9 3c d7 bd 81 45 30 be 87 aa 90 3f 7e e3 29 3d
       -0.10509629 -0.17214014 1.1302041 0.04147672
0003b0 11 4e 31 3f 17 f5 b5 3e 58 5a b0 3d 42 84 29 be
       0.69259745 0.3553855 0.08610982 -0.16554359
0003c0 28 b7 2d 3f d0 f0 85 be aa 30 ac 3e b1 31 42 be
       0.678576 -0.26160288 0.33630878 -0.18964268
0003d0 40 db ca 3e ef 15 8d bc 6e 7e 32 3e 0c 49 75 3e
       0.396204 -0.017222373 0.17431042 0.23953646
0003e0 bf 9a 8d 3e 80 ce f2 3e b0 e8 48 3f 20 9d 1c 3e
       0.27657124 0.47423172 0.7848005 0.15294313
0003f0 01 a9 d2 be e1 91 d6 3e 78 16 55 3f 69 e7 e5 3e
       -0.41144565 0.41908172 0.8323741 0.44903114

edge_lin.2.bias f4 [32]
000000 90 b0 02 3e de 4d cf bd c8 d2 40 3e 00 85 76 be
       0.12762666 -0.10122274 0.18830407 -0.24074173
000010 8e 32 77 be 32 73 c5 3b 39 2a cb bd 18 c2 a9 bd
       -0.24140379 0.0060256952 -0.09920163 -0.082889736
000020 bc 4e 01 be 95 bf 1f bd 0a 00 92 be 7e 0b 9f bd
       -0.12627691 -0.039001066 -0.28515655 -0.07765864
000030 37 07 92 be 77 6d 41 3e 47 bd 82 3d 62 36 42 3e
       -0.2852113 0.18889414 0.06383758 0.18966058
000040 43 57 86 3c 9f 10 76 be 87 b3 24 bc 6d e2 20 bd
       0.016399032 -0.24029778 -0.010052568 -0.039278436
000050 6b 5a b3 3d 23 4e 9c bd 15 85 e2 bd e0 b1 0f 3e
       0.0875748 -0.07632091 -0.1106054 0.14032698
000060 17 0c ed 3d 27 e2 ac 3d 96 7c 3a be ff 11 9c 3d
       0.115745716 0.08441573 -0.18211588 0.0762062
000070 d1 8d e2 3c 9d bb d9 bd ae e4 22 be 73 d8 17 3d
       0.027655514 -0.106314875 -0.15907547 0.037071656
