reachability_classification/weights/Separateq0qgqkckMultiplePassGNNReachabilityNet_epoch_16.pt (torch_old, 53383 bytes, 26 tensors)

x_lin.0.weight f4 [8, 1, 1, 2]
0	0x3e24f761	0.16109993
1	0xbdf47654	-0.11936632
2	0xbea971ba	-0.3309458
3	0xbf5f3359	-0.87187725
4	0x3d39e7ae	0.045386963
5	0x3f4dde67	0.80417484
6	0xbeb5fec9	-0.35545948
7	0x3ec9178b	0.39275774
8	0x3e3823b0	0.17982364
9	0xbf118df7	-0.56857246
10	0xbf101865	-0.56287223
11	0x3e364bfa	0.1780242
12	0xbebc5971	-0.36786988
13	0xbdb4d488	-0.088295996
14	0xbf068e60	-0.52560997
15	0x3e8db00e	0.27673382

x_lin.0.bias f4 [8]
0	0x3ec47050	0.38366938
1	0x3f284e36	0.6574434
2	0xbf012201	-0.5044251
3	0x3ed50bf7	0.4161069
4	0xbe843abb	-0.25826058
5	0x3f599d52	0.85005677
6	0xbebf1dc8	-0.3732741
7	0x3db08b2a	0.086202934

y_lin.0.weight f4 [8, 1, 1, 2]
0	0x3f32590a	0.6966711
1	0x3df871c7	0.12131076
2	0x3f170c5c	0.59003234
3	0x3eb6892b	0.35651526
4	0xbb7627a9	-0.003756026
5	0x3f7816d4	0.9690983
6	0x3f022791	0.50841624
7	0xbf01cef7	-0.5070643
8	0xbd9de5c6	-0.077098414
9	0xbf258092	-0.6464931
10	0xbdd0eeba	-0.102017835
11	0xbdb83a6e	-0.089955196
12	0xbf2b98a3	-0.6702978
13	0x3e15654f	0.14589427
14	0x3ee9b23f	0.45643803
15	0x3df5d4a0	0.120034456

y_lin.0.bias f4 [8]
0	0xbf098fb4	-0.537349
1	0x3f0476d6	0.5174383
2	0xbe7a8831	-0.24466015
3	0xbe39efb2	-0.18157843
4	0xbcd7cf05	-0.026343832
5	0xbeb71ea5	-0.35765567
6	0x3f1b5af4	0.6068566
7	0x3e40c14c	0.18823737

th_lin.0.weight f4 [8, 1, 1, 2]
0	0xbc38f0c5	-0.011287873
1	0x3d83c1cc	0.06433448
2	0x3ec59d2a	0.3859647
3	0x3ebc2df2	0.36753803
4	0xbd4d1f33	-0.050078582
5	0xbfc5e947	-1.5461816
6	0xbe97c358	-0.29641223
7	0x3ec56b8b	0.3855861
8	0x3eb72427	0.3576977
9	0xbf0a136b	-0.5393588
10	0xbebe8834	-0.3721329
11	0xbeec2128	-0.46119046
12	0x3ef54e26	0.47911185
13	0x3ecc03b0	0.39846563
14	0xbced2741	-0.028949382
15	0xbfc92243	-1.5713581

th_lin.0.bias f4 [8]
0	0x3ea21f98	0.3166473
1	0x3d750d04	0.059826866
2	0x3d910fe7	0.07083111
3	0xbedb66c5	-0.42851844
4	0x3e48d196	0.196112
5	0xbf001735	-0.5003541
6	0xbf57f983	-0.843651
7	0x3c430d73	0.011905062

config_lin.0.weight f4 [32, 24, 1, 1]
0	0x3eba2c6c	0.36362016
1	0xbe8416ea	-0.25798732
2	0xbeb42c7b	-0.35190186
3	0xbe0e47c3	-0.13894562
4	0x3e98380f	0.2973027
5	0x3dc5dd28	0.09661323
6	0xbe6a4d5f	-0.22881077
7	0x3e87d855	0.26532236
8	0xbe190ab6	-0.14945492
9	0xbefe2b63	-0.49642476
10	0xbdaf4e83	-0.08559897
11	0x3e8e394a	0.27778083
12	0xbd72d608	-0.059286147
13	0xbe5fd03e	-0.21856782
14	0xbeec24e5	-0.46121898
15	0xbebf87c2	-0.37408262
16	0x3e58180e	0.21102926
17	0xbe431941	-0.19052602
18	0x3e494fb2	0.19659308
19	0x3d074be4	0.03303136
20	0x3e356722	0.17715123
21	0x3e4f6d4f	0.20256542
22	0x3e07e954	0.13272601
23	0x3f1df91c	0.61708236
24	0xbd86c470	-0.06580436
25	0xbb635250	-0.0034686513
26	0x3e1c9ce8	0.1529423
27	0x3e98bac1	0.29829982
28	0x3deeb3d3	0.116553925
29	0x3e85afd3	0.26110706
30	0x3e1b06bf	0.15139292
31	0x3dd55f3f	0.104185574
32	0xbe94b947	-0.29047605
33	0xbe4b6d4e	-0.19865915
34	0x3eb0269d	0.3440446
35	0xbe11aee0	-0.14226866
36	0xbb35dbf9	-0.0027749522
37	0x3d3630b1	0.04448003
38	0x3e83c166	0.2573349
39	0xbe21e10e	-0.15808508
40	0x3e37b0ec	0.17938584
41	0xbd237d80	-0.039914608
42	0x3e07c448	0.13258469
43	0xbdbed1da	-0.0931737
44	0xbda1d130	-0.079012275
45	0x3d86326e	0.065525874
46	0xbe02a4ce	-0.1275818
47	0x3ef1624f	0.47145316
48	0xbcf39734	-0.029735185
49	0x3e30044f	0.17189144
50	0xbdffe5f8	-0.12495035
51	0x3dafb010	0.08578503
52	0xbe9fbf43	-0.3120061
53	0xbd4fc183	-0.050721657
54	0xbc8a52cd	-0.016885186
55	0xbce6d9b0	-0.028179973
56	0x3de5dd7e	0.11223887
57	0xbe302f39	-0.17205514
58	0x3c70e969	0.014704087
59	0x3da698c4	0.081346065
60	0x3e92415c	0.2856549
61	0x3e813bf7	0.25241062
62	0xbdee8815	-0.11647049
63	0x3da3a6b8	0.079907835
64	0x3d4956d4	0.04915507
65	0x3c445de7	0.011985279
66	0xbea4257c	-0.32059848
67	0xbe3cdc1a	-0.18443337
68	0x3e1c8c99	0.15288009
69	0xbe271332	-0.16315916
70	0x3da10c86	0.07863717
71	0xbf06a1a0	-0.5259037
72	0xbe126d2d	-0.1429946
73	0xbca9961b	-0.020701459
74	0xbea7b4ca	-0.3275512
75	0xbea1932d	-0.315576
76	0xbe7d1445	-0.24714763
77	0xbe67ede6	-0.22649345
78	0x3d25aa30	0.040445507
79	0x3d1c7070	0.038193166
80	0x3dcf1490	0.10111344
81	0x3e2bc652	0.16774872
82	0x3dc28d4f	0.09499609
83	0x3e1b11f3	0.15143566
84	0x3d602ac2	0.054728277
85	0xbe848c0b	-0.25888094
86	0xbd88224e	-0.06647168
87	0x3caec60d	0.021334672
88	0xbd892e62	-0.066983
89	0x3dcc1aad	0.099660255
90	0xbd882745	-0.06648115
91	0x3dc334dc	0.095315665
92	0x3d9843f1	0.07434834
93	0x3d3ccc1b	0.046093088
94	0x3da4d9df	0.08049368
95	0xbe93a1c1	-0.28834346
96	0x3dfed6eb	0.12443336
97	0x3e12b436	0.14326558
98	0x3d945277	0.072422914
99	0x3e7a1dc0	0.24425411
100	0xbee537f7	-0.4476926
101	0x3e8bae2f	0.2728133
102	0xbe8ad25d	-0.2711362
103	0x3cbd4249	0.023102896
104	0x3dd6c493	0.10486712
105	0x3ece44c8	0.4028685
106	0xbde8e3d7	-0.11371582
107	0xbe6cea68	-0.23136294
108	0xbdb07987	-0.086169295
109	0x3d52135f	0.051288005
110	0xbe41af3a	-0.189145
111	0x3e2d4c55	0.1692365
112	0xbe331389	-0.17487921
113	0xbe69ce4e	-0.22832605
114	0x3f62360d	0.88363725
115	0xbe9ceecf	-0.30650946
116	0x3ec6a0c5	0.38794532
117	0x3f091b5b	0.53557366
118	0xbdc9ce51	-0.09853805
119	0x3fb63772	1.423567
120	0xbd115e26	-0.035490178
121	0x3e031eb1	0.12804677
122	0xbe671fab	-0.22570674
123	0x3d88c2e7	0.066778
124	0x3dbc702c	0.092010826
125	0x3e4e04c1	0.20119001
126	0x3e455699	0.19271316
127	0xbf09d749	-0.53844124
128	0x3d84543a	0.064613774
129	0x3cb7421c	0.02237039
130	0xbee7b428	-0.45254636
131	0xbf1b8afd	-0.60758954
132	0xbe23caae	-0.15995285
133	0xbdc5b06a	-0.09652789
134	0x3e4b62e7	0.19861947
135	0xbe923381	-0.2855492
136	0x3d2d0876	0.042244397
137	0x3d15ba22	0.036554463
138	0xbccf2d9d	-0.025290305
139	0xbda7baaa	-0.081899
140	0xbf18c896	-0.5968107
141	0xbe1a5d01	-0.1507454
142	0x3eb1445f	0.34622476
143	0xbdb9f511	-0.09079946
144	0x3d7d0440	0.06177163
145	0x3d7ab5f6	0.061208688
146	0x3e8a2008	0.26977563
147	0xbdf1eaa3	-0.118123315
148	0xbe9a14c8	-0.3009398
149	0xbe7a4c45	-0.24443157
150	0xbd965694	-0.07340732
151	0xbea1876d	-0.31548634
152	0xbdacfbdd	-0.084464766
153	0x3d0b27f3	0.033973645
154	0xbe716d5f	-0.23576878
155	0x3dfc99d3	0.12334027
156	0xbd7a875d	-0.06116425
157	0xbd4eb4d3	-0.050465416
158	0x3df92dcb	0.121669374
159	0x3da6a6fa	0.08137317
160	0x3dd73bc7	0.105094485
161	0xbe194421	-0.14967395
162	0xbea0671d	-0.3132867
163	0x3e2d094b	0.16898076
164	0xbe9bdf87	-0.30443975
165	0x3d8729b3	0.0659975
166	0x3deaa647	0.11457496
167	0xbf03c21f	-0.5146808
168	0xbd679a0a	-0.056543387
169	0xbdeeb6d9	-0.11655969
170	0x3e46d4e2	0.19417146
171	0xbca0e038	-0.019638166
172	0xbdd8f85c	-0.10594246
173	0xbe252cb6	-0.16130337
174	0x3e23027d	0.15918918
175	0xbcbe25f7	-0.023211462
176	0xbd5e4ba9	-0.054271374
177	0xbe57bef8	-0.21068943
178	0x3e2b8be0	0.16752577
179	0x3d9da053	0.07696595
180	0x3e517f3d	0.20458694
181	0x3e8df9bd	0.27729598
182	0xbd6b50a4	-0.05744995
183	0xbeb616a6	-0.35564154
184	0xbe0855e4	-0.13314015
185	0xbe2c84e9	-0.16847576
186	0x3d89b9f6	0.06724922
187	0x38dde2d5	0.00010580352
188	0x3b6ac8d2	0.0035825265
189	0xbdaa14b0	-0.08304727
190	0x3dd4432a	0.10364373
191	0xbea90862	-0.33014208
192	0xbddecec8	-0.10879284
193	0x3f3f4d73	0.74727553
194	0xbe41f0cb	-0.18939511
195	0xbe912e11	-0.28355458
196	0x3c251956	0.010076841
197	0x3eaeb7d0	0.34124613
198	0x3e8b2a3b	0.27180657
199	0xbeb86a6a	-0.36018687
200	0x3dcb5fd4	0.09930387
201	0xbe1339eb	-0.14377563
202	0xbec1b472	-0.3783298
203	0xbeb99a9d	-0.36250773
204	0xbda76972	-0.08174409
205	0x3e224f79	0.15850629
206	0x3e461535	0.19344027
207	0x3e121c5d	0.14268632
208	0x3e37f201	0.17963411
209	0x3da8cf9b	0.082427226
210	0xbdbcb231	-0.09213675
211	0x3b36f139	0.0027914776
212	0xbf07db4f	-0.53069013
213	0xbeb2782b	-0.34857306
214	0xbdd2aae2	-0.102864996
215	0x3d40ec7c	0.04710053
216	0x3eb6da5d	0.35713473
217	0x3ef15e59	0.47142294
218	0xbe9c841e	-0.30569547
219	0xbe046b95	-0.12931664
220	0x3ea7a4aa	0.32742816
221	0x3e78ef77	0.24310099
222	0xbdac1fcd	-0.08404503
223	0x3e0c1454	0.1367963
224	0xbd81cc36	-0.06337778
225	0x3e4f1752	0.2022374
226	0x3e4f0ed4	0.202205
227	0x3e155578	0.14583385
228	0xbdb6bc3d	-0.08922622
229	0xbe7c0587	-0.24611484
230	0xbd52fc1e	-0.05150997
231	0xbe20d447	-0.15705977
232	0x3e108a43	0.14115243
233	0x3da8a83e	0.08235215
234	0x3eac624b	0.33668742
235	0x3e36ce8d	0.1785223
236	0x3e1b740b	0.15180986
237	0x3e2aceaf	0.16680406
238	0xbe7f9e95	-0.24962838
239	0x3ef4b90b	0.47797427
240	0xbeba71c5	-0.36414924
241	0x3e106c6d	0.14103861
242	0x3e80d2a3	0.25160703
243	0xbd812b52	-0.06307091
244	0xbf04c97f	-0.5186996
245	0x3df9d8fd	0.1219959
246	0x3c1ecc9e	0.009692339
247	0x3e61c1ec	0.22046632
248	0x3deab881	0.114609726
249	0x3dfdb755	0.123884834
250	0xbe5cd4dd	-0.21565576
251	0x3e14560a	0.14485946
252	0x3e422d58	0.1896261
253	0xbce6a496	-0.028154653
254	0xbe91ab68	-0.28451085
255	0x3e69557e	0.22786519

config_lin.0.bias f4 [32]
0	0x3db5d128	0.08877784
1	0x3e8471ad	0.25867978
2	0xbeb2a71e	-0.34893125
3	0x3dcefe55	0.10107104
4	0x3e512e43	0.20427804
5	0xbb95bc90	-0.0045695975
6	0x3cff8fd9	0.031196522
7	0xbe895a11	-0.26826528
8	0xbdda1d73	-0.10650148
9	0x3add0523	0.0016862493
10	0xbe6ecbd8	-0.23319948
11	0x3e330be3	0.17485003
12	0x3d231ac3	0.039820444
13	0x3dd8a61d	0.105785586
14	0x3c860c6a	0.016363341
15	0x3eaecac9	0.34139088
16	0x3d4b29a2	0.04960025
17	0xbd8eb198	-0.06967467
18	0xbe99a9d7	-0.3001239
19	0x3daa1a68	0.08305818
20	0x3d6d56fd	0.057944287
21	0xbdef9de6	-0.117000386
22	0x3d124207	0.0357075
23	0xbde22595	-0.110423245
24	0x3d8b1e34	0.0679287
25	0x3e26e12b	0.16296832
26	0xbdd56223	-0.10419109
27	0x3dce23b3	0.10065403
28	0x3e8e5c5c	0.2780484
29	0xbdf58b28	-0.119894326
30	0xbb98e399	-0.0046658036
31	0x3e0dfbdb	0.13865606

config_lin.2.weight f4 [32, 32, 1, 1]
0	0x3e27901a	0.16363564
1	0x3dd4538b	0.10367497
2	0x3d97254c	0.07380161
3	0xbdf39da2	-0.118953004
4	0x3eae7f02	0.34081274
5	0xbea54859	-0.3228176
6	0xbe6266a7	-0.22109471
7	0x3dbc1693	0.09183993
8	0x3d05b6a8	0.032644898
9	0x3d9ea6ba	0.07746644
10	0xbeb705fb	-0.3574675
11	0xbd82d7a9	-0.0638879
12	0xbe667bfe	-0.22508237
13	0xbee7f73b	-0.4530581
14	0xbe1e2d50	-0.15446973
15	0x3e0f8614	0.1401599
16	0xbe039c35	-0.12852557
17	0x3a67a2f5	0.0008836233
18	0xbe8681a2	-0.26270777
19	0xbd766c25	-0.06016173
20	0x3e4f5321	0.20246555
21	0x3e6750ea	0.2258946
22	0xbe8d0128	-0.27539945
23	0x3e15f905	0.14645775
24	0xbe0a2f1e	-0.13494536
25	0x3e915fa0	0.2839327
26	0x3e92c713	0.28667507
27	0xbd56fc89	-0.05248693
28	0x3ba07c73	0.004897648
29	0xbe656c18	-0.22404516
30	0xbd7a9f60	-0.061187148
31	0xbe881916	-0.2658164
32	0x3dd1ab58	0.10237759
33	0x3d773f12	0.060362883
34	0xbcfd4af6	-0.030919533
35	0xbe2b7833	-0.16745071
36	0x3f0272cc	0.50956416
37	0x3dc9005d	0.098145224
38	0xbecc2eae	-0.39879364
39	0x3e496008	0.1966554
40	0x3d9fdf0a	0.07806213
41	0x3cf9d17d	0.0304954
42	0xbd34b9b9	-0.04412243
43	0xbdaf73dc	-0.0856702
44	0x3dadd1fa	0.084873155
45	0x3da6750f	0.08127796
46	0x3c7a2d50	0.015269592
47	0x3c91c956	0.0177962
48	0xbe94e066	-0.29077452
49	0xbee70778	-0.45122886
50	0xbe32b28f	-0.17450927
51	0xbe9a197f	-0.30097577
52	0x3d852584	0.06501296
53	0x3e69c16f	0.22827695
54	0xbdd586f7	-0.10426133
55	0xbdc13926	-0.09434728
56	0xbe67e784	-0.2264691
57	0xbd4980ba	-0.04919503
58	0x3ec1512f	0.3775725
59	0x3e3472a5	0.17621858
60	0xbed3d372	-0.41372257
61	0xbe806fd6	-0.25085324
62	0xbcff718b	-0.031182071
63	0x3d975c03	0.07390597
64	0xbda91db9	-0.08257622
65	0x3dca81df	0.09888052
66	0xbd1d885a	-0.038460113
67	0xbd9fbf7e	-0.07800196
68	0xbdf4a966	-0.11946373
69	0xbdbea93c	-0.09309623
70	0xbcf21252	-0.029549751
71	0x3de5e8c2	0.11226036
72	0x3e1f0777	0.15530191
73	0xbe9da35b	-0.30788693
74	0x3e40b562	0.18819192
75	0x3c69f969	0.014280655
76	0x3cc09cb0	0.023512214
77	0x3dc2d027	0.09512358
78	0x3b202b0b	0.0024439718
79	0xbd8b8724	-0.068128854
80	0xbdab9577	-0.083781175
81	0xbdeff727	-0.117170624
82	0x3e218fee	0.15777561
83	0x3d55629c	0.052095994
84	0x3e128072	0.1430681
85	0xbc8642c5	-0.01638926
86	0xbd240662	-0.04004515
87	0xbe07b5cf	-0.13252948
88	0x3e0ba184	0.13635832
89	0xbe4d324c	-0.20038718
90	0xbb932298	-0.004490208
91	0x3e1110ad	0.14166518
92	0xbe96f88c	-0.294865
93	0x3dea6896	0.114457294
94	0x3d304fed	0.043044973
95	0xbcc7a763	-0.024371808
96	0x3e493629	0.19649567
97	0xbdc0162b	-0.09379228
98	0xbe2de834	-0.1698311
99	0x3d9de912	0.0771047
100	0xbeacc78a	-0.33745986
101	0x3e277fe8	0.16357386
102	0x3e1918d3	0.14950876
103	0xbe818345	-0.25295463
104	0xbe48f57c	-0.19624895
105	0xbd4e7246	-0.05040195
106	0xbe0e61d1	-0.13904501
107	0x3cbfd5e0	0.023417413
108	0xbf112b7e	-0.5670699
109	0xbd4ec332	-0.05047912
110	0xbe8a0feb	-0.2696527
111	0xbe0aa4b9	-0.13539399
112	0xbe534dba	-0.20635119
113	0x3e290937	0.16507421
114	0xbe09d80b	-0.1346132
115	0x3e5bfba8	0.21482718
116	0xbe627d3c	-0.22118086
117	0x3be8878a	0.0070962356
118	0xbe877f47	-0.26464292
119	0xbe15b1c2	-0.1461859
120	0xbdf5d8cf	-0.120042436
121	0x3e1c70e0	0.15277433
122	0xbdf2c622	-0.11854197
123	0xbcc1c253	-0.023652231
124	0x3cd65764	0.026164718
125	0x3e2dc792	0.16970661
126	0x3e4ff11b	0.20306818
127	0x3ee634cc	0.44962156
128	0x3d2a917d	0.041642655
129	0xbdfc6e80	-0.12325764
130	0x3e5d7f3f	0.21630572
131	0x3c81d496	0.01584844
132	0xbecc0861	-0.39850143
133	0xbe0b056a	-0.13576284
134	0xbdc5de21	-0.09661508
135	0x3dfd05ec	0.12354645
136	0xbbcf3343	-0.0063232495
137	0xbe5d60e7	-0.21618997
138	0x3e23c9f9	0.15995015
139	0xbf20fd63	-0.6288664
140	0x3cae00ec	0.021240674
141	0x3e607a31	0.21921612
142	0xbd8dd651	-0.06925643
143	0xbe9316fe	-0.2872848
144	0x3dbcca39	0.092182584
145	0xbd294473	-0.041325044
146	0x3d305c94	0.04305704
147	0x3e2fe6be	0.17177865
148	0x3c5f5160	0.013630241
149	0x3d922395	0.07135693
150	0x3dc66261	0.09686733
151	0x3e0a575c	0.13509887
152	0x3e118636	0.14211354
153	0xbe9d23f6	-0.306915
154	0x3dc364a4	0.0954068
155	0xbd343fe4	-0.044006243
156	0xbe86eed5	-0.2635409
157	0xbe5c9e88	-0.2154485
158	0xbd15ac43	-0.036541235
159	0xbe6fcb43	-0.23417382
160	0xbe33e660	-0.1756835
161	0xbeb682b6	-0.356466
162	0x3da16723	0.07881
163	0x3e3adfe3	0.18249469
164	0x3c68ef92	0.014217274
165	0xbe7ae91c	-0.24502987
166	0xbde67bb0	-0.1125406
167	0x3d80da41	0.06291629
168	0xbd819abf	-0.063283436
169	0xbd2a8d26	-0.041638516
170	0x3e3ca246	0.18421277
171	0x3e861a70	0.26192045
172	0xbd7ce8ca	-0.061745442
173	0x3e4b7bdd	0.19871469
174	0xbab92ef7	-0.0014128376
175	0xbe178e6e	-0.14800426
176	0x3e3b5d77	0.18297373
177	0xbe0be637	-0.13662039
178	0x3e923d28	0.28562284
179	0x3d0ed50b	0.034871142
180	0x3e45ad34	0.19304353
181	0xbe851fb5	-0.26000753
182	0x3c9ea841	0.01936734
183	0x3d85dfda	0.06536837
184	0x3988247d	0.00025967127
185	0xbda6f027	-0.08151274
186	0xbe5ea808	-0.21743786
187	0xbdde8066	-0.10864334
188	0xbc835abc	-0.016034476
189	0x3cb7838f	0.0224016
190	0x3dcf8262	0.101322904
191	0x3d97c89f	0.07411312
192	0xbe89a02b	-0.2688001
193	0xbdcb8380	-0.09937191
194	0xbdbfc95a	-0.09364577
195	0xbe62ccb2	-0.22148398
196	0xbaad0359	-0.001319985
197	0xbe2e3985	-0.1701413
198	0x3e2eae87	0.17058764
199	0x3d80611b	0.062685214
200	0xbae33c48	-0.0017336691
201	0xbeb06d17	-0.3445823
202	0x3e0503ae	0.12989685
203	0x3e35b300	0.17744064
204	0x3c8bee95	0.017081538
205	0x3e02b164	0.12762982
206	0xbebc9b38	-0.36837173
207	0xbd6a18f9	-0.057152722
208	0xbd942f48	-0.07235581
209	0x3da71dee	0.081600055
210	0xbd84dec5	-0.064878024
211	0xbe8ef35b	-0.2792004
212	0x3e3a60ee	0.18201038
213	0x3d150a7c	0.03638695
214	0xbe1a38d9	-0.15060748
215	0xbec76979	-0.38947657
216	0x3dac2c2b	0.08406862
217	0xbe9349b6	-0.28767174
218	0xbdd0da38	-0.10197872
219	0x3d9c5255	0.07632891
220	0xbbcedcd2	-0.006312945
221	0x3c69a8cb	0.014261435
222	0x3e2a7f9b	0.1665024
223	0x3d112910	0.03543955
224	0xbe7bc7aa	-0.24587885
225	0x3e4ab0cf	0.1979401
226	0xbede0929	-0.43366364
227	0xbdb0e3ac	-0.08637175
228	0xbe26d80a	-0.1629335
229	0x3e65e057	0.2244886
230	0x3e74378b	0.23849313
231	0x3c2773c0	0.010220468
232	0x3d11eb11	0.035624567
233	0xbe5549c4	-0.2082892
234	0xbeeed167	-0.46644136
235	0xbd3ff3cc	-0.046863362
236	0xbd9433e5	-0.072364606
237	0xbeac998e	-0.33710903
238	0xbdcb5157	-0.09927624
239	0x3d3f00b0	0.046631515
240	0xbdfad324	-0.12247303
241	0x3ca149bb	0.019688478
242	0xbdaac667	-0.083386235
243	0x3cd75e73	0.026290154
244	0xbe994788	-0.29937387
245	0x3ebbdbdd	0.3669118
246	0xbe536558	-0.20644128
247	0xbe9587e6	-0.29205245
248	0xbe90b35d	-0.28261843
249	0xbdbcacd6	-0.09212653
250	0xbd349246	-0.04408481
251	0x3e1990c6	0.14996633
252	0x3d9629c1	0.07332183
253	0xbe0078d0	-0.12546086
254	0xbd262f32	-0.040572353
255	0x3c8fcbdb	0.01755326

config_lin.2.bias f4 [32]
0	0xbc4c4a69	-0.012468913
1	0xbbc75f62	-0.0060843686
2	0xbdfac28d	-0.12244139
3	0xbd58c58b	-0.052922767
4	0xbcf83b81	-0.030301811
5	0xbe2c765e	-0.16842028
6	0x3c552869	0.013010123
7	0xbdd99b94	-0.10625377
8	0xbdbdce01	-0.09267808
9	0xbe02ba8d	-0.12766476
10	0x3dc4f011	0.096161015
11	0xbdc00f4f	-0.0937792
12	0xbe350aa7	-0.17679845
13	0xbd073b4f	-0.033015545
14	0x3e02cec0	0.12774181
15	0xbd74ed14	-0.059796408
16	0xbd42535a	-0.04744277
17	0xbe60d249	-0.21955217
18	0xbe5c146f	-0.2149217
19	0x3dc65e99	0.09686012
20	0xbd999756	-0.07499568
21	0xbd7df563	-0.062001597
22	0x3e549f41	0.20763876
23	0x3e2f76b0	0.1713512
24	0xbe751256	-0.23932776
25	0x3e01a35e	0.12659976
26	0xbd09e38f	-0.033664282
27	0xbd99acb9	-0.07503647
28	0x3d9c65c3	0.07636597
29	0xbe84ebfa	-0.25961286
30	0x3dce2c51	0.100670464
31	0x3c2059f9	0.009787076

vertex_lin.0.weight f4 [32, 64, 1, 1]
0	0xbe7029a7	-0.23453389
1	0x3c01932a	0.007908622
2	0x3d87cc27	0.06630736
3	0xbd8b98af	-0.068162315
4	0x3e167d31	0.14696194
5	0x3d6d1981	0.05788565
6	0x3db76e0e	0.08956538
7	0x3d38d7c8	0.04512766
8	0xbdd477f9	-0.103744455
9	0xbe39f5ba	-0.18160143
10	0xbe5c213c	-0.21497053
11	0x3e110075	0.1416033
12	0x3c783486	0.015149241
13	0x3e86fe8c	0.2636608
14	0xbe2758ac	-0.1634242
15	0x3c8bba39	0.017056571
16	0xbd668692	-0.05628068
17	0x3df4a520	0.119455576
18	0x3df06db4	0.11739674
19	0x3e26c370	0.16285491
20	0x3c9a5c44	0.018842824
21	0xbcdae116	-0.026718657
22	0x3d012dee	0.031537943
23	0x3da54c52	0.080711976
24	0xbe132f32	-0.14373472
25	0xbda3f1a8	-0.08005077
26	0xbdc5a981	-0.09651471
27	0xbd15efa2	-0.036605485
28	0x3d72f0d9	0.05931172
29	0x3de0825b	0.10962363
30	0x3c9b5a2a	0.018963892
31	0xbdef192f	-0.11674725
32	0x3e7e3ea5	0.24828584
33	0x3e1b4d36	0.15166172
34	0xbaf97400	-0.0019031763
35	0x3d98005e	0.07421945
36	0xbe9f6207	-0.31129476
37	0xbb7742b8	-0.0037728976
38	0xbe048497	-0.12941204
39	0x3e059303	0.13044362
40	0x3e80469a	0.25053865
41	0x3e9d56f5	0.30730405
42	0x3e230052	0.15918091
43	0xbe83d436	-0.25747842
44	0x3d5f2017	0.054473963
45	0x3e290ffa	0.16510001
46	0x3d81cca8	0.06337863
47	0xbe69efed	-0.2284543
48	0x3d87490d	0.0660573
49	0xbe8d43c1	-0.27590755
50	0xbe1f98a4	-0.15585572
51	0xbe708817	-0.23489414
52	0xbe2cc623	-0.16872458
53	0xbdbc15cc	-0.09183845
54	0x3c5017c8	0.012700982
55	0x3ecce888	0.40021157
56	0xbe0c06ac	-0.1367442
57	0xbd055ea6	-0.032560967
58	0xbe2ed600	-0.17073822
59	0xbbb5f6f8	-0.0055531226
60	0xbb9a1b60	-0.0047029704
61	0xbe0c3aa4	-0.13694245
62	0xbd982288	-0.07428461
63	0x3da46e94	0.080289036
64	0xbe0f3291	-0.13984133
65	0xbe156e4b	-0.14592855
66	0xbd0c576e	-0.034263067
67	0x3e4b868e	0.19875547
68	0xba8b3926	-0.001062189
69	0xbe827a5e	-0.25483984
70	0x3e0c18e3	0.13681369
71	0x3db89185	0.09012131
72	0x3e448239	0.19190301
73	0x3d111d2b	0.035428207
74	0x3cb644be	0.022249576
75	0x3c5cb960	0.013471931
76	0xbe1eef2e	-0.15520927
77	0x3e83b28d	0.2572216
78	0x3e4c2d21	0.1993909
79	0xbe94500e	-0.28967327
80	0xbcd1b379	-0.025598275
81	0xbe154297	-0.14576183
82	0xbe91d5b9	-0.2848337
83	0x3df25f2b	0.11834558
84	0xbe6c0131	-0.2304733
85	0x3dd283e5	0.10279063
86	0xbe35bcd4	-0.17747813
87	0x3dcd9f82	0.10040189
88	0xbe856332	-0.26052243
89	0xbc94a771	-0.018146249
90	0x3e697b0d	0.22800846
91	0x3e53cb35	0.20682986
92	0xbbe91375	-0.007112915
93	0x3d9c135c	0.0762088
94	0x3ea330e7	0.31873247
95	0x3e22680a	0.1586
96	0x3cb8df66	0.022567462
97	0xbabd9fb7	-0.0014467154
98	0xbda9d2f0	-0.08292186
99	0x3ddd7412	0.10813154
100	0xbc5903cf	-0.013245537
101	0xbd53d233	-0.051714133
102	0xbc86aa59	-0.01643865
103	0xbc27a6fb	-0.010232682
104	0x3ca065fe	0.019579884
105	0xbd0b1949	-0.03395966
106	0xbd1a9935	-0.037743766
107	0xbc0a713f	-0.008449852
108	0xbeb7411e	-0.35791868
109	0x3e56b8f6	0.20968994
110	0x3e25efdb	0.16204779
111	0x3db17d5b	0.08666488
112	0xbca16a84	-0.01970411
113	0x3e4b2e3b	0.19841854
114	0xbb8348ff	-0.0040065045
115	0xbdc0d064	-0.09414747
116	0x3bc55420	0.0060219914
117	0xbddb3fba	-0.10705514
118	0xbd0be809	-0.034156833
119	0x3e64abd6	0.22331175
120	0x3db630eb	0.08896049
121	0x3e3c8cec	0.18413132
122	0xbebb4751	-0.36577848
123	0x3d36a653	0.044592213
124	0xbda3e302	-0.08002283
125	0xbe319015	-0.17340119
126	0x3c2d1e59	0.0105663175
127	0xbdcfa801	-0.10139466
128	0xbe4220a3	-0.18957762
129	0xbe055e2a	-0.13024202
130	0x3cd25220	0.025673926
131	0xbd9eca53	-0.07753434
132	0xbe0d27f9	-0.1378478
133	0x3dc75b36	0.09734194
134	0x3df2e575	0.11860172
135	0x3e0e371c	0.1388821
136	0x3b04cbd8	0.0020263102
137	0x3e4dd434	0.2010048
138	0x3e21b4e1	0.15791656
139	0x3d5a833d	0.053347815
140	0x3e01c65c	0.12673324
141	0xbe2ecea1	-0.1707101
142	0xbda8aa8f	-0.082356565
143	0xbca47d12	-0.02007917
144	0xbd54b0ba	-0.051926352
145	0x3dfb84b8	0.122811735
146	0x3d9fd35d	0.07803986
147	0xbe142521	-0.14467289
148	0x3dcb5d56	0.09929912
149	0xbd5b9848	-0.053612024
150	0x3d63bd48	0.055600435
151	0x3cd35a52	0.025799904
152	0x3db23e8d	0.08703337
153	0x3e20c620	0.15700579
154	0xbec7e6a7	-0.3904316
155	0xbce5b6b6	-0.028041225
156	0x3e6b502d	0.22979803
157	0xbcc14f0f	-0.023597268
158	0xbeaf5055	-0.34240976
159	0x3d24c8ff	0.040230747
160	0xbd56a2b3	-0.052401256
161	0x3e1d1fc0	0.15344143
162	0xbdc820a4	-0.09771851
163	0x3dca3899	0.098740764
164	0xbdc352db	-0.09537288
165	0xbd68369a	-0.056692697
166	0xbcd3823f	-0.025818942
167	0xbe5c721c	-0.21527904
168	0x3d03cc2f	0.032177147
169	0xbe563096	-0.20916972
170	0xbdb0abc8	-0.08626515
171	0x3dc8218f	0.09772026
172	0xbda101db	-0.07861682
173	0xbd673fe2	-0.056457408
174	0xbdb9fe8a	-0.090817526
175	0x3dae4b71	0.08510483
176	0x3d8e07ed	0.069351055
177	0xbdcc4ae8	-0.09975225
178	0xbcc9c456	-0.024629753
179	0x3d3de701	0.04636288
180	0x3db37909	0.0876332
181	0xbdbe4b01	-0.092916496
182	0x3d9a2b1e	0.07527755
183	0xbdf532d7	-0.119725876
184	0xbd353449	-0.044239316
185	0xbd01e18d	-0.031709243
186	0x3e8adb9e	0.2712068
187	0x3d66617a	0.056245305
188	0x3e8c4a0e	0.2740025
189	0x3da83947	0.0821405
190	0xbc2a3126	-0.010387694
191	0x3e0117f2	0.1260679
192	0xbe5f09f1	-0.21781136
193	0x3c836aa4	0.016042061
194	0x3d80fa74	0.0629777
195	0x3ddd7a63	0.10814359
196	0xbe341854	-0.17587405
197	0xbd693a11	-0.056940142
198	0xbe40759e	-0.18794867
199	0xbe363092	-0.17791966
200	0x3eabc86e	0.33551353
201	0x3c4b7241	0.012417377
202	0xbd6bd999	-0.057580564
203	0xbd94aba5	-0.07259301
204	0x3d0dbe4a	0.034605302
205	0x3e1d5dc5	0.15367801
206	0x3e8c3514	0.27384245
207	0xbdefdf31	-0.11712492
208	0x3e9f1e6e	0.31077904
209	0xbe105ae8	-0.14097178
210	0xbd6eb712	-0.05828006
211	0xbea681be	-0.3252086
212	0x3dca2dc2	0.09872009
213	0x3ea8ae42	0.32945448
214	0xbe693f68	-0.22778094
215	0xbdb6ad02	-0.08919717
216	0xbdbbe8c0	-0.09175253
217	0x3d94efe2	0.072723165
218	0x3e3bd4ef	0.18342946
219	0x3e42e86d	0.19033976
220	0xbd67febf	-0.05663943
221	0xbe3b09a5	-0.18265398
222	0x3eeb0de6	0.4590904
223	0x3d05a64f	0.032629307
224	0xbe2014d6	-0.15632948
225	0x3efd1ef7	0.49437687
226	0xbe7c01c4	-0.24610049
227	0xbe1eeeec	-0.15520829
228	0x3d3d2653	0.046179127
229	0x3ce62a0f	0.028096227
230	0xbdd2dbe3	-0.10295846
231	0xbe0cbe07	-0.13744365
232	0xbe564478	-0.20924556
233	0xbe502687	-0.20327197
234	0x3d7ec993	0.062203955
235	0xbe23c6e6	-0.15993842
236	0xbd3c5c99	-0.045986746
237	0xbd1cbdad	-0.038266826
238	0xbd26a39b	-0.04068337
239	0xbda36b45	-0.079794444
240	0xbbf361a7	-0.0074274126
241	0x3ce71a76	0.02821086
242	0xbdbc0295	-0.0918018
243	0xbdf222ac	-0.118230194
244	0x3c7a0340	0.015259564
245	0x3d8f1ece	0.069882974
246	0x3e7ffbb8	0.24998367
247	0xbdcc4bd3	-0.099754
248	0x3d21f2fb	0.039538365
249	0x3e106c48	0.14103806
250	0x3ea0bcc2	0.3139401
251	0xbe10770d	-0.14107914
252	0x3d2570e7	0.040390875
253	0x3cb3c408	0.02194406
254	0xbed453ae	-0.41470093
255	0x3ade3118	0.0016951887

vertex_lin.0.bias f4 [32]
0	0x3b05cfbc	0.0020418009
1	0x3c3ce28a	0.0115286205
2	0x3d5fdf81	0.05465651
3	0xbd6c6439	-0.057712767
4	0xbd2a8861	-0.041633967
5	0xbd839b9e	-0.06426166
6	0xbcc183a7	-0.023622347
7	0x3d327f96	0.043578707
8	0x3dfd5a07	0.12370687
9	0xbd754796	-0.059882723
10	0xbe141254	-0.14460117
11	0x3d48eb14	0.049052313
12	0x3dc25527	0.09488898
13	0xbc1dc049	-0.009628364
14	0x3d0cf27f	0.03441095
15	0x3da36971	0.07979096
16	0x3e13dd43	0.14439873
17	0x3db0e4de	0.08637403
18	0xbcdd81e7	-0.027039481
19	0xbdb2ab99	-0.08724136
20	0xbdf38563	-0.11890676
21	0xbd2011ad	-0.039079357
22	0xbd22f78c	-0.03978686
23	0xbc2a290f	-0.010385766
24	0xbdcbac62	-0.09944989
25	0x3d944094	0.0723888
26	0xbe1d9409	-0.15388502
27	0xbe016efa	-0.1263999
28	0xbcd18204	-0.025574692
29	0xbdaa1e51	-0.08306564
30	0x3df8fa09	0.121570654
31	0xbdc7cf59	-0.09756345

vertex_lin.2.weight f4 [32, 32, 1, 1]
0	0x3da98237	0.0827679
1	0x3dcc3f45	0.09973005
2	0x3d8c3d4c	0.06847629
3	0x3e2d81b0	0.16944003
4	0x3e662330	0.2247436
5	0x3ea2702e	0.3172621
6	0x3de71887	0.11283975
7	0xbd8dc384	-0.06922057
8	0x3ebdb4d4	0.37052023
9	0x3e8cd6b9	0.2750757
10	0xbe3b8f46	-0.18316373
11	0x3e7769cf	0.24161457
12	0x3dbcef69	0.09225351
13	0x3e55cc9c	0.20878834
14	0xbc0139d9	-0.007887327
15	0xbd3bba3f	-0.045831915
16	0x3e475774	0.19466954
17	0x3e99938c	0.29995382
18	0x3cc7e504	0.024401195
19	0x3e037af9	0.12839879
20	0x3d5b4841	0.053535704
21	0x3cf211f2	0.029549573
22	0x3da1ee3c	0.07906768
23	0x3e23157a	0.15926161
24	0xbd85e8aa	-0.06538518
25	0x3c7231a6	0.014782345
26	0xbdfc092c	-0.12306437
27	0xbd17f34d	-0.037097264
28	0xbe080195	-0.13281853
29	0xbd9c1cf7	-0.07622712
30	0x3db8b010	0.09017956
31	0xbe344dc6	-0.17607793
32	0xbd345792	-0.044028826
33	0xbe487663	-0.19576411
34	0xbe21215f	-0.15735386
35	0xbe3a6f50	-0.18206525
36	0xbe435873	-0.1907671
37	0xbd873035	-0.06600992
38	0xbdce7452	-0.1008078
39	0xbcf42b05	-0.02980567
40	0xbe62ca97	-0.22147594
41	0xbc6f25ac	-0.014596384
42	0xbe2ff5a4	-0.17183548
43	0xbe46dcb1	-0.19420125
44	0xbe4b9142	-0.1987963
45	0xbcc54a13	-0.024083173
46	0x3db07a5a	0.08617087
47	0x3d9c2306	0.07623868
48	0xbc4a277c	-0.012338515
49	0xbdf1c2c3	-0.11804726
50	0xbd599774	-0.053122953
51	0xbcd0138b	-0.025399944
52	0x3cae7038	0.021293744
53	0xbd0fbbd7	-0.035091247
54	0x3e82221c	0.25416648
55	0x3db17c2c	0.08666262
56	0xbe25e47a	-0.16200438
57	0xbe4b0f07	-0.19829951
58	0x3e19fbe8	0.15037501
59	0x3d28e404	0.041233078
60	0xbe0175e2	-0.12642625
61	0x3e07391e	0.13205382
62	0x3ddab049	0.10678155
63	0x3c8b3e77	0.016997559
64	0x3bd0a5ec	0.0063674357
65	0x3df1098f	0.11769401
66	0x3e32ece4	0.17473179
67	0x3e897848	0.2684958
68	0xbe459b45	-0.19297512
69	0x3e8e1402	0.2774964
70	0xbe82222d	-0.254167
71	0xbeb04ad2	-0.34432083
72	0x3d267014	0.04063423
73	0xbe90a79b	-0.28252873
74	0xbd87a19a	-0.0662262
75	0xbe1b8e7a	-0.15191069
76	0xbe78cd54	-0.24297076
77	0xbda67814	-0.08128372
78	0x3b821b30	0.003970526
79	0xbdd0837c	-0.10181329
80	0x3df7d99d	0.12102053
81	0x3e63c5db	0.22243445
82	0xbec154be	-0.37759966
83	0xbeb07230	-0.34462118
84	0xbe8fae79	-0.280628
85	0xbde507dc	-0.1118314
86	0x3de7b90a	0.1131459
87	0xbeb9510b	-0.36194643
88	0x3e6c7867	0.23092805
89	0x3df99a60	0.12187648
90	0xbe82528c	-0.25453603
91	0xbdd1638a	-0.10224064
92	0x3d19f8cd	0.03759079
93	0x3d499c40	0.049221277
94	0x3dc1af63	0.094572805
95	0x3c5cb834	0.013471652
96	0x3e0e76bb	0.1391248
97	0xbe243461	-0.16035606
98	0xbd62f878	-0.05541274
99	0xbe49f5d9	-0.1972269
100	0x3cea1085	0.02857233
101	0x3e01230e	0.12611029
102	0xbe2869be	-0.16446587
103	0x3e865e4e	0.26243824
104	0xbe8da238	-0.27662826
105	0xbe6e2166	-0.23254928
106	0xba595d3c	-0.0008291786
107	0xbdd2b8b9	-0.10289139
108	0x3c637d89	0.01388491
109	0xbd99d5bd	-0.075114705
110	0x3dde9210	0.10867703
111	0x3e43a4c5	0.19105823
112	0x3dd23130	0.10263288
113	0x3dac368a	0.0840884
114	0xbe299353	-0.16560106
115	0xbdc6745a	-0.09690161
116	0xbeacb396	-0.33730763
117	0x3df3f0ae	0.119111404
118	0xbdd809e1	-0.10548759
119	0xbe95d3db	-0.29263195
120	0xbe05fcff	-0.13084792
121	0x3eb45f58	0.35228992
122	0x3d771e11	0.060331408
123	0x3d0f22b6	0.034945212
124	0xbc829e86	-0.01594473
125	0x3dbb44f6	0.09144013
126	0xbdff0c87	-0.12453561
127	0x3d69cfd7	0.057082977
128	0xbd73cc59	-0.059521053
129	0xbdb4974a	-0.088179186
130	0x3d5b80c8	0.053589612
131	0x3e12ec0f	0.14347862
132	0x3e0a4c7f	0.13505743
133	0xbec27a0b	-0.37983736
134	0xbe4dd90a	-0.20102325
135	0x3c9a4076	0.018829565
136	0xbe1c2f7d	-0.1525249
137	0xbc6cf05b	-0.014461602
138	0x3d9b40d2	0.07580723
139	0x3ce1186b	0.027477464
140	0x3d9ab694	0.07554355
141	0xbe0e11fe	-0.13874051
142	0x3e179321	0.14802219
143	0x3c59e4c7	0.013299174
144	0x3dfebeae	0.12438713
145	0xbe31d27a	-0.17365447
146	0x3e49e462	0.19716027
147	0x3daf22c5	0.08551554
148	0x3e0629dc	0.13101906
149	0x3e178397	0.14796291
150	0xbd0a2f38	-0.033736438
151	0xbe7af671	-0.24508072
152	0x3e0eb99c	0.13937992
153	0xbcabbf9e	-0.020965394
154	0x3eba893b	0.36432824
155	0xbd94f27d	-0.072728135
156	0xbec8dcdc	-0.39231002
157	0x3d91245b	0.070870124
158	0x3dc343d7	0.09534424
159	0x3c068632	0.008210706
160	0xbe7c2a5a	-0.24625531
161	0xbd3a1dcf	-0.045438584
162	0x3dda7405	0.1066666
163	0x3d09a757	0.033606853
164	0xbc9fbbeb	-0.019498786
165	0x3d63dfce	0.05563336
166	0x3d21c37a	0.03949306
167	0xbed264ca	-0.4109252
168	0x3de0daee	0.109792575
169	0xbd81b7a3	-0.06333854
170	0x3db01cb5	0.085992254
171	0xbee81852	-0.45331055
172	0x3dfb8af6	0.12282364
173	0xbea6ffac	-0.32616937
174	0xbe35b030	-0.17742991
175	0x3e4f08c1	0.20218183
176	0x3d7b957a	0.06142185
177	0xbd1fade1	-0.038984183
178	0xbe6731b6	-0.22577557
179	0xbd99c00e	-0.07507335
180	0xbeaaaf45	-0.33336845
181	0xbe5366b5	-0.20644648
182	0x3dbd6bc4	0.0924907
183	0xbc445bd1	-0.011984781
184	0x3e85eccf	0.26157233
185	0xbe803fd1	-0.25048688
186	0xbe06cfba	-0.13165179
187	0x3db1f0e0	0.086885214
188	0xbc7a2cc5	-0.015269463
189	0x3dabc47a	0.08387084
190	0x3e8c7661	0.27434066
191	0xbe57a07d	-0.21057315
192	0xbeb7d484	-0.35904324
193	0xbdfa253c	-0.12214133
194	0xbded8e88	-0.11599451
195	0xbde0e278	-0.109806955
196	0xbe804308	-0.2505114
197	0x3df5cf74	0.12002459
198	0xbe8eea5d	-0.2791318
199	0xbdd9c63e	-0.10633515
200	0xbd7f1634	-0.062277034
201	0xbe241a00	-0.16025543
202	0x3d9eb61a	0.07749577
203	0xbe5fe9f1	-0.21866585
204	0x3e8f616f	0.28004023
205	0xbd8dd8c2	-0.06926109
206	0xbdb642e2	-0.08899476
207	0x3e1c4f6f	0.15264677
208	0x3ddc0a56	0.10744159
209	0x3d0646de	0.032782428
210	0xbe829bcc	-0.2550949
211	0xbdad8672	-0.08472909
212	0xbdc48ae5	-0.095968045
213	0x3da95526	0.08268194
214	0x3dec6b8d	0.11543951
215	0xbcf1a78c	-0.029498838
216	0x3e016667	0.1263672
217	0xbe0f1727	-0.13973676
218	0x3cca1353	0.024667418
219	0x3aa82aa7	0.0012830094
220	0x3d2d4811	0.042305056
221	0x3d087ec3	0.033324014
222	0x3a814eb2	0.0009865372
223	0xbe33d676	-0.17562279
224	0x3e235a2d	0.15952368
225	0x3ea4fb13	0.32222804
226	0xbecc2c7f	-0.39877698
227	0x3e5d140b	0.21589677
228	0x3dd8577d	0.10563562
229	0x3ddd0781	0.10792447
230	0x3dc32cd3	0.09530034
231	0xbe119b7d	-0.1421947
232	0x3e9312a4	0.2872516
233	0x3e1ea94e	0.15494272
234	0xbcfac4d6	-0.030611437
235	0x3e47450f	0.19459938
236	0xbe13d5f7	-0.1443709
237	0xbd62641e	-0.05527126
238	0xbea2b135	-0.31775823
239	0x3c7c6ba2	0.015406521
240	0xbe7d676f	-0.24746488
241	0x3e6773b3	0.2260273
242	0xbdb51a28	-0.088428795
243	0x3dd4f7b7	0.1039881
244	0xbc8c7246	-0.017144334
245	0xbe716c56	-0.23576483
246	0xbd33c00c	-0.043884322
247	0x3e8a5d23	0.27024183
248	0xbe0e3793	-0.13888387
249	0xbeecf33e	-0.4627933
250	0xbe813ac7	-0.25240156
251	0x3da0a6e9	0.078443356
252	0x3b554810	0.0032544173
253	0xbd7c1ecc	-0.061552808
254	0xbe528247	-0.2055751
255	0xbec41324	-0.38295853

vertex_lin.2.bias f4 [32]
0	0xbd945566	-0.07242851
1	0xbda1fb30	-0.07909238
2	0xbd64a4ae	-0.055821113
3	0xbd27ae72	-0.04093785
4	0x3d3f5e60	0.046720862
5	0x3da2ce90	0.07949555
6	0x3e44af1b	0.19207422
7	0x3de0478f	0.10951149
8	0xbe1f7186	-0.1557065
9	0xbd9da7eb	-0.076980434
10	0x3d3d70c0	0.046250105
11	0xbe285e10	-0.16442132
12	0xbd9b9654	-0.07597032
13	0xbc667fc8	-0.014068551
14	0x3d0c433b	0.034243803
15	0x3e56a28b	0.20960443
16	0x3e39ff68	0.18163836
17	0xbe3137f0	-0.17306495
18	0xbdc87f11	-0.09789861
19	0xbd0af753	-0.033927273
20	0xbcc2e9cb	-0.023793122
21	0x3e51b17b	0.2047786
22	0x3bd25dfa	0.0064198943
23	0xbe2d3fba	-0.16918841
24	0xbdff72ad	-0.124730445
25	0x3e414cfe	0.18877026
26	0x3dce3b7f	0.10069942
27	0x3c4941eb	0.0122837825
28	0x3c2a3515	0.010388632
29	0xbd73e61d	-0.059545625
30	0x3df0c78f	0.11756813
31	0xbd707b33	-0.058711242

edge_lin.0.weight f4 [32, 1, 68, 1]
0	0xbe818c6b	-0.25302443
1	0xbd880878	-0.0664224
2	0x3e2a6964	0.16641766
3	0xbe93db76	-0.28878373
4	0xbd277683	-0.040884506
5	0x3eb93290	0.3617139
6	0xbd1d276b	-0.03836767
7	0xbd693cf1	-0.056942884
8	0xbdc3e2da	-0.09564753
9	0xbe95eddf	-0.29283044
10	0xbe762992	-0.24039295
11	0x3e271015	0.16314729
12	0xbd1724a8	-0.036900192
13	0xbc5fe1fb	-0.013664718
14	0xbdd9e713	-0.10639777
15	0x3e8a85ed	0.27055302
16	0x3c82b5e6	0.015955877
17	0xbbb01b81	-0.0053743725
18	0x3e160234	0.14649278
19	0xbe1311da	-0.14362279
20	0xbdf99b94	-0.12187877
21	0x3dda0c64	0.106468946
22	0xbecde3f1	-0.40212968
23	0xbd633a2c	-0.0554754
24	0x3d8ca9d3	0.06868329
25	0x3e675de8	0.22594416
26	0x3e387c25	0.18016107
27	0xbd9c9ace	-0.07646714
28	0x3d76f947	0.060296323
29	0xbd864f2d	-0.0655807
30	0x3e1388ad	0.14407606
31	0x3d8c70fb	0.06857487
32	0xbefb6b6b	-0.4910539
33	0x3d10d5a5	0.035359997
34	0xbdb86b78	-0.09004873
35	0x3d6a8889	0.057259116
36	0x3e14cc01	0.14530946
37	0xbe8a2e9d	-0.26988688
38	0xbdcb4fca	-0.09927328
39	0x3d58ea58	0.052957863
40	0xbc089e72	-0.008338558
41	0xbd7c4172	-0.06158585
42	0xbe62c04b	-0.22143666
43	0xbe9418a4	-0.2892505
44	0xbe93f52b	-0.28897986
45	0x3c07a511	0.008279101
46	0xbdc431c9	-0.09579808
47	0x3d1db18b	0.038499396
48	0xbd37d717	-0.04488286
49	0x3e6a3f0d	0.22875614
50	0x3d83ccb0	0.064355254
51	0xbba7020c	-0.0050966796
52	0x3dc1eeca	0.094693735
53	0xbea9e6f4	-0.33184016
54	0xbe2f3239	-0.17109002
55	0x3d28087a	0.04102371
56	0xbec7d0c3	-0.3902646
57	0x3cb7057e	0.022341486
58	0x3decdb14	0.11565223
59	0x3dedf87a	0.11619659
60	0x3df27a2d	0.118397094
61	0xbe231c39	-0.15928735
62	0x3e2c1a6d	0.16806956
63	0xbebe1810	-0.37127733
64	0x3e7192a0	0.23591089
65	0x3e8769ab	0.26447806
66	0xbe6ee693	-0.23330145
67	0x3d1caef7	0.038252797
68	0xbde3bb68	-0.11119729
69	0x3caf49d7	0.021397514
70	0xbe53ec54	-0.20695621
71	0x3df80803	0.12110903
72	0xbcec5250	-0.028847843
73	0xbe44d3da	-0.1922144
74	0x3ca2ea11	0.019887002
75	0x3da70b99	0.08156509
76	0x3ea9c68a	0.33159286
77	0x3dca9270	0.09891212
78	0xbb6f50d9	-0.0036516695
79	0xbd3fad17	-0.04679593
80	0xbe002976	-0.12515816
81	0x3d2c7c38	0.04211065
82	0x3dd7f2d9	0.105443664
83	0xbdcc8ded	-0.09988008
84	0x3cdaa3fe	0.026689526
85	0xbcc44147	-0.023956908
86	0x3e0d0bd0	0.13774037
87	0xbd7bb464	-0.06145133
88	0x3dfe5e3d	0.12420318
89	0xbd7309c5	-0.05933549
90	0x3d346030	0.044037044
91	0xbdebeaf6	-0.115194246
92	0xbe6c9922	-0.2310529
93	0xbdba98cc	-0.09111175
94	0xbe2b91ef	-0.16754888
95	0xbc63c9b2	-0.013903068
96	0xbe42eb24	-0.19035012
97	0xbd1fb12e	-0.03898733
98	0xbe839022	-0.25695902
99	0xbe8ca352	-0.27468354
100	0x3ef06453	0.4695154
101	0xbd89a15c	-0.0672023
102	0x3ce109d1	0.027470501
103	0xbdeec45b	-0.116585456
104	0xbe68378d	-0.22677441
105	0x3d7b25f3	0.061315488
106	0xbda336c2	-0.079694286
107	0xbd87b624	-0.066265374
108	0xbd997a9b	-0.07494088
109	0xbdd50227	-0.10400801
110	0x3d985639	0.07438321
111	0x3e37383b	0.17892544
112	0x3de6d6c5	0.11271433
113	0xbe05117f	-0.12994955
114	0x3d7e2d63	0.062055003
115	0xbdfbac9c	-0.12288782
116	0x3d8eab0f	0.069662206
117	0xbdb9759f	-0.090556376
118	0x3dc25a2a	0.09489854
119	0xbd4b45d0	-0.049627125
120	0x3e0b7c44	0.13621622
121	0x3a8ba77a	0.001065477
122	0xbdc5bf6b	-0.09655651
123	0x3dd4d1bd	0.10391567
124	0xbdc454a9	-0.0958646
125	0xbe115c27	-0.1419531
126	0xbc834904	-0.016026028
127	0x3d2f4b7b	0.042796593
128	0xbceab3e4	-0.028650232
129	0xbe23ed44	-0.16008478
130	0x3c12f606	0.008969789
131	0x3c703053	0.014659959
132	0xbe353dcb	-0.17699353
133	0xbea3f065	-0.32019344
134	0x3e31fbd9	0.17381229
135	0x3d79c9ce	0.06098347
136	0x3e631569	0.22176136
137	0xbce3b5a6	-0.027796578
138	0xbd8275b5	-0.06370107
139	0x3b3d4f46	0.0028886362
140	0xbea3e3be	-0.3200969
141	0xbe62a98b	-0.22134988
142	0x3dec865e	0.11549066
143	0x3e746867	0.23867951
144	0x3e5dad7c	0.2164821
145	0xbdb902c0	-0.09033728
146	0xbec17606	-0.37785357
147	0xbd128dc5	-0.035779733
148	0x3d3da947	0.046304014
149	0x3ca53f7c	0.020171873
150	0x3e75e0b0	0.24011493
151	0x3deda492	0.11603655
152	0xbdd1e552	-0.102488175
153	0x3df4d49e	0.11954616
154	0xbe099a61	-0.13437797
155	0xbe29f780	-0.1659832
156	0xbd60a559	-0.054845188
157	0xbe82b1c9	-0.25526264
158	0x3e67bf11	0.2263148
159	0x3e936f58	0.28795886
160	0x3d8dbfe6	0.06921367
161	0xbe8647b4	-0.2622658
162	0xbce45e4b	-0.027876994
163	0xbe4391e9	-0.19098629
164	0x3dd5a2fa	0.10431476
165	0xbe7f274f	-0.24917339
166	0xbe3fed06	-0.18742761
167	0x3d228f4a	0.039687432
168	0x3d04db32	0.032435603
169	0xbdac1593	-0.084025525
170	0x3ea32dd5	0.31870905
171	0xbe0b062a	-0.1357657
172	0xbeae5a09	-0.34053066
173	0xbdcc6ac1	-0.09981299
174	0xbeda7720	-0.4266901
175	0xbe9b6e21	-0.3035746
176	0xbdba3521	-0.09092165
177	0x3e92692b	0.28595862
178	0x3e0ce807	0.13760386
179	0x3d7c1c2e	0.06155031
180	0xbf1d74a0	-0.6150608
181	0xbe89bbab	-0.26900992
182	0xbc92c86f	-0.01791784
183	0xbddef458	-0.108864486
184	0x3e6ed1ef	0.23322271
185	0x3d586453	0.05283005
186	0xbe3635c3	-0.17793946
187	0xbd44ad27	-0.048016693
188	0xbe59877f	-0.21243094
189	0xbea95f95	-0.33080736
190	0x3d9df352	0.07712425
191	0xbece2ef6	-0.40270203
192	0x3e360ae3	0.1777759
193	0x3e50768f	0.20357727
194	0x3c915a0d	0.017743135
195	0xbd86f811	-0.06590284
196	0xbd7fe5c3	-0.062474977
197	0xbeba2e21	-0.3636332
198	0xbd027a40	-0.031854868
199	0xbef30a0f	-0.47468612
200	0xbe034029	-0.12817444
201	0x3e34e0c4	0.17663866
202	0xbe5b21de	-0.21399638
203	0x3da78c47	0.08181053
204	0xbe8ea593	-0.27860698
205	0x3ba851bb	0.005136696
206	0x3dcce29c	0.1000416
207	0xbdd3665b	-0.10322257
208	0xbda55cbc	-0.08074328
209	0x3ea50219	0.32228163
210	0x3e18b1e7	0.14911614
211	0xbd84563f	-0.06461763
212	0x3e1119b9	0.14169969
213	0xbe9e2737	-0.30889294
214	0x3e1fbf93	0.15600424
215	0xbda1873a	-0.078871205
216	0xbe8ee4a9	-0.2790883
217	0xbe459e1e	-0.19298598
218	0xbdd7a3c1	-0.105292805
219	0x3ec296a9	0.3800557
220	0x3e4e1aed	0.20127459
221	0xbdcc27fc	-0.09968564
222	0xbda40883	-0.08009436
223	0xbd5d164f	-0.053976353
224	0xbe368867	-0.17825471
225	0x3e51b0f2	0.20477656
226	0xbe2d0857	-0.16897713
227	0xbe1a3d94	-0.15062553
228	0x3dd07241	0.10178042
229	0x3e7b6840	0.24551487
230	0xbe13b627	-0.14424954
231	0x3d6a645f	0.057224628
232	0xbd9d4aca	-0.076802805
233	0x3d8d1e7c	0.0689058
234	0x3ed5678c	0.41680562
235	0x3db17cb1	0.08666361
236	0x3efa31bc	0.4886607
237	0x3db22d0f	0.087000005
238	0xbe8851da	-0.26624948
239	0x3d1507d1	0.036384407
240	0x3e9fac34	0.31186068
241	0x3d607581	0.05479956
242	0xbc2add81	-0.010428787
243	0x3e8cc4b5	0.27493826
244	0x3e6f7794	0.23385459
245	0xbe0b104b	-0.13580434
246	0x3da3fc7e	0.080071434
247	0xbe857193	-0.26063213
248	0xbd189183	-0.037248146
249	0xbe1fa31f	-0.1558957
250	0xbeb0050d	-0.34378853
251	0xbe02b056	-0.1276258
252	0xbdf5cc2a	-0.12001832
253	0x3e6f27e9	0.23355068
254	0x3d84da2e	0.06486927
255	0xbdf4b2f7	-0.11948197

edge_lin.0.bias f4 [32]
0	0x3b8a34a7	0.0042177024
1	0x3e1197aa	0.14218011
2	0x3dc18d08	0.09450728
3	0xba6414b3	-0.0008700594
4	0xbc970549	-0.018435137
5	0x3cb88bcd	0.0225276
6	0x3daca83e	0.08430527
7	0x3dea3526	0.114359185
8	0xbdd7732e	-0.10520016
9	0x3d147dc8	0.036252767
10	0xbd2ef0b9	-0.04271004
11	0x3cc181dc	0.023621492
12	0x3cd51c75	0.026014546
13	0x3de3695e	0.111040816
14	0xbda790a2	-0.081818834
15	0x3dbbce99	0.09170265
16	0xbd235139	-0.03987238
17	0xbdcbca8d	-0.09950743
18	0xbcfa4713	-0.030551469
19	0xbdfb3429	-0.12265808
20	0x3d351212	0.044206686
21	0xbcda439c	-0.026643567
22	0x3db51ef4	0.088437945
23	0x3d2179d8	0.03942284
24	0x3d3ac3e0	0.045596957
25	0x3c478032	0.01217656
26	0x3d6cc863	0.05780829
27	0x3cc99d6b	0.024611196
28	0xbd83d393	-0.06436839
29	0xbc26789a	-0.01016059
30	0x3c97d129	0.018532353
31	0x3d282d6e	0.04105895

edge_lin.2.weight f4 [32, 32, 1, 1]
0	0x3df6a310	0.120428205
1	0xbe400660	-0.18752432
2	0xbebc1d2a	-0.36741
3	0x3ee78503	0.45218667
4	0x3c2d672a	0.010583678
5	0x3e34ed9c	0.17668766
6	0x3cccfc42	0.02502263
7	0xbe84792e	-0.25873703
8	0xbebf3ce0	-0.3735113
9	0xbdca11a1	-0.09866644
10	0x3eac990d	0.33710518
11	0x3dc3486e	0.09535299
12	0x3e2ac0cc	0.16675109
13	0x3e3647f2	0.17800882
14	0x3dc85cba	0.09783311
15	0xbe634db9	-0.22197618
16	0x3ea7c793	0.3276945
17	0xbde04c4d	-0.10952053
18	0x3ef531ca	0.4788955
19	0xbd9fbfc1	-0.07800246
20	0x3e8c77d5	0.27435175
21	0x3e3456e5	0.17611273
22	0x3e9e97a1	0.3097506
23	0x3d78932d	0.060687233
24	0x3f0669ce	0.52505195
25	0x3de6ee61	0.11275936
26	0x3c90cd6c	0.017676078
27	0x3dfa22a0	0.122136354
28	0x3e19ee98	0.15032423
29	0x3f00bfc9	0.5029264
30	0x3f001dbb	0.50045365
31	0x3e8fa309	0.28054073
32	0x3d9e2ac1	0.077229984
33	0xbe0ef084	-0.13958937
34	0xbec4d973	-0.3844715
35	0x3ed49fb2	0.41528088
36	0x3ddc8e4a	0.10769327
37	0x3e005a7b	0.12534516
38	0x3e74d4a2	0.23909238
39	0xbe499c93	-0.19688635
40	0xbe295cb2	-0.16539267
41	0xbe2affcd	-0.16699143
42	0x3eb0c266	0.34523314
43	0xbd40c50e	-0.047062926
44	0x3e51aea0	0.2047677
45	0x3ea26807	0.31719992
46	0xbc56bb9a	-0.013106251
47	0xbe554547	-0.20827208
48	0x3eac21c2	0.33619505
49	0xbc1a391b	-0.009413029
50	0x3f03fc48	0.51556826
51	0xbe1ff453	-0.15620546
52	0x3dd655a1	0.10465551
53	0x3eb920a6	0.3615772
54	0x3e0ab160	0.13544226
55	0x3eb9701b	0.36218342
56	0x3e6256df	0.22103451
57	0x3e2b63ec	0.16737336
58	0x3e3cb826	0.18429622
59	0x3e3bfb89	0.18357672
60	0xbe565f96	-0.209349
61	0x3f0ed01e	0.5578631
62	0x3f0fb041	0.5612832
63	0x3f010009	0.5039068
64	0x3e2ea991	0.17056872
65	0x3e18f56f	0.14937375
66	0xbdff1451	-0.12455047
67	0xbc6b9c01	-0.014380456
68	0x3dba1c8c	0.09087476
69	0x3d7c777f	0.061637398
70	0xbce64a92	-0.02811173
71	0x3f201c53	0.6254322
72	0x3e799d48	0.24376404
73	0x3d716198	0.058930963
74	0xbe031533	-0.12801056
75	0x3d725654	0.05916436
76	0x3d3f5f4f	0.046721753
77	0xbe23626e	-0.15955517
78	0xbe3c9552	-0.18416336
79	0xbba37f6b	-0.0049895546
80	0x3e4f244b	0.20228688
81	0x3dba619e	0.0910065
82	0xbdaeda26	-0.08537702
83	0xbcfc1663	-0.030772394
84	0xbc27e378	-0.010247104
85	0x3ed5b0b4	0.41736376
86	0xbe680720	-0.22658968
87	0xbe0a17b1	-0.134856
88	0xbe3ac265	-0.18238218
89	0x3d16cb3c	0.036814913
90	0x3bec6c91	0.0072150906
91	0x3c868764	0.016421981
92	0xbe429842	-0.19003394
93	0xbea0cb4a	-0.31405097
94	0xbda2a0c1	-0.079408176
95	0xbeb1223c	-0.3459643
96	0xbcacbfa1	-0.02108747
97	0xbeb6bccf	-0.35690925
98	0xbcfd4bb4	-0.030919887
99	0x3ee613ce	0.44936985
100	0x3c086c52	0.008326607
101	0x3d64061f	0.0556699
102	0x3d892b20	0.066976786
103	0x3dea8845	0.114517726
104	0xbe358915	-0.17728074
105	0x3d1f09c0	0.038827658
106	0x3ec89805	0.39178482
107	0x3e6e4dd1	0.23271872
108	0x3e80cb87	0.2515528
109	0x3eace6d5	0.3376986
110	0x3d2b209d	0.04177915
111	0xbe1184a3	-0.14210753
112	0x3eacabef	0.33724925
113	0xbe740b70	-0.23832488
114	0x3f05afa9	0.5222116
115	0xbd41ad32	-0.047284313
116	0x3bcb5574	0.006205255
117	0xbc0bc26e	-0.008530242
118	0x3d9b7699	0.0759098
119	0x3e34622e	0.17615578
120	0x3ed21e90	0.41038942
121	0x3e9b2e72	0.30308872
122	0x3e48f3db	0.19624273
123	0xbc8eeb6f	-0.017446248
124	0xbe2544fd	-0.16139598
125	0x3ea91637	0.3302476
126	0x3ea0d7e9	0.31414726
127	0x3db142b8	0.08655304
128	0x3dbb8b3e	0.09157418
129	0x3ce3fa32	0.027829263
130	0xbe2703cb	-0.1631004
131	0x3ee9be2a	0.45652896
132	0x3e2739bb	0.16330616
133	0x3e62a2ba	0.22132388
134	0x3d3c7ca6	0.04601731
135	0xbd983359	-0.07431669
136	0xbe06721a	-0.13129464
137	0xbc411797	-0.011785409
138	0x3f110fff	0.56665033
139	0x3e53ff04	0.2070275
140	0x3eb76352	0.35817963
141	0x3f068ca4	0.5255835
142	0x3ca92a86	0.02065016
143	0xbe2eb61b	-0.17061655
144	0x3ed72a7f	0.4202461
145	0x3c05960e	0.008153452
146	0x3eabf872	0.33587986
147	0xbe1407cd	-0.14456101
148	0x3cf68be0	0.030095994
149	0x3e6c6848	0.23086655
150	0x3e8a68b2	0.27033
151	0x3e82fad0	0.2558198
152	0x3eb726aa	0.35771686
153	0x3e975f4c	0.29564893
154	0x3e8b4413	0.27200374
155	0x3d85e920	0.06538606
156	0x3d53594e	0.05159884
157	0x3f163d40	0.5868721
158	0x3edd8d60	0.43271923
159	0xbdfdda80	-0.12395191
160	0x3c9af6e5	0.018916557
161	0x3e46c0ab	0.19409434
162	0xbde5924c	-0.112095445
163	0x3cc00298	0.023438737
164	0xbe37774b	-0.179166
165	0xbc43b67a	-0.011945361
166	0xbd546c1e	-0.05186092
167	0x3ed095f4	0.40739405
168	0x3dd60460	0.10450053
169	0x3c41de77	0.011832825
170	0xbe0ad514	-0.13557845
171	0xbd8a0600	-0.06739426
172	0xbd56daed	-0.052454878
173	0xbcd3f167	-0.025871946
174	0x3d23b0ea	0.03996364
175	0x3deb9b0a	0.11504181
176	0x3dd24c38	0.10268444
177	0x3e1da8fd	0.15396495
178	0xbeb23a45	-0.3481008
179	0xbda2a049	-0.07940728
180	0x3e246f9b	0.16058199
181	0x3ec33310	0.38124895
182	0xbe01bd47	-0.1266986
183	0x3e44e74f	0.19228862
184	0xbcfb7b95	-0.030698577
185	0xbd42be8d	-0.047545005
186	0xbb0de95b	-0.0021653983
187	0x3e613b36	0.21995243
188	0xbdc98881	-0.09840489
189	0xbd5ad8bc	-0.05342935
190	0xbd6f7abd	-0.05846666
191	0xbde8c00c	-0.11364755
192	0x3eaeb9f2	0.3412624
193	0xbdaff09e	-0.08590816
194	0xbede750e	-0.4344868
195	0x3ece76b7	0.40324947
196	0xbd1748f7	-0.03693482
197	0x3df1b614	0.11802307
198	0x3cacde65	0.02110214
199	0xbe5144ab	-0.20436351
200	0xbe326224	-0.1742025
201	0x3d47cbe8	0.048778445
202	0x3f018781	0.5059739
203	0xbd2d30d2	-0.042282887
204	0x3ecafc7f	0.39645764
205	0x3ee67401	0.4501038
206	0xbdb1bb04	-0.086782485
207	0xbe0b9ec1	-0.13634779
208	0x3e98f477	0.29874012
209	0xbe3f5e20	-0.1868825
210	0x3ecd2ac1	0.4007168
211	0xbd8decf3	-0.0692996
212	0x3df28191	0.11841119
213	0x3e75149f	0.23933648
214	0x3ed9c3cf	0.42532203
215	0x3ec5f386	0.38662356
216	0x3ea0f383	0.31435785
217	0x3e69760f	0.22798942
218	0x3e56fe38	0.20995414
219	0x3e459a2d	0.19297095
220	0xbe646d0b	-0.22307222
221	0x3ec2d191	0.3805051
222	0x3f0169c7	0.5055203
223	0xbe8e278f	-0.27764556
224	0x3e020b68	0.12699664
225	0xbd9207e2	-0.0713041
226	0xbe65b21e	-0.22431228
227	0x3eb8c3e9	0.36086968
228	0x3dfb921d	0.12283728
229	0x3e823f41	0.25438884
230	0x3d1ce555	0.038304646
231	0xbdbdd874	-0.09269801
232	0xbe467855	-0.1938184
233	0xbe0cf35f	-0.13764714
234	0x3ef8bd32	0.48581845
235	0xbda384d9	-0.07984323
236	0x3e3ebe78	0.18627346
237	0x3eb7aa99	0.35872343
238	0x3e29c6ff	0.16579817
239	0xbd0fc4b5	-0.035099704
240	0x3e3c89a4	0.1841188
241	0xbdec1595	-0.11527554
242	0x3edec9c7	0.4351332
243	0x3de58329	0.112066574
244	0x3dfec4b9	0.124398656
245	0x3db13b00	0.086538315
246	0x3e26af31	0.16277768
247	0x3e831015	0.25598207
248	0x3e7f79d2	0.24948815
249	0x3e6eaf1c	0.23308986
250	0x3e8f923a	0.2804125
251	0x3e196796	0.14980921
252	0x3bb9e755	0.005673329
253	0x3e9aa66e	0.302051
254	0x3f0f9937	0.5609316
255	0x3ed4c23b	0.41554436

edge_lin.2.bias f4 [32]
0	0x3da9910b	0.08279618
1	0xbd17fadc	-0.037104473
2	0x3e09e674	0.13466817
3	0x3d4714b2	0.04860372
4	0xbe371baa	-0.17881647
5	0x3d8608de	0.0654466
6	0xbcb06b64	-0.021535583
7	0xbd479f51	-0.04873592
8	0x3c43fd11	0.011962191
9	0x3d6e8b2f	0.058238205
10	0xbe3ffd3e	-0.18748948
11	0xbd0e4f1f	-0.034743425
12	0xbe21911e	-0.15778014
13	0x3d11dba8	0.03560987
14	0x3cc0e339	0.023545848
15	0x3e3b024c	0.18262595
16	0xbcd0cabe	-0.0254873
17	0xbe2306cd	-0.15920563
18	0x3cbcf3ce	0.023065474
19	0xbd061767	-0.032737162
20	0x3e23b266	0.15986022
21	0xbcb8ca67	-0.02255745
22	0xbcf34b53	-0.029699003
23	0xbca92034	-0.020645238
24	0x3d777a10	0.060419142
25	0x3d4f12ff	0.050555225
26	0x3b83db3b	0.004023937
27	0x3d5a62ca	0.05331687
28	0xbd78303e	-0.060592882
29	0xbdaa42a3	-0.08313491
30	0xbdb4c786	-0.088271186
31	0xbbf9458c	-0.0076071676
