reachability_classification/weights/Separateq0qgqkckMultiplePassGNNReachabilityNet_epoch_86.pt (torch_old, 53383 bytes, 26 tensors)

x_lin.0.weight f4 [8, 1, 1, 2]
00000000: 3b23 7b3e 95a9 76be 904f 91be 49db 92bf
00000010: 126f 903d c8d7 5f3f d670 eebe 972f c83e
00000020: 3357 a03e b255 42bf 260a 1dbf 79b2 573e
00000030: 61b9 5dbf e6fa 9d3d 0a65 0ebf 7421 d03e
0.24525158 -0.24088128 -0.28381014 -1.147317 0.07052435 0.8743863 -0.46570462 0.39098808
0.31316528 -0.7591201 -0.6134361 0.21064176 -0.8661099 0.07713871 -0.55622923 0.40650523

x_lin.0.bias f4 [8]
00000000: 9790 c53e 14c1 633f 9509 2cbf a4a0 f63e
00000010: 27d3 04bf 0c5c 853f a5ca 37be c17d f6bd
0.38586876 0.8896649 -0.6720212 0.48169434 -0.5188469 1.0418715 -0.17948397 -0.120357044

y_lin.0.weight f4 [8, 1, 1, 2]
00000000: 1d65 323f 821a 9e3d dce7 2c3f 9940 f13e
00000010: 2151 173d 4b4d 9d3f 3976 e43e d68a 06bf
00000020: f1c8 573c 0b7a 17bf dcc5 edbd 7e11 f6bd
00000030: 93f9 1dbf 8bf6 403e 4e93 113f 85dc 183e
0.69685537 0.077199 0.6754129 0.47119597 0.036942605 1.2289213 0.44621447 -0.52555597
0.013170467 -0.591706 -0.11610004 -0.12015055 -0.61708945 0.18844049 0.56865394 0.14927872

y_lin.0.bias f4 [8]
00000000: b1d5 2bbf 9534 2c3f 823f 4cbe ba57 9fbd
00000010: c30b 1cbe 9819 1bbf aa2b 153f 584b 583e
-0.6712294 0.67267734 -0.19946101 -0.077804044 -0.15238862 -0.6058593 0.5826975 0.21122491

th_lin.0.weight f4 [8, 1, 1, 2]
00000000: 4f06 bdbd f051 efbc c1b5 8c3e 16c4 853e
00000010: e044 73bc 71c3 f3bf a66f a6be d37b fc3e
00000020: 26ec eb3e 9361 22bf 6b56 02bf 511a bbbe
00000030: 8027 d73e 5322 e03e cd2f 00bd 1421 f2bf
-0.09229719 -0.029213876 0.27482417 0.26126164 -0.014847964 -1.9044019 -0.32507056 0.4931322
0.46078604 -0.63430136 -0.50913113 -0.36543515 0.42022324 0.43776187 -0.031295586 -1.8916345

th_lin.0.bias f4 [8]
00000000: 5eeb 3c3e f989 3d3c c974 51bd be0f 00bf
00000010: bed9 c83e dcc1 acbc 7a20 8ebf 36d1 163e
0.1844916 0.01156854 -0.051136766 -0.5002402 0.39228624 -0.021088533 -1.1103661 0.14728245

config_lin.0.weight f4 [32, 24, 1, 1]
00000000: 5286 043f 2a02 24be 4837 febe 5c3c cdbd
00000010: 8237 e43e c0dd 4d3e 654c 09bd 43a9 9d3e
00000020: 1814 c7be b7f7 b2bf 3ed8 8dbd 92ff b83e
00000030: 289b c8bd 049d 46bf d7a1 80bf cdc6 37bf
00000040: 0aed 2f3e f563 07be 72cd 6c3e fb55 a43d
00000050: da96 ba3c 6b48 823c fa4a 263e 481a 2b3f
00000060: 2fd8 41bd f222 a3be 3d17 603e 112f a13e
00000070: ba15 1b3f e4a1 9d3e ea52 4dbe b5c8 fe3c
00000080: cfe5 fbbe 0417 81be 655f 8b3d 6e41 84be
00000090: 02b1 993c 80e7 1f3e 2745 703e 5b77 2ebe
000000a0: fd11 173e dc9d 12bd 21ba 1c3e a1a6 e4bd
000000b0: 1f1f a4be 9fec 0c3e 8f34 3fbe be33 d13e
000000c0: 6720 103e 4f5c f73d 77d1 8fbe ba46 a73d
000000d0: b2bf 9abe f80c e23d 1e3e 403e 72a1 8c3e
000000e0: 1b01 b83e 6df1 71bd 9881 313e b122 8e3d
000000f0: 3b75 c03e aa66 443e 43b3 0dbe 1774 0c3e
00000100: cffe f2bd 7dc4 023d fb19 a4be 6acf 22be
00000110: a246 8c3e a290 03bd 8b3a ad3d 4e12 f5be
00000120: 90ac 43bd 1fb9 3fbe ba79 25bf 0bcd d3be
00000130: 8d22 5dbf c693 7ebe 8108 43bc 1fac abbe
00000140: c0c1 21bd 269f da3d 2ea0 853e 1de8 563e
00000150: 3622 2c3e f4c6 7cbe cae5 5bbe dcde 06be
00000160: 5569 80bd 9f85 363e 48fe 15be 578c 833e
00000170: 5b5c 393e 2ac3 9f3d ed85 313e 7a98 a1be
00000180: dfbc 183d 2109 383e bd38 fc3d f3cc b43e
00000190: ee96 97bf 6535 543e 2f10 a6be c497 29be
000001a0: ccd1 853e 050e 1c3f d193 07be 0bb6 6abe
000001b0: dcd3 c7be 6216 fe3d c9f6 50be 3f6b a73e
000001c0: 2267 263d de1b e7be 3ea5 b03f e52e babe
000001d0: 1465 003f e58f ba3e 7021 a6be 5014 f13f
000001e0: e65f 8ebe bb49 1b3e 5ce0 92be a165 1b3e
000001f0: e587 833e 6cce bb3e 365d c73d d0a0 2ebf
00000200: c77f a53b fb6e ad3e 1980 66bf a877 13bf
00000210: 4caf 19be 3cc3 993b b9c7 573e 20df 34be
00000220: da31 503c b256 df3d 3856 03bd b2ab 31be
00000230: 202a c5be ec87 96be 116f 023f 232b dcbd
00000240: f554 25b8 ac1f a23e 764c d03e efce 03be
00000250: beab 973d 38e5 cdbe be14 aa3e 72a2 88be
00000260: ed65 c33d 7dde c6be 92ec b6be 74f9 f33d
00000270: 4a4f 90bd 2330 973d 107f 913e eea4 4e3c
00000280: c663 b33c 639f 9fbe 84b2 64be 592e 933e
00000290: ffb5 61bf a732 24bd b1e5 05be 9f2f dbbe
000002a0: 5f92 25be a053 2bbe 418b 943e a3aa a5bc
000002b0: 1032 e6bd cc01 bbbe dbd9 cabd cb49 eebd
000002c0: d771 a9bd 2224 2abf ffd7 a5bd 7d05 aebc
000002d0: 6ffd ae3e 3b4c dd3e feab 58bc bf77 06bf
000002e0: c16e 3fbe 2ae7 10be 2cb2 583d 099c bfbc
000002f0: 3430 ad3d 92e7 43be 1e71 163e 86ff 9ebe
00000300: a19d 683c 316b 833f 666e 11be d1cd cabe
00000310: d9b8 423d d58f c73e 3656 873e a200 49be
00000320: 65a7 a9bd 83a6 11be 3178 0bbf 8575 49bf
00000330: 80ad 3bbd a8c4 933e e2b2 9f3e c0d1 ff3b
00000340: 0c44 713d 3cc0 8b3d 0959 ccbc 98fd 19bd
00000350: 5785 80be bf05 9fbe 83cb ddbd 6379 033e
00000360: 94c1 003f 15dd 293f 100b 17bf 2c83 3bbe
00000370: 3a54 c63e f459 8f3e 8996 b9bd 6527 883e
00000380: 008c 2abe 45a9 963e 8786 fd3e 2f39 513e
00000390: 22fe 69bd 5018 8ebe 68a3 9dbd d29c c2bd
000003a0: 05c1 7e3e 59fb a63c 0dac 2b3e 73b0 c23e
000003b0: 6053 423c 383a 03bd b848 98be b81e 9c3e
000003c0: a4ef f9be 2104 b2bd 3d5b 8d3e 36bd 19be
000003d0: 821a c9be f2a5 4e3d 6485 8abe 4cfe 073e
000003e0: 862c d73e a34c 313e 211f 85be 891c a93e
000003f0: 8d27 6a3e 497e 6dbd d03e efbe 7878 dd3e
0.51767457 -0.1601645 -0.4965155 -0.10021278 0.445736 0.20104122 -0.03352012 0.307932
-0.38882518 -1.3981847 -0.069260105 0.36132485 -0.09795219 -0.77583337 -1.004939 -0.7178772
0.17180267 -0.13221724 0.23125246 0.08024212 0.02277701 0.015903672 0.16239539 0.66836977
-0.04732531 -0.318626 0.21883865 0.3148122 0.6058003 0.30787575 -0.2005116 0.031101564
-0.49198768 -0.25212872 0.068053044 -0.2583117 0.018761162 0.15615654 0.2346388 -0.17037718
0.14752956 -0.035795078 0.15305378 -0.111645944 -0.32054994 0.13762139 -0.18672393 0.4085979
0.1407486 0.12078153 -0.28089496 0.08167787 -0.30224377 0.1103763 0.18773696 0.27466923
0.35938343 -0.059068132 0.17334592 0.069402106 0.3758944 0.19179788 -0.13837914 0.1371616
-0.11865007 0.031925667 -0.32051072 -0.15899435 0.2739764 -0.032120354 0.08458432 -0.47865528
-0.04777199 -0.18722962 -0.64638865 -0.41367373 -0.86380845 -0.24861059 -0.011903883 -0.33529755
-0.039491415 0.106748864 0.2609877 0.20986982 0.16809925 -0.2468527 -0.21474376 -0.13170952
-0.062700905 0.1782441 -0.14647782 0.25693008 0.18101637 0.078008965 0.17336245 -0.31561643
0.037289497 0.17972232 0.123155095 0.35312614 -1.1842935 0.20723493 -0.32434222 -0.165618
0.26136625 0.6095889 -0.13239981 -0.22921006 -0.39028823 0.12406613 -0.20406641 0.3269901
0.0406257 -0.45138448 1.3800428 -0.36363903 0.5015423 0.36437908 -0.32447386 1.8834324
-0.2780754 0.15164845 -0.28686798 0.15175487 0.25689617 0.36680925 0.097345755 -0.6821413
0.0050506326 0.33873734 -0.9003921 -0.57604456 -0.15008277 0.004692463 0.21072282 -0.1766324
0.012707198 0.10905208 -0.032064646 -0.17350653 -0.385087 -0.29400575 0.50950724 -0.10750415
-3.9418188e-05 0.3166479 0.40683335 -0.12871908 0.07405804 -0.40213943 0.3321895 -0.26686436
0.09540925 -0.3884162 -0.35727364 0.11912814 -0.07046373 0.07382228 0.28417253 0.0126125645
0.021898162 -0.3117629 -0.22333723 0.28746298 -0.8816833 -0.04008737 -0.13075902 -0.4280977
-0.16169117 -0.16731119 0.29012492 -0.020222967 -0.112400174 -0.36524808 -0.09904834 -0.11635169
-0.08273666 -0.66461384 -0.080978386 -0.021242851 0.3417773 0.43222222 -0.0132246 -0.5252647
-0.18694593 -0.14150682 0.052904293 -0.023389833 0.0845646 -0.19131306 0.14691588 -0.31054324
0.014197738 1.0267087 -0.1420227 -0.3961015 0.047539566 0.38976923 0.2643296 -0.19629148
-0.08283881 -0.14223675 -0.5448027 -0.78694946 -0.04581976 0.28860974 0.31191164 0.0078069866
0.058902785 0.06823775 -0.024944799 -0.03759536 -0.2510173 -0.3105907 -0.108298324 0.12839274
0.50295377 0.6635297 -0.59001255 -0.18311757 0.38736135 0.27998316 -0.090619154 0.26592556
-0.16654968 0.29426017 0.495167 0.2043197 -0.057127126 -0.27752924 -0.07697183 -0.09502567
0.24878319 0.020383524 0.16764851 0.38025245 0.011860698 -0.032037944 -0.2974298 0.30492187
-0.48815644 -0.08692194 0.27608672 -0.15013584 -0.39278036 0.050451227 -0.27054894 0.132806
0.42026156 0.17314391 -0.26000312 0.33029583 0.2286665 -0.057981763 -0.4672761 0.43255973

config_lin.0.bias f4 [32]
00000000: 585e 193e e1e1 a03e 364f a5be b842 5c3e
00000010: a26e 783e 54b6 05bd 0ee9 eebd 7d54 ccbe
00000020: f44f 06be 59d6 b03d 8a87 f5be 1572 243e
00000030: f7c8 c13d 13e7 963e 01ff ce3c 3e8f 0a3f
00000040: 676e 57bd 0aa8 2bbe 0b92 10bf be11 0d3e
00000050: e8d9 d03d d5e9 6bbe 4022 a23d f813 57be
00000060: 114e 583e ba71 e03c f5a6 2fbe 3cef 943d
00000070: 31e5 cb3e 5f36 80be c154 3a3d 108a 043e
0.14977396 0.31422332 -0.32286996 0.21509826 0.24260953 -0.032644585 -0.116655454 -0.3990821
-0.13116437 0.086346336 -0.4795497 0.16059144 0.09462159 0.2947317 0.02526808 0.5412482
-0.052595522 -0.1676332 -0.56472844 0.137763 0.10197812 -0.23038419 0.07916689 -0.21003711
0.2112353 0.027397979 -0.17153533 0.07272193 0.39823297 -0.25041482 0.045490984 0.12943292

config_lin.2.weight f4 [32, 32, 1, 1]
00000000: f3ee af3e 679e 3a3e f69d ab3d 27fe 0abd
00000010: fe91 163f c246 f0bd d673 cfbe b0af 993c
00000020: 8dd6 a83d beda 313d 4809 18bf 7722 a9bd
00000030: ab9b cabe 094a 13bf e6fc a9be 0945 823e
00000040: 40f4 9cbc 81b4 043d a503 e2be a098 e23d
00000050: bfc4 6b3e 18ff 823e f656 09bd ccfc bb3d
00000060: 2b58 c6be 414e 773e 537d f13e 9deb 52bf
00000070: 5491 a53b c603 0bbf 548e dbbd 2013 82bf
00000080: 3a4e 8e3e 8f58 6b3c af6b e1bd 94c3 c4be
00000090: 5f58 3d3f 315b bdbe c368 13bf fb8c 4e3e
000000a0: a4cf c23e b065 f9be e3a5 60be 3264 9fbd
000000b0: b241 943e 852e 323e 7c92 14be ea08 933d
000000c0: 5303 30bf 8f4a c9be 5e0c 36be a585 0bbf
000000d0: 9294 b5be d4b9 c33e 1647 3dbf 35fb 89be
000000e0: 2491 1fbf 557e 243e 93e7 193f 17a4 0b3d
000000f0: 06ef 37bf 7445 05bf 0ee7 df3c a1e1 98bd
00000100: daf0 f4bd dddb 5e3e 9c82 8d3d 9394 cebd
00000110: 8969 bc3d d3de 41bf 8cf6 eabb d43a 2e3e
00000120: 67d8 f43c dbf3 d4be 1722 903d b0fa 5e3d
00000130: 52fd 3cbd 4387 9ebc ffd8 efbc c642 bcbd
00000140: 28de 433d 6eb9 2cbe 1acd 843e 68db 383e
00000150: 4ed9 1f3d f9d5 0bbb 860e 8f3d c7e5 18be
00000160: f306 a43b d565 43be 7daa 83be c840 a23d
00000170: 0326 bcbe 0e65 3dbe f5a3 0f3e 891a a4bc
00000180: 1a0f 373f 5421 9bbd d52c 48bf 3ab4 c03e
00000190: fd0b adbe a9d9 4e3d aa94 eb3e e77d 24bf
000001a0: 2df4 a6bd 1401 0bbe f2bf d23c 3d8a 8b3d
000001b0: 6c1f 93bf 51a3 0cbe 9339 f9be 676e 8cbd
000001c0: c712 9cbe 6d23 e93d d511 91be b2f7 513e
000001d0: 14ec dcbe 84f9 973d da13 51bf f0ba 5fbe
000001e0: 364e ffbe 8a26 573e 6ed7 f73d 9eac ab3d
000001f0: 159e 28be b169 423e b7ea c03e 48d5 113f
00000200: 9bdb c03d e9f3 5abe b8de 8d3e 8672 563e
00000210: 36da ebbe d35e f4be 0cba b2bd 6f5a 203e
00000220: 3806 f1bd af02 54be 4a53 8a3e 2108 53bf
00000230: e0bc 4f3e d227 ca3c 95f9 313e 1027 f1be
00000240: 3809 bb3d b183 87bd e483 473d 7042 933d
00000250: deda 0ebe 46b2 6a3d d7d6 373e 7a2b ad3c
00000260: d936 b63e 610b 13bf c02b 64bd 96fb b2bd
00000270: 333d ccbe 4e3e 72be c932 5bbd cf8d 82bf
00000280: c070 36be 3c19 06bf aed6 cb3d beb3 803e
00000290: f63d 4bbe 12ff e7bd 72b2 50be cdc5 7f38
000002a0: e656 87be c39d 883e 981c 443e 5c3c a03e
000002b0: 19f4 b3bd 36d9 7c3e 0756 d9be a592 2cbe
000002c0: cd84 803e d60d 49be 3739 a43e 8aa0 aabd
000002d0: 7c52 f63d 9be9 00bf 3b20 26be c447 593d
000002e0: 711d 3fbd bbad 893e cba3 593e 7b4f 26be
000002f0: 70dc b5bd 3656 b3be 6967 91bd 080d 5a3e
00000300: e98f 2dbe aab7 98bd 4b6e b4bd 7b56 10be
00000310: 4e29 7f3d 36a7 eebe dae8 953c 6162 f53d
00000320: a7eb 06bf 5a77 29bf 0f34 3c3e 3335 383e
00000330: 8964 fd3e 59b9 863d 074f 94bf 2555 b53c
00000340: b9da 12be 1a69 1c3e 9205 9dbd 289f a6be
00000350: d32f 1bbe f9c7 223e 8f45 833d 81f6 3bbf
00000360: 518e 72bc 08a7 e1bc 743c 15bf 384f 4cbe
00000370: bcae ab3d e4d7 3e3e 0b2d 9c3e 0ebe 253e
00000380: 4ec3 fcbe b08e 5c3e c719 11bf d90a cbbe
00000390: cc72 87be eca5 c33e 209b 013f b399 05bc
000003a0: 13c0 843e 4a45 26bf c8b0 64bf c50a 223c
000003b0: c074 2a3e 786f 23bf 805a 25bd 0188 973d
000003c0: 26e9 1fbe 70ff 9b3d eb94 e73c 61b2 f63d
000003d0: 6807 04bf 92ca af3e 4a5c 25bf 4a28 e5be
000003e0: 6540 d5be 4643 0abf 0691 86be 51fb 32bd
000003f0: b29b 0d3e 4c12 25bd 2360 2f3e eace 893e
0.3436199 0.18224488 0.08379738 -0.033933785 0.58816516 -0.11732246 -0.40518063 0.018760532
0.08244047 0.0434215 -0.5938916 -0.08258527 -0.3957189 -0.57534844 -0.3320076 0.25443295
-0.019159436 0.032398704 -0.44143406 0.11064267 0.23024271 0.25585246 -0.033530198 0.091790766
-0.38739142 0.24150945 0.47165927 -0.8239077 0.005052725 -0.5430263 -0.10720506 -1.0162086
0.27794057 0.014364376 -0.11006867 -0.38430464 0.7396297 -0.36983636 -0.5758173 0.20170967
0.38049042 -0.48710394 -0.21938281 -0.077827826 0.28956372 0.17400558 -0.14509004 0.071794346
-0.6875507 -0.39314696 -0.17778155 -0.545008 -0.35464913 0.38227713 -0.73936594 -0.26949468
-0.6233084 0.16063817 0.6011898 0.034092035 -0.71849096 -0.520591 0.027331855 -0.0746491
-0.11960001 0.21763559 0.069096774 -0.10086932 0.09199817 -0.7573063 -0.007170504 0.17014629
0.029888345 -0.41592297 0.07037752 0.054438293 -0.046140023 -0.019351607 -0.029278276 -0.091924235
0.047819287 -0.16867611 0.2593773 0.18052447 0.039025597 -0.0021337254 0.06985192 -0.14931403
0.005005711 -0.19081815 -0.2571601 0.07922512 -0.3674775 -0.1849558 0.14027388 -0.020032184
0.7150742 -0.07574716 -0.7819341 0.37637502 -0.3379821 0.050500546 0.4601186 -0.6425461
-0.081520416 -0.1357463 0.025726292 0.06813476 -1.1493964 -0.13734175 -0.48676738 -0.06856995
-0.30483076 0.1138371 -0.28333917 0.20504645 -0.43148863 0.07420638 -0.81670916 -0.21848655
-0.49864358 0.21010795 0.12101637 0.083825335 -0.16466554 0.1898563 0.37679073 0.56966066
0.094168864 -0.21382107 0.27708983 0.20942125 -0.4606492 -0.47728595 -0.08726892 0.15659498
-0.11768764 -0.20704149 0.2701667 -0.8243428 0.20286894 0.02467719 0.17380364 -0.47100115
0.09132618 -0.06616915 0.048709765 0.07190406 -0.13950679 0.05729892 0.17953049 0.021138895
0.3558872 -0.5743924 -0.055705786 -0.087393925 -0.3989044 -0.2365658 -0.05351523 -1.0199527
-0.17816448 -0.52382255 0.09953056 0.25137132 -0.19847855 -0.11327948 -0.20380571 6.0980954e-05
-0.26433486 0.26682863 0.19151533 0.3129605 -0.08786792 0.24692234 -0.42448446 -0.16852815
0.2510132 -0.19634184 0.320749 -0.08331402 0.120274514 -0.50356454 -0.16223232 0.053046957
-0.046658937 0.26890358 0.21253888 -0.16241257 -0.08879936 -0.3502671 -0.07099802 0.21294034
-0.16949429 -0.07456906 -0.08810099 -0.1409549 0.06229525 -0.46611947 0.018299509 0.11981655
-0.52703327 -0.6619774 0.18379234 0.17989044 0.49490765 0.06578321 -1.1586617 0.022135327
-0.14341249 0.15274468 -0.07667078 -0.32543302 -0.15154962 0.15896596 0.064097516 -0.7342301
-0.014804439 -0.027545467 -0.5829537 -0.19952095 0.08382937 0.18637043 0.30503115 0.16185781
-0.49367756 0.21538806 -0.5667996 -0.39656714 -0.2645477 0.38212526 0.50627327 -0.0081543205
0.2592779 -0.64949477 -0.89332247 0.009890263 0.16646099 -0.6384196 -0.04036951 0.073989876
-0.15616283 0.0761708 0.028269252 0.12045742 -0.515738 0.34334236 -0.64593947 -0.447573
-0.41650692 -0.540089 -0.2628252 -0.043696705 0.13828924 -0.040300652 0.17126517 0.26915675

config_lin.2.bias f4 [32]
00000000: f628 e93d 3fa3 223c 12d5 9bbe c227 15be
00000010: 0b15 22be cf32 c6be 62c3 093e c3c8 3fbe
00000020: 3c8a 803c 3b1c 85be e936 a73d aa1a a6bd
00000030: 66f0 cbbe 153b b5bc 3d26 eebd fd40 dabd
00000040: 79bf 16be 4d99 dcbe c7b4 dfbe 6c03 5d3e
00000050: f321 88be 27de f9bd 0856 b53e a307 8f3e
00000060: 283d cebe b448 923e 3922 86bd e6a8 abbc
00000070: 1e85 983e e139 f3be 9854 d93d 5ec2 91bc
0.11384766 0.009926616 -0.30435997 -0.14565948 -0.1582834 -0.3871064 0.13453439 -0.18728928
0.015690915 -0.259981 0.0816477 -0.081105545 -0.39831847 -0.0221229 -0.11628387 -0.10656927
-0.14721479 -0.4308571 -0.4369261 0.21583337 -0.265884 -0.12200575 0.354172 0.27935514
-0.40281034 0.28571093 -0.06549496 -0.02095456 0.2978906 -0.47505096 0.10611838 -0.017792877

vertex_lin.0.weight f4 [32, 64, 1, 1]
00000000: c4f7 89be b6d6 20be 30f9 90bd 9294 a3bd
00000010: 3d8e 983e 6249 ff3d 7247 663c 3794 81bc
00000020: 00f2 36be 3fbd 58be f92f 85be bd76 c43e
00000030: 9e57 5dbd 20ac ae3e 69bc a6bd 23cb 7ebe
00000040: 2d63 61be 5808 bf3e d4f8 803e 7a42 5a3e
00000050: e3fe cd3d b249 aabd 551e 903d 01d4 33be
00000060: 6ca0 d0be 01c5 6c3e 173b 66be bfd6 cdbd
00000070: cb6f f43d 7d32 c03d 0a88 7e3d ea60 67be
00000080: 542c 353e 7a4d d23e 97d4 be3c f1e7 373e
00000090: cedd 14bf 5c45 123d d265 443d 6e6b 1e3e
000000a0: daef da3a 3d67 bb3e 94fb d03d 0678 d5be
000000b0: 71d0 403e 8c16 2f3e 0079 813e d1a3 96be
000000c0: a45f 9a3e 6a37 e6be f625 95be 08a1 c1be
000000d0: 7519 b6be 8748 703d 04d5 44be abe3 f73e
000000e0: 26f1 dbbe 7bba 8bbe 9daa d1be f31c f6bd
000000f0: 3f44 14bf 6270 55be 2334 01bf 8f1a 513e
00000100: 2959 a5be b05b ab3e 5377 d4bb 6c19 e83e
00000110: eca6 ecbd fd4b acbe fbf9 963e bc42 f7bc
00000120: 08d4 c13e fcf4 a0bb 5e88 7bbe 9471 873e
00000130: 65c4 26be dfea b83e dfdb 913e 8675 e7be
00000140: ba4b 303e 041b c4bd d10b 07be eb86 5f3e
00000150: 9dad 57be 2e0a 22bc a1c1 553c d47e b93e
00000160: 5aec c7bd 1f38 b63c 3759 de3e f057 933e
00000170: 510a e6be e236 e73d 7cef 893e 2e41 b93e
00000180: 5904 8abe a413 2dbe 0ed1 2fbe 3439 c63d
00000190: 8f0e 0dbe a984 4cbd 2d69 27bd 7679 e13b
000001a0: c0a5 a4be a133 70bc 42ee 59be b5d1 11bf
000001b0: cde0 41bf d05b 813d 52d7 4a3e 60d0 b33e
000001c0: aae8 8b3e 301d 813e c900 2c3c 22de bdbd
000001d0: 3435 ac3d dff2 f7bd 99a0 78be a2bb 293f
000001e0: 1d81 bbbe 0f86 0a3e 23c2 a4be e5f9 193e
000001f0: 6ccc 24be 0d35 1fbe c12d 50be 0ff0 9d3c
00000200: 0e02 bfbe 83b6 ac3e 2186 a43b ab7a 49be
00000210: 4d58 08be 4390 133e 901b 203e 24cc 303e
00000220: 9ea5 b6be 90e5 703e 2553 8a3e 8a55 d13e
00000230: 9a1a 763e f507 babe e3de f13c 4d73 40be
00000240: af78 7e3d 0c6c 4d3d 8fae 2a3e 27ec 19be
00000250: 14c7 a2bd 38e7 303e 86ed d1bd 8cb5 4a3d
00000260: f64b 243d da6b 353e e4b0 dbbe 4191 643c
00000270: a17a be3d aa2a abbe 534a a2be 6d89 0cbc
00000280: 7a22 6ebd ee93 f13e a2bc 93be fa61 443d
00000290: 34c0 b2be 2b79 e33d ef82 babe 4aa8 debe
000002a0: 9dc7 73be f15a d9be f497 263d 8b21 bb3e
000002b0: e753 7abe 87a1 77be 5706 69be 0564 a23e
000002c0: cb2c 6a3e 61d0 20bf 91bf 82be 7726 aabb
000002d0: 4bd6 3c3e 3a23 433e 5f65 b93d 6298 d9bd
000002e0: cafa 933e e510 a03c 171d 103e d602 2a3d
000002f0: 267c 28be 3a7b 9d3e 5e92 f8bd 900a b83e
00000300: 29ac a6be 0ad3 febe 9277 103d 59ee d23e
00000310: 0d30 f2bd 3043 1bbc d770 79be 6b5b 8abe
00000320: 2bcd da3e b976 46bd 071b 0a3d cdf2 9dbe
00000330: 9436 a4bd b27f d13e e1d0 a63e bd28 01bf
00000340: 2408 983e 6d82 533e 8f47 c63c 80fd 51bf
00000350: f50a 6d3e afc1 913e 8991 97be 4c1c 433d
00000360: edba ecbc dde2 83be 0857 4b3e d477 4b3e
00000370: 9e6b 1ebe ecfc f8bd b2d6 ea3e 9c70 e23d
00000380: a5bc f9be a1a9 313f 571c 81be 2117 09be
00000390: 8ae3 c73d c83b ecbd 7da0 43bd 7442 88be
000003a0: 0197 e13c 1c38 02bf 3239 63be d083 9d3d
000003b0: 2be5 0a3e 961e 54be 6c0d c53d 2122 9f3e
000003c0: 4131 c53e a76e 7e3d 06f5 a9be 8adb 3abe
000003d0: 78f4 b83d 27a4 d63e c86e b1bd 45ed 53bf
000003e0: 8da9 1c3e 24ee 943e b3d8 003e 3ccb 98bd
000003f0: be92 97be 5e89 0c3b 07e3 f0be 6e56 433e
-0.26946843 -0.15706906 -0.07078779 -0.07987322 0.2979602 0.124651685 0.01405512 -0.015817745
-0.17865753 -0.21165942 -0.26013163 0.3837184 -0.054038636 0.34115696 -0.08141405 -0.24882178
-0.22010489 0.37311053 0.2518984 0.21314421 0.100583814 -0.083148375 0.070370354 -0.17561342
-0.40747392 0.23122026 -0.22483478 -0.10050725 0.11935385 0.0938463 0.062141456 -0.22595564
0.17692691 0.41074735 0.02329473 0.17959572 -0.5815095 0.035710678 0.047948666 0.15470669
0.0016703561 0.36602202 0.10204235 -0.41693133 0.18829514 0.17098445 0.25287628 -0.29421857
0.30151093 -0.44964153 -0.29130524 -0.3781817 -0.35566297 0.058662917 -0.19221884 0.48415884
-0.4295742 -0.2729071 -0.4095048 -0.120172404 -0.57916635 -0.20843652 -0.5047018 0.20420288
-0.32294586 0.3346839 -0.006483951 0.45331895 -0.11555275 -0.33651724 0.29487595 -0.030183189
0.3785708 -0.004912017 -0.24563739 0.2645384 -0.16285856 0.36116692 0.2848806 -0.4520685
0.17216387 -0.09575465 -0.13188101 0.21828811 -0.21062322 -0.009890122 0.013046653 0.36229575
-0.09761877 0.022243557 0.4342744 0.28778028 -0.44929746 0.11289765 0.26940525 0.3618254
-0.26956442 -0.16902024 -0.17169592 0.096788794 -0.13775085 -0.049931202 -0.040871788 0.0068809344
-0.32157707 -0.014660747 -0.21282294 -0.5696061 -0.75733644 0.0631634 0.198087 0.35119915
0.27325946 0.2521758 0.010498234 -0.09270884 0.08408585 -0.12106871 -0.24280013 0.6630193
-0.36621943 0.13527702 -0.32179365 0.15036733 -0.16093606 -0.15547581 -0.20329954 0.019279508
-0.37306255 0.33732995 0.005020872 -0.196757 -0.13314934 0.144105 0.15635514 0.17265373
-0.3567323 0.23525071 0.2701656 0.40885574 0.24033585 -0.36334196 0.029525226 -0.18793984
0.06212681 0.05015187 0.16668151 -0.15031491 -0.079481274 0.17275703 -0.10250382 0.049489543
0.040111504 0.17716923 -0.42908394 0.013950647 0.09300733 -0.33430988 -0.3169733 -0.008577687
-0.05813835 0.47183174 -0.28854853 0.047945 -0.34912264 0.11107095 -0.3642802 -0.4348777
-0.23806615 -0.42452195 0.040672258 0.3654903 -0.24446069 -0.24182712 -0.22756325 0.31716934
0.2286865 -0.6281796 -0.2553678 -0.0051925736 0.18441121 0.19056407 0.09052538 -0.10624768
0.28902274 0.019539306 0.14073597 0.04150661 -0.16453609 0.30758077 -0.12137292 0.3594556
-0.32553223 -0.49770385 0.03527028 0.4119747 -0.11825571 -0.009476468 -0.24359451 -0.2702287
0.42734656 -0.048453066 0.03371718 -0.30849305 -0.080182225 0.40917736 0.32581237 -0.50452787
0.2969371 0.20655222 0.024204044 -0.82027435 0.23148711 0.2846808 -0.29603222 0.047634408
-0.028897727 -0.2575902 0.19857419 0.1986993 -0.1547074 -0.12157616 0.45866925 0.11056635
-0.48776737 0.6939946 -0.25216934 -0.13387729 0.097601965 -0.1153484 -0.047760475 -0.266132
0.027537825 -0.50866866 -0.22189787 0.07691157 0.13563983 -0.20714793 0.09621701 0.31080726
0.3851414 0.062117245 -0.3319475 -0.1824781 0.09031004 0.41922113 -0.08663708 -0.8278392
0.15299053 0.29087937 0.12582664 -0.07460639 -0.29604143 0.0021444182 -0.47048208 0.19075939

vertex_lin.0.bias f4 [32]
00000000: 48ab 23be a998 f8bc 0812 6fbd fd04 64be
00000010: 26ad b9be 3f57 763b 82cc e1ba feef 94bd
00000020: fee2 f43d daf4 99be 60a7 1d3d 9a7c 993d
00000030: 77d2 643e 7263 3ebe bf26 263c 2629 25bd
00000040: a393 803e d82d 17bd ed7a 31be 77b0 0cbe
00000050: b426 83be a5ff 92be 683c 2fbe 665e 463e
00000060: 98c0 623e dd24 453e 53bc 9dbe 153a a2be
00000070: 0e57 7f3d 6b9f ddbd 3704 8c3e d749 7dbe
-0.15983307 -0.030346232 -0.058366805 -0.22267528 -0.36264914 0.0037588624 -0.0017227086 -0.072723374
0.11957358 -0.3006962 0.0384897 0.07494469 0.22345911 -0.18592623 0.010141074 -0.040322445
0.25112638 -0.036908954 -0.17332049 -0.13739191 -0.25615466 -0.28710666 -0.17112887 0.19371948
0.22143781 0.19252343 -0.30807742 -0.31684938 0.06233888 -0.10821422 0.27346966 -0.24735199

vertex_lin.2.weight f4 [32, 32, 1, 1]
00000000: b591 cbba 5867 35bc 252d 8b3d b49a ef3d
00000010: 7462 ca3d 247c 883e fb97 6d3d 69f7 febd
00000020: e412 b83e 984e 0f3e e47d 1abd e0fa a43e
00000030: 0338 7b3d 2022 1f3e 75ae 953d 82f1 9dbe
00000040: 9d50 c33e 095f 8a3e b247 4f3d 9314 1a3e
00000050: a224 073e 3c0b 873d c45c efbd 7106 683e
00000060: 3627 5dbe 518b 73bd 6a09 3b3c e42d c4bd
00000070: 3bce fabd 56da 1cbe 5bce ac3d 0947 82be
00000080: 925d 41be 2e07 17bf 8c99 78be bb70 093e
00000090: a056 cdbe 0b91 3abe 6c2e bcbe ccbd 41be
000000a0: 55a5 84be ce1e 9a3d 1385 5dbe 3551 0abf
000000b0: c536 39bf c738 84be aac9 aabb 357c 743e
000000c0: c0ba 043f ea98 d5bd c896 1dbe ff88 42bf
000000d0: bc99 68be a332 21bc d0a1 f23e 4d69 af3e
000000e0: a814 ae3d 03a5 1fbf 0241 d83c ea43 6dbe
000000f0: c8b0 9cbd d9de baba 7b4d 35bd 43cf d1be
00000100: f7b3 e53c 7a88 843e a718 1abd 6236 3a3e
00000110: 89a2 6abe b258 943e 79e8 abbe 5638 08bf
00000120: 663b 873e 44a6 fbbe 881e 95be 724b c1bd
00000130: 4e15 a7be 3c77 44be f2d6 633d bd42 52be
00000140: 4bed 4b3e de1b a63e e93c 17bf de98 f5be
00000150: d365 fbbe 29d9 97bc df72 73bc b978 2bbf
00000160: 6d54 1b3e 4076 b7bc 80a2 43bf 8c9a 86be
00000170: e372 cc3d e59f 813d b070 75bf b9d8 f9be
00000180: 64cd 763e 2413 8cbe 6b85 bf3d 1a11 d13d
00000190: 2a97 0f3d 4924 323c 7c42 80bc 7b8f 3b3e
000001a0: 0646 24be fb1c e3be 38bd afbe 08b5 42bd
000001b0: 9c11 a4bc f0ae cdbe 73e5 ef3d 2d57 603e
000001c0: 4b07 33be 6cb9 493e 1c3a b8bd a518 2bbd
000001d0: e1f6 19bf 882c b93e 93ee 29bf 8632 b5be
000001e0: 8fd4 ca3c af13 d43e 613f 2bbe 3306 f0bd
000001f0: 1ac9 023d 0c05 343f c1d3 9d3d a3d7 9dbe
00000200: fb0c 333e d352 debc 502c 54be 1f8d 58bd
00000210: f98e 913e bb25 00bf e807 0abf e2db 86be
00000220: 3f38 29bf 4811 5fbc c891 da3e b413 4fbe
00000230: 251b 923e 14a0 b7be 1ff6 363e 7d91 dfbe
00000240: 6095 943e dbc0 cbbe bfec 683e a9f0 c63d
00000250: 248d 123e 0e8f 7b3d 2c5f a13b 8ce0 f5be
00000260: 9aec aebd e625 a63d ef24 e03e 7c7f bb3d
00000270: b09d 3fbf fb31 0f3e aadc 21bd 7117 ab3d
00000280: bb20 6cbe 70d3 e3bd f95b 3a3d 9a55 433c
00000290: 1135 f0bd 08ad b53e e433 fe3d 4117 76bf
000002a0: 25e6 393e 6503 213d 9a39 e53e 39b8 0cbf
000002b0: 7d2d 443e c2ee b2be c070 91be bcc9 903c
000002c0: 0e47 323e bcf2 aabe 1f5e 16bf 75b7 5cbd
000002d0: 6ad3 cfbe 0401 07bf dbcb ebbd 99bb 263e
000002e0: f4b8 0abd 9b1c 97bf 74b3 d3bd 9bdf 36b9
000002f0: ca77 bbbd c6e4 99be 550b d83e 6657 55be
00000300: f42e 20bf dca8 00bf 52e7 49be 4caf 2fbe
00000310: abf5 d1be 3ea2 97be 5af4 f8be d37f 6f3e
00000320: 4788 29be 9ba3 31be 75c7 9e3d 03aa 43be
00000330: 8c88 653d 7cf6 f7bd 3989 fcbe 7d48 ac3e
00000340: 20fc 663e c0be 863d 4698 08bf 8fe3 e4be
00000350: d797 3a3e a994 a13e 9246 373e 5e8f 413e
00000360: 0bfb 8fbe e5a2 6abe d2a8 123f d8f2 233e
00000370: f87c 2f3e 634b 39be 7ef5 5fbc 9793 5abe
00000380: 7174 d03d ed03 163e 1814 33bf a91f 6d3e
00000390: 1364 5bbe 97d0 b93d fbee 853d 279d 8a3c
000003a0: e3ab e23d 6dfa 093e 8336 c5bd 9e36 603e
000003b0: 189b 57be 4f0a 3d3d 1585 e0be bf57 ba3d
000003c0: 8c7f c8be 99f5 163e 0b3d f2bd 0914 c73e
000003d0: fbff 99bc b5c5 06bd cd93 e5be eb8b 1b3f
000003e0: 56f3 bebe ed69 acbe 0802 a7be 80ee 063d
000003f0: 1b5a 8d3d 7eae 0cbf a03d e2be 29d2 a7be
-0.0015531095 -0.011072002 0.0679572 0.11699429 0.0988206 0.26657212 0.058006268 -0.124495335
0.35951912 0.13994825 -0.037717715 0.32222652 0.061332714 0.15540361 0.07308666 -0.30848318
0.3814744 0.2702563 0.050605483 0.15046911 0.13197568 0.0659394 -0.116876155 0.22658707
-0.21596989 -0.059459034 0.011415819 -0.095790654 -0.122463666 -0.15317664 0.08437797 -0.2544482
-0.1888335 -0.5899533 -0.24277323 0.1342191 -0.40105152 -0.18219392 -0.36754167 -0.18920058
-0.25907388 0.07525407 -0.21632795 -0.5403016 -0.72349197 -0.25824568 -0.0052120285 0.23875506
0.5184746 -0.10429557 -0.1538955 -0.7599029 -0.22714895 -0.009838733 0.47389078 0.34260026
0.085000336 -0.6236116 0.026398186 -0.23170438 -0.07650906 -0.0014257088 -0.044263344 -0.4097844
0.028039915 0.25885373 -0.037621167 0.18184808 -0.22913565 0.2897392 -0.335758 -0.5321096
0.26412505 -0.49150288 -0.29124856 -0.09438218 -0.32633442 -0.1918611 0.05562491 -0.20533271
0.19914739 0.32443136 -0.59077317 -0.4796819 -0.49101123 -0.018536167 -0.01485893 -0.66981083
0.15168925 -0.022395253 -0.7641983 -0.26289785 0.099828504 0.063293256 -0.9587507 -0.4879816
0.24101788 -0.27358353 0.09351619 0.1020834 0.03505627 0.010872909 -0.015656702 0.18316452
-0.16042337 -0.44358048 -0.3432405 -0.047535926 -0.020027928 -0.4017253 0.11713686 0.21908255
-0.17483251 0.19699639 -0.089954585 -0.04177155 -0.6014233 0.36166787 -0.6637966 -0.3539011
0.024759559 0.41421267 -0.16723396 -0.117199324 0.031930067 0.703202 0.077064045 -0.3082858
0.1748542 -0.027139103 -0.20720029 -0.05286896 0.28429392 -0.5005757 -0.53918314 -0.26339632
-0.6610145 -0.01361496 0.42689347 -0.2022236 0.28536335 -0.35864317 0.17867325 -0.43665686
0.29020214 -0.39795575 0.22746561 0.09713871 0.14311653 0.061415724 0.0049246754 -0.48022878
-0.08541222 0.08112697 0.43778178 0.09155175 -0.7484999 0.1398391 -0.039517082 0.083540805
-0.2305936 -0.11124313 0.04549787 0.0119222645 -0.117288716 0.35483575 0.12412241 -0.9612923
0.181542 0.039309878 0.4477051 -0.549686 0.19157977 -0.34947783 -0.28406334 0.01767432
0.17409918 -0.33388317 -0.5873737 -0.053885896 -0.40590984 -0.52735925 -0.11513492 0.162825
-0.03386779 -1.1805605 -0.10336962 -0.00017440172 -0.09153707 -0.30057353 0.42196146 -0.20834121
-0.62571645 -0.5025766 -0.19717148 -0.17156714 -0.41007742 -0.29615968 -0.48623925 0.23388605
-0.16555892 -0.17347567 0.07752887 -0.19107823 0.056038424 -0.1210756 -0.49323443 0.33649054
0.22557116 0.065793514 -0.5335735 -0.44704863 0.18221985 0.3155873 0.17898014 0.18902346
-0.28121218 -0.22913702 0.5728885 0.16010606 0.17137516 -0.18095164 -0.01366937 -0.21345364
0.101784594 0.14649935 -0.69952536 0.23156609 -0.21424894 0.090729885 0.065397225 0.01692064
0.11067941 0.13474436 -0.09629538 0.21895835 -0.21055257 0.04615241 -0.43851534 0.090987675
-0.3915981 0.14742126 -0.11828049 0.38882473 -0.018798819 -0.032903392 -0.44839326 0.6076037
-0.37295026 -0.33674565 -0.32618737 0.032942295 0.06901952 -0.54953754 -0.4418764 -0.32777527

vertex_lin.2.bias f4 [32]
00000000: e3d7 5ebe a291 ebbd 370b f0ba 8194 b3bd
00000010: f9de 143d dd5d 7e3e 7a69 253e fa88 363e
00000020: 10e8 dbbe a63f debd 1e56 653e 91b7 8cbe
00000030: ed73 64be 73af 36be 2100 85bd a031 913e
00000040: d030 6d3e 452a 42be 34b8 98be 309e 62be
00000050: 92e2 80be 77a6 8c3e f9aa de3d fd2b debe
00000060: c905 22be 3512 b43e c870 553e 7450 743e
00000070: 6bc9 1d3d dee3 25be 157d 4c3e 15e6 07bd
-0.21762042 -0.11502387 -0.0018313889 -0.08768559 0.036345456 0.24840494 0.16153517 0.1782569
-0.42950487 -0.10851984 0.22396132 -0.274838 -0.22309847 -0.17840366 -0.06494165 0.28358173
0.23163152 -0.18961437 -0.29828036 -0.22130656 -0.2517286 0.27470753 0.10872454 -0.43392935
-0.1582252 0.3517014 0.20843804 0.23858815 0.038522165 -0.16200206 0.1996959 -0.033178408

edge_lin.0.weight f4 [32, 1, 68, 1]
00000000: 91bc 04bd 314f 30be 8d15 09be 04f4 71bf
00000010: 0bc2 8a3e 0961 2d3f 4fc2 adbd 609e 783e
00000020: 8915 8abe f70d 05bf 32ed 28be 6cae b63d
00000030: 119f 143e e007 dcbd 1b8a 44be 89f2 dabc
00000040: 59e7 f53d 5246 8abe 591d 973e a9da 19bd
00000050: e652 92be 409a b93e 395f 6abe 8d7c cb3d
00000060: d514 9f3c 1721 ca3e 7ae2 aa3e 8866 77be
00000070: 5bc5 643d 8f62 663e d256 91bd c714 6e3e
00000080: 37c5 aebf d3e3 5d3e 7b14 babd 9a2c 143e
00000090: ce71 0a3e 72d1 13be 16c5 323e e4a4 1b3f
000000a0: d98b 9dbd a881 2fbd f44e 46bf 6a3e 4bbe
000000b0: 34ff c7be 9bb4 a23c 4740 0f3e 9a85 bf3c
000000c0: fae2 e5be 342d d43d d4de 443e e33c b23e
000000d0: 64ba 333d 9fbe 7bbf 1525 c1be a683 2b3e
000000e0: f860 a6be c828 b5bc 63aa 55bd 351c f63e
000000f0: 6e89 943e 528c bebb 6c7f d33e fdb3 fcbd
00000100: 1710 933e 0b89 5a3e 4af6 e4be 8d70 cd3d
00000110: ecaa 5abe 292f cc3e 7f04 693e 122c 403e
00000120: 01ef 19bd 521c c0bd 58b9 243e 205a 39be
00000130: 3ecf 1e3f b1c6 833e 2259 86be 4016 8ebd
00000140: fb5f b9be 785c a23e e7ed bf3d aaf5 833e
00000150: 8ede 53bd 97c0 b43e c5fe 023e a6ae 54be
00000160: e654 8e3d 5ee0 963d 9969 363d a5cc 11be
00000170: b6f2 a0bd 7d31 cc3e 0c6e ebbd c6cc fcbd
00000180: eb63 8fbe fd85 0d3d 74a5 e9bd 4633 81bf
00000190: 6bf6 0b3f bb69 4fbd e2a5 d3bd d1c9 023e
000001a0: fee7 a7be a2d0 6b3c dc5a 6b3d 3ee5 333e
000001b0: cba1 3a3e 50bd e03b 448d a63d ddd7 973e
000001c0: 017e 01be f31f 87be 91ac acb9 1db9 ed3c
000001d0: 2409 c63d 4798 c3bd 410d a73c 3cee 3abe
000001e0: 5b49 a9bd bcff a03e 8eb7 93be 9e76 993e
000001f0: 3007 2e3d 241a 19be 4bb3 d33d e241 133e
00000200: c1b1 d43d 3b29 b4be 5eae 803e 6fe9 b1bd
00000210: c864 7ebe 3919 f7be 61a1 d53e 0866 bbbd
00000220: 49b2 983d b9e6 12be ddd9 ee3e 6ada 063e
00000230: 7040 6fbf 7945 79be 6ebb 4b3e 52fc aabc
00000240: 0bdc ef3e 1c95 523b e357 89bf 607d 26bd
00000250: 867e d13b 4afe 75bd 0bfc af3d 16ff a83d
00000260: 8115 80be 5580 4f3e 9944 ebbd b4eb c1be
00000270: 5b6e cdbd 9b4a 8fbe 1351 ba3d cf1f cb3e
00000280: ea1b 303d 43f2 2bbf df0c 3fbe d5c5 e3be
00000290: 0d59 7ebd 005c a6be 32df 07bd 7be5 68bd
000002a0: 418f 6e3e 8682 06bd 46e7 933e 8cb7 f1be
000002b0: a1c9 8bbe 5e86 153d e4d1 ccbe 9cdf 9abe
000002c0: 2e23 223e 764b b43e b343 b33d 62ea ef3c
000002d0: 8827 2dbf 5472 2fbe c930 2c3e 38c3 87bc
000002e0: 4f46 be3e 0f26 1f3e c3fe 63be 1af7 31be
000002f0: 881d 4abe 71d5 8dbe 8528 093e 4ab4 49be
00000300: 7bfd 083d 6494 903e 863d e73c 601c 99be
00000310: bd9d 5a3d 32c6 6bbf 5276 7d3d c524 c7be
00000320: a750 5dbe db5e 8f3e bffb b1be b443 ec3e
00000330: 38cb 8bbe a8a1 333e 2d44 d8be d4ee a4be
00000340: 6d06 d9bd 2445 c53e bd1c c13e db37 e7bc
00000350: 0cf8 033e 43ff 2fbf 0c5f 413e 65c8 02bf
00000360: 5168 54be b748 c3be 2f50 17be d3ff b83e
00000370: 84c1 6d3e e815 fcbd 9e9d 57be 2562 293e
00000380: ba10 4bbf 73d1 783e 2e89 cfbc bb38 fcbe
00000390: 303e fe3d 9ffe 0a3f 7624 a5bd 4c9c c3bd
000003a0: 0b92 14be 33be 273e 3320 493e b06a 723e
000003b0: 10a2 d63e 8a92 273e 72fd bcbe 781b a2bd
000003c0: 4ef1 a83e 9ce5 3b3e db94 90bd c0cd aa3e
000003d0: df2a 0a3f d8eb 8fbe b578 d63e 5e4b 94be
000003e0: 7e07 18be 3c69 40be c081 8fbe eb17 0e3e
000003f0: fb5b 773e 045c 8ebd 39f8 523e 43f3 f53d
-0.032406393 -0.17217709 -0.13387127 -0.94512963 0.27101168 0.6772619 -0.08484327 0.24279165
-0.26969555 -0.51974434 -0.16496733 0.08919987 0.14513804 -0.107436895 -0.19193308 -0.026726978
0.12007017 -0.27006775 0.29514578 -0.037562046 -0.2857887 0.36250496 -0.22887887 0.099358656
0.019419113 0.3947837 0.33375913 -0.24160206 0.055852275 0.22498535 -0.07096638 0.23250113
-1.3653935 0.2166894 -0.090859376 0.14470139 0.13519976 -0.14435366 0.17457995 0.6079848
-0.076926894 -0.04284826 -0.7746422 -0.19848028 -0.39061892 0.01986151 0.13989364 0.023379136
-0.44899732 0.10360184 0.19225627 0.34812078 0.043878928 -0.9833774 -0.37723604 0.16749439
-0.32495856 -0.022114173 -0.052164447 0.48068395 0.290111 -0.0058150673 0.41308153 -0.123390175
0.28723213 0.2134134 -0.44719154 0.10031233 -0.21354264 0.3987973 0.22755621 0.18766811
-0.037581448 -0.09380402 0.16086328 -0.18100786 0.62034976 0.25737527 -0.26239878 -0.069378376
-0.3620604 0.31711173 0.09371548 0.25773364 -0.051725917 0.35303184 0.127925 -0.20769748
0.06949787 0.073670134 0.0445343 -0.14238222 -0.078587934 0.39881507 -0.11495599 -0.12343745
-0.2800592 0.03455161 -0.11408511 -1.0093772 0.5467288 -0.05063794 -0.10334374 0.127723
-0.32794183 0.014393004 0.057459697 0.17567918 0.18225782 0.0068585053 0.08132413 0.29656878
-0.12645723 -0.26391563 -0.00032934968 0.029018933 0.09669712 -0.09550529 0.020392062 -0.18254942
-0.082659446 0.3144511 -0.2885098 0.2997331 0.042487323 -0.14951378 0.10336932 0.14380601
0.10385466 -0.35187706 0.25133032 -0.08687102 -0.24843132 -0.4826143 0.41724685 -0.0915032
0.0745588 -0.14345826 0.46650591 0.13169256 -0.934577 -0.24342908 0.19895718 -0.020872269
0.46847567 0.0032132333 -1.0729946 -0.04064691 0.0063932566 -0.060056962 0.08592995 0.08251779
-0.25016406 0.20263799 -0.11487693 -0.3787514 -0.10030814 -0.27986607 0.09097495 0.39672706
0.04299537 -0.6716654 -0.18657254 -0.4448687 -0.062096644 -0.32492065 -0.03317184 -0.056859475
0.23296835 -0.03283932 0.28887385 -0.47210348 -0.27302268 0.036505096 -0.40003884 -0.30248725
0.15833732 0.35213822 0.08753147 0.029286567 -0.67638445 -0.17133456 0.16815485 -0.01657258
0.37163016 0.15541862 -0.22265153 -0.17379418 -0.19737828 -0.27701905 0.13394363 -0.19697681
0.033444863 0.28238213 0.028227579 -0.2990446 0.053373087 -0.920993 0.061880417 -0.3889524
-0.21612798 0.28002056 -0.3476238 0.46145403 -0.2730348 0.17542136 -0.42239514 -0.3221346
-0.10596929 0.38529313 0.37717238 -0.028224876 0.12887591 -0.68748873 0.18883914 -0.5108703
-0.20742919 -0.38141415 -0.14776681 0.36132678 0.23218352 -0.12308866 -0.2105622 0.16541345
-0.793224 0.24298649 -0.025333967 -0.49262032 0.12414205 0.5429477 -0.08063595 -0.09551296
-0.14508836 0.16381149 0.1964119 0.2367351 0.4192052 0.16364494 -0.36912113 -0.079153955
0.329966 0.18349308 -0.07059642 0.333601 0.53971666 -0.28109622 0.41888967 -0.2896375
-0.14846608 -0.18790144 -0.2802868 0.13876311 0.24156182 -0.06951144 0.20602502 0.12009289

edge_lin.0.bias f4 [32]
00000000: 5b7b 273c 9b43 3e3e e169 873e 8db5 df3c
00000010: 9975 d2bd 4017 3e3e ef11 f23d 8adf 803e
00000020: 316e efbd 4f97 fb3d 9900 0ebe 87f8 dcbd
00000030: f5d4 133c 47ac 713e c161 05bd e3aa f93d
00000040: 250d 51bd 2713 48bd b43f 6fbd 1e46 9abe
00000050: 7160 bb3b 0ec5 a0bc a609 063e 6979 1dbc
00000060: 36d8 923d fb39 bd3d 529e 99bc fb0f 7c3e
00000070: c57f 2dbc 33b0 f3bd bc25 d9bc c84d e63d
0.010222281 0.18580477 0.26447967 0.02730825 -0.10276336 0.18563557 0.11819827 0.25170547
-0.11690939 0.12284719 -0.13867415 -0.1078959 0.009022941 0.23600875 -0.03256393 0.12190797
-0.051037926 -0.04884639 -0.05841036 -0.3013162 0.005718284 -0.019625213 0.13089618 -0.009611466
0.07170145 0.092395745 -0.01875225 0.24615471 -0.010589545 -0.11898842 -0.026507251 0.11245304

edge_lin.2.weight f4 [32, 32, 1, 1]
00000000: bb45 b03d fb71 59be 0dfb 04bf 8a61 bd3e
00000010: 33fc 9bbe 3eac b53e 61e9 e43c b5c0 08bf
00000020: 011d a8bd df2b 69be ba7f 903f ff36 a63e
00000030: d0f5 283f 095c cdbd 22f1 5c3e b8de 33bf
00000040: b79b 6e3f 88dc 8ebe 09ca a33e 125a 04bf
00000050: 6033 0b3f 9697 2e3e 83dc 873e c62d 0b3e
00000060: 8850 b83e 160f e33e 8b54 f03e 49d6 2d3e
00000070: 96ce acbe 5169 273f 4782 203f 62fe dd3e
00000080: 8eda c83c 6c01 9e3a 9d78 f8be 29d3 a93e
00000090: 4a33 84be 2f3f e23e 6024 9f3e 193f 18bf
000000a0: cda2 5bbe a00f cebe b364 8f3f 9cbb 823e
000000b0: f4bb 453f b478 e5bd 15d6 283e 4e64 0abf
000000c0: 44d4 7c3f bc9d 9f3b a83d b53e 3a03 07bf
000000d0: 0ac1 be3e a18d 703e 1361 a0bd 182c 9c3e
000000e0: d5c3 2fbe f51d d13e 03a5 2f3f a4a7 663e
000000f0: ca02 b2be 20cc 2b3f 76d0 0d3f 5d1a 273f
00000100: 17af 033f 2304 f23d cf17 c5bd 1663 8b3e
00000110: 00f7 893e 6ad7 163f 9f33 06bd 98c7 193f
00000120: 8de7 963e 04d5 c9bc 4b0d eebe c122 713d
00000130: 6e4b 80be 4b91 f33e 61c7 a1be 1d94 58bc
00000140: 77d8 36bd cc0f 213b 9b36 49bd 4b18 9abb
00000150: ca18 073e 7550 e43e 65b5 c6bd b4b1 063d
00000160: 73bf 18be 8cb2 4abe 4d11 babe 0ce9 ea3d
00000170: c1df b8be c21c e0be c292 8abe fdf4 78bf
00000180: 14a5 623e fa82 cebe a64b 79be 119c 9a3e
00000190: 64aa ddbd 06b0 3e3d ad73 643e da30 343e
000001a0: 95fd 53bd 069a 283e fa90 8e3f ba7c 713d
000001b0: eda3 8d3f e337 e73d a52a f33d 7731 acbe
000001c0: d638 533f f7aa 86be baa5 063f 61c7 49be
000001d0: b29d 413e 6a84 ba3e f498 8bbd 4db5 f23d
000001e0: c16d f63e f6a0 313f f904 803f 1ff8 a13d
000001f0: 05c7 f1be 0804 3d3f 5aa8 853f 4cde 16bf
00000200: 211e 8d3d 00be f83d 12cd c2be 55f9 d63e
00000210: 7263 993d 0c58 453e 3f81 d73a 2969 cfbd
00000220: 395c 46be 9dd8 91bd 8b58 a13f 3a59 533e
00000230: a0b4 633f 58ce 0f3f 9a9b 54bd 5a40 18bf
00000240: 617d 6a3f 2167 c4bd 6ac9 733e 764b bfbe
00000250: 9f4a 903e 7398 143e f7a2 883e 8cb2 b53e
00000260: 5ab9 ea3e 2c42 b83e 5317 333f 204f 453d
00000270: 1352 23bf fb0b 2a3f 0fdc 383f 871e f4be
00000280: f53b a93e db1c bc3e de2a 69be 307e d03e
00000290: e0b5 e63e 3c3e 0b3f 840d e0bd 2fb3 b73e
000002a0: 33f0 983c 33ea e13d 9b0c 5abe 3955 713e
000002b0: 865b a5bd d1e3 813e f49f b83c 2e62 9d3d
000002c0: 381f 2f3e fa15 d1bd 9559 82bf af8a 75be
000002d0: db54 bb3e e6f9 9d3e d507 8cbe 0fb1 f93e
000002e0: dbff acbe a44f 12bf 1445 cabe ccea 043f
000002f0: 4892 683e d5b9 563d d9f4 99be 58de 99bd
00000300: d83a ce3d 8a6d e7bd eabe 54bf 5b07 bc3e
00000310: 0e6f 22be 34e5 6e3e d135 66be 3ea7 d4be
00000320: 4e14 30be 702c 4f3d e147 993f 1b82 bcbd
00000330: f1bd 473f 8db1 ab3e cc66 acbe bdaf 8ebe
00000340: 14d0 553f 2541 b8be 4eef b83e 1396 9cbe
00000350: 7a41 813e 5cf8 783e 623a cf3e cb73 0e3f
00000360: 0c25 743e 2cf8 af3e a805 393f 6355 5f3d
00000370: 1fe0 15bf 0fa4 053f cc7a 2b3f 1d27 0cbd
00000380: 049d 163e 3d1e f7bd 9aaa cfbe 409e af3e
00000390: 7e89 b53d 2534 0b3e 3c07 033d 2fbc 2dbe
000003a0: a5cb e0bd 173e 1ebe 436d 9d3f 4110 343d
000003b0: 2b75 333f 256a bd3e 6356 203e 99dc 85be
000003c0: 280a 3e3f 5e80 6abe 282b a73e a059 55be
000003d0: 8937 fe3e 7ae1 6cbb 521f f33d eb46 8d3e
000003e0: 2e68 913e 51f5 0d3f edcd 433f 0e17 213e
000003f0: c6cf f4be d0e3 f33e bbfc 613f 23b0 e83e
0.0860705 -0.21234886 -0.51945573 0.3698848 -0.3046585 0.35482973 0.027943315 -0.5341905
-0.08208657 -0.22770642 1.1288979 0.32463834 0.6600008 -0.1002732 0.2157636 -0.70261717
0.9320635 -0.27902627 0.31990078 -0.51699936 0.5437527 0.17050013 0.26535425 0.1359168
0.3599894 0.44347447 0.469395 0.16976275 -0.33751363 0.65395075 0.6269879 0.4335814
0.024518277 0.0012054867 -0.4852952 0.33168915 -0.2582038 0.4418883 0.3108244 -0.5947128
-0.21448822 -0.40246296 1.1202606 0.2553376 0.7723992 -0.11204663 0.16487916 -0.540593
0.9876139 0.0048710983 0.35398602 -0.527393 0.37256652 0.23491527 -0.078310154 0.3050239
-0.17164548 0.40843168 0.6861116 0.22524887 -0.34767753 0.67108345 0.5539621 0.652746
0.5143904 0.11817195 -0.09623682 0.27224034 0.2694626 0.58922446 -0.032764073 0.6007018
0.29473534 -0.024637707 -0.46494517 0.058871035 -0.25057548 0.47571787 -0.31597427 -0.013218907
-0.04464003 0.0024576066 -0.04912434 -0.004702603 0.1319305 0.44592634 -0.09702567 0.032884315
-0.14916782 -0.19794673 -0.36341324 0.114702314 -0.3610821 -0.4377194 -0.27065092 -0.9724882
0.22133285 -0.40334302 -0.24345264 0.30197194 -0.10823515 0.046554588 0.22309752 0.1759676
-0.051755507 0.16465005 1.1137993 0.05895684 1.1065651 0.112899564 0.11873368 -0.3363149
0.825086 -0.2630231 0.5259663 -0.19704963 0.18907812 0.3642915 -0.06816283 0.11850987
0.4813061 0.6938623 1.0001518 0.079086535 -0.47222152 0.73834276 1.0442002 -0.5893295
0.06890512 0.121456146 -0.3804708 0.419871 0.07489671 0.19271868 0.0016441717 -0.101274796
-0.19371118 -0.07121394 1.2605146 0.20639506 0.88947487 0.5617423 -0.051906206 -0.5947319
0.91597563 -0.09589983 0.23807302 -0.3736226 0.2818193 0.1451128 0.26686832 0.35487783
0.45844537 0.35987985 0.69957465 0.048171163 -0.6379711 0.6642453 0.7221078 -0.4767954
0.33053556 0.36740765 -0.22770259 0.40721273 0.45060635 0.5439184 -0.10940078 0.35878894
0.018669223 0.11030998 -0.21293871 0.23567666 -0.08074097 0.25369123 0.02253721 0.07684742
0.17101753 -0.1020927 -1.0183588 -0.23978685 0.36588177 0.3085472 -0.27349725 0.48767897
-0.33788952 -0.5715277 -0.39505827 0.5192077 0.22712052 0.052423317 -0.30069616 -0.07513112
0.10069817 -0.1130019 -0.8310381 0.36724362 -0.15862677 0.23329622 -0.22481467 -0.41533846
-0.17195246 0.05057949 1.1975061 -0.09204503 0.780242 0.33533898 -0.33672178 -0.27868453
0.8352063 -0.359872 0.36120075 -0.30583248 0.25245267 0.24313492 0.4047423 0.55645436
0.23842257 0.34369028 0.72274256 0.05452479 -0.58545107 0.5220346 0.6698425 -0.03421699
0.14708334 -0.12066314 -0.40559846 0.34300423 0.08864115 0.1359411 0.03198932 -0.16966318
-0.10976342 -0.15453373 1.2298969 0.043960813 0.7010066 0.36995044 0.15657954 -0.26144865
0.7423425 -0.2290053 0.32650113 -0.2083497 0.49651745 -0.0036145137 0.11871208 0.2759317
0.28399795 0.5545245 0.7648609 0.15731451 -0.4781477 0.47634745 0.8827626 0.45446882

edge_lin.2.bias f4 [32]
00000000: 90d1 bb3d e6e9 fbbd 129d 5b3e 6cbb 8fbe
00000010: 74df 6ebe 6a59 753b f531 a1bd 2647 85bd
00000020: dbe5 0dbe 37f5 99bc fc4e 8dbe e1f7 a0bc
00000030: f9b8 9fbe de2f 383e 7a07 7f3d 35bd 393e
00000040: 06b0 ad3c f06f 72be 15a4 3cbc 4a29 54bd
00000050: 2591 1c3d a3fd 59bd 6bf1 d2bd 6db7 3a3e
00000060: 3ddd 233e 511b d33d c7e3 41be 82ab 1b3c
00000070: 6ef6 a93c 827d f9bd 50bb 17be a214 6c3d
0.0917083 -0.12300472 0.21446636 -0.2807268 -0.23327428 0.0037437328 -0.07870857 -0.06507711
-0.13857214 -0.018793685 -0.27599323 -0.019649448 -0.3119581 0.1798701 0.06226299 0.18138583
0.021202099 -0.23675513 -0.01151373 -0.05179719 0.038224358 -0.053220402 -0.10299953 0.18234034
0.16002364 0.103079446 -0.18934546 0.00950134 0.02074739 -0.12182142 -0.14817548 0.057636864

vertex_output_lin.0.weight f4 [32, 1, 32, 1]
00000000: 2cff 9e3d 4934 8c3d fd0f e6bd 4c77 353e
00000010: 274c 32bc dea0 9fbd 5978 003e 4893 5bbe
00000020: f8db 79bd 740b e63d c55c 14bd 1594 14be
00000030: cf83 61be 137a 1fbd e509 1c3d 9337 cd3d
00000040: 73d9 9ebc c715 033e 279d 5dbc 83fb 2bbd
00000050: 18ca eabb 407d a7be e590 983e de99 063e
00000060: 747d c53e c929 fd3d 6654 02bc 2d84 863d
00000070: fd51 853d 67a1 37bd c503 76be 855e 63be
00000080: 9268 aabd 3fd5 32be 991a 11bc 85dd 08be
00000090: 88c2 a5be c2ba b3be 3d8f 0bbe e201 e8bd
000000a0: 17b2 41bd 2362 6ebe 62ff a03d c1d5 0dbe
000000b0: 0b14 7bbe 5bd6 433e edfe 0cbf cad9 cdbe
000000c0: 6072 56be 4f1a 95be d38b a7bc 231a 963e
000000d0: c8d0 1a3c 1532 01be d1e3 693e 6f17 b0bc
000000e0: 8872 cd3d 3616 4fbe ebf6 d6bd 8eb0 18be
000000f0: 2151 e5bb dab0 9bbe 4d79 69be 0cf8 19be
00000100: 2c98 76bf 4cbd 08bf a4d8 343e c8f7 73bf
00000110: acb8 8dbf 217a fa3e 07dd 00bf 1094 94bf
00000120: 9c8f 7e3c 7247 f3be d591 0cbe bbac 51bf
00000130: fbbf 99bf 1eff fc3e 8b27 dabe b896 383d
00000140: 8c81 033f 5008 973e 5dd4 48bd 7f3c 16bf
00000150: b519 ee3d ff9e 45bf 6f47 cfbe 4282 823d
00000160: 2365 13bf 553f 42bf bf38 92bf 5679 71be
00000170: 46f5 af3e 1d7c a4bf 2955 13bf 1874 77bf
00000180: bdc7 823e f39f 4d3f 1456 10bf 05e1 55bb
00000190: fb56 833e b0b2 a83d eb19 b23d 5751 d23e
000001a0: 389a f3bc 8a65 833e d4bf 18bf 02f1 753e
000001b0: 24cc 023e 2c9d b4bd 5498 973e 2622 10bf
000001c0: e902 8a3e 7c09 2e3e 2791 7a3e 4657 94be
000001d0: 04a0 ddbe b02a 3a3f 17d4 073f 249d 4c3e
000001e0: 4fdb 243e 9483 8d3e b915 1c3d 0e08 ee3d
000001f0: 769b 07bf c29c ca3e df73 403f 2646 e33e
00000200: 20d9 223d 8440 29bd 3337 ff3d 4742 18bd
00000210: f41e 6fbe cf87 5c3e d473 c6be c048 3cbe
00000220: bb02 e93d 390f a23e 2712 013e bc39 89be
00000230: 3b09 e7be 73f6 163f 363c 93be bdfe e03d
00000240: 9fa7 993d 8908 52be 6470 1abd 66ac 01bf
00000250: b03e 9f3e d05a 4f3e 5300 3e3e e2ef 84bd
00000260: b365 23be 357b 8cbe 79eb 3cbe d397 13bf
00000270: ea7b d83e c145 29be 02e7 0c3e d59d f3bd
00000280: 89a3 3ebd 54b9 673d 99ad 52bd c71e 003e
00000290: 7297 86bd 354b dabd 3c5a 143e 7822 17bd
000002a0: fa83 1c3e bf11 a13e d301 7abe 0da6 903d
000002b0: 6d02 59be 9085 82be fea6 01bd 1f2e 8bbe
000002c0: ca10 2abe ec68 9b3e 0a2c 2c3d d581 d8bd
000002d0: 2aa8 27bd d29f 3f3e 7474 5a3e 0bed 14be
000002e0: baa5 83bd 4a0e 09be e34e 4f3d f94a 0e3e
000002f0: 60db 6cbd 0b27 3abe 275b b5bc a7c6 043d
00000300: 0093 afbc bdd8 043b c7a7 d9bd fce0 fcbd
00000310: 573c d0bc 5e77 cf3b f1c7 513d eed3 97bd
00000320: 1ba9 dfbd 9942 0c3c 121d c73c ee90 63bd
00000330: dab6 83bd da0a 5c3d b900 1dbd 8793 e9bd
00000340: abdc d3bc ee83 343e 2fae dfbd 3670 b9bd
00000350: 3481 92bb eb12 c63d 0d70 33be 89e2 853d
00000360: 8fce e03c 6c10 63bd 140c 2bbe 27d9 823d
00000370: 430c b63c 7f25 653e f457 52bd 5212 233e
00000380: 8106 d4bd dc52 9a3e a7ad a8be 369b ebbd
00000390: 2362 35be 4a3c 82be 0f70 98bd c8c3 9a3e
000003a0: eedd 213c 85c4 24be 9d4c 093e 9f68 ecbd
000003b0: 034c 40bd 1aa9 ccbd ac1f aa3a f8cc 153e
000003c0: 9f59 adbe b372 813e 2630 393d 70a1 9a3e
000003d0: dac2 a4be c561 87bd f9b1 c03d 5fba e3bd
000003e0: 3e04 803e 942e 4ebe c8b8 a7bd 9ab9 4b3d
000003f0: cbc6 52bc c664 9ebd 305f 153e c5a1 273e
0.07763514 0.0684591 -0.11233518 0.1772129 -0.010882414 -0.07794355 0.12545909 -0.21442902
-0.061000794 0.11232653 -0.036221284 -0.14509614 -0.22022937 -0.03893478 0.038095374 0.100203656
-0.019390797 0.12801276 -0.013526238 -0.041987907 -0.0071652047 -0.32712746 0.29798046 0.13144633
0.38572276 0.123614855 -0.0079546925 0.06568179 0.06509779 -0.04483166 -0.24024875 -0.22204025
-0.083207265 -0.1746416 -0.008856439 -0.13365753 -0.32374978 -0.35103422 -0.1362886 -0.11328484
-0.04728898 -0.23279624 0.078612104 -0.13851072 -0.24519365 0.19124739 -0.55076486 -0.40205222
-0.20942068 -0.29121634 -0.020452416 0.29316816 0.009449191 -0.12616761 0.22840811 -0.021495549
0.10031611 -0.20223317 -0.104963146 -0.149111 -0.0069981967 -0.30408365 -0.22800179 -0.15036029
-0.96325946 -0.53413844 0.17660767 -0.9529996 -1.1071982 0.48921302 -0.5033726 -1.1607685
0.015537169 -0.47515446 -0.13727506 -0.8190419 -1.2011713 0.4941339 -0.42608294 0.04506561
0.5136955 0.2949853 -0.04903065 -0.5868606 0.11625997 -0.77195734 -0.40484187 0.06372501
-0.575762 -0.75877887 -1.1423568 -0.23581442 0.34366816 -1.2850376 -0.5755182 -0.9666152
0.25543013 0.8032219 -0.56381345 -0.0032635343 0.25652298 0.08237207 0.0869635 0.41077682
-0.029736623 0.25663406 -0.59667706 0.24017718 0.12773186 -0.08819041 0.29608405 -0.56302106
0.26955345 0.16995806 0.24469434 -0.28972834 -0.43286145 0.72721386 0.53058 0.1998182
0.16099285 0.2763945 0.038106654 0.1162263 -0.5297159 0.39572722 0.75176805 0.44389457
0.039757848 -0.041321293 0.124617 -0.037172582 -0.23351651 0.21536182 -0.38760245 -0.18387127
0.11377474 0.3165224 0.12604581 -0.2680186 -0.4512423 0.589698 -0.28756875 0.109860875
0.07502674 -0.20511068 -0.03770484 -0.50653684 0.31102514 0.20249486 0.18554811 -0.064910665
-0.15956764 -0.2743775 -0.184492 -0.5765354 0.4228204 -0.16530515 0.13759997 -0.118953384
-0.046542678 0.056573227 -0.051435087 0.1251174 -0.06571855 -0.10658876 0.14487547 -0.036898106
0.1528472 0.31458852 -0.24414758 0.07062922 -0.21192332 -0.25492525 -0.031653397 -0.27183625
-0.16607967 0.30353487 0.042034186 -0.105716385 -0.040931858 0.1871331 0.21333486 -0.1454355
-0.06428094 -0.13384357 0.05061234 0.13895787 -0.0578264 -0.18178956 -0.022138191 0.032416012
-0.0214324 0.0020270788 -0.10627704 -0.123476 -0.025419397 0.0063313683 0.05121607 -0.07413469
-0.10920926 0.0085608 0.024305854 -0.055558138 -0.064313605 0.053721286 -0.038330767 -0.11405092
-0.025862059 0.17628452 -0.10921895 -0.09054606 -0.0044709686 0.09671577 -0.17523213 0.06537349
0.027442245 -0.055435583 -0.16703826 0.06389075 0.022222644 0.22377585 -0.05135341 0.15924957
-0.10352803 0.30141342 -0.32944986 -0.115042135 -0.17713217 -0.25436622 -0.074432485 0.30227494
0.009879572 -0.16090591 0.13408132 -0.115433924 -0.04694749 -0.09993191 0.001297941 0.1462897
-0.33857438 0.2528282 0.045211934 0.30201292 -0.3217991 -0.06610445 0.094089456 -0.11119532
0.25003237 -0.20134956 -0.08189541 0.04973755 -0.012864779 -0.07734065 0.14587092 0.16370304
