reachability_classification/weights/Separateq0qgqkckMultiplePassGNNReachabilityNet_epoch_0.pt (torch_old, 53383 bytes, 26 tensors)

x_lin.0.weight f4 [8, 1, 1, 2]
00000000: c959 79be 2b24 383f 8fea 1f3f a542 2f3f
00000010: 3f7d 283f 058d df3e 6b4d 2f3f 1504 7bbc
00000020: 41d2 933e 055e 2f3f 6d23 64be 8052 85be
00000030: fffb 19bf b260 fe3d 728b 54be 74f3 92be
-0.24350657 0.7193019 0.62467283 0.68461066 0.6581611 0.43662277 0.68477505 -0.015320797
0.28871349 0.6850284 -0.22279139 -0.26039505 -0.6015014 0.12420787 -0.20756319 -0.28701365

x_lin.0.bias f4 [8]
00000000: 782e 2c3f 85b5 493e 9c78 fbbe 11e0 24bf
00000010: c1bf 0cbf 7be4 5f3d e869 1e3f 2091 16bf
0.67258406 0.1969815 -0.49115455 -0.644044 -0.54980093 0.054661255 0.6188035 -0.58815193

y_lin.0.weight f4 [8, 1, 1, 2]
00000000: ebf4 82bc 959e 1abf 14f3 81bc 1995 173f
00000010: 76a8 263f 88bf fa3e 6665 f23d ff9e 97be
00000020: 295f 32be 2b08 6bbe 5f89 8bbe 93b2 9e3e
00000030: 7c63 c33e 6937 383e 98cd 17bf aed7 01be
-0.015985927 -0.60398227 -0.015862979 0.5921188 0.651008 0.48974252 0.118357465 -0.29613492
-0.17419113 -0.22952335 -0.27253243 0.30995616 0.38161838 0.17989887 -0.59298086 -0.12679932

y_lin.0.bias f4 [8]
00000000: 793a 8ebe 01f4 1bbe a8f9 b43e 5c4c 4cbe
00000010: 9e6a 143f a536 8cbe 70aa 103f 2c2a ac3e
-0.27778986 -0.15229799 0.35346723 -0.19951004 0.57975185 -0.2738544 0.56510067 0.33625925

th_lin.0.weight f4 [8, 1, 1, 2]
00000000: a1b6 29be 89e0 003f f7e3 253f e2b1 223f
00000010: 26d7 e8be 8e3e 32bf 4b6b 223d c94b 44bf
00000020: 1847 a83e bfd3 98bd f1f4 5e3d 08d7 f23e
00000030: 6234 db3e f294 2bbf 8b47 26bd 0096 8c3e
-0.16573574 0.50342613 0.6480097 0.6355268 -0.45476645 -0.696267 0.039653104 -0.7667814
0.3286674 -0.07462262 0.054432813 0.4742968 0.42813402 -0.6702415 -0.040595572 0.2745819

th_lin.0.bias f4 [8]
00000000: 9e88 33bf 7c60 ddbe c594 b7bd 44e2 063f
00000010: 4e40 023f eeac aa3e fc1c 31be c2f3 1fbf
-0.70130336 -0.43237674 -0.089639224 0.52689004 0.5087937 0.3333506 -0.17296213 -0.6248132

config_lin.0.weight f4 [32, 24, 1, 1]
00000000: 80ad aabc 0c0c 013e 4423 f0bc 4361 d23c
00000010: 4468 5e3e 4442 69bb c5cf 813d 4b31 8d3d
00000020: 912b 28be 8a7d d2bd 96ea 373d caa3 413d
00000030: 7b67 1ebe a254 ff3d 9ff5 843e 0f8f 3d3e
00000040: 27a8 323e 2f98 13be 9c83 8b3e b03b 533e
00000050: 8266 9abd f1c1 d73c 2e8b 863e 4b07 a9bd
00000060: c8b9 6f3e c832 773c 577c e53d bfb2 33be
00000070: fd57 673e c7e8 b13c 7e45 3cbd 621b 0f3e
00000080: 264c 573e dc34 dbbd caf1 64bc ac19 5f3e
00000090: a816 43be 8495 c0bc fbd1 3ebe 24b7 823c
000000a0: d4e8 9cbd a4a7 283d 5f66 23be 4c57 7dbd
000000b0: c09d 2ebe 59ce c0bd d2ad 78bd 1304 56bd
000000c0: e259 133e 7eb1 113e f0b5 733d a29f 5abe
000000d0: b164 1c3e 890c e83d 0466 b93d 0632 f13d
000000e0: 18b1 623e ea16 2fbe 9409 153e f7f2 2a3d
000000f0: a8c7 46be e637 9f3c 404c e33b 3cfc b13d
00000100: 9e90 343e 132b 10be 305b 0abe 365a fcbd
00000110: de5f 48be caaf bbbd b987 4c3c 9885 03be
00000120: 308b 2f3e 5158 29be 2874 eabb 52fc b63c
00000130: 4405 2e3e f3db 84be f2ef 333e f2f1 1abd
00000140: 2448 583e 7a89 e6bd 0ace f93d 2af7 353e
00000150: 9a19 123e 9ffb 4dbe 1ea2 4bbd 597c dcbd
00000160: 8bd8 ba3d fc27 edbd 0a33 27bb 36d4 66be
00000170: f3fc 17be 4ebb 203d e24d 95bd 58c3 373e
00000180: 4202 36be 81b9 16be 5fd9 1cbe d866 95bb
00000190: d27b 053e 7f2f 18bd 6c12 30be 809b 8d3d
000001a0: 2d5b 4d3e 17bd 4ebd 281e a2bb 4f2f 39be
000001b0: c2fc 20bc 85d3 8abd 0c05 3abe c02d 533e
000001c0: b226 98bd f80f 84bc 9fbd 50be 7ef0 b0be
000001d0: d284 b6bd b022 00be 75d2 d1bd 539f 663e
000001e0: c6ad 4abd 23fe 0fbe 405f f1bd 8a02 c53b
000001f0: b56d e0ba 88d5 76bd 024a 033e 9fe7 63be
00000200: 9bd3 99bd a8d1 4cbe 5ecb 3e3d e661 adbd
00000210: ac0a 38bd 5466 9e3d 785c 28bd 69eb b03d
00000220: bb1a 783e 7ef5 f3bd 5a6b 823e 20ca b83e
00000230: 2e2e 02bd 3fde e2bc b5dc 933d 1721 35bd
00000240: 4b41 34be b828 9d3a b1e7 083e 2105 61be
00000250: 4aac dd3d 6d2a 8f3d 4a29 31bc 7f44 363e
00000260: c73f d73d cb0f cdbd 9603 cf3d 5fc4 ac3d
00000270: 9233 1fbe 1220 24bd 9bab 4d3e eca6 7cbe
00000280: 8f3b 32bd 60c3 2d3e cab4 333e 0e5e 583e
00000290: e097 1c3e 51b6 bb3d 1068 c0bc 66ce 60be
000002a0: 94e4 ff3b 7018 9fbd 051e ef3d 4ce4 12be
000002b0: 19c0 4bbe 15dd 3e3e 2406 173e 6825 2c3d
000002c0: ccd9 cfbd d904 fabc 04bf ff3d af83 8a3d
000002d0: ea86 d2bd 1819 0e3e 07b4 65bd 1440 553c
000002e0: 73a7 b33d 54a6 11bd 89df 1bbe bff0 073e
000002f0: fe27 393a 06bc 053e 3976 5b3e ee41 143e
00000300: 7cfe ed3c 4230 e7bd 857a 09be 37fa 0b3d
00000310: 8743 793e b280 69bd e391 dcbd 84cc ae3c
00000320: e2d3 753e e811 30bd b0b7 60be e043 583d
00000330: 315d 583c bced 7abe 2246 a93d da77 1d3e
00000340: 1722 17bd 0950 ec3d 8bb4 a3be 109a 88be
00000350: 7227 093e 5cc1 b9bc b7f9 ea3c 0627 983d
00000360: e2bb 203e 8368 393e f6e3 043e e2a2 2bbe
00000370: 5979 08be ded3 33be 3ef3 c63d 348d 983d
00000380: 9308 83bd 0efa 283c d0b3 9ebd 0146 54bb
00000390: e36b 05be 948e 15bd 7620 843e ddb2 96bc
000003a0: 2721 873d be46 fb3d 81d6 ac3e 52f0 813e
000003b0: 1f14 11be c59c d63c df15 16bd 902a 25bd
000003c0: 2fdf 803e fee8 513e c9b8 dfbc 748e 5c3c
000003d0: a22c 14bd 40db 1cbe 16c3 6c3e fbba 35bd
000003e0: d198 d93d 41ae 823d 4e52 d7bc 81ec 13be
000003f0: 82c4 58be ed83 2e3e 154d a13d 2fd5 ecbd
-0.020834684 0.12602252 -0.029313691 0.025681144 0.21719462 -0.0035592476 0.06338457 0.068941675
-0.1642287 -0.10277851 0.044901453 0.047275342 -0.15469162 0.12467314 0.25968644 0.18511604
0.17446958 -0.14413522 0.27248847 0.20628238 -0.07539083 0.026337596 0.2627806 -0.08253344
0.23410714 0.015087791 0.112053566 -0.17548655 0.22592159 0.021717442 -0.04596471 0.1397529
0.21025142 -0.107034415 -0.013973663 0.21787137 -0.19051611 -0.023508795 -0.18634789 0.015956469
-0.07661596 0.0411755 -0.1595702 -0.06185083 -0.17052364 -0.09414358 -0.060712643 -0.05224998
0.14389756 0.14227864 0.05949968 -0.21349958 0.15272786 0.11330516 0.09052661 0.11777119
0.22137868 -0.17098585 0.14554435 0.041735616 -0.194121 0.019435834 0.00693658 0.08690688
0.17633292 -0.14078932 -0.13511348 -0.12321894 -0.1956782 -0.091643885 0.012483531 -0.1284393
0.1714294 -0.16537596 -0.00715496 0.022337113 0.16994196 -0.25949058 0.17572 -0.037828393
0.2112127 -0.1125669 0.12197502 0.17770067 0.14267579 -0.20115517 -0.049715154 -0.10765905
0.091233335 -0.11579892 -0.00255126 -0.2254189 -0.14842586 0.039241128 -0.072902456 0.17945611
-0.17774299 -0.14719202 -0.15317295 -0.004559379 0.13035515 -0.03715467 -0.17194527 0.06914425
0.20054312 -0.0504733 -0.0049474426 -0.18084453 -0.009825887 -0.067786254 -0.18165988 0.20622921
-0.074292555 -0.016120896 -0.20384835 -0.3455848 -0.08912052 -0.12513232 -0.102452196 0.22521715
-0.04948213 -0.14061789 -0.117857456 0.0060122656 -0.0017122539 -0.060262233 0.128212 -0.22256325
-0.07511064 -0.20001853 0.046580665 -0.08465938 -0.044932052 0.07734361 -0.04110381 0.08638651
0.24228947 -0.11912058 0.25472528 0.3609171 -0.03178232 -0.027693866 0.07219831 -0.04422101
-0.17603032 0.0011990285 0.13369633 -0.21974613 0.10823877 0.06990514 -0.010813067 0.17799567
0.105102114 -0.10012778 0.10108106 0.08435892 -0.15547016 -0.040069647 0.20084994 -0.2467305
-0.04351383 0.16969061 0.17549434 0.21129629 0.1529231 0.091656335 -0.02348712 -0.21953735
0.007809231 -0.07768333 0.11675648 -0.14344901 -0.19897498 0.18639024 0.14748436 0.04202786
-0.10148963 -0.03051989 0.12487605 0.06763398 -0.10279639 0.1387676 -0.05607989 0.013015766
0.08772173 -0.035559013 -0.1522199 0.13275431 0.0007063149 0.13060006 0.21431817 0.14478275
0.029052012 -0.11288501 -0.13425644 0.03417417 0.24342166 -0.0570075 -0.10770013 0.021337755
0.24006608 -0.042985827 -0.21945071 0.052799106 0.013205812 -0.24504751 0.0826533 0.15377751
-0.036897745 0.11538703 -0.3197368 -0.2668004 0.13393953 -0.022675209 0.028683526 0.07429318
0.15696672 0.18106274 0.12977585 -0.16761354 -0.1332754 -0.1756129 0.097143635 0.07448807
-0.0639812 0.010313524 -0.0774914 -0.0032390358 -0.13029437 -0.036512926 0.25806016 -0.018395836
0.0659812 0.122693524 0.33757403 0.25378662 -0.14167832 0.0261978 -0.03664195 -0.040323794
0.25170276 0.20499036 -0.027309792 0.013461698 -0.036175378 -0.15318012 0.23121294 -0.04436777
0.106248505 0.063808925 -0.026284363 -0.14445688 -0.21168712 0.17042513 0.0787603 -0.11564099

config_lin.0.bias f4 [32]
00000000: f550 3bbe 558b 97bc 9d56 a3bd a833 223e
00000010: c61f 193d 4824 16be 9d8b 4b3d f667 2bbe
00000020: 2aac 15be 52ee e4bd a9b0 013e 11de bf3d
00000030: e0f9 3a3e 7b58 df3d 8a02 31bd 3c7e 823e
00000040: 11bd b83d ec0c 24be 1210 7e3d 9bfc f5bc
00000050: a310 b2bd 0f8b 763e 510e 87bd 3474 363d
00000060: 04c5 d43d 1557 f1bd 3ef2 bdbd 8d7a 7fbc
00000070: 8ed6 31be 0acb 0ebd ffa7 d4bd c755 1c3e
-0.18292601 -0.018499056 -0.079755045 0.15840018 0.037383817 -0.14662278 0.049693692 -0.16738877
-0.14616457 -0.111782685 0.12665047 0.09368528 0.18259382 0.10905548 -0.043215312 0.25486934
0.090204366 -0.16020554 0.062027045 -0.030027678 -0.086945795 0.24076484 -0.065945275 0.044544414
0.1038914 -0.11784188 -0.0927472 -0.015593183 -0.17367002 -0.034861602 -0.10383605 0.15267096

config_lin.2.weight f4 [32, 32, 1, 1]
00000000: ce1c 203d e551 1ebd cac5 77bd 731e 603b
00000010: b996 613c 4c38 60bd 18c5 133e 127f 16be
00000020: 8758 703c 2550 00be 5e43 f4bc 659a 8b3d
00000030: e0d1 733c 4b6b 8d3d c055 26bd c917 77be
00000040: c046 b03c 6d84 07be 74b7 a23d 2fa1 073e
00000050: 8696 bc3d 1d09 0fbe 015c 913d c831 9cbb
00000060: fa82 1cbe f3ac 16be 179e e43d 0acc 083e
00000070: 628a 963d c435 5cbe bd83 37be f8c3 7d3c
00000080: 4c8b a13c d52c 9ebd 545d f43d e317 0abe
00000090: 175a e73d 705f 493e 5904 31be 2a15 95bd
000000a0: cdbc 8fbd 842b 173e d050 033e c82f 24bc
000000b0: 22af 603d 6a92 1fbe 0668 4ebd cef8 e33d
000000c0: 15e0 25be 2c3f 74bc 09cc 01be b796 a8bb
000000d0: 14d4 923d 0d7b 8b3d 10d8 0cbb 9fb8 873d
000000e0: 17af 14be be0e 6bbd 42d1 1e3d 9af9 2d3d
000000f0: 57c5 5a3d ac20 d93d 9336 cdbd 74c3 893d
00000100: c2fb 233e e886 073d 7e76 b2bd 68f4 17bc
00000110: a15f e4bd 8514 3fbd af41 ddbd caf5 04be
00000120: 4a38 bebd f190 7ebc 3296 14bd c064 fd3d
00000130: cb9f 74bd 90bd 88bd 7c10 8d3d 95ab 343e
00000140: 748a 943c 38f0 1b3e 86fc 8cbd b866 37bd
00000150: c4f7 a53d 9dca 6abd 4945 b53d 49d6 d8bd
00000160: c0f4 383e 4bc1 263e ed8f 09be ef32 c8bd
00000170: 0c18 bb3c 2537 263e 3233 b53c b127 a93d
00000180: 458e 123e 79fb 1e3e b02b 823d 6c39 063e
00000190: ee6a 1f3c 6b22 bfbd a6ec c2bd 70e4 54be
000001a0: 6c1d ba3d 0da7 b93d 2b96 733e 689a a2bd
000001b0: 256d 453e 943f 91bd f107 6a3e ab36 47be
000001c0: 05c2 d63d 6ba3 56bd 0d7a 3abe f77b b73c
000001d0: 6f1c 563e 9a66 17be 0a5b adbc 70d5 e13d
000001e0: 6399 73be 85c0 86bd 36ff a1bc ec1b d53d
000001f0: 9dc4 bb3d ee3a 5ebe d360 003c 922e 813d
00000200: b57e 173d c7dc ef3c bd70 ebbc 67b6 3bbe
00000210: 7ce7 40be 5643 903d 41c1 2d3e aefb 05be
00000220: d943 36be 01cb d43d 138a 6dbd de17 503e
00000230: 25a9 773d 4086 753d 5472 e43d 9be6 bb3d
00000240: 415f 293e c73e e1bd a1a7 2bbd 6c25 343b
00000250: d06e 6bbd 3e81 e4bd 1925 553c 91e4 81bd
00000260: 789d 233d 6411 483e c3bb a83c bd76 95bc
00000270: 1e4a 8bbd 9939 783e de18 e3bc 606f 9abd
00000280: e17d b5bc d12a f73c 46f3 4abc decd 493e
00000290: ac33 52bc b48d c2bd d5da 0ebe f543 cbbd
000002a0: 775c 323e cb44 22be 68af 83bd 2453 6bbd
000002b0: e1d5 143e ea84 5abc 7809 dc3d 32f9 19be
000002c0: 61f1 4a3d 9fa2 24bd 3cec 573d 551a 40bd
000002d0: 6dce 48be efeb eebd c6fe 263e 0cf7 323e
000002e0: f8a7 893c acd3 303e 90cc 37be c45e 143e
000002f0: 359d 2cbe c7aa c0bd 399d f23c 70b8 28bc
00000300: 6b86 37bd e5a3 b7bc 6d3f 703d 7cc6 67bd
00000310: 94bb c1bd 4a35 80bc 0116 19be 5e01 3fbd
00000320: 4c38 d53d 72ac 43bc a202 043d 15d0 873b
00000330: 26f2 25bc e15a 653c 5853 9a3d b3dd 8abe
00000340: cff5 dc3d b07f f03d 4bf1 4a3e e263 043e
00000350: 26d5 44bd fd49 d1bd f6ee cfbc ace8 153e
00000360: b6dc 613d 5597 02bd 8415 16be b2a1 00be
00000370: 321e 58be c6a6 02be e0ea 933d 0d56 52bd
00000380: daac 97bd 6aaf 0c3c 4abb 06be 0a5c 4cbe
00000390: 21a1 17be 5af2 77bd a244 df3d 5e2a a03d
000003a0: 3aab 48bc 92f8 33bd 97e3 823c 2e1c 813e
000003b0: 81c8 27bd cb5d d03c c8b9 9d3d 227b adb9
000003c0: f0b2 1fbe 9ce8 bfbb 0dcf 27be 30ad 8bbd
000003d0: ac42 e1bd a496 303e c702 d53d d716 c7bd
000003e0: 9263 d03d 9809 97bd 9dd7 1b3d 8edb 743d
000003f0: e68e a0bd d743 e43e 5ef1 ef3d f9e3 33bd
0.03908997 -0.03865232 -0.06049136 0.0034197837 0.013768845 -0.05474119 0.14430654 -0.14696911
0.014669544 -0.12530573 -0.02981728 0.06816558 0.014881581 0.0690523 -0.04060912 -0.24130167
0.021518111 -0.1323411 0.07945147 0.1324508 0.092083976 -0.1396832 0.070976265 -0.0047666766
-0.15284339 -0.14714412 0.11162966 0.13359085 0.07350613 -0.21504885 -0.17921348 0.015488617
0.019719742 -0.07723395 0.119318634 -0.13485675 0.1129648 0.19665313 -0.17286815 -0.07279427
-0.07018433 0.14762694 0.12823796 -0.010021158 0.05485452 -0.15583196 -0.050392173 0.1113144
-0.16198762 -0.0149076395 -0.1267549 -0.0051449197 0.07169357 0.068105794 -0.0021491088 0.066270106
-0.14519916 -0.057387106 0.038773783 0.042474367 0.053410854 0.10601935 -0.10020175 0.06726733
0.16014007 0.03308764 -0.08714007 -0.00927458 -0.11151052 -0.04665043 -0.10803544 -0.12984386
-0.0928808 -0.015537486 -0.03627605 0.12372732 -0.059722703 -0.06676781 0.0688791 0.17643578
0.018132426 0.15228355 -0.068841025 -0.044775695 0.08103898 -0.057322133 0.08851106 -0.10587747
0.18062115 0.16284673 -0.1343381 -0.0977534 0.022838615 0.16231973 0.022119138 0.08259524
0.14312084 0.15525617 0.06355989 0.13107842 0.009730084 -0.093327366 -0.09517793 -0.20790267
0.09087643 0.090650655 0.23787753 -0.07939607 0.19279917 -0.07092205 0.22854592 -0.19454448
0.10486225 -0.05240194 -0.18210621 0.022397978 0.20909284 -0.14785233 -0.021161575 0.11027038
-0.23788981 -0.06579689 -0.019775014 0.10405716 0.091683604 -0.21702167 0.007835585 0.06307711
0.03698607 0.02928008 -0.028740281 -0.183313 -0.18838304 0.07044093 0.16968252 -0.1308429
-0.1779932 0.103902824 -0.057993006 0.20321605 0.060464043 0.059942484 0.11154619 0.09174844
0.16540243 -0.10998302 -0.04190791 0.0027488125 -0.057478726 -0.111574635 0.013009333 -0.06342424
0.039945096 0.19537884 0.020597344 -0.018245095 -0.06801246 0.24240722 -0.027721819 -0.07540774
-0.02215475 0.030171784 -0.0123871025 0.19707438 -0.012829702 -0.09499684 -0.13950665 -0.09925071
0.17418085 -0.15846555 -0.064299405 -0.057452336 0.14534713 -0.013337353 0.107439935 -0.15036467
0.049546603 -0.04019415 0.052715525 -0.046900112 -0.19609995 -0.116660945 0.16308126 0.17477053
0.016803727 0.17268246 -0.17949128 0.14489275 -0.16856845 -0.09407573 0.029615985 -0.01029788
-0.044805925 -0.022417018 0.058654238 -0.056585774 -0.09459606 -0.01565041 -0.149498 -0.046632163
0.104111284 -0.01194297 0.032229073 0.0041446784 -0.0101285335 0.013998718 0.07535428 -0.27122268
0.10789072 0.117431045 0.19818608 0.12928727 -0.048054837 -0.1021919 -0.0253825 0.14639539
0.055142127 -0.031882603 -0.14656645 -0.12561682 -0.21105269 -0.12758932 0.07222533 -0.051351596
-0.07406016 0.008586744 -0.13157383 -0.19956985 -0.1480756 -0.06053386 0.109017625 0.07820581
-0.012247855 -0.043938227 0.015977664 0.25216812 -0.0409627 0.025435349 0.077014506 -0.00033088872
-0.15595603 -0.0058565866 -0.16387577 -0.06820142 -0.10999045 0.17244965 0.1040092 -0.09721153
0.101752415 -0.07374877 0.03804742 0.059779696 -0.07839756 0.44583008 0.11715959 -0.043918584

config_lin.2.bias f4 [32]
00000000: 3210 223d 5435 b9bd 99fe 8dbd 0eec 3f3e
00000010: 6305 96bd 98b3 1a3d a426 77bd 52b9 d53d
00000020: a39e fb3d c8b8 e93c e239 ebbd 113e 353d
00000030: 5a0d 123e 46d9 063d a3b2 583d 6e6e 083d
00000040: 57eb 22be 197d 7b3c b529 ebbd f1a8 46be
00000050: b795 423e 5e4c 1abe 715f b6bd c008 b23d
00000060: 4aee a3bc 55c2 363e 2f46 82bd df16 30be
00000070: 6eb9 d43c 192e e83d c6cc c13d ee8b e8bd
0.039566226 -0.09043375 -0.06933326 0.18742391 -0.07325246 0.03776893 -0.060339585 0.10435738
0.12286117 0.028530493 -0.1148565 0.044248644 0.14262906 0.03292205 0.052904736 0.03330844
-0.15910088 0.01534965 -0.11482564 -0.19400384 0.19002424 -0.15068194 -0.08904923 0.08693075
-0.020011086 0.1784757 -0.06361043 -0.17196225 0.025967326 0.113369174 0.094628856 -0.113548145

vertex_lin.0.weight f4 [32, 64, 1, 1]
00000000: 35fd 33bd cc22 a33d c9b3 c93d edd0 51be
00000010: 4bf6 033e 2b73 8ebd 6c9b 423c e0fb b23d
00000020: 5a16 e1bd ef88 37bd 263a 823e 5696 9d3d
00000030: 7119 0d3e 1812 30be 6dd8 21be 3445 02bd
00000040: 2344 14be d31f b7bd 67fe bbbc 9178 823c
00000050: 40e1 553e faeb 88bd d3de 14be 949b 213e
00000060: ffbe e33d fbfe 583e 9de0 e93d 30ed fb3b
00000070: 9051 593e f9d8 d23d fcb3 8c3e e6b9 9e3c
00000080: e3c7 b4bd 61fc f9bd a080 823c 2708 1d3e
00000090: 2a0c 1cbe c08c 4e3d c3c4 c53d 4f80 3fbe
000000a0: 8786 93bb 9dab 1fbd c1b8 59be d245 143b
000000b0: cb91 9638 9523 3d3c 3e2b 5c3d 117e ac3d
000000c0: 0760 f73d 38cd 803d 377c 9cba 82a4 0b3e
000000d0: 5ffb 5fbd 7fc5 71bd bb6e e03c 3cfb f0bd
000000e0: 704d debd 1ee1 013d 679c 27bd 1f70 063e
000000f0: c55b d53b 1d1e 88bd cec7 dbbd 429c 33bd
00000100: 6614 9e3d 4fbb 5c3b c338 07be 50c3 75bd
00000110: 878b b0bd c161 b3bd d7bc 013e d071 25be
00000120: c2d9 96bd d630 6e3d 2069 ba3c 6a33 953d
00000130: 9c4f 98bd 38cd 733d 60b7 bdbc a4d3 993d
00000140: 03d2 d83d 7fad 7d3d 2d2f 24bd e160 813d
00000150: 018b 043c 1287 53bc b2ab a83d c2ca caba
00000160: 793c 41bc cf5f eebc ed73 073e e6bf babd
00000170: cf97 3a3d 5274 0bbe c213 5bbd e353 95bd
00000180: ef98 203d 3719 d3bd 22af 373d 05cf 0c3d
00000190: 5bec e53d 0ee6 953d a202 343d 606a 153d
000001a0: 8737 9ebd 9cc8 103d e865 963b 7114 86bd
000001b0: 1c4d 83bc 983f f3bd 1852 3ebc 1bba 2f3d
000001c0: 9c83 b9bd 0ecd 3fbd 8589 ca3d 09d7 76bd
000001d0: 69c3 e03d eb4b 2bbd fd63 b4bd 81f2 053e
000001e0: 9372 56bd 8a91 a73d 8f49 aebc b653 b8bd
000001f0: 37d0 8c3b 49ec a13d 227c 0d3e bfca 80bd
00000200: c77d 91bc 333c 263d 3acf 0abe b3e2 c5bd
00000210: 6fc2 12be 933f 3dbd 7c86 f3bd 007f 10be
00000220: 580b c03b 8fd3 78bd f00b 4a3d 2438 cf3d
00000230: 1aa6 223d 5e0e ab3d 4be2 873b 853f 06bc
00000240: 466d e53d 70a5 8a3c 537a e3bd 4f41 dfbc
00000250: 3280 92bc ffd8 ccbd fffe 323d 9384 99bb
00000260: 2e6b 053d ed07 52bd fb73 f53d 8b86 04be
00000270: 2889 443d 3c08 68bd 175c 23be 6ac7 aabd
00000280: e604 023d 64fb 8b3d f0b3 673d c11d abbd
00000290: f052 fcba 0cff 0cbd 47da 7fbb 0e7b 9fbd
000002a0: b6e2 0bbe 951a 28bd 5734 a93d 7462 a03d
000002b0: 5bd7 893d b14b 28be 6cec 963d 8abb c83b
000002c0: 1351 813d 9af5 51bd 2f7e ea3c c454 a93d
000002d0: 0f0b a03d bb41 de3d 2f0a b3bd d5e3 f9bd
000002e0: b51c cb3d 1837 3b3d 7aba 1abd a7b5 613d
000002f0: 2b21 873d 9e93 da3d 0ea0 d9bd da92 bfbd
00000300: 2158 1dbc af16 823c 7486 f83c d0b2 c33b
00000310: a4ce 403d 6940 0d3e 0cd5 a13d 9390 23be
00000320: 9fcf 953d 4acf ac3d 9f78 5dbe 7c35 a13d
00000330: a021 0cbd 08c7 1b3e 6ed3 993d 12e2 7dbd
00000340: 340d 6a3d feb0 1c3e 0c88 acbd d0de 003e
00000350: f7cc 9cbd c71d 24bd 38f6 9c3d 2794 10bd
00000360: fb17 923b 74ed 69bd acf9 aebd 40cc d2bd
00000370: 22a8 63bd 72f6 ccbd 24cc 83bb 8ce3 023e
00000380: 93db 9e3d 1b90 883d 30b1 603d 8003 35bd
00000390: 7f56 eebb 1d5a 00be d2d5 7d3d 9a03 a2bd
000003a0: 6b12 0cbe 42ee 35be ff3d b8bb 6bc0 fdbd
000003b0: e8a9 b63d cafc 0b3d 7233 13be 3885 3abd
000003c0: 0f9e 7fbb bedf 81bc 0051 0a3e 4c42 c53c
000003d0: 00be 153d 5e69 be3d d033 7b3d d2a8 043e
000003e0: 9e19 8d3d 62ec d0bd 528a d2bc 1cf9 c83d
000003f0: bdb5 c73d e36b 133d ee80 493e 8991 f1bd
-0.04394265 0.07965621 0.098487444 -0.20489855 0.12886922 -0.0695556 0.011877876 0.087394476
-0.10990591 -0.044808324 0.2543499 0.0769469 0.13779236 -0.17194402 -0.15805216 -0.03180428
-0.14479117 -0.08941617 -0.022948457 0.015926631 0.20886707 -0.06685634 -0.14538126 0.15782005
0.11120414 0.21191017 0.11419795 0.007688187 0.2122252 0.102952905 0.27481067 0.019375753
-0.08827188 -0.122063406 0.015930474 0.15335141 -0.15239015 0.0504272 0.0965667 -0.1870129
-0.004502121 -0.038982023 -0.21261884 0.0022624624 7.1797134e-05 0.011544128 0.053752176 0.08422483
0.12078863 0.06289142 -0.0011938874 0.13636974 -0.054683086 -0.059026238 0.02739655 -0.11766669
-0.10854614 0.03170883 -0.04092064 0.13128708 0.006511184 -0.06646369 -0.10731469 -0.04385019
0.077187344 0.003368098 -0.13205247 -0.060000718 -0.08620363 -0.087588795 0.12669693 -0.16156697
-0.07365753 0.058152042 0.022755206 0.07285197 -0.07437059 0.059521884 -0.02315873 0.0751107
0.105869316 0.061933037 -0.040084053 0.06317306 0.008089782 -0.012910621 0.08235873 -0.0015471803
-0.011794203 -0.02909842 0.13227816 -0.09118633 0.045554932 -0.13618591 -0.05348564 -0.07291391
0.03920835 -0.10307544 0.044844754 0.034377117 0.11226722 0.0731927 0.043947823 0.0364784
-0.07725435 0.035347566 0.004589785 -0.06546868 -0.01602798 -0.11877364 -0.011616252 0.042902093
-0.090583056 -0.046826415 0.09889511 -0.060263667 0.109747715 -0.041820448 -0.08808134 0.13080789
-0.05235536 0.08182056 -0.02127531 -0.090003416 0.004297282 0.07906396 0.13816884 -0.06288671
-0.01776017 0.040584754 -0.13555613 -0.0966238 -0.14331983 -0.046203207 -0.11890885 -0.14110947
0.0058607273 -0.060748633 0.04932779 0.1011813 0.039709188 0.0835235 0.0041468493 -0.008193855
0.11202483 0.01692459 -0.11107316 -0.027252821 -0.017883394 -0.10002326 0.043700214 -0.0046849935
0.032572918 -0.05127709 0.11985012 -0.12941949 0.047982365 -0.056648478 -0.15953098 -0.083388165
0.031742953 0.06835058 0.056568086 -0.083552845 -0.0019250792 -0.03442292 -0.0039040016 -0.07787143
-0.13660702 -0.041040976 0.08261936 0.078312784 0.06730529 -0.16435124 0.07369313 0.006125872
0.06314292 -0.051259615 0.028624622 0.08268121 0.07814609 0.10852381 -0.08742177 -0.12201659
0.09917585 0.04570684 -0.037775494 0.055104878 0.06598123 0.10672687 -0.10626231 -0.093541816
-0.009603531 0.015879957 0.03033755 0.005972244 0.047072068 0.13794102 0.079019636 -0.1597312
0.07314991 0.08437975 -0.21628045 0.078715295 -0.034211755 0.15212643 0.0751103 -0.061983176
0.057141498 0.15301892 -0.084243864 0.12584996 -0.076562814 -0.04006746 0.0766415 -0.03529754
0.004458425 -0.05711122 -0.08543715 -0.10292864 -0.055580266 -0.10007943 -0.004022138 0.12782115
0.07756724 0.06668111 0.05485648 -0.04419279 -0.0072734947 -0.12534375 0.061971493 -0.07910843
-0.13678901 -0.1776667 -0.005622625 -0.123902164 0.08919126 0.034176625 -0.14375094 -0.045537204
-0.0039004122 -0.015853759 0.13507462 0.024079464 0.03655815 0.09297441 0.06132871 0.12955025
0.06889652 -0.102013364 -0.025700722 0.09813139 0.09751461 0.03599156 0.19678089 -0.11795337

vertex_lin.0.bias f4 [32]
00000000: 0ed9 b23d 17c1 1ebd 120d 8cbd 6b71 9f3d
00000010: 7e5a 14bd eece 8439 6be3 f8bd eb21 733d
00000020: 2ec7 8abd 6045 c4bd ed97 ab3d d99d 2abd
00000030: 28e3 a9bd 5d25 05be 4fd5 e6bd 5f14 2abc
00000040: 2b4e cd3d 7ff3 f4bc 4f10 8a3d 0196 a63b
00000050: 81b9 83bd 2a60 6bbd 2f63 a03c 9ed4 b83d
00000060: 8616 64bd f32f 1f3d af82 1b3e 1190 9fbd
00000070: 0db7 80bd 68e1 97bc 2961 923d 35ba be3d
0.08732806 -0.038758364 -0.068384305 0.07785305 -0.036219113 0.00025331177 -0.121527515 0.05935852
-0.06776272 -0.09583545 0.08378587 -0.04165444 -0.0829528 -0.13002534 -0.11271154 -0.010380833
0.10024675 -0.029901264 0.06741392 0.0050838 -0.064318664 -0.057464756 0.019578544 0.090249285
-0.055685543 0.038864087 0.1518657 -0.0779115 -0.06284914 -0.0185401 0.07147438 0.0931286

vertex_lin.2.weight f4 [32, 32, 1, 1]
00000000: 5e58 833c 6195 ea3d 32f2 06bd 8f76 843d
00000010: b9ec cc3d 6b39 4d3e 0103 c23c b406 4b3e
00000020: b2f7 a4bc 3446 debd 377a 39be 209d 0abe
00000030: 965c 863d 7297 be3d 8310 21be 4b36 ecbc
00000040: 6689 1e3e c94e 50bd b078 a33c 8514 cbbd
00000050: d0d2 7f3d 5bd7 a73d 192c 6abe 03f4 dcbd
00000060: fb45 09be 008d e2bd 91a9 ec3c 4cf9 c93d
00000070: 3c61 283e 4f23 9cbd 6659 29be bdac 503c
00000080: ff02 c3bd 3fda df3c 105a 7fbd aeeb 51be
00000090: 9c14 b7bd dd4a 29be 5307 7d3b 4b4b f3bd
000000a0: fe11 b7bd 9bf3 193e dc91 f9bd a9c7 8c3d
000000b0: 153b 77bc 1ca6 93bd 6831 1b3e c5a9 26be
000000c0: 9233 a23d 09bc 09be ccd7 30be e568 003e
000000d0: ca96 f6bc 918d 173d 12ad 8dbd 5a38 2bbe
000000e0: 0000 e1bd e8f1 0dbe 839b e03a f0d3 6dbd
000000f0: 77bc 6cbe 59ba b3bb f463 09be 53b4 493d
00000100: 54ef 78bd 84b2 12be 24d9 e73d 6d4c b6bb
00000110: 9625 d4bc 8f0e 2a3e 6fc6 6ebd f055 263e
00000120: b9b4 f73d 3d46 be3d 0b55 5cbe 9e06 15be
00000130: aa4b 4e3d 3005 41bd b61d e03d a723 ae3d
00000140: 43e5 033e 3413 ef3d f081 2a3e a89c 253e
00000150: 3df4 7dbe 52ae 94bd 2807 8fbd a186 cabd
00000160: 21c1 1e3e e7ab ac3d 9532 e8bd 3168 0dbe
00000170: 2570 ebbd 9a9c 8d3d 05ad 84be 5669 313d
00000180: 82e3 55be 4930 d13d a595 813d 6c41 cabc
00000190: 7e9f f7bd 9ca1 603e 29fe 1d3c 4163 3b3e
000001a0: 4665 993b 3e35 203e 4e78 7cbe dd42 463e
000001b0: 462a 4a3c c588 d2bd 91eb 443c 49e8 a8bd
000001c0: 8fc0 fc3d 1729 99bb 2231 0e3d 8793 0c3e
000001d0: ad1b 8cbd 0089 e53d 16d4 b5bc 9b99 debd
000001e0: 0233 e4bc 0873 713c bc8a 29be e809 4abd
000001f0: 21ad d1bd a7db 28be 33c1 0cbe 8233 283e
00000200: 14f2 bf3d f0eb 06bd 2f38 97bd eca1 61bd
00000210: 256f dd3b eb49 513e f6b4 22be 39bd 4b3d
00000220: 0b46 f6bc 9543 f9bd e375 653e ac67 4e3c
00000230: d839 5a3c f97a f33d 6b30 103e 0c94 8dbd
00000240: 8245 88bd b5e8 1a3e 375b 4d3e e08f fbbc
00000250: 19d7 863d c9a6 16be 3b32 043e dc65 1a3e
00000260: b216 12bd 5b57 0a3e 9bed 7d3e 4c9e 0c3d
00000270: eda9 223e 4c95 1b3d 5284 5e3e 2b97 8a3e
00000280: da18 0f3e 33bf 12be 90d7 12be 6cdc 27bd
00000290: 73a9 313b de38 813e 6ab9 d6bd ec51 a93e
000002a0: 5071 9ebd 0174 b9bd 8cff 0cbb 845d 9ebc
000002b0: 06ad 353e 1f0c b4bc 1e23 813d 3969 153e
000002c0: 4840 24be 37c2 6d3d 3fa3 06be 5e73 a5bd
000002d0: ff89 4a3d 6273 b8bd 6656 f23d c474 483d
000002e0: f3c3 103e c656 c0bb 834d 383d fd2f 473e
000002f0: 0883 6d3e c79f e03d ca55 193e 7124 ddbc
00000300: ff26 87be 9dcb 83bc 5bc1 0e3d 6ef5 763e
00000310: a5ea a9bc 6c6b 813e 1b73 253e 1ce9 b33e
00000320: fa93 033d 8aaa 393d 454a 543d ac59 bcbd
00000330: 3a94 cf3b 2e4d 82bc 4265 ea3d 3a98 7a3d
00000340: 01f0 703e beb2 bf3d cd54 a03e 4948 d8bd
00000350: 0c66 34bd 7acc 14be a70d 78be 03ba f5bd
00000360: b3df 643d 1d08 1fbe 7b00 66bd ef23 c93d
00000370: 28b6 82bd 1130 393d 555c 08be 58e1 8d3d
00000380: 0649 06be 32fb 223e 2bed 23be b263 cc3d
00000390: 17ed a8bd c5b5 37bd 9e18 b7bd 1bbb c7bd
000003a0: 3561 663e 7d6c 113e f5d6 d8bd 445b b7bd
000003b0: b3ea 1f3d 8f98 07be b541 f73d 755b b3bd
000003c0: d4b8 313e 5502 01be a64c d5bc f976 8dbd
000003d0: a1fc 54bd aac0 363d 0bf1 1ebe bf78 02bd
000003e0: 5496 b73d ae60 3d3d 4126 f2bd 243a 603d
000003f0: 85a9 2bbe 830d dabc abc3 3bbe 7340 b93d
0.016033348 0.11454273 -0.03294582 0.06467926 0.10006089 0.20041434 0.023683073 0.19826776
-0.020137642 -0.10853234 -0.18113028 -0.13536501 0.06560628 0.0930623 -0.15728955 -0.028834483
0.15482101 -0.050856385 0.01995501 -0.09916023 0.062456906 0.08195373 -0.22868384 -0.10788729
-0.13405602 -0.1106205 0.02888945 0.09862003 0.16443342 -0.07623922 -0.16538009 0.0127364965
-0.09522056 0.027325748 -0.06234175 -0.20500061 -0.08939478 -0.16532464 0.0038609102 -0.11879595
-0.089389786 0.15034334 -0.121860236 0.0687402 -0.01508977 -0.07209417 0.15155566 -0.162757
0.079199925 -0.13450636 -0.1726982 0.12540014 -0.030101199 0.037000243 -0.06917776 -0.16720715
-0.10986328 -0.13861811 0.001713619 -0.058063447 -0.23118769 -0.005484861 -0.13417035 0.049244236
-0.060775116 -0.14325911 0.11320713 -0.00556331 -0.025896829 0.16607116 -0.05829471 0.1624372
0.12095017 0.09290741 -0.21516816 -0.14553306 0.050365128 -0.047124088 0.10943167 0.08502894
0.12880425 0.116735846 0.1665113 0.16173041 -0.24800201 -0.072598115 -0.06983787 -0.0988896
0.1550336 0.08431225 -0.11337773 -0.13809277 -0.11495999 0.06914635 -0.25913253 0.043313347
-0.20887569 0.10214288 0.063273706 -0.024689399 -0.120909676 0.21936649 0.009643116 0.18299581
0.004681262 0.1564531 -0.24655268 0.19361444 0.01233918 -0.10279993 0.012019054 -0.0824743
0.12341415 -0.0046740877 0.034714825 0.13728152 -0.06841216 0.11207771 -0.022195857 -0.10869142
-0.027856354 0.014736898 -0.16556829 -0.049325854 -0.102381 -0.1649004 -0.13745575 0.16425899
0.093723446 -0.03293985 -0.07383763 -0.05508606 0.006757634 0.20438354 -0.15889344 0.049741004
-0.030062696 -0.121710934 0.22408251 0.0125979595 0.013319455 0.118886895 0.1408097 -0.06913003
-0.066538826 0.15127833 0.20054327 -0.030708253 0.06583995 -0.14712061 0.12909786 0.15077919
-0.035666175 0.13509886 0.2479767 0.03433065 0.15885134 0.037984177 0.21730164 0.27068457
0.13974324 -0.14330749 -0.14340043 -0.040981695 0.0027109056 0.252387 -0.10484584 0.33070314
-0.077364564 -0.09055329 -0.0021514622 -0.019331701 0.17741784 -0.021978436 0.06305526 0.1459092
-0.16040146 0.058046546 -0.13148211 -0.08078645 0.04944801 -0.090063825 0.118328854 0.04893948
0.14137249 -0.005869719 0.044995796 0.194519 0.23194516 0.10967975 0.14974132 -0.026994916
-0.2639694 -0.016088301 0.034852367 0.24117061 -0.02074177 0.2527727 0.1615719 0.35138786
0.032123543 0.045328654 0.05182864 -0.09196791 0.0063348087 -0.015905943 0.11445095 0.06118033
0.23529054 0.09360264 0.31314698 -0.10560662 -0.044042632 -0.14531127 -0.24223958 -0.119983695
0.0558774 -0.15530439 -0.056152802 0.09821307 -0.063824 0.045211855 -0.13316472 0.069277465
-0.13113794 0.15916136 -0.16008441 0.09979953 -0.08248346 -0.044851083 -0.08940242 -0.097524844
0.22498019 0.14201541 -0.10587875 -0.089529544 0.039042186 -0.1324179 0.120730795 -0.087576784
0.17355663 -0.12598546 -0.026037525 -0.06907458 -0.05199874 0.044617333 -0.15521638 -0.031853434
0.0896422 0.04623478 -0.118237026 0.054742947 -0.16763885 -0.026617771 -0.1833636 0.09045496

vertex_lin.2.bias f4 [32]
00000000: e06b 3cbd 4b49 b0bc 54ca c23d 425d d63c
00000010: 202b b9bd b9db 133e a442 ddbc 5c20 f2bd
00000020: 8a2c 04be 3753 463e 8e75 24be 0c38 0fbc
00000030: dae7 793d 377e 223e f327 1ebe a197 013e
00000040: 9e4b 50bd 85d4 ae3d 58cf 903d e3cd 0b3e
00000050: 3b6c 0dbe 693e f23d d6b7 493c 6ea8 61be
00000060: a84b a53d deb2 faba 594a 1fbd d16a 853c
00000070: f39f bb3d 783f 0e3e 12f4 33bd 62cc 46bd
-0.046001315 -0.021519324 0.09511247 0.026167516 -0.090414286 0.14439286 -0.027009316 -0.11822578
-0.12907615 0.19367681 -0.16060469 -0.00874139 0.061012127 0.1586846 -0.15444927 0.12655498
-0.050853364 0.08536629 0.07070798 0.13652758 -0.13810818 0.1182831 0.012311896 -0.22036907
0.08071071 -0.0019126793 -0.038889263 0.016286286 0.09161367 0.13891399 -0.043933935 -0.04853476

edge_lin.0.weight f4 [32, 1, 68, 1]
00000000: 0168 be3d 1abd 743c af30 cabb 48da 7cbd
00000010: 194d 463d 167a 383e ea47 463e 146d b4bd
00000020: 9afe 303d 3c1c ca3d dba2 7d3d 352e 3b3d
00000030: 471e 1abc e453 323e 5ac4 c83d 847d 8abb
00000040: 3994 473d 17c1 d73d e318 213e 2328 243d
00000050: eaf9 9bbd b297 98bd c50a 1e3d f911 6a3d
00000060: 408d b7bc 5b83 be3d 3458 283b fd32 543d
00000070: ef91 cc3d 0ec6 17be 0d89 6abd cfc4 cb3c
00000080: 43c7 943d 2f82 25be b04a b83d 85b4 653c
00000090: 468f 89bd 9f1b 173e 2a66 a03d f5e9 9f3d
000000a0: 59d3 3c3e 0d1e d1bc ba07 063d 010b ee3d
000000b0: dd7b ee3b c5ad fb3d 9742 32bc 9ba5 283e
000000c0: 40b8 9ebd fb06 093c e120 cabc 974a 5e3d
000000d0: 4fa9 273e f802 0bbd 9bbb 5d3d 0277 bcbd
000000e0: 8c22 073e f53a 96bd 08fa cd3d 0ed9 133e
000000f0: 8f44 943d f79b ff3c 4689 003e 3c6c 59bd
00000100: cf67 7dbc 4a87 94bc 20a4 523d d05d fbbd
00000110: 3d7b 67bd 4053 fdb8 99f6 a2bd 5019 2ebe
00000120: 4753 083d 0eb7 833c 48eb 88bd 4d7c 0e3e
00000130: c3a4 2dbe e378 4cbd ea15 c0bb f266 a93d
00000140: d9e9 b9bc de16 733d 8640 15bc aa96 dfbd
00000150: 04ad 2d3c 4c6f aabd b4d9 ebbd e372 85bd
00000160: 5865 5a3c 7959 bdbd dd37 1b3d fdc5 dcbd
00000170: a3ae cf3c fbf1 08be 589b a6bb f8c9 433c
00000180: fd92 6d3c 9370 4dbd d95a 063d 0398 f3bd
00000190: 5de5 42bd 8906 39bd 2c25 92bd 8155 79bd
000001a0: 70fa 3cbc 7e4e 03be 8a59 29be 9ef1 8c3d
000001b0: e337 8dbd 9cb2 3cbd 4c5e 0a3d 5058 12be
000001c0: ce03 25be 4cbb 6a3d eaaf 1d3d 3a65 ef38
000001d0: 7971 5b3d aee7 21be 9940 c2bc 0048 66bb
000001e0: b333 a93c dc13 c03d 4e06 14be 8d08 d03d
000001f0: 1470 08be 7221 e43d 165f 3dbb 41cb 16bd
00000200: 062d 0f3c 6d81 2dbc bbe6 15bd 0db3 8f3d
00000210: 7af8 05bd 6652 cebd 837d 213d 2236 8abd
00000220: 3704 b2bc 0494 953d 34c3 9cb9 681e 433d
00000230: bd3f 03be 6191 7bbd 6ebe 8ebc 4ed3 a53d
00000240: 6a42 6abd 632e 00be 98c9 ddbd 15cc 57bd
00000250: cdd2 b23d c267 37bd 78ef 5fbd d22b f4bd
00000260: 203c dbbb 79df 2bbc 099c aebd fac2 ac3d
00000270: 850b 8d3b 8ab2 3a3e cf4b babc 18bd 5a3d
00000280: f243 5ebd 2c4c a33d 7dca 5bbd b5a9 9d3c
00000290: 2462 dc3b 594e 013d 21b9 90bb 4ea0 91bc
000002a0: 1281 623d 1a45 833d 678d 093d 4f48 863d
000002b0: e241 be3d 14b3 8dbd 362e ac3d c944 ba3d
000002c0: 77cb f8bc ce6d bd3d 9265 21bc 2678 9fbd
000002d0: 9790 35bd fb3f b9bd 7c78 bc3d 70fa 813c
000002e0: 8717 2e3d 242b a63d 3c0e b43d 40b0 9b3d
000002f0: 9577 3e3d bbd9 0c3d 0cb1 623d ff7b c23c
00000300: 1226 e2bd 7356 163c 7479 7d3c 0c5e 9c3d
00000310: 18db 85bd cb9d c33d a682 d6bd acd9 a0bd
00000320: c3c2 8dbc 4880 07bd b3b9 ccbc 5013 14bb
00000330: 31b7 343d 7df2 e13d 60c2 02be f69e 063e
00000340: 1565 033c ae41 58bd e009 40bc 486a bb3d
00000350: 639a b83d 3552 96bd 2b0f f73d b41f 21bd
00000360: 596a 1bbe f558 873c c19c 2fbd cda2 96bd
00000370: 22de d93c 8f30 69bd e29a 3a3e aa45 843d
00000380: 9f0d e9bd 8d1f 193d 0591 07be d301 753d
00000390: c2e8 853c babc 8ebd 6087 833d b896 26bd
000003a0: d984 e2bd 307b b33c 7208 e13c 488c 4a3c
000003b0: 2f5e aa3d 0185 fcbd 6a3a 2fbc 4915 793d
000003c0: f03e 41bc 38e7 ba3d 7b00 0b3d d0b3 0bbe
000003d0: 92d2 2e3e 3a18 7c3d 54e1 d8bd ebfa 603d
000003e0: 3fe4 563c dbfe e6bd 4c1a 05be 5992 e4bc
000003f0: 0734 4cbd 6372 96bd f4cd 63bd d5b8 ca3d
0.09297181 0.014937663 -0.0061703543 -0.061731607 0.04841337 0.18015322 0.1936337 -0.088098675
0.043211557 0.098686665 0.06192289 0.045698363 -0.009406633 0.17414814 0.09803076 -0.0042263884
0.04872534 0.10534876 0.1573215 0.04007734 -0.07616027 -0.074508086 0.03858449 0.057146046
-0.02240622 0.09302398 0.0025687339 0.05180644 0.09988772 -0.14821646 -0.057259608 0.02487412
0.07264569 -0.16162942 0.089986205 0.01402009 -0.0671678 0.1475663 0.07831986 0.07808296
0.18439998 -0.025527025 0.032722212 0.116231926 0.0072779492 0.12289003 -0.010880134 0.16469423
-0.07749987 0.008363481 -0.024673881 0.054270353 0.1637318 -0.033938378 0.054133993 -0.092023864
0.13196772 -0.07335464 0.10057455 0.14438269 0.07239639 0.0312023 0.12552366 -0.053081736
-0.015466644 -0.018130917 0.051426053 -0.12273753 -0.056514014 -0.000120794866 -0.07957191 -0.17001843
0.033282544 0.016078498 -0.06685501 0.13914604 -0.16957383 -0.049919974 -0.0058619874 0.082715884
-0.022694515 0.05934798 -0.009109622 -0.10917409 0.010600332 -0.083220094 -0.11516133 -0.065160535
0.013329826 -0.09245581 0.037895072 -0.10779951 0.025351828 -0.13373558 -0.0050844364 0.011950009
0.014500377 -0.050156187 0.032801483 -0.11894228 -0.04758202 -0.045172248 -0.07135996 -0.06087256
-0.011534318 -0.12822911 -0.16538063 0.06882022 -0.06895425 -0.046068773 0.033781335 -0.14291501
-0.16114733 0.057307526 0.038497843 0.00011415263 0.053575013 -0.15811035 -0.023712443 -0.003513813
0.020654535 0.09378788 -0.1445553 0.10157881 -0.13324004 0.11139192 -0.0028895787 -0.03681493
0.008738762 -0.01058994 -0.036596995 0.07016573 -0.03270767 -0.1007431 0.039426338 -0.06748606
-0.021730525 0.07303622 -0.00029900076 0.04763642 -0.12817283 -0.06141794 -0.017424788 0.08096944
-0.057192244 -0.12517695 -0.108294666 -0.052684862 0.08731613 -0.044776686 -0.054671735 -0.119224206
-0.006690517 -0.010490292 -0.08525855 0.08435626 0.0043043518 0.1823217 -0.022741226 0.05340299
-0.054264016 0.07973513 -0.053659905 0.019245962 0.0067255665 0.03156886 -0.0044166003 -0.017776635
0.055298872 0.064096645 0.033582117 0.065567605 0.0928991 -0.06918922 0.084072515 0.09095151
-0.030370457 0.09249459 -0.009850876 -0.07786588 -0.044327345 -0.090454064 0.09202668 0.015866488
0.042502906 0.08113697 0.087917775 0.076019764 0.04650076 0.03438733 0.055344626 0.023740767
-0.110424176 0.009175885 0.015470851 0.076351255 -0.065359294 0.09551581 -0.10474138 -0.078540176
-0.017304784 -0.033081323 -0.024990892 -0.002259452 0.044120017 0.11032579 -0.1276946 0.13146576
0.008019705 -0.052797012 -0.011721104 0.09151131 0.09013822 -0.073398985 0.1206344 -0.039336875
-0.15177287 0.01652191 -0.0428741 -0.073552705 0.026595179 -0.056931075 0.18223146 0.064586
-0.11379551 0.037383605 -0.13238914 0.059816193 0.01634634 -0.069695905 0.06422305 -0.04067108
-0.11060495 0.021909326 0.027469847 0.012362547 0.08318745 -0.12330056 -0.010695079 0.060811315
-0.011794791 0.09126133 0.033936005 -0.13642812 0.17072514 0.06154654 -0.10589853 0.054926794
0.013115942 -0.112790786 -0.12998313 -0.027901815 -0.049854305 -0.07346036 -0.055616334 0.09898535

edge_lin.0.bias f4 [32]
00000000: 94ba 403d 1cc2 9a3c e4e1 c4bd d0cb 393d
00000010: 4e63 75bd d68a cd3d 1cea cfbd 0d21 f9bd
00000020: ad2d 61bd 0b28 86bc 8c44 c63c 7cfe c9bd
00000030: 6158 02bb ccb9 8c3c b43e a03d c538 3e3d
00000040: aca2 ddbd 9787 d5bd 806f c63d 3b0c 133c
00000050: e105 dcbd d1a4 d4bb 297c 8dbd 992e 743d
00000060: 77f8 b43d a2e0 12bd e83a aebd b0fb 85bb
00000070: 71f8 4cbd 6c68 e2ba cd65 a83d 7f16 9f3d
0.047052935 0.018891387 -0.09613398 0.045360386 -0.059909157 0.100362465 -0.10152075 -0.12164507
-0.0549752 -0.016376516 0.024202608 -0.09862992 -0.0019889104 0.017178439 0.0782446 0.04644086
-0.10822043 -0.10426252 0.09689236 0.008975084 -0.10743309 -0.006489374 -0.06908447 0.05961475
0.088364534 -0.035858758 -0.08507329 -0.0040888414 -0.05004162 -0.0017273552 0.08222542 0.07767963

edge_lin.2.weight f4 [32, 32, 1, 1]
00000000: cb55 8dbd c905 26be 7ad5 a5bd 4f28 e2bc
00000010: c7bb 11be fa14 febd 43d6 283e 1e5f e8bd
00000020: 2fc5 453e edd3 8dbd 4b71 153e d40e eabd
00000030: f5ff 16be 209f 0c3e 461f 9cbd fed7 aa3c
00000040: 9255 153a b02a a9bc a36e c83d bfcf b83d
00000050: 2a00 9cbd 45ca 0d3e 6998 fd3c d64a 083d
00000060: 9e7a 1c3e 3379 97bd 9db4 8abd 83b1 173e
00000070: cd3a ffbd a73a 233e b2d2 9b3c 16ab c53d
00000080: 16b6 2abd 681a c53a be9a dcbb 6484 9e3d
00000090: 2d74 2e3d a29a 343e 43d6 0e3e 83f5 943c
000000a0: e0f6 a2bc d025 2abd 752c e7bd dc89 8b3d
000000b0: 5c85 033e 4ef9 333e 7b9e 9b3d 2e89 ad3d
000000c0: 586b 6ebd c33e 203e f782 003e 185b a63d
000000d0: f02b e93d cb01 f9bd 7154 1b3e 1109 ccbd
000000e0: a355 043e d9f2 97bd 322b f43d 9b70 153e
000000f0: 9a41 3fbe 1999 bfbd e869 b73c b0b2 cb3c
00000100: 4b12 653e e4de d9bd 5d59 fbbd 323a 63bd
00000110: d40d dabd 5751 1fbe c062 de3d 5522 ad3d
00000120: bffb 57be ef0b 68bc 75c6 6dbd 4483 63bd
00000130: 8b05 313e 7b19 543e 2a60 7bbe e708 e23d
00000140: 9b0d 0d3d 0a5d 713e 2b2b 45be 2486 6e3e
00000150: 4e92 6e3d 2321 293e a691 1c3e e7e7 cb3b
00000160: 1931 e33c 14a5 323e 0aec a23d 7aa6 b6bd
00000170: 2440 823d 9871 bebd bf73 033e f45d 9f3a
00000180: b96c cabd e23e f7bc 2105 9dbd 5074 a6bd
00000190: 76d3 243e a86e 073e 2e8d b73d e44b a2bd
000001a0: 35ec ea3d 3f38 33be 309d 83bd 1020 903c
000001b0: 1190 133d 0046 903d 786b af3d c966 a93d
000001c0: 9b92 393e 3049 02bd 7343 34bd 29bd 23be
000001d0: 15da d1bd 82cb b13d 6701 293d e086 7e3d
000001e0: 3e6a e6bd 4196 0cbe 1403 dc3b dfae febd
000001f0: e93a 0e3d de4d 1b3e 4e10 0b3e 0935 d13d
00000200: 78dc 10be 04bd 29bd f0e8 1fbe 9bd3 01be
00000210: 6777 933c 640b 9f3d 5cd1 0ebe 76f0 00bc
00000220: 6e61 8bbd 7281 febd 21e8 a83d 4415 76be
00000230: 5f01 063e da24 cd3d f348 02bb dd08 8b3d
00000240: 0f0f 49bd b87a 893d e547 963d 11b9 953d
00000250: 5e53 6b3d 570e c83d a794 b0bb f881 86bd
00000260: 0197 8e3d 3fd9 f0bd 6eb6 a6bd 0fae eabd
00000270: a4dd 933d a863 c0bd 9ed3 41bd 1db8 9d3d
00000280: e6a6 cdbd 40be cebd 287b 09bb 728e 2abe
00000290: 98f6 093e bd36 1e3e d457 3dbd 7a4b 9ebd
000002a0: 071c a73d 04af 853d 1fd9 263c 8cb7 9abd
000002b0: 8f03 6d3d a513 f63d c503 89bd 7913 303e
000002c0: 6d6f 063e f580 91bd cb0d a2bb b5ca 07be
000002d0: 32bc 1ebe 7a47 cb3d a715 abbd a827 d33d
000002e0: 5810 4a3e 3f24 1ebe 4596 77bd df9f 553d
000002f0: 2d76 0bbd 6d25 a4bd 9435 fbbd 78ea 403d
00000300: fad3 45bd 065e ff3d 232b e33d 7be2 84bd
00000310: f16f bc3b d3bd 55bd 920c 20be 9a50 2dbe
00000320: 95fc 8ebc c3ed 2a3b 6edc 07bc 75f3 06be
00000330: 4ee4 d53d 7238 6abd 1887 313e 030e 5cbd
00000340: da0a 003d dd5b 43bd 3a7c 35bd 217a de3d
00000350: 4788 c6bc 2658 923d c4f5 09be ff1a 043e
00000360: e4c3 333c 2f4b fc3c 8208 aabd c6d2 ff3d
00000370: 1fd8 9a3d a5ce 2dbe 97c1 fabd 5674 d63c
00000380: b0ee 2e3e 5cc7 35bd a85b 9d3d 490a 943d
00000390: 843b 963d 7a3e 083e 22fd 053d 1644 3d3c
000003a0: 7175 79bd 2359 14be 6741 25be ff93 e53d
000003b0: cb32 bfbc c96e 163e d667 19bd 9099 963d
000003c0: 7d3b 983d d85f fa3c 518f d83d 062d 52bc
000003d0: 838d 2ebe fd4e 7bbc a087 f93d b226 94bd
000003e0: 82cc d3bd 23a7 c6bd f92a 66bd 2a53 a43d
000003f0: 5b34 07be 659f 1fbe c70b 2b3d e1f2 4abe
-0.06901129 -0.16213144 -0.08097358 -0.027607111 -0.14231788 -0.12406345 0.16487984 -0.11346267
0.19313501 -0.06925187 0.14593999 -0.114286095 -0.14746077 0.13732576 -0.076231524 0.020854946
0.000569665 -0.020650238 0.09786727 0.090239994 -0.07617219 0.13846691 0.030956464 0.033274494
0.1528115 -0.07396164 -0.067727305 0.14813809 -0.12462387 0.15940343 0.019021366 0.09651773
-0.041677557 0.0015037777 -0.006732314 0.07740095 0.042591263 0.17637113 0.13948922 0.018183475
-0.01989311 -0.041539967 -0.112877764 0.06813404 0.12843841 0.17575571 0.07598587 0.084734306
-0.05820784 0.15648942 0.12549959 0.081228435 0.113853335 -0.12158545 0.1516893 -0.09962667
0.12923293 -0.074193664 0.11922301 0.14593737 -0.18677369 -0.09355373 0.022389367 0.024865478
0.2237026 -0.10638216 -0.12272904 -0.05547542 -0.10647169 -0.15558372 0.10858679 0.08453814
-0.21092127 -0.014163001 -0.05805059 -0.055545107 0.1728727 0.20712845 -0.24548402 0.11036854
0.034436803 0.23570648 -0.19254749 0.23293358 0.058244996 0.16516547 0.15289935 0.0062227133
0.027733373 0.17445785 0.07955177 -0.08918472 0.0635989 -0.0929901 0.12837122 0.0012158738
-0.098840185 -0.030181352 -0.07666994 -0.081276536 0.16096291 0.13225806 0.08962475 -0.07924631
0.11470834 -0.17501925 -0.064264655 0.017593414 0.036026064 0.070446014 0.0856542 0.08271558
0.18122332 -0.03180808 -0.044009637 -0.15990128 -0.10246674 0.08681394 0.041261103 0.062140346
-0.11250733 -0.13729192 0.006714234 -0.12435698 0.03472415 0.15166423 0.13580438 0.10215194
-0.14146602 -0.041440025 -0.15616202 -0.12678377 0.018001271 0.077658445 -0.13947052 -0.00786983
-0.068056926 -0.124270335 0.082474 -0.2403155 0.1308646 0.100167945 -0.0019879907 0.067888
-0.049086627 0.0671286 0.073379315 0.07310689 0.057452552 0.0976836 -0.0053888145 -0.06567758
0.069623955 -0.117601864 -0.081402645 -0.1145898 0.07220009 -0.09394008 -0.047320955 0.077011324
-0.10041599 -0.10094881 -0.0020977948 -0.16655901 0.13472974 0.15450568 -0.046226338 -0.0772924
0.08159643 0.06527522 0.010183602 -0.0755454 0.057864722 0.12015466 -0.06690172 0.17194928
0.13128443 -0.07104675 -0.004945492 -0.1326092 -0.15501478 0.099257424 -0.08353739 0.10310298
0.19732797 -0.15443514 -0.060446043 0.052154418 -0.034048248 -0.08014951 -0.122660786 0.047098607
-0.04829786 0.124691054 0.11092212 -0.0648851 0.005750649 -0.052182984 -0.15629795 -0.16925278
-0.017454425 0.0026081658 -0.008292301 -0.13178809 0.10443936 -0.057182737 0.1733669 -0.0537243
0.03126035 -0.04769503 -0.044307925 0.10863138 -0.024234904 0.07145719 -0.13472658 0.12900923
0.010971997 0.03079757 -0.08302404 0.12491374 0.07560753 -0.1697336 -0.122439556 0.02617852
0.1708324 -0.044379577 0.07683498 0.07228524 0.073355705 0.13305083 0.03271211 0.0115518775
-0.060903016 -0.14487128 -0.1613823 0.11209869 -0.02333965 0.14690699 -0.03745254 0.073535085
0.074332215 0.03056328 0.105742104 -0.012828117 -0.1704617 -0.0153386565 0.121840715 -0.07233943
-0.10341741 -0.096998475 -0.056193326 0.08023675 -0.13203566 -0.15588148 0.04175928 -0.19819213

edge_lin.2.bias f4 [32]
00000000: b761 f33d 0cfe 553b aee2 9dbd a78b e7bd
00000010: 438f 62bd 5581 013e 0482 cabd ae0e a9bd
00000020: 31ab 85bd 9283 d43c ef02 d0bc 74be bbbd
00000030: 0934 8cbd 6f16 253e d2ae 33bc 5fad 8fbc
00000040: 634a f4bd 7687 a33d 0a29 04be 4b59 293e
00000050: a858 7a3d b72a 363d ad11 1c3e 07c9 f9bd
00000060: 9c45 ca3d 3aa9 d3bc 2622 fbbc 5840 20bd
00000070: 1840 0a3e 4ccf 4cbd b582 e6bc b4d0 cc3d
0.11883872 0.0032652644 -0.07709251 -0.113059334 -0.055312406 0.12646993 -0.0988808 -0.08254753
-0.06526793 0.025941644 -0.025392024 -0.091671854 -0.068458624 0.16121839 -0.010966973 -0.017538724
-0.11928251 0.079848215 -0.1290628 0.16537969 0.061119705 0.04447433 0.15241118 -0.12196546
0.09876558 -0.02583753 -0.030655932 -0.039123863 0.13501012 -0.05000238 -0.028138498 0.100007445

vertex_output_lin.0.weight f4 [32, 1, 32, 1]
00000000: 2106 083e d28a 5f3d 0976 523c ba38 893d
00000010: 8344 2ebe 7b42 a1bd f013 05be 3dd9 27be
00000020: 0a63 24be 9f60 063e cb03 1fbe 13a0 71bd
00000030: 8e2d 96bd f1b9 1bbe 3bf2 29be 3e36 b63d
00000040: fda2 0cbd 8b95 213e 85b8 bdbd 2c2a 173e
00000050: 1dd7 24be 1da4 f33c 0d91 593d c0fe d63d
00000060: 1918 06be 7360 a73b 0d81 26be 75b4 12be
00000070: 7f89 e33d 2aef 523d deb3 56bd 7e08 743d
00000080: 1476 003c 3421 21be fb98 54be 1c0a abbd
00000090: 58da bebd 6273 af3b 90df 5bbc dabd eb3d
000000a0: 0e44 f3bd 154a 68bd 9a4f 13be 8aed 4abe
000000b0: a80f 2bbe 466c 433e d4e6 da3c 78f5 8e3d
000000c0: b8b2 2cbe a602 293e 740f 133e 5821 97bd
000000d0: bcf2 793d f8d6 193d 681b f6bc d2a4 083e
000000e0: a03a 5abd 3490 9c3d 1b36 7a3c ae02 5e3d
000000f0: 65b9 98bd dc07 b43d f016 86bd b671 fc3d
00000100: 21bd 953c 22af 96bd da03 523e 83d7 fb3d
00000110: 3620 1dbe dea3 cabd 76e0 e83d 4a6c c83d
00000120: dd79 23be 86ff e9bd 37c3 93bd 76dc afbd
00000130: d2e2 af3c 94c5 27be e636 eabd 27a7 e33b
00000140: bdb5 c4bd f9d2 6f3d 9b65 26bd 0afd 58bd
00000150: 20cb 663d ac9c 06be 6448 473d 8404 ab3d
00000160: 8492 4fbe 4e1f 753e c70f 223e 035d b2bd
00000170: beec 283e 2665 343e 0292 103e 5995 723d
00000180: 6534 4a3e 6776 2a3e 9077 c23b fd81 b83c
00000190: 8022 ce3c afc6 203e 8ddc bb3d 082b d8bc
000001a0: 33ea 9dbd 1475 de3b e626 8c3d f25c a4bc
000001b0: c7c6 e2ba 4ad5 cd3d 01b3 9f3d e6ed 1cbe
000001c0: 212e 543d f7f5 2d3e 5818 d63d 936d 463e
000001d0: a1d1 3c3e cf91 fdbc 8bf9 2cbb 244f 8fbd
000001e0: 7b29 4a3e 6860 27be 5634 073c 3b3b b5bd
000001f0: ec84 9fbb 50f2 6f3d 9b1b 8c3a 927a c3bd
00000200: dcca d7bd e614 2a3d 9c9a 02be c43a 633d
00000210: abb3 e7bc 4fbd fbbd 5ea2 c3bd 6ae9 0e3e
00000220: 8c89 89bd 48a2 993d 595b 1b3e 4e6b 34be
00000230: 84fb 20bd d852 02be 7196 e53d 0ac3 823d
00000240: 9c69 e7bd a23b 03bd 10c9 38be 0823 ae3c
00000250: 4e83 1fbd 4db8 203e 7852 383e a91d c23c
00000260: 807b 41bd 4a46 23be 22c7 9cbd 1fb9 b13d
00000270: 96fe 10be 7076 88bd 059b 5abb b9ab d53d
00000280: d574 3c3e 7677 d5bd 9ca0 31bd 6724 0cbe
00000290: 3d36 83bc 258d 703d 0407 a33d 3dc3 7b3c
000002a0: 42e4 dabc f5d8 c73d da5d c1bd 27a3 e43c
000002b0: 8af2 3f3e 5607 5a3d 630e 3a3b bdea da3d
000002c0: 6011 f93d 01bb b63b eaac 03be 2271 c63d
000002d0: 7b22 d93d 7dd8 623d 007d 293e 48c7 e8bc
000002e0: 6ec8 803c b9dd c1bd 5fc2 3dbe 8fdf 9ebd
000002f0: 4d5a 58bc 3a26 c8bd 1bda 1e3d eb17 f93d
00000300: c594 b0bd 9ba2 99bd 4a9f 763d becb 493d
00000310: 841d cbbd 2ac7 12bc c841 e8bd eadd 01be
00000320: 6ea9 a6bd 9245 333d 0cdb b83d 6968 86bd
00000330: 9901 013e 9762 d4b9 84e8 54bd effe 773c
00000340: e56e fa3c 94fe 5fbb b209 a4bd 46c2 adbd
00000350: f5e5 cdbd 6f85 9a3d 3acb 583c a508 be3b
00000360: 35ab 59bd cd4d 023d 62db 8f3d 577c cd3c
00000370: 5646 dbbd e248 1ebe 7f89 bfba 9049 743d
00000380: 10fc 1e3d f981 24be 7393 673c 7d41 16be
00000390: 4509 ecbd 286e 113e e8c9 473d f5c3 48be
000003a0: 5302 183e cd67 203c 6a34 d63d 0364 56be
000003b0: ce7c 523d a12e 013e 9504 123e 2f97 d2bd
000003c0: db63 0d3e e3cf 2f3e 47bd 3ebe 0815 ec3d
000003d0: 7ae5 033e 6c48 6e3d 0903 b7bd c74b 493d
000003e0: ecee cd3d 7678 2ebe b5eb 043e 606a e53d
000003f0: e6dc 113e 064a d43d c559 13be ab0b 06bd
0.13283588 0.05457575 0.012845525 0.06700273 -0.17018323 -0.07874008 -0.12995887 -0.16391464
-0.16053405 0.13122796 -0.1552879 -0.05899055 -0.073329076 -0.1520765 -0.1659631 0.088970646
-0.034335125 0.15779702 -0.0926371 0.14762181 -0.16097684 0.029741341 0.053116847 0.104978085
-0.1309513 0.005107933 -0.16260166 -0.14326651 0.1111021 0.051497616 -0.05241763 0.05957841
0.007840652 -0.15735322 -0.20761482 -0.083515376 -0.093189895 0.005354331 -0.013420001 0.11510821
-0.11878215 -0.056711275 -0.14385834 -0.19817176 -0.16705191 0.19084272 0.026721396 0.06980413
-0.16865051 0.16504917 0.14361364 -0.07379407 0.061022505 0.037558526 -0.030042365 0.13344124
-0.053278565 0.07644692 0.015271689 0.054201774 -0.07457236 0.087905616 -0.06547344 0.12326376
0.01827866 -0.07357623 0.20509282 0.12296965 -0.15344319 -0.098945364 0.113709375 0.097862795
-0.15964456 -0.1142569 -0.07214969 -0.085869715 0.021470461 -0.16383964 -0.11436252 0.0069474163
-0.09604976 0.05855081 -0.040624242 -0.05297569 0.05634606 -0.13145703 0.04865302 0.08350471
-0.20270735 0.23937723 0.15826331 -0.08709147 0.1649656 0.1761671 0.14118198 0.05922446
0.1974655 0.1664673 0.005934663 0.02252292 0.025162935 0.15700792 0.09172926 -0.026387706
-0.077106856 0.006788859 0.06843357 -0.020063851 -0.0017301672 0.10050447 0.07797814 -0.15325126
0.051801804 0.1698836 0.10453862 0.19377737 0.18439342 -0.030953316 -0.0026393856 -0.06997517
0.19742386 -0.1634537 0.008252224 -0.08849188 -0.0048681404 0.058580697 0.0010689379 -0.09544863
-0.10536739 0.041523837 -0.12754291 0.055475965 -0.028283915 -0.12291967 -0.095524535 0.13956228
-0.06715688 0.07501656 0.15171565 -0.17619058 -0.039302364 -0.12726915 0.11210335 0.06384857
-0.1129944 -0.032039292 -0.1804545 0.021256939 -0.03894358 0.15695305 0.1800021 0.023695784
-0.04723692 -0.15944782 -0.07655169 0.08677887 -0.14159617 -0.06663215 -0.003335656 0.10433144
0.18403943 -0.10423176 -0.04336606 -0.13685761 -0.016017074 0.058728356 0.079603225 0.015366373
-0.02672017 0.09758178 -0.09441729 0.027909828 0.18744865 0.053229652 0.0028389923 0.10689304
0.12161517 0.005576492 -0.1285893 0.09689547 0.1060228 0.05538224 0.1655159 -0.028415337
0.015720572 -0.09466118 -0.18531178 -0.07757484 -0.013205123 -0.09772916 0.03878222 0.12162765
-0.086221255 -0.07501718 0.060210504 0.04926657 -0.09917739 -0.008958617 -0.11340672 -0.1268231
-0.08137785 0.04376752 0.09026155 -0.065628834 0.12598266 -0.00040509246 -0.051979557 0.0151364645
0.030570457 -0.003417884 -0.08009662 -0.0848432 -0.100536264 0.07544982 0.013232047 0.0057993704
-0.05314179 0.031812478 0.07024266 0.025083704 -0.10706775 -0.1545749 -0.0014613121 0.059640467
0.038814604 -0.16065206 0.014134276 -0.1467342 -0.115252055 0.14202178 0.048776537 -0.19606002
0.14844637 0.009790373 0.10459216 -0.20936589 0.051388554 0.12615444 0.1425956 -0.10282742
0.13807623 0.17169146 -0.18626891 0.11527449 0.12880507 0.058174536 -0.08936126 0.049144533
0.10055336 -0.1703814 0.1298054 0.1120193 0.14244422 0.10365681 -0.14389713 -0.03272597
