reachability_classification/weights/Separateq0qgqkckMultiplePassGNNReachabilityNet_epoch_45.pt (torch_old, 53383 bytes, 26 tensors)

x_lin.0.weight f4 [8, 1, 1, 2]
0	0x3e5dfa49	0.21677507
1	0xbe36cef2	-0.17852381
2	0xbe9a1411	-0.30093434
3	0xbf761b33	-0.9613525
4	0x3d4e0c04	0.050304428
5	0x3f55275b	0.83263177
6	0xbed5c720	-0.41753483
7	0x3ecde2d4	0.4021212
8	0x3e875d51	0.26438382
9	0xbf235bb8	-0.63811827
10	0xbf1bd879	-0.60877186
11	0x3e51745f	0.20454548
12	0xbf1a9e3d	-0.603977
13	0x3dc1558e	0.094401464
14	0xbf096150	-0.5366411
15	0x3eb20702	0.34770972

x_lin.0.bias f4 [8]
0	0x3ec85599	0.39127806
1	0x3f528612	0.82235825
2	0xbf1de3e8	-0.6167588
3	0x3eec6906	0.46173877
4	0xbed2e697	-0.4119155
5	0x3f7580f3	0.95899886
6	0xbe0e60f5	-0.13904174
7	0xbb9b3001	-0.004735947

y_lin.0.weight f4 [8, 1, 1, 2]
0	0x3f2acda7	0.6672005
1	0x3db79621	0.08964182
2	0x3f24b8bc	0.6434438
3	0x3edd8274	0.4326359
4	0x3d102624	0.035192624
5	0x3f8d7608	1.1051645
6	0x3ee7c70f	0.45269057
7	0xbf052a97	-0.5201811
8	0xbc9939b7	-0.018704278
9	0xbf21659e	-0.6304568
10	0xbdbd5ade	-0.09245847
11	0xbdc790f2	-0.09744443
12	0xbf26481a	-0.6495377
13	0x3e2d4e1d	0.16924329
14	0x3f0aa7ab	0.5416209
15	0x3dfa188f	0.122117154

y_lin.0.bias f4 [8]
0	0xbf1f5df6	-0.6225275
1	0x3f1f28f9	0.62171894
2	0xbe5c896a	-0.21536794
3	0xbd6c218f	-0.05764919
4	0xbdbcacf5	-0.092126764
5	0xbf05eedb	-0.5231759
6	0x3f1134cb	0.5672118
7	0x3e4e902f	0.20172189

th_lin.0.weight f4 [8, 1, 1, 2]
0	0xbd8f3272	-0.069920436
1	0xbc5186fe	-0.012788532
2	0x3ea9a882	0.33136374
3	0x3ea1a9c6	0.3157484
4	0xbb1fc0a3	-0.0024376295
5	0xbfeaff03	-1.8359073
6	0xbe9ed67e	-0.3102302
7	0x3eec6ea9	0.46178177
8	0x3ed58fd2	0.4171129
9	0xbf1228ae	-0.5709332
10	0xbf028f80	-0.51000214
11	0xbe9e9547	-0.30973265
12	0x3ee398d5	0.4445254
13	0x3ecbe45c	0.39822662
14	0xbc291fb9	-0.010322505
15	0xbfe7cad8	-1.8108778

th_lin.0.bias f4 [8]
0	0x3e2aac13	0.16667204
1	0x3d366878	0.044533223
2	0x3d4633f5	0.048389394
3	0xbee5cda2	-0.44883448
4	0x3e970198	0.29493403
5	0xbe47803c	-0.19482511
6	0xbf830b5e	-1.0237844
7	0x3d93f22a	0.072239235

config_lin.0.weight f4 [32, 24, 1, 1]
0	0x3ee71e31	0.45140222
1	0xbe3d9fff	-0.18518065
2	0xbebd5c88	-0.36984658
3	0xbde0789b	-0.10960504
4	0x3ead93dc	0.3390187
5	0x3e133d3e	0.14378831
6	0xbe375a32	-0.179055
7	0x3e970726	0.2949764
8	0xbeab4873	-0.33453712
9	0xbf5d5198	-0.8645263
10	0xbd564ff5	-0.052322347
11	0x3e9ae3ca	0.30251914
12	0xbddbe67e	-0.10737322
13	0xbf046ead	-0.5173138
14	0xbf5052dc	-0.81376433
15	0xbef360e4	-0.4753486
16	0x3e399e0e	0.181267
17	0xbe164fcf	-0.14678882
18	0x3e42d1eb	0.1902539
19	0x3db6e267	0.089299016
20	0x3e768340	0.24073505
21	0x3d22e2a2	0.039766915
22	0x3e2f9f22	0.17150548
23	0x3f1c041b	0.60943764
24	0xbd792e7f	-0.060835358
25	0xbe493258	-0.19648111
26	0x3e3c8331	0.1840942
27	0x3e91f6fd	0.2850875
28	0x3ed07a45	0.40718284
29	0x3e82f3c7	0.25576612
30	0x3d5bf146	0.053696893
31	0x3cbedffc	0.023300163
32	0xbea5dc1b	-0.3239449
33	0xbe4e3843	-0.2013865
34	0x3e3fd1db	0.18732397
35	0xbe5e2e5e	-0.21697375
36	0x3b26d2b9	0.002545519
37	0x3dd96075	0.10614101
38	0x3e6cd6bd	0.23128791
39	0xbdc800e8	-0.09765798
40	0x3e335e64	0.17516476
41	0xbd5e2103	-0.0542307
42	0x3e1aba1e	0.1511006
43	0xbda2d1e3	-0.07950189
44	0xbe88d12e	-0.2672209
45	0x3d5c53e2	0.053790934
46	0xbe3d565f	-0.18489979
47	0x3ef58187	0.47950384
48	0x3d057796	0.03258475
49	0x3e3eb893	0.18625097
50	0xbe686711	-0.22695567
51	0x3d681e85	0.05666973
52	0xbeb36cbd	-0.35043898
53	0x3d2e8c64	0.042614356
54	0x3dd73b8b	0.10509404
55	0x3e753470	0.23945785
56	0x3e32a5b1	0.17446019
57	0x3ba464c2	0.005016894
58	0xbd2cb5ce	-0.04216557
59	0x3cba5e51	0.022750052
60	0x3eb1848a	0.34671432
61	0x3e82113f	0.25403783
62	0xbdb4302c	-0.087982506
63	0x3d9b7956	0.07591502
64	0x3c4f6f47	0.012660808
65	0x3cbef97d	0.023312325
66	0xbea4f4bb	-0.32217965
67	0xbe17b750	-0.14816022
68	0x3e8647c9	0.26226643
69	0xbdb1021d	-0.08642981
70	0x3ddca5d5	0.107738174
71	0xbf060fea	-0.5236803
72	0xbd718c31	-0.058971588
73	0xbe331c9b	-0.17491381
74	0xbf0bbd59	-0.54585797
75	0xbed34d89	-0.41270092
76	0xbf073af8	-0.52824354
77	0xbe894163	-0.268077
78	0xbe6fd0eb	-0.2341954
79	0xbe222dcb	-0.15837781
80	0x3d25afb2	0.04045076
81	0x3d8b9562	0.06815602
82	0x3e54a699	0.20766677
83	0x3e43344f	0.19062923
84	0x3dfc9457	0.12332981
85	0xbe96f5e9	-0.2948449
86	0xbe2005d5	-0.15627225
87	0xbda238bb	-0.07920977
88	0x3d388d94	0.045056894
89	0x3e030205	0.12793739
90	0xbdfbd786	-0.12296967
91	0x3e7a04ac	0.24415845
92	0x3e0f5d58	0.14000452
93	0x3dde8b3a	0.10866399
94	0x3dd12816	0.10212724
95	0xbeafad37	-0.3431184
96	0x3dd62bec	0.10457596
97	0x3e8a6e60	0.27037334
98	0x3dc911d4	0.098178536
99	0x3e88c021	0.26709083
100	0xbf641eb1	-0.8910933
101	0x3dff6d1a	0.12471981
102	0xbe9dfbdf	-0.30856225
103	0xbe59b4d5	-0.21260388
104	0x3e09b176	0.13446602
105	0x3f02991a	0.51014864
106	0xbe3f34f1	-0.1867254
107	0xbe828ac0	-0.25496483
108	0xbe036936	-0.12833104
109	0x3e695a1e	0.22788283
110	0xbe972cff	-0.29526517
111	0x3e730432	0.23732069
112	0xbd7b47ba	-0.0613477
113	0xbea100d6	-0.3144595
114	0x3f997163	1.1987728
115	0xbe923c41	-0.28561595
116	0x3ee65f69	0.44994667
117	0x3eededa7	0.46470377
118	0xbe48eced	-0.1962163
119	0x3fdedacd	1.7410523
120	0xbdec77f1	-0.115463145
121	0x3e35ce42	0.17754462
122	0xbe696fc4	-0.22796541
123	0x3e146179	0.14490308
124	0x3e85d100	0.26136017
125	0x3e9e3035	0.30896154
126	0x3e6f562f	0.2337272
127	0xbf27db6a	-0.65569174
128	0x3ccf8d21	0.02533585
129	0x3e40fcd6	0.1884645
130	0xbf0ee03c	-0.55810905
131	0xbef7b8e1	-0.4838324
132	0xbe15775d	-0.14596315
133	0xbac6318d	-0.0015120968
134	0x3e6c69ab	0.23087184
135	0xbe6e7439	-0.23286523
136	0xbdae79f0	-0.085193515
137	0x3db4d29a	0.088292316
138	0xbccc23e6	-0.024919461
139	0xbe18bc7e	-0.14915654
140	0xbeec6d62	-0.46177202
141	0xbe275784	-0.16341978
142	0x3ee0dec3	0.43919954
143	0xbdc05e6b	-0.09393009
144	0xbd439c05	-0.047756214
145	0x3e29b091	0.16571261
146	0x3e94cb5c	0.290614
147	0xbde65724	-0.112470895
148	0xbe0128f0	-0.12613273
149	0xbeafefd5	-0.34362665
150	0x3a11c770	0.00055610295
151	0xbeabad52	-0.3353067
152	0x3da680e5	0.081300534
153	0xbe0ba746	-0.13638029
154	0xbec335c6	-0.38126963
155	0x3e0241ba	0.12720385
156	0xbd3a4802	-0.04547883
157	0x3daa989e	0.08329891
158	0x3e5317ca	0.20614544
159	0x3d7acebf	0.061232325
160	0x3df6d27e	0.12051867
161	0xbe8dcafd	-0.2769393
162	0xbe76cb64	-0.24101025
163	0x3e8d54a7	0.27603647
164	0xbf1c120a	-0.60965025
165	0x3c912d55	0.017721811
166	0xbd5626df	-0.052283164
167	0xbee43ff1	-0.44580033
168	0xbdb6b93b	-0.08922049
169	0xbe3d6fb0	-0.18499637
170	0x3e8c8bad	0.27450314
171	0xbd25975f	-0.04042756
172	0xbd665799	-0.056235883
173	0xbea09d08	-0.31369805
174	0x3e31f696	0.17379221
175	0xbd7cc5e6	-0.06171217
176	0xbdcc5393	-0.09976878
177	0xbeb4f3fd	-0.35342398
178	0x3e069d14	0.13145858
179	0x3d1580c3	0.03649975
180	0x3e92cb1d	0.28670588
181	0x3ebb4210	0.3657384
182	0xbc759ebb	-0.014991458
183	0xbefabfb7	-0.48974392
184	0xbe0dfc40	-0.13865757
185	0xbe20a2d4	-0.15687114
186	0x3d7fd535	0.06245919
187	0xbcc1bbbb	-0.023649087
188	0x3e02c6a5	0.1277109
189	0xbe4838c4	-0.19552904
190	0x3e06dd22	0.13170293
191	0xbea8a3cd	-0.3293747
192	0xbda73343	-0.08164074
193	0x3f72b634	0.9480927
194	0xbe056659	-0.13027324
195	0xbeb26f0c	-0.34850347
196	0x3d5d7890	0.054070055
197	0x3eac0745	0.33599296
198	0x3e106827	0.14102231
199	0xbea6edaf	-0.32603213
200	0x3cf60bcb	0.03003492
201	0xbcd0ef8c	-0.02550485
202	0xbf152572	-0.5826026
203	0xbf1d7941	-0.61513144
204	0xbd84be2c	-0.06481585
205	0x3e6313ae	0.22175476
206	0x3e6c5c11	0.23081996
207	0x3e328008	0.17431653
208	0x3d9f10e2	0.07766892
209	0x3dd1d514	0.102457196
210	0xbd6c832b	-0.05774228
211	0xbcc11c16	-0.023572963
212	0xbe7ec79c	-0.24880832
213	0xbebad928	-0.36493802
214	0xbdb2cf20	-0.08730912
215	0x3db1bd34	0.08678666
216	0x3ec9b5dd	0.39396563
217	0x3ef2daeb	0.47432646
218	0xbef2af1b	-0.4739922
219	0xbdb4e3e8	-0.08832532
220	0x3ebc887d	0.36822882
221	0x3ea8591c	0.32880485
222	0xbddcc555	-0.107798256
223	0x3e4c0fdd	0.19927926
224	0xbe32057f	-0.17384909
225	0x3e5f6046	0.21814069
226	0x3e830298	0.25587916
227	0x3e0f0c13	0.1396945
228	0xbd719a51	-0.05898506
229	0xbe738091	-0.23779513
230	0xbd82abf0	-0.06380451
231	0xbe36ba72	-0.1784456
232	0x3e314827	0.1731268
233	0x3db4672c	0.08808741
234	0x3e53b123	0.20673041
235	0x3e949008	0.29016137
236	0x3d601d9a	0.05471573
237	0xbcd8b0a2	-0.026451413
238	0xbe890314	-0.2676016
239	0x3eb0b37d	0.3451194
240	0xbeefb074	-0.4681431
241	0xbd2ce63c	-0.042211756
242	0x3e664fff	0.22491454
243	0xbe14479b	-0.1448044
244	0xbf183c6a	-0.59467185
245	0x3da97587	0.0827437
246	0x3d8ed4da	0.06974192
247	0x3e39c545	0.18141659
248	0x3e8767dc	0.26446426
249	0x3dd288a1	0.10279966
250	0xbe951009	-0.29113796
251	0x3e83b29f	0.25722215
252	0x3e70f206	0.23529825
253	0xbd0d2e4e	-0.034467988
254	0xbec0cd32	-0.37656552
255	0x3ea3002d	0.31836072

config_lin.0.bias f4 [32]
0	0x3e02661d	0.12734266
1	0x3e884067	0.26611635
2	0xbeb0b93b	-0.3451632
3	0x3e1ff613	0.15621214
4	0x3e74bf6d	0.23901148
5	0xbbfeaedd	-0.00777231
6	0xbd97d174	-0.07412997
7	0xbeab52ce	-0.33461612
8	0xbdd9e608	-0.10639578
9	0x3d3f4ec1	0.046705965
10	0xbeb62972	-0.35578495
11	0x3e37e4f9	0.1795844
12	0x3d27693b	0.04087184
13	0x3e4dad25	0.2008558
14	0x3c6492c6	0.013951009
15	0x3ed7c186	0.42139834
16	0x3c50f2d9	0.012753212
17	0xbdc5f9e0	-0.096668005
18	0xbedc2d15	-0.43003145
19	0x3dd8b9fe	0.1058235
20	0x3d7c46db	0.06159101
21	0xbe372ce3	-0.17888217
22	0x3c797f0b	0.015228043
23	0xbe0c28db	-0.1368746
24	0x3e2c6ef2	0.16839197
25	0x3de572c3	0.1120353
26	0xbdb36ac1	-0.08760596
27	0x3dbf00a1	0.09326292
28	0x3ea84c2c	0.32870615
29	0xbe6a1690	-0.2286017
30	0xbc804a37	-0.015660388
31	0x3e13adf8	0.14421833

config_lin.2.weight f4 [32, 32, 1, 1]
0	0x3e80ba5a	0.25142175
1	0x3de0805f	0.10961985
2	0x3db23e65	0.08703307
3	0xbdd3388f	-0.10313522
4	0x3f0340b7	0.5127062
5	0xbe6a8c68	-0.22905123
6	0xbeb834af	-0.35977694
7	0x3caa8615	0.020815888
8	0x3b3b17cd	0.0028548122
9	0x3d2b81f1	0.04187197
10	0xbee85cef	-0.45383403
11	0xbc85ba74	-0.01632426
12	0xbeaa4359	-0.33254507
13	0xbeebc433	-0.46048126
14	0xbe6d39ef	-0.23166631
15	0x3e607a33	0.21921615
16	0xbd85318c	-0.06503591
17	0xba5a6a72	-0.00083319016
18	0xbea38f69	-0.3194535
19	0x3d176c5e	0.03696858
20	0x3e829b86	0.2550928
21	0x3e558d85	0.20854767
22	0xbe6a3720	-0.22872591
23	0x3d89843b	0.06714674
24	0xbe8e6cc8	-0.27817369
25	0x3e88a717	0.2668998
26	0x3eecb686	0.46233004
27	0xbef97b21	-0.48726752
28	0x3c862142	0.01637328
29	0xbed18920	-0.4092493
30	0xbd6bd854	-0.057579353
31	0xbf1a26fc	-0.60215735
32	0x3e818446	0.2529623
33	0x3d88749e	0.06662868
34	0xbdb24a73	-0.08705606
35	0xbe4ae29f	-0.19813012
36	0x3f1f7a69	0.6229616
37	0xbe3b70c7	-0.1830474
38	0xbead8993	-0.33894023
39	0x3e4c9186	0.19977388
40	0x3e7fd596	0.2498382
41	0xbe506e98	-0.20354688
42	0xbe04dcde	-0.12974879
43	0xbd953ea5	-0.07287339
44	0x3db73f29	0.08947594
45	0x3e1e73c0	0.15473843
46	0xbd9bf46c	-0.07614979
47	0x3d1d6f48	0.038436204
48	0xbf18b4b0	-0.5965071
49	0xbee0c7e4	-0.43902504
50	0xbe711197	-0.23541866
51	0xbeebe2b8	-0.4607141
52	0xbe71b13c	-0.23602766
53	0x3eb27b18	0.34859538
54	0xbe25de84	-0.16198164
55	0xbe5c3d41	-0.21507742
56	0xbee1d192	-0.44105202
57	0x3c09a971	0.008402214
58	0x3f0bc670	0.54599667
59	0x3e2c0cf5	0.16801818
60	0xbf2b1a76	-0.6683725
61	0xbeef7259	-0.46766928
62	0x3d2180ae	0.03942936
63	0xbb4e0a19	-0.0031439124
64	0xbdbdce44	-0.09267858
65	0x3e405dd6	0.18785796
66	0x3ca91ff6	0.020645123
67	0xbd846eb9	-0.06466431
68	0x3dae7208	0.085178435
69	0xbf149ad3	-0.58048743
70	0xbc8d3567	-0.017237378
71	0x3e0b9189	0.13629736
72	0x3e21edb7	0.15813337
73	0xbea2d9e1	-0.31806853
74	0x3dcaba66	0.09898834
75	0x3da4de41	0.08050204
76	0x3d7c2354	0.06155713
77	0xbcc85bb3	-0.024457788
78	0xbb6730b3	-0.003527683
79	0xbdddb6a1	-0.10825849
80	0x3dbf7755	0.09348933
81	0xbde0988b	-0.10966595
82	0x3e83e848	0.25763154
83	0x3e07feab	0.13280742
84	0x3d290664	0.04126586
85	0x3ca3d09a	0.01999693
86	0x3dc76913	0.09736838
87	0xbdd8958d	-0.105753995
88	0x3ceb6a36	0.028737169
89	0xbd828542	-0.06373073
90	0xbe1b20b2	-0.15149191
91	0xbcb4e36a	-0.022081096
92	0xbebe31ab	-0.3714727
93	0x3e256c54	0.16154605
94	0x3d5cecb5	0.05393668
95	0xbcbc4159	-0.022980379
96	0x3f00632c	0.50151324
97	0xbda9767f	-0.082745545
98	0xbefd7aaa	-0.49507648
99	0x3e4bf3e0	0.1991725
100	0xbeda3a75	-0.42622724
101	0x3e3d9169	0.18512501
102	0x3eaf1fe8	0.3420403
103	0xbefef0fe	-0.49793237
104	0xbd0b35e6	-0.03398695
105	0xbe391a5e	-0.18076465
106	0xbdfd8bc9	-0.123801775
107	0x3b3b8a10	0.0028616227
108	0xbf7538f1	-0.9579001
109	0xbcbdf390	-0.023187429
110	0xbea2ad38	-0.3177278
111	0xbd88a2d9	-0.06671686
112	0xbead9665	-0.33903804
113	0x3e0e989c	0.13925403
114	0xbea0e70c	-0.31426275
115	0x3e35748a	0.17720237
116	0xbecf565a	-0.4049557
117	0x3c7ea8cb	0.015543173
118	0xbefd0e71	-0.4942508
119	0xbdfdc583	-0.12391188
120	0xbe8ad6f8	-0.27117133
121	0x3db6c307	0.08923917
122	0xbcb932a9	-0.022607164
123	0x3e2dc280	0.16968727
124	0xbc912897	-0.01771955
125	0x3e6f841f	0.23390244
126	0x3ea45c2c	0.32101572
127	0x3f0612dc	0.5237253
128	0x3c897488	0.0167792
129	0xbe31f3a1	-0.17378093
130	0x3e656ce8	0.22404826
131	0x3e2145b2	0.15749243
132	0xbf0c3cab	-0.5478007
133	0xbe7a0f5a	-0.24419919
134	0xbcfd6f69	-0.030936914
135	0x3e18b3b4	0.14912301
136	0xbbb0eabb	-0.005399076
137	0xbe62ad64	-0.22136456
138	0x3e9187e6	0.28423995
139	0xbf34841d	-0.7051409
140	0x3d660573	0.05615754
141	0x3e231cb2	0.15928915
142	0x3ddf4a81	0.10902882
143	0xbedeeabb	-0.4353846
144	0x3d86af99	0.06576461
145	0xbd116b6e	-0.035502844
146	0x3d9534f5	0.072854914
147	0x3def1c30	0.11675298
148	0xbdbb6668	-0.09150392
149	0x3d5cba6b	0.05388872
150	0x3e0243ea	0.1272122
151	0x3d478532	0.04871101
152	0x3e748be0	0.23881483
153	0xbef84f0a	-0.48497802
154	0xbe31ac8a	-0.17350975
155	0xbd70582c	-0.058677837
156	0xbec7bc61	-0.3901091
157	0xbe0aa1af	-0.1353824
158	0xbbeb6cc2	-0.007184596
159	0xbf5e4398	-0.8682189
160	0xbde9afe5	-0.11410502
161	0xbee86746	-0.4539129
162	0x3d9cbcc7	0.07653194
163	0x3e79a362	0.24378732
164	0x3b19a5fb	0.002344488
165	0xbe40a465	-0.18812712
166	0xbe1c15d5	-0.15242703
167	0x3c895f9b	0.016769221
168	0xbc8c5057	-0.017128153
169	0x3e07923a	0.13239375
170	0x3e468293	0.19385748
171	0x3e830ad4	0.255942
172	0xbd745c5b	-0.05965839
173	0x3e86b208	0.26307702
174	0xbebdff29	-0.37108734
175	0xbe1838ba	-0.1486539
176	0x3e3cabf2	0.18424967
177	0xbe038551	-0.12843825
178	0x3e8f4dc5	0.2798902
179	0x3d2e7aac	0.042597458
180	0x3e2dc296	0.1696876
181	0xbebdd0c6	-0.37073344
182	0xbde34374	-0.1109685
183	0x3dad8213	0.08472075
184	0xbd5e54e5	-0.05428018
185	0x3ddc47b3	0.10755863
186	0x3e0ac660	0.13552237
187	0xbe051c2f	-0.12999032
188	0xbd592af3	-0.053019475
189	0xbe3f05d7	-0.18654571
190	0xbc995e8c	-0.018721841
191	0x3defe1cb	0.117129885
192	0xbe5b5166	-0.2141777
193	0xbd613349	-0.05498055
194	0xbd4c16cc	-0.04982643
195	0xbe339072	-0.1753557
196	0xbdc917cc	-0.09818992
197	0xbe9008a0	-0.2813158
198	0x3dace431	0.084419616
199	0x3dd40e80	0.10354328
200	0xbedc6728	-0.43047452
201	0xbf21c326	-0.631884
202	0x3dff248c	0.12458143
203	0x3e67a060	0.22619772
204	0x3e9f4d2f	0.31113574
205	0x3e247fb4	0.1606434
206	0xbf08422a	-0.5322596
207	0x3cd4879c	0.02594357
208	0xbde93468	-0.11386949
209	0x3dfe52cf	0.12418138
210	0xbd5dd700	-0.054160118
211	0xbe96dbf6	-0.29464692
212	0xbdf3a953	-0.118975304
213	0x3e12ae9e	0.14324424
214	0xbe2b78ae	-0.16745254
215	0xbf05c0ca	-0.522473
216	0x3d1a6477	0.037693467
217	0xbe841c11	-0.25802663
218	0xbe4930b5	-0.19647487
219	0x3ca2fcf9	0.019896017
220	0x3d91a14c	0.07110843
221	0x3dd250a4	0.10269287
222	0x3e5c76ca	0.2152969
223	0x3e09c86f	0.13455366
224	0xbecc81ae	-0.39942688
225	0x3e46c7e2	0.19412187
226	0xbf0c70db	-0.54859704
227	0xbe9be705	-0.3044969
228	0xbe694f3c	-0.22784132
229	0x3eab702e	0.33484024
230	0x3ecb34ff	0.3968887
231	0x3cf618e1	0.03004116
232	0x3e37c3b1	0.17945744
233	0xbebd2307	-0.36940786
234	0xbf3111ea	-0.6916796
235	0x3c9714c6	0.018442523
236	0x3dd1256e	0.10212217
237	0xbf07deac	-0.53074145
238	0x3d5d95aa	0.05409781
239	0x3d8ab0e5	0.06772021
240	0xbd58e151	-0.052949253
241	0x3de312ae	0.11087547
242	0xba00b345	-0.0004909526
243	0x3d59a9b3	0.053140353
244	0xbec929f4	-0.3928982
245	0x3ed050aa	0.40686542
246	0xbf05ef34	-0.5231812
247	0xbee50e97	-0.44737694
248	0xbe9c4d57	-0.30527756
249	0xbee04244	-0.43800557
250	0xbdfefca1	-0.12450529
251	0x3da9d6c9	0.0829292
252	0x3df7684d	0.12080441
253	0xbdc4d167	-0.09610253
254	0x3d99c396	0.07508008
255	0x3e067509	0.13130583

config_lin.2.bias f4 [32]
0	0x3daf0dda	0.08547564
1	0x3c830798	0.015994832
2	0xbe6ec698	-0.23317945
3	0xbdd50100	-0.10400581
4	0xbdba08b8	-0.09083694
5	0xbe93dadd	-0.28877917
6	0x3da086e4	0.07838228
7	0xbe121a44	-0.14267832
8	0xbdbe027e	-0.09277819
9	0xbe6b4439	-0.22975244
10	0x3dbadeb9	0.09124512
11	0xbddf90e4	-0.109163076
12	0xbe9160a5	-0.28394046
13	0xbd614e8e	-0.055006556
14	0x3a85d7e0	0.001021143
15	0xbdc1d75e	-0.09464906
16	0xbdb4a4c9	-0.08820493
17	0xbea85a53	-0.32881412
18	0xbea8b367	-0.32949373
19	0x3e48e78d	0.1961958
20	0xbe225268	-0.15851748
21	0xbdc35570	-0.0953778
22	0x3e837bdb	0.25680432
23	0x3e90193c	0.28144252
24	0xbead215f	-0.33814523
25	0x3e566bfb	0.20939629
26	0xbd5688c2	-0.052376516
27	0xbdc5d5f3	-0.09659948
28	0x3e488803	0.19583134
29	0xbebc527c	-0.3678168
30	0x3dbf4549	0.09339387
31	0x3cbb3c40	0.022855878

vertex_lin.0.weight f4 [32, 64, 1, 1]
0	0xbe745653	-0.23861055
1	0xbcfa8a29	-0.030583458
2	0xbbac77dd	-0.0052633123
3	0xbd970ec9	-0.07375867
4	0x3e4731c6	0.19452581
5	0x3dbf8d18	0.09353083
6	0x3e01a83a	0.1266183
7	0xbc9095bc	-0.017649524
8	0xbdb23231	-0.087009795
9	0xbe3267fc	-0.1742248
10	0xbe9fcbec	-0.31210268
11	0x3ec941fc	0.39308155
12	0x3d0dd187	0.03462365
13	0x3e92cb5c	0.28670776
14	0xbe04f4bd	-0.12983985
15	0xbdce4aba	-0.10072847
16	0xbe154a36	-0.1457909
17	0x3e5093ae	0.20368835
18	0x3e9595d7	0.2921588
19	0x3e6a18c7	0.22861014
20	0x3d8153af	0.063147895
21	0xbd82de70	-0.06390083
22	0x3def350f	0.11680042
23	0xbd110335	-0.03540345
24	0xbe8d4779	-0.27593592
25	0x3d0d997e	0.03457021
26	0xbdeb6f15	-0.114957966
27	0xbd869e78	-0.06573194
28	0x3dc9b160	0.09848285
29	0x3dd0dd0f	0.101984136
30	0x3e212533	0.15736847
31	0xbe8dd7b2	-0.27703625
32	0x3e1890ac	0.14898938
33	0x3e7e3cba	0.24827853
34	0xbd409744	-0.04701926
35	0x3e5fb489	0.21846212
36	0xbf04f8e7	-0.51942295
37	0x3c995603	0.018717771
38	0xbd90f818	-0.0707857
39	0x3e07d731	0.13265683
40	0x3dbba70b	0.0916272
41	0x3eb67a47	0.35640165
42	0x3df719a8	0.120654404
43	0xbeb3265f	-0.34990212
44	0x3d9585f5	0.07300941
45	0x3dda8754	0.10670343
46	0x3e376ea9	0.17913307
47	0xbeb88a8f	-0.36043212
48	0x3e5cf0ca	0.21576229
49	0xbea745d3	-0.3267046
50	0xbe1d452e	-0.15358421
51	0xbeafd267	-0.34340212
52	0xbeb496d0	-0.3527131
53	0x3b15bf4d	0.002284962
54	0xbdb550d3	-0.088533066
55	0x3ec45624	0.3834697
56	0xbec02dd8	-0.37534976
57	0xbe102ae8	-0.14078867
58	0xbe728525	-0.23683603
59	0xbce2fca2	-0.027708355
60	0xbe86356a	-0.26212627
61	0xbdfa132d	-0.12210689
62	0xbe68d741	-0.22738363
63	0x3e17df17	0.14831196
64	0xbe46c8f4	-0.19412595
65	0x3e58ad91	0.2115996
66	0xbd494678	-0.04913947
67	0x3ea260c9	0.31714466
68	0x3d6913bb	0.056903582
69	0xbe63a87e	-0.22232243
70	0x3e917fb2	0.28417736
71	0x3d97fb73	0.07421007
72	0x3e8da86b	0.27667555
73	0xbd24b75a	-0.04021392
74	0xbd5cbe73	-0.053892564
75	0x3da0ae6d	0.07845769
76	0xbe6c922d	-0.23102637
77	0x3ebc518d	0.36780968
78	0x3e5d1ed6	0.21593794
79	0xbef64e9f	-0.48106858
80	0x3d4043a4	0.046939507
81	0xbdd713c9	-0.105018206
82	0xbe7eeed9	-0.248958
83	0x3e329c58	0.17442453
84	0xbe4aa579	-0.19789685
85	0x3d2fd01a	0.04292307
86	0xbe0977a1	-0.13424541
87	0x3dfb109c	0.12259027
88	0xbdd31983	-0.103076
89	0xbd27f70c	-0.041007087
90	0x3eb427e7	0.35186693
91	0x3e7e6bbd	0.24845786
92	0xbe37d59c	-0.1795258
93	0x3df9c3a8	0.121955216
94	0x3e872e7e	0.26402658
95	0x3e70a495	0.23500283
96	0xbe064ed6	-0.13116011
97	0xbdee56a6	-0.11637621
98	0xbe050847	-0.12991439
99	0x3de6e74f	0.11274587
100	0xbdf176a6	-0.117902085
101	0xbc4637bf	-0.012098252
102	0xbdac515a	-0.08413954
103	0xbcaf77b7	-0.02141939
104	0xbe262a00	-0.16226959
105	0xbbdbde68	-0.0067098625
106	0xbdbb80f0	-0.09155452
107	0xbe9127c7	-0.2835066
108	0xbf18dcb5	-0.5971177
109	0x3debfe07	0.11523061
110	0x3e2f1c5d	0.17100663
111	0x3e9c28f9	0.3050001
112	0x3e3fb139	0.18719949
113	0x3e5eb807	0.21749888
114	0x3cd2dc5e	0.025739845
115	0xbe340c81	-0.17582895
116	0x3d44a687	0.048010375
117	0xbcc4a765	-0.024005601
118	0xbe75888c	-0.2397787
119	0x3ecc0825	0.39849964
120	0xbe691106	-0.227604
121	0x3e1aa377	0.1510142
122	0xbea7d4f6	-0.32779664
123	0x3d3db5eb	0.04631607
124	0xbe1782a5	-0.1479593
125	0xbe38c88c	-0.18045253
126	0xbd6ac5f3	-0.057317685
127	0x3cbf96d2	0.023387346
128	0xbea83142	-0.3285008
129	0x3dc3569d	0.095380045
130	0x39c2ae07	0.00037132224
131	0xbdf99d8a	-0.12188251
132	0xbdd39626	-0.10331373
133	0x3e27c1d2	0.1638253
134	0x3d9b52aa	0.07584126
135	0x3e230b9d	0.15922399
136	0xbe1b857a	-0.15187636
137	0x3e8b797a	0.27241117
138	0x3e64ee70	0.22356582
139	0x3e862e20	0.26207066
140	0x3e62a7ee	0.22134373
141	0xbe878fc0	-0.2647686
142	0x3cad41b9	0.021149503
143	0xbd76b85d	-0.060234416
144	0xbd45e40e	-0.048313193
145	0x3e1f4803	0.15554814
146	0x3de58e5d	0.11208794
147	0xbe50e0a6	-0.20398197
148	0x3dba0302	0.09082605
149	0x3e00569a	0.12533036
150	0x3dbb8db7	0.09157889
151	0xbb38baab	-0.0028187435
152	0x3dba5c0f	0.0909959
153	0x3e86b40a	0.26309234
154	0xbebdfcff	-0.37107083
155	0xbd421b9f	-0.047389623
156	0x3eb128ea	0.34601527
157	0xbd8f2345	-0.06989149
158	0xbec84c94	-0.39120924
159	0xbbf1897d	-0.007371126
160	0xbdd886c5	-0.1057258
161	0x3ebf9a0f	0.37422225
162	0xbdde0c08	-0.108421385
163	0x3d8313a1	0.06400228
164	0xbe3b4994	-0.18289787
165	0xbb5516df	-0.0032514853
166	0xbe373790	-0.17892289
167	0xbe85ee61	-0.2615843
168	0xbe1fcdaf	-0.15605806
169	0xbe8dc522	-0.27689463
170	0xbda6b1d2	-0.08139385
171	0x3e8ab6f5	0.2709271
172	0xbdbf0d51	-0.09328712
173	0xbe0459c5	-0.1292487
174	0xbe640284	-0.22266585
175	0x3e308da2	0.17241529
176	0x3dabad8f	0.08382713
177	0xbe897384	-0.26845944
178	0xbdbbe719	-0.09174938
179	0xbbdd4220	-0.0067522675
180	0x3dc58a45	0.096455134
181	0xbda75d76	-0.08172123
182	0x3dcdef1d	0.10055373
183	0xbe780546	-0.24220762
184	0x3ea004ab	0.3125356
185	0xbddad345	-0.10684828
186	0x3ddafb5d	0.10692475
187	0x3d1ed361	0.038775805
188	0x3e8b04c8	0.27152085
189	0x3e5ae9ea	0.21378294
190	0xbe092dd9	-0.13396396
191	0x3e4b3bdf	0.19847058
192	0xbe6d8e01	-0.23198701
193	0xbe573cc9	-0.21019281
194	0x3d9f8972	0.077898875
195	0x3e87afba	0.26501256
196	0xbe67de0c	-0.22643298
197	0xbd961bf8	-0.07329553
198	0xbe394617	-0.18093143
199	0xbea08799	-0.31353453
200	0x3eca0dd1	0.39463666
201	0xbc741d99	-0.014899635
202	0x3ae784e9	0.0017663512
203	0xbe25a9cc	-0.16178054
204	0x3b5177f2	0.0031962362
205	0x3ea23de4	0.31687844
206	0x3ea2aca9	0.31772354
207	0xbe953ee9	-0.2914956
208	0x3e969501	0.29410556
209	0x3da1c980	0.07899761
210	0x3dc591bd	0.09646938
211	0xbeedde97	-0.46458885
212	0xbd146285	-0.036226768
213	0x3ebf28ce	0.3733582
214	0xbdcd3158	-0.10019177
215	0x3c8fde50	0.017562062
216	0xbe02656e	-0.12734005
217	0xbdf2560b	-0.11832818
218	0x3ea11650	0.31462336
219	0x3e41bbe9	0.18919338
220	0xbe03301c	-0.12811321
221	0xbe2df629	-0.16988434
222	0x3f00ace5	0.50263816
223	0x3dc12923	0.09431674
224	0xbeb02249	-0.34401157
225	0x3f126793	0.5718929
226	0xbe70db00	-0.23521042
227	0xbdff5861	-0.12468029
228	0x3e05e4f4	0.1307562
229	0xbd963c71	-0.07335747
230	0xbd665eca	-0.05624274
231	0xbdacf6da	-0.08445521
232	0xbda13946	-0.07872252
233	0xbeadcdf4	-0.33946192
234	0xbc5fd596	-0.013661763
235	0xbd05e75c	-0.032691345
236	0x3d5e269a	0.054236032
237	0xbde68a50	-0.1125685
238	0x3d7a47ad	0.06110351
239	0x3e78925f	0.24274586
240	0x3e8b1d2f	0.27170703
241	0x3ced98bf	0.0290035
242	0xbe7024ce	-0.2345154
243	0xbe30dfab	-0.17272823
244	0x3daa90b4	0.08328381
245	0x3ec05cfd	0.37570944
246	0xbdf33f24	-0.118772775
247	0xbf8453d3	-1.0338081
248	0x3e2d6faf	0.16937135
249	0x3e648161	0.22314979
250	0x3e455701	0.1927147
251	0xbd2f309e	-0.042770974
252	0xbe0b8517	-0.13624988
253	0xbd09c205	-0.033632297
254	0xbec4493c	-0.38337123
255	0x3e136dea	0.14397398

vertex_lin.0.bias f4 [32]
0	0xbdb83cb4	-0.08995953
1	0xbce01d88	-0.027357832
2	0x3d30b61b	0.04314242
3	0xbe0469a3	-0.12930922
4	0xbde2113f	-0.11038446
5	0xbd3a0937	-0.045418944
6	0x3aadda73	0.0013263955
7	0xbcfa1d14	-0.030531444
8	0x3e15d9ec	0.14633912
9	0xbe288c20	-0.16459703
10	0xbdd2f2ae	-0.10300194
11	0x3dce97f7	0.10087579
12	0x3e38a8b5	0.18033107
13	0xbdbc27a9	-0.09187252
14	0x3db5607f	0.08856296
15	0x3cdaa869	0.026691632
16	0x3e3d5dea	0.18492857
17	0x3b97300f	0.0046138833
18	0xbe091df1	-0.13390328
19	0xbdcffd6e	-0.1015576
20	0xbe4183ae	-0.18897888
21	0xbe38898f	-0.18021224
22	0xbe213d87	-0.15746127
23	0x3d1ca6ca	0.038245
24	0x3db80203	0.08984759
25	0x3e262fa6	0.16229114
26	0xbe8f218f	-0.2795529
27	0xbe81b549	-0.25333622
28	0x3d39bfb0	0.045348823
29	0x3ce8994b	0.028393408
30	0x3e4a6847	0.19766341
31	0xbe4190d1	-0.189029

vertex_lin.2.weight f4 [32, 32, 1, 1]
0	0xbc164cab	-0.0091735525
1	0x3d03cdee	0.03217881
2	0x3d968c3a	0.07350965
3	0x3e113077	0.14178644
4	0x3e152c32	0.1456764
5	0x3e8f78c8	0.28021836
6	0x3d8d39c0	0.068957806
7	0xbe5896b0	-0.21151233
8	0x3ea9ed8e	0.33189052
9	0x3e465f30	0.19372249
10	0xbd9620be	-0.07330464
11	0x3e7877dd	0.24264474
12	0x3cfc3946	0.030789029
13	0x3e60bba0	0.21946573
14	0xbcaee0c1	-0.021347405
15	0xbe16368e	-0.14669248
16	0x3eab9253	0.33510074
17	0x3e8fa5a9	0.28056076
18	0x3d82f1f7	0.063938074
19	0x3e1151fb	0.1419143
20	0x3e2a6b13	0.16642408
21	0x3c6d69a9	0.014490523
22	0x3c20701a	0.009792352
23	0x3e6618a7	0.22470342
24	0xbe807e8a	-0.25096542
25	0x3d15c110	0.036561072
26	0xbdd3daca	-0.10344465
27	0xbd88c316	-0.06677835
28	0xbe0627d0	-0.13101125
29	0xbe355272	-0.17707232
30	0x3e214dd9	0.15752353
31	0xbe9ac9a7	-0.30231974
32	0xbda0067e	-0.07813738
33	0xbea2e834	-0.31817782
34	0xbea59cdf	-0.32346246
35	0x3a5a9c1e	0.00083393033
36	0xbe7b66d3	-0.24550943
37	0xbe13382b	-0.14376895
38	0xbe397dd6	-0.18114409
39	0xbe659e6e	-0.22423717
40	0xbea03221	-0.31288245
41	0x3d92c2c1	0.071660526
42	0xbe978fde	-0.2960195
43	0xbeb50663	-0.35356435
44	0xbf09d630	-0.5384245
45	0xbe0bc097	-0.13647686
46	0x3dee79d4	0.116443306
47	0x3d46dcd9	0.04855046
48	0x3e847b52	0.25875336
49	0xbd2b1e98	-0.041777223
50	0xbd6a8de1	-0.057264213
51	0xbeb31f39	-0.34984758
52	0xbe3ffb66	-0.18748245
53	0xbce2bd0f	-0.02767804
54	0x3ec926a9	0.39287308
55	0x3e65f116	0.22455248
56	0xbe13e10a	-0.14441314
57	0xbecc13d3	-0.39858875
58	0xbd864966	-0.065569684
59	0xbda2ff93	-0.07958903
60	0xbce22430	-0.027605146
61	0x3d446e34	0.04795666
62	0x3dc800c3	0.0976577
63	0xbe4c5014	-0.19952422
64	0x3cc11cae	0.023573246
65	0x3e468ee2	0.19390443
66	0x3e0437c7	0.12911902
67	0x3e8ef40b	0.27920565
68	0xbe609f47	-0.2193576
69	0x3ea759a1	0.3268557
70	0xbea4eee3	-0.32213506
71	0xbeebea7e	-0.4607734
72	0x3e4f3cf0	0.2023809
73	0xbedf7ab7	-0.43648311
74	0xbdf3f224	-0.11911419
75	0xbe3ec267	-0.18628846
76	0xbe95dc47	-0.2926962
77	0xbdece373	-0.1156682
78	0xbcbcdea0	-0.023055375
79	0xbe0098c1	-0.12558271
80	0x3e1dfd97	0.15428768
81	0x3e7ba065	0.24572904
82	0xbec9fd3b	-0.39451012
83	0xbeb1f259	-0.3475521
84	0xbf1100d9	-0.5664192
85	0xbd113a8c	-0.035456225
86	0x3de13ca9	0.10997898
87	0xbf096d1f	-0.5368213
88	0x3e572ee3	0.2101398
89	0x3d435ada	0.047694065
90	0xbf074ead	-0.52854425
91	0xbe2090c8	-0.1568023
92	0x3d95fad3	0.073232315
93	0x3d348a16	0.044077
94	0xbdfe0ab4	-0.12404385
95	0xbdaa6a26	-0.083210275
96	0x3e303688	0.17208302
97	0xbdebdffc	-0.11517331
98	0xbcc90053	-0.024536287
99	0xbe5eaf12	-0.21746472
100	0x3d71343e	0.058887713
101	0x3d89ec4a	0.06734522
102	0x3d9a8a3b	0.075458966
103	0x3e8a0df5	0.26963773
104	0xbe4c4f1e	-0.19952056
105	0xbf053f3e	-0.52049625
106	0xbc83e924	-0.016102381
107	0xbe06533a	-0.13117686
108	0xbc059e8e	-0.008155478
109	0xbeab6f15	-0.33483186
110	0x3d012e09	0.031538043
111	0x3d44f703	0.04808713
112	0xbcadd924	-0.021221705
113	0x3e0ef3b8	0.13960159
114	0x3c199094	0.009372849
115	0x3da9f7c2	0.08299209
116	0xbef1afd3	-0.47204456
117	0x3ea9cd49	0.33164433
118	0xbeb1b84c	-0.3471092
119	0xbebe5f5a	-0.37182122
120	0x3ddfcc66	0.10927658
121	0x3edbb177	0.42908832
122	0xbdce2de7	-0.10067349
123	0xbc5012eb	-0.012699823
124	0xbd10fa8a	-0.035395183
125	0x3f04a5b1	0.51815325
126	0x3dbb58cb	0.09147795
127	0xbe240c87	-0.16020404
128	0x3db97761	0.09055973
129	0xbd1ba67a	-0.03800056
130	0xbd020dd7	-0.03175148
131	0x3d144363	0.036197077
132	0x3e6a80d8	0.22900712
133	0xbeecb199	-0.46229246
134	0xbe355e87	-0.1771184
135	0x3b9da679	0.004811105
136	0xbe73abbb	-0.23795979
137	0x3ca5cc2a	0.020238955
138	0x3e4354bd	0.19075294
139	0xbcd665e9	-0.026171641
140	0x3e33cf7e	0.1755962
141	0xbe86c008	-0.26318383
142	0x3e298737	0.16555487
143	0xbe2305a5	-0.15920122
144	0x3e3f23cf	0.18666004
145	0xbeb9e11e	-0.36304563
146	0x3e838ac6	0.25691813
147	0x3e152f4f	0.14568828
148	0x3e01f919	0.1269268
149	0x3df9b2d3	0.12192311
150	0x3dc5ddef	0.09661471
151	0xbed1babb	-0.40962777
152	0xbd517dec	-0.05114548
153	0xbe1f92a5	-0.15583284
154	0x3ec9d04e	0.39416736
155	0xbe0b019b	-0.13574831
156	0xbf0b343f	-0.54376596
157	0xbbd368e7	-0.0064517143
158	0xbd853f70	-0.0650624
159	0x3dee7554	0.11643472
160	0xbe8ba3f5	-0.27273527
161	0xbdd6c15b	-0.104860984
162	0xb7b5eb4e	-2.1686454e-05
163	0x3d99617f	0.07489299
164	0x391960b5	0.00014627243
165	0x3e8286fd	0.25493613
166	0xbccbc0ca	-0.024872202
167	0xbf16f31f	-0.58964723
168	0x3de6524b	0.11246165
169	0xbbd00773	-0.0063485443
170	0x3e462ea4	0.1935373
171	0xbf207505	-0.6267856
172	0x3dad2b56	0.08455531
173	0xbecfa6a8	-0.40556836
174	0xbe780ec9	-0.2422439
175	0x3e2a63b0	0.1663959
176	0x3d6a90a3	0.057266843
177	0xbe20567f	-0.15657996
178	0xbef01b1c	-0.46895683
179	0xbd987cff	-0.07445716
180	0xbed2fcdf	-0.4120855
181	0xbed2c1f4	-0.411636
182	0x3beb37f9	0.0071783033
183	0x3e51379c	0.2043137
184	0x3e8e3952	0.27778107
185	0xbefaf154	-0.49012244
186	0xbd413207	-0.04716685
187	0xbc985253	-0.018593943
188	0xbd8b5cd6	-0.068048164
189	0xbcebbc0f	-0.028776197
190	0x3ee07a05	0.43843094
191	0xbe62908b	-0.22125451
192	0xbefc5a96	-0.49287862
193	0xbe94c3c5	-0.2905561
194	0xbe3075fb	-0.17232506
195	0xbe5a8e67	-0.21343385
196	0xbec0f9a5	-0.37690464
197	0xbe1e1bbc	-0.15440267
198	0xbec8a4d2	-0.39188248
199	0x3d5fe8ab	0.05466525
200	0xbe30d457	-0.17268501
201	0xbe4374de	-0.1908755
202	0x3dd8aa2e	0.10579334
203	0xbe5c9267	-0.21540223
204	0x3ce791b9	0.028267728
205	0xbc972b57	-0.018453283
206	0xbea52882	-0.32257468
207	0x3e81f4c2	0.25382048
208	0x3e9b028b	0.30275378
209	0x3db4caab	0.08827718
210	0xbebec9ac	-0.37263238
211	0xbe4e6d92	-0.20158985
212	0x3e01bae4	0.1266895
213	0x3de9c442	0.11414386
214	0x3e74f1ed	0.23920412
215	0x3d81252c	0.06305918
216	0xbde669a9	-0.11250622
217	0xbe7fb659	-0.24971904
218	0x3e9271e5	0.2860252
219	0x3e23c3fd	0.15992732
220	0x3e10f6c1	0.14156629
221	0x3d14417b	0.03619526
222	0xbc9e6269	-0.019334035
223	0xbe613fb9	-0.21996965
224	0x3de1d4e5	0.110269345
225	0x3e78b4e0	0.24287748
226	0xbf137d59	-0.5761314
227	0x3e65cf7f	0.22442435
228	0xbdc53f41	-0.09631205
229	0x3da0be42	0.07848789
230	0x3dd4b843	0.10386708
231	0xbe2321f6	-0.15930924
232	0x3e6427cc	0.22280806
233	0x3e2abca8	0.16673529
234	0xbd40461d	-0.046941865
235	0x3e36b977	0.17844187
236	0xbe13b5b5	-0.14424784
237	0x3d553387	0.052051093
238	0xbec51026	-0.38488883
239	0x3dda492a	0.10658486
240	0xbeaf1602	-0.34196478
241	0x3e67eed0	0.22649693
242	0xbe1ed0a8	-0.15509284
243	0x3e844217	0.25831673
244	0xbdfb049c	-0.122567385
245	0xbe271aec	-0.16318864
246	0xbe8a526f	-0.27016017
247	0x3ee166bd	0.44023696
248	0xbeb68441	-0.35647777
249	0xbeeb122d	-0.45912305
250	0xbe980e2a	-0.29698306
251	0x3cea61e1	0.028611125
252	0x3c140e2c	0.009036582
253	0xbeb6fdfd	-0.35740653
254	0xbebcd519	-0.3688133
255	0xbeb5a548	-0.35477662

vertex_lin.2.bias f4 [32]
0	0xbdd85d17	-0.105646305
1	0xbdfeb811	-0.12437452
2	0x3c213f48	0.009841748
3	0xbdc792c0	-0.09744787
4	0x3c20eca6	0.009822046
5	0x3e1dec7a	0.1542224
6	0x3e3cadaf	0.1842563
7	0x3e29da04	0.16587073
8	0xbe4866ee	-0.19570515
9	0xbdc00340	-0.0937562
10	0x3e13b789	0.14425482
11	0xbe784bcf	-0.24247669
12	0xbe0a3dc4	-0.13500124
13	0xbe0562fb	-0.1302604
14	0x3d03eac7	0.032206323
15	0x3e541a0d	0.20713063
16	0x3e7484b4	0.23878747
17	0xbe118877	-0.14212213
18	0xbe0b3538	-0.1359452
19	0xbda82b2d	-0.0821136
20	0xbdce5816	-0.10075395
21	0x3e4b4cee	0.19853565
22	0x3ba4b57b	0.005026517
23	0xbea4c2bb	-0.32179818
24	0xbdd4db06	-0.10393338
25	0x3e6d1bfa	0.23155203
26	0x3df905e0	0.12159324
27	0x3e1a0a72	0.15043047
28	0x3dda45a5	0.10657815
29	0xbd8b0d97	-0.067897014
30	0x3df7faa9	0.121083565
31	0xbcb8e32b	-0.02256926

edge_lin.0.weight f4 [32, 1, 68, 1]
0	0xbddb1d60	-0.10698962
1	0xbe05b920	-0.13058901
2	0x3d6720e5	0.056427855
3	0xbf2b8a62	-0.6700803
4	0x3dd0bd45	0.1019235
5	0x3f24b492	0.6433803
6	0xbcfebbd3	-0.031095421
7	0x3e12cc3f	0.14335726
8	0xbe7e6bf5	-0.2484587
9	0xbeac4f91	-0.33654454
10	0xbeb276c4	-0.34856236
11	0x3db8a4e8	0.09015828
12	0x3e0c5ff3	0.13708477
13	0xbbfcc816	-0.007714282
14	0xbe9c797b	-0.30561432
15	0x3d62ef3b	0.05540393
16	0x3d899a4b	0.06718882
17	0xbe5a157d	-0.2129726
18	0x3da9c49d	0.08289454
19	0xbe71ff5b	-0.23632567
20	0xbe5359a7	-0.20639668
21	0x3e77bb90	0.24192643
22	0xbeb781bc	-0.35841167
23	0x3d3c8c39	0.046032164
24	0x3d994b23	0.07485034
25	0x3eb6238a	0.3557399
26	0x3ebc3230	0.3675704
27	0xbe33b016	-0.1754764
28	0x3e4282b4	0.18995172
29	0xbd489bc3	-0.04897667
30	0xbd274929	-0.040841255
31	0x3e84f048	0.2596457
32	0xbf801f86	-1.000962
33	0x3dd14984	0.102191
34	0xbd3cdb42	-0.046107538
35	0x3ddf2b50	0.10896933
36	0x3e3e6b45	0.18595608
37	0xbe5035a0	-0.20332956
38	0x3d99062f	0.074718826
39	0x3f038241	0.51370627
40	0xba7b5da3	-0.0009588843
41	0x3d774e04	0.060377136
42	0xbf036e98	-0.5134063
43	0xbe7dfdc5	-0.24803837
44	0xbecce7b5	-0.40020528
45	0xbd2bf774	-0.041984037
46	0x3d714309	0.05890182
47	0x3ddae9e8	0.10689145
48	0xbec00de8	-0.3751061
49	0x3e533ec2	0.20629409
50	0x3e42ae46	0.19011793
51	0xbc8c091b	-0.017094186
52	0x3c07b112	0.008281963
53	0xbf033c4d	-0.51263887
54	0xbea9b1c3	-0.33143434
55	0x3dbefe92	0.09325899
56	0xbec9d77e	-0.3942222
57	0x3d32358c	0.043508098
58	0x3d742da3	0.059613835
59	0x3e9a3d96	0.3012511
60	0x3e8536b5	0.260183
61	0xbe294a3a	-0.16532221
62	0x3e9cc3d5	0.30618158
63	0xbe93621b	-0.28785786
64	0x3e5b4d01	0.21416093
65	0x3ea713f3	0.32632408
66	0xbe8a39fd	-0.26997367
67	0x3b35b344	0.002772526
68	0xbe4feae5	-0.20304449
69	0x3e429129	0.19000687
70	0x3d50670b	0.05087952
71	0x3e5fa5fd	0.21840663
72	0x3bf8a26b	0.007587721
73	0xbc0b7bef	-0.008513435
74	0xbd0d9466	-0.034565352
75	0xbcf806b7	-0.03027664
76	0x3f16d212	0.5891429
77	0x3dd2a87f	0.10286044
78	0xbeb9a5ac	-0.3625921
79	0x3d3a94e7	0.04555216
80	0xbe5686bb	-0.20949833
81	0x3e66392e	0.2248275
82	0x3e255ec5	0.16149433
83	0xbdb0742e	-0.086159095
84	0xbd81b9c3	-0.06334259
85	0x3e11b304	0.14228445
86	0x3e0f089d	0.1396813
87	0xbe5c32e0	-0.21503782
88	0x3e3c1fc0	0.18371487
89	0x3bc93925	0.0061408454
90	0x3c86db6c	0.01646205
91	0xbcfc822d	-0.030823791
92	0xbdfe6fd4	-0.12423673
93	0xbd907234	-0.070530325
94	0xbe560428	-0.20900023
95	0xbe9a9636	-0.30192727
96	0xbe2e9533	-0.17049102
97	0x3da7eefa	0.08199878
98	0xbe80f326	-0.25185508
99	0xbf2121e1	-0.6294232
100	0x3f0ab491	0.5418177
101	0xbdc7406a	-0.09729083
102	0xbd9740a5	-0.07385377
103	0x3d009c6d	0.03139918
104	0xbe2e3e10	-0.17015862
105	0x3db67ff2	0.089111224
106	0xbcc881e2	-0.024475995
107	0x3dc3d522	0.09562136
108	0xbddedd88	-0.108820975
109	0xbe131a39	-0.14365472
110	0x3dbafc4e	0.091301546
111	0x3da5e568	0.081003964
112	0xbd8527a4	-0.065017015
113	0xbe28f567	-0.16499864
114	0x3cea9da0	0.028639615
115	0xbd25daa1	-0.040491704
116	0x3d2f6f8c	0.04283099
117	0xbe9559f2	-0.29170185
118	0xbda47bad	-0.08031402
119	0x3bf18524	0.007370608
120	0x3d45adc3	0.048261415
121	0x39e2a7b2	0.00043231022
122	0xbe7d9e2e	-0.24767372
123	0x3e299163	0.16559367
124	0xbe453706	-0.19259271
125	0xbe534fb7	-0.20635878
126	0x3cd51b4c	0.026013993
127	0xbd0220b2	-0.031769462
128	0xbd8fdbf6	-0.07024376
129	0xbefc4dee	-0.49278206
130	0x3d11615d	0.035493243
131	0xbd57178e	-0.052512698
132	0xbe41e590	-0.18935227
133	0xbed34675	-0.41264692
134	0x3e9db08d	0.3079876
135	0xbc7f5aa9	-0.01558558
136	0x3de8e003	0.11370852
137	0xbe1a28cd	-0.15054627
138	0x3e9a3e8e	0.3012585
139	0x3e2d9c36	0.16954121
140	0xbef8c896	-0.48590535
141	0xbe23d37e	-0.15998647
142	0x3e3e90c5	0.18609913
143	0x3dcdb814	0.10044876
144	0x3ebc2790	0.36748934
145	0xbd304178	-0.043031186
146	0xbf423fc9	-0.7587858
147	0xbd9bf7d1	-0.076156266
148	0xbd5acdf5	-0.053419072
149	0x3bad5226	0.005289334
150	0x3e736d95	0.23772271
151	0x3e3086b8	0.17238891
152	0xbdd698a3	-0.10478332
153	0x3e9228ea	0.2854684
154	0xbe02e929	-0.12784256
155	0xbeae5e36	-0.34056252
156	0xbd8d54f4	-0.06900969
157	0xbe887d7a	-0.2665823
158	0x3e1ebcf0	0.15501761
159	0x3eb82e0c	0.3597263
160	0x3dc53f5b	0.09631225
161	0xbf07ffd5	-0.53124744
162	0xbe0600ef	-0.13086294
163	0xbead6655	-0.33867136
164	0x3da08091	0.07837022
165	0xbe9adf92	-0.30248696
166	0xbccda908	-0.025105014
167	0xbd2446ef	-0.04010671
168	0x3e1348c7	0.14383231
169	0xbd7cbc0a	-0.061702766
170	0x3ea01506	0.3126604
171	0xbed5a4f0	-0.417274
172	0xbea88cbf	-0.3291988
173	0xbcf083d4	-0.029359736
174	0xbee4c37e	-0.446804
175	0xbe9a06b8	-0.3008325
176	0x3e626221	0.22107746
177	0x3ea92b4c	0.33040845
178	0x3e232c0d	0.15934773
179	0x3cd58dbd	0.026068563
180	0xbf1eedfc	-0.62081885
181	0xbdc61f6e	-0.096739635
182	0xbba33e37	-0.004981782
183	0xbd03c387	-0.03216889
184	0x3eb54a30	0.35408163
185	0x3d7f7385	0.062366027
186	0xbe926d3a	-0.28598958
187	0xbd9cb999	-0.076525874
188	0xbe8da2f4	-0.27663386
189	0xbea08919	-0.31354597
190	0x3da61fe3	0.08111551
191	0xbe8e1d41	-0.27756694
192	0x3df3d78c	0.11906347
193	0x3e8d00a0	0.2753954
194	0x3dd5eb93	0.10445323
195	0xbe9a4d45	-0.30137077
196	0x3c91ef8f	0.017814426
197	0xbf212643	-0.6294901
198	0xbca5ceef	-0.020240275
199	0xbf14ced7	-0.5812811
200	0xbd4e8143	-0.050416242
201	0x3e963566	0.29337615
202	0xbea47e32	-0.3212753
203	0x3e9b3785	0.30315796
204	0xbeb59351	-0.35463956
205	0x3daaf001	0.08346558
206	0xbe7c0563	-0.2461143
207	0xbe167c2d	-0.14695807
208	0xbe14f945	-0.14548214
209	0x3ecf4997	0.40485832
210	0x3e39d32f	0.18146966
211	0x3c297a45	0.010344093
212	0x3e3b5c26	0.1829687
213	0xbefb6743	-0.4910222
214	0x3e400591	0.18752123
215	0xbe981819	-0.29705885
216	0xbede1444	-0.43374836
217	0xbeb4c148	-0.35303712
218	0xbe09902d	-0.13433905
219	0x3eb08196	0.34473866
220	0x3e542746	0.20718107
221	0xbe47b6e1	-0.19503357
222	0xbe80b323	-0.2513667
223	0xbdeb14d2	-0.114785805
224	0xbf2e3858	-0.68054724
225	0x3e3dd7cd	0.18539353
226	0xbd52e069	-0.051483545
227	0xbef65f47	-0.48119566
228	0x3e338873	0.1753252
229	0x3ec0e552	0.37674958
230	0xbe28664d	-0.16445275
231	0x3c9b7522	0.018976752
232	0xbe1b2dba	-0.15154162
233	0x3d0beb96	0.03416022
234	0x3eaf5442	0.3424397
235	0x3e766332	0.24061278
236	0x3ed6430b	0.41848025
237	0x3e0d15ce	0.13777849
238	0xbe99632f	-0.29958484
239	0x3e0b8e16	0.1362842
240	0x3eb6b8ec	0.3568796
241	0x3e435f92	0.19079426
242	0xbc106e76	-0.008815398
243	0x3ed62c5c	0.4183072
244	0x3e8df0b9	0.2772272
245	0xbe135e46	-0.14391431
246	0x3e960010	0.29296923
247	0xbe5808e2	-0.21097139
248	0x3b843ff9	0.0040359464
249	0xbe82aed0	-0.25523996
250	0xbea8a8b2	-0.32941204
251	0x3d07e123	0.03317369
252	0x3c5946b3	0.013261485
253	0x3e482c21	0.19548084
254	0x3df71479	0.12064452
255	0x3cfaca75	0.030614117

edge_lin.0.bias f4 [32]
0	0xbce15db6	-0.027510505
1	0x3e214b60	0.1575141
2	0x3e3c4403	0.1838532
3	0x3c071e53	0.008246976
4	0xbdb4f97f	-0.0883665
5	0x3e0bcdd9	0.13652743
6	0x3db99c05	0.090629615
7	0x3e481f35	0.19543155
8	0xbe00afc3	-0.12567048
9	0x3e15c147	0.1462451
10	0xbde6f78b	-0.11277684
11	0xbcf8c2cb	-0.030366322
12	0xbd0049af	-0.03132027
13	0x3dffbab8	0.12486786
14	0xbd5ddcb3	-0.054165553
15	0x3dcdc3d1	0.10047115
16	0xbe06d98c	-0.13168925
17	0xbd0e5653	-0.034750294
18	0xbcac91ff	-0.02106571
19	0xbe53f75a	-0.20699826
20	0x3d68fdc7	0.056882646
21	0xbd85c5c3	-0.06531861
22	0x3d9e8cae	0.07741676
23	0xbceeaeec	-0.029136144
24	0x3d7a8401	0.061161045
25	0x3cae62ac	0.021287285
26	0xbd63b718	-0.055594534
27	0x3e258a75	0.16166098
28	0xbc2f4ee1	-0.010699959
29	0xbd8d9648	-0.069134295
30	0xbc9db209	-0.019249933
31	0x3dc388d6	0.09547584

edge_lin.2.weight f4 [32, 32, 1, 1]
0	0x3e54db18	0.20786703
1	0xbe51dd9c	-0.20494694
2	0xbef40d66	-0.47666472
3	0x3eb4da32	0.3532272
4	0x3cffc23b	0.031220546
5	0x3eb2190f	0.34784743
6	0x3d0caaad	0.034342457
7	0xbef38e8b	-0.4756969
8	0xbe43b166	-0.19110641
9	0xbddd3903	-0.1080189
10	0x3f4ef92e	0.8084897
11	0x3e56e3ba	0.20985308
12	0x3f0733da	0.52813494
13	0xbd149144	-0.03627135
14	0x3e0c860f	0.13723014
15	0xbe9a0b72	-0.30086857
16	0x3f1b736c	0.60722995
17	0xbe512067	-0.20422517
18	0x3ebc6e04	0.36802685
19	0xbe9f09f7	-0.3106229
20	0x3ee963ac	0.45583856
21	0x3e1ba21e	0.15198562
22	0x3e858e5b	0.2608517
23	0x3d1c1446	0.03810527
24	0x3ec44cb1	0.3833976
25	0x3ea06766	0.31328887
26	0x3eca1ae8	0.39473653
27	0x3dda42b7	0.10657256
28	0xbd693d47	-0.056943204
29	0x3f2d3ca5	0.6767066
30	0x3f3d6f62	0.7399808
31	0x3eca4c1a	0.39511186
32	0x3da31ba4	0.079642564
33	0xbdb4dcbd	-0.08831165
34	0xbee3b492	-0.44473702
35	0x3e7a85a5	0.24465044
36	0x3de105a7	0.10987406
37	0x3eb80924	0.35944474
38	0x3e987ea8	0.2978413
39	0xbed3b671	-0.4135013
40	0xbe1956af	-0.14974473
41	0xbeeade55	-0.4587275
42	0x3f55d552	0.83528626
43	0x3cde8502	0.027163032
44	0x3f1a2514	0.60212827
45	0x3da3330f	0.07968723
46	0x3e5562cb	0.20838468
47	0xbed4af85	-0.4154016
48	0x3f2717ca	0.65270674
49	0xbd820782	-0.06349088
50	0x3ec8e2cd	0.39235535
51	0xbe9bac48	-0.30404878
52	0x3e901766	0.28142852
53	0x3e8abe8b	0.27098498
54	0xbcf93667	-0.030421449
55	0x3e998016	0.29980534
56	0x3d308af6	0.043101273
57	0x3e9928a9	0.29913834
58	0x3f12dc9e	0.57367885
59	0x3e4f659f	0.20253609
60	0xbe1dbc4b	-0.1540386
61	0x3f389714	0.72105527
62	0x3f369d55	0.7133382
63	0x3f1665b5	0.5874894
64	0x3ed0116e	0.40638298
65	0x3e107474	0.14106923
66	0xbdbbfd79	-0.091792054
67	0x3e7673dc	0.24067634
68	0x3d9c68c2	0.076371685
69	0x3eba34bc	0.36368358
70	0x3d047feb	0.032348555
71	0x3f320eaf	0.69553655
72	0x3e531866	0.20614776
73	0x3d25f724	0.040518895
74	0xbec8fa94	-0.39253676
75	0x3d9328ee	0.07185541
76	0xbe5c47cb	-0.21511762
77	0x3d3d5581	0.04622412
78	0xbe644ef6	-0.22295746
79	0xbcec3b47	-0.02883686
80	0x3d265311	0.040606562
81	0xbd1c8306	-0.03821089
82	0xbcb2db5f	-0.02183312
83	0x3c23c054	0.009994585
84	0x3dddd39d	0.10831378
85	0x3ec9d2bd	0.39418593
86	0xbd8317fc	-0.06401059
87	0xbd79ae64	-0.060957327
88	0xbdedce91	-0.11611665
89	0xbcb2c827	-0.021823956
90	0xbe715b22	-0.2356992
91	0x3de95dcb	0.11394843
92	0xbe484c45	-0.19560345
93	0xbf02e63b	-0.51132554
94	0xbe8751ec	-0.2642969
95	0xbf3169c3	-0.69302005
96	0xbbd1a631	-0.0063979854
97	0xbe90c33f	-0.2827396
98	0xbe5216fb	-0.20516579
99	0x3ef2e1ab	0.47437796
100	0xb967216b	-0.00022042326
101	0x3e2f16a6	0.17098483
102	0x3dececdd	0.115686156
103	0x3e0e3b53	0.13889818
104	0xbe4ed561	-0.20198585
105	0x3d1e4c16	0.03864678
106	0x3f6124b1	0.8794661
107	0x3e11f43c	0.14253324
108	0x3f373693	0.7156765
109	0x3e9d3a47	0.30708525
110	0xbdc207e8	-0.09474164
111	0xbe618750	-0.22024274
112	0x3f1deb44	0.6168711
113	0xbe545e5f	-0.20739125
114	0x3f0a5e3f	0.5405006
115	0xbe236c79	-0.15959348
116	0x3e511a34	0.20420152
117	0x3e940dc3	0.2891675
118	0x3d9e75cc	0.07737312
119	0x3dd0a7d5	0.101882614
120	0x3ecf2e27	0.404649
121	0x3eed7b9e	0.46383375
122	0x3f1df414	0.6170056
123	0x3cac3c99	0.021024989
124	0xbe319f43	-0.1734591
125	0x3f1364fd	0.5757597
126	0x3f222d98	0.6335082
127	0xbe88c96f	-0.26716182
128	0x3e2ca5b0	0.1686008
129	0x3d576e39	0.05259535
130	0xbea4e51c	-0.32206047
131	0x3ee8d710	0.4547658
132	0x3e8af9a5	0.2714359
133	0x3e7fd3b2	0.24983099
134	0x3dc26040	0.094910145
135	0xbe0f3d2a	-0.13988176
136	0xbe5b8b5a	-0.21439877
137	0xbd84559b	-0.064616404
138	0x3f80cf18	1.00632
139	0x3e4f2c58	0.2023176
140	0x3f2d93e7	0.67803806
141	0x3efeefea	0.49792415
142	0xbe22642a	-0.15858522
143	0xbe85fd99	-0.26170042
144	0x3f33f2d3	0.70292395
145	0x3d52678f	0.051368292
146	0x3e8eb068	0.27868962
147	0xbe688e03	-0.22710423
148	0x3e165b83	0.14683346
149	0x3e254abc	0.1614179
150	0x3e8d45f2	0.27592427
151	0x3e8579c2	0.26069456
152	0x3ec07e4f	0.37596366
153	0x3ed1db88	0.40987802
154	0x3f16da85	0.58927184
155	0x3c99d714	0.018779315
156	0xbe8c4eeb	-0.2740396
157	0x3f36953e	0.71321476
158	0x3f194d6e	0.59883773
159	0xbe5d646f	-0.21620344
160	0x3e78a7df	0.24282788
161	0x3e74c50d	0.23903294
162	0xbe690df3	-0.22759227
163	0x3e9b5dc3	0.30344972
164	0xbd0005ee	-0.031255655
165	0x3eb98dc4	0.3624097
166	0xbd8f8035	-0.070068754
167	0x3eb57bc3	0.35445985
168	0x3d9c88a5	0.076432504
169	0x3dce3e6e	0.10070501
170	0xbe7d24bc	-0.24721044
171	0x3e26cbbc	0.16288656
172	0xbe055368	-0.13020098
173	0x3d9ae7ca	0.075637415
174	0x3c433f69	0.011916974
175	0x3dd2b5f1	0.10288609
176	0x3d713153	0.05888493
177	0xbd8c2bd0	-0.06844294
178	0xbf4f4267	-0.80960697
179	0xbe91c5f5	-0.28471342
180	0x3e84ab04	0.25911725
181	0x3e9577a5	0.29192844
182	0xbce64a45	-0.028111586
183	0x3ea7f015	0.32800356
184	0xbdbda03b	-0.09259077
185	0xbe3cb8d3	-0.1842988
186	0xbda41e7f	-0.08013629
187	0x3eb7e755	0.3591868
188	0x3d87cf86	0.06631379
189	0xbe076406	-0.1322175
190	0xbe674542	-0.22585014
191	0xbe5bc73e	-0.21462724
192	0x3e9f53b0	0.31118536
193	0xbdcc5fdd	-0.09979222
194	0xbf17b5df	-0.5926189
195	0x3eb5e654	0.3552729
196	0x3d432793	0.047645163
197	0x3e7d17ad	0.24716063
198	0xbd571d5c	-0.052518234
199	0xbeac1078	-0.33606315
200	0xbdf14543	-0.11780789
201	0x3d83b458	0.06430882
202	0x3f77aca3	0.967478
203	0xbc443d46	-0.011977499
204	0x3f4058d2	0.7513553
205	0x3e9b7364	0.30361474
206	0xbd8cc59b	-0.06873628
207	0xbe7efbc4	-0.24900728
208	0x3f16c3d7	0.5889258
209	0xbe3bf31f	-0.18354462
210	0x3ec1f6d5	0.3788363
211	0xbe1e3eca	-0.1545364
212	0x3eaf3d03	0.34226236
213	0x3e6d2ea4	0.23162323
214	0x3ed0329a	0.40663606
215	0x3ed6e777	0.4197347
216	0x3e8b7d48	0.2724402
217	0x3eb17dd9	0.34666327
218	0x3f0eee4e	0.55832374
219	0x3d9a76b0	0.07542169
220	0xbeadfe6d	-0.33983174
221	0x3f06fea8	0.52732325
222	0x3f38426d	0.7197636
223	0xbe178ddb	-0.14800207
224	0x3e45437b	0.19264023
225	0xbd719742	-0.05898214
226	0xbecb29f4	-0.39680445
227	0x3eb0dc2b	0.34542975
228	0x3e28ca55	0.16483434
229	0x3ea9c45f	0.33157632
230	0x3d583e30	0.05279368
231	0xbe3dff28	-0.18554366
232	0xbe194c6f	-0.14970563
233	0xbe36dacf	-0.17856906
234	0x3f70942b	0.93976086
235	0xbc9af558	-0.018915817
236	0x3f09a69d	0.53769857
237	0x3eb4502f	0.35217425
238	0xbc98d60c	-0.018656753
239	0xbd234be1	-0.039867286
240	0x3edcc56b	0.43119368
241	0xbe139421	-0.14411975
242	0x3eaefabc	0.3417567
243	0xbd4639c3	-0.04839493
244	0x3e8331eb	0.25624022
245	0x3a97b11b	0.0011573167
246	0x3e239383	0.1597424
247	0x3e70db12	0.23521069
248	0x3e731b12	0.23740795
249	0x3ec9e2ce	0.3943085
250	0x3f0e2fe2	0.55541813
251	0x3e105486	0.14094743
252	0xbe67d097	-0.22638164
253	0x3ee3d8f1	0.4450145
254	0x3f49a1e5	0.78762656
255	0x3ed13118	0.40857768

edge_lin.2.bias f4 [32]
0	0x3cf98afb	0.030461779
1	0xbde38f04	-0.111112624
2	0x3e2c2bc7	0.16813575
3	0xbe00df6c	-0.12585229
4	0xbe6a465d	-0.22878404
5	0x3c6ab79e	0.014326004
6	0xbdd8fcbb	-0.105950795
7	0xbd909495	-0.0705959
8	0xbdeede17	-0.11663454
9	0xbd1d8450	-0.03845626
10	0xbe88fe29	-0.2675641
11	0xbd84cd2d	-0.06484447
12	0xbe857819	-0.2606819
13	0x3e0bc993	0.13651113
14	0x3d97cfdc	0.07412693
15	0x3e4aab6a	0.19791952
16	0x3d18e05a	0.037323333
17	0xbe0fbe81	-0.14037515
18	0xbcc226af	-0.023700086
19	0xbd41e2cb	-0.047335427
20	0x3de5e532	0.11225356
21	0xbdc3ae67	-0.09554749
22	0xbe048638	-0.12941825
23	0x3d790d09	0.060803447
24	0x3d58ba2e	0.05291193
25	0x3ca68762	0.020328227
26	0xbd95e2cf	-0.07318651
27	0x3be074af	0.0068498473
28	0x3c0aacf2	0.008464085
29	0xbdda082f	-0.10646092
30	0xbe24445e	-0.16041705
31	0xbc0e7297	-0.008694313
