reachability_classification/weights/Separateq0qgqkckMultiplePassGNNReachabilityNet_epoch_3.pt (torch_old, 53383 bytes, 26 tensors)

x_lin.0.weight f4 [8, 1, 1, 2]
000000 d8 75 ee 3d 40 fe c9 bd 5a 60 46 be 06 b5 39 bf
       0.11643571 -0.098629475 -0.19372693 -0.72541845
000010 b3 33 85 bd 74 c8 4a 3f 1f c9 af be aa 5f c4 3e
       -0.065040015 0.7921212 -0.3433313 0.38354236
000020 10 cf 0b 3e 4b 80 0d bf b8 65 3d bf c9 6e 34 3e
       0.13653207 -0.55273885 -0.73983335 0.17620386
000030 4d f4 b0 be c9 37 4c be c6 c7 00 bf 8c eb 60 3e
       -0.34561387 -0.19943155 -0.5030483 0.21964854

x_lin.0.bias f4 [8]
000000 d7 ee 99 3e ea cd 10 3f 08 b0 e0 be 28 ed bf 3e
       0.30065033 0.565642 -0.438843 0.37485623
000010 d1 22 03 be 13 e0 0a 3f 9c d1 f4 be 55 41 d9 3d
       -0.1280625 0.5424816 -0.4781617 0.10608164

y_lin.0.weight f4 [8, 1, 1, 2]
000000 98 cc 24 3f 5f e4 5f 3e df 8b fd 3e 1a 74 13 3f
       0.64374685 0.2186446 0.49520776 0.5759903
000010 4a b6 1b 3d f0 59 39 3f 65 6d 0e 3f 2a 4c f0 be
       0.03801564 0.7240286 0.5563567 -0.4693311
000020 2c 62 ed bd 3a a3 20 bf 98 ff 49 be e1 66 49 bd
       -0.115909904 -0.62749064 -0.19726408 -0.04917038
000030 af 13 30 bf 2f da 9d 3d 04 47 95 3e f2 42 22 3e
       -0.68780035 0.07707631 0.29155743 0.1584585

y_lin.0.bias f4 [8]
000000 1d f7 10 bf 5c fc a3 3e 5c 28 d6 be 97 bc 9d be
       -0.56627065 0.32028472 -0.41827667 -0.30807945
000010 89 36 3e 3e bc d9 47 be 8b f0 16 3f 2c b2 88 bd
       0.18575491 -0.19516653 0.5896079 -0.066746086

th_lin.0.weight f4 [8, 1, 1, 2]
000000 d8 87 05 bd 67 df 2a 3e d1 10 b3 3e 98 fa ee 3e
       -0.032600254 0.16686784 0.34973767 0.46675563
000010 68 ac 5c bd f3 2e 8e bf 2c 1c 10 be 67 bb c3 3e
       -0.053875357 -1.1108078 -0.14073247 0.38228914
000020 18 b8 ad 3e 55 ac 06 bf 07 d8 84 be 55 3a 03 bf
       0.33929515 -0.5260671 -0.25946066 -0.5126088
000030 6c af f0 3e 66 64 ec 3e 1d 5e 74 3b 98 12 9b bf
       0.47008836 0.46170348 0.0037287541 -1.2115049

th_lin.0.bias f4 [8]
000000 6e 0f bd 3e 45 9e 86 3d 03 c9 70 3e c5 b7 a5 be
       0.36925834 0.06573156 0.2351418 -0.32366768
000010 f1 8c 08 3e fa 7b 1b bf 7e c1 42 bf 6b 39 90 3d
       0.13335015 -0.6073605 -0.76076496 0.070422016

config_lin.0.weight f4 [32, 24, 1, 1]
000000 c9 7d aa 3e c5 a3 91 be e0 8a a0 be 97 38 39 be
       0.3329909 -0.2844526 -0.31355953 -0.18087994
000010 98 ac 11 3e 65 22 c2 bc d6 54 5d be df ab 51 3e
       0.14225996 -0.023698041 -0.21614394 0.2047572
000020 f1 f2 fd 3d 0c 62 4b be 45 ec 88 bd 00 95 6c 3e
       0.12399853 -0.1986162 -0.0668569 0.23103714
000030 f7 5b 8c bd 9b c0 74 bd 64 5a 9b be 72 34 3d be
       -0.068534784 -0.059753995 -0.303424 -0.18477038
000040 09 8b 67 3e 56 59 29 be 7d 74 84 3d eb af 29 3d
       0.22611631 -0.16537985 0.06467531 0.041427534
000050 44 5a 28 3e d7 01 50 3e cc 2d 37 3e 68 21 d6 3e
       0.16440684 0.20313202 0.17888564 0.41822362
000060 cd 27 f1 bd a7 41 8a bd 5e 3d 22 3e c9 a2 99 3e
       -0.117751695 -0.067508034 0.15843722 0.30007008
000070 52 36 a2 3c 2a 59 86 3e 25 a4 3a 3e e5 16 83 3e
       0.019801293 0.26239902 0.18226679 0.25603405
000080 7b 25 4f be d1 b7 08 bd b8 eb b0 3e c3 e4 23 be
       -0.20229141 -0.033378426 0.3455484 -0.16005234
000090 3c 0e 1d bc b4 09 05 3d 0c c6 6e 3e 3c 58 da bd
       -0.009585913 0.032479957 0.23317736 -0.106613606
0000a0 2c fa 2b 3e 6e b3 7c bc 59 fe 17 3e 56 78 97 bd
       0.16794652 -0.015423639 0.1484312 -0.07395999
0000b0 ba 1b f3 bc 6f 94 53 3d cc 08 66 bd 3f 75 ce 3e
       -0.029676307 0.05165523 -0.056160733 0.40323827
0000c0 bd 4b e1 3c cc c0 5e 3e 40 2d e6 bd 11 60 17 3e
       0.027501935 0.21753234 -0.112390995 0.1478274
0000d0 91 88 8f be da 2e 5b bb 1a 9e 6f bd 0a 2f 17 be
       -0.2803388 -0.0033444674 -0.058500387 -0.14764038
0000e0 09 c7 94 3d b9 75 54 be 7b 56 8f 3d 79 be ca 3d
       0.072645254 -0.20748033 0.06998917 0.09899611
0000f0 16 6a 65 3e 3e 5b 3c 3e c0 b5 28 be 41 2a db 3d
       0.2240375 0.18394181 -0.16475582 0.10701419
000100 26 ae b7 3d a6 b4 20 bb ec 8d 8b be d5 3c 55 be
       0.08968763 -0.0024521737 -0.27256715 -0.20823987
000110 ee 27 98 3d 1c 3f 3b be 13 43 e9 3c cf 8a c1 be
       0.07429491 -0.18285793 0.028474366 -0.37801215
000120 88 b3 e5 bd e2 de cf 3c dc a5 2a be 17 72 47 be
       -0.112158835 0.025374833 -0.16664833 -0.19477116
000130 bf b3 1e be af 7f 27 be 5e 1a 44 bc b3 f5 f8 bd
       -0.15498255 -0.16357301 -0.011969177 -0.121562384
000140 25 b1 be bc cf 7f 28 3e 9f 56 3a 3d c0 5a c0 3d
       -0.023277828 0.16455005 0.045492765 0.09392309
000150 17 75 ad 3c f1 20 62 be 67 fb 2e 3d d3 ca e3 bc
       0.021173997 -0.22082879 0.042720225 -0.027806675
000160 ed a4 d8 bd 4f d6 a7 3d 63 16 ba 3b 53 0e 43 bd
       -0.10578332 0.08195173 0.0056789382 -0.047621083
000170 92 db 5d bd a4 bc 5e 3d 4c c3 82 3d 37 71 5d be
       -0.054164477 0.05437912 0.06384906 -0.2162522
000180 2f a5 3a 3e 17 35 a0 3d 06 8a e3 3b 81 87 25 3e
       0.18227075 0.07822626 0.006943944 0.16164972
000190 58 13 a3 bd 79 0a 2e 3e 9d a6 83 be ab b8 8d bd
       -0.07962674 0.16996183 -0.25713053 -0.06919988
0001a0 e2 99 14 3e 50 75 ad 3e 16 ec 02 3e 15 b1 ed bd
       0.14511827 0.33878565 0.12785372 -0.11606041
0001b0 cd 00 62 bd ba f0 03 3d 98 c6 82 bd f6 68 f5 3d
       -0.055176545 0.032211997 -0.06385535 0.1198291
0001c0 da 3a 42 be 64 74 41 be f3 c8 85 3e 63 04 ad be
       -0.18967763 -0.18892056 0.26129875 -0.3379241
0001d0 ee ba d5 3e 38 e9 d4 3e ea 60 71 bc a3 83 1e 3f
       0.4174418 0.41584182 -0.014732579 0.6191961
0001e0 e3 b8 1c 3d 5e 72 3d 3d a8 16 59 be ed de 97 bd
       0.03826226 0.046251647 -0.21200049 -0.074155666
0001f0 b2 b6 9b 3d aa 14 a1 3b 66 4d 02 3e a3 ba 8b be
       0.07603206 0.0049157934 0.12724838 -0.2729083
000200 9a f8 4d 3e 2a 65 11 3d 6d c8 54 be 61 99 df bd
       0.20114365 0.03549687 -0.20779581 -0.109179266
000210 15 eb 28 be ce be 15 be 56 7f 30 3e e1 c4 8e bd
       -0.16495927 -0.14623567 0.17236075 -0.069711454
000220 19 03 9d 3d ff 7e 1d bd 2c 66 a7 bc 0e 76 80 3d
       0.076666065 -0.03845119 -0.020434462 0.06272517
000230 d6 8f c6 be bd d7 a1 bd 06 04 80 3e 16 64 c1 bd
       -0.38781613 -0.07902477 0.2500307 -0.09442918
000240 81 b9 a8 3d 8c ac 97 3d 69 8d 84 3e 51 94 15 3b
       0.08238507 0.074059576 0.25889137 0.0022824
000250 e0 b2 45 be dc f2 26 bd df 43 a6 bd 8c 7d 8c be
       -0.19306517 -0.040758952 -0.08118414 -0.27439535
000260 f7 23 b8 bd 3b 9a 60 3d f7 38 16 be f1 2d 33 3e
       -0.08991235 0.054834586 -0.14670168 0.17497994
000270 26 01 d5 bc f7 a5 8d bd 92 ca 0e 3e 06 04 04 3e
       -0.026001524 -0.06916421 0.13944462 0.1289216
000280 2b 77 31 3e 38 53 9f bd 85 2f b1 be 87 cf 1a 3e
       0.17330615 -0.077795446 -0.34606567 0.15118228
000290 81 00 ac be d7 d6 2e bd 49 0d 3e 3e d4 73 fd be
       -0.33594134 -0.042685356 0.18559755 -0.49502432
0002a0 34 20 ad 3d ee 74 38 3e 4a 94 e2 3d 6d 11 9a 3c
       0.08453408 0.18013355 0.1106344 0.018807137
0002b0 65 48 47 be 60 8d 81 39 12 6b fa 3d b7 d6 f6 bd
       -0.1946121 0.0002471013 0.12227453 -0.12052672
0002c0 78 d0 62 bd de ad b5 3c 71 f3 30 3e dd c3 eb 3d
       -0.055374593 0.022177633 0.17280366 0.11511967
0002d0 56 00 1d 3e 60 80 6e 3e d4 ff 3e bd 62 e7 ed bd
       0.1533216 0.23291159 -0.046630695 -0.116163984
0002e0 7b a7 9a bd e0 c0 22 be 28 8c 8e 3d de 60 a4 bd
       -0.075514756 -0.15893888 0.069603264 -0.080262884
0002f0 5c 27 e5 bc 6c 37 ea bd f6 c4 ae 3d 68 68 75 be
       -0.02797287 -0.11436352 0.08533661 -0.23965609
000300 84 eb 82 bd 9c d8 db 3e 90 b2 22 be e0 21 ca be
       -0.06392577 0.42938697 -0.15888429 -0.3947897
000310 b6 99 2d 3e 19 de fd 3d 4a 56 48 3e 45 1e 9c be
       0.16953167 0.123958774 0.19564167 -0.30491844
000320 81 c4 ea 3d b6 e1 6f be 54 d5 48 be 2d ef 5e be
       0.114632614 -0.23425946 -0.19612628 -0.21770926
000330 b5 31 ac bd 70 89 16 3e d2 c6 3b 3e 1b c9 e0 3d
       -0.08407918 0.14700866 0.18337563 0.10975858
000340 52 97 29 3e 44 96 2d 3d 63 d3 d9 3b 5e 34 79 3d
       0.1656163 0.042379633 0.0066475137 0.060840957
000350 ac 63 58 be 77 37 5d be d1 b9 fc bd bd 82 be 3d
       -0.21131772 -0.2160319 -0.12340129 0.0930228
000360 1d fc 91 3e d2 91 7b 3e 6e 62 38 be 85 34 28 be
       0.2851266 0.24567345 -0.18006298 -0.16426285
000370 da f4 00 3e 0c 98 8a 3d 0c 82 c0 bd dd 0e ef bc
       0.12593403 0.06767282 -0.093998045 -0.029181892
000380 4a 78 9b 3c 01 3d 47 3e 0c d6 15 3d be a1 08 3e
       0.018978257 0.19456865 0.036581084 0.1334295
000390 cb 04 cd bd 4f e4 34 be b3 85 47 be 11 70 fa bd
       -0.1001068 -0.17665218 -0.19484596 -0.12228406
0003a0 38 85 05 3e 4d 81 0b 3e c7 1f 82 3e 2d ff 2a 3e
       0.130391 0.13623543 0.2541487 0.16698904
0003b0 bf 52 6b 3e 68 2e 49 3d 9c 6a 1f be 2b 3b d5 3e
       0.22980784 0.049116522 -0.15568012 0.41646704
0003c0 96 e9 4c be 61 5e 70 3e 68 f5 6d 3e 71 88 99 bd
       -0.20010981 0.23473503 0.23238146 -0.07496727
0003d0 25 1a c1 be 07 57 39 3d 08 94 b8 bd 80 59 59 3d
       -0.3771526 0.04524901 -0.0901261 0.05306387
0003e0 ae 0f 6f 3d 61 72 4b 3d 86 19 f9 bc 5f ad ec 3d
       0.058364563 0.049669627 -0.030407678 0.115565054
0003f0 2d 58 3e 3e a6 2c f1 3b f5 fb 33 be ba 48 02 3e
       0.18588324 0.007360059 -0.17576583 0.12723055

config_lin.0.bias f4 [32]
000000 a5 82 84 3d 6c 3f 42 3e a4 9b 6e be 8b ed 03 3e
       0.06470231 0.18969506 -0.2330156 0.12883584
000010 df 55 3e 3e ae 7b 7f bc dc d6 08 3e ed fe c3 bd
       0.18587445 -0.015593452 0.13363212 -0.095701076
000020 0c 0e 11 be 2c 39 87 bd 4a d5 e3 bd 54 92 ce 3d
       -0.14165515 -0.066027015 -0.11124666 0.100865036
000030 a6 50 65 bd 43 7d 52 bb 8d 9e 88 bd 79 c2 98 3e
       -0.055985115 -0.0032118119 -0.06670866 0.2983587
000040 77 1a e0 3d 8c cb 0d be f3 aa 44 be f4 5d 67 3d
       0.10942548 -0.13847178 -0.19205837 0.056486085
000050 f1 5c 32 3d 19 44 0f be 29 78 c9 bc fe 95 a0 bd
       0.043545667 -0.13990821 -0.02459343 -0.07841109
000060 22 ba 0f 3d 67 95 22 3e 40 88 da bc ce d9 0b 3e
       0.03508962 0.15877305 -0.026676297 0.13657305
000070 aa 0f 5e 3e cc 5b db bd be 66 c5 3d 20 7d 0b 3e
       0.21685663 -0.10710868 0.09638737 0.1362195

config_lin.2.weight f4 [32, 32, 1, 1]
000000 79 70 d6 bc f3 4a c8 3d 69 bd 56 3d 05 7f bb bd
       -0.026176678 0.097799204 0.05242673 -0.091550864
000010 8d f9 59 3e 53 46 31 be 78 b4 d6 bd a3 d9 31 3d
       0.21286602 -0.17311983 -0.104836404 0.043420445
000020 2c 17 82 bd 80 ae 03 3e 47 0e 97 be 12 9b d1 3b
       -0.06352076 0.12859535 -0.2950308 0.0063966596
000030 1f 65 e1 bd 56 95 94 be 69 bb 00 3d 73 c7 9c 3d
       -0.110056154 -0.29020184 0.03142873 0.076552294
000040 31 ee c3 bd 5d 37 82 3d 41 87 26 be 09 e4 d9 bc
       -0.09566916 0.06358216 -0.16262533 -0.026597993
000050 5e e0 73 3e 24 01 6d 3e c7 16 00 be bd a5 a9 3c
       0.23816058 0.23144966 -0.12508689 0.020708913
000060 ee 33 f7 bd 0c 05 82 3e 09 1a 73 3e 5b f3 34 bc
       -0.12070452 0.25394475 0.237404 -0.011044349
000070 c3 a9 0a 3d c6 72 21 3d 77 38 d9 bd c4 23 0b be
       0.033853304 0.039416097 -0.10606473 -0.13587862
000080 32 75 1b 3e 90 d5 90 3d 8e c6 86 3d c9 c7 44 3c
       0.15181425 0.07071984 0.0658084 0.012010523
000090 66 ff 80 3e 44 75 22 3e b7 e6 95 be 5b b3 0c 3e
       0.25194854 0.15865046 -0.29277584 0.13740294
0000a0 b9 a6 02 3e 43 86 98 3d 91 bb a7 3d 0a 93 08 be
       0.12758912 0.074474834 0.08190072 -0.13337341
0000b0 d4 b7 fa 3d b5 b8 3c 3e 66 96 8b 3d 25 a5 ae 3d
       0.12242094 0.18429835 0.068157956 0.085275926
0000c0 f3 a0 bf bd f6 53 8a be cb ed e0 bd d1 08 f7 bd
       -0.093568705 -0.27017182 -0.109828554 -0.120622285
0000d0 a7 b6 fc 3d 6f 9b 2e 3e 7a 7c b0 3d b1 f7 6a 3d
       0.12339526 0.1705148 0.08617492 0.057365123
0000e0 3d a8 fe bd 54 a0 50 3d fe ac 6f 3e b0 78 66 3d
       -0.12434433 0.05093415 0.23405835 0.05626744
0000f0 7a 2d 41 be 48 d2 02 3d c4 56 01 bd 09 53 5f 3e
       -0.18865004 0.03193882 -0.031576887 0.21809019
000100 64 57 9c bd 85 e9 88 3d 34 86 8e bd cf 75 6d bd
       -0.07633856 0.06685165 -0.06959191 -0.05797368
000110 da e9 5a 3d 56 ad bd bc e9 c4 27 3d 4e bd 64 3d
       0.053445674 -0.023153942 0.040959273 0.055844598
000120 15 9e c8 3d 0e 55 75 be e4 5d 31 3e 40 c4 1c 3d
       0.09795777 -0.23958227 0.17320973 0.038273096
000130 41 04 01 be fa 9e 47 3e 05 6c df 3d 53 d5 63 bc
       -0.12599279 0.19494238 0.10909275 -0.013905841
000140 1c 79 f4 bd 53 f6 f6 bd e1 d8 f0 3d 62 fe 36 3d
       -0.11937162 -0.12058701 0.11760116 0.044676192
000150 28 37 9b 3c 7c 2a 36 bd cc a3 05 be a3 b8 11 be
       0.018947199 -0.04447411 -0.13050765 -0.1423059
000160 58 33 e6 3d 8e 93 03 be 10 0b 4b bd 0a 23 4b 3e
       0.11240262 -0.12849256 -0.049571097 0.19837585
000170 b4 f6 d0 bd 66 fc d6 3d 81 b7 66 3d 64 c1 66 3d
       -0.10203305 0.1049736 0.056327347 0.056336775
000180 9d 7d 2b 3e ae 4b 42 bd f5 2d 36 be 60 c4 f7 3d
       0.16747136 -0.047435455 -0.17790969 0.120980024
000190 96 70 5b be 49 41 72 bc 3e 24 6c 3d 07 54 5b be
       -0.21429667 -0.014786073 0.05765175 -0.21418773
0001a0 1b 37 1d bc 80 da 99 3e 68 2b 19 be b4 2f d0 3d
       -0.009595658 0.30049515 -0.14957964 0.10165349
0001b0 1c bc 9c be b6 15 4b bd 3e 39 0d be a7 21 1e be
       -0.30612266 -0.049581252 -0.13791367 -0.15442525
0001c0 72 4d 33 be 05 a9 0f 3e 09 8f f4 bb 5c 01 61 3e
       -0.17510012 0.1402932 -0.00746334 0.21973175
0001d0 c4 46 d1 bd 3d af 66 3c 4d f2 55 be fd 3e d2 3c
       -0.102185756 0.014079866 -0.20893212 0.0256648
0001e0 cc 7e 5d be f2 5d 81 3e cf 12 b0 3c ab f6 96 bd
       -0.216304 0.25266987 0.021493344 -0.07371267
0001f0 e5 f3 6e 3c 00 7e 2a 3e 57 37 1a 3e 62 cd 4a 3e
       0.014584516 0.16649628 0.15060173 0.1980491
000200 fd 05 fd bc 68 df ef bd 6f 1b 2e 3e e9 f1 f3 bd
       -0.030886644 -0.11712533 0.17002653 -0.11911375
000210 28 12 c9 bd 3d f7 5b bd 7f 89 a3 bd 0c e7 63 3d
       -0.09817916 -0.05370258 -0.0798521 0.055640265
000220 af 75 8f bc 25 b2 cf bd a9 01 c0 3d 83 6e d1 be
       -0.01751217 -0.101414 0.09375317 -0.40904626
000230 52 6e 89 bb 29 d9 06 bc 21 ed bd bd 82 b0 83 be
       -0.0041940594 -0.008230486 -0.092737444 -0.25720602
000240 2c da 24 3e a9 b6 d6 bc 82 92 c3 3d b1 a0 ac 3d
       0.16098851 -0.026210146 0.095494285 0.08429087
000250 c5 98 93 3d 71 4d a8 bc 84 e8 2e 3e a2 eb fa bb
       0.07206873 -0.02054474 0.17080885 -0.007657484
000260 24 67 a1 3d 21 6d 1d be d4 6e 89 3d 55 52 95 bd
       0.07881001 -0.1537366 0.06710592 -0.07291094
000270 f9 32 12 be cf 08 c9 3d f6 e2 70 bd 75 5a 8d 3b
       -0.14277257 0.09816133 -0.058810197 0.004313762
000280 33 a8 66 be 0e 8c 8b be 87 7c b2 3d b2 0c 1d 3e
       -0.225251 -0.2725529 0.08715158 0.15336874
000290 2a 6f db 3d 2c 1f 23 be d2 70 4a bd 96 0a 3b 3e
       0.10714562 -0.1592986 -0.049424 0.18265757
0002a0 f5 d2 0e 3d f0 06 09 3d 0d 3f 0f 3e 08 e8 01 3e
       0.034869153 0.03345388 0.13988896 0.12686169
0002b0 62 c3 aa 3d cf 6e 69 3e 97 50 4f 3e d7 d3 37 be
       0.083380476 0.22796176 0.20245586 -0.17951904
0002c0 af a2 16 3e 97 db 25 be b5 5e 8b 3e 64 c6 83 bd
       0.14710496 -0.16197048 0.27220693 -0.064343244
0002d0 f0 95 22 3e 6a 2f 36 be fb 4a 17 3e 09 58 3a 3d
       0.15877509 -0.17791525 0.14774697 0.045494113
0002e0 b4 e3 ab 3d 05 8f 17 3d 1c 19 c3 bd be 13 84 bd
       0.0839304 0.03700163 -0.095262736 -0.06449078
0002f0 61 33 08 3d 73 79 2e 3d 8f c4 13 3e 04 05 66 3d
       0.033252124 0.04259629 0.1443045 0.056157127
000300 cd 9b 6b be c5 35 e4 bd ba 41 eb bd f0 e6 1f be
       -0.23008652 -0.11143068 -0.11487146 -0.1561544
000310 a6 3c 10 bd eb 99 1a be 0b de 24 3e ad 5a 20 3d
       -0.03521409 -0.15097778 0.16100328 0.039148975
000320 05 7d 53 3d de 84 b2 bd 07 0b 04 3e 0f 12 32 3e
       0.0516329 -0.08716749 0.12894832 0.17389701
000330 61 9a ce bc 63 88 be 3d 23 4d 44 be 1f 0c e3 bd
       -0.025220098 0.093033575 -0.1917005 -0.11086296
000340 7c a6 bd bd 6d 3e c4 3d 92 70 a0 bd 90 eb 35 be
       -0.0926027 0.09582219 -0.07833971 -0.17765641
000350 de 66 02 3e 1f c1 56 3d f6 e5 f9 bd ab 60 71 be
       0.12734553 0.05243027 -0.12202065 -0.23572032
000360 f9 c7 c5 3d e0 f9 2a be f8 8d 21 be f2 f1 a7 3d
       0.096572824 -0.16696882 -0.15776813 0.08200444
000370 07 80 42 3d ed c6 1a 3d 32 8d 1a 3e 49 7e fc 3c
       0.047485378 0.037787367 0.15092924 0.030821936
000380 23 f9 4b be 5d e1 50 3e 78 50 4f be ab 14 b9 bd
       -0.19919257 0.2039847 -0.2024554 -0.09037145
000390 86 53 c7 3c a5 31 47 3e e1 37 b8 3d 02 57 b2 3d
       0.02433182 0.19452532 0.08995033 0.08708002
0003a0 5a ec 93 bd 37 6f b3 3d c2 e0 69 be 89 ae d9 3d
       -0.07222815 0.08761447 -0.22839645 0.10628993
0003b0 26 b0 b0 bc 18 3b 2a be ef f6 95 bd 91 f3 56 3d
       -0.02156837 -0.16624105 -0.073224895 0.052478377
0003c0 4c bc bd bd 2d 81 41 bd 09 55 2e 3d 84 12 e0 3c
       -0.092644304 -0.047242332 0.042561565 0.027352579
0003d0 4e de 0d bd d3 59 a6 3e 68 aa 98 be 32 69 13 be
       -0.034635834 0.32490405 -0.2981751 -0.14395598
0003e0 36 55 80 be 63 72 a9 bd a0 b0 5b bd 2a 78 ff 3d
       -0.2506501 -0.08273771 -0.05363524 0.12474091
0003f0 21 86 96 3d 13 af d7 bd 49 78 86 bd 28 98 34 bd
       0.07349802 -0.1053144 -0.06565911 -0.04409042

config_lin.2.bias f4 [32]
000000 43 7e 3c 3d e3 37 c8 3d 7a 60 dd bd d1 05 84 bd
       0.04601885 0.097762845 -0.10809417 -0.06446422
000010 f9 a4 67 3c 0b c3 8d bc 1f b4 ac bc d0 47 45 bd
       0.014138454 -0.017304918 -0.021081982 -0.04816419
000020 fd 78 96 bd 17 66 cb bd 86 5a 0e 3e 80 4d 0b be
       -0.073472954 -0.099315815 0.1390172 -0.13603783
000030 b9 bf 22 be 29 80 e9 bc e8 2c 09 3e 4c 7e a0 bc
       -0.15893449 -0.028503494 0.13396037 -0.019591473
000040 dd ea 21 bd 49 93 e9 bd a0 1f df bd 73 d2 f7 3d
       -0.039530624 -0.114050455 -0.10894704 0.12100687
000050 35 3d 7f 3d f8 1f 27 bd 07 72 1c 3e 53 3b 2b 3e
       0.06231423 -0.040801972 0.15277873 0.16721849
000060 de 61 b2 bd 19 c2 52 3e d2 ba 84 bd 9b 57 72 bd
       -0.08710073 0.20581855 -0.06480946 -0.05916558
000070 cf f9 8d 3d 94 45 07 be 3d 5e be 3d eb 7a 50 bc
       0.06932413 -0.13210136 0.09295318 -0.012724618

vertex_lin.0.weight f4 [32, 64, 1, 1]
000000 da c0 40 be 17 b1 92 3d 5b 26 a3 3d c1 56 eb bc
       -0.18823567 0.071626835 0.079663 -0.02872789
000010 bb d7 04 3e 12 96 a2 3d 57 28 aa 3d 7c 7d 6e bd
       0.1297292 0.0793878 0.083084755 -0.05822514
000020 26 5c a6 bd 29 0c 3a be c1 57 44 be e6 06 d7 3d
       -0.08123045 -0.18168701 -0.191741 0.10499363
000030 d0 4f fa 3d 76 83 2b 3e 94 b4 1d be e7 1c 95 3d
       0.12222254 0.16749367 -0.15400916 0.07280903
000040 61 76 11 be a4 fd f4 3d 34 37 e5 3d cb c8 cb 3d
       -0.14205314 0.119624406 0.1119217 0.099504076
000050 c9 09 c2 3b ce bb f0 3d a4 07 f2 3c 8a 4e 14 3e
       0.0059215766 0.11754571 0.029544659 0.14483085
000060 05 1d 95 bd 15 31 d8 bd af ed 21 3d c6 c9 40 bd
       -0.07280926 -0.10556237 0.039533313 -0.047067426
000070 08 f1 f1 3d 90 eb db 3d e0 7f 6a 3d 38 af ce 3a
       0.11813551 0.10738289 0.057250857 0.0015768772
000080 3c 54 76 3e 8d 98 00 3e 3f 99 7f bd 3a 58 69 3d
       0.2405557 0.12558194 -0.062402006 0.056968905
000090 b9 a5 2b be 89 91 55 3d 35 ba 1a be bd 5f aa 3d
       -0.16762437 0.052140746 -0.15110095 0.08319042
0000a0 47 97 56 3e 4e 9a 66 3e ec 0d d6 3d 0a f4 20 be
       0.20956145 0.225198 0.10451874 -0.15718094
0000b0 49 5f 04 bc b4 da 2c 3e 73 83 78 3d f1 be 19 be
       -0.008079358 0.16880304 0.060672235 -0.15014245
0000c0 b8 3e 7b 3d fb 25 1f be e9 3e 34 bd 88 e7 37 be
       0.06133911 -0.15541832 -0.04400531 -0.17959416
0000d0 68 4b 18 be 32 38 1a bd ea 9e 3b 3d 8d 8e c9 3e
       -0.14872515 -0.03765125 0.04580585 0.3936657
0000e0 f0 48 bb bd 10 a2 a8 bc 53 4d 90 bd e6 fd 9a bc
       -0.09144771 -0.02058509 -0.070459984 -0.018919896
0000f0 e3 a7 ac 3d 97 f6 85 bd 8b 84 50 bc 87 ec 37 3d
       0.08430459 -0.06541174 -0.012726913 0.044903304
000100 22 03 3b be ea fb 1b bc 21 67 32 3d 80 5f 35 3e
       -0.18262914 -0.00952051 0.043555383 0.17712212
000110 f5 3f 24 3d 3a e9 88 bd cc a2 1e 3d 32 39 c9 3d
       0.040100057 -0.066851094 0.038729474 0.09825362
000120 af 1d 0a 3e 5f 3e 4c 3c 02 dd 0d bb b3 62 63 3d
       0.13487886 0.012466042 -0.0021646623 0.05551405
000130 2d f1 6d bd 78 63 b7 3d b6 71 70 3e fa bd e7 bd
       -0.05809133 0.08954519 0.23480877 -0.11315532
000140 33 3f 8f bd 19 a8 d5 bb 30 b4 a2 bd e9 44 8b 3d
       -0.06994476 -0.006520283 -0.07944524 0.06800253
000150 4b 43 a6 bd e6 87 ae 3d cb d8 e7 bd d2 7c 16 3d
       -0.08118304 0.08522014 -0.11320647 0.03674013
000160 d7 44 58 bb bd 02 83 bd 70 0d db 3d 9e a1 61 3e
       -0.0033000016 -0.06397007 0.106959224 0.22034308
000170 06 01 c7 3d 3a 2b b5 3d ea 8f 20 3e bc 52 a3 3d
       0.09716992 0.088461354 0.15679899 0.07974765
000180 4e 17 ca 3d a4 78 a1 3d 41 89 29 bd 12 8b 2d 3d
       0.09867726 0.078843385 -0.04139066 0.042368956
000190 cc 67 ee bd 01 cb 85 bd d3 8b d7 3b 41 db 4c bd
       -0.116408914 -0.065328605 0.0065779476 -0.050013784
0001a0 4e 1d 26 3d 88 d9 af bc 60 05 b9 bc ca 21 a8 3b
       0.04055529 -0.021466032 -0.02258557 0.005130981
0001b0 14 ad 23 be 6a a0 20 3e ea 82 f9 3d 80 88 28 3d
       -0.15983993 0.15686193 0.12183173 0.0411458
0001c0 22 a9 bf bd e6 26 c0 3d 1d bc 1b bd 64 58 db bc
       -0.093584314 0.09382419 -0.038021196 -0.026775546
0001d0 d5 ad a2 39 bb b9 6b 3d ad 9c 29 3d 4f 3c b2 3d
       0.00031028563 0.057550173 0.041409183 0.08702909
0001e0 0b 08 3c bc d2 08 f1 3d ff cc bf 3d 91 2b 97 bd
       -0.011476527 0.117692605 0.09365272 -0.073813565
0001f0 c7 ea df bc c5 db 03 be 57 f8 de bc b8 e7 b8 bd
       -0.02733363 -0.12876804 -0.027218027 -0.09028572
000200 66 73 d7 bd d6 73 84 bd 66 b9 5b 3d 23 52 26 be
       -0.105200574 -0.064674065 0.053643607 -0.1624227
000210 91 51 97 bd bd c2 26 3d 3a f3 11 3e aa fd d4 3d
       -0.073886044 0.04071306 0.1425294 0.10399945
000220 7b c6 b4 3d c1 ed 00 3e 28 60 d3 3d 38 77 f4 bd
       0.0882692 0.12590696 0.10321075 -0.11936802
000230 d5 80 0f 3d fa 27 4c bd 7b f0 2c be e6 75 75 bd
       0.035034973 -0.049842812 -0.16888611 -0.05992689
000240 b9 d4 2e bd f3 e2 c8 3d a7 75 dc 3c 5f 03 b8 bd
       -0.042683337 0.09808912 0.02691157 -0.08985018
000250 7e 59 0d 3d 4c b5 e3 3c 9b 72 bc 3c a1 27 8d 3c
       0.034509175 0.02779641 0.023003867 0.01723081
000260 1d d4 aa 3b 69 07 50 3d 1c f1 15 be e4 e1 15 be
       0.005213274 0.050788317 -0.14642757 -0.14636952
000270 92 a3 ae 3d 21 97 b7 3d d9 20 22 be 0a d8 23 3d
       0.08527292 0.089643724 -0.15832843 0.040000953
000280 07 d0 93 bd 96 48 20 3c 20 d1 46 bc 65 d7 8b 3d
       -0.072174124 0.009782931 -0.01213482 0.068281926
000290 9b 3b 92 bd d9 7d 00 bd bd 41 9b 3c 6d ce 9e bd
       -0.07140275 -0.031370018 0.018952245 -0.07754216
0002a0 1c de 12 3d 76 53 04 be 70 76 9c bd c2 20 ee 3b
       0.03585635 -0.12922463 -0.07639778 0.0072670886
0002b0 13 ea 23 3c 7d 61 e3 bb 6e 55 d4 bd 07 69 05 3d
       0.010004538 -0.0069391117 -0.10367857 0.032570865
0002c0 b0 c7 f2 3c e2 f0 d2 bc 68 32 99 3b 58 59 18 3d
       0.029636234 -0.025749628 0.0046751983 0.03719458
0002d0 cb 7f a6 3d ac 50 26 bd fa 0d 25 bd 0d 4f 9f 3c
       0.08129843 -0.04060428 -0.040296532 0.019446874
0002e0 e9 67 a1 bc af ab f2 bd 8a 89 86 3d e1 07 ae 3d
       -0.019702869 -0.11849152 0.06569202 0.084975965
0002f0 7d c1 e3 3d 9a 88 0b 3e 96 0a 24 bc 40 65 92 3d
       0.11120889 0.13626328 -0.0100122895 0.07148218
000300 e6 8b 08 bd 5c 7f 7e 3d d0 88 f8 3d 10 06 3a bd
       -0.033336543 0.062133178 0.1213547 -0.045415938
000310 ac 1a 75 bd b5 52 94 bd fc ee cd bd 8c 34 b8 bd
       -0.05983989 -0.072423376 -0.10055348 -0.089943975
000320 8e 60 75 3d 30 2b eb 3b f6 1d 24 bd fa 69 19 be
       0.059906535 0.007176779 -0.040067635 -0.14981833
000330 59 39 1f 3c 35 fa cd bd 78 0a ab 3d 63 a3 d8 bc
       0.009718263 -0.10057489 0.08351606 -0.026445096
000340 14 6e d2 3d 14 42 8e bd 9b 36 88 3d 4c 88 ca bd
       0.10274902 -0.06946197 0.0665104 -0.09889278
000350 ba e9 14 3e 2d 61 11 3e 9c 21 f2 bd d5 f0 22 3d
       0.14542285 0.14197226 -0.11822817 0.039780457
000360 c4 98 e2 3d 27 61 47 3c 0d b6 06 3e 8c a1 23 bd
       0.11064294 0.012169159 0.13155384 -0.039948985
000370 d6 3b c5 bb b7 8e d6 bd 2c 9b 0d 3e f6 24 f2 bd
       -0.006019096 -0.104764394 0.13828725 -0.11823456
000380 05 f0 6c be b7 7c 3a 3d 83 f9 06 be 9a 85 7b 3d
       -0.23138435 0.045529094 -0.13181119 0.06140671
000390 f2 4f cd 3b a4 5c ba 3c 1f 6e 6a bc 2f d6 1f be
       0.0062656337 0.022749253 -0.0143084815 -0.15609048
0003a0 6e 93 be bd a1 bf 04 be 44 e6 d2 3d 2e 20 f0 bd
       -0.09305464 -0.12963726 0.10297826 -0.11724888
0003b0 4d 60 e0 bc 52 c1 3d 3d 9a 1f 34 3d 58 a9 62 b9
       -0.02738967 0.046326943 0.04397545 -0.00021616125
0003c0 ef e5 c3 3c 9c 1c bb bc df af c6 bd 23 d1 2d bd
       0.023913352 -0.02284079 -0.097015135 -0.042435776
0003d0 c9 cb 24 3d b7 58 d2 bd 96 d1 03 3e 92 95 d8 bd
       0.040233407 -0.10270827 0.1287292 -0.10575403
0003e0 a5 d3 ec bd 3a fe a4 bd 10 89 6f 3d d3 42 b3 bd
       -0.115638055 -0.08056302 0.058480322 -0.0875298
0003f0 84 98 3c bd a9 b2 92 3d 56 9e 9d bd 8f f1 10 be
       -0.046043888 0.07162983 -0.07696216 -0.14154647

vertex_lin.0.bias f4 [32]
000000 83 24 e5 bb db 22 9b bc 59 56 e7 bc 07 4c 07 be
       -0.006992878 -0.018937519 -0.028239416 -0.13212596
000010 1f f7 50 bd 6e d3 bb bd c3 9e 98 bc 3b ab 91 3d
       -0.051016923 -0.091711864 -0.018630391 0.07112738
000020 b4 14 da 3d ca 2b c2 bc ce a6 1c be 6f 51 a7 3d
       0.1064848 -0.02370252 -0.15298006 0.08169829
000030 bd 49 03 3e 6d 57 12 3d 52 2d f6 bc cc f9 a0 3d
       0.12821098 0.035727907 -0.030050907 0.07860145
000040 a2 90 0f 3e aa 6d b3 3d 68 c6 93 3c 79 a7 c4 bd
       0.14020017 0.08761151 0.018038943 -0.096022554
000050 20 55 85 bd f2 ac 0a bd b9 84 88 3c b1 ef 4d 3d
       -0.06510377 -0.03385634 0.01666485 0.050277416
000060 4f 34 17 be 7c 60 1d 3d ca 1a 14 be 40 67 4c bd
       -0.14766048 0.038422093 -0.14463344 -0.049903154
000070 85 4b ef 3b 20 49 8e bd 8d 4e d5 3d ef 28 56 bd
       0.007302704 -0.06947541 0.10415373 -0.05228513

vertex_lin.2.weight f4 [32, 32, 1, 1]
000000 a0 91 5c 3d 6d a7 0a bb 95 11 25 3d 13 43 81 3b
       0.053849816 -0.0021156922 0.04029997 0.0039447634
000010 e9 d1 68 3e 1f e9 8d 3e 57 4c 0a 3e 0c 93 3c 3d
       0.22736324 0.2771692 0.13505684 0.046038672
000020 57 e9 85 3e d2 05 86 3e 64 01 d9 bd c6 02 8b 3e
       0.26154587 0.26176316 -0.10595968 0.27150553
000030 d4 bc 2c 3d b9 e9 81 3e 1b c5 d2 bc 4b 6a 07 be
       0.042172268 0.2537363 -0.025728753 -0.13224141
000040 8b d7 47 3e 6f 77 60 3e 4d 8f fd b9 ed 83 e1 3d
       0.19515817 0.2192056 -0.00048362688 0.11011491
000050 2a 28 2d 3d a6 bc 3d 3d ac 06 9f 3c 2a ae d1 3c
       0.04227463 0.046322487 0.019412361 0.025595743
000060 0f b1 66 bd da d6 85 bd af ba e2 3a e0 71 a7 3c
       -0.0563212 -0.0653512 0.0017298068 0.020440042
000070 a8 66 05 be 54 7e 89 bd 32 55 44 3d 21 42 d3 bd
       -0.13027442 -0.06713548 0.04793281 -0.103153475
000080 22 d6 c0 bc 01 8c 71 be a5 bb c3 bd ba 7a 1d be
       -0.023539606 -0.23588564 -0.09557275 -0.15378848
000090 62 88 22 be c8 2d 52 bd 15 91 27 be ff 2b e2 bd
       -0.15872338 -0.05131319 -0.16363938 -0.11043548
0000a0 a6 bc 25 be 6e f3 c6 bd d8 85 35 be 29 ed 7a be
       -0.16185245 -0.09714399 -0.17726839 -0.24504532
0000b0 ae 7a dc bd ca 0c 34 be 27 2d 66 3d f3 66 99 3d
       -0.10765587 -0.17583004 0.056195404 0.07490339
0000c0 9d 11 3b 3d 50 58 16 be b4 fb bc bd 81 6b f2 bd
       0.045671094 -0.14682126 -0.09227696 -0.11836911
0000d0 34 6f ed 3d 25 de 89 bd f7 80 33 3e 76 3c eb 3d
       0.11593476 -0.06731824 0.17529665 0.114861414
0000e0 e0 d8 23 be eb 6d b5 bd 24 9e db 3d 04 49 a4 bd
       -0.160007 -0.08858856 0.10723522 -0.08021739
0000f0 79 f7 12 be ff ca 2b 3e 08 1e d7 3d 46 90 c1 bd
       -0.14352216 0.16776656 0.10503775 -0.09451346
000100 ae 28 75 bc 67 f9 08 3c 30 db 47 3e 9a 7c 05 3e
       -0.014963312 0.008360243 0.19517207 0.13035813
000110 30 21 68 be 90 b0 7f 3e 76 92 1f be 17 82 63 be
       -0.2266891 0.24969697 -0.15583214 -0.22217594
000120 55 c4 a7 bb 63 89 60 be e5 cc d4 bd 7e fe 66 bd
       -0.00511984 -0.21927409 -0.10390643 -0.056395046
000130 8e 87 23 3d 08 0d 82 3b 4a 35 85 bc a5 8a e7 bd
       0.039924197 0.0039688386 -0.016260762 -0.11305741
000140 ae 19 22 3e e8 ce 2d 3e 42 53 ad be ae aa 85 be
       0.15830109 0.1697346 -0.33852583 -0.2610678
000150 b2 7d 87 be 16 b3 b7 bd 95 c7 9b 3d 2c 64 30 be
       -0.26463085 -0.08969705 0.076064266 -0.17225713
000160 01 46 9f 3d 33 a3 4d 3e 1a 1f 47 be 52 3a 52 be
       0.07777024 0.20081787 -0.19445458 -0.2053006
000170 3b 88 57 3c 5c f7 cc 3d 5c ee b0 3d eb 07 80 bd
       0.0131550385 0.100081176 0.086392134 -0.0625151
000180 d6 04 10 3e b4 b9 b2 bb 6f 58 0c 3d 45 83 94 bd
       0.14064345 -0.0054542664 0.034264024 -0.072516
000190 e7 97 9a 3d 6c 57 c5 3d aa 20 02 bd c3 0c 30 3e
       0.07548504 0.09635815 -0.031769432 0.17192368
0001a0 b0 0a 21 be 10 4d 8d bd 92 20 9d bd be 6b 46 bd
       -0.15726733 -0.06899464 -0.07672228 -0.048442595
0001b0 2b 8b af bd 0f c5 02 bb ef 9a 1c 3e d1 1b 8c 3d
       -0.08571466 -0.0019953882 0.15293477 0.06841243
0001c0 2a 19 14 3e 4a a9 eb 3d 3c 93 dc bc ae f6 06 3d
       0.14462724 0.11506899 -0.026925676 0.032950096
0001d0 d8 f6 15 be f6 81 82 bc a7 17 e2 bb ca d3 21 be
       -0.14644945 -0.01593111 -0.0068997922 -0.15803447
0001e0 3a 37 4d bd fa 96 33 3e f4 1b 66 bc 05 82 28 3d
       -0.050101496 0.17538062 -0.0140447505 0.04113962
0001f0 68 ce a9 bd de 9a c1 b9 e7 bd 87 bd b4 69 a2 3d
       -0.08291322 -0.00036927214 -0.06628018 0.079303175
000200 db bd 57 bd df 0a ad bd a6 e0 da 3d a6 ab b9 3c
       -0.052671295 -0.08449339 0.106873795 0.022664856
000210 6c 3c b5 3d 11 1c 7b be 69 e5 29 be af df d4 bc
       0.08849415 -0.24522425 -0.1659142 -0.025985567
000220 49 4f be 3c ec 7f cb bc 91 b3 2d 3d bd 85 f2 bc
       0.023231165 -0.024841271 0.042407576 -0.029604787
000230 d4 33 56 3d 49 28 19 be bd b8 79 3d ab 17 6b 3d
       0.05229552 -0.14956774 0.060967196 0.05739562
000240 05 c3 62 3d d7 bd a5 bd e4 78 fb 3d e9 a3 96 bb
       0.055361766 -0.0809285 0.122789174 -0.0045971763
000250 77 d4 4c 3d 4d d5 d8 3d 89 71 ec bd b7 6d fc bd
       0.05000731 0.10587559 -0.115450926 -0.12325614
000260 5e cd 83 bd 2c c2 94 3d f2 9f 66 3c 39 7b 9c 3a
       -0.06435655 0.07263598 0.01407622 0.0011938579
000270 d0 92 e0 bd 63 48 93 3d 81 f2 1b 3e 2e ac 1b 3e
       -0.10965502 0.07191541 0.15229227 0.152024
000280 28 5d 84 be 30 f4 af bd a3 46 5f 3d 78 72 30 bd
       -0.25852323 -0.08591497 0.054510724 -0.043077916
000290 91 7f 14 bd 34 2d b8 bc c0 0c 19 3d f2 39 a1 be
       -0.03625447 -0.022482492 0.037365675 -0.3148952
0002a0 95 aa b4 3d e3 cf 64 bc 3d 25 c3 3d 50 a0 4e be
       0.088215984 -0.01396558 0.09528587 -0.20178342
0002b0 53 0e 07 3e cd de 8e be 6d 5f ca bd ce 6d 39 3e
       0.13189058 -0.27904359 -0.09881482 0.18108293
0002c0 23 d2 87 3d 53 32 80 bd 0a d6 28 be 44 cd 62 bd
       0.06631877 -0.062595986 -0.164879 -0.055371538
0002d0 a7 9c ff bd 9c 80 14 be 3d f9 73 bd 46 69 d4 bd
       -0.12481051 -0.14502186 -0.059563864 -0.10371642
0002e0 21 f8 1b 3e 24 d1 be bd cf 00 08 3c 02 fe 24 3e
       0.15231372 -0.09317234 0.008300974 0.16112521
0002f0 ca a7 2e be dc 75 16 3d a8 02 11 3e 20 98 41 be
       -0.17056194 0.036733493 0.1416117 -0.18905687
000300 f0 fc 7b be d6 dc 27 be 75 09 d7 bd b7 a9 c3 bd
       -0.24608207 -0.16392836 -0.10499851 -0.09553855
000310 1e 55 8b be fb 7d 06 3e 66 6b 3b be 46 a1 14 be
       -0.27213377 0.13133995 -0.18302688 -0.14514646
000320 d4 1c 39 3d ef 93 0c be f2 9f 7b 3d 45 56 8d bd
       0.04519351 -0.13728307 0.061431833 -0.0690122
000330 17 d0 66 3e 42 ba bb bd ab 91 c3 bc 60 4b 94 3d
       0.22540317 -0.09166385 -0.02387317 0.07240939
000340 4d c7 bb 3d 8e a5 f8 3c 9b 0b 92 bd d6 fe 7e bd
       0.09168873 0.03035238 -0.0713112 -0.06225475
000350 57 4c 56 bd 5b ca 84 3d b8 fb 47 3d 92 b6 0d 3e
       -0.052318897 0.06483909 0.048824042 0.13839176
000360 d3 35 74 3d 26 29 8c bd a2 6e c9 3d fa d9 18 3e
       0.059621643 -0.06843786 0.09835555 0.14926901
000370 48 17 12 ba a4 1a b2 3b 10 dd 80 bd e0 5f 2a be
       -0.0005572927 0.0054353047 -0.06292164 -0.16638136
000380 52 70 2c 3e c8 58 7a 3e 65 b5 95 be d0 56 a9 3d
       0.16839722 0.2444793 -0.29239956 0.08268511
000390 d1 6a 17 3e 98 2a e2 3d 38 ac 97 3d f3 3b ce bd
       0.14786841 0.1104328 0.07405895 -0.10070028
0003a0 7f 45 3e 3e f9 ca 43 3e 82 61 ef bc f4 00 1a 3e
       0.18581198 0.19120397 -0.0292213 0.15039426
0003b0 44 09 10 be 86 44 61 bc 5d 85 26 be b4 70 fd bc
       -0.14066035 -0.013749247 -0.16261812 -0.03093753
0003c0 63 87 40 be 7f a2 44 3e 0f 88 fd bd 07 a2 a8 3d
       -0.18801646 0.19202612 -0.12379467 0.08234029
0003d0 b0 5e 79 bd 90 66 f1 bb 9e a7 02 bd e9 0e 0b 3e
       -0.060881317 -0.0073669627 -0.031898133 0.13579907
0003e0 72 41 7c bd 46 5f b3 be 9d fa 5f bd 1b 6e 41 3e
       -0.06158585 -0.35033625 -0.054682363 0.18889658
0003f0 04 1d b2 3d 99 4b bc bd b8 2e 14 be d3 8d 4f be
       0.086969405 -0.091941066 -0.14470947 -0.20268945

vertex_lin.2.bias f4 [32]
000000 27 31 fa bd 81 77 bf bd fc 01 7f bd 80 ba e0 bd
       -0.12216406 -0.093489654 -0.06225775 -0.10973072
000010 e7 ef cc 3d 03 a7 9f bc 1d 0d 3e 3e 1b 22 ee 3d
       0.10006695 -0.019488817 0.1855969 0.11627599
000020 41 c8 1a be 17 6f c0 bd e5 c8 54 3d fd 56 26 be
       -0.15115453 -0.09396189 0.0519494 -0.16244121
000030 9f e8 bd bd b9 ee 4a bb b9 96 c3 3d a7 f4 5e 3e
       -0.092728846 -0.0030965044 0.095502324 0.21773015
000040 06 f3 53 3e db 9d 45 be 69 dd ff bd 0b ae 43 3c
       0.20698175 -0.19298498 -0.124934025 0.011943351
000050 9f 6a 06 3d a2 7e 5a 3e 18 ed 90 bd 1a 88 f3 bd
       0.032816526 0.21337369 -0.07076472 -0.11891194
000060 29 43 06 be e4 9f 3b 3e aa d3 9a 3d 39 4f 40 3c
       -0.13111557 0.18322712 0.07559903 0.011737638
000070 d1 b6 66 3d b5 02 77 bd 5c 41 fe 3d e5 dd 22 3c
       0.05632669 -0.060305316 0.1241481 0.009940599

edge_lin.0.weight f4 [32, 1, 68, 1]
000000 e8 c4 41 be 26 d4 d7 bc 97 02 0e 3d 60 02 af bd
       -0.1892277 -0.026346277 0.03467044 -0.08545375
000010 3f 18 cf bc a0 81 8e 3d 4a 29 14 bc cc 0e a0 bd
       -0.025280116 0.06958318 -0.009043047 -0.07815322
000020 3c 68 4f bc fc a5 aa bd 24 fe 44 be d2 53 01 3e
       -0.012659129 -0.0833244 -0.19237572 0.12629631
000030 57 34 ca bc b7 95 3e bd c3 5a 69 bd f0 99 b2 3d
       -0.02468316 -0.046529498 -0.056971323 0.087207675
000040 bd dd b9 bd fa 29 a0 3c 17 c1 07 bb 93 f7 8a bd
       -0.09075496 0.019551266 -0.0020714456 -0.06785502
000050 39 b3 9a bd 43 1c 65 3d 06 a7 b4 bd 7b 43 40 bc
       -0.07553715 0.055935156 -0.0882092 -0.011734839
000060 2b 67 97 bc 0b 9b 20 3d f2 fe 2b 3e 4f 47 d1 bd
       -0.018481812 0.03921036 0.16796473 -0.10218679
000070 92 17 03 3e 39 f8 b0 3d 90 32 6e bd b8 e6 2a bd
       0.1280196 0.08641095 -0.05815369 -0.041723937
000080 ec 93 8b be 42 d4 66 3d a8 49 21 bd 92 76 0a 3e
       -0.27261293 0.05635477 -0.039376885 0.13521793
000090 92 45 12 3d 32 7b fd bd 0d 51 8e bd e5 a9 20 be
       0.03571088 -0.12377013 -0.06949053 -0.1568981
0000a0 be 8d 31 3d aa ee 02 be 11 11 74 bd 0e f0 b1 bd
       0.043348067 -0.12786356 -0.05958659 -0.08688365
0000b0 1e 9c 51 be 49 9d de bc a9 c3 74 bd 20 aa 0a 3c
       -0.2046971 -0.027174609 -0.05975691 0.0084634125
0000c0 8e b2 c7 3b 02 a0 3b 3d 06 82 b5 bc 77 6b 02 3d
       0.0060942834 0.045806892 -0.022156727 0.031840768
0000d0 3f de 8a bc 4f 7b 35 be 99 0a af bd 46 b1 fd 3c
       -0.016951678 -0.1772282 -0.08546943 0.03096832
0000e0 e9 79 bd bd fd 9d 9f 3c db c2 39 bc c5 7b 72 bd
       -0.09251768 0.019484514 -0.011337961 -0.059200067
0000f0 b3 29 b2 3d 2a ac 1e be d4 e6 50 3e 1a 23 1d be
       0.0869936 -0.15495363 0.20400554 -0.15345421
000100 98 63 8e 3d 64 ac 00 3e ce 8a 27 bb 51 f7 62 3d
       0.0695259 0.12565762 -0.0025564912 0.05541164
000110 1a fa cc bd 80 31 24 3d 4d 14 1a bd 6e 7c 6d 3d
       -0.100086406 0.04008627 -0.037617017 0.057979994
000120 a7 ea 37 bd d7 8a 04 be f9 28 d1 bd 8e 23 d0 3d
       -0.044901516 -0.12943588 -0.10212893 0.101630315
000130 73 fa af 3d 7f d9 fd 3d c6 47 a4 bb 40 61 36 bd
       0.08592691 0.12395 -0.005013439 -0.04452634
000140 bc 93 16 bd ae ef 50 bc f2 1f b4 3d 23 94 0f 3c
       -0.036761984 -0.012752457 0.087951556 0.008763346
000150 7e d5 91 3d 33 8e d0 3c 93 2b ea 3d 7f cd 50 bd
       0.071207985 0.02545843 0.114340924 -0.050977226
000160 5b 34 42 3e 8a f5 03 be 19 16 e7 3d 28 a8 88 bd
       0.18965285 -0.12886634 0.11283512 -0.06672698
000170 2b b4 41 be bf 11 cf bb 11 1b 17 be 83 f3 05 3d
       -0.18916385 -0.006319254 -0.14756419 0.032702934
000180 48 b3 1c be 5c f5 00 bd 31 57 37 be 36 18 95 bd
       -0.15302765 -0.031483993 -0.17904355 -0.072800085
000190 d9 98 5d bd 43 f7 7b bc 88 1b 2f 3d a5 f8 de bd
       -0.054100845 -0.015378776 0.042750865 -0.10887269
0001a0 8f e4 b1 bd 43 f8 1a bd 41 f0 dd bd 86 18 51 bd
       -0.08686172 -0.037834417 -0.108368404 -0.051048778
0001b0 ae e2 2e be 42 f5 98 bd b0 7b cb bd f8 5f 4d 3e
       -0.17078659 -0.07468654 -0.09935701 0.2005614
0001c0 4a d9 ba 3d 3d 3a cd bd 87 a4 13 3e 60 3c 21 be
       0.09123476 -0.10020874 0.14418231 -0.15745687
0001d0 97 89 5e 3d 95 8a 40 bc c8 15 03 3e d7 b8 eb bb
       0.054330435 -0.0117517905 0.12801278 -0.0071936655
0001e0 cd 5e 03 3e 26 16 4a bc 9c f2 0a bd 74 03 53 3d
       0.12829132 -0.012334382 -0.033922777 0.051516965
0001f0 73 de 4d bc f3 ec 86 bd 8f 13 b6 3c 76 59 ea 3d
       -0.012565243 -0.06588163 0.022226123 0.114428446
000200 8e 56 3f bb 6c c5 00 be 6c 7b 38 3d 1c c2 3b 3d
       -0.0029195878 -0.1257531 0.04503958 0.045839414
000210 be 03 52 be 3b 99 93 bd cd 77 69 bd 27 6e 4b 3d
       -0.2050924 -0.07206961 -0.056999017 0.049665596
000220 8d 6d 52 3e dd 30 4d bd 95 15 d3 bd 0c 36 e6 bc
       0.20549603 -0.050095428 -0.10306851 -0.028101943
000230 49 a4 95 bd db f6 47 be 78 5b b7 3d dd fd 14 3e
       -0.073067255 -0.19527762 0.08952993 0.14549966
000240 c9 64 1a bd e2 4f 31 be fc 8a 23 be cd 14 a6 bb
       -0.037693772 -0.17315629 -0.15970987 -0.0050683976
000250 59 18 0e bd ed aa 77 3d 6b 5f 44 3e b4 02 30 bc
       -0.03469119 0.060465742 0.19177024 -0.010742832
000260 a7 80 e0 bd d9 78 20 3d e1 cd f6 3c 3e 14 35 3d
       -0.109620385 0.03917775 0.030127468 0.044208758
000270 e6 39 a1 bd 61 db d6 bd d9 39 84 3d 86 83 1e 3e
       -0.078723714 -0.10491062 0.06456346 0.1547986
000280 d4 4f 14 3e 95 d6 8d be 61 33 18 bc 31 bb 53 be
       0.14483577 -0.27702776 -0.009289593 -0.20676877
000290 c0 f3 8f 3d 3f d6 ba be 3b 06 94 be 4c b5 42 bb
       0.070289135 -0.36491582 -0.28911003 -0.0029710112
0002a0 2e a0 e4 ba c5 d7 01 be a5 c7 66 3e cb 4b a7 bd
       -0.0017442757 -0.12679966 0.22537096 -0.08168753
0002b0 7b 13 b0 be 39 69 2d be c1 d4 2d be 46 25 6a be
       -0.34389862 -0.1693467 -0.1697569 -0.22865781
0002c0 59 ad c5 bd fe 34 0c 3e 4e c6 c8 bd 61 96 8f bd
       -0.09652204 0.1369209 -0.098034486 -0.070111044
0002d0 60 97 c1 be 6c 72 80 be bc 3b e0 bd 79 cb 9b bd
       -0.37810802 -0.25087297 -0.109488934 -0.07607169
0002e0 d5 7b 00 3e 53 d7 00 be a5 6e 12 be 4e ac f6 bd
       0.12547238 -0.1258214 -0.1430002 -0.12044583
0002f0 49 e1 92 bd a7 a7 25 be fc 12 7b 3c 2a 10 8a be
       -0.07171876 -0.16177236 0.01532435 -0.26965457
000300 34 dd 51 3c 57 b8 68 3d cd 2a 80 3d 1e c0 d2 bd
       0.012809087 0.056816425 0.062581636 -0.1029055
000310 3e 7d ab bd 63 91 a5 be f4 2b e1 bd f4 18 eb be
       -0.083734974 -0.32337484 -0.109947115 -0.45917475
000320 fa 3b 91 be 5c d1 ed 3d bb ac a1 bd 5c 1a 84 bd
       -0.2836607 0.11612198 -0.07894274 -0.0645034
000330 83 f5 95 be 65 2d 9b 3d 20 ab 2c 3e 49 cf 7c bd
       -0.29288873 0.07577018 0.16862154 -0.06172112
000340 1e d6 21 bd 57 7b 00 3e ec dd ee 3d 78 dc b5 bc
       -0.03951084 0.1254705 0.11663422 -0.022199854
000350 a9 74 20 3e 83 ee 07 be 53 12 40 3e d9 db 89 bd
       0.15669502 -0.13274579 0.1875699 -0.06731386
000360 09 60 d2 bd a0 35 33 be 69 b7 01 be d3 12 bc 3e
       -0.102722235 -0.17500925 -0.12667622 0.36733112
000370 06 5c 14 3e c1 88 84 bd 51 90 d8 bd 33 9d a2 3c
       0.14488229 -0.06471396 -0.10574401 0.019850349
000380 16 60 1a be 2d 1f a4 3d 0b c6 c4 bc ef 99 4c be
       -0.15075716 0.08013759 -0.024020215 -0.19980596
000390 14 9d 31 bd 1b b2 28 3e 28 2d 89 bd 1e 3d d5 3d
       -0.043362692 0.16474192 -0.06698066 0.10412048
0003a0 61 4a 48 3c ea 1e 84 3d 1a aa c5 3e 55 1a af 3d
       0.012224765 0.06451209 0.3860634 0.08549944
0003b0 aa 29 0e 3f d1 23 7e 3d 53 98 65 be 35 97 b4 3d
       0.55532324 0.062045876 -0.22421388 0.08817903
0003c0 a3 bc a1 3e f1 e0 82 3d 61 22 08 3d 9b 47 fd 3d
       0.3158923 0.063905604 0.03323591 0.12367173
0003d0 95 a1 51 3e 2e a1 32 bd 08 23 97 3c b8 28 b8 bd
       0.20471795 -0.043610744 0.018449321 -0.089921415
0003e0 aa 5e 53 3c 9d 59 a0 bd 76 6e 5d be a7 d3 d7 bd
       0.012900988 -0.078295924 -0.21624169 -0.10538416
0003f0 e0 4e 03 be 92 70 59 3e 17 19 67 3c f7 ee c1 bd
       -0.12823057 0.21234348 0.014105103 -0.09469407

edge_lin.0.bias f4 [32]
000000 68 0c 0c 3d c5 f0 c9 3d 46 10 1f 3d 4f 78 c6 bb
       0.03419152 0.09860376 0.03883388 -0.0060568224
000010 5a 83 03 3d 83 08 e7 bd 45 d8 e8 3d 5b a8 93 bc
       0.03210769 -0.1128092 0.11369375 -0.018024614
000020 73 a9 bb bd 28 69 e1 3c f4 1b 62 3c a8 af 6f 3d
       -0.09163179 0.027515963 0.01380061 0.05851713
000030 fe 3e a3 3d f4 93 b6 3d 0a d1 00 be ad 1b b1 3d
       0.07970999 0.089149386 -0.12579742 0.08647857
000040 78 cf 3d bc 9c f6 ca bd 64 23 1b bd 44 68 02 be
       -0.011585109 -0.09910318 -0.037875548 -0.12735087
000050 87 73 8f 3c 0f 93 ba bd d0 57 b4 3d 67 93 1f 3d
       0.017511142 -0.091100805 0.088058114 0.038958933
000060 c6 10 19 3d 19 24 0a 3d c2 f4 d7 3d 94 96 29 bd
       0.037369512 0.03372583 0.10544731 -0.041403368
000070 1d 6a 7f bd 46 1e 4d 3c 3c 39 cf 3c c1 73 8b 3d
       -0.062357057 0.012519425 0.025295846 0.06809188

edge_lin.2.weight f4 [32, 32, 1, 1]
000000 a5 c6 9d 3d b1 44 2c be 88 97 3e be 4d d8 d0 3e
       0.07703904 -0.16823079 -0.18612492 0.40790024
000010 ba a1 90 3c fe 0e 4c 3d 83 ae 5e 3a 5b 4d 08 be
       0.017655242 0.049818985 0.0008494632 -0.13310759
000020 34 b5 46 be fc 2e 31 bd 13 20 4b 3e d6 db b8 3d
       -0.19405061 -0.0432577 0.19836454 0.090263054
000030 34 d6 f2 3d 5e 4c 02 3e fb 76 5d 3d dd 20 3b be
       0.11857262 0.12724444 0.054068547 -0.18274255
000040 fb 43 88 3e cb 1c 6c bd 52 7c a8 3e 2b 44 58 bd
       0.26614365 -0.057644647 0.3290735 -0.052799385
000050 c5 40 32 3e c0 44 19 3e 5b d7 90 3e 3a bb de 3c
       0.1740752 0.14967632 0.28289303 0.027188886
000060 3c 3b e9 3e 76 33 0a bd 59 dd 93 bc 5d 0d 05 3e
       0.45553005 -0.033740483 -0.018049883 0.12993379
000070 56 54 4e 3e 6d ea ba 3e 59 0b a6 3e e3 b5 23 3e
       0.20149359 0.36506978 0.32430533 0.15987353
000080 b9 a0 b4 bd a2 fb 3a be 1d 25 6f be 94 b5 bd 3e
       -0.08819718 -0.18260053 -0.23354001 0.37052596
000090 6f af be 3d 30 f2 09 3c 16 13 04 3e 64 11 14 be
       0.09310805 0.008419558 0.12897906 -0.14459759
0000a0 78 c6 a2 bd 24 2f ef bd ce 86 46 3e a3 3a 59 3b
       -0.07948011 -0.11678913 0.19387361 0.0033146522
0000b0 79 26 0a 3e 1c b6 78 3e 7d 2e 2b bd 25 a6 61 be
       0.13491239 0.24288219 -0.04179238 -0.22036035
0000c0 57 b7 85 3e 2d 0b 88 3c 5b f1 b9 3e 0f f5 29 be
       0.2611644 0.016606892 0.36316952 -0.16597389
0000d0 38 e5 94 bd 59 ad 8c 3e 56 8b 02 3e 9d ec a1 3e
       -0.072702825 0.27476004 0.12748465 0.31625834
0000e0 8b 9a 09 3e ee 2e 66 bc 05 eb 05 3e 08 61 0f 3e
       0.1343786 -0.014049275 0.13077934 0.14001858
0000f0 29 8e bc bd 9c 93 d4 3e ec cd bf 3e 0f b2 ae 3e
       -0.092068024 0.41518867 0.37461793 0.34120223
000100 0b 16 1b 3e fe 21 0c 3e ed cc 1d be a1 37 02 bc
       0.15145127 0.13684842 -0.15410204 -0.007947833
000110 7d 48 df 3d 5f df 4c 3d 7c 6b c3 3c 36 69 22 3e
       0.10902498 0.05001771 0.023854963 0.15860447
000120 22 3f e3 3d ca 2d 1d 3d a9 89 0d bd ef e1 b3 3d
       0.11096026 0.038373746 -0.03455511 0.08783328
000130 33 24 ab 3d fe 94 12 be b8 7c 1c be 35 29 3f 3c
       0.08356514 -0.14314649 -0.15281951 0.011667539
000140 b6 8e 02 3e af 59 be 3d 10 7e c9 3d 9d 18 2c 3b
       0.12749752 0.092944495 0.09838498 0.0026259788
000150 3b 9e 8a bd f0 80 1c 3e 27 ef 15 be 5d 4f 21 be
       -0.06768461 0.15283561 -0.1464201 -0.15752931
000160 3d 5d 23 be 8f d0 b0 3d 64 55 32 bc 79 d9 0e be
       -0.15953536 0.086335294 -0.0108846165 -0.13950147
000170 57 12 d0 bd 51 83 52 be 65 6f 82 3d 85 bb 7f be
       -0.10159748 -0.20557906 0.06368903 -0.24973877
000180 c9 ff 60 bc 57 2c 79 be c7 94 83 bd af f5 d0 3e
       -0.013732859 -0.2433332 -0.064248614 0.40812442
000190 45 63 20 3c 93 ce 8d bc 67 25 9d 3d be b4 f4 3d
       0.009789293 -0.017310416 0.076731496 0.11948536
0001a0 e5 1f ba bd ee 30 0b 3e 9f 8d 8b 3e 86 53 bf 3d
       -0.09088115 0.13592884 0.27256486 0.09342103
0001b0 0e 4e 56 3e 4b 1e ac 3e bd 5a b1 3b 70 83 3c bd
       0.20928213 0.33616862 0.005412428 -0.046023786
0001c0 0c 0e 93 3e c9 1a e0 bd c4 46 b5 3e 77 ce ae 3d
       0.28721654 -0.10942609 0.35405552 0.08535474
0001d0 4f a7 8b 3c 08 28 b6 3c 8a 5a 1f 3d d7 3d 1d 3e
       0.017047552 0.022235885 0.038904704 0.15355621
0001e0 58 5e b6 3e 11 96 33 3e ba 43 3d 3e 91 c4 5d 3d
       0.35618854 0.17537715 0.18482867 0.05414254
0001f0 c3 d8 47 bd 3e a0 43 3e 28 9d 04 3e 99 cd ee bc
       -0.048790704 0.19104096 0.12950575 -0.029150771
000200 e3 c6 f7 bd 45 fb 44 3d 0f 2f 07 bd 2e b3 d5 3e
       -0.120984815 0.04809119 -0.033003863 0.41738266
000210 d4 95 05 3e dd 37 f0 3d 60 4a d3 bd 5f 2a 17 3d
       0.13045436 0.11729405 -0.1031692 0.036905643
000220 05 56 62 bc 95 31 f9 bb 14 5e d8 3e 55 28 35 3e
       -0.013814454 -0.0076047876 0.42259276 0.17691167
000230 37 93 92 3e 8b 80 f1 3e 3d ff 8e bd b3 1c 11 be
       0.2862794 0.47168383 -0.069822766 -0.14171104
000240 a7 ff b2 3e 46 48 11 bd cd 31 42 3e 40 2a 3c be
       0.34960672 -0.035469316 0.1896431 -0.18375492
000250 26 92 94 bd 65 34 66 3e d2 5e 81 3e 50 55 63 3e
       -0.07254438 0.22480924 0.25267655 0.22200513
000260 d1 1c 91 3e 42 fe bc 3d 0c a1 72 3e f9 0a 01 3e
       0.28342298 0.09228183 0.23694247 0.12601842
000270 76 c6 fb 3c c9 9a dd 3e 3c c9 7d 3e 32 6a b2 bd
       0.030734282 0.43282154 0.24783796 -0.087116614
000280 ae 14 d1 3d 1e 7f 47 3e 3e 77 03 be 62 ce 92 3b
       0.102090225 0.19482085 -0.12838456 0.004480169
000290 09 91 14 be aa 69 38 bd 8a b1 c0 3c 10 14 f7 bc
       -0.14508452 -0.045022644 0.023522157 -0.030160934
0002a0 21 c5 b1 bb 9a a3 f2 3c f7 4a c7 bd d8 e5 b9 bc
       -0.005425111 0.029619027 -0.09731095 -0.022692606
0002b0 54 99 74 bd b6 6c f5 bb 08 23 7e 3d a1 cb 18 3e
       -0.059716538 -0.007489766 0.062045127 0.14921428
0002c0 8f 60 56 bb 64 cc 30 3e 49 8b fe bd c1 d6 3a bd
       -0.0032711362 0.17265469 -0.1242891 -0.04561496
0002d0 8e 52 08 3e 01 d3 00 3e c3 c5 8c bd 65 81 06 3e
       0.13312742 0.12580492 -0.068736576 0.13135298
0002e0 18 ec 79 bd a5 98 4f 3d 2d 04 5d bd 93 d9 a3 3d
       -0.061016172 0.050682683 -0.05395906 0.08000483
0002f0 8c 9d a2 bc 55 2c 40 3b c8 26 83 3d 51 8a 7c 3c
       -0.019850515 0.00293233 0.06403881 0.015413837
000300 78 d6 60 3e ea 59 ca bd 8a 04 9f be 33 11 ba 3e
       0.21956813 -0.09880431 -0.3105815 0.36341247
000310 bd e4 82 bd 0d 2e c2 bc b5 72 ac bd 96 e0 a0 bd
       -0.063912846 -0.0237036 -0.08420316 -0.07855336
000320 c8 00 01 3d 26 3d 59 3d e3 04 ba 3e da 41 6e bd
       0.031494886 0.05303683 0.36331853 -0.05816827
000330 b8 25 ab 3e 8f ee d5 3e d3 23 0a be b2 60 05 be
       0.33427215 0.41783568 -0.13490228 -0.13025168
000340 7b dc 65 3e 14 14 40 be c5 c2 6c 3e ae a3 ab bd
       0.22447388 -0.18757659 0.23121174 -0.08380829
000350 24 bd 35 bd 63 de 2d 3e ef 83 d4 3e 7e 04 b7 3e
       -0.04436983 0.16979365 0.41506907 0.35745615
000360 b6 d6 7d 3e 0a 9e cf 3c b2 95 33 3e c9 41 60 3e
       0.24788937 0.025343914 0.17537573 0.21900095
000370 1c d4 8f be 78 86 6d 3e d3 2d 9e 3e 53 b0 56 be
       -0.28091514 0.23195827 0.30894336 -0.209657
000380 ac 98 c7 bd 7e cf 90 bd 96 5d 22 be 1f 51 a8 3e
       -0.09745917 -0.07070826 -0.15856013 0.3287439
000390 d9 6f 13 3e 4b a0 e8 3d 29 b2 11 be db 6c b9 bb
       0.14398135 0.113586985 -0.14228119 -0.0056587285
0003a0 1a 1f 47 be 7a a3 d5 bd 14 f3 b0 3e e4 40 83 bd
       -0.19445458 -0.10431571 0.34560454 -0.06408861
0003b0 87 7e 01 3e e4 85 a3 3e 5d ba 03 3e 70 aa 98 bc
       0.12645923 0.31938088 0.1286406 -0.018635958
0003c0 22 96 d6 3d dd 94 d6 bd 57 c3 82 3e 55 cd f5 3d
       0.10477854 -0.10477612 0.25539657 0.120020546
0003d0 6b 4b cf bd 35 1c 8f bc 48 4c 31 3e 03 39 60 3e
       -0.10121807 -0.017469505 0.17314255 0.21896748
0003e0 7c 52 37 3e f8 16 15 3d 74 0c 82 3e 5b 16 37 3e
       0.17902559 0.036398858 0.25400126 0.17879622
0003f0 5a 5a 62 3d cb 75 1a 3e 73 78 b9 3e a0 ec 8c 3e
       0.055261947 0.15083997 0.36224708 0.2752428

edge_lin.2.bias f4 [32]
000000 60 80 13 3e 23 4d 24 bd 57 36 b5 3d e0 87 10 3e
       0.1440444 -0.040112626 0.08848255 0.14114332
000010 8e cc e4 bd 2c 66 00 3d 3b ca 7c 3c 82 84 20 bc
       -0.11171828 0.03134744 0.015429075 -0.009797217
000020 30 3f 8f 3c f3 51 f1 3d e2 21 11 be 33 94 82 bc
       0.017486185 0.11783209 -0.14173082 -0.015939808
000030 48 e2 c4 bd 78 17 92 3c eb 89 9b 3d 06 6e 11 3e
       -0.09613472 0.017833456 0.07594665 0.14202127
000040 b3 65 0c 3d 98 63 19 be 81 1a b8 bc c0 df 20 bd
       0.034276675 -0.14979398 -0.022473576 -0.039275885
000050 2a 5e fb 3d 5b b3 af bc c9 c7 da bb f6 c2 9a ba
       0.1227382 -0.021447828 -0.0066766483 -0.001180737
000060 e1 6a d7 3d 79 4b 99 3d 71 71 1d 3d 56 4d aa 3d
       0.105184324 0.074850984 0.038438264 0.08315532
000070 ab f2 ea bd dd f0 90 bd bf bd ec bd c9 c5 27 3d
       -0.114720665 -0.07077191 -0.11559629 0.040960107
