reachability_classification/weights/Separateq0qgqkckMultiplePassGNNReachabilityNet_epoch_11.pt (torch_old, 53383 bytes, 26 tensors)

x_lin.0.weight f4 [8, 1, 1, 2]
000000 56 5b 05 3e 34 55 df bd c3 1b be be 5e ad 72 bf
       0.13023123 -0.10904923 -0.37130556 -0.9479579
000010 58 f2 0c 3d 00 4c 4c 3f 74 0c 94 be e0 93 d1 3e
       0.034410805 0.79803467 -0.2891575 0.40933132
000020 03 55 24 3e 90 d3 ff be 41 3a 12 bf 5e 8d 30 3e
       0.16048054 -0.49966097 -0.5712014 0.17241427
000030 e1 56 b1 be 86 d3 04 be 5e ca 04 bf 5d 0b 73 3e
       -0.34636596 -0.12971315 -0.5187129 0.23734803

x_lin.0.bias f4 [8]
000000 e6 39 b7 3e c5 93 0e 3f 81 ca 00 bf d0 2a d6 3e
       0.3578636 0.5569423 -0.50308996 0.41829538
000010 5a 27 30 be 19 fa 46 3f 09 d9 bd be e1 a5 b5 3d
       -0.17202511 0.7772537 -0.37079647 0.088695295

y_lin.0.weight f4 [8, 1, 1, 2]
000000 99 90 2e 3f 5b 15 13 3e 5f cd 14 3f 96 4d d2 3e
       0.6818939 0.14363615 0.5812587 0.41074818
000010 fe 87 d2 bc 23 fd 69 3f 65 35 12 3f d2 22 f6 be
       -0.025699612 0.9140188 0.57112724 -0.4807344
000020 e1 29 bd bd ff 51 26 bf 62 ab 08 be a1 fd b9 bd
       -0.092365034 -0.64968866 -0.13346627 -0.09081579
000030 62 72 2a bf ea b2 17 3e 5c b6 e3 3e c1 c8 c6 3d
       -0.66580784 0.14814344 0.44475067 0.097062595

y_lin.0.bias f4 [8]
000000 2d 35 0b bf f9 f7 e4 3e c4 8b 88 be 13 c0 7a be
       -0.54378015 0.44720438 -0.26669133 -0.24487333
000010 02 05 c9 3c 09 31 98 be 92 68 1d 3f e6 2e ba 3d
       0.02453852 -0.2972491 0.61487687 0.090909764

th_lin.0.weight f4 [8, 1, 1, 2]
000000 c2 1a 00 3c cd 0f b5 3d a3 34 c5 3e 7c 09 c5 3e
       0.00781888 0.088409044 0.3851672 0.38483799
000010 32 cb 5b bc db ac b9 bf dd 91 93 be 90 1d c0 3e
       -0.013415145 -1.4505876 -0.28822222 0.37522554
000020 13 fb bb 3e d3 68 01 bf 81 be a1 be d2 5e 0a bf
       0.36714992 -0.50550574 -0.31590655 -0.54050934
000030 2b 01 06 3f 38 55 c7 3e 44 9a 28 bc 12 2d c0 bf
       0.5234553 0.38932204 -0.010290686 -1.5013754

th_lin.0.bias f4 [8]
000000 12 58 b4 3e 47 f8 78 3d 8a 5a 97 3d 83 38 df be
       0.35223442 0.06078365 0.07390316 -0.43597803
000010 e1 f7 23 3e 41 6e 08 bf e2 af 56 bf 0e 0c 19 3d
       0.16012527 -0.53293234 -0.83862126 0.037365012

config_lin.0.weight f4 [32, 24, 1, 1]
000000 37 26 b2 3e a8 ba 9a be 67 d0 a6 be 9f d5 11 be
       0.3479478 -0.30220532 -0.32580873 -0.14241646
000010 a4 92 34 3e cb 30 72 3d aa 93 72 be 5b 5b 89 3e
       0.17634064 0.059128564 -0.23689142 0.2682751
000020 bd 87 d2 bb b3 1e b1 be 00 dd ab bd 3e 01 8a 3e
       -0.0064248727 -0.34593734 -0.08391762 0.26954073
000030 ac c5 80 bd 96 2d 44 be 29 66 ec be 16 55 9e be
       -0.06287703 -0.19158015 -0.46171692 -0.3092429
000040 e9 44 5a 3e 49 26 41 be bf 84 2e 3e ef 4d df 3c
       0.2131535 -0.18862261 0.17042826 0.027258841
000050 f4 f4 29 3e db 88 5f 3e f0 41 17 3e 09 9f 17 3f
       0.16597348 0.2182955 0.14771247 0.59227043
000060 69 0f bc bd 0f 24 6a 3b c7 de 11 3e a9 a7 93 3e
       -0.09182627 0.003572706 0.14245139 0.28838852
000070 78 3a 5f bb 8c 64 81 3e d5 16 38 3e b1 03 27 3e
       -0.003406195 0.25272024 0.1797746 0.16310002
000080 9b 67 86 be 8f b7 05 be 04 42 d6 3e 8c 43 31 be
       -0.2625092 -0.13058303 0.4184724 -0.17310923
000090 ab 87 b2 bc d6 17 03 3d 7e 50 85 3e 78 0f 0b be
       -0.021793207 0.032005154 0.26037973 -0.1358012
0000a0 8a 45 2e 3e 29 09 0e bd f6 a1 05 3e d5 c1 ce bd
       0.17018715 -0.034676705 0.13050064 -0.10095564
0000b0 7c a1 a7 bd 43 03 33 3d 9f 4a f5 bd 4f 92 f1 3e
       -0.081850976 0.043704282 -0.119771235 0.47181937
0000c0 93 92 c4 bc a4 5f 06 3e 00 f4 fb bd 60 22 e6 3d
       -0.023995673 0.13122422 -0.12302399 0.11237025
0000d0 2e 53 76 be 3c b5 07 bd ad 08 c7 bc 56 9c b8 bd
       -0.24055168 -0.033131823 -0.02429613 -0.09014194
0000e0 52 d6 8b 3d d8 68 44 be 0e be ce 3c 5f 8b d5 3d
       0.06827988 -0.1918062 0.02523711 0.104269736
0000f0 ef 9f 8a 3e 39 c4 72 3e e2 02 0c be 12 84 28 3d
       0.27075145 0.23707666 -0.13672975 0.041141577
000100 0c a4 56 3d 54 e8 7a 3c a0 0c 9e be e3 45 5a be
       0.05240254 0.01531418 -0.30869007 -0.21315722
000110 f4 f7 17 3e a2 4d 23 be 28 6f ab 3d fb a1 02 bf
       0.1484068 -0.15947583 0.08370811 -0.5102841
000120 ee 30 1e be 11 8f 9a bd 92 13 95 be 78 7a a1 be
       -0.15448353 -0.07546819 -0.29116493 -0.3153875
000130 50 ea 1f be 4f b1 6e be 49 cc 1a 3d 56 6b f4 bc
       -0.15616727 -0.23309825 0.037792478 -0.029836338
000140 85 be 2b 3d 58 57 18 3e 46 44 df bc a2 e8 c6 3d
       0.04192974 0.14877069 -0.027254235 0.0971234
000150 2d 13 05 3c d9 35 88 be 8e f4 37 bd 5d 45 20 bd
       0.008122248 -0.26603583 -0.04491096 -0.03912865
000160 35 75 d2 bd d5 62 c6 3d bb db 0e bd b1 34 b1 3b
       -0.10276262 0.096868195 -0.03487752 0.0054078926
000170 40 49 11 3d 68 d0 28 3d 78 e7 ba 3d df 75 83 be
       0.035470247 0.041214377 0.091261804 -0.25675866
000180 6f 8a 0b 3e 5e 5b 20 3e 06 15 5a 3d cb 0d 51 3e
       0.13627027 0.15659854 0.053242706 0.20415418
000190 cf f7 9d be 66 a8 6e 3e a2 e1 88 be 1e 8d 9e bc
       -0.30853125 0.23306426 -0.26734644 -0.0193544
0001a0 bb 2b e2 3d 9b a7 c3 3e 01 3f a3 bd 37 e6 65 be
       0.11043497 0.3821381 -0.079710014 -0.22451101
0001b0 34 5b ba bd eb 3d 09 3d 32 f9 35 be 22 33 1b 3e
       -0.09099427 0.033506315 -0.17770842 0.15156224
0001c0 2a b1 46 be 06 8c 75 be 6e ee 40 3f 06 10 af be
       -0.1940352 -0.23979196 0.75363815 -0.34191912
0001d0 af bf bd 3e dd 6a 12 3f ed bd ad bd d3 17 a4 3f
       0.37060305 0.5719431 -0.08483491 1.281977
0001e0 17 3b 7f bb 6f 4f ae 3d 60 06 6a be 65 08 98 3c
       -0.0038945132 0.085112445 -0.22853994 0.01855869
0001f0 3f 41 d8 3d e1 cd f8 3d e2 a8 2e 3e 54 67 04 bf
       0.1055932 0.12148643 0.17056611 -0.51720166
000200 21 10 bd 3d 80 22 1c 3d a6 2e e4 be 7e f2 16 bf
       0.09231592 0.03811884 -0.4456684 -0.58963764
000210 6f df 37 be 3e c3 05 be 60 79 40 3e f6 db 69 be
       -0.17956327 -0.1306276 0.18796301 -0.22837815
000220 f4 72 29 3d d8 58 dc 3a 1b 63 a1 ba 33 cc 81 bd
       0.041369393 0.0016811145 -0.0012312861 -0.06337776
000230 8b 1a 1c bf 21 a8 c1 bd 35 9d a1 3e 9e 5e 8d bd
       -0.60978 -0.09455896 0.31565252 -0.069028124
000240 92 66 76 3d d2 6a 97 3d 88 d6 7e 3e c1 d3 92 bd
       0.060156412 0.07393421 0.24886525 -0.07169295
000250 d0 a9 3d be fb f7 19 be b3 fb 59 bd 83 0f 9a be
       -0.1852181 -0.15036003 -0.053218555 -0.3008996
000260 e6 e8 94 bd 97 6a 72 3d c0 e6 22 be d9 d4 20 3e
       -0.07270984 0.059183683 -0.15908337 0.15706195
000270 1a 83 6d bd 32 6d cd bd ba ca ac 3d b3 d9 fd 3d
       -0.057986356 -0.10030593 0.084371045 0.123950385
000280 b1 91 f7 3d 7b 22 10 be e2 a5 aa be eb e0 22 3e
       0.12088335 -0.14075653 -0.33329684 0.15906112
000290 fc ca a7 be 82 b6 00 3d a8 5c df 3d 39 f3 07 bf
       -0.32772052 0.031424053 0.10906345 -0.53105503
0002a0 33 fb ca bc fc ef 88 bd ce c5 24 3e 70 da 83 bc
       -0.024777984 -0.066863984 0.16091082 -0.01609537
0002b0 6d 9d 13 be 73 9d db bd 35 a5 19 3e f9 75 6d bd
       -0.14415522 -0.107233904 0.15004428 -0.057973836
0002c0 56 52 77 bd cc 54 2d be a3 ad 3f 3e f4 1a e4 3d
       -0.060381256 -0.16926879 0.18718581 0.111379534
0002d0 6b fa 4f 3e e1 e0 8f 3e 33 d7 2d bd 5d 4f 94 be
       0.2031037 0.28101256 -0.042441558 -0.289668
0002e0 bd f4 f0 bd 4c 09 1b be c1 f6 4f 3d dd 5e 1c bd
       -0.1176543 -0.15140265 0.050772432 -0.038176406
0002f0 95 ac e8 bc 0e 1f 9e bd e0 64 ed 3d 13 01 b2 be
       -0.028402606 -0.07720767 0.11591506 -0.34766445
000300 d2 1f a6 bd 53 54 34 3f 6d 47 39 be f1 7f 91 be
       -0.08111538 0.7044117 -0.18093653 -0.28417924
000310 8c ef b7 3d 62 6b 9c 3e 1a 3d 81 3e 71 e9 ad be
       0.08981237 0.30550677 0.2524193 -0.33967164
000320 06 ec d8 3d 2d 15 2b be 70 3d ae be 38 01 a3 be
       0.10591893 -0.16707297 -0.34031248 -0.31836867
000330 48 fd b0 bd 3d 64 18 3e c2 1c 49 3e 79 29 11 3e
       -0.086420596 0.14881988 0.19639876 0.14175977
000340 35 b0 3f 3e f5 2e a5 3d 19 ff a4 bd 58 c0 73 3b
       0.18719561 0.08065597 -0.080564685 0.0037193503
000350 52 09 d8 be 95 a8 92 be f8 e8 ba bd 63 e3 62 3d
       -0.4219461 -0.28644243 -0.091264665 0.055392634
000360 0c 9b 9b 3e 72 06 b8 3e e0 ec 7f be 37 86 27 be
       0.3039173 0.35942417 -0.24992704 -0.16359793
000370 26 e6 48 3e 9b c3 29 3e 92 14 9d bd 5d 5d c0 3d
       0.19619045 0.16578524 -0.07669939 0.09392808
000380 ce 4b e6 3c fa 97 85 3e b3 d5 4a 3e a3 31 e2 3d
       0.028112318 0.2609251 0.19808082 0.11044624
000390 2a a0 00 be 77 ef 80 be 66 2d 26 be 61 79 c1 bd
       -0.12561098 -0.25182697 -0.16228256 -0.09446979
0003a0 2f 57 ca 3d e9 ea 8d 3d e0 e7 b3 3e 9f 9b 03 3e
       0.0987991 0.06929571 0.35137844 0.12852333
0003b0 d7 94 35 3e 8d 45 00 3e ac 14 80 be f3 e8 01 3f
       0.17732559 0.12526532 -0.2501577 0.5074608
0003c0 6e 61 a9 be 3d a2 30 3e 89 17 77 3e 47 50 9b bd
       -0.33082145 0.17249389 0.24130072 -0.07583671
0003d0 f3 45 d3 be 2b c3 b9 3d 42 fe 33 bc c0 2c 1e 3e
       -0.41264305 0.090704285 -0.010985913 0.15446758
0003e0 ab 79 d4 3d e4 6c b7 3d 78 10 14 be 6a 50 08 3e
       0.10374769 0.08956316 -0.14459407 0.13311926
0003f0 d2 42 3e 3e 37 d4 f7 bb 20 1c 7a be cd dc 3c 3e
       0.18580177 -0.00756314 -0.24424791 0.18443604

config_lin.0.bias f4 [32]
000000 04 5c a4 3d f0 44 74 3e e0 dc a4 be 42 2f 95 3d
       0.08025363 0.23854423 -0.32199764 0.07284404
000010 c0 df 40 3e fe f6 3a bc 8c f3 62 3d ed 43 66 be
       0.18835354 -0.011411427 0.055408046 -0.22486849
000020 16 f3 c7 bd e8 20 69 bd 92 38 5c be 1f 21 19 3e
       -0.09763162 -0.056916147 -0.21505955 0.14954041
000030 7c 8e 32 3d 4f b3 3d 3d 79 74 5e 3c 19 59 a6 3e
       0.043592915 0.04631358 0.013577574 0.3248985
000040 95 d8 84 3d d7 30 c1 bd 18 22 86 be 30 27 92 3d
       0.06486622 -0.094331436 -0.26197886 0.07136381
000050 18 3b 76 3d 10 ec fd bd c8 56 3b bc 88 71 c3 bd
       0.06011495 -0.12398541 -0.0114342645 -0.09543139
000060 f1 a7 92 3c bd 6f 24 3e b6 00 ad bd 4e 36 c9 3d
       0.017902346 0.1605825 -0.08447401 0.09824811
000070 49 4d 89 3e ca 0b e3 bd 82 e0 9c 3b 7d 1a 2b 3e
       0.26816776 -0.11086233 0.0047875056 0.16709323

config_lin.2.weight f4 [32, 32, 1, 1]
000000 dc 53 0c 3e 20 4b d8 3d 0f 17 36 3d 4b 48 dd bd
       0.13703865 0.10561204 0.044455584 -0.108048044
000010 01 d1 a9 3e 2d 73 68 be 11 7b 18 be 1d a6 fe 3d
       0.3316727 -0.22700186 -0.14890696 0.12434027
000020 6b 00 9a 3c b0 9d bb 3d 35 ce ab be 88 27 43 3c
       0.018799027 0.09160936 -0.3355576 0.01191128
000030 0a 6d 7d be 9d 4b bb be c7 84 d4 bd a3 c0 c6 3d
       -0.24748626 -0.36581126 -0.10376888 0.09704711
000040 ad 12 cc bd 6c df 38 3d 6e eb 41 be 0b 1e bc bc
       -0.099644996 0.045134947 -0.18937466 -0.022963544
000050 29 32 34 3e 3d 97 84 3e b0 0a 7f be 66 ef 11 3e
       0.1759726 0.25896636 -0.2490642 0.1425148
000060 90 55 f0 bd d5 48 94 3e ef 3d 73 3e 5d 14 28 bd
       -0.1173507 0.28961816 0.23754095 -0.041035045
000070 90 b3 90 ba 88 77 df bd f3 f5 5e bd fa ae 36 be
       -0.0011039842 -0.10911471 -0.054433774 -0.17840186
000080 21 63 91 3d 8a 85 58 3d 68 86 d9 bc e1 94 d2 bd
       0.070989855 0.052861728 -0.026553348 -0.10282303
000090 dc 9f ea 3e 71 b1 18 3e 97 1c ad be 66 76 1d 3e
       0.45825088 0.14911439 -0.33810875 0.15377197
0000a0 21 22 02 3e da dc 8a 3c c5 1a 10 3c a5 33 f5 bd
       0.12708332 0.016951013 0.008795445 -0.11972741
0000b0 6e 44 10 3e 59 f0 e1 3d 68 1f 65 3d 5e 49 8d 3c
       0.14088604 0.11032171 0.055938154 0.017246898
0000c0 75 53 3a be 0b e3 b8 be 6a 9a 36 be bd 82 51 be
       -0.18195899 -0.3611072 -0.17832342 -0.20460029
0000d0 3f a9 ed 3d 3d 78 28 3e c0 c4 3f 3c a5 2d 9d bc
       0.11604547 0.16452117 0.011704624 -0.019186804
0000e0 56 45 23 be a9 15 8b bc 89 26 a5 3e ce 14 df 3d
       -0.15944418 -0.016978102 0.32255962 0.1089264
0000f0 08 7f a4 be 99 83 d2 bd a2 2f 77 bd bd 17 10 3e
       -0.32128167 -0.102790065 -0.06034816 0.14071555
000100 86 15 c4 bd 4d 05 94 3d 40 c4 53 bd 78 07 f1 bd
       -0.09574418 0.072275735 -0.05170083 -0.11769003
000110 57 15 92 bd 16 21 d1 bc 98 56 33 bc 7c 49 b8 3d
       -0.071329765 -0.025528472 -0.0109459385 0.08998391
000120 0b 13 09 3e 25 0e 8c be 97 7f 49 3e 98 39 09 bb
       0.1338617 -0.2735454 0.19677578 -0.002093887
000130 92 1e 6e bc 9d 88 bb 3d e0 a6 bf 3a 95 54 10 bd
       -0.014533656 0.09156916 0.0014621876 -0.035236914
000140 5d 9a e9 bd 81 36 e7 bd 2f 3d 14 3e 82 47 6c 3d
       -0.114063956 -0.11289693 0.14476465 0.057685383
000150 70 95 25 3e 48 0d b8 3a 31 a7 af bd 7b 43 24 be
       0.16170287 0.0014042044 -0.08576811 -0.16041367
000160 6e 28 e6 3d b2 f2 2f be 00 32 0a 3d f1 b2 33 3e
       0.1123818 -0.17182425 0.03373909 0.1754873
000170 8b 24 43 be b9 aa 00 3e 3d 13 14 3d 84 b3 02 bd
       -0.19056909 0.12565126 0.03615116 -0.03190948
000180 67 25 f8 3d c3 8d b2 bd 05 67 09 be 76 c2 a1 3d
       0.12116509 -0.08718445 -0.13418205 0.078984186
000190 11 31 99 be 7a 92 0c 3e 2b 97 c8 3d 2a a8 4e be
       -0.29920247 0.13727751 0.09794458 -0.20181337
0001a0 4b 46 0c be 20 73 0a 3e 77 b6 99 bd 9e 6e 96 3d
       -0.1369869 0.13520479 -0.075055055 0.07345317
0001b0 d5 99 0a bf 26 bf 75 bc 05 53 5a be 6b b6 1d be
       -0.5414098 -0.014999187 -0.21320732 -0.15401618
0001c0 68 23 26 be dc a6 13 3e 23 23 59 bd 9a 3a 5d 3e
       -0.16224444 0.1441912 -0.053012025 0.21604386
0001d0 54 83 30 be 47 f1 e6 ba 33 12 a1 be 66 98 c1 bd
       -0.17237598 -0.0017619514 -0.31459197 -0.09452896
0001e0 9b b7 de bd 2a 09 42 3e 7a 31 36 be 17 62 93 bd
       -0.10874864 0.18948808 -0.17792311 -0.071964435
0001f0 9a 83 de 3c 54 59 2a 3e 67 a9 3f 3e 06 c2 d3 3e
       0.027162362 0.16635638 0.18716966 0.41358966
000200 f7 93 83 3c c7 bb fc bd ac 5f 51 3e a5 2c 20 bd
       0.016061766 -0.12340503 0.20446652 -0.039105076
000210 90 df 9c be 0b 3c 0a be d4 03 dd bd 4d a5 d8 3d
       -0.30639315 -0.13499467 -0.10791746 0.105784036
000220 8c 23 e7 bd 80 65 10 be a8 cc 1e 3e b6 6f 13 bf
       -0.11286077 -0.14101219 0.15507758 -0.5759233
000230 08 5f 72 bc 84 cf fb 3d f7 4f 43 bc 16 6b 8c be
       -0.014793165 0.1229544 -0.011920921 -0.2742545
000240 9f 76 f9 3d d5 c0 23 bd b0 a4 95 3d fa 33 29 3e
       0.12180828 -0.03997882 0.07306802 0.16523734
000250 b6 bf 91 3d ca b1 8a 3d b4 26 4c 3e 21 bc 85 3d
       0.07116644 0.06772192 0.19936639 0.06530023
000260 56 96 d9 3d 6c b3 7d be cb da 1d 3e 4a 83 47 bd
       0.106243774 -0.24775475 0.15415494 -0.04870919
000270 45 58 72 be 4f 2a 8d bd ba 60 76 bd 82 df 24 be
       -0.23666485 -0.06892835 -0.06015084 -0.16100886
000280 fa 7b 44 be 64 9d b4 be d3 5c 8e 3d 86 6a 1c 3e
       -0.19187918 -0.3527633 0.069512986 0.1527501
000290 32 63 96 3d 6d 5b 4c be 8c d7 b2 bd 05 6a ad 3d
       0.07343139 -0.19956751 -0.087325186 0.08467487
0002a0 13 51 70 bd 27 69 60 3c a4 af 32 3e e7 0d 80 3e
       -0.05867107 0.013696945 0.17449814 0.25010607
0002b0 cf 08 2c bb 5c 18 5d 3e df 9f f2 3d 5b 78 2c be
       -0.0026250368 0.21591324 0.11846899 -0.16842787
0002c0 3d 79 33 3e 85 1a 1b be 03 39 92 3e 66 f5 ab bc
       0.17526717 -0.15146835 0.2855912 -0.020991039
0002d0 77 77 5b 3e 2c c4 71 be 6c ca 17 3e 28 bc f1 3c
       0.21432291 -0.2360999 0.14823312 0.029508665
0002e0 4f d2 97 3c 93 20 be bd 99 8b 27 be 2c a9 a4 bd
       0.0185329 -0.09283557 -0.16361846 -0.080400795
0002f0 8a 58 69 3b dc 80 bc 3d 61 d2 da 3d 8e d5 b2 3d
       0.0035605752 0.092042655 0.10684658 0.087321386
000300 32 d7 87 be 08 0d 0f be 9f b9 0a be 0f 36 7d be
       -0.26531368 -0.13969815 -0.13547371 -0.24727653
000310 4b 68 73 bd 7a e1 32 be fe bb 2a 3e e8 bc db 3c
       -0.059425633 -0.17468825 0.16673276 0.026823476
000320 0e e1 24 3d b7 c2 59 be 6a ea fe 3d a5 ce 38 3e
       0.04025369 -0.21265684 0.12447055 0.18047579
000330 4f 0f 40 bb 25 d1 aa 3d 58 14 91 be ca 8f c9 bd
       -0.0029306 0.083406724 -0.28335834 -0.09841879
000340 e4 c9 b0 bd 0b 91 c0 3d 7f bf 9c bd f0 42 83 be
       -0.086322576 0.09402665 -0.076537125 -0.25637007
000350 39 a5 2d 3e 1f 64 ba 3c 6e 77 de bd b4 6e b0 be
       0.16957559 0.02275282 -0.10862623 -0.3445946
000360 16 57 ab 3d d7 86 85 be af d9 32 be 4c 8f aa 3d
       0.0836622 -0.26079437 -0.17465852 0.08328113
000370 8d 08 16 bc e3 c7 13 3d a2 31 17 3e 6c c6 87 3c
       -0.009157312 0.0360793 0.14765027 0.016574107
000380 7c 7e 62 be 6e 98 53 3e a9 50 a2 be f3 87 b5 bd
       -0.22118562 0.20663616 -0.31702164 -0.08863821
000390 ce 02 05 be 7f 9d 61 3e 3e 41 11 3e 45 4f 83 3d
       -0.12989351 0.22032736 0.14185044 0.06411604
0003a0 76 e2 f8 bc 0e ca 26 3d 3a ce aa be 3a e0 c1 bb
       -0.030381422 0.040720038 -0.33360463 -0.0059166225
0003b0 6f 16 a7 bd ce 7c 66 be b5 bb ce bd f3 04 62 3d
       -0.08158576 -0.22508547 -0.10094396 0.0551805
0003c0 6f 42 04 be 04 5f d4 3b 31 5d 4e bd 45 68 67 3d
       -0.12915967 0.0064810533 -0.050381843 0.056495924
0003d0 02 e7 53 be 35 1e ba 3e ec aa 75 be d9 b5 82 be
       -0.20693591 0.3635117 -0.23990983 -0.25529364
0003e0 36 9d 59 be fd fa b7 bd 44 a4 9b bd 65 8c 0d 3e
       -0.21251377 -0.08983419 -0.075996906 0.13823088
0003f0 4a 3c b0 3d 45 fb f7 bd 8d 3b 50 bd 81 e1 57 3d
       0.08605249 -0.12108473 -0.050838042 0.05270529

config_lin.2.bias f4 [32]
000000 f8 36 c8 bc e8 3b 9c 3c 97 8b f8 bd fb 9a 18 bd
       -0.024440274 0.019071534 -0.12136 -0.037257176
000010 e7 fb 04 bd a3 9d 03 be ea f9 46 bc da 59 a8 bd
       -0.032466795 -0.12853102 -0.012144545 -0.08220263
000020 f8 1b b7 bd 87 fa f5 bd 98 2e 10 3e 7e 36 d5 bd
       -0.089408815 -0.12010675 0.14080274 -0.10410784
000030 4f 24 36 be ce ee ef bc 17 3c 0f 3e e2 0e 71 bd
       -0.17787288 -0.029288676 0.13987766 -0.058852084
000040 1e 8d 26 bd cd 28 3f be e4 e6 46 be 6d d4 a3 3d
       -0.040661924 -0.18667908 -0.19424015 0.079995014
000050 df f7 1b bd 5a 58 8b bd b5 72 28 3e e3 75 20 3e
       -0.038078185 -0.06803961 0.16450007 0.1566997
000060 4a 7f 43 be 27 b2 1a 3e 4a 11 05 bd 35 e0 5b bd
       -0.19091526 0.15107022 -0.03248719 -0.053680617
000070 05 fb 21 3d 98 4e 64 be 33 68 e0 3d 03 cb 06 bb
       0.03954603 -0.22295606 0.109573744 -0.0020567782

vertex_lin.0.weight f4 [32, 64, 1, 1]
000000 e8 c4 83 be a8 20 6a 3c 9e 8a 6d 3d c9 99 0f 3b
       -0.25736165 0.014290012 0.057993524 0.0021911731
000010 bb d0 0d 3e 66 c3 79 3d 60 36 b3 3d b5 a2 44 bc
       0.13849156 0.060977362 0.087506056 -0.012001683
000020 99 c2 5d bd f7 a5 50 be 00 92 6a be 3e 32 9f 3d
       -0.05414066 -0.2037581 -0.22907257 0.07773255
000030 68 46 3b 3d ca 38 7c 3e 87 3e 18 be fc 8e 2e 3d
       0.04572144 0.24631038 -0.14867602 0.04261683
000040 37 58 c1 bd 25 5a fe 3d 14 e9 e8 3d 53 67 0e 3e
       -0.09440654 0.124195375 0.11372581 0.13906603
000050 97 0f 6b 3c 1b e0 59 3d ba 5c db 3c 4c 73 f5 3d
       0.014346979 0.05319224 0.026777614 0.11984882
000060 65 92 d4 bd 5d 86 c2 bd 3b dd 5e bd 46 55 67 bc
       -0.10379485 -0.09498284 -0.0544102 -0.014119452
000070 66 56 8f 3d 42 2a 0b 3e fa fe 72 38 02 f1 99 bd
       0.06998901 0.13590339 5.793476e-05 -0.07516672
000080 95 eb 66 3e 48 ad 07 3e 15 43 46 bd 1d 70 7b 3d
       0.22550805 0.13249695 -0.04840382 0.061386216
000090 d4 97 84 be 9c be 56 3c 0b 7f 19 be 44 2f b3 3d
       -0.25897086 0.013106968 -0.1498987 0.087492496
0000a0 7c 9b 69 3e 04 c7 87 3e 92 af 0d 3e 29 22 5a be
       0.22813219 0.26519024 0.13836506 -0.21302094
0000b0 c5 dd c4 3c 22 98 2d 3e a6 3a 81 3d 73 14 30 be
       0.02403153 0.16952565 0.063100144 -0.17195301
0000c0 22 b4 a9 3d 47 d3 5f be 74 ec e9 bd dd 9f 51 be
       0.08286311 -0.2185794 -0.11422053 -0.20471139
0000d0 2f c5 28 be 7a 12 8d bd a0 be 36 3d a3 41 c0 3e
       -0.1648147 -0.0688829 0.044615388 0.37550077
0000e0 8b 4b 02 be cf 61 20 bd 4e e4 06 be ac 4e 8a bc
       -0.1272413 -0.039155778 -0.13173029 -0.016883217
0000f0 76 ad 4b 3d 9c 61 a9 bd 63 30 d4 3a be 09 92 3d
       0.049725972 -0.08270571 0.0016188737 0.071307644
000100 d1 68 2b be 4c 82 c7 bd d5 9a 1e bc a3 6e 39 3e
       -0.16739203 -0.09741649 -0.0096804695 0.18108611
000110 02 6b 39 bc e4 43 33 be b2 fd e8 3c 09 2e f5 3d
       -0.011317017 -0.17506367 0.028441284 0.11971671
000120 f4 8e 3d 3e 38 f0 41 3d 7f 13 be 3c 81 d2 8b bd
       0.18511564 0.04734823 0.023202656 -0.0682726
000130 bf 14 18 be 40 71 57 3e 2d 86 48 3e 44 89 5a be
       -0.14851664 0.21039295 0.19582434 -0.21341425
000140 3a ff 7b bd 0e a2 b9 bd b2 a5 45 be 6e 9c 59 3d
       -0.0615227 -0.090641126 -0.19301489 0.0531277
000150 9a 5d 24 be c2 da db 3d 13 cf 06 be b8 f2 ea 3d
       -0.16051331 0.10735084 -0.1316493 0.11472076
000160 08 68 48 be 5a 41 23 bb ce e9 51 3e e2 10 38 3e
       -0.19570935 -0.0024910779 0.20499346 0.1797519
000170 8a f7 94 3d f0 c3 69 3d c7 e8 90 3e 90 55 18 3e
       0.07273777 0.057071626 0.28302595 0.1487639
000180 57 7f 98 3d bf ae 6d 3c 51 e1 eb bd c6 3b cd 3d
       0.07446163 0.014506995 -0.11517585 0.100211665
000190 3e 73 5e bd ce d6 d5 bd fd 80 62 bd 6e c8 53 bc
       -0.054309122 -0.10441361 -0.055298794 -0.012926204
0001a0 77 8f 4e 3d b8 6a b5 bc 4c 45 d7 3b 48 c6 2b bc
       0.050429787 -0.022145614 0.00656954 -0.010484286
0001b0 01 3e b9 be 66 b1 85 3e 45 3a 4a 3e fc 17 cb 3c
       -0.36180118 0.26111907 0.1974879 0.02479171
0001c0 ba e5 a5 3c 7e da d1 3d df 66 53 bd 16 32 b6 bd
       0.020251144 0.10246752 -0.051611777 -0.08896272
0001d0 52 3d c1 bc 01 0d ca bd 27 e0 81 bc 39 94 6f 3e
       -0.02358881 -0.098657615 -0.015853954 0.23396386
0001e0 9b 89 11 bb 3a 9a 5b 3e 3c b1 80 be 0c 9a 88 3d
       -0.0022207263 0.21445552 -0.2513522 0.06670007
0001f0 f6 32 9b bc 4d 49 3a be 4d 90 87 3d 50 1b c8 bd
       -0.018945199 -0.18192025 0.0661932 -0.097708344
000200 34 88 1f be d0 10 fd bd 29 59 49 3d 5b 6c d2 bd
       -0.15579301 -0.12356722 0.049157295 -0.102745734
000210 c4 72 e4 bd f7 74 8c 3d fc a5 27 3e 1b d6 c2 3d
       -0.11154702 0.06858247 0.16371912 0.095134936
000220 0d 46 4b 3d b5 27 2a 3e b4 c7 0a 3e fe 4e 77 3c
       0.049627353 0.1661671 0.13552743 0.015094517
000230 ed a9 c3 3d e1 8c 20 be 73 61 f3 bd 14 df 71 bd
       0.09553895 -0.15678741 -0.11883821 -0.059050635
000240 af 7d 1a bd 47 2e eb 3d 2e 28 63 3d 27 8b e2 bd
       -0.037717517 0.11483436 0.05545824 -0.110616975
000250 e8 3f 94 3d 80 23 95 bd 12 e5 51 3d ad 62 14 bd
       0.07238752 -0.07282162 0.05124385 -0.036226917
000260 a5 09 09 3d a9 84 0c 3e 04 b9 c5 be 03 13 fd bc
       0.033456463 0.13722481 -0.38617718 -0.030892855
000270 eb a9 d5 3d 32 09 8f 3c 58 d0 a3 be 9b 1e 3e 3d
       0.104328 0.01746044 -0.3199489 0.046415906
000280 12 90 34 bd 24 90 1d 3e 91 35 6f bd 44 39 d9 3d
       -0.04408271 0.15387017 -0.058400694 0.10606626
000290 8b eb b7 bd bd b4 11 bd 66 1a 99 3b ca 7e 56 be
       -0.08980473 -0.035572756 0.0046723364 -0.20946804
0002a0 f4 48 12 3d e5 c1 3f be 3f 59 dd bd a0 45 63 3d
       0.035714105 -0.18726309 -0.10808038 0.05548632
0002b0 22 62 3a bd 53 6d 66 bd f7 ab f2 bd 30 c9 2d 3d
       -0.045503743 -0.056256603 -0.11849206 0.042428195
0002c0 6c b6 2a 3c cf f0 4d bd 99 e7 8a b9 12 8c 64 3d
       0.010419469 -0.05027848 -0.00026493965 0.055797644
0002d0 4b 95 a6 3d 76 36 80 bd e8 74 bc 3d 81 e9 bf bd
       0.08133944 -0.062603876 0.092019856 -0.09370709
0002e0 66 88 86 bd 1d e8 4b bd f5 77 94 3e d6 c1 39 3d
       -0.06568985 -0.049781907 0.2899777 0.045350872
0002f0 cb c8 08 3e 3a 03 e3 3d ab bb d0 3b 68 cb f6 3d
       0.13357846 0.110846 0.006370028 0.120505154
000300 14 39 73 be b4 20 45 3d ef 46 fc 3d c8 17 a5 3d
       -0.23752242 0.04812689 0.12318217 0.080611765
000310 31 cc 11 be 97 dc 07 be b8 7e 87 be 8a 2a b8 bd
       -0.14238049 -0.13267742 -0.26463866 -0.08992489
000320 f1 98 c2 3e 95 ba 64 3c 18 81 4f bd 0b ec aa bd
       0.3800731 0.0139605 -0.050660223 -0.08345803
000330 20 71 c4 3c 4e 42 1c 3e ab b4 81 3e 3e d0 f9 bd
       0.023979723 0.15259668 0.2533315 -0.12197922
000340 5d 5a 81 3e 3b 63 01 be d3 c6 65 bc 6d 2e 7d be
       0.25264254 -0.1263551 -0.014024454 -0.24724741
000350 2d 0b 66 3d 13 d2 95 3e 9d 7a 3b be 2d f5 8d bd
       0.056163 0.29261836 -0.18308492 -0.06931529
000360 c9 c7 50 3a ab f0 78 3d 06 87 cf 3d c5 c0 25 3e
       0.00079643406 0.060776394 0.101331756 0.16186817
000370 3b 95 9d bc ae b7 3d be c2 26 c5 3e 6b c3 fa bc
       -0.019236198 -0.185271 0.38506132 -0.03061076
000380 10 92 19 be a5 0e be 3e 5e 56 5f be 58 36 84 bd
       -0.14997125 0.37120548 -0.2181029 -0.06455678
000390 56 d6 ad 3b 37 2d 98 3c 03 38 cc bd 4b 1b 60 be
       0.005305092 0.018576248 -0.09971621 -0.21885411
0003a0 2e 38 29 be c8 80 79 be bf 39 b1 3c e4 dd 56 bd
       -0.16525337 -0.24365532 0.02163398 -0.052457705
0003b0 bf 12 f3 bd 8d 07 b1 bc fe cc 1e bd fc d5 72 bd
       -0.1186881 -0.021610046 -0.038769715 -0.059286103
0003c0 9b 9d c3 bd 14 71 3b bb fb 64 bf bd 9d 9a a6 bd
       -0.09551545 -0.0028601335 -0.09345432 -0.08134959
0003d0 e4 5b 35 3c d1 14 aa bd 5c 94 8f 3e 2f 24 8d bc
       0.011069272 -0.08304752 0.28042877 -0.017229168
0003e0 8f 27 d1 bd d1 96 a1 3d 77 ef 4b 3e 3a 31 55 be
       -0.10212623 0.07890094 0.19915567 -0.2081956
0003f0 31 b8 fe 3d 72 f0 5b 3d 0f c4 8a be f7 a9 da bd
       0.124374755 0.053696103 -0.27102706 -0.106769495

vertex_lin.0.bias f4 [32]
000000 97 dd b7 3b d0 4a 79 3c b0 a7 40 3d 34 d0 84 bd
       0.0056111324 0.015215591 0.04703492 -0.06485024
000010 fe b3 cd bc 74 61 54 bd 91 bd ea bb a6 46 82 3d
       -0.025110241 -0.05185075 -0.0071637114 0.06361131
000020 aa dc 09 3e 04 61 14 bd 53 86 2b be a0 4b 85 3d
       0.13463083 -0.036225334 -0.1675046 0.06508565
000030 ef 50 b8 3d b5 96 c0 3c a2 7e b4 bc b3 aa 86 3d
       0.08999812 0.023509363 -0.02203304 0.06575527
000040 de 71 f2 3d 47 2f d5 3d 3c 99 c5 bb 5c d5 c2 bd
       0.11838125 0.10409408 -0.00603023 -0.09513351
000050 33 87 be bd 95 dd 1e bd 37 98 fd ba e8 67 20 3c
       -0.09303131 -0.038785536 -0.0019347732 0.009790398
000060 ae ec 18 be 3c 70 7e 3d ab 6e 2d be 72 50 e7 bd
       -0.14934036 0.062118754 -0.16936748 -0.112946406
000070 08 5e 0c bd 7c 74 78 bd 0b 02 f5 3d c9 c0 68 bd
       -0.034269363 -0.060657963 0.1196328 -0.05682448

vertex_lin.2.weight f4 [32, 32, 1, 1]
000000 fe b0 91 3d 9b 25 be 3d c2 b5 60 3d f6 48 0d 3e
       0.07113837 0.092845164 0.054860838 0.13797364
000010 be e3 64 3e 6c 01 9f 3e 9d 71 0d 3e 62 24 01 bd
       0.22352502 0.31055772 0.13812871 -0.031528838
000020 de 0f aa 3e 5f 3d 8f 3e 92 77 2f be 21 6e 89 3e
       0.3321523 0.2797651 -0.17135456 0.26841834
000030 e2 fd aa 3d a6 75 69 3e 54 8f 4c 3c bc fd 22 bd
       0.083492056 0.22798786 0.012485344 -0.03979276
000040 5f 88 49 3e d5 2b 8a 3e 62 0a a9 3c 00 2c 08 3e
       0.19680928 0.26986566 0.020634834 0.13298035
000050 61 5d 4c 3d 31 a7 1c 3d fd 55 8e 3d d3 14 84 3d
       0.04989374 0.038245384 0.06949995 0.064492844
000060 1b a8 6a bc 00 e8 1d 3d 0d 9e 87 bc e5 97 eb bc
       -0.014322306 0.03855133 -0.016554857 -0.028758952
000070 3b f3 0a be a0 f2 78 bd 4b 0c 81 3d d7 46 33 be
       -0.13569348 -0.06077826 0.06301173 -0.17507492
000080 12 d7 59 bd 9c 71 82 be 4f 8e f9 bd 45 4f 4f be
       -0.053183623 -0.25477302 -0.12185346 -0.20245083
000090 b0 db 39 be f7 d7 68 bd 05 79 0c be f2 1f 7c bd
       -0.1815021 -0.056846585 -0.1371804 -0.061553903
0000a0 1e 25 46 be 39 d2 23 bd bd b0 1e be 7b c1 5f be
       -0.19350097 -0.039995406 -0.15497108 -0.2185115
0000b0 3c 83 d3 bd 09 e3 b1 bd 65 72 15 3d b9 ac 94 3d
       -0.10327765 -0.08685882 0.03648605 0.07259507
0000c0 f1 10 c8 3c 19 ac 07 be c9 d2 d6 bd 53 d9 64 bd
       0.02442214 -0.13249244 -0.10489423 -0.05587132
0000d0 0b 3b 8a 3d df 52 66 bd f2 0e 69 3e 87 e6 9f 3d
       0.06749543 -0.056231376 0.22759607 0.078076415
0000e0 c3 fe 04 be f0 7d 41 be 9f aa b7 3d 08 5f 69 3d
       -0.12987809 -0.18895698 0.0896809 0.056975394
0000f0 81 97 cd bd 4d 94 10 3e 76 fa b1 3d 7c f5 55 bc
       -0.10038663 0.14119072 0.0869035 -0.013059016
000100 45 fa ef 3c 1e 46 e9 3d 84 a3 39 3e be 90 68 3e
       0.029294142 0.11390327 0.18128783 0.22711465
000110 75 36 16 be 1c ca 96 3e 0a 0a 63 be dc 07 70 be
       -0.14669211 0.29451072 -0.22171798 -0.23440498
000120 5a 79 f1 3c 0d 93 8d be b7 3a a9 bd 0a 2f 24 be
       0.02947681 -0.27651253 -0.08263152 -0.16033569
000130 78 36 19 be 54 a9 8b bd 23 95 10 bd 0e bb 0b be
       -0.14962184 -0.06819406 -0.035298478 -0.13645574
000140 27 34 17 3e 77 72 6c 3e 6d 42 b0 be 14 27 9b be
       0.14765988 0.2309054 -0.3442568 -0.30303252
000150 31 96 82 be d1 c0 d0 bd de c6 06 3e b6 ef 90 be
       -0.25505212 -0.10193027 0.131618 -0.28307885
000160 7f bf 02 3e bc 33 d1 3d db 06 55 be e9 5e 00 be
       0.12768362 0.10214946 -0.20803396 -0.12536205
000170 0f f5 e5 3c d9 ca 19 3d 1a c5 cc 3d 35 02 6d 3d
       0.028070955 0.037546966 0.09998532 0.057863433
000180 57 84 00 3e 7b d5 e1 bd ef 3d c9 3c f3 80 45 be
       0.12550484 -0.11027046 0.024565665 -0.19287471
000190 2b 9f 12 3d c0 31 e6 3d ff 04 d3 bd c0 e7 54 3e
       0.035796326 0.11239958 -0.10303687 0.2079153
0001a0 71 04 73 be b6 39 d5 bd 6d 3d 39 bd 1c 35 dd bd
       -0.23732163 -0.10411398 -0.045224596 -0.108011454
0001b0 46 24 e2 bc 51 98 4c bd c7 31 05 3e fb 2f 35 3e
       -0.027605187 -0.049949948 0.1300727 0.17694084
0001c0 e3 ee de 3d 59 4d f4 3d b6 fa ec bd 87 c3 e0 bc
       0.10885408 0.119288154 -0.11571257 -0.027436985
0001d0 b0 00 89 be d8 0f b7 bc e5 d2 d9 bb cd 54 46 be
       -0.26758337 -0.022346422 -0.006647455 -0.19368286
0001e0 bb 4b f5 bd ef ce 8b 3e 0b ca 79 3d 4d b9 f0 3d
       -0.11977335 0.27306315 0.0609837 0.11754093
0001f0 40 6a 48 bc 8d 3f c0 3c 6d 94 76 bd 29 d3 e8 ba
       -0.012232363 0.023467803 -0.060200144 -0.0017763126
000200 27 fb 88 bd df 84 b3 bd ff fa a3 3d 5a 41 eb 3d
       -0.066885285 -0.087655775 0.08006858 0.11487074
000210 76 c9 d9 3d 46 5a a2 be 70 5a 62 be ba c4 b0 3c
       0.10634129 -0.31709498 -0.22104812 0.021578182
000220 f6 d6 fc bd 5d 0d d3 bc 07 08 aa 3d 3e e5 92 3b
       -0.12345688 -0.025763208 0.08302312 0.004482894
000230 1e 1c 81 3d 5c d3 01 be 6d e5 c0 3d 12 d6 10 3d
       0.06304191 -0.12678283 0.094187595 0.035360403
000240 33 05 82 3d b1 31 0f be e8 15 21 3e 6c 79 3e 3d
       0.06348648 -0.139838 0.15731013 0.046502516
000250 cb 88 ec 3d aa 7e 11 3e a5 f8 b2 bd bc 88 ba bd
       0.11549529 0.14208475 -0.087388314 -0.09108111
000260 e1 2c c8 3d c0 c3 bb 3c 7d 9b 22 3e 90 37 69 bd
       0.09774185 0.02292049 0.15879627 -0.056937754
000270 24 9d ad be 3b 5e 92 3d 83 17 0c 3e fc 23 54 3d
       -0.3390895 0.07146879 0.13680844 0.05179213
000280 4b 68 2e be e4 6e b9 bd ab 16 9e 3d 32 a3 90 bc
       -0.17031972 -0.09054354 0.07719167 -0.017655943
000290 53 1a 6f 3c dc 43 f2 3d 64 09 5c 3d eb d7 b8 be
       0.0145936785 0.118293494 0.053719893 -0.36102232
0002a0 1d a9 c8 3d 10 2c 1c bc 30 a0 c1 3d b3 17 be be
       0.09797881 -0.00953199 0.094543815 -0.37127456
0002b0 be f0 e8 3d 32 76 9f be 0e eb 32 be f0 5d 2c 3e
       0.11374043 -0.31144863 -0.17472479 0.1683271
0002c0 05 be 76 3d fa 32 08 bd ca 65 01 be 1c 23 5b bd
       0.06023981 -0.03325174 -0.12636486 -0.05350028
0002d0 11 6e 85 be 9a d2 32 be 96 6d dd 3c eb 5f d6 bd
       -0.26060537 -0.1746315 0.027029794 -0.10467514
0002e0 75 76 69 3e c2 ca 60 be f4 2c b1 bd 79 2a b8 3d
       0.22799094 -0.21952346 -0.08651152 0.08992476
0002f0 3b f6 a8 bd 12 28 5c 3d 92 04 5a 3e b3 12 22 be
       -0.0825009 0.05374915 0.21290806 -0.15827446
000300 ae f5 89 be f6 49 30 be 00 29 00 be ea e0 53 bd
       -0.2694525 -0.17215714 -0.1251564 -0.051728167
000310 37 09 83 be 07 fe 1c 3e c5 5f 68 be d5 a4 0a be
       -0.25592968 0.15331279 -0.22692783 -0.13539441
000320 93 ed 13 bc 6e b7 0b be 59 44 a4 3d 81 1a 45 be
       -0.00902881 -0.13644192 0.08020849 -0.19248392
000330 8f c8 84 3e ca f9 8d bd 4e a9 61 bd 82 f3 aa 3d
       0.25934264 -0.06932409 -0.055093102 0.08347227
000340 5e b1 c0 3d a0 7f 4c 3d 72 36 0f be 8b d7 2a bd
       0.0940883 0.0499264 -0.13985613 -0.041709464
000350 75 49 cb bd 0e 20 95 3d 60 bb c1 3d 11 0a 9c 3d
       -0.0992612 0.072815046 0.09459567 0.076191075
000360 4a d3 09 3e ee 00 04 be c1 e0 2d 3d b3 fc 95 3c
       0.13459507 -0.1289098 0.04245067 0.018308973
000370 9a 43 60 3b 36 cc 80 ba 9a 3d 27 bd 45 b7 16 be
       0.0034219981 -0.0009826485 -0.040830232 -0.1471835
000380 d1 35 21 3e 5e f6 ad 3e 13 f9 cb be db 2e 60 3e
       0.15743186 0.33977026 -0.39838466 0.21892874
000390 1c b2 02 3e e2 93 e7 3d 43 9d 9b 3d 47 a3 1f be
       0.12763256 0.11307503 0.07598355 -0.15589629
0003a0 ef 4b 85 3e ff 8c 31 3e c6 cc f6 bc a6 ed 47 3e
       0.26034495 0.17338942 -0.03012694 0.1952425
0003b0 40 2e 0f be a2 88 69 bd ff f7 71 be 5f eb 93 3c
       -0.13982487 -0.05701507 -0.23629759 0.01805657
0003c0 c7 4c 4f be 30 9c 55 3e d0 ca b9 bd bf 0f ae 3d
       -0.20244132 0.20860362 -0.090718865 0.08499097
0003d0 12 5e f4 ba 3c 86 51 be 5a dc 50 bd 13 d9 4f 3e
       -0.0018643758 -0.20461363 -0.050991394 0.20297651
0003e0 59 37 b0 bd ca 7a ba be f9 54 b4 bd ad df f2 3d
       -0.08604307 -0.36421806 -0.0880527 0.11859069
0003f0 52 63 2e 3d ba 56 6c bd 9e 54 66 be 23 86 be be
       0.042575188 -0.057699896 -0.22493216 -0.37211713

vertex_lin.2.bias f4 [32]
000000 f7 f6 a8 bd 81 1e c0 bd 11 2d 79 bd 27 f7 9c bd
       -0.0825023 -0.09380818 -0.060833994 -0.07664328
000010 f1 3c 8e 3d 46 b6 11 3d be 4c 42 3e 09 56 c6 3d
       0.069452174 0.03557422 0.18974587 0.09684379
000020 f0 e7 4a be d4 47 a2 bd 79 12 67 3d c0 3b 17 be
       -0.1981504 -0.079238564 0.0564141 -0.14768887
000030 87 df a3 bd b2 46 17 bc 5e 90 5e 3d ad 55 58 3e
       -0.08001619 -0.009233164 0.054336898 0.21126433
000040 91 43 42 3e 4c 26 3b be 79 61 e5 bd 48 75 58 bd
       0.18971087 -0.18276328 -0.11200232 -0.052846223
000050 11 81 2d bc 39 49 47 3e bf 0c a9 bc e6 48 08 be
       -0.010589854 0.19461526 -0.02063596 -0.13309059
000060 ff de 24 be 7f ba 41 3e b7 44 af 3d 7b 5a 38 3c
       -0.16100691 0.18918799 0.08558028 0.011252041
000070 3d b1 05 3d 92 b2 65 bd 7c 55 d8 3d 0b 1d 9a bd
       0.03263973 -0.0560785 0.1056318 -0.07525071

edge_lin.0.weight f4 [32, 1, 68, 1]
000000 1a 40 67 be fa 65 f2 bc 91 6d 91 3d 7c ad 3a be
       -0.22583047 -0.029589642 0.07100976 -0.18230242
000010 2e c8 af bc 14 4e 4c 3e 2a 6e 2c bd d9 25 5d bd
       -0.021457758 0.1995166 -0.042097248 -0.053991172
000020 c1 96 9f bc c7 9f 4f be 61 8a 5b be 36 28 31 3e
       -0.019481065 -0.20275794 -0.21439506 0.17300496
000030 87 65 ad bd d1 b1 92 bd 13 7c ab bd 3d 8d 5d 3e
       -0.084666304 -0.07162822 -0.08373275 0.2163591
000040 d4 39 e0 bb 5e 7f b2 3b f7 ec 22 3e f5 db cb bd
       -0.006842831 0.0054473123 0.15910707 -0.09954063
000050 4d 4a bb bd 77 08 93 3d 77 76 7a be 2b 94 e1 bc
       -0.09145031 0.07179349 -0.24459253 -0.027536472
000060 1a f6 8b 3d 68 80 40 3e 70 b5 30 3e b9 37 56 bd
       0.068340495 0.18798983 0.17256713 -0.052299235
000070 46 d7 b8 3d 6e 39 70 bd 7e 5e d5 3c 11 03 b3 3d
       0.09025435 -0.05864852 0.026046034 0.08740819
000080 c5 46 c7 be 13 52 33 3d ac 91 94 bd 1b d1 fd 3d
       -0.3892118 0.043779444 -0.07254347 0.12393399
000090 79 3d 8a 3d b0 c7 65 be 4e 82 8f bd 60 2e ef bd
       0.06750006 -0.22439456 -0.070072755 -0.11678767
0000a0 5b da d1 bb 6e f2 a8 bd 51 2d b1 bd d9 99 65 be
       -0.006404204 -0.08249365 -0.086512215 -0.2242197
0000b0 11 59 79 be 18 ee 89 3c 58 b1 06 be 09 51 0e bc
       -0.24350382 0.016837165 -0.13153589 -0.0086863125
0000c0 12 20 b8 bc 49 ab 3b 3e da 9d 51 3d 23 df 9d 3c
       -0.02247623 0.18327059 0.05117593 0.019271439
0000d0 41 f4 e2 3d 13 3f 85 be dd ea f3 bd 60 77 c9 3c
       0.11081744 -0.26024684 -0.11910031 0.024593055
0000e0 4f d6 7d be 6c ee d6 3c cb 31 bf 3d 3d 37 b8 3d
       -0.24788783 0.026236735 0.09335669 0.08994911
0000f0 3f 42 bf 3d 47 4b 07 be af 9d 32 3e 2c 79 b5 be
       0.09338807 -0.1321231 0.17442964 -0.3544401
000100 49 f1 12 3e 45 78 8e 3e a4 54 10 be cc 44 3e 3d
       0.14349855 0.27826133 -0.14094788 0.04645233
000110 a7 9d c9 bd aa fc 93 3c 3b 82 55 be 00 c1 19 3d
       -0.09844523 0.018064816 -0.2085046 0.037537575
000120 8a d2 0a bc b2 d7 1f be c9 e4 8a bb cd bc ca 3d
       -0.008473048 -0.15609625 -0.004238699 0.09899292
000130 7b 31 fb 3d 77 f5 da 3d 7e b4 ed 3c ea 46 89 bd
       0.12265297 0.1069135 0.02901673 -0.06702979
000140 22 8e ad bd 2a d4 1b 3d 83 3f dd 3d 5e d4 d2 bd
       -0.08474375 0.038044132 0.108031295 -0.10294412
000150 f5 05 4f 3d 55 c3 0c bd 75 77 01 3e 04 e9 26 bd
       0.05054279 -0.03436597 0.12643225 -0.040749565
000160 99 f1 15 3e 42 19 95 bd 4a 30 51 3d d8 11 c4 bd
       0.14642943 -0.07280208 0.051071443 -0.09573716
000170 b7 60 33 be 25 ae 7a bd d6 32 11 be d9 e0 76 3c
       -0.17517363 -0.061201233 -0.14179549 0.015068256
000180 29 0a 32 be ec b3 9e bc 6b ec 82 be 2f 7c 50 be
       -0.17386688 -0.019372903 -0.25570998 -0.20359872
000190 50 90 de 3e 73 bc 50 bd d2 21 0b 3d 7b 45 ee bd
       0.43469477 -0.05096097 0.0339678 -0.11634346
0001a0 0a a6 5d be bc 0a 52 bd 94 be 81 bd 0d 40 40 bd
       -0.2164537 -0.05127977 -0.06335178 -0.046936084
0001b0 d3 83 be bd 2c 28 c5 bd ca 14 81 bd bd f6 3d 3e
       -0.09302487 -0.09626803 -0.06302793 0.18551154
0001c0 2b e1 0b 3e 0f 24 24 be f2 eb ce 3d f2 4e 09 be
       0.13660114 -0.1602938 0.10103597 -0.13409021
0001d0 39 b7 89 3d eb 4f d2 bd fc 1f eb 3d 94 e1 60 bd
       0.067244 -0.102691494 0.1148071 -0.054902628
0001e0 c9 bd 02 3e 77 7d 2b 3c 56 c0 99 bd 46 53 bc 3d
       0.1276771 0.010466925 -0.07507388 0.09195571
0001f0 6e 56 9b bd 3e 68 ed bd 68 4d 84 3c 5f 3a 82 3d
       -0.075848445 -0.11592148 0.016150191 0.0635879
000200 df 6b c8 bb 76 24 07 be 52 d8 a0 3c 5b 48 92 3d
       -0.006116375 -0.13197502 0.0196344 0.07142707
000210 8c b7 6d be 8d fa 6f be 70 e3 10 3e 29 97 98 3d
       -0.23214549 -0.23435421 0.1414926 0.074507065
000220 d4 52 7b 3e 19 4d 81 bd bf 7f c6 bd d2 4d 2c ba
       0.24543315 -0.06313533 -0.096923344 -0.00065728754
000230 f8 1a 85 be 99 9a 51 be 53 37 fc 3d db eb 68 3e
       -0.25997138 -0.2046913 0.1231524 0.22746222
000240 5b c3 7c bd ce 57 bb bd 51 55 b0 be 78 fb 5a 3c
       -0.061709743 -0.09147607 -0.3444009 0.013365619
000250 24 55 2a 3d 5c fc 05 3d e1 ff 6c 3e 0b 39 ae 3d
       0.041585103 0.03271137 0.23144485 0.08506974
000260 6d 59 2d bd a2 84 0d 3d 2f 2d 42 bd 2c 76 8b bd
       -0.04232161 0.034550317 -0.04740637 -0.06809649
000270 61 88 37 bd f9 d3 5f be 9a 0b 32 3e 7c 7c 75 3e
       -0.044807795 -0.21858205 0.17387238 0.23973268
000280 48 cc 17 3e 5c ce 23 be f5 28 9f 3c 98 11 77 be
       0.14824021 -0.15996689 0.01942871 -0.24127805
000290 e4 c7 16 3e 04 08 ab be 11 a5 58 be 90 1b 6d 3c
       0.1472469 -0.33404553 -0.21156718 0.014471903
0002a0 bf cf e8 3c 6d b2 c1 bd 8a c9 94 3e 5a e5 f3 bd
       0.028419374 -0.0945786 0.29060012 -0.1190898
0002b0 27 9c a8 be 90 59 04 be 44 5d ba be 2c 87 8f be
       -0.32931635 -0.1292479 -0.3639928 -0.28032815
0002c0 67 3e ac bd 04 f2 6b 3e 3e 6d da bd 32 58 f9 3c
       -0.0841034 0.2304154 -0.106653675 0.030437563
0002d0 ef 80 17 bf 92 6b 7d be bc ef b3 bc df fd c1 bd
       -0.5918111 -0.24748066 -0.0219649 -0.0947225
0002e0 61 05 3f 3e ed 3d 2e bb 6d 32 ea bd 25 20 f0 bd
       0.18654396 -0.0026587204 -0.11435399 -0.11724881
0002f0 24 a5 fa bd 6b ad 81 be fb 61 84 3d 59 69 bb be
       -0.12238529 -0.2532762 0.06464001 -0.3660381
000300 d1 2e 00 3e 00 8c 19 3e 37 b2 8f 3d 17 d6 87 bb
       0.12517859 0.14994812 0.07016414 -0.0041453945
000310 78 8c 3d bd 06 fb c0 be be 00 d0 bc c6 69 eb be
       -0.04627654 -0.37691516 -0.025390979 -0.45979136
000320 32 ec 2e be 75 c6 f4 3d 65 7b 4a be 17 8b 67 3d
       -0.17082289 0.11951915 -0.19773634 0.05652913
000330 1d 4a 9e be 13 7f 77 3d d4 1f f9 3d 02 3b 15 be
       -0.3091592 0.06042392 0.12164274 -0.14573291
000340 15 96 6d bd c0 5f 5a 3e 45 f6 f4 3d 85 27 ad bd
       -0.058004458 0.21325588 0.11961035 -0.084548034
000350 a5 8b 14 3e 33 14 87 be 72 15 32 3e 54 88 d2 bd
       0.14506395 -0.26382598 0.17390993 -0.10279909
000360 e4 52 65 be ef 0b 58 be cb c4 01 be f5 22 be 3e
       -0.22394902 -0.21098302 -0.12672727 0.37136045
000370 3f 89 3c 3e a9 fc 7b bd 3e c3 96 bd 09 48 a0 3b
       0.1841173 -0.061520252 -0.07361458 0.0048913998
000380 f2 bf 28 be ac 67 22 3e 6c c8 26 be e9 a9 20 be
       -0.16479471 0.1585986 -0.16287392 -0.15689816
000390 2e f1 19 3d f6 e1 5d 3e 47 6c 28 be 69 88 a8 3d
       0.037583522 0.21668229 -0.16447555 0.08229143
0003a0 e2 7f cb bd 30 2f 12 3d 7d aa ca 3e f0 03 5a 3d
       -0.09936501 0.035689533 0.39583197 0.05322641
0003b0 9a 84 fa 3e a2 6d a6 3d da 14 95 be 8e c6 ca 3d
       0.48929292 0.081263795 -0.2911747 0.099011526
0003c0 95 ee 88 3e 1f 47 94 bc d2 d5 39 3c 5e 85 2c 3e
       0.26744524 -0.01810032 0.011342483 0.1684775
0003d0 ba f8 5c 3e a7 4f 0e be 76 cf 89 3c a2 ff 66 be
       0.21579257 -0.13897572 0.016822558 -0.22558454
0003e0 32 1d 11 bc fc 4c 1e be 29 8d b0 be cb 0b 3c be
       -0.008857058 -0.15459055 -0.34482697 -0.18363874
0003f0 81 c0 1a be bf 6d 67 3e 29 96 58 3d 02 de b1 bd
       -0.15112497 0.22600459 0.05287758 -0.08684923

edge_lin.0.bias f4 [32]
000000 90 be 8f 3c 91 d4 13 3e f9 17 aa 3d a6 ac b6 bb
       0.017546922 0.14436556 0.08305354 -0.0055747805
000010 18 e7 0c bc a2 d6 4f bd 3b a8 9a 3d 20 a5 d3 3d
       -0.008600019 -0.0507418 0.07551619 0.103342295
000020 79 3c cb bd 2d 66 27 3d 96 73 9e bc 91 83 a2 3c
       -0.099236436 0.040868927 -0.019342225 0.019838126
000030 3b 66 86 3d 85 b8 e9 3d b1 b8 8a bd 9d 10 ce 3d
       0.06562468 0.114121474 -0.06773508 0.100617625
000040 8c 24 fc bb 4c a0 d9 bd 73 cf 36 bd 21 49 f4 bd
       -0.0076947864 -0.10626277 -0.044631433 -0.11928011
000050 c1 d1 9b 3c 92 a8 80 bc 79 41 b6 3d 4b e4 f6 3c
       0.019020917 -0.01570538 0.08899207 0.030138155
000060 15 a0 09 3d 79 41 22 3c 29 23 c1 3d c7 74 c7 bb
       0.03359993 0.009903305 0.094305344 -0.006086919
000070 87 3e 5c bd ae 33 58 3a 3d db 19 3c e9 a7 36 3d
       -0.05377057 0.0008247447 0.009390649 0.044593725

edge_lin.2.weight f4 [32, 32, 1, 1]
000000 11 cf 94 3d a4 7e 31 be c8 92 91 be 7d 65 e2 3e
       0.07266057 -0.17333466 -0.28432298 0.44218054
000010 f4 bd a2 3c 9c 9f d0 3d 2e 49 b1 bb a0 e5 64 be
       0.019865967 0.10186693 -0.005410335 -0.2235322
000020 a1 b0 a2 be e5 2d 9c bd 7a 45 8d 3e 79 cc 61 3d
       -0.31775382 -0.07625941 0.2759207 0.05512664
000030 44 7d 0e 3e aa 41 37 3e 53 9c d9 3d 44 0e 4a be
       0.13914973 0.17896143 0.106255196 -0.19732004
000040 1f fc a6 3e fd 08 a5 bd 1f bd e9 3e c4 3e 94 bd
       0.32614228 -0.08058355 0.456521 -0.07238534
000050 1f 21 58 3e 9c d7 34 3e f7 dc 9f 3e 25 15 88 3d
       0.21106385 0.17660373 0.3122327 0.06644658
000060 5b 81 05 3f a5 c1 a7 3c d3 92 98 3c 9d 7d e5 3d
       0.52150506 0.02047808 0.018624699 0.112055995
000070 0a 7b 69 3e 13 92 e6 3e 5e a8 e2 3e ca 7b 63 3e
       0.22800842 0.4503332 0.4426908 0.2221519
000080 13 62 d2 bb ce 1b 1e be 28 ac a0 be fe 62 d0 3e
       -0.0064203828 -0.15440294 -0.31381345 0.40700525
000090 8a 63 0f 3e 94 de 91 3d b2 20 39 3e b6 cd 30 be
       0.14002815 0.071225315 0.18078879 -0.17265972
0000a0 35 53 01 be 5e 02 2c be 98 0f 91 3e 1a 90 51 bd
       -0.12629397 -0.16797778 0.2833221 -0.051162817
0000b0 3e 78 33 3e 2b dc a0 3e 42 ca 7f 3b 53 33 5a be
       0.17526338 0.31417975 0.0039030467 -0.21308641
0000c0 e4 19 a9 3e 27 b8 8d bb e1 55 f8 3e a8 fa 2c be
       0.33027565 -0.004324931 0.4850302 -0.16892493
0000d0 77 8b e7 3c 56 0d b3 3e 86 e0 0c 3e 58 93 bc 3e
       0.028264744 0.34971112 0.13757524 0.36831164
0000e0 0e ab 5c 3e f2 c6 7c 3d 83 bb 3d 3e f7 11 19 3e
       0.21549627 0.061713167 0.18528561 0.1494826
0000f0 fd 05 bd bd 3a fa 00 3f c4 46 fd 3e 19 ce da 3e
       -0.09229658 0.50381815 0.49468052 0.42735365
000100 6f 01 18 3e 5d 46 1f 3e 35 81 13 be 23 3a d0 bc
       0.14844297 0.15554185 -0.14404757 -0.025418347
000110 9f 40 d0 3d 23 93 4d 3d 39 59 86 bc 7b c1 13 3f
       0.101685755 0.05018915 -0.016399967 0.577171
000120 8d 71 69 3e 16 04 80 3d ea fc 6f bd 1d d9 eb 3d
       0.22797222 0.06250779 -0.058590807 0.115160204
000130 b7 93 bb 3d 7b bd 33 be 60 fe 2c be cc ea 43 bc
       0.09159034 -0.1755275 -0.16893911 -0.011957835
000140 4b e5 40 3e 6f 14 b7 3d 7d 40 69 bc 64 2c 04 bd
       0.18837468 0.08939444 -0.014236567 -0.032268897
000150 16 d2 a1 bc 2f 1a ce 3e 37 92 5c be f8 68 17 be
       -0.019753497 0.40254351 -0.21540152 -0.14786136
000160 ce e5 35 be 81 c0 8f 3d 8a d7 c8 3b a6 ba 93 bb
       -0.17763445 0.07019139 0.00612921 -0.004508334
000170 7e f8 26 be 64 47 7d be 9b ed 40 39 ed e1 93 be
       -0.1630573 -0.24734265 0.00018399062 -0.28883305
000180 c2 88 32 bd 01 09 af be 11 61 4f bd 26 5e e2 3e
       -0.043587454 -0.34186557 -0.05062968 0.44212455
000190 0e 4b 56 3c da b0 06 3c 85 7c 85 3d 2c fc a6 3d
       0.013079418 0.008220876 0.06517891 0.08153567
0001a0 86 3b f4 bd e6 29 ac 3d f1 33 a9 3e 53 aa 17 3e
       -0.11925416 0.08406429 0.3304744 0.14811067
0001b0 b5 49 65 3e cd 0e b7 3e 03 50 46 3d 2e 65 d5 bd
       0.22391398 0.3575348 0.04841615 -0.10419689
0001c0 9a 37 af 3e 41 67 42 be 7e 55 fb 3e e3 75 a9 3b
       0.34222108 -0.189847 0.49088663 0.005171524
0001d0 7c 4a e2 3a ac de 6c bc ba 17 98 3d 03 ca 3e 3e
       0.001726463 -0.014457386 0.074264005 0.18631749
0001e0 c6 ba d3 3e 30 ed 6c 3e 71 9f 49 3e 7b bf 9f bc
       0.41353434 0.23137355 0.19689728 -0.019500485
0001f0 11 c1 0a be 9d 52 8d 3e f5 91 74 3e b4 58 02 3d
       -0.13550211 0.2760209 0.23883803 0.031822875
000200 19 e5 09 3d 64 a3 60 3c a8 a0 ed bd 25 49 e8 3e
       0.03366575 0.01371083 -0.116029084 0.45368305
000210 f9 2d 2b 3e c5 7d 2f 3e d2 bd ed bb 20 1d 91 bd
       0.16716756 0.17137821 -0.0072552944 -0.07085633
000220 9e 34 78 bd 94 74 02 bd 9c ab 00 3f b5 ef 48 3e
       -0.060597055 -0.03184946 0.50261855 0.19622691
000230 00 c8 a5 3e b7 95 05 3f 90 df a9 bc 8c b8 37 be
       0.3237915 0.5218157 -0.020736486 -0.17941493
000240 e1 ff d0 3e 9d 1e a9 bc 2c 42 94 3e da 5d 2d be
       0.4082022 -0.02064448 0.28956735 -0.16930333
000250 bc 1b 32 bd 55 49 56 3e 3f 71 89 3e ea d5 88 3e
       -0.04348348 0.20926411 0.26844212 0.26725703
000260 08 e7 b5 3e 5d 32 50 3e d0 c2 8b 3e 79 b9 1d 3d
       0.35527825 0.20331712 0.27297068 0.03850696
000270 85 0d 92 3d 4c e5 05 3f 6c 53 b8 3e af 9f 2e be
       0.07131485 0.52303004 0.36001146 -0.17053102
000280 d2 4b 19 3c be 2d 4f 3e 81 66 09 be e9 ce 0d bb
       0.009356456 0.20232293 -0.13418008 -0.002163822
000290 50 99 26 be 92 d2 a9 bc 35 51 23 bd 8e 34 b6 3e
       -0.16269422 -0.02073029 -0.039872367 0.3558697
0002a0 62 7f 9f 3d 80 53 f1 3c 51 1c bc bd 56 83 72 bd
       0.07787968 0.029458761 -0.091850884 -0.059207283
0002b0 05 11 13 bd 0c 34 2a bd 98 84 74 3d d2 73 ec 3d
       -0.035904903 -0.041553542 0.059696764 0.115455285
0002c0 98 19 87 3d 80 97 1c 3e eb a3 85 be cc bd a3 bd
       0.065966785 0.15292168 -0.26101622 -0.07995185
0002d0 63 3d 14 3e 1a 5d c1 3e 62 10 f8 bd a3 0a 1c 3e
       0.14476542 0.37766343 -0.121125 0.15238433
0002e0 d2 c4 5b bd 5e 69 19 bc 77 c7 c9 bc 9e 37 5b 3e
       -0.0536545 -0.0093635 -0.024631245 0.21407935
0002f0 6e e9 4f bd 68 dc 44 bc d8 2b 90 3c 1f 80 e8 bc
       -0.050759725 -0.01201544 0.017599031 -0.028381405
000300 de 13 9d 3e 92 f1 a4 bd ac 6c b9 be e0 85 cc 3e
       0.3067922 -0.080538884 -0.36215723 0.3994589
000310 19 05 08 bd 1f 07 51 3d 75 60 5c bc de af 27 be
       -0.033207987 0.05103218 -0.0134507315 -0.16375682
000320 c1 c4 9e bd c7 25 8b 3d 19 00 e2 3e 11 50 a3 bd
       -0.077523716 0.06794315 0.441407 -0.07974256
000330 28 c5 ba 3e 99 d5 eb 3e d5 70 e2 bd c4 68 00 be
       0.36478543 0.460614 -0.11056677 -0.12539965
000340 f5 f5 93 3e 92 d4 32 be f7 b7 ba 3e 99 b6 93 bd
       0.28898588 -0.17463902 0.3646848 -0.07212562
000350 1a 9b 15 3d 7e 17 64 3e 61 c7 dc 3e be 1a cb 3e
       0.03652487 0.22274587 0.43120864 0.3966884
000360 c2 7b a1 3e fe 4b f9 3d 7f bb 5b 3e 99 00 50 3e
       0.31539732 0.121726975 0.21458243 0.20312728
000370 2e ab 7d be c1 4e a3 3e 69 55 de 3e bd f2 9c be
       -0.24772331 0.31896022 0.43424538 -0.30653945
000380 21 0f 83 3c a2 fe b2 bd f5 1c 3a be 45 d7 b7 3e
       0.015998425 -0.087399736 -0.18175109 0.35906425
000390 19 8c 14 3e 68 4b 53 3e d0 e1 b4 bd d5 67 a6 bd
       0.14506568 0.20634234 -0.08832133 -0.08125273
0003a0 a4 c8 0d be a6 b3 1d be c4 82 da 3e f5 59 e1 bd
       -0.1384607 -0.15400562 0.4267789 -0.11003486
0003b0 c9 9e 21 3e 1b b1 b7 3e c3 02 33 3e 94 05 40 bd
       0.15783228 0.35877308 0.17481522 -0.04688032
0003c0 ed 94 2e 3e 8c 45 08 be 6e a6 c7 3e d8 dc a9 3d
       0.17048998 -0.1330778 0.38994163 0.08294076
0003d0 f8 06 6f 3d 4b 7f 83 3d 2f 1b 2c 3e 67 ff 88 3e
       0.058356255 0.064207636 0.16807245 0.26757357
0003e0 4b 1c 7e 3e fb 67 d6 3d 0b e0 91 3e f7 e8 dd 3d
       0.2481548 0.104690515 0.28491244 0.1083545
0003f0 c9 52 92 3d dd f4 77 3e fd 50 fa 3e 1a 4f 98 3e
       0.07144696 0.24214502 0.48889914 0.2974785

edge_lin.2.bias f4 [32]
000000 75 a5 cb 3d 3c b7 56 bd 9d 79 01 3e b0 94 97 3d
       0.09943668 -0.05242084 0.12644048 0.07401407
000010 30 70 32 be 6e 44 6d 3d c7 df c0 bb d5 54 83 bd
       -0.17425609 0.057926588 -0.0058860513 -0.06412665
000020 b1 c8 98 3b 9f f0 83 3d b9 1e 3a be fb 85 1d bd
       0.004662596 0.06442379 -0.18175782 -0.03845785
000030 49 dc 1c be 89 bd fb 3c 66 ab 61 3d fc b1 31 3e
       -0.15318407 0.030730026 0.0550951 0.17353052
000040 8b 05 25 bd 70 7a 28 be 11 8e 08 3d ec e4 27 bd
       -0.04028849 -0.16452956 0.03333861 -0.0409898
000050 92 4e 21 3e 51 48 16 bd 44 2c bc bc 5c 1e d1 bc
       0.15752628 -0.03669006 -0.022970326 -0.025527172
000060 1c e0 44 3d 6d 6c 33 3d b1 44 3f 3c 9d 5f 91 3d
       0.04806529 0.043804575 0.011674092 0.07098315
000070 b9 87 81 bd d8 5b ab bd bf 4f bc bd 1f 1f 40 bb
       -0.06324715 -0.08367127 -0.09194898 -0.0029315425
