reachability_classification/weights/Separateq0qgqkckMultiplePassGNNReachabilityNet_epoch_2.pt (torch_old, 53383 bytes, 26 tensors)

x_lin.0.weight f4 [8, 1, 1, 2]
00000000: c572 be3d 457f bcbd e71b 1cbe cbdc 28bf
00000010: 208a acbd fd71 493f 1128 b1be 32c3 ba3e
00000020: bc1c e83d 1fb2 b7be 3a0b 3bbf ac8c 433e
00000030: a73a aebe 974c 3fbe 9f58 f3be 1588 763e
0.09299234 -0.09203962 -0.15245019 -0.65961903 -0.08424783 0.7868956 -0.3460088 0.36477047
0.11333606 -0.35878083 -0.73064005 0.19096631 -0.34029123 -0.1868156 -0.4752855 0.24075349

x_lin.0.bias f4 [8]
00000000: 3ece 963e a6f6 153f b323 e4be 192e c43e
00000010: 7fb3 17be 107f 063f 7e0b ffbe c3f8 ff3d
0.29454225 0.5857948 -0.44558486 0.3831642 -0.14814566 0.5253763 -0.49813455 0.124986194

y_lin.0.weight f4 [8, 1, 1, 2]
00000000: ab08 243f 6ffa 463e 6b3c ed3e 7512 143f
00000010: def3 953d 432c 343f 2004 053f b402 01bf
00000020: d63b fbbd 16f5 1fbf d3ef 58be a06a 8bbd
00000030: 25ae 2fbf 67e5 963d 399b 893e a91d 203e
0.64075726 0.1943147 0.46335158 0.57840663 0.073219046 0.7038004 0.5195942 -0.5039475
-0.12267272 -0.62483346 -0.21185236 -0.068074465 -0.686251 0.07367974 0.26876238 0.15636314

y_lin.0.bias f4 [8]
00000000: 12f0 11bf af31 973e 72ee dbbe 23cf 80be
00000010: 9b47 6d3e 4a12 32be 6b68 113f 9bb0 b5bd
-0.57006943 0.29530093 -0.42955357 -0.25158033 0.23171847 -0.17389789 0.56799954 -0.088715754

th_lin.0.weight f4 [8, 1, 1, 2]
00000000: d12f f3bc 44b6 283e d705 b63e 5423 003f
00000010: 14c6 7abd 8df4 84bf 2730 33be b52f bc3e
00000020: 10eb aa3e 69f3 02bf 09ea 6fbe 55e7 f3be
00000030: ee36 003f 6c34 f73e a06f d9bb beb9 8dbf
-0.029685887 0.16475779 0.3555133 0.50053906 -0.06122406 -1.0387131 -0.17498837 0.36755148
0.33382463 -0.51152664 -0.23429121 -0.4763743 0.50083816 0.48282182 -0.006635621 -1.1072309

th_lin.0.bias f4 [8]
00000000: 1024 bc3e 9c92 9e3d 9e57 763e e780 a4be
00000010: 98ba fd3d ba86 25bf 8f57 38bf 62a7 723d
0.36746264 0.07742807 0.24056861 -0.32129595 0.123891056 -0.646587 -0.72008604 0.05924166

config_lin.0.weight f4 [32, 24, 1, 1]
00000000: aea3 9f3e 7ee2 83be 6316 acbe 2057 3cbe
00000010: 3339 fcbb 60b2 1c3c d701 40be 5dbe 683e
00000020: d42c 093e 02c3 2bbe 6e34 52bd fa76 5c3e
00000030: 686c 93bd d2ac d2bc 63b5 83be 748f 2fbe
00000040: 80b1 703e 1e9c 1cbe fbd1 243c e15d 5d3d
00000050: 0584 1d3e abc0 3b3e c42b 423e 7f6e b03e
00000060: 89fb 0bbe bad8 8ebd d3af 2c3e f047 933e
00000070: f6ca ffbc e4ec 873e 993b 3a3e a1dc 8a3e
00000080: c93b 41be c7ed 98bc 6372 a93e 8bae 1cbe
00000090: 92cc b1bc ca61 aa3c 0957 643e 2462 c0bd
000000a0: a403 283e 662c 81bc 8cee 003e 8396 84bd
000000b0: d0d6 9cbb 2cf8 2e3d a40f 5cbd 394b af3e
000000c0: 0ced 9f3d 9e8a 513e 9d41 cebd 3e04 1d3e
000000d0: c47a 30be 6460 c0bc 2660 cbbd 6627 30be
000000e0: bc4d b13d 2072 5ebe 6e92 773d 4b1e dc3d
000000f0: 29b1 6c3e 1658 3a3e 50d1 1fbe 5a55 0b3e
00000100: 43ca e33d 88f2 a03b 723d 83be b1d3 4dbe
00000110: e2db 443d b221 45be ecf6 023d 3904 adbe
00000120: f923 bcbd 24e5 d93c 140e 1bbe 9962 33be
00000130: d1be 243d 80d1 1bbe 015c e2bc c145 f2bd
00000140: 5a37 9abc ac0d 1b3e e809 013d 1618 ca3d
00000150: a78b 013d 17a7 50be 4e34 813d 7ada b9bc
00000160: 0b0e e1bd cb08 9f3d 53dc 1cb8 c9b2 90bd
00000170: 34f1 80bd 4fa1 623d 087e 6f3d 2f1d 52be
00000180: 856d 4c3e bebb be3d 70f3 adbc f0ce 073e
00000190: f9e1 5a3c 5b5f 0a3e 5051 7dbe 0fa9 d5bd
000001a0: a3d7 fd3d 2dab a53e 6153 0e3e 2c3c f6bd
000001b0: 266f 83bd 2f48 5c3c 2bec 97bd 17dc cd3d
000001c0: ca57 42be 7280 4abe c81f 453e 8916 99be
000001d0: 9bc1 ca3e 71ef c83e e960 d2bc 8001 fd3e
000001e0: a327 2f3d 85f6 1b3c 88db 5fbe 2a06 7cbd
000001f0: 7b22 1c3e cf2f 9a3c 474a 023e 6805 69be
00000200: ac5e 6e3e f258 953d a818 22be e574 cebd
00000210: 71a2 2dbe c3ab 3abe 78dc 0b3e 6304 03bd
00000220: bd1c 8b3d 7b2a 82bd fa4b 983b 2b89 423d
00000230: 4357 bebe 8f4b 6cbd 095c 613e 6af2 98bd
00000240: 772c da3d 1b1d a23d 052c 873e 44b1 033d
00000250: 24a0 9ebd 0cd3 abba ed4f c3bd 1fb3 80be
00000260: af75 b1bd 175c 693d 7ced 1ebe b7b2 3f3e
00000270: 56d3 63bc 0213 8dbd 1c45 1d3e 8c82 083e
00000280: ad49 383e 1e68 a0bd 7c56 a4be d49f 0d3e
00000290: d0f9 aabe 3ade 25bd 886e 3f3e be30 e3be
000002a0: 56f9 0e3e 280a 4e3e a27d 033e 5f51 263d
000002b0: 227c 99bd 0659 753c 31b7 ab3d 6984 ebbd
000002c0: aa6e a9bd d0f7 7bbb eed7 213e 98ca ff3d
000002d0: 97ed 1c3e 8dbb 703e a2f5 d6bc a972 0cbe
000002e0: 6c11 5dbd 66bc 16be 48d6 b13d 2760 a2bd
000002f0: 6fdc 30bd 41d8 02be 07a5 c23d 24c2 44be
00000300: 27d2 cbbd 5974 923e d6b4 18be 14f2 cdbe
00000310: 2a7e 933e 00e4 b23d 2efb 463e 936d 9dbe
00000320: 9558 0d3e db3c 5abe a376 37be 92df 4abe
00000330: 9645 a2bd d433 063e a62a 193e 4402 043e
00000340: a461 053e b4d5 8f3c eaec 3c3d f903 203d
00000350: 7e4e 31be 9366 3bbe 833b 0ebe 0fb7 f43d
00000360: 62e1 883e 0615 663e dd2d 66be e30a 39be
00000370: e959 01bd 6377 a03d c147 99bd 47e2 8bbc
00000380: d511 98bc 8a02 373e ae0d 0a3c 74dc 023e
00000390: 3af7 b6bd f2b1 e3bd 1047 17be 0648 23be
000003a0: d356 033e 34b6 043e 1e99 493e c041 2d3e
000003b0: 6e2b 803e b0eb 443d 5c0b 2abe d53c b73e
000003c0: cfc1 1fbe 7f94 753e 8770 723e 8474 6abd
000003d0: ed50 76be 0081 4a3d b7b6 ddbd 9a65 463d
000003e0: 33db 6a3d c542 243d a221 80bc e54f 033e
000003f0: 61da 3f3e 4abd afbc 8f16 49be 054e 003e
0.31179565 -0.25758737 -0.3361083 -0.1839261 -0.0076972484 0.009564012 -0.18750702 0.22728868
0.13396007 -0.16773608 -0.051319532 0.21529761 -0.07198411 -0.025717173 -0.25724325 -0.17144567
0.23505211 -0.15293929 0.010059829 0.054044608 0.15382393 0.18335216 0.18962008 0.34459302
-0.13670172 -0.06974931 0.16863947 0.2876582 -0.031224709 0.2654792 0.18186797 0.27121451
-0.18870462 -0.018668069 0.33095083 -0.15300958 -0.021703992 0.020798583 0.22298826 -0.09393719
0.16407639 -0.015768241 0.12590998 -0.0647402 -0.00478635 0.042717144 -0.053725854 0.34237078
0.07808885 0.20463035 -0.100711085 0.1533365 -0.17234331 -0.023483463 -0.09930448 -0.1720253
0.08657405 -0.21723223 0.06044238 0.107479654 0.23114456 0.18197665 -0.1560719 0.13606778
0.11122563 0.0049117245 -0.25632817 -0.20100285 0.04806126 -0.19251135 0.031973764 -0.33792284
-0.09186549 0.02659852 -0.15142089 -0.17518081 0.04022104 -0.15216637 -0.027631762 -0.11829711
-0.018825222 0.15141934 0.031503588 0.09867875 0.031627323 -0.2037624 0.063088045 -0.022687186
-0.109890066 0.07765349 -3.739849e-05 -0.070653506 -0.06296006 0.055329617 0.058469802 -0.20518945
0.19963653 0.09313153 -0.021234244 0.13262534 0.01335954 0.13512938 -0.2473805 -0.10432636
0.12394645 0.3235716 0.13898994 -0.120231956 -0.06417684 0.013444944 -0.07418092 0.100517444
-0.18978801 -0.1977556 0.19250405 -0.29900005 0.39600834 0.3924518 -0.025680976 0.49415207
0.04276241 0.009519224 -0.21861088 -0.061529316 0.15247528 0.018821625 0.12723647 -0.22755969
0.23278302 0.072923556 -0.15829718 -0.100808896 -0.16956498 -0.18229584 0.13658321 -0.031986605
0.06792591 -0.06355759 0.004647729 0.047494095 -0.3717595 -0.057689246 0.22007765 -0.07468112
0.10653012 0.07915708 0.26400772 0.032151476 -0.07745388 -0.0013109162 -0.09536729 -0.2513666
-0.086650245 0.05697259 -0.1552028 0.18720518 -0.013905367 -0.06888391 0.15358394 0.1333105
0.17996855 -0.07832359 -0.32097232 0.13830501 -0.33393717 -0.040495135 0.18694508 -0.44373125
0.13962302 0.20121062 0.12840894 0.040604945 -0.074943796 0.014974838 0.0838455 -0.114998646
-0.082730606 -0.0038447268 0.15805027 0.124898136 0.15325008 0.23509045 -0.026240174 -0.13715614
-0.053971693 -0.14720306 0.08683449 -0.07928496 -0.04317897 -0.12777807 0.09504133 -0.19214684
-0.09952193 0.2860439 -0.14912733 -0.40223753 0.28807193 0.08734894 0.19431755 -0.3074766
0.13803323 -0.21312277 -0.1791635 -0.19811848 -0.07923429 0.13105708 0.14957675 0.1289149
0.13025528 0.017557956 0.046124376 0.03906629 -0.17315099 -0.18300848 -0.1388989 0.11948978
0.26734453 0.22468957 -0.22478433 -0.18070559 -0.031579886 0.07835271 -0.07484389 -0.01707567
-0.01856319 0.17872062 0.008426113 0.12779409 -0.089338735 -0.11117925 -0.14773202 -0.15945444
0.1282609 0.1296013 0.19687316 0.16919613 0.25033134 0.04807633 -0.16605896 0.357886
-0.15601276 0.23982428 0.23675738 -0.057240024 -0.24054308 0.04943943 -0.10825866 0.04843674
0.05733795 0.04010274 -0.015641037 0.12823446 0.18735649 -0.021452565 -0.19637512 0.12529762

config_lin.0.bias f4 [32]
00000000: 0fda 663d 8b55 313e 191c 45be 99bd 123e
00000010: 4f6c 363e a4fb 77bc 9b47 293e 8fa2 34bd
00000020: 4c55 3cbe a1f0 96bd f21a 95bd 1914 ba3d
00000030: ff0c 9bbd aca0 22bc 9877 b1bd d31f 8e3e
00000040: 14d5 073e 469a 08be 27e4 2fbe d094 7a3d
00000050: 10f2 0c3d 0544 16be a7d5 8dbc ae10 a4bd
00000060: 64a9 283d 2ce8 193e 08c6 cdbc 6787 dd3d
00000070: 5f01 4c3e 2295 e4bd 524e f53d c1f3 013e
0.0563603 0.17317788 -0.19249 0.14330138 0.17814754 -0.015135679 0.16531222 -0.04410034
-0.18391913 -0.07370115 -0.0728053 0.090858646 -0.07570838 -0.0099260025 -0.08665389 0.27758655
0.13264877 -0.133401 -0.17176877 0.061177075 0.034410536 -0.14674385 -0.017313791 -0.08010994
0.04117717 0.15029973 -0.025118843 0.108168416 0.19922398 -0.11161257 0.11977829 0.12690641

config_lin.2.weight f4 [32, 32, 1, 1]
00000000: 9651 4bbd 54e1 ca3d e3db 8c3d 0069 a2bd
00000010: 1822 413e 0525 23be 7d4d b4bd ef06 653d
00000020: 36a5 86bd b27d 043e af5a 91be bef5 b63b
00000030: 06d2 cdbd 9dd8 8cbe 1740 143d b3fa bc3d
00000040: ae00 acbd a803 923d f383 3cbe 5f6c 0bbd
00000050: 5488 323e 5ff5 693e b959 dcbd 48ad 953c
00000060: 7d5e dcbd c26a 733e 4a84 623e 608d 5abd
00000070: bea7 033d 08ad 633d d757 a4bd e08c 10be
00000080: faae 0a3e 9607 a43d 9ea0 433d 1a01 2e38
00000090: 154c 6d3e bf18 173e 960a 96be 709e 003e
000000a0: c4f4 043e 3a3f 713d 6386 513d e4a5 1dbe
000000b0: 1cf7 fc3d c8be 1e3e fa92 473d 2550 903d
000000c0: a1be cebd cec9 82be 2673 d9bd 1100 f1bd
000000d0: d497 b13d 5583 303e 9566 b63d 2883 5b3d
000000e0: a9fc 0bbe 6388 703d 254d 743e cbd5 c83d
000000f0: bc20 36be 3303 b03c 2997 32bd 410d 543e
00000100: 0aef b5bd 0333 af3d 52f7 8cbd 2baa 86bd
00000110: b057 533c d5b1 02bd 3b9c 573d 6deb 753d
00000120: 7cd8 963d ed9c 8bbe e431 383e 9fa8 333d
00000130: bb3b fabd 9d84 3f3e 6e26 733d 8b95 a0bc
00000140: a171 eabd 7f74 ddbd 2734 043e ac91 5f3d
00000150: 7efd a63c bfc8 67bd 0347 fabd 6750 1ebe
00000160: a67d f13d 80e2 eabd 1dff 80bd 8b66 0a3e
00000170: 2b6e 88bd 67e1 cd3d 5337 6f3d 39e7 b23d
00000180: 23ef 1f3e edcd cabc be23 2ebe 5731 e53d
00000190: c1e8 3cbe 4598 d3bb ce0f 723d e7d6 4cbe
000001a0: 0fcf 9fbb 84cf 853e 57cd 33be dab1 c53d
000001b0: 2c02 99be f7ae a3bd b4c7 04be 155d 0cbe
000001c0: 232d 2bbe 13d7 1e3e 0b40 e8bb 6c0f 673e
000001d0: 1cbc dabd a4b8 853c 3b90 4fbe 760d b23b
000001e0: 206a 5ebe 546a 5a3e 1a63 a73c ab14 9cbc
000001f0: e353 133d 07d4 343e 47ab 223e c77e 1a3e
00000200: 961f 43bd 43a6 b4bd 18d1 1e3e b26d 0fbe
00000210: 5b47 c9bd 0f78 3dbd 1e31 84bd 2a3a 393d
00000220: f8b5 38bc bcd5 f1bd 9e65 a63d 2e75 afbe
00000230: 6c71 c1bc f1e7 77bd 6ae6 eebd 5b5d 74be
00000240: 66a8 293e 880a 953b b266 d73d b47e 993d
00000250: 060b ba3c 4b4c ebbc 7f08 2d3e 43a0 73bd
00000260: 8da4 923d d36b 05be 8235 8b3d 1cc3 a5bd
00000270: 7c0b f6bd f455 d33d fdb7 65bd b804 113c
00000280: b41b 6abe dd06 6ebe ed36 a93d 9f88 1a3e
00000290: 7ed5 a43d 3f8b 1dbe 37c1 a3bc 2cf7 463e
000002a0: 9dfb 1f3d 2d18 e83b 2c03 0a3e b090 e93d
000002b0: 9d38 bb3d 3fae 6b3e 4d93 2a3e 93da 26be
000002c0: bb06 1a3e 3779 04be d752 873e f0eb 3ebd
000002d0: a469 093e c464 1ebe cbd5 1a3e affe 603d
000002e0: e799 ce3d 5327 b23d d354 b4bd 22c9 8abc
000002f0: 1517 8d3d 3829 803d 4533 273e ef58 883d
00000300: 04be 60be 4cb8 06be 66d4 e3bd 163c 1ebe
00000310: 17be 9cbc f49f 2bbe e433 283e 90ed 333d
00000320: 8b9c 283d 732c b5bd 2550 0c3e 3cf7 323e
00000330: ee33 60bc 40b2 d93d f946 37be 6959 09be
00000340: 4888 b4bd 8f14 ac3d b817 91bd 2c8a 3fbe
00000350: 6c88 143e 4f15 2b3d 4701 e6bd 2e4b 59be
00000360: 46bf dc3d 9ec6 cbbd aa5e 13be 2e76 d6b8
00000370: ad80 473d a416 173d 1ebf 193e 289a 2a3d
00000380: b14d 51be 1410 5c3e a642 5dbe 9421 a4bd
00000390: 996f 8d3c 6ca6 5b3e 4c06 e03d 685c b13d
000003a0: 369a 68bd 3ae3 be3d 5210 6dbe dae2 e23d
000003b0: f9f2 28bd c40d 13be dc65 7bbd 024f 8a3d
000003c0: bd49 babd b562 08bd 3d59 123d eb99 b33c
000003d0: 3a61 92bd 6a80 a73e 47b3 97be 7963 08be
000003e0: 4550 82be 1e6c a5bd 3e57 6abd df5f 2e3e
000003f0: d4bf a23d eb75 cfbd e7e0 4ebd 3c8b 61bd
-0.049638353 0.09906259 0.068778776 -0.079301834 0.18860662 -0.1593209 -0.08803842 0.055914816
-0.0657448 0.12938574 -0.283895 0.005583494 -0.100498244 -0.27509013 0.036193933 0.092275046
-0.08398567 0.071296036 -0.1840971 -0.034038898 0.17434818 0.22847508 -0.10759301 0.018271104
-0.1076021 0.23771194 0.22120777 -0.053357482 0.032142393 0.055584937 -0.080245666 -0.1411624
0.13543311 0.080092594 0.0477606 4.148586e-05 0.23173554 0.14755534 -0.2930495 0.12560439
0.12983996 0.05889819 0.05115355 -0.15395314 0.1235182 0.15502465 0.048724152 0.07046536
-0.10094953 -0.2554459 -0.10617666 -0.11767591 0.08671537 0.17237599 0.08906285 0.053591877
-0.13670601 0.05872382 0.23857553 0.09806403 -0.17785925 0.0214859 -0.04360119 0.20708181
-0.08883484 0.085546516 -0.0688311 -0.06575426 0.012899324 -0.031907875 0.052639227 0.060038973
0.0736551 -0.27268162 0.17987782 0.04386198 -0.12218424 0.18702932 0.05936282 -0.019602558
-0.11447454 -0.108132355 0.1291052 0.054582283 0.020384546 -0.05658793 -0.12220576 -0.15460359
0.11791544 -0.11468983 -0.06298659 0.1351568 -0.06661638 0.10052758 0.05840237 0.087355085
0.15618567 -0.024756396 -0.17005822 0.111910515 -0.18448164 -0.006457361 0.059097104 -0.20003854
-0.004876978 0.26134884 -0.175588 0.09653063 -0.2988447 -0.07992356 -0.12966806 -0.13707383
-0.16716437 0.15511732 -0.0070877126 0.22564477 -0.1068041 0.016323395 -0.20269863 0.0054337336
-0.21720171 0.21329623 0.020432997 -0.019052824 0.035968672 0.17659007 0.1588565 0.15087424
-0.047637545 -0.088207744 0.1550945 -0.14006689 -0.09828063 -0.046257075 -0.06454681 0.045221485
-0.0112738535 -0.11808345 0.08124851 -0.34269089 -0.023613654 -0.06052393 -0.11665042 -0.23863737
0.16568145 0.0045483746 0.105176345 0.0749487 0.022710335 -0.028722903 0.16897772 -0.05947901
0.07160292 -0.13029413 0.06797315 -0.08093855 -0.12013909 0.10319129 -0.056083668 0.008851223
-0.2286213 -0.23244806 0.082624294 0.1509118 0.08048533 -0.1538515 -0.019989593 0.19430226
0.039058316 0.00708296 0.13477772 0.1140455 0.091416575 0.23015688 0.16657753 -0.16294317
0.1504163 -0.12936865 0.2643039 -0.046611726 0.13419205 -0.15468127 0.15120618 0.054930385
0.10087948 0.08698907 -0.088052414 -0.01694161 0.06889168 0.06257862 0.16328152 0.06657588
-0.21947485 -0.13156241 -0.11124496 -0.15452608 -0.01913361 -0.16760236 0.16426045 0.04392773
0.041164916 -0.08846369 0.13702448 0.17477125 -0.013684256 0.106297016 -0.17898168 -0.13413014
-0.08815056 0.08402359 -0.07084602 -0.18705052 0.14505166 0.04176837 -0.112307124 -0.21220085
0.1077867 -0.099499926 -0.1439158 -0.00010226328 0.0487067 0.036886826 0.15014312 0.04165092
-0.20439793 0.21490508 -0.21607456 -0.08014217 0.017265128 0.21450204 0.10938701 0.08660203
-0.056787692 0.09320684 -0.23150757 0.11078425 -0.04124734 -0.1436072 -0.061376438 0.06753351
-0.09096096 -0.03329726 0.035729636 0.02192398 -0.07147451 0.3271516 -0.29628965 -0.13319196
-0.25451866 -0.08077262 -0.057212107 0.1702876 0.079467446 -0.10129913 -0.050507452 -0.055064425

config_lin.2.bias f4 [32]
00000000: ada8 6d3d a4f8 c43d c9a2 b8bd 01d3 7bbd
00000010: 14af b33c 7a6e 293d 3efb 9abc 8308 f4bc
00000020: 3680 d3bd 482d b8bd f124 123e 5057 08be
00000030: 1a60 23be f45a ffbc 6b8a 203e 8a9d bbbb
00000040: 90af d8bc 34a8 a8bd 477f cdbd 1108 053e
00000050: c204 ab3d b285 13bd 9f9a 123e 7b40 283e
00000060: c8db 83bd 7bdc 543e 7809 84bd 9537 0bbd
00000070: a29b bd3d c72a e6bd 6ee4 a83d b9bc bb3b
0.05802219 0.09617737 -0.09015424 -0.061480526 0.02193407 0.041365124 -0.01891863 -0.029789215
-0.10327189 -0.08993012 0.14271905 -0.13314557 -0.15954629 -0.0311713 0.15677802 -0.005725567
-0.026450902 -0.08235207 -0.10034042 0.12991358 0.08350517 -0.036016174 0.14316796 0.16430847
-0.06438404 0.20787232 -0.064471185 -0.033988554 0.092582 -0.11238628 0.082466945 0.0057292846

vertex_lin.0.weight f4 [32, 64, 1, 1]
00000000: 2aad 27be 445c e83c 3e42 a03d 6ee0 7dbd
00000010: b955 ff3d ce74 a93d 1bd2 9f3d d47a 72bd
00000020: 231d 7bbd 56c5 26be 161a 39be 77bb 203d
00000030: 4be8 003e 6ef3 1c3e 807b 49be 0dad 833d
00000040: c971 1dbe 3b26 fb3d 03f1 ec3d e4fb cd3d
00000050: ccfd ff3b 366a 0d3e b7dd c63c f953 223e
00000060: 3048 93bd 5f42 d2bd e16c 063d 09ac 9dbd
00000070: 8d98 f43d 6fb7 d93d dddc 843d 9ba5 8f3b
00000080: 0cd7 733e 1aa6 063e d869 90bd 9522 5c3d
00000090: a661 1cbe bf1f 753d 14df 21be 0029 a93d
000000a0: 3d0b 3e3e caf3 633e 55d3 c23d 70ce 15be
000000b0: 20d8 b4bc c402 013e 9e8f 733d 6d62 1ebe
000000c0: 1a2a 6b3d b6c5 14be a9eb 05bd 5403 33be
000000d0: 2fa6 11be 662f 3dbd d303 553d c56e ad3e
000000e0: 5f5a abbd 143c 99bc ee1f aebd fc2e babc
000000f0: c39d b13d 68be 7cbd 47d2 aebc 9cf3 2b3d
00000100: 38ee 49be 6288 f0bb 946c 7e3d ef60 223e
00000110: 1846 3b3d aeb3 63bd 182d 653d e450 ca3d
00000120: 6130 8a3d da68 ad3c 34db dc3b cc83 c93c
00000130: 649b 0ebd 826d cc3c 2cd8 503e 9c81 dcbd
00000140: 8246 a0bd 8ff6 7a3b b992 97bd c726 943d
00000150: 4931 8fbd d78d af3d f7dc 21be 57d9 ba3c
00000160: b355 3a3b b21f 96bd aaaf a83d 30bc 4a3e
00000170: 931a cc3d 925a bc3d 5de7 f93d d73b b13d
00000180: 67d4 af3d b150 9b3d 297e eebc 6244 063d
00000190: e45b d7bd f50d 70bd e5b1 993c 6614 75bd
000001a0: 1b09 1d3c 1205 acbc 9ea1 05bd 6d7e 8e3c
000001b0: e512 0cbe efb5 e63d 2045 eb3d 6142 223d
000001c0: a562 d9bd 92df cf3d 9b11 01bd c8e8 6cbc
000001d0: 708d 213c ae99 9d3d e29c 203d 0b2c 423d
000001e0: 1478 cfbb bc96 dd3d a48e b33d 1403 b3bd
000001f0: 5efa ebbc d6df f9bd 108c 0bbd deb9 b5bd
00000200: a5a5 8fbd 3753 aebc 6308 0d3d 6b46 23be
00000210: 7068 aebd 983f 0e3d b0e6 063e ed94 e23d
00000220: 38c5 fe3d c797 9b3d 7859 853d 41bd d5bd
00000230: 6fb0 a03b 8593 b7bc 8e70 2dbe f2b3 64bd
00000240: 2f82 70bd 7dcc b43d 3478 b03c 8fbb c3bd
00000250: 23bc da3c f649 20bc 2b4f 5a3d ff31 803d
00000260: cb5b c5ba ffe1 7e3d b68a e6bd e3c9 23be
00000270: 651e ab3d 791a b63d 1567 02be 4375 893c
00000280: 35d7 eebd 646b 9ebc 3fc6 9abb 8d3c 5c3d
00000290: ecc1 81bd 93a6 d3bc f3e3 c23c 85de a3bd
000002a0: c2ed 1c3d 01ca 0abe 1de3 c5bd dacd ddbb
000002b0: d122 dc3c 2bef 513c 8c5f f9bd c07b 493d
000002c0: ec61 c73c a55f 9cbc 2d46 413c dda5 323d
000002d0: b61e b23d 90da 84bc bcca b0bd 9a9d 3abc
000002e0: 8e68 83bc d75f 09be e332 863d 48dc 9d3d
000002f0: f046 e53d 7554 123e 3625 2cbd ea28 893d
00000300: 9829 16bd 4b1b 8f3d eee6 fa3d 7b93 1cbd
00000310: acd9 6ebd d701 9abd 3638 c3bd 37a0 bfbd
00000320: c50f a03d e75c 293b 9838 1abd 3e2b 14be
00000330: 4100 bcbb 9fd4 acbd c8ca be3d 949a ddbc
00000340: 43e8 de3d 7033 9abd b48d 833d b3ad c7bd
00000350: 89f0 103e f47c 0e3e 37ba c6bd e143 323d
00000360: 1ffd de3d b93a f83b 3819 073e 6e20 eabc
00000370: 1126 debb f20e dfbd c391 193e 149d efbd
00000380: 0e22 69be d0f3 a13d 9e3d 04be 0c1e 9e3d
00000390: 92cf 973c 9e1b b43c ad9f 39bc d512 20be
000003a0: 14a4 66bd 4712 0bbe 7f9e e63d d9b4 d8bd
000003b0: df16 c3bc fb6f 6d3d 7795 7e3d 2d88 edbb
000003c0: 2e75 203d 0cc9 adbc e37c c3bd d830 31bd
000003d0: dc2d 0e3d 341e b5bd b951 053e f04d e8bd
000003e0: baac e0bd 9180 c6bd 712f 543d de7d 8fbd
000003f0: 9779 39bd 0d73 953d dd47 5dbd ddf6 0ebe
-0.1637465 0.028364308 0.07825135 -0.06198161 0.12467522 0.08274232 0.07803746 -0.05919917
-0.061307084 -0.16286215 -0.18076357 0.03924128 0.12588613 0.15327236 -0.19676018 0.06429491
-0.15375437 0.12263151 0.11569407 0.1005781 0.0078122374 0.13810048 0.024275644 0.15852346
-0.07191503 -0.102665655 0.03281868 -0.07698829 0.11943159 0.1063069 0.06487439 0.0043837554
0.23812503 0.131493 -0.07051438 0.053743917 -0.15271625 0.05984473 -0.15807754 0.08259773
0.18558975 0.22260967 0.09512965 -0.14629531 -0.022075713 0.12598711 0.059463136 -0.15467234
0.057413198 -0.14528546 -0.032695446 -0.17481738 -0.1422355 -0.04618778 0.0520056 0.33873573
-0.08366846 -0.018705405 -0.08502184 -0.022727482 0.08672669 -0.061705023 -0.021340502 0.04198037
-0.1971978 -0.007340477 0.062115267 0.1585729 0.045721143 -0.055591278 0.055951208 0.0987871
0.06747509 0.021168161 0.0067399982 0.024598978 -0.03481616 0.024954561 0.20394963 -0.107669085
-0.07825948 0.0038293933 -0.07401032 0.07233959 -0.06991822 0.08571976 -0.15806948 0.022808714
0.0028432428 -0.07330264 0.0823663 0.1979835 0.09966006 0.091969624 0.12202332 0.08653992
0.085854344 0.0758375 -0.029112892 0.03278006 -0.105155736 -0.05860706 0.018761585 -0.059833907
0.00958469 -0.020998511 -0.032624833 0.017394269 -0.13679083 0.1126517 0.11487794 0.039614085
-0.10614518 0.101500645 -0.03151093 -0.014459796 0.0098603815 0.07695328 0.039212115 0.047405284
-0.006331453 0.10819766 0.08767441 -0.087408215 -0.028805908 -0.122008964 -0.03406912 -0.08873342
-0.07014016 -0.021279914 0.034431826 -0.15944831 -0.085160136 0.034728616 0.13173938 0.110635616
0.1243996 0.075973086 0.065112054 -0.10436488 0.004903845 -0.02240921 -0.16937467 -0.05583567
-0.058717903 0.088280655 0.021541692 -0.09557258 0.026701039 -0.009783259 0.053298157 0.06259536
-0.0015057264 0.062227245 -0.11256926 -0.15994982 0.08355407 0.08891768 -0.12734635 0.016779548
-0.11662141 -0.019338317 -0.00472334 0.053768683 -0.06335816 -0.025836265 0.023790335 -0.080014266
0.03831268 -0.13553621 -0.09662459 -0.006768924 0.02687207 0.01281337 -0.12176427 0.049190283
0.024338685 -0.019088576 0.011796516 0.04361521 0.08697264 -0.0162175 -0.086324185 -0.011390114
-0.016041066 -0.13415466 0.065526746 0.07708031 0.11195171 0.1429003 -0.042027675 0.06697257
-0.03666076 0.069876276 0.122510776 -0.038226586 -0.058313057 -0.07519882 -0.09532206 -0.093567304
0.07815508 0.0025842728 -0.03765163 -0.1446962 -0.005737335 -0.08438992 0.09316021 -0.027051248
0.10884144 -0.07529342 0.06423512 -0.09749927 0.14154257 0.13914853 -0.097034864 0.043521766
0.10888123 0.0075753597 0.13193214 -0.028579917 -0.00677944 -0.108915225 0.1499701 -0.11699882
-0.22766897 0.07907832 -0.1291413 0.07720575 0.018531594 0.021985825 -0.011329574 -0.15632184
-0.05630882 -0.13581191 0.112606995 -0.10581369 -0.023814617 0.05796812 0.06215426 -0.0072488994
0.03917425 -0.02121403 -0.095453046 -0.04325947 0.034711704 -0.088436514 0.13019456 -0.113429904
-0.10970445 -0.09692491 0.051803056 -0.07006429 -0.045281973 0.07297335 -0.054023612 -0.13961358

vertex_lin.0.bias f4 [32]
00000000: e130 cb3a 0950 3fbc be82 22bd cb07 04be
00000010: 3c59 30bd bf01 b4bd 2bae 6ebc 2437 a33d
00000020: cc18 bd3d 96b3 dcbc c813 00be 6341 9b3d
00000030: 508f fa3d 8303 f83c 0bce b6bc 118c b23d
00000040: f861 0f3e 2931 c33d bdc1 d33c 4b0c c8bd
00000050: 2f65 49bd 3a18 f3bc 5d58 253c 4b41 9e3d
00000060: d5c8 15be 6fe7 2e3d 213f 0ebe 9f51 3cbd
00000070: cee7 f3bb a1f5 84bd 2495 d63d 3fcc 67bd
0.0015502238 -0.011676797 -0.039675467 -0.12893598 -0.04305385 -0.087893955 -0.014567892 0.079695016
0.09233245 -0.026941102 -0.12507546 0.07580831 0.12234366 0.030275112 -0.022315046 0.08718122
0.14002216 0.09530861 0.025849218 -0.0976797 -0.04916876 -0.029674638 0.010091868 0.077272974
-0.14627393 0.04270118 -0.1389127 -0.045976277 -0.0074434048 -0.064921625 0.10477665 -0.05659127

vertex_lin.2.weight f4 [32, 32, 1, 1]
00000000: 53c1 613d 1742 69bc 6d29 0e3d 86d5 403c
00000010: 1fc0 673e e008 8b3e 3781 063e 3d0e 6a3d
00000020: 5d28 793e 5252 8a3e ae5b eabd 17f4 843e
00000030: 39c1 1a3c 8c5b 883e 746a d6bc bd8b fbbd
00000040: 6051 483e b061 553e c01b 6b3b 3d49 003e
00000050: 9f03 383d 883e 373d 9f57 673c 944b 1b3d
00000060: 471d 5dbd 2e71 91bd acac 03bc d0f3 9a3c
00000070: 70c0 f6bd a820 86bd 39a8 313d f5b4 c4bd
00000080: a740 04bd 41fc 63be 25b5 cbbd 48f3 19be
00000090: 2715 28be 6038 62bd 6f7c 20be bebf 02be
000000a0: f5c9 14be 7f5c dcbd 7a1b 24be 1da4 67be
000000b0: 37dc b2bd 424b 41be 94df 463d dfbd 8d3d
000000c0: 24fe 0e3d d6f8 0dbe 9a72 cebd 9514 09be
000000d0: a35a da3d 1836 96bd 6ec7 2a3e 0064 d93d
000000e0: 13a6 25be 588b b5bd 4000 013e 88e4 96bd
000000f0: 2eb7 1abe 65f6 2f3e 05a6 c73d 3de0 c6bd
00000100: 4da8 e3bc feee 893c 8e1c 523e 7539 003e
00000110: 9ce0 6cbe 1f30 5a3e e414 1abe 370c 6cbe
00000120: e9cd dd3c f8ed 40be 6739 d0bd 9499 24bd
00000130: fc0d a23d 0d34 103d f78f 9fbb 5972 e7bd
00000140: 93f2 283e 1e4a 2c3e 8bcd aabe f5fb 72be
00000150: 3074 7fbe 63a2 a5bd abb8 8b3d 3184 37be
00000160: 712e 9e3d 36e6 553e dc19 46be 85fc 53be
00000170: 5996 72bb a617 ca3d ae66 bd3d 0b29 5cbd
00000180: 2010 1f3e 2942 88bb 0b45 213d d6c5 8dbd
00000190: c5fb be3d aa45 b23d 0b73 eebc 472d 473e
000001a0: b701 36be 39d4 8cbd eb12 b4bd c306 e9bc
000001b0: 5009 f0bd 2bd3 b9ba a23a 1d3e dfad 873d
000001c0: 1be6 193e 6999 d73d adbc ffbb 4d34 1a3d
000001d0: 0cc1 01be 3321 4dbc 2f68 863b 7ad0 1dbe
000001e0: 5f93 52bd a61d 313e 0f97 59bc 85bd 233d
000001f0: d29e aabd a63f ccbb 6db0 70bd 2097 b13d
00000200: 273f 7cbd f50c b3bd 20c9 ec3d d757 c83b
00000210: f25d a03d 7ba1 7bbe 3b0b 2fbe 54fa 1ebd
00000220: 1ec7 b83c 6ded ddbc 7d2f 5a3d f9cf 0abd
00000230: b1a7 933d eee2 1ebe c7cc 843d 8c0d a23d
00000240: 580d 6d3d ff55 85bd 3f4f e63d e44b 3dbc
00000250: 3fa8 093d 25b4 e13d 1f5d f4bd c162 0fbe
00000260: b579 8abd ce63 983d 83f0 903c 946c 1138
00000270: 964f d1bd 2fcf 943d 6be1 203e bade 193e
00000280: 5192 78be 274d aebd 7d73 8b3d 4558 7dbd
00000290: c94b 71bc 504a 1fbd bc9c b63c 59f7 94be
000002a0: b0e7 993d a767 80bc 1aac ca3d 4ff4 1fbe
000002b0: 95a0 163e ef68 88be ffc5 c2bd 9d76 463e
000002c0: 1a0c 8e3d f664 3ebd 4165 10be 6ca2 34bd
000002d0: 0ee0 c2bd ee61 0dbe 20be 51bd f447 fdbd
000002e0: f814 1a3e 393b bbbd 54da b53c 2dae 263e
000002f0: 3891 14be 9ab9 113d ddad 1c3e e265 37be
00000300: 474b 81be 27c2 23be 470a c7bd f492 d5bd
00000310: d74e 8cbe 601f e83d 1642 26be 58ef 1ebe
00000320: dc58 793d a9bb 07be 0102 803d 0542 0fbd
00000330: 5091 753e c42a b3bd 692b babc 1c4f 913d
00000340: 85c2 bd3d f414 f53c aea0 88bd c8fc 85bd
00000350: 4a60 57bd 126f 873d 0af7 493d 5cf7 0a3e
00000360: eaef 6a3d 9251 84bd 1dde e33d c483 1c3e
00000370: 6631 bbbb fa02 9c3b 4766 7abd 1758 0abe
00000380: f11c 343e 5a2c 653e b4f7 7fbe 6ce0 893d
00000390: 59c9 1b3e 8bb8 e03d b8b4 8f3d 932f 9ebd
000003a0: 2d70 333e 02d4 653e 30d5 d7bc ec23 fd3d
000003b0: 6308 00be daac 9d3c 09aa 02be 27d2 06bc
000003c0: cf4e 25be 8509 353e 5802 e9bd a7a1 ec3d
000003d0: bbc0 73bd dc53 bb3c 9336 65bc 0d3c 1c3e
000003e0: 7941 78bd 09ce a4be d4ce aebd 7873 3b3e
000003f0: 7c98 c63d 6748 afbd 3111 d1bd be0d 3dbe
0.05511601 -0.014236948 0.034707475 0.011769658 0.22631882 0.2715521 0.13135229 0.057142485
0.24331804 0.2701593 -0.11443268 0.25967476 0.009445482 0.26632345 -0.026173808 -0.12282512
0.19562292 0.20838046 0.0035874695 0.12527938 0.04492533 0.04473737 0.014120012 0.037913874
-0.053983 -0.071016654 -0.008036774 0.018915087 -0.12048423 -0.065491974 0.04337332 -0.09604827
-0.03228822 -0.22264196 -0.0994666 -0.1503421 -0.16414319 -0.055229545 -0.15672468 -0.12768456
-0.14530165 -0.1075983 -0.16026106 -0.22621198 -0.08733409 -0.18876365 0.048553064 0.06920981
0.034910336 -0.13864455 -0.10080452 -0.13386758 0.10661819 -0.07334536 0.16677639 0.106147766
-0.16176634 -0.08864468 0.12597752 -0.073678076 -0.1510894 0.17183836 0.097484626 -0.09710739
-0.027790213 0.016837593 0.20518705 0.12521918 -0.23132557 0.21307419 -0.15047032 -0.23051535
0.027075725 -0.18840778 -0.10167199 -0.040185526 0.079128236 0.03520589 -0.004869457 -0.11301107
0.16498785 0.16825148 -0.33359942 -0.23728926 -0.24946666 -0.080876134 0.06822332 -0.17921521
0.07723702 0.208886 -0.19345802 -0.20701797 -0.0037015884 0.09867792 0.092481 -0.05375008
0.15533495 -0.0041582775 0.039372485 -0.069225 0.09325365 0.087046936 -0.029107591 0.19450866
-0.17774092 -0.06876416 -0.08792671 -0.028445607 -0.11720526 -0.0014177313 0.15354398 0.0662496
0.15029185 0.105273075 -0.0078044743 0.037647534 -0.12671298 -0.012520122 0.004101775 -0.15411559
-0.051410075 0.17296466 -0.013280644 0.03997566 -0.08331074 -0.0062331734 -0.058762003 0.08671403
-0.061583664 -0.08742706 0.11561799 0.006113987 0.07830419 -0.24573319 -0.17094128 -0.03881295
0.022555884 -0.027090752 0.053267945 -0.033889744 0.07209719 -0.15516254 0.06484371 0.0791274
0.057874054 -0.06510543 0.11245584 -0.011553738 0.033607718 0.11020688 -0.11931824 -0.14002515
-0.06761495 0.07440911 0.01769281 3.4671815e-05 -0.10220258 0.0726608 0.1571099 0.1502637
-0.24274565 -0.085108094 0.06809137 -0.06185176 -0.014727541 -0.03888923 0.022291534 -0.2909496
0.07514894 -0.015674425 0.09896107 -0.1562054 0.14709695 -0.26642558 -0.09510421 0.19381185
0.06935902 -0.046483003 -0.14101125 -0.04410021 -0.09515391 -0.13806888 -0.051206708 -0.123672396
0.15047061 -0.09142155 0.022198834 0.1627738 -0.14508522 0.035577394 0.15300699 -0.17909959
-0.25252745 -0.15992032 -0.09718757 -0.1042842 -0.274039 0.11334109 -0.16236147 -0.1552099
0.06087576 -0.1325518 0.06250382 -0.03497507 0.23981214 -0.08748391 -0.022725778 0.07095167
0.09265617 0.029917218 -0.06671272 -0.06542355 -0.052582063 0.06612982 0.04930786 0.13570923
0.057357706 -0.06460871 0.11126349 0.1528464 -0.005712676 0.004761097 -0.061132696 -0.13510166
0.17589165 0.223802 -0.24996835 0.06732258 0.15213527 0.10972699 0.07016891 -0.07723918
0.1752326 0.22444156 -0.026346773 0.12360367 -0.125032 0.019247461 -0.12760176 -0.008228815
-0.16143344 0.17679413 -0.113774 0.1155427 -0.059509974 0.022867136 -0.013990062 0.15257283
-0.060609315 -0.32188442 -0.08535543 0.18305767 0.09697053 -0.085587315 -0.10208357 -0.18462273

vertex_lin.2.bias f4 [32]
00000000: 3a91 febd 201f dbbd 7b9b 83bd bdc4 ccbd
00000010: 40e7 ce3d 8b95 49bc d9b0 383e 1cd0 083e
00000020: d728 1bbe 43ef bebd 34fe 4f3d 1cca 26be
00000030: d1f2 c1bd 3825 553c 8cc0 d73d f72c 5e3e
00000040: 2b66 533e 5eba 44be b032 fcbd b89a e83c
00000050: 7f8f 413d bf11 5a3e e981 7ebd a27e dcbd
00000060: fac9 0abe a83d 3f3e 2996 963d 9470 163c
00000070: 01dd 863d 3a56 88bd 98ff f73d a6fe 283c
-0.124300435 -0.10699296 -0.0642614 -0.09998462 0.10102701 -0.01230372 0.18036212 0.13360637
-0.15152298 -0.09322979 0.050779536 -0.16288036 -0.09470142 0.013009362 0.10534772 0.2169684
0.20644443 -0.19211718 -0.123143554 0.028394088 0.04725599 0.21295832 -0.06213561 -0.10766341
-0.1355361 0.18675864 0.073528595 0.009182114 0.06585122 -0.066570714 0.121092975 0.010314619

edge_lin.0.weight f4 [32, 1, 68, 1]
00000000: 1852 37be 6539 f0bc a54e 503d a3df 81bd
00000010: 6bc4 3abd a05b 3e3d e43f 90bd 88f3 7dbd
00000020: 269e 76bc 1874 82bd 500a 32be 694a 7a3d
00000030: 2ba4 b63b 11ba 91bd 94e2 51bd 562d b53d
00000040: b0da b6bd 6d9e 763c b4e2 133b 6ed9 85bd
00000050: 3c30 88bd 5f9e 973b 4820 4cbd 3f31 ef3c
00000060: 8d5a 683c 971c 543d 3e9c 043e 56e8 c2bd
00000070: 944a 003e 8b33 b83c 4c89 6cbd 96ee 18bd
00000080: 8c88 86be dfb7 193d 5398 08bd b155 0a3e
00000090: f68c 6f3d a65f d8bd ef6b a2bd c5f8 02be
000000a0: efce e6bb 55d1 edbd 02c3 7cbd a3da 8bbd
000000b0: f9fa 3cbe 7bd4 60bd 8dc9 0bbd ea76 4ebc
000000c0: 1d2b fd3b 49eb 3f3d 5771 5ebc 784b cc3c
000000d0: 6311 99bb 2420 2ebe f952 99bd f15e dabb
000000e0: 2285 72bd 7a96 583d 4690 803c 1ce3 39bd
000000f0: e89e 703d f382 fdbd 70e5 4d3e 3c9e 33be
00000100: 1875 883d 3276 003e 055e aa3c c907 083d
00000110: c3e4 c4bd 174f 113d 521e 29bd 3d04 663d
00000120: bbdf 3cbd df25 02be 3399 aabd ed8b d83d
00000130: c003 ae3d 361f d33d b9d6 54bc ad25 bcbc
00000140: 5db0 4fbd 9e9e 61bb 3cd2 a63d bfda 193d
00000150: 3f93 873d 074c fd3c c939 be3d a74b 51bd
00000160: d6f0 383e 33e2 edbd 2711 e33d 438f 78bd
00000170: 58e9 36be f84c ecbb 6841 d5bd 3906 c23c
00000180: 55c4 12be 7b4e f3bc 9fc0 28be 5860 58bd
00000190: 64fe babd dbe3 aabb f75f 343d bdd4 e5bd
000001a0: e34d b7bd 1725 23bd 8606 debd 7d84 27bd
000001b0: 0b09 15be 376a 91bd de3d cdbd 0a42 383e
000001c0: cb39 af3d a976 8abd 4fcc 053e 1c56 18be
000001d0: fee3 3c3d 37fe 8c3c 5bf2 ff3d 4407 ecba
000001e0: 3173 d93d e1a2 33bc ff72 30bd 47c4 8c3d
000001f0: c057 51bc aa1c 7cbd 2ace fd3c 2a89 e73d
00000200: e2bd 3d3d 7830 06be a40e 653d ccf0 5b3d
00000210: f368 40be 57f9 51bd 3128 acbd db66 6f3d
00000220: 0bdd 6b3e 2b41 83bd 5d56 b2bd 415a dabc
00000230: d448 63bd 6938 61be fc4d f03d 22e8 183e
00000240: f08a 05bd d2f0 25be bcd9 1ebe b7e2 b53c
00000250: d48f 2abd d215 cf3d d0cb 503e 597f 7bbc
00000260: 59ee fdbd e312 2b3d f95b 103d a006 4f3d
00000270: 46b7 bfbd 66c4 62bd d052 473d 8226 313e
00000280: 808d 323e 83a7 9bbe 4f37 da3c ee5a 3abe
00000290: 17df 943d 9ebd babe d7da 8cbe e3d1 fc3b
000002a0: b8e7 b4bc d671 d6bd ae1c 753e a002 afbd
000002b0: a7c4 93be 96be 2fbe 52a6 eebd 7315 27be
000002c0: d1c8 27bd 8b0f fd3d c2bd b0bd f342 6dbd
000002d0: 8315 b4be 1f17 28be 2e72 f1bd c00a 0dbd
000002e0: 0549 013e 2e26 04be f516 09be 9c7f efbd
000002f0: 7a41 98bd ddae 06be ee2e 79bb ec15 42be
00000300: 9459 83bb 78b3 533d da24 993d 28f0 02be
00000310: ad5f 10bd 7ed0 6abe 4799 dfbd 7e9b d4be
00000320: 1842 89be 268c 053e b3cc 9ebd 3446 6ebd
00000330: 0883 8fbe e31d 8a3d cd21 303e 6430 97bd
00000340: bee1 0ebd 7174 103e 3fea ff3d ce47 2dbc
00000350: 6871 203e 84c5 08be 87d6 483e 7607 13bd
00000360: 7b32 c9bd d51e 11be 9eb5 fcbd 9b82 b43e
00000370: 2b2a 153e 15f4 8fbd 66f5 e7bd aaf2 c13c
00000380: cdb6 1abe 364a b43d 28f8 b9bc 5a0d 3fbe
00000390: 8b08 d8bc 81a6 1f3e 2e2a 08bd 88a4 ea3d
000003a0: 0606 5d3c a05f a73d 67a9 c03e d0d3 a53d
000003b0: 034a 073f ce87 943d bd44 58be 1a65 a33d
000003c0: a393 a23e 2696 5f3d 4fbd 1e3d 3c8e 0e3e
000003d0: 9288 593e 1455 0ebd 5f86 973c 63d4 b2bd
000003e0: e21d b73c 2fe7 1bbd fa0d 58be 4111 8ebd
000003f0: 0958 ffbd 96b5 473e 722e 713c 52a7 cdbd
-0.1790241 -0.029324243 0.05085625 -0.063414834 -0.045597475 0.0464741 -0.07043436 -0.061999828
-0.015052354 -0.063697994 -0.17386746 0.06110612 0.0055737696 -0.071155675 -0.051241472 0.08846538
-0.0892843 0.01505242 0.0022565546 -0.06535612 -0.06649825 0.0046270336 -0.049835473 0.029198287
0.014181745 0.051785078 0.12950227 -0.09516971 0.1252845 0.022485515 -0.057748124 -0.03733691
-0.26276052 0.03752887 -0.033348393 0.13509251 0.05848404 -0.105651185 -0.07930743 -0.1279021
-0.0070437114 -0.116121925 -0.06170941 -0.06828811 -0.18455113 -0.054890137 -0.03412776 -0.0126015935
0.007726087 0.046855245 -0.013576827 0.02493833 -0.004671262 -0.17004448 -0.07486529 -0.00666415
-0.059208997 0.05287788 0.015693795 -0.045382604 0.058745295 -0.12378492 0.20107055 -0.1754083
0.06662959 0.12545088 0.020796785 0.03321055 -0.09613945 0.035475817 -0.04128868 0.056156386
-0.046111804 -0.12709759 -0.08330002 0.10573564 0.08496809 0.103086874 -0.012990647 -0.022967184
-0.050705303 -0.0034426819 0.08145568 0.03756213 0.06619882 0.030920042 0.092883654 -0.05109754
0.18060622 -0.1161541 0.11087256 -0.0606835 -0.17862451 -0.007211324 -0.10412866 0.023684608
-0.14332707 -0.029700508 -0.16479729 -0.052826256 -0.091305524 -0.005215151 0.04403683 -0.11222217
-0.089504026 -0.039830294 -0.10841088 -0.040897835 -0.14554231 -0.07100337 -0.10021566 0.17993942
0.08555945 -0.06760914 0.13066219 -0.14876598 0.046115868 0.017211063 0.124973975 -0.0018007536
0.10617674 -0.010964126 -0.04307842 0.068733744 -0.012777269 -0.061550774 0.030982096 0.11305459
0.046323664 -0.13104427 0.055922166 0.05369644 -0.18790035 -0.05126318 -0.084061034 0.0584477
0.2303354 -0.06408914 -0.08707879 -0.026654365 -0.055489376 -0.21994175 0.11733624 0.14932302
-0.032603204 -0.16205147 -0.15512747 0.022202833 -0.04164107 0.10111584 0.20390248 -0.015350186
-0.12398977 0.04176606 0.035243962 0.050543427 -0.093611285 -0.05536308 0.04866296 0.17299846
0.1743679 -0.3040124 0.026637701 -0.1819875 0.072691135 -0.3647279 -0.27510712 0.00771545
-0.022083148 -0.10470931 0.23936722 -0.085454226 -0.2886097 -0.17162547 -0.11652817 -0.16316776
-0.040962998 0.1235648 -0.086299434 -0.057925176 -0.35172662 -0.1641507 -0.11789356 -0.03443408
0.12625511 -0.1290519 -0.13387664 -0.116942614 -0.07434364 -0.13152643 -0.0038022357 -0.18953675
-0.0040084813 0.051684827 0.07477732 -0.12786925 -0.035247494 -0.22931096 -0.10917907 -0.4152488
-0.26808238 0.13041744 -0.07753887 -0.05817242 -0.28029656 0.06743982 0.17200394 -0.07382277
-0.034883253 0.14106919 0.12495851 -0.010576202 0.15668261 -0.13356596 0.19613086 -0.035895787
-0.098240815 -0.14171918 -0.12339328 0.35255894 0.14566867 -0.07028977 -0.11326103 0.023675282
-0.15108795 0.08803217 -0.022701338 -0.18657437 -0.026371261 0.1559086 -0.03324335 0.11457163
0.013490206 0.08172536 0.37629244 0.08097041 0.5284731 0.07252465 -0.21119972 0.07978268
0.31753263 0.054586552 0.038754757 0.13921446 0.21243504 -0.034749106 0.01849669 -0.08731916
0.022353116 -0.03806227 -0.21099082 -0.06936885 -0.12467963 0.19502863 0.014720546 -0.100416794

edge_lin.0.bias f4 [32]
00000000: 4818 823c 1bb7 d33d f3c1 363d fabb 6ebb
00000010: 3fc5 0a3d a12a edbd 7842 f53d 78b5 9fbc
00000020: 2286 91bd b1a8 aa3c abc3 8f3b 843c 7b3d
00000030: 2172 ae3d d5e8 a03d d613 02be 081c ae3d
00000040: 5d3c a3bc 228b cfbd fefd 3dbd 5f6c 04be
00000050: 8e72 0d3d 1c8f d1bd 93bc b43d bbbf 113d
00000060: 8b39 d93c fdb7 3f3d b911 d63d 8928 18bd
00000070: af68 69bd 4e82 e33a 3fb0 773c 5013 853d
0.015880719 0.10337659 0.04461856 -0.003642796 0.033879515 -0.115803964 0.119755685 -0.01949571
-0.07105662 0.020832391 0.004387339 0.06133701 0.08517862 0.07856909 -0.1270288 0.0850144
-0.019926244 -0.10133959 -0.046384804 -0.12931965 0.034533076 -0.10232374 0.0882503 0.03558324
0.026516696 0.046806324 0.10452599 -0.037148032 -0.0569846 0.0017357559 0.015117704 0.06497824

edge_lin.2.weight f4 [32, 32, 1, 1]
00000000: bc91 853d ecce 27be 878a 15be 25f2 c63e
00000010: 3072 953c 819b 363d 9b39 c63b c5ec 03be
00000020: a49b 2abe c3e6 33bd 9d05 333e 04e5 ac3d
00000030: fb6b f63d 193d af3d 5d8e 373d f93b 37be
00000040: bb04 763e 5760 5abd e7e6 963e 0521 56bd
00000050: ec2e 133e 3ba4 103e f982 893e 4aab 9c3b
00000060: 6cd2 d53e df04 ecbc 84ef 98bc bd3e 153e
00000070: ceb0 3b3e 7ed2 ab3e 065b 9a3e 83d0 fc3d
00000080: 30ea 89bd 91fe 3fbe 4b37 83be 159f b33e
00000090: efd5 a33d 5666 3b3c 3334 033e 4b15 0ebe
000000a0: a9cb a3bd 0419 d5bd 8249 233e b997 0e3b
000000b0: 21f0 f63d ddae 443e 9777 11bd 7e7a 63be
000000c0: 18da 663e 9a9a bb3c 8291 a33e e6f5 21be
000000d0: abaa a7bd 9e63 693e bc74 dc3d 962e 953e
000000e0: f2ef c23d d587 2abc a151 dc3d 68e0 0a3e
000000f0: ba74 abbd be95 c23e bf46 ae3e 37b5 943e
00000100: 4f13 293e 80d1 013e bc54 35be 4e2a 163c
00000110: 8ebc d53d cc16 553d 2d0e a33c ccd5 223e
00000120: f59c ab3d dde6 083d 0a84 ffbc e0a3 cd3d
00000130: 0da9 983d 87a8 05be b416 0cbe eb0e c13a
00000140: 4ef8 093e 4dc3 b03d 5ace dc3d 53f5 8c3b
00000150: d938 87bd 8a2a ed3d 8e97 0fbe 7306 21be
00000160: 023b 08be 748c b23d 44c7 6ebc 7274 16be
00000170: d30a a9bd d90a 45be 27c9 8c3d 1fd7 80be
00000180: 5526 26bc 36e3 74be db24 79bd c4ae c83e
00000190: 8a73 343c 3a35 80bc f709 9d3d 89a1 f73d
000001a0: 2645 8cbd 9338 033e fc19 803e e58c b93d
000001b0: 9c2e 543e 26e8 963e 505e 85bb d085 46bd
000001c0: a818 863e 2f56 d2bd 7185 a43e bc7b b63d
000001d0: b634 453c 4dd0 963c 8b4e db3c 8339 0a3e
000001e0: 7e67 a43e 270a 3e3e c56e 363e 99df ac3d
000001f0: 2185 87bd 5ba8 253e 0443 d93d ec4b 67bd
00000200: a309 c2bd f3e4 2f3d 37f0 1dbc 6875 cb3e
00000210: 124a fb3d b37c e53d 4f92 bbbd 852e 263d
00000220: d792 b23a 79f6 a2bb 0d74 c73e ad0e 363e
00000230: 4d52 8b3e 3d8e d83e de07 a1bd ebb1 14be
00000240: a2fe a23e 7512 1bbd 0bd3 183e 318b 3cbe
00000250: d731 42bd da67 523e 6ae9 713e 173d 483e
00000260: 1a8e 7a3e ea3f cd3d 9ff8 5a3e f517 083e
00000270: 9f2b c83c b293 cc3e a588 5e3e fb3a 84bd
00000280: cfab e93d b844 3f3e 87da 1fbe 31a5 9e3b
00000290: de72 17be bdbb 3fbd ebbb de3c 8787 03bd
000002a0: fede 1fbd 6b98 043d a4d7 c3bd e155 41bc
000002b0: 03b1 7dbd 9cd4 343b eff6 a43d 1986 133e
000002c0: 3e8e c5b9 e9c3 323e 83bb f1bd 6940 12bd
000002d0: 1f5e fb3d 292a 833d 1b56 96bd 414e 003e
000002e0: 4b9b 4cbd 81b6 5a3d e9bb 4bbd 5adf 913d
000002f0: 1408 323b 6a54 063c 45b4 8b3d 3f4e 3c3d
00000300: 5d8c 773e ae96 dabd bc22 98be 925d af3e
00000310: f34d 9ebd afdf f5bc 9865 9bbd 352d 87bd
00000320: 4499 3a3d 9cea 503d 5d1d a83e f9b5 6dbd
00000330: ba0d a43e 043d bc3e c033 0dbe b069 09be
00000340: 3e91 413e 6500 3dbe 7d55 403e 2330 b3bd
00000350: 1c1c 23bd 5f88 ff3d d3d3 ca3e d204 aa3e
00000360: 9448 553e 9b68 083d 984d 1a3e 1b18 623e
00000370: 3041 8fbe 644f 4a3e c29f 8c3e 194c 38be
00000380: efaa 84bd f80e 99bd 1104 1dbe a046 9e3e
00000390: 6c60 0c3e ff07 e63d a17a 0ebe 1fec 2aba
000003a0: 360d 3ebe c0f6 cdbd 989e 9f3e 9856 83bd
000003b0: 87a4 e53d f0fb 893e e6b9 073e 92ff c5bc
000003c0: c62b 8c3d 970a d7bd 1f9d 583e 4475 f93d
000003d0: 8fe4 c1bd 7a50 51bd a25a 1e3e eeba 473e
000003e0: 4887 0d3e 9460 2b3d 8e89 6a3e d08e 303e
000003f0: 3f18 783d 8932 e83d 05f2 a83e bb8e 6a3e
0.06521937 -0.16387528 -0.14603625 0.38856617 0.018242925 0.044581894 0.0060493476 -0.12883289
-0.16660935 -0.043921243 0.1748261 0.08442119 0.120323144 0.08556575 0.044813503 -0.17893972
0.24025242 -0.053314533 0.2947304 -0.052277584 0.14373368 0.14125149 0.26857737 0.0047811614
0.41762102 -0.028810916 -0.018668897 0.14574714 0.18329164 0.3355903 0.3014757 0.12344458
-0.06734121 -0.18749453 -0.25628123 0.35082307 0.07999789 0.011437973 0.12812881 -0.1387531
-0.079978295 -0.10405162 0.1594601 0.0021757914 0.1205752 0.1920733 -0.03551444 -0.22214696
0.22544134 0.022900868 0.3194695 -0.15816459 -0.08186849 0.22791907 0.10764453 0.29137105
0.09518422 -0.010408361 0.10757757 0.13562167 -0.08371873 0.3800487 0.3403835 0.29044506
0.16511272 0.12677574 -0.17708105 0.00916536 0.104363546 0.052023694 0.01990422 0.1590187
0.083795466 0.033423293 -0.03119089 0.10041022 0.07454119 -0.1305257 -0.13680536 0.0014729177
0.13473627 0.08631001 0.10781546 0.004301706 -0.0660264 0.11580379 -0.14022657 -0.15725116
-0.1330376 0.087181956 -0.014573876 -0.14692858 -0.08254018 -0.1924242 0.06874304 -0.25164124
-0.010140975 -0.23914799 -0.060826164 0.39195836 0.011013875 -0.01565038 0.07667916 0.12091357
-0.068491265 0.1281455 0.25019825 0.090600766 0.20720905 0.2947399 -0.004070081 -0.048467457
0.26190686 -0.102703445 0.32133058 0.08910319 0.012036493 0.018409872 0.02677085 0.13498501
0.32110208 0.1855856 0.17815693 0.08441085 -0.06617189 0.16177504 0.10608485 -0.05646889
-0.09474494 0.042942952 -0.009639791 0.3973801 0.12269987 0.11205425 -0.091587655 0.04057171
0.0013624084 -0.0049732295 0.38955727 0.17779036 0.27211228 0.4229602 -0.07862829 -0.14520995
0.31834894 -0.0378594 0.14924257 -0.18412472 -0.047410812 0.20547429 0.23624197 0.19554554
0.2446827 0.10021956 0.21383904 0.13290389 0.024434863 0.39956433 0.21731813 -0.06456562
0.11409723 0.18678558 -0.15610705 0.0048414697 -0.14789912 -0.0468099 0.027189216 -0.03211167
-0.03903102 0.03237192 -0.095626146 -0.01180026 -0.06193639 0.0027592545 0.08054911 0.14406623
-0.00037680747 0.17457546 -0.11803343 -0.035705958 0.122738115 0.06404526 -0.07340642 0.12529851
-0.049952786 0.053396706 -0.049739752 0.07122679 0.002716546 0.008198837 0.06821493 0.04597306
0.24174638 -0.10673271 -0.29714 0.34251076 -0.077297114 -0.030013887 -0.07587737 -0.066004194
0.04555632 0.05100499 0.32834902 -0.05803487 0.32041723 0.367653 -0.13789272 -0.13419223
0.18903062 -0.18457182 0.18782611 -0.08749416 -0.03982173 0.124771826 0.39614734 0.33206803
0.20828468 0.033302885 0.15068662 0.22079508 -0.27979422 0.19756848 0.27465636 -0.17997779
-0.064779155 -0.07473558 -0.15333582 0.30913258 0.13708657 0.11231994 -0.13913967 -0.000652017
-0.18559727 -0.100568295 0.31175685 -0.06413001 0.11213022 0.26950026 0.13254508 -0.024169717
0.068442866 -0.10500067 0.21153687 0.1218057 -0.09467422 -0.05110214 0.15464261 0.19504902
0.13821137 0.04184015 0.22904035 0.17241979 0.060569998 0.11337764 0.32997146 0.2290601

edge_lin.2.bias f4 [32]
00000000: c0a4 1a3e 1723 3ebd 60b7 9d3d 60fe 163e
00000010: 3ed4 d8bd aa4f c93c 7276 913c 027e 57bc
00000020: a315 b83c 99ea fe3d 8c3b 11be 6c15 08bc
00000030: 1d5e c6bd 6370 193d 70be 9a3d 1439 113e
00000040: be6d 083d 12a4 02be 3bde 02bd b5d4 9fbc
00000050: ac49 033e 0097 e0bc 381f 4f3c b88f ef3b
00000060: a81b d73d f5f6 8e3d e958 093d 3209 ab3d
00000070: 592b ebbd 80e3 b5bd 70ac f5bd b2b1 683d
0.1510191 -0.046420183 0.07700992 0.14745474 -0.10587357 0.02457412 0.017756674 -0.013152601
0.022471255 0.1244709 -0.14182872 -0.008305889 -0.096859194 0.037460696 0.07555854 0.1418193
0.033307783 -0.127579 -0.031950217 -0.019510606 0.12821072 -0.027415752 0.0126417205 0.007310834
0.10503322 0.06980697 0.033532057 0.08351363 -0.11482877 -0.08881283 -0.119957805 0.05681009

vertex_output_lin.0.weight f4 [32, 1, 32, 1]
00000000: 65c5 03be b094 09bd dd88 cdbd cec6 453d
00000010: a7ae 32be 25f1 893d 8afd adbd 7caa 91be
00000020: f5f1 d5bd 5775 d7bc c0a9 60bd 969c c6be
00000030: f3ae b3be f463 04be 1e0d 80bb d27f 2f3e
00000040: 4592 90bd 615a 72bd 8bf8 b2bd e8e8 b6bc
00000050: 946d 5e3d 7b36 acbe 2117 d73d b5e3 f83d
00000060: 605b cd3d da4c febd b9d4 72be bb70 9ebe
00000070: 91dc 26bd 4f1f 0ebe 60d8 a4be 6c9b a7be
00000080: f1a8 29be acb1 87be f642 973d 0dc3 f6bd
00000090: 3fc2 cdbe debe 3d3d ccae 4fbe fdd6 a0be
000000a0: 7e40 02be 5405 93be fc93 13be b20f 9abe
000000b0: ef2a 40be 3e0b 173e 3f20 1fbe 8d8d acbd
000000c0: 6ac7 0dbe b4b4 323b 236b 9ebb 7e94 e4bb
000000d0: 2f4b f73d 4e02 bebd 654f df3d b037 35bd
000000e0: a1ff 03bd 432a 81be a63b 64bd 54f6 c4bc
000000f0: 08b3 41bc 25cf 33be 42d9 d7be f2ba 96be
00000100: 3061 78bc 548a 5f3d 280f d13d 9396 dabc
00000110: 2271 74be 4916 aa3d e515 9139 4841 96be
00000120: facf 883b 876e 1ebe 52ac 8f3d ccb0 cfbd
00000130: 1637 4ebe 634e e33d 2f70 11be 98c0 59bd
00000140: 0b81 9c3d 9e1a c73d c2e5 fcbc 1608 35be
00000150: b1ca f2bc 7c82 dfbd 0ec5 db3d 8b31 2e3e
00000160: d058 93bc 6fcf d8bd 94ac 07be db44 e0bc
00000170: f26a 79bd d657 88be 185d 12be 9ec2 85be
00000180: 0c8e 413e 072d 633e d72c acbd 7231 193e
00000190: 36a0 a13e 3cb6 e43c 0e3c 593e fc10 9f3e
000001a0: 60d6 833d 7c5e 0d3e 91e6 72bd 49fd 863e
000001b0: cb17 613e 8161 b63d aa6d f43d 4d61 04be
000001c0: 30f1 ef3d 3dd9 af3d e285 8a3d 64e1 3abd
000001d0: 07b9 d1bd a0b7 823e 1c63 033e cd90 a3bd
000001e0: a2f9 2bbb 184e 163e a90b 823e a20b 3a3e
000001f0: 9be2 4abe dae5 8d3e dceb d13e 8e29 243e
00000200: 2d1b f13d 65c9 fd3d 5552 503d b3ad ebbd
00000210: 9b66 92bd faf3 473d e36b 82bc 5ea1 43be
00000220: 2e13 243d 361b 9b3d bee4 c43b a21e b8bd
00000230: 8a29 82bd 370a f83d 0981 bcbd 31e3 5e3d
00000240: a77f 8abd 306f 2abe 8ab4 5cbd 2d18 f1bc
00000250: fc43 0b3e 6deb 053e fd22 d43d 832b e83c
00000260: 33f2 e03c 82d5 07be 2739 18be fb2d 143d
00000270: 0a3a 65bc f49d f23c 19e3 8f3d aa36 b93c
00000280: 08e2 a9bd ac9f 40be 4db5 10be fdbb 153e
00000290: 66f2 70be 0085 3abd b15a ab3d ce71 22be
000002a0: 2092 f23c cce7 0c3e df5b cfbd 7f9e 00bd
000002b0: b014 b5be 54d3 c3bd 225c bd3d a06c 7ebd
000002c0: 93e5 1dbb 7489 c1bc 37bd 5d3e 3102 0dbd
000002d0: 5a77 a93c 77a5 03be c323 53bd 5727 f9bd
000002e0: 5399 96bd d0b2 7cbe 8eb5 623d cb43 e33d
000002f0: 182e d7bd f9a3 92be edd1 44be 0524 e3bd
00000300: 8458 11ba e3cb f8bc 4e8d f0bd 3a6b 8dbd
00000310: 193a 07be a2db de3b 72c6 383d 563c c3bd
00000320: 1ebf 58be 1ec7 8cbb 77cc 8b3d afc3 8bbd
00000330: f1ae febd 53cf 473d b53e 593d 4678 1bbe
00000340: a431 91bc 8186 5b3d ba39 66be 8cee b3bc
00000350: 8a4f 0bbd 3a79 d63d 2f6a 14be 6738 843d
00000360: 898b 283d 8573 9dbd 85b6 febd 0f90 f23d
00000370: 4fb9 f3bd 82a5 5e3e ece5 95bd c9c2 2e3e
00000380: 8aff 2dbe a279 9dbc f705 e3bd 46a4 07bd
00000390: 1428 8abe 1dd4 e33d 0948 f7bd 17a3 fc3d
000003a0: d695 e3bd 6d67 55be 314a 63bc d2f4 69be
000003b0: 6001 2b3c 8e30 dabd a905 003d b9e4 893c
000003c0: 2fb9 10be 72af 7b3d 2409 b6bd f12c 603d
000003d0: f752 3bbe 8a53 41be 28e9 70bc b44c d6bd
000003e0: 1903 d83d d797 89be 31bc d93d cae6 f93d
000003f0: 18d7 febc d545 dabd c0d0 d6bd 9462 d0bd
-0.12868269 -0.033589065 -0.1003587 0.048285298 -0.17449437 0.06735448 -0.08495624 -0.28450382
-0.1044654 -0.02630107 -0.054849386 -0.3879134 -0.35094413 -0.12928754 -0.0039078137 0.17138603
-0.07059149 -0.059168223 -0.08738812 -0.022327855 0.05430372 -0.33635315 0.10502458 0.12152807
0.10027194 -0.12417002 -0.2371396 -0.30945382 -0.040737692 -0.13879131 -0.3219633 -0.32735765
-0.16568352 -0.2650274 0.07385819 -0.12048922 -0.4018726 0.046324603 -0.20281523 -0.31414023
-0.12719914 -0.28715003 -0.1441192 -0.300901 -0.18766378 0.14750382 -0.15539645 -0.08425436
-0.13845602 0.0027268352 -0.004834549 -0.0069757095 0.12074887 -0.09277783 0.10903815 -0.04424256
-0.03222621 -0.25227556 -0.055720948 -0.02404324 -0.0118224695 -0.17559488 -0.42157942 -0.29439503
-0.01515989 0.05457528 0.10207969 -0.026683128 -0.23871282 0.08305032 0.00027672868 -0.2934668
0.0041751834 -0.1547185 0.07015289 -0.10141143 -0.20138201 0.110989355 -0.14202951 -0.053162187
0.076418005 0.09721874 -0.030871276 -0.17678866 -0.029637666 -0.1091356 0.107309446 0.17011087
-0.017986685 -0.1058644 -0.13249427 -0.027376583 -0.060893007 -0.26629514 -0.14293325 -0.26125044
0.18901843 0.22185145 -0.0840699 0.14960268 0.31567544 0.027918927 0.21214315 0.31067646
0.06437373 0.13805574 -0.059301917 0.26365116 0.21981733 0.08905316 0.11934979 -0.12927742
0.11715925 0.08586357 0.06763817 -0.045625106 -0.10240369 0.2553072 0.12830776 -0.07986603
-0.0026241322 0.14678228 0.2539952 0.181685 -0.19813006 0.27714425 0.4100026 0.16031477
0.117727615 0.123919286 0.050859768 -0.1150774 -0.07148477 0.04881666 -0.015920585 -0.19104525
0.040057354 0.075735494 0.0060087135 -0.08990218 -0.06355579 0.12111323 -0.09204299 0.054415885
-0.06762629 -0.16643977 -0.053883113 -0.029430473 0.13600153 0.13078089 0.10358236 0.02834106
0.02745924 -0.1326504 -0.14865552 0.036176663 -0.013990888 0.029616334 0.07025737 0.022609074
-0.08295065 -0.1881091 -0.14131661 0.14622493 -0.23529968 -0.045536995 0.083669074 -0.15863726
0.029610693 0.13760298 -0.10124945 -0.031401154 -0.35367346 -0.09561792 0.092460886 -0.06211531
-0.0024093136 -0.023625113 0.21654211 -0.034425918 0.020686794 -0.12856089 -0.051547777 -0.121657066
-0.07353463 -0.24677587 0.055348925 0.11096915 -0.105068386 -0.28640726 -0.19220705 -0.110908546
-0.0005544501 -0.030370658 -0.11745702 -0.069052175 -0.13205756 0.0068010846 0.045111127 -0.095329925
-0.21166655 -0.0042961976 0.06826108 -0.06824433 -0.12435711 0.048781704 0.053038318 -0.151826
-0.017723866 0.05359507 -0.22482958 -0.021964334 -0.0340114 0.10472341 -0.14493631 0.064560704
0.041148696 -0.07688049 -0.124371566 0.11843883 -0.11900579 0.21742824 -0.07319245 0.17066492
-0.16992012 -0.019223038 -0.11085122 -0.033115648 -0.26983702 0.11124442 -0.120742865 0.123357944
-0.11112563 -0.20840235 -0.013872669 -0.22847298 0.01043734 -0.10653792 0.031255398 0.016832696
-0.14133142 0.061446615 -0.08888462 0.05473036 -0.18293367 -0.18879524 -0.014704026 -0.10463849
0.10547466 -0.26873657 0.10631598 0.12202223 -0.031108424 -0.10657851 -0.10489035 -0.10175052
