reachability_classification/weights/Separateq0qgqkckMultiplePassGNNReachabilityNet_epoch_68.pt (torch_old, 53383 bytes, 26 tensors)

x_lin.0.weight f4 [8, 1, 1, 2]
00000000: 8036 753e 921e 69be fe54 98be 49e5 89bf
00000010: 36e5 683d 1969 5c3f aeaf eabe 9b42 cb3e
00000020: 47d7 9a3e 208b 29bf 5c5f 1ebf 5bb3 5d3e
00000030: f9f3 3ebf 0f19 f43d d7e1 0dbf e447 c73e
0.23946571 -0.22765568 -0.29752344 -1.0773097 0.056859218 0.86097866 -0.45837158 0.39699253
0.3024237 -0.6622791 -0.61864257 0.2165045 -0.7459102 0.11918842 -0.5542273 0.38922036

x_lin.0.bias f4 [8]
00000000: f8d7 c23e 69be 5e3f 93f3 26bf 1648 ed3e
00000010: 6b40 fbbe 5123 803f c624 20be 79f6 4abd
0.38055396 0.8700929 -0.65215415 0.4634406 -0.49072585 1.0010778 -0.15639028 -0.04955146

y_lin.0.weight f4 [8, 1, 1, 2]
00000000: ddef 293f 72a3 a63d e595 293f 4b4b e23e
00000010: 57be 013d 227a 9a3f 791d e83e 5d72 05bf
00000020: 7cf3 9c3c 0ba4 1abf 9f3f dbbd 5433 dbbd
00000030: ad1f 21bf 8cc4 3a3e 4457 113f c9ae 233e
0.6638163 0.081366435 0.66244346 0.4419807 0.031675663 1.2068522 0.45334986 -0.5212763
0.019159071 -0.6040656 -0.10705494 -0.107031494 -0.6293896 0.18239039 0.5677378 0.15984644

y_lin.0.bias f4 [8]
00000000: a900 2ebf 5f68 243f bb31 5ebe 0ed9 73bd
00000010: 82bf 13be ea4b 14bf e3a0 0e3f a845 593e
-0.6796976 0.6422176 -0.21698658 -0.05953317 -0.14428523 -0.57928336 0.55714244 0.21217978

th_lin.0.weight f4 [8, 1, 1, 2]
00000000: 3bf4 a5bd 95bb bfbc b106 953e bace 943e
00000010: e6b3 eabb bc40 f4bf 2ca8 a1be 7759 f63e
00000020: 76cb e83e bb88 1bbf c8eb 03bf 477a a7be
00000030: 83d0 de3e dac9 d93e 2575 56bc e59d f0bf
-0.08103224 -0.023404876 0.29106668 0.2906397 -0.007162559 -1.9082255 -0.31573617 0.4811513
0.45467728 -0.6075551 -0.5153165 -0.32710478 0.43518457 0.42536813 -0.013089453 -1.8798186

th_lin.0.bias f4 [8]
00000000: 1c34 313e 6012 3d3d 3ccc 363c ec40 f6be
00000010: 7d15 b13e 9f58 d8bd 94ca 88bf b0f7 fe3d
0.17305034 0.046160102 0.011157092 -0.48096406 0.34586707 -0.10563778 -1.0686822 0.124495864

config_lin.0.weight f4 [32, 24, 1, 1]
00000000: d4c1 f93e 0f1d 49be b010 e7be 66a9 93bd
00000010: d027 d63e fb9f 5c3e c0f9 a8bd bf63 a83e
00000020: d00a bbbe d5b5 98bf c96a 6ebd 4f0a b13e
00000030: 9321 e3bd bc6f 44bf 30cc 6fbf 6c29 12bf
00000040: 387a 2d3e 3501 0cbe a196 5e3e bd39 df3d
00000050: 4eeb e13d d7fc 89bd 8fcc 243e c949 253f
00000060: e565 7ebd 8805 99be 1c18 593e f1a6 a13e
00000070: 4717 153f d30f 903e 5e4a 20be cdb5 8c3c
00000080: 95cd d7be 0f6c 5bbe e52f 0e3e 9d44 71be
00000090: f1dc 9d3c 7568 203e 26e6 723e a5c2 e8bd
000000a0: 72f4 173e 6e54 dbbc b6d2 0c3e c399 9cbd
000000b0: ab8d a4be 5881 963d 7868 2bbe 33a6 dd3e
000000c0: 2ce4 a13d abfc 213e 2374 82be f09c ba3d
000000d0: 58ca bebe 3214 de3d 8510 803e 2a02 913e
000000e0: ff40 903e f163 e13a 1adc 243e 693c 223d
000000f0: ec0a b43e 7906 473e 2e90 f2bd ccad 103e
00000100: eb6c 97bd a216 483d e608 b4be c690 10be
00000110: 89c2 833e e7fa 5e3c f07d f93d f6ff 05bf
00000120: 41b1 37bd f277 40be ec52 1fbf 194c d3be
00000130: 4199 33bf ebea 80be 04b4 49bd cf54 78be
00000140: ebb4 053c 9f2a ce3d 015a 623e bbf4 5c3e
00000150: 55d4 1c3e f3a3 92be 49f9 56be 1994 8ebd
00000160: 7f6e d3bc a506 293e bafd 13be 35c1 7c3e
00000170: 69f7 f93d d89f c53d b667 183e 4c6c abbe
00000180: 8d68 dc3d b889 a13e 2520 0b3e 19c5 9d3e
00000190: e140 8bbf 0d37 363e 5276 b1be 3019 20be
000001a0: f369 373e 1fbc 103f d537 1cbe f6c2 90be
000001b0: ad4d a4be 681b 953d 402a 79be b7a2 8b3e
000001c0: 341b e33c a99d cebe d46d a83f 0501 a6be
000001d0: 5f32 063f d638 cc3e 42f9 95be 940a ee3f
000001e0: 7e3b 4dbe cd3e 2b3e 4b84 86be 9df3 053e
000001f0: 0b0e 683e 9474 b13e 64e4 403e 3813 2dbf
00000200: 00f5 f83c 77b1 8d3e 0efd 55bf b5d3 0ebf
00000210: ae1f 0ebe 855e 973c a30a 693e baee 60be
00000220: 5427 05bd 38e6 cf3d 5e71 87bc 739c 3cbe
00000230: 594c b9be 2af1 88be 1987 f63e 5ede bbbd
00000240: df15 b0bc bb2d 993e 6f07 b13e bb88 0ebe
00000250: c391 a03c e6a7 c6be 60d9 f93d 6554 90be
00000260: cf55 e33d 361e b7be 0347 c7be 383c aa3d
00000270: b25f 6bbd f9b1 cc3d 6f99 823e bb2d 19bd
00000280: b1f2 803d a178 a3be 976d 60be 1ccd 903e
00000290: 69fb 58bf 56f8 42bd cf42 f8bd 81ef dabe
000002a0: a00e dbbd d56a 57be bc97 963e 9dbe 37bd
000002b0: e5f3 a6bd a6b8 b7be 7e34 4bbd c7b1 e6bd
000002c0: 1404 bcbd 40e4 03bf 5115 3d3c 20ce ac3c
000002d0: 0f40 a73e 9ea5 d23e 13cd 56bc 6eb5 02bf
000002e0: a8ff 4ebe ae1c 13be 6129 503d 2c50 83bc
000002f0: 92a6 d73d ac63 85be a241 063e 47d2 a4be
00000300: 9d39 53bc 4fc1 823f 0a7c 2bbe 38e5 c1be
00000310: cbdc a53d 1b17 c13e 7271 8f3e 1ba6 61be
00000320: 160d 10bd 2053 afbd 383f f9be f5e1 2dbf
00000330: 2f08 47bd d131 833e 909e 8c3e 9440 883d
00000340: db1b a53d f070 963d cf8f c8bc 0490 0fbd
00000350: 176d 6ebe 4f05 98be 32c2 f0bd 3e2e ff3d
00000360: 3fab f43e 20d2 083f a0f5 07bf 9e13 18be
00000370: ecca aa3e 7697 913e 85ab 97bd db20 753e
00000380: 3bef 57be 4b40 853e 2447 ed3e 75d7 3c3e
00000390: 4f27 82bd c59b 92be cfc1 aabd b7c0 0abe
000003a0: ff3b 523e 6bd8 6b3d ad0e 363e 17cf ad3e
000003b0: 144c 963c 5213 22bd 6377 94be ef94 9e3e
000003c0: 3f6e 03bf 9808 7fbd d4a1 773e 247c 14be
000003d0: fc8e e3be 12f7 cd3d 9ce2 b2bd 6530 193e
000003e0: 7058 da3e bb2d 243e 57e7 8dbe bcee 9b3e
000003f0: 548b 6e3e 78f0 75bd 581a debe 8165 cb3e
0.48780692 -0.19639991 -0.4512992 -0.072100446 0.4182725 0.21545403 -0.08250761 0.328886
-0.36531687 -1.1930491 -0.058207307 0.34578177 -0.11090388 -0.76732993 -0.9367094 -0.57094455
0.16941154 -0.13672335 0.21737148 0.108996846 0.11031209 -0.067376785 0.16093658 0.6456571
-0.062108893 -0.29887033 0.21200603 0.3157268 0.58238643 0.28137073 -0.15653369 0.017176533
-0.42149034 -0.2142794 0.13885458 -0.2356133 0.019270392 0.15664847 0.23720607 -0.113652505
0.14839342 -0.026773658 0.13752255 -0.07646515 -0.32139334 0.07348889 -0.1673907 0.43290862
0.079048485 0.15819041 -0.2547923 0.09111965 -0.3726375 0.10843696 0.25012603 0.28321964
0.28174588 0.0017195923 0.16099587 0.039608393 0.35164583 0.19436063 -0.11843906 0.14128798
-0.07393821 0.04884971 -0.3516304 -0.14117727 0.25734356 0.0136096245 0.12182224 -0.5234369
-0.044846777 -0.18795756 -0.62235904 -0.41268995 -0.7015572 -0.25179228 -0.049243942 -0.24251102
0.00816081 0.10066723 0.22104646 0.21577732 0.15315373 -0.28640708 -0.20993532 -0.06961841
-0.025809525 0.16506441 -0.14452258 0.24683078 0.12205393 0.096496284 0.14883313 -0.3348106
0.10762129 0.31550384 0.13586481 0.30814436 -1.0879174 0.17794438 -0.34660584 -0.15634608
0.1791151 0.5653705 -0.15255673 -0.28273743 -0.32090512 0.07280618 -0.24332523 0.2727258
0.027722932 -0.4035466 1.3158517 -0.32422653 0.5242061 0.39887112 -0.2929173 1.8596978
-0.20042226 0.16723175 -0.26272807 0.13081212 0.22661607 0.34659255 0.18837124 -0.6760745
0.030390263 0.27674457 -0.83589256 -0.5579179 -0.13879272 0.018477688 0.22757964 -0.21966067
-0.03250821 0.101513326 -0.01653355 -0.18419056 -0.3619106 -0.26746494 0.48149946 -0.091732726
-0.021494804 0.29917702 0.34575984 -0.13919346 0.019600755 -0.3879997 0.12199664 -0.28189388
0.11100351 -0.35765237 -0.38921365 0.08312267 -0.05746431 0.09994883 0.25507686 -0.037397128
0.0629629 -0.3192797 -0.21916805 0.28281486 -0.8475862 -0.047600113 -0.12122118 -0.42760852
-0.10696149 -0.21036847 0.2941264 -0.044859517 -0.08151988 -0.35883063 -0.049610607 -0.11264377
-0.09180465 -0.51520157 0.011540727 0.021094382 0.3266606 0.4114198 -0.013110417 -0.5105809
-0.20214713 -0.14366409 0.050820712 -0.01602944 0.10529818 -0.26052606 0.13110974 -0.3219168
-0.012892154 1.0215243 -0.16746536 -0.37870193 0.080987535 0.3771294 0.2801624 -0.2203602
-0.03516873 -0.08560777 -0.48681045 -0.6792291 -0.04859179 0.25623944 0.27464724 0.06652942
0.08061954 0.0734576 -0.024482636 -0.035049453 -0.23283802 -0.2969155 -0.1175579 0.12459992
0.477869 0.53445625 -0.5310917 -0.14851233 0.33357942 0.28435868 -0.07405762 0.23938315
-0.21087353 0.26025614 0.46343338 0.18441565 -0.06355154 -0.28634468 -0.08337747 -0.13550077
0.20530699 0.05757944 0.17779036 0.3394706 0.018346824 -0.039569207 -0.28997335 0.30973002
-0.513401 -0.062264055 0.24182826 -0.14500481 -0.44445026 0.100568905 -0.087346286 0.14959867
0.42645597 0.1603307 -0.2771556 0.30455577 0.23295337 -0.060043782 -0.43379474 0.3972588

config_lin.0.bias f4 [32]
00000000: a5bf 0a3e a7b4 963e de7d a3be 918c 4a3e
00000010: e407 833e b7f1 adbc fa5f f7bd 3f92 b6be
00000020: 1854 eabd 85e8 a43d 4a72 d8be 8c58 343e
00000030: 7566 433d 7536 853e 2add b53c 7481 fe3e
00000040: 4c08 0dbc b973 00be 15d8 03bf 9eef 033e
00000050: 50b3 e03d dafd 53be 9e98 913d 18b6 36be
00000060: ad92 423e facc 3e3d b07f 0ebe 8928 513d
00000070: 00b8 c03e 5396 6dbe 2c2d 033a b7f0 173e
0.13549669 0.29434702 -0.31931967 0.19780184 0.25591958 -0.021233423 -0.12078853 -0.35658452
-0.11441821 0.08052162 -0.42274696 0.17611903 0.047705133 0.2601811 0.022200186 0.4970814
-0.008607935 -0.12544145 -0.5150159 0.12884375 0.10971701 -0.20702305 0.071091875 -0.17842901
0.19001265 0.0465822 -0.13915896 0.051064048 0.3764038 -0.23201875 0.00050039846 0.14837919

config_lin.2.weight f4 [32, 32, 1, 1]
00000000: 5bfc aa3e c278 153e 058b 513d 611c 15bd
00000010: ff71 133f e4e0 1fbe a44c cfbe e222 9d3b
00000020: dab3 4a3d bb66 593d 72ae 0cbf 06d3 a6bd
00000030: 4681 a1be 1100 f4be ad87 a1be 9fbd 6b3e
00000040: 64ea e4bd a952 1a3d 93cf d7be bda2 a93d
00000050: a08a 803e b6ce 723e 1fe8 c1bd 8517 993d
00000060: 24b2 b2be 3fbd 543e 8806 f33e 9213 36bf
00000070: 209b 93bb 8577 0cbf 82d3 a0bd f20d 6dbf
00000080: e2f9 973e c8f5 733d d180 edbd f57c 9bbe
00000090: ac7a 283f 7a0b aebe 4a74 f1be 295e 573e
000000a0: f062 943e 79b8 cebe 346d 48be eb61 3cbd
000000b0: 16db 6f3e 34ce 373e f6d8 0dbe c74c 183d
000000c0: 9172 22bf 0eac c9be af2b 1ebe ba0b f6be
000000d0: 3d8c aabe 144b c63e 93b2 13bf 609c 81be
000000e0: 8e18 1fbf 7ce8 f93d 2bb8 073f 65cd db3d
000000f0: 9d31 31bf 67eb 05bf 4545 053d 8142 97bc
00000100: 6c33 e7bd 7977 4b3e 15d0 543d f4a8 6cbd
00000110: 0a5b 9f3d f3d9 22bf 49db 55bc d5fb 193e
00000120: 106f 0d3d 33fc a2be 0053 a83d f6d1 873d
00000130: 8c80 1dbd c3a6 9ebd 0b7d 35bd c15d bcbd
00000140: a73a c93d 9059 0fbe ffcf 823e 5255 223e
00000150: cf80 4f3d 0d58 943c 0fb6 063e 2826 1abe
00000160: 9524 c33b 42c8 16be 9d14 62be 4d4a 9b3b
00000170: 4502 b8be c774 acbd 2a20 df3d 5d50 1dbd
00000180: aa3e 333f 39c0 82bd c876 24bf 4a95 ae3e
00000190: d429 cfbe 36d3 8a3d b980 e43e 1c6c 14bf
000001a0: 10ba 61bd 117d 2cbe e338 593c a3cf 353d
000001b0: 3225 90bf 7974 c3bd bdbb d1be a8bd 86bd
000001c0: 7aa5 72be 4431 173e 43c7 87be 5775 483e
000001d0: 6de1 cbbe d44d 873d b6cf 26bf 6ff9 1abe
000001e0: 6c23 dcbe 86da 313e 8c80 eb3d cfab 013e
000001f0: bd6d f1bd fd3f 423e 4ffc b43e e1ec 0b3f
00000200: 7694 893d 5bd1 37be 035c 843e b28b 373e
00000210: 1c05 fbbe 2718 ccbe a606 95bc 2b63 213e
00000220: 5806 96bc 44fd 61be 2d1a 983e fc9e 45bf
00000230: 5719 213e 07ae bc3d 4012 4d3e a8d5 e6be
00000240: 4c5d a63d 28dd a7bd 787a 8f3d 4008 5f3d
00000250: 55fb 22be 9598 fa3c e980 1f3e 6b83 893d
00000260: 4c0e 9b3e 56ee 0ebf b767 1abe 2111 b3bd
00000270: d200 bebe a201 84be 9406 aebc 5a0d 80bf
00000280: 88f0 4cbe 6f67 f1be 9d21 d53d 42a6 693e
00000290: 1df3 81bd efec 12be 1aa0 4abe 8d0b 973c
000002a0: b6ac e3bd 2b2b 493e adb7 443e 5799 903e
000002b0: 80c4 02be d646 5c3e a39c c8be 031d 28be
000002c0: b09c 7f3e 7318 1ebe 8ca5 a43e 206e aabd
000002d0: 79e0 133e 9189 e2be 826f 72be 28cf 783d
000002e0: 3c1e 28bd 0ce3 523e d3cb 383e 0c09 2cbe
000002f0: 7300 bfbd d41d a3be b116 3bbd 4b2d 1b3e
00000300: c97f 17be 3642 85bd 476e 86bd 8fe4 21be
00000310: fd15 b5bc 1969 cfbe 12b9 c03c 1a11 dc3d
00000320: be2e 02bf d4b6 26bf ef1e 393e 2639 483e
00000330: 346b eb3e 9e5b ee3d 9a41 54bf 0a9e 033d
00000340: 66ca 37be 6afb e13d 173c a8bd 5c7d a1be
00000350: 38c9 15be 7725 133e 60c6 03bd fc2a 2ebf
00000360: a6e1 d0bc a354 54be 6f69 dcbe 6d33 7fbd
00000370: 6fe1 973d a561 263e 9403 8b3e c540 fe3d
00000380: 366a eabe 3957 4e3e 2663 0cbf 30b1 d3be
00000390: c12b 7dbe 0672 c43e 80d9 f03e c0bc 503b
000003a0: 2cc2 643e 8ef8 15bf e64a 5abf d741 843c
000003b0: 574f fc3d dedc 20bf d13f a33c 1ac6 7e3d
000003c0: cf10 e1bd 55a3 c03d d55d 4e3c f382 a63d
000003d0: 6b8e f8be e7ce b33e 2413 25bf 99c4 e1be
000003e0: a9c0 c5be 0619 f0be 32e5 77be a610 5c3d
000003f0: 947c 023e bf0b 96bd 9da7 fa3d 11fb 6a3e
0.33395657 0.14596847 0.05115797 -0.036404017 0.5759582 -0.15613133 -0.4048816 0.004795418
0.049487926 0.053076487 -0.5495368 -0.08145718 -0.3154394 -0.476563 -0.31548825 0.23021553
-0.11177519 0.037676487 -0.42150554 0.08282993 0.25105762 0.23711666 -0.09468102 0.07475189
-0.34901536 0.20775317 0.4746592 -0.7112361 -0.0045045763 -0.5486987 -0.07852842 -0.92599404
0.29682833 0.059560567 -0.115968354 -0.30368772 0.6581218 -0.3399313 -0.47159034 0.21032013
0.28981733 -0.40375116 -0.19572908 -0.04599182 0.23423418 0.17949754 -0.13852295 0.037182596
-0.63456064 -0.3938908 -0.15446351 -0.48055822 -0.33310118 0.38729155 -0.5769436 -0.25314617
-0.6214684 0.12202546 0.53015393 0.10732535 -0.6921633 -0.5231232 0.032536764 -0.018464329
-0.11289105 0.19869794 0.051956255 -0.057778314 0.07781036 -0.63613814 -0.01305277 0.15037473
0.034529746 -0.31833038 0.08218956 0.06631844 -0.03845267 -0.07746651 -0.044308703 -0.0919757
0.0982564 -0.13999009 0.25549313 0.1585286 0.05065995 0.018108392 0.13155387 -0.15053618
0.0059552887 -0.1472483 -0.22078176 0.004739082 -0.35939232 -0.08420711 0.10894807 -0.03840672
0.7001749 -0.0638432 -0.64243746 0.34098274 -0.404616 0.067785665 0.44629458 -0.5797746
-0.055109084 -0.16844584 0.013258192 0.04438747 -1.1261351 -0.095437 -0.40963545 -0.06579143
-0.23695937 0.14764887 -0.26519212 0.19576012 -0.39820424 0.066066414 -0.6516069 -0.15134214
-0.42995775 0.17368516 0.11499128 0.12663196 -0.11788509 0.18969722 0.35348746 0.54658324
0.0671777 -0.17950957 0.2585145 0.17924383 -0.49027336 -0.39862177 -0.018191647 0.15760486
-0.018313572 -0.2206927 0.2970747 -0.77195716 0.15732323 0.092128806 0.20026493 -0.45084882
0.08123264 -0.08196479 0.07005781 0.054451227 -0.15916188 0.030590335 0.15576519 0.06714519
0.30284345 -0.5583242 -0.15078627 -0.087435015 -0.3711 -0.25782496 -0.021243371 -1.0004075
-0.2001363 -0.47149226 0.10406802 0.22817329 -0.06345198 -0.14348195 -0.19787636 0.018438125
-0.11116926 0.19645374 0.19210692 0.2824199 -0.12770271 0.21511397 -0.39182004 -0.16417317
0.24962115 -0.15439014 0.32157552 -0.08321786 0.14441098 -0.4424558 -0.2367535 0.060744435
-0.04104446 0.20594424 0.18046503 -0.16800326 -0.093262576 -0.31858695 -0.045675937 0.15153997
-0.1479484 -0.06506769 -0.065640025 -0.15809844 -0.022105211 -0.4050987 0.023525748 0.10745449
-0.5085257 -0.65122724 0.18078206 0.1955305 0.45980227 0.11638568 -0.829126 0.03213314
-0.17948303 0.110342816 -0.08214586 -0.31540954 -0.1462754 0.1436976 -0.032171607 -0.6803434
-0.025498223 -0.20735411 -0.4304919 -0.062304903 0.07416045 0.16248186 0.27151167 0.124146976
-0.45784158 0.2015046 -0.5483879 -0.4134612 -0.24723722 0.38368243 0.4704094 0.0031850785
0.22339696 -0.5858239 -0.85270536 0.016144676 0.123198204 -0.62837017 0.019927891 0.062200643
-0.10989534 0.09406153 0.0125956135 0.08130445 -0.48546156 0.3511879 -0.6448233 -0.44095305
-0.3862355 -0.4689409 -0.24208525 0.053726815 0.12742835 -0.07326459 0.12239001 0.22947337

config_lin.2.bias f4 [32]
00000000: af56 d63d e986 5d3c a6d5 88be a34b 13be
00000010: 065c edbd ebdb aabe c8d7 d43d 56dd 34be
00000020: ad8c fcbc a973 81be aae8 ab3d 343b 95bd
00000030: 4e2a b5be e0e4 f7bc 3164 98bd 7a88 c0bd
00000040: a69d fabd ad0a c1be 904b c1be af3d 4d3e
00000050: 2e38 62be 5ffb f2bd 722a a83e 761e 953e
00000060: 54a0 c1be d04d 7d3e f3a0 8fbd 2af2 57bd
00000070: 9143 873e 85df e0be fdf9 e03d 76db f93c
0.10465752 0.013520935 -0.267255 -0.14384322 -0.11589818 -0.3337091 0.103927195 -0.17662558
-0.030828798 -0.25283554 0.083939865 -0.07286683 -0.35383838 -0.030260503 -0.07440985 -0.09401031
-0.122371 -0.37703457 -0.37752962 0.20043062 -0.22091743 -0.118643515 0.32844883 0.29124802
-0.37817633 0.24736714 -0.070131205 -0.05272118 0.26418737 -0.43920532 0.109851815 0.030500155

vertex_lin.0.weight f4 [32, 64, 1, 1]
00000000: f698 7cbe e344 4bbd c9f9 dcbc 34ab acbd
00000010: e822 793e c4c6 0e3e df53 673d 57cf 29bc
00000020: 0672 f6bd 5ca6 2bbe 7a53 87be b4cd c23e
00000030: a0c0 cabc 3946 a23e a41a 93bd 3195 4dbe
00000040: c172 08be a9f8 763e 7b77 a53e ab6e 543e
00000050: 0bc8 e03d e6b2 9dbd 097b c33d e498 16be
00000060: 4e3d b7be 1daf 083e 1137 41be 89e3 59bd
00000070: 7643 f23d a517 803d 3ffe 0b3e 68a3 77be
00000080: 3f59 3b3e fd0a af3e 399d cd3c fd5b 6d3e
00000090: 4fd7 1dbf ea77 cb3c b82d 30bd 68b8 263e
000000a0: 88de 903d 6a5d bc3e 2471 063e 9905 d1be
000000b0: d6d6 b73d 78c6 133e 7396 653e ab46 71be
000000c0: 0ba2 8c3e 7f63 dcbe 9e6f 5ebe 2ddd bbbe
000000d0: 125b b9be 6bd5 cfbb 4cdb 09be 38ef d93e
000000e0: 5084 cbbe bba5 35be fc8e a9be b55a c4bd
000000f0: eb4f edbe 12fa 58be adcb d2be dff9 623e
00000100: f58e 94be 4da0 b23e 37da 7dbb 9f31 da3e
00000110: 5485 98bd 83de a0be 6a1a 9f3e 8858 973c
00000120: 9aea c03e ace3 0dbc 906e 3fbe a3fa 363e
00000130: e0bf 1dbe 234c ca3e 03e3 823e a6dd efbe
00000140: f2d9 cf3d 26a7 ffbd 95ac 13be 121d 513e
00000150: e3d9 79be 6d99 123d fb59 d8bd a21b 943e
00000160: 9e49 a5bd f123 4b3c d7b8 d33e 4bd7 833e
00000170: a176 c3be 22e1 cf3d dfa8 803e 702f 9d3e
00000180: 2cdc 65be e6b0 9bbd 06ab 01be 093b ba3d
00000190: ef0a 13be c58e f6bc ce97 42bc a320 213c
000001a0: 865d 8bbe e2ff cabb f458 3cbe f0a4 ffbe
000001b0: f256 35bf c723 973d 8567 0e3e f3fc 9b3e
000001c0: aa18 6a3e dbc8 623e 27af 5ebc 20e0 c7bd
000001d0: d60f b23d c85f acbd e255 76be e0fc 073f
000001e0: 6135 c0be 5b1d 183e 7774 c4be 8d36 dd3d
000001f0: 14a0 54be 5046 1ebe 7f1a 01be 3535 043d
00000200: 08c6 9fbe 3138 893e 4ca0 c8bc f5b1 36be
00000210: f01a edbd 93ec 163e fbf2 d23d a9ba 1f3e
00000220: bd51 8ebe e552 8c3e 3de4 873e 298d c13e
00000230: 19ef 693e c866 b1be 2fa2 053d 240e 10be
00000240: d888 e2bc d0de d43d 128a 243e 18e1 6bbe
00000250: cc7c 8f3c 51f5 263e be67 143d b0b9 afbc
00000260: b99e 0a3e 7793 593e 3b71 e6be e7f1 b8bc
00000270: 5184 933e 09ca 55be f861 d1be b97c 323c
00000280: f265 4cbd 0dcc c83e 5071 38be 991b 223d
00000290: bc1d a2be c3ad 9d3c 4707 90be ce78 b3be
000002a0: 18ab 68be 937f b0be 4060 a4bc c1c2 b43e
000002b0: 8678 bcbd 5160 18be 5363 7abe dc58 8d3e
000002c0: a422 353e d091 f7be b648 4bbe bf12 80bd
000002d0: 783c 0c3e dc41 403d f134 c73d 1bfa 44be
000002e0: c8ed 9e3e fcc7 f2bb 44c9 0b3e a9aa a33d
000002f0: 9f9e a63b 05f7 8c3e 6e0f 9ebd d781 893e
00000300: 719e b8be b484 c6be e782 183e 73ea bb3e
00000310: 211d 4bbe afd7 e8bc b4f7 69be f69e 9dbe
00000320: cee5 ce3e 60df 3b3a fa8a 233d 957d 80be
00000330: 47bf 14bd 2b05 bf3e 3ad2 9d3e eee7 debe
00000340: d3d0 9a3e 720d 3a3e 8173 a039 4b2f 37bf
00000350: dcaa 1c3e 9e2a a53e fc62 4abe 58e6 053d
00000360: e2e3 1cbd 97df 43be 74a4 723e ac8b 3c3e
00000370: 9044 23be 9ad5 30be e046 fb3e a3ed 1e3e
00000380: 78a3 c7be 1f43 313f 9d0b 95be f22d 51bd
00000390: fe62 de3d a3d3 c3bd aca0 26bd eda2 80be
000003a0: 7639 933b 64d6 ebbe 85c3 dbbd 9d81 643d
000003b0: 0599 ad3d 7071 54be 7f58 d73d 1535 a53e
000003c0: f0f2 9f3e d36e c03d 7e97 9dbe d82c 46be
000003d0: 6efa 5c3d 2be9 de3e af35 bcbd 2a57 51bf
000003e0: aa20 4e3e a56d 9e3e 0b2d 303e d1b5 06be
000003f0: 7f0b 53be 3c59 00bd aa15 9fbe cba1 1f3e
-0.24667725 -0.049626242 -0.026974576 -0.08431092 0.24329722 0.1394301 0.05647647 -0.010364375
-0.12033467 -0.1676268 -0.26430875 0.38047564 -0.024750054 0.316942 -0.07182816 -0.20076443
-0.13325025 0.24118294 0.3231772 0.20745341 0.10975655 -0.07700138 0.095449515 -0.1470676
-0.3578896 0.1334805 -0.18868662 -0.05319551 0.118292734 0.0625451 0.13671206 -0.24183428
0.18295763 0.3418807 0.025099384 0.23179622 -0.6165666 0.024837453 -0.04301235 0.16281283
0.070736945 0.3679002 0.13129097 -0.40824583 0.089765236 0.14431179 0.22420673 -0.23562114
0.2746738 -0.4304466 -0.21722266 -0.3669218 -0.36202294 -0.00634258 -0.13462561 0.42565322
-0.39749384 -0.17739002 -0.331169 -0.095876135 -0.46350035 -0.21189144 -0.41171017 0.22165631
-0.29015318 0.34887925 -0.0038734803 0.42615983 -0.07447305 -0.31419763 0.3107484 0.018474832
0.37678987 -0.008660238 -0.1869452 0.17869048 -0.15405226 0.39511213 0.2556382 -0.46848792
0.10148992 -0.12483053 -0.14421304 0.20421246 -0.24399523 0.03579085 -0.105640374 0.28927332
-0.08070682 0.012398706 0.4135196 0.25750193 -0.38176444 0.101503626 0.25128838 0.30700254
-0.2244727 -0.076021 -0.12662897 0.09093291 -0.1435964 -0.030097375 -0.011877013 0.009834441
-0.2721979 -0.0061950544 -0.18393308 -0.49930525 -0.70835793 0.07379871 0.13906677 0.30466422
0.22860971 0.22146933 -0.013591564 -0.09759545 0.08694427 -0.08416706 -0.24056199 0.5312023
-0.37540725 0.14854948 -0.38370106 0.1080142 -0.2076419 -0.1545651 -0.12607764 0.032277305
-0.31205773 0.26800683 -0.024490498 -0.17841323 -0.115774035 0.14738683 0.10300251 0.15598549
-0.27796736 0.27406994 0.2654132 0.3780301 0.22845115 -0.34648728 0.032625373 -0.14067894
-0.027653143 0.103940606 0.16068295 -0.23035085 0.017515562 0.16304518 0.03623175 -0.021450847
0.1353711 0.2124766 -0.45008263 -0.022576286 0.28811887 -0.20877852 -0.40895057 0.010893994
-0.04990191 0.39218178 -0.18011975 0.0395771 -0.3166331 0.019247895 -0.28130552 -0.35053104
-0.22721517 -0.3447233 -0.020065427 0.35304835 -0.092026755 -0.14880492 -0.24451952 0.27606857
0.17688996 -0.48353434 -0.19851956 -0.062535755 0.13694942 0.04693781 0.09726895 -0.19236033
0.31040788 -0.007409094 0.13650995 0.07991535 0.005084827 0.2753221 -0.07717787 0.26856872
-0.3605838 -0.3877312 0.14893685 0.36702308 -0.1983533 -0.028423158 -0.22848397 -0.3078534
0.40409702 0.00071667694 0.03992746 -0.2509581 -0.03631523 0.3730863 0.30824453 -0.43536323
0.30237445 0.18169191 0.00030603635 -0.7155654 0.15299553 0.32259077 -0.19764322 0.032690376
-0.038303263 -0.19128262 0.23695546 0.18412656 -0.15944123 -0.17268983 0.4907751 0.15520339
-0.38991904 0.69243044 -0.29110423 -0.051069207 0.10858725 -0.09561851 -0.040680572 -0.25124303
0.004492934 -0.46062005 -0.10730652 0.05578767 0.08476452 -0.20746398 0.10514926 0.3226706
0.31240034 0.09396138 -0.30779642 -0.19353044 0.053949766 0.43537268 -0.09189927 -0.81773627
0.20129648 0.30943027 0.17204683 -0.13155295 -0.20609854 -0.0313351 -0.31071216 0.15589063

vertex_lin.0.bias f4 [32]
00000000: fe39 0dbe 94a2 c9bc ca6c f4bc 0974 2bbe
00000010: ffca 83be 045f 20b8 8e7f 913c a5c4 79bd
00000020: 5fc2 0d3e 1fa2 87be 9ceb 6abc 3f35 b93d
00000030: aab8 4f3e 0a48 1fbe 8d7e 1d3d ac74 b4bc
00000040: 3d09 6e3e 0038 19bd 7641 12be 03e4 06be
00000050: f5c2 5dbe 6aca 80be 3d22 34be e194 033e
00000060: 2086 373e 9da3 253e f266 9cbe ea20 93be
00000070: c7a5 603d 44b4 33bd d001 7a3e 933b 5cbe
-0.13791654 -0.024613656 -0.02983703 -0.16743483 -0.2574081 -3.8235463e-05 0.017761018 -0.06097855
0.13843678 -0.26490876 -0.0143384 0.09043359 0.20285287 -0.15554824 0.038450766 -0.02202829
0.23245712 -0.03740692 -0.14282784 -0.13172917 -0.21656401 -0.2515443 -0.17591186 0.12849762
0.17922258 0.16175695 -0.3054729 -0.2873605 0.054845598 -0.043873087 0.24414754 -0.21507101

vertex_lin.2.weight f4 [32, 32, 1, 1]
00000000: 985a cbbc 02d8 493b 5a77 753d ac66 193e
00000010: 2a6f e13d 6d69 663e f7e9 9b3d 270b 44be
00000020: b499 ae3e 322b 263e 8445 bcbd 0382 9a3e
00000030: e335 423d 8998 333e 9e67 a33c c7a8 87be
00000040: 7f50 c93e 2f54 823e fd97 5f3d a319 253e
00000050: 1fee 243e 516d 8c3d 16ce 25bd b82d 7a3e
00000060: b876 74be 9051 f5bb 8351 48bc 6653 b0bd
00000070: 395b 2dbe 1ff7 16be be46 083e d13a 86be
00000080: 76b7 15be 870b d6be b2bb 7abe 100f 213e
00000090: 0517 a4be b86f 2bbe 787a 9bbe d095 a1be
000000a0: 4fa3 bfbe 9a0c e93d 179d 94be 96ce 19bf
000000b0: d83d 41bf 4474 d0bd 5e17 6c3d e09c ef3d
000000c0: ae2c 9e3e 5d86 86bd 70d9 9abd 14ea 0cbf
000000d0: 4537 5cbe 7c68 e4bc a81f 023f 103b 8c3e
000000e0: e936 9a3d 83e7 0dbf 682f 08be 3d62 4cbe
000000f0: 7d2e 71bd 25ff 4ebd 42f1 303c 85da a5be
00000100: a621 043d c8be 893e 4b38 dcbc a483 713e
00000110: 6373 50be 5e1e ad3e 7dc8 9cbe 775d e6be
00000120: 9854 893e 1a9b f5be fb15 44be 9c75 07be
00000130: 99b0 a9be 24ed c0bd 4b29 1c3d d1bf 3bbe
00000140: 3e44 213e abbb 8f3e efb5 08bf f279 dfbe
00000150: fb68 06bf 5e0f e1bc feee 073d 8d4b 20bf
00000160: 610a fa3d 721f 363a fc99 16bf 3422 5dbe
00000170: f847 ea3d 9be0 153e bada 04bf 702c 87be
00000180: 8ad7 623e 80c7 72be c3e4 ba3d 07da 09be
00000190: 5668 773c 8bbe c43c eb23 b13a c729 373e
000001a0: a33b 28be b2c5 08bf 60f1 59be 4596 67bd
000001b0: 4606 1fbd 84bc c6be 6d90 4a3b 6f90 623e
000001c0: c6e3 39be 464f 513e c7b6 3f3c 50d1 05bd
000001d0: 435a 0bbf dccc af3e 2fba 14bf a828 aabe
000001e0: 2d76 46bd 2db0 e83e ea8e 99bd 64de dbbd
000001f0: 571a fd3c 979f 1b3f 0bcf 253e ef48 b9be
00000200: 40a7 293e 5205 1a35 3a23 08be e0a4 8e3d
00000210: ea55 893e 886a eabe 94c1 08bf 7410 2cbe
00000220: c7ad 0fbf ff3d 1c3c 09cc 983e e66d 00be
00000230: 5b29 803e 45ff b2be c5c2 083e 15ef cdbe
00000240: 7243 983e 3ad6 cdbe 7564 463e eeb2 cd3d
00000250: 8329 043e 4895 ed3d 8c36 103d da24 f7be
00000260: b12e 8dbd 13ff 033d 165d d03e f2da a23b
00000270: d763 33bf 95d2 a3bb 7a00 78bd 9863 973d
00000280: d35f 72be ce91 d2bd 000b e13c f6a7 7c3d
00000290: 0213 71bd 21e3 af3e c42b 4b3d 406b 43bf
000002a0: 4a9a 1e3e d68a 483c 5470 a33e 03b6 15bf
000002b0: 3f1c 0d3e 66af babe 924e 99be 5f48 d93d
000002c0: 4bce 123e 8d7a 5cbe f29b 13bf 3455 8cbd
000002d0: 1dbe e4be 5d54 fbbe 824a 1ebd ca87 813e
000002e0: af63 dc3d 5763 6dbf 2ea3 86bd dc71 40bd
000002f0: 4506 bdbd 24c1 34be b1dc de3e 4f8d 5abe
00000300: a479 04bf bb9d f6be 1db2 25be 5087 47be
00000310: 53bd e4be ebca 8ebe f77e 02bf c69d 5b3e
00000320: 56fa 50be 5b75 09be 6348 e73d 0cc4 52be
00000330: 8af1 7e3d f892 41bd 9c6b f3be efe8 b43e
00000340: 6a05 833e d065 7e3d 26de ecbe accf 9dbe
00000350: 9c67 e63d a174 6a3e 816c 603e 4912 df3d
00000360: b21a 75be 634f 3fbe fbd5 053f d996 383e
00000370: a96e 213e d681 03be 00a9 81bd 864e 8bbe
00000380: cc00 de3d cfb2 603e 5260 1ebf ec9b 883e
00000390: 0edc 1cbe c335 bb3d 3788 a73d 7f52 68bd
000003a0: 8224 263e 3889 103e 7ced 92bd 21d6 403e
000003b0: 2519 11be b82e 483d 55f7 d3be a42e d83d
000003c0: 1ef7 b3be 3fd3 353e 2fee 19be e1f0 c93e
000003d0: 2287 5abd 511f a0bd b014 c1be 7d8d 053f
000003e0: aa3d cbbe 5554 dabe f7f7 9cbe 59b9 f23b
000003f0: 2892 c73b 1e1c febe 653c d9be ffc6 bebe
-0.024823472 0.0030798917 0.059928276 0.14980572 0.11007531 0.22501154 0.07612985 -0.1914488
0.3410164 0.16227415 -0.091929466 0.30177316 0.04741467 0.17538656 0.01994687 -0.26495954
0.39319226 0.25454852 0.054588307 0.16123061 0.16106461 0.06856788 -0.040479742 0.24431503
-0.23873413 -0.0074865296 -0.012226465 -0.08609657 -0.1692933 -0.14742707 0.13308236 -0.26216748
-0.14620766 -0.4180567 -0.24485663 0.15728402 -0.32048813 -0.16741836 -0.30366874 -0.3155961
-0.37429282 0.11379357 -0.290261 -0.6008085 -0.7548499 -0.10178426 0.057639472 0.116998434
0.30893463 -0.065685965 -0.07561004 -0.55044675 -0.21505459 -0.027881853 0.50829554 0.2738881
0.075300045 -0.55431384 -0.13299334 -0.1995935 -0.058882225 -0.050536294 0.010799708 -0.3239328
0.032258652 0.26903367 -0.026882311 0.23585373 -0.20356517 0.3381223 -0.3062171 -0.44993183
0.26822352 -0.47969896 -0.1914901 -0.13228458 -0.33142546 -0.09420231 0.038125318 -0.18334891
0.15748689 0.28072867 -0.5340261 -0.43647724 -0.5250394 -0.027473148 0.033186905 -0.6261528
0.12209011 0.0006947435 -0.5882871 -0.21595079 0.11439508 0.14636461 -0.5189625 -0.2640109
0.22152534 -0.23708916 0.09125664 -0.13462077 0.015100559 0.02401664 0.0013514733 0.1788703
-0.16429 -0.5342666 -0.21283484 -0.056539793 -0.038824342 -0.388157 0.0030908838 0.2212541
-0.18153295 0.20440397 0.011701292 -0.03267032 -0.54434603 0.34335983 -0.58096594 -0.33234143
-0.048452545 0.4544691 -0.07497962 -0.10735777 0.030896349 0.6079039 0.16192262 -0.36188456
0.16567707 5.737721e-07 -0.13294688 0.06965041 0.2682336 -0.45784402 -0.53420377 -0.16803151
-0.5612454 0.009536265 0.29843166 -0.12541923 0.25031552 -0.3496038 0.13355549 -0.40221468
0.29738957 -0.40202504 0.19374259 0.10043894 0.1290646 0.11600739 0.03520827 -0.48270303
-0.06893671 0.03222568 0.4069602 0.004969948 -0.7007422 -0.0049994686 -0.06054733 0.07392043
-0.23669367 -0.10281716 0.027471066 0.061683618 -0.058856018 0.34352973 0.049602285 -0.76335526
0.15488544 0.012240132 0.31921637 -0.5848085 0.13780306 -0.36461943 -0.29942757 0.10609507
0.14336507 -0.21531124 -0.5765983 -0.06852189 -0.44676295 -0.49087802 -0.038645275 0.2529891
0.10761201 -0.92729706 -0.06574093 -0.046983585 -0.092297114 -0.17651802 0.4352775 -0.21342967
-0.5174811 -0.48167214 -0.16181226 -0.19485211 -0.44675693 -0.2788919 -0.5097498 0.21446905
-0.20407996 -0.13423674 0.112931035 -0.20582598 0.06224207 -0.0472593 -0.47543037 0.35333964
0.25590068 0.062108815 -0.46263236 -0.30822504 0.11250231 0.22896053 0.21916391 0.108921595
-0.23935965 -0.18682627 0.52279633 0.18026294 0.1576487 -0.12842497 -0.06331062 -0.27208346
0.10839996 0.2194321 -0.61865723 0.2668146 -0.15318319 0.091411136 0.08180278 -0.0567193
0.16224864 0.14114845 -0.07174203 0.18831684 -0.14169748 0.04887268 -0.41399637 0.10555771
-0.35149473 0.17756365 -0.15032266 0.3944159 -0.05335153 -0.07818473 -0.37711096 0.5216902
-0.39695483 -0.42642465 -0.30657932 0.007407349 0.006090421 -0.49630827 -0.4242889 -0.37261197

vertex_lin.2.bias f4 [32]
00000000: 56fe 4abe 2721 ecbd f778 c2ba fe39 91bd
00000010: 052e 3d3d 8a6a 5e3e 8545 413e 6c58 2d3e
00000020: 5ab0 aebe 6cef 9fbd 72e8 3e3e 29e6 6ebe
00000030: 3727 27be 43d1 19be 848f afbc afb5 8c3e
00000040: 8a77 623e 1643 3ebe f6a9 6fbe 007f 30be
00000050: 02c7 4ebe 59cd 753e ab45 7b3d c78a c5be
00000060: b6e1 10be b8e8 933e 4db9 353e 3717 4a3e
00000070: 466f 2e3d 8860 cbbd 314a 2f3e c890 debc
-0.19823584 -0.11529761 -0.0014837076 -0.07091139 0.046186466 0.21720329 0.18874176 0.16928262
-0.3411892 -0.07809338 0.18643358 -0.23329987 -0.16323553 -0.15021233 -0.021430738 0.27482364
0.22115913 -0.18580279 -0.23404679 -0.17235947 -0.20193103 0.24004115 0.061345737 -0.3858244
-0.14148602 0.28888488 0.17746468 0.19735418 0.042586587 -0.09930521 0.17118146 -0.027168646

edge_lin.0.weight f4 [32, 1, 68, 1]
00000000: 9e32 53bc e2bd 2bbe 1843 23bd 2d52 62bf
00000010: 4a3a 663e a3d3 253f e700 85bd 91a7 673e
00000020: 0b5d a4be 2dde e8be 3c96 30be bc6c 323d
00000030: c690 323e 308f 7cbc cd6a 15be c7f3 ca3c
00000040: de23 c93d 45ff 03be d16f 473e 624e e7bd
00000050: 6c4e 2fbe e1bb ba3e b4d7 c3be a0db e23d
00000060: 5e3a f23c 8af5 fb3e 76b4 ba3e aad4 27be
00000070: 1636 233e 08ae b43d e062 b1bd 0097 843e
00000080: b1e1 8bbf efd2 2f3e 0316 84bd 6deb d13d
00000090: 4fb0 2b3e fa81 e0bd 6e2d 363e 9ac3 0f3f
000000a0: e688 a4bb 7689 f6bc 73e6 40bf aee7 5cbe
000000b0: 15b3 b5be dec7 b33c 96c4 173e c253 603d
000000c0: 4155 ccbe f685 2e3e d157 5c3e 1592 8a3e
000000d0: 1a64 203d 673e 24bf 0723 a7be c906 0a3e
000000e0: 57b4 c8be 728f c0bb ff94 173c 2a69 e13e
000000f0: e706 853e 7a8e b3ba c67f d33e fcb2 4fbe
00000100: be5e 913e 878c 903e 75ba aebe aa4d 953d
00000110: a410 50be f109 593e 772b 203e 45f8 503e
00000120: 540d f2bc 908b e7bc 50fb 903d 44b7 90bd
00000130: 2485 1d3f 8340 2b3e 8454 a7be ab88 31bc
00000140: 0d8d 99be cffb a13e 3ef5 433e f2b4 b33d
00000150: 677a 73bd 5b85 843e acea 073e b45f 1fbe
00000160: b894 e53d d810 703d 2b0d 6cbd f8ba bdbd
00000170: 117f a6bd 2fb6 843e 5219 2cbe 66c2 cebd
00000180: 8549 4cbe 3147 0e3d 535d 3bbe 7b5c 67bf
00000190: 902a 083f 37a2 26bd 1018 ddbd ab51 8b3d
000001a0: a9b3 64be 1c23 343d 1d4d 203d e4c4 3a3e
000001b0: c91a 6abc 3e8f cdbd c93a d53d 2b89 393e
000001c0: 6912 a4bd 24ca 6dbe d0da 1a3d 228d c5bc
000001d0: 3724 903d 3837 47be cf97 41bd 7a63 d9bd
000001e0: 44d3 0bbc 797c 903e 3d91 85be 93c7 603e
000001f0: fc19 c1bd 3e1e 28be 2098 693d 6bef c03d
00000200: 8b0f 9bbc 6cf5 c8be 9762 523e 8233 debd
00000210: ff8e 8cbe 4de8 efbe ba06 cb3e 7862 95bd
00000220: b17b ba3d 20cd 40be d668 d43e fd02 123e
00000230: ec13 41bf 7e1a 55be cb74 7c3e a2c8 e13c
00000240: eef1 f63e 27c7 113d da92 73bf f4d4 95bd
00000250: e033 1f3d 5553 abbc df5f 2a3e 8197 f73d
00000260: a6b1 51be 9b14 793e cb2e edbd a8a9 c3be
00000270: e4bb 5bbd 7101 9abe b920 243e ca40 c93e
00000280: c456 eb3c 6b6f 2dbf b7f6 0dbe fcd6 cebe
00000290: 30a4 65bc dce4 d1be ab6a 433b a2eb 6bbd
000002a0: fc68 2b3e a5ea 02bd 78a0 983e a249 debe
000002b0: 6324 97be effa beba 4846 e2be c092 aebe
000002c0: 32a8 573e 98a8 aa3e 529b 1e3e 1bd4 a33c
000002d0: 28ef 1bbf 7fbd 0cbe 6d42 cd3d feb1 0dbd
000002e0: aacd b73e 5ec0 053e e8b4 a5be 154e fdbd
000002f0: b283 3dbe 9982 8fbe b5c0 d23d cb34 62be
00000300: 3f42 cc3d 5a08 8a3e 5819 463c d4b0 c0be
00000310: 5456 503d 597f 53bf 58b8 37bc eabe 07bf
00000320: cd1c 25be 4a92 9d3e cbce aebe 3a05 c33e
00000330: e5a3 b2be eaf3 903d 1c92 c3be 8e06 75be
00000340: e8c6 a8bd eaa0 e53e 90b9 833e 773c a8bb
00000350: 286b 333e 477f 26bf a120 193e 7b32 d8be
00000360: 711e c7be 9189 b1be ec07 42be a018 c13e
00000370: 0f7d 623e 5b61 1cbe 2326 86be 9df9 623d
00000380: ffb9 34bf ae03 663e 117e 27bd ad1f ebbe
00000390: 1aaf 723e a6ab 093f cd5b c8bd c40e adbd
000003a0: 46bc 6fbe b0ff f13d e083 5d3e 2d1c 723e
000003b0: 35ab d23e 003b 253e 4f53 a5be cc8c 95bc
000003c0: 3b09 a83e 8187 743e 244c da3c e109 c33e
000003d0: 49e7 df3e d724 53be 37f4 c83e 1433 70be
000003e0: 54cb cfbd bead 5fbe 050b c5be 205b ca3d
000003f0: cb1e 113e 2c04 aa3c 46db f43d b24f 863d
-0.012890486 -0.16771653 -0.039858907 -0.8840664 0.22483173 0.64776057 -0.06494313 0.22622515
-0.32102236 -0.45482007 -0.1724481 0.04356073 0.17438039 -0.015414998 -0.14591523 0.024774445
0.09821294 -0.12890346 0.19476248 -0.11294247 -0.1711976 0.36471465 -0.38250506 0.110770464
0.029568847 0.4921077 0.36465806 -0.16389719 0.15938601 0.08822256 -0.08661437 0.25896454
-1.092825 0.17170309 -0.06449511 0.10249982 0.16766475 -0.10962291 0.17790768 0.5615784
-0.0050212024 -0.030094843 -0.7535164 -0.21572754 -0.3548819 0.02194589 0.14821085 0.054767378
-0.39908794 0.1704329 0.21517874 0.27064577 0.039157964 -0.6415772 -0.3264391 0.13479151
-0.39200088 -0.005876475 0.009251832 0.44025546 0.2598183 -0.0013699078 0.4130842 -0.20283121
0.28392595 0.28232214 -0.3412663 0.07290204 -0.20318848 0.21195199 0.1564158 0.20407207
-0.029547371 -0.02826479 0.07079184 -0.07066205 0.6153128 0.16723828 -0.32681668 -0.010835807
-0.29990426 0.31637427 0.19136521 0.08774747 -0.059442904 0.25882992 0.13273114 -0.15563852
0.112100065 0.058609813 -0.057629745 -0.09264177 -0.08129705 0.25920245 -0.16806534 -0.10095672
-0.1994992 0.034735862 -0.18297319 -0.9037549 0.53189945 -0.040682044 -0.10795605 0.06802686
-0.2233416 0.043978795 0.03913604 0.1823917 -0.014288613 -0.10037087 0.10411603 0.18118732
-0.08011324 -0.23221642 0.037806332 -0.024115149 0.070381574 -0.19454658 -0.047263917 -0.10614677
-0.008534256 0.28219965 -0.2608737 0.21951132 -0.09428784 -0.16417786 0.057029843 0.09420665
-0.01892831 -0.39249742 0.20545422 -0.10849668 -0.27452847 -0.4685692 0.3965357 -0.07294172
0.091056235 -0.18828249 0.41486233 0.14258952 -0.75421023 -0.20810887 0.24653928 0.02756149
0.48231453 0.035590317 -0.9514595 -0.07316008 0.03886783 -0.02091376 0.16638134 0.12089444
-0.20477924 0.24324267 -0.11581191 -0.38215375 -0.053645983 -0.30079225 0.16028108 0.39307243
0.028727897 -0.67748135 -0.13863645 -0.40398395 -0.014016196 -0.40994918 0.0029818218 -0.057597764
0.16739267 -0.031962056 0.29809928 -0.43415552 -0.29519948 -0.0014570634 -0.44194245 -0.34096336
0.21060255 0.33331752 0.15488937 0.0199986 -0.609118 -0.13744162 0.10022435 -0.034593575
0.35899097 0.13061664 -0.32364583 -0.123684086 -0.18507269 -0.28029326 0.10290662 -0.22090451
0.09973573 0.26959497 0.012091003 -0.3763491 0.05086358 -0.8261619 -0.011213385 -0.53025687
-0.16124268 0.30775672 -0.34142146 0.38089925 -0.34890667 0.07077773 -0.3819741 -0.23928282
-0.08241063 0.4484933 0.2572751 -0.005134161 0.17521346 -0.6503796 0.14953853 -0.42226014
-0.38890412 -0.34675267 -0.18948334 0.377141 0.22118019 -0.15271513 -0.2620097 0.05541383
-0.7059631 0.22462341 -0.04089171 -0.45922604 0.23699608 0.5377754 -0.097831346 -0.08450082
-0.23411664 0.11816347 0.21632338 0.2364356 0.41146246 0.16135788 -0.32290122 -0.018255614
0.32819542 0.23879816 0.026647635 0.38093475 0.43731144 -0.20619522 0.3924882 -0.23456985
-0.10146204 -0.21843621 -0.3848497 0.09880662 0.14171903 0.020753942 0.119558856 0.065581694

edge_lin.0.bias f4 [32]
00000000: d665 893c 815c 3b3e d696 623e 64b3 b63c
00000010: 2218 e1bd 4c49 1f3e a9e8 da3d b6f8 623e
00000020: 3b84 bebd 2cc8 033e 70e0 04be 9bde a9bd
00000030: c865 073b d028 423e a480 2fbd 5019 f33d
00000040: 9cd5 b4bd f58f c8bc 8705 5ebd 453a 8abe
00000050: 0eaa ed3c 65d3 e7bc 08b9 fa3d 11ca adbc
00000060: fe20 a43d bdf6 8c3d b3cc f2bc ee12 4e3e
00000070: 2003 22bc a283 c0bd 3660 dfbc f5a5 0c3e
0.016772192 0.18297006 0.22127852 0.022302337 -0.10990931 0.15555304 0.10688908 0.22165188
-0.09302565 0.12869328 -0.12976241 -0.08294412 0.0020660032 0.18960881 -0.04284729 0.11870062
-0.08829805 -0.024482707 -0.05420449 -0.2699758 0.029011752 -0.028299043 0.12242323 -0.021214517
0.08014105 0.06882999 -0.029638624 0.20124409 -0.00988844 -0.09400107 -0.027267557 0.13735183

edge_lin.2.weight f4 [32, 32, 1, 1]
00000000: 0a31 493e f8ed 2ebe 262a 09bf 8829 ba3e
00000010: 809e 31be d928 a13e 4386 193d 2d59 06bf
00000020: 8d31 febd bdbb 09be 3c40 773f fd7e 933e
00000030: 030c 263f ae79 d0bd 12eb 753d d4c9 f9be
00000040: 8da7 523f bfe8 4abe 949f 953e 2af5 debe
00000050: 590c eb3e 74ed f93d 4a59 883e 4c99 ca3d
00000060: 173c c93e a07f bd3e 0c0a 0b3f 3e61 4a3e
00000070: 0019 4cbe fd5f 243f b9d5 263f d1da e63e
00000080: 6d99 dd3c c4fe ccbc b52b e1be e2ae 913e
00000090: bd38 0dbe 92c4 e03e 429a 943e 5d76 febe
000000a0: 57c6 2fbe ae9b f0be d722 803f 8a32 173e
000000b0: e1a9 463f 5d13 64bd a483 483e 2ee5 dfbe
000000c0: 1d92 6a3f e1da 08bd 8efb c43e f7cb c7be
000000d0: c5e8 983e 36c7 8b3e 9c46 85bd ba1b 863e
000000e0: d206 cabd 354a ba3e 7852 463f 5f1f 633e
000000f0: a408 8fbe 22b9 373f 3c68 223f 0a67 1a3f
00000100: 35d3 de3e 2c4d 063e 5186 d3bd 7026 7f3e
00000110: 831e 8e3e c0af ef3e 1b88 04bd 7b46 253f
00000120: b59a 803e b003 70bc b6ee e3be 4581 443d
00000130: 0312 87be e828 aa3e 8117 96be 6bf4 d0bc
00000140: 8548 64bd 73a5 af3b 5505 51bc 734f 033d
00000150: 0a07 143e 90e4 df3e 4721 98bd 55e8 7e3d
00000160: a340 08be b3bb 17be d69e b0be 44e4 013e
00000170: 3de5 a0be a351 febe 1c2c 86be 2355 63bf
00000180: 4309 c73d b72a bfbe ef55 70be 6f47 c13e
00000190: 3479 e1ba cf70 b83d 6223 523e 60e6 353e
000001a0: 2b02 a2bd aee7 b43d 23d6 803f 35f4 963d
000001b0: 0298 733f 5b5d 403e 5d51 313d fa5c a6be
000001c0: 771e 453f a81e 43be dd47 0f3f 6e2e 96be
000001d0: d805 0a3e ce25 a53e 5915 bd3c ab9d b33d
000001e0: 095e d93e 53ff 1d3f c1d3 6c3f 2f85 173d
000001f0: ac81 acbe 1f80 203f 5e0c 533f 9e1e b9be
00000200: e216 0c3e fc15 b83d 964b c8be fd1f dd3e
00000210: bad0 1c3e 5a3d 4b3e ab0f 683d 830d 03be
00000220: 69cb 66be 65e1 cabd 87a6 943f dd6c 493e
00000230: 7fa5 513f 61d3 033f fab6 32be 242c e8be
00000240: be75 6b3f 26a4 71bd acbd 883e 4190 92be
00000250: fef1 233e 750d 033e c49c 8a3e 33c1 a13e
00000260: 668c d83e be66 c83e 1217 3d3f a7ec 283d
00000270: f2e7 03bf df49 263f 580d 293f 3952 d1be
00000280: 7e34 8f3e 1db3 a03e b407 62be 0656 af3e
00000290: 78c0 993e d8b7 fa3e a499 e4bd ef29 aa3e
000002a0: b2dc e83c 035a 033e 5c4d 4ebe 7d8e 603e
000002b0: b88b aebd b5ff 253e 976f 4e3d ebda b03d
000002c0: 89c5 cc3d a2ed cbbd 82a1 81bf 22cd 85be
000002d0: 93e2 ad3e db2e 8b3e 497d 10be 6d53 eb3e
000002e0: b9e8 9cbe 5b47 e5be d571 79be 9002 f33e
000002f0: bb51 3e3e 1169 debc 0d80 8ebe a3af 34be
00000300: 2f2d 413e ad1d 3ebd e8d7 36bf 642d bc3e
00000310: c13b 02be 7012 873e 2830 f7bd ff74 b3be
00000320: 8fba 07be 8b95 f53c 64fc 8c3f ce28 a0bd
00000330: aa8a 5b3f f42c 9c3e 9748 80be 0341 8abe
00000340: dc69 4d3f 8582 adbe ef7a b83e e49b 54be
00000350: c07c a53e 1676 8c3e 06d3 cb3e ca0c 053f
00000360: 7d0c 8e3e 80d8 a13e 4a4a 3a3f 86b1 ab3d
00000370: c95c 03bf 7511 f83e 9d4a 393f 05c6 2abe
00000380: 96e3 343e 18dd 67bd acce bcbe 24fd b83e
00000390: 2be1 cb3d 0172 6d3e 6950 7f3d be30 31be
000003a0: f1f4 dcbd a5f5 28be c914 8d3f e62a 653d
000003b0: 79de 2b3f b909 b83e 40f0 5d3d 05b8 15be
000003c0: fc17 313f 9ce6 80be 77b1 a43e 6843 31be
000003d0: ba27 b63e d51f 09bd 3bd7 423e ad3f 773e
000003e0: 04d7 8f3e 59b7 fc3e b6dc 453f 5c12 1f3e
000003f0: 4181 bfbe 4079 d23e 9a8d 523f 4907 ea3e
0.19647613 -0.17082965 -0.5357994 0.3635981 -0.17345619 0.31476477 0.037481558 -0.5247982
-0.12411795 -0.13450523 0.9658239 0.28807822 0.6486208 -0.101794586 0.060038634 -0.48786795
0.8228691 -0.19815348 0.2922331 -0.4354642 0.45907858 0.12203494 0.26630622 0.0989252
0.39303657 0.37011433 0.54312205 0.19763657 -0.19931412 0.64208966 0.65169865 0.4508882
0.027050698 -0.025023825 -0.43978658 0.28453737 -0.13791175 0.4389997 0.2902394 -0.4969968
-0.17165504 -0.46993774 1.0010632 0.14765373 0.77602965 -0.05568253 0.19581467 -0.43729538
0.916292 -0.033411864 0.3847317 -0.390228 0.2986509 0.27300423 -0.06507608 0.2619303
-0.09864582 0.3638474 0.7746959 0.22179936 -0.2793628 0.71766865 0.634403 0.60313475
0.43520513 0.13115376 -0.10328353 0.24917006 0.27757654 0.46813774 -0.032356363 0.6456067
0.25118032 -0.014649317 -0.4451806 0.047974844 -0.2638093 0.33234334 -0.29314807 -0.025507173
-0.055733223 0.0053602993 -0.012757619 0.03205819 0.1445581 0.43729067 -0.07428222 0.062233288
-0.13305907 -0.14817695 -0.34496182 0.12684733 -0.31424895 -0.4967166 -0.26205528 -0.88801783
0.097185634 -0.37337276 -0.23470281 0.37749812 -0.0017202259 0.090058915 0.2052131 0.17763662
-0.0791057 0.08833252 1.0065349 0.073707975 0.9515382 0.18785612 0.043290485 -0.3249281
0.7699961 -0.19054663 0.5596903 -0.29332298 0.13478792 0.32255405 0.023081468 0.08770307
0.42454556 0.6171772 0.9251061 0.03699225 -0.33692682 0.626955 0.82440746 -0.36156172
0.13680604 0.08988568 -0.39120167 0.43188468 0.15313998 0.19847623 0.056655567 -0.12798123
-0.22538532 -0.09906272 1.161332 0.19670434 0.8189315 0.51494414 -0.17452613 -0.45346177
0.91976535 -0.058994435 0.26707208 -0.28625682 0.16010281 0.12798102 0.27072728 0.31592712
0.42294616 0.39140886 0.7386333 0.041241314 -0.51525795 0.6495647 0.66035986 -0.40883043
0.27969736 0.31386653 -0.22073251 0.34245318 0.30029655 0.48968387 -0.11162117 0.33235118
0.028425548 0.12827305 -0.20146698 0.21929355 -0.08522743 0.16210826 0.05039939 0.08635505
0.09998614 -0.09957434 -1.0127413 -0.26133066 0.33961925 0.27184185 -0.14110292 0.45962086
-0.30646303 -0.44781002 -0.2435983 0.47462893 0.18585865 -0.027149709 -0.2783207 -0.17645125
0.18864892 -0.04641502 -0.71423197 0.3675338 -0.12718107 0.26381254 -0.12069732 -0.35050198
-0.1325476 0.029978534 1.1014524 -0.07820283 0.8575846 0.30503047 -0.25055382 -0.27002725
0.80239654 -0.3388864 0.3603129 -0.20762593 0.3232174 0.27433842 0.39809436 0.5197264
0.27743903 0.3161049 0.72769606 0.08383469 -0.51313454 0.4845082 0.72379476 -0.16677101
0.17664942 -0.056607336 -0.36876428 0.3613063 0.09955057 0.2318802 0.062332544 -0.1730375
-0.10788906 -0.16499956 1.1021968 0.055949114 0.6713634 0.35944918 0.0541842 -0.14620979
0.6917722 -0.2517594 0.32166645 -0.1731087 0.35577184 -0.033477623 0.19027416 0.24145384
0.2809373 0.49358633 0.77289903 0.15534347 -0.374033 0.4110813 0.82247317 0.45708683

edge_lin.2.bias f4 [32]
00000000: fad9 ea3d 6a00 efbd b2d7 453e b80b 6cbe
00000010: e113 75be 4041 debb 3650 a4bd cdd1 94bd
00000020: eb5b f7bd de00 cdbc 5ff3 8ebe b779 62bd
00000030: c0dd 8abe 8794 463e be9e 733d 5eaf 5c3e
00000040: eafa 863c a238 62be c998 95bc 396d 0ebd
00000050: 61aa cc3d c2f8 8dbd 2a6e dabd a66f 1c3e
00000060: 5401 023e 7460 a03d d058 2abe fc7a 333d
00000070: e8da 0e3d 2f7f b0bd 432d 0cbe 114a 153d
0.11467357 -0.11670001 0.19320562 -0.23051345 -0.23933364 -0.0067826807 -0.080231115 -0.07266579
-0.12078079 -0.025024828 -0.27920052 -0.055291858 -0.27122307 0.19392596 0.05947756 0.21551272
0.016477067 -0.22091916 -0.01826133 -0.03477213 0.09993435 -0.069322124 -0.106655434 0.15276965
0.12695819 0.07830897 -0.16635442 0.04381846 0.034876734 -0.08618008 -0.13689141 0.03644759

vertex_output_lin.0.weight f4 [32, 1, 32, 1]
00000000: 6111 d13d 378a be3d 095a d6bd 994d 443e
00000010: 959e 6ebb 3eea afbd df4e 1b3e f25b 33be
00000020: 31f4 143d eb2e 443e 2f7e 2dbd 5ac3 02be
00000030: e2bb 66be 9511 f1bd cc13 453d 3860 273e
00000040: e11c e0bd 2ee6 393e 8c63 ebbd 828b 60bd
00000050: 76a4 c03b 162f 8ebe 7679 a43e 80dc 703d
00000060: 6469 d03e c0f9 123e 7b76 c7bb d918 833d
00000070: ee14 0abd a0b7 28bc b336 47be 6ab4 45be
00000080: ee0f d3bd da02 03be 4cfc 9dbd ff07 14be
00000090: ab10 bfbe 2df9 b1be ed3d 37be 74b4 27be
000000a0: 1b7b 86bc 5de2 7ebe bb72 1c3d fa02 48be
000000b0: 3c35 8abe 707e e83d 2b21 fbbe b1db cdbe
000000c0: d48c efbd 9075 52be 8bd4 dd3b d95d 8d3e
000000d0: 4852 f13c d245 0c3d 8b08 8a3e f966 03bc
000000e0: 9cb4 9c3d 0428 6ebe c0f3 ce3c 1d76 2cbe
000000f0: 31b5 24bd ab42 67be 3331 88be d05c 23be
00000100: fe41 5fbf a003 0fbf 303f 313e 8b75 5ebf
00000110: a153 82bf 396e db3e 9277 01bf f0af 8cbf
00000120: 1913 673d 27d6 e5be c24c cfbc 4622 45bf
00000130: 6eb7 8ebf 45f0 f33e 8580 d8be 6567 623d
00000140: 82f8 d23e 521a 853e 8749 96bd 2f43 22bf
00000150: b812 0a3e f3ab 39bf 6e7b cdbe b0e2 5b3d
00000160: fe4b 00bf e160 36bf 5411 8cbf 1175 c1be
00000170: df2f a13e 92b8 a2bf 9b86 21bf 7d59 73bf
00000180: 0d6d 3c3e 14f7 2b3f d160 0dbf d904 f23c
00000190: bf4e 9d3e 429c 693c da14 0f3e 87cb c13e
000001a0: 89a5 3a3c f3ee 993e 52c2 10bf f955 7c3e
000001b0: a29d 3d3e 5d07 58bd aa30 b23e 8c0f e1be
000001c0: 4ff4 8a3e 118d aebc 9dcf 6f3e 11ae 94be
000001d0: 5ce9 b4be 22b4 163f 87de ef3e 99d6 6c3e
000001e0: 7b16 a23d a702 743e f5e9 4b3d a8a3 ec3d
000001f0: 7c66 0cbf de51 963e 5d26 2d3f 7736 ad3e
00000200: 8252 ab3c 812d 923c 3d9c ea3d bf73 b3bd
00000210: eb2b 8abe 495e 5a3e b6b0 c3be c01d 75be
00000220: 7a85 043e 778d 503e 4186 2b3e 601b 9abe
00000230: dc08 e2be 23a7 0d3f 8dfd 8abe 2802 963d
00000240: e075 9b3d c42f 32be d226 3abd 265e eebe
00000250: 67da 933e abb4 673e 966e 283e a792 b0bd
00000260: 12b1 1bbe 94fd a5be 1b46 3dbe 4708 01bf
00000270: 8e1a d13e e601 1fbe ea5d 823d f827 f9bd
00000280: 2be7 c73a 7fd0 223e f476 07be db65 173e
00000290: 6836 84bb 19c2 edbd ffd4 7b3e 2048 dc3c
000002a0: 3523 033e 34b8 b83e 491e 9dbe 3280 0f3e
000002b0: 88b7 27be ba6e 58be 8455 243d 066f 77be
000002c0: c9cb 56bd 43c9 6c3e 5b94 613d 2e4c 57be
000002d0: 6d07 733c a81f 853e b3ca 953e 8081 91be
000002e0: 3152 3b3c 8dff 8fbd 7bcc 573d 1387 613e
000002f0: c117 09be af8d 1dbe 2d95 933d 5089 e83d
00000300: 70ff 2ebc 3f9b a73a d29d b2bd 217f 59be
00000310: 6aa8 dcbd bcdd 40bc b2dc c53c 429e b9bd
00000320: 2f19 d5bd d404 ae3c ae48 b83d ea0b 7bbd
00000330: 87a2 08be ceda eb3c 856a 13bc 5a57 b9bd
00000340: 0901 25bd e3f5 333e d9c2 16be 26d6 8cbc
00000350: 9583 00bb 400e b33d 095a 3bbe 6625 5ebd
00000360: 7718 1f3d 1054 85bd 77ca 50be 1f95 633b
00000370: 9e16 283c 4d16 1f3e bb34 a4bb 4009 1f3e
00000380: 0f20 ddbd 1a28 743e efea 85be e068 25bd
00000390: a731 23be 9733 2abe 6168 9dbd 28ef 883e
000003a0: f8a5 c93d 09ed d5bd d7f0 a83d cabb f3bd
000003b0: cb18 f4bc 3552 ccbe b3ea bcbd d264 c5bc
000003c0: 5b1a babe c7f0 233e 156a eb3c 08ab 953e
000003d0: f28b c4be 62fe 3abc 7945 f23d 1c5e 8cbb
000003e0: b6c5 813e 6f43 39be ea98 0dba ef02 a63d
000003f0: 3d58 70be 1b15 4bbd 5c33 f23d 16c8 e33d
0.10208393 0.09303706 -0.104663916 0.19170226 -0.003641044 -0.085896 0.15166806 -0.17515543
0.03636569 0.19158523 -0.042356666 -0.12769833 -0.22532609 -0.11770932 0.048114583 0.16345298
-0.10943008 0.18154213 -0.114935964 -0.054820545 0.0058789803 -0.277703 0.32123917 0.058804035
0.40705407 0.14353085 -0.006087122 0.06401224 -0.033711366 -0.010297686 -0.1945446 -0.19307104
-0.10305773 -0.12794057 -0.077141374 -0.14456175 -0.37317404 -0.3476042 -0.17894717 -0.16377431
-0.016416123 -0.24891038 0.038195353 -0.19532385 -0.2699374 0.11352241 -0.49048743 -0.40206674
-0.11696783 -0.20552659 0.006769722 0.27610663 0.02945818 0.034246273 0.26959643 -0.008020156
0.07651636 -0.23257452 0.025262713 -0.16841932 -0.04021186 -0.22584026 -0.26600036 -0.15953374
-0.8721007 -0.55864906 0.1730926 -0.86898106 -1.0181772 0.4285753 -0.50573075 -1.0991192
0.056414697 -0.44889948 -0.025305156 -0.7700542 -1.1149728 0.4764425 -0.42285553 0.055274386
0.4120522 0.25996643 -0.07338243 -0.63383764 0.13483703 -0.72528 -0.40133232 0.053682983
-0.50115955 -0.71241575 -1.0942788 -0.37784627 0.31481835 -1.2712576 -0.63096017 -0.95058423
0.18400975 0.67173886 -0.55225855 0.029543327 0.3072414 0.014258446 0.13972798 0.37850592
0.011392006 0.30065116 -0.5654651 0.24642171 0.18517163 -0.052741397 0.34802753 -0.43957174
0.27139518 -0.0213075 0.23419042 -0.29039052 -0.3533429 0.5886861 0.46849462 0.23128738
0.07914444 0.23829137 0.049783666 0.115546525 -0.5484388 0.29359335 0.6763666 0.33830616
0.020913366 0.017843964 0.11455581 -0.08762311 -0.26986632 0.2132503 -0.38220757 -0.2393713
0.12941542 0.20366465 0.16750433 -0.3009901 -0.44147384 0.55333155 -0.2714657 0.0732463
0.07590842 -0.17401034 -0.04544718 -0.46556205 0.28877565 0.22627513 0.16448435 -0.08621722
-0.15204266 -0.32420027 -0.18483774 -0.50403255 0.40840572 -0.15528068 0.06365569 -0.121658266
0.0015251389 0.15899847 -0.13228971 0.14784949 -0.004034806 -0.11609287 0.2459297 0.02688986
0.12806399 0.36078036 -0.30687168 0.14013746 -0.16378605 -0.21135989 0.040120617 -0.24163446
-0.05244044 0.2312365 0.055073123 -0.21025154 0.014833313 0.26000714 0.2925621 -0.28419113
0.01143317 -0.07031164 0.052685242 0.22024183 -0.13387968 -0.15386079 0.072061874 0.11354315
-0.010681018 0.0012787356 -0.08721508 -0.21239902 -0.1077431 -0.011771616 0.024153087 -0.090633884
-0.10405194 0.021242537 0.089982376 -0.06129066 -0.1334325 0.028790858 -0.008997564 -0.09049864
-0.04028419 0.17574267 -0.14722766 -0.017191958 -0.001960968 0.08742952 -0.18296064 -0.054234885
0.03884169 -0.06510174 -0.20389734 0.0034726334 0.010259299 0.15535851 -0.005011169 0.15530872
-0.1079713 0.23843423 -0.26155803 -0.04038322 -0.1593691 -0.16621242 -0.07685924 0.26744962
0.09846109 -0.104456015 0.082490616 -0.11901052 -0.029796978 -0.3990647 -0.09224453 -0.024095926
-0.36348233 0.16009818 0.028737107 0.2923205 -0.3838802 -0.011413189 0.11829657 -0.0042836796
0.25346154 -0.1809213 -0.0005401509 0.08106028 -0.2347116 -0.049580675 0.11826202 0.11122148
