reachability_classification/weights/Separateq0qgqkckMultiplePassGNNReachabilityNet_epoch_18.pt (torch_old, 53383 bytes, 26 tensors)

x_lin.0.weight f4 [8, 1, 1, 2]
0.1620266 -0.13923728 -0.34164965 -0.88044196 0.038383987 0.79295844 -0.3419202 0.40136763
0.20001662 -0.54139876 -0.567911 0.1831445 -0.3412646 -0.06779324 -0.53858745 0.26529652
00000000: 4dea 253e 3894 0ebe b4ec aebe a564 61bf
00000010: 8738 1d3d 53ff 4a3f 2a10 afbe 0f80 cd3e
00000020: 28d1 4c3e 1c99 0abf 9e62 11bf 3b8a 3b3e
00000030: 3cba aebe 2fd7 8abd dee0 09bf f2d4 873e

x_lin.0.bias f4 [8]
0.3659459 0.64611214 -0.5327697 0.42125544 -0.27457425 0.8608438 -0.34505475 0.06852849
00000000: 435d bb3e 9b67 253f 9863 08bf cbae d73e
00000010: ff94 8cbe 4260 5c3f 04ab b0be aa58 8c3d

y_lin.0.weight f4 [8, 1, 1, 2]
0.68247736 0.102373786 0.5829581 0.37848374 0.020971922 0.9750504 0.5036419 -0.5137909
-0.075941734 -0.6576447 -0.111519024 -0.09742745 -0.6668225 0.14876111 0.46468955 0.11299615
00000000: d6b6 2e3f 59a9 d13d be3c 153f 9fc8 c13e
00000010: 4fcd ab3c e79c 793f adee 003f cd87 03bf
00000020: 5787 9bbd 675b 28bf 1664 e4bd 0b88 c7bd
00000030: e1b4 2abf d554 183e caeb ed3e 876a e73d

y_lin.0.bias f4 [8]
-0.5449922 0.54679185 -0.263566 -0.16228583 -0.04130221 -0.36818883 0.6036248 0.20884022
00000000: 9c84 0bbf 8dfa 0b3f 1ff2 86be 422e 26be
00000010: 822c 29bd 3f83 bcbe 2887 1a3f 36da 553e

th_lin.0.weight f4 [8, 1, 1, 2]
-0.015496486 0.04687133 0.37559083 0.36356387 -0.0087447055 -1.5787652 -0.26956493 0.4086085
0.35495016 -0.53223455 -0.40733013 -0.39922324 0.48798105 0.40214193 0.0026289134 -1.5872798
00000000: f9e4 7dbc 27fc 3f3d 714d c03e 0b25 ba3e
00000010: f445 0fbc fa14 cabf 6a04 8abe 2235 d13e
00000020: 07bc b53e 8640 08bf 938d d0be fd66 ccbe
00000030: a7d8 f93e 8ce5 cd3e d949 2c3b fc2b cbbf

th_lin.0.bias f4 [8]
0.29519138 0.061475046 0.086214006 -0.41499582 0.2043113 -0.47805828 -0.8493786 0.007734814
00000000: 5323 973e 42cd 7b3d f890 b03d 557a d4be
00000010: fb36 513e 0ec4 f4be e070 59bf 5374 fd3b

config_lin.0.weight f4 [32, 24, 1, 1]
0.38402477 -0.25244266 -0.3496088 -0.12411468 0.31873348 0.123194665 -0.24536523 0.29479197
-0.16510385 -0.50510776 -0.08240932 0.27722782 -0.06433733 -0.2523059 -0.4470548 -0.36126095
0.21961834 -0.17431453 0.1902629 0.03952742 0.18630742 0.16971819 0.14484915 0.6123028
-0.060530577 0.040041175 0.16067871 0.2943828 0.1475731 0.25234303 0.14433242 0.07935624
-0.30432248 -0.21874772 0.34165877 -0.15544353 -0.0053424235 0.048005823 0.2615799 -0.16843729
0.1825386 -0.042188622 0.124978445 -0.08345029 -0.09747724 0.042788036 -0.13763124 0.46500245
-0.028863236 0.16765006 -0.13488658 0.07855513 -0.32345048 -0.04355543 -0.013796186 0.0110656945
0.10413593 -0.1894257 0.01454382 0.07807035 0.29058775 0.25791445 -0.11033103 0.0673654
0.045690037 0.025257343 -0.3166307 -0.18969658 0.18276702 -0.16850491 0.09728225 -0.5247824
-0.14472418 -0.018491648 -0.35220608 -0.3074057 -0.2872114 -0.19295529 0.046382196 0.083358966
0.052682735 0.13461477 0.0946555 0.16158141 0.07179359 -0.2557812 -0.068046734 -0.009798938
-0.053401142 0.111845896 -0.083359025 0.122639045 0.09627875 0.061747868 0.09511346 -0.30622682
0.13511246 0.15577056 0.07024672 0.2408059 -0.4935219 0.25199732 -0.27636328 -0.013360278
0.09335519 0.42366904 -0.12989569 -0.23249203 -0.09530858 0.059798077 -0.19594334 0.18411991
-0.16121842 -0.2327772 0.91360444 -0.28659663 0.37917572 0.49463558 -0.11426221 1.4516532
-0.0398467 0.1401261 -0.22373797 0.07343082 0.13270102 0.2114559 0.19871344 -0.55812144
0.056745987 0.019023031 -0.46980897 -0.62450886 -0.15363565 -0.08134179 0.20563163 -0.29741284
0.03253438 0.04021157 -0.019576896 -0.1007111 -0.56487453 -0.1741493 0.3509668 -0.0850306
0.06786412 0.059569098 0.26686388 -0.12621085 -0.30693886 -0.2655412 -0.07741018 -0.33321422
-0.067675725 0.027146792 -0.26733938 0.13203648 -0.04399683 -0.023050738 0.13528793 0.093605004
0.11072935 -0.17670532 -0.2959788 0.18807589 -0.33323544 0.0873565 0.075878955 -0.5001063
-0.04678315 -0.13492906 0.1981435 -0.034048397 -0.09317186 -0.18898414 0.14873071 -0.03522351
-0.066803835 -0.21688017 0.19723824 0.076715164 0.22157322 0.29785252 -0.044427138 -0.38532227
-0.12889859 -0.16507265 0.071825966 0.018986752 0.019409906 -0.07828774 0.10746285 -0.3253666
-0.10619435 0.74704677 -0.15542112 -0.25334105 0.017521441 0.36569735 0.25922772 -0.32705224
0.087650485 -0.14456582 -0.3563622 -0.39138153 -0.07973953 0.16020949 0.20404826 0.13461687
0.18425107 0.09663385 -0.103516966 -0.0062519275 -0.5316446 -0.39119697 -0.08773422 0.036311653
0.3362801 0.4627921 -0.31801406 -0.1255457 0.32551003 0.24131146 -0.065943696 0.1341288
-0.04627886 0.21243629 0.19661789 0.14066355 -0.09707794 -0.26579458 -0.0892563 -0.16043647
0.12563358 0.058982164 0.34213457 0.17305696 0.10969363 0.12542027 -0.2703895 0.4859844
-0.36233884 0.13178132 0.23792638 -0.07298842 -0.51408404 0.12098524 0.018067159 0.20065922
0.09304332 0.11786993 -0.2366367 0.15747567 0.20556377 -0.016750973 -0.2854857 0.2291714
00000000: e59e c43e 2a40 81be edff b2be d62f febd
00000010: 0931 a33e 7c4d fc3d 0641 7bbe f9ee 963e
00000020: fc10 29be be4e 01bf 38c6 a8bd cef0 8d3e
00000030: 4ac3 83bd 3d2e 81be 5ee4 e4be 32f7 b8be
00000040: a1e3 603e 827f 32be 47d4 423e 81e7 213d
00000050: 5fc7 3e3e 9bca 2d3e 5653 143e e0bf 1c3f
00000060: e9ee 77bd 3702 243d f688 243e 58b9 963e
00000070: 671d 173e 1b33 813e e1cb 133e 8685 a23d
00000080: 28d0 9bbe 67ff 5fbe e6ed ae3e 972c 1fbe
00000090: 7f0f afbb c1a1 443d cded 853e d37a 2cbe
000000a0: 66eb 3a3e facd 2cbd b3f4 ff3d fce7 aabd
000000b0: 26a2 c7bd 8242 2f3d 34ef 0cbe cd14 ee3e
000000c0: 9872 ecbc 75ac 2b3e b51f 0abe 83e1 a03d
000000d0: 4d9b a5be 2e67 32bd 6609 62bc e34c 353c
000000e0: 3845 d53d d0f8 41be 3449 6e3c 59e3 9f3d
000000f0: ebc7 943e 5d0d 843e 3cf5 e1bd dff6 893d
00000100: 7a25 3b3d 7de8 ce3c 6b1d a2be d23f 42be
00000110: 4727 3b3e 8d8c 2cbe eb3b c73d 2458 06bf
00000120: 9332 14be cc7b 97bc 5b54 b4be 4864 9dbe
00000130: 5f0d 93be 1296 45be 42fb 3d3d 1bb8 aa3d
00000140: dac9 573d 74d8 093e beda c13d 9975 253e
00000150: 8508 933d c1f5 82be 165c 8bbd ba8b 20bc
00000160: 28bb 5abd 760f e53d 23b8 aabd 2e2a fb3d
00000170: cb2d c53d 55eb 7c3d d9ca c23d c3c9 9cbe
00000180: ec5a 0a3e 5182 1f3e 83dd 8f3d d295 763e
00000190: e7ae fcbe cb05 813e 7d7f 8dbe 11e5 5abc
000001a0: 0131 bf3d 26eb d83e 6003 05be 6412 6ebe
000001b0: 2531 c3bd d4ee 743d 5fa5 48be ee89 3c3e
000001c0: 7116 25be 255d 6ebe fbe1 693f cbbc 92be
000001d0: 5223 c23e e040 fd3e 4e02 eabd c6cf b93f
000001e0: 4b36 23bd 377d 0f3e 911b 65be e662 963d
000001f0: c7e2 073e e587 583e 897b 4b3e 0ce1 0ebf
00000200: 7b6e 683d 30d6 9b3c cd8a f0be d0df 1fbf
00000210: aa52 1dbe 8696 a6bd 1991 523e 7f46 98be
00000220: c542 053d e3b4 243d ba5f a0bc 9f41 cebd
00000230: 9e9b 10bf 3254 32be ecb1 b33e 8624 aebd
00000240: 58fc 8a3d bafe 733d 62a2 883e 6b3d 01be
00000250: 1727 9dbe 04f5 87be 3a89 9ebd 0e9b aabe
00000260: 9299 8abd f362 de3c b5e0 88be 9234 073e
00000270: 0536 34bd e7d4 bcbc eb88 0a3e fbb3 bf3d
00000280: 12c6 e23d 3df2 34be 898a 97be f796 403e
00000290: d69d aabe f7e7 b23d 6d66 9b3d f706 00bf
000002a0: b09f 3fbd d82a 0abe 21e6 4a3e 5576 0bbd
000002b0: e3d0 bebd 0f85 41be dd4c 183e 8746 10bd
000002c0: 73d0 88bd d615 5ebe d2f8 493e d71c 9d3d
000002d0: 17e4 623e 2080 983e 3bf9 35bd f648 c5be
000002e0: fefd 03be ce08 29be 7e19 933d 1b8a 9b3c
000002f0: 8601 9f3c 5355 a0bd 7c15 dc3d 7396 a6be
00000300: 6c7c d9bd 753e 3f3f b726 1fbe ebb5 81be
00000310: 2089 8f3c af3c bb3e 7fb9 843e 6473 a7be
00000320: 1982 b33d 1009 14be 1b75 b6be 2963 c8be
00000330: 7b4e a3bd f50d 243e 07f2 503e 01d9 093e
00000340: 50ac 3c3e f8e7 c53d b400 d4bd f8dc ccbb
00000350: dc19 08bf f84a c8be 00ae b3bd 87bb 143d
00000360: e82c ac3e 16f3 ec3e bdd2 a2be 0d8f 00be
00000370: 40a9 a63e 5a1a 773e 7d0d 87bd 0f59 093e
00000380: e78e 3dbd e688 593e 3356 493e 1b0a 103e
00000390: cdd0 c6bd 3a16 88be 02cc b6bd 7549 24be
000003a0: 17a6 003e 4897 713d 432c af3e d835 313e
000003b0: 0ea7 e03d 2c6e 003e 7e70 8abe f3d2 f83e
000003c0: 7a84 b9be aff1 063e f9a2 733e f47a 95bd
000003d0: 039b 03bf 1cc7 f73d 9401 943c 9c79 4d3e
000003e0: 7f8d be3d ca65 f13d e450 72be 4d41 213e
000003f0: 4f7f 523e 5639 89bc 2f2b 92be e8ab 6a3e

config_lin.0.bias f4 [32]
0.10391604 0.25842893 -0.3571125 0.106209986 0.21489966 -0.005104171 0.03446038 -0.2718529
-0.093295455 -0.018805308 -0.23553765 0.16464704 0.04310833 0.10587343 0.0040630633 0.35290897
0.043421462 -0.08529353 -0.3069438 0.068190336 0.05076864 -0.12620026 0.030011652 -0.11782015
0.07501617 0.15946785 -0.10435607 0.09435607 0.28545424 -0.13427325 -0.002176786 0.14352061
00000000: efd1 d43d cc50 843e 73d7 b6be 9f84 d93d
00000010: a80e 5c3e e440 a7bb 5426 0d3d 4e30 8bbe
00000020: b011 bfbd 970d 9abc c830 71be 3c99 283e
00000030: 5c92 303d 2bd4 d83d 7223 853b 7cb0 b43e
00000040: b4da 313d 60ae aebd bd27 9dbe 60a7 8b3d
00000050: c7f2 4f3d a43a 01be ffda f53c b14b f1bd
00000060: 14a2 993d 8a4b 233e a3b8 d5bd c13d c13d
00000070: 0f27 923e ed7e 09be 69a8 0ebb 11f7 123e

config_lin.2.weight f4 [32, 32, 1, 1]
0.18641832 0.11265087 0.082278796 -0.11634921 0.34407705 -0.33611685 -0.2498314 0.088923395
0.020993387 0.09351214 -0.34743688 -0.058569927 -0.19721276 -0.48737475 -0.1495116 0.14095479
-0.15135774 0.015131368 -0.2600593 -0.047447085 0.22213279 0.23681074 -0.2585099 0.11714418
-0.10862877 0.2799914 0.30082914 -0.04779402 0.0118075 -0.25745922 -0.073731415 -0.30007392
0.18729852 0.07390623 -0.015372033 -0.15577191 0.49894002 0.0065841544 -0.40924442 0.21510655
0.05366385 0.04856975 -0.05323985 -0.07521416 0.058198407 0.07882777 -0.017275667 0.031614397
-0.28373703 -0.46971965 -0.15311953 -0.32918835 0.035253458 0.24836902 -0.15161659 -0.11891153
-0.23623256 -0.09353854 0.43198287 0.16721132 -0.42882288 -0.2967883 -0.014498796 0.03916043
-0.07707412 0.11224597 -0.03347381 -0.07433082 -0.11769656 -0.119393915 -0.03595217 0.11981453
0.123964764 -0.32207456 0.19065563 0.0019885853 0.060278583 0.09213463 -0.015973212 -0.0843114
-0.09288015 -0.11298002 0.15318012 0.056434307 0.10761735 0.006823779 -0.011965365 -0.10933895
0.14766856 -0.18550047 -0.0034034664 0.14737456 -0.31047785 0.112827696 0.04038296 -0.011435696
0.23385519 -0.12069942 -0.21634267 0.07897367 -0.3587556 0.17689285 0.16290136 -0.2909367
-0.2131158 -0.09482453 -0.15394174 0.004856177 -0.6092412 -0.05549716 -0.27714482 -0.14592324
-0.22867706 0.15824652 -0.18611117 0.19831544 -0.238377 -0.0042670453 -0.28444764 -0.16002324
-0.12715505 0.14691179 -0.095448785 -0.014444292 0.015393043 0.1758058 0.189126 0.4681972
0.05148391 -0.13107398 0.2235846 0.028602917 -0.4503385 -0.14791372 -0.10821043 0.1268088
-0.010262957 -0.2230895 0.18448941 -0.63494414 0.018991223 0.23202693 -0.046853222 -0.293181
0.08971004 -0.029275045 0.04626279 0.15161876 0.03156045 0.062453534 0.08706932 0.14632434
0.15746467 -0.3365258 0.08330521 -0.046113737 -0.28037184 -0.23545036 -0.039155267 -0.28862712
-0.14948112 -0.37608927 0.07010242 0.18733275 0.010361036 -0.250397 -0.14062688 0.04033269
-0.12828846 -0.04823082 0.19543236 0.25859585 -0.09334762 0.18229012 -0.028580857 -0.16512841
0.1654741 -0.12322689 0.27285245 0.049265876 0.21170977 -0.26205704 -0.017443929 0.062135614
-0.017295314 -0.07911354 -0.21559504 -0.100954235 -0.013688771 -0.009582401 0.069671504 0.07801163
-0.25199008 -0.08434788 -0.09253117 -0.23442571 -0.009303208 -0.1844541 0.16508138 0.06802556
-0.051558945 -0.39671952 0.14297847 0.149116 0.08675041 0.16214174 -0.39440233 -0.07463813
-0.08392183 0.10645787 -0.06876996 -0.2806533 0.16107784 0.051844258 -0.13094148 -0.42886135
0.10993265 -0.29138654 -0.09386747 0.08823196 -0.01848956 0.005560819 0.15327361 0.048875064
-0.26615825 0.21569413 -0.45191607 -0.11033181 -0.16548003 0.22239885 0.27266735 0.02866991
0.05019713 -0.27290627 -0.49318847 -0.04082311 -0.075071 -0.3610772 -0.07560522 0.04660111
-0.06533917 0.045923833 -0.044363596 0.036799893 -0.29586622 0.3884524 -0.19845006 -0.32839116
-0.23967588 -0.093753435 -0.02908118 0.14990771 0.06887588 -0.1341677 -0.027029542 0.027306754
00000000: 72e4 3e3e 80b5 e63d c981 a83d 7f48 eebd
00000010: de2a b03e 8217 acbe cdd3 7fbe 781d b63d
00000020: 53fa ab3c 4b83 bf3d 3fe3 b1be 05e7 6fbd
00000030: 24f2 49be 2f89 f9be 9219 19be 7456 103e
00000040: 86fd 1abe 8fe9 773c 7e26 85be e057 42bd
00000050: c776 633e 847e 723e 695b 84be 4ae9 ef3d
00000060: c378 debd 085b 8f3e 4706 9a3e aac3 43bd
00000070: 3f74 413c b2d1 83be 7f00 97bd 4aa3 99be
00000080: 2fcb 3f3e 265c 973d fbda 7bbc ac82 1fbe
00000090: 1175 ff3e e4bf d73b 7c88 d1be e444 5c3e
000000a0: a0ce 5b3d 13f1 463d 0712 5abd e209 9abd
000000b0: 7461 6e3d 7470 a13d b385 8dbc 197e 013d
000000c0: fb45 91be 187f f0be 5ecb 1cbe 608b a8be
000000d0: ee65 103d 7354 7e3e 6141 1bbe e387 f3bd
000000e0: f3e6 71be 2291 bfbd dc2c dd3e 7239 2b3e
000000f0: ac8e dbbe a3f4 97be 5c8c 6dbc b066 203d
00000100: 09d9 9dbd 37e1 e53d d51b 09bd c23a 98bd
00000110: e50a f1bd cc84 f4bd 9542 13bd 5261 f53d
00000120: 3de1 fd3d f5e6 a4be 3b3b 433e ed52 023b
00000130: ade6 763d 15b1 bc3d 41da 82bc 75ab acbd
00000140: f337 bebd 1262 e7bd 40db 1c3e a927 673d
00000150: 7c66 dc3d 029a df3b 610a 44bc 19ed dfbd
00000160: 6d36 173e d6f3 3dbe b10c 5fbb 5be9 163e
00000170: f4f6 9ebe 3512 e73d 9a68 253d c95c 3bbc
00000180: bc77 6f3e 4231 f7bd ef88 5dbe f3bc a13d
00000190: d0ae b7be 6623 353e 9dcf 263e a8f5 94be
000001a0: 073b 5abe 5d33 c2bd e7a2 1dbe 9120 9f3b
000001b0: 3bf7 1bbf fd50 63bd ede5 8dbe e76c 15be
000001c0: 522a 6abe 600b 223e ed93 3ebe 3413 4b3e
000001d0: 1a19 74be 92d2 8bbb 1fa3 91be 22dd 23be
000001e0: ef34 02be 0b70 163e a77a c3bd c0a7 6cbc
000001f0: 1a33 7c3c 7006 343e 3faa 413e 8bb7 ef3e
00000200: cbe0 523d 4238 06be 5df3 643e aa50 ea3c
00000210: c592 e6be b276 17be 6e9d ddbd 2bda 013e
00000220: f625 28bc 9371 64be cbea 3c3e b38b 22bf
00000230: 7b93 9b3c 7898 6d3e 2ae9 3fbd d21b 96be
00000240: e6b9 b73d 38d2 efbc 0d7e 3d3d f341 1b3e
00000250: 8845 013d 47cf 7f3d 6651 b23d 0cd6 153e
00000260: 6b3e 213e 1c4d acbe ec9b aa3d c2e1 3cbd
00000270: e68c 8fbe e619 71be 4661 20bd efc6 93be
00000280: 9411 19be c68e c0be dc91 8f3d 28d4 3f3e
00000290: 56c1 293c 0934 80be 7e00 10be e433 253d
000002a0: 0d5e 03be ae8d 45bd 6c1f 483e ad66 843e
000002b0: 092d bfbd 43aa 3a3e 6722 eabc 6c17 29be
000002c0: 0b72 293e 615e fcbd 51b3 8b3e 04cb 493d
000002d0: 72ca 583e 572c 86be 92e6 8ebc ea81 7e3d
000002e0: e7ae 8dbc 4806 a2bd f2c4 5cbe 18c1 cebd
000002f0: de46 60bc 81ff 1cbc efaf 8e3d 90c4 9f3d
00000300: d804 81be 95be acbd fb80 bdbd 4b0d 70be
00000310: 7c6c 18bc 89e1 3cbe 180b 293e fc50 8b3d
00000320: 792f 53bd d21e cbbe f368 123e ddb1 183e
00000330: 33aa b13d 7c08 263e 1aef c9be e0db 98bd
00000340: 35df abbd 9506 da3d 44d7 8cbd cab1 8fbe
00000350: 97f1 243e a55a 543d 8615 06be b793 dbbe
00000360: 5f24 e13d 9e30 95be 973d c0bd f5b2 b43d
00000370: 6b77 97bc 8837 b63b c2f3 1c3e 3831 483d
00000380: e545 88be ecde 5c3e 8b61 e7be a5f5 e1bd
00000390: 9973 29be 86bc 633e 0e9b 8b3e 29dd ea3c
000003a0: 819b 4d3d 5fba 8bbe 3383 fcbe 2236 27bd
000003b0: d3be 99bd 1cdf b8be e9d6 9abd cee0 3e3d
000003c0: 8bd0 85bd a11a 3c3d 9ab6 35bd 7cbb 163d
000003d0: c77b 97be 3ce3 c63e 7e36 4bbe e322 a8be
000003e0: 986d 75be cd01 c0bd a83b eebc 6881 193e
000003f0: cc0e 8d3d 4263 09be 0f6d ddbc 6ab2 df3c

config_lin.2.bias f4 [32]
-0.0024254285 -0.00015735255 -0.124200724 -0.07566948 -0.028161958 -0.20084924 0.021611115 -0.1016752
-0.094933875 -0.12355023 0.08425614 -0.08178413 -0.18547805 -0.040941108 0.114528574 -0.05919355
-0.06408337 -0.22815439 -0.24744733 0.10688355 -0.079913 -0.066740274 0.20267189 0.20955151
-0.26349607 0.13532117 -0.042271197 -0.0822958 0.086915955 -0.26091236 0.073368765 0.012900813
00000000: f0f3 1ebb 01ff 24b9 f35c febd 9af8 9abd
00000010: e8b3 e6bc 6cab 4dbe cb09 b13c 163b d0bd
00000020: b16c c2bd e707 fdbd 7c8e ac3d 707e a7bd
00000030: f5ed 3dbe ddb1 27bd f58d ea3d f074 72bd
00000040: 243e 83bd 4ea1 69be d562 7dbe c3e5 da3d
00000050: 6da9 a3bd 20af 88bd 3889 4f3e ac94 563e
00000060: f5e8 86be a291 0a3e 9024 2dbd b38a a8bd
00000070: fe00 b23d 4e96 85be 5d42 963d ee5d 533c

vertex_lin.0.weight f4 [32, 64, 1, 1]
-0.22690491 0.024881123 0.05088143 -0.07350799 0.16068476 0.033520814 0.08007282 0.0978254
-0.09930847 -0.19021969 -0.21832544 0.123383865 -0.014478533 0.28903747 -0.14330432 0.0003773563
-0.053785816 0.11671268 0.12344817 0.18480757 0.0077528167 -0.07374876 0.046665046 0.10702279
-0.11864563 -0.05801108 -0.13006856 -0.018313525 0.019700106 0.11241876 0.027861798 -0.13518734
0.2336164 0.173447 -0.012291226 0.093579344 -0.34456784 -0.0194753 -0.12486418 0.14823239
0.2511409 0.3122038 0.15138468 -0.27254704 0.0307017 0.1606346 0.080924496 -0.25753814
0.0903025 -0.30846834 -0.1535815 -0.25848836 -0.20479128 -0.090010546 -0.019190583 0.40082815
-0.17104672 -0.028782899 -0.18021289 0.00933772 -0.034144044 -0.11017216 -0.085019976 0.05957517
-0.12668169 -0.13686445 -0.023899075 0.2016805 0.00468314 -0.23870438 0.15656686 0.086762585
0.2114531 0.023754347 0.018446825 -0.006282928 -0.15800063 0.28743434 0.18955107 -0.30491215
-0.031029183 -0.17263368 -0.3018948 0.13973416 -0.23159485 0.08633924 -0.17721137 0.10388669
-0.23639506 -0.020030389 0.23354696 0.21924332 0.0022344913 0.08547867 0.3230272 0.18845482
-0.0063678953 -0.04297193 -0.08950832 0.16936982 -0.044944007 -0.031107374 -0.024823716 -0.024478659
0.01404833 -0.032428484 -0.041378565 0.006524051 -0.37945756 0.17905349 0.16983478 0.12353675
-0.0076959566 0.19082263 -0.013412999 -0.124943934 -0.0068280282 -0.08346921 -0.056839697 0.21167822
0.069191225 0.17397197 -0.38349771 0.05075732 -0.072255455 -0.17003565 0.028405469 -0.0672667
-0.213586 -0.14119975 0.0380341 -0.07536152 -0.13546084 0.114567734 0.11855162 0.14074658
-0.02282427 0.21185505 0.16239043 0.07850495 0.14074668 -0.15360399 -0.06864345 -0.043848347
-0.09587003 0.14983545 0.09439162 -0.15268822 0.11192521 -0.044038113 0.049602356 0.045385323
0.09074171 0.14261152 -0.385686 -0.037725277 0.22109628 -0.057055227 -0.32213235 0.016540134
-0.106844954 0.14222875 -0.08450096 0.10844402 -0.07663195 -0.06254443 -0.0109613 -0.18982327
0.011838109 -0.21784398 -0.08847209 0.08496891 -0.08913935 -0.06282986 -0.076349825 0.08029632
0.080360934 -0.10536756 -0.02994283 0.050306436 0.09511273 -0.11380971 0.038900234 -0.14514856
0.009439765 -0.06501269 0.21445672 0.06528727 0.25359863 0.078708805 -0.02204888 0.11929389
-0.19016863 -0.005641411 0.06047914 0.12249607 -0.1970574 -0.041677717 -0.1829015 -0.20411845
0.37012327 0.007186095 -0.071558066 -0.055610877 0.034982722 0.17780592 0.27625263 -0.11087609
0.32336512 -0.08973758 -0.051980823 -0.35011905 0.09735302 0.33125392 -0.18413052 -0.09453359
-0.117957056 0.07188711 0.19091801 0.20485045 -0.0611641 -0.17836219 0.48157385 0.047977474
-0.16473946 0.48161915 -0.23867762 -0.1814052 0.05707548 0.034231495 -0.09772669 -0.16036502
-0.19035748 -0.19920011 0.053379234 -0.17175303 -0.050646372 -0.07260055 -0.054560002 -0.060324706
0.021320986 0.035842024 -0.09456 -0.12968671 0.023922987 0.11223799 0.21824305 -0.18655837
0.056351222 0.15239103 0.32546437 -0.119522735 0.03895121 0.033457823 -0.43710595 0.029959034
00000000: c359 68be 7fd3 cb3c 0c69 503d 5b8b 96bd
00000010: 8c8a 243e 1f4d 093d 38fd a33d af58 c83d
00000020: 3d62 cbbd f3c8 42be b490 5fbe aeb0 fc3d
00000030: 5e37 6dbc b8fc 933e 5ebe 12be e8d7 c539
00000040: 844e 5cbd 0f07 ef3d 65d2 fc3d 323e 3d3e
00000050: 570b fe3b 9709 97bd d923 3f3d c42e db3d
00000060: 7bfc f2bd 079d 6dbd b130 05be 3f06 96bc
00000070: 1e62 a13c cf3b e63d 6d3e e43c 8d6e 0abe
00000080: 2339 6f3e 179c 313e 2361 49bc 87a6 bf3d
00000090: 326b b0be aa8a 9fbc cbb8 ffbd 3bca 173e
000000a0: 8a95 803e 2dd9 9f3e 9604 1b3e 498b 8bbe
000000b0: 2282 fb3c 667d 243e bebb a53d 0adc 83be
000000c0: 84f0 b83d 90ef 9dbe 7844 1dbe 9658 84be
000000d0: ceb4 51be 7357 b8bd 9235 9dbc 5939 cd3e
000000e0: df26 2fbe 1dca ebbc ba89 38be 3dfd 183c
000000f0: a0da 0bbd f1a1 e1bd f41e aebd 1805 743d
00000100: d8b8 01be 3226 0cbe fec7 c3bc 5585 4e3e
00000110: 0775 993b ec6e 74be 1053 203e 95b0 b13d
00000120: 2987 583e 7a98 c23c cc1d 973c 05e1 cdbb
00000130: ebca 21be 982a 933e ad19 423e 721d 9cbe
00000140: ea30 febc e2c6 30be f591 9abe 7916 0f3e
00000150: 3327 6dbe a1d2 b03d e676 35be 8cc2 d43d
00000160: 8c11 72be c516 a4bc ef26 6f3e 5281 603e
00000170: 8b70 123b 710f af3d d263 a53e 4dfa 403e
00000180: c7a9 d0bb 5603 30bd 2350 b7bd 486f 2d3e
00000190: 3517 38bd e4d4 febc 1b5b cbbc 7887 c8bc
000001a0: f72a 663c bbd3 04bd 927c 29bd b5c7 d53b
000001b0: 4348 c2be cc59 373e 2be9 2d3e d600 fd3d
000001c0: 5d2e fcbb 0267 433e 32c2 5bbc 9be2 ffbd
000001d0: a7bd dfbb e8f1 aabd bed0 68bd 2dc2 583e
000001e0: 21b4 8d3d b525 323e d059 c4be e8e6 4f3d
000001f0: abfa 93bd d31d 2ebe 96b2 e83c 20c3 89bd
00000200: 4ab6 5abe ab96 10be a5c9 1b3d 2457 9abd
00000210: 3fb6 0abe 7da2 ea3d 31cb f23d df1f 103e
00000220: f7f9 babc 88f0 583e ad49 263e 34c7 a03d
00000230: e61f 103e 5d4a 1dbe f094 8cbd 539a 33bd
00000240: 8257 c4bd 776e 193e 6550 c13d 4d5a 1cbe
00000250: 0b39 e53d 4f61 34bd d72b 4b3d f6e5 393d
00000260: cad6 b93d c108 123e a378 c5be d285 1abd
00000270: 1067 623e beb2 69bd 88ee a4be 2d7f 873c
00000280: 87d1 dabd 6aa4 113e d70e adbd e617 de3d
00000290: 36f1 9cbd 4b17 80bd 0697 33bc 0861 42be
000002a0: a1f4 413c 7e12 5fbe db30 b5bd 2e04 ae3d
000002b0: b18e b6bd f1ac 80bd 4c5d 9cbd 6672 a43d
000002c0: 4694 a43d f3ca d7bd aa4a f5bc 1f0e 4e3d
000002d0: 77ca c23d 1115 e9bd da55 1f3d d3a1 14be
000002e0: 3ea9 1a3c 6025 85bd 8b9a 5b3e 55b5 853d
000002f0: aed7 813e 1532 a13d da9f b4bc 5b50 f43d
00000300: 91bb 42be 96db b8bb fab8 773d 38df fa3d
00000310: 6ac9 49be 41b6 2abd 884a 3bbe 6d04 51be
00000320: cc80 bd3e 5679 eb3b 098d 92bd 3bc8 63bd
00000330: 0b4a 0f3d c112 363e fc70 8d3e 0113 e3bd
00000340: 1d90 a53e 56c8 b7bd d8e9 54bd ce42 b3be
00000350: 0561 c73d 1d9a a93e b68c 3cbe d49a c1bd
00000360: 7893 f1bd 8d39 933d 0380 433e 51c4 513e
00000370: 3587 7abd 94a4 36be d990 f63e 0784 443d
00000380: 76b1 28be c996 f63e e867 74be 49c2 39be
00000390: fbc7 693d 5336 0c3d ee24 c8bd ba36 24be
000003a0: 12ed 42be 1dfb 4bbe 2fa4 5a3d 07e0 2fbe
000003b0: 9272 4fbd 99af 94bd 4f7a 5fbd 0a17 77bd
000003c0: 59a9 ae3c 16cf 123d aca8 c1bd 98cc 04be
000003d0: 24fa c33c 08dd e53d 1b7b 5f3e 2809 3fbe
000003e0: 8ad0 663d 650c 1c3e 44a3 a63e 56c8 f4bd
000003f0: 4e8b 1f3d 120b 093d 5acc dfbe a66c f53c

vertex_lin.0.bias f4 [32]
0.00063463155 0.0064791865 0.058146015 -0.05053762 -0.04082554 -0.05485165 -0.008671039 0.024997441
0.15096419 -0.08217643 -0.13020167 0.04267726 0.12661648 -0.010595163 0.037388954 0.072081886
0.15329044 0.0917766 -0.041740913 -0.08614823 -0.11780251 -0.055035714 -0.077006124 -0.014814272
-0.08657006 0.083537534 -0.17895675 -0.14310525 -0.023777822 -0.08552992 0.11807615 -0.102250114
00000000: 675d 263a 5b4f d43b 842a 6e3d 8900 4fbd
00000010: ae38 27bd 20ac 60bd f910 0ebc 6fc7 cc3c
00000020: 5b96 1a3e 1e4c a8bd 9653 05be 5ace 2e3d
00000030: c0a7 013e 5697 2dbc 2925 193d ab9f 933d
00000040: 2bf8 1c3e 5ff5 bb3d 85f8 2abd 7c6e b0bd
00000050: 7142 f1bd 216d 61bd 63b5 9dbd 8fb7 72bc
00000060: a54b b1bd ba15 ab3d 7040 37be 2f8a 12be
00000070: b5c9 c2bc 502a afbd e9d1 f13d 8268 d1bd

vertex_lin.2.weight f4 [32, 32, 1, 1]
0.07294968 0.11252062 0.07197438 0.17464355 0.20891589 0.31701073 0.112750724 -0.09190726
0.38396388 0.26211762 -0.1847808 0.2345285 0.1215814 0.2159276 0.002509734 -0.03798101
0.22405313 0.30128428 0.028297715 0.13859215 0.053885903 0.02868234 0.06798645 0.17351516
-0.071781226 0.039353237 -0.123370714 -0.022446034 -0.13385685 -0.08038193 0.09526165 -0.18585356
-0.020281574 -0.18328431 -0.14362983 -0.18871999 -0.15560873 -0.070056655 -0.100247234 -0.027936058
-0.22103594 -0.0005223508 -0.17880413 -0.18278016 -0.2150792 -0.021802165 0.080686554 0.062195405
-0.01371191 -0.09762366 -0.08520828 -0.059116665 0.054503597 0.018087363 0.28802058 0.09714753
-0.18033989 -0.21972737 0.15617365 0.0286541 -0.118435115 0.11106702 0.11500921 0.03715432
0.0180763 0.11750297 0.15268856 0.287107 -0.18736027 0.28788105 -0.26813757 -0.3226132
0.026979405 -0.28827694 -0.062041253 -0.17416354 -0.27911523 -0.12349899 0.0071717054 -0.06859726
0.10866073 0.22292714 -0.37167212 -0.346774 -0.31263727 -0.09167947 0.12395205 -0.3917294
0.2369237 0.11570593 -0.29367697 -0.12024297 0.0410431 0.06520098 0.0938253 0.011441027
0.15831092 -0.1749606 -0.028038539 -0.21176435 0.04064095 0.13922194 -0.2060043 0.28880718
-0.30500317 -0.2846915 0.014037384 -0.15567023 -0.016847778 -0.074040346 0.08447658 0.1590693
0.07862079 0.07596366 -0.13407044 -0.13232367 -0.3443601 0.16206829 -0.13827175 -0.34860173
-0.12142761 0.35263452 0.087722324 0.01526363 0.007268762 0.09337077 -0.1264338 0.029506523
-0.05120764 -0.114778094 0.06844239 0.14353067 0.13367823 -0.4236032 -0.16327198 0.034519967
-0.15119864 -0.01590089 0.09099573 0.04949916 0.080663875 -0.14226758 0.12743063 -0.013361895
0.113966465 -0.20783797 0.19603351 0.10286962 0.120978765 0.13405432 -0.03944663 -0.31439954
0.1427938 -0.083184786 0.4039193 -0.07655221 -0.43110326 0.08306782 0.103169195 0.03239992
-0.26782572 -0.068549275 0.11194363 0.035671204 -0.018390264 0.043663252 0.018678628 -0.4260248
0.08510935 -0.0635289 0.10034611 -0.47624964 0.11913526 -0.34685063 -0.15761554 0.20557845
0.046146613 -0.05705179 -0.22049107 -0.08715787 -0.38292682 -0.25376597 0.09950754 0.06944744
0.27590457 -0.2265523 -0.10988139 0.06859264 0.012568187 0.09220697 0.30613145 -0.21747732
-0.4037428 -0.10970965 -0.10836015 -0.105705366 -0.2637431 0.08301629 -0.30211294 -0.09268483
-0.067880996 -0.1539915 0.089715816 -0.22282535 0.29366934 -0.09080749 -0.07241025 0.13688791
0.11151061 0.010160718 -0.26533383 -0.10882381 -0.089259975 0.06828095 0.13269137 -0.03972735
0.09925189 -0.110632814 0.03370464 -0.0018455074 0.038173754 0.043938532 0.030314246 -0.16972953
0.13993908 0.33108735 -0.39504045 0.21092723 0.087042436 0.096193604 0.100098595 -0.1611753
0.30646178 0.15389176 -0.035960414 0.1980871 -0.097201 -0.037080836 -0.2985957 0.022900542
-0.20496146 0.22476053 -0.08202509 0.1148268 -0.011279387 -0.23657049 -0.06303252 0.28491127
-0.14765356 -0.4396899 -0.27484512 0.100622304 -0.007924727 -0.075691506 -0.21332487 -0.36466813
00000000: a466 953d 3671 e63d 4e67 933d c2d5 323e
00000010: 0cee 553e 3b4f a23e dae9 e63d e039 bcbd
00000020: ea96 c43e 4834 863e 2e37 3dbe 3d28 703e
00000030: abff f83d 201c 5d3e 597a 243b fa91 1bbd
00000040: 2f6e 653e ef41 9a3e 9cd0 e73c 1aeb 0d3e
00000050: 77b7 5c3d 3af7 ea3c 7b3c 8b3d f5ad 313e
00000060: 0902 93bd dc30 213d c9a9 fcbd bfe0 b7bc
00000070: c511 09be 489f a4bd 8a18 c33d 6550 3ebe
00000080: 8b25 a6bc e2ae 3bbe b313 13be d03f 41be
00000090: e557 1fbe dd79 8fbd 6c4e cdbd 29da e4bc
000000a0: 3f57 62be 5eee 08ba 6e18 37be b92a 3bbe
000000b0: b93d 5cbe 749a b2bc fe3e a53d 9cc0 7e3d
000000c0: eba7 60bc eaee c7bd ae81 aebd 5124 72bd
000000d0: 2a3f 5f3d f32b 943c 6f77 933e 49f5 c63d
000000e0: 05ab 38be 3600 61be fceb 1f3e 01bc ea3c
000000f0: 1c8e f2bd 1b77 e33d f389 eb3d 212f 183d
00000100: c014 943c 66a5 f03d 645a 1c3e b0ff 923e
00000110: 5fdb 3fbe 2565 933e 5449 89be 8f2d a5be
00000120: ea03 dd3c 0999 93be f81e 7ebd ed57 32be
00000130: 31e8 8ebe 0aed fcbd a000 eb3b b87c 8cbd
00000140: 8489 de3d 0347 643e cf4b bebe 5d8c b1be
00000150: fe11 a0be 72c2 bbbd 93da fd3d c290 c8be
00000160: 209c 723e 3bf7 ec3d d45c 96be f241 f6bd
00000170: cf1c 283d 1788 853d 7b27 c03d 2573 3b3c
00000180: 421c 223e df28 33be 14b1 e5bc c1d8 58be
00000190: 2077 263d 3290 0e3e cbf2 52be 89de 933e
000001a0: 6029 9cbe 16c3 91be 0efd 653c 0468 1fbe
000001b0: 5a04 8abc 77a2 97bd 0f02 ad3d 10e3 223e
000001c0: f003 a13d d692 9b3d c349 09be db7f 07be
000001d0: f84f b0be 3bf5 253e 1c97 0dbe ed7b b2be
000001e0: 0aaf f8bd 838c b43e c3a7 b33d 4e14 7a3c
000001f0: cc2e ee3b 2d39 bf3d dd77 01be aab7 f13c
00000200: 1abf 51bd c710 ebbd 862b 8c3d b4f9 123e
00000210: f2e2 083e 85e2 d8be c530 27be cf64 0d3d
00000220: d1d3 1abe 9542 82bc f85b ba3d a2bf 4a3d
00000230: 1a33 a53d 98ae 11be 2d7d 023e daeb 5abc
00000240: 4067 e93d 7ad3 54be 02bd 483e 4fad d23d
00000250: b7c3 f73d 8945 093e ca92 21bd faf8 a0be
00000260: 8a38 123e c95c aabd 83ce ce3e 68c7 9cbd
00000270: 91b9 dcbe 761f aa3d 5f4a d33d c7b5 043d
00000280: 7420 89be 9063 8cbd b442 e53d f81b 123d
00000290: 2ea7 96bc 3dd8 323d ec03 993c ec1f dabe
000002a0: d04d ae3d 711b 82bd 4382 cd3d fed6 f3be
000002b0: 30fd f33d 6896 b1be f865 21be 2883 523e
000002c0: 3b04 3d3d 23af 69bd 69c8 61be d37f b2bd
000002d0: fc0e c4be 9ded 81be 9cca cb3d 763a 8e3d
000002e0: 5d43 8d3e 53fd 67be 7f09 e1bd 4c7a 8c3d
000002f0: ccea 4d3c 02d7 bc3d 43bd 9c3e 60b2 5ebe
00000300: 60b7 cebe 74af e0bd edeb ddbd 0e7c d8bd
00000310: 5609 87be 7204 aa3d 8cae 9abe 8bd1 bdbd
00000320: 3105 8bbd f3af 1dbe edbc b73d 542c 64be
00000330: d45b 963e 47f9 b9bd d34b 94bd 582c 0c3e
00000340: ad5f e43d 2479 263c d6d9 87be 05df debd
00000350: efcd b6bd e2d6 8b3d 3fe0 073e 25b9 22bd
00000360: 9344 cb3d 7593 e2bd e00d 0a3d f4e4 f1ba
00000370: 155c 1c3d e4f8 333d 9555 f83c 94cd 2dbe
00000380: 314c 0f3e 4884 a93e be42 cabe 4ffd 573e
00000390: 4e43 b23d 2701 c53d 7e00 cd3d 230b 25be
000003a0: 8fe8 9c3e cd95 1d3e 3a4b 13bd 58d7 4a3e
000003b0: 5111 c7bd 13e2 17bd 89e1 98be eb99 bb3c
000003c0: 6be1 51be a027 663e c5fc a7bd 502a eb3d
000003d0: 2ecd 38bc 893f 72be 3217 81bd e4df 913e
000003e0: 7f32 17be 091f e1be 80b8 8cbe 1113 ce3d
000003f0: b7d6 01bc 2604 9bbd d671 5abe c8b5 babe

vertex_lin.2.bias f4 [32]
-0.064156175 -0.07372437 -0.05037363 -0.03657663 0.03239901 0.09181905 0.1925211 0.118542455
-0.15717073 -0.064867 0.04883453 -0.17490661 -0.092768885 -0.016494067 0.017788408 0.21966574
0.18438071 -0.16705102 -0.1059629 -0.05553297 -0.043111652 0.20328319 -0.026771978 -0.18886052
-0.10321392 0.19496487 0.10874931 0.020136667 0.026276764 -0.07135049 0.09880774 -0.051346675
00000000: 5064 83bd cdfc 96bd 9454 4ebd 60d1 15bd
00000010: d3b4 043d a00b bc3d 4024 453e 63c6 f23d
00000020: 5df1 20be fdd8 84bd b706 483d b81a 33be
00000030: 9dfd bdbd 911e 87bc ffb8 913c 0ef0 603e
00000040: 4cce 3c3e 6c0f 2bbe 1403 d9bd 8a76 63bd
00000050: d895 30bd 7829 503e e850 dbbc a764 41be
00000060: d261 d3bd dfa4 473e f5b7 de3d a7f5 a43c
00000070: 5e42 d73c 3520 92bd b65b ca3d e450 52bd

edge_lin.0.weight f4 [32, 1, 68, 1]
-0.19124903 -0.14198123 0.15423739 -0.31890926 -0.053193253 0.40944168 -0.031116152 0.025090527
-0.121666595 -0.25840354 -0.244501 0.18367234 0.06156684 0.021472579 -0.07551707 0.27095872
0.023260325 -0.033182472 0.12078554 -0.088970795 -0.08289558 0.14156446 -0.38286448 0.017025722
0.12824784 0.23841351 0.23052707 -0.104511246 0.09326761 -0.0650571 0.14784853 0.11589244
-0.59040344 0.05455548 -0.06550862 0.015228231 0.12144238 -0.2780806 -0.11258077 0.098947786
-0.0009134456 -0.017726729 -0.25344285 -0.29087967 -0.29588252 -0.0072530927 -0.037495546 0.026703523
-0.02570855 0.23818535 0.07744784 -0.037655428 0.059628855 -0.28141868 -0.15516965 0.060331356
-0.42335978 0.048994217 0.13796353 0.13714428 0.1334314 -0.19025314 0.16510318 -0.39621967
0.24814193 0.28301796 -0.2678899 0.05365832 -0.12275579 0.022904161 -0.16808875 0.15510425
-0.043690085 -0.19502546 0.035003524 0.06339592 0.35515454 0.105684295 -0.022619812 -0.043312505
-0.13502832 0.039132047 0.098209396 -0.07573027 0.0102004055 -0.049428355 0.14473541 -0.085818
0.11834246 -0.056498893 0.048810024 -0.1264429 -0.2653199 -0.09145662 -0.16978966 -0.031068157
-0.18852931 -0.054921634 -0.21231154 -0.3025235 0.48139063 -0.06822038 0.019801442 -0.118574835
-0.213402 0.09917961 -0.08900986 -0.07204118 -0.058700584 -0.11795132 0.07712281 0.18537574
0.10054419 -0.11692516 0.05164676 -0.12596132 0.06267105 -0.079883136 0.07315609 -0.077508
0.14774473 -0.014088233 -0.09354038 0.10876006 -0.10185237 -0.16086735 -0.035050783 0.031466104
-0.029291656 -0.1731817 0.009989894 0.0067882915 -0.13120459 -0.33725378 0.17905736 0.06377174
0.21846606 -0.022712465 -0.037209515 -0.023446463 -0.33424357 -0.20612329 0.117738776 0.23248672
0.24844699 -0.09351125 -0.37721413 -0.045183066 0.04479658 0.026808167 0.24367517 0.12849306
-0.14020659 0.1073866 -0.15513746 -0.17426722 -0.047123984 -0.26249564 0.22754845 0.3035916
0.05651629 -0.275089 -0.03030099 -0.20671073 0.108701445 -0.25531223 -0.18052195 0.034576334
0.06414592 -0.10829066 0.33497262 -0.15557528 -0.33037093 -0.11166272 -0.42798203 -0.29245532
-0.08041449 0.3039146 0.1615497 0.075615615 -0.6011277 -0.25319406 -0.015194646 -0.08837451
0.24434939 0.06675567 -0.22971441 -0.06645904 -0.22721565 -0.31467578 0.1043193 -0.40182048
0.182334 0.23904246 0.032089144 -0.09168414 -0.03820062 -0.3866261 -0.0044105635 -0.47262
-0.11733598 0.19470522 -0.230234 0.09887531 -0.29251152 -0.013301874 0.08262042 -0.08721835
-0.08380249 0.3397113 0.13225916 -0.06594596 0.13159114 -0.3236665 0.15082343 -0.08028221
-0.27876887 -0.21947236 -0.0964462 0.37419498 0.20891713 -0.085600935 -0.07784371 -0.04386998
-0.18912196 0.19996507 -0.14248957 -0.1709219 0.090438046 0.25470936 -0.16704085 0.06483452
-0.08896169 0.08926161 0.40603098 0.075650394 0.4469794 0.09632588 -0.26965153 0.02619185
0.33866844 0.05428427 -0.006511005 0.3079894 0.22388965 -0.13074572 0.08756218 -0.28149727
-0.033945855 -0.14726506 -0.3079898 -0.11766665 -0.10589653 0.23871112 0.082183264 -0.101790056
00000000: c9d6 43be 8763 11be 68f0 1d3e 1348 a3be
00000010: 2be1 59bd 57a2 d13e 4de7 febc a68a cd3c
00000020: 562c f9bd 784d 84be 785e 7abe 9a14 3c3e
00000030: 832d 7c3d 43e7 af3c b2a8 9abd 1abb 8a3e
00000040: 708c be3c 58ea 07bd 695e f73d 5236 b6bd
00000050: 28c5 a9bd 46f6 103e d006 c4be 8779 8b3c
00000060: 6753 033e ac22 743e 4a0f 6c3e fe09 d6bd
00000070: 1703 bf3d a83c 85bd 9b65 173e 0459 ed3d
00000080: ae24 17bf 9175 5f3d 6229 86bd d57f 793c
00000090: c8b6 f83d 9560 8ebe bf90 e6bd 23a5 ca3d
000000a0: 4c74 6fba a537 91bc 43c3 81be 2eee 94be
000000b0: ea7d 97be 5aab edbb ee94 19bd 59c1 da3c
000000c0: bd9a d2bc dce6 733e f99c 9e3d 943c 1abd
000000d0: 633d 743d 1c16 90be cbe4 1ebe 031e 773d
000000e0: 9dc2 d8be 29ae 483d 5046 0d3e 8d6f 0c3e
000000f0: 3ea2 083e b8d1 42be cf10 293e 4edd cabe
00000100: eb18 7e3e bbe7 903e dd28 89be d4c8 5b3d
00000110: 6367 fbbd 82a1 bb3c 751f 2cbe a6d3 1e3e
00000120: 60f4 32bd c1b4 47be db5f 0f3d b8d5 813d
00000130: d1d6 b53e 0271 d83d 2f4d b9bc 7468 31bd
00000140: dd44 0abe ed48 203d 0222 c93d 7918 9bbd
00000150: 9a1f 273c 6375 4abd 8535 143e 59c1 afbd
00000160: 885d f23d 626b 67bd 05ed 473d 3f7a 01be
00000170: 03d8 87be 9c4d bbbd 57dd 2dbe a682 febc
00000180: d40d 41be 82f5 60bd 3268 59be 5ce4 9abe
00000190: d578 f63e 20b7 8bbd a236 a23c 5dd7 f2bd
000001a0: 0e86 5abe ae1e cb3d cd4a b6bd 548a 93bd
000001b0: 0670 70bd 7690 f1bd 90f2 9d3d 23d3 3d3e
000001c0: 1dea cd3d 7576 efbd 8e8b 533d 01fc 00be
000001d0: ae59 803d c599 a3bd dcd2 953d 84bc 9ebd
000001e0: 654a 173e 55d2 66bc 1992 bfbd 98bd de3d
000001f0: fa97 d0bd 69ba 24be 6991 0fbd 9ae2 003d
00000200: 0ef5 efbc 8b56 31be a7ac 233c 5170 de3b
00000210: 7f5a 06be 87ac acbe d05a 373e c29a 823d
00000220: 91b5 5f3e 7e0f babc 0169 18bd cc12 c0bc
00000230: f921 abbe fc11 53be 0721 f13d 0011 6e3e
00000240: e368 7e3e d482 bfbd 3622 c1be e111 39bd
00000250: 9e7c 373d cd9c db3c fc85 793e af93 033e
00000260: 5192 0fbe 81ed db3d 5bdc 1ebe 1b73 32be
00000270: 1405 41bd d465 86be 7602 693e 5c70 9b3e
00000280: a07d 673d 77d8 8cbe c839 f8bc faab 53be
00000290: dd9e de3d 49b8 82be bfda 38be ea9f 0d3d
000002a0: f05e 833d 7ec7 ddbd 8881 ab3e 204f 1fbe
000002b0: 6126 a9be 6daf e4bd 7620 dbbe b4bc 95be
000002c0: 5ab0 a4bd b29a 9b3e 496d 253e 5cdc 9a3d
000002d0: 81e3 19bf a7a2 81be f7f2 78bc b2fd b4bd
000002e0: ba36 7a3e 32b7 883d 413a 6bbe ad1b 88bd
000002f0: 38ab 68be 2f1d a1be 5ba5 d53d 6abb cdbe
00000300: c4b5 3a3e 8cc7 743e e86f 033d e5c4 bbbd
00000310: 4178 1cbd dbf3 c5be 7d86 90bb 40fb f1be
00000320: d94d f0bd ce60 473e 76c2 6bbe 237f ca3d
00000330: 12c4 95be 1af0 59bc e534 a93d 899f b2bd
00000340: a4a0 abbd a4ee ad3e f26e 073e ad0e 87bd
00000350: d4bf 063e 9eb7 a5be 7571 1a3e 006b a4bd
00000360: cbba 8ebe 5dbd 60be 9685 c5bd 7c96 bf3e
00000370: 5fee 553e 8b4f afbd 866c 9fbd 02b1 33bd
00000380: 30a9 41be a5c3 4c3e c9e8 11be 2706 2fbe
00000390: 9537 b93d 4469 823e c20c 2bbe f6c7 843d
000003a0: 8c31 b6bd cace b63d 4be3 cf3e 98ee 9a3d
000003b0: 7cda e43e 8146 c53d c40f 8abe 4a90 d63c
000003c0: f365 ad3e 2f59 5e3d 455a d5bb c9b0 9d3e
000003d0: 5443 653e 35e2 05be cd53 b33d 6920 90be
000003e0: cf0a 0bbd a7cc 16be d7b0 9dbe 36fb f0bd
000003f0: 48e0 d8bd b070 743e b34f a83d 4e77 d0bd

edge_lin.0.bias f4 [32]
0.016102575 0.14639807 0.09814976 -0.011010422 -0.027757237 0.024821423 0.07524987 0.13018042
-0.107263446 0.043628722 -0.058071516 0.010989265 0.017079499 0.107886 -0.09105798 0.092057504
-0.046332683 -0.10010555 -0.025331657 -0.118304595 0.040345307 -0.04668553 0.08632483 0.026134975
0.03807329 0.014323268 0.014813871 0.04001814 -0.061512765 -0.011901784 0.004878646 0.026239466
00000000: 8ce9 833c 60e9 153e be02 c93d 0f65 34bc
00000010: 2563 e3bc 4c56 cb3c 9b1c 9a3d 044e 053e
00000020: f0ac dbbd 08b4 323d 66dc 6dbd 510c 343c
00000030: 4eea 8b3c 56f3 dc3d 9b7c babd a588 bc3d
00000040: 57c7 3dbd 2304 cdbd 5684 cfbc ae49 f2bd
00000050: 1f41 253d 5439 3fbd 13cb b03d 0419 d63c
00000060: bdf2 1b3d 24ac 6a3c e1b5 723c 10ea 233d
00000070: cff4 7bbd b3ff 42bc 0ddd 9f3b 26f4 d63c

edge_lin.2.weight f4 [32, 32, 1, 1]
0.12610221 -0.19907263 -0.383529 0.43237683 0.015709223 0.20187186 0.032814026 -0.29139385
-0.37089178 -0.11724682 0.3650369 0.07818835 0.18468174 0.15474929 0.1020328 -0.23205635
0.33457825 -0.12069079 0.48133948 -0.08860506 0.2843649 0.1699441 0.28367874 0.04804674
0.5085883 0.14038242 0.011274738 0.10716497 0.13807616 0.5216477 0.5276709 0.29724795
0.08803544 -0.15219338 -0.42304432 0.39845708 0.124990456 0.14527865 0.2423531 -0.23343268
-0.17827 -0.19897005 0.3756439 -0.058034908 0.22458392 0.29710567 0.0053256075 -0.22309393
0.34940022 -0.022286812 0.49932116 -0.15558289 0.11203389 0.34506354 0.112384535 0.34966385
0.20640647 0.19066197 0.17868623 0.16926469 -0.20723718 0.57397217 0.5773736 0.5043953
0.22252662 0.1461478 -0.11316281 0.015204238 0.08248744 0.088646226 -0.017375177 0.65458775
0.23271263 0.0726405 -0.17354801 0.07990373 0.0057047214 -0.15279207 -0.19846112 0.008513741
0.1691862 0.0788341 -0.10017184 -0.043480635 0.0010849508 0.42334983 -0.21570021 -0.12588045
-0.17681932 0.017944515 -0.012139571 0.058622368 -0.20613529 -0.35527584 -0.12382047 -0.34267712
-0.03565063 -0.33088574 -0.041441698 0.43899795 0.018490355 0.06678164 0.0453348 0.1189433
-0.16734459 0.053294454 0.4282067 0.2127363 0.2814102 0.32091048 0.0538965 -0.13899669
0.35698572 -0.2286832 0.5288488 -0.03925643 0.051542394 0.021257304 0.063078284 0.17001243
0.4000208 0.3241263 0.20271179 -0.021473112 -0.1896831 0.36054108 0.35072732 0.07517399
0.1047867 0.019624922 -0.19814311 0.4270168 0.16824654 0.24407561 0.063320465 -0.10174249
-0.13484024 0.0006204474 0.59640694 0.18528658 0.3800837 0.50319594 0.022442866 -0.17925489
0.43326604 0.016634842 0.32695433 -0.12991542 0.049921796 0.2231004 0.23776135 0.23389912
0.33500385 0.3235985 0.2659774 0.047390558 0.015584016 0.6032877 0.44958308 -0.07299978
0.03479109 0.1858451 -0.1049918 0.033739384 -0.18293172 0.017427327 -0.044828713 0.4264694
0.11718165 0.0060830233 -0.1603763 -0.039259363 -0.07153756 -0.030651478 0.04430975 0.11227212
0.07603116 0.13844727 -0.3778942 -0.09885218 0.16270785 0.38209915 -0.13292585 0.19647574
-0.03369535 -0.08105647 -0.0033539138 0.24492574 -0.108127005 -0.07874862 -0.09686539 -0.13838162
0.33917558 -0.09991918 -0.45761222 0.3810089 -0.03006998 0.1479017 0.034419082 -0.23852006
-0.1578955 0.039060485 0.5338104 -0.05458369 0.41587105 0.43076456 -0.089792 -0.13862106
0.308914 -0.17908388 0.4068478 -0.058758955 0.13214667 0.23302118 0.40141663 0.3689713
0.29366937 0.26330167 0.2023887 0.16960257 -0.26155823 0.39927918 0.53485644 -0.24238096
0.12619649 -0.07970402 -0.24710368 0.33823264 0.1267142 0.2772323 0.04469492 -0.12151752
-0.2002496 -0.11012812 0.5149558 -0.09182113 0.20762627 0.3394812 0.16297862 -0.036277466
0.17994146 -0.1294345 0.4367377 0.09704988 0.1418785 0.082426086 0.13777037 0.23674119
0.22660774 0.25473753 0.27458996 0.13570741 0.0077207317 0.31815675 0.57969576 0.42052725
00000000: f020 013e b2d9 4bbe ea5d c4be 7f60 dd3e
00000010: a1b0 803c 7fb7 4e3e 0068 063d 9331 95be
00000020: 87e5 bdbe 1a1f f0bd 1ee6 ba3e 3721 a03d
00000030: 361d 3d3e 9976 1e3e 93f6 d03d 2ea0 6dbe
00000040: d74d ab3e bc2c f7bd 2172 f63e 9276 b5bd
00000050: 4798 913e d305 2e3e 573e 913e a9cc 443d
00000060: d832 023f 69c0 0f3e aeb9 383c 4f79 db3d
00000070: d663 0d3e b48a 053f 7115 073f e230 983e
00000080: ed4b b43d 95d8 1bbe 4499 d8be 9102 cc3e
00000090: fffa ff3d edc3 143e 692b 783e fa08 6fbe
000000a0: 698c 36be cebe 4bbe 6654 c03e 03b6 6dbd
000000b0: 54f9 653e 3c1e 983e 6f82 ae3b bc72 64be
000000c0: 96e4 b23e d592 b6bc 06a7 ff3e 1f51 1fbe
000000d0: 0672 e53d 2bac b03e dd29 e63d 2407 b33e
000000e0: 385c 533e e43c 433e 86f9 363e b953 2d3e
000000f0: fc35 54be d7ef 123f c2ce 133f 0d20 013f
00000100: 05de 633e c5a7 153e e7c1 e7bd 321b 793c
00000110: 2def a83d 278c b53d 6356 8ebc 1093 273f
00000120: 384c 6e3e 8bc4 943d 92b6 31be 91a4 a33d
00000130: acee ba3b 8675 1cbe 6439 4bbe 387d 0b3c
00000140: 263f 2d3e c673 a13d e526 cdbd c018 32bd
00000150: e834 8e3a 4fc1 d83e 84e0 5cbe cee6 00be
00000160: 2010 35be 6000 933c 0de5 46bc 021e 703d
00000170: 2115 53be b7e6 b5be 9695 fdbd 6073 afbe
00000180: 6506 12bd db69 a9be c5be 29bd 57c4 e03e
00000190: 1679 973c d0c4 883d fcb0 393d 8b98 f33d
000001a0: 615c 2bbe 494b 5a3d e93d db3e 8bd7 593e
000001b0: ff14 903e 614e a43e 94c2 5c3d 2655 0ebe
000001c0: d5c6 b63e ee2b 6abe a362 073f 5acb 20bd
000001d0: 1e1e 533d cc23 ae3c 302f 813d bd17 2e3e
000001e0: 87cf cc3e e2f3 a53e ae93 4f3e 61e8 afbc
000001f0: 493c 42be d798 b83e 8892 b33e d2f4 993d
00000200: 699a d63d 72c4 a03c 07e6 4abe f2a1 da3e
00000210: d248 2c3e f5ee 793e 29ae 813d 5e5e d0bd
00000220: 8f13 0abe 85a5 223a 20ae 183f c4bb 3d3e
00000230: 559a c23e 73d1 003f 1ada b73c 988e 37be
00000240: 0cd5 dd3e cb45 883c 8f66 a73e 8c08 05be
00000250: cc7a 4c3d 6e74 643e b677 733e 4083 6f3e
00000260: a085 ab3e b4ae a53e 312e 883e 9a1c 423d
00000270: 1a54 7f3c 1071 1a3f c12f e63e e980 95bd
00000280: 1a81 0e3d 2e4e 3e3e f105 d7bd 4f32 0a3d
00000290: 7452 3bbe c1c3 8e3c 509e 37bd 325a da3e
000002a0: effc ef3d 1954 c73b af39 24be 6dce 20bd
000002b0: 4982 92bd cf18 fbbc 247e 353d edee e53d
000002c0: 3ab6 9b3d 1fc5 0d3e 597b c1be 0373 cabd
000002d0: e39c 263e 80a2 c33e b71d 08be f030 493e
000002e0: 2304 0abd ef00 a6bd 56cd 5bbb d0cd 7a3e
000002f0: b171 ddbd f546 a1bd 5d61 c6bd e9b3 0dbe
00000300: 6ca8 ad3e 6da2 ccbd 264c eabe 9913 c33e
00000310: 5255 f6bc 8b73 173e 06fb 0c3d 9a3e 74be
00000320: 5caf 21be e3fd 1f3d cca7 083f 2693 5fbd
00000330: 0ded d43e 2c8d dc3e dee4 b7bd aef2 0dbe
00000340: fa29 9e3e c461 37be 5b4e d03e 3bad 70bd
00000350: 7551 073e 1b9d 6e3e 7b86 cd3e cee9 bc3e
00000360: d55b 963e 7acf 863e fc3e 4f3e 4cac 2d3e
00000370: f6ea 85be 526e cc3e 5aec 083f b732 78be
00000380: a739 013e dc3b a3bd bf08 7dbe d42c ad3e
00000390: 5ec1 013e 64f1 8d3e 0512 373d 2dde f8bd
000003a0: 3b0e 4dbe da8a e1bd 25d4 033f b70c bcbd
000003b0: fb9b 543e 7bd0 ad3e dee3 263e ae97 14bd
000003c0: 9342 383e 7a8a 04be 159c df3e 16c2 c63d
000003d0: 9948 113e 02cf a83d ad13 0d3e 486c 723e
000003e0: dc0b 683e f56c 823e 0e97 8c3e e2f6 0a3e
000003f0: 31fe fc3b 71e5 a23e f166 143f 594f d73e

edge_lin.2.bias f4 [32]
0.06807981 -0.05321771 0.15064365 0.029488172 -0.203552 0.06737951 -0.029135756 -0.064434364
0.0051548975 0.048245702 -0.18727024 -0.050165202 -0.17810647 0.04449695 0.006772746 0.19525242
-0.017379882 -0.19581032 0.015700202 -0.027391162 0.16736393 -0.03109749 -0.023328656 -0.023225255
0.045030445 0.034987625 -0.009997329 0.053295817 -0.053240053 -0.09173578 -0.10240463 -0.011692318
00000000: 6d6d 8b3d d0fa 59bd 5442 1a3e 2e91 f13c
00000010: ef6f 50be 45fe 893d 1cae eebc 2af6 83bd
00000020: 6aea a83b 499d 453d c5c3 3fbe 077a 4dbd
00000030: 8b61 36be 6f42 363d e9ed dd3b 40f0 473e
00000040: 4160 8ebc 8082 48be b69d 803c 6e63 e0bc
00000050: 7361 2b3e 2ac0 febc bd1b bfbc e442 bebc
00000060: d871 383d 2f4f 0f3d d6cb 23bc b74c 5a3d
00000070: 3e12 5abd f8df bbbd 85b9 d1bd 2391 3fbc

vertex_output_lin.0.weight f4 [32, 1, 32, 1]
-0.038138293 0.04574014 -0.098202094 0.056588102 -0.03863826 0.060323525 0.022371132 -0.20995475
-0.062055882 0.058616314 -0.0044957045 -0.25739864 -0.29621515 -0.103431664 0.13821596 0.17734514
-0.056765135 0.02603672 -0.030484896 0.055006754 0.05038621 -0.29329675 0.2210582 0.13972998
0.19875406 -0.026889298 -0.14502212 -0.1692871 0.018666241 -0.035821956 -0.25765234 -0.24318229
-0.09374813 -0.2372051 0.01924844 -0.12190563 -0.43824458 -0.011468804 -0.16123107 -0.26882613
-0.12457589 -0.26258612 -0.103545845 -0.26321957 -0.2478956 0.12339437 -0.2825043 -0.06334756
-0.18267529 0.0072939247 -0.13239963 0.006453411 0.07391879 -0.033715848 0.13301346 0.0034341393
0.038521763 -0.19752902 -0.027211066 -0.0038930022 -0.04209395 -0.15259235 -0.3787436 -0.25501716
-0.24248673 -0.12819704 0.20953882 -0.3605109 -0.40047038 0.16651496 -0.23375703 -0.5604815
0.0016672313 -0.32627693 0.050656777 -0.35608527 -0.37080726 0.38568762 -0.25240487 -0.005885302
0.20664825 0.08247083 0.033898402 -0.26673564 0.089580454 -0.24646412 -0.08799956 0.13126391
-0.15039045 -0.3200354 -0.43118352 -0.24167444 0.2128269 -0.5375896 -0.33477455 -0.45153335
0.18533216 0.39428502 -0.25552303 0.15446004 0.43014005 -0.087544404 0.2588347 0.40715605
0.080179945 0.26657164 -0.14913104 0.33613253 0.36432865 0.011461426 0.23409826 -0.2796862
0.15795596 0.06969857 0.19107382 -0.06802226 -0.33065408 0.38443604 0.23637511 -0.077803165
0.07413394 0.22010529 0.23347376 0.23351005 -0.44675723 0.369012 0.5363151 0.29505658
0.18042827 0.0877477 0.14416558 -0.108123735 -0.19400017 0.08445201 -0.06495394 -0.24735223
0.06531845 0.013499922 -0.0146674365 -0.1683022 -0.28988233 0.42956 -0.16290934 0.108693704
0.042026848 -0.19410667 -0.14959614 -0.078144394 0.261033 0.14689852 0.13040884 0.008763556
0.0585766 -0.13313784 -0.1649983 -0.07133356 0.3142756 -0.0670036 0.022479722 -0.013610941
-0.063782334 -0.105858475 -0.15083306 0.0977134 -0.101368636 -0.053792745 0.2000601 -0.043685187
0.023764564 0.2508836 -0.09220357 0.07036393 -0.21214199 -0.12731825 0.021055497 -0.04945834
-0.04479486 0.08279477 0.09303993 -0.06788612 0.01234737 -0.036366146 -0.015765846 -0.11067363
-0.018824225 -0.15144555 0.07949607 0.21052974 -0.1325335 -0.21805036 -0.106419064 -0.016048335
-0.015587202 -0.016263803 -0.07650972 -0.12364367 -0.06132283 0.05469595 0.060849473 -0.06856932
-0.20795989 0.056228664 0.065480456 -0.071326524 -0.049549304 0.017624442 0.01046455 -0.063326105
-0.06016814 0.061518677 -0.18916787 -0.00022338734 -0.008882066 0.095914826 -0.13869227 0.06750201
0.025829693 -0.06938991 -0.16205707 0.11191754 0.0020545078 0.16536446 -0.05495197 0.17558229
-0.15077022 0.02209027 -0.0797414 -0.02664649 -0.2533087 0.1176071 -0.090488374 0.168355
-0.082257695 -0.17027318 0.059636842 -0.17556107 0.0021445688 -0.031368643 0.053878084 0.04932213
-0.15399027 0.09239724 -0.10411078 0.069219545 -0.14194763 -0.12640561 0.011384275 -0.08029241
0.14494291 -0.21742326 0.10622729 0.13675167 0.08506609 -0.07385486 -0.069255546 -0.050131153
00000000: e636 1cbd 035a 3b3d 2e1e c9bd edc8 673d
00000010: 2743 1ebd cd15 773d aa43 b73c 61fe 56be
00000020: 4f2e 7ebd a917 703d b450 93bb c1c9 83be
00000030: 83a9 97be fbd3 d3bd 7c88 0d3e f799 353e
00000040: 8f82 68bd f64a d53c 76bb f9bc c34e 613d
00000050: c561 4e3d fe2a 96be 155d 623e 6015 0f3e
00000060: 2f86 4b3e f246 dcbc ae80 14be 9959 2dbe
00000070: f2e9 983c 0bba 12bd 02eb 83be c704 79be
00000080: 05ff bfbd e5e5 72be e8ae 9d3c a9a9 f9bd
00000090: 9861 e0be a7e7 3bbc c219 25be 94a3 89be
000000a0: a521 ffbd b071 86be d80f d4bd b7c4 86be
000000b0: 58d8 7dbe 30b6 fc3d 67a4 90be 5ebc 81bd
000000c0: 3b0f 3bbe e001 ef3b c593 07be 2377 d33b
000000d0: bc62 973d a119 0abd ae34 083e 4c0f 613b
000000e0: ffc8 1d3d 0c45 4abe bee9 debc bd21 7fbb
000000f0: b56a 2cbd 2b41 1cbe aeea c1be 9c91 82be
00000100: 714e 78be 1646 03be 5891 563e e294 b8be
00000110: 740a cdbe e682 2a3e 015e 6fbe b77b 0fbf
00000120: 0087 da3a c50d a7be 7b7d 4f3d cf50 b6be
00000130: 73da bdbe d978 c53e 363b 81be 7ed9 c0bb
00000140: 999b 533e 77e6 a83d 0dd9 0a3d 9391 88be
00000150: f575 b73d 1761 7cbe 1d39 b4bd 0c6a 063e
00000160: f4ff 19be aedb a3be 16c4 dcbe 8179 77be
00000170: 4bef 593e 799f 09bf 9267 abbe 612f e7be
00000180: b7c7 3d3e badf c93e ead3 82be c62a 1e3e
00000190: 513b dc3e 7b4a b3bd fb85 843e c276 d03e
000001a0: 6235 a43d 147c 883e cfb5 18be 9019 ac3e
000001b0: 4989 ba3e b4c8 3b3c 74b7 6f3e 0833 8fbe
000001c0: 35bf 213e 20be 8e3d dba8 433e 414f 8bbd
000001d0: 7e4b a9be cdd4 c43e 510c 723e 4457 9fbd
000001e0: 89d3 973d 4863 613e bf13 6f3e 421d 6f3e
000001f0: 5dbd e4be 24ef bc3e f24b 093f a811 973e
00000200: 30c2 383e 11b5 b33d 24a0 133e fa6f ddbd
00000210: fba7 46be 2df5 ac3d 9206 85bd e749 7dbe
00000220: aec5 853d c72e 5d3c b04f 70bc 6957 2cbe
00000230: 756b 94be 4aef db3e b5d1 26be ce9a de3d
00000240: 5824 2c3d e6c3 46be bb2f 19be 2b0a a0bd
00000250: 1ea6 853e 916c 163e e589 053e 0595 0f3c
00000260: 04ee 6f3d 4955 08be 50f5 28be 5417 92bd
00000270: bbe8 a03e 2f39 89bd 6527 b83c 6d00 5fbc
00000280: 50a0 82bd 54cc d8bd fb73 1abe f71d c83d
00000290: 5c9a cfbd c855 5cbd 8edc 4c3e 3def 32bd
000002a0: e7ad c23c d173 803e 3ad5 bcbd f71a 903d
000002b0: c03b 59be b75f 02be 947c ac3c d494 4abd
000002c0: d17a 37bd 4e90 a93d b88b be3d e107 8bbd
000002d0: a04c 4a3c abf4 14bd 6027 81bc dba8 e2bd
000002e0: 4335 9abc 8b14 1bbe d6ce a23d 1c95 573e
000002f0: ddb6 07be 9848 5fbe 3df2 d9bd cc77 83bc
00000300: 7761 7fbc ab3b 85bc 21b1 9cbd e438 fdbd
00000310: a62d 7bbd dc08 603d 4c3d 793d 126e 8cbd
00000320: 70f3 54be 0750 663d 9e1a 863d a413 92bd
00000330: 36f4 4abd 2261 903c 8173 2b3c 1eb1 81bd
00000340: de72 76bd 02fb 7b3d 39b5 41be 153d 6ab9
00000350: 1686 11bc fe6e c43d 5905 0ebe 7e3e 8a3d
00000360: cb98 d33c 4c1c 8ebd 4af2 25be 0635 e53d
00000370: eca4 063b 4d55 293e 5115 61bd d8cb 333e
00000380: 8263 1abe a7f6 b43c 764f a3bd bd49 dabc
00000390: aeb1 81be fedb f03d f851 b9bd 4165 2c3e
000003a0: b976 a8bd 185c 2ebe c345 743d 48c6 33be
000003b0: e58b 0c3b 687c 00bd 44af 5c3d 0006 4a3d
000003c0: a0af 1dbe c43a bd3d 0838 d5bd fac2 8d3d
000003d0: b85a 11be 7970 01be 1c85 3a3c 5970 a4bd
000003e0: ea6b 143e 34a4 5ebe b28d d93d a108 0c3e
000003f0: 2137 ae3d 3841 97bd dad5 8dbd 5356 4dbd
