reachability_classification/weights/SimpleMultiplePassGNNReachabilityNet_epoch_26.pt (torch_old, 36685 bytes, 16 tensors)

x_lin.0.weight f4 [32, 1, 1, 11]
0	0xbe9c0e89	-0.3047984
1	0xbdf3d0cd	-0.1190506
2	0x3bf6df97	0.007533978
3	0xbe76e4d5	-0.2411073
4	0xbe9a9a27	-0.30195734
5	0xbced1f96	-0.028945725
6	0xbe87a337	-0.2649171
7	0x3e827a39	0.25483873
8	0x3cb0f580	0.021601439
9	0xbd1d912e	-0.038468532
10	0xbec0f191	-0.376843
11	0x3ec3f226	0.38270682
12	0xbe8d8669	-0.2764161
13	0xbe866a48	-0.2625296
14	0x3ec211f8	0.37904334
15	0xbd19a1ca	-0.03750781
16	0xbd30461d	-0.043035615
17	0xbedc4790	-0.43023348
18	0x3e8ffa96	0.2812087
19	0xbd256cbc	-0.0403869
20	0x3e5b5da4	0.2142244
21	0xbdc18f30	-0.09451139
22	0xbee9c67d	-0.45659247
23	0x3e0169df	0.12638043
24	0x3dee9c7b	0.1165094
25	0x3de55a46	0.11198859
26	0x3dafa5aa	0.0857652
27	0xbd8625d4	-0.06550184
28	0x3df324c1	0.118722446
29	0x3d93ad8a	0.07210834
30	0x3eaedc3f	0.3415241
31	0xbe81b530	-0.25333548
32	0x3c2df4b7	0.010617427
33	0x3c0a8df9	0.0084567005
34	0xbc2a66d3	-0.010400492
35	0xbeb2762b	-0.3485578
36	0x3eca0792	0.394589
37	0x3e2e3f83	0.17016415
38	0xbe1783fe	-0.14796445
39	0xbd07507d	-0.033035744
40	0xbea7d441	-0.32779124
41	0xbdd10ce7	-0.10207539
42	0x3e55e892	0.208895
43	0xbeb90b1d	-0.3614129
44	0xbda12a95	-0.0786945
45	0xbe0a777a	-0.13522139
46	0x3da99b00	0.08281517
47	0xbd9ca74c	-0.07649097
48	0x3efba93c	0.49152553
49	0x3eb40b7c	0.35165012
50	0x3ea65522	0.32486826
51	0x3e884b3d	0.26619902
52	0xbec5d399	-0.38638
53	0xbd98e056	-0.07464664
54	0x3e0311df	0.12799786
55	0xbe9cc0d7	-0.30615875
56	0xbe814d6a	-0.25254375
57	0x3c0313f6	0.0080003645
58	0xbe8afa45	-0.27144065
59	0xbe7fa9e6	-0.24967155
60	0xbe36e03e	-0.17858979
61	0x3ee44cf7	0.4458997
62	0x3eb8cd31	0.3609405
63	0x3d5a48fc	0.05329226
64	0x3ee24832	0.44195706
65	0xbf12fff5	-0.5742181
66	0x3df396fe	0.11894034
67	0x3ec71a67	0.3888733
68	0x3e151706	0.14559564
69	0x3e1e78a9	0.15475716
70	0x3e9082d6	0.2822482
71	0x3e8a6eac	0.2703756
72	0x3e94bb1b	0.29049
73	0xbe21199b	-0.15732424
74	0xbe99b61e	-0.30021757
75	0xbeb9fac8	-0.36324143
76	0xbc4d9cb4	-0.012549568
77	0x3e451efa	0.19250098
78	0xbea8ebcd	-0.32992402
79	0xbe005b59	-0.12534846
80	0x3e7ca737	0.24673162
81	0xbe01f239	-0.12690057
82	0xbe483123	-0.19549994
83	0xbd8c67bf	-0.068557255
84	0xbd79fe1e	-0.06103336
85	0xbd1b637f	-0.037936684
86	0xbf69b366	-0.91289365
87	0x3f3797d8	0.7171607
88	0x3e9438af	0.28949496
89	0x3e8488c3	0.2588559
90	0x3e90c6dc	0.28276718
91	0xbe28c6a7	-0.1648203
92	0xbd86959e	-0.06571506
93	0xbd780f4f	-0.060561474
94	0x3e262120	0.16223574
95	0x3e738ad1	0.23783423
96	0xbdd30782	-0.103041664
97	0xbcec2e03	-0.028830534
98	0x3e8e78d3	0.27826557
99	0x3e86fde2	0.26365572
100	0xbd4a0c03	-0.04932786
101	0x3de76843	0.11299183
102	0x3edef9bc	0.43549907
103	0xbc09b725	-0.008405481
104	0xbe23d407	-0.15998851
105	0xbee012ba	-0.43764287
106	0xbdcb9731	-0.09940947
107	0x3cfb9571	0.030710908
108	0x3f2f3655	0.6844228
109	0xbecd0e4b	-0.40049967
110	0x3e6bec37	0.23039328
111	0x3cc9f22b	0.024651607
112	0x3d867631	0.06565512
113	0xbf02e498	-0.51130056
114	0xbe3569a8	-0.17716086
115	0x3e65bd99	0.22435607
116	0xbda36801	-0.079788215
117	0xbdc75595	-0.0973312
118	0xbe809c2a	-0.25119144
119	0x3e4e9bf7	0.20176683
120	0xbe87d6dd	-0.26531115
121	0xbe611019	-0.21978797
122	0x3c8ca10d	0.017166639
123	0xbd124b65	-0.035716433
124	0xba3e2877	-0.00072539545
125	0x3da2ab65	0.07942847
126	0xbdedd7ca	-0.11613424
127	0xbdf2412d	-0.118288375
128	0x3df2071f	0.118177645
129	0x3cdef2e1	0.027215423
130	0xbe8a44ee	-0.27005714
131	0xbe0bcb4b	-0.13651769
132	0xbe03fd1d	-0.12889524
133	0x3dec5498	0.115395725
134	0xbdacddcc	-0.08440742
135	0x3ead9eec	0.3391031
136	0xbdd259c7	-0.1027103
137	0xbd7b8ba8	-0.061412483
138	0x3ebd37a7	0.36956522
139	0x3cbce8ed	0.023060286
140	0xbc4030f2	-0.0117304195
141	0x3f788918	0.9708419
142	0xbf40d6ee	-0.75327957
143	0xbe5182bb	-0.20460026
144	0xbde9fc3f	-0.11425065
145	0xbcb1c9cc	-0.02170267
146	0x3ec3f3d8	0.38271976
147	0x3eab2eca	0.33434135
148	0xbdb67010	-0.08908093
149	0xbe1a6033	-0.1507576
150	0xbe2aacc1	-0.16667463
151	0x3e87d0fb	0.26526627
152	0x3d67b8f1	0.05657286
153	0x3d767506	0.060170196
154	0x3e0b0889	0.13577475
155	0xbe998697	-0.29985496
156	0x3ef14172	0.47120243
157	0xbedbbfdb	-0.42919812
158	0x3e07d7f3	0.13265972
159	0xbd7f0e0f	-0.062269267
160	0xbe83dbd8	-0.25753665
161	0x3e756408	0.2396394
162	0x3ca10341	0.019654872
163	0x3da7d5a9	0.08195049
164	0x3ec92c39	0.39291552
165	0x3cbcdc88	0.023054376
166	0xbdb0b1b5	-0.08627645
167	0x3e1fe47c	0.15614504
168	0x3dda9f61	0.1067493
169	0x3d1f91ca	0.038957395
170	0xbe0a89b6	-0.13529095
171	0xbec06f17	-0.37584755
172	0xbe39efb2	-0.18157843
173	0x3e88918b	0.2667354
174	0x3ee1380f	0.43988082
175	0xbe0a2245	-0.13489635
176	0x3cc6ab11	0.024251493
177	0x3b77aa52	0.0037790728
178	0xbd069dbe	-0.03286528
179	0x3ce6fa3d	0.028195495
180	0x3e269256	0.1626676
181	0x3e546c35	0.20744403
182	0x3c5b6815	0.013391514
183	0x3e98a532	0.29813534
184	0x3e41dbd1	0.1893151
185	0xbe74aac5	-0.23893268
186	0x3ef014eb	0.4689096
187	0xbe533627	-0.20626126
188	0x3d96af24	0.07357624
189	0x3d067582	0.032826908
190	0xbe60b873	-0.21945362
191	0xbeb9a4cd	-0.36258546
192	0x3e0bb520	0.13643312
193	0xbe1b111d	-0.15143247
194	0x3ea11a42	0.31465346
195	0x3e84af78	0.25915122
196	0x3f322197	0.69582504
197	0xbf424755	-0.75890094
198	0xba923add	-0.0011156459
199	0x3ea32538	0.31864333
200	0x3d830c27	0.06398802
201	0x3e60f073	0.21966724
202	0x3d103481	0.03520632
203	0xbcf429e5	-0.029805133
204	0x3daa317d	0.083102204
205	0x3d970ee3	0.07375886
206	0xc00dc519	-2.215155
207	0x3e0a5fac	0.13513058
208	0xbd6f3a7c	-0.058405384
209	0x3e9ff056	0.3123805
210	0x3dcdf1f3	0.10055914
211	0xbe50b135	-0.20380099
212	0xbe1cd68e	-0.15316221
213	0x3ec8458c	0.3911556
214	0x3e0b2ecb	0.13592069
215	0x3e63ff27	0.22265302
216	0xbebd1f6e	-0.3693804
217	0x3d2fdc6d	0.042934824
218	0x3f61ba6c	0.8817508
219	0x3d822b46	0.0635591
220	0xbe729e47	-0.2369319
221	0x3e500864	0.20315701
222	0xbc2175e4	-0.0098547675
223	0x3cfdc250	0.030976444
224	0x3e683372	0.22675875
225	0xbe1df06d	-0.15423746
226	0xbe0f7646	-0.14009961
227	0x3e689058	0.22711313
228	0xbe8d79e2	-0.27632052
229	0xbe646a4d	-0.22306176
230	0xbd3305b2	-0.043706603
231	0x3e817b5a	0.25289422
232	0x3e10ef80	0.14153862
233	0x3d8f4eea	0.069974735
234	0x3d4367b2	0.047706313
235	0xbe01bf89	-0.12670721
236	0xbf07c6e2	-0.53037846
237	0x3da96fb6	0.0827326
238	0x3e1eb7c4	0.15499789
239	0x3ddb947b	0.1072168
240	0xbebda387	-0.37038824
241	0xbe1451fb	-0.14484398
242	0x3e283d67	0.16429673
243	0xbe4967cd	-0.19668503
244	0xbeb4a51f	-0.35282227
245	0x3a8450d9	0.0010094895
246	0x3d5ac81d	0.0534135
247	0xbe8537db	-0.26019177
248	0xbcf6c0e6	-0.030121278
249	0xbd629f19	-0.05532751
250	0xbc66d6c4	-0.01408929
251	0x3f30983f	0.6898231
252	0xbeb58d75	-0.35459486
253	0xbc83c70e	-0.016086128
254	0xbd8d8523	-0.069101594
255	0x3e34e1b6	0.17664227

x_lin.0.bias f4 [32]
0	0x3d3159d7	0.04329857
1	0x3c15e501	0.009148837
2	0xbdd8fd87	-0.105952315
3	0xbe32194c	-0.17392462
4	0xbe2ecb1d	-0.17069669
5	0xbc0468b8	-0.0080816075
6	0xbbd5a061	-0.006519363
7	0x3d89d99e	0.0673096
8	0x3d0ab539	0.033864234
9	0x3e4cbd5e	0.19994113
10	0x3ba51020	0.0050373226
11	0x3d987ec6	0.07446055
12	0x3e8a6ce4	0.27036202
13	0x3de8fc3d	0.11376236
14	0x3ea81171	0.32825807
15	0xbeaac916	-0.3335654
16	0x3ecf3525	0.40470234
17	0xbc3d5c56	-0.011557659
18	0x3ea4f076	0.32214707
19	0xbdc0f420	-0.09421563
20	0xbe4286cb	-0.18996732
21	0xbe36f9c0	-0.1786871
22	0x3e159382	0.14607051
23	0xbe144c5a	-0.14482251
24	0xbe7f100d	-0.24908467
25	0x3dab3986	0.08360581
26	0x3e154542	0.14577201
27	0xbe9e17d6	-0.3087756
28	0x3ea8373a	0.32854635
29	0xbea23123	-0.31678113
30	0x3e370bba	0.17875567
31	0xbe52838c	-0.20557994

x_lin.2.weight f4 [32, 32, 1, 1]
0	0x3d22ddcf	0.039762314
1	0x3da613ef	0.08109271
2	0xbe9b5214	-0.30336058
3	0x3e2dc04a	0.16967884
4	0xbd36c499	-0.044621084
5	0x3dd09060	0.10183787
6	0x3d13ab8e	0.03605228
7	0x3e596b73	0.21232395
8	0x3cd43f59	0.025909113
9	0xbe8901c9	-0.26759174
10	0xbdc3b63d	-0.095562436
11	0x3e073b12	0.13206127
12	0xbe4e1406	-0.20124826
13	0x3e47ef7c	0.1952495
14	0xbc400259	-0.01171931
15	0xbda3c97a	-0.07997413
16	0x3e5f52fd	0.21809001
17	0x3e5dea6a	0.21671453
18	0xbcc6897c	-0.02423548
19	0xbf0b371c	-0.54380965
20	0x3cc41cd3	0.023939526
21	0x3dc539a3	0.09630134
22	0xbdb29697	-0.08720129
23	0xbe01b331	-0.12666012
24	0x3ca11c82	0.019666914
25	0xbe8fe752	-0.2810617
26	0x3dbd4785	0.09242157
27	0xbc679f92	-0.014137166
28	0x3e732837	0.2374581
29	0x3e13e75e	0.14443728
30	0xbddb42cc	-0.107061
31	0xbce22c98	-0.027609155
32	0x3e0f8efe	0.14019391
33	0x3e9e6c63	0.30942068
34	0xbdf15899	-0.11784477
35	0xbd7af471	-0.061268274
36	0x3cb81951	0.02247301
37	0x3e1cbafb	0.15305702
38	0xbdb32a0b	-0.087482534
39	0xbe134807	-0.14382945
40	0xbe1fc049	-0.15600695
41	0x3df6a7dc	0.120437354
42	0x3d61235e	0.05496537
43	0xbd5b55f5	-0.053548772
44	0x3e84fa2e	0.25972122
45	0xbdccbe23	-0.09997203
46	0x3e1a2be7	0.1505581
47	0xbd9b52e7	-0.07584172
48	0xbdd510c3	-0.10403588
49	0x3e8652a2	0.2623492
50	0xbcc13df3	-0.02358911
51	0xbf05897a	-0.521629
52	0xbdde7827	-0.10862761
53	0xbdd78221	-0.10522867
54	0x3da568f3	0.08076658
55	0xbe4da652	-0.20082977
56	0xbe6a4389	-0.22877325
57	0xbeca68ae	-0.3953299
58	0x3e19484e	0.14968988
59	0xbc5b31fd	-0.013378617
60	0xbe843f84	-0.2582971
61	0x3df5d066	0.120026395
62	0x3eb0a970	0.3450427
63	0x3dd0fc25	0.10204343
64	0xbe0a312d	-0.13495322
65	0xbed1b960	-0.40961742
66	0x3cb63809	0.022243517
67	0xbe9f3f05	-0.31102768
68	0x3babd4fc	0.0052438956
69	0x3e94c1a5	0.2905399
70	0xbd3c8135	-0.04602166
71	0xbd0049dc	-0.031320438
72	0x3d36b0a5	0.044602055
73	0xbe1e68dc	-0.15469688
74	0xbdaec3c9	-0.08533437
75	0xbe0b72d8	-0.13618028
76	0x3e0aa0c0	0.13537884
77	0xbe884fb9	-0.26623324
78	0x3e4a8009	0.19775404
79	0xbe783c93	-0.24241857
80	0x3e15044a	0.14552417
81	0x3cfc03e7	0.03076358
82	0xbe8633d0	-0.26211405
83	0x3e75e22e	0.24012062
84	0xbd9118b9	-0.070847936
85	0xbc14ef55	-0.009090264
86	0xbdaec751	-0.0853411
87	0x3e844337	0.2583253
88	0xbd8002f5	-0.06250564
89	0x3e32766d	0.17427988
90	0x3eb2803b	0.34863457
91	0xbe01f022	-0.1268926
92	0xbdfa1696	-0.12211339
93	0xbcdfeb03	-0.027333742
94	0x3dcff39c	0.10153887
95	0x3da9f1d5	0.08298079
96	0xbdc317d9	-0.09526033
97	0x3d21c3ff	0.039493557
98	0xbcc9f9bb	-0.024655214
99	0x3d88dda4	0.066828996
100	0xbe0b69bd	-0.13614555
101	0x3e98dd5a	0.29856378
102	0xbdc4c085	-0.09607033
103	0xbee48c17	-0.4463813
104	0xbe9e53f4	-0.30923426
105	0x3c6e8c31	0.014559791
106	0xbd557fcd	-0.052123833
107	0x3e16acf9	0.14714421
108	0x3e42c454	0.19020206
109	0x3dde8493	0.1086513
110	0x3e98e703	0.29863748
111	0x3d726d4a	0.059186257
112	0x3d0bba5d	0.034113277
113	0xbbe10a47	-0.0068676802
114	0xbe65b7fc	-0.22433466
115	0x3e2934af	0.16524003
116	0xbe08ea49	-0.13370623
117	0x3e8a6f0b	0.27037844
118	0x3e6e0abb	0.23246281
119	0xbe01b170	-0.12665343
120	0x3decbc48	0.11559349
121	0x3dec56e6	0.11540012
122	0x3e995c5b	0.29953274
123	0xbd443847	-0.047905233
124	0xba8aa4b5	-0.0010577651
125	0xbf0ff049	-0.5622602
126	0xbe32d0a5	-0.17462404
127	0xbf00b47f	-0.50275415
128	0x3d463950	0.0483945
129	0xbee8ea20	-0.45491123
130	0xbda4f1d3	-0.08053937
131	0x3d9896be	0.07450627
132	0xbe9069f4	-0.28205836
133	0x3d33d08b	0.043900054
134	0x3d924bc6	0.07143359
135	0x3e412130	0.18860316
136	0xbe510203	-0.20410924
137	0xbe884966	-0.266185
138	0x3e3b8044	0.18310648
139	0xbd70558e	-0.05867534
140	0xbe184733	-0.1487091
141	0xbc6a5dbc	-0.014304575
142	0x3e2ad193	0.16681509
143	0xbea4e4a4	-0.3220569
144	0xbe571b6b	-0.21006553
145	0xbeba4ea7	-0.36388132
146	0x3f12a9a6	0.5729011
147	0x3e002720	0.12514925
148	0x3e53cdfc	0.20684046
149	0xbe79b9be	-0.24387261
150	0xbda850ec	-0.082185596
151	0x3e63f4e4	0.22261387
152	0xbd4441e7	-0.047914412
153	0xbdec5324	-0.11539295
154	0x3eab9235	0.33509985
155	0xbedfa520	-0.43680668
156	0x3eaac954	0.33356726
157	0xbe508b8f	-0.20365737
158	0x3ede4058	0.43408465
159	0x3d8eefc5	0.06979326
160	0xbdffd938	-0.12492603
161	0xbcf98417	-0.030458493
162	0xbd93a2f1	-0.07208813
163	0xbc6c00fc	-0.014404532
164	0xbe433e28	-0.1906668
165	0xbd441fcb	-0.047881883
166	0xbdaceff7	-0.08444207
167	0xbe890903	-0.26764688
168	0x3e1acb8f	0.15116714
169	0x3e4bcac2	0.19901565
170	0x3e587462	0.21138147
171	0x3d4ba9b4	0.04972239
172	0x3d7b3545	0.0613301
173	0xbe06dcfc	-0.13170236
174	0x3e57c40e	0.21070883
175	0x3dbd16e6	0.09232883
176	0xbd9e3ebb	-0.07726809
177	0xbe4f56c2	-0.20247939
178	0xbf2a4f79	-0.66527516
179	0x3d0698ce	0.03286057
180	0xbdb0ab8d	-0.08626471
181	0xbe97f653	-0.29680118
182	0xbe271562	-0.1631675
183	0xbbe39f55	-0.006946484
184	0x3e7f34a5	0.24922426
185	0xbe9cf8eb	-0.3065866
186	0x3e83527c	0.25648868
187	0x3e5bb153	0.21454363
188	0xbefcd3af	-0.49380252
189	0xbe89f70a	-0.26946288
190	0xbebd2da1	-0.36948875
191	0xbe1346e0	-0.14382505
192	0xbe8936d4	-0.26799643
193	0xbd894cc7	-0.06704097
194	0x3e11a818	0.14224279
195	0x3e28b870	0.16476607
196	0xbe25b6ad	-0.16182967
197	0x3d9e6d9e	0.077357516
198	0xbdc593bb	-0.09647318
199	0x3df8c3aa	0.12146695
200	0xbe8dc138	-0.27686477
201	0x3db06ae4	0.08614138
202	0xbd523040	-0.051315546
203	0x3de3407b	0.11096283
204	0x3e8f02b9	0.27931765
205	0xbe05d807	-0.13070689
206	0xbd934606	-0.0719109
207	0xbe167858	-0.14694345
208	0xbe89e166	-0.26929778
209	0xbec1f3c9	-0.37881306
210	0x3f10cdad	0.56563836
211	0xbd0ffa0f	-0.035150584
212	0xbd811652	-0.063030854
213	0xbde6fa27	-0.112781815
214	0x3d73b478	0.05949828
215	0x3c6552da	0.013996804
216	0xbe783e3e	-0.24242494
217	0x3d90f5cb	0.07078131
218	0xbeaa3dac	-0.33250177
219	0xbebf98bf	-0.37421224
220	0xbf1d15e7	-0.61361545
221	0x3e1e9f6a	0.15490499
222	0xbe10c5e9	-0.14137997
223	0x3e63c22b	0.22242038
224	0xbcfeb257	-0.031090898
225	0xbe34d4f1	-0.17659356
226	0x3d85305b	0.06503364
227	0x3cd9792c	0.026547037
228	0x3dc8ed05	0.09810833
229	0xbdbada58	-0.09123677
230	0x3d477176	0.04869219
231	0x3e8a02db	0.26955304
232	0xbe1c2c64	-0.15251309
233	0xbde15b8b	-0.110037886
234	0xbe17ce0a	-0.14824691
235	0x3dc106fc	0.0942516
236	0xbf2d00a3	-0.67579097
237	0x3e85dd66	0.26145476
238	0xbe59bf28	-0.21264327
239	0xbe3c89c6	-0.18411931
240	0xbc96566a	-0.018351752
241	0xbe4251f2	-0.18976572
242	0x3e36c648	0.17849076
243	0x3dd5dbce	0.10442315
244	0xbd146394	-0.036227778
245	0x3db2e0e2	0.08734299
246	0xbdcf46e4	-0.10120943
247	0x3e67023d	0.22559448
248	0x3e036397	0.1283096
249	0x3e556aee	0.20841572
250	0xbed064be	-0.4070186
251	0xbdf701e8	-0.120609105
252	0x3d5ba0f2	0.053620286
253	0xbc16428c	-0.009171139
254	0x3def94c4	0.11698297
255	0x3de9a7f7	0.1140899

x_lin.2.bias f4 [32]
0	0xbe75840e	-0.23976156
1	0xbde1f599	-0.11033172
2	0x3e1ef999	0.15524901
3	0x3e0ed9e5	0.13950308
4	0xbe35afa2	-0.1774278
5	0xbe3129ba	-0.17301074
6	0xbe340512	-0.17580059
7	0x3e0411d4	0.12897426
8	0x3e131222	0.14362386
9	0x3d54ab04	0.051920906
10	0x3db9f4b2	0.09079875
11	0xbd5a61f1	-0.05331606
12	0x3c80868a	0.015689153
13	0xbe011216	-0.12604555
14	0x3c208d5c	0.009799328
15	0xbe5929ea	-0.21207395
16	0xbdd9a956	-0.106280014
17	0x3d5dcac5	0.054148454
18	0xbe1b465c	-0.15163559
19	0x3da02906	0.078203246
20	0xbdafbf37	-0.08581393
21	0x3e593098	0.21209943
22	0xbe17460c	-0.14772815
23	0xbe028df5	-0.12749465
24	0xbdd0fdbe	-0.102046475
25	0xbd2b03af	-0.04175156
26	0xbe7be515	-0.24599107
27	0xbe490893	-0.19632177
28	0xbce86deb	-0.028372725
29	0xbe446c98	-0.1918205
30	0xbe3bc3a4	-0.1833635
31	0x3d91cf28	0.0711959

edge_lin.0.weight f4 [32, 1, 64, 1]
0	0x3e128a34	0.14310533
1	0x3e0bd498	0.13655317
2	0x3d3ea26c	0.046541616
3	0xbe8c41e3	-0.27394018
4	0xba22a269	-0.00062040106
5	0xbe130d6e	-0.14360592
6	0xbd73e658	-0.059545845
7	0x3e722c23	0.2364965
8	0xbdba13f6	-0.090858385
9	0xbd5c76c2	-0.053824194
10	0xbca90384	-0.02063156
11	0xbe7be46f	-0.24598859
12	0x3e493e52	0.1965268
13	0xbd35b21d	-0.044359315
14	0x3db147d5	0.08656279
15	0x3dcda9e8	0.10042173
16	0x3eae4311	0.34035543
17	0xbdb4564c	-0.08805522
18	0xbc064cf7	-0.008197061
19	0x3ec75683	0.3893319
20	0x3e1c4935	0.15262301
21	0x3da00d71	0.07815064
22	0x3e1d8be9	0.15385403
23	0xbc70fb44	-0.014708344
24	0x3da45f19	0.08025951
25	0x3cf01df3	0.029311156
26	0x3c333bbb	0.010939534
27	0x3d7f0123	0.062256943
28	0x3cb7c21e	0.02243143
29	0xbd90761c	-0.070537776
30	0x3e02cd4c	0.12773627
31	0x3de9bcbf	0.114129536
32	0x3d8554c7	0.065103106
33	0x3e91f4b2	0.28507
34	0xbc0c2be0	-0.0085553825
35	0xbc94eb5d	-0.018178636
36	0xbedce93c	-0.43146694
37	0xbe87e3eb	-0.26541075
38	0xbe8843ec	-0.2661432
39	0x3c92d0d6	0.017921846
40	0xbe9032b2	-0.28163677
41	0x3e94e870	0.29083586
42	0x3e495671	0.19661881
43	0xbe9e4e44	-0.30919087
44	0xbdd820f5	-0.10553161
45	0xbcc33938	-0.023830995
46	0x3ebc81a6	0.36817664
47	0x3dc83b05	0.09776882
48	0x3ea2dbe5	0.3180839
49	0x3d4ed480	0.050495625
50	0xbe56c8f6	-0.20975098
51	0x3ddb3a34	0.10704461
52	0x3e6e2c86	0.23259172
53	0x3d17a4ef	0.037022527
54	0xbd656f69	-0.056014452
55	0x3d79c021	0.060974244
56	0xbdc860fe	-0.09784125
57	0xbe87ebd0	-0.26547098
58	0xbe9ed535	-0.3102204
59	0x3e66559b	0.22493593
60	0x3e26f9e8	0.16306269
61	0xbd32c1b6	-0.04364177
62	0xbe20a68a	-0.1568853
63	0xbe27b4d2	-0.16377571
64	0x3b5bb34b	0.0033523615
65	0xbe282e21	-0.16423847
66	0xbd82c801	-0.06385804
67	0xbda5c8ea	-0.08094962
68	0x3df95d6c	0.12176022
69	0x3da9c79c	0.082900256
70	0x3d80d7f2	0.06291188
71	0x3d707f56	0.058715187
72	0xbcda1014	-0.026618995
73	0x3e79edb7	0.24407087
74	0xbe82af30	-0.25524282
75	0xbefaca88	-0.48982644
76	0x3e2625f2	0.16225412
77	0x3b23c333	0.0024988174
78	0x3e9d4128	0.30713773
79	0x3df2a5fb	0.118480645
80	0xbe9439b2	-0.28950268
81	0x3d82cdf7	0.06386941
82	0xbdf00fb4	-0.11721745
83	0x3df91cab	0.12163671
84	0xbddcd9a4	-0.10783699
85	0xbe1d7e87	-0.15380298
86	0x3b91bc04	0.004447462
87	0x3dc45205	0.095859565
88	0x3ddad581	0.10685254
89	0x3e93cc69	0.2886689
90	0xbdffa6de	-0.12482999
91	0x3e3cf3d0	0.18452382
92	0xbd3c3b65	-0.04595508
93	0x3d881fe7	0.0664671
94	0x3d477579	0.048696015
95	0xbcc9efa6	-0.024650406
96	0x3c0be37e	0.008538125
97	0xbd72c893	-0.059273314
98	0xbe4d0751	-0.20022322
99	0xbde3efd6	-0.111297294
100	0x3b492757	0.0030693614
101	0x3e3e85ee	0.18605778
102	0xbe3dcdbf	-0.18535517
103	0x3db61d64	0.088923246
104	0xbe413030	-0.18866038
105	0x3e5af0eb	0.21380965
106	0xbe511d62	-0.20421365
107	0xbef9d552	-0.48795563
108	0x3e5d1d83	0.21593289
109	0xbdb45590	-0.08805382
110	0x3ea94b90	0.33065462
111	0x3e06a956	0.13150534
112	0xbe73e48f	-0.23817657
113	0x3cde4ee0	0.02713722
114	0xbd497058	-0.049179405
115	0x3dc9257d	0.098216034
116	0x3d25eaa9	0.040506992
117	0x3cc08371	0.023500176
118	0x3dcca3a4	0.099921495
119	0xbd1f356a	-0.0388693
120	0x3d24fa30	0.04027766
121	0x3e423c47	0.18968306
122	0x3e59209a	0.21203843
123	0x3dc73e4c	0.09728679
124	0xbd80d5e3	-0.06290796
125	0x3e08ec54	0.13371402
126	0x3d3b0c66	0.04566612
127	0xbd5f83de	-0.054569118
128	0xbe9d4dfb	-0.30723557
129	0x3ddb6827	0.10713225
130	0x3e3ebc49	0.18626513
131	0xbe28f55e	-0.1649985
132	0xbd0133e3	-0.031543624
133	0xbdaf2888	-0.085526526
134	0x3c9fb293	0.01949433
135	0x3db903c2	0.0903392
136	0x3e163365	0.14668043
137	0xbd903872	-0.07042016
138	0xbdd66737	-0.104689054
139	0xbe27a409	-0.16371168
140	0xb9ff4c15	-0.00048694076
141	0xbe0aa8dc	-0.13540977
142	0xbd616712	-0.055029936
143	0xbdf3c7f9	-0.11903376
144	0x3eaa41dc	0.33253372
145	0x3ab4ffd0	0.0013809148
146	0xbed0da08	-0.40791345
147	0xbe02991d	-0.1275372
148	0x3d3c0ff4	0.04591365
149	0xbc307d51	-0.010772065
150	0x3db71577	0.08939641
151	0x3d0e3361	0.034716967
152	0xbd8ee0e8	-0.06976491
153	0x3e8172fb	0.25283036
154	0xbdb31d44	-0.08745816
155	0xbd410ec1	-0.04713321
156	0xbddc3af8	-0.10753435
157	0x3e221964	0.15829998
158	0xbdddfa44	-0.1083875
159	0x3e8af02f	0.2713637
160	0xbe986dc2	-0.2977124
161	0xbb63dcc4	-0.0034769038
162	0x3e413595	0.18868096
163	0xbdc69782	-0.096968666
164	0xbd6fd431	-0.05855197
165	0x3d56e917	0.052468386
166	0x3dad1b6a	0.084524944
167	0xbdc53de3	-0.096309446
168	0x3dd7a0b4	0.105286986
169	0xbd435d57	-0.047696438
170	0xbe2d4870	-0.16922164
171	0xbe9911d8	-0.29896426
172	0x3d03ad89	0.032147918
173	0xbe42808e	-0.18994352
174	0xbda6b821	-0.081405886
175	0xbe965ee9	-0.29369286
176	0xbbcfdcfd	-0.0063434825
177	0x3e444d60	0.19170141
178	0xbf04e00f	-0.51904386
179	0xbe28e12f	-0.1649215
180	0xbd846521	-0.06464601
181	0x3d1f68a0	0.038918138
182	0xbe01f96f	-0.12692808
183	0x3e190e7d	0.14946933
184	0xbdfeea9a	-0.124470904
185	0xbcb15798	-0.021648213
186	0xbeab7a14	-0.33491576
187	0xbce871eb	-0.028374633
188	0x3db5e097	0.08880728
189	0xbd59fa7f	-0.053217407
190	0xbd9b1a6a	-0.075733975
191	0x3d769ecb	0.06021003
192	0xbd1074a3	-0.035267483
193	0x3bb1c23e	0.005424767
194	0xbe4ec073	-0.20190601
195	0x3d8826c4	0.06648019
196	0xbd36d1b6	-0.04463359
197	0xbce45718	-0.02787356
198	0x3d3a3c3e	0.045467608
199	0xbdca1fb8	-0.09869331
200	0xbe476990	-0.19473863
201	0x3d9ebbb5	0.07750646
202	0xbe99a77f	-0.30010602
203	0xbd963b13	-0.07335486
204	0xbd957db3	-0.07299366
205	0xbc9dbbfa	-0.019254673
206	0x3e18b296	0.14911875
207	0x3d3e1f02	0.04641629
208	0x3e6282d1	0.22120215
209	0xbd582f9c	-0.05277978
210	0xbde27c34	-0.11058846
211	0xbe63700e	-0.22210714
212	0xbe175633	-0.14778976
213	0xbdf3948e	-0.11893569
214	0xbe6a374d	-0.22872658
215	0x3d168b00	0.036753654
216	0x3d97c5f7	0.07410806
217	0xbdcef5d5	-0.101054825
218	0xbe9242a4	-0.28566468
219	0xbda0dd97	-0.07854765
220	0xbc9bd1f6	-0.019021016
221	0xbe2deeca	-0.16985622
222	0xbd729875	-0.059227426
223	0xbe84898f	-0.258862
224	0xbe425dbc	-0.1898107
225	0x3db21b32	0.08696593
226	0xbcdea586	-0.027178537
227	0xbdba8c4e	-0.09108792
228	0xbd7c792d	-0.061639
229	0x3d7acd5a	0.061230995
230	0xbd35c4e3	-0.04437722
231	0xbdc8ac2f	-0.097984664
232	0xbd28069f	-0.04102194
233	0xbde67472	-0.11252679
234	0xbe14ca3e	-0.14530274
235	0xbd7df686	-0.06200268
236	0x3e4e0029	0.20117249
237	0xbd7b2776	-0.06131693
238	0xbe1999c7	-0.15000068
239	0xbe0b78de	-0.13620326
240	0xbc8b7785	-0.017024765
241	0x3bcea4c0	0.006306261
242	0x3d561298	0.052263826
243	0xbded90cb	-0.11599883
244	0xbe3a5c22	-0.18199208
245	0xbe49c058	-0.1970228
246	0xbe9f54c1	-0.3111935
247	0xbe7fb498	-0.24971235
248	0x3dd41b3e	0.103567585
249	0xbe21a968	-0.1578728
250	0xbe268cc7	-0.1626464
251	0x3e08fb6b	0.13377158
252	0x3d7b119b	0.061296087
253	0x3d20a7b0	0.03922242
254	0xbe587187	-0.21137057
255	0xbdcc866c	-0.099865764

edge_lin.0.bias f4 [32]
0	0x3c612189	0.013740906
1	0xbdba4f1d	-0.09097121
2	0x3dcb855d	0.099375464
3	0x3d88c3ac	0.066779464
4	0xbcf6d23b	-0.030129543
5	0xbe41477c	-0.18874925
6	0xbbf502ff	-0.007477164
7	0xbcc422e6	-0.023942422
8	0xbc3268ec	-0.010889273
9	0x3e34bf63	0.17651133
10	0xbc904136	-0.01760922
11	0x36f4093d	7.272842e-06
12	0x3d80e45c	0.06293556
13	0xbe07f940	-0.13278675
14	0x3ce5601f	0.027999936
15	0x3d829352	0.06375755
16	0x3e200297	0.15625988
17	0xbda6db4b	-0.081472956
18	0x3e043d91	0.1291411
19	0xbcf46376	-0.029832583
20	0x3d6ba011	0.057525698
21	0xbe16424c	-0.14673728
22	0xbe1cfe16	-0.15331301
23	0xbe1a2fea	-0.1505734
24	0x3e78567e	0.24251744
25	0xbe58b0bb	-0.21161167
26	0x3d87646e	0.06610952
27	0x3e0ac76c	0.13552636
28	0xbcdd1a8c	-0.026990198
29	0xbd618823	-0.05506147
30	0x3d0b5df2	0.03402514
31	0x3e1082f3	0.14112453

edge_lin.2.weight f4 [32, 32, 1, 1]
0	0x3de1e885	0.11030678
1	0xbdffeb8e	-0.124961
2	0xbe1664d2	-0.14686897
3	0x3dfdf273	0.12399759
4	0x3ecff010	0.4061284
5	0x3e625e2b	0.22106235
6	0x3e1559f5	0.14585097
7	0x3d6f308a	0.0583959
8	0xbe8d0c29	-0.2754834
9	0xbe832ba4	-0.25619233
10	0xbdfa588d	-0.12223921
11	0x3dd06c94	0.1017696
12	0xbde55f1b	-0.111997806
13	0x3bc61010	0.0060443953
14	0xbd93e13e	-0.07220696
15	0x3e030241	0.12793829
16	0x3c8757f3	0.01652143
17	0xbd6a6cc6	-0.05723264
18	0x3e919f6e	0.28441948
19	0x3d0f021a	0.034914114
20	0x3ecb0f13	0.39659938
21	0x3d486b3b	0.048930388
22	0xbe4ef05f	-0.20208882
23	0xbca2ca55	-0.01987187
24	0xbdbdb980	-0.09263897
25	0xbe59552a	-0.21223894
26	0x3e9a0f7d	0.30089942
27	0x3e094141	0.13403799
28	0x3e418fd0	0.18902516
29	0xbc30e4da	-0.01079675
30	0x3dc89d7f	0.09795665
31	0xbbf40675	-0.007447059
32	0x3de03588	0.1094771
33	0x3d2b0a2e	0.041757755
34	0x3e04c7af	0.12966798
35	0x3e1db29f	0.1540017
36	0x3eff7162	0.49891192
37	0xbcc6bbe6	-0.024259519
38	0xbed71016	-0.4200446
39	0xbd9e3210	-0.077243924
40	0x3e190f20	0.14947176
41	0xbecbb6a5	-0.39787784
42	0xbe874e76	-0.26427048
43	0x3eb692d6	0.35658902
44	0x3d2429e0	0.040078998
45	0x3d86833c	0.06568
46	0xbd814b16	-0.0631315
47	0x3e15bac8	0.14622033
48	0x3f0359a4	0.51308656
49	0xbe89a76b	-0.26885542
50	0xbdcb4d24	-0.09926823
51	0xbe3b4939	-0.18289651
52	0x3e85d980	0.26142502
53	0x3d2f7e95	0.042845327
54	0x3e571a63	0.2100616
55	0xbe126de6	-0.14299735
56	0xbe19895e	-0.14993808
57	0xbe8392eb	-0.25698027
58	0x3e5b5679	0.21419705
59	0xbdc3f413	-0.09568038
60	0x3e7c4303	0.24634938
61	0x3e1175de	0.14205119
62	0xbe70f590	-0.23531175
63	0xbed8a8e6	-0.4231636
64	0xbeb14fb1	-0.34631112
65	0xbd94517a	-0.07242103
66	0xbe0f17c1	-0.13973905
67	0x3e639d8a	0.22228065
68	0x3ed94a1f	0.42439362
69	0xbebe14a3	-0.3712512
70	0x3d3da43e	0.04629921
71	0x3e716473	0.23573475
72	0xbe91cee7	-0.28478166
73	0xbe44ba12	-0.19211605
74	0x3d6e91cd	0.058244515
75	0x3e494d94	0.196585
76	0xbe9879c1	-0.2978039
77	0xbe35eef4	-0.17766935
78	0xbe5869b0	-0.21134067
79	0xbd8bb838	-0.06822246
80	0x3e8dd582	0.27701956
81	0xbd7b7fd9	-0.061401222
82	0x3e97ab7c	0.2962302
83	0xbd6ebf08	-0.05828765
84	0x3db6bfbd	0.0892329
85	0xbd997c64	-0.07494429
86	0xbed1c4f7	-0.40970585
87	0x3dfc9760	0.1233356
88	0x3cb37569	0.021906571
89	0xbe4d091e	-0.20023009
90	0xbe2203d7	-0.15821777
91	0xbd0e21ba	-0.034700133
92	0xbc8ad724	-0.01694829
93	0xbe3babab	-0.18327205
94	0x3e8c4c2c	0.27401865
95	0x3eabcd49	0.33555058
96	0x3cc7bc7a	0.024381865
97	0xbd1af680	-0.037832737
98	0xbbf9b2dd	-0.007620199
99	0xbe882afa	-0.2659529
100	0xbe67536f	-0.22590421
101	0xbcc98be7	-0.024602843
102	0xbe6c8b12	-0.23099926
103	0x3d9f3859	0.07774419
104	0x3e0a6a4c	0.13517112
105	0x3e61efd6	0.22064146
106	0x3d5f71e6	0.05455198
107	0x3ea024b0	0.3127799
108	0x3e2e78d8	0.17038286
109	0x3e2db05e	0.1696181
110	0xbdab3bd7	-0.08361023
111	0xbcd5a41a	-0.026079226
112	0x3e88355c	0.2660321
113	0xbecbcb19	-0.3980339
114	0x3d6fc847	0.05854061
115	0xbc8eedf9	-0.017447459
116	0x3e0bde49	0.13659014
117	0x3eacc890	0.33746767
118	0xbe4e3b66	-0.20139846
119	0x3c63039e	0.013855843
120	0x3c003752	0.007825689
121	0xbe448250	-0.19190335
122	0xbe27f58b	-0.16402261
123	0x3b76dc0c	0.003766778
124	0x3dc1fd4f	0.09472143
125	0xbe3599f6	-0.17734513
126	0x3db41758	0.08793515
127	0xbd5f3a1b	-0.054498773
128	0xbc022185	-0.007942562
129	0x3d770a07	0.060312297
130	0xbe98d10a	-0.29846984
131	0xbcdbad4b	-0.026816031
132	0xbe3e5da0	-0.18590403
133	0x3d76de6c	0.06027071
134	0xbe0bd49a	-0.1365532
135	0xbda966e3	-0.08271577
136	0xbd889e8d	-0.06670866
137	0x3d447b7f	0.047969338
138	0x3d88ec34	0.06685677
139	0x3e3a247d	0.18177982
140	0xbe8f7d44	-0.28025258
141	0x3dd94b4e	0.10610066
142	0x3ec7c1fa	0.3901518
143	0xbdb736ad	-0.089459755
144	0x3e5db555	0.21651204
145	0x3e0452b9	0.12922181
146	0x3d966c83	0.07344916
147	0x3e17737e	0.1479015
148	0x3d59fd1e	0.053219907
149	0x3e7dbf22	0.24779943
150	0xbdc13b90	-0.09435189
151	0xbe8bd813	-0.2731329
152	0xbea37de2	-0.31931978
153	0xbd2ee5ed	-0.042699743
154	0xbe366a32	-0.17813948
155	0x3cd19628	0.025584295
156	0xbe20b998	-0.15695798
157	0xbc03b45f	-0.008038609
158	0x3e8b3488	0.27188516
159	0x3ec1bee7	0.3784096
160	0xbe27694f	-0.16348766
161	0xbe867adf	-0.26265618
162	0xbd1aa8a9	-0.037758503
163	0x3df14abf	0.11781835
164	0x3bc9612e	0.006145618
165	0xbd63c6d1	-0.055609528
166	0x3dfb5d47	0.122736506
167	0xbe95379d	-0.29143992
168	0x3e48e017	0.19616733
169	0xbeaed0dc	-0.34143722
170	0xbdcea050	-0.10089171
171	0xbe013b82	-0.12620357
172	0x3c980028	0.018554762
173	0xbe67a370	-0.2262094
174	0xbe588874	-0.21145803
175	0x3d718663	0.05896605
176	0xbe85069e	-0.2598161
177	0xbd9f4b91	-0.07778085
178	0xbe8f2789	-0.2795985
179	0xbdf4c5d7	-0.119517975
180	0xbc22d5ab	-0.009938638
181	0x3dfe333e	0.124121174
182	0xbd9cf260	-0.07663417
183	0xbdbadf99	-0.09124679
184	0xbe955633	-0.29167327
185	0xbd66a9c1	-0.056314234
186	0x3c7d8682	0.015473964
187	0xbd38cad3	-0.045115303
188	0xba859d0e	-0.0010193901
189	0x3d86fff4	0.06591788
190	0xbdf3ab52	-0.11897911
191	0xbe80f838	-0.25189376
192	0xbe8e58b8	-0.27802062
193	0xbf19b4cc	-0.600415
194	0xbd2e9a88	-0.04262784
195	0x3d1e1ea1	0.03860343
196	0xbda8a851	-0.08235229
197	0xbd864358	-0.065558136
198	0xbd2d76da	-0.042349674
199	0xbdfa30cd	-0.12216339
200	0x3e28479a	0.16433564
201	0x3e9d91fa	0.30775434
202	0x3d496cc4	0.049175993
203	0xbeb3fd03	-0.3515397
204	0x3e9fe46a	0.31228954
205	0x3d8deb5d	0.069296576
206	0x3e050fa8	0.12994254
207	0x3db552e1	0.088536985
208	0xbcf49892	-0.029857907
209	0xbc0610a7	-0.008182681
210	0xbe12f862	-0.14352563
211	0x3d83aa4e	0.064289674
212	0xbe29accd	-0.16569825
213	0xbec74411	-0.38919118
214	0x3e922f8e	0.28551906
215	0xbf1ba7d8	-0.60802984
216	0x3e9a2d02	0.30112463
217	0x3e31bc92	0.1735709
218	0x3c522216	0.0128255095
219	0xbe68d3e9	-0.22737087
220	0xbee1a974	-0.44074595
221	0x3d7005de	0.058599345
222	0xbd389d8c	-0.045072123
223	0x3eb0e26e	0.34547752
224	0xbbc130d3	-0.005895713
225	0xbe28e159	-0.16492213
226	0x3d45dbfb	0.048305493
227	0xbe307629	-0.17232575
228	0xbda7aa02	-0.08186723
229	0xbcb15b1d	-0.021649892
230	0xbe9ced73	-0.3064991
231	0x3e8ccec4	0.275015
232	0x3d0f0276	0.034914456
233	0xbe33b8e8	-0.17551005
234	0x3e1f0795	0.15530236
235	0x3ea8d7fc	0.32977283
236	0xbdbba1cf	-0.09161722
237	0xbe066dfe	-0.13127896
238	0x3e0034d0	0.12520146
239	0x3e19bc66	0.15013275
240	0x3f14119e	0.5783938
241	0xbe2cd463	-0.16877894
242	0x3c8d487a	0.017246474
243	0xbeb9e2df	-0.363059
244	0x3e6b22f2	0.2296255
245	0x3e65cd67	0.22441636
246	0xbe842218	-0.2580726
247	0x3da249e7	0.07924252
248	0x3e2cfe18	0.16893804
249	0xbe727f1a	-0.23681298
250	0x3e7aa4f6	0.2447699
251	0xbc8c7a88	-0.017148271
252	0xbd7cc242	-0.061708696
253	0x3c012abb	0.007883723
254	0xbeadb88a	-0.33929855
255	0xbe185606	-0.14876565

edge_lin.2.bias f4 [32]
0	0x3e53f38d	0.20698376
1	0xbd2943c6	-0.0413244
2	0x3e3d55fa	0.18489829
3	0x3e158435	0.14601214
4	0xbd7b1849	-0.061302457
5	0xbdba8efe	-0.09109305
6	0xbd73f3df	-0.059558745
7	0x3e3e045a	0.18556347
8	0xbe49a4ab	-0.19691722
9	0xbe00cb60	-0.12577581
10	0xbdb857f2	-0.09001149
11	0xbd0813f0	-0.03322214
12	0xbe10d91c	-0.1414532
13	0x3e4d1335	0.20026858
14	0x3e94f581	0.29093555
15	0x3c824f7b	0.01590704
16	0x3e24ee27	0.16106473
17	0xbe33a794	-0.17544395
18	0xbe144659	-0.1447996
19	0xbe919667	-0.2843506
20	0xbd3e6698	-0.04648456
21	0xbeb31dba	-0.34983617
22	0xbd21d205	-0.03950693
23	0xbdac84ff	-0.084238045
24	0xbd356e84	-0.04429485
25	0xbde3e2de	-0.11127256
26	0xbde84394	-0.113410145
27	0x3e2dffbc	0.16992086
28	0xbd8e5a83	-0.069508575
29	0xbcf8ee8f	-0.030387191
30	0x3d96fb46	0.07372145
31	0x3e1ee469	0.15516819

vertex_output_lin.0.weight f4 [32, 1, 32, 1]
0	0xbd84ba56	-0.06480853
1	0x3de285f1	0.110607035
2	0x3e0f71bc	0.1400823
3	0x3e1e80e0	0.1547885
4	0xbc86053e	-0.016359922
5	0xbda1623b	-0.07880064
6	0xbe9511d4	-0.29115164
7	0x3e8d9520	0.27652836
8	0xbe90047f	-0.2812843
9	0x3e414355	0.18873341
10	0x3c919ed7	0.017775936
11	0x3d88d21d	0.06680701
12	0xbe7b90bb	-0.24566929
13	0x3d11498a	0.035470523
14	0x3e5e2d15	0.21696885
15	0x3d809814	0.062790066
16	0x3dfe5736	0.12418978
17	0xbe38438e	-0.1799452
18	0x3db4cd36	0.088282034
19	0xbe5a59ed	-0.21323366
20	0x3dcd1ef1	0.10015667
21	0xbeb4ec83	-0.35336694
22	0xbe99e71c	-0.30059135
23	0xbda95174	-0.08267489
24	0xbe15a565	-0.14613874
25	0x3e402c13	0.18766813
26	0x3c533147	0.012890167
27	0xbe2bb3dc	-0.1676783
28	0xbe52f7e0	-0.2060237
29	0xbe3ea93f	-0.1861925
30	0xbe0e6d6a	-0.13908926
31	0xbddf6d3a	-0.10909505
32	0xbdf10d30	-0.117700934
33	0xbcb10166	-0.021607112
34	0x3d6fafa4	0.058517113
35	0xbe7d9ad0	-0.24766088
36	0xbe0d359c	-0.13789982
37	0x3d533b48	0.051570207
38	0xbdbd09b4	-0.09230366
39	0x3d85e0c1	0.06537009
40	0x3e16e0cc	0.1473419
41	0xbd549a35	-0.051904876
42	0x3ca06485	0.019579181
43	0x3d84584a	0.06462152
44	0xbe1c3cf9	-0.15257634
45	0x3e557040	0.20843601
46	0xbdfcd4fe	-0.123453125
47	0x3dcf75dc	0.10129902
48	0xbe8607ea	-0.26177913
49	0xbe2875be	-0.16451165
50	0xbd5a977b	-0.05336712
51	0xbda5c580	-0.08094311
52	0x3d82b1a7	0.06381541
53	0xbd82b4ef	-0.063821666
54	0xbd6d2282	-0.057894237
55	0xbd2db20a	-0.04240612
56	0x3c0ecace	0.008715345
57	0x3e01d31c	0.12678188
58	0xbd803d3a	-0.06261678
59	0xbdbdd05f	-0.09268259
60	0x3d240c0f	0.040050562
61	0x3d5ccf52	0.053908654
62	0xbe0ac7a3	-0.13552718
63	0x3e61c013	0.22045927
64	0x3c9114d8	0.017710134
65	0xbcac3bec	-0.021024667
66	0x3e9c904a	0.30578834
67	0x3d409f79	0.047027085
68	0x3e4541de	0.19263408
69	0xbe862887	-0.26202795
70	0x3e3d6784	0.1849652
71	0xbdc3a22d	-0.09552417
72	0xbe276b28	-0.1634947
73	0xbdf1f87f	-0.11814975
74	0xbdce4284	-0.100712806
75	0x3e33ed67	0.1757103
76	0xbf06bee0	-0.52635
77	0xbe2da5be	-0.16957757
78	0xbce50711	-0.027957471
79	0x3e1907f9	0.14944448
80	0x3d4cdc95	0.05001505
81	0xb9f10fc2	-0.00045978843
82	0x3e7f1943	0.2491198
83	0xbd978940	-0.07399225
84	0xbddd3fb0	-0.10803163
85	0x3c46f5e7	0.012143589
86	0xbdc9d0c1	-0.0985427
87	0xbd7a0ef2	-0.06104941
88	0xbe90738f	-0.28213164
89	0xbe0e46f3	-0.13894252
90	0xbe0d116a	-0.13776174
91	0xbd2b200f	-0.04177862
92	0xbe20891c	-0.15677303
93	0xbe12a25f	-0.14319752
94	0xbf067ca0	-0.5253391
95	0xbc8c08a8	-0.017093971
96	0xbdb91e23	-0.09038951
97	0x3cab2a56	0.02089421
98	0x3ce55bf0	0.02799794
99	0xbd9787be	-0.07398938
100	0x3dfe5a92	0.12419619
101	0xbd4a2789	-0.04935411
102	0x3edbbffb	0.42919907
103	0x3e4f349e	0.20234916
104	0xbebb6ce1	-0.36606506
105	0x3dc6a1a4	0.09698799
106	0x3e098876	0.13430962
107	0xbdef8e3b	-0.1169705
108	0x3e3608ff	0.17776869
109	0xbe08d15e	-0.13361117
110	0xbefd74aa	-0.4950307
111	0x3e003836	0.12521443
112	0x3dc297a4	0.095015794
113	0xbda3de87	-0.08001428
114	0x3da254dd	0.07926343
115	0xbd8c9a11	-0.06865323
116	0x3dbdb6b0	0.092633605
117	0x3e574a21	0.21024372
118	0x3e364734	0.178006
119	0xbe3ab5e0	-0.18233442
120	0x3e028bd8	0.12748659
121	0x3b272855	0.0025506217
122	0x3ebb025d	0.3652524
123	0xbe427d02	-0.18992999
124	0x3e564d43	0.2092791
125	0x3e3fa498	0.18715131
126	0x3cdfbf6f	0.027312962
127	0x3e5e3e8d	0.21703549
128	0xbe31f13b	-0.17377178
129	0x3d39bedb	0.04534803
130	0xbd001c75	-0.03127714
131	0xbd9e7dfc	-0.07738873
132	0xbe0441a5	-0.12915666
133	0xbe330c06	-0.17485055
134	0xbdbcacdc	-0.09212658
135	0xbe45b39a	-0.19306794
136	0xbd81f90d	-0.06346331
137	0x3dee5ed7	0.11639183
138	0xb9ebd919	-0.00044984443
139	0x3bb83144	0.0056211073
140	0xbc41e433	-0.011834192
141	0xbd697e5d	-0.057005275
142	0xbe0318de	-0.12802455
143	0xbdf28b74	-0.11843005
144	0xbe3780c1	-0.1792021
145	0x3d9c465b	0.07630607
146	0x3da1677a	0.07881065
147	0x3df97cb7	0.121819906
148	0xbda4bbc9	-0.0804363
149	0x3d3ee288	0.046602756
150	0xbd84edc4	-0.06490663
151	0x3d9930f3	0.074800394
152	0x3d6453af	0.05574387
153	0xbceb715d	-0.02874058
154	0xbdeac618	-0.11463565
155	0x3ce868e8	0.028370336
156	0xbe0e766c	-0.13912362
157	0xbe2f4ebf	-0.17119883
158	0x3c05c98b	0.008165727
159	0x3d339492	0.04384286
160	0xbd83604a	-0.0641485
161	0xbe6162e0	-0.22010374
162	0xbd3f696d	-0.0467314
163	0x3dbf7acb	0.09349593
164	0x3dbbc904	0.091692
165	0x3c432072	0.011909591
166	0xbdc1f928	-0.09471351
167	0xbde4336a	-0.11142619
168	0x3e54ab46	0.2076846
169	0xbd974f60	-0.073881865
170	0x3ce68f84	0.028144605
171	0x3d37f956	0.04491552
172	0xbe22de27	-0.15905057
173	0xbe0d31ea	-0.13788572
174	0x3c70728f	0.01467575
175	0x3d3fa115	0.04678448
176	0xbd329574	-0.04359956
177	0xbd911bb7	-0.07085364
178	0xbe246da8	-0.16057456
179	0x3e04b29b	0.12958758
180	0x3db5c780	0.08875942
181	0xbe38e698	-0.18056715
182	0xbe07e7a4	-0.13271958
183	0xbdcad85d	-0.09904549
184	0x3d5ca6db	0.053870063
185	0xbe4b9cfd	-0.19884105
186	0x3d89cde2	0.06728722
187	0xbdc3b992	-0.09556879
188	0xbd2c37f3	-0.042045545
189	0xbd5dda7b	-0.054163437
190	0x3d84591f	0.06462311
191	0xbd1d4127	-0.038392212
192	0xbda689cf	-0.08131754
193	0xbe21874f	-0.15774272
194	0xbe5fdbf1	-0.21861245
195	0xbd8dfe13	-0.069332264
196	0xbc8074b4	-0.015680648
197	0xbd3a69d1	-0.04551107
198	0x3eb7e2ac	0.35915124
199	0xbe8947ca	-0.26812583
200	0xbdcae70d	-0.09907351
201	0xbdb41729	-0.0879348
202	0xbca21b11	-0.019788297
203	0x3de5d58a	0.1122237
204	0x3deeef6e	0.11666761
205	0x3e6001b9	0.21875657
206	0x3e6c6cc3	0.23088364
207	0xbda4f9b9	-0.08055443
208	0xbe636084	-0.22204787
209	0xbd2338a2	-0.03984893
210	0xbf21acfb	-0.6315457
211	0xbdd483b1	-0.10376681
212	0x3e0cc0d7	0.13745438
213	0x3eb119ab	0.34589896
214	0x3ef9e3d0	0.4880662
215	0xbf03554a	-0.51302016
216	0xbc9ee63a	-0.01939689
217	0xbdd67993	-0.10472407
218	0x3e747274	0.23871785
219	0x3e3e811f	0.18603943
220	0xbcd8a2e8	-0.026444867
221	0x3e754e5b	0.23955671
222	0x3e9503e8	0.29104543
223	0x3ecb6684	0.3972665
224	0x3e173e89	0.14769949
225	0xbeea22ca	-0.45729667
226	0xbe3ee9b8	-0.18643844
227	0x3d7ddd07	0.061978366
228	0xbe56ab32	-0.20963743
229	0x3dbf1e42	0.09331943
230	0x3da1e564	0.07905081
231	0xbf14cb4b	-0.581227
232	0x3e605d76	0.21910653
233	0xbde2e073	-0.110779665
234	0xbeaf2aa0	-0.34212208
235	0x3e14a796	0.14517054
236	0xbd86b9b3	-0.06578388
237	0x3e4ad137	0.19806372
238	0x3e7a5048	0.24444687
239	0xbf1b9cde	-0.60786235
240	0xbed870c0	-0.4227352
241	0xbdae0d4c	-0.0849863
242	0xbfad3764	-1.3532529
243	0x3da8de2a	0.082454994
244	0x3d5643fd	0.052310932
245	0x3deb80cc	0.114991754
246	0x3e204c97	0.15654217
247	0x3c24a362	0.010048719
248	0x3e6f95f0	0.2339704
249	0xbe914ea7	-0.2838032
250	0x3ea6645d	0.32498446
251	0xbd5b045e	-0.05347096
252	0x3d2aa49c	0.04166089
253	0x3c93ede3	0.01805777
254	0x3e4d48e5	0.20047338
255	0x3e2191fd	0.15778346

vertex_output_lin.0.bias f4 [32]
0	0x3d8939d8	0.06700486
1	0xbe7b09f5	-0.24515517
2	0x3e146ac5	0.14493854
3	0xbde6dbc6	-0.11272387
4	0xbd5ec4d0	-0.054386914
5	0xbe42d293	-0.1902564
6	0x3e5c30a1	0.21502925
7	0x3df49582	0.11942579
8	0xbd797f10	-0.060912192
9	0xbcaa9cdd	-0.020826751
10	0x3e795cf6	0.24351868
11	0xbe85e454	-0.26150763
12	0xbe034b2e	-0.12821648
13	0x3ddd3107	0.10800367
14	0xbdf6af3e	-0.120451435
15	0x3e575984	0.21030241
16	0x3de5cac5	0.11220316
17	0x3dfd9fb8	0.123839796
18	0xbcb86ad3	-0.022511875
19	0x3de215d2	0.11039318
20	0xbd65416f	-0.055970605
21	0x3e1fed19	0.1561779
22	0x3e37fe62	0.17968133
23	0x3d81d7ea	0.063400105
24	0xbc9ea026	-0.019363474
25	0x3e01b840	0.12667942
26	0x3d89d0ce	0.067292795
27	0x3d8a0e2d	0.06740985
28	0xbc0df3b4	-0.00866406
29	0xbe31a332	-0.1734741
30	0x3e0a1be4	0.13487202
31	0xbe2ca662	-0.16860345

vertex_output_lin.2.weight f4 [1, 32, 1, 1]
0	0xbe0684bf	-0.13136576
1	0x3db6ccea	0.08925803
2	0xbdda036f	-0.10645186
3	0x3dcfa36e	0.101385936
4	0xbd659a84	-0.05605556
5	0x3c69acb1	0.014262364
6	0x3e9e8daa	0.30967456
7	0x3ed71ba4	0.42013276
8	0xbe816070	-0.25268888
9	0xbdc5f30b	-0.096654974
10	0x3e88c848	0.26715302
11	0xbe0be1f3	-0.13660412
12	0xbca3c6d6	-0.019992273
13	0xbe104684	-0.140894
14	0x3ad5876e	0.0016290972
15	0x3ec40597	0.38285515
16	0xbe1f76dd	-0.15572686
17	0x3e78778e	0.24264356
18	0xbd5f8c5d	-0.05457722
19	0xbdf63f08	-0.12023741
20	0x3e1af722	0.15133336
21	0x3ee0de56	0.4391963
22	0xbe67329b	-0.22577898
23	0xbd6372b5	-0.055529315
24	0xbe6a7c19	-0.22898902
25	0x3ee20961	0.4414778
26	0xbad94a34	-0.00165779
27	0x3ec8df77	0.3923299
28	0xbb221571	-0.0024732018
29	0x3cf04430	0.02932939
30	0x3eca0272	0.3945499
31	0x3eaea496	0.34109944

graph_output_lin.0.weight f4 [1, 618]
0	0xbdb9c738	-0.09071201
1	0xbdce7c11	-0.100822575
2	0xbd94e7d5	-0.07270781
3	0xbe72775a	-0.23678342
4	0xbd6cd79e	-0.057822816
5	0x3c6e64ed	0.01455043
6	0x3e10dae1	0.14145996
7	0xbd2679b8	-0.040643424
8	0xbe3031b0	-0.17206454
9	0xbe1cef9e	-0.15325782
10	0x3e8f6f34	0.2801453
11	0x3df8eb6d	0.12154279
12	0xbd96dd38	-0.07366413
13	0x3d9bd86e	0.0760964
14	0x3b30051d	0.0026858517
15	0xbdf7413d	-0.1207299
16	0x3d9693fd	0.07352445
17	0xbd8c89a3	-0.068621896
18	0x3d5b6531	0.0535633
19	0x3d7abd8c	0.061215922
20	0xbdc01a1f	-0.09379982
21	0xbc1789c5	-0.009249155
22	0xbbb8bcaa	-0.005637725
23	0xbd06d537	-0.03291818
24	0x3cf8116d	0.030281747
25	0xbdaea9d5	-0.08528487
26	0xbdd9c047	-0.10632377
27	0xbc435f6c	-0.011924606
28	0xbd408997	-0.047006216
29	0xbd09aab4	-0.03361006
30	0x3cb77f8a	0.022399683
31	0x3c6eab6e	0.014567239
32	0xbd8abfbe	-0.06774853
33	0xbe0a7d57	-0.13524376
34	0x3eb32415	0.34988466
35	0x3d15aa1e	0.03653919
36	0xbdb56389	-0.088568754
37	0x3de450fa	0.111482576
38	0x3e253e0e	0.16136953
39	0xbc5401f1	-0.012939916
40	0xbbc0653b	-0.0058714426
41	0xbca290e2	-0.019844476
42	0xbdec75bd	-0.11545894
43	0x3e0756e0	0.13216734
44	0xbd4dff31	-0.050292198
45	0x3e2f12c1	0.17096998
46	0x3e0c4e05	0.13701637
47	0x3e2b1801	0.16708376
48	0xbe867dcf	-0.2626786
49	0x3c137cf1	0.009001956
50	0xbd6e08e9	-0.058113966
51	0xbb8e88ae	-0.0043497896
52	0xbd56d512	-0.052449293
53	0xbcb5bbd4	-0.02218429
54	0xbdf3078a	-0.11866672
55	0x3da10f4d	0.078642465
56	0xbe7dc10d	-0.24780674
57	0x3cfa69b2	0.030567978
58	0x3d9ece47	0.07754188
59	0xbdb605c2	-0.08887817
60	0xbd45c787	-0.048285987
61	0xbdd5ddff	-0.10442733
62	0xbe1a8536	-0.15089878
63	0xbe852b23	-0.26009473
64	0xbe925d9f	-0.28587052
65	0x3d456a52	0.048197098
66	0x3e46948f	0.19392608
67	0x3d64c1cb	0.055848878
68	0x3e69f7dd	0.22848459
69	0xbe496d21	-0.19670536
70	0x3e291e59	0.16515483
71	0xbd8339cb	-0.064075075
72	0x3db767f0	0.089553714
73	0x3dbe32f3	0.092870615
74	0xbe4d7d8b	-0.20067422
75	0xbde0d91c	-0.1097891
76	0xbd8f1eb1	-0.06988276
77	0x3cdd7ed9	0.027038025
78	0x3d5f70e6	0.054551028
79	0x3ea4549b	0.320958
80	0xbeb9a211	-0.3625646
81	0x3e95ef9c	0.2928437
82	0x3eccb5ea	0.3998254
83	0x3e4149e9	0.1887585
84	0x3deb9917	0.11503809
85	0x3d8f55ff	0.06998824
86	0xbcc4072b	-0.0239292
87	0xbcf1e8ab	-0.02952989
88	0x3d193d01	0.037411693
89	0xbd956c20	-0.07296014
90	0x3d53c86b	0.051704805
91	0xbb8e0ff3	-0.0043353974
92	0x3d1b1125	0.037858147
93	0xbe1d7340	-0.15375996
94	0xbccecceb	-0.025244197
95	0xbdcf6081	-0.101258285
96	0x3d2f209f	0.04275572
97	0xbcb65a2e	-0.022259798
98	0xbe500e82	-0.20318034
99	0xbd13ec16	-0.03611382
100	0xbd84994a	-0.0647455
101	0x3cc33898	0.023830697
102	0xbcf59547	-0.029978408
103	0xbd6a2e84	-0.057173267
104	0x3e8ced3f	0.27524754
105	0x3be3fd06	0.006957653
106	0x3c208408	0.009797104
107	0xbe580957	-0.21097313
108	0xbe94e88a	-0.29083663
109	0xbca91735	-0.020640949
110	0x3e025e27	0.12731229
111	0xbdc5006c	-0.09619221
112	0xbd936628	-0.07197219
113	0xbe086c56	-0.13322577
114	0x3effee68	0.49986577
115	0x3d841ae9	0.06450445
116	0xbd9e10bb	-0.07718035
117	0xbe1dff70	-0.15429473
118	0x3c92fa39	0.017941581
119	0xbdb6737a	-0.08908744
120	0x3e3464ec	0.17616624
121	0x3e041dc2	0.12901977
122	0x3d54d8d0	0.05196458
123	0xbe8b45b0	-0.27201605
124	0xbcd1d354	-0.025613464
125	0xbe1def63	-0.1542335
126	0xbce607ad	-0.028079832
127	0xbd98e654	-0.074658066
128	0xbd932a2f	-0.0718578
129	0xbe19d0d5	-0.1502107
130	0xbd20bb1d	-0.039240945
131	0xbda02376	-0.07819264
132	0xbb77615c	-0.003774724
133	0x3e05df1e	0.13073394
134	0x3ea01890	0.3126874
135	0xbeaf0013	-0.34179744
136	0xbeabf803	-0.33587655
137	0xbe1869ac	-0.1488406
138	0xbe31523e	-0.17316529
139	0xbd7549aa	-0.059884705
140	0x3b912053	0.004428902
141	0xbc9fc24e	-0.019501831
142	0x3c808cf2	0.015692208
143	0x3db8305b	0.08993598
144	0x3e2407e3	0.16018634
145	0x3d9828e9	0.07429678
146	0x3e529a89	0.20566763
147	0x3e921719	0.28533247
148	0xbd91d3ba	-0.07120462
149	0xbd24904e	-0.040176682
150	0xbd8ea59f	-0.069651835
151	0x3e0a941c	0.13533062
152	0xbd0937ac	-0.03350036
153	0x3ab4a83d	0.0013783049
154	0xbd53ffd5	-0.051757652
155	0x3e48b365	0.19599684
156	0x3bad002a	0.0052795606
157	0xbdfc8c00	-0.123313904
158	0xbd8c7140	-0.06857538
159	0xbce89f7f	-0.028396366
160	0x3ded9bd2	0.11601986
161	0x3e9efce0	0.31052303
162	0x3d974b47	0.07387405
163	0x3ec79c56	0.38986462
164	0x3e593aaf	0.21213792
165	0x3e3b07f2	0.1826475
166	0x3de399f6	0.1111335
167	0x3d9b1d98	0.07574004
168	0xbc88f453	-0.016718065
169	0x3de29268	0.11063081
170	0x3da62b7d	0.081137635
171	0xbcddca8d	-0.027074123
172	0xbdc2d20d	-0.0951272
173	0x3d068061	0.032837275
174	0xb9168f0d	-0.00014358405
175	0xbc78fbad	-0.015196723
176	0xbd8ea6f0	-0.069654346
177	0x3ee49312	0.44643456
178	0xbe20444e	-0.15651056
179	0x3dc62c7b	0.09676453
180	0xbdb8cbad	-0.09023223
181	0x3d72631a	0.059176542
182	0xbd938b5f	-0.07204317
183	0x3cf61ebb	0.03004395
184	0xbd82d387	-0.06388002
185	0x3bdb73c9	0.0066971523
186	0xbefd14a8	-0.49429822
187	0x3d9c16eb	0.07621559
188	0x3e0d8c5f	0.13823079
189	0x3e8b78e2	0.27240664
190	0xbe333057	-0.17498909
191	0x3e827f2d	0.25487652
192	0x3c822498	0.01588659
193	0xbd0387e3	-0.032112014
194	0xbde520b2	-0.11187877
195	0xbe5ab699	-0.21358718
196	0xbd9f214d	-0.077700235
197	0x3df3593b	0.11882254
198	0xbe04b6a9	-0.12960304
199	0xbd9c95e8	-0.0764578
200	0xbce5723d	-0.028008575
201	0x3d65565d	0.055990566
202	0x3dc35cb3	0.09539165
203	0xbe4f61e4	-0.20252186
204	0x3e63cbff	0.22245787
205	0x3e8d6c7a	0.27621824
206	0x3dc0744c	0.09397182
207	0x3d2adce4	0.041714564
208	0xbd002e14	-0.031293944
209	0x3d6debd4	0.05808623
210	0x3e0eaee6	0.13933906
211	0x3e64947d	0.22322269
212	0xbe5cb5b2	-0.21553686
213	0x3d6dddc1	0.05807281
214	0x3c08fd27	0.0083611375
215	0xbbe7fe84	-0.007079901
216	0xbda0db1f	-0.07854294
217	0x3d9d98a0	0.076951265
218	0xbd6c41f4	-0.057680085
219	0xbd1e5607	-0.03865626
220	0x3de2f61c	0.11082098
221	0x3d7d7153	0.061875653
222	0xbde53d37	-0.111933164
223	0xbd93b0aa	-0.0721143
224	0xbdcca313	-0.099920414
225	0x3d5a2523	0.053258073
226	0x3c1e9efd	0.00968146
227	0x3bdae3be	0.006679981
228	0xbdb9c4f4	-0.09070769
229	0xbbe57414	-0.007002363
230	0xbcd7a271	-0.026322575
231	0x3db291c5	0.087192096
232	0xbe0933ed	-0.13398714
233	0xbdea57c6	-0.11442523
234	0x3d718297	0.05896243
235	0xbe07ceb6	-0.13262448
236	0xbd87c0c2	-0.066285625
237	0xbe18ee2c	-0.14934605
238	0x3d82bb2a	0.06383355
239	0xbdfd4fd7	-0.12368744
240	0x3d57adac	0.05265586
241	0x3d1db164	0.03849925
242	0x3e43aa65	0.19107969
243	0xbe17abf9	-0.14811696
244	0xbce5b066	-0.028038215
245	0xbd8934c6	-0.06699519
246	0xbe98d74b	-0.29851755
247	0x3e6daaa4	0.23209625
248	0xbe4df493	-0.20112829
249	0xbe02b381	-0.12763788
250	0x3d5b490a	0.053536452
251	0x3e1f28b4	0.15542871
252	0xbdbafac6	-0.091298625
253	0xbd1a2714	-0.037634924
254	0x3e408c0d	0.18803425
255	0xbd625876	-0.055260144
