reachability_classification/weights/SimpleMultiplePassGNNReachabilityNet_epoch_16.pt (torch_old, 36685 bytes, 16 tensors)

x_lin.0.weight f4 [32, 1, 1, 11]
0.12538551 -0.0770805 -0.035178065 -0.8201857 -0.20515299 -0.06473565 -0.030446885 0.12558898
0.046273682 0.020671384 -0.14266948 0.13691808 -0.048244346 0.002446284 0.041718144 -0.20961136
-0.35269937 -0.051502086 -0.10874229 0.12911674 -0.271018 0.1496343 -0.22620037 0.035398018
0.049383562 -0.17093676 0.21125114 0.07189001 0.13210696 -0.3249413 0.06910543 0.65097934
0.016756253 0.1274971 -0.16798739 -0.2754076 0.3139114 -0.13859296 -0.04604047 -0.44929603
-0.11503767 -0.17727832 -0.5890645 -0.28576976 -0.032472946 0.1600238 0.09030245 -0.030819565
-0.3762751 0.069720685 -0.1210593 0.3267481 0.24572733 -0.13200253 -0.22476022 0.07351557
-0.108357005 -0.023262633 0.40216744 0.03951763 0.19474581 0.29164746 0.024435308 -0.1671718
-0.38730526 -0.14681548 -0.2004891 0.1462309 -0.06947038 0.29464778 -0.18222493 0.105912015
0.11016719 0.15588275 -0.768843 0.08170973 0.011565641 -0.3524142 -0.102538384 -0.32111147
-0.10209922 -0.26560524 0.045470785 0.26691526 0.29443362 0.2066802 0.017280646 0.23131697
0.4648268 -0.19230087 -0.3295257 -0.20438316 0.23690005 -0.20739476 -0.055994693 0.089523554
0.1846168 0.019536981 0.1751665 0.35499826 0.05075938 0.32247937 0.17335007 -0.08143898
0.24000446 0.0074039698 0.51906836 0.003951995 0.014589899 -0.17229548 -0.17132127 0.07456902
0.13311686 0.3010803 -0.19618887 0.20349336 -0.08934839 -0.08772768 -0.12835567 0.18454668
-0.19097248 -0.16035242 0.094747655 -0.05498514 0.06398717 -0.32310888 0.10629638 -0.24843322
0.3086012 0.14492989 -0.26839477 0.082977034 -0.4283035 -0.077687904 -0.063413 -0.08593201
-0.25495672 -0.10036458 0.29919517 0.36645868 -0.06804153 -0.1262925 0.36974758 0.16976893
0.03368636 -0.09738391 0.029248307 -0.255173 -0.04253495 -0.3441484 -0.07258737 -0.11267884
0.65272105 -0.55241483 -0.27070326 -0.15397711 -0.25825027 0.095755175 0.2575069 -0.25092635
0.26129752 -0.3698216 -0.12771808 0.2174102 -0.37363172 0.0031720996 -0.06274811 0.1823127
-0.08452902 -0.321867 -0.13671246 0.24338806 0.044689428 -0.10456094 0.7179172 -0.55625033
0.40883163 0.15177625 0.19741601 -0.29784685 0.3512357 -0.099024415 0.16771486 -0.13245788
0.028578116 -0.47948298 0.5538641 -0.041363377 0.059112422 0.0023037903 -0.49539384 -0.16660053
-0.11839132 0.20133705 -0.2535323 -0.069127195 0.07864245 -0.158231 0.13777322 -0.29612523
0.022588426 -0.38285142 -0.04365899 -0.021194952 -0.03755644 -0.021636762 -0.14955302 -0.72981733
0.56666094 0.17720704 -0.031635292 -0.052882228 0.41053197 0.15090567 -0.16915804 -0.06293013
-0.15396233 -0.41248128 -0.41362092 0.3540235 0.017733088 -0.22584826 -0.040830143 0.44226596
0.55793494 -0.1730929 0.14077212 0.11088875 0.09029302 0.43379354 -0.3443465 0.12607826
0.14247093 -0.13202202 -0.12966529 0.19286053 -0.3114352 -0.1655076 -0.14255708 0.15306701
-0.44515258 0.48390383 0.091788255 -0.05334293 0.22717872 0.032767903 -0.28525046 -0.030334158
-0.061259754 0.15340142 -0.02599157 0.44077685 -0.47211707 -0.002484974 -0.057864506 0.027092714
00000000: 0f65 003e 62dc 9dbd e016 10bd b1f7 51bf
00000010: a013 52be 2094 84bd bf6b f9bc 669a 003e
00000020: 7989 3d3d 0957 a93c f317 12be 4134 0c3e
00000030: dd9b 45bd d651 203b a5e0 2a3d 5ca4 56be
00000040: 0395 b4be daf3 52bd 47b4 debd 2e37 043e
00000050: dfc2 8abe bc39 193e 12a1 67be 83fd 103d
00000060: 6b46 4a3d 0c0a 2fbe 3852 583e 123b 933d
00000070: 0c47 073e b55e a6be 2687 8d3d 95a6 263f
00000080: 6944 893c 9a8e 023e e304 2cbe 3a02 8dbe
00000090: ffb8 a03e 50eb 0dbe ef94 3cbd 210a e6be
000000a0: df98 ebbd 7388 35be eecc 16bf 6a50 92be
000000b0: 5a02 05bd 47dd 233e 7ef0 b83d 5079 fcbc
000000c0: 21a7 c0be b8c9 8e3d f0ed f7bd 874b a73e
000000d0: f29f 7b3e ac2b 07be 8b27 66be 558f 963d
000000e0: 47ea ddbd 4791 bebc e4e8 cd3e 3ddd 213d
000000f0: 726b 473e d152 953e 8e2c c83c 162f 2bbe
00000100: e04c c6be cc56 16be 044d 4dbe 8ebd 153e
00000110: 7d46 8ebd 13dc 963e 2c99 3abe 66e8 d83d
00000120: 569f e13d ba9f 1f3e e5d2 44bf 6e57 a73d
00000130: d07d 3d3c a26f b4be a5ff d1bd b968 a4be
00000140: 6519 d1bd 69fd 87be 933f 3a3d 1ea9 883e
00000150: 01c0 963e f9a3 533e 2490 8d3c 5bde 6c3e
00000160: c7fd ed3e 85ea 44be 98b7 a8be d249 51be
00000170: ed95 723e 4b5f 54be b15a 65bd 2058 b73d
00000180: 300c 3d3e 050c a03c d95e 333e 55c2 b53e
00000190: 11e9 4f3d 041c a53e ae82 313e 7bc9 a6bd
000001a0: bbc3 753e 009d f23b aae1 043f bd7f 813b
000001b0: 790a 6f3c 3a6e 30be d86e 2fbe a4b7 983d
000001c0: c94f 083e 3227 9a3e bce5 48be 9060 503e
000001d0: 4afc b6bd 92aa b3bd ab6f 03be cef9 3c3e
000001e0: 4a8e 43be 6d33 24be 0f0b c23d 1938 61bd
000001f0: b50b 833d 876e a5be ebb1 d93d 4765 7ebe
00000200: fa00 9e3e 8068 143e 0a6b 89be ddef a93d
00000210: 994a dbbe d61a 9fbd adde 81bd 1ffd afbd
00000220: b089 82be f28b cdbd 1c30 993e 79a0 bb3e
00000230: 5c59 8bbd d252 01be 8e4f bd3e e8d7 2d3e
00000240: b5fa 093d 3771 c7bd 259a ef3c 09a6 82be
00000250: 2139 2ebd 3834 b0be b0a8 94bd 2ac4 e6bd
00000260: ba18 273f 0f6b 0dbf 9e99 8abe 2dac 1dbe
00000270: 6139 84be 4a1b c43d f2d7 833e 6b79 80be
00000280: cac8 853e 4259 bdbe 87c8 02be c8a0 5e3e
00000290: a84c bfbe 00e3 4f3b 1582 80bd 2eb0 3a3e
000002a0: 8d1d adbd c0cb a4be 5afe 0bbe b83a 793e
000002b0: 430c 373d 0c24 d6bd 6cc9 373f 6c66 0ebf
000002c0: 6152 d13e 3c6b 1b3e 6c27 4a3e 627f 98be
000002d0: 2ad5 b33e 50cd cabd 72bd 2b3e 0aa3 07be
000002e0: a71c ea3c cb7e f5be 0aca 0d3f a56c 29bd
000002f0: de1f 723d 30fb 163b 43a4 fdbe 5499 2abe
00000300: 2677 f2bd 4d2b 4e3e fcce 81be 8f92 8dbd
00000310: 4b0f a13d 4f07 22be 6c14 0d3e ba9d 97be
00000320: 5d0b b93c 1a05 c4be c5d3 32bd 09a1 adbc
00000330: c8d4 19bd 943f b1bc 6d24 19be 4fd5 3abf
00000340: b110 113f c375 353e 0294 01bd 099b 58bd
00000350: 3f31 d23e 0487 1a3e c437 2dbe 83e1 80bd
00000360: 4da8 1dbe bf30 d3be 1fc6 d3be 9142 b53e
00000370: fb44 913c c444 67be 823d 27bd af70 e23e
00000380: d3d4 0e3f 443f 31be 9126 103e a419 e33d
00000390: 8ceb b83d 301a de3e 2f4e b0be a91a 013e
000003a0: e6e3 113e c830 07be fac6 04be 3b7d 453e
000003b0: 6f74 9fbe d37a 29be 7cfa 11be 99bd 1c3e
000003c0: 0aeb e3be 3ec2 f73e 7bfb bb3d 1e7e 5abd
000003d0: 8aa1 683e a337 063d 590c 92be 577f f8bc
000003e0: 82eb 7abd 4315 1d3e 46ec d4bc 81ad e13e
000003f0: 54b9 f1be f2da 22bb 5503 6dbd 8af1 dd3c

x_lin.0.bias f4 [32]
-0.33620375 -0.37048745 -0.12123957 0.08135682 -0.19493423 -0.1511323 0.15379387 -0.07296447
0.3293301 0.055194605 -0.22445188 0.101515956 0.39572677 -0.21594778 -0.05839852 -0.029959394
0.35302255 -0.11844575 0.38274202 -0.14869314 -0.20144138 0.23949014 0.04202211 0.022327565
-0.16802916 0.116927005 -0.23375556 0.19108723 0.2552087 -0.067233026 0.066480584 0.39533648
00000000: e622 acbe 88b0 bdbe 744c f8bd 689e a63d
00000010: d79c 47be 6dc2 1abe 247c 1d3e 656e 95bd
00000020: f49d a83e bd13 623d b7d6 65be 99e7 cf3d
00000030: b39c ca3e 6a21 5dbe 4933 6fbd 676d f5bc
00000040: 5fbf b43e af93 f2bd c3f6 c33e 0443 18be
00000050: a646 4ebe e73c 753e 601f 2c3d 4ce8 b63c
00000060: d60f 2cbe 6d77 ef3d 9e5d 6fbe 5fac 433e
00000070: b7aa 823e 78b1 89bd f926 883d 8b69 ca3e

x_lin.2.weight f4 [32, 32, 1, 1]
0.1105268 0.09063202 0.02379943 0.08519251 -0.048036564 -0.09724122 -0.030748429 -0.2123602
-0.07770768 0.5226748 0.09318099 -0.11939297 -0.20933786 0.29112613 0.012788284 0.29498297
0.022148792 -0.07401008 -0.14971626 -0.17734706 0.21018848 0.05385868 0.06885458 -0.4162119
0.18343593 0.018545832 0.07746479 0.08848803 0.27101478 0.10191697 -0.28561082 -0.27416918
0.22758445 -0.16025786 0.20660886 0.03834926 0.013883808 -0.2638577 -0.23013346 0.05215993
-0.13667834 -0.084005654 -0.033241738 0.17575262 -0.13220446 0.4066062 0.14159667 0.15802951
-0.53780025 0.09757431 -0.42593214 -0.22193334 -0.35582417 0.02902842 0.13144149 -0.052777205
-0.10280124 0.086193725 0.25645724 -0.029194001 0.42529228 0.114102155 -0.10782069 0.341084
0.18584584 -0.03362767 0.024960263 -0.13314076 0.12018304 0.14311698 -0.018825658 0.16021603
-0.09140337 0.07054591 -0.06193944 0.09100705 -0.23828566 -0.044112794 0.15188675 0.2205051
-0.15010035 0.007016677 0.077994674 -0.014120696 0.4079792 -0.0135017885 0.20626168 -0.18311669
-0.066732876 -0.18308492 0.19484854 0.291029 -0.39892593 0.2877726 -0.10740568 -0.2063519
0.077694245 0.072160736 -0.048908953 0.06969286 -0.1955776 -0.1536339 -0.23193152 -0.35481563
0.009413891 -0.26131514 -0.2496658 -0.29402086 -0.099220045 -0.070650466 0.11947062 0.1653234
0.19788238 -0.3463506 -0.28229493 0.33837932 0.37500703 0.06901188 0.124634676 -0.08250116
0.31027502 -0.029895239 -0.42243847 -0.12719731 0.016953988 -0.21789943 -0.33323178 -0.05144321
-0.059754964 -0.066494904 -0.034508888 0.06726559 0.01209752 0.0034723575 0.028039724 -0.13063383
-0.036493145 -0.08118612 0.16268331 -0.017865568 -0.17022853 -0.052069698 -0.018353181 0.2608015
-0.18592304 0.0394298 -0.30136368 -0.03254363 -0.20417932 -0.09935229 0.2609252 0.1849811
0.1422157 0.118966915 0.15514927 0.15925385 -0.4853846 0.21906622 -0.18702517 0.17531103
0.12922855 -0.054661814 0.25807232 0.05360988 -0.11920796 -0.12518285 0.022552408 0.16958553
0.08976445 0.03962816 -0.096259505 0.14287564 0.34660298 -0.19143128 0.08867684 -0.044785585
0.16175039 0.25456858 0.1524839 -0.11011882 -0.5473974 -0.018751225 -0.28249326 0.2462211
0.10863847 -0.19479778 0.21089779 0.0051724347 -0.32874733 0.043671027 0.062848724 0.21872559
0.14612636 -0.015568838 -0.18116571 -0.22052442 -0.01845912 0.15178299 -0.20904066 0.06901733
-0.3559932 -0.25657734 0.16057146 0.019105462 -0.17249034 0.13120969 -0.32906613 0.19536373
-0.18538736 0.29680192 -0.102988556 -0.30728453 -0.011354279 -0.04365573 0.18206152 -0.11529034
-0.023347981 -0.054865498 0.2603851 -0.039702285 0.26811832 0.14777817 -0.16937636 0.24266018
-0.30282778 -0.3042847 -0.2090388 -0.21049207 -0.023879012 0.025517436 -0.17535245 -0.19438756
0.12872913 0.13881265 0.05031207 0.096321985 -0.003348008 -0.12596314 -0.10562707 0.06009514
0.3464141 -0.17614298 -0.23761018 -0.24755043 0.04595522 0.033443637 0.13424821 -0.036706135
0.08572062 -0.14906946 -0.13095428 -0.2789448 0.00288138 0.124077864 -0.34764344 -0.14092903
00000000: e05b e23d 489d b93d 06f7 c23c 6979 ae3d
00000010: fdc1 44bd 6826 c7bd 21e4 fbbc f474 59be
00000020: 3425 9fbd 04ce 053f add5 be3d 4d84 f4bd
00000030: aa5c 56be 7c0e 953e f385 513c 0208 973e
00000040: 6271 b53c 9992 97bd 384f 19be 789a 35be
00000050: a63b 573e eb9a 5c3d a103 8d3d ba19 d5be
00000060: a1d6 3b3e 6eed 973c dca5 9e3d 3639 b53d
00000070: 73c2 8a3e d8b9 d03d 953b 92be e75f 8cbe
00000080: e60b 693e a31a 24be 4691 533e 1d14 1d3d
00000090: e978 633c 5b18 87be 1ba8 6bbe a7a5 553d
000000a0: 68f5 0bbe 280b acbd 7d28 08bd 7ff8 333e
000000b0: 9b60 07be b02e d03e b8fe 103e 7dd2 213e
000000c0: 47ad 09bf 0ad5 c73d c713 dabe 7e42 63be
000000d0: 962e b6be 02cd ed3c 9998 063e e92c 58bd
000000e0: 7589 d2bd 5686 b03d 5d4e 833e 4228 efbc
000000f0: e9bf d93e 64ae e93d 18d1 dcbd 90a2 ae3e
00000100: 5f4e 3e3e 2bbd 09bd 7779 cc3c 0d56 08be
00000110: 8722 f63d 428d 123e 4438 9abc ac0f 243e
00000120: b131 bbbd 607a 903d 36b4 7dbd e761 ba3d
00000130: 2801 74be 9eaf 34bd 3388 1b3e 17cc 613e
00000140: e8b3 19be 27ec e53b acbb 9f3d 7e5a 67bc
00000150: a6e2 d03e 9b36 5dbc 4336 533e f182 3bbe
00000160: 3fab 88bd 9d7a 3bbe 6086 473e c101 953e
00000170: 0540 ccbe ee56 933e 82f7 dbbd ea4d 53be
00000180: 291e 9f3d 02c9 933d c154 48bd 21bb 8e3d
00000190: 7f45 48be 3552 1dbe 757f 6dbe 65aa b5be
000001a0: b83c 1a3c 19cb 85be 64a8 7fbe e789 96be
000001b0: e133 cbbd 31b1 90bd 03ad f43d 8a4a 293e
000001c0: aea1 4a3e de54 b1be f688 90be 0e40 ad3e
000001d0: ec00 c03e 1a56 8d3d 7740 ff3d 5ef6 a8bd
000001e0: 5edc 9e3e dce6 f4bc db49 d8be 0340 02be
000001f0: 17e3 8a3c 0721 5fbe 5b9d aabe 1eb6 52bd
00000200: 9fc1 74bd 7b2e 88bd 3159 0dbd 8bc2 893d
00000210: ad34 463c 7e90 633b 90b3 e53c e0c4 05be
00000220: d679 15bd e944 a6bd 7496 263e d05a 92bc
00000230: 6350 2ebe 0947 55bd 6959 96bc c687 853e
00000240: 9c62 3ebe 2481 213d 574c 9abe 784c 05bd
00000250: 6214 51be 3779 cbbd fd97 853e af6b 3d3e
00000260: fea0 113e eda4 f33d 73df 1e3e 7113 233e
00000270: 5584 f8be e552 603e 8783 3fbe bc84 333e
00000280: 7d54 043e 11e5 5fbd 0e22 843e 0996 5b3d
00000290: 4e23 f4bd ef2f 00be d4bf b83c d4a7 2d3e
000002a0: 6dd6 b73d 2351 223d b423 c5bd fe4d 123e
000002b0: f275 b13e 9006 44be 349c b53d 1771 37bd
000002c0: e5a1 253e d056 823e bd24 1c3e fa85 e1bd
000002d0: 3c22 0cbf 2b9c 99bc f5a2 90be 6221 7c3e
000002e0: d97d de3d 1279 47be 97f5 573e 877d a93b
000002f0: 9251 a8be 64e0 323d d5b6 803d 9af9 5f3e
00000300: 26a2 153e 7114 7fbc 8183 39be 27d1 61be
00000310: 9537 97bc 006d 1b3e c10e 56be f558 8d3d
00000320: be44 b6be 1b5e 83be d86c 243e 0f83 9c3c
00000330: 4fa1 30be d55b 063e 5b7b a8be 6e0d 483e
00000340: 2fd6 3dbe 6cf6 973e aaeb d2bd 6654 9dbe
00000350: 4c07 3abc 5ad0 32bd 566e 3a3e 571d ecbd
00000360: 4444 bfbc a5ba 60bd 3251 853e dd9e 22bd
00000370: ce46 893e 2953 173e ff70 2dbe e97b 783e
00000380: 3e0c 9bbe 34cb 9bbe 440e 56be 3c8b 57be
00000390: eb9d c3bc f109 d13c 988f 33be 880d 47be
000003a0: 92d1 033e e724 0e3e 0714 4e3d 7644 c53d
000003b0: 416a 5bbb 7bfc 00be 0153 d8bd 5226 763d
000003c0: 305d b13e d35e 34be 1550 73be dc7d 7dbe
000003d0: 8a3b 3c3d 32fc 083d 5d78 093e 2c59 16bd
000003e0: 4b8e af3d aaa5 18be e118 06be dad1 8ebe
000003f0: 89d5 3c3b 891c fe3d 52fe b1be b34f 10be

x_lin.2.bias f4 [32]
-0.2255395 -0.1651863 -0.16517228 -0.2272689 -0.16836333 0.13004667 -0.061314467 0.13389058
-0.1437077 0.084333934 0.14077036 0.038566127 0.10282007 -0.030600892 -0.016100036 0.12095003
-0.12677011 0.02633806 0.089806184 -0.1677453 -0.07921738 0.15570056 -0.16676189 0.031839937
0.09644413 0.031009074 0.039932013 -0.09216219 0.11804444 0.14390275 -0.07129991 -0.10765212
00000000: d4f3 66be 9926 29be ec22 29be 2eb9 68be
00000010: 7067 2cbe f42a 053e e124 7bbd 9d1a 093e
00000020: 1c28 13be 45b7 ac3d 1b26 103e 84f7 1d3d
00000030: 5493 d23d b9ae fabc 39e4 83bc a6b4 f73d
00000040: 06d0 01be eac2 d73c 4eec b73d 6dc5 2bbe
00000050: b93c a2bd f86f 1f3e a1c3 2abe 986a 023d
00000060: 8084 c53d be06 fe3c c08f 233d 88bf bcbd
00000070: 49c1 f13d 3e5b 133e b005 92bd b778 dcbd

edge_lin.0.weight f4 [32, 1, 64, 1]
-0.6330491 -0.21872629 0.011424849 -0.2218553 -0.15522312 -0.35237968 -0.12509285 0.006638466
-0.20796415 0.096604764 -0.39435878 0.08640344 -0.058548924 -0.18481413 -0.015430993 -0.17180368
-0.19774485 -0.376957 0.030726282 -0.23054671 -0.18237022 -0.3890942 -0.07456047 0.017028058
-0.0794761 0.09339554 0.033700183 -0.2090299 0.23282227 -0.076395705 0.12585676 0.07489201
-0.06007264 0.12624171 0.052062403 -0.104361616 0.017048799 -0.4172577 0.07748985 0.008158822
0.06435475 -0.14870574 -0.41214028 -0.043855283 -0.25291553 0.085652396 -0.09235622 -0.073109634
-0.08383269 -0.39147392 -0.04305515 -0.17950732 -0.18740757 -0.32394397 0.04400474 -0.019564081
0.027550342 0.08901555 0.0017804174 -0.29532516 0.06188378 -0.17138267 0.115507886 0.055361446
-0.22257648 0.06390406 -0.025755502 -0.31699276 0.15504971 -0.14540161 -0.015478423 -0.26321194
0.20859629 0.13638742 -0.18017355 0.016011849 0.029087273 -0.0708124 0.15890312 0.17724726
-0.07240695 -0.39197952 0.11258346 0.5015219 -0.0449077 -0.10926215 -0.090259984 -0.01339601
-0.27870458 0.18319355 -0.028516686 0.15259627 -0.072175406 -0.053290363 0.1874246 0.117172785
0.012010664 0.04880389 0.030042076 -0.2087893 0.0047963127 -0.26410556 -0.008970151 -0.07372192
0.27957803 0.007410402 -0.14819297 0.15179177 0.07661508 -0.18202893 0.14891179 0.08750062
-0.13065061 -0.34548685 -0.060970493 0.4958346 -0.08581848 -0.20341314 -0.17056854 -0.097247005
-0.21454467 -0.014090119 0.042164825 0.06618559 -0.23085561 -0.036646623 0.11566691 0.13628137
-0.1087466 -0.10455186 -0.1754203 -0.1748414 -0.10152893 -0.3222292 -0.09682091 0.3237473
-0.18085371 -0.079488285 -0.033833724 0.0032954842 -0.11914649 0.0063380566 0.113311924 0.045888573
-0.09048704 -0.22776408 -0.033690263 0.08094668 -0.14731246 -0.05062335 0.16965328 -0.2440892
-0.1655766 -0.24763948 0.003287242 0.11332194 0.02366662 0.05477927 -0.16365519 -0.043563284
-0.063073285 0.08044707 -0.2654678 -0.13410772 -0.07283456 -0.3289305 -0.057195935 0.45286036
-0.1134249 -0.14471231 0.07996119 -0.11112499 -0.18568507 -0.15008879 0.049714576 -0.039812505
-0.108118184 -0.14595519 -0.14582592 0.11338768 -0.050972674 -0.16242793 0.04757549 -0.15831575
-0.03680906 -0.19456634 0.012450266 0.059216887 -0.06474127 0.06688005 -0.11679492 0.0850283
0.087260306 0.30511814 -0.56871086 -0.48629713 -0.039481036 -0.14088039 -0.19723321 -0.0868571
-0.09041761 0.096200414 0.11876532 0.15949261 -0.14589046 0.115126505 0.26167983 0.006827535
-0.056833267 -0.021004815 -0.13409364 -0.046171606 0.091526136 0.12158328 -0.06043059 -0.35890183
0.1413617 -0.20468423 -0.1607336 0.019114345 -0.042660464 0.09127345 0.14669926 0.12003115
-0.01946652 0.054288466 -0.39823353 -0.37966028 -0.1710533 -0.15599915 -0.22452565 -0.16998014
0.06784661 0.13965005 0.036644783 -0.011641103 -0.024501344 0.1563304 0.22399363 0.16124012
-0.042805362 -0.14514254 -0.22502418 0.020209538 0.0815147 0.040860586 0.08023757 -0.14583027
0.097880825 0.010658834 -0.20726408 0.007124273 0.025160238 0.022288755 0.06189244 0.16133106
00000000: 810f 22bf c9f9 5fbe 4a2f 3b3c 092e 63be
00000010: cff2 1ebe 1c6b b4be 5718 00be 7d87 d93b
00000020: 8ef4 54be b8d8 c53d 65e9 c9be 49f4 b03d
00000030: ffd0 6fbd ea3f 3dbe 47d2 7cbc 4eed 2fbe
00000040: a07d 4abe 8200 c1be afb5 fb3c 7014 6cbe
00000050: 42bf 3abe 5b37 c7be 29b3 98bd 6d7e 8b3c
00000060: 5ec4 a2bd 2946 bf3d 3409 0a3d ef0b 56be
00000070: f668 6e3e 5a75 9cbd 98e0 003e fb60 993d
00000080: bb0e 76bd 8245 013e 633f 553d 8bbb d5bd
00000090: eca9 8b3c cda2 d5be 00b3 9e3d 94ac 053c
000000a0: 6ccc 833d 5146 18be 0d04 d3be 99a1 33bd
000000b0: 257e 81be 866a af3d 4225 bdbd 81ba 95bd
000000c0: 79b0 abbd 456f c8be 995a 30bd c4d0 37be
000000d0: c5e7 3fbe fcdb a5be 503e 343d da44 a0bc
000000e0: 41b1 e13c c94d b63d e55c e93a dc34 97be
000000f0: d979 7d3d f07e 2fbe 668f ec3d afc2 623d
00000100: 17eb 63be 22e0 823d 34fd d2bc e04c a2be
00000110: 5ac5 1e3e 29e4 14be 3699 7dbc b7c3 86be
00000120: 449a 553e 25a9 0b3e 6a7f 38be 482b 833c
00000130: 6f48 ee3c 1706 91bd 80b7 223e 4e80 353e
00000140: 184a 94bd 8ab1 c8be 2892 e63d bd63 003f
00000150: 23f1 37bd d6c4 dfbd 3ada b8bd f07a 5bbc
00000160: 5eb2 8ebe 1797 3b3e d39b e9bc 3242 1c3e
00000170: b3d0 93bd ff46 5abd 3cec 3f3e 49f8 ef3d
00000180: 60c8 443c 96e6 473d cd1a f63c ddcc 55be
00000190: 632a 9d3b d838 87be 8af7 12bc 85fb 96bd
000001a0: da24 8f3e f5d2 f23b e6bf 17be 4d6f 1b3e
000001b0: 5ee8 9c3d cb65 3abe 557c 183e 8633 b33d
000001c0: 46c9 05be a7e3 b0be 32bc 79bd 08de fd3e
000001d0: 99c1 afbd 894b 50be 85a9 2ebe 7029 c7bd
000001e0: 99b1 5bbe 3eda 66bc 06b5 2c3d 508c 873d
000001f0: 6a65 6cbe c51a 16bd c6e2 ec3d 588d 0b3e
00000200: 8ab6 debd 491f d6bd 61a1 33be a009 33be
00000210: 66ee cfbd 3afb a4be 0b4a c6bd 35c2 a53e
00000220: b731 39be c1ca a2bd 3b95 0abd 0df9 573b
00000230: 1303 f4bd 79af cf3b 1510 e83d a8f5 3b3d
00000240: 4551 b9bd fd3a 69be cdfe 09bd 5fc7 a53d
00000250: 14d9 16be 6e5a 4fbd 97b9 2d3e 85f2 79be
00000260: ea8c 29be 3495 7dbe c56e 573b 5515 e83d
00000270: 80e0 c13c 3a60 603d 3a95 27be 6a6f 32bd
00000280: 912c 81bd 6fc1 a43d 65eb 87be 8953 09be
00000290: 492a 95bd 9469 a8be 4946 6abd 50dd e73e
000002a0: 504b e8bd 772f 14be b1c2 a33d 8095 e3bd
000002b0: 3a24 3ebe e0b0 19be 83a1 4b3d 7012 23bd
000002c0: 116d ddbd 4775 15be 6453 15be cd37 e83d
000002d0: b9c8 50bd 8253 26be 84de 423d 861d 22be
000002e0: 19c5 16bd 663c 47be 33fc 4b3c 688d 723d
000002f0: 1297 84bd 68f8 883d 2d32 efbd 5123 ae3d
00000300: 88b5 b23d 7238 9c3e 0997 11bf f0fb f8be
00000310: deb6 21bd f342 10be 81f7 49be 23e2 b1bd
00000320: de2c b9bd b904 c53d 3b3b f33d 0852 233e
00000330: 4f64 15be 72c7 eb3d e6fa 853e 84b9 df3b
00000340: 00ca 68bd 4a12 acbc d84f 09be 701e 3dbd
00000350: 0e72 bb3d a800 f93d 1186 77bd fbc1 b7be
00000360: 1fc1 103e be98 51be 5997 24be b095 9c3c
00000370: bdbc 2ebd 93ed ba3d 5538 163e e4d2 f53d
00000380: 4078 9fbc 955d 5e3d 44e5 cbbe d562 c2be
00000390: 9928 2fbe 3ebe 1fbe 0dea 65be 460f 2ebe
000003a0: 2af3 8a3d 6c00 0f3e d718 163d 53ba 3ebc
000003b0: 0bb7 c8bc 1415 203e 965e 653e 211c 253e
000003c0: ad54 2fbd 3fa0 14be bd6c 66be 798e a53c
000003d0: 2ef1 a63d 6e5d 273d 9853 a43d 8854 15be
000003e0: be75 c83d 64a2 2e3c 093d 54be bc72 e93b
000003f0: d81c ce3c e896 b63c ed82 7d3d f833 253e

edge_lin.0.bias f4 [32]
-0.012464447 -0.04581319 0.05560784 0.03823498 -0.092950545 -0.024343058 0.1282389 -0.05474429
0.09389403 -0.030337738 -0.095281795 0.03530221 0.07954098 -0.10223253 -0.0872313 0.0629664
-0.035325788 -0.037973594 -0.09906928 -0.06263892 -0.07716239 0.0059440387 0.03230546 -0.08345017
0.020508522 0.044926178 -0.060616408 -0.047670998 0.042302214 -0.11609603 0.070172116 -0.0027378118
00000000: ae37 4cbc 9da6 3bbd 0cc5 633d 489c 1c3d
00000010: db5c bebd 186b c7bc 0f51 033e 8c3b 60bd
00000020: 834b c03d d986 f8bc 1a23 c3bd 0d99 103d
00000030: 62e6 a23d 4a5f d1bd 53a6 b2bd 87f4 803d
00000040: c6b1 10bd 338a 1bbd d6e4 cabd d648 80bd
00000050: 5107 9ebd 36c6 c23b bb52 043d ece7 aabd
00000060: 7d01 a83c 8304 383d e948 78bd aa42 43bd
00000070: 1645 2d3d c1c3 edbd 66b6 8f3d dc6c 33bb

edge_lin.2.weight f4 [32, 32, 1, 1]
0.20791858 0.13616776 0.12694973 0.060920976 0.25718528 0.049659453 -0.14671414 -0.16063324
0.0773955 0.12553841 0.065220274 0.11931491 0.02783383 -0.13786422 -0.097825944 0.0024029708
0.290205 0.045925066 0.24332075 -0.17553896 0.30401805 -0.2645671 0.13193311 0.15714635
-0.050921645 -0.24097285 0.3308552 0.062850766 -0.5684123 0.1605279 0.16938393 0.025087297
-0.20120037 -0.21754672 0.037146173 -0.18497051 0.13467743 0.05386651 0.041264113 0.11909876
0.11197864 0.070516 -0.12864134 0.30449572 0.103194624 0.0696852 -0.10389099 -0.04267829
0.03418205 0.034087054 0.14243573 -0.073458485 -0.41506866 0.34431893 -0.17382656 -0.03563727
0.11347677 -0.23523623 0.032415174 0.13957626 0.229645 -0.3003898 0.08029328 -0.027662668
-0.096594214 0.08395247 0.080902226 0.072572194 -0.03619738 -0.34128556 0.07239613 0.060702465
-0.29289877 -0.19813189 0.05187666 0.010429429 0.04497073 -0.040879525 -0.03790111 0.25785753
0.062990755 0.082611166 -0.1298605 -0.13690905 0.056588333 0.07832743 -0.067788154 0.087692544
-0.041786205 -0.21850039 -0.12671918 -0.023230052 -0.21259096 0.17432627 0.09001934 0.06516345
-0.21700537 -0.22399834 -0.1941705 0.25575972 -0.10023594 0.328901 -0.18586053 0.08283512
-0.18190125 0.057951108 -0.28657854 -0.03417323 0.064261116 0.3508883 0.04332614 0.11340662
-0.16567186 0.07431238 0.05313732 -0.22869933 -0.034394223 0.018333228 -0.12135509 -0.15956964
0.082463376 -0.25372997 -0.082082964 0.011156065 -0.25659427 0.19737138 -0.055563394 -0.23117268
0.26594836 0.1563158 -0.15401775 0.25666896 0.19831373 0.020985045 -0.1737792 -0.40088332
-0.19312578 -0.11095346 -0.016564645 -0.0007827678 0.09010976 -0.20154808 0.1059135 0.09568481
-0.016840573 0.28195116 0.10931186 -0.070083946 0.11919248 0.056402132 0.08707148 0.24439925
0.12131806 -0.20204706 0.32201982 -0.19268498 -0.42615622 -0.08591025 0.13405637 -0.094742805
0.13118641 0.3141654 -0.11771168 0.19448145 0.30616367 -0.068739034 -0.18244733 -0.18661734
0.106128216 0.041991875 -0.08182643 0.22973493 0.07138484 -0.19287592 0.014954215 0.28594762
-0.0039714314 -0.015422155 0.08730185 -0.13157754 0.17796622 -0.2086512 0.173966 0.20699069
0.01136894 -0.14537108 0.21778677 0.048262365 -0.15672062 0.28020754 0.04615491 0.08106192
-0.040062718 -0.013197926 0.14319542 -0.052834522 0.061970275 -0.004663659 0.0035022069 -0.06882491
-0.059744865 0.034384053 -0.010962219 0.07954528 -0.25493404 -0.23647152 -0.035932463 -0.23494498
-0.1386624 0.040543016 0.23409481 -0.008016831 -0.25076184 0.24391419 -0.32621646 0.03847853
-0.06637437 0.009150823 0.07368742 0.12732165 -0.02247424 -0.11584717 -0.12912986 -0.024776785
-0.019154415 0.1106591 0.09210769 -0.034022104 -0.13145112 -0.3768799 -0.10891938 0.03429593
-0.015261829 -0.31137228 0.10367006 -0.09633617 -0.04121995 -0.13614166 -0.06572435 0.13221124
0.18153013 0.22526759 0.28124574 -0.117163286 0.031416073 -0.12692252 -0.017011734 0.35174263
-0.24436046 -0.13595283 0.31917608 0.012485658 -0.19035132 0.18004277 0.13597496 0.0958959
00000000: 9ce8 543e 906f 0b3e 1cff 013e 4688 793d
00000010: caad 833e b667 4b3d 3b3c 16be 0a7d 24be
00000020: 8881 9e3d 248d 003e 3592 853d 605b f43d
00000030: c603 e43c 472c 0dbe f858 c8bd 297b 1d3b
00000040: c095 943e ec1b 3c3d 1329 793e 7cc0 33be
00000050: 41a8 9b3e 5775 87be 7919 073e f9ea 203e
00000060: 3793 50bd 96c1 76be da65 a93e e7b7 803d
00000070: 7883 11bf 6d61 243e fb72 2d3e e083 cd3c
00000080: 7807 4ebe 91c4 5ebe 9626 183d e968 3dbe
00000090: e1e8 093e 21a3 5c3d 8f04 293d 0dea f33d
000000a0: 0f55 e53d b16a 903d 8eba 03be dde6 9b3e
000000b0: b457 d33d 1db7 8e3d cdc4 d4bd 6ecf 2ebd
000000c0: 7a02 0c3d de9e 0b3d acda 113e 6771 96bd
000000d0: e183 d4be 924a b03e 97ff 31be 63f8 11bd
000000e0: 8266 e83d c4e1 70be c6c5 043d 14ed 0e3e
000000f0: 0f28 6b3e b1cc 99be ce70 a43d d29c e2bc
00000100: 30d3 c5bd 46ef ab3d 11b0 a53d bba0 943d
00000110: b443 14bd fbbc aebe 6c44 943d 26a3 783d
00000120: d4f6 95be 16e3 4abe 9f7c 543d 32e0 2a3c
00000130: 3a33 383d 4a71 27bd 323e 1bbd e705 843e
00000140: 4c01 813d 0b30 a93d 27fa 04be e331 0cbe
00000150: 2bc9 673d 226a a03d 84d4 8abd 2698 b33d
00000160: 0328 2bbd 91be 5fbe acc2 01be f34c bebc
00000170: 72b1 59be 9682 323e 0f5c b83d 6a74 853d
00000180: a836 5ebe d25f 65be a2d4 46be f0f2 823e
00000190: 8048 cdbd b665 a83e 3952 3ebe 76a5 a93d
000001a0: 5244 3abe 245e 6d3d 6cba 92be 3bf9 0bbd
000001b0: 559b 833d a2a7 b33e c076 313d bb41 e83d
000001c0: e2a5 29be 1731 983d 85a6 593d 2830 6abe
000001d0: f5e0 0cbd 912f 963c 0489 f8bd 3966 23be
000001e0: 8fe2 a83d e5e8 81be 1d1b a8bd eec7 363c
000001f0: 5360 83be b91b 4a3e 7196 63bd 88b8 6cbe
00000200: 622a 883e 4011 203e d4b6 1dbe 1d6a 833e
00000210: c112 4b3e d4e8 ab3c 2df3 31be 9440 cdbe
00000220: c4c2 45be 913b e3bd 94b2 87bc a832 4dba
00000230: 778b b83d 9f62 4ebe 2de9 d83d 66f6 c33d
00000240: 3ef5 89bc e75b 903e e5de df3d 2c88 8fbd
00000250: 301b f43d ec05 673d 8852 b23d cc43 7a3e
00000260: 9a75 f83d 6de5 4ebe c8df a43e 364f 45be
00000270: 2631 dabe b7f1 afbd 1346 093e 8408 c2bd
00000280: bb55 063e 4ada a03e d212 f1bd 2526 473e
00000290: 7cc1 9c3e 0dc7 8cbd 79d3 3abe 9e18 3fbe
000002a0: c059 d93d acff 2b3d 9e94 a7bd a23f 6b3e
000002b0: 3732 923d 4481 45be 8602 753c ba67 923e
000002c0: c822 82bb 35ad 7cbc 50cb b23d 43bc 06be
000002d0: c73c 363e a9a8 55be 2524 323e 5ef5 533e
000002e0: ca44 3a3c 28dc 14be 7f03 5f3e c2ae 453d
000002f0: 5f7b 20be 5d77 8f3e ee0c 3d3d cb03 a63d
00000300: ce18 24bd 1d3c 58bc d2a1 123e 0369 58bd
00000310: 8bd4 7d3d 9bd1 98bb 4885 653b 13f4 8cbd
00000320: 08b7 74bd 4bd6 0c3d e19a 33bc a3e8 a23d
00000330: b786 82be 9725 72be eb2d 13bd 6b95 70be
00000340: 84fd 0dbe 6f10 263d 8db6 6f3e 0759 03bc
00000350: db63 80be a4c4 793e d805 a7be aa9b 1d3d
00000360: 49ef 87bd 55ed 153c 6ee9 963d 9b60 023e
00000370: e61b b8bc 4841 edbd 9e3a 04be aff8 cabc
00000380: b8e9 9cbc 3da1 e23d f5a2 bc3d c35a 0bbd
00000390: 1f9b 06be 67f6 c0be 2011 dfbd e479 0c3d
000003a0: c00c 7abc 306c 9fbe f850 d43d e64b c5bd
000003b0: 40d6 28bd b868 0bbe 7d9a 86bd 6262 073e
000003c0: 09e3 393e 8cac 663e 71ff 8f3e 4ef3 efbd
000003d0: 24ae 003d faf7 01be 315c 8bbc 9c17 b43e
000003e0: a139 7abe 3837 0bbe 0c6b a33e a590 4c3c
000003f0: 75eb 42be 225d 383e 053d 0b3e 1265 c43d

edge_lin.2.bias f4 [32]
-0.116517454 -0.15908013 0.080535576 -0.059479356 0.05088029 -0.1261837 -0.2723174 0.14843677
-0.018844243 0.15847534 0.083893776 -0.13130753 -0.33146283 0.06727537 0.006127741 -0.043243926
0.07954783 -0.039851386 -0.022721175 0.14085752 -0.13298227 -0.06878119 0.06130007 0.10402702
-0.08825481 -0.19955523 0.110273786 0.05225152 0.13941072 -0.012520227 -0.015465048 -0.021139815
00000000: b4a0 eebd e7e5 22be d6ef a43d a0a0 73bd
00000010: da67 503d 4d36 01be 306d 8bbe cfff 173e
00000020: 3e5f 9abc 5c47 223e 80d0 ab3d 7b75 06be
00000030: 7fb5 a9be abc7 893d 38cb c83b 8b20 31bd
00000040: f9e9 a23d 353b 23bd c221 babc f43c 103e
00000050: 812c 08be 27dd 8cbd c815 7b3d 1e0c d53d
00000060: f0be b4bd 3558 4cbe 39d7 e13d b105 563d
00000070: afc1 0e3e a321 4dbc 1d61 7dbc 682d adbc

vertex_output_lin.0.weight f4 [32, 1, 32, 1]
0.16970292 -0.21598321 0.035273466 0.057802252 0.13660783 -0.04518321 -0.20689447 -0.066320345
-0.14896713 -0.06998192 -0.12989023 0.033062074 -0.17921524 -0.08469772 -0.10616283 0.148348
-0.060954057 -0.13680716 0.15191929 0.04462548 -0.15673721 -0.037688244 -0.18011655 -0.18884254
0.08666499 -0.073720254 0.12092197 -0.102019936 0.14025891 0.04101145 -0.017635606 -0.15730192
0.2097125 -0.114059255 -0.10493253 -0.17680508 0.12806097 0.25886342 0.14422509 0.052569725
0.07123109 -0.030842582 -0.06342561 0.05757616 0.1785665 0.040491346 -0.08057462 0.064575106
0.1841687 -0.038567517 -0.27388805 0.1097308 -0.1005475 -0.060586456 -0.08167311 -0.2546757
0.17238587 -0.090869874 -0.14948855 -0.041012127 -0.16690707 -0.37707624 -0.19955388 -0.120040946
-0.07315364 0.13277742 -0.055091396 -0.005547091 0.019928144 0.06370198 -0.11117622 -0.14613408
-0.06548228 -0.06939324 -0.1935643 0.093044974 -0.2525309 -0.19602333 0.08137482 -0.06026647
0.056646604 -0.026049467 -0.017989438 0.076019004 -0.05778715 -0.03151982 -0.07699703 -0.050584774
0.016580125 0.10237549 0.10686533 0.09019412 0.091595866 0.014120506 -0.024784017 0.034312516
-0.061596584 0.016288234 0.023466595 0.11628564 -0.12847413 -0.01155754 -0.04371315 0.0063579595
-0.05826618 0.036070928 0.10522069 -0.059480496 0.08030012 0.040548734 0.08174365 -0.20860271
0.24442291 0.24222253 -0.36897972 0.28798398 -0.023439873 0.13383825 0.10822261 0.054465905
0.26577255 0.07286784 0.11591389 -0.05629439 -0.0006597336 -0.48193944 -0.23394804 -0.42845404
-0.054296196 0.15043163 -0.090197876 0.09123016 -0.083302975 -0.037335243 0.3124533 0.0018642762
-0.09555812 -0.12403251 0.046691082 0.0016560401 0.27116093 -0.1520875 -0.077613026 -0.085453406
-0.047789257 0.05951368 -0.11264275 -0.10465328 0.20655078 0.009083942 -0.0007532453 -0.076481365
0.090148635 0.24710774 0.018585058 -0.16865258 0.11507309 -0.032597806 -0.028087268 -0.13208139
-0.02900554 0.16342872 -0.19361386 0.054032426 0.007897849 -0.06026934 -0.10876298 -0.12830032
-0.19221765 0.013156763 -0.0056652813 0.05150957 0.4165554 0.06488981 -0.06102583 -0.15619256
0.009437305 0.16272844 -0.2140892 0.17804758 0.23082544 0.023411384 -0.26478553 -0.12626186
0.025218094 -0.015103822 -0.040854324 -0.30751818 -0.25773492 -0.11994223 0.022590673 -0.09301538
0.20512447 -0.14005403 -0.011659843 -0.045538235 -0.1095109 -0.13677222 -0.26542732 -0.13031483
0.048270274 -0.14041322 0.003431569 -0.00858541 -0.43355915 0.12401067 0.16837892 -0.18932413
0.071676984 -0.34478435 0.25470614 -0.11897386 -0.025334042 -0.2911084 -0.0857244 0.16566291
-0.052823946 -0.1557866 -0.061568297 0.16506448 -0.09229798 0.08511366 0.03448841 -0.07332295
-0.08899149 -0.29131982 0.030604975 0.06835281 0.18195349 -0.18514718 -0.15988447 -0.08773375
-0.4052675 0.092696056 0.118795425 0.1053011 0.06643569 0.09545528 -0.23799936 -0.2206427
0.27211323 0.013006496 -0.24850596 0.18049806 -0.13914263 0.20789501 -0.14473316 -0.09828462
0.08863428 -0.11985198 0.2106846 0.082324505 0.16147515 -0.20532607 -0.2867453 -0.19011587
00000000: 9ac6 2d3e b42a 5dbe e97a 103d 0ec2 6c3d
00000010: ece2 0b3e 0812 39bd 25dc 53be f6d2 87bd
00000020: d78a 18be ae52 8fbd f201 05be 196c 073d
00000030: 3384 37be 0076 adbd e66b d9bd 8ae8 173e
00000040: f6aa 79bd 2d17 0cbe bb90 1b3e 35c9 363d
00000050: b87f 20be fd5e 1abd 7970 38be f05f 41be
00000060: 6a7d b13d a5fa 96bd f0a5 f73d d4ef d0bd
00000070: 08a0 0f3e 9ffb 273d 8c78 90bc c113 21be
00000080: e0be 563e e697 e9bd dee6 d6bd 640c 35be
00000090: 6a22 033e bf89 843e beaf 133e 5a53 573d
000000a0: 9be1 913d 95a9 fcbc 49e5 81bd fbd4 6b3d
000000b0: 23da 363e 41da 253d 4e04 a5bd f43f 843d
000000c0: b896 3c3e f9f8 1dbd 0e3b 8cbe 8bba e03d
000000d0: d9eb cdbd 8129 78bd 3b44 a7bd da64 82be
000000e0: ec85 303e fc19 babd 8713 19be 55fc 27bd
000000f0: b0e9 2abe 2310 c1be da57 4cbe 07d8 f5bd
00000100: 93d1 95bd cef6 073e 84a7 61bd 5fc4 b5bb
00000110: 5940 a33c 2f76 823d 5cb0 e3bd 2ca4 15be
00000120: 931b 86bd 0b1e 8ebd b835 46be 5d8e be3d
00000130: bb4b 81be 57ba 48be d7a7 a63d f9d9 76bd
00000140: 4506 683d b165 d5bc 965e 93bc daaf 9b3d
00000150: 38b2 6cbd ed1a 01bd 9eb0 9dbd fb31 4fbd
00000160: 0bd3 873c 3eaa d13d 36dc da3d b2b7 b83d
00000170: 9d96 bb3d b259 673c da07 cbbc 488b 0c3d
00000180: b34c 7cbd e76e 853c 043d c03c 2a27 ee3d
00000190: b98e 03be d65b 3dbc 8f0c 33bd 6e56 d03b
000001a0: 85a8 6ebd 1cbf 133d f27d d73d d2a1 73bd
000001b0: 6474 a43d 6e16 263d 3769 a73d f39b 55be
000001c0: 004a 7a3e 2f09 783e e9ea bcbe a372 933e
000001d0: fa04 c0bc e50c 093e d1a3 dd3d a417 5f3d
000001e0: 5713 883e bc3b 953d 4364 ed3d f294 66bd
000001f0: f9f1 2cba c4c0 f6be 1390 6fbe 545e dbbe
00000200: b065 5ebd c00a 1a3e aab9 b8bd e1d6 ba3d
00000210: c09a aabd d7ec 18bd e1f9 9f3e bb5a f43a
00000220: fab3 c3bd c204 febd 263f 3f3d 7c0f d93a
00000230: 9bd5 8a3e d3bc 1bbe 94f3 9ebd 3202 afbd
00000240: abbe 43bd 9ec4 733d 3eb1 e6bd 7554 d6bd
00000250: 0c82 533e d0d4 143c 7075 45ba 43a2 9cbd
00000260: d99f b83d d009 7d3e b13f 983c 43b3 2cbe
00000270: 71ab eb3d 4785 05bd 4517 e6bc 5840 07be
00000280: 079d edbc dc59 273e b642 46be 1b51 5d3d
00000290: fb65 013c fcdc 76bd 20bf debd 2961 03be
000002a0: b4d4 44be 778f 573c d3a3 b9bb b3fb 523d
000002b0: c046 d53e f3e4 843d 39f6 79bd f1f0 1fbe
000002c0: ed9e 1a3c 49a2 263e 333a 5bbe 1b52 363e
000002d0: 815d 6c3e 3bc9 bf3c f891 87be ca4a 01be
000002e0: 2d96 ce3c 0576 77bc dd56 27bd 0673 9dbe
000002f0: d5f5 83be 46a4 f5bd 1310 b93c d97e bebd
00000300: 260c 523e 536a 0fbe ed08 3fbc 4d86 3abd
00000310: 4047 e0bd 040e 0cbe 17e6 87be 4071 05be
00000320: 0db7 453d 7cc8 0fbe 2de4 603b d2a9 0cbc
00000330: 77fb ddbe 4ef9 fd3d 866b 2c3e 2fde 41be
00000340: 62cb 923d 9387 b0be d868 823e 91a8 f3bd
00000350: 5689 cfbc 290c 95be 4690 afbd 8aa3 293e
00000360: ec5d 58bd 8686 1fbe 0a2f 7cbd aa06 293e
00000370: b906 bdbd 1250 ae3d b843 0d3d 582a 96bd
00000380: 2c41 b6bd df27 95be 49b7 fa3c 8ffc 8b3d
00000390: 0452 3a3e 3997 3dbe c1b8 23be c1ad b3bd
000003a0: 397f cfbe 6ed7 bd3d 044b f33d 1aa8 d73d
000003b0: 6f0f 883d 0f7e c33d 1bb6 73be 29f0 61be
000003c0: 6d52 8b3e 3319 553c 5978 7ebe 7cd4 383e
000003d0: 687b 0ebe 6ee2 543e ee34 14be 7249 c9bd
000003e0: e485 b53d f474 f5bd b4bd 573e c099 a83d
000003f0: be59 253e ff40 52be 48d0 92be bcad 42be

vertex_output_lin.0.bias f4 [32]
-0.14991866 -0.19311713 0.054258488 0.022467595 0.020790786 0.16052 -0.12796731 0.046091367
-0.10162231 -0.05595975 -0.03478744 -0.15448365 0.028508404 0.026739864 -0.12030305 0.021135552
-0.08307177 0.005095517 0.031570043 0.016093083 0.10876134 -0.04933188 -0.13514322 0.2471899
-0.029111702 -0.10893663 -0.00840963 -0.16963956 -0.013466474 0.023952285 0.19555569 -0.02646207
00000000: 4784 19be 7fc0 45be 263e 5e3d f60d b83c
00000010: 7051 aa3c 5b5f 243e dd09 03be 4dca 3c3d
00000020: 5c1f d0bd 0d36 65bd 467d 0ebd f630 1ebe
00000030: 758a e93c 8f0d db3c 7261 f6bd 7724 ad3c
00000040: 8821 aabd 4bf8 a63b 974f 013d a4d5 833c
00000050: 44be de3d 3a10 4abd fc62 0abe 591f 7d3e
00000060: aa7b eebc 2b1a dfbd 8bc8 09bc feb5 2dbe
00000070: 7ca2 5cbc 9537 c43c c03f 483e fcc6 d8bc

vertex_output_lin.2.weight f4 [1, 32, 1, 1]
0.09171299 -0.35799173 0.003627873 -0.31633297 -0.028992109 -0.12887336 0.06802025 -0.24766053
0.044699315 -0.09277691 -0.26530424 -0.04737128 -0.3923949 0.0008506273 -0.21629822 0.20599112
-0.20609593 0.0037883115 0.09034342 -0.034074966 -0.281932 0.21365047 -0.47889054 0.17656715
0.054279637 -0.022048235 -0.13919558 0.0017590517 -0.068882324 -0.13538904 0.096435 -0.24200565
00000000: 05d4 bb3d b14a b7be 9cc1 6d3b 65f6 a1be
00000010: dc80 edbc 61f7 03be 334e 8b3d b99a 7dbe
00000020: a116 373d d201 bebd f5d5 87be 6308 42bd
00000030: fce7 c8be a2fc 5e3a 487d 5dbe 56ef 523e
00000040: d00a 53be 5245 783b f905 b93d 3192 0bbd
00000050: 6459 90be 30c7 5a3e 2431 f5be 05ce 343e
00000060: 5354 5e3d 809e b4bc 4989 0ebe fb8f e63a
00000070: 2d12 8dbd 6da3 0abe b77f c53d 54d0 77be

graph_output_lin.0.weight f4 [1, 618]
-0.11834224 -0.04141831 -0.03134036 -0.14315446 -0.07407553 -0.101857655 -0.021032603 -0.096265785
-0.18882523 -0.06607862 0.06896117 0.11527124 -0.3033048 0.010191754 0.03221281 -0.09613867
0.055154197 0.009251665 -0.114916556 -0.10006731 -0.13004343 -0.033452354 -0.050760034 -0.10821514
0.014321767 -0.095554285 -0.204273 -0.085782126 -0.032158706 -0.30792803 -0.08949335 -0.027760658
-0.10923564 -0.3163936 0.036404677 -0.05054852 -0.11678617 0.03397688 0.28778905 -0.027866313
-0.002916047 -0.19655737 -0.00017626311 0.037823312 -0.17194034 -0.2897991 -0.0039766952 -0.054407075
-0.3024333 -0.040785115 -0.01964157 -0.045632813 0.009330282 -0.062949255 -0.081890084 -0.07962157
-0.124331936 -0.004910495 0.07208918 -0.3463666 -0.035538085 -0.13453384 -0.096075416 -0.039386775
-0.09794909 0.14896895 -0.004148928 0.053119116 0.110622376 0.0046521006 -0.1578559 -0.46999043
-0.045788806 -0.0154456515 -0.36404556 -0.12297954 -0.02483532 -0.038767803 -0.022535479 0.31209132
-0.16705532 0.042153213 0.005616744 0.08932698 -0.06740279 -0.016775072 -0.02946595 -0.12938495
-0.100365 -0.09337624 -0.005238139 0.15557821 0.09181853 0.025788656 -0.07820369 -0.25796664
0.03745404 -0.14189224 -0.4286062 -0.02937398 -0.09071749 -0.03349214 -0.08890466 -0.30808428
0.00044707258 0.03700957 0.01556799 -0.13167186 -0.24667467 0.09888867 0.031730678 -0.06774058
0.06795877 0.019700266 0.14785998 0.021161124 -0.113275945 0.2963745 -0.02299606 0.07577656
0.12777166 0.059520826 -0.016193788 0.073487066 -0.06850201 -0.30262175 0.029755402 -0.16156793
-0.0988984 -0.0670706 0.10707626 -0.10132519 -0.18773514 0.020126177 -0.20735829 0.06855154
-0.13892384 0.011286922 -0.079113506 -0.028991206 -0.016546594 -0.08898469 0.008081168 0.19683115
0.17693289 0.07083492 0.058689203 0.06301774 0.06704271 -0.14071912 -0.09657922 -0.035787124
0.035166673 -0.050609525 -0.02034347 -0.09682634 -0.0044684336 -0.09358763 -0.014010889 0.01373919
0.07202087 0.06655314 0.100366555 -0.012647206 0.104574546 0.15268295 0.12085223 -0.0644619
0.020568354 -0.019625055 0.056517415 0.1538454 0.11436437 0.09580954 0.11604175 0.086438514
0.08234368 -0.008219363 -0.2058947 -0.03301152 -0.096253656 -0.04462149 -0.020114321 0.008264492
0.094926044 0.14273754 -0.11161619 -0.04271809 0.06329769 -0.3336516 -0.08134085 -0.041772146
0.01861569 0.1008863 -0.07771249 -0.31519836 -0.25182384 0.21462458 -0.01631385 -0.06433959
-0.016086757 -0.11664689 -0.00028429765 0.018080594 -0.0011270702 0.034461144 -0.00010585847 -0.028968265
-0.051467314 -0.039008766 -0.024110692 0.24049366 0.04404822 -0.015253684 0.014128583 0.035457842
-0.05765962 -0.06824185 0.11067263 0.06874453 0.059786797 0.08976992 0.017101835 0.083014876
0.09975235 0.14888021 0.12243843 0.13249077 0.071500905 0.014207496 -0.07911314 0.035694126
-0.04937079 -0.089714974 -0.14393333 -0.11624856 -0.08347184 -0.088247076 0.09560096 -0.14735408
0.035428315 -0.006645831 0.08588658 -0.10212142 0.009991897 -0.07973896 0.016855469 0.1760015
-0.14947672 -0.08667029 -0.07581804 -0.026156576 -0.05407569 -0.10860959 0.060552385 0.0009317709
00000000: 6b5d f2bd 3fa6 29bd c05e 00bd 1597 12be
00000010: e9b4 97bd bf9a d0bd 914c acbc ff26 c5bd
00000020: 675b 41be 3a54 87bd 843b 8d3d 5413 ec3d
00000030: c44a 9bbe 51fb 263c 94f1 033d 5ae4 c4bd
00000040: 5ee9 613d 4c94 173c 5f59 ebbd 17f0 ccbd
00000050: 1b2a 05be 5605 09bd c1e9 4fbd e69f ddbd
00000060: d8a5 6a3c f7b1 c3bd f12c 51be 8aae afbd
00000070: d9b8 03bd bea8 9dbe 4a48 b7bd 526a e3bc
00000080: efb6 dfbd 58fe a1be 121d 153d f70b 4fbd
00000090: 962d efbd 572b 0b3d 1659 933e e547 e4bc
000000a0: 261b 3fbb 5646 49be 45d3 38b9 9eec 1a3d
000000b0: 2111 30be 8c60 94be f04e 82bb f4d9 5ebd
000000c0: 8ad8 9abe 4b0e 27bd 5ce7 a0bc 79e9 3abd
000000d0: 0ade 183c 8aeb 80bd fdb5 a7bd a210 a3bd
000000e0: bea1 febd 38e8 a0bb 7ea3 933d f756 b1be
000000f0: 6290 11bd 3dc3 09be 30c3 c4bd 0754 21bd
00000100: 8899 c8bd 518b 183e bbf3 87bb 6e93 593d
00000110: fc8d e23d a670 983b faa4 21be 96a2 f0be
00000120: 0b8d 3bbd c20f 7dbc 2e64 babe b2dc fbbd
00000130: 7173 cbbc fdca 1ebd 539c b8bc 6fca 9f3e
00000140: 8d10 2bbe d9a8 2c3d aa0c b83b 10f1 b63d
00000150: 790a 8abd e06b 89bc 9362 f1bc 7d7d 04be
00000160: 2a8c cdbd 0b3c bfbd b2a4 abbb e54f 1f3e
00000170: 5a0b bc3d bb42 d33c 4229 a0bd 3414 84be
00000180: 6869 193d 334c 11be 4672 dbbe b3a1 f0bc
00000190: 17ca b9bd 0e2f 09bd a513 b6bd 39bd 9dbe
000001a0: 1165 ea39 5997 173d e210 7f3c fdd4 06be
000001b0: 4998 7cbe 2586 ca3d 07f8 013d 93bb 8abd
000001c0: f82d 8b3d 7462 a13c 9b68 173e 185a ad3c
000001d0: 38fd e7bd 66be 973e 3c62 bcbc be30 9b3d
000001e0: 93d6 023e 1ccc 733d d6a8 84bc 6380 963d
000001f0: c84a 8cbd 3df1 9abe 9ac1 f33c 1072 25be
00000200: 3f8b cabd 505c 89bd cc4a db3d 9583 cfbd
00000210: a43d 40be a7df a43c bb55 54be c064 8c3d
00000220: 0d42 0ebe c8ec 383c 4306 a2bd f77e edbc
00000230: b98c 87bc 9b3d b6bd e066 043c 1b8e 493e
00000240: e52d 353e e611 913d 1764 703d 720f 813d
00000250: b04d 893d ac18 10be 53cb c5bd 8595 12bd
00000260: ee0a 103d ef4b 4fbd 59a7 a6bc e34c c6bd
00000270: f06b 92bb dfaa bfbd ee8d 65bc 571a 613c
00000280: ae7f 933d 034d 883d fb8c cd3d 3a36 4fbc
00000290: 2e2b d63d eb58 1c3e 6081 f73d 9a04 84bd
000002a0: f77e a83c b9c4 a0bc ce7e 673d a689 1d3e
000002b0: de37 ea3d cb37 c43d 4ca7 ed3d ad06 b13d
000002c0: cea3 a83d 82aa 06bc 0fd6 52be 1637 07bd
000002d0: a320 c5bd 06c5 36bd cac6 a4bc cb67 073c
000002e0: 9668 c23d ca29 123e 0797 e4bd 2af9 2ebd
000002f0: 38a2 813d 62d4 aabe 0896 a6bd 4519 2bbd
00000300: ee7f 983c 7a9d ce3d ba27 9fbd ae61 a1be
00000310: 0eef 80be 8cc6 5b3e a0a4 85bc 7ac4 83bd
00000320: 60c8 83bc 91e4 eebd c90d 95b9 c11d 943c
00000330: 33ba 93ba 2127 0d3d 5500 deb8 db4e edbc
00000340: 64cf 52bd a8c7 1fbd c983 c5bc f843 763e
00000350: e86b 343d 96ea 79bc 927b 673c 3e3c 113d
00000360: 7e2c 6cbd 62c2 8bbd 55a8 e23d efc9 8c3d
00000370: 00e3 743d 4bd9 b73d 2619 8c3c b403 aa3d
00000380: f64a cc3d 0e74 183e 00c1 fa3d a9ab 073e
00000390: 116f 923d 8fc6 683c 1206 a2bd 0134 123d
000003a0: 0739 4abd 7cbc b7bd 4263 13be ba13 eebd
000003b0: 49f3 aabd e2ba b4bd 70ca c33d fde3 16be
000003c0: 481d 113d 45c5 d9bb 4ee5 af3d 0925 d1bd
000003d0: 0eb5 233c 2e4e a3bd 7b14 8a3c bd39 343e
000003e0: 6d10 19be 3180 b1bd 7d46 9bbd 5146 d6bc
000003f0: 797e 5dbd b46e debd c705 783d 1642 743a

x_lin_after_first_round.0.weight f4 [32, 1, 32, 1]
0.14975458 -0.0753897 0.0153391985 -0.15053459 -0.14923745 0.028856188 0.17351793 -0.09931396
-0.26350683 -0.10584454 0.09738253 0.016918736 0.27873933 -0.18641596 -0.22978401 0.07065002
0.13574736 -0.10796808 -0.1498829 0.061556365 0.08417178 0.25300175 -0.101419955 0.10832486
-0.05279337 -0.049723107 -0.18865766 -0.16852346 -0.13734217 -0.074078165 -0.06834168 0.12757935
0.17023952 -0.25671738 0.22025241 0.091976814 -0.07256309 0.20368421 0.082508676 0.02474264
0.092995584 0.08137829 -0.12695226 0.038063638 -0.121043205 -0.0024770875 -0.07016036 0.127128
-0.02352957 -0.05731669 0.19868802 -0.14069967 -0.11074817 -0.12066217 0.041254517 0.19023086
0.063406676 -0.23701961 0.12623756 -0.021157157 0.21397983 0.21630636 0.21984851 0.025703097
-0.26515192 0.13777103 -0.11241476 -0.18911858 -0.07547963 -0.27741405 0.07969189 -0.21404664
-0.05016945 -0.23307525 0.14752382 -0.026300892 0.36283752 -0.010229195 -0.097936854 -0.020077547
0.10400018 0.12520236 0.025194686 0.071954854 -0.0050237197 0.0019267607 0.048376434 -0.17374004
0.1726373 0.053918865 0.20789294 -0.060416445 0.048852623 -0.080895916 -0.19178203 -0.12097008
0.005572562 0.17499503 0.015319223 -0.17478909 -0.16612077 -0.30048716 -0.041066743 -0.07381152
-0.07458553 -0.2487566 0.08355453 -0.01678879 0.19375731 0.12152581 -0.089490406 -0.17940368
0.20832393 0.041929923 -0.23310718 0.1599979 -0.04847878 -0.26494062 0.07706944 -0.13071963
0.03247544 0.21591765 0.10959505 -0.12765034 -0.016655378 -0.37056538 -0.30812347 -0.1871198
0.15618931 -0.02214065 0.11658167 -0.3122269 0.2041827 0.09088206 -0.033339746 0.18390432
0.14255942 0.016378172 0.05414501 0.0646808 -0.04224681 0.21480171 -0.45577478 -0.15178601
-0.15102984 0.07856756 -0.12701195 -0.16376008 -0.19071071 -0.2233237 0.2000894 0.09047546
0.01466306 -0.4151081 0.051177934 0.19452463 0.085381396 0.013082352 0.09083098 0.17414586
0.09809401 -0.18875578 0.004157526 0.09561919 0.0888352 0.27574068 -0.20220973 0.27834073
0.2584044 -0.062401667 -0.09649916 -0.09373559 0.08673473 0.20593366 -0.29189062 -0.19084637
0.0021004358 -0.03941525 -0.050033983 -0.25578785 -0.13114625 -0.15085311 -0.02674702 0.016637981
-0.1004844 0.13324985 -0.051303253 -0.054349296 -0.0006215789 0.12942882 0.121301554 -0.012786498
-0.2719592 0.18689734 0.052269943 -0.16676314 -0.17497244 -0.18615587 0.0027596052 -0.010421487
-0.28136933 -0.21948227 0.07425511 -0.110703506 0.21554266 0.056793272 -0.0984086 0.060164537
0.031307917 -0.039666466 -0.29509827 0.11895173 -0.06389945 -0.23288314 -0.28434855 0.0047234786
-0.088825986 0.021057831 0.050133426 -0.067411005 0.14426483 -0.12219402 -0.37045613 -0.29717404
0.2785039 0.11371513 0.11675039 -0.3116034 0.1895023 0.18601231 -0.033648197 0.20881726
-0.050135046 0.0966245 -0.09048131 -0.11921775 -0.08007385 0.15085848 -0.17378022 -0.2585727
-0.12740757 -0.10410576 -0.0055263494 0.038045224 0.038636032 -0.29911664 0.09697722 -0.034775395
-0.14659612 -0.26569763 -0.13749143 0.09418451 -0.07706698 0.18517777 0.16910565 0.039053548
00000000: 4459 193e ea65 9abd 4351 7b3c bd25 1abe
00000010: b4d1 18be d063 ec3c afae 313e 1e65 cbbd
00000020: 5eea 86be 06c5 d8bd 7e70 c73d 2999 8a3c
00000030: ecb6 8e3e d3e3 3ebe 804c 6bbe f5b0 903d
00000040: 5b01 0b3e 5e1e ddbd e77a 19be 8722 7c3d
00000050: 4162 ac3d 7289 813e 44b5 cfbd 6dd9 dd3d
00000060: dc3d 58bd 75aa 4bbd 792f 41be 6a91 2cbe
00000070: 6da3 0cbe 4bb6 97bd b9f6 8bbd 29a4 023e
00000080: 4553 2e3e 7670 83be d989 613e 575e bc3d
00000090: f59b 94bd 9892 503e 4ffa a83d 14b1 ca3c
000000a0: 7874 be3d a9a9 a63d c6ff 01be 9ee8 1b3d
000000b0: 80e5 f7bd a256 22bb 3cb0 8fbd d82d 023e
000000c0: 16c1 c0bc e8c4 6abd df74 4b3e 9313 10be
000000d0: f0cf e2bd ba1d f7bd 7ffa 283d e1cb 423e
000000e0: 5cdb 813d 45b5 72be 6b44 013e c651 adbc
000000f0: 871d 5b3e 6a7f 5d3e f81f 613e 4d8f d23c
00000100: fec1 87be d913 0d3e b639 e6bd 4da8 41be
00000110: 1095 9abd 3709 8ebe 8035 a33d 0b2f 5bbe
00000120: 7b7e 4dbd 47ab 6ebe 7c10 173e f874 d7bc
00000130: d7c5 b93e 5a98 27bc 1e93 c8bd ab79 a4bc
00000140: 0cfe d43d 0c35 003e 1665 ce3c 115d 933d
00000150: 049e a4bb 5c8b fc3a 5e26 463d e9e8 31be
00000160: d5c7 303e 07da 5c3d e3e1 543e 3c77 77bd
00000170: b019 483d c2ac a5bd 8262 44be 29bf f7bd
00000180: 0a9a b63b e631 333e 7afd 7a3c e9fb 32be
00000190: 901b 2abe 74d9 99be 9a35 28bd 7f2a 97bd
000001a0: 4cc0 98bd 0dba 7ebe a31e ab3d a588 89bc
000001b0: 5168 463e 86e2 f83d bf46 b7bd 99b5 37be
000001c0: de52 553e b6be 2b3d a6b3 6ebe 7dd6 233e
000001d0: af91 46bd 4ca6 87be 95d6 9d3d 5edb 05be
000001e0: f804 053d 8419 5d3e 5f73 e03d c5b6 02be
000001f0: dc70 88bc bfba bdbe 5cc2 9dbe 559c 3fbe
00000200: 17f0 1f3e 4f60 b5bc 5fc2 ee3d 34dc 9fbe
00000210: 4515 513e 6020 ba3d 428f 08bd 6a51 3c3e
00000220: 19fb 113e 842b 863c 28c7 5d3d 5e77 843d
00000230: fe0a 2dbd fbf4 5b3e 505b e9be cb6d 1bbe
00000240: 91a7 1abe 07e8 a03d 6c0f 02be b9b0 27be
00000250: ab49 43be f8ae 64be 3ce4 4c3e 334b b93d
00000260: 553d 703c 0d89 d4be f49f 513d 7731 473e
00000270: 71dc ae3d 5c57 563c 9805 ba3d 4b53 323e
00000280: 83e5 c83d 3249 41be db3b 883b fed3 c33d
00000290: 3bef b53d e22d 8d3e 1110 4fbe ad82 8e3e
000002a0: 954d 843e e498 7fbd 5aa1 c5bd 72f8 bfbd
000002b0: faa1 b13d 46e0 523e b072 95be 3b6d 43be
000002c0: 77a7 093b e371 21bd 6ff0 4cbd a0f6 82be
000002d0: 344b 06be 3d79 1abe 911c dbbc 604c 883c
000002e0: c4ca cdbd a672 083e 5c23 52bd 5e9d 5ebd
000002f0: 74f1 22ba fd88 043e f36c f83d 767e 51bc
00000300: 3c3e 8bbe 0462 3f3e 0219 563d f5c3 2abe
00000310: fa2b 33be a59f 3ebe 7eda 343b e2be 2abc
00000320: a40f 90be f6bf 60be 1013 983d 85b8 e2bd
00000330: 37b7 5c3e 10a0 683d 738a c9bd 176f 763d
00000340: bb3c 003d 4e79 22bd 1f17 97be f79c f33d
00000350: b7dd 82bd eb78 6ebe 2296 91be 69c7 9a3b
00000360: 66ea b5bd 7981 ac3c b558 4d3d c80e 8abd
00000370: 29ba 133e dc40 fabd 6dac bdbe 3227 98be
00000380: 1098 8e3e 7ae3 e83d d41a ef3d 7b8a 9fbe
00000390: e40c 423e 037a 3e3e b1d2 09bd 31d4 553e
000003a0: 685a 4dbd 11e3 c53d 444e b9bd 7028 f4bd
000003b0: c2fd a3bd a57a 1a3e 71f3 31be a463 84be
000003c0: 2177 02be 6735 d5bd 6116 b5bb 4fd5 1b3d
000003d0: d140 1e3d d125 99be fe9b c63d a570 0ebd
000003e0: 4b1d 16be 8509 88be 8eca 0cbe cfe3 c03d
000003f0: 4bd5 9dbd 3e9f 3d3e 082a 2d3e 9df6 1f3d

x_lin_after_first_round.0.bias f4 [32]
-0.06588311 0.07935368 0.13105999 0.08936242 -0.14563297 -0.27242625 0.038386215 -0.08376073
0.03246357 -0.06767916 -0.069974 0.06863629 0.2333582 0.07690032 -0.08663799 -0.110447526
-0.07226948 -0.17011775 0.22468758 0.19015278 0.026445793 -0.052717533 -0.0385422 0.11409972
-0.16025965 -0.27415466 -0.13162474 0.053023174 0.18357968 -0.06128799 -0.15572932 -0.07145468
00000000: b9ed 86bd 2f84 a23d 9734 063e a503 b73d
00000010: cf20 15be 747b 8bbe dd3a 1d3d bf8a abbd
00000020: 85f8 043d 5f9b 8abd 874e 8fbd 2f91 8c3d
00000030: 74f5 6e3e ea7d 9d3d 426f b1bd 5032 e2bd
00000040: 0502 94bd 5933 2ebe 8014 663e 69b7 423e
00000050: d9a4 d83c 57ee 57bd 6dde 1dbd 1dad e93d
00000060: 1b1b 24be 005e 8cbe a3c8 06be d42e 593d
00000070: 50fc 3b3e 1e09 7bbd 8277 1fbe d556 92bd
