reachability_classification/weights/SimpleMultiplePassGNNReachabilityNet_epoch_41.pt (torch_old, 36685 bytes, 16 tensors)

x_lin.0.weight f4 [32, 1, 1, 11]
000000 de 5d b9 be 4e ab 0c be bd ca 90 3c f1 25 97 be
       -0.36204427 -0.13737223 0.017674798 -0.29521134
000010 d1 02 aa be 62 2d 2d bd c4 73 c0 be da b7 81 3e
       -0.33205274 -0.04227961 -0.37588322 0.2533558
000020 93 c9 47 3d fc 8c 03 3d 09 14 d8 be ea cf c1 3e
       0.04877622 0.032116875 -0.42202786 0.37853938
000030 e1 cd 9f be 53 4f 9f be 32 f9 f1 3e 93 a4 f4 bc
       -0.3121176 -0.31115207 0.47260433 -0.029863631
000040 d0 2c 45 bd e3 a3 e4 be ad 52 98 3e 98 92 86 bd
       -0.04813844 -0.44656286 0.29750577 -0.06570929
000050 9d 4c 5b 3e b2 14 b2 bd 95 5a 17 bf 18 9a 34 3e
       0.21415944 -0.086953536 -0.5912259 0.17636907
000060 e3 29 08 3e 63 56 58 3e 0d 24 0f 3e ec 8f ad bc
       0.13297229 0.21126704 0.13978596 -0.021186791
000070 01 e5 e1 3d b1 b8 ef 3d d0 b2 bf 3e 9a 62 64 be
       0.11030007 0.11705149 0.3744111 -0.22303239
000080 50 49 00 3d cf 4f 45 bd 02 4a 37 bc 0f 51 92 be
       0.031319916 -0.048171815 -0.011187078 -0.28577468
000090 93 bf e1 3e 2a 4d 1d 3e 7a 7a 44 be ea a4 23 3d
       0.44091472 0.15361467 -0.19187346 0.039952196
0000a0 b0 03 ad be 64 f5 de bd dd 24 50 3e 52 b5 bc be
       -0.33791876 -0.10886648 0.20326562 -0.36857086
0000b0 4f 57 fd bd 5a f7 27 be 64 45 b3 3c 1c 6d 10 be
       -0.123701684 -0.16402951 0.021883674 -0.14104122
0000c0 a3 7a fd 3e d4 c8 ba 3e 1a 4b d4 3e 40 97 84 3e
       0.49507627 0.36481345 0.41463548 0.25896645
0000d0 f6 7b 01 bf f3 23 72 bd 0c 83 ba 3d ff 0e 9d be
       -0.50579774 -0.059116315 0.091070265 -0.30675504
0000e0 05 f9 81 be 8b 34 2c 3b 1f ee 87 be 6c f5 7b be
       -0.253853 0.0026276435 -0.2654886 -0.2460534
0000f0 f7 d2 50 be a5 a1 04 3f a2 ba bc 3e 33 15 f2 3c
       -0.20392977 0.5180915 0.3686114 0.029551124
000100 2d 16 e8 3e 69 1a 13 bf 96 ab d0 3d 1f e6 e7 3e
       0.4532942 -0.57462174 0.101889774 0.45292756
000110 c7 09 0e 3e c4 dc 38 3e 87 ed 9d 3e 4b 02 99 3e
       0.13870917 0.18052965 0.3084528 0.29884562
000120 0d f5 aa 3e 60 57 3d be ed 2a 99 be a9 a9 a8 be
       0.33390084 -0.18490362 -0.29915562 -0.3294194
000130 78 51 52 bc 7b 86 5b 3e b1 80 ad be e0 ef d9 bd
       -0.0128368065 0.21438019 -0.33887246 -0.10641456
000140 55 92 8a 3e c7 88 03 be df 2c 48 be 3e c9 96 bd
       0.27064767 -0.12845145 -0.19548367 -0.07362603
000150 9e 32 86 bd e2 f1 43 bd ad a5 83 bf 8f 48 51 3f
       -0.06552623 -0.0478381 -1.0284935 0.8175134
000160 88 89 a7 3e 57 67 89 3e 2e 8c aa 3e 5b f0 06 be
       0.32722116 0.26836655 0.33310074 -0.13177626
000170 9b 26 2d bd b6 d2 0a bd 6a 76 18 3e 99 42 8d 3e
       -0.042273145 -0.033892356 0.14888921 0.27589872
000180 77 e7 01 be 9f 83 0a be 01 f3 b9 3e d5 52 9b 3e
       -0.12685953 -0.13526772 0.3631821 0.30336633
000190 30 39 1c bd c5 4f de 3d 0e 08 e3 3e eb 84 19 bb
       -0.038140476 0.108550586 0.44342083 -0.0023425173
0001a0 a8 5f 58 be 98 36 ec be 50 1c 02 be ab 05 30 3c
       -0.2113024 -0.46135402 -0.12706113 0.010743539
0001b0 da 16 39 3f 66 f9 dd be b0 bc 66 3e b7 8f 7f 3c
       0.72300494 -0.43354338 0.22532916 0.015598229
0001c0 a1 20 68 3d 4d 2b 14 bf 49 b9 4d be d7 34 67 3e
       0.056671742 -0.5787857 -0.20090212 0.2257875
0001d0 f0 37 a9 bd 8d fe eb bd 23 6b 8e be dd 0a 52 3e
       -0.08262622 -0.11523161 -0.27816114 0.20511957
0001e0 ff a7 a8 be 19 10 61 be 0d a1 8c 3c 65 4b 12 bd
       -0.3294067 -0.21978797 0.017166639 -0.035716433
0001f0 77 28 3e ba 65 ab a2 3d ca d7 ed bd 2d 41 f2 bd
       -0.00072539545 0.07942847 -0.11613424 -0.118288375
000200 1f 07 f2 3d e1 f2 de 3c ee 44 8a be 4b cb 0b be
       0.118177645 0.027215423 -0.27005714 -0.13651769
000210 bc 8f 43 be 73 37 09 3e 01 b6 82 bd 36 1a bd 3e
       -0.19097799 0.13400058 -0.06382371 0.3693406
000220 42 ef c4 bd af b1 33 bd 76 17 c8 3e 49 e1 9d bc
       -0.09615947 -0.043870624 0.390804 -0.019272463
000230 8e b0 8e bc a7 14 86 3f 67 d9 4f bf 48 b5 76 be
       -0.017418172 1.0475053 -0.81191105 -0.24092591
000240 d2 cd 0d be ee 81 4b bd f4 ec c8 3e 43 90 b4 3e
       -0.13848045 -0.049684457 0.3924328 0.35266313
000250 4a ac c5 bd a5 af 06 be a8 4c 36 be a3 55 99 3e
       -0.09652002 -0.1315294 -0.1780268 0.29948148
000260 38 f7 a4 3d 2c 87 bd 3d 03 74 4e 3e 98 10 ab be
       0.08054966 0.092542976 0.20161442 -0.33411098
000270 66 7a 01 3f 7c 3c f2 be f2 5d 0b 3e 1c ff 05 bd
       0.5057739 -0.4731177 0.13610056 -0.032713994
000280 28 af 8f be 0f a9 8c 3e 50 0c 3d bc d5 07 97 3d
       -0.2806332 0.2747273 -0.01153858 0.07374541
000290 4c f3 dd 3e a7 1f 0c 3b da 35 bf bd f3 88 3c 3e
       0.43349683 0.002138117 -0.09336443 0.18411617
0002a0 c1 81 27 3d aa 28 63 3d 8f be 25 be 13 e2 c7 be
       0.040895227 0.055458702 -0.16185974 -0.39039668
0002b0 61 7a 3d be 87 d8 93 3e 50 58 cd 3e 9a 0d 0e be
       -0.18503715 0.28876135 0.4010644 -0.13872376
0002c0 11 a2 fc 3c 20 45 ce 3c 68 70 f1 bc 68 9b 99 3b
       0.030838998 0.025179446 -0.029472545 0.0046877153
0002d0 08 49 44 3e 45 7b 4c 3e 4e b0 c9 3b 2e 5a 8e 3e
       0.19168484 0.19968899 0.0061550504 0.27803177
0002e0 82 68 5f 3e a7 fb 11 be 05 13 01 3f 64 72 62 be
       0.2181721 -0.14256154 0.50419647 -0.22113949
0002f0 f2 ca 9c 3d 6e 49 dd 3a e7 a3 81 be 49 c7 c8 be
       0.07655896 0.0016882846 -0.2532036 -0.39214543
000300 7c fe fa 3d 2b 31 1e be 91 4e aa 3e af d2 8d 3e
       0.1225557 -0.15448444 0.33263066 0.276998
000310 c0 e8 44 3f e4 c9 50 bf 92 91 c6 3c 20 7d bc 3e
       0.7691765 -0.8155806 0.024239335 0.36814213
000320 ac 0f e5 3d 56 6b 9b 3e 46 51 3a 3d 03 ee e5 bc
       0.1118463 0.30355328 0.045487665 -0.028067594
000330 17 f7 f8 3d 09 e0 e4 3d fb d3 14 c0 bd a8 72 3e
       0.12156504 0.11175544 -2.3254383 0.23697181
000340 09 84 75 bd 42 5d af 3e 54 97 d4 3d ea 67 4a be
       -0.05994037 0.34250838 0.10380426 -0.19766203
000350 e2 e2 1f be ae 7b cf 3e 1d f6 0d 3e a3 31 48 3e
       -0.15613893 0.40524048 0.13863416 0.19550185
000360 a1 a7 c8 be 56 a5 50 3d f3 e8 68 3f b3 af ab 3d
       -0.3919039 0.050938927 0.9098045 0.08383121
000370 61 97 71 be f8 ef 50 3e 57 bb 35 bc 3e 42 09 3d
       -0.23592903 0.20404041 -0.011092029 0.03351044
000380 f1 6c 69 3e d0 21 1d be dc 08 0d be b2 39 6b 3e
       0.22795464 -0.1534493 -0.13772911 0.22971228
000390 b3 f8 8d be 4d 6a 64 be 77 89 29 bd 61 47 ac 3e
       -0.27728805 -0.22306176 -0.041390862 0.33648208
0003a0 c6 e0 e2 3d ae 42 56 3e fb cc 2f 3d e5 70 1c be
       0.110780284 0.20923874 0.042920094 -0.15277441
0003b0 b1 1d 23 bf a7 52 cc 3d f3 ac 4d 3e 1f 79 9a 3d
       -0.6371718 0.09976702 0.20085506 0.07542633
0003c0 31 8b d5 be c6 8b 78 bd 07 17 94 3d 21 fe 74 be
       -0.41707757 -0.060680173 0.072309546 -0.23925067
0003d0 03 61 e1 be bf 2d 0a 3c e6 1d 9b 3d f3 1c 96 be
       -0.44019327 0.008433758 0.07574062 -0.29318962
0003e0 12 df 94 bc 11 db 74 bd 8a b4 91 bc 8e ca 43 3f
       -0.018172774 -0.05977923 -0.017786283 0.7648095
0003f0 85 6f c3 be db ed 42 bd 22 b7 70 bd d9 e3 4d 3e
       -0.3817102 -0.047590118 -0.0587684 0.20106448

x_lin.0.bias f4 [32]
000000 c8 f4 51 3d 8e 17 77 3c c9 f0 95 bd b2 ef 3a be
       0.051258832 0.0150812995 -0.07321317 -0.18255499
000010 20 0b 44 be fc 26 00 ba a3 ee d2 3b e2 5e 41 3d
       -0.19144869 -0.00048886216 0.006437139 0.047209628
000020 b6 f5 82 3d aa 85 49 3e 04 bd 30 bd c6 7e 98 3d
       0.06394522 0.19679895 -0.04314901 0.07446055
000030 ec cb 91 3e 62 8d 1c 3e 9f dc b4 3e 84 21 ba be
       0.28475893 0.15288308 0.3532457 -0.36353695
000040 8c cb f5 3e d8 f4 1e 3c c6 6e b2 3e 91 ba 82 bd
       0.48006856 0.00970193 0.34850138 -0.06383241
000050 e0 29 40 be 1a 5e f3 bd ab 0d 46 3e ae ae 25 be
       -0.18765974 -0.11883183 0.19341151 -0.16179916
000060 a1 6d 71 be 79 53 d8 3d 46 0a 5b 3e 5e 86 92 be
       -0.23576976 0.10562796 0.21390638 -0.2861814
000070 e8 c9 82 3e 18 90 c3 be e7 b8 70 3e b5 fe 8c be
       0.25544667 -0.38195872 0.23508035 -0.27538076

x_lin.2.weight f4 [32, 32, 1, 1]
000000 89 b7 d2 3d 9c ea ed 3d 75 77 c5 be 82 e3 30 3e
       0.10288913 0.11617014 -0.385677 0.17274287
000010 91 36 94 bd 0d 9b f3 3d 34 54 e5 3d e8 13 58 3e
       -0.0723697 0.11894808 0.11197701 0.21101344
000020 55 63 fd bd 3f d6 a1 be 30 0b d0 bd 12 3b 07 3e
       -0.12372462 -0.3160877 -0.10158384 0.13206127
000030 40 8d e9 bd f6 0b 62 3e 79 41 11 bd 8a fb b6 bd
       -0.114038944 0.22074875 -0.03546283 -0.08934696
000040 00 cb 66 3e 72 ab 7c 3e 65 ad 04 be 69 40 28 bf
       0.22538376 0.24674776 -0.1295677 -0.6572328
000050 c2 80 ca 3c 7d 19 71 3d 44 ac 22 3c 06 15 06 be
       0.0247196 0.0588622 0.009928767 -0.13093957
000060 56 50 90 3d b0 31 a7 be f3 be 15 3e 3b b2 83 bd
       0.07046573 -0.32655096 0.14623623 -0.06430479
000070 3a c3 87 3e d2 91 3c 3e 1c dc 86 bd 0b 2a b3 bc
       0.26516134 0.18415001 -0.06584951 -0.021870634
000080 f8 f5 77 3e 11 03 b6 3e e2 d8 81 be 7f 8d b3 bd
       0.24214923 0.35549214 -0.2536078 -0.087672226
000090 3f e6 34 3e c5 e8 e1 3d 70 b3 80 bd fe 0f 33 be
       0.17665957 0.110307254 -0.06284225 -0.1748657
0000a0 e7 6a 57 be 18 f6 f1 3d ee 61 b4 3d f5 55 5b bd
       -0.21036874 0.11814517 0.08807741 -0.053548772
0000b0 d6 df b2 3e 04 40 0d be 2b fb 95 3d 87 ef 70 bd
       0.34936398 -0.13793951 0.07323297 -0.05882218
0000c0 16 3e 13 be a7 23 8d 3e 68 f0 13 bd cd 30 0c bf
       -0.14379153 0.27566263 -0.03611794 -0.54761964
0000d0 b6 52 de bd 1b cf dc bd e2 7e 57 3d 9e 6a 4d be
       -0.108556196 -0.1078169 0.05261124 -0.20060202
0000e0 6d 4d a1 be ae 99 e9 be 41 a1 19 3e a4 31 e5 3b
       -0.31504384 -0.4562506 0.1500292 0.006994443
0000f0 29 c0 8a be 66 8a f1 3d 74 4a df 3e 6e 5e e9 3d
       -0.27099732 0.117939755 0.4361149 0.11394964
000100 52 c4 e7 bd c3 7d ef be 3f 88 78 3d 5f 67 84 be
       -0.11316742 -0.46775636 0.06067681 -0.25860116
000110 6d 6b 1b 3d 4c f1 9e 3e 51 e9 95 bc 9d 6c 00 bd
       0.037944246 0.3104347 -0.01829973 -0.03135358
000120 ac d5 88 3c d0 c0 3c be e0 23 88 bd d8 72 0b be
       0.01670345 -0.18432927 -0.066474676 -0.13618028
000130 3b d6 10 3e b1 39 89 be 85 d9 72 3e 89 29 65 be
       0.14144222 -0.26801828 0.2371579 -0.22379126
000140 c9 a3 29 3e ce 4c e9 3d eb b7 ad be 64 a3 64 3e
       0.16566385 0.113916025 -0.3392938 0.22327954
000150 14 1a 91 bd 95 a8 4e bd ea 0d 18 be 8e 5e 84 3e
       -0.07085052 -0.05045374 -0.14849058 0.2585339
000160 68 1a 60 bd c6 cb 49 3e bc 88 bf 3e be 6b 9c bd
       -0.054712683 0.1970664 0.37409008 -0.07637738
000170 71 b4 7d be 03 00 e7 bc d2 75 97 3e c4 3d be 3d
       -0.24775864 -0.028198248 0.29582077 0.092891246
000180 83 5b 32 be 84 54 36 3d 39 31 2a be 94 e8 08 3d
       -0.17417721 0.044514194 -0.1662034 0.03342493
000190 72 f4 91 bd 9f 4b a9 3e b3 42 15 be 42 5c 05 bf
       -0.07126702 0.33065507 -0.14576225 -0.520939
0001a0 24 5f 8a be 33 45 de 3c 48 60 df bc f9 ac 16 3e
       -0.27025712 0.027132606 -0.02726759 0.14714421
0001b0 85 92 39 3e 59 a2 dd 3d 74 0c 8b 3e 21 d8 a4 3c
       0.18122299 0.10821981 0.27157938 0.02012259
0001c0 44 cc 74 3d 7d 63 8c bc 3d 77 9b 3d f0 fb 59 3e
       0.059765115 -0.017137283 0.07591102 0.21287513
0001d0 de ee 08 be fc b7 02 3e 06 cd 9c 3e 0b f5 1e be
       -0.1337237 0.12765497 0.3062517 -0.15523164
0001e0 ab 5c d0 3d 02 92 2d 3e b3 1d 75 3e ba 5c d3 bd
       0.10173925 0.16950229 0.2393711 -0.103204206
0001f0 4c f0 d6 3a 64 03 2a bf 80 b8 11 be e4 99 15 bf
       0.0016398518 -0.66411424 -0.14230537 -0.58437943
000200 45 39 19 3e 62 c9 1c bf 8d 6a 43 3d 0e 86 0d 3e
       0.14963253 -0.61244786 0.047709037 0.13820669
000210 8e 4b 8b be 43 c1 c8 3d df 5c b0 3d 92 a3 5d 3e
       -0.2720608 0.09802487 0.08611464 0.21644428
000220 de 02 1d be e3 a7 94 be 6a 85 20 3e 8e 55 70 bd
       -0.15333125 -0.29034337 0.15675893 -0.05867534
000230 d6 c2 ca bd 76 46 80 bc b4 8a 30 3e 9c 63 af be
       -0.09900443 -0.015658598 0.17240411 -0.34255683
000240 6e 4c 7f be 06 f2 c5 be db 48 18 3f 9b 89 fd 3d
       -0.249315 -0.38661212 0.5948617 0.12379762
000250 57 3c 52 3e c5 01 94 be 3f b9 21 bd b9 47 86 3e
       0.2053083 -0.289076 -0.039483305 0.26226595
000260 db a5 c4 bd b0 4b a3 bd 6b f3 97 3e a2 31 10 bf
       -0.09601947 -0.079734206 0.296779 -0.56325734
000270 1d 5f a5 3e 09 81 6b be 2e b9 a4 3e ad 5e 20 3e
       0.32299128 -0.22998442 0.3217253 0.15661116
000280 82 bf d9 bd 73 c8 36 be 0a 3a 33 be 78 60 b8 3c
       -0.1063223 -0.17849903 -0.17502609 0.022506937
000290 c0 77 09 be de 82 ee bd 55 82 c2 bd 4c d7 c6 be
       -0.13424587 -0.11646055 -0.09497515 -0.38836133
0002a0 75 33 58 3e ef a5 67 3e 04 77 87 3e b4 a9 4b 3d
       0.2111338 0.22621892 0.2645799 0.04972239
0002b0 3e eb 64 3d ee 32 28 be 8f cb 86 3e 3d b0 ea 3d
       0.055888407 -0.16425678 0.26327178 0.11459396
0002c0 3e 4f 6d be 7a 08 3d be cb 28 89 bf bf 84 f4 3c
       -0.2317476 -0.18460265 -1.0715574 0.029848455
0002d0 04 f1 b0 bd 7a 5b b2 be ae 24 09 be 93 ee f5 bc
       -0.0863972 -0.34835416 -0.13392898 -0.030020988
0002e0 95 b7 94 3e 1e ea 8e be ba 5c af 3e 20 6a b8 3e
       0.29046312 -0.27912992 0.34250432 0.36018467
0002f0 a4 bc 25 bf 9e a3 dd be 8f 78 af be bf 24 d4 bd
       -0.6474097 -0.43288893 -0.34271666 -0.10358571
000300 df 1c c2 be 89 82 d3 bc a9 9f 19 3e e7 ba 1e 3e
       -0.37912652 -0.02581908 0.15002312 0.15500985
000310 dc e7 b5 bd 88 78 8b 3d c3 32 a3 bd b2 2b 20 3e
       -0.08882114 0.06810099 -0.079686664 0.15641668
000320 b4 b5 8d be 60 9d 88 3d 20 4b 5e bd 7b 40 e3 3d
       -0.2767769 0.06670642 -0.054270864 0.11096283
000330 5d 22 70 3e 8f 37 79 be 39 aa ae bd d2 05 49 be
       0.23450609 -0.243376 -0.08528561 -0.19631127
000340 bd 26 54 be 68 e2 d3 be 87 dc 1b 3f 44 71 c5 bc
       -0.20717902 -0.41383672 0.60883373 -0.02410186
000350 83 29 81 bd 6e 4f 9d bd a0 7d df 3d 32 5a c9 3c
       -0.06306746 -0.07681166 0.10912633 0.024579141
000360 dc 63 76 be 77 57 01 3e f8 0d d0 be 10 11 d6 be
       -0.24061531 0.12631021 -0.40635657 -0.41809893
000370 07 2e f3 be ba 74 2b 3e 08 0b a8 be 7f ce 8e 3e
       -0.47496054 0.16743746 -0.32820916 0.2789192
000380 8b cf 23 3d b3 0b 92 be 3c 76 8f 3c a1 5e 8c 3d
       0.03999285 -0.2852455 0.017512433 0.068539865
000390 bb bd 66 3e d2 dd b2 bd 2c e1 93 3c 37 4e 9c 3e
       0.22533314 -0.08733715 0.018051706 0.30528423
0003a0 ec b0 89 bd 10 01 13 be a4 f0 20 be fc 06 c1 3d
       -0.06723198 -0.14355874 -0.15716797 0.0942516
0003b0 c9 1b 3f bf f8 66 9d 3e 08 18 6c be 13 dc 1f be
       -0.7465177 0.3074262 -0.23056042 -0.15611295
0003c0 a0 c9 59 bd 37 ab 9e be d2 c6 d0 3d 17 b6 b5 3d
       -0.0531708 -0.30990002 0.10194172 0.088726215
0003d0 b0 1b 12 bd 3c 80 fb 3d 0a 77 65 bd a0 59 80 3e
       -0.035670936 0.12280318 -0.056021728 0.25068378
0003e0 6d 0e 6a 3e f8 9c 81 3e 99 39 d1 be 8f 0b 34 3c
       0.22857065 0.2531507 -0.40864256 0.010989084
0003f0 34 82 2c 3e 87 8b f5 bc 29 0f 97 3e 17 e8 df 3d
       0.16846544 -0.029973758 0.29503754 0.109329395

x_lin.2.bias f4 [32]
000000 1e 5f 70 be 61 e2 0e be b4 0e 0d 3e 8d 7c 0f 3e
       -0.23473784 -0.13953544 0.1377514 0.14012356
000010 ea 3c 51 be 4b 5b 51 be 31 8e 59 be 9f 81 13 3e
       -0.20433393 -0.20444982 -0.21245648 0.14404915
000020 c9 52 2a 3e 98 54 9d 3d 94 cd dc 3d 55 51 6f bd
       0.16633143 0.076821506 0.107813984 -0.058427174
000030 8b 63 95 b9 55 59 0d be e4 a1 d5 3b 5f cb 69 be
       -0.0002849366 -0.13803609 0.006519543 -0.22831486
000040 cc c2 94 bd 29 e0 4a 3d 22 a1 2d be d5 f5 d8 3d
       -0.07263717 0.049530182 -0.16955999 0.10593764
000050 ed bc d2 bd 98 ad 45 3e 98 4e 3e be 9a 7f 08 be
       -0.10289941 0.19304502 -0.18584669 -0.13329926
000060 a1 4a ec bd 04 7b 0c bd 7e b1 8c be 02 88 60 be
       -0.11537672 -0.034297004 -0.27479166 -0.21926883
000070 1e 0d 59 bd eb 1d 6a be a9 f5 64 be 3b fc 8d 3d
       -0.052991025 -0.22862975 -0.22359337 0.06932875

edge_lin.0.weight f4 [32, 1, 64, 1]
000000 54 02 28 3e 96 fe 1f 3e 3a 83 76 3d cb 61 e8 be
       0.16407138 0.1562446 0.06018374 -0.4538711
000010 83 24 de 3d 63 83 6b be 79 e3 8e bd 50 31 95 3e
       0.10846808 -0.22999339 -0.06976981 0.29139185
000020 03 bb 46 bd a0 29 27 bd 06 b4 a7 bd 18 30 6d be
       -0.048518192 -0.04081118 -0.081886336 -0.23162878
000030 13 41 97 3e 41 b6 d6 bd 28 a4 33 3e dd e1 b4 3d
       0.29541835 -0.10483981 0.1754309 0.088321425
000040 bd c1 9c 3e e0 8c ec bd f8 91 9d bd 29 b6 d2 3e
       0.3061656 -0.11550307 -0.07693857 0.41154602
000050 16 fc 56 3d f7 7e 27 3d 7f 83 61 3e b1 f5 cb 3c
       0.0524865 0.040892567 0.22022818 0.024897428
000060 5d 62 90 3c c0 9e 04 3e a4 9f 8c 3d aa 8a 4b 3c
       0.017625028 0.12951183 0.068663865 0.012423197
000070 35 ad 85 3d e9 a9 15 be 98 f7 4f 3e a2 fe 1a 3e
       0.06527177 -0.14615597 0.20309293 0.15136197
000080 b3 4c b7 3d dd fe 95 3e 84 08 cc 3c 31 2a 39 bd
       0.08950176 0.29296008 0.024906404 -0.045206252
000090 21 ef f6 be e2 db 97 be 37 e8 9a be 8b 89 66 bd
       -0.48229316 -0.29659945 -0.3025529 -0.056283515
0000a0 41 df a7 be 23 e5 ab 3e 31 db 0e 3e 89 03 ec be
       -0.32787517 0.33573255 0.13950802 -0.46096447
0000b0 df d5 25 be c1 39 fc bd 72 97 04 3f d9 a3 f6 3d
       -0.16194867 -0.12315703 0.5179359 0.1204297
0000c0 a3 45 84 3e 77 28 38 bc d8 ea 87 be 2c ca b6 3d
       0.2583438 -0.011240116 -0.2654636 0.0892528
0000d0 ce 4f 4b 3e 1f 54 82 3c ff eb a6 bd 56 df 82 3d
       0.19854662 0.015909253 -0.081504814 0.06390254
0000e0 ff 85 19 be 84 d3 71 be 94 2a c1 be ab a8 7f 3e
       -0.14992522 -0.23615843 -0.37727797 0.24966685
0000f0 46 c0 06 3e 8d 23 c0 bd 4b 3d a0 be 13 61 17 be
       0.13159284 -0.09381781 -0.31296763 -0.14783125
000100 f8 12 a9 3b 1a 6b 89 be 76 fe aa bd c9 2f 27 be
       0.005159732 -0.26839525 -0.08349316 -0.16326822
000110 79 1f 2f 3e ea f1 ac 3d 69 2a ce 3c da 6c af bc
       0.1710185 0.08444579 0.025166707 -0.02141421
000120 0d 9c 87 3d 7a 90 91 3e 93 bd 58 be 78 c4 18 bf
       0.06621561 0.2843054 -0.21166067 -0.5967479
000130 50 6e 4b 3e f8 b9 fa 3d b1 bb 86 3e a6 f7 96 3d
       0.198663 0.12242502 0.26315072 0.07371454
000140 1e cb ff be 72 53 8d 3d 5f e7 0b be f1 00 1b 3e
       -0.49959654 0.069006816 -0.1366248 0.15137078
000150 dc 55 06 be ad 27 21 be 83 88 b8 bc 3b af ab 3d
       -0.1311869 -0.15737791 -0.022526031 0.08383032
000160 df c2 1d 3e 0a e7 9b 3e 50 7b 2a be d0 a1 25 3e
       0.15406369 0.30449706 -0.16648602 0.16175008
000170 15 1b 46 3d 9b 0f 0c bd 78 06 62 3d f7 cb c4 3c
       0.04836567 -0.03419457 0.05518195 0.02402304
000180 1a ce 56 3d b9 59 d2 bb 5a 24 78 be d1 43 94 bd
       0.052442648 -0.006419387 -0.24232617 -0.072394975
000190 78 72 72 3c e3 b5 ad 3e bc 1d 49 be 87 6c 3c 3d
       0.014797799 0.3392783 -0.19640249 0.046001937
0001a0 f2 16 6f be 9d 8f 53 3e 70 17 1a be 01 d6 25 bf
       -0.23348597 0.20660253 -0.15048003 -0.6477967
0001b0 00 74 35 3e 6b 64 c7 bd 14 d9 a0 3e 79 e4 01 3e
       0.17720032 -0.0973595 0.31415617 0.12684812
0001c0 de f1 ee be c0 ec 91 3d d1 0f ee bd 61 34 08 3e
       -0.46668905 0.071252346 -0.116241105 0.13301231
0001d0 f8 d9 a8 3c 28 1a 6b 3d 60 ce d2 3d 38 a0 c3 bd
       0.020611748 0.05739799 0.10293269 -0.09552044
0001e0 72 73 40 3d 55 93 48 3d f5 fe 8f 3e ce 5e 2b 3c
       0.046985097 0.04896863 0.28124204 0.010459615
0001f0 f3 2c 9d bd a4 13 96 3d 4e cc 0c be 99 69 fe bc
       -0.07674589 0.07327965 -0.13749811 -0.031056212
000200 14 f3 7e be e1 e7 27 3e 98 bd 1a 3e 54 8c 34 be
       -0.24897414 0.16397049 0.15111387 -0.17631656
000210 e6 5f 07 be 9e 7f a6 bd fa c9 da bc 18 dd 7b 3d
       -0.13220176 -0.0812981 -0.026707638 0.06149015
000220 74 48 9c 3e e5 57 bd bd 3d 86 35 be 1d fc 09 be
       0.30524027 -0.0924528 -0.17726989 -0.1347508
000230 dc 9a 8d 3d 2b 4d 7a bc b1 b4 f1 3d 8a a0 4d be
       0.06914303 -0.015277187 0.11802042 -0.20080772
000240 af 9a ba 3e 0e a4 8c 3d 4f 6a c4 be 87 de c0 bd
       0.3644614 0.068672284 -0.38362357 -0.09417444
000250 ca c8 51 3d db da 8d bd 23 a0 86 3d 12 5a 05 3d
       0.051216878 -0.06926509 0.065735124 0.0325566
000260 33 46 08 be ab 11 89 3e ce 78 53 bd 73 56 cc bd
       -0.13308029 0.26771292 -0.05162888 -0.099774264
000270 5b d6 23 be 95 bc 2f 3e 9b 7e af bd 0e 93 cf 3e
       -0.15999739 0.17161782 -0.0856907 0.4054188
000280 29 18 8e be dc 17 1e 3d 35 86 1f 3e 7d dd 8e bd
       -0.27752808 0.038596973 0.1557854 -0.06975839
000290 ab d4 5e bd a0 ad 4c 3e 53 79 9b 3d e4 f0 9f bd
       -0.054402035 0.19988108 0.075915 -0.07809618
0002a0 90 6e 41 3c c2 0d dd bd 66 bf a1 be 8b dd 9a be
       0.011806145 -0.1079364 -0.31591338 -0.3024715
0002b0 81 35 c7 3d 7f 34 b2 be f8 8f b6 bd 92 bc 02 bf
       0.09727002 -0.34805676 -0.089141786 -0.51068985
0002c0 08 37 e2 bc f5 85 5e 3e 72 da ef be c0 27 79 be
       -0.027614132 0.21730788 -0.46846348 -0.2433157
0002d0 9f 2a 0c be fa 2b 00 bd 53 bd 15 be 66 a9 80 3e
       -0.13688134 -0.03129194 -0.14623003 0.2512924
0002e0 a0 49 e7 bd 0d 81 35 bd e9 c4 87 be d8 75 de bd
       -0.1129334 -0.044312526 -0.26517418 -0.10862321
0002f0 11 ec cc 3d 89 31 08 be 70 05 a0 bd 08 56 b4 3d
       0.100059636 -0.13300146 -0.07813537 0.08805472
000300 10 54 06 bd 96 d2 2d 3d bb c8 99 be c4 40 bf 3d
       -0.032795012 0.04243716 -0.30035958 0.09338525
000310 3d 43 ac be 62 5d e5 bd 21 fc 15 3e 7e ee e0 be
       -0.3364505 -0.11199452 0.14646961 -0.43931955
000320 25 ce 79 be 80 ed 04 3e 76 96 af be f3 eb be ba
       -0.24395044 0.12981224 -0.3429448 -0.0014566168
000330 37 53 87 bd fb f8 35 bd 96 1c 55 3e f2 ad e0 3d
       -0.06607669 -0.0444269 0.20811686 0.109706774
000340 61 15 8a 3e 27 c1 f6 bd 07 8c 81 be 03 3f c7 be
       0.26969436 -0.1204856 -0.25302145 -0.38915262
000350 52 0d 8c be 5a 19 81 be 6a d1 81 be 9e 49 0c 3d
       -0.27353913 -0.25214654 -0.25355083 0.034249894
000360 ac 25 02 3e b9 f4 27 be eb d3 db be 5c 94 ed bd
       0.12709683 -0.16401948 -0.42935118 -0.11600563
000370 ef ca cc bd a7 48 05 be 49 32 23 3d d1 41 8c be
       -0.09999644 -0.13015996 0.039842878 -0.27393964
000380 64 85 91 be 96 bf 20 3e a0 83 cf bc c7 42 58 be
       -0.2842208 0.15698084 -0.025331318 -0.21119224
000390 18 66 29 be 82 50 ba 3d c3 a4 53 bc 99 a8 bb bd
       -0.16542852 0.09097387 -0.0129177 -0.09163017
0003a0 54 ae c2 bd e9 4f f3 bd a3 cc 52 be ab 17 4e 3d
       -0.09505907 -0.11880476 -0.20585875 0.05031554
0003b0 8c 68 77 3e 0c 74 ae 3d 40 57 e6 bd 31 3d 28 be
       0.24160975 0.08518228 -0.1124711 -0.16429593
0003c0 19 5a 5e 3d 5d da d7 bd 29 9d 04 3e 79 25 46 be
       0.054285143 -0.10539696 0.12950577 -0.19350232
0003d0 b9 43 8c be f0 4b e7 be 6a 77 be be 87 a4 ae be
       -0.27395418 -0.45175123 -0.3720048 -0.341099
0003e0 2f ec 85 3e 4b a9 86 be 97 bf 70 be 69 65 e5 3d
       0.26156756 -0.26301035 -0.23510586 0.11200983
0003f0 70 d9 d0 3d 71 87 6f 3e 91 2a 42 be 41 a5 0e be
       0.10197723 0.2339151 -0.1896155 -0.13930227

edge_lin.0.bias f4 [32]
000000 42 e8 11 bc b1 8c 41 be e1 6f 5a 3e 4d 69 87 3d
       -0.008905472 -0.18901326 0.21331741 0.066118814
000010 2f 4f 6c bd 7d 97 25 be 1b 6a 39 bd 2e 22 32 bc
       -0.057692703 -0.1617107 -0.045267206 -0.010872407
000020 1a 54 91 bd c3 3b 45 3e 63 fb 66 3d d5 04 6b 3c
       -0.07096119 0.19261079 0.056392085 0.014344414
000030 35 92 da 3c 5f 5c 3d be 64 17 e8 ba b1 4d 82 3d
       0.026681045 -0.18492268 -0.0017707166 0.06362475
000040 0a 05 2f 3e 8b d9 ce bd c8 77 0a 3e 9e 38 4a bd
       0.17091766 -0.10100087 0.13522255 -0.0493704
000050 c5 dd 71 3d f6 bd 34 be 43 36 26 be 13 f6 5c be
       0.059049387 -0.1765059 -0.16231637 -0.21578245
000060 63 66 a7 3e 1c c5 60 be 2c 32 ab 3d b5 fe 81 3e
       0.32695302 -0.21950191 0.08359179 0.2538964
000070 ec 80 36 bd 55 0e f5 bb 8c d7 99 3d 17 74 2c 3e
       -0.044556543 -0.007478515 0.075118154 0.1684116

edge_lin.2.weight f4 [32, 32, 1, 1]
000000 4f 5c ff 3d 19 97 cc bd 73 44 1c be 2a f2 1e 3e
       0.12468778 -0.09989757 -0.15260486 0.15522066
000010 21 fe f0 3e 8f b5 8a 3e 27 44 3c 3e 0a b2 de 3c
       0.47068885 0.27091643 0.18385373 0.027184505
000020 b2 48 94 be 30 84 c9 be 42 cf 2b be 22 5b c0 3d
       -0.28961712 -0.39358664 -0.16778281 0.09392382
000030 24 71 f7 bd ed 35 0e be 40 75 31 be 8c 5c ae 3d
       -0.12082127 -0.13887759 -0.17329884 0.08513746
000040 b8 73 d9 3d 77 0d 41 bd 11 83 91 3e 88 e1 cc 3c
       0.10617775 -0.04713198 0.28420308 0.025009885
000050 18 1d f4 3e 16 52 0e bd 08 b7 0e be 3a 72 3f bd
       0.47678447 -0.034746252 -0.13937008 -0.046739794
000060 e2 77 dc bd 10 25 7f be 5f ef 97 3e 68 6a 83 3e
       -0.10765053 -0.24916482 0.29674813 0.2566712
000070 83 64 f9 3d 85 67 d7 3d c8 66 d7 3d 0f 05 89 bd
       0.12177374 0.10517792 0.10517651 -0.06690418
000080 9c 7c 47 3e a7 50 b8 3d 90 d7 57 3e c9 de 6c 3e
       0.19481128 0.08999758 0.21078324 0.23131861
000090 f6 65 01 3f 39 9d 30 be bc 65 e5 be f9 2f 22 bd
       0.50546205 -0.17247476 -0.4480418 -0.03959653
0000a0 26 88 79 3e b6 24 d1 be 1e 8b c3 be 63 7c c3 3e
       0.24368343 -0.4084832 -0.38192075 0.38180837
0000b0 a1 9d 7a 3d 3a d8 36 3b 7b 97 85 bd 86 65 68 3e
       0.061185483 0.0027899877 -0.06523033 0.22694978
0000c0 e2 f0 18 3f 6b 42 86 be 47 b1 ec bd 8d 2a 4a be
       0.5974256 -0.26222548 -0.115572505 -0.19742794
0000d0 e4 f3 aa 3e 09 63 3d 3d f4 47 c8 3d a9 9e 9b bd
       0.333892 0.046237025 0.09779349 -0.075986214
0000e0 cc 25 1d be 65 f9 9c be 40 14 17 3e b3 b2 7c be
       -0.1534645 -0.30659023 0.14753819 -0.24677543
0000f0 3b f5 8b 3e 11 77 42 3e 16 2d ce be 99 a2 07 bf
       0.27335533 0.18990733 -0.40268773 -0.5298248
000100 56 ab be be 9e c9 fd bd cf 48 f5 bd 63 08 cd 3e
       -0.37240094 -0.12391971 -0.11976778 0.4004546
000110 15 ff f9 3e 37 ad 05 bf 20 29 68 3d b0 ed 75 3e
       0.48827425 -0.5221743 0.056679845 0.24016452
000120 e5 16 94 be 93 fa 61 be 4b ed d1 bd 13 51 7a 3e
       -0.28923717 -0.22068243 -0.10250338 0.2444499
000130 d6 3b 73 be 0b ea 2d be 73 75 81 be 31 fd 1e bd
       -0.23753294 -0.16983812 -0.2528492 -0.03881568
000140 bf 01 d6 3e 67 a4 a1 bd 01 5a b7 3e 20 3c 79 bd
       0.41798207 -0.078926854 0.35810855 -0.060848355
000150 03 97 bf 3d 0e b7 40 bd 99 eb f6 be 18 d1 a6 3d
       0.09354975 -0.047049575 -0.48226622 0.0814535
000160 06 9b 03 3e fa 5a 8f be c1 b9 65 be 78 23 a5 bd
       0.12852105 -0.27999097 -0.2243414 -0.08063406
000170 c0 a6 c8 bb 3d 24 8d be 49 7f ae 3e 4f 64 ac 3e
       -0.006123394 -0.2756671 0.34081486 0.3367028
000180 92 db 5e 3c b5 c3 c7 3c 63 2f 68 3d 1a 7b 47 be
       0.013602154 0.024385313 0.056685816 -0.19480553
000190 c1 14 71 be 8f da e9 bc a1 36 97 be ce c7 10 3e
       -0.23543073 -0.0285466 -0.29533866 0.1413872
0001a0 84 16 6f 3e 51 62 85 3e ad 2a 8e bd 8b ee a9 3e
       0.23348433 0.26051572 -0.069417335 0.33189806
0001b0 c1 c8 05 3e ed 3f 46 3e 32 2c 9c bd 7e d6 c4 bc
       0.13064863 0.19360323 -0.07625617 -0.02402806
0001c0 ab 19 d9 3d 19 29 f8 be bb 3c e6 3c ae 89 e4 3c
       0.10600599 -0.48468855 0.02810513 0.027897682
0001d0 31 5b f5 3d 40 62 9f 3e e5 39 ac be b0 da 40 bc
       0.11980284 0.31129646 -0.3363792 -0.011770889
0001e0 06 11 b1 3d 7e eb 8a be b6 ee 47 be bc ee 0c bd
       0.08645825 -0.2713279 -0.19524655 -0.034407362
0001f0 93 85 12 3e 4e 2f 80 be 15 b8 02 3e 9b a4 5c bd
       0.14308767 -0.2503609 0.12765534 -0.053867918
000200 2e ea 47 bd a0 c0 15 3e d3 79 d5 be 26 4f bd bc
       -0.048807316 0.14624262 -0.41694507 -0.02310903
000210 6a 3c 2e be ca f2 d2 3d 95 24 09 be ef 34 2d be
       -0.17015234 0.103002146 -0.13392861 -0.16914724
000220 f9 e3 21 be 9e 32 9e 3c 09 3d ff 3d be 55 a6 3e
       -0.15809621 0.019311246 0.124628134 0.3248729
000230 7f 8b b2 be 6e 62 e1 3d 7f 99 f4 3e d6 60 ff bd
       -0.34872052 0.11005102 0.47773358 -0.12469642
000240 c4 79 86 3e 48 c4 0d 3e c1 ff 18 3d 18 94 1a 3e
       0.26264775 0.13844407 0.03735328 0.15095556
000250 f4 22 56 3d e8 c8 80 3e 4a da de bc b8 ba cb be
       0.052279428 0.2515328 -0.027203698 -0.39790893
000260 d4 f1 83 be 0b a1 a1 3c f5 0d 9f be 2f 5a 36 3c
       -0.25770438 0.019730112 -0.31065336 0.0111299
000270 c7 30 3a be 18 ca 31 bc 17 81 8d 3e 73 48 e5 3e
       -0.1818267 -0.010851406 0.2763755 0.44781837
000280 7b e3 33 be 5b 37 d7 bd a4 e0 1f bd 6f 40 12 3d
       -0.17567246 -0.10508605 -0.039032593 0.03570598
000290 87 6a 12 3d 10 12 54 be 7f c2 2c 3e a3 b6 b0 be
       0.035746124 -0.20710015 0.1687107 -0.3451434
0002a0 d3 0b 5b 3e b2 a8 b4 be 5f 5b 00 be f4 47 ef bd
       0.2139123 -0.35284954 -0.12534855 -0.11683646
0002b0 a4 83 39 3d 4c 5c a0 be 58 fc 9d be 13 19 8b 3d
       0.045291558 -0.31320417 -0.30856586 0.06791892
0002c0 db 8a a7 bc 6d 9b 09 be 92 8c e1 be 21 80 48 bd
       -0.020451954 -0.13438196 -0.4405256 -0.04895032
0002d0 03 ee 2e bd a3 4c ce 3d c1 bd 25 be 85 77 ab bb
       -0.042707454 0.10073211 -0.16185667 -0.0052327537
0002e0 49 f8 bb be 3f 05 2d bd 84 51 bc bd 85 34 c5 bd
       -0.36712864 -0.04224133 -0.09195235 -0.09629158
0002f0 f0 87 c3 be e7 d4 37 bc 83 06 73 be e9 f5 5b be
       -0.3818965 -0.0112201935 -0.23732953 -0.21480526
000300 96 4f 0c bf 56 df 3b bf cc 08 94 bd c9 66 9d bc
       -0.5480894 -0.7338766 -0.0722824 -0.01921405
000310 65 fc a3 3d 01 92 40 bd 9c 89 72 3d cf e2 4a bd
       0.08007125 -0.04701424 0.059213266 -0.049532708
000320 f8 4b 17 3e 51 cb 7b 3e 45 2d d2 3d c1 6e bc be
       0.14775074 0.24589278 0.10262541 -0.3680325
000330 de f8 1d 3e 67 4f 0f bc f8 5a 18 3e 26 5a d2 bd
       0.15426967 -0.008746958 0.14878452 -0.10271101
000340 10 9f 7b 3d 39 0a d2 bc 00 55 10 be eb a3 0b 3e
       0.06143099 -0.02563964 -0.14094925 0.13636748
000350 12 fa a9 be 7a 4d 0f bf 5c d0 6a 3e 95 bd 13 bf
       -0.331986 -0.55977595 0.22931045 -0.57711154
000360 da a5 9e 3e b1 c0 9f 3d 65 f5 e7 3c 01 d4 d4 be
       0.3098591 0.07800425 0.028315255 -0.41567996
000370 54 7f 18 bf cd d5 be 3e 6f 1a f9 bb 00 7b c6 3e
       -0.5956929 0.37272492 -0.007602028 0.38765717
000380 ef 53 21 bb e2 5b 5b be ca 14 82 3d 89 07 bd be
       -0.0024616679 -0.2142177 0.063516214 -0.3691981
000390 1e ea 84 bd 7b 60 40 3d 78 2b d7 be 92 8e 9a 3e
       -0.06489967 0.04696701 -0.42025352 0.30186898
0003a0 ca 51 6a 3d 3d 98 75 be c6 a3 0c 3e 1e c9 ca 3e
       0.057206906 -0.23983856 0.1373435 0.39606565
0003b0 1e bb 14 bd 11 ad 22 be bf 1f 95 3d ca 5d 29 3e
       -0.03631126 -0.15886332 0.07281446 0.16539684
0003c0 b3 b3 09 3f 7a 94 47 be 13 11 de 3c 53 17 fd be
       0.53789824 -0.19490233 0.027107751 -0.49431857
0003d0 8d cb 67 3e bf 4d 75 3e fe 2c 8f be 8d 4a 8d 3d
       0.22636242 0.23955439 -0.27964014 0.06898985
0003e0 54 72 6a 3e dc c2 79 be 61 5c 74 3e 64 25 54 3d
       0.22895175 -0.24390739 0.23863365 0.05179347
0003f0 97 8b c5 bd 74 ff be bd a3 7e df be 49 89 bd bd
       -0.09645765 -0.093260676 -0.43651304 -0.09254701

edge_lin.2.bias f4 [32]
000000 2a ec 66 3e dd 74 2c bd 36 b6 82 3e 8f 33 37 3e
       0.22551027 -0.042103637 0.2552964 0.17890762
000010 d8 b8 a5 bd 16 21 0c be ab 08 55 bd a7 64 65 3e
       -0.08091897 -0.13684496 -0.05201022 0.22401677
000020 06 23 68 be fe 79 bf bd 7f 67 b9 bd 6c 21 36 bd
       -0.2266961 -0.0934944 -0.090529434 -0.044465467
000030 db d9 0e be d1 f7 89 3e da 84 95 3e ea 51 49 3d
       -0.13950293 0.2694688 0.2920292 0.049150385
000040 1d d3 30 3e 3b 83 90 be d5 c2 49 be 08 d2 b5 be
       0.17268033 -0.2822512 -0.19703229 -0.35511804
000050 29 ae 86 bd 26 c5 cd be fe 00 b2 bd 8d c5 26 be
       -0.06576187 -0.40189475 -0.086915955 -0.16286297
000060 94 73 2b 3c b6 45 08 be 54 ba 0b be 65 2c 61 3e
       0.010464568 -0.13307843 -0.13645297 0.21989591
000070 1d 91 b8 bd 8c 87 88 3d f4 2d 7b 3d f4 dd 2c 3e
       -0.09012053 0.066664785 0.06132312 0.16881543

vertex_output_lin.0.weight f4 [32, 1, 32, 1]
000000 01 17 8a bd 3b 85 c5 3d e6 24 0e 3e 08 02 44 3e
       -0.06742669 0.09644552 0.13881263 0.191414
000010 fb 84 b1 bc a8 f6 d1 bc fd 49 9a be 87 99 99 3e
       -0.021669855 -0.02563031 -0.30134574 0.29999945
000020 52 74 e4 be a2 5f aa 3d 2d 3d a2 bc f2 5f 07 3e
       -0.44619995 0.08319022 -0.019804562 0.13220194
000030 31 be 7d be a7 92 b2 3d 2f f3 6b 3e e2 1c 1e 3d
       -0.24779584 0.08719378 0.23041986 0.038601764
000040 40 e4 12 3e 32 1a d1 bd 76 ff b6 3d 8e 46 30 be
       0.14344883 -0.102100745 0.08935444 -0.17214414
000050 fe c8 05 3e 7f fc ab be 50 f8 77 be 56 e2 1c be
       0.13064954 -0.33591077 -0.24215817 -0.15320715
000060 a0 b5 1b be 37 24 41 3e 42 6f 07 be 60 b0 75 be
       -0.15206003 0.18861471 -0.13226035 -0.23993063
000070 45 1c 79 be ac 41 ff bd b2 ba 33 be 3d 90 69 be
       -0.2432719 -0.12463698 -0.17551687 -0.22808929
000080 18 62 24 be 82 77 23 bd 4d 91 6a 3d cd ce 9a be
       -0.16053045 -0.039908893 0.057267476 -0.302359
000090 9c 25 ed bd a6 92 a0 3d e0 f1 ce bd 4b 89 58 3d
       -0.11579439 0.07840471 -0.10104728 0.052865308
0000a0 1c 35 af 3d 86 b7 42 bd 3e 1f 11 bc ce 28 16 3c
       0.08555052 -0.047538303 -0.008857546 0.009165002
0000b0 e6 3b 59 be 06 48 16 3e 35 5b 26 be 54 b3 93 3d
       -0.21214256 0.14675912 -0.1624573 0.072119385
0000c0 e5 87 8b be ae 0a b6 bd 27 37 a9 bd 17 99 ef bc
       -0.27252117 -0.08888756 -0.082624726 -0.029247804
0000d0 64 91 0a 3d b9 16 c0 bd 3f a4 59 bc c4 ec 89 bd
       0.03383006 -0.09379334 -0.013283788 -0.067346126
0000e0 69 ae b2 bc 49 54 c6 3d d0 7e f7 bc 01 68 f7 bd
       -0.02181168 0.09684045 -0.030211836 -0.12080384
0000f0 82 54 26 3d a0 06 d2 3c aa be 0f be 6b 38 1d 3e
       0.040607937 0.025637925 -0.14037576 0.15353553
000100 9a 73 3b 3b ea 48 aa 3c 90 37 cd 3e f9 12 a3 3c
       0.002860284 0.020786721 0.40081453 0.019906508
000110 57 e2 7d 3e 28 4e fb be b5 c5 a3 3e 1f 79 89 bd
       0.24793373 -0.49083066 0.31986776 -0.06712555
000120 b7 ce 44 be 8f e4 76 be 43 f6 2c be d4 51 43 3e
       -0.1921948 -0.24110626 -0.16890816 0.19074184
000130 00 7d 18 bf e6 bc 98 be c0 27 06 bc e1 08 29 3e
       -0.59565735 -0.29831618 -0.008188188 0.16507293
000140 24 3b b7 3d ac 96 55 bd be a6 88 3e 70 90 2e bd
       0.08946827 -0.052145645 0.26689714 -0.042618215
000150 79 b0 cf bd 98 59 52 3d 00 43 3b be 8f 3e 8d bd
       -0.10141081 0.051354975 -0.18287277 -0.06896698
000160 51 8f 35 be 54 49 12 be 9f 3c 89 be df 25 e1 3d
       -0.17730452 -0.14285785 -0.26804063 0.109935515
000170 4f 28 3b be e8 ae 43 bd a6 a1 42 bf 0f ed 9e 3d
       -0.18277095 -0.047774225 -0.76027906 0.07760059
000180 80 03 f1 bd 43 d0 13 3d f7 3f 2e 3e bb e6 b5 bd
       -0.11768246 0.036087286 0.17016588 -0.08881899
000190 c4 e7 1f 3e 47 33 a4 bd cf 94 e4 3e 6e 84 5e 3e
       0.15615755 -0.08017593 0.44644782 0.21730205
0001a0 5a ec 2d bf 60 14 aa 3e e7 f8 e2 3d 84 d2 4d be
       -0.6793877 0.3321867 0.110826306 -0.20099837
0001b0 bd 94 44 3e 32 6a bc bd 76 ce f5 be e9 21 1b 3e
       0.19197364 -0.09199943 -0.4800908 0.15149654
0001c0 86 b3 af 3d 5c 11 89 be 0b 43 58 3d 8b ce 16 be
       0.08579163 -0.26771057 0.052798312 -0.14727227
0001d0 1b 17 3f 3d 89 7e 47 3e 82 9e 79 3e 19 bd c4 bd
       0.046652894 0.19481863 0.24376872 -0.0960638
0001e0 8a 3f 31 3e 0b bb fc bc 3f ee 3c 3f a0 ae 62 be
       0.17309394 -0.030850908 0.73801035 -0.22136927
0001f0 b1 35 8f 3e 67 fc ed 3d 36 1d 7b 3d 49 2f 4c 3e
       0.2797065 0.116204076 0.061307155 0.19939913
000200 f0 cd 30 be d1 15 53 3d 3d 4b 62 bd 20 db 9b bd
       -0.17266059 0.051534478 -0.055247534 -0.07610154
000210 35 60 16 be a2 59 2e be 22 83 b0 bd 81 e1 40 be
       -0.14685138 -0.1702638 -0.086187616 -0.18836023
000220 32 8f 8f bd e0 cb f8 3d 70 70 25 3b 02 e1 f7 3b
       -0.07009734 0.12148261 0.002524402 0.007564665
000230 e5 da 14 bc 3a c3 5d bd 30 5a 1f be ae 87 e2 bd
       -0.009085392 -0.05414126 -0.15561748 -0.11061035
000240 43 19 3e be 5b c4 3f 3d 2d 83 b0 3d 2e 2a 01 3e
       -0.18564324 0.04681812 0.0861877 0.12613747
000250 dd 42 91 bd 01 47 ae 3c 4b 55 68 bd 4c b7 3f 3d
       -0.07092831 0.021274092 -0.056721967 0.046805665
000260 ab f2 e4 3c 48 6e d8 bc 24 ca d9 bd 71 89 54 3c
       0.027947744 -0.026419774 -0.106342584 0.012972222
000270 63 53 0b be e1 a1 27 be 0a 37 ab bc 32 3f 4e 3d
       -0.13606028 -0.16370346 -0.020900268 0.050353236
000280 19 45 86 3c de 6a b9 be d4 df 10 3d 01 7d 21 bd
       0.01639037 -0.36214346 0.03536971 -0.039425854
000290 ce 49 a0 3d 16 c4 04 be 4a da 22 be 7e 08 50 be
       0.07826577 -0.12965426 -0.15903583 -0.2031574
0002a0 af 65 6d 3e e1 b4 52 bd 7e 73 ca bd bc cb a8 3c
       0.2318332 -0.05144203 -0.0988531 0.02060496
0002b0 a8 ef 82 be 60 a3 0d be 72 ba a6 3b e2 8a ae bd
       -0.25573468 -0.13831854 0.005088144 -0.085225835
0002c0 d3 39 1e bd 8c 43 6c be ec 5b 97 be 31 68 ac 3d
       -0.038629364 -0.23072642 -0.29562318 0.084183104
0002d0 c2 cd cd 3d 66 6c 88 be e4 33 76 be 3e 06 aa bd
       0.10049011 -0.266452 -0.24043232 -0.08301972
0002e0 07 e4 3e 3d 59 23 2c be ff 8a 0e 3d 83 c7 ee bd
       0.046604183 -0.16810359 0.034800526 -0.116591476
0002f0 ca 0f 26 bd 76 7e 22 be 6a 12 b0 bd dc fa 4a be
       -0.0405424 -0.15868554 -0.08597262 -0.19822258
000300 18 c7 95 bd d2 86 5c be 3d a4 5b be 28 7f 04 be
       -0.07313365 -0.21535805 -0.2144937 -0.12939131
000310 0c cb 3d 3d 30 60 3c bd 7e ef c3 3e 0e 8e 69 be
       0.04633622 -0.04599017 0.38268656 -0.22808096
000320 22 70 94 bd 0c 42 13 be 02 10 22 bc 81 79 da 3d
       -0.0724795 -0.14380664 -0.009891512 0.10667706
000330 3f 63 58 3d 43 fa 80 3e 53 72 37 3e b3 9a 89 bd
       0.052829023 0.25190935 0.17914705 -0.0671896
000340 e6 f4 3f be f6 f1 be bd 1b c5 28 bf 2b f6 69 bc
       -0.18745765 -0.09323494 -0.6592576 -0.014279882
000350 db 25 10 3e 47 c2 01 3f 6b ba 17 3f 60 8a 10 bf
       0.1407694 0.5068707 0.59268826 -0.56461143
000360 64 f3 fe 3d 16 06 75 be 04 7c 00 3f b8 7c 83 3e
       0.12448767 -0.23928103 0.5018923 0.2568109
000370 29 76 75 bc 51 bc bb 3e 8e 81 be 3e a5 32 07 3f
       -0.014981785 0.36667112 0.37208217 0.5281165
000380 9b db 44 3e 85 af 11 bf 66 d2 53 be bd 43 1e 3d
       0.19224398 -0.56908447 -0.2068573 0.03863882
000390 82 f1 82 be bf d1 c5 3d 89 bf cc 3d 90 1d 3e bf
       -0.2557488 0.096591465 0.0999747 -0.7426386
0003a0 8b 3f 4f 3e f2 c1 27 be 2a 5c a1 be d0 2d 09 3e
       0.20239083 -0.16382578 -0.31515628 0.13396382
0003b0 b7 96 ca bd 72 63 37 3e d1 28 5b 3e 51 2c 2a bf
       -0.09892028 0.17909029 0.21402289 -0.6647387
0003c0 d3 25 f4 be 1c 7a 15 be 29 42 af bf 0e 00 0b 3e
       -0.47685108 -0.14597362 -1.3692065 0.1357424
0003d0 ad d9 ae 3d ff b2 df 3d a8 e1 af 3d 33 83 2a bd
       0.08537612 0.10922813 0.085879624 -0.041629028
0003e0 85 ad 36 3e 8c 5a c2 be e1 2a ed 3e 23 36 02 bd
       0.1783963 -0.37959707 0.46321777 -0.03178991
0003f0 95 76 16 be e6 2a 44 3d 52 f8 35 3e 40 24 8c 3e
       -0.14693673 0.047892474 0.17770508 0.27371407

vertex_output_lin.0.bias f4 [32]
000000 cd 18 8e 3d 00 86 8e be 9c bf 1d 3e 9f 02 f9 bd
       0.06938324 -0.2783661 0.15405124 -0.12158703
000010 8f 40 ad bd 8f b8 09 be fd 98 70 3e 21 0a d4 3d
       -0.08459579 -0.1344931 0.2349586 0.103534944
000020 19 93 7d bb dc bf 96 bc 22 64 93 3e 4b 33 88 be
       -0.0038692413 -0.018402033 0.28787333 -0.26601633
000030 5b db 2b be 4f f6 07 3e 3e 4f 0d be a1 27 8f 3e
       -0.16782896 0.13277553 -0.1379976 0.27959922
000040 94 08 0e 3e 46 35 4a 3e 5e f4 64 bc aa e5 04 3e
       0.1387046 0.19746885 -0.013974277 0.12978235
000050 3d 20 8f bd 8e 3e 62 3e f2 1c 38 3e ce 86 9e 3d
       -0.06988571 0.22094175 0.17979792 0.07740556
000060 cf 06 e3 3c b5 11 0b 3e ed 0d f1 3d 0f 89 6a 3d
       0.027713208 0.13580973 0.11770234 0.057259616
000070 12 6c a4 bd 81 0b 01 be bd fa 02 3e 43 fe 22 be
       -0.08028425 -0.12602045 0.12790962 -0.15917306

vertex_output_lin.2.weight f4 [1, 32, 1, 1]
000000 65 27 e7 bd 5c 75 95 3d 2a 38 2e be b7 12 c9 3d
       -0.11286811 0.07297775 -0.17013612 0.09818023
000010 1f f7 fa bc dd 1b f7 3c 53 12 bd 3e 37 7b dd 3e
       -0.030635415 0.030164653 0.36928043 0.43258068
000020 2e 37 6f be b8 05 87 bd 8a f3 a0 3e 3a de 9c bd
       -0.23360893 -0.06592888 0.31435806 -0.07659574
000030 22 e6 c3 3c 7a 72 07 be 61 c4 9d bb f2 82 d7 3e
       0.023913447 -0.13227263 -0.00481467 0.4209209
000040 41 af e3 bd ac 5d 94 3e 4f 36 30 be 8b 0a 21 be
       -0.111174114 0.28977716 -0.17208217 -0.15726678
000050 6a 99 15 3e 3d ab fb 3e 6e 76 89 be a0 f4 ca bc
       0.14609304 0.49154082 -0.26848167 -0.02477485
000060 9e db 65 be fe 8b 23 3f 80 c9 bc 3c 9e ce e0 3e
       -0.22447059 0.63885486 0.023045301 0.43907636
000070 ff da c5 bc 0e 8b 4b 3d b8 3b d5 3e 5a 38 bd 3e
       -0.024152277 0.04969316 0.41647124 0.36957055

graph_output_lin.0.weight f4 [1, 618]
000000 c2 b9 24 be 65 26 3a be 72 c0 a5 bd 1a 87 56 be
       -0.16086486 -0.18178709 -0.08093347 -0.20949975
000010 d9 1b 99 bd 21 80 21 3d d6 fa cb 3d 98 b4 1b bd
       -0.07476015 0.039428834 0.099599525 -0.038014024
000020 99 0d ad bd 44 60 6b be 4e 5e 9b 3e 23 5e be 3d
       -0.08449859 -0.22985941 0.30345386 0.09295299
000030 0c 5c 2c be 06 29 52 3e 74 f2 9b bb 37 b8 fc bd
       -0.16831988 0.20523462 -0.0047591273 -0.12339824
000040 79 84 cf 3d d3 84 22 bd c5 bd 34 3d 7d dd 87 3d
       0.10132689 -0.039677452 0.04412629 0.066340424
000050 fe 63 43 be 38 55 60 bd e0 b4 38 bd 16 52 42 bd
       -0.19081113 -0.05476877 -0.04509437 -0.047441565
000060 04 a9 6f 3d 6c 0a e2 bd 8f a2 12 be dc 53 21 bd
       0.058510795 -0.11037144 -0.14319824 -0.039386615
000070 48 a1 5d bd 93 2e 0b 3c dd 89 17 3d cd 3f 0d bd
       -0.054108888 0.008494991 0.03699671 -0.034484673
000080 a0 5b a6 bd 70 ab f1 bd 38 aa 9c 3e fa b5 36 3c
       -0.08122945 -0.11800277 0.30598617 0.011151785
000090 14 b0 62 bd d3 35 0f 3e 96 d9 18 3e fe 92 e9 3b
       -0.055343702 0.13985376 0.14926752 0.0071281185
0000a0 f7 2f 72 bd ef c8 1e 3c 7b f5 aa bc 43 87 45 3e
       -0.059127774 0.009691461 -0.020869007 0.1928988
0000b0 51 58 24 bd f3 25 3c 3e 4a 49 0f 3e 48 e2 19 3e
       -0.040123288 0.18373851 0.13992801 0.15027726
0000c0 8a 3c 9a be 83 29 d7 3b 32 4d b4 bc 7d 9d 83 3d
       -0.30124313 0.006566228 -0.022009466 0.06426523
0000d0 c2 6d 89 bd e6 70 52 3d 17 3d 18 be a7 2e 4e 3d
       -0.06710388 0.0513772 -0.14867054 0.05033746
0000e0 e2 b0 ae be aa 35 82 3d 83 bb 7d 3d fe fb 22 be
       -0.34119326 0.06357892 0.061946403 -0.1591644
0000f0 4c e7 0c bc 76 50 ad bd 50 0f 2b be 1a 51 ae be
       -0.008600067 -0.08462612 -0.1670506 -0.3404625
000100 13 ea 8d be c2 ba ca bb eb d7 3b 3e 15 4d ae 3d
       -0.27717647 -0.006186814 0.18344085 0.08510796
000110 20 f6 91 3e d3 4e 36 be 73 dd 16 3e d7 e1 e7 bd
       0.2850809 -0.17803507 0.14732914 -0.113223724
000120 af 88 11 bc d0 0b ad 3d 62 2b 8d be e7 58 f6 bd
       -0.008882686 0.08449519 -0.2757216 -0.120286755
000130 11 46 a8 bd 43 40 8c bc 99 fa 95 3d bd 3e ba 3e
       -0.08216489 -0.017120486 0.07323188 0.3637599
000140 07 b1 b9 be 46 95 aa 3e 7c fb f9 3e 64 90 21 3e
       -0.36267874 0.33317012 0.4882468 0.15777737
000150 8a 49 06 3e af 05 01 3d e4 d3 37 bd ca 97 3a bd
       0.1311399 0.03149956 -0.04487981 -0.045554914
000160 b8 de bb 3d 9a 6d 02 bd a8 48 4c 3d 64 56 8d 3c
       0.091733396 -0.031842805 0.049873978 0.017253108
000170 78 1e 97 bd 6b b5 41 be 13 16 b3 3c 16 46 ce bd
       -0.07378858 -0.18916862 0.021861112 -0.100719616
000180 a1 6a 19 bd 53 c9 16 bc c1 b2 8b be 0f fa 54 bc
       -0.037455205 -0.009203273 -0.27284816 -0.012999072
000190 b5 15 f9 bd 6d 99 8e 3c 15 0e 9d bd 55 fb f7 bd
       -0.121623434 0.017407143 -0.076687016 -0.12108485
0001a0 94 c5 89 3e 71 8e b6 ba 03 fb ce 3c 64 01 57 be
       0.26908553 -0.0013927949 0.025266176 -0.20996624
0001b0 6b 81 50 be a7 0f 44 bd 85 63 e4 3d 69 77 dd bd
       -0.20361869 -0.04786649 0.11151794 -0.10813791
0001c0 10 bb 2d bd a1 f7 47 be b9 a3 07 3f ed ff b4 3d
       -0.042414725 -0.19528057 0.52984196 0.088378765
0001d0 d2 ad c9 bd b6 36 3e be 17 0c 05 bd 02 d6 17 bd
       -0.09847607 -0.18575558 -0.032482233 -0.037069328
0001e0 3f 9b 0c 3e 0e c1 db 3c a6 26 f1 3c 27 db 94 be
       0.13731097 0.026825454 0.029437374 -0.2907345
0001f0 15 62 df 3b 80 c7 67 be cf 97 93 bd 2b 7f 4d bd
       0.006817112 -0.22634697 -0.072066896 -0.050170105
000200 11 09 d3 bd fe ab 61 be bb 15 7f bd 9a 12 94 bd
       -0.10304464 -0.22038266 -0.062276583 -0.072301105
000210 a1 3d 4d bd 54 ea 13 3e c6 d6 a5 3e 2b fa b4 be
       -0.050107602 0.14444858 0.32390422 -0.35347113
000220 b0 81 cf be fa d4 e7 bd 89 02 1d be 08 de d0 bd
       -0.4052863 -0.11319919 -0.15332998 -0.10198599
000230 dd 5f 7d bc 4c 3f bf 3d 0f 25 74 3d 30 54 36 3e
       -0.01546475 0.09338245 0.059605654 0.17805552
000240 01 36 67 3e 16 f5 8d 3d 2e f0 83 3e 79 bb a1 3e
       0.22579195 0.06931512 0.2576918 0.31588343
000250 5f 2b ef bd a3 8e 85 bd 83 ce 82 bd 31 61 53 3e
       -0.11678194 -0.065213464 -0.06387045 0.20642544
000260 81 15 3e bd e7 ed cf 3b 53 8f 23 bd eb ac 4d 3e
       -0.046407226 0.006345499 -0.039931607 0.20085494
000270 80 b7 a6 3d 87 5d 79 be 2f a2 34 bd e5 b2 26 bd
       0.081404686 -0.24352084 -0.044099983 -0.04069795
000280 27 7e 96 3d 83 66 65 3e 0f 7c 9f 3d 58 a5 f5 3e
       0.073482804 0.22402386 0.07787334 0.4797771
000290 b2 b0 80 3e 6e 44 3d 3e c9 fd 09 3e 1a d3 56 3d
       0.25134808 0.18483135 0.13475718 0.052447416
0002a0 df 2d 04 bd d8 ae 66 3e 02 cc 58 3e cd 3e 19 3d
       -0.03227031 0.22527635 0.21171573 0.037413407
0002b0 83 6d bb bd ce a9 9f 3d 79 8e f5 3b 53 98 a6 bc
       -0.09151747 0.077960595 0.0074937907 -0.020336306
0002c0 c4 29 f8 bd f9 69 db 3e 8e 3e 1e be b8 a4 4a 3d
       -0.12117341 0.42854288 -0.1545355 0.049473494
0002d0 d7 f1 61 bd 07 35 be 3d 1f 6c b1 bd 90 69 9d 3d
       -0.055162277 0.09287458 -0.086632006 0.0768615
0002e0 7e b8 9f bd 8f f5 81 3c 67 0a 2a bf 35 38 21 3e
       -0.07798861 0.015864162 -0.6642212 0.15744098
0002f0 e0 f3 1d 3e a5 68 90 3e bc f6 3c be 1d 19 bc 3e
       0.15425062 0.28204837 -0.18453497 0.3673791
000300 3a 04 b7 3a 94 43 17 bc 6a 42 07 be d8 31 89 be
       0.0013963052 -0.0092324205 -0.13208929 -0.2679584
000310 28 a7 cd bd 61 4b a0 3d 16 91 14 be 86 7d ae bd
       -0.10041648 0.078268774 -0.14508471 -0.085200354
000320 c3 ea 51 bc 52 8d 76 3c 09 b0 43 3e a5 fc ad be
       -0.012812319 0.015048342 0.19110121 -0.33981815
000330 46 e3 77 3e a9 66 cc 3e 9a b7 a8 3d a5 ba 51 3d
       0.24207792 0.39922073 0.08238144 0.05120339
000340 38 df 2a bc da 2c 00 3e 1f f0 3c 3e 58 10 1a 3e
       -0.010429196 0.1251711 0.18450974 0.15045297
000350 65 18 62 be 4d 3c 71 3d 8b 0d 9a 3d 5c 37 5b bd
       -0.22079618 0.058895398 0.07522114 -0.05351959
000360 09 28 76 bd dd c3 ac 3d 5e 9b 57 bc 74 09 58 3c
       -0.060096774 0.084357955 -0.013159601 0.013185848
000370 8d 5a e5 3d 43 3b c0 3c 75 c9 ab bd 95 bf c5 bb
       0.11198912 0.023465758 -0.08388034 -0.0060348012
000380 70 0c 0d be 5f 00 c5 3d 1f fa 02 bd f4 77 1c 3d
       -0.13774276 0.096192114 -0.031976815 0.038200334
000390 65 1f 68 bd 4e a9 9f bd a6 39 ac bd a5 16 7e 3d
       -0.056670565 -0.07795964 -0.08409433 0.062033314
0003a0 f7 66 bc bd c9 97 ec bd c4 6b c1 3c 27 9e b0 bd
       -0.091993265 -0.11552388 0.023610957 -0.08623915
0003b0 c6 77 ba bd bc 08 97 be 6c 83 8d 3d 74 a0 39 be
       -0.09104876 -0.2949885 0.06909832 -0.18127614
0003c0 0b 01 a3 3d 6a d1 09 bd 88 e9 85 3e be f5 29 be
       0.07959183 -0.03364698 0.26154733 -0.1659765
0003d0 3b 8d 0d bd f0 ab a8 bd 13 b9 97 be 26 15 8b 3e
       -0.034558516 -0.082359195 -0.29633388 0.27164572
0003e0 b7 78 7b be 82 68 4d be 44 c7 3e 3d bb 26 46 3e
       -0.24557768 -0.20059398 0.046576753 0.19350712
0003f0 69 38 cb bd d0 2c f0 bb 32 d4 fd 3d 9f fd 4d bd
       -0.09922869 -0.007329561 0.12393989 -0.0502907
