reachability_classification/weights/SimpleMultiplePassGNNReachabilityNet_epoch_62.pt (torch_old, 36685 bytes, 16 tensors)

x_lin.0.weight f4 [32, 1, 1, 11]
000000 94 fb 88 bd c2 89 17 be 14 8e 04 be f7 c6 c0 bf
       -0.0668861 -0.14798644 -0.12944824 -1.5060719
000010 ea 67 8b be 69 78 32 bd e3 07 02 bd 9c 83 d1 3d
       -0.27227718 -0.043571863 -0.031745803 0.102301806
000020 df 25 9f bc 9b b5 ba 3d 5d c9 ab be 3b 6a 97 3d
       -0.019427238 0.0911667 -0.33552065 0.07393309
000030 4d 99 92 bd 55 e2 c8 bc 95 b4 11 3e 6e 7e 26 be
       -0.07158146 -0.024521986 0.14229043 -0.16259167
000040 15 e4 fb be 48 6c b0 bd 71 07 40 be 8d 0d 5c 3e
       -0.4919745 -0.08614403 -0.18752839 0.21489544
000050 a0 47 a6 be 4a 73 8a 3d 5b c3 d7 be bf b1 84 3d
       -0.3247652 0.06760271 -0.42141232 0.06479215
000060 da 00 b2 3d 4b 8e 89 be e6 b0 92 3e 87 ee e5 3d
       0.08691569 -0.26866373 0.28650588 0.11227136
000070 d6 82 bd 3d e3 29 bd be 11 9a f8 3d e7 8c 30 3f
       0.092534706 -0.3694602 0.12138761 0.68965
000080 47 8c 3e bd fa dd eb 3d fa ba 36 be e6 d9 bc be
       -0.046520498 0.11516948 -0.17844763 -0.36884993
000090 c5 d4 f8 3e 80 96 c5 bd a7 f4 90 bd bc 21 25 bf
       0.4859983 -0.09647846 -0.07077914 -0.645046
0000a0 54 1f 8c bd 9d 93 d9 bd 23 ba 22 bf 78 2f 7a be
       -0.06841913 -0.10623858 -0.6356527 -0.2443217
0000b0 e2 19 e0 bc ea 8f 10 3e 28 85 5b 3d f6 26 1c bd
       -0.027356092 0.14117399 0.053593785 -0.038123094
0000c0 69 eb cd be c1 cb 7f 3d 0a 46 3b be 19 f3 c4 3e
       -0.40218666 0.062450174 -0.18288437 0.3846672
0000d0 78 0a ce 3e 0d 57 8f bd 30 56 58 be 91 72 7d 3d
       0.40242362 -0.069990255 -0.21126628 0.061876837
0000e0 81 fb 19 be 22 91 bf bd 9b ae 0f 3f 24 72 f9 3d
       -0.15037347 -0.09353854 0.561258 0.12179974
0000f0 a9 20 13 3e f4 ea 0f 3f cc ba 43 3c 57 93 02 be
       0.14367928 0.56217885 0.011946391 -0.12751518
000100 d0 b9 0d bf 8d 5a 4c be bc 10 a7 be 65 af bb 3d
       -0.5536165 -0.19956417 -0.32629955 0.09164313
000110 19 96 9d bd b2 c5 d7 3e 71 d0 80 be fb b6 24 3e
       -0.076946445 0.42143017 -0.25159028 0.16085427
000120 b0 97 f4 3c 12 64 67 3e 50 49 8d bf da 2b c4 3e
       0.029857486 0.22596768 -1.1037998 0.38314706
000130 50 a0 f2 bc 37 b3 0c bf cc 4f 67 be ca f2 9c be
       -0.029617459 -0.5496096 -0.22589034 -0.30653983
000140 96 85 53 be 41 ef 9c be e1 b5 33 3a 84 92 aa 3e
       -0.20656428 -0.30651286 0.000685541 0.33314908
000150 04 d5 a4 3e 21 94 57 3e 46 13 b0 3d e1 69 4e 3e
       0.32193768 0.210526 0.08597426 0.20157577
000160 a8 3e cf 3e 76 e4 9f be 2c 56 9a be c7 b0 8c be
       0.4047749 -0.3122899 -0.3014387 -0.2747862
000170 c1 1f ad 3e ed 4b 95 be f6 ea bc bd d7 5d c0 3d
       0.3381329 -0.2915949 -0.09224503 0.093928985
000180 52 6f 99 3e b3 6d 37 3e d4 21 4e 3e d6 6b 0d 3f
       0.29967743 0.1791294 0.20130092 0.5524267
000190 d7 84 16 bd 95 b1 bf 3e 7b 90 07 3e 9b 6b 41 bd
       -0.03674778 0.37440172 0.13238709 -0.04722176
0001a0 ed de 71 3e 9c c7 83 3d 52 11 2c 3f 97 e5 63 bd
       0.23620196 0.06434557 0.6721393 -0.055638876
0001b0 e1 dc 75 3b 18 34 0d be c5 35 c5 bd 4f 9b db 3d
       0.0037515687 -0.13789403 -0.09629396 0.10722982
0001c0 39 5e 4f 3e 09 71 c3 3e 22 9e 15 be 18 ff 4a 3e
       0.20250787 0.38172176 -0.14611104 0.19823873
0001d0 53 75 90 bd 03 96 e1 bd 2b 4c ad bd c2 d3 fa 3d
       -0.07053628 -0.110149406 -0.084617935 0.12247421
0001e0 25 e1 c3 be 87 b3 76 be 5e 49 39 3e f9 80 30 bd
       -0.3825771 -0.24091922 0.18094394 -0.043091748
0001f0 7b aa eb 3c ae 8d d9 be a8 42 d0 3d 2b bb be be
       0.028767815 -0.42490906 0.10168964 -0.37252173
000200 d6 06 b3 3e c7 f8 0e 3e 18 8f f1 bd 9c 75 69 3e
       0.34966153 0.13962089 -0.11794871 0.2279877
000210 c3 49 09 bf 55 5d d1 bd 8d 45 21 be 85 09 2f be
       -0.53628176 -0.1022288 -0.15749188 -0.17093475
000220 06 43 b2 be ab c3 a4 bd b5 18 99 3e ec cd e3 3e
       -0.3481676 -0.08045133 0.29901662 0.44493043
000230 1c ef 1f bd e6 33 c0 bd a4 c4 00 3f a7 f7 d7 3d
       -0.03904639 -0.09384899 0.5030005 0.10545283
000240 6c 1d 30 3c d8 d9 b0 be e4 00 2c 3d 53 ac a1 be
       0.010749202 -0.34541202 0.041993037 -0.31576785
000250 f6 2b 86 bc 1b 8d f2 be 65 91 6c 3b 3a df f1 bd
       -0.016378384 -0.4737328 0.0036097404 -0.11810155
000260 50 b1 3f 3f 02 82 43 bf 39 15 b1 be 53 56 78 be
       0.7487993 -0.7637025 -0.34586504 -0.2425168
000270 ed 5a 83 be 9c bf 99 3d ca 7d a4 3e bf 8d 84 be
       -0.25655308 0.0750725 0.3212722 -0.25889394
000280 28 72 ac 3e b1 38 d8 be 94 1f e4 bd 2c c4 9e 3e
       0.33680844 -0.42230752 -0.111388355 0.31009042
000290 65 72 fa be c6 1f d8 3d c5 9a a5 bc c6 18 8f 3e
       -0.489154 0.10552935 -0.020215401 0.27948588
0002a0 7f 2e 68 3b 07 bf c2 be 77 7a 33 be c7 d3 8e 3e
       0.0035428104 -0.38036367 -0.17527185 0.27895948
0002b0 4a 69 a4 3d ab bc b4 bd 02 6e 59 3f bf f4 5a bf
       0.08027895 -0.08825048 0.84933484 -0.855297
0002c0 12 01 22 3f b9 8a 15 3e ab 21 27 3e 8a e4 ef be
       0.63282883 0.146037 0.16321437 -0.4685405
0002d0 24 e8 cc 3e 4b a1 e2 bd 14 e8 90 3e e9 07 06 be
       0.4002086 -0.110659204 0.28302062 -0.13088955
0002e0 18 41 9d 3b 81 1a 08 bf 37 c9 35 3f 0a a4 10 be
       0.0047990195 -0.5316544 0.71010154 -0.14125076
0002f0 2a 1c a2 3d 57 ad f8 3d 43 b3 f4 be bd 86 33 be
       0.07915528 0.12142437 -0.47793016 -0.17531867
000300 19 11 48 be bd 89 30 3e 5c 8b 9f be 2b 46 96 bd
       -0.19537772 0.17240043 -0.3116101 -0.07337602
000310 de 04 67 be 4f ea 00 be e4 71 39 3e f5 d2 c7 be
       -0.2256045 -0.12589382 0.18109852 -0.39028135
000320 c8 a8 1f 3d c0 52 f7 be 56 ad 6a bc 05 e4 05 3c
       0.03897932 -0.4830532 -0.014323553 0.00817204
000330 19 d4 ce bc d7 ad f6 3c bf 88 14 be 5a ea 70 bf
       -0.02524762 0.03011219 -0.1450529 -0.9410759
000340 1c 62 57 3f 58 a3 94 3e 8d 57 35 bd dc 68 87 bd
       0.8413408 0.2903087 -0.044272948 -0.06611797
000350 95 58 0a 3f 28 bb 47 3e c8 f0 93 be cc 9e 32 bd
       0.54041415 0.19504988 -0.2889464 -0.04360847
000360 4e f2 20 be 91 49 02 bf 79 35 1a bf 5f c7 fe 3e
       -0.15717432 -0.50893503 -0.6023784 0.49761483
000370 7b 61 5a 3d 4e ef 8e be e9 75 66 bc b8 8e e5 3e
       0.05331562 -0.2791695 -0.014066198 0.44835448
000380 a3 0f 78 3f 35 1f 46 be 77 78 8f 3e 20 52 28 3e
       0.9689886 -0.19347842 0.28021595 0.16437578
000390 3a 83 d5 3d 64 30 20 3f 22 57 df be 8c ba ad 3d
       0.1042542 0.6257384 -0.43621165 0.084828466
0003a0 29 a1 43 3e 3d f7 31 be 18 a5 6f bb f2 fe 45 3e
       0.19104446 -0.1737947 -0.003656691 0.19335535
0003b0 d0 bc ec be bc 09 96 be 5e 82 52 be 66 6a 77 3e
       -0.46237803 -0.29304302 -0.20557544 0.24161682
0003c0 cb 1c 48 bf 04 cb 18 3f 93 d5 51 3e 72 05 7a bd
       -0.78168935 0.5968478 0.20491628 -0.06104035
0003d0 00 11 9b 3e e3 47 8f bd ab bb a1 be da a5 93 3d
       0.30286407 -0.06996133 -0.31588492 0.07209368
0003e0 2c 8f f5 bd 76 a8 3b 3e ee 2b a5 bd ad b6 0e 3f
       -0.119901985 0.18325981 -0.080650195 0.5574749
0003f0 7a 65 3b bf ba 55 44 3d 78 5c 7c bd 84 3e 7e 3d
       -0.73201716 0.047933318 -0.061611623 0.06207134

x_lin.0.bias f4 [32]
000000 2b f8 e1 be dc cc f1 be a4 73 17 be f6 c5 c7 3d
       -0.4413465 -0.47226608 -0.14790207 0.09754555
000010 da 20 28 be eb ad 9b be 13 6d 49 3e f3 e6 56 bd
       -0.16418782 -0.30406126 0.19670515 -0.052466344
000020 7f d4 f1 3e d9 6a ab 3d eb 61 dc be 39 0e 8d 3e
       0.47232434 0.08369989 -0.43043455 0.27549914
000030 47 19 0a 3f fe 27 9a be 5f b9 9c bd 47 23 26 be
       0.5394482 -0.30108637 -0.07652544 -0.16224395
000040 16 37 fa 3e a7 41 66 be 06 07 eb 3e 29 2e a1 bd
       0.48870152 -0.22485982 0.45903796 -0.078701325
000050 2e c8 42 be 95 7a 80 3e cf 98 b4 bd d2 7e 64 3d
       -0.19021675 0.25093523 -0.088182084 0.055785008
000060 e3 b4 60 be d1 08 d1 3c 57 eb dc be 63 27 5e 3e
       -0.21944003 0.0255169 -0.431483 0.21694712
000070 f1 ce 89 3e 0a 53 fa bd 6d 28 46 3e af 0e 14 3f
       0.26915696 -0.1222287 0.19351359 0.57834905

x_lin.2.weight f4 [32, 32, 1, 1]
000000 b7 5c 50 3e c1 06 02 3e da a9 1a 3a 8a 4b 61 bc
       0.20347868 0.12697889 0.00058999436 -0.01375092
000010 39 22 a5 bd 39 44 20 be 84 06 06 be cb d5 a4 be
       -0.08063168 -0.15651025 -0.13088423 -0.3219436
000020 f0 b9 95 3c d4 60 25 3f 15 b8 08 3e 91 07 2c be
       0.018277138 0.64600873 0.13351472 -0.16799761
000030 9b 8d 57 be b6 2e 9b 3e d4 a3 e3 3d 6b ba b1 3e
       -0.21050112 0.30309075 0.11115232 0.34712538
000040 a3 73 ef 3c 6e 03 18 3c 64 a0 3d be de e6 a6 be
       0.029229945 0.009278161 -0.18518215 -0.32598013
000050 17 8b 63 3e a7 c6 1b 3e b3 04 11 3e a9 be 4d bf
       0.22221027 0.15212499 0.14161949 -0.8036905
000060 ab 2e 42 bd 59 18 d0 3d e9 8b c5 3d 19 e7 3f 3e
       -0.047407787 0.10160894 0.09645826 0.187405
000070 0e 7e 93 3d 0e 0c 55 3d a6 02 c0 be c2 a6 11 bf
       0.072017774 0.05201345 -0.3750202 -0.5689508
000080 39 dc d2 3e 24 8c b9 bd d9 9c b1 3e 57 c5 c3 3d
       0.41183642 -0.09059933 0.34689978 0.09559124
000090 96 f7 9d 3d 75 a3 ed be e9 ef 6c be 24 18 00 3d
       0.07713239 -0.4641377 -0.23138393 0.031273022
0000a0 c4 b9 3e be e9 5e 28 bd 61 21 05 3d 57 1b 2b 3e
       -0.18625551 -0.04110614 0.032502536 0.16709648
0000b0 a3 90 1a be d9 4f fe 3e 1b b5 35 3e c4 fa a7 3e
       -0.15094237 0.49670294 0.17744868 0.32808506
0000c0 78 7d fb be 22 2a fa 3d 80 d9 26 bf 65 65 60 be
       -0.49119163 0.122150674 -0.6517563 -0.21913679
0000d0 07 ad 8d be 97 0a fc bb c6 84 00 3e 60 63 52 3c
       -0.27671072 -0.007691692 0.12550649 0.012841076
0000e0 09 d7 b8 be 3e b9 9b 3d 11 42 ae 3e 0b 08 b7 bd
       -0.3610156 0.076036915 0.3403478 -0.08937081
0000f0 16 f3 22 3e 9f 8c 43 3e 59 56 e6 bd 4c 3c d7 3e
       0.15913042 0.19096611 -0.11246938 0.4203819
000100 f7 e5 09 3e 14 49 fb bd 63 37 a7 bd 3f d2 64 be
       0.13466631 -0.12269798 -0.08164861 -0.22345828
000110 37 e4 79 3e be 48 4e 3e 7c 6b 98 3d 23 1f 83 3e
       0.24403463 0.20144936 0.07442376 0.25609693
000120 47 ad 3f be 31 30 7c 3d 16 ba d6 bd 8b ad 36 3e
       -0.18718444 0.061569396 -0.10484712 0.17839639
000130 e4 6d f6 be 77 b6 16 be 15 75 81 3e 5e 1c b9 3e
       -0.48130715 -0.14718042 0.2528464 0.36154455
000140 58 45 ab be c2 a0 b1 3d e5 2d 1d 3d 9a c2 34 3d
       -0.33451343 0.0867324 0.038373847 0.0441309
000150 b5 7a fc 3e 52 3e 11 3c cb 3d 50 3e b0 e0 95 bd
       0.49312368 0.008864956 0.20336072 -0.07318246
000160 60 d2 58 3c a1 48 9f be 96 80 69 3e 75 cf be 3e
       0.013233751 -0.311101 0.22802958 0.37267652
000170 ac 70 cb be 83 4e 93 3e 57 64 86 be e8 78 f5 be
       -0.397344 0.28770837 -0.26248428 -0.47943807
000180 95 ff 70 3d de e2 c7 3d d4 d8 69 bc 8f 05 6d 3e
       0.058837492 0.09760068 -0.014272887 0.23146652
000190 c3 af b7 be 48 ae 82 be f4 62 cf be 6f db f5 be
       -0.35876283 -0.2552359 -0.40505183 -0.48018977
0001a0 98 53 6d 3c 60 cc cb be 32 ab c6 be 5d e6 4e bf
       0.014485262 -0.39804363 -0.38802487 -0.80820256
0001b0 10 a6 d1 3e cf 8d 0a bf 42 b4 0a 3e 85 76 d7 3e
       0.40947008 -0.5412263 0.13545325 0.4208261
0001c0 1e 3b 97 3e e5 aa 1d bf 86 34 d7 be 32 6b a9 3e
       0.2953729 -0.6158889 -0.4203226 0.33089596
0001d0 f7 71 bb 3e 6b 5d f4 3d c1 f9 90 3e 13 e3 82 bd
       0.36610386 0.119318806 0.28315547 -0.06390967
0001e0 13 f6 ce 3e 2a 93 83 bc b1 67 1f bf 83 8d dc be
       0.40422115 -0.016061384 -0.62267596 -0.43076715
0001f0 d8 29 f3 3d a7 aa 0e 3d 1d fa db be a8 7e 61 3f
       0.118732154 0.034830716 -0.4296426 0.8808389
000200 1c 79 dc 3d 43 dc ad bd 57 d2 c3 bc d8 bf 0c 3d
       0.10765287 -0.08489277 -0.023904009 0.034362644
000210 c1 07 ff 3c f9 e9 ce 3c b2 63 43 3e 70 f5 96 be
       0.031131627 0.025258051 0.19081 -0.2948413
000220 aa 58 ab 3d 28 df 7a bd ed 85 1e 3e 99 c9 4b 3d
       0.08366521 -0.061247975 0.15480776 0.049752805
000230 37 84 45 be 13 b1 7d 3d d2 2c f0 3b b6 ba b9 3e
       -0.19288717 0.06193645 0.0073295617 0.36275262
000240 ba 72 44 be 28 8c a7 3d 7c 0c f7 be 59 ad 8a be
       -0.1918439 0.081810296 -0.48251712 -0.2708538
000250 59 79 ea bd 85 8a 01 be b6 00 b1 3e d4 73 c0 3e
       -0.114489265 -0.12650497 0.34570855 0.3758837
000260 63 35 ab 3d 1f 02 2e 3e 81 20 fe 3d da 69 87 3d
       0.08359792 0.16992997 0.124085434 0.066119865
000270 af 1d 8f bf 41 b5 67 3e 2b c4 83 be bc 2a 44 3e
       -1.1180934 0.22627737 -0.25735602 0.19156927
000280 d0 86 6c 3d 2e 83 86 bd ca 98 ab 3e 8e 26 e5 bc
       0.057745755 -0.06567989 0.33515006 -0.027972486
000290 4c 4e 3f be c4 9c 27 be 46 50 b0 3d ef 2d 82 3e
       -0.18682212 -0.16368395 0.08609061 0.2542567
0002a0 18 0c d5 3d 0a 92 0c bb 88 58 d7 bd a3 eb ef 3d
       0.10402697 -0.002144935 -0.10514933 0.11714866
0002b0 51 63 e8 3e 76 72 a5 be bf 28 4e 3e 0f da 0c 3c
       0.45388272 -0.3231389 0.20132731 0.008596911
0002c0 9e 26 a2 3e c4 dc 94 3e f1 fa 21 3e 05 f6 9d be
       0.31670088 0.2907468 0.15818383 -0.3085176
0002d0 46 06 33 bf 5a f2 c5 bd a0 47 bd be 38 5f 87 3e
       -0.6993145 -0.096653655 -0.36968708 0.26439834
0002e0 c6 db bf 3e cb 60 70 be b5 12 65 3e 16 70 bf 3c
       0.3747236 -0.23474424 0.22370417 0.023368876
0002f0 f5 9e 19 be 51 3d 08 3e 33 af a1 3d c7 0f 91 3e
       -0.15002044 0.1330464 0.07894745 0.2833235
000300 d1 73 09 3e 26 dd 01 3c a1 ce 26 be 12 2d be be
       0.13423087 0.007926261 -0.1628976 -0.3714376
000310 e7 ac 27 bc 70 58 12 3e 5e 8d a0 be f1 66 1d 3e
       -0.010234094 0.14291549 -0.31357855 0.153713
000320 21 a7 16 bf 4e 23 0b bf 19 1d 7c 3e 00 dc 91 3c
       -0.5884877 -0.54350746 0.24620475 0.0178051
000330 22 6b 91 be 4d c3 de 3d d8 26 11 bf e3 2f a1 3e
       -0.28402048 0.108770944 -0.56699896 0.31481847
000340 c5 d0 2a be 0e 4c 8a 3e 51 77 72 be 3b bb dd be
       -0.16681202 0.2701115 -0.23678328 -0.43306908
000350 66 91 db be 7e 7c 8b be f8 aa a0 3e 6b 14 10 be
       -0.42884368 -0.27243418 0.3138044 -0.14070289
000360 18 6c df bd 01 9d da bd df 94 7c 3e 71 61 c0 3d
       -0.10909289 -0.10674477 0.24666165 0.093935855
000370 c4 63 65 be 7b 48 82 3e c6 37 f6 bd 6d f3 ad 3e
       -0.22401339 0.25445923 -0.12022357 0.33974782
000380 b5 e7 fa be 6e 77 17 bf a1 3f 76 be df 2e 41 bf
       -0.49004903 -0.5916661 -0.2404771 -0.75462145
000390 b5 0e 01 bd ca fd 22 3e 14 b4 9e be 55 27 4b be
       -0.031508166 0.15917125 -0.30996764 -0.19839223
0003a0 51 28 ff 3c f5 fd 82 3e d0 00 25 3c ab 5a ae 3c
       0.031147154 0.2558438 0.0100709945 0.021283468
0003b0 f6 ed 99 3c cd e7 96 bc 52 e2 8f bd 3f 3e 26 3d
       0.018790226 -0.018421078 -0.07025589 0.040586706
0003c0 be b2 26 3f c3 8d a4 be 61 d4 fa be 20 04 b2 be
       0.6511649 -0.32139406 -0.48990157 -0.34768772
0003d0 fd 1d b8 bd 00 50 0a 3e 2b a4 16 3e 2b bb 4e bd
       -0.08990095 0.1350708 0.14711063 -0.050471466
0003e0 5c 7e 5d be 15 ee 50 be 68 45 2c be a0 af 56 bf
       -0.21630234 -0.20403321 -0.16823351 -0.8386173
0003f0 53 71 1f 3e 35 85 3e 3e 83 47 47 bf ca 85 a3 be
       0.15570574 0.18605502 -0.77843493 -0.3193801

x_lin.2.bias f4 [32]
000000 71 75 73 be de db 5f be 14 8c 60 be 84 32 5c be
       -0.23775269 -0.21861216 -0.21928436 -0.21503645
000010 ec 7a 37 be 83 7e a2 3d a5 bb d5 bd b7 b3 65 3e
       -0.17917985 0.079342864 -0.10436181 0.22431837
000020 1b 90 72 be c9 0f f4 bc 5b 93 2f 3e aa 10 0b 3d
       -0.23687784 -0.029792683 0.17146055 0.03395144
000030 7a e7 e1 3d f8 5e b1 3c e2 77 2e be 65 41 17 3e
       0.11030479 0.02165173 -0.17037919 0.1477104
000040 05 d2 2f be 96 d0 1c 3c 7d bd 0c 3e 56 b8 7f be
       -0.1716996 0.009571215 0.13744159 -0.24972662
000050 83 ec be bd c1 0b 17 3e ae dd 80 be 5a fb 88 bd
       -0.09322455 0.14750578 -0.25169128 -0.066885665
000060 4f 5a 39 3e 3d 61 0d 3e a2 ed e3 bc 11 57 fe bd
       0.18100856 0.13806625 -0.027823273 -0.1241895
000070 c3 57 45 3e c2 67 2d 3e 34 6a e5 bd d4 1e 7f bd
       0.1927176 0.16934112 -0.11201897 -0.06228526

edge_lin.0.weight f4 [32, 1, 64, 1]
000000 a3 4f 4a bf a1 2a e0 be 2d 19 9a bd 7d 18 f3 be
       -0.79027766 -0.43782523 -0.07524333 -0.4747962
000010 7d 5f 88 be 22 c5 c9 be d2 d8 8a be db b7 ac 3d
       -0.26635352 -0.39408213 -0.27118546 0.08433505
000020 b4 c1 21 be 2a fc 80 3e c5 7a 4c bf 10 1f 02 3e
       -0.15796548 0.25192386 -0.7987483 0.12707162
000030 33 d0 bd be 3d ab f8 be 82 cb a2 3c f3 10 18 bf
       -0.37072906 -0.48568144 0.01987243 -0.5940086
000040 b1 bd 18 bf 41 36 d7 be 6f 16 ed 3d c6 15 ae be
       -0.59664446 -0.4203358 0.115765445 -0.34000987
000050 2b 77 74 be c4 56 8c bf 1f 30 22 bf fd 28 76 bd
       -0.23873584 -1.0963979 -0.63354677 -0.060097683
000060 7f ff 96 bd 60 2b 64 3e 42 71 05 3e c6 c8 47 be
       -0.07372951 0.22282171 0.13031486 -0.19510183
000070 b1 db 96 3e 92 10 92 3c c3 62 c8 3d 56 80 16 3e
       0.29464486 0.017830167 0.09784462 0.14697394
000080 11 66 b5 bc da 41 42 3e 8f 9c 5d 3d d2 aa 07 be
       -0.022143396 0.18970433 0.054104384 -0.13248757
000090 3c e4 8f 3d 7a a1 39 bf d7 6b 20 3e c5 73 b5 bd
       0.07025954 -0.7251202 0.15666138 -0.08859972
0000a0 8c 3b 4e 3e 0c 3f fb be 08 ad 0f bf c4 a9 d3 be
       0.20139903 -0.49071538 -0.561234 -0.41340458
0000b0 fb 0e 8f be c7 2d 15 be 47 f7 d3 bd 59 b0 4d 3d
       -0.27941117 -0.14568244 -0.10349899 0.050217006
0000c0 ab 3c a0 be d6 51 56 bf 72 a2 2d be 05 bd 49 be
       -0.31296286 -0.8371862 -0.16956499 -0.19701011
0000d0 57 ef 9f be d2 39 f5 be eb bc 2a 3e 6e 29 bf bc
       -0.3123729 -0.47895676 0.16673629 -0.023335185
0000e0 c7 cb 45 3d 13 9b 7e 3d f2 4d a2 3d 94 12 a8 be
       0.04829004 0.06215961 0.07925023 -0.32826674
0000f0 1a 33 6c 3e 3b 9b a0 be 5e f9 40 3e be 1b ad bc
       0.23066369 -0.3136843 0.18845126 -0.021131393
000100 1c e5 94 be 87 9d 9f bc 4d 87 b4 bd 10 23 87 be
       -0.29081047 -0.019484295 -0.08814869 -0.26393938
000110 20 b3 90 3e d1 d9 14 be 20 12 bb bb 5e 91 b0 be
       0.28261662 -0.14536215 -0.005708948 -0.34485906
000120 be 4e 8c 3e a4 c5 69 3e 19 a1 0a bf 28 ca d0 3d
       0.27403826 0.228293 -0.54152066 0.10194808
000130 e1 fb df bd 14 55 bd bd b7 dd 20 3e 49 e6 7b 3e
       -0.10936714 -0.09244743 0.15709578 0.24599566
000140 05 37 81 3e 16 81 bb be 28 45 63 3e f2 e4 de 3e
       0.2523729 -0.36621922 0.2219435 0.43534046
000150 10 f4 08 be 94 8e 00 be 5d f4 49 be bb 95 32 be
       -0.13374352 -0.12554389 -0.19722123 -0.1743993
000160 a1 e8 4b be 1b e0 8a 3e a1 08 a4 3d 3c 76 ad 3e
       -0.1991296 0.27124104 0.08009458 0.33879268
000170 2a a7 74 bd d2 87 ef 3d de 70 13 3e ff c8 61 3e
       -0.059729733 0.116958275 0.14398524 0.2204933
000180 10 35 01 3e 5e 8d a3 bc 72 a6 83 3d 4c 51 55 be
       0.12617898 -0.01996487 0.06428231 -0.20831794
000190 76 f7 05 3d bc f8 74 be f1 c8 e5 3c 12 c1 59 be
       0.0327067 -0.2392301 0.028049918 -0.21265057
0001a0 ca f7 e8 3e f6 f5 7c bc 28 4b c0 be e8 cb 8b 3e
       0.45501548 -0.015439501 -0.3755734 0.27304006
0001b0 c5 4d 9e 3d 83 d3 a2 be 62 1f 1b 3e cd ef 6c 3e
       0.07729677 -0.31801996 0.1514869 0.23138352
0001c0 5c 22 15 be c8 be c3 be a3 11 95 bc 1c 1d d8 3e
       -0.14563888 -0.38231492 -0.018196886 0.4220971
0001d0 e6 b8 9a bd 23 59 81 be 2e 85 cd bb d0 27 89 be
       -0.07554798 -0.25263318 -0.00627198 -0.26788187
0001e0 ae 59 55 be 29 b0 c5 3d ec 6d f6 3d 60 58 12 3e
       -0.20834991 0.096527405 0.12032685 0.14291525
0001f0 1c 4f 4f be a5 0a 80 bd a4 49 ab 3d c5 9b 84 3e
       -0.20245022 -0.0625203 0.08363655 0.25900093
000200 ad 4a 74 be 6a fa bd 3c 89 8a 31 bf 3c ed d7 bd
       -0.23856612 0.023190696 -0.6935201 -0.10543296
000210 b5 6d 3f bc 0e 6c 3e bf dc 2b 60 be 93 75 96 3e
       -0.011683871 -0.7438363 -0.21891731 0.29386577
000220 d1 f6 bb be a5 58 02 bf a0 90 b6 3d 27 13 2a 3e
       -0.36711743 -0.5091651 0.08914304 0.16608869
000230 32 5c 70 3d 6e 9e 5e 3e de 5e 82 bd 63 8c 07 3e
       0.058681674 0.21740124 -0.06365751 0.13237147
000240 1b 0f 12 3e bf 51 ba be 68 af 6a bd b6 f9 25 bd
       0.14263575 -0.36390492 -0.057296187 -0.040521346
000250 c5 9a 31 bf c5 a5 ca bc 9d 9d 85 3e 4e ed 0e bf
       -0.69376785 -0.024737248 0.26096812 -0.5583085
000260 76 8a 98 bd 76 b9 44 bf a4 1e 9e bc ef 12 48 3c
       -0.07448284 -0.7684549 -0.01930172 0.012211545
000270 76 6b e6 3d f3 c4 91 3d 09 00 c9 bc d7 ea e6 3c
       0.11250965 0.07117643 -0.02453615 0.028188152
000280 17 fe 70 3c b0 e2 38 3d 44 31 7d bf d2 2c 95 be
       0.014709017 0.04513806 -0.989033 -0.29135758
000290 a6 72 07 be fe 46 36 bf 60 24 fd 3d e3 bf da 3e
       -0.13227329 -0.71202075 0.123604536 0.42724523
0002a0 b6 93 9d be 0d e3 fc be 34 e1 9b 3d b7 95 ce 3d
       -0.30776757 -0.49391976 0.076113135 0.100871496
0002b0 5b bf fe be ec ae 31 3e 70 76 ff bd 20 4f a9 3d
       -0.49755368 0.17351884 -0.12473762 0.08267045
0002c0 fb ec 3e 3e 09 e0 ce be 9d f8 6f bc c1 4a 6a 3e
       0.18645088 -0.404053 -0.014646676 0.22880079
0002d0 0c 8f ec be 44 eb 40 be 68 6a 33 bc 66 89 bc 3d
       -0.46202886 -0.18839747 -0.010950662 0.09205894
0002e0 f5 da 32 3e 5b 76 56 bf 5d 24 05 be 5c 4f 72 3e
       0.17466338 -0.83774346 -0.13002153 0.23663086
0002f0 7a d3 a3 bd 48 15 5e bd 1e ab 50 3e 0d e7 8c 3e
       -0.0799932 -0.054219514 0.20377776 0.27520028
000300 eb 73 dd 3e 70 f2 d6 3e 39 60 1c bf df 2f d4 be
       0.432525 0.4198184 -0.61084324 -0.41442773
000310 9a d4 78 bc 25 ef 1f be 8d 72 db bd 47 c3 11 bf
       -0.015187407 -0.1561857 -0.10715208 -0.56938595
000320 2e d3 01 be 70 10 a9 3e 18 8a af 3d 83 ad 89 3e
       -0.12678215 0.33020353 0.08571261 0.2689019
000330 e9 4d d8 ba a1 09 1b 3e 15 b1 c5 3e 0b 3a 00 bd
       -0.0016502711 0.15140392 0.38611665 -0.031305354
000340 3d 6f 70 be b9 c5 70 bc a2 87 66 be 32 b6 c1 be
       -0.23479934 -0.014695578 -0.22512677 -0.37834316
000350 5f aa ed 3d 18 1d 0e 3e 8f 4b 4c bc 05 70 be be
       0.11604761 0.13878286 -0.012469186 -0.3719484
000360 7a bf fc 3d d6 08 c6 be c6 0a ba be e3 00 d4 3d
       0.12341209 -0.38678616 -0.36336344 0.10351732
000370 04 29 bc bd 2f 9b 1c 3e fd 6a 30 3d 36 c0 35 3e
       -0.091875106 0.15293573 0.043070782 0.17749104
000380 72 b6 45 3d 70 9a 56 3e ef 17 26 bf 87 d8 5d be
       0.048269697 0.2095735 -0.6488027 -0.2166463
000390 21 1d 06 be a6 ce 8c be c1 09 27 be 43 0c 18 bf
       -0.1309705 -0.2750141 -0.16312315 -0.5939371
0003a0 92 f2 5a 3c 5a ce fe 3d 88 4e 45 bd 53 d3 49 be
       0.013363497 0.12441702 -0.048170596 -0.1970952
0003b0 af 16 24 3d e3 ff 8b 3e 2b 2e 93 3e e5 7e be 3e
       0.040060695 0.27343664 0.2874616 0.37206188
0003c0 e4 04 f6 bd 3d cb d4 bd 18 96 ea be 3b 47 75 be
       -0.120126516 -0.10390327 -0.45817637 -0.23952954
0003d0 1b 43 b4 3d 04 33 bb ba 64 18 50 3e ea ba 09 bd
       0.08801862 -0.0014282172 0.20321804 -0.03362552
0003e0 a6 69 10 3e cc ef 75 be 25 91 62 be 49 66 d1 3c
       0.14102802 -0.24017256 -0.2212568 0.025561469
0003f0 d8 19 ca 3c 65 6a 5e be 42 b4 84 3d e4 ee 96 3e
       0.024670526 -0.21720274 0.06479694 0.29479134

edge_lin.0.bias f4 [32]
000000 53 f6 07 3e 10 02 6b bd c0 88 de bc 8a 7f bc 3d
       0.13277559 -0.057375014 -0.027164817 0.09204014
000010 73 50 1c be b3 f1 f9 bd 47 38 93 3d 70 af 20 bb
       -0.15265064 -0.122043036 0.071884684 -0.0024518631
000020 c1 a3 6f 3e 37 fb d4 bd a6 b0 b4 bd 13 55 7c 3d
       0.23402311 -0.10399478 -0.088227555 0.06160457
000030 ed 25 0e 3e d3 7d 09 be fe a4 b2 be 71 e5 1c 3e
       0.13881655 -0.13426904 -0.34891504 0.153219
000040 7e bb b6 3d f4 8f 04 be 4b 65 95 be a0 23 5e be
       0.0892248 -0.12945539 -0.29178843 -0.21693277
000050 5c 3e 81 be 86 de 68 bd 79 db e7 bd 4e 54 5d 3d
       -0.2524289 -0.05685284 -0.11321158 0.054035477
000060 f0 4a b0 3d e9 c5 6d 3e fc 06 dd 3d 7a 81 cb 3d
       0.08608043 0.23220028 0.10792348 0.09936805
000070 d7 39 3d 3e 04 eb ea bd d0 11 84 bd 7a 53 84 bd
       0.18479095 -0.11470607 -0.0644871 -0.064612344

edge_lin.2.weight f4 [32, 32, 1, 1]
000000 7f 72 c0 3e ac 39 15 3e b2 4b e4 3e 8d 88 eb 3d
       0.37587354 0.14572781 0.44589 0.11500654
000010 39 af dd 3e 72 a7 14 3d 40 f0 ce bd cb 8b ba be
       0.43297747 0.0362925 -0.10104418 -0.3643478
000020 63 c6 0a 3e 14 96 8c 3d cd d0 98 3e 32 b5 29 3d
       0.13552241 0.06864563 0.29846802 0.041432567
000030 2f d9 9d 3d 48 46 ba be 6d b5 fc bc c9 ba 49 be
       0.0770744 -0.36381745 -0.03084823 -0.19700159
000040 5a a3 e4 3e 2c 31 7a 3d a3 9f 75 3e 1e 48 db be
       0.44655877 0.06108205 0.23986678 -0.4282846
000050 b8 7b 82 3e 9e 1f 3f be b4 06 d0 3d a7 4c 62 3e
       0.25485015 -0.18664405 0.101575285 0.22099553
000060 47 21 bb be 1d 5d d9 be 67 4c b3 3e b8 32 af bd
       -0.36548826 -0.42453852 0.35019228 -0.08554596
000070 53 7c 1e bf b5 45 82 3e 3c 96 b2 bd 8d 18 6c bd
       -0.61908454 0.25443807 -0.08720061 -0.0576406
000080 5a b0 be be c6 c5 56 be ef 7f 95 3d 7a d8 48 be
       -0.3724392 -0.20973882 0.07299792 -0.1961383
000090 82 b5 71 3e 1c ee b1 bd b9 71 38 3e 7b 22 d7 3d
       0.23604396 -0.08687994 0.18012132 0.105046235
0000a0 94 d9 53 3e 63 98 d8 3c a0 a2 95 3d 1c 0e 89 3e
       0.20688468 0.026439851 0.07306409 0.26768577
0000b0 2f e4 8a 3d c0 ed 9b 3b 05 38 8b bd 33 ca f8 3d
       0.06781804 0.0047585666 -0.06797794 0.121479414
0000c0 f5 4b bf bc d3 cc 5a be e5 a0 1d 3e 7b 3d 7c be
       -0.023351649 -0.21367197 0.15393408 -0.24632828
0000d0 5a 60 3a bf e7 97 b6 3e 12 b9 60 be 00 ee 21 3e
       -0.7280327 0.35662767 -0.21945599 0.15813446
0000e0 c3 3b e8 3e bb 76 18 bf 75 1f 33 3e a4 70 22 3c
       0.45358095 -0.5955617 0.17492469 0.009914551
0000f0 64 bf a6 3e 0d 2d 1e bf 5f 0a fd 3d 01 6b 56 bd
       0.32567894 -0.6178749 0.12355494 -0.05234814
000100 08 69 6b 3d 3b 0e 2f 3c 98 e2 a3 3e 47 28 97 3e
       0.057473212 0.010684545 0.32008815 0.29522917
000110 d2 e4 aa bd 63 ca 8c be fb 06 17 3e b2 a9 a6 3e
       -0.08344425 -0.2749816 0.14748757 0.32551342
000120 da 7b 3a bf af 6b b5 be a7 31 46 3e c6 ff 4a 3d
       -0.7284523 -0.3543372 0.19354878 0.04956033
000130 7b 0c 43 3c 39 e5 f8 bd b4 a7 57 be 3a e8 b4 3e
       0.011904831 -0.12153096 -0.21060067 0.35333425
000140 63 f9 0b 3e 59 13 a6 3e 56 d2 32 be 72 6b 26 be
       0.13669352 0.32436636 -0.1746305 -0.16251925
000150 b4 3c e9 bd 4a 0c bb 3d db 4b d8 3c 7d f4 5f bb
       -0.11388531 0.09133203 0.026403358 -0.0034172826
000160 01 85 7a be d3 f7 5e be 54 ed fe bd de e2 cf 3b
       -0.244648 -0.21774225 -0.124476105 0.0063441833
000170 6d be 84 be 9d cb fc 3d c1 9e 06 3d 9f b1 29 3e
       -0.25926533 0.12343524 0.032866243 0.16571663
000180 6e c2 88 be 69 d7 5c be ee 1b 93 be 87 ec 16 3f
       -0.26710838 -0.21566547 -0.28732246 0.5895466
000190 32 89 2f be 4e 17 bd 3e 28 ec 77 be 11 5d c1 3d
       -0.1714218 0.36931843 -0.2421118 0.09441579
0001a0 ee 4e 59 bd e2 e4 58 3e 89 e4 41 bf f4 ea 10 3e
       -0.05305379 0.21181062 -0.7573934 0.14152128
0001b0 9a 96 14 be 26 d8 f0 3e ad 63 66 3c 30 90 06 bf
       -0.14510575 0.47039908 0.0140618505 -0.5256376
0001c0 24 e0 2f bf 58 fd c4 3e 2c bb 18 3e f3 1b 1f be
       -0.68701386 0.38474536 0.1491515 -0.15538006
0001d0 b5 82 0d 3d 30 28 fb 3d d9 f4 90 be 47 01 7a be
       0.03454848 0.122635245 -0.28311804 -0.2441455
0001e0 7b e0 06 bd 01 e6 ee bc 9f d4 5a be ce b3 14 3d
       -0.032928925 -0.029162409 -0.21370171 0.036304288
0001f0 6f 4b 1c bf 9e 3a 82 3e 29 cd 4a bd cf 31 b3 bd
       -0.610526 0.25435346 -0.049512062 -0.087497346
000200 ad 1c 19 3f 64 4f 84 bd 47 83 c1 3d 16 58 cd 3e
       0.5980938 -0.06460455 0.09448867 0.40106267
000210 87 26 a8 3e 8b c6 14 3e 9e 9a b8 be 3c 32 01 bf
       0.32841894 0.14528863 -0.36055464 -0.50467277
000220 1e 4e 5e be a1 49 dc be 8c ab 22 3e 4d 38 74 bd
       -0.21709487 -0.43024924 0.15885752 -0.059624005
000230 36 f3 01 be 68 88 91 bd d3 f9 26 3e ad 07 01 3f
       -0.12690434 -0.071060956 0.16306238 0.5040234
000240 74 1f b9 bd 81 ef fd 3d 20 3b 61 3c d0 7a 2b be
       -0.09039202 0.12399197 0.013747007 -0.16746068
000250 f7 85 11 3e e6 e0 f3 3c f3 6e 29 3e 6b 1b c4 3e
       0.1421126 0.029770326 0.1654623 0.38302168
000260 72 94 05 3e 70 f4 0d bf 23 9c e2 3e f1 e9 20 be
       0.13044909 -0.5545111 0.44259748 -0.15714242
000270 0d 06 1d bf 6c 86 90 bd 67 72 01 3e 45 57 bf be
       -0.6133736 -0.07056889 0.12641297 -0.3737127
000280 9c a1 13 3e 6d b4 ab 3e ce e6 9e 3c 6c 1e ef bd
       0.14417118 0.3353609 0.019397166 -0.116757244
000290 83 8a a7 3e 40 97 93 3d e3 6f 77 be 20 71 9f be
       0.32722864 0.07206583 -0.24163775 -0.31140995
0002a0 b1 72 3a 3e 50 18 1c bd cb a2 08 bd 26 6f 80 bc
       0.18207814 -0.038109124 -0.033358376 -0.015678
0002b0 e2 13 c7 3d dd 8b a2 be 84 56 1a 3d 0e df 92 3e
       0.09720589 -0.31747332 0.037680164 0.28685802
0002c0 32 c9 10 3d e1 a6 f2 bd 29 ed 44 3d 4b 5e 3a bd
       0.035348125 -0.11848236 0.048077736 -0.04550008
0002d0 d2 80 75 3e 89 36 75 be b5 b4 bb 3d 17 15 92 3e
       0.23974922 -0.23946585 0.091653265 0.28531715
0002e0 4c 30 a9 3d 27 a1 74 be a4 b5 1a 3e 73 9e 0a bc
       0.08261165 -0.238896 0.15108353 -0.008460629
0002f0 90 ae 29 bd f9 94 8d 3e ef fe 94 be aa 1f 0a 3e
       -0.04142624 0.2765272 -0.2910075 0.13488641
000300 c1 a3 32 be 1a ee 0e be 46 99 6b 3e 41 2e 1a be
       -0.1744528 -0.13958016 0.23007688 -0.15056707
000310 2c 78 a9 be 88 ea 68 bd 0b 7c c2 bd 24 39 44 be
       -0.33099496 -0.05686429 -0.094963156 -0.19162422
000320 a2 a5 2a 3e ec d9 38 bf 3c 34 b5 be c0 e7 2a 3d
       0.16664746 -0.7220752 -0.35391414 0.04172492
000330 e4 b9 5e bd 72 72 c2 be 06 14 2a 3e 49 66 bf be
       -0.054376498 -0.3797794 0.16609201 -0.37382725
000340 c1 dc 85 be 24 5d 16 bd dd 66 81 3e e0 38 ae bd
       -0.26144984 -0.03670992 0.2527379 -0.08506942
000350 e8 09 07 bf 78 31 a4 3e a5 ad 14 bf 1d d8 72 3c
       -0.5274949 0.32068992 -0.5807746 0.014822033
000360 28 67 31 be 3d 4c 66 be 67 d4 4c 3e 4b 5a bf 3c
       -0.17324507 -0.2249002 0.200029 0.023358485
000370 40 63 1b 3e 27 ca ab bd 08 03 1a be 3d 77 a0 bd
       0.1517458 -0.08388167 -0.15040219 -0.07835243
000380 2e 01 ad bd 35 e1 0e 3c fe 29 a8 3e bd 92 17 bd
       -0.08447491 0.008720686 0.32844537 -0.037005175
000390 4e 78 ee bd db eb 04 bf 5c 4c 41 be ce d4 6d 3e
       -0.1164404 -0.51922387 -0.18876785 0.2322571
0003a0 e9 a8 86 be df e7 cf be 99 1a d9 3e de d5 57 be
       -0.26300743 -0.4060659 0.42403105 -0.21077678
0003b0 64 e4 08 3d d6 05 aa be 88 a3 d3 be e2 f4 70 3e
       0.033420935 -0.33207577 -0.41335702 0.23530915
0003c0 7a 63 92 3e cd f9 aa 3e 94 8e d9 3e bd 54 e6 bd
       0.2859152 0.33393708 0.4249159 -0.11246631
0003d0 53 69 50 bd b1 3e 23 bc 81 93 25 be 84 0b c9 3e
       -0.050881695 -0.009963677 -0.1616955 0.39266598
0003e0 bf 3d 96 be 88 ff 18 be b2 cd 5d 3e 09 5e 21 3e
       -0.29343984 -0.14941227 0.21660498 0.15758528
0003f0 f5 c3 9d be 4f 14 1f 3e ca d5 d4 3d a1 2e ea 3e
       -0.30813566 0.15535091 0.103923395 0.457387

edge_lin.2.bias f4 [32]
000000 2b 42 00 be 39 2d af be fe c0 f0 3d ef 32 43 be
       -0.12525241 -0.3421419 0.1175556 -0.19062398
000010 82 dc a0 bd 13 b7 5d be aa 71 15 bf 8c 40 23 3e
       -0.078545585 -0.21651869 -0.5837656 0.15942591
000020 c6 25 f3 bd 4e d9 4b 3e 52 b1 2f 3d 26 3b f8 bd
       -0.11872439 0.19907114 0.042893715 -0.12120657
000030 60 f8 0c bf 79 57 12 3e 1f 6f bb bc e1 96 b8 bd
       -0.5506649 0.1429118 -0.022880135 -0.09013153
000040 58 44 00 3d b6 6f c8 bd ff d2 a9 bd e6 7f a7 3d
       0.031315178 -0.09786932 -0.082921974 0.081786916
000050 41 e8 9b be e4 c2 3c be 77 84 9f 3d f7 ba a8 3d
       -0.30450633 -0.1843372 0.077889375 0.08238786
000060 1a af e3 bd 00 56 bd be ee d6 04 3e f4 5d 06 3e
       -0.11117382 -0.36979675 0.12972614 0.13121778
000070 a2 63 0c 3e 6b 7d 05 bd 03 dc c0 bd c3 a3 ee bd
       0.13709882 -0.03259031 -0.09416964 -0.11652329

vertex_output_lin.0.weight f4 [32, 1, 32, 1]
000000 5c 33 b0 3d 24 6f e5 3c 70 f7 44 3d 64 b6 36 3c
       0.08603546 0.028007098 0.048087537 0.011151884
000010 e6 72 36 3d ab ae af bd bd 98 1b be 66 be 00 bd
       0.04454317 -0.08578237 -0.15194984 -0.031431578
000020 2f bf d5 bd 12 73 f2 bd fd 5b 10 be b7 af ed bc
       -0.10436856 -0.11838354 -0.1409759 -0.029014451
000030 bb 14 36 be 4e fd fb bd 30 0b 37 bd 05 dd 09 3e
       -0.17781346 -0.123041734 -0.044688404 0.13463219
000040 14 03 b7 bd 7f 33 f4 bc bf 98 21 3e 07 cf b1 3d
       -0.08936134 -0.029809712 0.15780924 0.086820655
000050 03 b8 3e be e2 dc 85 3c 42 8e 18 be 52 b6 f1 bc
       -0.18624882 0.016340677 -0.14898017 -0.029505882
000060 2f d8 4d 3d 0e 5e bc bd 9c fd a1 3d d3 7a a0 bd
       0.050254997 -0.09197627 0.079097 -0.07835927
000070 b5 24 0f 3e 94 4f f2 3d 95 55 94 3d a7 19 28 be
       0.13978846 0.118315846 0.07242886 -0.16416036
000080 0d d7 9a 3e 35 5d 75 be 38 7a 16 be da 94 ee bd
       0.30242196 -0.23961337 -0.1469506 -0.11649485
000090 fe 56 81 3e a0 b8 9b 3e 06 fc 77 3e 81 32 d9 3c
       0.25261682 0.30414295 0.24217233 0.02651334
0000a0 fb 66 51 3d c5 13 9f bd 5e 27 87 be 29 05 1a bd
       0.0511236 -0.077674426 -0.26397222 -0.037602577
0000b0 d0 7f 51 3d 67 9c 63 3d ec e8 93 bd cc 17 d3 bd
       0.051147282 0.05556908 -0.07222161 -0.10307273
0000c0 e4 d8 1f 3e 47 dd 12 3f 22 4a 11 bf 3b 8e 8d 3d
       0.15610081 0.5736889 -0.5675374 0.06911894
0000d0 d2 56 10 3d e0 6e f2 3d 3b 6c a3 bd 4b a8 eb be
       0.03523905 0.11837554 -0.07979628 -0.46026835
0000e0 85 9a ba 3e 12 c6 08 3d 54 0c 57 be 16 42 8b bd
       0.36446014 0.03339202 -0.21000797 -0.06799714
0000f0 ef 91 01 be 27 2e e3 be 22 64 b0 be 7f f6 17 be
       -0.12653325 -0.4437115 -0.34451395 -0.14840125
000100 bd 3b 7b bd 9f da fc 3d 4a 00 59 bd 2a 5f 49 3d
       -0.061336268 0.12346386 -0.05297879 0.04916302
000110 4b fa 9c ba 39 00 a9 3c 3e 70 21 be ae b4 1a be
       -0.0011976449 0.020629989 -0.15765473 -0.15107986
000120 4a 5d d7 bd ef 6f ba bd 6a b8 55 be d2 96 89 bd
       -0.1051584 -0.09103381 -0.2087113 -0.0671822
000130 cb b8 4d bd b3 b0 f5 bd 79 75 d8 3a cb 75 2a bd
       -0.05022506 -0.11996593 0.0016514502 -0.041616242
000140 c3 38 40 bd 9d a1 b7 bc f0 74 ae bd 9d a1 7f bc
       -0.046929132 -0.02241593 -0.08518398 -0.015602496
000150 de 6c 60 3c 3b 3a c5 bc 59 82 e4 bd c2 9f ad 3c
       0.013697831 -0.024075618 -0.11157674 0.021194343
000160 b9 6c 33 bd 65 7d ef 3d 6c 5f 82 3d f4 ca 20 3d
       -0.043804858 0.11693839 0.063658565 0.03925605
000170 f4 b7 91 3c 0a cb 46 3c 5f 27 49 bd 42 c3 a1 3c
       0.017787911 0.012133369 -0.049109813 0.019746426
000180 06 ca 16 be 5d f6 58 3e b9 c2 c0 3b 24 8d 3c 3e
       -0.14725503 0.2118773 0.0058825877 0.18413216
000190 26 75 93 be 0d 22 ad 3d 91 e6 0c be 98 39 d3 3d
       -0.28800315 0.0845376 -0.13759829 0.103137195
0001a0 c7 09 f9 bb 71 a9 9f 3d de 11 51 3e 74 f7 3d be
       -0.0076000425 0.0779599 0.20416972 -0.18551427
0001b0 8b f9 e3 3d a8 0c 53 3c 7c ec c4 3d a0 f4 aa be
       0.11131581 0.012881435 0.09615418 -0.3338976
0001c0 3f 65 a1 3e 02 88 53 3e 3d 3f 26 bf 46 7d ba 3e
       0.31522557 0.20657352 -0.64940244 0.364237
0001d0 50 0a 0f 3d fb 97 77 3e 37 8c 0e 3e 71 5d 9a 3d
       0.034921944 0.2417907 0.13920675 0.07537354
0001e0 40 14 32 3e 43 23 0a 3e 89 10 6f 3e 23 fa 21 3c
       0.17390537 0.13490014 0.23346151 0.009886297
0001f0 10 40 54 3d 96 23 0b bf 31 83 87 be 63 ac 31 bf
       0.051818907 -0.54351175 -0.2646728 -0.69403666
000200 56 ed 4c be 87 c3 a0 3e 3c 35 1b be 5c 35 7f 3e
       -0.20012411 0.31399176 -0.15157026 0.24922699
000210 9d cb f6 3c c6 a2 1f be 26 b6 1a 3f c6 e4 8d bd
       0.030126387 -0.15589437 0.60434186 -0.06928401
000220 73 ab 31 39 38 3a d2 bd 9f ac 62 3d ca ae c7 3d
       0.00016943905 -0.102650106 0.055340406 0.09750135
000230 67 b5 f8 3e 94 b6 cb bd fb 4c ca 3c d8 b8 26 3c
       0.485759 -0.099469334 0.02469491 0.010175906
000240 11 62 e4 bc 18 ef 37 3e 5a 4e fb bd 95 08 f9 bd
       -0.027878793 0.17962301 -0.12270804 -0.1215984
000250 22 a2 cb 3e 59 2b b6 3d 32 69 b7 3c 1d 36 0d bd
       0.39772135 0.08894987 0.022389028 -0.034475435
000260 22 f8 30 be af 46 a5 3e 2a 5d 31 3d 09 8a 82 be
       -0.17282155 0.3228049 0.04330174 -0.25495937
000270 eb ee e7 3d 2e 9e 74 3d be 0b 60 3d 2f f9 d4 bd
       0.11324867 0.059721164 0.0546987 -0.103990905
000280 cf 8a e3 bc 41 58 35 3e 8d d5 af be 45 b8 f8 bd
       -0.02777615 0.17709447 -0.34342614 -0.121445216
000290 4c a8 90 be e7 c6 8e bd bc ac 93 3e 32 b2 b1 be
       -0.282534 -0.06971531 0.28842723 -0.34706265
0002a0 e7 0a 99 be 9a b9 75 be f3 5e 22 bd d0 6e d5 bd
       -0.2989113 -0.23996583 -0.039641332 -0.104215264
0002b0 27 6b 3c 3f 62 e9 44 3e 85 f4 84 be f0 4c 93 be
       0.73601 0.19229653 -0.25967804 -0.28769636
0002c0 60 52 29 3e a6 0c b2 3e 46 5d ec be c2 1c ab 3e
       0.1653533 0.34775275 -0.46164912 0.33420378
0002d0 f0 b6 75 3e 5c 32 0d bc 11 a8 b7 be ab 50 60 be
       0.23995566 -0.008617964 -0.35870412 -0.21905772
0002e0 f3 67 c3 3e 30 46 94 bc 16 10 6d be 3e c3 fd be
       0.38165244 -0.018099874 -0.23150668 -0.4956302
0002f0 af e4 d1 be 69 3f 0c bc 6b ad 00 be 33 74 5d be
       -0.40994784 -0.00856004 -0.12566154 -0.21626358
000300 40 1b 68 3e 55 14 8d be 86 5b aa bc dd 23 2b be
       0.22666645 -0.27554575 -0.020795595 -0.167129
000310 df b9 6e bc 1e 38 12 be c7 74 0b bf 63 34 16 be
       -0.014570682 -0.1427922 -0.54475063 -0.14668421
000320 22 1c 60 bd 29 91 38 be 5a 0c e6 bd c6 9b 12 bd
       -0.05471433 -0.18024124 -0.112328246 -0.03579309
000330 cd 5f 0a bf 75 15 75 3e 11 8e 75 3c f7 6e ca be
       -0.5405243 0.23933966 0.014987485 -0.39537784
000340 e2 42 12 3e 45 d7 05 bf 24 b0 bb 3d 89 d1 eb bd
       0.14283326 -0.522816 0.091644555 -0.11514575
000350 2a d3 1e be f2 1d e9 be 4b 5d a3 bd f3 bf 0b 3e
       -0.1551024 -0.4553066 -0.079767786 0.13647442
000360 55 04 d2 bd 3a 54 5a be 7b 45 ca bd 66 63 e9 3d
       -0.102547325 -0.21321192 -0.098765336 0.11395912
000370 e6 c7 2e be ab a5 2b bd ce b1 11 be e6 5f 81 be
       -0.17068443 -0.04190604 -0.14227983 -0.25268477
000380 f8 37 a6 bd 94 80 b3 bc b2 c9 b3 3d c1 1e c7 3c
       -0.08116144 -0.021911897 0.08778705 0.024306657
000390 32 ae d1 3d b5 dd 8d be 8f 59 ed be 8e ce 1e be
       0.10238303 -0.27708212 -0.4635739 -0.15508482
0003a0 bc 94 f7 be 23 7f 21 3e 0d 7b 9f 3e ef 16 c2 3e
       -0.48355663 0.15771155 0.31148568 0.37908122
0003b0 46 b1 14 3e 77 7e d2 3c 65 71 e4 bd 42 59 33 be
       0.1452075 0.025695069 -0.11154441 -0.17514518
0003c0 fa 08 ca 3e f7 d2 95 bb 2a b0 26 bf 50 05 64 3e
       0.39459974 -0.004572268 -0.65112555 0.22267652
0003d0 fa 17 c4 bd e6 14 b8 3e 7a 83 76 be 7c ce 19 be
       -0.09574886 0.35953444 -0.24073592 -0.15020174
0003e0 2c de 01 3e be 3e 29 be 23 3a be 3e b5 cb 28 3e
       0.12682408 -0.1652784 0.3715373 0.16483958
0003f0 76 61 8e 3e e0 fa b5 be 8e 26 e4 be 6b c0 82 be
       0.27808732 -0.35542965 -0.44560665 -0.25537428

vertex_output_lin.0.bias f4 [32]
000000 4d 26 1e be 78 67 80 be b6 e5 33 3c 1a 54 04 3e
       -0.15444298 -0.2507894 0.01098006 0.12922707
000010 57 36 de bc 99 a9 0e 3e 54 db f8 bd 16 e9 6a 3e
       -0.02712552 0.13931884 -0.121512085 0.22940478
000020 0d 89 14 be 5c e7 71 be 87 50 6f b9 ae 2b a1 be
       -0.14505406 -0.23623413 -0.00022822815 -0.31478637
000030 0a bd 8b 3d 05 c7 87 ba 25 a7 65 be 73 94 ea 3d
       0.06823166 -0.0010358995 -0.22427042 0.11454096
000040 9b 30 90 bd 6c 38 a2 bd 65 99 4a 3c c5 56 dd bc
       -0.07040521 -0.07920918 0.012365674 -0.027018914
000050 87 88 51 3e 36 75 cc 3c 5d 1b 26 be e7 56 c1 3e
       0.20462237 0.024958234 -0.16221376 0.37761614
000060 8a 05 c9 bd 64 57 29 be fe 4e 14 bd a2 32 4b be
       -0.098155096 -0.16537243 -0.036208145 -0.19843534
000070 df 94 20 be 36 92 d8 3d 4e 60 e8 3d 2c be 4e 3c
       -0.1568179 0.105747625 0.11346494 0.012618583

vertex_output_lin.2.weight f4 [1, 32, 1, 1]
000000 af 7f 72 bb fb 7c 9c be 67 ee 16 bb 1e 6e af be
       -0.0037002375 -0.30564103 -0.0023030282 -0.342637
000010 64 b8 4b bd 1e be ce be 65 52 47 3d 82 d3 d3 be
       -0.049736395 -0.40379423 0.048662562 -0.41372305
000020 2c 5f 2b 3e 95 48 a3 bd d7 60 11 bf 21 ef 2b bd
       0.16735524 -0.07972828 -0.5678839 -0.041976098
000030 e2 5e be be ed 76 0b bd 33 1c fb be 68 04 76 3e
       -0.37181765 -0.034048963 -0.49044952 0.24025118
000040 bc f9 01 bf 3c 11 07 bc 03 d0 11 3e 68 a0 86 bc
       -0.5077169 -0.008243855 0.14239506 -0.01643391
000050 5c ac a8 be 94 8b 32 3e 8e ac 5e bf 7b 0f 34 3e
       -0.32944 0.17436057 -0.8698205 0.1758403
000060 5b 36 82 3c cc 01 48 bd 67 8e a5 be 68 ed f0 b9
       0.01589506 -0.04882984 -0.32335207 -0.0004595325
000070 f4 79 45 bd af 03 95 be a7 7d 9b 3d 61 00 9a be
       -0.048212007 -0.29104373 0.07592326 -0.30078414

graph_output_lin.0.weight f4 [1, 618]
000000 22 76 cb bc 97 cd 5b 3d 5f c5 b9 bd 21 4d 4b be
       -0.024836604 0.053662863 -0.09070849 -0.19853641
000010 04 72 95 3d 1d 5c 9e bc 3b dc 49 bc e5 4b c1 3a
       0.072971374 -0.019331032 -0.012320573 0.001474735
000020 26 df 15 be 03 fe db bd 37 c6 d6 bc be 84 7a 3e
       -0.14635906 -0.10741808 -0.026217563 0.244647
000030 57 d4 96 be 39 d4 0a 3e 0f 91 69 3e 7c be 14 be
       -0.29458877 0.13557519 0.22809242 -0.14525789
000040 91 de 65 3e 4b 8c d9 3d 4e 06 80 be 0e f4 83 3d
       0.22448184 0.10622462 -0.2500481 0.06443034
000050 96 8b 6c be 35 66 f4 3d b5 eb 8f 3c a8 5f 86 be
       -0.23100123 0.11933557 0.017568449 -0.26244855
000060 84 10 47 3d 59 1b cd bd 8b d0 39 be 82 38 c1 be
       0.048599735 -0.10014982 -0.18145959 -0.37738425
000070 a4 a2 f4 bd 52 85 2e bf ea be 55 be 6f bb 09 be
       -0.11945084 -0.6817218 -0.20873609 -0.13450406
000080 53 26 95 bd 78 5b b8 be 28 5e 25 3d 47 39 32 bd
       -0.072827004 -0.36007285 0.040372998 -0.043511655
000090 e5 93 2f be e6 9b df 3c 87 8f 7f 3e 36 64 2d bd
       -0.17146261 0.027296018 0.24957095 -0.042331897
0000a0 12 88 c3 bd 75 9a 54 be 92 cb d3 bd a5 11 cf 3d
       -0.09547438 -0.20762046 -0.10341562 0.10110787
0000b0 5b 2f 07 3e 0e a3 3e 3b 5c 45 ac 3d ee 53 48 3e
       0.13201658 0.0029088887 0.08411667 0.19563267
0000c0 3f 56 c9 be 75 91 20 be b5 c8 1d bb 96 ad 6b 3d
       -0.39323613 -0.15680487 -0.002407593 0.05753859
0000d0 a8 95 85 bc de aa aa 3b d7 65 93 be 31 25 c5 bc
       -0.016306713 0.0052083572 -0.28788635 -0.024065586
0000e0 89 03 0c be eb 95 0d 3e 91 76 40 3e 33 8d e9 be
       -0.13673224 0.1382672 0.1879523 -0.4561554
0000f0 c4 f3 08 ba 19 09 70 bb fa c2 07 3d df eb 1f bd
       -0.0005224312 -0.0036626516 0.03314493 -0.039043304
000100 2c e7 a6 be c6 db 27 bc 6b a1 87 3d c2 9b 2b 3d
       -0.32598245 -0.010245269 0.06622585 0.04189659
000110 b6 f1 a4 3e a4 89 17 be f1 20 9b be 37 aa 29 bf
       0.3221566 -0.147986 -0.3029857 -0.6627535
000120 fc 71 44 3d 99 00 88 3c 77 63 ae bc 7d 38 02 be
       0.047960266 0.016601847 -0.021287663 -0.12716861
000130 53 3d 3c 3d 6c 74 81 bc 72 3e d9 bc 93 7d 9a 3e
       0.04595692 -0.015802585 -0.026519034 0.3017393
000140 0d 36 89 be 70 ec a5 3d 5f 22 ae 3d 0b ee 59 3e
       -0.2679905 0.081017375 0.085026495 0.21282212
000150 7d 4c 05 bd ea cd 79 be 0c ee cf bd 8a dd 8c be
       -0.032543648 -0.24394956 -0.10152826 -0.2751277
000160 0d 3b 2e 3d 81 37 41 be 00 17 9c bc 1d da aa 3d
       0.042536784 -0.1886883 -0.019053936 0.08342383
000170 4e e7 18 bc 02 0b 76 bc f4 7e d2 bd 97 da 70 be
       -0.009332491 -0.015017273 -0.10278121 -0.23520885
000180 c2 91 f3 bc 05 7a 6c bd a3 58 12 bf 86 54 a7 3d
       -0.029732589 -0.057733554 -0.571665 0.081704184
000190 83 f6 a2 be bf d6 06 bd ce 72 45 be 56 a3 e0 be
       -0.318287 -0.03291964 -0.19282076 -0.43874615
0001a0 09 68 d4 3c c7 53 27 3d 97 6b 27 be d4 85 0d be
       0.025928514 0.04085138 -0.16349636 -0.13820583
0001b0 a7 05 ca be b2 e1 73 3e d3 01 df 3d 80 d0 89 be
       -0.39457437 0.23816565 0.1088902 -0.26916885
0001c0 45 61 0e 3d cf 91 ab bc 2d 8b ec 3e ef d8 76 3e
       0.034760732 -0.02094355 0.46199933 0.24106191
0001d0 f9 aa 35 3d 9c 98 dd 3e 09 06 5c be 1d 37 17 3e
       0.044352505 0.43280494 -0.21486677 0.14767118
0001e0 78 16 2f 3e 1a ee a0 3d 9f dd 89 3b 0e f1 2e 3e
       0.17098415 0.07857914 0.0042073275 0.17084143
0001f0 40 83 61 bd 9a 13 11 bf 04 b2 04 3d fc 95 95 be
       -0.05505681 -0.56670535 0.03239633 -0.29215991
000200 9d 82 66 be e2 df aa bd 5b 26 9a 3e 24 54 2c 3e
       -0.22510763 -0.083434835 0.30107388 0.16828972
000210 bf 0b 79 be 91 4c 78 3d bb 59 5e be 38 d3 00 be
       -0.24320887 0.060619894 -0.21713917 -0.12580574
000220 25 f9 a1 be cf 64 bc bd d3 49 dc bd d8 02 7f bc
       -0.31635395 -0.09198915 -0.10756268 -0.015564643
000230 07 19 ac bd db 90 2d be 65 8a 85 be 0d c4 11 3e
       -0.08403211 -0.16949789 -0.2608215 0.14234944
000240 0f 2d e4 3e 8a 50 06 3e f3 4f 1c 3e eb c5 1a 3e
       0.44565627 0.1311666 0.15264873 0.15114562
000250 89 d8 bd 3d 02 11 78 be e5 32 5e be bd 69 b1 3d
       0.092698164 -0.24225238 -0.21699102 0.08662746
000260 9f 02 c1 bc 25 73 c5 bd 44 83 f1 3c 43 48 7c bc
       -0.02356082 -0.09641103 0.029481538 -0.015398088
000270 ad 0f b2 bd fc a0 22 be 73 12 54 bd 85 99 c3 3c
       -0.08694396 -0.15881723 -0.051775407 0.023876915
000280 e9 89 41 3e 4a 6d 05 be 68 dc 65 3e ac 12 c6 be
       0.18900265 -0.13029972 0.2244736 -0.3868612
000290 a1 ff a8 3d 4d a0 6c 3e a6 2d d5 3d 09 8a 6d bd
       0.08251882 0.23108025 0.104090974 -0.05799297
0002a0 aa 22 9d 3d 3a 2b bc bd e5 4c d2 3d 1b 7d c0 3d
       0.07672627 -0.09187932 0.10268573 0.09398862
0002b0 47 5a 37 bd b5 bb 8a 3e 40 54 56 3d 47 e6 fb 3d
       -0.04476383 0.27096334 0.05232644 0.12299781
0002c0 da ef d3 3c 36 f7 39 be 0b 31 57 be 02 84 8e be
       0.025871206 -0.1816071 -0.21014802 -0.2783509
0002d0 20 06 22 be 93 e2 a3 be 87 fb ba bd ee 90 f7 3d
       -0.15822649 -0.320088 -0.09130006 0.1208819
0002e0 10 e6 57 3e 9a 25 af 3d 9d f6 e4 bd f7 fe 4c be
       0.21083856 0.08552094 -0.1117985 -0.20019136
0002f0 f1 14 3f 3e 4b de e1 be 9f 7b 1a be 27 98 af 3e
       0.18660332 -0.4411491 -0.1508622 0.3429577
000300 42 10 d1 3d 6c da 86 bc 35 29 70 be 59 15 43 be
       0.10208179 -0.016461574 -0.23453219 -0.19051112
000310 be 1a 64 be 5a 31 0c 3e bf 78 44 3d 39 cb 91 3d
       -0.22275826 0.13690701 0.047966715 0.0711884
000320 43 31 7d 3e 74 7d a4 be 28 c4 08 be d6 b7 d2 3d
       0.24725823 -0.32126963 -0.13356078 0.1028897
000330 6b 2b 3d be 77 9c d5 3e ff d4 15 3e 8c 8f 77 bd
       -0.18473594 0.41720936 0.14632033 -0.06043963
000340 49 f5 3d 3d 46 be 7a bd ad b1 cc 3d b1 0a b6 3e
       0.0463765 -0.061216615 0.099948265 0.35555032
000350 9a 5e b1 bd 12 fb 7d bc 88 35 93 3d c7 d3 82 be
       -0.08660622 -0.015501754 0.07187945 -0.25552198
000360 02 35 df bd d7 a2 ac 3d ee a7 6a 3d 5a e1 d4 3e
       -0.10898782 0.08429497 0.057289056 0.4157818
000370 49 20 9e bd 3c c0 fa bc 64 b1 17 be 90 17 c2 3d
       -0.07721002 -0.030609243 -0.14813763 0.094771504
000380 3a a3 16 3e e8 9b 68 3e 99 15 3f 3e 7e 9f df 3c
       0.14710703 0.22715724 0.18660583 0.027297731
000390 8a d8 3b 3d 08 7c 8f bd 1a 7f 85 3d 1b c0 50 be
       0.045860805 -0.07006079 0.06518383 -0.20385782
0003a0 bd 38 b2 3c 01 f9 6e bd 12 a3 62 3e ff 21 4c be
       0.02175557 -0.058342937 0.22132519 -0.19934843
0003b0 75 32 6e bc 1d ff ca be 67 b6 ca 3d 0c 3c 9d be
       -0.014538397 -0.3964776 0.09898072 -0.30709875
0003c0 1d c8 98 3c 24 b6 94 be 8f bc 04 3d 9a 57 ce bd
       0.018650109 -0.29045212 0.032406386 -0.100753024
0003d0 40 a2 b1 bd 96 c3 9e 3c dd 03 37 be a6 f1 13 3e
       -0.08673525 0.019380372 -0.17872567 0.1444765
0003e0 e0 d1 a3 be fc 6c e5 3c 4b 3c 05 3c 18 b7 10 bd
       -0.3199606 0.02800607 0.008132051 -0.03533086
0003f0 30 6a 44 bd a3 0d de 3c f5 fa d3 bd fd 79 a3 3d
       -0.04795283 0.027106112 -0.10350601 0.07982252
