reachability_classification/weights/SimpleMultiplePassGNNReachabilityNet_epoch_10.pt (torch_old, 36685 bytes, 16 tensors)

x_lin.0.weight f4 [32, 1, 1, 11]
0	0x3e027ba5	0.12742479
1	0xbd0ebb14	-0.03484638
2	0xbd00859f	-0.03137743
3	0xbf2b4a5a	-0.66910326
4	0xbe43b654	-0.19112521
5	0xbd991d11	-0.07476247
6	0xbcde733f	-0.027154563
7	0x3e1e3598	0.15450132
8	0x3d5d67b9	0.054053996
9	0x3d8e8c1f	0.0696032
10	0xbe20d5cd	-0.15706559
11	0x3e06d022	0.13165334
12	0xbce14c74	-0.027502276
13	0x3c7270bf	0.014797389
14	0x3d25fabf	0.040522333
15	0xbe54dad2	-0.20786598
16	0xbea526e7	-0.32256243
17	0xbd7bcb73	-0.06147332
18	0xbdfad547	-0.12247711
19	0x3df78e5c	0.120877
20	0xbe8310c9	-0.25598744
21	0x3e36c0d9	0.17847003
22	0xbe656bae	-0.22404358
23	0x3cf40cd5	0.029791275
24	0x3d5a0752	0.053229637
25	0xbe22406e	-0.1584489
26	0x3e5d0132	0.21582487
27	0x3dab9b21	0.08379198
28	0x3e1b15b8	0.15145004
29	0xbea12331	-0.3147216
30	0x3d5f90e9	0.054581556
31	0x3f1c1e76	0.6098398
32	0x3d104ac3	0.03522755
33	0x3e0e5149	0.13898195
34	0xbe522905	-0.2052346
35	0xbe736ae9	-0.23771252
36	0x3ea4611e	0.32105345
37	0xbe1afcc9	-0.15135492
38	0xbc3ee500	-0.011651278
39	0xbed4a07d	-0.41528693
40	0xbe145eff	-0.14489363
41	0xbe25c626	-0.16188869
42	0xbf07ac79	-0.5299755
43	0xbe9974c2	-0.29971892
44	0xbd65c109	-0.056092296
45	0x3e118622	0.14211324
46	0x3db9c65a	0.09071036
47	0xbc6baa88	-0.01438392
48	0xbebbe086	-0.36694735
49	0x3d664e2d	0.056226898
50	0xbdb055e3	-0.086101316
51	0x3ea183af	0.3154578
52	0x3e796854	0.24356204
53	0xbe14db94	-0.14536887
54	0xbe6c0e69	-0.23052372
55	0x3d945652	0.07243027
56	0xbdcd92d6	-0.10037772
57	0xbd03c97c	-0.032174572
58	0x3ec7fe80	0.39061356
59	0x3c90f4d1	0.017694863
60	0x3e54a198	0.20764768
61	0x3e536695	0.206446
62	0x3cd63c9e	0.026151951
63	0xbe3a32fa	-0.18183509
64	0xbeb3ac94	-0.35092604
65	0xbe012c10	-0.12614465
66	0xbe1afebd	-0.15136237
67	0x3e2b370c	0.16720217
68	0xbd2839ed	-0.041070867
69	0x3e8d350a	0.27579528
70	0xbe38ac58	-0.18034494
71	0x3d8a8a73	0.06764688
72	0x3dd13491	0.10215104
73	0x3e116d64	0.14201885
74	0xbf3dadb9	-0.74093205
75	0x3d86e80e	0.0658723
76	0x3c1c96c1	0.009557427
77	0xbea071d0	-0.31336832
78	0xbda9924d	-0.08279858
79	0xbe9b036b	-0.30276045
80	0xbd98a51b	-0.07453366
81	0xbe84fcdb	-0.25974163
82	0x3d1818a7	0.037132885
83	0x3e901daf	0.28147647
84	0x3e91e566	0.2849533
85	0x3e76480e	0.24050924
86	0xbd5e68f5	-0.054299314
87	0x3e883123	0.26599988
88	0x3eedb05d	0.46423617
89	0xbe339470	-0.17537093
90	0xbeb84a0b	-0.3599399
91	0xbe2f8d42	-0.1714373
92	0x3e5b4839	0.2141427
93	0xbe7f31dd	-0.24921365
94	0xbd32068f	-0.043463286
95	0x3dd1fa69	0.1025284
96	0x3e359c8f	0.17735504
97	0x3aa303c5	0.0012437036
98	0x3e1f33f7	0.15547167
99	0x3eb44f2d	0.35216656
100	0x3d693dcb	0.056943696
101	0x3e9d73ba	0.30752355
102	0x3e1a9dd3	0.15099268
103	0xbd6c6bda	-0.057720043
104	0x3e759845	0.23983867
105	0x3cf11236	0.029427629
106	0x3efaff2d	0.4902281
107	0x3b85e8c6	0.0040865866
108	0x3d229bbe	0.03969931
109	0xbe476936	-0.19473729
110	0xbe315763	-0.17318492
111	0x3d8786ae	0.06617485
112	0x3e0c28bc	0.13687414
113	0x3e8216ce	0.25408024
114	0xbe4fe354	-0.20301563
115	0x3e3eb8b4	0.18625146
116	0xbd93a3ca	-0.07208975
117	0xbdbe494c	-0.09291324
118	0xbe0a761d	-0.13521619
119	0x3e2b04e7	0.16701089
120	0xbe105330	-0.14094234
121	0xbe3a0eac	-0.1816966
122	0x3daaac49	0.08333642
123	0xbd49f951	-0.049310032
124	0x3ccef171	0.025261613
125	0xbe9cbdbe	-0.30613512
126	0x3def6e28	0.116909325
127	0xbe4d23f0	-0.2003324
128	0x3e925b77	0.28585407
129	0x3e192576	0.14955696
130	0xbea87351	-0.3290048
131	0x3daf0dda	0.08547564
132	0xbeccc999	-0.39997557
133	0xbd8446b3	-0.06458797
134	0xbd6789a9	-0.056527767
135	0xbd3c5709	-0.04598144
136	0xbe89d97f	-0.2692375
137	0xbd99e2fd	-0.07513998
138	0x3e772ddb	0.24138586
139	0x3eba5a60	0.36397076
140	0xbd87c723	-0.06629779
141	0xbe293f66	-0.16528091
142	0x3eaedcaa	0.34152728
143	0x3e2cb14d	0.1686451
144	0x3cb5eba0	0.022207081
145	0xbdad0ecd	-0.08450089
146	0x3dacde61	0.08440853
147	0xbe71594d	-0.23569222
148	0xbd89e791	-0.06733621
149	0xbeb0fed9	-0.34569433
150	0xbd889c5f	-0.066704504
151	0xbe012db5	-0.12615092
152	0x3f17836d	0.59184915
153	0xbf03c494	-0.5147183
154	0xbe5002c2	-0.20313552
155	0xbe0bd4f8	-0.1365546
156	0xbe732799	-0.23745574
157	0x3db55647	0.08854347
158	0x3e76a337	0.24085699
159	0xbe838ddb	-0.25694165
160	0x3e6b345c	0.22969192
161	0xbebc85e5	-0.36820903
162	0xbdf337bc	-0.11875865
163	0x3e078bea	0.13236967
164	0xbea140b8	-0.3149469
165	0xbcbd8872	-0.023136351
166	0xbdcadb04	-0.09905055
167	0x3e30734d	0.17231484
168	0xbdbee471	-0.093209155
169	0xbe9f1f61	-0.31078628
170	0xbe156038	-0.14587486
171	0x3e6da830	0.2320869
172	0x3d470703	0.04859067
173	0xbde44098	-0.11145133
174	0x3f31e14c	0.694844
175	0xbef86f81	-0.4852257
176	0x3ebaeffa	0.36511213
177	0x3e1e5a71	0.15464188
178	0x3e63504b	0.22198598
179	0xbea79b19	-0.32735518
180	0x3ea36b6e	0.319179
181	0xbded769f	-0.11594891
182	0x3e0d7a8d	0.1381628
183	0xbe0ab5f1	-0.13545968
184	0x3c730e9b	0.014835025
185	0xbee87b26	-0.45406455
186	0x3f032168	0.5122285
187	0xbd420057	-0.047363605
188	0x3d163ac6	0.036677144
189	0xbca8ceae	-0.020606365
190	0xbee960cf	-0.45581672
191	0xbe26da74	-0.16294271
192	0xbde6669e	-0.112500414
193	0x3e5bde7e	0.21471593
194	0xbe83fa31	-0.25776818
195	0xbdb7ce3d	-0.08974884
196	0x3dca596b	0.098803364
197	0xbe1de680	-0.1541996
198	0x3e14e1ea	0.14539304
199	0xbe94065a	-0.28911096
200	0x3caf9465	0.021433065
201	0xbeaac4d8	-0.33353305
202	0xbd3e711e	-0.046494596
203	0xbc9da2d2	-0.019242678
204	0xbce76c2f	-0.028249828
205	0xbcda83de	-0.026674207
206	0xbe1f517d	-0.15558429
207	0xbf280a0b	-0.65640324
208	0x3ef7ff07	0.48436758
209	0x3e19d216	0.15021548
210	0xbd8d66ac	-0.06904349
211	0xbd08746b	-0.03331415
212	0x3ebf007c	0.37305057
213	0x3e064cc5	0.13115223
214	0xbe159e3f	-0.14611147
215	0xbdb54d6a	-0.08852656
216	0xbe33654a	-0.17519107
217	0xbecfd44d	-0.4059166
218	0xbea8fbbf	-0.33004567
219	0x3ea5bf76	0.32372636
220	0x3d292007	0.04129031
221	0xbe5f8817	-0.21829258
222	0xbd01bb5c	-0.03167282
223	0x3ed84f45	0.42247978
224	0x3efccc34	0.49374545
225	0xbe47ba03	-0.19504552
226	0x3e1549ed	0.14578982
227	0x3db9ee2f	0.09078633
228	0x3d744661	0.05963743
229	0x3ece7914	0.4032675
230	0xbea6faed	-0.32613316
231	0x3e097c6e	0.13426372
232	0x3dec7c8b	0.11547192
233	0xbdcf8f2d	-0.101347305
234	0xbe114f4f	-0.1419041
235	0x3e368413	0.1782382
236	0xbe9ff944	-0.31244862
237	0xbe31dff1	-0.17370583
238	0xbe037f83	-0.1284161
239	0x3e24151d	0.16023679
240	0xbecf06fe	-0.40435022
241	0x3ee79c3f	0.45236394
242	0x3da778ff	0.08177375
243	0xbd965e8d	-0.07342253
244	0x3e1960db	0.14978354
245	0x3d72da96	0.05929049
246	0xbe911941	-0.2833958
247	0xbd1f9c1d	-0.03896724
248	0xbd891bae	-0.066947326
249	0x3e210b54	0.15726978
250	0xbc2e513a	-0.010639483
251	0x3ee8e765	0.4548904
252	0xbedecc3d	-0.43515196
253	0xbc540d1c	-0.012942579
254	0xbd407f96	-0.046996675
255	0x3cc59fac	0.024123989

x_lin.0.bias f4 [32]
0	0xbea6323e	-0.32460207
1	0xbead0a5a	-0.3379696
2	0xbe059197	-0.1304382
3	0x3dc6aeba	0.09701295
4	0xbe52526b	-0.20539252
5	0xbde09060	-0.10965037
6	0x3e171cf0	0.14757133
7	0xbdc01fb6	-0.093810484
8	0x3e992daa	0.2991765
9	0x3d776581	0.060399536
10	0xbe3c4164	-0.1838432
11	0x3dab0e31	0.08352316
12	0x3eb04c6a	0.344333
13	0xbe6d0b57	-0.23148857
14	0xbd93f655	-0.072247185
15	0x3c18e57c	0.009332057
16	0x3ea35b62	0.31905657
17	0xbdd9e14d	-0.10638676
18	0x3eb63661	0.35588363
19	0xbe16434f	-0.14674114
20	0xbe4c6ab2	-0.19962576
21	0x3e600b27	0.21879254
22	0x3da3821a	0.07983799
23	0x3b9c8171	0.004776173
24	0xbe0bb0ee	-0.13641712
25	0x3e02638f	0.12733291
26	0xbe688a76	-0.22709069
27	0x3e2108b6	0.15725979
28	0x3e5ea175	0.21741278
29	0xbd4748d9	-0.048653457
30	0x3d3717ad	0.044700313
31	0x3ebceceb	0.36899504

x_lin.2.weight f4 [32, 32, 1, 1]
0	0x3dcbc638	0.099499166
1	0x3d77ddcf	0.060514268
2	0x3c823669	0.015895085
3	0x3de7469a	0.11292763
4	0xbd31dfd3	-0.043426346
5	0xbdde5188	-0.108553946
6	0xbcf37e31	-0.029723259
7	0xbe50c079	-0.20385922
8	0xbdd6ef18	-0.10494822
9	0x3f06b8d9	0.52625805
10	0x3d5a182d	0.053245712
11	0xbdd20ea2	-0.10256697
12	0xbe42e8f2	-0.19034174
13	0x3e8dccf1	0.2769542
14	0x3cde31e2	0.027123395
15	0x3e93b7c4	0.2885114
16	0xbc9bc7bf	-0.019016145
17	0xbdd69e0c	-0.10479364
18	0xbdf2d792	-0.11857523
19	0xbde8ce27	-0.113674454
20	0x3e349c70	0.17637801
21	0x3c0fe070	0.008781537
22	0x3d7b7155	0.06138738
23	0xbec62dbd	-0.3870677
24	0x3e30cbd9	0.17265262
25	0x3c703348	0.014660664
26	0x3d6ebe9d	0.05828725
27	0x3d8140de	0.063112006
28	0x3e66e934	0.22549897
29	0x3ddda66b	0.10822757
30	0xbe636c34	-0.22209245
31	0xbe4e1474	-0.2012499
32	0x3e299443	0.16560464
33	0xbe067ab1	-0.1313274
34	0x3e203012	0.15643337
35	0x3c551e53	0.013007718
36	0xbc58f894	-0.013242859
37	0xbe6ac551	-0.22926833
38	0xbe548c49	-0.2075664
39	0x3d2cd67a	0.04219673
40	0xbe093693	-0.13399725
41	0xbdc0eab6	-0.094197676
42	0xbd33a8ab	-0.043862026
43	0x3e2d55a2	0.16927198
44	0xbe13f2a1	-0.14448024
45	0x3ec2e351	0.38064054
46	0x3d7e6800	0.0621109
47	0x3e20d403	0.15705876
48	0xbef9b0c8	-0.48767686
49	0x3dfa9336	0.122351095
50	0xbeabceb7	-0.33556148
51	0xbe7d7b5f	-0.24754094
52	0xbe64e385	-0.22352417
53	0xbd0b7f6d	-0.03405707
54	0x3e0caedb	0.13738577
55	0xbcc2257a	-0.02369951
56	0xbbd59677	-0.006518181
57	0x3d7ea1f6	0.062166177
58	0x3e7f718f	0.24945663
59	0xbd343c85	-0.04400303
60	0x3ecf2a76	0.40462083
61	0x3dce944f	0.10086881
62	0xbdd03f4e	-0.101683244
63	0x3e8563dd	0.26052752
64	0x3e10ff63	0.14159922
65	0xbbf44b03	-0.007455231
66	0x3d1fa304	0.038973823
67	0xbe020817	-0.12698399
68	0x3dfe65c9	0.12421758
69	0x3e179dbc	0.14806265
70	0xbd0deaf8	-0.03464791
71	0x3e312678	0.17299831
72	0xbdaf2fd7	-0.085540466
73	0x3e040243	0.12891488
74	0xbd87f4e5	-0.06638507
75	0x3da8965a	0.08231802
76	0xbe07ee0e	-0.13274404
77	0xbd05fa59	-0.032709453
78	0x3e0b73fb	0.13618462
79	0x3e405461	0.18782188
80	0xbcf66f76	-0.030082446
81	0xbcf14f5d	-0.029456789
82	0x3db8d49b	0.09024926
83	0xbd44a283	-0.048006546
84	0x3ec1e0f4	0.37866938
85	0xbcdce410	-0.026964217
86	0x3e5d556e	0.2161462
87	0xbe2f37b3	-0.17111091
88	0xbc583959	-0.0131972665
89	0xbe2639f8	-0.16233051
90	0x3e241929	0.16025223
91	0x3e768f11	0.24078013
92	0xbeabd9d2	-0.3356462
93	0x3e89bc1b	0.26901326
94	0xbdbf7e91	-0.093503125
95	0xbdb492c9	-0.088170595
96	0x3dc17f60	0.09448123
97	0x3d7f4342	0.06232
98	0xbd63eb40	-0.055644274
99	0x3d69d4fc	0.057087883
100	0xbe601237	-0.21881948
101	0xbdf46683	-0.11933615
102	0xbe7bb529	-0.24580826
103	0xbe8836bd	-0.26604262
104	0x3d57b411	0.05266196
105	0xbe84091c	-0.257882
106	0xbe93abc5	-0.28841987
107	0xbe258b62	-0.16166452
108	0xbdae903f	-0.085236065
109	0xbdc7f2f2	-0.09763135
110	0x3e09a49e	0.13441703
111	0x3e302024	0.1719976
112	0x3e4f3723	0.20235877
113	0xbe5ddf8f	-0.21667312
114	0xbe6d2b5f	-0.23161076
115	0x3ea5fc82	0.3241921
116	0x3eb087ba	0.3447855
117	0x3d211716	0.039328657
118	0x3da57322	0.080786005
119	0xbd5ebd16	-0.054379545
120	0x3e8e05fd	0.27738944
121	0xbd3615fc	-0.04445456
122	0xbec19700	-0.37810516
123	0xbe1800de	-0.14844081
124	0x3e0a0c05	0.13481148
125	0xbe68b82c	-0.22726506
126	0xbeb0ebba	-0.34554845
127	0xbe1334ae	-0.14375564
128	0xbd96e444	-0.07367757
129	0xbd607f1e	-0.05480873
130	0xbc844a82	-0.01614881
131	0x3d271ea4	0.040800706
132	0x3c9176ca	0.017756838
133	0xbc7f6e05	-0.015590196
134	0x3c051f1f	0.008125096
135	0xbdc954c7	-0.09830623
136	0xbe181e4d	-0.14855309
137	0xbcdfe3ec	-0.027330361
138	0x3e1d53dd	0.15364023
139	0xbcf5ac55	-0.0299894
140	0xbe3f1e71	-0.18663956
141	0xbd978243	-0.07397892
142	0xbd1054a5	-0.035236973
143	0x3e6a8354	0.2290166
144	0xbe3069be	-0.17227837
145	0x3d2cef03	0.042220127
146	0xbe90fe3b	-0.28318962
147	0xbb82f21c	-0.003996147
148	0xbe5940e8	-0.21216166
149	0xbc92014b	-0.017822882
150	0x3e6b1b63	0.22959666
151	0x3e3a7c7e	0.18211553
152	0x3dc21353	0.09476342
153	0x3dd871ec	0.10568604
154	0x3e097427	0.13423215
155	0x3e1caafe	0.15299603
156	0xbeb3ae3b	-0.35093865
157	0x3e692ace	0.22770235
158	0xbe40c1ec	-0.18823975
159	0x3e2427b6	0.16030774
160	0x3e41cb57	0.18925224
161	0xbd254472	-0.040348478
162	0x3e7a69a3	0.2445436
163	0x3d3a0090	0.045410693
164	0xbdf203a1	-0.118170984
165	0xbdf7c611	-0.12098325
166	0x3d0ee409	0.03488544
167	0x3e2b8fa6	0.16754016
168	0x3da59e02	0.08086778
169	0x3c9a12d2	0.018807802
170	0xbdb13008	-0.08651739
171	0x3e004e6b	0.12529914
172	0x3e9c5289	0.3053172
173	0xbe769825	-0.24081476
174	0x3d595d91	0.053067748
175	0xbd1321f4	-0.035921052
176	0x3e058661	0.13039543
177	0x3e764d20	0.24052858
178	0x3e258302	0.16163257
179	0xbe09255b	-0.13393156
180	0xbf0540d9	-0.52052075
181	0x3c81542e	0.01578721
182	0xbe8b3456	-0.27188367
183	0x3e80af1a	0.25133592
184	0x3dd5d040	0.10440111
185	0xbe30584f	-0.17221187
186	0x3e3d77e9	0.18502773
187	0x3babb56f	0.0052401344
188	0xbec78aa2	-0.38972956
189	0x3d0068f4	0.03135009
190	0x3d6b3806	0.057426475
191	0x3e380c4b	0.1797344
192	0x3e09f5f7	0.13472734
193	0xbcff7593	-0.031183993
194	0xbdf296b4	-0.118451506
195	0xbe4f2d24	-0.20232064
196	0xbcefe853	-0.029285586
197	0x3e141e22	0.1446462
198	0xbe4d8947	-0.20071898
199	0x3da96bb7	0.08272498
200	0xbe9e1562	-0.3087569
201	0xbe5c4ca6	-0.21513614
202	0x3e177855	0.14791997
203	0x3b34411f	0.0027504636
204	0xbdfcbb5e	-0.12340425
205	0x3e242649	0.1603023
206	0xbe795c14	-0.24351531
207	0x3e592334	0.21204835
208	0xbe71b9e3	-0.23606066
209	0x3e9d8dfa	0.30772382
210	0xbda5f999	-0.081042476
211	0xbe66db63	-0.22544627
212	0xbd8df2a5	-0.069310464
213	0xbcffd997	-0.031231685
214	0x3e3b7fab	0.1831042
215	0xbdd10de2	-0.10207726
216	0x3adee153	0.0017004408
217	0xbd023f6e	-0.031798773
218	0x3e7f3992	0.24924305
219	0xbd82db41	-0.063894756
220	0x3e8424ef	0.25809428
221	0x3e139172	0.14410952
222	0xbe2a0d43	-0.16606621
223	0x3e5de83d	0.21670623
224	0xbccde46e	-0.025133338
225	0xbea53c6b	-0.32272658
226	0xbe4d03d1	-0.20020987
227	0xbe2696fe	-0.16268536
228	0xbd8cb999	-0.068713374
229	0xbd126d22	-0.03574861
230	0xbe2ad6e2	-0.16683534
231	0xbe519db5	-0.20470317
232	0x3e1b52a2	0.1516824
233	0x3db36f15	0.087614216
234	0x3c8904bb	0.016725888
235	0x3d56eb98	0.052470773
236	0xbded61eb	-0.11590942
237	0xbe4713e3	-0.1944118
238	0xbcfd73a9	-0.03093894
239	0xbdbdbd1a	-0.09264584
240	0x3e9c19cd	0.30488434
241	0xbe25e9e9	-0.16202511
242	0xbe51e48b	-0.20497338
243	0xbe085db3	-0.13316993
244	0x3df4b3e3	0.11948373
245	0x3c84d19d	0.016213233
246	0x3d006d91	0.03135449
247	0xbd076aa0	-0.03306067
248	0x3e3c5d8d	0.18395062
249	0xbe148dd4	-0.14507228
250	0xbd7ebe0b	-0.062192958
251	0xbe17d4fd	-0.14827342
252	0xbd108cd4	-0.035290554
253	0x3d79f8bd	0.06102823
254	0xbe99bd30	-0.3002715
255	0xbd7050f8	-0.058670968

x_lin.2.bias f4 [32]
0	0xbe627457	-0.22114693
1	0xbe2454ce	-0.16047975
2	0xbe02ef4b	-0.12786596
3	0xbe4e27b4	-0.20132333
4	0xbe19b6ff	-0.15011214
5	0x3e07502c	0.13214177
6	0xbcf81427	-0.030283047
7	0x3ddd19a2	0.10795905
8	0xbde9b779	-0.11411948
9	0x3d9ffd66	0.07812004
10	0x3e19582d	0.14975043
11	0x3d140619	0.036138628
12	0x3def399d	0.11680911
13	0xbd3f31d7	-0.04667839
14	0xbb89c98c	-0.0042049345
15	0x3da1c6f6	0.07899277
16	0xbe04eca3	-0.12980895
17	0x3cb39936	0.021923643
18	0x3da6323a	0.08115049
19	0xbe32d7d7	-0.17465149
20	0xbd9d34d5	-0.076760925
21	0x3e2a0d2f	0.16606592
22	0xbe157b6e	-0.14597866
23	0x3d87fcfa	0.06640048
24	0x3d933038	0.07186931
25	0x3cfadbdc	0.030622415
26	0x3d9f1cd7	0.07769173
27	0xbdca5991	-0.09880365
28	0x3dd7169c	0.10502359
29	0x3e148f2a	0.14507738
30	0xbd91f079	-0.07125945
31	0xbdd7a86e	-0.10530172

edge_lin.0.weight f4 [32, 1, 64, 1]
0	0xbedda53d	-0.4329013
1	0xbe2b7921	-0.16745426
2	0x3bead2cc	0.007166242
3	0xbdf9aeab	-0.121915184
4	0xbe10b370	-0.1413095
5	0xbea7c33a	-0.32766134
6	0xbdbd9a9e	-0.092580065
7	0xbcacd059	-0.021095442
8	0xbe4e4050	-0.20141721
9	0xbc9933e7	-0.018701507
10	0xbe465bc0	-0.19370937
11	0x3dbe545e	0.092934355
12	0xbd71f808	-0.05907443
13	0xbdb44d62	-0.08803822
14	0xbbfad314	-0.007654557
15	0xbdc89a29	-0.09795029
16	0xbddeb0c7	-0.10873561
17	0xbe8585de	-0.26078695
18	0xbcaf2c71	-0.021383496
19	0xbe2d48af	-0.16922258
20	0xbe63cea1	-0.22246791
21	0xbe8b8660	-0.27250957
22	0xbce852e6	-0.028359842
23	0x3d473dfb	0.048643094
24	0xbd4a007f	-0.04931688
25	0x3d1d568d	0.03841262
26	0x3c6ff390	0.014645472
27	0xbe5f295a	-0.21793118
28	0x3e2e2ba7	0.1700884
29	0xbe33af5b	-0.17547362
30	0x3dd24115	0.1026632
31	0x3ddf4553	0.109018944
32	0xbd94ec05	-0.0727158
33	0x3d48635f	0.048922893
34	0x3c40211f	0.011726647
35	0xbc95e582	-0.018297914
36	0xbd1ff923	-0.039055955
37	0xbebcfa93	-0.36909923
38	0x3d3c8d93	0.046033453
39	0xbdfaf28b	-0.12253293
40	0x3d6626de	0.05618941
41	0xbe31fead	-0.17382307
42	0xbe85cb96	-0.26131886
43	0xbbd67d25	-0.00654568
44	0xbe5bafee	-0.2145383
45	0x3e1741a3	0.14771132
46	0xbd9ae2ee	-0.07562815
47	0xbd5c7862	-0.053825743
48	0xbdacf7bf	-0.08445691
49	0xbe93f6ec	-0.28899324
50	0xbd9a74c4	-0.075418025
51	0xbe00c366	-0.12574539
52	0xbe24789a	-0.16061631
53	0xbe5900f6	-0.21191773
54	0xbd0ece95	-0.03486498
55	0xbd17ea83	-0.037088882
56	0x3c9b1fff	0.018936155
57	0x3d96cc35	0.07363168
58	0x3ae59424	0.0017515463
59	0xbe77c492	-0.2419608
60	0xbb96e4d0	-0.0046049133
61	0xbdd267da	-0.10273714
62	0x3db6b6d7	0.08921593
63	0x3ded3464	0.11582258
64	0xbe5dfb66	-0.21677932
65	0x3d837e74	0.064206034
66	0xbd051329	-0.032488976
67	0xbe960d1e	-0.29306883
68	0x3e19c8de	0.15018031
69	0xbe22da9d	-0.15903707
70	0xbc73b135	-0.014873792
71	0xbe504d01	-0.20341875
72	0x3e398773	0.18118076
73	0x3cbc9628	0.023020819
74	0xbe278259	-0.16358317
75	0xbc43beb9	-0.011947327
76	0x3bf5ad49	0.007497464
77	0xbda0bc73	-0.07848444
78	0x3e26f060	0.16302633
79	0x3e3ce27b	0.1844577
80	0xbda28ae3	-0.07936647
81	0xbebb3a40	-0.3656788
82	0x3d8d68c4	0.06904748
83	0x3ecaa360	0.3957777
84	0xbd76efdc	-0.06028734
85	0xbda9ed88	-0.082972586
86	0xbd9ba344	-0.075995
87	0x3bf75d26	0.007548946
88	0xbe8c7c58	-0.27438617
89	0x3e2d147c	0.16902345
90	0xbdd5cad3	-0.10439076
91	0x3e186b92	0.14884785
92	0xbde476c6	-0.11155467
93	0xbd65dacb	-0.05611686
94	0x3e4f57b7	0.20248304
95	0x3de70689	0.11280543
96	0xbaa78cc6	-0.0012783043
97	0x3d8e157a	0.0693769
98	0x3c31c72d	0.01085071
99	0xbe3d8a6d	-0.18509836
100	0xbc54c9e4	-0.012987588
101	0xbe7fec75	-0.24992545
102	0xbc8589d1	-0.016301068
103	0xbcbddefb	-0.023177614
104	0x3e75d79d	0.24008031
105	0xbce6b123	-0.028160637
106	0xbdcd9de6	-0.10039882
107	0x3e0cd243	0.13752083
108	0x3d66543a	0.05623267
109	0xbe38bdfa	-0.1804122
110	0x3e18b3a0	0.14912271
111	0x3d275a3b	0.040857535
112	0xbd846bee	-0.064658985
113	0xbe66f5da	-0.22554722
114	0xbdb35657	-0.087567024
115	0x3ebebdab	0.3725408
116	0xbdc7d8ee	-0.09758173
117	0xbe2822b2	-0.16419485
118	0xbe144f05	-0.14483269
119	0xbddbb776	-0.10728352
120	0xbe3cbc4c	-0.18431205
121	0xbd0d1401	-0.034442905
122	0xbca57a37	-0.020199878
123	0x3d87ccd4	0.06630865
124	0xbe801c8f	-0.25021788
125	0xbc9fdd54	-0.019514717
126	0x3e01ac4c	0.12663382
127	0x3e0c43fa	0.13697806
128	0xbdd7c29c	-0.10535166
129	0xbdd71ed2	-0.105039254
130	0xbdb0d34e	-0.08634053
131	0xbe076429	-0.13221802
132	0xbdb8991c	-0.09013578
133	0xbe9199a7	-0.2843754
134	0xbdb835a0	-0.08994603
135	0x3ea76420	0.32693577
136	0xbe1d4948	-0.15359986
137	0xbd94815f	-0.07251238
138	0xbd0d48c7	-0.034493234
139	0x3cf2e7b9	0.02965151
140	0xbd3e41f9	-0.046449635
141	0x3ca6a2b1	0.02034125
142	0x3e1361c0	0.14392757
143	0x3d668b8f	0.056285437
144	0xbd82e15c	-0.0639064
145	0xbdf8d55a	-0.121500686
146	0xbc9f0684	-0.019412287
147	0xbd5e38b0	-0.05425328
148	0xbe1528b8	-0.14566314
149	0xbb1670d0	-0.0022955425
150	0x3e3c1d4c	0.18370551
151	0xbe58e0e7	-0.21179543
152	0xbe17f680	-0.14840126
153	0xbe4ce4cc	-0.20009154
154	0x3c7a0d87	0.015262014
155	0x3e12fd7c	0.14354509
156	0x3c42baf8	0.011885397
157	0xbc1b4b59	-0.0094784135
158	0xbe183013	-0.14862089
159	0xbc94b62e	-0.018153276
160	0xbd7b6143	-0.061372053
161	0x3dbf347e	0.09336184
162	0xbe3d1539	-0.18465127
163	0xbd9c2c4e	-0.07625638
164	0xbd4c97ab	-0.04994933
165	0xbe963902	-0.29340369
166	0xbd624078	-0.055237263
167	0x3eec63fd	0.46170035
168	0xbdb34525	-0.08753423
169	0xbdd48f1c	-0.103788584
170	0x3da273db	0.07932254
171	0xbdb860fe	-0.09002875
172	0xbdd60b52	-0.10451378
173	0xbe11f6ff	-0.14254378
174	0x3db3edc2	0.08785583
175	0xbc9c23d2	-0.01906005
176	0xbd9f21fc	-0.07770154
177	0xbd356346	-0.044284128
178	0xbe1dff7f	-0.15429495
179	0x3bf9d4e8	0.0076242574
180	0xbd1a77e3	-0.03771199
181	0xbdf5dd7f	-0.12005138
182	0x3d848974	0.064715296
183	0xbe0925fc	-0.13393396
184	0xbcd75337	-0.026284797
185	0xbe0e5075	-0.1389788
186	0x3ce9a8bc	0.028522842
187	0x3db24332	0.08704223
188	0xbd87b6b7	-0.06626647
189	0x3c063026	0.00819019
190	0xbdf1c619	-0.11805362
191	0x3de5ee9b	0.11227151
192	0x3d6fe43f	0.05856728
193	0x3e7ee313	0.2489131
194	0xbefae049	-0.4899924
195	0xbed61180	-0.41810226
196	0xbd89f095	-0.067353405
197	0xbe24ef89	-0.16107
198	0xbe016f91	-0.12640215
199	0xbe0a40b0	-0.13501239
200	0xbdbdf954	-0.09276071
201	0x3dc19bd4	0.0945355
202	0x3d89821c	0.067142695
203	0x3e1378d1	0.14401557
204	0xbe41db9d	-0.18931432
205	0x3dbbc2b9	0.09168
206	0x3e435247	0.19074355
207	0xbd4d1a44	-0.050073877
208	0x3d8b2042	0.06793262
209	0xbc7240f6	-0.014785996
210	0xbd836ee8	-0.06417638
211	0xbd173fa4	-0.036925927
212	0x3de2f4b8	0.11081833
213	0x3d9d5ae2	0.0768335
214	0xbd425812	-0.04744727
215	0xbeb11e6c	-0.34593523
216	0x3e0dd59e	0.1385102
217	0xbe0e13a4	-0.1387468
218	0xbe1e0232	-0.15430525
219	0x3cb49593	0.022043979
220	0xbd5e6052	-0.054291077
221	0x3d836913	0.06416526
222	0x3df6cd77	0.12050908
223	0x3debc9cd	0.115131
224	0xbd1c06e1	-0.038092498
225	0x3ca56d0b	0.020193597
226	0xbea91fce	-0.33032078
227	0xbe9e31e4	-0.3089744
228	0xbe3726d3	-0.17885904
229	0xbe24d1f5	-0.16095717
230	0xbe2c8a67	-0.16849671
231	0xbe8590f9	-0.26087168
232	0x3d62d6fd	0.05538081
233	0x3e0e485c	0.1389479
234	0xbb22f900	-0.0024867654
235	0x3b5346fd	0.0032238357
236	0xbd6b8d13	-0.057507586
237	0x3e05999a	0.13046876
238	0x3e349fd3	0.17639093
239	0x3d8c6ffd	0.068572976
240	0x3d584a28	0.052805096
241	0xbde94638	-0.11390346
242	0xbe2184b8	-0.15773284
243	0x3d8641a0	0.06555486
244	0x3dcda1b2	0.100406066
245	0x3ce362c3	0.027757054
246	0x3da48170	0.08032501
247	0xbe1de60a	-0.15419784
248	0x3de7ff06	0.11327939
249	0x3d7635f4	0.060110047
250	0xbe38fe92	-0.18065861
251	0x3bcd4494	0.0062642787
252	0x3d1ef8e0	0.038811564
253	0xbc143242	-0.0090451855
254	0x3d2e9d46	0.042630456
255	0x3e1cadfb	0.15300743

edge_lin.0.bias f4 [32]
0	0xbd218c71	-0.039440576
1	0xbd18770d	-0.03722291
2	0x3d6b2d06	0.057415985
3	0x3c1b9a6b	0.009497265
4	0xbd7a2924	-0.06107439
5	0xbc7e1fa1	-0.015510471
6	0x3dec8ef7	0.11550706
7	0xbd87f6ba	-0.06638856
8	0x3d9a31b9	0.07529015
9	0xbc347ee6	-0.011016583
10	0xbdc95ca3	-0.09832122
11	0x3d0f3fb8	0.034972876
12	0x3d959e7e	0.073056206
13	0xbdebfb41	-0.11522532
14	0xbdb26d83	-0.08712294
15	0x3cdef9b6	0.02721868
16	0xbd1ee6a7	-0.038794186
17	0xbc827d79	-0.01592897
18	0xbd83c594	-0.064341694
19	0xbd683ccb	-0.0566986
20	0xbd6591f7	-0.056047406
21	0x3c9a7b89	0.018857734
22	0x3d617286	0.05504086
23	0xbddfb982	-0.10924055
24	0xbb43c774	-0.0029873522
25	0x3d7b864a	0.061407365
26	0xbd343579	-0.043996308
27	0x3cea82e7	0.028626872
28	0x3cee29ca	0.029072661
29	0xbdd1eb6c	-0.10249981
30	0x3d39d41c	0.0453683
31	0x3c845a48	0.01615633

edge_lin.2.weight f4 [32, 32, 1, 1]
0	0x3e163523	0.14668708
1	0x3e1f21cd	0.15540238
2	0x3e0308bc	0.127963
3	0x3bdc29e1	0.0067188595
4	0x3e5eb0d8	0.21747148
5	0x3c5f0c01	0.013613702
6	0xbdcf547a	-0.101235345
7	0xbe2730e3	-0.16327243
8	0x3d4e7b45	0.050410528
9	0x3e08bca0	0.13353205
10	0x3d85aad2	0.06526722
11	0x3dc64cd2	0.09682621
12	0x3dccece9	0.100061245
13	0x3ca2e5ab	0.019884905
14	0xbd94d600	-0.0726738
15	0x3d7a993b	0.06118129
16	0x3e85b2e0	0.26113033
17	0xbc5088a0	-0.012727886
18	0x3db15807	0.08659368
19	0xbe459a34	-0.19297105
20	0x3e97603f	0.29565617
21	0xbe4bc67c	-0.19899935
22	0x3dd0767e	0.101788506
23	0x3e19a1cf	0.15003131
24	0xbda3c7fe	-0.0799713
25	0xbe60c1b9	-0.219489
26	0x3e5aa443	0.21351723
27	0x3e021596	0.12703547
28	0xbeeb9bc1	-0.46017268
29	0x3e394983	0.18094449
30	0x3e49be4a	0.19701496
31	0x3acd8b77	0.0015681823
32	0xbe5457e6	-0.20736656
33	0xbe72ca78	-0.23710048
34	0xbd465787	-0.048423316
35	0xbe42648b	-0.18983667
36	0x3df5290e	0.11970721
37	0x3dc5a744	0.09651044
38	0xbc3cfdd1	-0.011535124
39	0x3da9ef22	0.08297564
40	0x3e06185f	0.13095234
41	0x3e00998c	0.12558573
42	0xbe03573e	-0.12826249
43	0x3e840793	0.2578703
44	0x3ddd88b7	0.10817092
45	0x3cc3bf16	0.023894828
46	0xbdddb536	-0.10825579
47	0xbd5d52a3	-0.054033887
48	0x3d2067f0	0.039161623
49	0x3d2bfc2e	0.041988544
50	0x3da07c4a	0.07836206
51	0xbca64501	-0.020296576
52	0xbee406aa	-0.44536334
53	0x3eab620c	0.3347324
54	0xbe09f5d2	-0.1347268
55	0xbdb7bfd1	-0.08972133
56	0x3d488a09	0.048959766
57	0xbdfedda3	-0.124446176
58	0xbcd6f634	-0.026240446
59	0x3deb6860	0.11494517
60	0x3e4b31e7	0.19843255
61	0xbe5d76a2	-0.21627286
62	0x3d9211a9	0.07132275
63	0x3cb4a5be	0.022051688
64	0xbe23eaae	-0.16007492
65	0x3de0db36	0.10979311
66	0x3d201a02	0.039087303
67	0x3cb593f0	0.022165269
68	0x3c6b07de	0.014345137
69	0xbe9f8d18	-0.31162333
70	0x3c785764	0.015157554
71	0x3d02b1f9	0.03190801
72	0xbe7242b7	-0.23658262
73	0xbe31c29c	-0.17359394
74	0x3c3c1118	0.011478685
75	0xbbf8aeea	-0.0075892108
76	0x3ce8e2c5	0.028428445
77	0xbc13dda1	-0.009025008
78	0xbcc0e9e1	-0.023549022
79	0x3e4b929c	0.19880146
80	0x3cb18da5	0.021673987
81	0x393e53f0	0.00018151081
82	0xbdd88ea8	-0.105740845
83	0xbe167c82	-0.14695933
84	0x3db67ffe	0.08911131
85	0x3d575cd2	0.052578755
86	0xbdabe301	-0.08392907
87	0x3ddaf867	0.1069191
88	0xbd8af569	-0.067850895
89	0xbe812f73	-0.25231513
90	0xbe0ed25c	-0.13947433
91	0xbd88017a	-0.06640907
92	0xbe74cdf0	-0.23906684
93	0x3e2dfdf2	0.16991404
94	0x3d87dfa1	0.06634451
95	0x3c78d5c6	0.015187686
96	0xbe42c02b	-0.19018619
97	0xbe4d0389	-0.2002088
98	0xbe355986	-0.17709932
99	0x3e4ba95d	0.19888826
100	0xbdbbd2d3	-0.09171071
101	0x3e906752	0.28203827
102	0xbe20c8da	-0.15701619
103	0x3d23777b	0.039908867
104	0xbe107372	-0.14106539
105	0x3d4dbd8a	0.050229587
106	0xbe2f80b1	-0.17138936
107	0xbdef5443	-0.116859935
108	0x3ddfc7c3	0.109267734
109	0x3ea4cace	0.32185978
110	0xbc5ea723	-0.013589653
111	0x3e1c69ab	0.15274684
112	0xbe165eea	-0.14684644
113	0x3d6f409d	0.05841123
114	0x3bca831f	0.0061801816
115	0xbe16a3fe	-0.14710996
116	0xbc950ea6	-0.018195461
117	0x3cce477b	0.025180569
118	0xbdfa3ad7	-0.12218254
119	0xbd947658	-0.07249135
120	0x3dcb8515	0.09937493
121	0xbe675e10	-0.22594476
122	0xbdcba871	-0.09944237
123	0x3d93dba8	0.072196305
124	0xbe08438e	-0.1330702
125	0x3dbc5c21	0.0919726
126	0xbdc4254c	-0.09577426
127	0xbe471d22	-0.19444707
128	0x3e4dc968	0.20096362
129	0x3e30880d	0.17239399
130	0xbe03c96f	-0.1286981
131	0x3e4b9ca2	0.1988397
132	0x3e25df63	0.16198497
133	0xbcb8b7e1	-0.022548618
134	0xbe2348f4	-0.15945798
135	0xbe97075e	-0.29497808
136	0xbde885c7	-0.11353641
137	0xbd6ed945	-0.058312673
138	0xba4bb565	-0.00077708653
139	0xbc790105	-0.015197997
140	0x3e1de1c5	0.15418155
141	0xbe3c25e3	-0.18373828
142	0x3e071a47	0.13193618
143	0x3d2bdd48	0.041959077
144	0xbcd4c855	-0.025974432
145	0x3e8ce1e5	0.27516094
146	0x3d561f5c	0.052276
147	0xbdf027ad	-0.117263176
148	0x3e0a6315	0.1351436
149	0x3dd72ce6	0.105066106
150	0x3dbfa470	0.09357536
151	0x3e2e8323	0.17042212
152	0x3e06953d	0.13142867
153	0xbe52830b	-0.20557801
154	0x3e8efefb	0.2792891
155	0xbe426c02	-0.18986514
156	0xbe9f60d0	-0.3112855
157	0xbd991875	-0.07475368
158	0x3e05ad71	0.13054444
159	0xbde9ed69	-0.114222355
160	0x3d809098	0.06277579
161	0x3e971540	0.295084
162	0xbdb7f070	-0.08981407
163	0x3e4f4021	0.20239307
164	0x3e8c8f62	0.27453142
165	0xbdbb1744	-0.09135297
166	0xbe0836de	-0.1330218
167	0xbe32bded	-0.17455263
168	0x3d8929e5	0.06697444
169	0x3d4405dd	0.047857154
170	0xbd77e625	-0.060522217
171	0x3e7bcd23	0.24589972
172	0x3e0cbad7	0.13743149
173	0xbdfdcae2	-0.123922125
174	0x3d90366e	0.07041632
175	0x3e77a12d	0.24182577
176	0xbc6c0827	-0.014406241
177	0xb9f7a875	-0.00047237021
178	0x3ccc0de5	0.02490897
179	0xbe523748	-0.205289
180	0x3e10913f	0.14117907
181	0xbdf59f5f	-0.11993288
182	0x3e3488f3	0.17630367
183	0x3e428210	0.18994927
184	0x3d4c2d07	0.04984763
185	0xbe092c47	-0.13395797
186	0x3e46c60e	0.1941149
187	0x3d49f2e0	0.04930389
188	0xbe314495	-0.17311318
189	0x3e904a51	0.281817
190	0x3d8915d4	0.066936165
191	0x3d29473d	0.041327704
192	0xbd5a94f3	-0.053364705
193	0xbdc0efc6	-0.09420733
194	0x3d7fb687	0.06242993
195	0xbe103381	-0.14082147
196	0x3c2f3771	0.010694371
197	0xbd16a97c	-0.036782727
198	0xbd12d2af	-0.035845455
199	0xbd3b7624	-0.045766965
200	0xbd29c39a	-0.041446306
201	0x3d6adda9	0.057340298
202	0x3d2c1686	0.042013668
203	0x3ca95be8	0.020673707
204	0xbe53d29c	-0.2068581
205	0xbeaa5a89	-0.33272198
206	0xbd834bb0	-0.064109206
207	0xbe3d2f0d	-0.1847498
208	0xbd8421e2	-0.06451775
209	0x3dc77949	0.0973993
210	0x3e72811f	0.23682068
211	0xbd1565c9	-0.036474023
212	0xbe49749c	-0.19673389
213	0x3e736244	0.23767954
214	0xbe5f7982	-0.21823695
215	0xbd9dfdc3	-0.07714417
216	0xbccc75b9	-0.024958478
217	0x3c9253f6	0.017862301
218	0x3d3af222	0.045641072
219	0x3d7767be	0.06040167
220	0x3d263316	0.040576063
221	0xbd908d14	-0.070581585
222	0xbda30281	-0.07959462
223	0xbd547b45	-0.05187537
224	0xbdcae4c2	-0.09906913
225	0x3e0c140f	0.13679527
226	0x3dbe2bcc	0.09285697
227	0xbca5d45a	-0.020242859
228	0xbda9b340	-0.08286142
229	0xbe9bdee9	-0.30443504
230	0xbe08b4fc	-0.1335029
231	0x3cc17cc7	0.023619069
232	0x3db04882	0.0860758
233	0xbe87ebcd	-0.2654709
234	0x3de5ae4a	0.112148836
235	0xbdc0b052	-0.094086304
236	0xbc4e8540	-0.012605011
237	0xbdccddfc	-0.10003278
238	0xbd336d1b	-0.043805223
239	0x3daf383b	0.08555647
240	0x3e3b7309	0.18305601
241	0x3e4eeeb3	0.20208244
242	0x3e4a34f3	0.19746761
243	0xbda0887e	-0.07838534
244	0x3d9d599e	0.07683109
245	0xbdebf2db	-0.115209304
246	0xbd0be28a	-0.03415159
247	0x3eac17bd	0.3361186
248	0xbe5635af	-0.20918916
249	0xbdbd054b	-0.09229525
250	0x3e53bf03	0.20678334
251	0x3c5804dd	0.013184753
252	0xbe3fc956	-0.18729147
253	0x3e39f3dd	0.18159433
254	0x3e34c4fe	0.17653272
255	0x3dbaa54d	0.0911356

edge_lin.2.bias f4 [32]
0	0xbd80714e	-0.06271611
1	0xbde0c21a	-0.10974522
2	0x3daf2884	0.085526496
3	0xbd69670b	-0.056983035
4	0x3d4ab515	0.0494891
5	0xbd24031e	-0.040042035
6	0xbe3317d1	-0.17489554
7	0x3e257953	0.16159563
8	0x3ab6feb2	0.0013961403
9	0x3e2bb8c3	0.167697
10	0x3dd1f9a9	0.10252697
11	0xbda61928	-0.08110267
12	0xbe881d18	-0.26584697
13	0x3d6ad150	0.057328522
14	0xbdb79079	-0.08963103
15	0xbcf3534f	-0.02970281
16	0x3daf3c57	0.08556431
17	0xbcdab8a8	-0.02669938
18	0xbca0c1ff	-0.019623755
19	0x3e11d359	0.14240779
20	0xbde23d85	-0.1104689
21	0xbd84a227	-0.064762406
22	0x3d76463a	0.060125567
23	0x3de6983a	0.11259504
24	0xbd8899e5	-0.06669978
25	0xbe47979b	-0.19491427
26	0x3dee32e8	0.11630803
27	0x3d439b1e	0.047755353
28	0x3e09675d	0.13418336
29	0xbc1d2bdf	-0.009592979
30	0xbc6e55cb	-0.014546822
31	0xbbc15133	-0.0058995723

vertex_output_lin.0.weight f4 [32, 1, 32, 1]
0	0x3e2ab28d	0.16669674
1	0xbe4028b3	-0.18765526
2	0x3d40c840	0.047065973
3	0x3dacd8b0	0.08439767
4	0x3e0c3292	0.13691166
5	0xbcea817b	-0.028626194
6	0xbe055399	-0.13020171
7	0xbd756892	-0.05991418
8	0xbe05f3eb	-0.13081329
9	0xbd844f9a	-0.06460495
10	0xbdf03b44	-0.11730054
11	0x3d8f6b8e	0.07002936
12	0xbe282f1f	-0.16424225
13	0xbdcaf7c0	-0.09910536
14	0xbdb8fd79	-0.09032721
15	0x3e18d0e5	0.14923437
16	0xbd7885cc	-0.060674474
17	0xbdd73eb0	-0.105100036
18	0x3e2f882b	0.17141788
19	0x3d3bbf54	0.04583676
20	0xbe07e549	-0.13271059
21	0xbbac7ee6	-0.005264151
22	0xbe2ee786	-0.17080507
23	0xbe4a5b32	-0.19761351
24	0x3d85e262	0.0653732
25	0xbd0d88d8	-0.034554332
26	0x3e052237	0.13001333
27	0xbdb6b697	-0.08921545
28	0x3e12d5f8	0.14339435
29	0x3d670a28	0.05640617
30	0xbca514d7	-0.020151539
31	0xbe2ae7f1	-0.16690041
32	0x3e175ade	0.14780757
33	0xbd7a51c6	-0.06111314
34	0xbda8b320	-0.082372904
35	0xbe5233f8	-0.20527637
36	0x3e0a298a	0.13492408
37	0x3e3d084b	0.18460195
38	0x3e004ce6	0.12529334
39	0x3da7aebb	0.08187624
40	0x3c246035	0.010032703
41	0xbd3b2a25	-0.04569449
42	0xbd554545	-0.052068014
43	0x3d4ccd04	0.050000206
44	0x3e41a8ba	0.1891202
45	0x3d95a34b	0.07306536
46	0xbdc85d33	-0.09783401
47	0x3db42482	0.08796026
48	0x3e438e89	0.19097342
49	0xbd8922ef	-0.06696116
50	0xbe3e4413	-0.18580656
51	0x3ded99d1	0.11601604
52	0xbdea89fe	-0.11452101
53	0xbd874269	-0.066044636
54	0xbdc185a5	-0.09449319
55	0xbe3aa3a5	-0.18226488
56	0x3e1a2bd2	0.15055779
57	0xbdf3ee36	-0.119106695
58	0xbe14bbf0	-0.14524817
59	0x3ab2e225	0.0013647719
60	0xbddd52ea	-0.1080683
61	0xbe9d1ab4	-0.30684435
62	0xbe1e5964	-0.15463787
63	0xbdf67f9c	-0.12036058
64	0xbda3f518	-0.08005732
65	0x3e1f10b9	0.15533723
66	0xbd251e76	-0.040312253
67	0xbc631966	-0.013861036
68	0x3cbdcb35	0.023168186
69	0x3d9824a6	0.07428865
70	0xbd8034ff	-0.06260108
71	0xbe2cf30f	-0.16889594
72	0xbda27045	-0.0793157
73	0xbdb58486	-0.088631675
74	0xbe511dd0	-0.20421529
75	0x3db21b73	0.08696642
76	0xbe86f5c3	-0.26359376
77	0xbe4f5434	-0.20246965
78	0x3c756fbe	0.014980255
79	0xbd793602	-0.06084252
80	0x3dbbf5e9	0.09177763
81	0xbc166d1a	-0.009181285
82	0x3c2c2d54	0.010508854
83	0x3dc3cb13	0.09560218
84	0xbde9de97	-0.11419409
85	0xbd8a56eb	-0.067548595
86	0xbda86a10	-0.08223355
87	0xbddfe7d5	-0.1093289
88	0x3d635167	0.055497553
89	0xbb1b3255	-0.0023681123
90	0x3dcc40f9	0.0997333
91	0x3db17b56	0.086661026
92	0x3db19601	0.08671189
93	0x3d04c285	0.03241207
94	0xbdc62c9c	-0.09676477
95	0xbd507b80	-0.05089903
96	0xbcf74afc	-0.030187123
97	0xbd82b4fd	-0.06382177
98	0x3c807b14	0.015683688
99	0x3d9e3d30	0.07726514
100	0xbdfec55d	-0.12439988
101	0xbb81bd79	-0.0039593545
102	0xbda2da1e	-0.07951759
103	0xbc485f3b	-0.012229736
104	0xbd45002c	-0.048095867
105	0x3cb3a533	0.021929359
106	0x3d8cd4b0	0.068765044
107	0xbd942e15	-0.07235352
108	0x3da4063d	0.08009002
109	0x3c829ede	0.015944894
110	0x3e0bb89a	0.13644639
111	0xbe2fd4c5	-0.17171009
112	0x3e7120ce	0.2354767
113	0x3e47d61e	0.19515273
114	0xbe934f04	-0.28771222
115	0x3e86f968	0.26362157
116	0xbd31e6fa	-0.043433167
117	0x3dd7819c	0.10522768
118	0x3de5d653	0.1122252
119	0x3b4b00b3	0.0030975759
120	0x3e97fcec	0.29685152
121	0x3d070523	0.032963883
122	0x3dbe9859	0.09306402
123	0xbd8404ac	-0.064462036
124	0xbcc38b07	-0.023870004
125	0xbecb225e	-0.39674658
126	0xbe7149d4	-0.2356332
127	0xbeb65967	-0.35615084
128	0xbb8b7c25	-0.0042567425
129	0x3e03a755	0.12856801
130	0xbdcca2c1	-0.0999198
131	0x3d75358e	0.059865527
132	0xbd5fb1a8	-0.054612786
133	0xbd31153e	-0.04323315
134	0x3e7f3373	0.2492197
135	0xbacaaa06	-0.0015462048
136	0xbde1f5fb	-0.11033245
137	0xbe09a991	-0.1344359
138	0x3cafe4a7	0.021471335
139	0xbd566cfe	-0.052350037
140	0x3e845f1c	0.25853813
141	0xbdfe8c8c	-0.12429151
142	0xbdcb1ec5	-0.09917978
143	0xbdc4175c	-0.09574768
144	0xbd2e1aa2	-0.042505868
145	0x3ade1c72	0.0016945733
146	0xbe080610	-0.13283563
147	0xbdd5f0b9	-0.10446305
148	0x3e45a846	0.19302472
149	0xbb9fd2a0	-0.0048774034
150	0xbaf67fb3	-0.0018806368
151	0xbd84aca4	-0.06478241
152	0x3e05b89a	0.13058701
153	0x3e6fc0ee	0.2341344
154	0x3c362233	0.011116552
155	0xbe296495	-0.16542275
156	0x3dfb806f	0.12280356
157	0xbc992e60	-0.018698871
158	0xbd1d0f2e	-0.038344555
159	0xbe0e5e5a	-0.1390318
160	0xbd25dd2b	-0.040494125
161	0x3e4b3869	0.19845738
162	0xbe0afe9c	-0.13573688
163	0x3d9c9fab	0.07647642
164	0x3d263f57	0.04058775
165	0xbd8498ca	-0.06474455
166	0xbe2905d2	-0.16506127
167	0xbd927a29	-0.071522065
168	0xbe30e259	-0.17273845
169	0x3d7121f0	0.058870256
170	0x3cc64378	0.024202093
171	0x3cb90a73	0.02258799
172	0x3eb9d05e	0.36291784
173	0x3d34c1b0	0.044130027
174	0xbd322a04	-0.0434971
175	0xbdfe5883	-0.12419226
176	0xbb0dc07f	-0.002162963
177	0x3e14f108	0.14545071
178	0xbe508c98	-0.20366132
179	0x3e2c6c0a	0.16838089
180	0x3e846302	0.25856787
181	0x3d71255f	0.05887353
182	0xbe518ebf	-0.2046461
183	0xbda80d89	-0.082057066
184	0xbc2c43ea	-0.010514239
185	0xbc92ae85	-0.017905483
186	0x3be50b68	0.006989885
187	0xbe730963	-0.2373405
188	0xbe5a4003	-0.21313481
189	0xbdb174bc	-0.086648434
190	0x3d89e6b1	0.06733454
191	0xbd41343e	-0.047168963
192	0x3e321d81	0.17394067
193	0xbd868152	-0.06567635
194	0xb9aa8023	-0.00032520396
195	0x3ca96b3a	0.020681012
196	0xbded2104	-0.11578563
197	0xbdd95a20	-0.10612893
198	0xbe3db935	-0.18527682
199	0xbdf76f9e	-0.12081836
200	0x3da23a51	0.07921279
201	0xbe06c5a5	-0.13161333
202	0x3d31bca1	0.04339278
203	0x3ccbb26b	0.02486535
204	0xbec0a1af	-0.37623355
205	0x3dff618c	0.124697775
206	0x3e3a5dbb	0.18199818
207	0xbe455f18	-0.19274557
208	0x3da27d11	0.07934011
209	0xbe7187f2	-0.23587015
210	0x3e8c4ed6	0.27403897
211	0xbdce7000	-0.10079956
212	0x3ccdabb5	0.02510629
213	0xbe73f332	-0.2382324
214	0xbda327e7	-0.07966595
215	0x3e1578d3	0.14596872
216	0xbd8992db	-0.067174636
217	0xbdd40618	-0.10352725
218	0xbce3ef44	-0.027824052
219	0x3e32613e	0.17419907
220	0xbdae57e7	-0.0851286
221	0x3dd68a70	0.104756236
222	0x3ce6c7a6	0.028171372
223	0xbd9f6fca	-0.07784994
224	0xbe070fca	-0.13189617
225	0xbe9a66e7	-0.30156633
226	0x3ce06edb	0.02739661
227	0x3d674dbd	0.05647062
228	0x3e025484	0.12727553
229	0xbe3bbf78	-0.18334758
230	0xbe2ab233	-0.1666954
231	0xbde610b9	-0.11233658
232	0xbebdd9fb	-0.37080368
233	0x3daa4060	0.0831306
234	0x3dd4fae5	0.10399417
235	0x3daf58ba	0.08561845
236	0x3d9fe55c	0.07807419
237	0x3d89e974	0.06733981
238	0xbe58422a	-0.2111899
239	0xbe2153d1	-0.1575463
240	0x3e754915	0.2395366
241	0xbd3e48ab	-0.04645602
242	0xbe4b972d	-0.19881888
243	0x3e362b24	0.17789894
244	0xbe126de3	-0.14299731
245	0x3e36beac	0.17846173
246	0xbe10ca91	-0.14139773
247	0xbdd137e6	-0.1021574
248	0x3e3b56b3	0.18294792
249	0xbe2b513b	-0.16730206
250	0x3e4c7b60	0.19968939
251	0x3d53dd25	0.05172457
252	0x3e126f7a	0.14300337
253	0xbe1a7672	-0.15084246
254	0xbe864a83	-0.26228723
255	0xbe105673	-0.14095478

vertex_output_lin.0.bias f4 [32]
0	0xbe1f0f8b	-0.15533273
1	0xbe2e70dd	-0.17035241
2	0x3d5f05ce	0.054448895
3	0x394852b6	0.00019104299
4	0x3cd97e58	0.026549503
5	0x3e442c7d	0.19157596
6	0xbdfaca6c	-0.1224564
7	0x3d07f91d	0.033196557
8	0xbde42d42	-0.11141445
9	0xbd97be46	-0.07409339
10	0xbcdad5f3	-0.026713347
11	0xbe0fc0e3	-0.14038424
12	0x3d19b574	0.037526563
13	0x3d00326b	0.031298082
14	0xbdd3174d	-0.10307179
15	0x3bae55fc	0.0053203087
16	0xbd3ab465	-0.045582194
17	0x3c2b4616	0.0104537215
18	0x3c387c77	0.0112601435
19	0x3ccd40c9	0.025055306
20	0x3de313f8	0.11087793
21	0xbd872405	-0.06598667
22	0xbde3c374	-0.11121264
23	0x3e5cc7b6	0.21560559
24	0xbd40e97a	-0.04709766
25	0xbdb520f0	-0.08844173
26	0x3c95e024	0.018295355
27	0xbe2a0af7	-0.16605745
28	0xbc6bb829	-0.014387169
29	0x3d37c4d0	0.04486543
30	0x3e312918	0.17300832
31	0xbc8782d2	-0.016541872

vertex_output_lin.2.weight f4 [1, 32, 1, 1]
0	0x3db5067e	0.08839129
1	0xbe8de601	-0.27714542
2	0xbb92c02d	-0.0044784755
3	0xbe8cf50f	-0.27530715
4	0xbd24eb0e	-0.040263228
5	0xbda5ef12	-0.0810224
6	0x3d82e485	0.06391243
7	0xbe6aa668	-0.22915041
8	0x3d977f24	0.07397297
9	0xbe2e110a	-0.16998687
10	0xbe4fa0dc	-0.20276207
11	0xbd564fc5	-0.052322168
12	0xbeb0bc4a	-0.34518653
13	0x3b72b717	0.00370354
14	0xbe2aff78	-0.16699016
15	0x3e4696b5	0.19393428
16	0xbe1588bf	-0.14602946
17	0x3ca4d606	0.020121586
18	0x3dbaa290	0.091130376
19	0xbcc156e7	-0.023601009
20	0xbe864b59	-0.2622936
21	0x3e5bb267	0.21454774
22	0xbed6b0f6	-0.41931885
23	0x3e2a4407	0.16627513
24	0x3db21f25	0.086973466
25	0xbcce6fbc	-0.025199763
26	0xbdc4c5c9	-0.09608037
27	0x3b29106c	0.0025797142
28	0xbda32acc	-0.07967147
29	0xbdc9a732	-0.09846343
30	0x3db46f52	0.08810295
31	0xbe67d9df	-0.22641705

graph_output_lin.0.weight f4 [1, 618]
0	0xbd3c15cb	-0.04591922
1	0xbd350185	-0.044190902
2	0xbcd7ab3f	-0.026326774
3	0xbdaff61a	-0.08591862
4	0xbd7e0b9f	-0.0620228
5	0xbdc82af6	-0.09773819
6	0xbd8c138e	-0.06839667
7	0xbd880277	-0.06641095
8	0xbe72ade4	-0.23699147
9	0xbe123b85	-0.14280517
10	0x3d847f2e	0.0646957
11	0x3d0f0441	0.034916166
12	0xbe5aa4cb	-0.21351926
13	0xbd299241	-0.041399244
14	0x3c2c16ab	0.010503451
15	0x3c9e20e9	0.019302802
16	0xba91de43	-0.0011128861
17	0xbcf46eae	-0.029837932
18	0xbdf14967	-0.117815785
19	0xbdb61db6	-0.08892386
20	0xbd9e1b86	-0.077200934
21	0xbd4cb3d0	-0.04997617
22	0xbd698d17	-0.05701932
23	0xbd2566dc	-0.040381297
24	0x3cf6d6a4	0.030131646
25	0xbe109246	-0.14118299
26	0xbe268551	-0.16261794
27	0xbd5ced4b	-0.053937238
28	0xbd41700f	-0.047226008
29	0xbe088978	-0.1333369
30	0xbd3d816f	-0.046266016
31	0xbdb822c5	-0.08991007
32	0xbe328c28	-0.17436278
33	0xbeac9227	-0.33705255
34	0xbd111e5d	-0.035429347
35	0xbd6926fa	-0.056921937
36	0xbe0ec67b	-0.13942902
37	0x3cc16c29	0.023611145
38	0x3e18e4ad	0.14930983
39	0xbd56756d	-0.05235808
40	0xbd0ae962	-0.033913977
41	0xbded0c5f	-0.11574625
42	0x3d24bb11	0.040217463
43	0xbcc8b000	-0.024497986
44	0xbe88e44c	-0.26736677
45	0xbe93a5cd	-0.28837433
46	0x3bdffe4e	0.0068357354
47	0xbd5920a8	-0.05300966
48	0xbe962430	-0.29324484
49	0xbd3335ae	-0.043752365
50	0xbc6b59c1	-0.014364661
51	0xbd449959	-0.047997806
52	0xbc0ada25	-0.008474861
53	0xbd11decc	-0.035612866
54	0xbcef5d07	-0.029219164
55	0xbd8d763b	-0.06907316
56	0xbdf28959	-0.11842603
57	0x3c0afd73	0.008483279
58	0x3cdf4816	0.027256053
59	0xbe81287b	-0.25226197
60	0xbde9c85d	-0.114151694
61	0xbe25e1d2	-0.16199425
62	0xbd98f794	-0.07469097
63	0xbd8a9421	-0.067665346
64	0xbd454900	-0.04816532
65	0x3e2df584	0.16988188
66	0x3cbf1385	0.023324737
67	0x3d0efebd	0.034910906
68	0x3da20b4a	0.079123095
69	0xbd06e24c	-0.032930657
70	0xbdf7802e	-0.12084995
71	0xbed2f0c6	-0.4119932
72	0xbd884c8c	-0.06655225
73	0xbc3f650a	-0.011681804
74	0xbea25018	-0.31701732
75	0xbdd1850a	-0.10230453
76	0x3c7e0f9e	0.015506653
77	0xbc7457fc	-0.014913555
78	0xbda5f745	-0.081038035
79	0x3e93b74d	0.28850785
80	0xbdbde20f	-0.09271633
81	0x3ccd3338	0.025048837
82	0x3c0ac179	0.008468979
83	0x3dae1996	0.08500974
84	0xbd9b53dc	-0.07584354
85	0x3c8d294b	0.017231604
86	0x3c38a89a	0.0112706665
87	0xbdd6081c	-0.104507655
88	0xbdc819f5	-0.09770576
89	0xbcc598e0	-0.024120748
90	0x3da73934	0.081652075
91	0x3e22b4d0	0.15889287
92	0x3d5e12bb	0.05421708
93	0x3c9aa72e	0.018878546
94	0xbdb44609	-0.08802421
95	0xbe8c17b9	-0.2736185
96	0xbbe03658	-0.006842416
97	0xbe142033	-0.14465408
98	0xbec6e17c	-0.38843906
99	0xbc92ab7f	-0.017904041
100	0xbd8f4757	-0.06996029
101	0xbcf71e0d	-0.030165697
102	0xbdd6a8be	-0.10481404
103	0xbea15a2c	-0.31514108
104	0x3c84e22a	0.016221125
105	0x3d6d1dd3	0.05788977
106	0x3d004ee5	0.03132524
107	0xbdf5472d	-0.11976466
108	0xbe6849ba	-0.22684374
109	0x3d828ad9	0.06374139
110	0x3d679725	0.056540627
111	0x3c9b8b64	0.018987365
112	0x3dd27d23	0.10277774
113	0x3d00051a	0.031254865
114	0x3db52cfc	0.08846471
115	0xbc7563a7	-0.014977372
116	0xbdfc1a9f	-0.12309765
117	0x3e4b1b12	0.19834545
118	0x3c9eb46f	0.019373147
119	0x3da7fb83	0.08202269
120	0x3db20187	0.086916976
121	0x3d6716ce	0.056418233
122	0x3bcf907a	0.0063343616
123	0x3d7d7d32	0.061886974
124	0xbdd6a787	-0.10481172
125	0xbe556737	-0.20840155
126	0x3d0f24bd	0.034947146
127	0xbdeacef1	-0.11465252
128	0xbd694ee8	-0.056960016
129	0xbd7822c6	-0.060580038
130	0x3d2e66a9	0.042578373
131	0xbe0d345f	-0.13789509
132	0xbe11a001	-0.14221193
133	0x3ce47b74	0.027890898
134	0xbdb70f8a	-0.08938511
135	0x3d9eff47	0.07763534
136	0xbd87be50	-0.06628096
137	0x3b56d88a	0.0032782876
138	0xbda21032	-0.07913245
139	0xbce02975	-0.027363518
140	0xbca433c8	-0.020044222
141	0xbdaac965	-0.08339194
142	0x3ce1d705	0.02756835
143	0x3e14c86f	0.14529584
144	0x3d6c00dd	0.05761801
145	0x3d8badd2	0.06820263
146	0x3b8062e7	0.00391804
147	0x3d42b205	0.047533054
148	0x3d9df0d9	0.07711954
149	0xbe01e8ed	-0.1268651
150	0xbd16ebd3	-0.036845993
151	0xbc88c54a	-0.016695637
152	0x3c420c64	0.0118437745
153	0xbca0e2f4	-0.01963947
154	0xbd45e78c	-0.048316523
155	0xbda56249	-0.08075387
156	0xbc250e88	-0.010074265
157	0x3c2d1ebb	0.010566409
158	0xbcc16ac6	-0.023610484
159	0xbc9ddb0b	-0.019269487
160	0x3ce952b1	0.028481813
161	0x3dc10457	0.09424656
162	0x3d0205da	0.03174386
163	0x3ce42aa5	0.027852366
164	0x3de024e5	0.10944537
165	0x3df0be4e	0.11755048
166	0x3d902927	0.07039099
167	0xbda5897b	-0.08082863
168	0x3b655369	0.0034992343
169	0xbc07152c	-0.008244794
170	0x3cc4cd34	0.02402363
171	0x3dd0f9ea	0.10203917
172	0x3dd0881d	0.101822115
173	0x3d97d647	0.07413917
174	0x3e0c5c35	0.13707049
175	0x3dccd53e	0.1000161
176	0x3ce5af2b	0.028037628
177	0x3d1686c7	0.036749627
178	0xbde020c6	-0.10943751
179	0x3ca2a7d0	0.01985541
180	0xbdcc949a	-0.09989281
181	0xbd09c7ff	-0.033637997
182	0xbbb00891	-0.005372115
183	0xbd0b2211	-0.033968035
184	0x3dd53db7	0.10412162
185	0x3e0b5cf8	0.13609684
186	0xbe0a4453	-0.13502626
187	0xbd3a0a94	-0.045420244
188	0x3d8ab099	0.067719646
189	0xbe9e2ac0	-0.3089199
190	0xbd828c5a	-0.06374426
191	0xbd96f632	-0.07371177
192	0x3cf88fb9	0.03034197
193	0x3e075c87	0.1321889
194	0xbceef83e	-0.029171105
195	0xbe95e53a	-0.29276448
196	0xbe4bdf5a	-0.1990942
197	0x3e2396c2	0.15975478
198	0xbc56affe	-0.013103483
199	0xbdad2f35	-0.0845627
200	0xbca20a52	-0.019780312
201	0xbd182276	-0.03714224
202	0x3dac5df5	0.084163584
203	0xbd5827b0	-0.052772224
204	0x3cfc37df	0.03078836
205	0xbd43da03	-0.047815334
206	0xbbb02f5b	-0.005376739
207	0xbb39c8fd	-0.0028348558
208	0xbd94b6e9	-0.0726145
209	0xbd281fc7	-0.04104593
210	0xbc1b02b0	-0.00946109
211	0x3e290be0	0.16508436
212	0x3d96f3d3	0.073707245
213	0x3cc5ba95	0.02413682
214	0x3c5e195e	0.013555853
215	0x3d36cf8f	0.044631537
216	0xbd4405a9	-0.04785696
217	0xbd8ec2f1	-0.06970776
218	0x3db07e1f	0.08617806
219	0x3c257c1e	0.010100393
220	0x3d4cbd79	0.049985383
221	0x3d9c0b49	0.0761934
222	0xbd015de2	-0.031583674
223	0x3d54a7d6	0.051917873
224	0x3d6f084d	0.058357526
225	0x3df25d73	0.1183423
226	0x3e005031	0.1253059
227	0x3df03a46	0.11729865
228	0x3d5d3322	0.054003842
229	0x3d57d282	0.05269099
230	0xbd14e82a	-0.03635422
231	0x3c54462a	0.012956182
232	0xbce4280d	-0.027851129
233	0xbdf59dd8	-0.11992997
234	0xbe656fd3	-0.22405939
235	0xbe19186f	-0.14950727
236	0xbdb56c75	-0.08858577
237	0xbd6110b3	-0.054947566
238	0x3c8087d8	0.015689775
239	0xbd855c31	-0.06511725
240	0x3d19f8af	0.03759068
241	0x3d77e307	0.060519245
242	0x3d9cc77f	0.07655238
243	0xbd82cc16	-0.063865826
244	0x3c54d675	0.012990584
245	0xbbaa2eef	-0.005193583
246	0x3d3981be	0.045289747
247	0x3ddfe02b	0.109314285
248	0xbd8e7dcd	-0.06957588
249	0xbda278b8	-0.079331815
250	0xbdcc9103	-0.09988596
251	0xbd2ee211	-0.042696062
252	0xbd2ad22a	-0.041704334
253	0xbdd1f6f9	-0.102521844
254	0x3da69ca2	0.08135344
255	0x3c2ba87c	0.0104771815
