reachability_classification/weights/SimpleMultiplePassGNNReachabilityNet_epoch_0.pt (torch_old, 36685 bytes, 16 tensors)

x_lin.0.weight f4 [32, 1, 1, 11]
00000000: a1d7 c23d 4560 da3d fa01 96bd d35d 89be
00000010: 8a50 66be 7d78 90bd 2f71 42bd 7ddc a03d
00000020: 5b09 013e 163e 693d 6945 85bd 5c66 513e
00000030: b613 b8bc 1c01 fe3d 1b83 083e a313 92be
00000040: 04cc 89be 433b 8f3c 5395 1ebe bfcf f63d
00000050: 2833 84be b2a8 6f3e 559f 64be 5e0e 86bd
00000060: 809a b33d 9ace babc 8f97 1c3e f100 1e3e
00000070: fad7 103e 6ee0 96be 1e46 c53d da31 8c3e
00000080: 8075 413e 666b 5e3e 1f7b 8cbe 2e69 35be
00000090: 3f6f 773e 50a3 35be ea21 793d ccc0 bdbd
000000a0: 2c59 62be e380 28be 9c91 63be c562 99be
000000b0: febe 083c 1651 2b3e d5de 893e 4dbf d2bd
000000c0: 7f29 a7be fbd5 913d 90df 09bc 985d 9c3e
000000d0: be9b 693e a7de 84bc e97b 81be 8250 2c3e
000000e0: 6e7d f1bd 31a1 153b c6a0 983e 8cec 06bd
000000f0: d5ef 823e 9d6b 4d3e b507 e6bc 7b7b 5abe
00000100: 2e59 e4bc 8465 33be bf47 61bd a66a 783e
00000110: f421 38be b62e 703e c230 52be 672b aa3d
00000120: b0e0 793e c747 0c3e 4efb 68be eb45 40bc
00000130: 606a 9abc 8b22 0abe 5bef 143d d36a 47be
00000140: c3e4 87bd 4734 5fbe 41e5 de3c 29e1 583e
00000150: a925 b73e 27b1 843e bd40 2e3e a6de e43d
00000160: 4700 953e cdba e0bd 5d49 97be 8ab4 fbbd
00000170: 3a09 3a3e 2235 9dbe 4ef6 a2bd a5b3 d43d
00000180: 8490 223e d656 683e 5af2 f0bd 281a 113e
00000190: dc03 583e d74c 743e cfcc c73d fee7 17bc
000001a0: dccb 8c3e ead0 89bc 6ad2 913e bbae 1a3d
000001b0: 109f efbd 202d 02bd 3d4b 0cbe 0841 303d
000001c0: c585 5f3e df27 553d ce68 75be 93a7 5b3e
000001d0: ad17 aabd 7d08 09be fe80 6ebe 60b7 c4bd
000001e0: 098e b23d 7ed5 9ebd d8b9 983c 05e2 b83d
000001f0: 6f02 81bd 110a 94be 8227 2a3e 54e5 1cbe
00000200: 8d22 603e 8f85 503e aac5 c2bd b76c 303d
00000210: ab3c 51be f77d 2ebd 8ad9 be3d a7ef bdbc
00000220: 9456 95be 7143 2cbd 039c 663e 2c20 9a3e
00000230: 1eaa eebd d7e0 c53d 2881 313e bfbc 583e
00000240: 74ac 9abd b143 6abd acef 833d 9bd4 6cbe
00000250: 0193 9ebd 1a21 6bbe 2759 95bd 0a9b 0fbe
00000260: 1acb 383e d77d 46be 6066 c4bd 8672 2dbe
00000270: e84a 8bbe 6342 2f3e 4f08 823e f55b 97be
00000280: 276e 103e 6980 98be 20cb e4bd 2282 ddbd
00000290: c551 89be 3b0d a8bd 6077 26be 68d1 843d
000002a0: 5bef b6bd 78fd 9dbe 90dc dbbd bf25 683e
000002b0: cf12 27bd 8d53 ddbd a24a 983e 34f7 5ebe
000002c0: 6163 7b3e f8ba 683e 3a84 983e 5278 7fbe
000002d0: 4f02 ac3e e66b 85bd 8a61 093c b600 8dbd
000002e0: 9fb9 c53c 9255 10be 2313 9c3e e137 db3c
000002f0: 64ed 1bbc e85d 2b3d f35f 7ebe c1a3 49be
00000300: d4df 90bd cc4e 443e 4c4d 88be d0db 1ebe
00000310: 9037 94bd 71d9 d6bd b83e b03c 9b30 8fbe
00000320: 4e24 3f3e d8ea 0cbe f244 52bc 353e 01be
00000330: edac bebc 3eb7 8ebd a5a4 7bbe 1ff9 4dbe
00000340: 1dba 063e 4a87 1e3e 8433 65be feea 13be
00000350: 1d06 7d3e 3581 d43d ef94 57be 513e 903d
00000360: 1cf7 0ebe 61df 7bbe 40c4 83bc 8134 043e
00000370: 762a 2b3d cfdd 92be 8f26 c4bd 514f 583e
00000380: 73e6 863e a097 25be e1ca 453d e553 94bc
00000390: c530 c53d 0861 903e 2d24 71be 954f cc3d
000003a0: 9bd0 533d 04ee 6ebe d00f 68be a897 023e
000003b0: 83b8 89be 80e9 2cbe 0931 8fbd adee 033e
000003c0: c7e6 ae3d d4e7 763e f565 f63b 94e7 bebd
000003d0: 487a 95bb dfc1 123e 3c66 8ebe f598 0abd
000003e0: e9f5 bebc 5479 b13d d6fd 3b3c bb72 44bd
000003f0: e79e dfbd 4812 8fbb 8f4a bdbd ba1e bc3d
0.09513784 0.10662893 -0.07324596 -0.26829395 -0.2249166 -0.07054231 -0.04747122 0.07854555
0.12601225 0.056943975 -0.065073796 0.20449203 -0.022470336 0.12402555 0.13331263 -0.28530607
-0.26913464 0.017484313 -0.1548665 0.12051343 -0.2582028 0.23404196 -0.22326405 -0.06545709
0.08769703 -0.022803593 0.1529219 0.15430047 0.14144889 -0.294681 0.096325144 0.27381784
0.18892479 0.21720657 -0.27437684 -0.17715904 0.24163531 -0.1773808 0.06082336 -0.09265289
-0.22104329 -0.16455416 -0.22223514 -0.29958168 0.008346317 0.1673015 0.2692782 -0.10290394
-0.32648847 0.07120892 -0.008415118 0.30540156 0.22813317 -0.01621945 -0.25289848 0.16827586
-0.11791502 0.0022831673 0.2981016 -0.032940432 0.25573602 0.20060582 -0.028079847 -0.21336167
-0.027874555 -0.17519194 -0.055000063 0.24259433 -0.17981702 0.23455319 -0.20526412 0.083090596
0.24402118 0.13699256 -0.22752115 -0.01173542 -0.018849552 -0.1348974 0.03636108 -0.19474344
-0.0663543 -0.21797286 0.027208926 0.21179642 0.3577092 0.25916407 0.17016883 0.11175279
0.29101774 -0.109731294 -0.2954816 -0.122902945 0.18167582 -0.307046 -0.07957135 0.10385827
0.15875441 0.22689375 -0.11764975 0.14170134 0.21095222 0.23857437 0.09755861 -0.00927162
0.27499282 -0.01682325 0.28480846 0.037764292 -0.11700261 -0.031781316 -0.13700576 0.04303077
0.21828373 0.052039977 -0.23965761 0.21450643 -0.08305297 -0.13382144 -0.23291394 -0.096052885
0.08718497 -0.07755564 0.018643305 0.09027485 -0.06299292 -0.2891393 0.16616634 -0.15321857
0.2188818 0.20363449 -0.09510358 0.04307243 -0.20433299 -0.0426006 0.09318836 -0.023185564
-0.29167616 -0.042056505 0.22520451 0.3010267 -0.11653541 0.096620254 0.17334425 0.21165751
-0.07552424 -0.05719346 0.06442198 -0.23127978 -0.077428825 -0.22961846 -0.07292395 -0.14023986
0.18046227 -0.19383942 -0.09589839 -0.16938218 -0.27205586 0.17115168 0.25396964 -0.29562345
0.1410452 -0.2978547 -0.111715555 -0.108158365 -0.26820198 -0.082056485 -0.16256475 0.064852536
-0.08932372 -0.30857444 -0.10735428 0.22670649 -0.04078942 -0.10806952 0.2974444 -0.21773988
0.24549629 0.22727573 0.2978838 -0.24948242 0.3359551 -0.065147206 0.0083850715 -0.06884901
0.024136363 -0.14095142 0.3048335 0.026760044 -0.009517048 0.041837603 -0.24841289 -0.19691373
-0.07073942 0.19170684 -0.26621473 -0.1551354 -0.0723716 -0.104906924 0.021514282 -0.2796677
0.18666193 -0.13761461 -0.012833821 -0.12621386 -0.023275817 -0.069685444 -0.24574526 -0.20114563
0.13156934 0.15481296 -0.22382933 -0.14445111 0.24709363 0.10376207 -0.21052907 0.07043136
-0.13961452 -0.24596931 -0.01608479 0.12910654 0.04178854 -0.28684852 -0.09577667 0.21124007
0.26347694 -0.16171122 0.048289184 -0.01810641 0.09628443 0.2819903 -0.23548956 0.099761166
0.051712614 -0.23332983 -0.22662282 0.12753165 -0.26898584 -0.16885948 -0.069917746 0.12884016
0.08540111 0.24111873 0.0075194784 -0.09321514 -0.004561696 0.14331768 -0.27812374 -0.033837277
-0.023310618 0.0866572 0.011474093 -0.047960978 -0.1091898 -0.004366193 -0.092427365 0.09185548

x_lin.0.bias f4 [32]
00000000: 7eec 85be daea 85be 1298 b5bd 765f 593e
00000010: bd15 50be 95d6 4aba eae1 e73d 4a19 4cbe
00000020: 5681 363e 85cf 193e b548 4cbd b18c c13d
00000030: db10 873e 3201 14be 6b01 33be b473 bb3d
00000040: 5a35 493e dc92 e0bd 8ed4 4a3e 5672 4bbe
00000050: 9fda 28be 9ae4 073e 5c8f 493e fe52 d8bb
00000060: 212d 28be 57c6 433e 516d 2bbe b999 363e
00000070: 8bdc c63d 4804 acbc bd1d e53c 71e1 ad3e
-0.26156992 -0.2615574 -0.08866896 0.21227822 -0.20320792 -0.00077376637 0.113223866 -0.19931522
0.17822775 0.15020569 -0.049874026 0.09450663 0.26380047 -0.14453581 -0.1748101 0.09152928
0.19649258 -0.10965511 0.19807646 -0.19867834 -0.16489647 0.13270798 0.19683594 -0.0066016903
-0.16423465 0.1911863 -0.1674092 0.17832078 0.09710034 -0.020998135 0.027968282 0.3396106

x_lin.2.weight f4 [32, 32, 1, 1]
00000000: 1e64 cf3d f1ba b53d 1b16 aa3d baaf c13d
00000010: 8c7a 03be e47c 29be 7af7 6d3d 518d 40be
00000020: 177c 9e3c 714f f33d a418 dd3c 467a 3dbd
00000030: f310 0ebe 4eed dd3d 4241 cbbb 2c01 033e
00000040: 73fc 453c 2892 04be 9259 82bd a7e0 a8bd
00000050: 171d 4a3d 647b 213e 62bb b3bd 5190 65be
00000060: 8209 1b3e f4ef f33a 1a3e c73d bb92 dabd
00000070: 1318 053d 3114 e63d ed17 39bd 2186 56be
00000080: 0adc ccbc d364 06bd ec71 f23d ef60 fb3c
00000090: 54b4 bfbd 1b82 0fbe aa16 42be 7dfe 1e3c
000000a0: 145c d6bc 83bc 95bd 4d5f 18bd aa16 023e
000000b0: 7b45 83bd 8405 2a3e 7182 6b3d cdd9 ce3d
000000c0: 232c 5bbe 6e8b cf3d a10a edbd 4a21 24be
000000d0: ac4c e3bd 5f78 b63d 477a c83d e0fa bf3c
000000e0: a52d c03d 1718 c5bb 83e6 493e 7b74 0dbe
000000f0: 649f 0b3e c57a 453d 6104 05be c017 b23d
00000100: ee20 2a3d 6431 01bd 9642 e03d dc32 13be
00000110: 423f 043e 412a fd3c 9717 993d 7ed9 ed3d
00000120: 8c43 5ebd 687d 433e 2dfb 9cbd 8487 a43d
00000130: 0b3c 2c3c c28f 313d c0fe f63d 5f43 833d
00000140: 46b0 123e 53b3 94bd 801b 673d 4052 833c
00000150: d392 453e c71e cd3a 530d 203e b2f8 2fbe
00000160: f273 45bd 1599 e3bd 0252 1e3e f734 fd3d
00000170: 0e6b e7bd cc18 1c3e b2e5 21bd 48e5 8bbd
00000180: 5054 0c3e 19ca df3d b3eb 0fbd af2b a33d
00000190: f5b6 5ebe d027 06be 08cd ebbd 9b53 42be
000001a0: 65a9 81bd 95ee 83bd 589a 37be e037 d8bd
000001b0: ed2f a3bc 3be0 58bd 2385 433c 210d c13d
000001c0: 4517 173e e04e e7bd 68a6 ecbd 62e2 2d3e
000001d0: 6446 8b3c 68bc d3bc b238 ea3c f6b9 2d3d
000001e0: be6b c03d 316c 26bd ae84 45be 013b e0bd
000001f0: e4e9 273d 42fc 5cbe fcce e9ba 1f0c 64be
00000200: d7ab 07be 7be0 82bd c51d b6bb 4240 663c
00000210: 7d50 d4bd 11e1 03be 5e38 9f3a 8a54 0ebe
00000220: fbb3 31bd 7517 0cbd aa21 e03d b7f2 d6bd
00000230: f125 39be bc45 14be a705 5abc 31a8 033e
00000240: 55b1 0cbe d1b7 c5bc b244 6ebe 24a2 74bd
00000250: 1749 2ebe 2d87 993d 075b 323e 34b3 4e3d
00000260: 7103 59bd 121c bb3d f9ab c93d c6a9 ca3d
00000270: 52a6 a1bd 3939 363e 471b b1bd 2c49 6b3c
00000280: d858 e73d 918c 83bd 09fb 3d3e c664 a33d
00000290: d774 b5bd a865 f6bd 522f 24bc a4a0 c63d
000002a0: 9ff7 3fbc 5698 bf3d 4f4a cebd a436 983d
000002b0: 4ca4 1c3d 7812 bfbd 66a4 063e 4ee5 92ba
000002c0: f9a4 e5bd 872c 053e 4346 5f3d 82d3 703b
000002d0: 2ea7 0dbe 2bc6 78bd 9ab3 1cbe fefc 213e
000002e0: 059f 5f3d 77af 12be 978a e93c 44af 96bc
000002f0: 9897 d4bd 2c66 84bd 669b 923c 4f4d bb3d
00000300: 08a1 94bc 4e49 75bd 2142 013c 3025 26be
00000310: 64e3 a5bd fd6b 223e 5ded d5bd f228 a73d
00000320: 82fb c6bd 20e9 3dbe 9c63 3a3e 087a cd3a
00000330: 4bd9 893d b960 183e 1445 b5bd 910c c13d
00000340: d67d 62be e982 4f3e 9789 92bd e7e4 06bd
00000350: fcf4 1cbe 2fe0 e13c 9e3f 133e 8b01 99bd
00000360: 903d 3bbc 50d7 9d3b a0b9 3d3e 3025 1fbe
00000370: e646 943d 4a51 ad3d 7cf0 f1bd e2fc f43d
00000380: 2183 4b3d adaa 25be 7503 35be e0a3 0bbe
00000390: 8bba c2bc d02f ccbd 564e 0dbe 4b33 7cbd
000003a0: d12a e03d a5db 4c3c 0bcf 723d f56d c43d
000003b0: 7cc5 d2bd e00f c6bd 9acd ecbd 7392 39be
000003c0: 9042 873d 2c10 f8bd 8066 e5bd 3e31 c7bd
000003d0: 0b03 e23d 6976 31be b371 9a3d 5594 aebd
000003e0: 151a c93d 831e bcbd 0dba 9cbd ee32 48be
000003f0: 7df2 eebd 26d9 d13d 6563 5abe a772 07be
0.10126518 0.08873547 0.083049975 0.09457345 -0.12839717 -0.16551548 0.05809734 -0.18803908
0.01934628 0.118803866 0.026989289 -0.046259187 -0.13873653 0.10836278 -0.0062028477 0.12793416
0.012084114 -0.12946379 -0.063647404 -0.08245974 0.04934415 0.15769726 -0.08775975 -0.22418334
0.15140346 0.001861094 0.09728642 -0.10672518 0.032493662 0.1123432 -0.045188833 -0.20949604
-0.025007267 -0.032810997 0.11838135 0.03068587 -0.09360567 -0.14014475 -0.18953958 0.009704229
-0.026166953 -0.073113464 -0.03720026 0.12703958 -0.06409737 0.16603667 0.057497445 0.10100136
-0.21403556 0.10134016 -0.11574293 -0.16028324 -0.110986084 0.08909678 0.097889476 0.023435056
0.09383706 -0.0060148346 0.1971684 -0.13813965 0.13635021 0.048212785 -0.12989952 0.08695936
0.04153531 -0.031541243 0.109502 -0.1437487 0.12914756 0.030903937 0.074752025 0.11613749
-0.054263636 0.19090807 -0.076650955 0.0803366 0.010512362 0.04334999 0.120603085 0.064093344
0.14325055 -0.07260766 0.05642271 0.01603043 0.1929429 0.0015649431 0.15630083 -0.17184713
-0.048206277 -0.111131825 0.15460971 0.12363618 -0.11299716 0.15243834 -0.039525695 -0.06830841
0.13704038 0.10927219 -0.03513689 0.07967316 -0.2174948 -0.13101125 -0.11513716 -0.18977205
-0.063311376 -0.0644199 -0.17929971 -0.10557532 -0.019920314 -0.052948218 0.011933598 0.09426332
0.1475497 -0.11294341 -0.11555177 0.1698089 0.017001338 -0.025846675 0.028591488 0.042413674
0.0939555 -0.040630523 -0.19288895 -0.10948754 0.04099454 -0.21580604 -0.0017838175 -0.22270249
-0.13249145 -0.063904725 -0.005557748 0.014053406 -0.103669144 -0.12878825 0.0012147536 -0.13899437
-0.043384533 -0.034202058 0.10943921 -0.10495513 -0.1808088 -0.14479727 -0.013307012 0.12857129
-0.13739522 -0.024135502 -0.23268393 -0.05972494 -0.17020069 0.07496486 0.17417537 0.05046387
-0.052981798 0.09136213 0.09847254 0.09895663 -0.07893051 0.17795266 -0.08647781 0.014360707
0.112962425 -0.06423295 0.18552794 0.079782054 -0.08860176 -0.12031108 -0.010021048 0.096986085
-0.011716752 0.09355228 -0.10072767 0.07432297 0.038242623 -0.093296945 0.1314865 -0.0011207254
-0.11213107 0.13005267 0.054510366 0.0036747162 -0.13833305 -0.060735863 -0.15302888 0.15819165
0.054595012 -0.14324747 0.028508468 -0.01839412 -0.10380477 -0.064648 0.017896365 0.09145605
-0.018143192 -0.059884362 0.0078893015 -0.16225123 -0.08100012 0.15861507 -0.10445664 0.081621066
-0.0971594 -0.18545961 0.1820206 0.0015676627 0.067308985 0.14880647 -0.08851066 0.09426225
-0.22118315 0.20264782 -0.071551494 -0.032933142 -0.15327829 0.02757272 0.14379737 -0.074709974
-0.011428252 0.004816927 0.18527842 -0.1554153 0.07240085 0.0846277 -0.11813447 0.11962296
0.0496856 -0.16178389 -0.176771 -0.13636732 -0.023770591 -0.09970057 -0.13799414 -0.061572354
0.109456666 0.012503539 0.059279483 0.09591285 -0.102915734 -0.09670997 -0.11562653 -0.18122272
0.06604493 -0.121124595 -0.11201191 -0.09726189 0.11035737 -0.17330326 0.07541218 -0.08524386
0.09819428 -0.09185507 -0.07652674 -0.19550678 -0.11667345 0.10246496 -0.21326979 -0.1322733

x_lin.2.bias f4 [32]
00000000: 302a 29be e9b7 06be cd38 00be 7394 bfbd
00000010: 0658 21be eae2 523d 5016 ff3c 929e 943d
00000020: 134a 15bd 1180 b63d 2c52 353e 55f1 9538
00000030: a8d3 ec3d 72d4 86bd a1e3 b03c e429 e33d
00000040: dc04 8dbd 63f5 443d 8346 213d 8b9e 12be
00000050: 9dea e6bd 8f34 453e a12a e9bd 898d 3f3d
00000060: 6d40 463d 5e26 d4bb 05d2 ca3d d517 e6bd
00000070: ccbe c23d d8f1 293e 0909 7bbd c83b dcbd
-0.1652 -0.13156094 -0.12521668 -0.09354486 -0.15756235 0.051485933 0.03113857 0.072568074
-0.036447596 0.089111455 0.17707127 7.149825e-05 0.11563808 -0.065834895 0.021592917 0.110919744
-0.068856925 0.04808558 0.039373886 -0.14318292 -0.11275218 0.19258331 -0.11385084 0.046765838
0.048401285 -0.0064743003 0.09903339 -0.11235014 0.09509048 0.16596162 -0.061287913 -0.1075359

edge_lin.0.weight f4 [32, 1, 64, 1]
00000000: e3e0 01be c15b dabd ff16 903d fa03 1fbe
00000010: b118 bdbd 6046 9abd 0e95 c93c a2e2 613d
00000020: d66f 0fbe 76b2 cc3c a90e 48bd cd26 b93d
00000030: 1631 7b3a 2dea d5bd fd99 b03d 0628 c13c
00000040: 45f4 51bc a8af b5bc a016 c2bc 7560 8cbd
00000050: fff7 debd 2884 87bd d508 f33c d74d 203d
00000060: ee5e 233d 30c2 ccbc 84ed 9a3d 876b cdbd
00000070: 0568 093d ef89 e5bd 79a9 ba3d 552f 9d3d
00000080: 6a16 933d f554 26bb ed62 2a3d acf5 65bc
00000090: 1eb7 b7bd d9d6 823c f6ae ac3d 61ff c2bd
000000a0: b4bf 9f3d f4f8 f9bd d086 05be a719 8a3d
000000b0: 06dc f5bd beb4 8a3c 1374 393d d551 023d
000000c0: c75c a2bb 04ca 62bd 6a50 2a3d 2aab 02bd
000000d0: 2153 473d 619f bbbd 53de e4bb 2fdc a3bd
000000e0: 5b97 043d 7acd 923d 60c7 3b3d 138c 90bd
000000f0: f28a 12be 8617 aabc d62e 6e3d d3e3 b63d
00000100: 8b58 dfbd 4a40 8f3b bd39 82bd a9fe 0abe
00000110: cf2e d73d 338b debb ce02 5dbd ea4c c2bd
00000120: 529b 443d 0a02 70bd c9f5 27bd 8238 85bd
00000130: a297 843c e41d 053d 5d34 1b3e e5b2 f13d
00000140: 406d 2b3b 9aee 06be c5a3 8b3d 753b 143e
00000150: d8c9 88bd 28cf 3e3d 61da d03b cb87 bb3d
00000160: b400 11be 7eb3 073e caf6 f3bd 587a cf3d
00000170: 6765 93bc 3ef5 b5bd 2b7d f63d ca73 1ebc
00000180: 89a8 923d 400a 2c3d b753 b9bc f70c e4bc
00000190: f6bd 93bd 691b 96bd ace9 2fbd 30e5 2b3d
000001a0: a899 003e 6961 9cbd ccf1 353d daf3 013e
000001b0: 567a ae3d f7a4 dbbd 7324 233e 3b23 013d
000001c0: 28fc 0f3d 3145 4e3d dca4 65bd 804f 053e
000001d0: d7a7 a6bd c2d6 5dbd 98c9 efbd 9a28 d0bc
000001e0: c1ad 96bd 1252 5bbd e574 68bd bdd6 ab3c
000001f0: c8ee 04be ecf9 b8bc a809 8b3d 0bc8 243c
00000200: 19dc e4bd ca57 fdbd 0483 923c 21f0 6bbd
00000210: 3015 7fbd 5375 e2bd ade6 99bd 6303 903e
00000220: 3ca6 06be b63a 47bd a0f7 aabd a8ec 043d
00000230: ecff bd3c ff6b b03a 35b1 f53d 40be a23d
00000240: 375b 84bd 08e6 afbd 42f3 6a3d 29d5 5cbd
00000250: 8cf3 81bd d747 263d f882 1f3e f63b f3bd
00000260: 8acd 54bd 7891 02be 1ea4 923c 3615 c43d
00000270: 2f68 2d3c f731 fbbd b266 a6bd 419d 63bd
00000280: d16d 22bd bba5 c83d 196f aebd 8de8 43bd
00000290: d7ed d9ba d389 14be 09f0 b3bd fafb e53e
000002a0: a61d 9cbd b54f 9dbd f9d0 2a3d ab3f dcbd
000002b0: 97e0 aabc 4013 24be 3605 c53d ffb8 8abc
000002c0: 7229 2cbd 71fa 02bc ce44 cfbd 7997 8b3d
000002d0: 1744 513d 2649 97bd 56a7 893d ee6e 7ebd
000002e0: b03d 2b3d c5b6 64bd 6683 4b3d 4934 313d
000002f0: 7641 95bd 11bf 00be c10c f0bd 4f4e ce3d
00000300: 09a5 eb3d 14fd f73d bdc5 36be 44ae 93bc
00000310: 8fb7 9cbd a7fb a2bd e10d 00bc d05f 873c
00000320: a2e2 fbbd 9028 b13d da5a 1c3d 64f7 eb3d
00000330: 4d4e e9bd 3281 6d3d 85ab bf3c 2883 25bd
00000340: a262 933d b53b ce3d 7376 08bd 88d2 bdbc
00000350: 7ae8 9cbc 0df9 65bd dd04 c2bd b524 7dbe
00000360: 14f2 b53d 25ae 11be feaa 66bd b40a b93d
00000370: 8723 05bd 0daf 80bd e957 65bd 8b93 993d
00000380: 19c6 b83c 964e aebc 7215 cebc 15c6 a03d
00000390: cee3 d4bd fc25 d8bd 223e 13bd 6101 1bbe
000003a0: 2587 a93c d6f6 c43d 373a 103d 5ecd 83bc
000003b0: ddc3 5ab9 4031 ee3d a569 023d 80ff 773d
000003c0: 066c c23d 0e19 503c 03b6 c6bd fa6b 993d
000003d0: 5ab0 97bc 71ce 03bc ebb8 9b3d 2d60 17be
000003e0: 8643 da3d c72d 403d a057 adbc 7bd3 9f3d
000003f0: 75a2 ab3d d334 dcbd e47f e2bd 2201 d73d
-0.12683444 -0.10662032 0.07035636 -0.1552886 -0.09233225 -0.07532954 0.024607208 0.055147775
-0.14007506 0.02498744 -0.048842106 0.09040604 0.00095822045 -0.10445056 0.08623121 0.023578655
-0.012814586 -0.022178486 -0.023692429 -0.06854335 -0.10887145 -0.06617004 0.029667297 0.039136734
0.039885454 -0.02499494 0.07564834 -0.10030275 0.033546466 -0.11207949 0.091143556 0.076750435
0.071820095 -0.0025380228 0.04159825 -0.0140356235 -0.08970474 0.015971588 0.08431809 -0.09521366
0.07800236 -0.12205687 -0.13039708 0.06743174 -0.12004857 0.016931888 0.045276713 0.031816322
-0.0049549076 -0.05536844 0.041580595 -0.031901516 0.048663262 -0.091612585 -0.006984511 -0.08000981
0.032370906 0.07168098 0.045844436 -0.07057967 -0.14310816 -0.02076317 0.058150135 0.08930173
-0.1090556 0.0043716775 -0.06358669 -0.13573708 0.10506975 -0.006791496 -0.053957753 -0.094873264
0.047999687 -0.058595695 -0.041005883 -0.06504919 0.016185585 0.03249921 0.15156694 0.118016995
0.0026157647 -0.13176957 0.06818346 0.14475806 -0.06679124 0.04658428 0.006373689 0.0915676
-0.14160424 0.13252065 -0.11912306 0.10130757 -0.017992688 -0.08884667 0.12035593 -0.009671161
0.07161052 0.042001963 -0.022622926 -0.027838213 -0.072139665 -0.07329447 -0.042947456 0.041966617
0.12558615 -0.07635767 0.04442005 0.12690678 0.085194275 -0.10724824 0.15931873 0.03152774
0.035152584 0.050358955 -0.056065425 0.13018608 -0.08137482 -0.054159887 -0.11708373 -0.025409985
-0.0735736 -0.053545065 -0.056752104 0.020976419 -0.12981713 -0.02258011 0.06788951 0.01005746
-0.11174793 -0.1237026 0.017884739 -0.05760205 -0.062276065 -0.11057534 -0.07514701 0.28127584
-0.13149351 -0.048639975 -0.08348012 0.032452255 0.023193322 0.001345992 0.1199669 0.079464436
-0.0646271 -0.08588797 0.057360895 -0.053914223 -0.06345281 0.040595856 0.15577304 -0.11876671
-0.05195383 -0.12750804 0.017900523 0.09574358 0.010583921 -0.122653894 -0.08125056 -0.05556989
-0.03965551 0.097972356 -0.08517284 -0.0478292 -0.0016626668 -0.14505701 -0.087860174 0.44918805
-0.076228425 -0.076812185 0.041703198 -0.10754331 -0.020859046 -0.16022968 0.096201345 -0.016933916
-0.042031713 -0.00799428 -0.10120545 0.068160005 0.051090326 -0.07386999 0.0672137 -0.06211751
0.041806877 -0.055838365 0.04968586 0.043262754 -0.07287876 -0.12572886 -0.117211826 0.1007353
0.11506087 0.12108818 -0.17848869 -0.018027432 -0.076521985 -0.07958155 -0.007815809 0.01652518
-0.12299086 0.08650315 0.03817258 0.115217954 -0.11391888 0.05798454 0.023397217 -0.040408283
0.07196547 0.10069982 -0.033316087 -0.023171678 -0.019153822 -0.056145716 -0.09473584 -0.24721034
0.08884063 -0.14226587 -0.056315415 0.090352446 -0.032504585 -0.06283388 -0.05599204 0.07498845
0.022555398 -0.021277707 -0.02515671 0.07850281 -0.10395013 -0.1055412 -0.035947926 -0.15137245
0.020694325 0.09617393 0.035211768 -0.016089138 -0.00020863065 0.116304874 0.03183903 0.0605464
0.0949326 0.012701286 -0.09702685 0.07491298 -0.018516708 -0.008044825 0.0760363 -0.14782782
0.1065741 0.046918657 -0.021159947 0.078040086 0.083805956 -0.10752263 -0.110595495 0.10498263

edge_lin.0.bias f4 [32]
00000000: e0ed 6dbd 09b9 50bd f70d ac3d 2d92 f8bc
00000010: 0645 4dbd e736 3ebc b5ea c43d 2f34 6ebd
00000020: be30 9f3d 09db 993d 4f53 edbd 2bd3 113d
00000030: 22c9 a63d 257e e1bd e5c7 8dbd 6134 ec3c
00000040: d253 bebd aebe 143c 573c 5ebc e33f 3a3c
00000050: 5fbd 97bd 55df 2ebd fa2e 943d 4d75 94bd
00000060: 3523 77ba d0dc 443d 1dfd e6bc 649f 653d
00000070: 65ba a53b a7d7 dabd 3ff9 673d d711 e23d
-0.058088183 -0.050957713 0.08401101 -0.03034314 -0.050114654 -0.011609769 0.09615079 -0.058155235
0.07772969 0.07512481 -0.115881555 0.035601776 0.08143832 -0.11010388 -0.069228925 0.02883357
-0.09293331 0.009078665 -0.013564191 0.011367771 -0.074091665 -0.042693455 0.072355226 -0.07248936
-0.00094275485 0.048062146 -0.028196866 0.05606021 0.0050576204 -0.10685664 0.056634184 0.11038559

edge_lin.2.weight f4 [32, 32, 1, 1]
00000000: 8ae3 a53d fdef 383d 50e8 e13d 16fb 1fbe
00000010: e23a c03d d57a 6cbd 564b 8d3d 6613 1cbe
00000020: 131b 03bd 8242 cf3d 88ca e23d 389b b9bb
00000030: 7400 163e a172 263d fd64 89bd a6dc 2cbd
00000040: 2721 ce3d dce1 f6bd 87ea 433d d2c2 afbd
00000050: a414 103e 3e12 28be 1580 063d aae5 8fbc
00000060: 8b5f fbbd 7c21 553c 5380 82ba 65fa f43d
00000070: 54d1 1dbe 8122 113e d9ca fb3d a621 433c
00000080: 39bb 2abe cdfd 25be 6b2c a9ba 9825 22be
00000090: dda0 633d b081 ef3c 0e39 d2bd d8b1 debd
000000a0: 262f 923d 44ac e13d 0566 57bd 3b1c 8e3d
000000b0: 37e4 223e 3baa 24bb bd84 13be 73fd 0ebe
000000c0: c2fd d33d c99e 9e3d ada5 a2bd f3bb acbd
000000d0: a2a0 14be 22d0 033e e3ad aabd 23b6 c6bd
000000e0: 3a55 a13d debb 3bbe 1d8a c4bd f12f cc3d
000000f0: 9bff a6bc ab24 b1bd e259 ce3d c572 b5bb
00000100: d32c 1dbe 5b68 983d 1345 a7bc 0d23 0b3c
00000110: 7493 83bd 5773 f0bd 0aa7 edbb f25a 543d
00000120: 00be 1fbe 9ce0 7abc 6e67 823d 81e0 07bc
00000130: bd92 493d d0e5 92bd 9908 d03b 68f7 d53d
00000140: 6045 3cbd 7324 a9bd d66d abbd a15f a03c
00000150: 63ac f53d 51a9 d93d 9686 ed3c ac46 c7bd
00000160: 1c5d 14bd 34ed 11be 757c 22be 6fe9 80bd
00000170: 4e9b d13c 9610 093e 4daf 7c3d 3aea be3c
00000180: a986 42be 66c7 1fbe 6da3 3bbe ed5c 123e
00000190: bdba 27be ded9 1f3e a0f1 cebc a336 d43c
000001a0: af3f 80bd e0e8 2fbc 9acb c5bd 20df 60bd
000001b0: 772d d73d d43d c2bd 53fb 6ebd bd30 fe3d
000001c0: ff14 cebd 531b 873c 45da 623c 0550 c33c
000001d0: 8558 2f3d b2b1 a63a f932 14be 80f7 c9bd
000001e0: efc2 0b3e 94a9 78bd af76 20be b32e e13d
000001f0: 52ff f73d a88b 38bc 480c 26be 0a7d b3bd
00000200: 4532 033e bab2 b63d e635 2cbe 0481 803d
00000210: 2ea2 cf3d 8884 84bc 660b eebd 9615 2fbe
00000220: 9477 f3bd 8155 93bd 2d58 43bb 3312 70bd
00000230: 7844 0a3e fdb7 f1bd 74f3 363e cffa 3ebd
00000240: 727a 12be ffcb 3f3e 2a65 403c 60d7 31bd
00000250: 12e7 e53c 979f e03d f0fa 9a3d 7fc3 2ebc
00000260: e6f9 a93d 06f8 bfbd c81e 4d3e f8b3 19be
00000270: 67a5 cbbc 2554 0bbe a9f8 e03d efdb a6bd
00000280: 0999 12bc e6b0 3b3e 2542 06be c029 ab3d
00000290: 5f28 2d3e f8f7 dabd 7e6f 6cbc 09cf e4bd
000002a0: 5996 1fbc 3568 1b3d 11a2 28bd 205a 3b3e
000002b0: 6605 1f3e 784e 5cbc ffb9 2d3d 4a5d 0a3e
000002c0: 9a75 e0bd 8269 a3bd d23b 60bd a171 b5bd
000002d0: efce f13b bb1c 83bd fe4e c53d acd7 053d
000002e0: 7fe9 413d 06cc 7fbc 4cff 963d 5b39 453d
000002f0: ff0d a13b 1120 513e 2324 123d de48 6a3d
00000300: 52e0 efbd f895 94bd 7f95 123d ffde 33be
00000310: 0c3d c23d c6f0 babd 0288 93bd f41f ddbc
00000320: 57e0 773d 171b c4bb 7faa 403d 869d 15be
00000330: 8603 14be 8f52 05be 15fb e9bd 46a7 9abd
00000340: 52ac 1c3d b54b 393e 8e59 a23d 9c8e 66bd
00000350: 50b1 86bc 5c9a 013e 59ba e7bd dc2f c8bd
00000360: 3c1d 58bc a51d 083c f021 fdba 6bd0 103d
00000370: 938d 29bd de28 c9bd a961 b9bd 486e 3abd
00000380: 1141 24be 8633 af3d 5729 d43d 2480 cdbd
00000390: d07d 1bbe 67b5 06be 4c10 0fbe a0cf c93d
000003a0: 4601 183e 89bf 22be 0c68 fd3d d27e e6bd
000003b0: c7bb 8cbb 2024 78bd 9eee c7bc 046b 8dbb
000003c0: de9a a73d 1461 093e f54f 323e 0bfe c23c
000003d0: 75a1 ba3d 67c0 12be 9c00 a1bb e91d 283e
000003e0: 3a4b 19be 26d1 95bd efaf a13d 4ce8 233d
000003f0: 507c 45bb e22b e93d a733 353e 09fb 033e
0.0810004 0.045150746 0.11030638 -0.15623125 0.09386231 -0.05773433 0.06899135 -0.15241775
-0.03200824 0.10120107 0.11073786 -0.0056642555 0.1464861 0.040636662 -0.06708715 -0.042202614
0.10064917 -0.12054798 0.047831085 -0.08582081 0.14070374 -0.16413209 0.032836992 -0.017565567
-0.12274083 0.013008472 -0.0009956456 0.119618215 -0.15411884 0.14173318 0.122945495 0.011909878
-0.16672982 -0.16210099 -0.0012906914 -0.15834653 0.055573333 0.029236645 -0.102647886 -0.10873765
0.07137899 0.11019185 -0.052587528 0.06938978 0.1590737 -0.002512588 -0.14406104 -0.1396387
0.10351135 0.077451296 -0.079417564 -0.08434286 -0.14514402 0.12872365 -0.083339475 -0.097027086
0.07877584 -0.18333384 -0.095966555 0.099700816 -0.020385554 -0.08649572 0.100757375 -0.0055373632
-0.1534913 0.07441779 -0.02041868 0.0084922435 -0.06424609 -0.11740749 -0.0072525786 0.051844545
-0.15599823 -0.01531234 0.06367384 -0.008293272 0.049212206 -0.071727395 0.006348681 0.104475796
-0.0459646 -0.08258905 -0.08370559 0.01957685 0.11995771 0.10627998 0.02899484 -0.097302765
-0.03622161 -0.14250642 -0.15867789 -0.06294524 0.02558675 0.13385233 0.061690617 0.023305047
-0.18996681 -0.15603408 -0.1832406 0.14293261 -0.16379829 0.15610453 -0.0252617 0.025904959
-0.06262147 -0.010736674 -0.096579745 -0.05490029 0.105067186 -0.09484449 -0.05834515 0.1241164
-0.100625984 0.016492521 0.013845985 0.023841867 0.04280903 0.0012717752 -0.1447257 -0.0986166
0.1364858 -0.060708597 -0.15670274 0.10995235 0.12109245 -0.011263765 -0.16215622 -0.08764084
0.12812145 0.08920808 -0.16817436 0.06274608 0.10138355 -0.016176477 -0.11623268 -0.17098078
-0.11888042 -0.07194043 -0.0029807196 -0.058611106 0.13502681 -0.11802671 0.17866307 -0.04662591
-0.14304522 0.18730162 0.011742869 -0.04341829 0.028064284 0.10967939 0.07567394 -0.010666727
0.082996175 -0.093734786 0.20031273 -0.15010059 -0.024859143 -0.13606317 0.10984928 -0.08147418
-0.008947619 0.183292 -0.1311117 0.083575726 0.16909932 -0.106918275 -0.014430879 -0.11172301
-0.0097404355 0.037941176 -0.041170184 0.18296099 0.15529403 -0.013446443 0.042413708 0.1351215
-0.10959931 -0.079791084 -0.05474455 -0.088595636 0.0073794047 -0.06401964 0.09634207 0.032676384
0.04734182 -0.015612608 0.07372913 0.0481504 0.0049149985 0.20422389 0.035678994 0.057198398
-0.117127076 -0.07255167 0.0357871 -0.17565535 0.094843 -0.09127955 -0.07203676 -0.026992775
0.06051668 -0.0059846747 0.047037598 -0.14610872 -0.14454469 -0.13019775 -0.11424843 -0.07551436
0.038250275 0.18095286 0.079272375 -0.056288347 -0.016441971 0.1265654 -0.1131484 -0.097747535
-0.013190564 0.008307849 -0.0019312482 0.035355013 -0.04139478 -0.09822248 -0.0905183 -0.04551533
-0.16040446 0.08554749 0.103594474 -0.100342065 -0.15184712 -0.13155137 -0.1397106 0.098540545
0.14844236 -0.15893377 0.12373361 -0.11254658 -0.0042948457 -0.060581326 -0.024405774 -0.004315736
0.081838354 0.13415939 0.17413314 0.023802778 0.09112827 -0.14331208 -0.0049134027 0.1641766
-0.14970103 -0.073152825 0.07894885 0.040016457 -0.003013391 0.11385323 0.17695485 0.12888731

edge_lin.2.bias f4 [32]
00000000: 7e56 adbc c359 ebbd 83ca 963d a75a 713d
00000010: d8a4 9c3d ce62 29bd 9a87 25be 8eba 273e
00000020: 17a1 3eba 1b56 263e 5057 d23d 72e6 07be
00000030: e163 1fbe a1a1 db3d abbc f0bc 9fc6 643d
00000040: 7b83 e83d 7df8 3bbd 7e87 b6bc aa4f 1c3e
00000050: f795 a4bd 6473 893c 5e24 543d 9658 193e
00000060: 7060 8bbd caa1 18be 3c99 ad3d b5a8 9a3d
00000070: ba0c 013e cffe f23c ed09 fcbd 5ae4 bb3c
-0.021159407 -0.1149173 0.07362845 0.058924343 0.07648629 -0.041353993 -0.16165009 0.16379759
-0.0007271929 0.16243784 0.1027056 -0.13271502 -0.15565445 0.10724188 -0.029386839 0.055853482
0.11353203 -0.045891274 -0.022281405 0.15264764 -0.08036416 0.016778655 0.051792495 0.14975199
-0.06805503 -0.14905468 0.08476493 0.075517096 0.12602511 0.029662518 -0.12306581 0.022936035

vertex_output_lin.0.weight f4 [32, 1, 32, 1]
00000000: dac9 303e 548c f7bd dcff 803d c523 ec3d
00000010: 1ee7 223e 90b6 0abd a11a 18be 961c 13bd
00000020: b141 fbbd 2507 26bd b1b7 adbd 8fba 263d
00000030: eb1f 1ebd 17f5 9ebd 57a5 c5bd eddf 283e
00000040: 9b3e 91bc ee75 b4bd 4153 323e 8d0b ab3d
00000050: 225e 2bbe 173e e93c fc2f 31be 70bd 2dbe
00000060: 8b60 cb3d 21bc 2dbd 55b5 283e 62d3 8ebd
00000070: 6f40 233e 8de5 bb3c e1b6 ea3c 0a6a 31be
00000080: 433d a03d f5da 1dbc 57b0 febc 012e 02be
00000090: 63fa 0c3e 43aa 083e 8977 d03d bdb2 f43d
000000a0: 549e c5bb 6e5c 33bd 25a9 07bc ca62 783d
000000b0: 9fa5 0e3d 8c47 8c3d 0cd0 0ebc b0da 1f3e
000000c0: 5de4 103e 768a ddbd 2556 0cbe a70e b03d
000000d0: b3e5 f7bc 2f2e 863d 0710 fdbd b355 14be
000000e0: 62ef 7d3d 1139 bdbd 173c 00be ba6f 873d
000000f0: 46dc 29bd 45fc 40be a4ae a8bd 8fd1 afbd
00000100: d036 fabc 2223 1a3e 2482 0dbd fe0d 8a3c
00000110: 5f05 cd3c bb84 ec3d c702 e5bd 425a 3abe
00000120: 9148 e1bd 3d53 d5bd a617 4dbe ac7a c13d
00000130: 2607 83be ff82 4ebe b547 333d 9d93 a8bd
00000140: 646a d93d 8135 ed3b 0628 113d 3bd9 d43d
00000150: 3a11 52bd 3703 09bc c7fa 67bd 329e 2abe
00000160: c7b8 9b3d ddb2 c43c 78ea c33d 40df d43d
00000170: ddb7 5c3d 2f14 6b3d 0272 32be 33b4 07be
00000180: 3c60 143d b66b 553b 263e c33b b356 e9bc
00000190: aa8e 09be f125 863d d9ce c2bd 271a 47bd
000001a0: 3608 3a3d 8526 313c d45e 0dbc ad0e 19bc
000001b0: fdb6 393d 7fa3 10bd 6244 9d3d 0be0 b7bd
000001c0: 56df 2a3e de6e 233e ef33 1cbe 8e9e 373e
000001d0: eaf6 fdbd d5cc 46bd 389f f43d 9add 2fbd
000001e0: ef29 5d3e d4f1 223b efe0 003d e4c5 1dbd
000001f0: 2b1c b5bc ab79 54be b8b0 8dbd 2829 10be
00000200: 6339 bd3d 4d83 ecbd b409 d0bd 2f0b 673c
00000210: 409e 0bbd f009 763c eccd 2e3e 4a17 a93c
00000220: b54c 97bd c8bc e9bd 25af f63c 7c0f 1fbd
00000230: 7560 3e3d 0d4c d2bd 9f4b c4bd 8fe3 21be
00000240: 899f aabd 117e 32bd e0fd bc3b 7ba3 febd
00000250: 7f8a be3d 8589 d9bd ca79 303d 0aee 8ebd
00000260: 607a 8e3c 429d 2d3e 0cf8 f83b 0e6e 0dbe
00000270: 0fae 243e 64ca 8a3d f3ec 0fbe 90ca 27be
00000280: 2a1c 2bbd 564e 783d 6083 c8bd 5a99 adbc
00000290: b4fc a93d 7169 d8bc cb46 06be cc84 2dbd
000002a0: 44b3 00be 6998 db3d 7613 00bc 3cf8 283d
000002b0: 104a 9fbd 3b05 2bba 41ad 19bd 772d efbd
000002c0: 25e7 67bd f720 f13d 550c 39bd 18ae e83d
000002d0: 8ee8 243e a7b8 b8bd fb7f eabd 4194 7fbd
000002e0: f961 5abd d057 a8bd 5eef 183c 5a83 3bbe
000002f0: 5c36 1fbe bd5f 2d3d 4374 d53c 2c56 7cbc
00000300: ba1d ca3d 6137 213e 5d78 a0bb f44e 393d
00000310: a913 0cbe e051 22be 1ba5 02be c757 13be
00000320: 1610 123d 71ca 1fbe 331f d33c 23a0 c03c
00000330: a21e 80be c73b e53d c8ff 223e 5de9 27be
00000340: 9c86 c53d 5891 60be 8e30 3f3e a547 cabd
00000350: d04d d73d a342 22be cd17 fdbd 5428 0f3e
00000360: 52fa 7cbc fe67 a0bd 2de7 3abd 2c17 213e
00000370: 496c f8bd 0de8 333d 06a1 9a3d e13d a1bd
00000380: ee1c 02be 09bf bebd 78cf 90bc 32ce 4cbd
00000390: 12a6 953d 5076 ddbd 357a 14be f3b9 20be
000003a0: 27a3 1abe b2af b13d e7b7 5e3d 0a29 083e
000003b0: 36b0 ae3d 22f7 083d c2dd 41be b284 13be
000003c0: 0574 203e a4b8 c4bd 6dac 06be 5900 003e
000003d0: bcb5 efbd a767 7d3d 63bf 3abe c019 e9bd
000003e0: e004 f43d da59 29be 1955 1b3e aab7 46bb
000003f0: d289 ef3d fab8 13be 9fc3 52be 5ffb 40bd
0.172645 -0.12087312 0.06298801 0.1153026 0.15908477 -0.03386551 -0.14853908 -0.035915934
-0.12268389 -0.040534157 -0.08482302 0.04070526 -0.038604658 -0.07761591 -0.09650677 0.16491671
-0.017730048 -0.08811556 0.17414571 0.083518125 -0.16735128 0.02847199 -0.17303461 -0.16966796
0.099305235 -0.04241574 0.16475423 -0.06973912 0.15942548 0.022936607 0.028651657 -0.17325607
0.07824185 -0.009634723 -0.031089945 -0.12712862 0.1376739 0.133462 0.101790495 0.11948154
-0.006030837 -0.04378932 -0.008280073 0.060641088 0.034825917 0.06849584 -0.008716594 0.15610766
0.14149614 -0.10817425 -0.13704737 0.08596545 -0.030260896 0.065517776 -0.123565726 -0.14485817
0.06199587 -0.092394 -0.12522922 0.06613107 -0.041469835 -0.18846233 -0.08236435 -0.08584892
-0.030543715 0.15052465 -0.03454794 0.016852375 0.025026975 0.11548754 -0.1118217 -0.18198493
-0.11000169 -0.10416267 -0.20028552 0.09447226 -0.2559139 -0.20167159 0.043769557 -0.0823128
0.106159955 0.007239044 0.03543856 0.10392996 -0.05128596 -0.008362583 -0.056635644 -0.16661909
0.07603603 0.02401107 0.09566206 0.10394144 0.053886283 0.057392295 -0.17426303 -0.13252334
0.03622459 0.0032565421 0.0059583364 -0.028483724 -0.13433328 0.065502055 -0.09512109 -0.048608925
0.045417987 0.010812406 -0.008628566 -0.009341878 0.045340527 -0.035312172 0.076790586 -0.0897828
0.16686758 0.15960261 -0.15254186 0.17931578 -0.12400611 -0.048535187 0.11944431 -0.042935945
0.21598028 0.002486338 0.031464513 -0.0385188 -0.022108158 -0.20749538 -0.06918472 -0.140782
0.09239461 -0.11548481 -0.10158101 0.0141017875 -0.034086466 0.015017018 0.1707074 0.020640988
-0.073876776 -0.1141296 0.030112812 -0.038833126 0.046478707 -0.10268412 -0.09584736 -0.15809463
-0.0833121 -0.043577258 0.005767569 -0.12433525 0.0930376 -0.10621933 0.043084897 -0.06978996
0.017392337 0.1695452 0.007597929 -0.13811514 0.16082023 0.06776884 -0.14055233 -0.16385865
-0.041774906 0.060621582 -0.09790683 -0.021191288 0.083001524 -0.026417466 -0.13112943 -0.042362973
-0.12568384 0.10722429 -0.00781714 0.04125236 -0.07777798 -0.0006523912 -0.037518743 -0.116785936
-0.05661692 0.11773866 -0.045177776 0.11361331 0.16104338 -0.09019595 -0.114501916 -0.062397245
-0.05331609 -0.08219874 0.009334413 -0.18311825 -0.1554808 0.04232763 0.026056414 -0.015401404
0.09868951 0.15743782 -0.004897161 0.04524131 -0.13679375 -0.15851545 -0.12758295 -0.14388953
0.035659872 -0.15604569 0.025771713 0.02351386 -0.2502337 0.11193042 0.15917885 -0.16397615
0.09644815 -0.21930444 0.18670866 -0.09876946 0.105128884 -0.15845732 -0.12358055 0.13980228
-0.01544054 -0.07832335 -0.045630623 0.15731496 -0.12130029 0.043922473 0.07550244 -0.078731306
-0.12706348 -0.09313781 -0.017677054 -0.05000133 0.07307066 -0.10813582 -0.14499743 -0.15695934
-0.151013 0.08676089 0.0543746 0.13296905 0.08529703 0.03343881 -0.1893225 -0.14406088
0.15669258 -0.0960553 -0.13151713 0.12500133 -0.11704585 0.06186643 -0.1823707 -0.113818645
0.11914992 -0.16538182 0.15169181 -0.0030321875 0.11696209 -0.14426032 -0.20582436 -0.047114726

vertex_output_lin.0.bias f4 [32]
00000000: f42c 00be 50d6 0cbe 3738 ef3c d2ac 52bd
00000010: 04d8 223d 18c8 d33d 25f8 13be 5f7d 8ebb
00000020: 658f f5bd fafd 20bd c5c1 2dbd 5ab5 f8bd
00000030: 0c65 b33d 42b8 673d f273 1cbe 0b17 05bd
00000040: 46af 8fbc 0bb3 ed3c bbb6 a5bc ae4d 783d
00000050: fddf 6e3d f3ed d4bd a1b2 a5bd 6f41 333e
00000060: 2009 aabc 114d 9dbd 58dc cbbd 83ef 4fbe
00000070: 29d0 cf3c 6ddb 01be 9bad 0d3e 5d92 183d
-0.12517148 -0.13753629 0.02920161 -0.051434346 0.03975679 0.10340899 -0.14450128 -0.0043484415
-0.11990241 -0.03930471 -0.04242112 -0.12143965 0.087595075 0.056572206 -0.15278605 -0.03249268
-0.017539632 0.029016038 -0.020228734 0.060620956 0.05831908 -0.10396948 -0.080907114 0.1750543
-0.020756304 -0.07680715 -0.099541366 -0.2030621 0.025367813 -0.1268136 0.13835756 0.037248958

vertex_output_lin.2.weight f4 [1, 32, 1, 1]
00000000: 6483 103e 5647 58be 9b45 d53c 8065 3cbe
00000010: 1710 4ebd 64f0 06bd cdac 013e 9d4a 1abe
00000020: 174c 763d 20a9 f2bd 935d debd 904e ad39
00000030: d804 6cbe b698 32bd 38b3 9bbd d6bf 063e
00000040: f8b2 fcbd 9cf1 ea3c 017e 7f3d da26 b7ba
00000050: 66ba e6bd 45f0 2c3e 6ad0 a2be 6096 cb3d
00000060: 83ed 063e 7798 883c 7db1 edbc ed22 bdb9
00000070: d93f a1bd c572 acbc e138 963d a7a9 26be
0.14112622 -0.21120963 0.026034167 -0.18398094 -0.050308313 -0.032944098 0.12663575 -0.15067525
0.06013116 -0.11848664 -0.108576916 0.00033055665 -0.23048723 -0.043602668 -0.07602543 0.13159117
-0.12338823 0.028679661 0.062376026 -0.0013973371 -0.112660214 0.1688853 -0.31799632 0.09940791
0.13176541 0.016674263 -0.029015297 -0.0003607491 -0.07873506 -0.02105082 0.073350675 -0.16275655

graph_output_lin.0.weight f4 [1, 618]
00000000: 81d2 043d 6de1 35bd 8e3d e5bc f2ed 9b3c
00000010: 5b0c c2bc 706f bbbc bb5b 02bd 3ccd b8bc
00000020: 11cd 7ebd b097 2cbd 5508 043c d30d 2bbd
00000030: fa62 c93b ba8d 17bd 7bb9 98bb 3864 053c
00000040: 3e1b 0cbd 4c99 0bbd 5696 79bd d099 78bb
00000050: 08da 193c 5090 893c 9b38 863c 943c 3d3c
00000060: 3485 d53c b372 64bd a65e 3ebd 3245 443c
00000070: 22be 13bd 7523 5abd 04da 9cbc 01cc 84bd
00000080: 52bf ad3b 086e 13bd d315 66bd 1648 243c
00000090: d762 e8bc 7700 b13c a3db a23b be1e 10bc
000000a0: da8b 5a3c d441 b03b 58c4 e6bb dad4 29bc
000000b0: 42a9 77bd 8509 65bd ce26 4fbd 1a33 2bbd
000000c0: 1a3c ecbc 8116 49bd 0c28 5dbd 058d 0dbc
000000d0: 0243 6bbc fd1d 47bd e1c6 20bc 3aa0 073b
000000e0: 494a 33bd c0cf 83bd 884b 57bd 400a 03bc
000000f0: af24 3ebd db72 96bd 9d1d 43bc 9e22 28bd
00000100: e94b 943c e65d bb3c e2c2 2d3c b5a4 75bc
00000110: 99a4 063d aed3 6e3c 328d 5a3c 605b cbbc
00000120: 5be7 01bd 07c9 86bd f409 5abd 1185 94bd
00000130: 7498 3bbb 3b81 3cbc 36e0 4abd 1d39 9b3c
00000140: 498a 663c 3fb7 4b3c 3e01 0ebd db77 d43c
00000150: 2bc7 2db9 0fd7 af3a ee4b e1bc 2211 76bd
00000160: cf0c 49bd bc8c 1bbd 4160 a43c 0bad d23c
00000170: c2d4 ecbb 7e35 1abd 66a7 38bc 3932 2539
00000180: 0ee2 3abd 831a a5bc b050 5bbd dd5d 123b
00000190: 4dc4 c1bc 419a f3bc 368f 78bd 2d1b 1abc
000001a0: 79dd 243c d891 86bc a38d cb3b 1306 7cbd
000001b0: 487c 46bd 5b02 3ebd 01ed 183c 9ae9 0c3d
000001c0: eefa e23c 8602 663c 62d5 9cbc b5ff a1bc
000001d0: 43ee 50bd e003 d2bc 190e debc f86c eb3b
000001e0: d28a 80bc 0dfc c8bb 5a4e 5d3b 7e56 d73b
000001f0: 0cdc e1bc 496d 76bd 8e04 383b 5eb7 4bbd
00000200: a4a3 82bc c2f1 073c c42b 71ba 9fb4 993b
00000210: 79b2 4cbc b712 c3bb 61bd 43bd a7cd b73c
00000220: 86dd 10bd d802 403c 232e 3cbd e008 9bbc
00000230: 45e0 3dbd 7a1d 53bd 981f 57bd a1a7 fe3b
00000240: 17e0 c53a 1b44 fd3b cd3b f9bc d71f 2c3c
00000250: 060c 12bc e5a0 3cbd 6c3c dbbc 684e 54bd
00000260: f913 a3bc 7147 8c3c b99f 0bbd f2f9 a9bc
00000270: a43f 9bbc 821c b83c fd73 afbc 4453 0a3c
00000280: 6a09 823c 66e8 25bd 0cd6 75bd 2ee5 5fbd
00000290: 3883 783c 1a0a febc f2a6 2ebd 9aec 5ebd
000002a0: 12d4 e1bc aacb 05bd 9ef4 4dba e5b5 0ebd
000002b0: 2e2e b7bc c0ab 72bd fdd6 843b 2b70 90bb
000002c0: 5fac 39bd 25a8 02bd 474b 27bd 3cff c1bb
000002d0: f377 12bd d5ee 25bd 74f2 53ba af85 48bc
000002e0: 0397 0d3c 14d0 803c 7f28 5bbd 9e89 78bd
000002f0: 6e6f a13c b062 78bc 6e64 01bd 1394 e4bc
00000300: 4d68 26bd d7ce 383c cc49 44bd e1d0 cfbb
00000310: 3887 5abd 678d 11b9 981a 993b ff18 79bd
00000320: 1003 843b 6d65 ba39 bdf2 d6bc f2b7 78bd
00000330: 9d89 27bc 4847 37bd 0f5a 9dbb 93b6 50bc
00000340: 1337 3cbd 8d95 3dbd f839 a2bc 3309 893c
00000350: 52f8 ecbc f2bc 313d 9c97 cf3a 2a3f c13c
00000360: 1b03 94bc 989b 57bd 4f4f 373b 42a4 1d3c
00000370: 8604 a33c 7752 45bb 67d7 0fbc f4f6 5dbd
00000380: 7153 80bd 4b08 0fbd 5946 46bc e286 05bd
00000390: e760 5dbd d07a 2cbc e7b4 db3c 462d 293c
000003a0: df80 8abc 694d 17bd abf2 11bd 3ad7 efbc
000003b0: e238 39bd 3fdc 033c 9149 4ebc 0837 17bc
000003c0: 53c1 0bbd 96cd a7bc a8f4 32bd bef4 163b
000003d0: 5d29 a0bc 0827 0ebc 4905 143b 7c2d 22bd
000003e0: 1758 c53c 091e 7abb e383 51bd 620f 4bbd
000003f0: f00a 793c c5aa ffbc 6b10 a0bc d554 16bd
0.032427315 -0.044404436 -0.027983453 0.01903436 -0.023687532 -0.022880286 -0.031825762 -0.0225588
-0.062207285 -0.042136848 0.008058627 -0.04176123 0.006145832 -0.037000395 -0.004660783 0.00814157
-0.034205668 -0.034081742 -0.060934387 -0.0037933476 0.009390362 0.016792446 0.016384413 0.0115500875
0.026064493 -0.05577345 -0.046476983 0.011979388 -0.036069997 -0.05325647 -0.019146927 -0.06484223
0.005302348 -0.035993606 -0.056173157 0.010026952 -0.028367443 0.021606667 0.0049700304 -0.008796392
0.013339007 0.005378941 -0.007042449 -0.010365689 -0.06046415 -0.05591728 -0.050574116 -0.04179678
-0.028837252 -0.049093727 -0.05399327 -0.008639579 -0.014359238 -0.048612583 -0.009813041 0.0020694868
-0.043772016 -0.064361095 -0.052562267 -0.007998049 -0.046421703 -0.07346126 -0.011908916 -0.04104864
0.018102603 0.022871923 0.010605546 -0.0149928825 0.032871816 0.014576836 0.013339328 -0.024823844
-0.03171478 -0.06581312 -0.05323215 -0.07251943 -0.0028624805 -0.01150542 -0.04953023 0.018948132
0.014071056 0.012433826 -0.034669153 0.025936058 -0.00016572762 0.0013415533 -0.027502026 -0.060074933
-0.04908448 -0.03797601 0.020065429 0.025717279 -0.007227511 -0.03764867 -0.01127038 0.00015754336
-0.04562574 -0.020154243 -0.053543746 0.002233378 -0.023653174 -0.02973664 -0.06068345 -0.009405893
0.010062569 -0.016426966 0.006211953 -0.06152923 -0.048458368 -0.046388965 0.00933385 0.034402467
0.027707543 0.014038688 -0.019144718 -0.01977525 -0.051008474 -0.025636613 -0.027106332 0.007184621
-0.015691195 -0.0061335624 0.0033768625 0.00657159 -0.027570747 -0.060162816 0.0028078887 -0.04973542
-0.01594717 0.008297386 -0.0009199942 0.004690721 -0.012493723 -0.0059531587 -0.047788028 0.02243693
-0.03536751 0.011719428 -0.045942437 -0.01892513 -0.04635646 -0.051541783 -0.052520365 0.0077714478
0.0015096691 0.007729066 -0.030424023 0.010505638 -0.008913999 -0.04605188 -0.02676221 -0.051832587
-0.019906985 0.01712391 -0.03408787 -0.020749066 -0.018951245 0.022474531 -0.021417612 0.008442704
0.01587363 -0.040504836 -0.060018584 -0.054661922 0.015168004 -0.031010676 -0.04263968 -0.05442486
-0.027566943 -0.032664932 -0.000785658 -0.034841437 -0.022360887 -0.059245825 0.004053949 -0.0044079027
-0.0453304 -0.031898636 -0.040843274 -0.005920319 -0.035758924 -0.04051097 -0.00080851396 -0.012238904
0.008641961 0.01572422 -0.053505417 -0.060678117 0.019706454 -0.015160248 -0.031589918 -0.027902639
-0.040626813 0.011279783 -0.04792194 -0.006342039 -0.05335161 -0.00013880954 0.0046723597 -0.060814854
0.0040286854 0.00035552253 -0.026238794 -0.0607223 -0.010225681 -0.044745713 -0.0048019956 -0.012738842
-0.04595096 -0.0462852 -0.019803032 0.01672802 -0.028927002 0.043393083 0.001583803 0.02358969
-0.018067887 -0.05263862 0.0027970856 0.009621682 0.019899618 -0.0030108967 -0.008779383 -0.05419059
-0.06265915 -0.03492002 -0.012101733 -0.032599337 -0.05404749 -0.010527328 0.02681966 0.010325735
-0.016907154 -0.03693906 -0.035631817 -0.029277433 -0.045220263 0.008048116 -0.012590782 -0.009229429
-0.034119915 -0.020483773 -0.043690354 0.0023034061 -0.019550974 -0.008676298 0.0022586158 -0.03959416
0.024089856 -0.0038164875 -0.051151168 -0.049575217 0.015200362 -0.031209359 -0.019539079 -0.036701996

x_lin_after_first_round.0.weight f4 [32, 1, 32, 1]
00000000: 561d 343e 1505 49be 253c 083e 0d1c 34bd
00000010: dbc5 49bc f5b2 dd3d 47f4 383d 4762 f23c
00000020: 86d0 25be 8ac8 1d3d 6ba9 413e 4016 90bd
00000030: bd79 ea3d 9f63 b9bd 0f27 6abd a86e ba3b
00000040: 4b4f e13d cfe3 2dbd d73a 713b aedb c93d
00000050: 9550 933d 7005 f03d 5d67 db3c fa5a 0c3d
00000060: 5d5d b3bd 89f6 65bd bbea 43bd 8f19 f4bb
00000070: fe9c 2cbd 470c 903d 62b3 2ebe 4cc3 203e
00000080: d706 2d3d badc f5bd 231c 2b3e 8b15 373e
00000090: 4595 9ebd 2325 5e3d 35d5 2a3e 989b b2bd
000000a0: 371e b8bd 5659 043c c766 55bd 021b 403c
000000b0: dd4f ecbd 5a9a c2bc bdb0 d53d 723b ab3d
000000c0: a783 1d3c 037a 243b ce48 b63d d486 e1bd
000000d0: e141 d2bd 67fd 443b a951 2bbd 3adb e63d
000000e0: e389 443d c4d2 27be 9f47 333e 41ed 0fbd
000000f0: bac6 333e 71b8 de3d c87b 273e dace 5f3b
00000100: fd9e 33be 443c 083e ab05 cbbc e83f 43be
00000110: 4308 eebd e8e8 53be fc57 173e eca5 30be
00000120: 2440 553d 1d16 36be fe33 053e 3488 04bd
00000130: c68a ad3e 31f7 06bd a4df 0bbe 26c8 ea3d
00000140: d473 983d 901f 103e 79d9 b93d b173 603d
00000150: f5ff b63d 4ffc 0e3d 94dd ae3d c3d4 9ebc
00000160: be53 2e3e 172f 4dbd 4eb5 e93d 24a2 02be
00000170: 34d4 2c3d 1914 d03d dceb 783c 7fd1 debc
00000180: daa8 f63d 93d7 033e e2bd 093e 2004 dbbd
00000190: db89 1ebe eb12 32be ca7e 84bc 2c5a 273c
000001a0: e90a a93d 1e80 1abe 12e9 ae3d 0608 43bd
000001b0: 4848 373e 36c7 d23d 9295 c7bd 0d48 88bd
000001c0: bb88 433e 13ca 2e3d e1fb 2cbe 75cf 263e
000001d0: edf2 933d af49 07be 5662 0b3e 5c2c c53c
000001e0: a7d0 ee3c f4fb 053e b5f2 1b3e 496f fcbd
000001f0: 9c2c 87bc c323 65be 9aaf d9bd c527 02be
00000200: 75e7 763c d103 eb3d ffe0 fc3d ded9 e3bd
00000210: d845 bf3d dc64 cfbd 0a34 db3d 1093 5c3d
00000220: 4c3e 2cbc 6692 8dbd a49f 7d3c 9436 b43d
00000230: 63bb 703c a659 553c df43 a9bd b41a a4bd
00000240: 2cb8 14be a57e a03d 7082 0abe 55ae 27be
00000250: 0e06 b63b 5bbc afbb f29c 2c3e 91e7 fd3c
00000260: 0af8 073d dbcd 00be 85b3 ce3d 7fe5 293e
00000270: 2d87 bf3b aea5 fcbd cf6c db3d cc1e ca3d
00000280: def7 4fbb 5424 0f3e e36a a7bd d37a c13d
00000290: e070 b5ba 5047 e63d fcc4 9c3d af93 dd3d
000002a0: 78b6 383e 9d0b 28be 0a8b acbd 7ac8 21be
000002b0: 0070 193e dec9 1bbd 1e04 483b bb86 6fbc
000002c0: 5ec3 0d3e 052c 723d 350f 20bd 3882 ebbd
000002d0: 73c6 14be f505 c3bd cfc3 ccbd acad 92bd
000002e0: 77d0 fdbd 94ef 3e3e 165a efbd fc65 d2bd
000002f0: 192c 01be a7cb ba3c 79ce 123e 6095 91bd
00000300: 3c4c 5ebd 98f1 063e e8d0 f43d 3844 a8bd
00000310: cc69 18be 1d61 58bc bc3b 353c a0a0 f43c
00000320: d9f8 d9bd 4719 0ebe 72e1 a13d 5c68 24be
00000330: 5f22 903e fc02 4b3d 7421 f7bd 4306 233e
00000340: 8b6b 6c3d fff0 12bd f83d 79be b6a2 0e3e
00000350: 5db8 143c 4e2f 9bbd 7d59 7bbe f519 253e
00000360: 558c 6abd 64d5 4bbd e477 793d 8353 c6bd
00000370: dd24 0f3e a880 e93c 0bf8 0bbe 7c86 2ebe
00000380: 8cf4 c63d 29e2 2d3e 392e dd3d ae7b 7cbc
00000390: 15e7 d83c 1430 c13d d8f7 e23d 021c c63d
000003a0: 97b7 21be 23f6 6d3d a120 87bd 7f03 1dbe
000003b0: c40c d2bd ab29 8fbd c428 053e b3c4 10be
000003c0: 6ef1 84bd 8762 d5bd c8f1 afbd ec0d 143e
000003d0: 4105 033e 65e0 f9bd 3721 1d3e 1203 38be
000003e0: ec31 f2bd 2105 54bd f37c 83bd f78f 683d
000003f0: 7e62 2fbe a4c6 d63d 0465 7d3d 0320 ccbc
0.17589316 -0.19630845 0.13304193 -0.043972064 -0.012315239 0.10825149 0.045154836 0.029587878
-0.16192827 0.038521327 0.18912284 -0.07035494 0.11449001 -0.09052204 -0.057166155 0.005689461
0.11001452 -0.042453583 0.0036808753 0.09856354 0.07193104 0.11719787 0.026782686 0.03426645
-0.08758042 -0.056143317 -0.04783128 -0.007449336 -0.042141907 0.07033592 -0.17060617 0.156995
0.04224285 -0.12004991 0.16709952 0.17879312 -0.07743315 0.054234635 0.16682895 -0.087210834
-0.08990138 0.00807794 -0.05209997 0.011725189 -0.1153867 -0.023755241 0.10434101 0.08360948
0.009613908 0.0025097139 0.08900605 -0.110120445 -0.10266472 0.0030058266 -0.041825924 0.11272283
0.04798306 -0.16388994 0.1750779 -0.035138372 0.17556277 0.10875023 0.16355813 0.0034150393
-0.17541118 0.1330424 -0.024782976 -0.19067347 -0.116226695 -0.20694315 0.14779657 -0.17250794
0.052063122 -0.17781873 0.13008115 -0.032356456 0.33894938 -0.032950584 -0.13659531 0.114639565
0.074439675 0.1407454 0.09074683 0.054797832 0.08935539 0.03490859 0.085383564 -0.019388562
0.17024133 -0.050093736 0.11411534 -0.12757164 0.04219456 0.10160083 0.015192952 -0.027199505
0.12043925 0.12875204 0.13451341 -0.10694146 -0.15482275 -0.17390029 -0.016173739 0.01021437
0.08254034 -0.15087935 0.085405484 -0.047615074 0.17898667 0.10291903 -0.09745325 -0.066543676
0.19095127 0.04267318 -0.16892959 0.16290076 0.07224069 -0.13211702 0.13611731 0.024069004
0.029152228 0.13084394 0.15229304 -0.123259135 -0.016500764 -0.22376923 -0.106291965 -0.12710483
0.015069832 0.11475337 0.12347602 -0.11125539 0.093394935 -0.10126659 0.10703285 0.053851187
-0.0105129 -0.06912689 0.015479956 0.087994725 0.014693114 0.013021862 -0.082648985 -0.08012906
-0.14523381 0.078366555 -0.1352632 -0.16375096 0.005554921 -0.00536303 0.16856745 0.030994209
0.033195533 -0.12578528 0.100928344 0.16591452 0.0058449716 -0.123362884 0.10714113 0.09869155
-0.0031733434 0.13978702 -0.08174684 0.09447255 -0.0013842843 0.112440705 0.07654759 0.10819184
0.18038356 -0.1641068 -0.08424957 -0.15799132 0.14984131 -0.038034312 0.0030520032 -0.014619525
0.13844058 0.05912401 -0.039077003 -0.11499447 -0.14528827 -0.095226206 -0.09998285 -0.071620315
-0.12393277 0.1864608 -0.116871044 -0.10273358 -0.12614478 0.022802187 0.14336576 -0.07108569
-0.05427192 0.13178098 0.11953908 -0.08216137 -0.14884108 -0.013206747 0.011061605 0.029861748
-0.10643167 -0.1387683 0.079043284 -0.16055435 0.28151223 0.049563393 -0.120669276 0.15920357
0.05771975 -0.035874363 -0.24340045 0.13929257 0.009077159 -0.07577382 -0.24545856 0.16123183
-0.057262737 -0.049764052 0.060905352 -0.09683897 0.13978906 0.02850373 -0.1366884 -0.17043489
0.09714612 0.16980805 0.10799832 -0.015410347 0.026477376 0.09432998 0.11082429 0.09673311
-0.1579269 0.058096062 -0.0659802 -0.15333365 -0.10256341 -0.069903694 0.13003832 -0.14137535
-0.064913616 -0.10419183 -0.08591038 0.14458436 0.12794973 -0.12201003 0.15344702 -0.17969921
-0.11825928 -0.051762704 -0.064203165 0.05677792 -0.17127416 0.104871064 0.061863914 -0.024917608

x_lin_after_first_round.0.bias f4 [32]
00000000: 508a a3bc 6950 0d3e 54b1 873d f37e 5e3c
00000010: 5014 37be 983e f6bd 3d87 413c b345 e0bc
00000020: 5c55 8d3d fb40 d8bd d4da 78bc af93 cf3d
00000030: 55fb 1c3e c9fb 89ba 461e 83bd de88 92bd
00000040: b678 5b3d b438 20be f28a 203e 69fb 073e
00000050: 681e df3d 6950 6cbd fe83 cd3c 5fc8 9c3d
00000060: 4cae c8bd 0440 02be 4758 22be 1af0 093d
00000070: 6800 f13d 72c6 ec3b 2780 42bd 275f fbbb
-0.019963413 0.13800205 0.066256195 0.013580072 -0.17878842 -0.120236576 0.0118120285 -0.027376985
0.06901047 -0.10559269 -0.015188891 0.1013559 0.1533025 -0.0010527308 -0.064022586 -0.071550116
0.053581916 -0.1564663 0.15678003 0.13279499 0.108944714 -0.057693873 0.025087353 0.07655405
-0.097988695 -0.12719733 -0.15853988 0.033676244 0.117676556 0.007225805 -0.047485497 -0.007671255
