reachability_classification/weights/SimpleMultiplePassGNNReachabilityNet_epoch_6.pt (torch_old, 36685 bytes, 16 tensors)

x_lin.0.weight f4 [32, 1, 1, 11]
0.1287682 0.030175041 0.009804797 -0.53099126 -0.19664384 -0.082743265 0.0012156088 0.12531766
0.06854748 0.06598036 -0.12518106 0.14675032 -0.022040423 0.02450401 0.061496902 -0.19992098
-0.3176486 -0.07913717 -0.13234888 0.14216204 -0.2496545 0.2003867 -0.21621831 0.006109734
0.054904826 -0.11959869 0.21058291 0.086261176 0.16666877 -0.31041208 0.06068 0.56323946
0.075831346 0.15303323 -0.23384099 -0.18605675 0.3374979 -0.16683513 0.014586158 -0.34358954
-0.16922094 -0.13976596 -0.50525 -0.29760718 -0.043374818 0.11804677 0.10034328 -0.0446744
-0.37079087 0.080554 -0.044801228 0.3082944 0.23175503 -0.1267873 -0.24188042 0.07018403
-0.095725045 -0.076132156 0.36714295 0.010587793 0.22193913 0.14830402 0.008876319 -0.20278384
-0.27246124 -0.16059141 -0.13760293 0.1931137 -0.06738205 0.26096955 -0.17543142 0.0750169
0.1105236 0.13535182 -0.69083613 0.03297196 -0.0066371663 -0.29087713 -0.06848292 -0.28410336
-0.07279342 -0.25082916 0.04803753 0.2615652 0.3024369 0.23847017 -0.08993425 0.24774715
0.42394075 -0.16699737 -0.39008558 -0.11421319 0.21826243 -0.25482792 -0.019557327 0.10584696
0.18198995 0.025142606 0.117209844 0.29039145 0.068232335 0.22004752 0.097004876 -0.03261875
0.24952655 0.010668307 0.4642437 0.0010517437 0.070160106 -0.2221757 -0.15971789 0.08630611
0.13954096 0.22027607 -0.21171258 0.20390938 -0.058483023 -0.09767532 -0.1463265 0.12169216
-0.0872878 -0.18197787 0.062047035 0.0019995486 -0.012234275 -0.30143896 0.13133821 -0.18470111
0.28621534 0.15590811 -0.36689708 0.06943945 -0.4059712 -0.064311974 -0.061168883 -0.04511
-0.2696768 -0.063919105 0.20960806 0.35778183 -0.083024785 -0.18358001 0.28426036 0.19927652
0.021687906 -0.060913194 0.10960904 -0.23114529 -0.09864478 -0.33684987 -0.03914882 -0.11089466
0.5085556 -0.4348463 -0.17805701 -0.12464413 -0.23151015 0.13315907 0.224029 -0.30514202
0.22454742 -0.36336452 -0.09979435 0.027737344 -0.24119264 -0.061945856 -0.105451845 0.12935708
-0.094693206 -0.31150052 -0.13739523 0.21486859 0.045919035 -0.12104483 0.66458076 -0.4296176
0.33412448 0.15711556 0.28045025 -0.30817384 0.30147168 -0.11843976 0.13256408 -0.11716916
0.024741912 -0.36606947 0.46340615 -0.028352989 0.014847001 -0.017604908 -0.43298858 -0.15346834
-0.10503707 0.20736961 -0.24754964 -0.12180675 0.11026557 -0.15612808 0.15206222 -0.28491536
0.027982652 -0.30790597 -0.051761694 -0.017470185 -0.025149157 -0.031070756 -0.17370754 -0.5989881
0.4138478 0.12581815 -0.09724712 0.03613336 0.33943233 0.12806138 -0.1666816 -0.061167587
-0.162964 -0.39389747 -0.30774105 0.29420337 0.042164676 -0.21918601 -0.005186753 0.3968177
0.4607476 -0.20074058 0.1461065 0.0797666 0.05188597 0.37103012 -0.30700916 0.14282049
0.06892751 -0.11894338 -0.15843734 0.1569787 -0.30599615 -0.16860312 -0.11977657 0.1627466
-0.25874186 0.40708035 0.06812814 -0.065424554 0.10394232 0.07280788 -0.28353587 -0.050528236
-0.064560086 0.15724936 -0.013806365 0.4265723 -0.38947448 -0.020504799 -0.040339395 0.030086331
00000000: d0db 033e a631 f73c 4da4 203c 0bef 07bf
00000010: 015d 49be 4d75 a9bd 1055 9f3a 4653 003e
00000020: 9f62 8c3d b620 873d 772f 00be b745 163e
00000030: 1e8e b4bc a2bc c83c 2de4 7b3d 16b8 4cbe
00000040: d6a2 a2be ab12 a2bd 7786 07be ed92 113e
00000050: 6ea5 7fbe 2c32 4d3e 5568 5dbe 2a34 c83b
00000060: e2e3 603d 28f0 f4bd 0ca3 573e b3a9 b03d
00000070: 38ab 2a3e 55ee 9ebe 978b 783d 7630 103f
00000080: 774d 9b3d beb4 1c3e 0374 6fbe a985 3ebe
00000090: 86cc ac3e d4d6 2abe c8fa 6e3c f8ea afbe
000000a0: 4148 2dbe cf1e 0fbe 1058 01bf f85f 98be
000000b0: cba9 31bd 81c2 f13d c780 cd3d 81fc 36bd
000000c0: 4dd8 bdbe 7ff9 a43d 7e81 37bd c3d8 9d3e
000000d0: 3151 6d3e 88d4 01be 80af 77be a5bc 8f3d
000000e0: 7e0b c4bd 2deb 9bbd 29fa bb3e 6c78 2d3c
000000f0: 0344 633e 02dd 173e fb6d 113c 91a6 4fbe
00000100: 0a80 8bbe 1372 24be c8e7 0cbe 99bf 453e
00000110: 9aff 89bd cd9d 853e 4ba4 33be 76a2 993d
00000120: 325a e23d ab99 0a3e a3da 30bf 9b0d 073d
00000130: 967c d9bb d9ed 94be c640 8cbd ff75 91be
00000140: b714 95bd ae6c 80be 00c3 443d e0eb 853e
00000150: 02d9 9a3e 8631 743e 732f b8bd 6eb1 7d3e
00000160: c30e d93e 5c01 2bbe 4cb9 c7be 9be8 e9bd
00000170: 3080 5f3e ce78 82be b036 a0bc 4ac6 d83d
00000180: 935b 3a3e def7 cd3c b70b f03d 30ae 943e
00000190: 65bd 8b3d 2354 613e 7eaa c63d 3d9b 05bd
000001a0: e383 7f3e 1fca 2e3c 5ab1 ed3e aada 893a
000001b0: 1ab0 8f3d 0782 63be 168d 23be 42c1 b03d
000001c0: d3e3 0e3e 0d90 613e 2fcb 58be 9fcd 503e
000001d0: e58b 6fbd 000a c8bd 9dd6 15be bd39 f93d
000001e0: f2c3 b2bd 6858 3abe 0825 7e3d dc0a 033b
000001f0: 4572 48bc 3556 9abe 867d 063e 4a22 3dbe
00000200: d18a 923e 60a6 1f3e efd9 bbbe 4536 8e3d
00000210: 75db cfbe ffb5 83bd 398c 7abd 43c5 38bd
00000220: 1413 8abe 05e8 82bd 7fa3 563e 2e2f b73e
00000230: e608 aabd 66fc 3bbe 938a 913e 250f 4c3e
00000240: d6aa b13c 1d80 79bd b47a e03d 5ab1 6cbe
00000250: 4606 cabd 9677 acbe 835a 20bd bd1c e3bd
00000260: b330 023f 2da4 debe 9454 36be 6c45 ffbd
00000270: ff10 6dbe da5a 083e dc67 653e 933b 9cbe
00000280: c2ef 653e ea0a babe fb60 ccbd 6d39 e33c
00000290: 34fb 76be f0ba 7dbd 23f7 d7bd 2f76 043e
000002a0: 83ee c1bd ff7c 9fbe 56b1 0cbe 8306 5c3e
000002b0: 9915 3c3d 5ae6 f7bd f721 2a3f d7f6 dbbe
000002c0: 5d12 ab3e e7e2 203e 2d97 8f3e f6c8 9dbe
000002d0: 7f5a 9a3e 8b90 f2bd e1be 073e 62f6 efbd
000002e0: 8daf ca3c 756d bbbe 9243 ed3e 8744 e8bc
000002f0: d640 733c 2b38 90bc aeb0 ddbe ce26 1dbe
00000300: ad1d d7bd b358 543e a77d 7dbe d175 f9bd
00000310: ead2 e13d 0ae0 1fbe 33b6 1b3e 6de0 91be
00000320: e03b e53c daa5 9dbe 1204 54bd a21d 8fbc
00000330: 9b05 cebc 1988 febc 64e0 31be 4957 19bf
00000340: dce3 d33e 79d6 003e 8029 c7bd 9300 143d
00000350: 13ca ad3e 8622 033e 95ae 2abe dd8a 7abd
00000360: 09e0 26be eeac c9be 3c90 9dbe d3a1 963e
00000370: deb4 2c3d 4c72 60be a3f5 a9bb b12b cb3e
00000380: 1ce7 eb3e f08e 4dbe f19c 153e ac5c a33d
00000390: 6286 543d a9f7 bd3e 4e30 9dbe 893f 123e
000003a0: de29 8d3d 9698 f3bd 663d 22be 06bf 203e
000003b0: 87ab 9cbe 4ca6 2cbe 6b4d f5bd 0ba7 263e
000003c0: d079 84be d66c d03e c486 8b3d 4ffd 85bd
000003d0: b6df d43d 4c1c 953d 9d2b 91be b2f6 4ebd
000003e0: 1438 84bd fa05 213e 1834 62bc af67 da3e
000003f0: 3369 c7be aef9 a7bc ec3a 25bd 9c77 f63c

x_lin.0.bias f4 [32]
-0.29901454 -0.31438482 -0.12075027 0.11361099 -0.20837699 -0.08614481 0.12738986 -0.13437615
0.2836697 0.071336195 -0.14953662 0.055120643 0.2899854 -0.23178482 -0.08225808 0.040875446
0.2931936 -0.102766305 0.3236436 -0.16678347 -0.20226887 0.20578271 0.105908915 7.9836806e-05
-0.15463433 0.14297666 -0.21068114 0.1718874 0.15791512 -0.0337865 0.029492276 0.33342233
00000000: 6f18 99be 0cf7 a0be eb4b f7bd e1ac e83d
00000010: c760 55be b16c b0bd 7d72 023e e799 09be
00000020: 283d 913e b618 923d 2120 19be 2fc6 613d
00000030: f778 943e 0059 6dbe ed76 a8bd 036d 273d
00000040: 791d 963e 2477 d2bd 9db4 a53e 49c9 2abe
00000050: 921f 4fbe b4b8 523e c6e6 d83d 0f6e a738
00000060: 7658 1ebe 7968 123e ccbc 57be 4003 303e
00000070: 80b4 213e b763 0abd c999 f13c 55b6 aa3e

x_lin.2.weight f4 [32, 32, 1, 1]
0.10080341 0.06980699 0.008049362 0.117058486 -0.058473278 -0.13152838 -0.014840717 -0.18664227
-0.083228596 0.47082567 0.0206379 -0.1094739 -0.19592196 0.2575473 0.07975589 0.2673189
-0.05144127 -0.124249674 -0.107249156 -0.023592481 0.17108645 0.051611144 0.03139984 -0.408867
0.18337518 0.0035024583 0.05373789 0.0056278743 0.13719311 0.114176095 -0.177766 -0.09891702
0.109831825 -0.06455696 0.08387522 0.02194891 -0.01065197 -0.20238729 -0.19283968 0.024723856
-0.14029448 -0.07011653 -0.03267671 0.16532773 -0.16647066 0.34515533 -0.075277865 0.17028354
-0.38882366 0.14247875 -0.25551617 -0.20693024 -0.22102036 -0.0010304124 0.15983565 -0.01893866
0.06281077 0.017027605 0.22800395 -0.08868783 0.1998652 0.09817838 -0.101687096 0.13764463
0.07062697 -0.022406759 0.04960789 -0.12376024 0.1301591 0.11929769 0.008130953 0.1861
-0.12008735 0.14778301 -0.06382327 0.102553174 -0.0762901 0.017878685 0.13028869 0.15480374
-0.016190263 -0.039968573 0.057949588 0.0009986646 0.32035434 -0.0018393 0.20689495 -0.17461313
-0.009859834 -0.15435615 0.1509025 0.17919257 -0.2808746 0.24469844 -0.048678145 -0.02036424
0.112797715 0.07281929 -0.05366479 0.0441788 -0.2271587 -0.11392495 -0.3001486 -0.28435028
0.055524483 -0.23323038 -0.30142048 -0.12928571 -0.05799364 -0.091888055 0.1278423 0.20490292
0.17955905 -0.18234411 -0.18754724 0.29637006 0.31513324 0.015781982 0.09439629 -0.042599253
0.15996015 -0.04190039 -0.36521238 -0.16824572 0.13135955 -0.21748997 -0.31055033 -0.20735529
-0.09060793 -0.081606716 -0.008995347 0.012801415 0.012959122 -0.04708241 0.03478138 -0.09946098
-0.1849345 0.030653628 0.14012134 -0.06112564 -0.19397074 -0.07142556 -0.02229702 0.22174658
-0.19158477 0.026780663 -0.28930062 0.024147261 -0.24417791 -0.03357399 0.22123843 0.13792591
0.0012825313 0.091414675 0.13320099 0.1519314 -0.23895767 0.24025007 -0.20757349 0.14051348
0.17788962 -0.051501945 0.23765293 0.045256864 -0.109300174 -0.12978807 0.007075657 0.14150754
0.006581166 0.045088705 -0.07923993 0.12595466 0.2569807 -0.25601327 0.06760807 -0.0070778597
0.05736514 0.22193821 0.15506823 -0.13949835 -0.5137282 0.008830932 -0.24478664 0.23777963
0.076607145 -0.17497982 0.1480554 0.030541517 -0.30213317 0.002415332 0.05637034 0.09754938
0.076772556 -0.07951004 -0.066780455 -0.21934028 -0.01988446 0.13411115 -0.15862375 0.085946076
-0.27303627 -0.1648181 0.13737084 0.0064256177 -0.084750876 0.16274455 -0.18027262 0.2011989
-0.25625962 0.28507945 -0.10712092 -0.14269912 -0.13738194 -0.02577575 0.17475112 -0.09347972
0.02463988 -0.03097827 0.23109855 -0.10193823 0.13563347 0.14745142 -0.18537578 0.16755015
0.08016975 -0.29603207 -0.23297743 -0.21039847 -0.05656865 -0.14512973 -0.12111211 -0.08341271
0.12463765 -0.009975146 0.004669123 0.056814257 -0.11401094 -0.1248437 -0.05739648 -0.12087318
0.13474329 -0.15797392 -0.19190049 -0.11696165 0.09896722 -0.10096375 0.027965985 -0.13313392
0.22120829 -0.18791644 -0.09912516 -0.17838562 -0.10266231 0.07569636 -0.2970937 -0.08930586
00000000: 0572 ce3d f8f6 8e3d 79e1 033c 5cbc ef3d
00000010: ad81 6fbd 60af 06be 7b26 73bc 271f 3fbe
00000020: c173 aabd 1010 f13e d010 a93c da33 e0bd
00000030: c49f 48be 3ddd 833e 0e57 a33d 06de 883e
00000040: 15b4 52bd 9d76 febd 72a5 dbbd 0545 c1bc
00000050: 4931 2f3e 3566 533d 1e9d 003d 0457 d1be
00000060: b4c6 3b3e 8089 653b 431c 5c3d 086a b83b
00000070: 5a7c 0c3e 28d5 e93d 4a08 36be 0295 cabd
00000080: 82ef e03d 7036 84bd c5c6 ab3d 33ce b33c
00000090: 9a85 2ebc 9d3e 4fbe c477 45be af89 ca3c
000000a0: 5ba9 0fbe 4199 8fbd 04d8 05bd ac4b 293e
000000b0: 4977 2abe 33b8 b03e 482b 9abd cf5e 2e3e
000000c0: e513 c7be f3e5 113e 04d3 82be 85e5 53be
000000d0: 2953 62be e70e 87ba f5ab 233e 4025 9bbc
000000e0: efa2 803d 7a7d 8b3c de79 693e f7a1 b5bd
000000f0: 77a9 4c3e bf11 c93d 5341 d0bd b7f2 0c3e
00000100: dfa4 903d 618e b7bc a531 4b3d 0276 fdbd
00000110: 6d48 053e 5952 f43d b037 053c 0091 3e3e
00000120: 5bf0 f5bd 6e54 173e c6b5 82bd 6607 d23d
00000130: fc3d 9cbd 5276 923c 666a 053e df84 1e3e
00000140: 71a1 84bc 16b6 23bd 8c5c 6d3d a0e5 823a
00000150: 7c05 a43e ab14 f1ba 45dc 533e c9cd 32be
00000160: 248b 21bc 8a0f 1ebe 2f86 1a3e 427e 373e
00000170: ccce 8fbe 3a92 7a3e bc62 47bd e8d2 a6bc
00000180: 7d02 e73d 4822 953d 9ccf 5bbd d4f4 343d
00000190: 4a9c 68be 7c51 e9bd 14ad 99be 5c96 91be
000001a0: a46d 633d f2d3 6ebe c953 9abe 7963 04be
000001b0: bd8a 6dbd ce2f bcbd 18e9 023e 12d2 513e
000001c0: 54de 373e 6ab8 3abe 620c 40be d1bd 973e
000001d0: 2559 a13e 3749 813c d852 c13d 8e7c 2ebd
000001e0: 98cc 233e be9f 2bbd 1efd babe 9b48 2cbe
000001f0: 1e83 063e b1b5 5ebe 7400 9fbe f254 54be
00000200: a790 b9bd 6c21 a7bd 3861 13bc 07bd 513c
00000210: 7f52 543c 7cd9 40bd ec76 0e3d 33b2 cbbd
00000220: 785f 3dbe 511d fb3c f87b 0f3e e15e 7abd
00000230: 44a0 46be 9047 92bd 3da8 b6bc 8911 633e
00000240: cc2e 44be 1f63 db3c 361f 94be 7ad0 c53c
00000250: c609 7abe e184 09bd 548c 623e 733c 0d3e
00000260: 9c1a a83a 9e37 bb3d d765 083e e893 1b3e
00000270: 52b1 74be 1d04 763e 258e 54be c4e2 0f3e
00000280: b228 363e b4f3 52bd 4a5b 733e 435f 393d
00000290: c5d8 dfbd 2ae7 04be eada e73b 5ae7 103e
000002a0: d2a6 d73b efae 383d 8b48 a2bd 42fa 003e
000002b0: f992 833e 2c14 83be 1a76 8a3d 64ed e7bb
000002c0: b6f7 6a3d c543 633e 35ca 1e3e a8d8 0ebe
000002d0: b183 03bf 9daf 103c 59a9 7abe 817c 733e
000002e0: 35e4 9c3d e92d 33be d69b 173e 3432 fa3c
000002f0: 33b1 9abe 8c4a 1e3b 96e4 663d f8c7 c73d
00000300: ee3a 9d3d 29d6 a2bd 31c4 88bd bd9a 60be
00000310: bce4 a2bc 6f54 093e 446e 22be 7f04 b03d
00000320: 69cb 8bbe 13c6 28be f1aa 0c3e fd8d d23b
00000330: de91 adbd 82a6 263e 6399 38be 1607 4e3e
00000340: 7634 83be eff5 913e 3762 dbbd b81f 12be
00000350: daad 0cbe aa27 d3bc f5f1 323e 4c72 bfbd
00000360: 93d9 c93c 24c6 fdbc 19a5 6c3e fec4 d0bd
00000370: 80e3 0a3e 81fd 163e 26d3 3dbe 4492 2b3e
00000380: 0a30 a43d 8491 97be a391 6ebe b272 57be
00000390: 87b4 67bd e39c 14be a009 f8bd 48d4 aabd
000003a0: 0642 ff3d cb6e 23bc 71ff 983b 11b6 683d
000003b0: 917e e9bd 0eae ffbd 9218 6bbd 5c8c f7bd
000003c0: 25fa 093e eac3 21be 9081 44be 9789 efbd
000003d0: 53af ca3d 15c6 cebd ec18 e53c 4254 08be
000003e0: 6d84 623e 2b6d 40be 2202 cbbd b8aa 36be
000003f0: 9e40 d2bd b106 9b3d aa1c 98be fee5 b6bd

x_lin.2.bias f4 [32]
-0.19973373 -0.1540985 -0.116514534 -0.17548819 -0.15009877 0.11713878 -0.010950375 0.020288242
-0.10123306 0.06810307 0.14914998 0.017072897 0.11000381 -0.052887958 0.0012475878 0.059669007
-0.1259769 0.035091385 0.060200423 -0.15762928 -0.07277773 0.17345048 -0.12688184 0.06801092
0.07668461 0.01787096 0.09034265 -0.1148722 0.09254813 0.15210487 -0.08207241 -0.10606963
00000000: 0087 4cbe ffcb 1dbe 2c9f eebd 2db3 33be
00000010: 7eb3 19be 75e6 ef3d 3469 33bc 8733 a63c
00000020: 4753 cfbd 9f79 8b3d c6ba 183e 76dc 8b3c
00000030: ad49 e13d 0ba1 58bd 1a86 a33a 7d67 743d
00000040: 1700 01be fcbb 0f3d b894 763d 9269 21be
00000050: 7e0c 95bd 019d 313e 50ed 01be 4f49 8b3d
00000060: d20c 9d3d 1f66 923c 9105 b93d 1e42 ebbd
00000070: e089 bd3d 61c1 1b3e 9415 a8bd 093b d9bd

edge_lin.0.weight f4 [32, 1, 64, 1]
-0.33265656 -0.11045474 -0.022815092 -0.14409313 -0.0909269 -0.30193472 -0.029405123 -0.007703969
-0.17010592 -0.017048202 -0.11097844 0.06966425 -0.09004386 -0.118602924 0.027159858 -0.00016124119
-0.10237425 -0.14188913 -0.08360323 -0.10379673 -0.22113161 -0.23098885 -0.0009791645 0.035842463
-0.023454472 -0.060097937 0.03745623 -0.16793257 0.114953466 -0.15873747 0.09784575 0.11412826
-0.07438901 0.021600962 -0.037929237 -0.005637024 -0.05877999 -0.28750545 0.04080604 -0.11810761
0.061030436 -0.16117167 -0.19474384 0.004688724 -0.22477382 0.08651125 -0.03165693 -0.01681502
-0.09237161 -0.1746364 -0.07131203 -0.06745974 -0.11884994 -0.20201063 -0.03655058 -0.112561315
0.008912598 0.0069437413 0.015157882 -0.15472107 -0.063108444 -0.06841575 0.070581965 0.13733491
-0.21319933 0.07469865 -0.044671215 -0.24999878 0.145064 -0.16605242 -0.016505731 -0.1897001
0.13362297 -0.04808921 -0.15586607 -0.028537123 0.0111233145 -0.06164873 0.17064783 0.1790725
-0.067491956 -0.3008978 0.052082025 0.3047213 -0.100871116 -0.08121476 -0.07194485 0.03721665
-0.24369054 0.14991993 -0.12408846 0.14041623 -0.09883502 -0.05714949 0.18915993 0.10396635
-0.009864813 0.092903994 -0.0059462893 -0.14577834 -0.013123533 -0.24091077 -0.015363063 0.0006276097
0.19468383 -0.051964797 -0.073445216 0.14016975 0.0716261 -0.16526005 0.16235596 0.039523825
-0.010919691 -0.1393579 -0.083408885 0.28612298 -0.12872744 -0.15986794 -0.16395816 -0.085617505
-0.15171759 -0.047037616 -0.039185993 0.0571885 -0.2152719 0.0007487493 0.116029024 0.1285912
-0.09821663 -0.1192444 -0.05228531 -0.13023356 -0.08232061 -0.26908326 -0.069499336 0.32359228
-0.13276026 -0.069194555 -0.071995534 -0.0011548598 -0.007884313 0.014699805 0.1449781 0.11335478
-0.05394386 -0.09170851 -0.007839936 -0.09417605 -0.13135196 0.0077221785 0.18552664 -0.21070553
-0.112897135 -0.16821049 0.002958627 0.122662455 -0.0016261374 -0.084191136 -0.11881427 -0.026947089
-0.06314784 0.08190785 -0.15053675 -0.085099265 -0.04286018 -0.2871746 -0.038988203 0.45308882
-0.069709696 -0.09183958 0.045191124 -0.12280585 -0.06375115 -0.14683014 0.088430986 0.03786507
-0.07263861 -0.010359553 -0.14685372 0.022763053 -0.0223228 -0.10995154 0.06236703 -0.14480077
-0.0006471164 -0.11298726 0.015702631 0.06790385 -0.081195265 -0.06963054 -0.11075896 0.10017077
0.056010373 0.14802368 -0.39456695 -0.34067976 -0.10138261 -0.16759756 -0.09485613 -0.10441813
-0.073636636 0.057827726 0.034318782 0.14292316 -0.17504941 0.0713429 0.10562156 -0.042217493
0.10232715 0.026288405 -0.027533473 -0.06321393 0.09949251 0.02671433 -0.058579598 -0.34964347
0.12631519 -0.09859713 -0.1309791 0.01127524 -0.038245685 -0.014675336 0.08808387 0.12391477
-0.017224308 -0.0073369653 -0.2187761 -0.23852205 -0.16058631 -0.18075323 -0.12097222 -0.22553642
0.06587411 0.0795777 -0.016924322 -0.0092447605 -0.05651704 0.1277873 0.095566906 0.065091506
0.11674429 -0.065614305 -0.11910881 0.036560323 0.094163224 0.030549781 0.11000547 -0.23844907
0.13453174 0.10211167 -0.11895578 -0.01592236 0.07483613 -0.09210457 0.029452853 0.16255358
00000000: f651 aabe 1836 e2bd b7e6 babc 268d 13be
00000010: e237 babd 3097 9abe 03e3 f0bc 9371 fcbb
00000020: 3f30 2ebe aca8 8bbc aa48 e3bd 21ac 8e3d
00000030: ea68 b8bd 17e6 f2bd 5a7e de3c da12 29b9
00000040: 97a9 d1bd 624b 11be 2c38 abbd 6193 d4bd
00000050: 5370 62be 5788 6cbe 4f57 80ba 8ccf 123d
00000060: 9823 c0bc 4129 76bd b46b 193d 84f6 2bbe
00000070: b96c eb3d 138c 22be 5a63 c83d 14bc e93d
00000080: 4459 98bd 80f4 b03c b05b 1bbd c9b6 b8bb
00000090: 49c3 70bd ea33 93be 3c24 273d 67e2 f1bd
000000a0: 0dfb 793d 300a 25be ee6a 47be dea3 993b
000000b0: 1c2b 66be cf2c b13d b2aa 01bd a7bf 89bc
000000c0: 542d bdbd e2d3 32be 0b0c 92bd 5528 8abd
000000d0: 9967 f3bd e0db 4ebe 10b6 15bd 8c86 e6bd
000000e0: 2506 123c 5388 e33b c458 783c 336f 1ebe
000000f0: 003f 81bd 8f1d 8cbd 478d 903d 86a1 0c3e
00000100: ed50 5abe 9bfb 983d 2af9 36bd aeff 7fbe
00000110: a88b 143e a509 2abe 0737 87bc be40 42be
00000120: 76d4 083e 31f9 44bd 5b9b 1fbe afc6 e9bc
00000130: 903e 363c 6183 7cbd 4ebe 2e3e c85e 373e
00000140: 3939 8abd 470f 9abe f653 553d 6e04 9c3e
00000150: 8495 cebd ed53 a6bd d257 93bd 7c70 183d
00000160: 038a 79be 9c84 193e 1722 febd 46c9 0f3e
00000170: 046a cabd 9515 6abd 24b3 413e 4fec d43d
00000180: 06a0 21bc 7344 be3d 17d9 c2bb eb46 15be
00000190: 1604 57bc 50b1 76be 5bb5 7bbc 2d86 243a
000001a0: 335b 473e 0ad9 54bd 726a 96bd a988 0f3e
000001b0: b4b0 923d ee39 29be a440 263e bce3 213d
000001c0: 81e8 32bc d6b3 0ebe 47d2 aabd b67e 923e
000001d0: 20d1 03be 6cb4 23be a6e4 27be 3b58 afbd
000001e0: db5b 1bbe 84aa 40bd 7e81 20bd 7d3e 6a3d
000001f0: 3d70 5cbe b747 443a a0a0 ed3d 69ad 033e
00000200: cd25 c9bd 6836 f4bd 1f29 56bd f25b 05be
00000210: b597 a8bd 48c5 89be ab55 8ebd e3ad a53e
00000220: 4ef2 07be e0b5 8dbd 6572 93bd aa5e 97ba
00000230: 352d 01bc 73d7 703c 2475 143e 8d26 e83d
00000240: 3df4 5cbd acd1 bbbd 1373 00bc 5fdf c0bd
00000250: 2181 06be 540a fd3b b2fa 3d3e 31c3 57be
00000260: 9d36 e7bd 5f3f 2cbe 86e5 413b 7436 fb3d
00000270: 1e24 d5ba 676c acbd e554 f3bd 24c0 dcbc
00000280: a853 81bd 4ebf a73d 4e26 1abe 8648 aebd
00000290: 288e 2fbd 8d08 93be 18b2 1fbd 42fb e73e
000002a0: f5c3 8ebd 6416 bcbd 541a 393d a281 fbbd
000002b0: f78f 82bd a45a 16be 4e1b b53d 6718 1b3d
000002c0: 8dc3 94bd 1dbb 29bc d260 16be 9579 ba3c
000002d0: 4ede b6bc 462e e1bd 9274 7f3d a746 14be
000002e0: 3fa3 29ba dd65 e7bd cea2 803c 2c11 8b3d
000002f0: b449 a6bd 759a 8ebd 98d5 e2bd 5526 cd3d
00000300: 226b 653d 8593 173e ae04 cabe 946d aebe
00000310: b0a1 cfbd b29e 2bbe ee43 c2bd 2cd9 d5bd
00000320: cece 96bd c4dc 6c3d da91 0c3d 735a 123e
00000330: 2740 33be 3a1c 923d 1e50 d83d 40ec 2cbd
00000340: e690 d13d c85a d73c e18d e1bc 4e76 81bd
00000350: bbc2 cb3d 03d8 da3c 29f1 6fbd 7804 b3be
00000360: c558 013e 4bed c9bd 631f 06be c9bb 383c
00000370: 82a7 1cbd d270 70bc 5165 b43d 07c7 fd3d
00000380: fe19 8dbc ed6a f0bb d806 60be 203f 74be
00000390: bd70 24be 6017 39be 49c0 f7bd 05f3 66be
000003a0: 01e9 863d a2f9 a23d e0a4 8abc 5677 17bc
000003b0: 697e 67bd adda 023e 95b8 c33d b24e 853d
000003c0: a117 ef3d cb60 86bd 52ef f3bd 47c0 153d
000003d0: a6d8 c03d 8943 fa3c 8c4a e13d fe2b 74be
000003e0: b0c2 093e ec1f d13d 179f f3bd 9c6f 82bc
000003f0: af43 993d 52a1 bcbd 1c47 f13c 7274 263e

edge_lin.0.bias f4 [32]
-0.065950915 -0.041639067 0.049313646 0.0023895365 -0.054209467 0.00084173644 0.1149338 -0.06837401
0.07441465 0.02410513 -0.09548926 0.03076392 0.06063353 -0.08935374 -0.07066949 0.0067669563
-0.042427763 -0.011455212 -0.036542892 -0.03846231 -0.05121663 0.0040815044 0.06980393 -0.08031643
0.0015909903 0.04164887 -0.0122946715 0.043016613 0.010442977 -0.109843716 0.04250448 0.046670884
00000000: 4611 87bd ba8d 2abd 1bfd 493d c599 1c3b
00000010: bf0a 5ebd faa7 5c3a 6a62 eb3d ac07 8cbd
00000020: b566 983d 1f78 c53c e08f c3bd 9e04 fc3c
00000030: dd5a 783d 18ff b6bd 2abb 90bd 58bd dd3b
00000040: bcc8 2dbd a4ae 3bbc 00ae 15bd a88a 1dbd
00000050: 87c8 51bd 24be 853b 5df5 8e3d f17c a4bd
00000060: c788 d03a 0198 2a3d 976f 49bc 3032 303d
00000070: 0519 2b3c bef5 e0bd 2d19 2e3d f829 3f3d

edge_lin.2.weight f4 [32, 32, 1, 1]
0.138802 0.14470878 0.11718825 -0.050941985 0.1889387 -0.026718806 -0.054810375 -0.16955695
0.01807319 0.10669621 0.10748841 0.059182998 0.1708181 0.033893395 -0.05435547 -0.015729653
0.2564133 -0.048657212 0.02904912 -0.22261831 0.29044726 -0.10455245 0.05323024 0.14202584
-0.09330928 -0.15476815 0.076110356 0.14972202 -0.38821054 0.21131976 0.18373066 -0.017051538
-0.22894423 -0.24360049 -0.055306096 -0.20475018 0.11001075 0.12816857 -0.013843737 0.0060698274
0.10664545 0.15821514 -0.14791764 0.1900864 0.15980695 0.004438935 -0.09890849 -0.044550713
0.06324815 0.074418455 0.05118668 -0.07167057 -0.39976954 0.30211696 -0.11725872 -0.12462393
0.065035604 -0.2318758 -0.04876301 0.074359626 0.06427997 -0.18154031 0.097306035 0.007733799
-0.16146106 0.1400222 -0.0014817417 0.03818781 0.022880398 -0.2823328 -0.026124896 0.030448396
-0.19098452 -0.114903055 0.05137023 0.0011808418 0.057863403 -0.024383701 -0.020923486 0.1471682
0.013141953 -0.042714935 -0.102553084 -0.113039546 0.120997824 0.06737579 -0.03592833 0.07673451
-0.11589043 -0.17598315 -0.12486362 -0.075719915 -0.17309262 0.17956588 0.03864316 -0.0029012037
-0.19755687 -0.16444874 -0.19722387 0.10116266 -0.13205762 0.22118403 -0.08178461 0.0094123725
-0.112188734 0.021130348 -0.15251726 -0.14871617 0.07908566 0.21271218 -0.021470252 0.11789563
-0.1590367 0.008557062 0.0019712504 -0.015295363 -0.05226689 -0.043108642 -0.1622195 -0.08675158
0.08830978 -0.15690084 -0.17421249 0.09439093 -0.02217914 -0.047588207 -0.16864754 -0.111429416
0.16900106 0.15539399 -0.15874122 0.13600554 0.14263353 -0.053339027 -0.15460937 -0.24478309
-0.11253592 -0.06904454 0.012184364 -0.026145957 0.15733717 -0.13302097 0.18123627 -0.040391386
-0.04702953 0.23711954 0.008291459 -0.124642774 0.13997439 0.10630616 0.0741347 0.11845483
0.0808508 -0.14358258 0.23530087 -0.18529359 -0.25877982 -0.07188633 0.12255696 -0.105185315
0.044226885 0.2809326 -0.109091274 0.16566503 0.25044382 -0.12869187 -0.086567715 -0.1605358
0.031148048 0.02530437 -0.039051086 0.23667824 0.18272617 -0.026001833 0.045087274 0.16562282
-0.022479735 -0.017835857 -0.046637807 -0.23573126 0.14921594 -0.0707898 0.13514933 0.17092116
0.009805061 -0.14942123 0.13641031 0.07530381 -0.18890211 0.25723034 0.043287363 0.023847496
-0.06265349 -0.06729806 0.035019886 -0.12981685 0.05652893 0.010950714 -0.009244265 0.03246447
0.069315456 0.07668282 0.075209185 -0.10991734 -0.11515739 -0.21584748 -0.10692632 -0.10953714
0.076171406 0.16452837 0.092230715 -0.0311339 -0.04846999 0.11305247 -0.10107318 -0.11543841
0.010203665 0.0047093546 0.003330333 0.051327236 0.04368956 -0.0738675 -0.09563843 -0.04752381
-0.13838165 0.14394368 0.09216604 -0.051627833 -0.08002979 -0.26224104 -0.15407953 0.07834356
0.1218036 -0.21470839 0.120990455 -0.075591974 0.002708329 -0.0492618 -0.03780278 0.025317077
0.15160072 0.17482165 0.15511061 -0.07616176 0.099902846 -0.09115754 -0.025488725 0.30243984
-0.21399693 -0.11595766 0.12420153 0.017001571 -0.19357431 0.15560186 0.15323734 0.06722331
00000000: 1d22 0e3e 8a2e 143e 6500 f03d 8ba8 50bd
00000010: 2679 413e 66e1 dabc d880 60bd 56a0 2dbe
00000020: 3a0e 943c 8b83 da3d e222 dc3d df69 723d
00000030: f1ea 2e3e cdd3 0a3d d7a3 5ebd 79db 80bc
00000040: 9b48 833e c94c 47bd 6cf8 ed3c 0ef6 63be
00000050: 81b5 943e 981f d6bd f407 5a3d 396f 113e
00000060: f018 bfbd 8b7b 1ebe bfdf 9b3d bb50 193e
00000070: 88c3 c6be 3564 583e e423 3c3e abaf 8bbc
00000080: 5b70 6abe 6872 79be a588 62bd 08aa 51be
00000090: 514d e13d 9f3e 033e d7d0 62bc 67e5 c63b
000000a0: ee68 da3d 2603 223e b977 17be 02a6 423e
000000b0: 6fa4 233e 7c74 913b 8990 cabd cf7a 36bd
000000c0: 3f88 813d b468 983d 20a9 513d 05c8 92bd
000000d0: 98ae ccbe 13af 9a3e 5725 f0bd d53a ffbd
000000e0: 6331 853d da70 6dbe b9bb 47bd dc49 983d
000000f0: 38a5 833d b4e5 39be 6348 c73d cf6b fd3b
00000100: 0c56 25be fb61 0f3e 0037 c2ba d26a 1c3d
00000110: ac6f bb3c ed8d 90be e103 d6bc ea6e f93c
00000120: 7291 43be 4b52 ebbd 9769 523d 7ac6 9a3a
00000130: 2d02 6d3d 54c0 c7bc bb67 abbc 43b3 163e
00000140: 5951 573c dbf5 2ebd 5a07 d2bd 4781 e7bd
00000150: b5cd f73d 51fc 893d 9629 13bd fc26 9d3d
00000160: f657 edbd ed34 34be 7fb8 ffbd 0b13 9bbd
00000170: 313f 31be 1ee0 373e 4a48 1e3d 1f22 3ebb
00000180: 594c 4abe 4065 28be 0ef5 49be 5e2e cf3d
00000190: 1d3a 07be 117e 623e b17e a7bd 5a36 1a3c
000001a0: 35c3 e5bd 8d19 ad3c 7c2d 1cbe 0d49 18be
000001b0: aaf7 a13d 39d1 593e 62e2 afbc 4473 f13d
000001c0: 84da 22be eb32 0c3c 1830 013b 6799 7abc
000001d0: ce15 56bd b092 30bd de1c 26be d0aa b1bd
000001e0: c2db b43d 9daa 20be c264 32be 0850 c13d
000001f0: 07b1 b5bc daeb 42bd f1b1 2cbe 1b35 e4bd
00000200: 9d0e 2d3e 9a1f 1f3e 0f8d 22be 0945 0b3e
00000210: 860e 123e 067a 5abd eb51 1ebe 6ba8 7abe
00000220: 3c79 e6bd 3967 8dbd eda0 473c 0c30 d6bc
00000230: ff1c 213e a636 08be 0096 393e 7071 25bd
00000240: 09a2 40bd 77cf 723e e6d8 073c b644 ffbd
00000250: 7255 0f3e 0bb7 d93d efd3 973d 7298 f23d
00000260: 1b95 a53d 5007 13be b6f2 703e 9abd 3dbe
00000270: ca7e 84be 2439 93bd 25ff fa3d 666b d7bd
00000280: 4027 353d 66d6 8f3e 3f6b dfbd 18a4 293e
00000290: 2c3a 803e cdc7 03be 6a4a b1bd 7f63 24be
000002a0: 312a ff3c 1c4b cf3c 08f4 1fbd c85b 723e
000002b0: 921c 3b3e cc01 d5bc 6fad 383d 0799 293e
000002c0: 6c27 b8bc 811c 92bc 4907 3fbd 8963 71be
000002d0: 10cc 183e 3efa 90bd 9664 0a3e f505 2f3e
000002e0: 68a5 203c e101 19be 25af 0b3e e238 9a3d
000002f0: 8e6f 41be b2b3 833e 174e 313d d35b c33c
00000300: 7950 80bd 91d3 89bd 0371 0f3d b5ee 04be
00000310: e18a 673d a06a 333c 4275 17bc 77f9 043d
00000320: 43f5 8d3d e20b 9d3d 4607 9a3d 581c e1bd
00000330: a3d7 ebbd 1f07 5dbe 30fc dabd 0255 e0bd
00000340: c1ff 9b3d 207a 283e 75e3 bc3d 850c ffbc
00000350: 7888 46bd 0e88 e73d 75ff cebd f96a ecbd
00000360: 462d 273c ee50 9a3b b741 5a3b 823c 523d
00000370: d3f3 323d d847 97bd 15de c3bd 54a8 42bd
00000380: ebb3 0dbe f965 133e 8cc1 bc3d b577 53bd
00000390: a9e6 a3bd 7544 86be 06c7 1dbe 9772 a03d
000003a0: 2a74 f93d 84dc 5bbe d8c9 f73d f7cf 9abd
000003b0: 387e 313b bec6 49bd 16d7 1abd c265 cf3c
000003c0: 383d 1b3e 7204 333e 51d5 1e3e b2fa 9bbd
000003d0: dd99 cc3d ceb0 babd bbcd d0bc 65d9 9a3e
000003e0: 0322 5bbe 367b edbd 5f5d fe3d e146 8b3c
000003f0: 5838 46be 1856 1f3e 40ea 1c3e 60ac 893d

edge_lin.2.bias f4 [32]
-0.053688806 -0.12533988 0.08162087 -0.008047778 0.051455367 -0.029190172 -0.16293736 0.16095626
0.00053076475 0.16078995 0.0943714 -0.089691475 -0.22802562 0.09335199 -0.058986124 -0.0054847943
0.09638978 -0.025645692 -0.017857572 0.14445351 -0.09028432 -0.03480305 0.055028845 0.12552711
-0.05803325 -0.15910354 0.10079832 0.05461664 0.119304225 -0.009964993 -0.011588983 -0.0020097634
00000000: cbe8 5bbd 1959 00be d828 a73d d4da 03bc
00000010: ddc2 523d 3a20 efbc 0dd9 26be b8d1 243e
00000020: 0523 0b3a 1fa6 243e cb45 c13d 2ab0 b7bd
00000030: 8c7f 69be 542f bf3d 6f9b 71bd cab9 b3bb
00000040: 0168 c53d ea16 d2bc 0b4a 92bc 9feb 133e
00000050: fce6 b8bd a58d 0ebd ed65 613d 2e8a 003e
00000060: 46b4 6dbd 0aec 22be 596f ce3d b3b5 5f3d
00000070: c655 f43d 3644 23bc b8df 3dbc 3cb6 03bb

vertex_output_lin.0.weight f4 [32, 1, 32, 1]
0.17795517 -0.17569973 0.06297922 0.094881214 0.14407407 -0.014869544 -0.12913014 -0.045137625
-0.11678549 -0.05099174 -0.103751615 0.0632353 -0.14466494 -0.09757341 -0.07596735 0.1497287
-0.04715478 -0.10554432 0.1833818 0.060033463 -0.13756512 0.027611531 -0.15927461 -0.1906064
0.07525631 -0.02601353 0.14422585 -0.07742983 0.1526924 0.06299765 -0.022063402 -0.17563501
0.07495901 0.016520845 -0.08343778 -0.15281962 0.10558077 0.11739481 0.119460106 0.082912505
-0.048054434 -0.078640185 -0.021050362 0.0605908 0.15994059 0.09272381 -0.060962625 0.11915344
0.17609252 -0.06841292 -0.16804352 0.117102176 -0.020964637 -0.00513985 -0.13611172 -0.17388363
0.12317014 -0.079210736 -0.15120535 0.028783962 -0.074007116 -0.25261426 -0.13389862 -0.12703905
-0.042694088 0.13799185 -0.026864182 0.023645809 0.029976875 0.11537144 -0.11738672 -0.17147842
-0.06353953 -0.087813936 -0.2028491 0.09485953 -0.2665369 -0.20932753 0.06168501 -0.06559969
0.09306111 -0.009978555 0.04574879 0.093635745 -0.044445634 -0.004770264 -0.05963788 -0.1428632
0.056562416 0.02304493 0.10626733 0.10573674 0.07300907 0.060130823 -0.13693464 -0.10359494
-0.028419357 -0.051076137 0.021906186 -0.014276039 -0.13497883 0.020664955 -0.113359705 -0.020488186
-0.018837295 0.016864777 0.022849647 -0.039593533 0.102274865 -0.0028631692 0.070660464 -0.14885363
0.21488565 0.18053798 -0.19223589 0.23081356 -0.06281915 -0.01608966 0.13199972 -0.031241333
0.25702676 -0.0035208676 0.06771114 -0.042700503 -0.024828129 -0.31060612 -0.25584263 -0.31084704
-0.006736411 0.06797769 -0.10466423 0.009381537 -0.050027832 -0.049055535 0.17219155 0.006608861
-0.122454174 -0.13384043 0.020349674 -0.043793842 0.21263535 -0.10871188 -0.09392284 -0.14224882
-0.057789057 -0.014280302 -0.104200654 -0.11368767 0.1763093 -0.076660424 0.0029708366 -0.06610649
0.07669322 0.19919962 -0.0003739514 -0.16132998 0.13899778 0.00415688 -0.09510776 -0.16279007
-0.13069782 0.12918913 -0.12540983 -0.025637183 0.05343805 -0.100042716 -0.14210536 -0.05561741
-0.19719653 0.07002447 -0.008562715 0.031529434 0.12823895 0.016913638 -0.055599157 -0.12874706
-0.033750415 0.1250017 -0.17983206 0.13856249 0.16835834 -0.08144386 -0.16799591 -0.07860795
-0.036485277 -0.09060361 -0.014310201 -0.22053327 -0.19183092 -0.03449053 0.023564095 -0.06933686
0.1663352 -0.008451487 -0.008862516 0.049442615 -0.12848054 -0.11617688 -0.1251004 -0.13751906
0.07260395 -0.14281942 0.029650468 0.03183899 -0.34388787 0.11042471 0.16430946 -0.18264084
0.074744545 -0.22274141 0.26090547 -0.10907386 0.038564395 -0.18138842 -0.09926993 0.13649751
-0.030422265 -0.07775778 -0.039050907 0.16498867 -0.105628446 0.08355332 0.040278148 -0.07848993
-0.18376318 -0.24165782 0.0046729636 -0.030769652 0.10190523 -0.21130629 -0.15183173 -0.13158943
-0.3561123 0.076960675 0.076651715 0.105571404 0.07739234 0.058190536 -0.19821298 -0.14515041
0.21709248 -0.059987623 -0.23238589 0.16133665 -0.13332255 0.04922966 -0.17298621 -0.109887384
0.17016786 -0.1747916 0.17001918 0.01445263 0.1261471 -0.16479501 -0.26840845 -0.10639334
00000000: e139 363e a1ea 33be 40fb 803d 1551 c23d
00000010: 2788 133e 639f 73bc b13a 04be 3be2 38bd
00000020: 3b2d efbd b7dc 50bd ba7b d4bd 8281 813d
00000030: 0c23 14be 91d4 c7bd c594 9bbd 7b52 193e
00000040: 5f25 41bd 9f27 d8bd 70c8 3b3e a6e5 753d
00000050: dfdd 0cbe 9431 e23c e218 23be 532e 43be
00000060: fb1f 9a3d 541a d5bc f1af 133e 8893 9ebd
00000070: 665b 1c3e e904 813d 4fbe b4bc aad9 33be
00000080: 1c84 993d b956 873c 6de1 aabd bf7c 1cbe
00000090: bb3a d83d b16c f03d 80a7 f43d 08ce a93d
000000a0: bad4 44bd 1b0e a1bd cf71 acbc 0f2e 783d
000000b0: 77c7 233e fbe5 bd3d f2b3 79bd b806 f43d
000000c0: 9951 343e 131c 8cbd 9a13 2cbe 44d3 ef3d
000000d0: 08be abbc 306c a8bb df60 0bbe 8d0e 32be
000000e0: a040 fc3d 3d39 a2bd 93d5 1abe 58cc eb3c
000000f0: 0b91 97bd a856 81be b81c 09be 8616 02be
00000100: ffdf 2ebd bc4d 0d3e 4612 dcbc dbb4 c13c
00000110: 1092 f53c dd47 ec3d 7368 f0bd 0a98 2fbe
00000120: 0321 82bd cbd7 b3bd adb7 4fbe b745 c23d
00000130: 8677 88be f559 56be 6ca9 7c3d 2159 86bd
00000140: d396 be3d 187d 23bc 1563 3b3d 19c4 bf3d
00000150: a00c 36bd e04f 9cbb da46 74bd bb4a 12be
00000160: fead 673d b9c8 bc3c b0a2 d93d 818c d83d
00000170: c785 953d bd4b 763d 9838 0cbe 9529 d4bd
00000180: b6cf e8bc 3635 51bd 9a74 b33c 0ce6 69bc
00000190: e437 0abe 8d49 a93c 2229 e8bd d7d6 a7bc
000001a0: ac50 9abc 0028 8a3c 2f2f bb3c d42c 22bd
000001b0: 7c75 d13d 02a4 3bbb 6fb6 903d 166d 18be
000001c0: fc0a 5c3e f3de 383e 7cd9 44be 645a 6c3e
000001d0: 54a7 80bd 76ce 83bc ef2a 073e d3ed ffbc
000001e0: 0399 833e 5bbe 66bb 23ac 8a3d b9e6 2ebd
000001f0: 5c64 cbbc c407 9fbe cefd 82be 5827 9fbe
00000200: 1cbd dcbb e337 8b3d 335a d6bd 05b5 193c
00000210: fce9 4cbd 75ee 48bd fb52 303e 258f d83b
00000220: 41c9 fabd 770d 09be 5cb4 a63c 2c61 33bd
00000230: 15bd 593e 56a4 debd 9e5a c0bd ada9 11be
00000240: 38b4 6cbd eef7 69bc 2767 d5bd 15d5 e8bd
00000250: 6d8a 343e 2400 9dbd 5eb2 423b d762 87bd
00000260: 5611 9d3d fcfa 4b3e e80e c4b9 b033 25be
00000270: 6f55 0e3e 7036 883b dbc7 c2bd 71b2 26be
00000280: a6d5 05be 284a 043e 6f6b 00be 1205 d2bc
00000290: dbe1 5a3d 32e3 ccbd 1184 11be 15cf 63bd
000002a0: e3ed 49be fd68 8f3d a14a 0cbc 0225 013d
000002b0: 1251 033e 788e 8a3c f1bb 63bd 45d6 03be
000002c0: e03d 0abd 7200 003e e525 38be 53e3 0d3e
000002d0: 2166 2c3e 0acc a6bd 1f07 2cbe 34fd a0bd
000002e0: 9671 15bd 638e b9bd 5575 6abc 79d3 61be
000002f0: 536f 44be f145 0dbd 7d09 c13c 7c00 8ebd
00000300: c653 2a3e 1b78 0abc 1634 11bc 5784 4a3d
00000310: 6790 03be 25ee edbd 521a 00be ccd1 0cbe
00000320: 61b1 943d 413f 12be 8ae5 f23c 9a69 023d
00000330: 1212 b0be 5a26 e23d bd40 283e 3306 3bbe
00000340: ab13 993d 5316 64be 6795 853e 1e62 dfbd
00000350: b3f5 1d3d e3bd 39be 084e cbbd 01c6 0b3e
00000360: 1d38 f9bc 793f 9fbd d8f3 1fbd caf2 283e
00000370: ba53 d8bd 011e ab3d b3fa 243d 54bf a0bd
00000380: 6a2c 3cbe 2675 77be a91f 993b a310 fcbc
00000390: b0b3 d03d ad60 58be c779 1bbe 61bf 06be
000003a0: 5a54 b6be 8f9d 9d3d 93fb 9c3d d235 d83d
000003b0: e07f 9e3d 3359 6e3d 58f8 4abe 4fa2 14be
000003c0: 7e4d 5e3e 95b5 75bd 91f6 6dbe 6f35 253e
000003d0: b585 08be 0aa5 493d 4c23 31be a30c e1bd
000003e0: 7c40 2e3e 92fc 32be 8219 2e3e b9ca 6c3c
000003f0: b52c 013e 06c0 28be d56c 89be c0e4 d9bd

vertex_output_lin.0.bias f4 [32]
-0.14283462 -0.16219138 0.040009845 -0.02116711 0.029336952 0.15398607 -0.13768144 0.02035984
-0.107209325 -0.060826793 -0.04627546 -0.12976876 0.05786694 0.036725868 -0.120566756 -0.00965676
-0.04060513 0.018114135 -0.006394012 0.032284874 0.0982282 -0.080861606 -0.107986115 0.19412376
-0.06162545 -0.07084897 -0.027279403 -0.18542509 0.011453102 -0.046970066 0.15194465 0.009444221
00000000: 3d43 12be 7f15 26be 5de1 233d a666 adbc
00000010: 0c54 f03c 86ae 1d3e 5dfc 0cbe aec9 a63c
00000020: 9090 dbbd 8425 79bd 568b 3dbd 1ae2 04be
00000030: e205 6d3d dd6d 163d b4eb f6bd 6337 1ebc
00000040: 9151 26bd 1864 943c dc84 d1bb 253d 043d
00000050: de2b c93d c59a a5bd d327 ddbd 61c8 463e
00000060: f86a 7cbd 4419 91bd 0e79 dfbc 13e0 3dbe
00000070: cba5 3b3c af63 40bd 6197 1b3e efbb 1a3c

vertex_output_lin.2.weight f4 [1, 32, 1, 1]
0.10607646 -0.2548408 0.0029116548 -0.22950685 -0.046485003 -0.050251614 0.07537148 -0.22672664
0.069409534 -0.1511415 -0.1564254 -0.021467788 -0.3097368 0.018303106 -0.1312546 0.17528424
-0.12396141 0.019105107 0.08338977 -0.012512966 -0.21564867 0.20387882 -0.37931347 0.13996634
0.101769626 -0.0035937186 -0.06651268 0.058596674 -0.078615695 -0.06510687 0.079205774 -0.2091148
00000000: 9d3e d93d 7e7a 82be 76d1 3e3b d803 6bbe
00000010: 0f67 3ebd a3d4 4dbd 5d5c 9a3d 072b 68be
00000020: 9626 8e3d d6c4 1abe fb2d 20be 37dd afbc
00000030: d295 9ebe 65f0 953c 9b67 06be b67d 333e
00000040: 7bdf fdbd 5082 9c3c 41c8 aa3d 2f03 4dbc
00000050: 01d3 5cbe 9cc5 503e 6035 c2be 5653 0f3e
00000060: 986c d03d 9884 6bbb cd37 88bd 1103 703d
00000070: 4401 a1bd c056 85bd a336 a23d 3122 56be

graph_output_lin.0.weight f4 [1, 618]
-0.03253275 -0.028196225 -0.038402613 -0.018782241 -0.013756654 -0.041876946 -0.076136716 -0.05331872
-0.28454605 -0.21275356 0.021291872 0.008885042 -0.11874973 -0.061130192 -0.0016546107 0.053564575
-0.02673022 -0.041938834 -0.098848075 -0.059866812 -0.017589983 -0.018756878 -0.027798288 -0.00467748
0.048382394 -0.10517816 -0.107422985 -0.034105174 -0.048780423 -0.105864905 -0.042644728 -0.16706836
-0.21593204 -0.33059156 -0.076319546 -0.0046828194 -0.10759773 0.01817997 0.06542106 -0.04517226
-0.019328728 -0.06486042 0.042653985 -0.05913131 -0.30645734 -0.2897497 -0.025945973 -0.05604977
-0.21334659 -0.041484673 -0.02327049 -0.03940384 -0.012612776 -0.029532878 -0.028340615 -0.01746514
-0.09044097 -0.017671756 0.0019284507 -0.14539202 -0.1319313 -0.17000882 -0.050553557 -0.0639283
0.0021778548 0.11855522 0.043183394 0.021026615 0.09258111 -0.01689586 -0.031739466 -0.34854802
-0.10949055 -0.030103713 -0.22474594 -0.13124025 0.03660803 -0.04041883 -0.101381846 0.18302746
-0.073784724 0.034099117 0.013558508 0.100936756 -0.049859818 -0.007833294 -0.0071297362 -0.075771265
-0.075662926 -0.03155909 0.10218885 0.12887502 0.005364902 0.0061609033 -0.13988616 -0.28029212
-0.07037504 -0.11580427 -0.27528885 -0.018748581 -0.056234233 -0.023071107 -0.105242886 -0.21847346
0.012212947 0.03146485 0.023261925 -0.106320925 -0.24792653 0.019509386 0.043255966 0.05135445
0.10249973 0.047207665 0.048975363 -0.012872937 -0.10454473 0.1179397 0.049835287 0.10212602
0.085828915 0.08027762 0.0082827285 0.07986172 -0.07141618 -0.17282213 0.0036755991 -0.09500085
-0.037935205 -0.04385711 0.010584822 -0.107347116 -0.10621464 0.042370766 -0.010397047 0.06270955
-0.02770569 0.0072736833 -0.01632612 -0.040150795 -0.025533302 -0.0716414 -0.011700783 0.075644515
0.013203249 0.0618438 -0.020961788 0.0070562293 0.05514326 -0.09423278 -0.021430304 -0.028809363
-0.0068482193 0.004171947 -0.039743245 -0.03714614 -0.019036489 0.050029792 -0.014618024 -0.0043704207
0.048799485 0.10645425 -0.0037724993 0.025352491 0.100385085 0.06947095 0.04074533 -0.072144374
-0.006605914 -0.011709284 0.017859163 0.05382464 0.07283914 0.051474523 0.124065764 0.10642632
0.006197774 0.04995413 -0.07475965 0.06268069 -0.08122128 -0.063824 0.01956802 0.012863307
0.086656466 0.12413431 -0.22183858 -0.047215756 0.06404166 -0.28514647 -0.054785553 -0.06761636
0.0024890124 0.12270361 -0.019990033 -0.20531671 -0.18340945 0.10957039 -0.003165975 -0.08166332
-0.013486204 0.03318238 0.10317982 -0.06457944 0.0022323364 -0.06964994 0.009870956 -0.01950011
-0.071179315 -0.046237327 -0.0046659056 0.12787125 0.06676074 0.06817997 -0.01810628 0.06185193
-0.03572346 -0.059216443 0.053476483 0.0031416013 0.04734281 0.052058667 0.017905608 0.029211093
0.03832081 0.098862566 0.12232638 0.09448939 0.024743134 0.050016046 0.02847649 0.0053340145
-0.009798064 -0.17991494 -0.270676 -0.20865546 -0.0820924 -0.037179176 -0.011299665 -0.036291998
0.020882295 0.0431662 0.040084448 -0.044965703 0.007050725 0.041520517 0.05195713 0.072263315
-0.032702513 -0.03190306 -0.08230267 -0.03398131 -0.021585735 -0.08278637 0.06690611 0.012786439
00000000: 1041 05bd c5fb e6bc 0f4c 1dbd 37dd 99bc
00000010: 9763 61bc 2987 2bbd 91ed 9bbd bb64 5abd
00000020: 05b0 91be 12dc 59be 4b6c ae3c 9192 113c
00000030: 0f33 f3bd a763 7abd 86df d8ba 8766 5b3d
00000040: 56f9 dabc 0ec8 2bbd dc70 cabd e736 75bd
00000050: de18 90bc 06a8 99bc 3cb9 e3bc 8c45 99bb
00000060: 9e2c 463d a667 d7bd 9500 dcbd deb1 0bbd
00000070: fbcd 47bd b3cf d8bd 3dac 2ebd f813 2bbe
00000080: 4a1d 5dbe 4c43 a9be 6c4d 9cbd 5672 99bb
00000090: 335c dcbd 29ee 943c 7afb 853d 8c06 39bd
000000a0: 4857 9ebc 8ad5 84bd f2b5 2e3d ac33 72bd
000000b0: fae7 9cbe 135a 94be a68c d4bc 7294 65bd
000000c0: 8777 5abe d5eb 29bd c1a1 bebc ec65 21bd
000000d0: d1a5 4ebc efee f1bc 942a e8bc 0e13 8fbc
000000e0: 1e39 b9bd 5cc4 90bc 11c4 fc3a a5e1 14be
000000f0: 0019 07be cb16 2ebe 3f11 4fbd d7ec 82bd
00000100: 57ba 0e3b 14cd f23d 12e1 303d 0240 ac3c
00000110: 2a9b bd3d 3069 8abc 3e01 02bd e374 b2be
00000120: 953c e0bd 109c f6bc cd23 66be d863 06be
00000130: 4df2 153d 378e 25bd 49a1 cfbd 8d6b 3b3e
00000140: 721c 97bd 84ab 0b3d 8124 5e3c eeb7 ce3d
00000150: cf39 4cbd 3757 00bc 90a0 e9bb f72d 9bbd
00000160: 2af5 9abd 1b44 01bd 6348 d13d d0f7 033e
00000170: 0fcc af3b 67e1 c93b 513e 0fbe 7382 8fbe
00000180: ca20 90bd ca2a edbd a9f2 8cbe a096 99bc
00000190: de55 66bd 9eff bcbc 9589 d7bd 82b7 5fbe
000001a0: d018 483c 49e1 003d cb8f be3c c9be d9bd
000001b0: 74e0 7dbe 26d2 9f3c 2b2d 313d 0b59 523d
000001c0: 61eb d13d d35c 413d 649a 483d 03e9 52bc
000001d0: 8c1b d6bd 5f8a f13d 1620 4c3d 7227 d13d
000001e0: 12c7 af3d 9868 a43d 48b4 073c 8b8e a33d
000001f0: a542 92bd 49f8 30be 52e2 703b ce8f c2bd
00000200: f261 1bbd 83a3 33bd f66b 2d3c ced8 dbbd
00000210: 1087 d9bd f88c 2d3d 6058 2abc dd6d 803d
00000220: 0bf7 e2bc 1458 ee3b 5bbe 85bc 2975 24bd
00000230: 372b d1bc bab8 92bd a4b4 3fbc 83eb 9a3d
00000240: 7152 583c ed4f 7d3d 0eb8 abbc f137 e73b
00000250: e6dd 613d 1efd c0bd 9b8e afbc 9d01 ecbc
00000260: 0767 e0bb d4b4 883b d0c9 22bd 8d26 18bd
00000270: 69f2 9bbc 0aec 4c3d 7080 6fbc bf35 8fbb
00000280: f8e1 473d b004 da3d 093c 77bb 07b0 cf3c
00000290: b296 cd3d c946 8e3d 93e4 263d 6ec0 93bd
000002a0: 6c76 d8bb 4cd8 3fbc 614d 923c 3a77 5c3d
000002b0: b02c 953d f3d6 523d 3116 fe3d 0bf6 d93d
000002c0: b216 cb3b b49c 4c3d 961b 99bd bc5e 803d
000002d0: 5857 a6bd 28b6 82bd 1d4d a03c 9fc0 523c
000002e0: f278 b13d 213a fe3d a729 63be 4f65 41bd
000002f0: 4628 833d b8fe 91be d166 60bd 727a 8abd
00000300: b31e 233b 084c fb3d 23c2 a3bc 8b3e 52be
00000310: b0cf 3bbe 7166 e03d 3f7c 4fbb 193f a7bd
00000320: 3df5 5cbc 3fea 073d f14f d33d 3a42 84bd
00000330: 644c 123b a1a4 8ebd cab9 213c b2be 9fbc
00000340: 76c6 91bd 5a63 3dbd 74e4 98bb aef0 023e
00000350: dbb9 883d f1a1 8b3d 9f53 94bc 7358 7d3d
00000360: c352 12bd f18c 72bd 280a 5b3d 53e3 4d3b
00000370: 89ea 413d 783b 553d c8ae 923c 1a4c ef3c
00000380: 48f6 1c3d 7578 ca3d 4186 fa3d a783 c13d
00000390: 1db2 ca3c a0dd 4c3d 8747 e93c f5c8 ae3b
000003a0: 0f88 20bc 9f3b 38be 0b96 8abe c7a9 55be
000003b0: 0f20 a8bd 3149 18bd 3b22 39bc eba6 14bd
000003c0: 5911 ab3c 0bcf 303d 972f 243d f52d 38bd
000003d0: c509 e73b 6b11 2a3d 00d1 543d cafe 933d
000003e0: 12f3 05bd c8ac 02bd 4d8e a8bd fc2f 0bbd
000003f0: 91d4 b0bc e68b a9bd 1206 893d 367e 513c

x_lin_after_first_round.0.weight f4 [32, 1, 32, 1]
0.15267704 -0.22219302 0.07082263 -0.047711268 -0.046548195 0.052899316 0.08988899 -0.035403427
-0.23917694 -0.016077751 0.14189029 -0.05018221 0.185613 -0.1332361 -0.056233224 -0.003944484
0.11798617 -0.074788705 -0.08919127 0.08867731 0.07927583 0.13047236 -0.04341642 0.0104046725
-0.07523254 -0.032866802 -0.09252964 -0.068521865 -0.09684405 -0.014236855 -0.18813658 0.12622286
0.11929342 -0.17105009 0.23765945 0.15241195 -0.060415793 0.119859345 0.15567951 -0.028572254
0.0107090715 0.049105503 -0.06346543 0.0019491015 -0.12725917 -0.053074747 0.10211937 0.11426558
-0.020632967 -0.009010903 0.23300403 -0.12295077 -0.11829458 -0.038878713 0.039203532 0.12920666
0.032557663 -0.16007914 0.19422588 0.021085477 0.20268054 0.20228393 0.20106912 0.03954206
-0.29634288 0.14813574 -0.060849078 -0.108272314 -0.14917374 -0.2803805 0.14593934 -0.19275667
-0.0067230514 -0.22076496 0.1389743 -0.031071402 0.35262415 -0.012333123 -0.13964567 0.09585655
0.09490599 0.14175262 0.011182841 0.07687256 0.05194239 0.09944074 0.04947996 -0.06038298
0.18086247 -0.08262637 0.14678761 -0.12543955 0.048038296 -0.0008648025 -0.067627884 -0.079793856
0.005726492 0.15428828 0.0726186 -0.078961276 -0.19338363 -0.2611187 -0.0035755695 -0.029590009
-0.0021098845 -0.20401181 0.08546182 -0.03678189 0.18888433 0.12094985 -0.096489735 -0.09614513
0.20773113 0.047237176 -0.27146628 0.18060838 0.035481304 -0.13161027 0.08662042 -0.024181554
0.043100566 0.106146395 0.1439293 -0.15388294 -0.03360102 -0.33726326 -0.20841217 -0.18212815
0.07470842 0.06642277 0.20792077 -0.079969816 0.18550159 0.030087924 0.031016137 0.15376815
0.11676503 0.030256089 0.09316133 0.025018902 -0.039630324 0.07780009 -0.15738441 -0.023996862
-0.12787336 0.07873528 -0.028179796 -0.113477014 -0.09416266 0.06276985 0.2669759 0.103303276
0.016360488 -0.21033612 0.17475535 0.24716671 0.088025436 0.015370018 0.1826493 0.1867486
-0.018487003 -0.019305473 -0.038428362 0.12317509 0.07438664 0.1472025 0.076412275 0.16768591
0.19910736 -0.096855916 -0.12894396 -0.13423812 0.057130065 -0.022154642 0.046455868 0.03906197
0.043320112 0.09630043 -0.041007563 -0.19714737 -0.08604422 -0.071819045 -0.09285044 -0.020613587
-0.21088262 0.22492948 -0.0767543 -0.071951546 -0.08539725 0.08964401 0.2563713 0.041189328
-0.20634986 0.1630822 0.067599975 -0.060856514 -0.20804216 -0.10192254 0.025198093 0.00081720704
-0.15710823 -0.19386938 0.08091921 -0.14377394 0.29272228 0.06605639 -0.11534058 0.1202186
0.068922 -0.032260492 -0.32459173 0.15392002 -0.008904401 -0.07711608 -0.29792243 0.1050966
-0.046218157 -0.06480022 0.0521322 -0.12353729 0.118376635 -0.09481241 -0.24031487 -0.23006247
0.15361808 0.23041485 0.15929954 -0.03813667 0.07317024 0.15005639 0.09213238 0.14534166
-0.051153094 0.101316035 -0.07342999 -0.16940208 -0.09685376 -0.08356428 0.13080685 -0.08651025
-0.089431144 -0.10168849 0.018358216 0.11391057 0.06016254 -0.15859106 0.18740878 -0.14030777
-0.1392794 -0.10789289 -0.045284886 0.100088276 -0.14196035 0.15429424 0.1909241 -0.01089195
00000000: 5f57 1c3e 9186 63be 740b 913d e46c 43bd
00000010: 52a9 3ebd f4ac 583d b817 b83d 2f03 11bd
00000020: cdea 74be 7db5 83bc b04b 113e dc8b 4dbd
00000030: 5611 3e3e 0b6f 08be cf54 66bd bb40 81bb
00000040: bca2 f13d d22a 99bd eaa9 b6bd 739c b53d
00000050: 5e5b a23d 8c9a 053e 6bd5 31bd 5c78 2a3c
00000060: 8513 9abd 579f 06bd 2e80 bdbd 3155 8cbd
00000070: 2c56 c6bd b341 69bc e0a6 40be 9140 013e
00000080: 1c50 f43d c127 2fbe 005d 733e e111 1c3e
00000090: 8d76 77bd d178 f53d 736a 1f3e 5c10 eabc
000000a0: 1a75 2f3c da22 493d 2afa 81bd fe78 ff3a
000000b0: 3a50 02be e864 59bd f623 d13d 1304 ea3d
000000c0: 7806 a9bc 77a2 13bc 9c98 6e3e 9dcd fbbd
000000d0: 6e44 f2bd 493f 1fbd e293 203d c04e 043e
000000e0: 2f5b 053d c9eb 23be 26e3 463e 73bb ac3c
000000f0: 7d8b 4f3e 8523 4f3e 10e5 4d3e dbf6 213d
00000100: 41ba 97be e5b0 173e e23c 79bd e0bd ddbd
00000110: 00c1 18be 088e 8fbe 1f71 153e 0162 45be
00000120: 0b4d dcbb 3610 62be 474f 0e3e 7489 febc
00000130: 278b b43e de10 4abc 46ff 0ebe 7050 c43d
00000140: 125e c23d 9927 113e 3c38 373c 5c6f 9d3d
00000150: 8bc1 543d 96a7 cb3d 80ab 4a3d 2554 77bd
00000160: 0334 393e 0438 a9bd 7e4f 163e 3a73 00be
00000170: cec3 443d eab3 62ba 7d80 8abd f66a a3bd
00000180: 4ca5 bb3b bffd 1d3e 10b9 943d 73b6 a1bd
00000190: 5c06 46be 5ab1 85be 1a54 6abb bf66 f2bc
000001a0: fd45 0abb 79e8 50be 9b06 af3d 9ba8 16bd
000001b0: e56a 413e 8eb4 f73d 699c c5bd bde7 c4bd
000001c0: 78b7 543e c57b 413d a1fd 8abe 67f1 383e
000001d0: d854 113d d8c4 06be 0c66 b13d 6518 c6bc
000001e0: 388a 303d 4863 d93d 3462 133e 7d93 1dbe
000001f0: 39a1 09bd c5ad acbe 006a 55be cd7f 3abe
00000200: ba00 993d a908 883d 2fe9 543e 37c7 a3bd
00000210: 21f4 3d3e f37a f63c 8e15 fe3c 6675 1d3e
00000220: 8122 ef3d 9edb f73c 5ecb be3d 71f4 cc3c
00000230: 6853 22bd a755 9f3d 6129 21be 1195 c4bc
00000240: 3cf1 02be f63f a13d 51d9 e6bc a366 e8bd
00000250: 5ad8 c0bd 7b8d 803d 11b1 883e ab90 d33d
00000260: 6e06 863c 5a62 57be 11f3 323e 4519 7d3e
00000270: ae46 b43d 87d2 7b3c 6b08 3b3e 063b 3f3e
00000280: 0e72 97bc 8326 9ebc 0f67 1dbd 3943 fc3d
00000290: 0658 983d 41bc 163e 0a7e 9c3d dbb5 2b3e
000002a0: cde2 4b3e 655c c6bd e309 04be b875 09be
000002b0: 3701 6a3d a77d b5bc 8248 3e3d 72ff 1f3d
000002c0: 6e70 313d 2939 c53d 8cf7 27bd 00e1 49be
000002d0: f437 b0bd dd15 93bd 5f28 bebd d3dd a8bc
000002e0: 9df1 57be ea53 663e 5c31 9dbd 555b 93bd
000002f0: c1e4 aebd 4797 b73d 1943 833e 24b6 283d
00000300: 614d 53be 05ff 263e db71 8a3d ae44 79bd
00000310: 0109 55be c4bc d0bd 3b6c ce3c d639 563a
00000320: fbe0 20be b285 46be f9b8 a53d 7a39 13be
00000330: b2df 953e 9348 873d af37 ecbd 2b35 f63d
00000340: fa26 8d3d 9423 04bd e330 a6be 369d 1d3e
00000350: c4e3 11bc 09ef 9dbd 4a89 98be e33c d73d
00000360: 404f 3dbd fab5 84bd 9388 553d 1e01 fdbd
00000370: 736f f23d 022d c2bd 1a15 76be 7f95 6bbe
00000380: 0f4e 1d3e dff1 6b3e 6b1f 233e 3235 1cbd
00000390: 47da 953d 62a8 193e e7af bc3d 72d4 143e
000003a0: e885 51bd c87e cf3d 7662 96bd bd77 2dbe
000003b0: 445b c6bd c023 abbd 3bf2 053e 492c b1bd
000003c0: ad27 b7bd 0e42 d0bd f863 963c f249 e93d
000003d0: ff6c 763d b265 22be 16e8 3f3e d7ac 0fbe
000003e0: 429f 0ebe f3f6 dcbd a57c 39bd 15fb cc3d
000003f0: 0e5e 11be 4fff 1d3e 9b81 433e 2674 32bc

x_lin_after_first_round.0.bias f4 [32]
-0.07114309 0.12280918 0.10325563 0.048069645 -0.09569425 -0.15973757 0.034102116 0.0005113587
0.056943033 -0.0969588 -0.05394569 0.09259556 0.16862552 0.03307788 -0.04587416 -0.098729394
0.022842113 -0.17218168 0.1771588 0.16065687 0.088398874 -0.06512875 0.012375619 0.084623784
-0.11531567 -0.13276015 -0.15762927 0.037307404 0.14672075 -0.0021802494 -0.12818621 -0.0064665526
00000000: 78b3 91bd 6183 fb3d b077 d33d ade4 443d
00000010: 59fb c3bd 3f92 23be a9ae 0b3d b40c 063a
00000020: 193d 693d 5692 c6bd 28f6 5cbd bea2 bd3d
00000030: 2bac 2c3e ac7c 073d 8be6 3bbd a332 cabd
00000040: 621f bb3c 6550 30be 1e69 353e 3c83 243e
00000050: 780a b53d 3962 85bd 1cc3 4a3c 3c4f ad3d
00000060: 9f2a ecbd 47f2 07be 9169 21be a6cf 183d
00000070: f73d 163e 84e2 0ebb 3f43 03be 60e5 d3bb
