reachability_classification/weights/SimpleMultiplePassGNNReachabilityNet_epoch_97.pt (torch_old, 36685 bytes, 16 tensors)

x_lin.0.weight f4 [32, 1, 1, 11]
-0.48703346 -0.15437858 0.025080724 -0.36237833 -0.403935 -0.055813424 -0.5509429 0.3003597
0.14983314 0.1987375 -0.662902 0.4378806 -0.38705927 -0.35589027 0.6067108 -0.023929365
-0.027753497 -0.5625614 0.36617348 -0.14052483 0.1281407 0.025873616 -0.8092598 0.29268408
0.14621483 0.31533164 0.22229952 -0.0943701 0.20638949 0.12827152 0.5498043 -0.28710505
0.19088373 -0.18508805 0.010308025 -0.33488718 0.50992775 0.0888145 -0.31767064 0.0052140607
-0.41079167 -0.17560966 0.2163472 -0.41380665 -0.20290548 -0.2579726 0.08862861 -0.23590393
0.65968674 0.3277558 0.62908816 0.29278058 -0.6661361 0.007911668 0.1352567 -0.3421442
-0.24120216 -0.005055721 -0.3269601 -0.30335 -0.2796917 0.7182433 0.41698435 0.022978906
0.5690515 -0.59490913 0.109112374 0.52479684 0.14592536 0.13659532 0.3329564 0.34165454
0.38032112 -0.21531402 -0.39651734 -0.66117585 0.15726005 0.22278741 -0.39811763 -0.10535559
0.3186506 -0.14366996 -0.19783565 -0.08378434 -0.07057913 -0.07135032 -1.263974 1.0666363
0.23159169 0.27385852 0.43419492 -0.15399106 -0.016512865 0.04852537 0.21210095 0.31363717
-0.2012422 -0.28604326 0.3965078 0.38811445 -0.036884807 0.14403358 0.4846981 -0.045925632
-0.27179584 -0.5459573 -0.1555001 -0.028880373 0.91184264 -0.59919614 0.25496092 -0.0061107534
0.09614948 -0.72893023 -0.2803998 0.27345082 -0.116984375 -0.14560784 -0.38504303 0.26419765
-0.440623 -0.21978797 0.017166639 -0.035716433 -0.00072539545 0.07942847 -0.11613424 -0.118288375
0.118177645 0.027215423 -0.27005714 -0.13651769 -0.25134662 0.140938 -0.099917725 0.43575197
-0.11178475 -0.04788637 0.4778525 -0.028744776 -0.04060219 1.3173372 -1.0827917 -0.36049968
-0.17489263 -0.07940035 0.49078718 0.39984873 -0.13282627 -0.20717293 -0.18858482 0.3466066
0.014408142 0.33370313 0.27630132 -0.41289237 0.61131144 -0.58653164 0.16621332 0.005590075
-0.35850978 0.35386515 -0.023939855 0.092848524 0.57606226 0.001665971 -0.082973026 0.18837021
0.07207497 0.0032204199 -0.17554156 -0.56940645 -0.21227229 0.3488333 0.4282775 -0.23368934
0.2379231 0.044185225 -0.06553056 -0.022741651 0.3625595 0.21707098 0.021864709 0.35672593
0.32285672 -0.024964223 0.48093572 -0.22207612 0.10549402 -0.07423261 -0.31612977 -0.44439426
0.16997716 -0.20754325 0.3985916 0.3316304 0.9243782 -0.92542934 0.030583821 0.54237866
0.23830505 0.48591733 0.034757715 -0.044228826 0.11341026 0.19964397 -2.8295002 0.2617179
-0.0012851486 0.44027594 0.11349299 -0.25119385 -0.1767271 0.4764842 0.14421876 0.1899669
-0.45325306 0.042065803 1.0835232 0.04236719 -0.23581426 0.20430303 -0.011362813 0.034119967
0.22811958 -0.1533505 -0.13716194 0.230074 -0.27740628 -0.22306176 -0.041173857 0.5233661
0.14448637 0.34112674 0.26810116 -0.21845996 -0.92468256 0.045271307 0.29871035 0.01674153
-0.7434004 0.16823258 -0.046939794 -0.3096923 -0.5448413 0.0059475256 0.08655274 -0.36815038
-0.094108656 -0.08462742 -0.068729274 1.0082994 -0.6495984 -0.11753813 -0.06885993 0.25486004
00000000: 735c f9be 6b15 1ebe 1776 cd3c a789 b9be
00000010: 91d0 cebe 9e9c 64bd 980a 0dbf bfc8 993e
00000020: dc6d 193e d881 4b3e f2b3 29bf e331 e03e
00000030: a22c c6be 4037 b6be 6651 1b3f 8407 c4bc
00000040: 4d5b e3bc 0604 10bf 177b bb3e bee5 0fbe
00000050: 5137 033e e8f4 d33c a62b 4fbf b0da 953e
00000060: 57b9 153e 2673 a13e 7ca2 633e 1c45 c1bd
00000070: c457 533e 9c59 033e f9bf 0c3f 6fff 92be
00000080: 0677 433e b987 3dbe fee2 283c 5576 abbe
00000090: a08a 023f 60e4 b53d baa5 a2be b6da aa3b
000000a0: 4953 d2be 05d3 33be 1f8a 5d3e 77de d3be
000000b0: 74c6 4fbe fc14 84be eb82 b53d cd90 71be
000000c0: 3be1 283f 9ccf a73e ec0b 213f 56e7 953e
000000d0: e587 2abf f19f 013c bb80 0a3e 862d afbe
000000e0: b3fd 76be 76aa a5bb 5067 a7be b150 9bbe
000000f0: c033 8fbe cbde 373f f97e d53e 423e bc3c
00000100: 5cad 113f f74b 18bf 4f76 df3d 1659 063f
00000110: 756d 153e a5df 0b3e 4379 aa3e 58ed ae3e
00000120: 73b9 c23e 477b 5cbe 5204 cbbe d242 29bf
00000130: c708 213e 6222 643e 13d6 cbbe acc4 d7bd
00000140: 2c26 a33e 381e 13be 6e95 4abe 2097 abbd
00000150: ca8b 90bd 1e20 92bd e6c9 a1bf 8a87 883f
00000160: 5f26 6d3e 2f37 8c3e cc4e de3e d5af 1dbe
00000170: fd45 87bc 8ac2 463d fe30 593e 0d95 a03e
00000180: 6f12 4ebe 4374 92be 1203 cb3e f0b6 c63e
00000190: 8614 17bd 8a7d 133e 592a f83e 841c 3cbd
000001a0: d328 8bbe dcc3 0bbf 6b3b 1fbe 8896 ecbc
000001b0: 856e 693f eb64 19bf 3d8a 823e b73c c8bb
000001c0: 05ea c43d 2c9b 3abf 9090 8fbe bf01 8c3e
000001d0: 8195 efbd 391a 15be 5c24 c5be ea44 873e
000001e0: 5699 e1be 1910 61be 0da1 8c3c 654b 12bd
000001f0: 7728 3eba 65ab a23d cad7 edbd 2d41 f2bd
00000200: 1f07 f23d e1f2 de3c ee44 8abe 4bcb 0bbe
00000210: 81b0 80be 0d52 103e aaa1 ccbd e21a df3e
00000220: 67ef e4bd 8024 44bd 15a9 f43e 2a7a ebbc
00000230: 7b4e 26bd 819e a83f eb98 8abf 6a93 b8be
00000240: 0e17 33be a79c a2bd 7548 fb3e f9b8 cc3e
00000250: 9c03 08be 2425 54be 611c 41be 6c76 b13e
00000260: 2110 6c3c 23db aa3e 5e77 8d3e a166 d3be
00000270: e87e 1c3f f026 16bf d333 2a3e f32c b73b
00000280: 988e b7be d02d b53e 841d c4bc 5e27 be3d
00000290: d178 133f b65c da3a c3ed a9bd 1fe4 403e
000002a0: 0b9c 933d ae0d 533b 2bc1 33be 9fc4 11bf
000002b0: e85d 59be 479a b23e 3047 db3e 424c 6fbe
000002c0: 1da2 733e 91fb 343d e334 86bd b34c babc
000002d0: 66a1 b93e db47 5e3e 9e1d b33c c8a4 b63e
000002e0: 7a4d a53e c581 ccbc 353d f63e ec67 63be
000002f0: 400d d83d 4407 98bd c3db a1be a587 e3be
00000300: 7e0e 2e3e 3886 54be 3314 cc3e 76cb a93e
00000310: 0da4 6c3f f0e8 6cbf ec8a fa3c 54d9 0a3f
00000320: 3d06 743e 28ca f83e 1b5e 0e3d 4929 35bd
00000330: a343 e83d 786f 4c3e 8816 35c0 e3ff 853e
00000340: 6e72 a8ba d96b e13e 036f e83d 7b9c 80be
00000350: f3f7 34be bdf5 f33e 15ae 133e af86 423e
00000360: c910 e8be 314d 2c3d e3b0 8a3f 3889 2d3d
00000370: 4b79 71be d034 513e 182b 3abc 61c1 0b3d
00000380: 2e98 693e ea07 1dbe 2e74 0cbe 8598 6b3e
00000390: 3208 8ebe 4d6a 64be eba5 28bd 52fb 053f
000003a0: 3cf4 133e 2aa8 ae3e 8e44 893e f8b3 5fbe
000003b0: ffb7 6cbf 686e 393d 90f0 983e 8825 893c
000003c0: 7d4f 3ebf 2945 2c3e f143 40bd fd8f 9ebe
000003d0: b87a 0bbf 76e3 c23b 9042 b13d 357e bcbe
000003e0: 0abc c0bd 2451 adbd efc1 8cbd f40f 813f
000003f0: 154c 26bf d5b7 f0bd 6f06 8dbd 047d 823e

x_lin.0.bias f4 [32]
0.004907267 0.03486376 0.014473401 -0.20959425 -0.11649025 0.07944028 -0.047525927 0.043864742
0.019509118 0.19937433 -0.08098445 0.07446055 0.29766703 0.25808853 0.46254373 -0.4114055
0.51115066 0.055095166 0.42128244 0.009579648 -0.18744335 -0.09268966 0.2519696 -0.1702028
-0.30093324 0.13872057 0.3358197 -0.21672475 0.21351178 -0.53675765 0.21957015 -0.4685328
00000000: 24cd a03b 4dcd 0e3d d821 6d3c e09f 56be
00000010: 7192 eebd 96b1 a23d 8caa 42bd 84ab 333d
00000020: 96d1 9f3c c928 4c3e 2ddb a5bd c67e 983d
00000030: d067 983e 2e24 843e 88d2 ec3e bea3 d2be
00000040: c5da 023f 78ab 613d 55b2 d73e f5f3 1c3c
00000050: 26f1 3fbe 14d4 bdbd 2902 813e a549 2ebe
00000060: ec13 9abe c40c 0e3e 8ff0 ab3e 18ed 5dbe
00000070: d5a2 5a3e f368 09bf ffd6 603e 88e3 efbe

x_lin.2.weight f4 [32, 32, 1, 1]
0.18103729 0.20714405 -0.46200433 0.23633422 -0.051401358 0.1872979 0.1535214 0.25267956
-0.1533515 -0.34406832 -0.047137056 0.13206127 -0.16359322 0.24128391 -0.014415057 -0.14009832
0.21288858 0.32176203 -0.0537919 -1.0372859 0.024758147 -0.0071509476 0.23675802 -0.23914789
0.23456025 -0.17854685 0.15663801 -0.1321804 0.3361798 0.17026837 -0.28899628 -0.09200732
0.12062961 0.453389 -0.31515035 -0.042125255 0.049761403 0.080304034 -0.2182044 -0.23620652
-0.19670905 0.18682894 0.09665145 -0.053548772 0.46380875 -0.21962596 0.08671778 -0.07056221
-0.12119028 0.31386206 -0.07998186 -0.66878796 -0.10855613 -0.10267288 0.048071004 -0.21555719
-0.63866854 -0.561952 0.15099008 0.002227414 -0.6828167 0.14660029 0.38980746 0.14318216
-0.2721108 -0.67079186 0.10191137 -0.2332798 -0.00025658522 0.3296102 0.06524187 -0.05496097
-0.08216115 -0.2732579 -0.05854861 -0.13618028 0.07667825 -0.3112562 0.17027083 -0.17025565
0.33735573 0.21122652 -0.51978195 0.15033212 -0.07085095 0.2364523 -0.2600951 0.30099174
-0.08746417 0.31349778 0.59472257 -0.27745935 -0.31545994 0.03379836 0.53659 0.10577993
-0.16898231 -0.074590154 -0.4076347 0.108850606 -0.005628991 0.3416146 -0.24948493 -0.63005596
-0.20969823 -0.033749938 0.019395582 0.14714421 0.20644273 0.17445825 0.38380897 -0.06291861
0.03226385 0.044221617 0.5459872 0.26950404 -0.13372321 -0.14862378 0.4043084 -0.16086091
0.109736964 0.21398807 0.47020108 -0.39693806 0.06404442 -0.9350864 -0.1876938 -1.0539207
0.42785954 -0.66321254 0.1716351 0.24847758 -0.19002092 0.038045842 0.09996794 0.25531375
-0.08787947 -0.35351887 0.20392236 -0.05867534 -0.19240013 -0.16490258 0.1876617 -0.428439
-0.3684651 -0.5645119 0.7264725 0.07810023 0.20533374 -0.3400126 -0.0714526 0.37644693
-0.23282556 0.0049955877 0.3305674 -0.7393442 0.3711732 -0.30371276 0.17724742 0.2201787
-0.11032342 -0.48417974 -0.4168728 0.026380472 -0.31838018 -0.31386122 -0.08581316 -0.57702005
0.51692075 0.36243865 0.3178345 0.04972239 0.021529285 -0.19487585 0.25083688 0.24552754
-0.3961577 -0.40894872 -1.8409501 0.03253839 -0.086395465 -1.1054741 -0.11756818 -0.049380083
0.34949762 -0.38039932 0.21992606 0.8659971 -1.0493727 -0.6999869 -0.31667838 -0.14929955
-0.8107091 -0.08065001 0.2735439 0.19656543 -0.11288266 0.105855554 -0.065755896 0.22829144
-0.37379256 0.076532505 -0.13870971 0.11096283 0.3330479 -0.2912111 -0.21310829 -0.27249396
-0.20053191 -0.5940659 0.83568436 -0.040302705 -0.06308994 -0.07935886 0.13446864 0.06038439
-0.108710706 0.1643582 -0.539606 -0.55980587 -0.68116176 0.22505194 -0.40759265 0.31997982
0.29760602 -0.33357674 -0.15205656 0.15138707 0.22949831 -0.12317678 0.0029931653 0.3803117
-0.012235709 -0.31906208 -0.2146338 0.0942516 -0.74588424 0.47132748 -0.24335337 -0.21877691
0.0076778145 -0.46208435 0.1734898 0.12758352 -0.03566209 0.20648687 -0.11405344 0.2617487
0.32672957 0.39849716 -0.46509588 0.21639371 0.13245356 -0.03673349 0.5127771 0.01577169
00000000: d761 393e 921d 543e d58b ecbe 9901 723e
00000010: 3b8a 52bd 05cb 3f3e b734 1d3e 375f 813e
00000020: 2d08 1dbe b929 b0be c912 41bd 123b 073e
00000030: fb84 27be 2113 773e 222d 6cbc ef75 0fbe
00000040: 77ff 593e febd a43e e554 5cbd c9c5 84bf
00000050: 99d1 ca3c 7f52 eabb b270 723e 2fe3 74be
00000060: 9030 703e fcd4 36be b765 203e 4c5a 07be
00000070: c21f ac3e d55a 2e3e 52f7 93be 556e bcbd
00000080: a80c f73d 9a22 e83e 635b a1be 888b 2cbd
00000090: 9dd2 4b3d 7176 a43d f970 5fbe 1fe0 71be
000000a0: 196e 49be 1650 3f3e 32f1 c53d f555 5bbd
000000b0: 5778 ed3e a1e5 60be 1799 b13d ec82 90bd
000000c0: 9c32 f8bd 87b2 a03e 88cd a3bd b035 2bbf
000000d0: ad52 debd 2946 d2bd 1ae6 443d 06bb 5cbe
000000e0: c87f 23bf 16dc 0fbf 259d 1a3e cef9 113b
000000f0: 13cd 2ebf 631e 163e d894 c73e 589e 123e
00000100: 1b52 8bbe 04b9 2bbf e9b6 d03d e6e0 6ebe
00000110: 4986 86b9 abc2 a83e 889d 853d c11e 61bd
00000120: 1b44 a8bd 76e8 8bbe abd0 6fbd d872 0bbe
00000130: 7d09 9d3d f95c 9fbe 7a5b 2e3e 7f57 2ebe
00000140: e4b9 ac3e c44b 583e 6e10 05bf aaf0 193e
00000150: 4e1a 91bd 8d20 723e 2f2b 85be 971b 9a3e
00000160: 6a20 b3bd c882 a03e bd3f 183f 270f 8ebe
00000170: f783 a1be 2670 0a3d f65d 093f 26a3 d83d
00000180: b309 2dbe b9c2 98bd 7fb5 d0be 11ed de3d
00000190: 6673 b8bb 1ce8 ae3e fa78 7fbe 594b 21bf
000001a0: 22bb 56be 603d 0abd 7ce3 9e3c f9ac 163e
000001b0: b965 533e 2fa5 323e 9c82 c43e 79db 80bd
000001c0: 1927 043d ba21 353d d1c5 0b3f 6ffc 893e
000001d0: bdee 08be d530 18be 8301 cf3e b9b8 24be
000001e0: c6bd e03d b01f 5b3e 32be f03e 773b cbbe
000001f0: b929 833d d361 6fbf ce32 40be e0e6 86bf
00000200: 6810 db3e 4cc8 29bf 1dc1 2f3e e870 7e3e
00000210: d894 42be f5d5 1b3d febb cc3d 7cb8 823e
00000220: 27fa b3bd 6d00 b5be 06d1 503e 8e55 70bd
00000230: 8a04 45be 39dc 28be 642a 403e 5b5c dbbe
00000240: 75a7 bcbe da83 10bf 1afa 393f 03f3 9f3d
00000250: 0243 523e 2216 aebe be55 92bd a7bd c03e
00000260: d369 6ebe 07b2 a33b 2140 a93e a945 3dbf
00000270: 6a0a be3e 3d80 9bbe 5980 353e 8676 613e
00000280: 3ff1 e1bd 68e6 f7be 5a70 d5be dc1b d83c
00000290: ba02 a3be 6bb2 a0be cfbe afbd 96b7 13bf
000002a0: eb54 043f 8f91 b93e 34bb a23e b4a9 4b3d
000002b0: 2f5e b03c 898d 47be b16d 803e 926b 7b3e
000002c0: 2fd5 cabe ba61 d1be 41a4 ebbf fa46 053d
000002d0: 1bf0 b0bd 2d80 8dbf 96c7 f0bd c542 4abd
000002e0: 5af1 b23e b3c3 c2be 4c34 613e fcb1 5d3f
000002f0: d851 86bf 5732 33bf ab23 a2be fbe1 18be
00000300: a28a 4fbf d52b a5bd f20d 8c3e 7348 493e
00000310: 062f e7bd ccca d83d 07ab 86bd 3bc5 693e
00000320: bd61 bfbe 13bd 9c3d eb09 0ebe 7b40 e33d
00000330: 4185 aa3e 9f19 95be 0f39 5abe 5484 8bbe
00000340: 3d58 4dbe b414 18bf 69ef 553f 7314 25bd
00000350: 4c35 81bd e686 a2bd 26b2 093e 9f55 773d
00000360: b8a3 debd 844d 283e 9e23 0abf 704f 0fbf
00000370: 9e60 2ebf 0474 663e fcaf d0be 65d4 a33e
00000380: d15f 983e 92ca aabe b7b4 1bbe 3605 1b3e
00000390: 9b01 6b3e 1c44 fcbd fb28 443b 37b8 c23e
000003a0: 4878 48bc 1b5c a3be f6c8 5bbe fc06 c13d
000003b0: 45f2 3ebf d651 f13e a031 79be 0e07 60be
000003c0: 2d96 fb3b 5296 ecbe 4fa7 313e 41a5 023e
000003d0: 6912 12bd 4b71 533e da94 e9bd ed03 863e
000003e0: 1949 a73e d207 cc3e 0c21 eebe 5096 5d3e
000003f0: e8a1 073e db75 16bd 5c45 033f a233 813c

x_lin.2.bias f4 [32]
-0.29317573 -0.20045705 0.12681635 0.21423726 -0.3240722 -0.3030056 -0.2645469 0.18674915
0.097054005 0.066197984 0.15517527 -0.13344923 -0.0016871938 -0.1363472 0.026795262 -0.34336898
-0.0387515 0.02242062 -0.3300676 0.10569046 -0.2088204 0.10836251 -0.27374956 -0.103210606
-0.1281544 0.032988016 -0.37257907 -0.29013214 -0.0026286768 -0.27878574 -0.21155103 0.06085657
00000000: 211b 96be 9d44 4dbe 25dc 013e 0361 5b3e
00000010: cbec a5be 8d23 9bbe b172 87be 2b3b 3f3e
00000020: 40c4 c63d cf92 873d 44e6 1e3e eaa6 08be
00000030: d424 ddba 9a9e 0bbe bd81 db3c 0fce afbe
00000040: e5b9 1ebd 73ab b73c 9ffe a8be 3d74 d83d
00000050: 04d5 55be 2aed dd3d e728 8cbe 1560 d3bd
00000060: e83a 03be 711e 073d afc2 bebe 338c 94be
00000070: e145 2cbb 01bd 8ebe d5a0 58be bd44 793d

edge_lin.0.weight f4 [32, 1, 64, 1]
0.41971475 0.3053583 0.04664356 -0.7017685 0.17388111 -0.31478548 -0.026058242 0.3608032
0.092845544 -0.107653946 -0.22662067 -0.36883897 0.44717687 -0.34325218 0.2898278 0.2408997
0.24511324 0.018270662 -0.41012353 0.54216915 -0.16475406 -0.06947858 0.25042328 0.023083689
-0.046780456 0.17770976 0.08467848 -0.037727676 -0.034845456 -0.594385 0.46309146 0.2848833
-0.023922302 0.37402478 0.08143766 -0.05879705 -0.5613629 -0.12343929 -0.31148455 -0.11308415
-0.597073 0.30184776 0.22630358 -0.5554434 -0.19317871 -0.19145973 0.41589737 0.13229819
0.23220512 -0.121039614 -0.33146426 0.0496184 0.2560079 -0.009853422 -0.09337719 0.074089475
-0.22339056 -0.23761797 -0.5692128 0.3517835 0.0781775 -0.34515563 -0.4840014 -0.16799618
-0.042192478 -0.28401276 -0.35632694 -0.4837907 0.50315887 0.007770812 0.046480916 -0.062260717
0.08080972 0.39084452 -0.16963851 -0.8283379 0.23425981 0.24481946 0.1635383 0.024230085
-0.41999966 -0.08762422 -0.19667394 0.06584335 -0.14322282 -0.24008256 -0.12050838 -0.08735386
0.2820629 0.43676817 -0.14007856 0.08876186 0.057092793 -0.15116994 -0.027393043 0.17370418
0.077913 0.030314917 -0.5000237 0.11445223 0.07838302 0.5550092 -0.13905413 -0.009147639
-0.32947385 0.0804077 0.067955956 -0.94373745 0.11474224 -0.09937311 0.33704963 0.19639705
-0.76113683 0.17758964 -0.18692303 0.15350617 0.05418363 0.29733709 0.14558153 -0.26712242
0.049809378 -0.0015254722 0.50820756 -0.08078699 -0.089614466 -0.08084355 -0.237439 0.1531825
-0.14973287 0.22038981 0.03142672 -0.17071572 -0.32157925 -0.26290837 -0.092959076 -0.010942243
0.4648834 -0.121306375 -0.25103772 -0.009220332 0.06636417 0.20074524 0.1920435 -0.3946925
0.521353 0.1675604 -0.68598175 -0.0940538 0.05393634 -0.22752506 -0.052058894 -0.07103604
-0.23316658 0.4060532 -0.040802773 -0.033228613 -0.16620521 0.3488266 0.12404533 0.5032583
-0.47898388 -0.06158394 0.12839948 0.04894346 0.095802754 -0.023093127 0.060195208 -0.04634117
0.07080091 -0.020631522 -0.54656833 -0.29539898 0.13940138 -0.5194034 -0.052797165 -0.7849812
0.10083351 0.28400686 -0.72584957 -0.46134195 -0.38869774 0.060711212 -0.35964063 0.37122607
-0.0941077 0.059994012 -0.28004247 -0.20665683 0.07911129 -0.5104443 -0.111131914 0.13656627
-0.105282456 0.1550132 -0.7751632 0.06355482 -0.7544323 -0.1511168 0.1772498 -0.76313627
-0.4836953 0.23004672 -0.36041272 0.0155607285 0.09846936 0.107171185 0.29017603 0.032638296
0.37818384 -0.289896 -0.53634375 -0.8277458 -0.08649544 -0.3753697 -0.33729103 0.021482935
0.1571064 -0.21950388 -0.67338365 -0.22111371 -0.015476509 -0.7017084 0.08794574 -0.48965666
-0.5306972 0.19629094 0.028243944 -0.4135814 0.10294218 0.17587833 0.10701029 -0.12145508
-0.2983678 -0.23951122 -0.05763006 0.13055684 0.28350687 -0.022309702 -0.29599863 0.13690343
0.26093787 -0.54204917 -0.08540121 0.005168436 -0.36361295 -0.7248154 -0.4000688 -0.2723683
0.34719357 -0.6211433 0.030778326 0.22509919 0.023361992 0.0277957 -0.22115411 -0.33021635
00000000: dae4 d63e ec57 9c3e 510d 3f3d 1aa7 33bf
00000010: e40d 323e 902b a1be 1878 d5bc 32bb b83e
00000020: ce25 be3d ac79 dcbd 400f 68be 76d8 bcbe
00000030: 5ef4 e43e c0be afbe 4f64 943e 69ae 763e
00000040: f7fe 7a3e 5bac 953c b6fb d1be 99cb 0a3f
00000050: 4ab5 28be c94a 8ebd 7b37 803e 011a bd3c
00000060: dd9c 3fbd 8cf9 353e e96b ad3d 5688 1abd
00000070: 1cba 0ebd 9e29 18bf 531a ed3e 39dc 913e
00000080: b4f8 c3bc 2d80 bf3e cac8 a63d 2dd5 70bd
00000090: 7bb5 0fbf bdcd fcbd e77a 9fbe aa98 e7bd
000000a0: c7d9 18bf ca8b 9a3e 20bc 673e 8a31 0ebf
000000b0: a4d0 45be 050e 44be 80f0 d43e 2d79 073e
000000c0: 2ec7 6d3e 9ee3 f7bd afb5 a9be aa3c 4b3d
000000d0: 7813 833e 3f70 21bc 8a3c bfbd 39bc 973d
000000e0: 7fc0 64be 2052 73be eeb7 11bf f81c b43e
000000f0: 861b a03d 3db8 b0be 08cf f7be 3107 2cbe
00000100: 05d2 2cbd 1f6a 91be 7c70 b6be 6ab3 f7be
00000110: 05cf 003f 4ca2 fe3b c662 3e3d 1805 7fbd
00000120: 917f a53d c61c c83e b8b5 2dbe f40d 54bf
00000130: cee1 6f3e f4b1 7a3e 9676 273e 2c7e c63c
00000140: 320a d7be 5474 b3bd e564 49be e1d8 863d
00000150: 01a9 12be 34d8 75be 19cd f6bd 95e6 b2bd
00000160: 8c6a 903e 14a0 df3e c170 0fbe c7c8 b53d
00000170: 22da 693d 4bcc 1abe 6067 e0bc 82df 313e
00000180: da90 9f3d fd56 f83c 8e01 00bf ee65 ea3d
00000190: 4787 a03d 1515 0e3f 3564 0ebe fbdf 15bc
000001a0: ccb0 a8be cbac a43d 7e2c 8b3d c798 71bf
000001b0: fbfd ea3d 2184 cbbd c591 ac3e 4f1c 493e
000001c0: ddd9 42bf 0fda 353e c068 3fbe b930 1d3e
000001d0: a7ef 5d3d 913c 983e 5313 153e 45c4 88be
000001e0: eb04 4c3d 5af2 c7ba e419 023f a673 a5bd
000001f0: ca87 b7bd 4e91 a5bd 3623 73be e0db 1c3e
00000200: 9353 19be dead 613e 4eb9 003d 1ad0 2ebe
00000210: 09a6 a4be ed9b 86be 5461 bebd 1847 33bc
00000220: 3205 ee3e 7a6f f8bd 0488 80be e010 17bc
00000230: f0e9 873d 2990 4d3e 0da7 443e 2315 cabe
00000240: 6477 053f f494 2b3e 809c 2fbf 479f c0bd
00000250: 5aec 5c3d 54fc 68be b53b 55bd 587b 91bd
00000260: 38c3 6ebe 34e6 cf3e cf20 27bd ba1a 08bd
00000270: b331 2abe 6699 b23e 7a0b fe3d 89d5 003f
00000280: 603d f5be 713f 7cbd 277b 033e f078 483d
00000290: 3c34 c43d cc2d bdbc 408f 763d 3dd0 3dbd
000002a0: 1100 913d 7003 a9bc e7eb 0bbf 893e 97be
000002b0: 3cbf 0e3e 9ff7 04bf d741 58bd 87f4 48bf
000002c0: cd81 ce3d 5969 913e 47d1 39bf 0335 ecbe
000002d0: 6403 c7be 52ac 783d d122 b8be 5811 be3e
000002e0: 8abb c0bd 48bc 753d ba61 8fbe d99d 53be
000002f0: 1a05 a23d 7aac 02bf 2199 e3bd 07d8 0b3e
00000300: 549e d7bd c8bb 1e3e 1871 46bf 0829 823d
00000310: 7a22 41bf 5dbe 1abe f980 353e e65c 43bf
00000320: e9a6 f7be 5e91 6b3e 0488 b8be 6df2 7e3c
00000330: 4eaa c93d 917c db3d f491 943e bcaf 053d
00000340: 50a1 c13e 406d 94be d34d 09bf 26e7 53bf
00000350: 8524 b1bd 7530 c0be 69b1 acbe fbfc af3c
00000360: 80e0 203e a0c5 60be df62 2cbf a26b 62be
00000370: 2f91 7dbc 29a3 33bf e51c b43d 47b4 fabe
00000380: c6db 07bf 7e00 493e d85f e73c f1c0 d3be
00000390: 5ad3 d23d 7319 343e 3628 db3d 71bd f8bd
000003a0: aac3 98be 6e42 75be 7f0d 6cbd b1b0 053e
000003b0: d027 913e d6c2 b6bc 228d 97be 6a30 0c3e
000003c0: a699 853e bcc3 0abf d4e6 aebd fc5b a93b
000003d0: 7a2b babe 818d 39bf d1d5 ccbe dc73 8bbe
000003e0: 5bc3 b13e 3f03 1fbf d422 fc3c 6780 663e
000003f0: a661 bf3c cfb3 e33c 3976 62be 1e12 a9be

edge_lin.0.bias f4 [32]
-0.13035662 -0.4022158 0.49069646 0.08393098 0.0077364184 -0.10987302 -0.24532117 -0.06113255
-0.14585114 0.22639751 0.04263104 0.007540267 -0.07122114 -0.25746638 0.028798286 0.1689508
0.19601311 -0.09388506 0.05897231 -0.1003996 -0.0211235 -0.3156277 -0.26337045 -0.29349354
0.5124891 -0.22762667 0.17577249 0.54362756 -0.056802593 0.09001323 0.20625275 0.21649021
00000000: 357c 05be 3bef cdbe 913c fb3e 01e4 ab3d
00000010: c881 fd3b 1b05 e1bd 7935 7bbe 2066 7abd
00000020: 005a 15be c0d4 673e e39d 2e3d 5814 f73b
00000030: 64dc 91bd a2d2 83be 62ea eb3c 7001 2d3e
00000040: a9b7 483e cf46 c0bd f38c 713d 4e9e cdbd
00000050: 310b adbc f499 a1be 7ed8 86be c944 96be
00000060: 7c32 033f f716 69be b4fd 333e 2d2b 0b3f
00000070: d6a9 68bd db58 b83d ec33 533e 9caf 5d3e

edge_lin.2.weight f4 [32, 32, 1, 1]
0.061920933 -0.29304585 -0.17103103 0.43666503 0.44663775 0.3615692 0.11973667 0.00053497497
-0.29748705 -0.44520938 -0.1566414 -0.23265436 -0.011209237 -0.58092505 -0.31797162 -0.109262414
0.40250945 0.19644311 0.31710246 0.01550725 0.44211742 -0.10110718 -0.4116254 -0.22906917
-0.14194354 -0.18345474 0.338015 0.2042472 0.042560846 -0.104435295 0.023640066 0.009695879
0.30436292 0.0740676 0.501981 0.24868843 0.48532018 -0.6939716 -0.45793104 -0.1187856
0.30833888 -0.5905998 -0.37199688 0.5674672 0.12139771 0.24654987 -0.12921564 0.1733702
0.3375979 -0.34398484 -0.08235365 -0.22808407 0.22630508 -0.0010461311 0.13352716 -0.19305138
-0.2118309 -0.30989704 0.0748241 -0.5232293 0.36485896 0.4610318 -0.5104858 -0.57384133
-0.50825983 -0.4882297 -0.07441671 0.59808683 0.5747847 -0.79679185 -0.0044444622 0.28988054
-0.39825937 -0.31670034 -0.119105 0.22024204 -0.16790876 -0.48208126 -0.30483335 -0.107480735
0.58104354 -0.1499739 0.4039558 -0.11664092 0.19445294 0.042590626 -0.6466684 0.074811354
0.10100577 -0.4073888 -0.2356266 -0.25382915 -0.06973833 0.08597531 0.38804367 0.35170573
0.03696472 0.059630353 -0.08105039 -0.17228957 -0.27292126 0.06606518 -0.43158957 0.2788541
0.30291015 0.33395517 -0.14811026 0.46639818 0.30587873 0.6994744 -0.06213832 0.19381
-0.013469285 -0.47843695 -0.11983072 0.07871658 0.16999927 0.28283936 -0.7618106 -0.013884303
0.06142338 -0.1993125 -0.16445538 0.16562802 0.006179794 -0.33743855 0.20502405 -0.34620547
-0.07936913 0.07181997 -0.6899323 -0.10573527 -0.30685043 0.20157358 -0.20131256 -0.082971916
-0.25336188 -0.20087533 0.3061114 0.48724318 -0.57749015 0.2426169 0.62876284 -0.11851615
0.34328368 0.035583552 0.10832409 0.103769936 -0.025325527 0.3135422 -0.17163086 -0.30038866
-0.20168543 0.017175037 -0.41691658 0.18882126 -0.1884853 -0.45432538 0.39163935 0.42422828
-0.18166043 -0.009651078 -0.23762602 0.01183637 0.23656821 -0.24266315 0.16960283 -0.8019469
0.33062583 -0.35563838 -0.14812744 -0.209437 -0.25410298 -0.18333443 -0.24192613 0.008858987
0.110968895 -0.3499771 -0.76349723 0.22125141 -0.31436804 0.13370019 -0.08902128 -0.08158706
-0.12533553 0.047139443 -0.07537793 0.551933 -0.71248543 -0.53730273 -0.3920377 0.027787566
-1.1362243 -1.3442148 -0.16301301 -0.10459516 0.39505237 0.008319865 0.1462191 0.07841724
0.23871832 0.19198422 0.17870298 -0.44493946 0.14380348 -0.11097577 0.09014343 -0.3521276
0.20599113 -0.109209694 -0.2696205 0.095039554 -0.52318704 -0.7823982 0.18082853 -0.6290861
0.34235638 -0.091736816 0.053555556 -0.24089856 -0.58840525 0.96751434 0.042545762 0.46362287
0.02163724 -0.13379315 -0.07555164 -0.16014236 -0.016025513 0.16236065 -0.54795647 0.45612466
0.08358423 -0.25134984 0.11011248 0.32221213 -0.01821165 -0.058585573 0.09739464 0.10806568
0.31536448 -0.43646476 -0.0034444176 -0.70057607 0.2042413 0.28786778 -0.1402489 0.059828825
0.29236445 -0.16621444 0.29801828 0.068448044 -0.14994895 0.063695975 -0.666937 0.03764099
00000000: cea0 7d3d 1b0a 96be c222 2fbe 8f92 df3e
00000010: b4ad e43e 991f b93e 8038 f53d 903d 0c3a
00000020: 3950 98be 7cf2 e3be 9a66 20be f23c 6ebe
00000030: f3a6 37bc 81b7 14bf 2dcd a2be f9c4 dfbd
00000040: b815 ce3e 6228 493e 415b a23e 1f12 7e3c
00000050: 375d e23e 4811 cfbd 90c0 d2be 1c91 6abe
00000060: a659 11be 8fdb 3bbe 4d10 ad3e 2e26 513e
00000070: 4854 2e3d 2ce2 d5bd d0a8 c13c 77db 1e3c
00000080: 75d5 9b3e c1b0 973d d481 003f 2ea8 7e3e
00000090: e37b f83e 1fa8 31bf f075 eabe dd45 f3bd
000000a0: 98de 9d3e 8c31 17bf 6076 bebe 8845 113f
000000b0: 5d9f f83d 9277 7c3e 1b51 04be f587 313e
000000c0: a2d9 ac3e c81e b0be 08a9 a8bd df8e 69be
000000d0: 85bc 673e 561e 89ba 58bb 083e 43af 45be
000000e0: 33ea 58be d3aa 9ebe 613d 993d 5bf2 05bf
000000f0: cbce ba3e 5c0c ec3e 33af 02bf 44e7 12bf
00000100: 511d 02bf 3ef9 f9be ca67 98bd 381c 193f
00000110: 1725 133f 8dfa 4bbf daa2 91bb 396b 943e
00000120: a7e8 cbbe 8c26 a2be 52ed f3bd 2187 613e
00000130: 46f0 2bbe 5bd3 f6be 1e13 9cbe dc1e dcbd
00000140: 45bf 143f c292 19be 4bd3 ce3e 6fe1 eebd
00000150: ac1e 473e 8273 2e3d 0f8c 25bf b236 993d
00000160: 1ddc ce3d 4495 d0be 1948 71be e5f5 81be
00000170: f8d2 8ebd d313 b03d a9ad c63e c612 b43e
00000180: 5168 173d f53e 743d bffd a5bd ad6c 30be
00000190: 56bc 8bbe 2e4d 873d 4ff9 dcbe f7c5 8e3e
000001a0: 0a17 9b3e 2cfc aa3e 37aa 17be becb ee3e
000001b0: 239c 9c3e c110 333f c084 7ebd 2176 463e
000001c0: 47ae 5cbc b0f5 f4be cf69 f5bd 2936 a13d
000001d0: 4a14 2e3e 52d0 903e 0506 43bf fd7a 63bc
000001e0: 1597 7b3d 9318 4cbe fe66 28be 649a 293e
000001f0: df7f ca3b bfc4 acbe d3f1 513e d841 b1be
00000200: 488c a2bd 5916 933d 679f 30bf bc8b d8bd
00000210: 801b 9dbe 4e69 4e3e e124 4ebe 2eed a9bd
00000220: a6b8 81be 43b2 4dbe a2ba 9c3e f077 f93e
00000230: 65d6 13bf 9170 783e 9af6 203f 98b8 f2bd
00000240: e1c2 af3e 0fc0 113d 05d9 dd3d 5585 d43d
00000250: 7b77 cfbc 9a88 a03e 00c0 2fbe 8bcc 99be
00000260: a086 4ebe aab2 8c3c 1776 d5be 5c5a 413e
00000270: 4a02 41be 569d e8be f484 c83e 7334 d93e
00000280: 3105 3abe 8e1f 1ebc 3c54 73be 56ed 413c
00000290: f03e 723e b07c 78be 5dac 2d3e 644c 4dbf
000002a0: ca47 a93e 3c16 b6be b8ae 17be a776 56be
000002b0: c919 82be 05bc 3bbe 7cbb 77be 4925 113c
000002c0: a943 e33d 3330 b3be 8e74 43bf bb8f 623e
000002d0: d9f4 a0be b4e8 083e ca50 b6bd 1e17 a7bd
000002e0: f557 00be 4a15 413d bf5f 9abd 7b4b 0d3f
000002f0: 7265 36bf ac8c 09bf 2ab9 c8be c0a2 e33c
00000300: cc6f 91bf 3b0f acbf e2ec 26be fd35 d6bd
00000310: 4e44 ca3e 0b50 083c 76ba 153e 3899 a03d
00000320: 9372 743e 8397 443e eafd 363e 1bcf e3be
00000330: 3841 133e 4447 e3bd 1e9d b83d 124a b4be
00000340: 57ef 523e 55a9 dfbd b30b 8abe 19a4 c23d
00000350: 96ef 05bf 404b 48bf 1d2b 393e c90b 21bf
00000360: 5649 af3e 83e0 bbbd 125d 5b3d 1dae 76be
00000370: baa1 16bf 05af 773f 7744 2e3d fa5f ed3e
00000380: 9540 b13c 1201 09be d1ba 9abd 5cfc 23be
00000390: f047 83bc df41 263e e046 0cbf 2c89 e93e
000003a0: 352e ab3d edb0 80be a782 e13d fdf8 a43e
000003b0: 9930 95bc 6df7 6fbd d776 c73d 8a51 dd3d
000003c0: 7477 a13e 4f78 dfbe bdbb 61bb f458 33bf
000003d0: a224 513e 6863 933e 689d 0fbe 120f 753d
000003e0: cbb0 953e 1e34 2abe da95 983e 7d2e 8c3d
000003f0: 388c 19be 0973 823d 62bc 2abf 702d 1a3d

edge_lin.2.bias f4 [32]
0.23520966 -0.2591573 0.43896008 0.29381862 -0.080022775 -0.41008306 -0.123061046 0.28762466
-0.19950716 -0.0011367908 -0.3704935 -0.09312886 -0.38362327 0.33730492 0.3706941 0.16809058
0.16761151 -0.45285952 -0.32765225 -0.47628304 -0.28022316 -0.5389075 -0.23188846 -0.3042894
-0.004948182 -0.08127286 -0.29500458 0.34912527 -0.1502252 0.082876556 0.0525356 0.4843159
00000000: cdda 703e 44b0 84be 60bf e03e 656f 963e
00000010: fbe2 a3bd 68f6 d1be 6e07 fcbd 8a43 933e
00000020: 9b4b 4cbe 5f00 95ba 53b1 bdbe 58ba bebd
00000030: 456a c4be 3bb3 ac3e 9ecb bd3e f01f 2c3e
00000040: 5aa2 2b3e 34dd e7be 09c2 a7be 5fdb f3be
00000050: 6979 8fbe d8f5 09bf 2b74 6dbe d2cb 9bbe
00000060: 5c24 a2bb 6372 a6bd d70a 97be 8cc0 b23e
00000070: a3d4 19be 2fbb a93d 922f 573d 41f8 f73e

vertex_output_lin.0.weight f4 [32, 1, 32, 1]
-0.052430645 0.1432545 0.2173956 0.17843556 0.07930434 -0.2995111 -0.3566712 0.37713057
-0.8038878 0.19422069 -0.0062846136 0.2139673 -0.51694834 0.24842429 0.35311216 0.03740163
0.15680109 -0.11343282 0.042751975 0.16803369 -0.028409902 -0.25574043 -0.29220223 -0.18911079
-0.15115216 0.14352551 -0.09099973 -0.2761629 -0.2381873 -0.052474305 -0.1741421 -0.051962305
-0.15714665 -0.022962691 0.082671836 -0.29412162 -0.17235336 0.102533214 -0.11140212 0.02036951
0.101969324 -0.07636373 0.0017688558 -0.053276304 -0.20815027 0.08696366 -0.21026638 0.08123957
-0.24591695 -0.05531769 -0.07999505 -0.00985709 -0.02568757 -0.08417305 -0.008494959 -0.06445373
-0.0047654505 0.1142382 -0.020410946 -0.15116641 0.056688707 0.029379787 -0.1616678 0.09057693
0.025203567 -0.012215166 0.57718295 -0.15688694 0.2863955 -1.00704 0.58843535 -0.12533928
-0.17172064 -0.6597514 -0.29298818 0.24614999 -0.48319206 -0.612426 0.21507362 0.15067409
0.25044924 0.01476569 0.28734052 0.35897443 -0.12112238 0.057293378 -0.5101519 -0.07575039
0.0058100307 -0.01790251 -0.27453172 0.18423986 -0.50119865 -0.107837565 -1.1300765 0.3078082
0.017525328 0.033336166 0.4948437 -0.051492203 0.21924493 -0.1813845 0.51319677 0.30903363
-0.6087764 0.6594691 0.10648289 -0.30065235 0.30754855 0.47028482 -0.9545211 0.05258955
0.19826074 -0.3083294 0.040311642 0.45702457 0.040750433 0.14211784 0.26438537 -0.24841833
0.2786491 -0.13281453 0.96207625 -0.29949644 0.178154 0.19674243 -0.1357176 0.37308466
-0.37841138 0.12720259 -0.015023439 0.06100407 -0.15680857 -0.06734428 -0.11892481 -0.3573034
-0.11329769 0.016865078 -0.10266222 0.02085267 -0.1105676 -0.14180778 -0.099753454 -0.13175897
-0.4164712 0.008063341 0.2498911 0.04069298 -0.055490885 0.10866927 -0.2551197 -0.07663628
-0.32903084 -0.24125223 -0.11811339 -0.2019592 -0.16068904 -0.2230071 0.13079369 0.08959758
0.06901718 -0.33038834 -0.12223385 0.031080462 0.1622531 -0.22210939 0.108084306 -0.29739037
0.1561569 0.17386132 -0.075112 -0.33668143 -0.8028772 -0.36744076 -0.09484043 -0.1578439
-0.010717224 -0.24846905 -0.4585276 0.17015411 0.24321273 -0.522013 -0.08545921 -0.38466588
0.00968253 -0.28091896 0.3153911 0.16579877 0.05261234 -0.7655153 -0.17341398 -0.4856073
-0.18564054 -0.21271573 -0.039373826 -0.141581 -0.098922156 -0.16454054 0.3708236 -0.24231899
-0.018223843 -0.32342944 -0.13229816 0.08978291 0.083511546 0.24256748 0.15055464 -0.20124534
0.10412979 -0.41877106 -0.6038361 0.46953064 0.09203277 0.7347992 0.62258667 -0.70513695
0.35888466 -0.49462512 0.5438354 0.5102182 0.14558077 0.48771486 0.4724324 0.6347212
0.15602063 -0.78688973 -0.14817305 -0.00054426485 -0.26790842 0.05352114 -0.07785271 -1.0290467
0.10748884 -0.10041396 -0.15172435 0.2986109 -0.13613477 0.1860147 0.2088813 -1.0019238
-0.51445556 -0.110857345 -1.3178912 0.09833907 0.037611634 0.15265304 0.13577332 -0.007682511
0.22602257 -0.4280712 0.7727303 0.2537094 -0.40901455 -0.027638748 0.23957878 0.5691097
00000000: 84c1 56bd 4fb1 123e f49c 5e3e d0b7 363e
00000010: 506a a23d 8559 99be 9c9d b6be 4217 c13e
00000020: 97cb 4dbf cae1 463e 29ef cdbb 3e1a 5b3e
00000030: ba56 04bf f062 7e3e 1ecb b43e 7432 193d
00000040: 7790 203e 774f e8bd b21c 2f3d 0611 2c3e
00000050: e2bb e8bc 69f0 82be 889b 95be 42a6 41be
00000060: a2c7 1abe 5af8 123e 115e babd 3965 8dbe
00000070: 5fe7 73be 4cef 56bd 4f52 32be 6dd6 54bd
00000080: 0deb 20be 411c bcbc da4f a93d 1c97 96be
00000090: 667d 30be effc d13d cb26 e4bd f5dd a63c
000000a0: 4bd5 d03d 9664 9cbd f4d8 e73a 4138 5abd
000000b0: 5825 55be 011a b23d 1250 57be ef60 a63d
000000c0: a7d1 7bbe cd94 62bd 72d4 a3bd a27f 21bc
000000d0: bd6e d2bc ec62 acbd 712e 0bbc 5100 84bd
000000e0: 7f27 9cbb b8f5 e93d db34 a7bc 5ecb 1abe
000000f0: 6b32 683d e1ad f03c 3e8c 25be 6680 b93d
00000100: b677 ce3c 1f22 48bc 43c2 133f f8a6 20be
00000110: 6ea2 923e b0e6 80bf b3a3 163f f158 00be
00000120: 89d7 2fbe 78e5 28bf 8c02 96be be0e 7c3e
00000130: f364 f7be f3c7 1cbf 423c 5c3e 4f4a 1a3e
00000140: e23a 803e cbeb 713c 4c1e 933e 7fcb b73e
00000150: 030f f8bd 76ac 6a3d 5199 02bf 0523 9bbd
00000160: 1262 be3b 49a8 92bc 6c8f 8cbe 60a9 3c3e
00000170: 8e4e 00bf f1d9 dcbd 59a6 90bf 0999 9d3e
00000180: 4791 8f3c 818b 083d 275c fd3e 7de9 52bd
00000190: be81 603e dcbc 39be dd60 033f a839 9e3e
000001a0: c5d8 1bbf f8d2 283f b413 da3d 1bef 99be
000001b0: 0177 9d3e 2cc9 f03e 7f5b 74bf 2468 573d
000001c0: dd04 4b3e 5add 9dbe d21d 253d 20ff e93e
000001d0: ede9 263d 5787 113e 855d 873e 6061 7ebe
000001e0: 18ab 8e3e 8800 08be a14a 763f 9957 99be
000001f0: 016e 363e d976 493e 8ef9 0abe f404 bf3e
00000200: 23bf c1be 6541 023e df24 76bc 67df 793d
00000210: 6d92 20be cceb 89bd da8e f3bd 79f0 b6be
00000220: 9f08 e8bd a228 8a3c 9240 d2bd 38d3 aa3c
00000230: 4471 e2bd 0f36 11be 8a4b ccbd d3eb 06be
00000240: b73b d5be 1a1c 043c 74e3 7f3e afad 263d
00000250: 694a 63bd ff8d de3d 0d9f 82be 7bf3 9cbd
00000260: bb76 a8be d30a 77be 6fe5 f1bd 64ce 4ebe
00000270: ab8b 24be f95b 64be c8ee 053e f07e b73d
00000280: e158 8d3d a928 a9be be55 fabd 749c fe3c
00000290: ad25 263e a570 63be 4e5b dd3d 8d43 98be
000002a0: 98e7 1f3e b408 323e 52d4 99bd 8261 acbe
000002b0: 5c89 4dbf 3221 bcbe b33b c2bd d5a1 21be
000002c0: 4c97 2fbc ac6e 7ebe 21c4 eabe e13c 2e3e
000002d0: c20c 793e a5a2 05bf 3d05 afbd edf2 c4be
000002e0: 79a3 1e3c 9cd4 8fbe f17a a13e 27c7 293e
000002f0: 0980 573d d0f8 43bf 6f93 31be 85a1 f8be
00000300: 8e18 3ebe 27d2 59be 7346 21bd 9cfa 10be
00000310: b397 cabd 517d 28be 97dc bd3e 7822 78be
00000320: 2b4a 95bc 8b98 a5be 2b79 07be 1ae0 b73d
00000330: 1a08 ab3d 9c63 783e ff2a 1a3e 4213 4ebe
00000340: 0042 d53d 2969 d6be 0195 1abf 5266 f03e
00000350: ad7b bc3d cd1b 3c3f d761 1f3f db83 34bf
00000360: bbbf b73e 813f fdbe cc38 0b3f a99d 023f
00000370: 2013 153e c3b5 f93e a9e2 f13e 177d 223f
00000380: dfc3 1f3e 9b71 49bf adba 17be ffac 0eba
00000390: 4b2b 89be fc38 5b3d 3e71 9fbd cdb7 83bf
000003a0: 1c23 dc3d d6a5 cdbd a15d 1bbe 87e3 983e
000003b0: ea66 0bbe a37a 3e3e fbe4 553e 0a3f 80bf
000003c0: 5cb3 03bf 2d09 e3bd a9b0 a8bf ff65 c93d
000003d0: a80e 1a3d 1451 1c3e 2908 0b3e 93bd fbbb
000003e0: 7672 673e 262c dbbe a7d1 453f 33e6 813e
000003f0: 5b6a d1be a86a e2bc 2454 753e 2cb1 113f

vertex_output_lin.0.bias f4 [32]
0.13621594 -0.33900696 0.19037086 -0.07229857 -0.038158827 -0.25265893 0.17900409 0.21057925
0.05990547 -0.10991246 0.3523167 -0.43015337 -0.25878018 0.16846772 -0.12973478 0.42946836
-0.07615025 0.32329458 0.20953164 0.45959738 0.08043338 0.24210772 0.21249045 0.084691264
0.138532 0.20839144 0.31093174 0.1010458 -0.1806576 0.11471402 0.26006377 -0.24811068
00000000: 317c 0b3e 5292 adbe 94f0 423e 4611 94bd
00000010: 6e4c 1cbd 835c 81be d94c 373e 16a2 573e
00000020: 705f 753d c919 e1bd db62 b43e 103d dcbe
00000030: d67e 84be cd82 2c3e 32d9 04be 47e3 db3e
00000040: aaf4 9bbd de86 a53e 768f 563e 5950 eb3e
00000050: 42ba a43d 16eb 773e 1997 593e 9d72 ad3d
00000060: 55db 0d3e 9164 553e 7232 9f3e 1af1 ce3d
00000070: 4efe 38be 2fef ea3d 1427 853e ba10 7ebe

vertex_output_lin.2.weight f4 [1, 32, 1, 1]
-0.09143435 0.01269511 -0.31522045 0.16887818 -0.1026652 0.44369087 0.4047626 0.4489178
-0.17789003 -0.03558099 0.30783957 -0.42159238 0.022728413 -0.0240625 0.9167395 0.39801896
0.014945852 0.26393476 -0.43146387 -0.2956002 0.016427383 0.4798051 -0.27426422 -0.12922472
-0.19586423 0.7459778 0.79186875 0.48650223 0.04054996 0.14602506 0.34140497 0.3547703
00000000: ef41 bbbd 27ff 4f3c 9364 a1be 67ee 2c3e
00000010: 2242 d2bd 732b e33e 0b3d cf3e 8ed8 e53e
00000020: ce28 36be 5fbd 11bd 269d 9d3e f5da d7be
00000030: f030 ba3c b81e c5bc 71af 6a3f 24c9 cb3e
00000040: 72df 743c 7522 873e d5e8 dcbe e958 97be
00000050: b892 863c 04a9 f53e 5c6c 8cbe 7c53 04be
00000060: a290 48be 67f8 3e3f e9b7 4a3f d216 f93e
00000070: b717 263d 9887 153e a2cc ae3e 74a4 b53e

graph_output_lin.0.weight f4 [1, 618]
-0.24721622 -0.2726232 -0.095055476 -0.16352698 -0.11911416 0.09410054 0.0055631427 -0.016247561
-0.07466255 -0.23637687 0.25936472 0.112525545 -0.34189743 0.4128571 0.085489765 0.022222217
0.15670687 0.0074696587 -0.051983524 0.14567482 -0.4649718 -0.02098065 -0.1766779 -0.11617425
0.08852568 -0.26847678 -0.14083432 -0.114932105 0.05801959 0.12489315 -0.030062368 0.0031071743
-0.038142286 -0.061555173 0.2983504 -0.014464652 -0.043349586 0.15736304 0.14967585 0.0020174007
-0.08862493 -0.012865595 0.10181964 0.2643334 0.029059611 0.2040964 0.156591 0.21337853
-0.29215062 0.0020295873 0.040528096 0.21544838 -0.020516114 0.2913911 -0.19457091 0.13491942
-0.41889015 0.16469549 0.04413417 -0.2794291 0.067449875 -0.05454831 -0.24058785 -0.41302955
-0.304719 -0.0845516 0.24002372 0.19918337 0.35296217 -0.15963553 0.096802585 -0.27339897
-0.081590325 0.10644682 -0.31328744 -0.16597292 -0.06557682 -0.06667994 0.24857546 0.48765004
-0.354842 0.39776927 0.5349262 0.18168391 0.11299633 -0.025073394 -0.022143178 -0.00032776626
0.14949301 -0.018501194 0.084753565 -0.008128635 -0.17313269 -0.18951884 0.01905447 -0.026776988
-0.23902978 0.04604328 -0.36888418 0.069801815 -0.27372387 0.0037547706 -0.12993526 -0.22315398
0.27950004 0.0009749307 0.10769201 -0.23211637 0.008428281 -0.15310977 0.075700484 -0.23062192
-0.021628248 -0.27636814 0.6460833 0.15619114 -0.121779345 -0.078715004 -0.1402505 -0.0545582
0.024338538 -0.10857551 0.007294743 -0.41640207 -0.018651888 -0.30361158 -0.15448979 -0.064281836
-0.27459896 -0.18776846 -0.08524345 -0.04625419 -0.09406583 0.26065025 0.31856257 -0.32725337
-0.5353511 -0.033975814 0.005139306 -0.17257854 0.09359082 0.38565665 0.29872015 0.2472124
0.30583635 0.08715953 0.31753477 0.3022429 -0.20380163 -0.16776635 -0.033118784 0.32130358
-0.15204054 -0.026870422 0.06684739 0.20959078 0.1449413 -0.41529822 -0.07246965 -0.1275895
0.009029828 0.09261993 0.13106753 0.59524256 0.38546726 0.21487334 0.04878977 -0.028911032
-0.06386987 0.31388173 0.4134466 0.1242166 -0.20915572 0.1568944 0.1171023 -0.06423635
-0.09889397 0.49011382 -0.26073766 0.13746783 -0.020218266 0.1216329 -0.20823313 0.089156345
-0.11875918 0.103650056 -0.9082487 0.26779076 0.25300908 0.22447567 -0.27662456 0.67578423
-0.04534778 0.044128235 -0.15847743 -0.32048336 -0.14636979 0.022202283 -0.11524563 -0.104226336
-0.016632032 -0.06337542 0.23074402 -0.58414626 0.30891085 0.64586806 0.057375595 0.051868692
0.0034090786 0.14890641 0.2909737 0.10221134 -0.16797875 0.13544454 0.19812393 0.0101778405
-0.11014571 0.062089026 0.11036385 -0.03256205 -0.07273338 -0.05679757 0.039422717 0.034605168
-0.28531078 0.22163504 0.022094304 0.16391748 0.09695461 -0.17531633 -0.00849209 0.057499163
0.017173205 -0.23704155 -0.0946822 -0.05368569 0.061417162 -0.628191 0.0060571446 -0.39280868
0.1482583 -0.20464239 0.3283817 -0.22207864 -0.0715901 -0.12173773 -0.34519753 0.20673788
-0.30646718 -0.2899926 0.09613754 0.17408702 -0.24426885 -0.0096377395 0.024916066 0.015015508
00000000: 4026 7dbe 4595 8bbe 72ac c2bd 9e73 27be
00000010: 20f2 f3bd c9b7 c03d 064b b63b 9b19 85bc
00000020: aee8 98bd c70c 72be 74cb 843e cb73 e63d
00000030: 2e0d afbe 0162 d33e 4215 af3d 5e0b b63c
00000040: c477 203e 0ac4 f43b adec 54bd c82b 153e
00000050: c910 eebe 9ddf abbc 0deb 34be c4ec edbd
00000060: f44c b53d ca75 89be df36 10be 8661 ebbd
00000070: f3a5 6d3d fbc7 ff3d 5b45 f6bc bca1 4b3b
00000080: 163b 1cbd 4721 7cbd 62c1 983e 26fd 6cbc
00000090: 568f 31bd c723 213e a044 193e 5e36 043b
000000a0: fd80 b5bd 37ca 52bc d186 d03d b556 873e
000000b0: 6c0e ee3c a6fe 503e 6459 203e e77f 5a3e
000000c0: c494 95be d302 053b ca00 263d 809e 5c3e
000000d0: 6911 a8bc 3731 953e 993d 47be 5128 0a3e
000000e0: c578 d6be efa5 283e 08c6 343d 5511 8fbe
000000f0: 2923 8a3d 0c6e 5fbd a95c 76be 9c78 d3be
00000100: 2104 9cbe 6429 adbd c7c8 753e baf6 4b3e
00000110: 75b7 b43e 7f77 23be 6f40 c63d f3fa 8bbe
00000120: d418 a7bd ca00 da3d 3667 a0be cef4 29be
00000130: 244d 86bd 7e8f 88bd 918a 7e3e 44ad f93e
00000140: daad b5be 6aa8 cb3e ecf0 083f 590b 3a3e
00000150: 9f6a e73d b866 cdbc 9c65 b5bc 0bd8 abb9
00000160: b214 193e d18f 97bc 4793 ad3d f72d 05bc
00000170: b249 31be 3a11 42be 1f18 9c3c 6a5b dbbc
00000180: 39c4 74be e197 3c3d 63de bcbe 41f4 8e3d
00000190: 8925 8cbe 9912 763b c00d 05be 7a82 64be
000001a0: a11a 8f3e 7e92 7f3a a18d dc3d eaaf 6dbe
000001b0: c616 0a3c cfc8 1cbe db08 9b3d 2728 6cbe
000001c0: b92d b1bc 2080 8dbe b765 253f 92f0 1f3e
000001d0: 7367 f9bd 5535 a1bd d49d 0fbe 6b78 5fbd
000001e0: 9d61 c73c d65c debd bd08 ef3b a732 d5be
000001f0: d8cb 98bc fa72 9bbe 9232 1ebe 32a6 83bd
00000200: 3c98 8cbe 6046 40be 1e94 aebd 0975 3dbd
00000210: 96a5 c0bd f373 853e a21a a33e c18d a7be
00000220: c50c 09bf 392a 0bbd a067 a83b 6eb8 30be
00000230: 8bac bf3d ca74 c53e d9f1 983e 3f25 7d3e
00000240: 9596 9c3e b280 b23d eb93 a23e 95bf 9a3e
00000250: 60b1 50be f1ca 2bbe 90a7 07bd e781 a43e
00000260: 84b0 1bbe 5c1f dcbc 49e7 883d f79e 563e
00000270: 7e6b 143e f8a1 d4be f86a 94bd d2a6 02be
00000280: d8f1 133c 85af bd3d 9136 063e d161 183f
00000290: f75b c53e c207 5c3e c8d7 473d d4d6 ecbc
000002a0: 35ce 82bd 1bb5 a03e 46af d33e 4665 fe3d
000002b0: eb2c 56be eda8 203e 55d3 ef3d 598e 83bd
000002c0: ec88 cabd 33f0 fa3e 687f 85be 5ec4 0c3e
000002d0: c7a0 a5bc ab1a f93d 113b 55be 9a97 b63d
000002e0: 0338 f3bd 7b46 d43d fd82 68bf df1b 893e
000002f0: 688a 813e f3dc 653e bca1 8dbe 3200 2d3f
00000300: 98be 39bd cfbf 343d e847 22be 6516 a4be
00000310: f6e1 15be 90e1 b53c e705 ecbd 9e74 d5bd
00000320: e63f 88bc f9ca 81bd 2948 6c3e 9c8a 15bf
00000330: 9029 9e3e 9c57 253f ac02 6b3d 4474 543d
00000340: d96a 5f3b ec7a 183e 81fa 943e 2e54 d13d
00000350: 9f02 2cbe f9b1 0a3e 00e1 4a3e f5c0 263c
00000360: 1394 e1bd 1051 7e3d 7106 e23d c95f 05bd
00000370: 3df5 94bd 92a4 68bd b779 213d 26be 0d3d
00000380: 4114 92be 4cf4 623e 1dff b43c fcd9 273e
00000390: 2390 c63d 2086 33be 6822 0bbc 3e84 6b3d
000003a0: d2ae 8c3c 05bb 72be bee8 c1bd 87e5 5bbd
000003b0: 9090 7b3d 20d1 20bf 037b c63b 381e c9be
000003c0: 06d1 173e c68d 51be a521 a83e 9568 63be
000003d0: d59d 92bd a251 f9bd bbbd b0be 18b3 533e
000003e0: 44e9 9cbe e979 94be c2e3 c43d de43 323e
000003f0: 9d21 7abe 9ce7 1dbc c71c cc3c 9b03 763c

x_lin_after_first_round.0.weight f4 [32, 1, 1, 32]
-0.15031359 0.034299403 0.08980544 0.121264264 -0.07781847 -0.04638554 0.0018167645 -0.04024373
-0.024626926 0.06023647 -0.093538456 -0.17376566 0.08836557 0.0034840703 0.022420377 -0.040347606
0.035794243 0.095458284 0.014756724 -0.049261674 0.14134355 -0.17394616 -0.07432441 -0.11459102
0.08704223 0.09958877 -0.13223457 0.023203477 -0.11696869 -0.121067956 0.13732003 0.078622624
0.113919094 -0.05553159 0.05446732 -0.05611954 -0.14253792 0.058320865 0.10689108 -0.048402205
-0.090681136 0.01862061 0.12408103 -0.16771236 -0.011970654 -0.0538702 -0.024669126 -0.1192061
0.14639492 0.05422926 0.08117549 0.11869316 -0.13247705 -0.09785238 0.03588988 -0.02060543
0.118973985 -0.17286088 0.13378333 0.030107453 -0.03396988 0.0112244785 0.163105 -0.116236664
-0.016989842 -0.11213881 0.06658363 0.096769646 0.15402131 -0.12539372 -0.0714168 -0.13432875
0.16023456 0.01679413 0.14789529 0.06076239 0.03173402 0.16324507 -0.09068335 -0.14949477
-0.13359883 -0.00088840723 0.14145564 0.14078502 -0.053079046 -0.14893478 0.05281268 0.024402231
-0.0043147057 -0.14998472 -0.06979248 0.122301176 -0.07971948 0.16692282 -0.14484459 0.07302767
0.051903993 -0.0378979 0.03453885 0.008444503 -0.02267623 0.13987903 0.054240122 -0.08676915
0.0578821 0.12902917 -0.025894016 0.021804646 0.14900492 -0.015323788 0.14596902 0.15343694
0.14966299 0.17578419 0.10393648 0.14239691 0.16526149 -0.11047694 -0.028972551 -0.13101055
0.15267475 0.049623236 0.031738788 0.16369368 0.016327336 -0.07485921 0.08935912 0.06742732
0.040994912 -0.17536804 -0.01781705 0.027935222 0.17616679 0.046624377 0.051365167 -0.17073867
-0.09365664 0.113468245 -0.17234913 0.10915296 0.08140458 -0.007265568 -0.062054068 0.015902787
-0.08589703 0.05523798 -0.048209965 -0.11813797 -0.07058394 -0.09988929 0.06427254 -0.042255
-0.053635597 0.15016879 -0.1326375 -0.10905739 -0.16030769 0.023675114 -0.15028843 0.13243677
-0.0761478 0.010255039 0.14625265 0.025803208 0.032266155 0.077698484 -0.025137708 -0.100086965
-0.15888342 0.16919713 -0.010439336 -0.042135864 0.06348081 -0.06225197 0.15501742 -0.16793886
0.1622463 0.17154308 0.00936313 0.1181065 -0.13316858 0.09205328 -0.062203668 0.016424984
0.14066185 -0.1752518 0.010980979 -0.05910185 0.16486697 -0.02595289 -0.037271023 0.10085221
0.05087249 0.03671953 -0.16281587 -0.03256266 -0.087504655 -0.02537328 0.09867202 0.030206248
-0.16863206 0.02048847 0.053436577 0.0026677847 -0.17345889 -0.17303424 0.11267899 0.17189325
0.10811089 -0.17077123 -0.041414484 -0.024239436 -0.12174737 0.15668882 0.024029568 0.09069811
0.114801094 0.16034956 -0.0013606101 0.11708419 -0.14586882 0.06359567 -0.02568303 0.04011385
-0.13665459 -0.1285034 -0.00980708 0.058493003 -0.17545535 -0.067298904 -0.06542581 -0.03289698
-0.07153399 0.17501472 0.07251264 0.0040448755 -0.10454439 0.020524591 -0.024832666 0.17560472
-0.007823676 0.14069064 -0.02830708 -0.09215164 -0.042946815 0.16814338 0.109714344 0.08701263
0.15254049 -0.01848434 -0.041164234 0.13868673 -0.10304188 0.11538516 -0.13368452 0.08002134
00000000: ceeb 19be 887d 0c3d eaeb b73d 6659 f83d
00000010: 4a5f 9fbd c4fe 3dbd 8020 ee3a 9cd6 24bd
00000020: 68be c9bc 84ba 763d 1791 bfbd a0ef 31be
00000030: 02f9 b43d 0055 643b f0aa b73c 8843 25bd
00000040: fc9c 123d a27f c33d 30c6 713c 9cc6 49bd
00000050: 5dbc 103e f11e 32be 6537 98bd b2ae eabd
00000060: 3243 b23d 32f5 cb3d 8068 07be 3815 be3c
00000070: 488d efbd 7af2 f7bd 9f9d 0c3e e604 a13d
00000080: 6a4e e93d 1875 63bd 2019 5f3d 9add 65bd
00000090: 76f5 11be dce1 6e3d b6e9 da3d 6441 46bd
000000a0: 08b7 b9bd 408a 983c 321e fe3d cabc 2bbe
000000b0: 9020 44bc 00a7 5cbd e816 cabc 5422 f4bd
000000c0: 8de8 153e 801f 5e3d 563f a63d 6615 f33d
000000d0: 10a8 07be d466 c8bd 4401 133d b8cc a8bc
000000e0: a2a8 f33d 7102 31be 7ffe 083e e8a3 f63c
000000f0: 0024 0bbd e0e6 373c ff04 273e 7d0d eebd
00000100: 482e 8bbc 08a9 e5bd 005d 883d 2a2f c63d
00000110: c3b7 1d3e 3667 00be f942 92bd 7a8d 09be
00000120: 8714 243e d893 893c dd71 173e fce1 783d
00000130: 88fb 013d b729 273e 31b8 b9bd 2815 19be
00000140: 22ce 08be 00e4 68ba bfd9 103e f329 103e
00000150: 6a69 59bd 5c82 18be 1c52 583d 30e7 c73c
00000160: 6062 8dbb 9895 19be 5cef 8ebd 0a79 fa3d
00000170: f743 a3bd d1ed 2a3e 2452 14be 888f 953d
00000180: 4899 543d d43a 1bbd 9c78 0d3d d05a 0a3c
00000190: 80c3 b9bc 733c 0f3e e42a 5e3d 06b4 b1bd
000001a0: c815 6d3d 3920 043e b01f d4bc a89f b23c
000001b0: bf94 183e a010 7bbc e778 153e 931e 1d3e
000001c0: 4141 193e c500 343e a6dc d43d 7fd0 113e
000001d0: 4f3a 293e bc41 e2bd d857 edbc a127 06be
000001e0: c556 1c3e bc41 4b3d 8800 023d 519f 273e
000001f0: e8c0 853c c94f 99bd ea01 b73d 5617 8a3d
00000200: 48ea 273d ae93 33be 10f5 91bc 68d8 e43c
00000210: 1165 343e 34f9 3e3d 4864 523d 1ed6 2ebe
00000220: 0dcf bfbd 0a62 e83d 4a7c 30be 968b df3d
00000230: 72b7 a63d 0014 eebb 682c 7ebd 9046 823c
00000240: c8ea afbd 3841 623d d077 45bd 52f2 f1bd
00000250: 508e 90bd c292 ccbd 52a1 833d 9413 2dbd
00000260: 00b1 5bbd d9c5 193e 20d2 07be 7b59 dfbd
00000270: b327 24be 50f2 c13c 36e5 19be 819d 073e
00000280: 61f3 9bbd c004 283c 41c3 153e 4061 d33c
00000290: 8429 043d 6220 9f3d 98ed cdbc 65fa ccbd
000002a0: 56b2 22be 0342 2d3e c009 2bbc a896 2cbd
000002b0: 3a02 823d ecfb 7ebd e3bc 1e3e 2af8 2bbe
000002c0: e523 263e fda8 2f3e d067 193c d2e1 f13d
000002d0: 585d 08be 6e86 bc3d 46c9 7ebd b08d 863c
000002e0: a909 103e 3575 33be 90e9 333c c814 72bd
000002f0: e3d2 283e 289b d4bc 80a9 18bd 9a8b ce3d
00000300: ac5f 503d 3867 163d 34b9 26be 6c60 05bd
00000310: a435 b3bd a0db cfbc 8e14 ca3d 1873 f73c
00000320: e2ad 2cbe 70d7 a73c 50e0 5a3d 00d6 2e3b
00000330: 359f 31be e32f 31be 3ec4 e63d c904 303e
00000340: 3e69 dd3d a7de 2ebe 3ca2 29bd c891 c6bc
00000350: af56 f9bd 0973 203e a8d9 c43c eebf b93d
00000360: d61c eb3d ad32 243e 8056 b2ba d6c9 ef3d
00000370: a35e 15be 723e 823d 3865 d2bc 6c4e 243d
00000380: 2eef 0bbe 6596 03be e0ad 20bc 5c96 6f3d
00000390: 91aa 33be 02d4 89bd f8fd 85bd fcbe 06bd
000003a0: 6a80 92bd 0f37 333e 8281 943d e08a 843b
000003b0: 5f1b d6bd 3023 a83c e06d cbbc b9d1 333e
000003c0: e02e 00bc 3511 103e 40e4 e7bc 00ba bcbd
000003d0: 00e9 2fbd c72d 2c3e eab1 e03d ae33 b23d
000003e0: 9333 1c3e 786c 97bc d49b 28bd e503 0e3e
000003f0: 9f07 d3bd 0e4f ec3d 98e4 08be 3ae2 a33d

x_lin_after_first_round.0.bias f4 [32]
-0.10059578 0.15275092 0.09573044 0.1344256 0.1237586 0.03406249 0.036671907 0.11810075
0.057196915 -0.01897049 -0.13815731 0.08336879 -0.12633516 -0.14759558 -0.17674783 0.12953268
-0.041304603 0.041482195 0.021526888 -0.04488331 -0.09025821 0.016688004 -0.032763004 0.044277787
-0.164025 0.1646571 0.02082564 -0.14596719 0.17036755 0.058642507 -0.076441884 0.009875581
00000000: 2905 cebd bd6a 1c3e 520e c43d dda6 093e
00000010: 2675 fd3d 1c85 0b3d 4835 163d cede f13d
00000020: 5047 6a3d 0068 9bbc 1c79 0dbe 42bd aa3d
00000030: 015e 01be 4c23 17be 62fd 34be 37a4 043e
00000040: 042f 29bd 3ce9 293d 2859 b03c 90d7 37bd
00000050: 4cd9 b8bd 48b5 883c 8032 06bd a05c 353d
00000060: 2bf6 27be df9b 283e 889a aa3c 6c78 15be
00000070: d574 2e3e 2033 703d 908d 9cbd 30cd 213c
