reachability_classification/weights/SimpleMultiplePassGNNReachabilityNet_epoch_45.pt (torch_old, 36685 bytes, 16 tensors)

x_lin.0.weight f4 [32, 1, 1, 11]
000000 48 38 1a 3c ae 53 fe bd dc 02 b6 bd 22 34 a9 bf
       0.009412833 -0.124183044 -0.08887264 -1.3219035
000010 e4 6d 83 be 2e 1a 2f bd 24 6b f8 bc 63 22 db 3d
       -0.25669777 -0.042749576 -0.030324526 0.10699918
000020 cf b8 d4 bb c1 34 c5 3d 5b f8 87 be e5 5e d5 3d
       -0.0064917575 0.09629203 -0.26556668 0.1041849
000030 56 3f 72 bd d9 76 4b bd e3 e9 f9 3d 2f ef 27 be
       -0.059142433 -0.04967389 0.122028135 -0.16399835
000040 d9 0f e5 be 59 fc 8d bd 6d 04 2d be ae bb 3f 3e
       -0.44738653 -0.06932897 -0.1689622 0.18723938
000050 06 4f b1 be 87 78 04 3e fc 69 a2 be a7 cb 91 3d
       -0.34630603 0.12936603 -0.31721485 0.07118922
000060 28 9a bd 3d 14 cd 86 be 88 bd 82 3e c9 ae b6 3d
       0.092579186 -0.26328337 0.25535226 0.089200564
000070 8e d4 cd 3d d6 35 ae be c9 1c cf 3d 71 8b 2f 3f
       0.10050307 -0.3402545 0.10112912 0.68572146
000080 a1 b9 0b bd 16 99 b1 3d 21 84 1c be 7b 45 a9 be
       -0.034112576 0.08671777 -0.15284778 -0.33060822
000090 fa 98 de 3e 6d 87 d4 bd cf 54 79 bd e6 87 16 bf
       0.43476087 -0.10377393 -0.060871895 -0.58801115
0000a0 18 81 98 bd 71 2c da bd bf 84 17 bf aa da 8d be
       -0.07446498 -0.10653008 -0.5918693 -0.2770589
0000b0 81 29 0d bc 6a c1 11 3e 06 a3 d9 3c c4 78 f7 bc
       -0.008615852 0.14233938 0.026566993 -0.030208953
0000c0 5d a2 c6 be 97 42 bf 3d 98 d7 40 be 54 46 b3 3e
       -0.38795748 0.09338873 -0.18832242 0.35014594
0000d0 da 30 bc 3e 85 1a 3d 3c 9e ca 5e be 49 94 a0 3d
       0.3675602 0.011541967 -0.2175698 0.07840783
0000e0 c0 4a 17 be e0 c0 89 bd 80 53 06 3f d6 2c be 3d
       -0.14774609 -0.06726241 0.5247116 0.092858955
0000f0 47 69 26 3e fd 27 ec 3e 82 d2 0c 3c 66 7d 17 be
       0.16251098 0.4612426 0.008595111 -0.1479393
000100 31 56 0b bf 39 d8 46 be 66 c0 9c be 93 61 c8 3d
       -0.5442839 -0.1941842 -0.30615538 0.09784236
000110 76 2e 80 bd 48 66 b8 3e 6f 07 6e be 52 1f 0d 3e
       -0.06258862 0.36015534 -0.23245023 0.13781479
000120 13 47 9b 3c 35 3a 6c 3e 54 35 81 bf a9 43 86 3e
       0.01895479 0.23069079 -1.00944 0.26223496
000130 25 76 ca bc 41 d9 fb be ae 72 4c be 2e 2b 91 be
       -0.024714539 -0.4918919 -0.19965622 -0.28353256
000140 36 0b 24 be 97 12 95 be 1f 36 32 bb 0f d1 9f 3e
       -0.16019902 -0.29115745 -0.0027192903 0.31214187
000150 76 db a3 3e 7d be 49 3e ae 27 aa 3d 62 41 4b 3e
       0.32003373 0.19701572 0.083083495 0.1984916
000160 ea 80 ca 3e 84 f7 89 be 0d c9 94 be 4b 03 8c be
       0.3955148 -0.26946652 -0.2905964 -0.27346262
000170 e2 65 a4 3e 70 b6 7d be 81 85 bf bd 9e 70 d1 3d
       0.3210898 -0.24776626 -0.09351636 0.10226558
000180 44 38 7f 3e 25 cd d6 3d 84 7e 46 3e 2e 0b ef 3e
       0.24923807 0.10488347 0.193842 0.46688217
000190 d5 f1 35 ba 75 79 ab 3e 56 a3 1e 3e 7f d6 98 bd
       -0.0006940638 0.33491102 0.15491995 -0.07462787
0001a0 2b f5 6b 3e 32 a2 bf 3c bd 0f 21 3f f5 1e 3c bc
       0.23042743 0.02339277 0.6291464 -0.01148199
0001b0 49 5c c1 bb 0f 44 18 be 04 89 00 be 76 ff d8 3d
       -0.005900894 -0.14869712 -0.12552267 0.105956
0001c0 bb f6 3d 3e ae 2f b5 3e d1 3c 36 be 12 23 52 3e
       0.18551151 0.3538794 -0.17796637 0.20521191
0001d0 c2 59 9c bd dd 31 dc bd 0f ee c1 bd a1 7d 12 3e
       -0.076343074 -0.10751698 -0.09469234 0.14305736
0001e0 31 72 a6 be 8c 60 39 be 27 bb 25 3e 3e cf 49 bd
       -0.32508996 -0.18103236 0.16184674 -0.049269907
0001f0 4d f8 1a 3d 3b 60 cb be b0 49 d4 3d fe f9 a2 be
       0.037834454 -0.39721856 0.10365617 -0.31831354
000200 b6 2c ac 3e 9a 30 11 3e 7c d4 de bd 74 1c 43 3e
       0.33627862 0.14178696 -0.10880372 0.19053823
000210 58 4b 08 bf 77 13 b5 bd f8 f5 0a be 76 10 24 be
       -0.53239965 -0.08841603 -0.13570392 -0.16021904
000220 7c 79 a5 be 26 65 b8 bd e9 2e 85 3e e2 3c d8 3e
       -0.32319248 -0.090036675 0.26012352 0.4223395
000230 cf 2e 01 bd f7 ff e3 bd 42 f6 f4 3e f2 a1 fb 3d
       -0.03153878 -0.11132806 0.4784413 0.12286748
000240 ed cc 96 3c f2 4f 88 be 4f 6a 24 3d 21 d3 96 be
       0.018408263 -0.26623493 0.040140446 -0.29457954
000250 2f a6 c1 3a d3 ae e0 be 23 11 1d bb 71 2e e9 bd
       0.0014774258 -0.4388338 -0.0023966513 -0.11385811
000260 0b 9e 40 3f 3a 8d 36 bf b3 60 ab be 02 48 6a be
       0.75241154 -0.71309245 -0.33472213 -0.22879031
000270 57 e9 7b be 33 8a ce 3d 7a 42 94 3e 7a b6 8a be
       -0.24600731 0.10084953 0.28956968 -0.27092344
000280 34 94 a7 3e e1 cc c8 be e3 16 f4 bd c4 d7 94 3e
       0.32730258 -0.3921881 -0.11918428 0.29070866
000290 55 0e e8 be c4 a2 60 3d 8e 71 aa bc 8c 12 81 3e
       -0.45323434 0.054842725 -0.0208061 0.25209463
0002a0 7c bf ff bc 72 33 b2 be 48 af 35 be ed 3d 80 3e
       -0.031219237 -0.34804875 -0.17742646 0.25047246
0002b0 dd b3 91 3d 1e 73 ab bd 17 8d 52 3f 12 38 48 bf
       0.07114384 -0.08371566 0.82246536 -0.78210557
0002c0 a3 f9 17 3f d8 5b 1f 3e bc 3b 12 3e 0e a5 d2 be
       0.5936529 0.1556238 0.142806 -0.41141552
0002d0 44 3c c7 3e f7 91 e9 bd f2 49 84 3e 56 dc 01 be
       0.38913167 -0.11404794 0.25837666 -0.12681708
0002e0 d7 a7 ba 3a 35 58 00 bf 99 86 2a 3f 57 2c 08 be
       0.0014240694 -0.50134593 0.6661163 -0.13298164
0002f0 40 78 8a 3d 06 df c5 3d ea f1 f0 be ca 21 29 be
       0.06761217 0.09661679 -0.47059566 -0.16516796
000300 9f a6 41 be 5f e6 57 3e b0 47 96 be 17 4c 3c bd
       -0.18911217 0.21083973 -0.29351568 -0.045971002
000310 d3 60 e8 bd 4d 5b f0 bd a0 18 3e 3e 26 05 b4 be
       -0.11346593 -0.11736164 0.18564081 -0.35160178
000320 17 9a b3 3d 0e 63 e5 be db 39 35 bc e0 a3 95 3b
       0.08769625 -0.44802135 -0.011061157 0.0045666546
000330 85 d2 b4 bc 59 68 9a 3c 69 71 20 be b8 5d 67 bf
       -0.02207304 0.018848585 -0.15668263 -0.9037738
000340 7e 26 49 3f aa d3 87 3e d9 4f 06 bd c1 09 67 bd
       0.7857436 0.26528674 -0.032790992 -0.056405786
000350 e9 08 01 3f 0c 71 24 3e c5 94 90 be ac 45 65 bd
       0.5040422 0.16058749 -0.28238502 -0.055974647
000360 af b5 19 be 67 16 f2 be 35 a0 17 bf 5a 25 eb 3e
       -0.15010713 -0.47282717 -0.5922883 0.45926934
000370 05 24 45 3d 9c bf 88 be da 86 09 bd 8e 82 e8 3e
       0.048130054 -0.26708686 -0.03357587 0.45412105
000380 67 2c 53 3f 9f 74 4f be b9 7c 86 3e f7 3f 1a 3e
       0.8248963 -0.20259331 0.2626703 0.15063463
000390 5f 6e b5 3d 66 7f 0a 3f 81 2c bd be fb 0a c5 3d
       0.08858942 0.54100645 -0.36948016 0.09621235
0003a0 7c b6 35 3e 94 ac 09 be ba 89 a7 bc 2a 0d 2f 3e
       0.17745394 -0.1344474 -0.020451415 0.17094865
0003b0 2a 45 d4 be 8b 7c 6d be 68 74 4c be bf 89 74 3e
       -0.41459018 -0.2319204 -0.1996628 0.23880671
0003c0 e0 03 1c bf 0f 3e 17 3f c2 11 33 3e 80 68 01 bd
       -0.6094341 0.5907907 0.17487243 -0.0315938
0003d0 1c d2 98 3e c9 8c f0 bc 41 0c 98 be 37 5d be 3c
       0.298478 -0.029364007 -0.2969685 0.023237808
0003e0 49 29 b3 bd ec f3 1f 3e 40 78 7e bd 48 3d 0a 3f
       -0.08748109 0.15620393 -0.062126398 0.5399976
0003f0 4e f7 24 bf f3 d2 26 3d 59 c0 a5 bd 53 0a ec 3c
       -0.64439857 0.04072852 -0.08093328 0.028813517

x_lin.0.bias f4 [32]
000000 f7 11 c4 be 93 0c d9 be 7d 24 10 be e5 d9 b4 3d
       -0.38294956 -0.42392406 -0.14076419 0.088306226
000010 4f f9 fc bd 81 68 96 be 80 92 2c 3e a5 be 6b bd
       -0.12352239 -0.29376605 0.1685276 -0.05755486
000020 72 9f d2 3e 8e 4b 87 3d f9 39 bd be 5b 05 7c 3e
       0.41137272 0.06606208 -0.36958292 0.24611418
000030 96 58 01 3f 0c 5d 86 be 4c b3 79 bd dd b4 01 be
       0.50525796 -0.26242864 -0.060962006 -0.1266665
000040 f6 36 e9 3e dc cc 2b be 4d 3b e2 3e ac 56 e2 bd
       0.45549744 -0.16777366 0.44185868 -0.110516876
000050 b2 fc 32 be 3c bb 94 3e 46 64 fe bc d5 0b 33 3d
       -0.17479208 0.29049098 -0.031053673 0.043712456
000060 ae 4d 59 be 88 f7 5a 3d 7c 90 c0 be 68 fc 4d 3e
       -0.21221039 0.05345872 -0.37610233 0.20115817
000070 a7 3f 8e 3e 12 b8 dd bd 07 80 11 3e b3 5a 07 3f
       0.27782938 -0.10826124 0.14208995 0.5287277

x_lin.2.weight f4 [32, 32, 1, 1]
000000 af 4c 36 3e 9c 2c e8 3d c6 3a c2 3b 77 2e b2 3c
       0.1780269 0.113366336 0.0059274165 0.021750672
000010 4d 5a 3b bd 17 57 0a be 04 e4 1d be 7d dd 8b be
       -0.045740414 -0.13509785 -0.15419012 -0.2731742
000020 19 00 6e bd 4c 44 17 3f 66 15 23 3e 26 83 0d be
       -0.058105562 0.5908859 0.15926132 -0.1381956
000030 e2 6b 88 be 8a 95 9f 3e 2c 93 9f 3d 85 32 b5 3e
       -0.26644808 0.31168777 0.07791743 0.35390106
000040 17 df d3 3b 32 14 fe bc a5 a6 3a be e1 8b 96 be
       0.0064658034 -0.03101549 -0.18227632 -0.29403594
000050 e3 f7 34 3e 71 e6 26 3d c6 a0 19 3e f0 1b 1d bf
       0.17672686 0.04074711 0.15002736 -0.61370754
000060 c5 77 38 3d cc 54 8a 3d 61 7c 9e 3d aa 7c f7 3d
       0.045036096 0.06754455 0.07738567 0.12084325
000070 2f ff 28 3e 1e b2 76 3d df 7c b7 be 42 ee f1 be
       0.16503595 0.06022846 -0.35837457 -0.4725209
000080 cb f7 c9 3e f4 89 ef bd 04 02 a8 3e 6f 5f cb 3d
       0.39446864 -0.11696234 0.32814038 0.09930312
000090 7b 61 73 3d 25 4a c9 be 57 95 6d be f4 2f 75 3d
       0.059419136 -0.3931438 -0.232015 0.059860185
0000a0 5b b3 3c be 4a f1 02 bd 07 cb 62 bc 17 60 2a 3e
       -0.18427794 -0.031968392 -0.013842351 0.16638218
0000b0 1b 86 0b be a5 1b f4 3e 84 40 1d 3e 8e fa 8a 3e
       -0.13625376 0.4767734 0.15356642 0.27144283
0000c0 83 8c f6 be e0 5e de 3d 65 74 19 bf dd 3e 58 be
       -0.48154077 0.1085794 -0.5994323 -0.2111773
0000d0 8b f8 8c be 65 73 88 3a be a8 16 3e 42 92 ab 3b
       -0.27533373 0.0010410367 0.14712808 0.005235941
0000e0 b8 62 cb be 24 72 91 3d 68 66 a2 3e a9 ac d0 bd
       -0.39723754 0.07101849 0.31718755 -0.10189182
0000f0 01 68 8f 3e e8 15 31 3e 19 59 93 bd 3d 6d e7 3e
       0.28009036 0.17293513 -0.071947284 0.4520053
000100 93 40 06 3e 00 a9 05 be e6 5f 82 bd a5 17 20 be
       0.1311057 -0.1305275 -0.063659474 -0.1563402
000110 cb 2c 6c 3e e6 39 3d 3e 0a 20 9c 3c 98 e6 61 3e
       0.23063962 0.18479118 0.019058246 0.22060621
000120 e8 cc 0c be 6c 07 94 3d 0a 07 b5 bd 23 70 45 3e
       -0.1375004 0.07227978 -0.08839233 0.19281058
000130 ff ff d9 be d0 1f 05 be 91 9e 75 3e 7d b3 9a 3e
       -0.42578122 -0.13000417 0.2398627 0.30215064
000140 8c 29 ac be a0 24 90 3d d5 19 28 3d 2c 2f 3f 3d
       -0.33625448 0.07038236 0.04104026 0.046675846
000150 1d 4a f1 3e 99 00 c2 bd 7f 68 3d 3e 6f a2 08 be
       0.47126856 -0.0947277 0.18496893 -0.13343213
000160 09 06 29 3c a3 e7 87 be 58 d2 71 3e 01 d1 c2 3e
       0.01031638 -0.26543912 0.23615396 0.38050082
000170 ef 7e f9 be b3 3b 93 3e 1b 37 3b be c0 cf d2 be
       -0.48729655 0.28756484 -0.1828274 -0.41174126
000180 e0 9f 44 3d 10 65 c4 3d ff 9b 0d bd 1b c8 33 3e
       0.04800403 0.09589589 -0.034572598 0.17556803
000190 be 57 8f be a3 f2 69 be 3f ce b3 be e9 c2 c5 be
       -0.2799663 -0.22846465 -0.3511829 -0.38625267
0001a0 e8 70 ad 3c 53 43 b4 be 54 da ad be 7e 33 30 bf
       0.021172002 -0.35207614 -0.33955634 -0.6882857
0001b0 74 e7 39 3e 58 2c b7 be da a1 05 3e 06 19 a0 3e
       0.18154699 -0.3577602 0.13050023 0.3126909
0001c0 9b 10 88 3e 08 d7 0b bf 40 5e d3 be 35 f5 9a 3e
       0.2657517 -0.54624987 -0.41282845 0.30265203
0001d0 67 7d d5 3e 31 fb c8 3d ac 4c 5b 3e 9b b0 a1 bd
       0.41697237 0.09813536 0.21415967 -0.07895013
0001e0 5e c7 ad 3e 50 fa 18 bc f6 d9 1c bf 07 15 94 be
       0.33941168 -0.009337023 -0.6127008 -0.28922293
0001f0 be 28 f0 3d cb fd 00 3d a4 d3 b3 be 4f 1f 40 3f
       0.11726521 0.031492036 -0.35122406 0.75047773
000200 26 62 fa 3d 42 4c c4 bd 5b e3 9f bc 3d 5f 38 3d
       0.122257516 -0.095848575 -0.019517591 0.0450127
000210 8e b8 42 3c 0a a4 09 3d 3f bd 2b 3e c2 4e 89 be
       0.011884822 0.033603705 0.1677141 -0.268179
000220 f9 29 94 3d f2 08 b6 bd d9 02 1c 3e 76 ad b0 3c
       0.07234568 -0.08888425 0.15235461 0.021567088
000230 1a 34 5f be f7 95 43 3c 38 78 6e 3c 13 59 a6 3e
       -0.21797219 0.01193761 0.01455503 0.32489833
000240 4b 4b 46 be 01 f2 18 3d 7a 4f de be b0 df 3f be
       -0.1936466 0.037340168 -0.4342001 -0.18737674
000250 fd e0 22 be 1d fb 9f bd 95 7c a7 3e 6f 20 ae 3e
       -0.15906139 -0.07811568 0.32712236 0.3400912
000260 a1 20 29 3c 15 b2 31 3e db 62 0c 3e db 8e 37 3d
       0.010322721 0.17353089 0.13709585 0.044813972
000270 b4 2c 4e bf ce 52 3d 3e 43 1c 50 be 6f ad 43 3e
       -0.8053696 0.18488619 -0.20323281 0.19109128
000280 8d 7a 94 3d ea 6a 5d bd 03 e3 9e 3e c1 d2 d5 bb
       0.07249937 -0.05405704 0.3103257 -0.006525368
000290 03 78 34 be 16 1a 0e be d3 bc b4 3c e5 ad 53 3e
       -0.17623906 -0.13877138 0.022062695 0.20671804
0002a0 5d 10 8f 3d 89 6e 14 3d 31 0a e1 bd bc 1e cb 3d
       0.06985543 0.036238227 -0.10988272 0.099179715
0002b0 f1 4a de 3e d5 b8 a5 be 57 70 3a 3e 73 d4 f6 3b
       0.4341655 -0.32367578 0.18206917 0.00753265
0002c0 6a 80 91 3e 19 49 88 3e 30 f8 38 3e 63 5d 8d be
       0.28418285 0.2661827 0.18063426 -0.2761031
0002d0 be f4 21 bf 05 4d b9 bd a0 0a 9e be 09 d5 86 3e
       -0.6326407 -0.090478934 -0.3086748 0.26334408
0002e0 01 24 91 3e 60 9a 53 be e8 ee 65 3e 67 06 21 3d
       0.2834778 -0.20664358 0.22454417 0.039312746
0002f0 78 45 49 be 7e d2 ab 3d 80 41 82 3d fc 28 53 3e
       -0.19655406 0.083897576 0.063601494 0.20621103
000300 89 36 05 3e c4 36 f1 3b 39 39 28 be 1d 1a 95 be
       0.13009085 0.007361265 -0.16428079 -0.29121485
000310 c8 81 fa 3b 22 51 36 3e 37 03 b7 be 47 b9 eb 3d
       0.0076448657 0.17804387 -0.3574464 0.11509948
000320 6d 22 0d bf 74 b4 e3 be 74 3b 40 3e cd a1 3d 3d
       -0.55130655 -0.44473612 0.1877268 0.046296883
000330 2b a8 80 be 6c 1a 05 3e 29 1f e9 be f6 06 8f 3e
       -0.25128302 0.1299836 -0.45531586 0.27934998
000340 a8 ea 3a be 79 74 93 3e f1 32 57 be 42 c7 e3 be
       -0.18253577 0.287998 -0.21015526 -0.4448796
000350 60 1d 60 be f0 6b 5d be f1 93 84 3e 85 6f f5 bd
       -0.21886206 -0.21623206 0.2589412 -0.11984161
000360 c5 b8 c3 bd a1 b8 c2 bd 9f 48 83 3e 59 9d 4f 3d
       -0.09556726 -0.095078714 0.25641343 0.050687168
000370 e0 e1 91 3a 92 c7 67 3e 81 2a 0b be eb b0 9d 3e
       0.0011129938 0.22634724 -0.13590433 0.3079904
000380 08 0e ce be 9b e4 0c bf f8 7a 53 be 62 65 02 bf
       -0.4024508 -0.55036324 -0.20652378 -0.5093595
000390 ba 46 ff bc a3 61 17 3e 89 72 7f be 2b 6c 3e be
       -0.031161655 0.14783339 -0.24946035 -0.1859595
0003a0 fa 24 92 3c bf b9 49 3e 62 ed 15 bc 3d 5e 13 3d
       0.017839897 0.19699763 -0.009150835 0.035978545
0003b0 cb 72 aa 3c 31 43 e3 bd 20 0b 35 bd ca fe 06 3d
       0.02080669 -0.110968 -0.044200063 0.03295783
0003c0 a2 19 17 3f bf 2c 72 be 84 ac c5 be bc 95 ac be
       0.5902349 -0.23649882 -0.3860818 -0.33707988
0003d0 4e c4 0e bd a6 4c a8 3c fe 0b dd 3d 90 f0 fd bc
       -0.03485518 0.020544361 0.10793303 -0.030998498
0003e0 18 3b 89 be d4 b8 3e be 58 aa 75 be c0 69 2f bf
       -0.26802897 -0.18625194 -0.23990762 -0.68520737
0003f0 c1 c3 44 3d c1 66 2a 3e 5c 59 2a bf 0b 59 90 be
       0.048038248 0.1664076 -0.665426 -0.28192934

x_lin.2.bias f4 [32]
000000 82 a6 6c be 2e a9 39 be 74 29 65 be 25 51 50 be
       -0.23110393 -0.18130943 -0.22379094 -0.20343454
000010 1a c3 47 be 93 14 c0 3d da 2f d0 bd e1 12 31 3e
       -0.19508019 0.09378924 -0.10165377 0.17292358
000020 5b f2 44 be c6 2f c9 bb e2 f5 26 3e 59 b6 3b 3d
       -0.19233076 -0.0061397282 0.16304734 0.045828197
000030 eb d0 cb 3d a6 e7 c7 3c 19 83 ee bd 81 18 16 3e
       0.09951957 0.02440245 -0.11646099 0.14657785
000040 8c 3c 1f be ce c0 49 3c cb de f2 3d e2 e6 5f be
       -0.1555044 0.012314035 0.11858901 -0.21865419
000050 b1 06 be bd 14 9a 19 3e 32 9e 52 be 3e 14 37 bd
       -0.0927862 0.15000182 -0.20568159 -0.04469704
000060 a8 73 21 3e b0 b1 d3 3d 6b fc 4a bc 9f e8 a8 bd
       0.15766776 0.103366256 -0.012389283 -0.08247494
000070 63 83 21 3e de dc 32 3e a0 9a b6 bd 02 35 58 bd
       0.15772776 0.17467067 -0.08916211 -0.052784927

edge_lin.0.weight f4 [32, 1, 64, 1]
000000 bd 3f 35 bf 13 58 c8 be 6f fc a7 bd 69 8b e6 be
       -0.7080038 -0.39129695 -0.08202445 -0.45028237
000010 ec c5 93 be ff 21 ba be af 74 91 be 1c 5f 84 3d
       -0.2886194 -0.36354062 -0.28409335 0.06463453
000020 e0 30 27 be 9b 22 a3 3e 33 c9 3e bf 16 0a a5 3d
       -0.16327238 0.3186234 -0.74525756 0.08058564
000030 67 45 8e be af 53 cc be 55 90 e1 bc 24 27 14 bf
       -0.27787325 -0.39907596 -0.027534643 -0.57872224
000040 98 c1 e0 be c9 39 9b be 0f c3 d3 3d 20 ff da be
       -0.438977 -0.30317524 0.10339939 -0.4277277
000050 17 72 22 be b3 cd 6b bf c2 8a e6 be c7 f7 f6 bc
       -0.15863834 -0.9211075 -0.4502774 -0.030147446
000060 68 28 85 bd ff fa 36 3e 95 ed 06 3e ad 08 43 be
       -0.065018475 0.17869185 0.13176568 -0.19046278
000070 3a 9b 93 3e 28 bd 46 3d fd b8 ee 3d 4b 44 fb 3d
       0.28829366 0.048520237 0.116563775 0.12268885
000080 8a 38 6e bc 90 95 5b 3e 4b d7 3d 3d 2d 46 1e be
       -0.014539847 0.21443772 0.046347897 -0.15456457
000090 29 af 85 3d 38 96 1e bf 55 df e6 3d e6 8b f4 bc
       0.0652755 -0.61947966 0.11273066 -0.029851865
0000a0 d0 4f f8 3d dc 1c a6 be 49 40 16 bf c8 fc a5 be
       0.12124598 -0.32443893 -0.5869184 -0.3241942
0000b0 c1 ae a0 be 85 d9 a5 bd 59 96 d2 bd 81 88 14 3d
       -0.31383327 -0.08098129 -0.10282583 0.036262993
0000c0 de 62 3b be 45 33 32 bf 31 51 88 bd 41 0b 61 be
       -0.18299434 -0.6960948 -0.06656111 -0.2197695
0000d0 11 34 91 be e1 20 03 bf 9d ab 02 3e 5c eb b7 3c
       -0.28360036 -0.51222044 0.12760778 0.022451095
0000e0 00 d5 92 3d 5f ba a7 3d 10 4c 78 3d 51 b6 bd be
       0.07169533 0.08189844 0.060619414 -0.3705316
0000f0 1a e0 52 3e 54 d4 96 be 24 b5 2d 3e 18 44 13 bd
       0.205933 -0.29458869 0.16963631 -0.03595361
000100 2c 89 98 be c6 f3 57 3c c0 1d a5 bd 92 57 c0 be
       -0.29792154 0.013180679 -0.08062315 -0.3756681
000110 46 f3 6e 3e f8 7c 06 be 6f 38 70 3a 9e 18 b9 be
       0.23334989 -0.1313361 0.00091636827 -0.36151594
000120 98 06 9a 3e f1 10 3c 3e 1a ed 0a bf 98 91 ce 3d
       0.30083156 0.18365838 -0.5426804 0.100863636
000130 ef 68 b0 bd 5e 1f df bd 79 41 49 3e c9 42 26 3e
       -0.086137645 -0.10894655 0.19653882 0.16236414
000140 9f 84 18 3e 57 72 b3 be 7c d4 52 3e 42 7f d5 3e
       0.14894341 -0.35048172 0.20588869 0.41698653
000150 d2 64 b8 bd cf 56 d8 bd 09 ac 21 be bf 46 24 be
       -0.09003605 -0.105634324 -0.15788282 -0.16042612
000160 89 01 40 be d5 cb 78 3e 1d 9a c0 3d 56 62 98 3e
       -0.18750586 0.24296506 0.09404395 0.29762524
000170 05 f8 62 3c 93 61 dc 3d 5e 72 0f 3e 08 a3 3d 3e
       0.013853078 0.10760798 0.14008471 0.18519223
000180 ea fd 9e 3d 8c b6 57 39 cb 6c 2d 3d 43 df 87 be
       0.07763274 0.00020572002 0.04234008 -0.26537523
000190 86 24 eb 3c 0b c2 87 be 87 64 77 3c b8 b2 45 be
       0.02870394 -0.2651523 0.015099651 -0.19306457
0001a0 e4 59 df 3e 3a e0 9a bd 31 73 c9 be 31 9e 7f 3e
       0.4362327 -0.07562299 -0.39345697 0.24962689
0001b0 56 85 56 3d bf f1 87 be 04 a3 45 3e a8 b7 15 3e
       0.052373253 -0.26551625 0.19300467 0.1462084
0001c0 d0 2f 44 be 2f 9d c8 be a6 fe a5 3b b9 7d e9 3e
       -0.19158864 -0.39182422 0.005065757 0.4560373
0001d0 01 b4 9e bd a5 08 47 be 85 8f 9e bd 58 a2 73 be
       -0.07749177 -0.19436891 -0.07742218 -0.23792398
0001e0 3c 7d 42 be bb bd 89 3d 01 16 d4 3d cd de 16 3e
       -0.18993086 0.06725641 0.103557594 0.14733429
0001f0 95 8d 13 be 84 3d 12 3d e4 0a af 3d b8 96 5a 3e
       -0.14409478 0.035703197 0.08546999 0.21346557
000200 54 bb 28 be a9 57 62 bd 55 fe 2f bf a2 50 0c be
       -0.1647771 -0.05525938 -0.68747455 -0.13702634
000210 3e 92 82 bd db ab 2b bf 2b d3 50 be b9 20 bf 3e
       -0.0637555 -0.67059106 -0.20393054 0.37329653
000220 32 60 df be b8 62 c0 be 01 20 a6 3d 41 b2 02 3e
       -0.4362808 -0.37575316 0.08111573 0.12763311
000230 94 58 29 3d c3 fe 4e 3e 50 2f 9b bd d3 45 d6 3d
       0.04134424 0.20214371 -0.075773835 0.10462537
000240 bf e7 de 3c 05 90 8e be 14 90 79 bd 26 0c f8 ba
       0.027210115 -0.27844253 -0.06092842 -0.0018924519
000250 88 4b f0 be c0 b2 eb bc ee da 3d 3e 45 c3 fc be
       -0.46932626 -0.028771758 0.18540546 -0.4936773
000260 91 0c 9e bd 01 31 1b bf 13 bd 34 bd ea 2d 65 3d
       -0.077172406 -0.6062165 -0.044125628 0.05595199
000270 cd c5 40 3d 1b 3d ea 3b 04 4e a3 bd 1a dc d9 3c
       0.047063638 0.0071483976 -0.07973865 0.02659421
000280 0f a0 89 bc 76 62 e2 3d c4 f4 56 bf b4 9c 65 be
       -0.016799955 0.11053936 -0.8396723 -0.22423059
000290 0b 8f bf bd 07 8b 23 bf 52 c8 c1 3d 31 d9 da 3e
       -0.09353455 -0.63884014 0.09462036 0.4274383
0002a0 2d 37 9c be d7 3a d8 be fc 14 ec 3d 3c 6a 7a 3c
       -0.30510846 -0.4223239 0.1152744 0.015284117
0002b0 a0 3f c2 be e5 80 f1 3d 30 10 33 be d2 a6 8f 3d
       -0.37939167 0.11792163 -0.17486644 0.0701424
0002c0 ad 92 bb 3d 1c 00 97 be 02 21 8e bd 2b b8 20 3e
       0.091588356 -0.2949227 -0.069398895 0.15695255
0002d0 61 29 f4 be 7b b6 55 be ee ce 23 bd 16 8f 92 bc
       -0.4768782 -0.20870392 -0.039992265 -0.017890494
0002e0 d9 64 08 3e 32 c6 0d bf dc 52 b7 bd 6b 7b 08 3e
       0.1331972 -0.5538055 -0.08951351 0.1332833
0002f0 57 b5 97 bd 25 f2 ac bb 54 3d 15 3e 6f 6d 39 3e
       -0.07407635 -0.0052778893 0.14574176 0.18108152
000300 ce 1f a0 3e 90 35 d2 3e 32 f3 13 bf 11 21 e6 be
       0.31274265 0.4105649 -0.5779296 -0.44947103
000310 9a 78 03 bd 7f fc 10 be 06 a6 d1 bd 55 03 d2 be
       -0.032097436 -0.1415882 -0.102367446 -0.41018167
000320 f4 9c c2 bd 90 d4 79 3e 49 31 8e 3d 1d 10 52 3e
       -0.09502593 0.24397492 0.06942994 0.20513959
000330 da 7d da bd 90 05 0d 3e fd 85 a5 3e f1 67 c1 bc
       -0.106685355 0.13771653 0.32328787 -0.023609133
000340 62 54 5c be b0 b6 be 3c 7b b1 70 be e5 0d cf be
       -0.21516564 0.023280472 -0.23505203 -0.40440288
000350 44 81 d1 3d c4 93 f8 3d 4e e9 59 3c 8e 2f c0 be
       0.102297336 0.12137559 0.013300253 -0.3753628
000360 68 51 f7 3d 42 1a b8 be 50 1c 8f be 9f e2 a4 3d
       0.12076074 -0.35957533 -0.27951288 0.08051037
000370 5e e7 be bd 97 17 ed 3d ab c2 ab 3d 14 b7 19 3e
       -0.093214735 0.11576765 0.08386739 0.15011245
000380 8c 69 7a 3c 40 51 3a 3e f5 74 09 bf db c9 b8 be
       0.015283953 0.18195057 -0.5369409 -0.36091504
000390 ed 94 ee bd 14 3d 79 be 3d 7d 30 be 35 67 07 bf
       -0.11649499 -0.24339706 -0.17235275 -0.52891856
0003a0 95 14 1f 3d 1d 1a 06 3e 9b 4d 60 bc 86 c9 2c be
       0.038837988 0.13095899 -0.013690378 -0.1687375
0003b0 e1 de ad bc 88 94 84 3e 5a 7c 58 3e fe 1c a7 3e
       -0.021224441 0.2589457 0.21141186 0.32639307
0003c0 fc e7 22 be 6f c1 17 be b6 d7 c7 be c1 85 8a be
       -0.15908808 -0.14819883 -0.39031762 -0.2705517
0003d0 df 8c ca 3d f5 4f fa 3c 33 17 4a 3e 67 cb 07 bd
       0.0989015 0.030555705 0.19735412 -0.033152964
0003e0 bc 35 ed 3d 12 56 3a be 66 90 3d be 6a 3f cd 3c
       0.11582515 -0.18196896 -0.18512115 0.025054652
0003f0 75 9b 38 3b 0d 31 c8 bd 60 69 9e 3d bf b8 85 3e
       0.0028168831 -0.09774981 0.077349424 0.26117513

edge_lin.0.bias f4 [32]
000000 59 17 ab 3d 9f 10 69 bd a6 0c e5 bb e4 07 9a 3d
       0.083540626 -0.056900617 -0.006990033 0.07521036
000010 69 ec 1a be f4 47 d5 bd 78 dd e6 3d 12 b0 6c bd
       -0.15129246 -0.104141146 0.112727106 -0.0577851
000020 bd c1 49 3e 6b b8 c6 bd 0d 4a 91 bd 93 e9 0f 3d
       0.19702812 -0.09703144 -0.07094202 0.035134863
000030 1b 8c e3 3d 1c 9b f3 bd eb 29 78 be ba b8 d2 3d
       0.11110707 -0.11894819 -0.2423474 0.1028914
000040 ca f3 75 3d f7 0c c1 bd 98 f3 5e be 98 ac 22 be
       0.06004695 -0.09426301 -0.21772611 -0.15886152
000050 5c 3e 41 be 33 17 27 bd cb 61 c0 bd 22 cf 96 3c
       -0.18871444 -0.04079361 -0.093936525 0.018409315
000060 20 08 7b 3d 7c a3 1e 3e c9 f0 8f 3d 75 ff 1b bd
       0.061287045 0.15492052 0.07028348 -0.03808542
000070 0b 5c 08 3e 47 e5 f5 bd 28 6b a1 bc 7c f6 79 bd
       0.13316362 -0.12006622 -0.019704416 -0.06102608

edge_lin.2.weight f4 [32, 32, 1, 1]
000000 66 6f ce 3e 18 5f f5 3d af 95 aa 3e de 83 f3 3d
       0.40319365 0.11981028 0.33317325 0.11890386
000010 dc 3c d7 3e 88 ac 5c 3d 24 6e dc bd 9d 8b 70 be
       0.4203862 0.053875476 -0.10763195 -0.23490758
000020 99 17 13 3e e9 c2 82 3d 35 3c 8d 3e b2 3c 84 3d
       0.1436447 0.063848324 0.27584997 0.06456889
000030 89 18 de 3c 8e 16 9d be 41 6d 99 bd 92 1c d2 bd
       0.027111309 -0.3068127 -0.07491542 -0.102593556
000040 48 ac d8 3e 3d cd 5c 3d c1 98 36 3e b6 72 a3 be
       0.4231894 0.053906668 0.17831708 -0.31923455
000050 29 38 a5 3e 52 c0 6d be 2e bb b2 3d c7 8e 5f 3e
       0.3226941 -0.23217896 0.08727108 0.21831809
000060 92 dc 66 be 80 9d e0 be 11 a2 a7 3e 9a 12 16 bd
       -0.22545078 -0.43870163 0.32740834 -0.036638834
000070 77 94 19 bf 72 bc 5f 3e e6 80 95 bd dd a2 f5 3b
       -0.59992164 0.2184923 -0.07299976 0.0074962215
000080 56 b5 8c be 2c a0 7a be 15 17 8c 3d a7 e7 45 be
       -0.27482098 -0.24475163 0.0684034 -0.1932665
000090 b9 3e 43 3e 68 ec a8 bd 1f 5f 1c 3e 08 ae 03 3e
       0.19066896 -0.08248216 0.15270661 0.12859356
0000a0 23 36 4a 3e 4a 44 b5 3d ee ce 4e bc 66 1f 8e 3e
       0.19747214 0.08850916 -0.012622578 0.2775833
0000b0 54 1f 16 3e 3d 90 36 3d b9 10 9b bd a2 66 f2 3d
       0.14660388 0.04457115 -0.07571549 0.11835982
0000c0 bb 81 90 3c aa 37 ae bc f3 0e 30 3e a6 3d 2c bd
       0.017639985 -0.021266777 0.17193203 -0.04205098
0000d0 66 e8 23 bf 49 eb b3 3e ad 40 58 be 25 37 40 3e
       -0.64026487 0.35140446 -0.21118422 0.18771036
0000e0 d4 71 f1 3e a6 54 0c bf f6 26 e5 3d 28 80 14 3d
       0.47157156 -0.54816663 0.11189072 0.03625503
0000f0 22 40 a2 3e 6d c6 00 bf ce 33 fa 3d a4 f4 c3 bd
       0.31689554 -0.50302774 0.12216912 -0.09568146
000100 f1 14 99 bc 0d bc 34 3c f3 45 78 3e d4 c5 3e 3e
       -0.018686743 0.011031163 0.24245434 0.18630153
000110 e7 13 a3 bd c8 5c 9c be ff 6a af 3d 9d f2 85 3e
       -0.079627804 -0.30539536 0.0856533 0.26161662
000120 af 5a 26 bf 5c ae 7e be 1a 15 31 3e 31 ec 94 3c
       -0.6498212 -0.248712 0.17293206 0.018179031
000130 38 fa 52 bd f1 d7 31 bd fd df 0b be 56 6c db 3e
       -0.05150816 -0.04341883 -0.13659663 0.4285609
000140 8a e5 df 3d ca f4 81 3e 5a 2c 5f bd 7c 66 84 bd
       0.10932453 0.25382072 -0.054485656 -0.0646486
000150 3c 0b 8d bd 12 dc cf 3d f8 91 3c 3c 65 d1 f6 3c
       -0.068869084 0.10149397 0.011509411 0.030129144
000160 ce 16 22 be 39 56 3b be 39 67 96 bd 6b 9c 0a 3b
       -0.15829012 -0.1829461 -0.07343907 0.0021150361
000170 32 ea 83 be dc 7f 2b 3e 4c 10 bc 3d 4e 94 0e 3e
       -0.25764614 0.16747993 0.09182796 0.13923761
000180 42 2a 7f be 09 8b 80 be b8 20 ab be 6b c6 04 3f
       -0.24918464 -0.25106075 -0.334234 0.5186526
000190 ea 11 0c be 9b 33 b0 3e a5 13 92 be 18 8d ed 3c
       -0.13678709 0.34414372 -0.28530613 0.028997943
0001a0 92 ef 6e bd a4 9d 69 3e ea b6 18 bf 0e 51 b1 3d
       -0.05833394 0.22814041 -0.59654105 0.08658038
0001b0 a0 29 1a be 56 94 e2 3e 7f 1b 6c 3d b7 51 04 bf
       -0.15054941 0.44253796 0.05764341 -0.51687187
0001c0 3c 6e 01 bf 83 71 bd 3e ce 4d f9 3d 1e a8 09 be
       -0.5055883 0.37000665 0.12173043 -0.13443038
0001d0 6a 76 9e 3d 66 04 af 3d 66 f3 84 be 63 59 4e be
       0.077374294 0.08545761 -0.25966948 -0.20151286
0001e0 45 a1 f1 3b 75 a4 15 be 5b 2b 16 be 07 d0 38 bd
       0.007373961 -0.14613517 -0.14664976 -0.045120265
0001f0 c2 17 ea be ca 1d 87 3e fd 65 b4 bd b7 66 50 bd
       -0.4572125 0.26389915 -0.08808515 -0.050879207
000200 05 21 0e 3f 00 6b b1 bc 36 ff b2 3d 3d ac c0 3e
       0.55519134 -0.021657467 0.08740084 0.37631407
000210 f8 1e 95 3e 5e b0 f0 3d b8 44 53 be 17 c4 ef be
       0.2912519 0.11752389 -0.20631683 -0.46829292
000220 a3 fc 7c be e3 70 b3 be 5b 48 1d 3e 13 45 b9 bd
       -0.24705748 -0.35047063 0.15359633 -0.09046378
000230 c5 b7 eb bd cb 03 46 be 2c 41 04 3e 3c 33 c2 3e
       -0.11509661 -0.19337384 0.12915486 0.37929714
000240 0e d3 bd bd a4 20 27 3e 20 57 ad 3d fc 98 51 be
       -0.09268771 0.16321045 0.084638834 -0.20468515
000250 ef 2c 48 3e 5d 7a 61 3d 3a 19 ec 3d 7f 4c 9e 3e
       0.19548391 0.055048335 0.11528249 0.30917737
000260 7e 54 a0 3d b4 fa d2 be f4 f2 df 3e 98 73 0b be
       0.078286156 -0.41206896 0.43740046 -0.13618314
000270 9a 8c 1b bf ce 83 9d bd a7 f8 80 3d 01 aa 7e be
       -0.60761416 -0.076911554 0.06297427 -0.24869539
000280 85 e2 35 3e 66 47 a2 3e e2 57 26 bd 54 8b 69 bc
       0.17762192 0.31695098 -0.040611155 -0.01425441
000290 87 0c ac 3e bc a0 1e 3d ab f6 5f be 34 cc 6f be
       0.33603308 0.038727507 -0.2187144 -0.23417741
0002a0 8c 3b 56 3e 8b b6 8f 3c 13 13 9d bd 8d 0b e6 3d
       0.20921153 0.017543098 -0.07669654 0.11232672
0002b0 82 8b 03 3d 73 5d a9 be 49 24 06 3d b1 aa 79 3e
       0.032115467 -0.3307911 0.032749448 0.2438152
0002c0 26 1d d0 3c ab bf 75 bd ac 78 99 3c a0 39 7a bd
       0.025404524 -0.059997242 0.018734299 -0.06109011
0002d0 57 9c 3f 3e b3 d4 29 be a7 a8 f8 3d 1c 0d 87 3e
       0.18711983 -0.16585045 0.12141543 0.2637719
0002e0 e8 c1 b3 3c 31 2b 80 be 49 75 33 3e c2 1a de 3c
       0.021943048 -0.25032952 0.1752521 0.027112368
0002f0 0f 42 bd bd f3 a0 9e 3e 32 a8 85 be 7f bf 0b 3e
       -0.09241115 0.3098217 -0.26104885 0.13647269
000300 fe 68 48 be fa da 1c be a1 3a 24 3e ae 09 0e be
       -0.19571301 -0.15317908 0.1603799 -0.1387088
000310 c9 52 13 be b0 e6 0c bd a4 9f aa bd a7 80 34 be
       -0.14387049 -0.03439969 -0.0833123 -0.17627202
000320 2d 75 19 3e 66 5a 15 bf 24 e9 21 be d6 e2 68 3d
       0.14986105 -0.5834106 -0.15811592 0.056856953
000330 66 4e 0d be 49 e4 9b be a5 55 1f 3e 49 3d d4 be
       -0.13799438 -0.30447605 0.15560015 -0.41453007
000340 8d 5c 2e be 58 68 5b bd 91 59 8f 3e 28 4d 44 bd
       -0.17027493 -0.053566307 0.2799802 -0.047925144
000350 56 36 f0 be ee 8d 97 3e 10 2d f7 be 28 38 8c bb
       -0.46916455 0.2960047 -0.48276567 -0.0042791553
000360 06 b6 28 be f3 88 30 bc 34 e5 22 3e 11 65 95 3c
       -0.16475686 -0.010774839 0.15907747 0.018236669
000370 0f a0 1d 3e b0 0e 12 bd 0f 94 ae bd 6c c0 7a bd
       0.15393089 -0.03565854 -0.08524334 -0.061218664
000380 d9 08 0d 3d e4 79 6e 3d 29 d1 9b 3e 04 34 40 bd
       0.034432266 0.058221713 0.30433014 -0.046924606
000390 8d 25 1a be 6e 61 09 bf 92 e7 de bd 6c f7 84 3e
       -0.15053387 -0.5366429 -0.10884012 0.25970018
0003a0 5d ec 79 be 3d d5 d0 be 1a 5c a9 3e a2 b3 da bd
       -0.24406572 -0.40787688 0.3307808 -0.106787935
0003b0 72 fc 1f 3b 1b 20 6c be 0b 31 96 be ba 69 24 3e
       0.0024411944 -0.23059122 -0.29334292 0.16055956
0003c0 09 74 9b 3e 3c 7e 9e 3e 99 6c c1 3e b0 22 6b bd
       0.30361965 0.30955684 0.37778166 -0.057406127
0003d0 1e 17 8d bd 6a ce 2d bd 02 d3 a6 bd da 72 db 3e
       -0.06889175 -0.04243318 -0.08145715 0.42861062
0003e0 6d 6a 7c be c0 88 24 be 28 3a 9d 3e 8e ab 85 3d
       -0.24649973 -0.16067791 0.30708432 0.06526862
0003f0 1a 54 94 be 20 50 4b 3e 0c d3 da 3c de 9b bd 3e
       -0.28970414 0.19854784 0.026711963 0.3703298

edge_lin.2.bias f4 [32]
000000 12 c9 aa bd 6f 27 8b be d9 20 dd 3d cc 8d 03 be
       -0.08339132 -0.27178523 0.10797281 -0.1284706
000010 3c 3b 62 bc a4 09 47 be 0c 8b 07 bf 98 13 19 3e
       -0.013808068 -0.19437271 -0.52946544 0.1494888
000020 dc bd b9 bd e8 4d 2b 3e 75 79 4f 3d b9 1b 36 be
       -0.09069416 0.16728938 0.05065294 -0.17784013
000030 76 fa f9 be 45 74 17 3e 66 26 2b bc 8a a1 b6 bd
       -0.488239 0.14790447 -0.010446167 -0.0891753
000040 78 18 ed 3c 6a 7d 5c bd 2b 78 82 bd f8 c2 e4 3d
       0.028942332 -0.05383054 -0.063705765 0.1117
000050 d9 46 7f be 34 7b 2f be 0d 48 3a 3d b5 f9 ae 3d
       -0.2492937 -0.17136842 0.04547887 0.085437216
000060 18 16 85 bd 42 26 af be a2 fb f9 3d e2 5a f9 3d
       -0.06498355 -0.34208876 0.12206198 0.12175538
000070 9f eb 08 3e 88 62 be bb 74 ee 64 bd c7 3d 97 bd
       0.13371132 -0.0058100857 -0.05589147 -0.0738483

vertex_output_lin.0.weight f4 [32, 1, 32, 1]
000000 2c db 23 3e f0 c6 51 be 93 a0 00 3d 0f 5c 8e bd
       0.16001576 -0.20486045 0.031403136 -0.069511525
000010 19 10 dd 3d 7b c3 5e bd d6 0d 90 be a0 b1 86 bd
       0.10794086 -0.054385643 -0.28135556 -0.06576848
000020 f5 e5 16 be 86 ac af bd 90 bb 3b be ad 4c dc bc
       -0.14736159 -0.08577828 -0.18333268 -0.02689203
000030 90 64 9a be 8a ea dc bd 64 4c 00 be c0 24 37 3e
       -0.30154848 -0.10786922 -0.1252914 0.17885113
000040 7b 16 41 bd 1c 63 25 be 59 c5 39 3e d9 bf a5 3d
       -0.04714058 -0.16151088 0.18141688 0.08093233
000050 e0 e4 a4 be 01 65 ae bd a1 96 26 be 48 5e 20 be
       -0.32205868 -0.08515359 -0.16268398 -0.15660965
000060 05 b9 7f 3d 57 07 5d be a5 ca 86 3d f6 21 d8 bd
       0.062432308 -0.21584831 0.0658162 -0.105533525
000070 d4 90 20 3e 57 de bf 3d cd d2 ff 3c 8a da 24 be
       0.15680248 0.0936858 0.031228447 -0.16098991
000080 b6 45 94 3e 73 93 5d be a2 a1 d8 bd ed 12 15 be
       0.28959435 -0.21638279 -0.10577704 -0.14558001
000090 94 34 4f 3e ec d8 ac 3e d3 b5 60 3e 5b b2 6e 3d
       0.202349 0.33759248 0.2194436 0.05827556
0000a0 23 8d ee 3d cb 62 51 bd ba d4 2f be 80 3d e0 3c
       0.116480134 -0.051119607 -0.17170992 0.027373075
0000b0 5d df c4 3d e6 b9 b1 bb 67 b1 0f be db 43 67 bd
       0.09612916 -0.005423772 -0.14032517 -0.056461196
0000c0 d7 6f 47 3e 68 e0 75 3e b3 8d f6 be 63 e0 a4 3d
       0.19476257 0.24011385 -0.48154983 0.08050611
0000d0 fa 3c 70 3c ba 8a 8e 3d 89 25 ba bd 18 9f f3 be
       0.014662975 0.06960054 -0.090891905 -0.47582316
0000e0 54 c4 95 3e 71 7b 8b bc c4 86 63 be b8 f8 98 bd
       0.2925135 -0.017026635 -0.22219378 -0.07469314
0000f0 2a b6 45 be 70 79 c2 be 2b 36 92 be be 5e f1 bd
       -0.19307771 -0.37983274 -0.28556952 -0.11785649
000100 f2 16 f5 bc 0f 87 dd 3d 5f 30 63 bd 31 f3 c6 3c
       -0.029918168 0.10816776 -0.055466052 0.024285885
000110 62 5b b3 bc c5 9b 83 3d 70 cb 47 be 60 d7 ce bd
       -0.02189416 0.06426195 -0.19511199 -0.10099673
000120 88 79 ab bd 37 1f 91 bd 3b bc 58 be f8 74 69 bd
       -0.083727896 -0.07086032 -0.21165554 -0.056996316
000130 20 79 ec bd 2f 1e be bd 66 0c 2f 3d 0f a3 99 bd
       -0.1154654 -0.09283101 0.042736433 -0.07501804
000140 58 c9 dd bc 23 43 90 bd 21 ee 9a bd 1a 24 81 3c
       -0.027073547 -0.07044055 -0.07564951 0.015764285
000150 6c a7 34 bc 86 9a f8 bc 65 99 80 bd 1f d2 0a bb
       -0.011026245 -0.03034712 -0.06279258 -0.002118237
000160 73 3e 89 bd 7d 7d fb 3d 6d 0d a8 3d 97 a6 af 3d
       -0.06701364 0.12279794 0.08205686 0.08576696
000170 47 8c 7f 3d fc 24 a6 bc f3 0d 3f bd 73 db 90 3c
       0.06238964 -0.020281307 -0.046644162 0.017682767
000180 71 98 07 be d7 bd 3f 3e 84 63 ff 3b b4 21 16 3e
       -0.13241746 0.18724762 0.0077938456 0.14661294
000190 46 1a 57 be f0 a4 90 3d 21 dc fe bd 0c 6f aa 3d
       -0.21006116 0.07062709 -0.1244433 0.08321962
0001a0 ca 2d 79 bc 1f 68 1a 3d ac fc 2f 3e 4a 0c 5a be
       -0.015208671 0.037696954 0.1718623 -0.2129375
0001b0 b3 34 bc 3d c8 94 43 3c a4 9a b6 3d ac 44 a2 be
       0.09189739 0.011937328 0.08916214 -0.31693017
0001c0 1f 71 9a 3e 66 a9 58 3e 60 bd 24 bf 40 44 a9 3e
       0.3016443 0.2115837 -0.64351463 0.33059883
0001d0 99 83 80 bc a1 0d 50 3e 6c 3e 03 3e 21 75 77 3d
       -0.01568775 0.20317699 0.12816781 0.060414437
0001e0 a4 3e 7f 3e ff 5e 99 3d e7 23 31 3e a8 4b 30 bd
       0.24926239 0.07488822 0.17298852 -0.0430409
0001f0 0d df 02 3d 2d 43 0f bf 87 3d 92 be 3b 7a 21 bf
       0.031951 -0.5596188 -0.28562567 -0.63077134
000200 eb 0d 5d be 05 14 99 3e 3d a3 03 be 65 c8 29 3e
       -0.2158734 0.29898086 -0.12855239 0.1658035
000210 a1 27 fb bd f2 ce bc bd 58 20 06 3f 27 a7 4a bd
       -0.12263418 -0.09219159 0.523931 -0.049475815
000220 31 e4 b4 bd 33 80 40 be 9f f0 66 3d 5d e0 62 3d
       -0.088325866 -0.18798904 0.056381818 0.05538975
000230 92 fe d9 3e f0 98 8a be 03 04 00 bd f6 ef a7 bd
       0.42577034 -0.27069807 -0.031253826 -0.08200066
000240 d2 fc ef bd 04 f7 39 3e d8 a1 37 be 9d c9 31 be
       -0.117181435 0.18160635 -0.17932832 -0.17362066
000250 23 1c 9f 3e 92 d9 6d 3d 66 77 b7 bd c4 ae bc bd
       0.31076154 0.05806882 -0.0895832 -0.092130214
000260 1e e4 87 bd 5d 84 a8 3e 9b f1 d0 bb 9a 7f 6c be
       -0.06635307 0.32913485 -0.006376458 -0.23095551
000270 02 09 9e 3d 2e 9b d6 bc e5 76 16 bd 3c c2 16 be
       0.07716562 -0.026197042 -0.03673448 -0.14722532
000280 d7 20 48 bd 5c b7 52 3e ec 1f 99 be 1f de ef bd
       -0.048859444 0.20577759 -0.29907167 -0.11712288
000290 7c dc 91 be bd 69 22 3c bb 88 69 3e 38 fa 8e be
       -0.2848853 0.009912905 0.22806065 -0.27925277
0002a0 3d 26 73 be 40 98 45 be cb eb 4c bd c0 da ee bd
       -0.23745055 -0.1929636 -0.050029557 -0.11662817
0002b0 6e 7b 35 3f b7 fd f6 3d bc 0f 5d be cc ef 95 be
       0.70891464 0.12060111 -0.21588033 -0.29284513
0002c0 cd 98 16 3e 6b 45 a2 3e 0f dc c9 be 61 7f b5 3e
       0.14706726 0.31693587 -0.39425704 0.35448745
0002d0 fe 01 24 3e 8a 28 83 bd 31 e1 b5 be a2 32 81 be
       0.16016385 -0.064042166 -0.3552337 -0.25233942
0002e0 b7 5c 84 3e d0 39 a7 bd f3 cc 4c be 4b c6 e7 be
       0.25851986 -0.08165324 -0.20000057 -0.45268473
0002f0 c2 3a bb be 8a 5d 94 bd 3e 6b 13 be d1 e0 85 be
       -0.36568266 -0.07244404 -0.14396378 -0.26148084
000300 88 b0 5c 3e d2 ed 9b be 8b ff 6a bc ce 46 10 be
       0.21551716 -0.3045488 -0.014343153 -0.1408951
000310 30 06 e9 bd e8 7a 38 be 6a 68 14 bf 38 1b 0f be
       -0.11378133 -0.18015635 -0.57971823 -0.13975227
000320 97 75 83 bd 09 f6 3c be bb 09 66 bd 4c 8b 78 3d
       -0.06418913 -0.1845323 -0.056161623 0.06067972
000330 78 29 f0 be 02 44 29 3e 44 8c 26 3d ec 0b a9 be
       -0.46906638 0.16529849 0.04066111 -0.33016908
000340 06 1f 17 3e ae 9d 0b bf fe 17 e5 3d ca ee df bd
       0.14757928 -0.54537475 0.11186217 -0.10934217
000350 7c 84 3a be ec 8b cc be 3b 4c 15 be 29 28 0e 3e
       -0.18214601 -0.39950502 -0.14579861 0.13882507
000360 a1 fe a5 bc ac be 4a be a0 6d 0c be 56 58 09 3e
       -0.020263018 -0.19799298 -0.13713694 0.13412604
000370 57 4c 2c be 7d b5 57 bd 62 c9 dd bd 51 49 44 be
       -0.16825996 -0.052663315 -0.10829426 -0.19168593
000380 33 b3 9a bd c4 0c 06 be 23 1f 8d 3d 48 3e 80 3d
       -0.07553711 -0.13090807 0.068907045 0.06261879
000390 70 b6 22 3e cb 7d 86 be a7 a6 af be 15 4f fa bd
       0.15889907 -0.26267847 -0.34306833 -0.12222115
0003a0 04 20 ea be ea d5 20 3e 4a b1 4f 3e da 7c 3e 3e
       -0.4572755 0.15706602 0.20282474 0.18602315
0003b0 e9 f4 e3 3d 57 04 9b 3d 5e 80 11 be 65 31 16 be
       0.11130697 0.07569187 -0.14209124 -0.1466728
0003c0 52 21 b6 3e fe 2f 81 bb 5e 2c 18 bf 87 19 45 3e
       0.35572296 -0.0039424887 -0.594427 0.19248019
0003d0 c3 2c 0a be 84 bc 89 3e 50 f4 67 be 43 67 0b be
       -0.13493638 0.26901639 -0.22651792 -0.1361361
0003e0 98 ac aa 3d 3a 8a 34 be 94 4b 97 3e ef 9e de 3d
       0.08333701 -0.17630854 0.2954985 0.10870158
0003f0 00 3c 7a 3e fa 8c b3 be 11 32 d0 be 65 0c 81 be
       0.2443695 -0.35068494 -0.40663198 -0.2520477

vertex_output_lin.0.bias f4 [32]
000000 9d 4c 11 be b2 4b 6e be b9 9a 12 3d 7c b3 c0 3d
       -0.14189382 -0.23271063 0.035792086 0.09409234
000010 97 79 3d bd f4 6e 23 3e ae 9e 00 be 81 dd 33 3e
       -0.046258535 0.15960294 -0.12560531 0.17564966
000020 bf b7 cd bd 61 d9 38 be 7e 83 89 bc 0c b1 7d be
       -0.100448124 -0.18051673 -0.016786333 -0.2477457
000030 6d 89 22 3d ce 23 af bc 30 53 0f be 09 22 a3 3d
       0.03968184 -0.021379378 -0.13996577 0.07965476
000040 1f c3 84 bd ca d2 97 bc af 05 33 bb 58 4c 07 bc
       -0.06482529 -0.01853313 -0.002731662 -0.008257948
000050 68 13 40 3e 99 50 76 3c 71 0c 2a be e9 fe ad 3e
       0.18757403 0.015033864 -0.16606309 0.33983544
000060 41 b0 6c bc 7a 5c 38 be 28 93 b5 3c 80 71 08 be
       -0.014446319 -0.18004027 0.022164896 -0.13324547
000070 0a a5 83 bd a4 34 7e 3d a1 59 4b 3e c2 56 6a bc
       -0.06427963 0.06206192 0.1985841 -0.014302911

vertex_output_lin.2.weight f4 [1, 32, 1, 1]
000000 81 53 c6 bb 62 fa c0 be 14 8f 17 3c 95 f8 bf be
       -0.006052435 -0.37691027 0.009250421 -0.3749434
000010 86 48 ed bd 95 55 c3 be a7 68 c3 3d b4 0b b4 be
       -0.115860984 -0.3815123 0.09541445 -0.3516518
000020 32 c7 d3 3d bb 72 ea bd 22 a6 e8 be 9f 08 8f bc
       0.10340728 -0.11447664 -0.4543925 -0.017460166
000030 42 5d c1 be 7d 75 94 3b 4b a4 d8 be 1e e9 86 3e
       -0.37766463 0.0045306073 -0.42312846 0.2634973
000040 da e0 cf be 8f 89 a2 3a 11 1a 02 3e e9 5d e7 bb
       -0.40601236 0.0012400615 0.12705256 -0.0070607555
000050 5f 15 a6 be f5 a5 54 3e 80 5a 3f bf db 1c 4b 3e
       -0.3243818 0.20766433 -0.7474747 0.19835226
000060 d0 ae 45 3c 94 dc fe bd d9 8f 7a be 0e 72 b3 3b
       0.012065604 -0.12444416 -0.24468936 0.005476243
000070 92 5c 21 bd ee 84 87 be 40 9a 79 3d 80 d3 94 be
       -0.039394923 -0.26468605 0.06093812 -0.29067612

graph_output_lin.0.weight f4 [1, 618]
000000 7c 27 d9 bd fc 82 17 3d 52 5e b6 bd c1 10 3d be
       -0.10603234 0.03699015 -0.08904709 -0.18463422
000010 68 7c 57 3d ef 66 c9 bb 8f ac 97 ba 87 ae ae bb
       0.052608877 -0.006146304 -0.0011571812 -0.005330864
000020 66 c8 0a be d1 4d a5 bd e8 7f 99 3c 30 95 7b 3e
       -0.13553008 -0.08071483 0.018737748 0.2456863
000030 3f 4d 89 be 30 d2 e1 3d 6c 72 53 3e 77 04 1e be
       -0.26816747 0.11026418 0.20649117 -0.1543139
000040 35 49 37 3e bd 55 a7 3d db 67 61 be 8d 21 c6 3c
       0.1789902 0.0817065 -0.22012274 0.02418592
000050 71 3a 58 be 23 12 cf 3d 22 c6 1d bc 5b 9e 84 be
       -0.21116044 0.10110881 -0.009629758 -0.25902066
000060 59 4b 72 3d 74 dc 96 bd 3a ec 21 be 66 7c a4 be
       0.05915389 -0.07366267 -0.1581277 -0.32126158
000070 0b 47 b8 bd 46 52 22 bf 9a 23 11 be 89 fc d3 bd
       -0.08997925 -0.6340679 -0.14173737 -0.10350902
000080 3b 9c 29 bd 67 89 a2 be 3f 46 5c 3d e7 b6 ea bc
       -0.04140876 -0.31745455 0.05377793 -0.028651668
000090 3b 30 17 be 03 2f 5f 3d 6f da 84 3e 69 6f 7a bd
       -0.14764492 0.054488193 0.25947902 -0.061141405
0000a0 01 20 8b bd b5 48 81 be e8 70 d2 bd 78 2d 8c 3d
       -0.06793214 -0.25250784 -0.102754414 0.0684461
0000b0 48 de ae 3d 8f f9 13 be 2b 30 bc 3d c2 ce 1c 3e
       0.085384905 -0.14450668 0.09188875 0.15313247
0000c0 e4 bd bb be da 51 02 be ac 95 ea 39 49 96 c2 3c
       -0.36668313 -0.12726536 0.00044743472 0.023753302
0000d0 96 9a f5 bc 8c f0 ad bb a3 cd 8f be ba e3 0e bd
       -0.029980939 -0.0053082164 -0.28086576 -0.034885146
0000e0 23 1b fe bd b8 62 df 3d 19 2a 27 3e b4 dd e4 be
       -0.1240752 0.10907501 0.16324653 -0.44700396
0000f0 83 32 74 3c ea 86 04 bd 18 76 3a bc 6b 89 2e bd
       0.014904621 -0.032355227 -0.011380695 -0.04261152
000100 6b bc 79 be d8 84 5e 3c e4 fa de 3d 5c a1 19 3d
       -0.24388282 0.013581477 0.10887697 0.0375074
000110 26 63 9b 3e f8 54 ea bd 37 29 82 be 84 df 17 bf
       0.30349082 -0.11441988 -0.2542207 -0.5932543
000120 10 08 49 3b aa 62 84 3c fc 39 e8 bd bc 9d c4 bd
       0.0030674972 0.016160328 -0.11339185 -0.09600398
000130 0d ce 1c bb 23 63 5f bd ee c6 c6 bc f5 dc 83 3e
       -0.0023926527 -0.054537904 -0.024264779 0.25754514
000140 64 8f 6e be 0a 92 cc 3d a2 86 3c 3d c7 d9 6c 3e
       -0.23296887 0.09988792 0.046026833 0.2312995
000150 78 c9 a6 3b 2f a9 4b be 93 00 fb bd e1 49 52 be
       0.005089935 -0.19888757 -0.12255969 -0.20535995
000160 4e 75 7b bc 43 46 1d be 47 54 b5 bc 90 6b b7 3d
       -0.015347792 -0.15358834 -0.022134913 0.08956063
000170 6c 2b 38 3c e5 7f 3e bd 20 fe bc bd 9d 41 70 be
       0.011240821 -0.04650869 -0.09228158 -0.2346253
000180 0f 0d 4b 3d 74 bf 8f bd e5 e1 ff be 1f 24 bc 3d
       0.049573 -0.07018939 -0.4997703 0.09186577
000190 d9 cf 5d be be 07 09 bd a2 b9 24 be 1e d0 b7 be
       -0.21661319 -0.03345465 -0.16086438 -0.35900968
0001a0 35 53 84 bc a8 c4 b0 3c d7 b4 09 be 11 de 34 be
       -0.016152957 0.021578148 -0.13447891 -0.17662837
0001b0 40 3f b6 be 9a a5 45 3e f9 19 93 3d 71 8e 8b be
       -0.3559513 0.19301453 0.07182688 -0.27257112
0001c0 0d 77 10 3c e8 58 61 3c e4 24 b8 3e bb d7 54 3e
       0.008817446 0.013754107 0.35965645 0.2078542
0001d0 79 c7 21 bd 13 92 c6 3e 4b 8c 31 be 1d 9f 22 3e
       -0.039496873 0.3878332 -0.17338674 0.1588101
0001e0 63 73 12 3e 52 0e d4 3d 12 5c 33 bd aa 97 3f 3e
       0.14301829 0.10354294 -0.043788977 0.18710199
0001f0 d1 c5 2e bd 85 f2 04 bf 87 7c e0 3c 9f 66 82 be
       -0.04266912 -0.51932555 0.02740313 -0.2546892
000200 21 d9 25 be b8 25 50 bd 08 92 8f 3e d9 95 af 3d
       -0.1619611 -0.05081722 0.280411 0.08573503
000210 df 33 6b be d9 c9 85 3d c6 82 86 be ec 67 e1 bd
       -0.22969006 0.0653264 -0.26271647 -0.1100615
000220 95 fa 95 be b6 45 9e bd bf 8a a5 bd aa a8 8e bc
       -0.2929274 -0.0772814 -0.08083104 -0.01741441
000230 c0 f8 30 bd 95 88 09 be 62 24 4e be df 8c 36 3e
       -0.043205976 -0.13431008 -0.20131066 0.17827176
000240 61 60 ce 3e 2f 28 c2 3d 89 1e 05 3e c0 33 f6 3d
       0.40307906 0.09480321 0.1299993 0.12021589
000250 0f 3e 86 3d f2 49 5e be 0f fd 5d be 4a 2e 57 3d
       0.065548055 -0.21707895 -0.21678565 0.05253438
000260 4e 31 b1 bb 15 c7 a1 bd 30 23 f0 3c 15 44 49 bd
       -0.005407489 -0.078993 0.029313654 -0.049137194
000270 ea 2e 96 3a 90 18 10 be cc 01 56 bd dc 87 61 3d
       0.0011458073 -0.1407187 -0.052247807 0.055061206
000280 0e c2 47 3e 36 28 c6 bd ee ce 57 3e cb 20 96 be
       0.1950762 -0.096756384 0.21075031 -0.29321894
000290 61 88 0d 3e c9 62 5d 3e f2 88 ec 3d 93 2f 4c bd
       0.13821556 0.21619715 0.11549558 -0.049850058
0002a0 f4 12 89 3d 1c bd 79 bd be 88 b5 3d 95 cc a9 3d
       0.06693068 -0.060971364 0.08863972 0.08290974
0002b0 e0 40 58 3c ff fd 5d 3e 5a 53 3f 3d 85 b6 dd 3d
       0.013199061 0.21678923 0.04671035 0.108258285
0002c0 ed b5 b8 3d c7 ce fc bd e5 b5 60 be 4c 8b 81 be
       0.090190746 -0.12344127 -0.21944387 -0.25301588
0002d0 b7 bf 1b be 33 68 62 be a4 bc 6f bd a1 7d bb 3d
       -0.15209852 -0.22110061 -0.05852951 0.09154821
0002e0 dc 9e 1b 3e 8e 12 b8 3d d3 75 da bd 13 de 19 be
       0.15197319 0.08987914 -0.106670044 -0.15026121
0002f0 a5 d5 08 3e 0e 81 d6 be 2a 02 c5 bd cd ea 52 3e
       0.13362749 -0.41895336 -0.096195534 0.20597382
000300 0e 78 4d 3d 0a 80 99 bc 1c 81 3d be 25 2c 83 be
       0.05016332 -0.018737812 -0.18506283 -0.25619617
000310 a6 31 77 be 47 f0 4f 3e 38 f0 75 bb 7a 52 1b 3d
       -0.24140033 0.20306502 -0.0037527215 0.037920453
000320 58 a1 5a 3e 97 79 8d be b3 7d aa bd 28 5f f7 3d
       0.2135061 -0.27631828 -0.083247565 0.120786965
000330 c2 82 0c be d3 54 99 3e c2 17 2a 3e 8f 07 69 bd
       -0.13721755 0.29947528 0.16610625 -0.056891974
000340 4b 13 52 3c eb 51 23 bd 00 51 3c 3d 67 0d ae 3e
       0.012821983 -0.039873045 0.045975685 0.339946
000350 03 69 d9 bc e9 99 26 3c 4a 10 92 3d df fc 2c be
       -0.026539331 0.010168531 0.07132013 -0.16893338
000360 3c 68 46 bd c6 81 61 3d c9 09 44 3d d8 75 bd 3e
       -0.04843925 0.055055402 0.047860894 0.3700397
000370 4a 46 6e bd cf 85 de 3c e8 d8 96 bd d2 fa b6 3d
       -0.0581725 0.027163414 -0.0736559 0.08934559
000380 17 80 33 3e 0f c5 67 3e d7 1f 1c 3e 83 4a 8b 3d
       0.17529331 0.22633766 0.15246521 0.06801321
000390 ab 52 24 3d e0 7e a8 bd c1 95 af 3c 36 bc db bd
       0.0401179 -0.082273245 0.021433713 -0.10729258
0003a0 13 89 fb bc 65 5b 57 bd 02 67 1b 3e d9 7f 18 be
       -0.03070501 -0.052577395 0.15176013 -0.1489252
0003b0 97 eb fd bc 33 a4 b3 be e4 11 06 3e 28 41 8c be
       -0.030996127 -0.35086212 0.13092762 -0.2739346
0003c0 54 90 a5 3c 72 39 62 be 32 e2 8f 3d 5a d0 b2 bd
       0.020210423 -0.22092226 0.07025565 -0.08731146
0003d0 62 1d 55 bd 12 15 43 3c c4 ee fb bd dc 5f 13 3e
       -0.052029975 0.011906879 -0.123014 0.14392036
0003e0 22 d9 b2 be ce c2 90 3c ae 8e a3 3a b7 0f 8a bc
       -0.34931284 0.017671015 0.0012478435 -0.016853197
0003f0 99 d2 b5 bd 09 4f 5c bc 7b ec c6 bd 9a 86 40 3d
       -0.08878059 -0.013446578 -0.09713074 0.047003366
