reachability_classification/weights/SimpleMultiplePassGNNReachabilityNet_epoch_90.pt (torch_old, 36685 bytes, 16 tensors)

x_lin.0.weight f4 [32, 1, 1, 11]
0	0xbe1d31ee	-0.15351078
1	0xbe48807b	-0.19580261
2	0xbe0df569	-0.13863148
3	0xbfdc04f8	-1.7189016
4	0xbeb4d892	-0.3532148
5	0xbd8eaede	-0.06966947
6	0xbc8efd20	-0.017454684
7	0x3df02f31	0.11727751
8	0xbd534d98	-0.05158767
9	0x3c0da59e	0.008645443
10	0xbeab47c7	-0.334532
11	0x3d8477e6	0.06468181
12	0xbd64a7de	-0.055824153
13	0x3c2c6dfd	0.01052427
14	0x3e4d6430	0.2005775
15	0xbe2141d7	-0.15747772
16	0xbf0361e5	-0.5132125
17	0xbdbc0c32	-0.091820136
18	0xbe7153b1	-0.23567082
19	0x3e8c4422	0.2739573
20	0xbeae4587	-0.3403742
21	0x3d3e3ff2	0.0464477
22	0xbf034b5e	-0.51286876
23	0x3d4254f6	0.047444306
24	0x3e05ca19	0.13065375
25	0xbeb613e4	-0.3556205
26	0x3ea12ecc	0.31481016
27	0x3e230af2	0.15922144
28	0x3dcbce26	0.09951429
29	0xbec99384	-0.39370358
30	0x3e2b21eb	0.16712157
31	0x3f354893	0.70813864
32	0xbd5165fe	-0.051122658
33	0x3e06e853	0.13174562
34	0xbe5a980a	-0.21347061
35	0xbec91242	-0.39271742
36	0x3f0fc06b	0.5615298
37	0xbd9f3fa9	-0.07775814
38	0xbdcb170b	-0.099165045
39	0xbf33f4f0	-0.7029562
40	0xbd98beef	-0.07458293
41	0xbdd81398	-0.10550612
42	0xbf3ccdef	-0.7375173
43	0xbe580f9e	-0.21099707
44	0x3d03788e	0.03209739
45	0x3e14c0c2	0.14526656
46	0x3d7fa7c6	0.06241586
47	0xbd81f7fa	-0.06346126
48	0xbed4e9cb	-0.4158462
49	0x3d920f66	0.07131843
50	0xbe048ae8	-0.12943614
51	0x3edff486	0.43741244
52	0x3eee807c	0.465824
53	0xbe389c57	-0.18028389
54	0xbe6e3fb9	-0.23266496
55	0x3c6620ff	0.014045953
56	0xbe225ce8	-0.15855753
57	0xbdc13424	-0.09433773
58	0x3f1e6732	0.61876214
59	0x3df6aa29	0.12044174
60	0x3de9a294	0.114079624
61	0x3f220390	0.63286686
62	0x3bb7c7e5	0.005608546
63	0xbdde6a3e	-0.10860108
64	0xbf24a097	-0.6430754
65	0xbe4e9b6c	-0.20176476
66	0xbeb459f5	-0.35224882
67	0x3e0b1610	0.13582635
68	0xbdae2f0a	-0.08505066
69	0x3eec5086	0.46155185
70	0xbe96967a	-0.2941168
71	0x3e3cdc1f	0.18443345
72	0x3c32b198	0.010906599
73	0x3e7efd4f	0.24901317
74	0xbf960b5f	-1.172222
75	0x3eefc9d5	0.46833673
76	0xbda47569	-0.08030207
77	0xbf22f0ec	-0.6364887
78	0xbe753bdb	-0.23948614
79	0xbeafb185	-0.34315124
80	0xbe62ca4f	-0.22147487
81	0xbea675ee	-0.32511848
82	0xbccddca7	-0.02512963
83	0x3eb80735	0.35943
84	0x3eab3599	0.3343933
85	0x3e722b44	0.23649317
86	0x3d2cd6ba	0.042196967
87	0x3e748580	0.23879051
88	0x3ec45ee1	0.38353637
89	0xbea9eae4	-0.3318702
90	0xbe9bccac	-0.3042959
91	0xbe94a21b	-0.29029927
92	0x3ebf8147	0.37403318
93	0xbeb2c391	-0.3491483
94	0xbddd1f3f	-0.10796975
95	0x3ddae03e	0.10687302
96	0x3ec32c20	0.38119602
97	0x3e7b4cb9	0.24540986
98	0x3e42bec6	0.19018087
99	0x3f209d93	0.6274044
100	0xbd3ad586	-0.045613788
101	0x3ed1d854	0.40985358
102	0x3dde1feb	0.108459316
103	0xbd2f6b99	-0.042827222
104	0x3e6b5668	0.2298218
105	0x3d38cc3b	0.045116644
106	0x3f3b9a5a	0.73282397
107	0xbd7d8281	-0.061892036
108	0x3c37cc7a	0.011218185
109	0xbde16c6e	-0.110070094
110	0xbe03d174	-0.12872869
111	0x3dda9918	0.106737316
112	0x3e60685e	0.21914813
113	0x3ec7c1f8	0.39015174
114	0xbe1f20d0	-0.1553986
115	0x3e72f5d2	0.23726586
116	0xbdbe7658	-0.09299916
117	0xbdef4a7a	-0.11684127
118	0xbe0445af	-0.12917207
119	0x3e05f3ee	0.13081333
120	0xbef3ac81	-0.47592548
121	0xbe6f5866	-0.23373565
122	0x3e3528a6	0.17691287
123	0xbd5ef538	-0.054433078
124	0x3d09fb46	0.0336869
125	0xbee6cefb	-0.4507979
126	0x3ded79e0	0.115955114
127	0xbef13ba6	-0.4711582
128	0x3ec3ffa1	0.38280967
129	0x3e1a8af1	0.15092064
130	0xbe08efff	-0.13372801
131	0x3e9521c3	0.2912732
132	0xbf0c0273	-0.5469124
133	0xbdce3537	-0.10068744
134	0xbe2b7f67	-0.16747819
135	0xbe1ee118	-0.15515554
136	0xbebfdc04	-0.37472546
137	0xbdd537c8	-0.1041103
138	0x3ea64bea	0.32479793
139	0x3efe6624	0.49687302
140	0xbd8b4a21	-0.06801248
141	0xbdb2fd66	-0.08739738
142	0x3f0a2e21	0.5397664
143	0x3dc74951	0.09730781
144	0x3cf62fc2	0.03005207
145	0xbec840e2	-0.39112002
146	0x3d59a945	0.053139944
147	0xbebb691e	-0.36603636
148	0xbc1b0bc6	-0.009463256
149	0xbf179444	-0.5921061
150	0xbb074992	-0.0020643217
151	0xbdd2797f	-0.1027708
152	0x3f49c154	0.7881062
153	0xbf63fb83	-0.8905565
154	0xbeb68338	-0.35646987
155	0xbe83159b	-0.2560242
156	0xbe83ccb6	-0.2574212
157	0x3d438a3a	0.047739245
158	0x3ead1c9a	0.33810884
159	0xbea72de4	-0.326522
160	0x3eb38783	0.35064325
161	0xbeec1f2c	-0.46117532
162	0xbde39e22	-0.11114146
163	0x3ed1b506	0.40958422
164	0xbf169321	-0.5881825
165	0x3e0c56f7	0.1370505
166	0xbbaebb52	-0.005332389
167	0x3e996367	0.2995865
168	0x3c9e800e	0.01934817
169	0xbed1aff7	-0.40954563
170	0xbe31cf17	-0.17364155
171	0x3e997ce3	0.29978094
172	0x3ddc650b	0.1076146
173	0xbdf54c86	-0.11977486
174	0x3f6043ba	0.8760334
175	0xbf72a576	-0.94783723
176	0x3f2ebdeb	0.6825854
177	0x3e19da33	0.15024643
178	0x3e22d8df	0.15903042
179	0xbf057a2c	-0.52139544
180	0x3eea3ad4	0.45748007
181	0xbe0fd335	-0.14045413
182	0x3ea57cec	0.3232187
183	0xbdf084db	-0.1174409
184	0x3cc0db88	0.02354218
185	0xbf1962b3	-0.5991623
186	0x3f4aff5f	0.79295915
187	0xbe22702c	-0.15863103
188	0x3dcc3076	0.09970181
189	0x3dc9cbed	0.09853349
190	0xbefb8158	-0.4912212
191	0xbe54ee84	-0.20794111
192	0xbe516334	-0.20447999
193	0x3e592769	0.2120644
194	0xbeaf48b8	-0.34235168
195	0xbdcc740e	-0.09983073
196	0xbe5e9fa2	-0.21740583
197	0xbdee85e2	-0.1164663
198	0x3e3da6e3	0.18520693
199	0xbed9e042	-0.42553908
200	0x3d52eae5	0.051493544
201	0xbf074ada	-0.5284859
202	0xbcba0980	-0.022709608
203	0xbbcbd406	-0.0062203435
204	0xbd24b3ed	-0.040210653
205	0x3cb060e6	0.02153058
206	0xbe26838b	-0.16261117
207	0xbf7f7f89	-0.9980398
208	0x3f6c197f	0.92226404
209	0x3ea112b2	0.31459576
210	0xbd27b2c7	-0.04094198
211	0xbd9bf7ef	-0.07615649
212	0x3f135090	0.57544804
213	0x3e3d18e6	0.18466529
214	0xbeab97d4	-0.33514273
215	0x3bada1e5	0.0052988403
216	0xbe28c332	-0.16480711
217	0xbf1a61a4	-0.6030524
218	0xbf3457ce	-0.7044648
219	0x3f19e083	0.601082
220	0x3d73f30c	0.05955796
221	0xbea8d78d	-0.32976952
222	0xbc50a11e	-0.012733726
223	0x3efd8c31	0.4952102
224	0x3f89c576	1.0763385
225	0xbe644d67	-0.22295152
226	0x3e90a496	0.2825057
227	0x3e4be5fe	0.19911954
228	0x3df62514	0.12018791
229	0x3f410b07	0.7540745
230	0xbf048f62	-0.51781285
231	0x3dd8f8e5	0.10594348
232	0x3e527d0e	0.20555517
233	0xbe52eb2c	-0.20597523
234	0x3cb7a1c5	0.022416005
235	0x3e7176ed	0.23580523
236	0xbefd7c74	-0.49509013
237	0xbea8d05c	-0.32971466
238	0xbe71c6e9	-0.23611034
239	0x3e8da56d	0.27665272
240	0xbf8084a7	-1.0040482
241	0x3f1f00da	0.62110674
242	0x3e68ed4d	0.22746773
243	0xbd954927	-0.07289343
244	0x3e95ae94	0.29234755
245	0xbe02c638	-0.12770927
246	0xbeae0c50	-0.3399377
247	0x3e015a11	0.12632014
248	0xbe0f9a4e	-0.14023706
249	0x3e5a756b	0.21333854
250	0xbdc4eef7	-0.096158914
251	0x3f0f8ebd	0.56077176
252	0xbf536b9d	-0.8258608
253	0x3db6eeda	0.08932276
254	0xbdbd325f	-0.09238123
255	0x3d3771ad	0.044786144

x_lin.0.bias f4 [32]
0	0xbf00d14c	-0.5031936
1	0xbeff28b7	-0.4983575
2	0xbe0f2e41	-0.13982488
3	0x3d9bf726	0.07615499
4	0xbe733373	-0.23750095
5	0xbeb71eea	-0.35765773
6	0x3e30a060	0.17248678
7	0xbd5ac422	-0.053409703
8	0x3f038254	0.5137074
9	0x3deb287a	0.1148233
10	0xbf0263f4	-0.50933766
11	0x3ea5c908	0.32379937
12	0x3f12afe0	0.57299614
13	0xbeb926fc	-0.36162555
14	0xbdac40e5	-0.08410815
15	0xbe5cf3e4	-0.21577412
16	0x3f0b19a6	0.5433601
17	0xbe5a7db7	-0.21337019
18	0x3ef6bcce	0.48190922
19	0xbc65b176	-0.014019361
20	0xbe440afa	-0.19144812
21	0x3e61c361	0.22047187
22	0xbe25b67d	-0.16182895
23	0x3d9027f8	0.070388734
24	0xbe65e5a8	-0.22450888
25	0xbd2b6cca	-0.041851796
26	0xbef14917	-0.47126076
27	0x3e85c972	0.26130253
28	0x3e903e1c	0.28172386
29	0xbe0e6bab	-0.1390826
30	0x3e84b701	0.2592087
31	0x3f2f31f2	0.68435585

x_lin.2.weight f4 [32, 32, 1, 1]
0	0x3e884638	0.26616073
1	0x3e038b4b	0.12846105
2	0x3b71b4a4	0.0036881352
3	0xbb18bf3d	-0.0023307346
4	0xbded94e1	-0.11600662
5	0xbe2a2d6f	-0.16618894
6	0xbd5546bb	-0.052069407
7	0xbeba13e7	-0.3634331
8	0xbc337ca1	-0.010955007
9	0x3f2fe58d	0.6870964
10	0x3e1234c1	0.14277937
11	0xbe63316d	-0.22186823
12	0xbdbb686f	-0.091507785
13	0x3e8c8d73	0.27451667
14	0x3df9a7f6	0.12190239
15	0x3ebbf954	0.3671366
16	0x3c2a858e	0.0104078185
17	0x3b94f0ca	0.004545306
18	0xbe22997b	-0.1587886
19	0xbe91cc96	-0.284764
20	0x3e8f26a6	0.27959174
21	0x3e837636	0.25676125
22	0x3e236aa7	0.15958653
23	0xbf77c304	-0.96781945
24	0xbcfef8b2	-0.031124447
25	0x3e472c9c	0.19450611
26	0x3dae4a1f	0.08510231
27	0x3eaf3ab4	0.34224474
28	0x3df8cc10	0.12148297
29	0x3c86e5ba	0.016466964
30	0xbecac172	-0.39600712
31	0xbf40190b	-0.7503821
32	0x3eec1779	0.46111658
33	0xbdd4f29f	-0.10397839
34	0x3ecdb4bc	0.40176952
35	0x3dda1548	0.1064859
36	0x3dbd2136	0.0923485
37	0xbf134784	-0.57531
38	0xbe8370da	-0.25672036
39	0x3d24415c	0.040101394
40	0xbe1e02ce	-0.15430757
41	0xbd61d2d8	-0.055132717
42	0x3d6e52be	0.058184378
43	0x3e118a44	0.142129
44	0xbe0888c0	-0.13333416
45	0x3f0a57ec	0.5404041
46	0x3e394882	0.18094066
47	0x3ec481ba	0.38380224
48	0xbf0ee7f9	-0.5582271
49	0x3e10f405	0.14155586
50	0xbf3a5dcd	-0.7279938
51	0xbe46c0bb	-0.19409458
52	0xbe841f2e	-0.25805038
53	0xbca868d6	-0.020557802
54	0x3dc8d0df	0.09805464
55	0x3da768a4	0.081742555
56	0xbe912485	-0.28348175
57	0x3d91ddc6	0.07122378
58	0x3ebfaf48	0.37438416
59	0xbddb8eba	-0.10720582
60	0x3e1a3fe9	0.15063442
61	0x3e738846	0.23782453
62	0xbde5ce23	-0.11220958
63	0x3ef4d5c7	0.4781935
64	0x3e516e9b	0.20452349
65	0xbe07b17a	-0.13251296
66	0xbe08b3f5	-0.13349898
67	0xbe86dc8a	-0.26340133
68	0x3e9822ad	0.29713956
69	0x3e4edc9c	0.20201343
70	0x3daa2e5e	0.08309625
71	0x3e92e9c1	0.28693965
72	0xbe53f8d9	-0.20700397
73	0x3d98eea0	0.07467389
74	0xbe2c567d	-0.16829868
75	0x3e575f50	0.21032453
76	0xbf0726ec	-0.52793765
77	0xbe517ecf	-0.2045853
78	0x3e8efb41	0.27926067
79	0x3ee6e108	0.4509356
80	0xbec84d1c	-0.3912133
81	0x3d956532	0.07294692
82	0x3d017fb9	0.031615946
83	0x3ddd78a4	0.10814026
84	0x3ef5da6c	0.48018205
85	0xbc1d19ba	-0.009588653
86	0x3e439396	0.19099268
87	0xbad6b873	-0.0016381874
88	0x3d1fd833	0.039024543
89	0xbeb815fa	-0.35954267
90	0x3e23accb	0.15983884
91	0x3ead702b	0.3387464
92	0xbef28ae9	-0.47371605
93	0x3e8fd58a	0.28092605
94	0xbeb9074e	-0.36138386
95	0xbf1a8594	-0.60360074
96	0x3cbd89ba	0.023136962
97	0x3d37dd25	0.044888634
98	0xbd65c8fa	-0.05609987
99	0x3eaa1605	0.33219925
100	0xbee02927	-0.43781397
101	0xbe80371a	-0.2504204
102	0xbed9a0ee	-0.42505592
103	0xbee1d40e	-0.44107097
104	0x3d2c8e02	0.042127617
105	0xbeb42426	-0.3518383
106	0xbef85ae3	-0.4850684
107	0xbf721db6	-0.94576585
108	0x3f0061ef	0.50149435
109	0xbf37ed79	-0.7184673
110	0x3e0e816f	0.13916562
111	0x3f098b51	0.53728205
112	0x3e9b0394	0.30276167
113	0xbf45584c	-0.77087855
114	0xbf019571	-0.50618654
115	0x3ea940fc	0.33057392
116	0x3ed0e2f5	0.40798154
117	0x3e174f4d	0.14776345
118	0x3e83410c	0.25635564
119	0xbd8f284d	-0.06990109
120	0x3ee4c1a3	0.44678983
121	0xbc44ab60	-0.01200375
122	0xbf359a10	-0.70938206
123	0xbf12d50c	-0.57356334
124	0xbe0377ed	-0.12838717
125	0xbdcc15a5	-0.09965066
126	0xbf0d86f0	-0.55284023
127	0x3f5dcf49	0.8664442
128	0x3cbd5678	0.02311252
129	0xbd742b00	-0.05961132
130	0xbcd6d1dd	-0.026223117
131	0x3d18e473	0.03732724
132	0xbc60bb06	-0.013716465
133	0x3d5013dc	0.05080019
134	0x3e2a3968	0.16623461
135	0xbeb4e1b2	-0.35328442
136	0x3d68b646	0.056814454
137	0xbd70c5b4	-0.058782294
138	0x3e306165	0.17224653
139	0x3d9645f4	0.07337561
140	0xbe2f4f87	-0.17120181
141	0x3df6c72c	0.12049708
142	0x3bd4fb6c	0.0064996984
143	0x3ecb32e1	0.39687255
144	0xbe5bfd1f	-0.21483277
145	0x3dc03355	0.09384791
146	0xbf0e5fce	-0.55614936
147	0xbe1ed26e	-0.1550996
148	0xbd8821bc	-0.06647059
149	0xbe280f66	-0.16412124
150	0x3ec17720	0.37786198
151	0x3eca3f43	0.3950139
152	0x3db54d2a	0.088526085
153	0x3e4ee31f	0.20203827
154	0x3de418c3	0.111375354
155	0x3daca5e1	0.084300764
156	0xbfaf5016	-1.3696315
157	0x3e811bff	0.25216672
158	0xbeb02ae0	-0.3440771
159	0x3e55067c	0.20803255
160	0x3d84bd92	0.0648147
161	0xbdc2461c	-0.094860286
162	0x3ebf93b9	0.3741739
163	0xbddf19d1	-0.10893596
164	0xbe4e6f80	-0.20159721
165	0xbe28956d	-0.16463251
166	0x3d6079f4	0.054803804
167	0x3e9d7f40	0.30761147
168	0x3e34b39f	0.17646645
169	0xbd31b8e6	-0.043389224
170	0xbdbabbec	-0.091178745
171	0x3da31f1c	0.07964918
172	0x3eccfc89	0.4003642
173	0xbed9b6e7	-0.42522356
174	0x3e5ff46e	0.21870586
175	0xbb3c138b	-0.0028698172
176	0x3eb876fa	0.36028272
177	0x3ea1c998	0.31599116
178	0x3e228cdc	0.15874046
179	0xbeac9037	-0.33703777
180	0xbf4649a1	-0.774561
181	0xbdbd6a9f	-0.09248852
182	0xbee4fa51	-0.44722226
183	0x3e8893a4	0.2667514
184	0x3f044bac	0.51677966
185	0xbe6e4289	-0.23267569
186	0x3e7e95a0	0.24861765
187	0xbcc98374	-0.024598815
188	0xbdbb6bf7	-0.09151452
189	0x3e1e5b3c	0.1546449
190	0x3decbafc	0.11559102
191	0x3ea758a5	0.32684818
192	0x3e1910dc	0.14947838
193	0x3d01cd2a	0.0316898
194	0xbe294978	-0.16531932
195	0xbeeae235	-0.45875707
196	0xbd28ea9b	-0.041239362
197	0x3e03dc7c	0.12877077
198	0xbe9277e3	-0.2860709
199	0x3e2a3c50	0.1662457
200	0xbf0183b7	-0.50591606
201	0xbf24848e	-0.6426476
202	0x3eaa815b	0.33301815
203	0xbd19d401	-0.0375557
204	0xbeaa7000	-0.33288574
205	0x3e0a703e	0.1351938
206	0xbf2af725	-0.6678336
207	0x3ec8e347	0.392359
208	0xbe488041	-0.19580175
209	0x3e95a215	0.2922522
210	0xbe82379e	-0.25433058
211	0xbedbdb44	-0.42940724
212	0xbf05072b	-0.5196406
213	0xbe890d88	-0.26768136
214	0x3eb7a4f9	0.35868052
215	0xbe30856f	-0.17238401
216	0xbdbe3b61	-0.092886694
217	0xbe0de874	-0.13858205
218	0x3e8a7477	0.2704198
219	0x3e21cbda	0.1580042
220	0xbf18ef44	-0.5974009
221	0x3eafd6b5	0.34343496
222	0xbdc699b8	-0.09697288
223	0x3ea8072b	0.3281797
224	0xbf3e3e5c	-0.743139
225	0xbf313734	-0.6922486
226	0xbe97602e	-0.29565567
227	0xbf5b1a33	-0.8558685
228	0xbd5d3bf0	-0.05401224
229	0x3e33bb2f	0.17551874
230	0xbea88f07	-0.3292162
231	0xbe67d6c7	-0.22640525
232	0x3d65948c	0.05604987
233	0x3e96e498	0.29471278
234	0x3d79d583	0.060994636
235	0x3c22dd23	0.009940418
236	0x3c3df9af	0.011595174
237	0xbd0af9d3	-0.033929657
238	0xbe38879e	-0.18020484
239	0x3d3e0a1a	0.046396352
240	0x3f3163f9	0.6929317
241	0xbecb5482	-0.39712912
242	0xbf1b000e	-0.6054696
243	0xbedc3aeb	-0.430137
244	0xbe011a17	-0.12607609
245	0x3dfb6128	0.122743905
246	0x3e022d93	0.12712698
247	0xbd719145	-0.05897643
248	0xbe03a913	-0.12857465
249	0xbe80def7	-0.2517011
250	0xbdc747ea	-0.097305134
251	0xbf732acf	-0.94987196
252	0x3e5adbf0	0.21372962
253	0x3e4db013	0.20086698
254	0xbf331970	-0.6996069
255	0xbed787e3	-0.4209586

x_lin.2.bias f4 [32]
0	0xbe84c6c4	-0.25932896
1	0xbe815e50	-0.25267267
2	0xbe6719f3	-0.22568493
3	0xbe68cc98	-0.22734296
4	0xbe3f9247	-0.18708144
5	0x3d6280a2	0.055298455
6	0xbdaad22c	-0.08340868
7	0x3e87100b	0.26379427
8	0xbeac2876	-0.3362462
9	0xbd826792	-0.06367411
10	0x3e20309d	0.15643544
11	0x3d2bdf43	0.041960966
12	0x3de00617	0.109386615
13	0x3cf24290	0.029572755
14	0xbe5ddd91	-0.21666552
15	0x3e04bfb9	0.12963761
16	0xbe525eea	-0.2054402
17	0x3cc65e99	0.02421503
18	0x3df80da8	0.1211198
19	0xbe841933	-0.25800475
20	0xbdef6abe	-0.11690281
21	0x3dece466	0.11567001
22	0xbe75574e	-0.23959085
23	0xbdc5b0da	-0.096528724
24	0x3e566770	0.20937896
25	0x3e378023	0.17919974
26	0xbd604629	-0.05475441
27	0xbe266c29	-0.16252197
28	0x3e710ecc	0.23540801
29	0x3e2e7fb4	0.17040902
30	0xbe2499e2	-0.16074327
31	0xbd683eb3	-0.05670042

edge_lin.0.weight f4 [32, 1, 64, 1]
0	0xbf41cd93	-0.75704306
1	0xbf084ff2	-0.53246987
2	0xbe1e6291	-0.15467288
3	0xbede9359	-0.43471792
4	0xbea59083	-0.32336816
5	0xbebbd874	-0.36688578
6	0xbe953233	-0.2913986
7	0xbb3994af	-0.0028317382
8	0xbe4f65dd	-0.20253702
9	0x3e621ca6	0.22081241
10	0xbf701ebf	-0.93796915
11	0x3e2fa24c	0.17151755
12	0xbef4dd04	-0.47824872
13	0xbefd7bf0	-0.4950862
14	0x3d99fd38	0.07519001
15	0xbefc4562	-0.49271685
16	0xbf5d9dbb	-0.865688
17	0xbf1216e8	-0.570662
18	0x3e262bc6	0.16227636
19	0xbe3cd352	-0.18439987
20	0xbea5fcf0	-0.32419538
21	0xbf9d6fa9	-1.2299701
22	0xbf2955a4	-0.661463
23	0xbdcc91fe	-0.09988783
24	0xbd154da7	-0.03645101
25	0x3ea27401	0.3172913
26	0x3e20ca3d	0.15702148
27	0xbe5d8896	-0.21634135
28	0x3e96b631	0.29435876
29	0x3cd96758	0.026538536
30	0x3d60f2a8	0.054918915
31	0x3e1a12d6	0.15046248
32	0x3d2ee2d7	0.0426968
33	0x3e57fe44	0.21093088
34	0x3da1a020	0.078918695
35	0xbd6e4405	-0.058170337
36	0x3dd90ba6	0.10597925
37	0xbf4bcd52	-0.7961017
38	0x3e66a589	0.22524084
39	0xbbed7b5c	-0.0072473716
40	0x3e7ee98b	0.24893777
41	0xbf36ac01	-0.7135621
42	0xbf247c6f	-0.6425237
43	0xbefbf393	-0.4920927
44	0xbe8008ab	-0.25006613
45	0xbe5da1b9	-0.21643724
46	0xbdc41884	-0.095749885
47	0x3e0a2410	0.13490319
48	0xbee06e1e	-0.43834013
49	0xbf894210	-1.0723286
50	0xbe7c071e	-0.2461209
51	0xbd1d32d6	-0.03837856
52	0xbec2c6b7	-0.38042232
53	0xbedf1b19	-0.4357536
54	0x3e6ccd6d	0.23125239
55	0xbb2b75f9	-0.0026162846
56	0x3c90122e	0.017586794
57	0x3d032233	0.032015037
58	0x3e14e7a0	0.14541483
59	0xbe77a9a6	-0.2418581
60	0x3e8250f0	0.25452375
61	0xbe8e5eb0	-0.27806616
62	0x3e3a74aa	0.18208566
63	0xbccf4563	-0.02530164
64	0xbe9820c8	-0.2971251
65	0x3d3b59cf	0.045739945
66	0xbe019ae5	-0.12656744
67	0xbe4175e0	-0.18892622
68	0x3e848f24	0.25890458
69	0xbe2673c0	-0.16255093
70	0x3c93667d	0.017993206
71	0xbeb6da87	-0.35713598
72	0x3e68e3c4	0.22743136
73	0x3ebc3ea3	0.36766538
74	0xbf09218f	-0.5356683
75	0x3e0126e8	0.12612498
76	0xbddedeaa	-0.108823135
77	0xbd82b944	-0.06382993
78	0x3e216700	0.15761948
79	0x3e9e8866	0.3096344
80	0x3eb4f2ad	0.35341397
81	0xbed1ad25	-0.4095241
82	0x3e6886e2	0.22707704
83	0x3f0838fc	0.5321195
84	0xbe4f452b	-0.20241229
85	0xbdf5a1e2	-0.11993767
86	0xbe30c50e	-0.1726267
87	0xbe3e5175	-0.18585761
88	0xbe43c890	-0.19119477
89	0x3e949a1c	0.29023826
90	0x3e3e8636	0.18605885
91	0x3ee7da90	0.45283937
92	0xbdf0c33d	-0.11755989
93	0x3e8b8648	0.27250886
94	0x3e51e5a6	0.2049776
95	0x3e5ff59f	0.21871041
96	0x3e714eb2	0.23565176
97	0x3cca01fa	0.024659146
98	0x3d4e1cf7	0.05032059
99	0xbdf3c1af	-0.119021766
100	0xbd255d50	-0.040372193
101	0xbe74c548	-0.23903382
102	0x3cbe3e0f	0.023222951
103	0xbe9722ae	-0.29518646
104	0x3ef45907	0.47724172
105	0x3df5d039	0.12002606
106	0xbeb296f4	-0.34880793
107	0x3eb21afd	0.34786215
108	0x3d4fa7f2	0.050697275
109	0xbec97e83	-0.39354333
110	0x3e03487e	0.12820622
111	0x3ea0f5aa	0.31437427
112	0xbde40d24	-0.11135319
113	0xbec9ff77	-0.39452717
114	0xbc26dfa8	-0.01018516
115	0x3f0c95c3	0.5491602
116	0xbd968c86	-0.073510215
117	0xbea98d21	-0.33115485
118	0x3d5dcc12	0.054149695
119	0xbeb6dcc9	-0.3571532
120	0xbe478232	-0.1948326
121	0x3e0abddc	0.13548988
122	0x3e6ccc96	0.23124918
123	0x3e42caf4	0.19022733
124	0xbe3b9e86	-0.1832219
125	0xbe263c1d	-0.16233869
126	0x3e067451	0.13130309
127	0x3e888f44	0.26671803
128	0xbea4f01e	-0.32214445
129	0x3d7797be	0.060447447
130	0xbf02f23d	-0.51150876
131	0xbdc74f05	-0.09731869
132	0x3d0304ce	0.031987004
133	0xbf754567	-0.95809025
134	0xbdfae9a3	-0.12251594
135	0x3e18d69f	0.14925621
136	0xbea591b3	-0.32337722
137	0xbefec8ba	-0.49762517
138	0x3da18486	0.07886605
139	0x3e2f6c02	0.17131045
140	0x3d7d6182	0.06186057
141	0x3e50d0f9	0.20392217
142	0xbd328c8b	-0.043591063
143	0x3ea9c3db	0.33157238
144	0x3e36e1e4	0.17859608
145	0xbebc912b	-0.36829504
146	0xbd727490	-0.059193194
147	0xbe24540e	-0.1604769
148	0xbf8193bd	-1.0123211
149	0xbb9de019	-0.0048179743
150	0x3eb9e33f	0.36306188
151	0xbf156102	-0.5835115
152	0xbde75501	-0.1129551
153	0xbf88a40a	-1.0675061
154	0x3d4aec45	0.04954173
155	0xbbee0455	-0.0072637
156	0x3e0469e2	0.12931016
157	0x3db6fd66	0.08935051
158	0xbd2f881f	-0.042854425
159	0xbd226976	-0.039651357
160	0xbd0ed75f	-0.034873363
161	0xbcdebcc9	-0.02718963
162	0xbf885358	-1.0650434
163	0xbe9f9486	-0.31168002
164	0xbe396280	-0.18103981
165	0xbf459a60	-0.7718868
166	0x3e978992	0.29597145
167	0x3ebb2d6b	0.3655809
168	0xbebdfecc	-0.37108457
169	0xbf32e8ee	-0.6988667
170	0x3d7958cb	0.060875695
171	0x3df66c12	0.120323315
172	0xbf1bb785	-0.60826904
173	0x3e45789f	0.19284295
174	0x3d6e4ad8	0.058176845
175	0x3d9b373e	0.07578896
176	0x3e64ebce	0.22355577
177	0xbf0a0e51	-0.53928095
178	0x3d07f8b4	0.033196166
179	0x3e75d293	0.24006109
180	0xbee3dd02	-0.44504553
181	0xbe1d654b	-0.15370671
182	0x3e304f5f	0.17217778
183	0x3e0df8f9	0.13864507
184	0x3e5ae0ae	0.21374771
185	0xbf9ccea9	-1.2250568
186	0xbe15f8cf	-0.14645694
187	0x3ed60923	0.41803846
188	0xbe16fd72	-0.14745119
189	0xbe207fe8	-0.15673792
190	0x3e719378	0.23591411
191	0x3ea92346	0.33034724
192	0x3f1bd494	0.60871243
193	0x3edcab68	0.43099523
194	0xbf3b9990	-0.7328119
195	0xbf1ab0e0	-0.6042614
196	0x3cf3b59d	0.029749686
197	0xbe270018	-0.1630863
198	0xbd839cd8	-0.064264
199	0xbf3a2477	-0.7271189
200	0xbdb8196a	-0.08989222
201	0x3f0bcda4	0.5461066
202	0x3e29a939	0.1656846
203	0x3e941aa6	0.2892658
204	0xbd8a6634	-0.06757775
205	0x3dd53838	0.104111135
206	0x3ecd421f	0.4008951
207	0xbde48240	-0.11157656
208	0xbdec6777	-0.11543172
209	0xbdb377b0	-0.08763063
210	0xbe96648a	-0.2937358
211	0xbeac619e	-0.33668226
212	0x3e1fdee6	0.15612373
213	0x3e370c4c	0.17875785
214	0xbd4136f8	-0.047171563
215	0xbeb9e1ed	-0.3630518
216	0x3db9832a	0.09058221
217	0xbee5939d	-0.44839182
218	0xbeee8993	-0.46589336
219	0x3da374f7	0.07981294
220	0xbddb249a	-0.107003406
221	0x3e43e1f8	0.19129169
222	0x3c514c4c	0.012774538
223	0x3e56ef51	0.2098973
224	0x3d9a2e90	0.07528412
225	0x3e8c890b	0.27448305
226	0xbf47334a	-0.77812636
227	0xbe534cef	-0.20634817
228	0xbe5c72e4	-0.21528202
229	0xbe8a8aa3	-0.27058896
230	0xbe7384c6	-0.23781118
231	0xbec5cc3e	-0.38632387
232	0x3d3def2d	0.046370674
233	0x3de63462	0.1124046
234	0xbdaeeb73	-0.08541002
235	0xbe2daf58	-0.1696142
236	0xbd685b32	-0.056727596
237	0x3ead6b7a	0.3387106
238	0x3eba72f1	0.36415818
239	0x3ecf5b7d	0.40499488
240	0xbe332bf9	-0.17497243
241	0xba8f3fd3	-0.0010929055
242	0xbefc987d	-0.4933509
243	0xbe993c7d	-0.2992896
244	0x3d0061c1	0.031343225
245	0xbd176924	-0.036965504
246	0x3e0b5aa9	0.13608803
247	0xbd35e56e	-0.044408254
248	0x3e350ae2	0.17679933
249	0xbea1a5e6	-0.31571883
250	0xbe7b7a72	-0.24558428
251	0x3bf55be1	0.0074877595
252	0x3d3d751d	0.046254266
253	0xbed11809	-0.4083865
254	0x3d8cdf62	0.068785444
255	0x3ecaea3a	0.39631826

edge_lin.0.bias f4 [32]
0	0x3e5a14df	0.21297024
1	0xbdc1aa0e	-0.094562635
2	0xbd05b1b7	-0.032640185
3	0x3dd54b29	0.10414726
4	0xbe2ed45f	-0.170732
5	0xbe14b28a	-0.14521232
6	0x3d457389	0.048205886
7	0x3d4930ad	0.049118686
8	0x3e8fca7d	0.28084174
9	0xbdbc4696	-0.09193151
10	0xbe0bb495	-0.13643105
11	0x3d4b5b09	0.049647365
12	0x3dd01c6f	0.10161673
13	0xbe4828f5	-0.19546874
14	0xbee32247	-0.4436209
15	0x3e7bfcd0	0.24608159
16	0x3df9dfeb	0.12200912
17	0xbe24db4d	-0.16099282
18	0xbed075c0	-0.40714836
19	0xbe62062b	-0.22072665
20	0xbe8e12a6	-0.27748603
21	0xbdc4c7d8	-0.0960843
22	0xbe03e61e	-0.12880751
23	0x3e138f18	0.14410055
24	0x3e21422d	0.157479
25	0x3e8ee3f7	0.27908298
26	0x3e16c620	0.14724016
27	0x3ddad6b6	0.10685484
28	0x3e863aa0	0.26216602
29	0xbe17b5b7	-0.14815412
30	0xbdb82235	-0.089908995
31	0xbddf2690	-0.10896027

edge_lin.2.weight f4 [32, 32, 1, 1]
0	0x3e88cbb0	0.267179
1	0x3e060204	0.13086706
2	0x3f26a6ad	0.6509808
3	0x3da8aadf	0.08235716
4	0x3f036fad	0.5134228
5	0x3b9646b5	0.0045860657
6	0xbdc6379b	-0.09678575
7	0xbed76b3c	-0.42074
8	0x3e1d2b98	0.15348661
9	0x3d3fc311	0.04681689
10	0x3ea984e5	0.33109203
11	0xbb35e8df	-0.002775721
12	0x3e234ba5	0.15946825
13	0xbf19a612	-0.6001903
14	0x3ac481e6	0.0014992326
15	0xbecf843d	-0.40530577
16	0x3eee1183	0.46497735
17	0x3db5c1fe	0.08874892
18	0x3eb1f027	0.34753534
19	0xbefc3629	-0.4926007
20	0x3e5ea33e	0.2174196
21	0xbdfbc943	-0.12294247
22	0x3d9d29b0	0.07673967
23	0x3e6ac6d7	0.22927414
24	0xbeaf2a43	-0.3421193
25	0xbeadb927	-0.33930323
26	0x3e940bdf	0.28915307
27	0xbe5e18a8	-0.21689093
28	0xbf1e8348	-0.6191907
29	0x3e91d78b	0.2848476
30	0xbdc393a0	-0.095496416
31	0xbd834770	-0.0641011
32	0xbed39f6e	-0.41332573
33	0xbe25e8e1	-0.16202118
34	0x3e55bfab	0.20873897
35	0xbe53f9a9	-0.20700707
36	0x3eac0aee	0.3360209
37	0xbdab2f44	-0.083586246
38	0x3c49cb9d	0.012316612
39	0x3d8ab9c5	0.06773714
40	0x3e882ee9	0.2659829
41	0x3c095344	0.0083816685
42	0x3dd53f8d	0.10412512
43	0x3e7a9727	0.24471723
44	0xbd0bb847	-0.034111287
45	0xbd173494	-0.036915377
46	0xbdae9dfa	-0.085262254
47	0x3e058d9b	0.130423
48	0xbcb6a7ec	-0.022296868
49	0xbedecd4d	-0.43516007
50	0x3d949b70	0.0725621
51	0xbf16f5ef	-0.58969015
52	0xbf638366	-0.88872373
53	0x3eac8d76	0.33701676
54	0xbe69128e	-0.22760984
55	0x3d54928a	0.051897563
56	0x3ec23fee	0.379394
57	0xbf0c810c	-0.5488441
58	0x3e5e2af1	0.21696068
59	0xbbd6a19d	-0.0065500275
60	0x3ec07f92	0.37597328
61	0xbf4d9fe7	-0.80322117
62	0x3e037619	0.1283802
63	0x3e05a2eb	0.1305043
64	0x3de20306	0.11035733
65	0xbd07bb08	-0.03313735
66	0x3ea89d89	0.3293269
67	0x3ea73399	0.32656553
68	0xbc8993cf	-0.016794113
69	0xbe91ed37	-0.28501293
70	0x3e837e10	0.25682116
71	0x3ec85075	0.39123884
72	0xbf58676d	-0.84532815
73	0xbeaa8edb	-0.33312115
74	0x3e80e9eb	0.25178465
75	0x3aa0ce9b	0.0012268604
76	0x3d9baa00	0.07600784
77	0xbdda3b96	-0.10655896
78	0xbebb5876	-0.36590928
79	0x3ec22624	0.37919724
80	0x3e117743	0.14205651
81	0x3eba82be	0.36427873
82	0xbed49d72	-0.4152637
83	0xbea89c95	-0.32931963
84	0xbd820fee	-0.063506946
85	0x3da40262	0.08008267
86	0x3c004ba1	0.007830531
87	0x3cdec509	0.027193563
88	0xbe7bf0ab	-0.24603526
89	0xbe141afb	-0.14463417
90	0xbdaccd3d	-0.084375836
91	0xbb7c5513	-0.0038502857
92	0xbe377251	-0.17914702
93	0x3deaf00b	0.11471566
94	0x3d0f2351	0.03494579
95	0x3cef0cbf	0.029180882
96	0xbea675a2	-0.32511622
97	0xbe28d99a	-0.16489258
98	0xbddffbe7	-0.109367184
99	0x3f264acd	0.64957887
100	0xbe5d9211	-0.21637751
101	0x3ecb4cf4	0.39707148
102	0xbe51a2aa	-0.20472208
103	0x3e2fa5e9	0.17153133
104	0xbda67fb2	-0.08129825
105	0x3e8643d8	0.26223636
106	0xbf5b14da	-0.8557869
107	0x3e81eb81	0.25374988
108	0xbe48be9b	-0.1960396
109	0x3ef4bf2f	0.47802112
110	0x3c516551	0.012780503
111	0xbeaf4cf2	-0.34238392
112	0xbf2b46f9	-0.6690517
113	0x3ea41efe	0.32054895
114	0x3e2ea8f1	0.17056634
115	0xbe6a9712	-0.22909191
116	0x3d168c9b	0.036755186
117	0x3e2c59df	0.16831158
118	0xbe8f3cf4	-0.2797619
119	0xbe9153fa	-0.28384382
120	0xbd8be93f	-0.068315975
121	0x3c82890e	0.015934493
122	0xbe8f92df	-0.2804174
123	0x3dd28a19	0.10280246
124	0xbf584c20	-0.8449116
125	0x3e7a4235	0.24439318
126	0xbca76512	-0.020433936
127	0xbda307a1	-0.079604395
128	0x3f0ee6fc	0.55821204
129	0xbe15a176	-0.14612374
130	0xbc1481d0	-0.009064153
131	0x3ef3d9c9	0.47627094
132	0x3eb0243b	0.34402642
133	0x3e37cb40	0.17948627
134	0xbee589ac	-0.44831598
135	0xbf18af36	-0.5964235
136	0xbdadc2ed	-0.08484445
137	0xbf023c13	-0.50872916
138	0x3e26a991	0.16275622
139	0xbda399ee	-0.07988344
140	0xbe38a47f	-0.180315
141	0x3bd23e57	0.006416123
142	0x3e0b2492	0.13588169
143	0x3f0348cd	0.5128296
144	0x3c1ff517	0.009763024
145	0x3dc612ca	0.096715525
146	0xbd67d5a5	-0.05660023
147	0xbe60a6c1	-0.21938612
148	0x3e135bb6	0.14390454
149	0x3bd40201	0.0064699654
150	0x3e675a6f	0.22593091
151	0x3ebc8a29	0.36824158
152	0x3e6e807e	0.23291203
153	0xbf275dfd	-0.6537779
154	0x3efce8c8	0.49396348
155	0xbe9e6e85	-0.30943695
156	0xbf1d8689	-0.6153341
157	0xbd5f3437	-0.054493155
158	0x3e7ec482	0.2487965
159	0xbf0d5d10	-0.5522013
160	0x3e07bd02	0.13255695
161	0x3eabe55e	0.3357343
162	0x3ca354fd	0.019937987
163	0xbe59965f	-0.21248768
164	0x3e9c8338	0.30568862
165	0x3dc97407	0.098365836
166	0xbe9a1597	-0.30094597
167	0xbec1f745	-0.37883964
168	0x3e7ad6ff	0.24496077
169	0x39bb7ff6	0.00035762758
170	0x3d184fa5	0.03718533
171	0x3bd8555e	0.0066019734
172	0x3e1233d3	0.14277582
173	0xbebc8bd2	-0.36825424
174	0x3c534a89	0.012896189
175	0x3eb1a0cb	0.34692988
176	0x3c67846e	0.014130695
177	0xbe26c6dd	-0.16286798
178	0x3e48ca64	0.19608456
179	0xbd87f74c	-0.06638965
180	0x3e9a1936	0.3009736
181	0xbeb079b0	-0.3446784
182	0x3e01be4a	0.12670246
183	0x3e728f51	0.23687483
184	0x3dc80cee	0.09768091
185	0xbe6aae7d	-0.22918124
186	0x3dc92f30	0.098234534
187	0xbe152630	-0.14565349
188	0xbd012667	-0.031530764
189	0x3e96ddc9	0.29466084
190	0xbecf6f22	-0.40514475
191	0x3e285734	0.16439515
192	0xbb37ab7f	-0.0028025804
193	0xbea8361c	-0.32853782
194	0x3e4c8ec7	0.1997634
195	0xbe583a4e	-0.21115991
196	0xbeecb631	-0.4623275
197	0xbcdd8926	-0.027042937
198	0xbd6bd93b	-0.057580214
199	0xbe8a6056	-0.27026623
200	0x3eee7eb8	0.46581054
201	0xbf2e08d2	-0.6798221
202	0xbf415158	-0.75514746
203	0xbd0c1dbf	-0.034208056
204	0xbe05df03	-0.13073353
205	0xbef22d9a	-0.47300416
206	0x3e3437e0	0.1759944
207	0xbea55312	-0.3228994
208	0xbe4968e8	-0.19668925
209	0x3df52262	0.119694486
210	0x3e86bef9	0.26317576
211	0xbdd21c8c	-0.10259351
212	0xbeeea706	-0.46611804
213	0x3eb68ad6	0.35652798
214	0xbf3f037c	-0.7461469
215	0x3deaf5e2	0.1147268
216	0xbde6b105	-0.112642325
217	0xbef5d596	-0.48014516
218	0x3e729911	0.23691203
219	0x3de1a93a	0.110186055
220	0x3cc91ccd	0.024549866
221	0xbdc714c4	-0.097207576
222	0xbdbeb42e	-0.0931171
223	0xbe4721a3	-0.19446425
224	0xbdfd3cf2	-0.1236514
225	0x3cc78eb7	0.024360044
226	0x3edb9a4c	0.42891157
227	0x3c1c20d1	0.009529308
228	0xbe43b1f3	-0.19110851
229	0xbf250758	-0.6446433
230	0xbe678011	-0.22607447
231	0x3e949a1d	0.2902383
232	0xbe39bbbf	-0.18138026
233	0xbec3e0e6	-0.3825752
234	0x3edca448	0.43094087
235	0xbe7978fb	-0.24362557
236	0x3e0ff1a8	0.14057028
237	0xbee5f685	-0.44914642
238	0xbf0a0aa4	-0.53922486
239	0x3db674b2	0.089089766
240	0x3eae89e9	0.34089592
241	0x3e8a2151	0.26978543
242	0x3ebda69c	0.37041175
243	0xbe070fc0	-0.13189602
244	0x3c10a30f	0.008827939
245	0x3d914ab4	0.070943266
246	0xbdf3b3ac	-0.11899504
247	0x3ec25276	0.37953538
248	0xbee82c06	-0.45346087
249	0xbe291b76	-0.16514382
250	0x3e827093	0.25476512
251	0x3e367245	0.17817028
252	0xbeadcdeb	-0.33946165
253	0x3e35492b	0.17703693
254	0x3dde2318	0.10846537
255	0x3f0208b4	0.5079453

edge_lin.2.bias f4 [32]
0	0xbe5e4072	-0.21704271
1	0xbed1e467	-0.4099457
2	0x3e14f05b	0.14544813
3	0xbe8db22c	-0.27674997
4	0xbde22e94	-0.1104404
5	0xbe85559d	-0.2604188
6	0xbf257d14	-0.6464398
7	0x3e5bd92a	0.2146956
8	0xbe181e57	-0.14855324
9	0x3e8fd226	0.28090018
10	0x3d866017	0.065612964
11	0xbdc264e6	-0.09491901
12	0xbf213b30	-0.6298094
13	0x3e209abf	0.15684031
14	0xbc575607	-0.013143069
15	0xbe05d68d	-0.13070126
16	0x3c7e64b6	0.015526941
17	0xbde9ae85	-0.1141024
18	0xbdbba92b	-0.091631256
19	0x3d6cc01c	0.057800397
20	0xbece4e9b	-0.40294346
21	0xbe6cfee6	-0.23144111
22	0x3df91030	0.12161291
23	0x3d2b60c9	0.04184035
24	0xbe172c96	-0.14763102
25	0xbee0cd19	-0.43906477
26	0x3e1ceb82	0.15324214
27	0x3e054726	0.13015422
28	0x3e3a5fb9	0.18200578
29	0xbdd1052f	-0.10206067
30	0xbe2f731a	-0.17133752
31	0xbe52c7e1	-0.2058406

vertex_output_lin.0.weight f4 [32, 1, 32, 1]
0	0x3cfecc8a	0.031103391
1	0x3e054723	0.13015418
2	0xbd01311c	-0.031540975
3	0xba84b5a8	-0.0010124939
4	0xbc810d45	-0.015753398
5	0xbd01b00a	-0.031662025
6	0xbda0139f	-0.078162424
7	0xbc193d43	-0.009352985
8	0xbd82163d	-0.06351898
9	0xbd6c25a0	-0.05765307
10	0xbe043613	-0.12911253
11	0xbc8ed6c8	-0.0174364
12	0xbd4ee996	-0.050515734
13	0x3bb31639	0.0054652956
14	0xbbe1db42	-0.0068925926
15	0x3d49343e	0.049122088
16	0xbe1971ba	-0.1498479
17	0xbd4ac8c1	-0.04950786
18	0x3d829914	0.063768536
19	0x3da05c33	0.078300856
20	0xbc9f65cd	-0.019457722
21	0x3d3b1147	0.045670774
22	0xbddf3113	-0.10898032
23	0xbc8fa6af	-0.017535536
24	0x3d36f659	0.04466853
25	0xbca6c100	-0.020355701
26	0x3d54515c	0.051835403
27	0xbded4c09	-0.11586768
28	0x3d399a76	0.04531332
29	0x3bb0b7cd	0.0053930045
30	0xbc454e05	-0.012042527
31	0xbdf5f3e1	-0.12009407
32	0x3e87307b	0.26404175
33	0xbeb514dc	-0.35367477
34	0xbe08e55c	-0.13368744
35	0xbd141a68	-0.036157995
36	0x3e6e3a7b	0.23264496
37	0x3e94e6d2	0.29082352
38	0x3e58c936	0.21170506
39	0x3ddbab7d	0.10726068
40	0xbcd2789c	-0.025692277
41	0xbdbde467	-0.0927208
42	0xbec77730	-0.3895812
43	0xbcd13d43	-0.025541907
44	0xbd3feb9d	-0.046855558
45	0x3dfb61de	0.12274526
46	0xbaff11a2	-0.0019460211
47	0xbe2cd54d	-0.16878243
48	0x3de05f82	0.10955717
49	0x3f4c61b0	0.7983656
50	0xbf6b6066	-0.9194397
51	0x3c8035a1	0.015650572
52	0x3da440a9	0.080201454
53	0x3e95037e	0.29104227
54	0xbe096952	-0.13419083
55	0xbe91a241	-0.28444102
56	0x3ed534f8	0.41641974
57	0x3d9fc699	0.07801551
58	0xbe69270f	-0.22768806
59	0x3d5bff95	0.05371054
60	0xbcac79bb	-0.02105414
61	0xbf0879db	-0.53310937
62	0xbf088889	-0.53333336
63	0xbe7faefe	-0.24969098
64	0xbcac2bc5	-0.021016965
65	0x3d93c32f	0.07214963
66	0xbd9f197d	-0.077685334
67	0x3ca78f2d	0.020454014
68	0xbdecdbb2	-0.11565341
69	0x3c1a5487	0.009419567
70	0xbe57108a	-0.21002403
71	0xbd94d9b2	-0.072680846
72	0xbd80f6f1	-0.062971
73	0xbc5934a5	-0.01325718
74	0xbe6c1bc1	-0.23057462
75	0x3cbda87b	0.023151627
76	0x3c6d7ca1	0.014495046
77	0xbd54e6eb	-0.051978033
78	0x3d8dc970	0.06923187
79	0x3d9cf444	0.076637775
80	0xbe276190	-0.16345811
81	0xbd9cf62e	-0.076641425
82	0xbdb57e7d	-0.08862016
83	0xbd8e9d58	-0.06963605
84	0xbddec7d8	-0.10877961
85	0xbdbbb779	-0.09165854
86	0xbd8df03c	-0.06930587
87	0x3c508427	0.01272682
88	0x3d52d5ff	0.051473614
89	0x3d8e1988	0.069384634
90	0x3cc226f6	0.023700219
91	0x3c2c4ff0	0.010517105
92	0xbc3790dc	-0.011203971
93	0xbc5ba87b	-0.013406868
94	0xbc5fb128	-0.013653077
95	0xbbcf6a96	-0.0063298447
96	0xbe41f275	-0.18940146
97	0x3e764f1f	0.2405362
98	0x3c30b578	0.010785453
99	0x3e54afa2	0.20770124
100	0xbec35529	-0.3815091
101	0x3dbedbef	0.09319293
102	0xbda18550	-0.078867555
103	0x3db7e50f	0.08979236
104	0xbd309bd0	-0.043117344
105	0x3d8908b1	0.06691111
106	0x3e87d114	0.265267
107	0xbe8f70ea	-0.28015834
108	0x3e24a03d	0.16076751
109	0xbc63a638	-0.01389461
110	0x3dd845dc	0.105601996
111	0xbebb21fb	-0.36549363
112	0x3ea14c8c	0.31503713
113	0x3e6675e5	0.2250591
114	0xbf2212a0	-0.6330967
115	0x3ecf4d57	0.40488693
116	0xbcc75cd9	-0.024336265
117	0x3ead6789	0.33868054
118	0x3e27983e	0.1636667
119	0x3dfb071e	0.12257217
120	0x3de401cf	0.111331575
121	0x3e107293	0.14106207
122	0x3e8f5c91	0.2800031
123	0x3d7b561e	0.061361425
124	0x3cc71869	0.024303632
125	0xbf098a32	-0.53726494
126	0xbe7aed52	-0.24504593
127	0xbf38955d	-0.7210291
128	0xbe6af19f	-0.22943734
129	0x3e839968	0.25702977
130	0xbebb7836	-0.3661515
131	0x3e6b0700	0.22951889
132	0xbd1a4934	-0.03766747
133	0xbe8eea68	-0.27913213
134	0x3f08bc43	0.53412265
135	0xbe16f92c	-0.14743489
136	0xbdc89501	-0.09794045
137	0xbe8d3c2f	-0.2758498
138	0x3c9ebf90	0.019378453
139	0x3e3da2b6	0.185191
140	0x3f01d238	0.50711393
141	0xbcc64fa7	-0.024207903
142	0xbc0c9d3d	-0.00858241
143	0xbe15fb6e	-0.14646694
144	0xbd3a9e58	-0.045561165
145	0x3daa21e5	0.08307246
146	0xbe52aebf	-0.20574473
147	0xbe457461	-0.19282676
148	0x3ec5b59e	0.38615125
149	0x3d8811eb	0.066440426
150	0xbd861b8c	-0.06548223
151	0xbddd6c21	-0.108116396
152	0xbe8664bc	-0.2624873
153	0x3eb0ddd3	0.34544238
154	0xbd30dce8	-0.043179423
155	0xbea6a516	-0.32547826
156	0x3c349423	0.011021647
157	0xbd1ae219	-0.03781328
158	0xbd289ff7	-0.04116818
159	0xbe7bfd06	-0.2460824
160	0xbd90788d	-0.07054243
161	0x3ed53830	0.4164443
162	0xbec76ec4	-0.38951695
163	0xbe26a365	-0.16273268
164	0xbe86ade2	-0.26304537
165	0xbe08c488	-0.1335622
166	0x3f0bba8e	0.54581535
167	0xbec46802	-0.38360602
168	0xbe32580e	-0.17416403
169	0xbe6c7041	-0.23089696
170	0xbcf984bd	-0.030458802
171	0xbcf2fd8f	-0.029661922
172	0x3f483927	0.7821221
173	0x3e0f825f	0.14014576
174	0xbe4fbdac	-0.20287198
175	0xbe312f44	-0.17303187
176	0x3e363908	0.17795193
177	0x3f032100	0.5122223
178	0xbf0d5cfb	-0.5522
179	0x3ea1ff16	0.31639928
180	0x3e7ed817	0.24887119
181	0x3e39c4f8	0.18141544
182	0xbee01edd	-0.43773547
183	0xbd96afbc	-0.073577374
184	0x3ece30da	0.40271646
185	0x3c401836	0.011724522
186	0xbe92ba6c	-0.28657854
187	0xbefaac00	-0.4895935
188	0xbef59963	-0.47968587
189	0x3e1f2f96	0.15545496
190	0xbd8c9505	-0.06864361
191	0xbe6c9082	-0.23102
192	0x3e81a1f0	0.2531886
193	0xbe1e69a8	-0.15469992
194	0xbd8d0e29	-0.068874665
195	0xbe42e4cf	-0.19032596
196	0xbd763524	-0.060109273
197	0xbe1d1358	-0.1533941
198	0xbee68ee5	-0.45030895
199	0xbe33985c	-0.17538589
200	0x3b8c9679	0.0042903987
201	0xbe374bba	-0.17899981
202	0xbd5360a0	-0.05160582
203	0xbda2ad87	-0.07943254
204	0xbf0c8712	-0.548936
205	0x3e81a1a6	0.2531864
206	0x3e2695e6	0.16268119
207	0xbebc3521	-0.36759284
208	0x3d28f907	0.041253116
209	0xbef8feec	-0.4863199
210	0x3ca61d55	0.020277658
211	0xbd5e3a25	-0.05425467
212	0x3ca1ae06	0.019736301
213	0xbec03110	-0.37537432
214	0xbe23c401	-0.15992738
215	0x3e5f3f10	0.218014
216	0xbcb9e26c	-0.022690974
217	0xbe0af39c	-0.13569492
218	0xbdb7434a	-0.08948381
219	0x3dd795a1	0.10526586
220	0xbe641d16	-0.2227672
221	0x3ca91aee	0.020642724
222	0xbe0daf57	-0.13836418
223	0xbe4f6cfc	-0.20256418
224	0xbe0b8686	-0.13625535
225	0x3d5ad936	0.053429805
226	0x3daa1896	0.08305471
227	0xbc9f6767	-0.019458486
228	0x3e136bf7	0.14396654
229	0xbe934844	-0.28766072
230	0xbf31414f	-0.6924028
231	0xbe611c0a	-0.21983352
232	0xbf06ff5d	-0.52733403
233	0x3e2d1836	0.16903767
234	0x3ed160c3	0.40894136
235	0x3ef8afc7	0.48571607
236	0x3e3255fd	0.17415614
237	0x3d7eeb62	0.062236197
238	0xbd535950	-0.051598847
239	0xbe8188d2	-0.25299698
240	0x3ed659aa	0.41865283
241	0xb931c3dc	-0.00016952999
242	0xbf33196f	-0.69960684
243	0x3e3cb120	0.18426943
244	0xbe17e22c	-0.14832371
245	0x3ec698d9	0.38788489
246	0xbe2934ff	-0.16524123
247	0xbe1cdcd1	-0.1531861
248	0x3e5d06e7	0.21584664
249	0xbe118b56	-0.14213309
250	0x3ee3fbe8	0.44528127
251	0x3e2cb88a	0.16867271
252	0x3e945cc9	0.2897704
253	0xbea62437	-0.32449505
254	0xbef5a86b	-0.47980055
255	0xbe720d76	-0.23637947

vertex_output_lin.0.bias f4 [32]
0	0xbe12b095	-0.14325173
1	0xbe8533df	-0.26016137
2	0xbc5133bd	-0.012768683
3	0x3e334654	0.17507297
4	0xbe69d668	-0.22835696
5	0x3e14a0eb	0.1451451
6	0xbe1f0946	-0.15530881
7	0x3e946a12	0.28987175
8	0xbe3296f3	-0.17440395
9	0xbeaf15ed	-0.34196416
10	0x3dd94025	0.10607938
11	0xbe9cb943	-0.30610093
12	0x3e052a6c	0.13004464
13	0xbd898f23	-0.06716754
14	0xbe82efbc	-0.25573528
15	0x3e5eaa15	0.21744569
16	0xbc9a27c7	-0.018817795
17	0xbe32c321	-0.17457248
18	0x3d0fdaff	0.03512096
19	0x3d18ab99	0.037273023
20	0x3e7069a9	0.23477806
21	0x3d9cbaf7	0.07652848
22	0xbde1fa11	-0.110340245
23	0x3eece783	0.4627038
24	0xbdc6b310	-0.09702122
25	0xbe70baff	-0.23508833
26	0x3c904ea2	0.01761562
27	0xbe669c9c	-0.22520679
28	0xbeb1f7dc	-0.34759414
29	0x3d9e5528	0.07731086
30	0x3e13769d	0.14400716
31	0x3d29182f	0.04128283

vertex_output_lin.2.weight f4 [1, 32, 1, 1]
0	0x3b855718	0.0040692203
1	0xbe8b99b0	-0.27265692
2	0x3b39148c	0.0028241007
3	0xbe8cead5	-0.27522913
4	0xbd304d4d	-0.04304247
5	0xbed83694	-0.4222914
6	0x3cbe970a	0.02326538
7	0xbec215e6	-0.37907332
8	0x3e85267e	0.2600593
9	0xbdbacd72	-0.09121217
10	0xbf1bfba2	-0.60930836
11	0xbd55c4cc	-0.052189633
12	0xbeb691ff	-0.3565826
13	0x3bb08594	0.0053870175
14	0xbee4a0a7	-0.44653818
15	0x3e4b97df	0.19882153
16	0xbf09d409	-0.53839165
17	0x3c513fb3	0.012771535
18	0x3e03b15e	0.12860629
19	0xbb897dc2	-0.0041958997
20	0xbe934646	-0.28764552
21	0x3dcbf676	0.09959118
22	0xbf6f9a43	-0.9359476
23	0x3de79a70	0.113087535
24	0x3bc36a04	0.005963566
25	0xbd7a81d5	-0.061158974
26	0xbebf8ff9	-0.3741453
27	0x3b4faafa	0.0031687603
28	0xbdc3d9c9	-0.095630236
29	0xbe854e51	-0.26036313
30	0x3db36a60	0.08760524
31	0xbe7c3da0	-0.24632883

graph_output_lin.0.weight f4 [1, 618]
0	0x3d84b7aa	0.06480344
1	0x3d89fe12	0.06737913
2	0xbd884a88	-0.06654841
3	0xbe52e8fd	-0.2059669
4	0x3d923056	0.071381256
5	0xbd2025aa	-0.03909842
6	0xbc97a2d1	-0.018510254
7	0xbbaa4d2a	-0.005197187
8	0xbe0fdeb7	-0.14049803
9	0xbdf7a8b2	-0.12092723
10	0xbdf49308	-0.119421065
11	0x3e7e66d2	0.2484391
12	0xbe9b84d0	-0.30374765
13	0x3e1d3178	0.15350902
14	0x3e8b4223	0.27198896
15	0xbe1e31fb	-0.15448754
16	0x3e6f9671	0.23397233
17	0x3e115ada	0.14194813
18	0xbe8ae267	-0.27125856
19	0x3deeca99	0.11659736
20	0xbe81b76c	-0.25335252
21	0x3e1aeaa5	0.15128572
22	0x3d759070	0.0599522
23	0xbe99f5e8	-0.30070424
24	0x3d073482	0.03300906
25	0xbde0385b	-0.10948249
26	0xbe4ef1a7	-0.2020937
27	0xbee2f37f	-0.44326398
28	0xbe2568a5	-0.161532
29	0xbf401f03	-0.7504732
30	0xbe55c0e1	-0.20874359
31	0xbe26df0b	-0.16296022
32	0xbe28bd9d	-0.16478582
33	0xbecb5c4d	-0.39718857
34	0x3d1c824a	0.03821019
35	0xbd94beb2	-0.07262935
36	0xbe351659	-0.17684306
37	0x3d5458f8	0.05184266
38	0x3e88b18c	0.26697958
39	0xbce8c25a	-0.028412987
40	0xbdcec453	-0.100960396
41	0xbe369997	-0.17832027
42	0xbde64507	-0.11243635
43	0x3e05b662	0.13057855
44	0x3e2b48d5	0.16727002
45	0x3e27677d	0.16348071
46	0x3d1ca997	0.03824767
47	0x3e2d5d0c	0.16930026
48	0xbecf2d3f	-0.40464208
49	0xbe2aa4c9	-0.16664423
50	0x3d0b3362	0.03398455
51	0x3e1a905d	0.15094133
52	0x3c63baae	0.013899488
53	0x3d014611	0.03156096
54	0xbe9b5d7a	-0.30344754
55	0xbc3cd00c	-0.011524212
56	0xbe0c8bdb	-0.13725226
57	0x3e4733f4	0.19453412
58	0x3e779df4	0.24181348
59	0xbf1098eb	-0.56483334
60	0x3cb995f0	0.022654504
61	0x3c9ddd3c	0.019270532
62	0x3cb2c4a8	0.021822289
63	0xbd678c0c	-0.056530043
64	0xbec7dad3	-0.39034137
65	0xbd8b97ec	-0.06816086
66	0x3c0b8a5f	0.008516877
67	0x3ce98988	0.028507963
68	0x3e89e47b	0.2693213
69	0xbdde895a	-0.108660415
70	0xbea2e823	-0.3181773
71	0xbf3ed197	-0.7453856
72	0x3d736927	0.059426453
73	0xbc28965b	-0.010289754
74	0x3d49b191	0.049241606
75	0xbe1ae281	-0.15125467
76	0x3dc13e04	0.09435657
77	0xb93df854	-0.00018116954
78	0xbb158f6c	-0.0022821082
79	0x3eb894be	0.3605098
80	0xbe95725b	-0.2918881
81	0x3d750472	0.059818693
82	0x3d38a266	0.04507675
83	0x3e6a96fc	0.22909158
84	0xbd5c56fd	-0.053793896
85	0xbe892d84	-0.26792538
86	0xbd9788bf	-0.07399129
87	0xbec67364	-0.3875991
88	0x3db3c6f2	0.0877818
89	0xbe614128	-0.21997511
90	0xbd823576	-0.06357853
91	0x3de7a828	0.1131137
92	0xbca5b1a1	-0.020226302
93	0xbcc56c1e	-0.024099406
94	0xbdd9564a	-0.106121615
95	0xbe67e6b7	-0.22646604
96	0xbe169c77	-0.14708124
97	0xbcc55764	-0.024089523
98	0xbf2d7c6f	-0.67767996
99	0x3ddf577d	0.10905359
100	0xbef4ed8b	-0.4783748
101	0xbd57cdf8	-0.05268666
102	0xbe80ed0d	-0.25180855
103	0xbf09d843	-0.53845614
104	0x3d9d2d95	0.0767471
105	0x3daa3f00	0.083127975
106	0xbe20491e	-0.15652892
107	0xbdedad0f	-0.11605274
108	0xbeda54ac	-0.42642725
109	0x3e916fef	0.2840571
110	0x3e4f1749	0.20223726
111	0xbe965545	-0.2936193
112	0xbb0cc4fa	-0.0021479712
113	0xbd8d5abf	-0.06902074
114	0x3f07dfb2	0.53075707
115	0x3e7cd0fe	0.24689099
116	0x3e1cdc5d	0.15318437
117	0x3f02e8ba	0.5113636
118	0xbe4661f8	-0.1937331
119	0x3e28855e	0.16457126
120	0x3e581562	0.21101907
121	0x3de915f5	0.11381141
122	0xbb7d91b7	-0.003869159
123	0x3db6d852	0.089279786
124	0xbe0c92c2	-0.13727859
125	0xbf17d149	-0.5930372
126	0x3d41abc4	0.04728295
127	0xbeb80e54	-0.35948431
128	0xbe8a17b1	-0.269712
129	0xbdbc1acc	-0.091847986
130	0x3eccf5e2	0.40031344
131	0x3e6b8b51	0.23002364
132	0xbe9582f5	-0.29201475
133	0x3d586147	0.052827146
134	0xbe485dd7	-0.19567047
135	0xbdf3ac9c	-0.11898157
136	0xbeab681e	-0.33477873
137	0xbdd2a624	-0.10285595
138	0xbdcf7a66	-0.101307675
139	0xbc3da860	-0.011575788
140	0xbe0136e1	-0.12618591
141	0xbe492792	-0.19644001
142	0xbea7dfba	-0.32787877
143	0x3d5c9314	0.053851202
144	0x3ee1a960	0.44074535
145	0x3e2fb8fd	0.17160411
146	0x3e213288	0.15741932
147	0x3e31dd79	0.17369641
148	0x3e16568a	0.1468145
149	0xbe7b1535	-0.24519809
150	0xbe4bfe54	-0.19921237
151	0x3df1c75b	0.11805602
152	0xbd54e37a	-0.05197475
153	0xbdab11e0	-0.08353019
154	0x3db07f5c	0.08618042
155	0x3bfd165c	0.0077236127
156	0xbe245e2b	-0.16051547
157	0xbe28eceb	-0.16496627
158	0xbdb2fdad	-0.08739791
159	0x3d91b7cb	0.07115134
160	0x3e487899	0.19577254
161	0xbe5995f6	-0.21248612
162	0x3e33916f	0.17535947
163	0xbee883cc	-0.45413053
164	0x3d98cbe0	0.07460761
165	0x3e8f9e67	0.2805054
166	0x3dc82248	0.09772164
167	0xbd8fd7c3	-0.07023575
168	0x3e199c4e	0.15001032
169	0xbdddc128	-0.10827857
170	0x3d9d8e85	0.07693199
171	0x3df97c2a	0.121818855
172	0xbdaf99a1	-0.08574224
173	0x3e99eb72	0.30062443
174	0x3d1b1017	0.03785714
175	0x3dc938c5	0.09825281
176	0x3d10a6e1	0.035315398
177	0xbe5445f0	-0.20729804
178	0xbe47d151	-0.19513442
179	0xbe950233	-0.2910324
180	0xbe1c1ca3	-0.15245299
181	0xbebae65f	-0.36503884
182	0xbe0c5d65	-0.13707502
183	0x3e034c40	0.12822056
184	0x3e7c854a	0.2466022
185	0x3da27595	0.07932583
186	0xbd9f6959	-0.07783765
187	0xbe7e7f72	-0.24853304
188	0x3e71049b	0.23536913
189	0xbef71041	-0.48254588
190	0xbe14bb50	-0.14524579
191	0x3f10e863	0.56604594
192	0x3e2b1291	0.16706301
193	0xbc503d85	-0.01270998
194	0xbe9f9621	-0.31169227
195	0xbdda5c9d	-0.10662196
196	0xbe80927a	-0.25111753
197	0x3dc0a44f	0.094063394
198	0x3e0ace04	0.13555151
199	0x3de53b0c	0.11192903
200	0x3e8c703c	0.27429378
201	0xbeb0eba8	-0.3455479
202	0xbe50461b	-0.20339243
203	0x3d5eb130	0.054368198
204	0xbe70f511	-0.23530985
205	0x3f0983e1	0.53716856
206	0x3df30098	0.118653476
207	0xbd474275	-0.048647363
208	0x3d778966	0.060433768
209	0xbd75d417	-0.060016718
210	0x3df422a7	0.11920672
211	0x3eb48a7f	0.35261914
212	0xbe280630	-0.1640861
213	0xbbb1a2e3	-0.005421029
214	0x3da4f439	0.08054394
215	0xbed20871	-0.41022065
216	0xbe1a1b58	-0.15049493
217	0x3dfd0b4a	0.12355669
218	0x3d9c0af2	0.07619275
219	0x3ee2160d	0.44157448
220	0xbd8aa305	-0.06769375
221	0xbdce4274	-0.10071269
222	0xbe67d67b	-0.22640412
223	0x3df6c77c	0.120497674
224	0x3df1dc9c	0.11809656
225	0x3e4f3cd1	0.20238043
226	0x3e7fa721	0.24966098
227	0xbb80cd36	-0.003930713
228	0x3d10d9ad	0.03536384
229	0xbd96b887	-0.073594145
230	0x3d904098	0.0704357
231	0xbeac08ab	-0.33600363
232	0x3d8bd75f	0.06828188
233	0xbdf298b8	-0.11845535
234	0x3e9f9001	0.31164554
235	0xbe954ad6	-0.29158658
236	0xbd3a1f65	-0.045440096
237	0xbed0b92a	-0.4076627
238	0x3d3e57dd	0.04647051
239	0xbea1ece9	-0.3162606
240	0x3d0f0541	0.03491712
241	0xbeb38277	-0.35060474
242	0x3d1294e0	0.03578651
243	0xbdabac34	-0.083824545
244	0xbda4ebce	-0.08052789
245	0x3c297ab8	0.0103442
246	0xbe1e6c76	-0.15471062
247	0x3e0f5b8b	0.13999765
248	0xbeafce33	-0.34337005
249	0x3c6138d5	0.01374646
250	0x3c9a49da	0.018834043
251	0xbc781ae3	-0.015143129
252	0xbc497bf1	-0.012297616
253	0x3dcdfebd	0.10058353
254	0xbd8c4738	-0.068495214
255	0x3dd191c9	0.102328844
