reachability_classification/weights/SimpleMultiplePassGNNReachabilityNet_epoch_1.pt (torch_old, 36685 bytes, 16 tensors)

x_lin.0.weight f4 [32, 1, 1, 11]
0.058500823 0.029413449 -0.118890084 -0.31022057 -0.213291 -0.09051997 -0.009584656 0.09216918
0.10252207 0.006649763 -0.07863159 0.20861866 -0.041896068 0.124905154 0.101904385 -0.23345634
-0.30904177 -0.020828499 -0.13744543 0.10562336 -0.1445268 0.18360825 -0.22122927 -0.035312325
0.09322897 -0.06521862 0.17740904 0.14197381 0.19512962 -0.28335166 0.085383736 0.5359588
0.11191064 0.15970777 -0.2656159 -0.15856451 0.31711665 -0.1748032 0.020305226 -0.24856272
-0.19184418 -0.17623253 -0.4459062 -0.28391647 -0.050307456 0.14927451 0.17262006 -0.067201324
-0.32542294 0.058628563 -0.04478064 0.3291696 0.22736698 -0.23396505 -0.22472453 0.12774706
-0.1068787 -0.012234403 0.3422301 -0.02475158 0.23380515 0.12810947 -0.017644608 -0.21407744
-0.21177733 -0.15038565 -0.1022036 0.2869112 -0.11489862 0.21277434 -0.18071276 0.05650603
0.18649635 0.16621149 -0.3276764 -0.17563441 -0.022464633 -0.15731744 0.0070082783 -0.17291771
-0.06679572 -0.23808184 0.026269453 0.21123578 0.34481725 0.27413586 -0.042601343 0.1689481
0.3624733 -0.16724524 -0.31444365 -0.06767605 0.21506028 -0.28798485 -0.045842018 0.04842944
0.20274732 0.11986743 -4.5829558e-05 0.10076172 0.18163961 0.19675396 0.097037956 -0.003313042
0.23650286 -0.013020381 0.32933712 0.027008748 -0.1261718 -0.0710369 -0.14690343 0.079778574
0.22590624 0.13119708 -0.21559799 0.18832551 -0.095174514 -0.089399785 -0.20602043 0.011449802
0.010573065 -0.153852 0.04302985 0.016560836 -0.063233465 -0.27224928 0.13919248 -0.20389229
0.2753071 0.19420111 -0.32124382 0.040678617 -0.25716522 -0.053277653 0.012096921 -0.08453249
-0.297321 -0.03310338 0.20099074 0.3084534 -0.11073588 -0.13525543 0.22090955 0.21526863
-0.054535154 -0.009091765 0.09535786 -0.2122886 -0.09215224 -0.2816938 -0.0364417 -0.10850132
0.38249943 -0.2860797 -0.097323895 -0.12372914 -0.27068716 0.18661591 0.23693953 -0.28012368
0.19575198 -0.34031072 -0.08059219 -0.0658171 -0.22830153 -0.10141488 -0.14755537 0.049206246
-0.10727217 -0.2944856 -0.1095024 0.23160252 0.012910375 -0.15682814 0.54791063 -0.34202746
0.32835895 0.17232686 0.33856893 -0.23783755 0.25724745 -0.059215415 0.100119844 -0.14136037
0.066406995 -0.2438074 0.40778846 0.030251317 0.0127467355 -0.010180229 -0.34044555 -0.16911387
-0.0720369 0.22501008 -0.25088644 -0.1664712 0.08511574 -0.14606746 0.051166862 -0.26555598
0.09582956 -0.22863637 -0.027718447 -0.06582411 -0.024465859 -0.110273555 -0.22345774 -0.50849736
0.27764717 0.13938144 -0.13521136 -0.011276599 0.30726615 0.13059239 -0.18619333 -0.022249222
-0.15856764 -0.30302644 -0.28771296 0.25575703 0.008011069 -0.24758945 -0.08261325 0.26285553
0.33361262 -0.17982993 0.008023504 0.021145875 0.078704946 0.20876142 -0.18593433 0.1545938
0.026433896 -0.20426284 -0.1944061 0.13979933 -0.28574637 -0.17802496 -0.10229463 0.15384066
0.10214065 0.27965152 0.0025106738 -0.121826954 0.024186315 0.1285806 -0.27047333 -0.034410425
-0.019196732 0.12613985 -0.01937321 0.27574077 -0.25431186 -0.007332131 -0.055035267 0.08903504
00000000: 8f9e 6f3d 79f4 f03c a57c f3bd 3bd5 9ebe
00000010: f568 5abe 8962 b9bd f608 1dbc 32c3 bc3d
00000020: 17f7 d13d 41e6 d93b 9909 a1bd 21a0 553e
00000030: 369b 2bbd 46ce ff3d 3fb3 d03d 2e0f 6fbe
00000040: b93a 9ebe 87a0 aabc 7fbe 0cbe 0f51 d83d
00000050: d5fe 13be cd03 3c3e ed89 62be a8a3 10bd
00000060: d5ee be3d 5791 85bd b7aa 353e 9561 113e
00000070: 0fd0 473e 7813 91be abdd ae3d 9934 093f
00000080: 6831 e53d 6f8a 233e cffe 87be bc5e 22be
00000090: 1d5d a23e 9cff 32be 2557 a63c 3a87 7ebe
000000a0: cd72 44be 4d76 34be d14d e4be 805d 91be
000000b0: 310f 4ebd 6bdb 183e 50c3 303e d9a0 89bd
000000c0: d69d a6be 8124 703d e86b 37bd eb88 a83e
000000d0: e4d2 683e 8994 6fbe 301e 66be 20d0 023e
000000e0: 38e3 dabd ce72 48bc c938 af3e d3c3 cabc
000000f0: 9e6a 6f3e 212f 033e 6d8b 90bc 1e37 5bbe
00000100: 28dc 58be b2fe 19be 1f50 d1bd 06e6 923e
00000110: f84f ebbd 84e1 593e c40c 39be de72 673d
00000120: e6f8 3e3e 5833 2a3e 33c5 a7be 82d9 33be
00000130: c007 b8bc d317 21be b3a5 e53b 5711 31be
00000140: 32cc 88bd bacb 73be 0933 d73c 314e 583e
00000150: e38b b03e 895b 8c3e bf7e 2ebd bb00 2d3e
00000160: 1a96 b93e 5642 2bbe c2fe a0be be99 8abd
00000170: c338 5c3e c072 93be d7c4 3bbd f35d 463d
00000180: fe9c 4f3e 0e7d f53d 1d39 40b8 295c ce3d
00000190: bcff 393e df79 493e d6bb c63d 9f1f 59bb
000001a0: ce2d 723e 7053 55bc e09e a83e 7341 dd3c
000001b0: 2e33 01be cb7b 91bd da6d 16be f362 a33d
000001c0: f753 673e 8758 063e b8c5 5cbe 67d8 403e
000001d0: dbea c2bd 3c17 b7bd 05f7 52be f397 3b3c
000001e0: a63a 2d3c 618b 1dbe 1140 303d 97aa 873c
000001f0: 8c80 81bd 4264 8bbe 7988 0e3e 24c9 50be
00000200: 0df5 8c3e a8dc 463e 127a a4be 9f9e 263d
00000210: 29ab 83be ab39 5abd 2a32 463c 5f1f adbd
00000220: 753a 98be 6997 07bd 84d0 4d3e 9bed 9d3e
00000230: 7ec9 e2bd 6680 0abe 1d36 623e 616f 5c3e
00000240: 4160 5fbd a0f5 14bc fb4a c33d 2f62 59be
00000250: 50ba bcbd 2b3a 90be e443 15bd f135 debd
00000260: f7d6 c33e 0a79 92be c051 c7bd b465 fdbd
00000270: 8297 8abe 3e18 3f3e 47a0 723e 5f6c 8fbe
00000280: 3573 483e 353d aebe 850d a5bd 1ecb 86bd
00000290: e0c7 69be 9bb2 cfbd c118 17be 7d8c 493d
000002a0: 83b1 dbbd d1c6 96be cb42 e0bd 3629 6d3e
000002b0: 0a86 533c 8e97 20be df43 0c3f 391e afbe
000002c0: aa1e a83e 7476 303e e858 ad3e b08b 73be
000002d0: f0b5 833e dd8b 72bd a20b cd3d c6c0 10be
000002e0: 6400 883d a6a8 79be a6c9 d03e 9cd1 f73c
000002f0: afd7 503c faca 26bc e14e aebe 302c 2dbe
00000300: 1588 93bd 0b69 663e 3074 80be 6d77 2abe
00000310: 2951 ae3d b592 15be 5894 513d f4f6 87be
00000320: 4a42 c43d a71f 6abe cc11 e3bc cace 86bd
00000330: a06c c8bc 1ad7 e1bd 1bd2 64be e22c 02bf
00000340: c527 8e3e 02ba 0e3e d974 0abe 7cc1 38bc
00000350: fd51 9d3e 03ba 053e 77a9 3ebe 0044 b6bc
00000360: 8e5f 22be 4826 9bbe 1d4f 93be 96f2 823e
00000370: dc40 033c 1788 7dbe 2331 a9bd 0095 863e
00000380: 46cf aa3e 5625 38be 0475 033c 1d3a ad3c
00000390: 0f30 a13d 8ec5 553e 9265 3ebe d64d 1e3e
000003a0: e68b d83c 472a 51be 6512 47be 8e27 0f3e
000003b0: 594d 92be 2d4c 36be d97f d1bd 6888 1d3e
000003c0: 1e2f d13d 7c2e 8f3e 1e8a 243b 6980 f9bd
000003d0: 6122 c63c a2aa 033e 7b7b 8abe f2f1 0cbd
000003e0: 7742 9dbc ce2a 013e 91b4 9ebc e52d 8d3e
000003f0: 2a35 82be 5f42 f0bb a96c 61bd 0158 b63d

x_lin.0.bias f4 [32]
-0.28531075 -0.27773565 -0.09224656 0.16565241 -0.22898574 -0.02841149 0.08174323 -0.19590168
0.23706432 0.11342972 -0.08690555 0.03797383 0.24886866 -0.16712137 -0.12751791 0.06323582
0.27269378 -0.10629684 0.22162879 -0.19242126 -0.18480052 0.16913888 0.17229937 0.0016058533
-0.15872869 0.20352075 -0.18884294 0.1931494 0.10164669 -0.032199416 0.013825077 0.32572374
00000000: 4014 92be 5e33 8ebe c4eb bcbd c9a0 293e
00000010: 3d7b 6abe 37bf e8bc ff68 a73d 739a 48be
00000020: fdc0 723e d74d e83d 89fb b1bd 728a 1b3d
00000030: 6dd7 7e3e dd21 2bbe 0e94 02be c881 813d
00000040: 859e 8b3e 28b2 d9bd a8f2 623e 140a 45be
00000050: 593c 3dbe be32 2d3e 3f6f 303e 7f7b d23a
00000060: c689 22be be67 503e 0b60 41be f5c8 453e
00000070: 242c d03d 89e3 03bd 9382 623c 43c5 a63e

x_lin.2.weight f4 [32, 32, 1, 1]
0.098805346 0.07513106 0.062478807 0.091179505 -0.13545956 -0.1649811 0.08413093 -0.21603273
0.03406571 0.1021048 0.0124764005 -0.10102624 -0.12625922 0.14470807 0.022449961 0.1842297
-0.012172902 -0.11982544 -0.088941626 -0.04223322 0.060477324 0.15054992 -0.0673601 -0.2821659
0.16467378 -0.008300524 0.08871171 -0.074521855 0.04277502 0.10633481 -0.09083728 -0.13047402
-0.012973459 -0.062725335 0.112859115 0.025964621 -0.07907908 -0.123353176 -0.13196735 0.013094329
-0.037068415 -0.041241076 -0.045392036 0.11902455 -0.076500915 0.17711195 0.044716783 0.14016978
-0.26854715 0.10581498 -0.15646698 -0.15376458 -0.11991851 0.07296126 0.10764185 0.031961832
0.09814603 -0.004937682 0.20784572 -0.1103444 0.14449663 0.06603355 -0.16790393 0.10500564
0.042817533 -0.04261161 0.08888143 -0.13516994 0.13709778 0.05631386 0.1118373 0.13623156
-0.07553254 0.1843282 -0.06169947 0.08635745 0.011186798 0.05029147 0.09858608 0.09750869
0.06613984 -0.056828745 0.045475457 0.037192024 0.21917997 -0.036794867 0.177364 -0.17098902
-0.035183214 -0.12570614 0.15912189 0.154572 -0.14973876 0.1801011 -0.050864052 -0.055561487
0.18051274 0.11186617 -0.02091303 0.077287875 -0.2114938 -0.1297745 -0.15780097 -0.18339296
-0.044680383 -0.122640714 -0.18477662 -0.09306213 -0.008192318 -0.08161246 0.05067359 0.08725203
0.13724846 -0.1272321 -0.11555303 0.19863354 0.05710448 0.001032781 0.00733756 0.040553845
0.10746116 -0.03121219 -0.19401027 -0.1453636 0.040467344 -0.20972589 -0.024181599 -0.25539288
-0.17236505 -0.08292779 0.023787668 0.02127777 -0.06913609 -0.07477687 0.07004955 -0.12535362
-0.041182548 0.019388063 0.11620308 -0.1255467 -0.199549 -0.12028223 0.019695876 0.19657192
-0.15596339 -0.007134879 -0.27770367 -0.036535103 -0.1396865 0.033440553 0.19924496 0.093165725
-0.05629402 0.12816536 0.12791811 0.1373724 -0.10191929 0.20588274 -0.16672732 0.074833386
0.16188547 -0.042660646 0.20908564 0.05769108 -0.11290619 -0.12675494 -0.020446485 0.11706043
-0.100812435 0.08158913 -0.081493944 0.050641194 0.14414191 -0.19365893 0.08975032 0.0116679175
-0.012428876 0.21245489 0.12502138 -0.09911183 -0.26344532 -0.0018923652 -0.19550571 0.1919572
0.07887492 -0.18289852 0.10785957 0.03855075 -0.13117725 -0.038394313 0.04753301 0.09752929
0.0046737585 -0.1047115 -0.00099582 -0.19290218 -0.055052537 0.16075449 -0.0543747 0.10816568
-0.121608615 -0.15944047 0.1460572 -0.0070416993 0.07066143 0.12078888 -0.109553486 0.15676236
-0.22792847 0.21267283 -0.115475185 -0.061960388 -0.13376398 -0.0004931631 0.14898877 -0.06818716
0.009263317 -0.0020191614 0.19696559 -0.13101757 0.0886326 0.123379834 -0.17173219 0.16583647
0.088566855 -0.20466939 -0.18651767 -0.16563739 -0.016511405 -0.113183506 -0.109518476 -0.058178164
0.14854178 0.007965887 0.03772886 0.07444855 -0.115224294 -0.11387357 -0.095049866 -0.12187363
0.09008693 -0.09386064 -0.15227647 -0.102040805 0.11286196 -0.120429285 0.05416201 -0.085860185
0.13404658 -0.110095374 -0.045997895 -0.16249178 -0.104429536 0.11284693 -0.2638014 -0.09640112
00000000: 755a ca3d 50de 993d c7e9 7f3d 52bc ba3d
00000010: e9b5 0abe cef0 28be d64c ac3d af37 5dbe
00000020: 7c88 0b3d 521c d13d d169 4c3c d8e6 cebd
00000030: 194a 01be 5a2e 143e fbe8 b73c b6a6 3c3e
00000040: da70 47bc 0a67 f5bd 0727 b6bd befc 2cbd
00000050: 12b7 773d c229 1a3e 18f4 89bd 0d78 90be
00000060: 3ea0 283e ecfe 07bc 7cae b53d ea9e 98bd
00000070: dc34 2f3d 11c6 d93d e508 babd fb9a 05be
00000080: a28e 54bc 2476 80bd ae22 e73d c2b3 d43c
00000090: 36f4 a1bd 97a0 fcbd 7322 07be 9989 563c
000000a0: 0dd5 17bd 67ec 28bd 00ed 39bd 25c3 f33d
000000b0: 83ac 9cbd d65c 353e f228 373d ab88 0f3e
000000c0: 037f 89be 86b5 d83d e138 20be 7674 1dbe
000000d0: d697 f5bd b76c 953d 5573 dc3d 69ea 023d
000000e0: c900 c93d 47cc a1bb 82d5 543e 3ffc e1bd
000000f0: edf6 133e 993c 873d 02ef 2bbe 320d d73d
00000100: 7061 2f3d 8389 2ebd 7807 b63d fd69 0abe
00000110: 5c63 0c3e 5da9 663d f40a e53d 4980 0b3e
00000120: ceb0 9abd 88c0 3c3e 95b8 7cbd 2ddc b03d
00000130: d548 373c 6efe 4d3d 80e7 c93d a3b2 c73d
00000140: 5374 873d 42c5 68bd 7944 3a3d aa56 183d
00000150: b770 603e 37b6 16bd e99e 353e bf17 2fbe
00000160: 461c 10bd 1cb9 00be d9f0 223e 1f48 1e3e
00000170: 1e55 19be 6c6c 383e d356 50bd 7194 63bd
00000180: 55d8 383e 171a e53d cd51 abbc 1b49 9e3d
00000190: d591 58be 9be3 04be 9496 21be 5dcb 3bbe
000001a0: c702 37bd 0e2b fbbd 1536 3dbe 5c97 bebd
000001b0: 1239 06bc 6f24 a7bd 1c8f 4f3d 31b1 b23d
000001c0: dc8a 0c3e 2249 02be 11a7 ecbd 9766 4b3e
000001d0: 63e6 693d 615e 873a ea6f f03b ca1b 263d
000001e0: 9914 dc3d b5b0 ffbc a1aa 46be 32da 14be
000001f0: 16c1 253d 62c2 56be 7d18 c6bc dbc2 82be
00000200: 7780 30be 0cd6 a9bd 5bde c23c b84e ae3c
00000210: 3997 8dbd 9e24 99bd 2376 8f3d b35c 00be
00000220: 08af 28bd b7d3 9e3c e1fb ed3d 508f 00be
00000230: 9356 4cbe 8856 f6bd 3f59 a13c 264a 493e
00000240: deb4 1fbe b4cb e9bb 2d2f 8ebe d5a5 15bd
00000250: fa09 0fbe f6f8 083d df06 4c3e accd be3d
00000260: 8f94 66bd c83d 033e f7fc 023e 5aab 0c3e
00000270: 10bb d0bd edd2 523e 91ba 2abe 3f42 993d
00000280: 4ec5 253e eebc 2ebd 8c1a 563e 7b4d 6c3d
00000290: 5c3b e7bd 0ccc 01be 637f a7bc 61bd ef3d
000002a0: c076 cebd 3418 a73d 4ce6 a6bd 246d 4f3d
000002b0: f099 133e 874e 46be 04cf b73d cb2a 3f3c
000002c0: 7ca2 4bbc c68d 593e 9b05 003e 25fb cabd
000002d0: 4ee2 86be 3d09 f8ba a632 48be 6e90 443e
000002e0: 2d89 a13d c049 3bbe 7ae5 dc3d 64e7 1d3d
000002f0: 5453 06be 5b43 1dbd f9b1 423d 70bd c73d
00000300: 5426 993b fc72 d6bd 2d86 82ba 2688 45be
00000310: c57e 61bd d39c 243e 01b8 5ebd f885 dd3d
00000320: f00d f9bd 5d44 23be 0590 153e 0ebe e6bb
00000330: f1b6 903d 2960 f73d 945d e0bd 5086 203e
00000340: 1566 69be e8c6 593e 417e ecbd 2dca 7dbd
00000350: 6df9 08be 9e47 01ba 8390 183e b6a5 8bbd
00000360: 2bc5 173c e853 04bb 59b1 493e 7829 06be
00000370: 0285 b53d 91ae fc3d 90da 2fbe 09d1 293e
00000380: 8a62 b53d da94 51be 7dfe 3ebe d99c 29be
00000390: ed42 87bc c1cc e7bd 394b e0bd 3a4c 6ebd
000003a0: 561b 183e 5a83 023c 9489 1a3d 7b78 983d
000003b0: b7fa ebbd 8c36 e9bd 81a9 c2bd e298 f9bd
000003c0: 7f7f b83d 023a c0bd 5dee 1bbe c5fa d0bd
000003d0: 2c24 e73d a1a3 f6bd fcd8 5d3d 77d7 afbd
000003e0: 8243 093e af79 e1bd 4a68 3cbd 3f64 26be
000003f0: 27df d5bd 4b1c e73d fa10 87be f36d c5bd

x_lin.2.bias f4 [32]
-0.16438952 -0.12986602 -0.13240862 -0.08492851 -0.14024687 0.076293565 0.022547383 0.06418191
-0.058699287 0.09010657 0.18114117 -0.008536942 0.089546405 -0.0594714 0.005104879 0.08025275
-0.06376558 0.036086176 0.02123063 -0.14433774 -0.09003674 0.21348056 -0.118953854 0.062394157
0.065727055 -0.022360858 0.10091399 -0.10751409 0.08718327 0.16522248 -0.0741728 -0.096024714
00000000: ba55 28be 99fb 04be 2096 07be 00ef adbd
00000010: e09c 0fbe cd3f 9c3d 4ab5 b83c ce71 833d
00000020: aa6e 70bd cb89 b83d 127d 393e 88de 0bbc
00000030: 1b64 b73d 4898 73bd d446 a73b 8e5b a43d
00000040: 8797 82bd 19cf 133d dceb ad3c 46cd 13be
00000050: 2f65 b8bd a69a 5a3e 149e f3bd 0491 7f3d
00000060: e89b 863d 1e2e b7bc feab ce3d 5930 dcbd
00000070: 248d b23d 1530 293e e9e7 97bd 9ba8 c4bd

edge_lin.0.weight f4 [32, 1, 64, 1]
-0.16407284 -0.093104236 0.028026879 -0.16866897 -0.124510124 -0.18194225 0.0029537906 0.010963126
-0.10764841 0.025984338 -0.07536584 0.07840318 -0.034579143 -0.10469451 0.08761069 0.022969613
-0.016983727 -0.08359812 -0.04471031 -0.08998571 -0.20296991 -0.11275211 0.00947579 -0.000751468
0.0074200514 -0.042831197 0.05886283 -0.06310613 0.018825091 -0.13916898 0.09497518 0.14244613
0.033040084 0.010228341 -0.0024253444 -0.027439734 -0.11656301 -0.093728475 0.06404672 -0.117893085
0.1074112 -0.123810306 -0.1551572 0.052518055 -0.15476276 0.0170103 0.04292165 0.028792165
-0.017777704 -0.113032326 0.018481953 -0.05692373 -0.049312346 -0.13825965 -0.029222285 -0.1110086
0.00013253665 0.05311798 0.0304916 -0.031556956 -0.15500857 -0.049771313 0.061243203 0.15717182
-0.1463741 0.0025152122 -0.07876542 -0.13940987 0.067250215 -0.085489474 -0.05918065 -0.10170209
0.06739217 -0.049747225 -0.087415114 -0.04743761 0.007688166 -0.0061399178 0.17007214 0.13856031
-0.019254616 -0.17792687 0.05509273 0.18561871 -0.09397828 0.0013056172 -0.026688173 0.05670599
-0.169658 0.12811029 -0.12848535 0.15390047 -0.02994815 -0.067567095 0.14662586 0.055182602
0.039865628 0.04650007 -0.03681035 -0.031071875 -0.08926054 -0.15743263 -0.044329856 0.016434228
0.14376162 -0.062637806 0.0003442398 0.1377242 0.07392727 -0.14298762 0.17429036 0.052290414
0.016995927 0.0030704238 -0.06963383 0.17176346 -0.11536207 -0.08784145 -0.14730968 -0.06988792
-0.09611731 -0.056842823 -0.0647091 0.06768063 -0.14005485 -0.0005156312 0.09436403 0.07699109
-0.09748567 -0.11607099 0.0050323177 -0.064367995 -0.05689599 -0.14498585 -0.032720022 0.30430198
-0.10629116 -0.051968165 -0.06499478 0.017412612 0.045104463 0.06305759 0.13608858 0.074936956
-0.053233895 -0.08275545 0.04272191 -0.082337014 -0.076868445 0.06287269 0.17563087 -0.12788817
-0.047990352 -0.13451654 0.03323663 0.12497469 0.046415806 -0.1414023 -0.1090828 -0.027524214
-0.03253204 0.103513375 -0.095514745 -0.04940854 0.0008961297 -0.18071795 -0.026459951 0.46506965
-0.047049712 -0.07732306 0.05756433 -0.119177416 -0.0030560673 -0.09713745 0.10672536 -0.020727368
-0.03703056 -0.0001793617 -0.113617145 0.03756123 0.035785343 -0.051433448 0.08211736 -0.07818341
0.04828552 -0.06274054 0.06127187 0.07293664 -0.035977762 -0.13958474 -0.14239684 0.122271515
0.08084432 0.10793271 -0.27529103 -0.050643742 -0.114966586 -0.093393475 -0.042745195 -0.037316136
-0.083545536 0.07290966 0.04920432 0.14252456 -0.13637456 0.06202486 0.10915902 -0.042156413
0.07588008 0.07757597 -0.05162506 -0.063570604 0.02636773 -0.039941106 -0.10959795 -0.32706544
0.0971732 -0.17716911 -0.044388138 0.052962713 -0.029442314 -0.038410045 -0.013944594 0.0912454
-0.0038978613 -0.031099845 -0.106465265 0.036943685 -0.14267889 -0.117192954 -0.06506741 -0.17273884
0.057010245 0.08479485 0.038779426 0.004456915 -0.021105498 0.11682351 0.107668705 0.06266993
0.09540498 -0.0069204923 -0.11895542 0.034976017 0.015258121 -0.006582157 0.06461649 -0.22796449
0.114833735 0.018340586 -0.010457175 0.035008404 0.088611744 -0.0858208 -0.06311198 0.122482106
00000000: b602 28be 6fad bebd a098 e53c 8fb7 2cbe
00000010: 2aff febd 124f 3abe 6294 413b af9e 333c
00000020: c576 dcbd 1bdd d43c 6859 9abd d991 a03d
00000030: dca2 0dbd 136a d6bd 3c6d b33d c52a bc3c
00000040: 7521 8bbc 7e35 abbd 2822 37bd 6e4a b8bd
00000050: 58d7 4fbe 94ea e6bd 5840 1b3c 2afe 44ba
00000060: e723 f33b c46f 2fbd 271a 713d c93d 81bd
00000070: 1437 9a3c 5082 0ebe 5982 c23d 66dd 113e
00000080: 0a55 073d c694 273c 87f2 1ebb 4bc9 e0bc
00000090: 96b8 eebd b7f4 bfbd ed2a 833d ee71 f1bd
000000a0: 67fa db3d 4290 fdbd 87e1 1ebe 2c1d 573d
000000b0: 217a 1ebe 2f59 8b3c 9dce 2f3d 8cdd eb3c
000000c0: 8ca2 91bc 7e7d e7bd 7767 973c db28 69bd
000000d0: befb 49bd f093 0dbe 9363 efbc 7a58 e3bd
000000e0: 89f9 0a39 3d92 593d 85c9 f93c de41 01bd
000000f0: 91ba 1ebe 01dd 4bbd 27da 7a3d a6f1 203e
00000100: 18e3 15be 42d6 243b c44f a1bd 76c1 0ebe
00000110: 7bba 893d 1b15 afbd 6967 72bd 2f49 d0bd
00000120: e804 8a3d bfc3 4bbd b206 b3bd f04d 42bd
00000130: 03ed fb3b 5d31 c9bb 6427 2e3e c1e2 0d3e
00000140: dbbb 9dbc 7632 36be eaa8 613d d512 3e3e
00000150: af77 c0bd 3e21 ab3a 28a1 dabc 8a44 683d
00000160: d4ba 2dbe 582f 033e aa91 03be 1698 1d3e
00000170: d355 f5bc 9e60 8abd 1725 163e 2707 623d
00000180: 244a 233d db76 3e3d 73c6 16bd 728a febc
00000190: 3bce b6bd 0536 21be 3993 35bd 13a1 863c
000001a0: 3f36 133e 4048 80bd 157b b439 9307 0d3e
000001b0: 2e67 973d 596b 12be 2c79 323e 792e 563d
000001c0: 0b3b 8b3c 2a39 493b 2e9c 8ebd c3e2 2f3e
000001d0: f342 ecbd 38e6 b3bd 59d8 16be 6621 8fbd
000001e0: 27d9 c4bd 05d4 68bd 3486 84bd 249c 8a3d
000001f0: 8a6a 0fbe 6d2b 07ba ee41 c13d 81ad 9d3d
00000200: 91a6 c7bd a1b6 edbd 24e6 a43b 5ed3 83bd
00000210: c50b 69bd 2c77 14be 6e05 06bd 78cd 9b3e
00000220: 2eaf d9bd 92dc 54bd fc1b 85bd e5a4 8e3c
00000230: 75bf 383d 5624 813d ce5a 0b3e 8c78 993d
00000240: c90b 5abd b07b a9bd 2bfd 2e3d 4fa0 a8bd
00000250: 346d 9dbd 66c3 803d 94d8 333e 1ef5 02be
00000260: 8891 44bd b4be 09be 2223 083d bbf2 ff3d
00000270: 801e 3e3d c4cb 10be ce66 dfbd 767a e1bc
00000280: 5140 05bd d2fe d33d 3c9d c3bd 9c60 4abd
00000290: 3fea 6a3a 200e 39be 8ac2 d8bc 9c1d ee3e
000002a0: 33b7 40bd 8d5b 9ebd 93c8 6b3d 4a13 f4bd
000002b0: 4d48 48bb 00f0 c6bd d392 da3d 71cc a9bc
000002c0: 5bad 17bd 0a13 3cb9 1bb0 e8bd ced9 193d
000002d0: a793 123d e1ab 52bd 252d a83d a01e a0bd
000002e0: 0ac7 453d 1d7e 80bd 36f8 7a3d ce5f 953d
000002f0: 6b5d 13bd 4def 0ebe 7ad0 11be 7d69 fa3d
00000300: b591 a53d d30b dd3d f2f2 8cbe d06f 4fbd
00000310: 9a73 ebbd 1445 bfbd 9615 2fbd ced8 18bd
00000320: ec19 abbd a951 953d 788a 493d f5f1 113e
00000330: c6a5 0bbe c80d 7e3d c48e df3d 34ac 2cbd
00000340: 0467 9b3d 26e0 9e3d cd74 53bd 4e31 82bd
00000350: 2301 d83c 4999 23bd e474 e0bd 1f75 a7be
00000360: be02 c73d d26b 35be 56d0 35bd 6eef 583d
00000370: 0231 f1bc da53 1dbd de77 64bc dede ba3d
00000380: 4373 7fbb 1ac5 febc 760a dabd 4352 173d
00000390: 6a1a 12be dc02 f0bd 1042 85bd 73e2 30be
000003a0: 9383 693d eca8 ad3d 2dd7 1e3d 500b 923b
000003b0: 70e5 acbc 2a41 ef3d 6981 dc3d 1859 803d
000003c0: b063 c33d 4cc5 e2bb e69e f3bd 0343 0f3d
000003d0: 33fd 793c 23af d7bb a655 843d 866f 69be
000003e0: f32d eb3d ff3e 963c 9254 2bbc f964 0f3d
000003f0: 137a b53d d1c2 afbd db40 81bd e6d7 fa3d

edge_lin.0.bias f4 [32]
-0.071152136 -0.0608482 0.07587114 -0.027413191 -0.05578979 0.005120568 0.10082129 -0.048726223
0.0780097 0.08313449 -0.12421354 0.04194487 0.06308925 -0.10498108 -0.07153513 0.014781211
-0.0896976 -0.00097419834 0.0008652499 0.01517097 -0.04993436 -0.031444903 0.07490157 -0.10200182
0.009005235 0.044815276 -0.0081591895 0.04918444 0.0046210513 -0.12562338 0.0478649 0.0935976
00000000: 36b8 91bd f63b 79bd 5462 9b3d a191 e0bc
00000010: d683 64bd 70ca a73b 647b ce3d 2695 47bd
00000020: 8dc3 9f3d 6a42 aa3d ab63 febd 62ce 2b3d
00000030: f034 813d 5200 d7bd 0381 92bd e42c 723c
00000040: 60b3 b7bd 5861 7fba f0d1 623a a98f 783c
00000050: f987 4cbd 5fcc 00bd ff65 993d 55e6 d0bd
00000060: b18a 133c 3990 373d 1fae 05bc a075 493d
00000070: 306c 973b 6aa3 00be fc0d 443d 19b0 bf3d

edge_lin.2.weight f4 [32, 32, 1, 1]
0.10057584 0.06078913 0.115341 -0.1109436 0.097713836 -0.050911766 0.051446863 -0.15604594
-0.0078475345 0.10875253 0.11779007 0.019671025 0.1837903 0.056049634 -0.06663765 -0.050562814
0.17200592 -0.1064325 0.020587323 -0.07773272 0.26144505 -0.14331946 0.047003947 0.010570591
-0.1049069 0.0017914347 0.020626582 0.12203362 -0.16219573 0.1473026 0.14430623 0.008367575
-0.1592941 -0.13693874 -0.024917496 -0.18295372 0.11170732 0.1640434 -0.05033835 -0.00040400735
0.13312961 0.2068636 -0.04574663 0.11425347 0.24086086 -0.059328392 -0.10647899 -0.11983961
0.08993748 0.08804354 -0.07145756 -0.09767246 -0.20784931 0.22651803 -0.044387117 -0.13720107
0.08162189 -0.22726636 -0.08664324 0.11698322 -0.09146101 -0.122982115 0.06629807 0.024370255
-0.15071279 0.079369016 -0.017185327 0.027632909 -0.065057985 -0.1385285 -0.013239772 0.04221071
-0.17339346 -0.02987359 0.072554894 0.0063457508 0.061365575 -0.06692346 0.004681525 0.09744672
-0.012817177 -0.0792984 -0.079052374 0.0020973603 0.1510594 0.12442011 0.019136956 -0.091810584
-0.0742928 -0.12567085 -0.14329419 -0.064876184 0.024626331 0.13898505 0.048467904 0.020426575
-0.19036047 -0.15523332 -0.18796548 0.12162246 -0.17721313 0.15711616 -0.026993373 0.012725782
-0.064798996 -0.01972023 -0.11192213 -0.08010635 0.09047688 -0.0763208 -0.06999344 0.12009113
-0.109490484 0.014854143 0.01922993 0.030313015 -0.008956166 -0.0025380643 -0.1497546 -0.05698786
0.11863218 -0.073857896 -0.156942 0.097767614 0.08714812 -0.030179068 -0.1660073 -0.090307
0.13940589 0.10846459 -0.16733047 0.07838072 0.09930149 -0.035855085 -0.116055176 -0.18200624
-0.10494867 -0.07300973 0.0011035198 -0.044492356 0.14073223 -0.11580515 0.18874824 -0.052036956
-0.10027135 0.19836234 0.020277712 -0.045894466 0.11074519 0.12331581 0.08566752 0.0030927623
0.06502396 -0.081533685 0.22183762 -0.15338813 -0.04380144 -0.12590063 0.12750427 -0.07668518
0.011067176 0.20174111 -0.10972248 0.10731338 0.16668627 -0.13267724 -0.015649183 -0.12013451
0.0067931567 0.03484535 -0.033310134 0.20472643 0.18492538 -0.008755414 0.056008056 0.13059762
-0.06833105 -0.06484396 -0.04055941 -0.115757644 0.13014023 -0.03888583 0.11439026 0.031415205
0.01910995 0.0054723085 0.10110015 0.05949309 -0.012106418 0.21253385 0.055702776 0.0389705
-0.11461329 -0.06457455 0.039400708 -0.1682586 0.08193042 -0.104367636 -0.082494356 -0.0077580083
0.06515485 0.0051977583 0.037789818 -0.13773008 -0.15134007 -0.103377074 -0.10850352 -0.066180915
0.031046642 0.18168753 0.085695446 -0.032798626 -0.041602127 0.12363918 -0.11087963 -0.09033349
0.012185232 -0.010765038 -0.0012889853 0.033047978 -0.07442655 -0.09328402 -0.07921942 -0.05046783
-0.15483522 0.09386993 0.09590862 -0.084247716 -0.15853891 -0.15434662 -0.14918874 0.08798893
0.12866643 -0.17583697 0.13320605 -0.0980964 0.0031398546 -0.05407951 -0.022299102 -0.0134299155
0.10572633 0.14043605 0.18644445 -0.0058087683 0.12716468 -0.116707355 -0.012904663 0.16356714
-0.18020396 -0.059666906 0.09842351 0.039275184 -0.007534958 0.120125175 0.16642822 0.11626863
00000000: b5fa cd3d 06fe 783d e737 ec3d 6636 e3bd
00000010: 311e c83d db88 50bd f2b9 523d 82ca 1fbe
00000020: f292 00bc a5b9 de3d ec3b f13d 2125 a13c
00000030: 8633 3c3e 4d94 653d 5279 88bd f41a 4fbd
00000040: 5222 303e 48f9 d9bd bfa6 a83c 5532 9fbd
00000050: 20dc 853e 56c2 12be 3687 403d 4630 2d3c
00000060: 6ed9 d6bd 93ce ea3a 14f9 a83c c3ec f93d
00000070: a316 26be 7ed6 163e 03c5 133e 2718 093c
00000080: fe1d 23be ab39 0cbe c71f ccbc 3858 3bbe
00000090: cfc6 e43d fefa 273e 962f 4ebd f3d0 d3b9
000000a0: 2153 083e 0dd4 533e d160 3bbd b9fd e93d
000000b0: 3ba4 763e 5402 73bd a811 dabd 786e f5bd
000000c0: 2431 b83d 2c50 b43d 5758 92bd 8008 c8bd
000000d0: 73d6 54be 58f4 673e 44cf 35bd 707e 0cbe
000000e0: 6129 a73d 83b8 68be 0372 b1bd e694 ef3d
000000f0: e94f bbbd 0cde fbbd 48c7 873d 21a4 c73c
00000100: 7454 1abe 398c a23d 3ec8 8cbc 695e e23c
00000110: 1f3d 85bd 6ada 0dbe a1eb 58bc 23e5 2c3d
00000120: 0e8e 31be 76b9 f4bc a997 943d 04f0 cf3b
00000130: 785a 7b3d 2b0f 89bd 7a67 993b 2592 c73d
00000140: 23ff 51bc 3367 a2bd 36e6 a1bd de73 093b
00000150: 51af 1a3e f8cf fe3d 1bc5 9c3c 3007 bcbd
00000160: d326 98bd dcaf 00be b6bb 12be cedd 84bd
00000170: 29bd c93c 1952 0e3e 4886 463d a255 a73c
00000180: dbed 42be 7cf5 1ebe 067a 40be 3215 f93d
00000190: 5c77 35be 0fe3 203e 3521 ddbc cc7f 503c
000001a0: 56b5 84bd 528c a1bc 6e37 e5bd cc0e a4bd
000001b0: f14b b93d 144e 9cbd b858 8fbd 57f2 f53d
000001c0: 8c3c e0bd cb5e 733c 1688 9d3c 0053 f83c
000001d0: e2bc 12bc a755 26bb 4559 19be 1a6c 69bd
000001e0: 6ef5 f23d cf42 97bd 67b5 20be 633a c83d
000001f0: b77a b23d 183a f7bc d1fd 29be e0f2 b8bd
00000200: 6bc0 0e3e af22 de3d ae58 2bbe 1286 a03d
00000210: 945e cb3d c8dc 12bd 56ae edbd d85f 3abe
00000220: 54ef d6bd 2086 95bd fba3 903a 9e3d 36bd
00000230: 1c1c 103e 402b edbd 3847 413e b424 55bd
00000240: 115b cdbd 7f1f 4b3e 721d a63c d6fb 3bbd
00000250: 60ce e23d 008d fc3d 7472 af3d f1af 4a3b
00000260: 482b 853d 22fb a6bd 6729 633e c711 1dbe
00000270: 2469 33bd 18ec 00be 7b90 023e 1f0d 9dbd
00000280: 1a53 353c 3995 4e3e 2eb6 e0bd 1ec7 db3d
00000290: ceaf 2a3e 8bdc 07be b732 80bc 1509 f6bd
000002a0: 2199 de3b ffb9 0e3d 3570 08bd cea3 513e
000002b0: 145d 3d3e de72 0fbc b468 653d 62bb 053e
000002c0: 26f1 8bbd e9cc 84bd a021 26bd 5812 edbd
000002d0: 7b43 053e c046 1fbd 7145 ea3d 3bad 003d
000002e0: 788c 9c3c 0d51 b33b 980d cf3d 07af 733d
000002f0: ff59 46bc 79a2 593e 9828 643d 889f 1f3d
00000300: 5fba eabd a93f 84bd a362 213d fc4b 2cbe
00000310: 23cb a73d b3be d5bd cdf2 a8bd e436 febb
00000320: e86f 853d f551 aa3b 7fc9 1a3d 1d09 0dbe
00000330: e4f8 1abe 5cb7 d3bd 1837 debd dc89 87bd
00000340: 8755 fe3c 4c0c 3a3e 1881 af3d da57 06bd
00000350: fe66 2abd 8a36 fd3d dc14 e3bd c400 b9bd
00000360: 91a4 473c d85f 30bc 2bf3 a8ba 515d 073d
00000370: f26c 98bd b10b bfbd cb3d a2bd 5bb7 4ebd
00000380: 208d 1ebe e13e c03d bd6b c43d 118a acbd
00000390: 0658 22be 0a0d 1ebe efc4 18be 8a33 b43d
000003a0: 22c1 033e 9b0e 34be 2b67 083e c4e6 c8bd
000003b0: 05c6 4d3b 7a82 5dbd 9bac b6bc 2609 5cbc
000003c0: 0c87 d83d 78ce 0f3e 4beb 3e3e 7b57 bebb
000003d0: 7537 023e 4404 efbd 146e 53bc 257e 273e
000003e0: 6387 38be 4965 74bd 4492 c93d 04df 203d
000003f0: cfe7 f6bb 3004 f63d 296c 2a3e 3f1e ee3d

edge_lin.2.bias f4 [32]
-0.040670138 -0.0690823 0.07504522 0.042555995 0.07754123 -0.036798928 -0.16944166 0.16299506
-0.023190038 0.16322598 0.099910945 -0.1273832 -0.15541132 0.11107104 -0.052306287 0.038067974
0.10987317 -0.044362176 -0.036206737 0.14893876 -0.07857811 0.010088095 0.052210733 0.14397354
-0.05088285 -0.14715938 0.08353211 0.07004356 0.12793763 0.023262499 -0.07531636 0.008843642
00000000: bb95 26bd 057b 8dbd 4fb1 993d 324f 2e3d
00000010: f0cd 9e3d 79ba 16bd 1d82 2dbe 2de8 263e
00000020: 09f9 bdbc b624 273e 1c9e cc3d be70 02be
00000030: 2524 1fbe 3779 e33d 1e3f 56bd 2aed 1b3d
00000040: 2f05 e13d 1db5 35bd 844d 14bd 6783 183e
00000050: 8fed a0bd 8a48 253c ecda 553d cd6d 133e
00000060: 896a 50bd f3b0 16be e212 ab3d ff72 8f3d
00000070: 1502 033e ff90 be3c 773f 9abd ece4 103c

vertex_output_lin.0.weight f4 [32, 1, 32, 1]
0.17339557 -0.124181405 0.06329338 0.115694776 0.15991047 -0.03227707 -0.14897546 -0.035318606
-0.11801966 -0.039161127 -0.08423868 0.040312678 -0.047572706 -0.07709668 -0.095797144 0.16582498
-0.01766735 -0.0899344 0.17905183 0.08371447 -0.1687364 0.026784183 -0.17266592 -0.1682617
0.0972803 -0.043472573 0.16545314 -0.06939965 0.16005747 0.02393575 0.04039587 -0.17235616
0.072076045 -0.02841953 -0.03995271 -0.1356755 0.12819217 0.12165606 0.10917563 0.11119512
-0.033379436 -0.05440848 -0.014419126 0.06649691 0.034652703 0.06716099 -0.0088965725 0.14838094
0.1388787 -0.09475566 -0.16078132 0.084721625 -0.020818949 0.044679835 -0.12898943 -0.15378873
0.07800366 -0.08492012 -0.13260007 0.060118634 -0.049943738 -0.19545446 -0.0886579 -0.09067588
-0.02748228 0.13096268 -0.029949134 0.020705689 0.029917784 0.12288839 -0.11517461 -0.17907809
-0.09274636 -0.09679305 -0.20306578 0.09573078 -0.26492873 -0.20760669 0.051595073 -0.07681754
0.100326985 -0.0017626474 0.047310445 0.09784752 -0.053960692 -0.0069785183 -0.053599544 -0.15864378
0.0665256 0.022735456 0.10003757 0.10695185 0.05875027 0.06280184 -0.16713826 -0.12697776
0.025010064 -0.024977725 -0.0014840614 -0.027876252 -0.13440947 0.045051154 -0.09053432 -0.0500724
0.0048737125 0.0046238354 -0.0067826402 -0.010873293 0.04408821 -0.03141858 0.06658969 -0.090832785
0.17356803 0.17646904 -0.18426007 0.18329953 -0.11770778 -0.03839521 0.1137803 -0.046042904
0.23583224 0.00043292835 0.032522935 -0.039435945 -0.026345085 -0.22643362 -0.078945465 -0.14067633
0.07642708 -0.088668026 -0.10001806 0.013946303 -0.03932531 0.008687638 0.17504635 0.018382367
-0.09300544 -0.12301692 0.02247824 -0.035595946 0.087741755 -0.10814944 -0.10950819 -0.16511588
-0.08494308 -0.0231161 -0.014481401 -0.12724113 0.104599334 -0.085767575 0.042787723 -0.0790434
0.043968763 0.17725417 0.0016490349 -0.1386649 0.15863004 0.066773295 -0.1503981 -0.17336603
-0.059340745 0.009544814 -0.10002971 -0.022880405 0.07126529 -0.037373535 -0.13778934 -0.041450668
-0.14961776 0.094337516 -0.010337063 0.040563457 -0.054255117 0.0022128008 -0.041528065 -0.12528674
-0.053427685 0.11858582 -0.065763794 0.11782577 0.16524157 -0.07455962 -0.117879875 -0.07653497
-0.05026657 -0.08149497 0.0016176754 -0.18609743 -0.1622886 0.038003203 0.013824343 -0.027122913
0.117703855 0.12805472 -0.0009537895 0.050922446 -0.12590197 -0.14720903 -0.13644652 -0.13641468
0.06253137 -0.14138599 0.036549784 0.015640734 -0.2669504 0.12011671 0.16441947 -0.1518782
0.10087596 -0.22244817 0.20898403 -0.09305261 0.09110424 -0.17243779 -0.118758276 0.15525854
-0.019363157 -0.08245231 -0.034387648 0.16249487 -0.11327278 0.04899157 0.09078498 -0.06416536
-0.14280018 -0.1635685 -0.009616867 -0.04050276 0.073239505 -0.12521762 -0.1435503 -0.15129872
-0.21445753 0.08112327 0.058637112 0.13027929 0.06982654 0.03563476 -0.18506801 -0.14653306
0.16732888 -0.07717425 -0.1326889 0.13504398 -0.10932449 0.066894375 -0.17152852 -0.11930711
0.14112286 -0.16890962 0.1546009 0.0027184957 0.119598694 -0.13175769 -0.26984417 -0.047768783
00000000: 9c8e 313e d252 febd f69f 813d 62f1 ec3d
00000010: 92bf 233e f634 04bd 068d 18be 3eaa 10bd
00000020: 4bb4 f1bd 6b67 20bd 5485 acbd e81e 253d
00000030: 99db 42bd dde4 9dbd 4b31 c4bd 06ce 293e
00000040: 1ebb 90bc 872f b8bd 5d59 373e 7e72 ab3d
00000050: 3cc9 2cbe 816a db3c 56cf 30be cc4c 2cbe
00000060: e53a c73d 4c10 32bd 8c6c 293e 6721 8ebd
00000070: 1be6 233e e814 c43c 2476 253d 227e 30be
00000080: 9b9c 933d 13d0 e8bc 74a5 23bd 85ee 0abe
00000090: cf44 033e d026 f93d 7997 df3d 44ba e33d
000000a0: e0b8 08bd 6ddb 5ebd 333e 6cbc 882f 883d
000000b0: feef 0d3d b38b 893d eec2 11bc 2cf1 173e
000000c0: 3836 0e3e 410f c2bd dca3 24be 8882 ad3d
000000d0: 808c aabc 3402 373d ce15 04be cb7a 1dbe
000000e0: 62c0 9f3d 9aea adbd 50c8 07be f53e 763d
000000f0: ce91 4cbd 3725 48be 4692 b5bd 47b4 b9bd
00000100: 8522 e1bc 151b 063e e357 f5bc fa9e a93c
00000110: 2416 f53c e9ac fb3d aae0 ebbd 3f60 37be
00000120: cef1 bdbd 6f3b c6bd 7af0 4fbe 800e c43d
00000130: bda4 87be d996 54be 5b55 533d 8452 9dbd
00000140: 3c78 cd3d a208 e7ba 99c8 413d 4864 c83d
00000150: e305 5dbd 0eac e4bb 328b 5bbd 8473 22be
00000160: 933e 883d b53f ba3c 7fe0 cc3d 9209 db3d
00000170: 20a4 703d 409e 803d 4b26 2bbe 7506 02be
00000180: e8e1 cc3c 169e ccbc d684 c2ba bd5c e4bc
00000190: a3a2 09be 8f87 383d 0f6a b9bd b818 4dbd
000001a0: aab3 9f3b 8b83 973b e940 debb e525 32bc
000001b0: d795 343d c5b0 00bd 2d60 883d 8a06 babd
000001c0: d1bb 313e 4db4 343e acae 3cbe dfb2 3b3e
000001d0: c710 f1bd 4c44 1dbd a505 e93d 7c97 3cbd
000001e0: 027e 713e a9fa e239 c536 053d 9687 21bd
000001f0: a6d1 d7bc 37de 67be 29ae a1bd 750d 10be
00000200: cd85 9c3d 9597 b5bd 45d6 ccbd 097f 643c
00000210: 9413 21bd 9856 0e3c 5a3f 333e 9e96 963c
00000220: a379 bebd 4cf0 fbbd 4924 b83c 0ecd 11bd
00000230: f3b1 b33d 747d ddbd d445 e0bd 2314 29be
00000240: a3f6 adbd fa5d bdbc 6643 6dbc 804b 02be
00000250: 2d38 d63d e9a6 afbd 2e42 2f3d 82e1 a1bd
00000260: 9718 343d 1e82 353e 6e24 d83a 2cfe 0dbe
00000270: ea6f 223e 70c0 883d f601 1abe dd86 31be
00000280: 480f 73bd da61 1c3c 60dc ccbd b06f bbbc
00000290: 89f3 913d fe14 19bd a618 0dbe 2dc8 29bd
000002a0: 6635 19be 0734 c13d c95c 29bc de25 263d
000002b0: 9d3a 5ebd a304 113b 5519 2abd 2b4b 00be
000002c0: fdd6 5abd 1fdd f23d 2baf 86bd a34e f13d
000002d0: 1635 293e b7b2 98bd 016b f1bd 5ebe 9cbd
000002e0: 52e4 4dbd d6e6 a6bd 2e08 d43a 5390 3ebe
000002f0: fc2e 26be 3fa9 1b3d 7f7f 623c df30 debc
00000300: b80e f13d c720 033e bb07 7aba 0e94 503d
00000310: 72ec 00be f7bd 16be a3b8 0bbe 4ab0 0bbe
00000320: 7210 803d 7dc7 10be 3ab5 153d ff20 803c
00000330: b9ad 88be c0ff f53d 945d 283e f585 1bbe
00000340: 0e98 ce3d 74c9 63be e9ff 553e 5e92 bebd
00000350: dc94 ba3d 8893 30be 8a37 f3bd 18fc 1e3e
00000360: 7c9f 9ebc c2dc a8bd 10da 0cbd 0e65 263e
00000370: 8ffb e7bd 62ab 483d 7aed b93d 2169 83bd
00000380: 363a 12be 807e 27be 1090 1dbc 39e6 25bd
00000390: 98fe 953d 0c39 00be dafe 12be 0dee 1abe
000003a0: c19a 5bbe f523 a63d 782d 703d ef67 053e
000003b0: 3801 8f3d c1f5 113d 7882 3dbe c30c 16be
000003c0: 4358 2b3e 880d 9ebd 99df 07be f848 0a3e
000003d0: 85e5 dfbd ebff 883d 2ca5 2fbe 4957 f4bd
000003e0: 8382 103e a5f6 2cbe b34f 1e3e ca28 323b
000003f0: 29f0 f43d 7deb 06be 0429 8abe 33a9 43bd

vertex_output_lin.0.bias f4 [32]
-0.12439366 -0.14566706 0.03241951 -0.051543035 0.034123085 0.1015064 -0.133677 0.00023959937
-0.115146555 -0.047063563 -0.049962413 -0.12955777 0.09239 0.04761285 -0.15516998 -0.024477968
-0.024997002 0.024052227 -0.0148191005 0.056757677 0.062082846 -0.09579648 -0.08390062 0.18187228
-0.027300697 -0.0720154 -0.097949475 -0.19535154 0.017562548 -0.12738718 0.14402145 0.03600938
00000000: 1ac2 febd bf29 15be 52ca 043d ca1e 53bd
00000010: a6c4 0b3d 96e2 cf3d a0e2 08be f73c 7b39
00000020: f5d1 ebbd b9c5 40bd 63a5 4cbd cbaa 04be
00000030: f836 bd3d b105 433d e1e4 1ebe 0586 c8bc
00000040: 83c6 ccbc 2d09 c53c d0cb 72bc bd7a 683d
00000050: 954a 7e3d f230 c4bd 17d4 abbd ba3c 3a3e
00000060: b6a5 dfbc cf7c 93bd bc99 c8bd 3c0a 48be
00000070: 55df 8f3c c971 02be 5c7a 133e 927e 133d

vertex_output_lin.2.weight f4 [1, 32, 1, 1]
0.13059428 -0.22007413 0.004794725 -0.19638228 -0.05572768 -0.031107102 0.11464171 -0.16476151
0.054248083 -0.123685405 -0.11319954 -0.009263978 -0.24565816 -0.03935536 -0.08911511 0.13637276
-0.12021351 0.022527799 0.065097675 -0.0014763025 -0.11621632 0.17029855 -0.33445913 0.09803821
0.11144034 0.004948788 -0.03815893 0.026141798 -0.08099479 -0.031175045 0.066470474 -0.16586079
00000000: 82ba 053e 1d5b 61be 121d 9d3b 7018 49be
00000010: b542 64bd 52d4 febc 46c9 ea3d 3eb7 28be
00000020: 3d33 5e3d c64e fdbd 29d5 e7bd f1c7 17bc
00000030: d08d 7bbe 1633 21bd fc81 b6bd 4da5 0b3e
00000040: 8032 f6bd 388c b83c ee51 853d 7e80 c1ba
00000050: d202 eebd be62 2e3e 3a3e abbe 42c8 c83d
00000060: d53a e43d 7129 a23b 8a4c 1cbd 5327 d63c
00000070: 99e0 a5bd cf62 ffbc ac21 883d 69d7 29be

graph_output_lin.0.weight f4 [1, 618]
0.04930033 -0.034012098 -0.030578775 0.03813238 0.018204749 0.010309518 -0.038180593 -0.04022392
-0.08886327 -0.06939036 -0.0050676623 -0.046386473 -0.01232249 -0.066773176 -0.036931995 -0.020179013
-0.049530447 -0.043975603 -0.075502105 -0.019023463 0.0011593348 0.011174963 0.009277314 0.0053278576
0.029277217 -0.06509022 -0.062349245 -0.0011158448 -0.038518738 -0.060492676 -0.032987844 -0.08854673
-0.026609614 -0.0524124 -0.0314804 0.04374078 0.008372001 0.034455083 0.013749415 -0.008860048
0.01986266 0.0038262904 0.008915435 0.0056586526 -0.06865257 -0.08719648 -0.06274445 -0.056621443
-0.06502517 -0.083273225 -0.07268326 -0.021331657 -0.021628581 -0.05750081 0.0024297473 0.04287675
-0.014258936 -0.07160904 -0.053030662 -0.02659291 -0.07789195 -0.1057447 -0.005772823 -0.029805638
0.046466842 0.06732301 0.06282002 0.034667466 0.077675186 0.05517113 0.05916135 -0.03845521
-0.058720633 -0.07697616 -0.07777723 -0.10908104 -0.031821936 -0.04610643 -0.08803693 0.06434242
0.05370733 0.064662226 0.005846511 0.062240966 0.013442049 -0.034385532 -0.0640996 -0.088259466
-0.06568139 -0.012798421 0.063038744 0.072887026 0.030897072 0.0036412105 -0.008814812 -0.026482353
-0.065426424 -0.03829856 -0.08581668 0.0019066102 -0.036121845 -0.05904177 -0.0983957 -0.04051878
-0.0007967742 -0.024544736 0.036570538 -0.039999712 -0.060151152 -0.052399226 -0.0006741089 0.07882348
0.06939452 0.047126513 0.007908368 -0.0051181875 -0.087660074 0.027119083 0.027835097 0.06023712
0.034031138 0.029468272 0.01687065 0.05915197 0.011368822 -0.089892656 -0.028550193 -0.05716664
-0.025783109 -0.005077266 -0.0035925 -0.03089429 0.0020422463 0.028586691 -0.008078658 0.050314214
0.004057233 0.04220898 -0.05270788 -0.03033557 -0.074794345 -0.0631514 -0.058114402 0.012699823
0.015316103 0.057724204 0.013358682 -0.0060846736 -0.011852398 -0.080145486 -0.0536541 -0.066829436
-0.031356778 0.010768947 -0.03731908 -0.018421467 -0.033747967 0.047958083 -0.008923339 0.02443941
0.026219964 -0.0009860984 -0.018917345 -0.023351967 0.04244735 -0.0014939664 -0.020427529 -0.09020552
-0.03231562 -0.037372544 0.00032068187 -0.022513688 0.0005528207 -0.033028685 0.032556165 0.022946328
-0.0072822566 0.0068356656 -0.031118982 0.041739684 -0.059665035 -0.068986274 -0.029021053 -0.020448357
0.019918729 0.04264423 -0.07376063 -0.026242694 0.050330855 -0.045416277 -0.03726168 -0.04420125
-0.051654182 0.04659846 -0.020822931 -0.03155609 -0.06204584 0.029924277 0.0012831842 -0.07035193
-0.0026480702 0.041378565 0.015585695 -0.026530284 -0.026861725 -0.0058839996 -0.01099026 -0.017159857
-0.04626373 -0.0455324 0.012653172 0.05680904 0.010663746 0.07965139 -0.032288715 0.07314188
-0.025972316 -0.06308518 0.0073242183 0.036608227 0.043064106 -0.033404283 -0.024866259 -0.050094735
-0.046667483 -0.008500575 0.01536123 -0.006121131 -0.030331768 0.014683661 0.079649426 -0.017613193
-0.046380367 -0.038049173 -0.050661825 -0.05237724 -0.05937879 -0.005170618 -0.018608756 -0.022012342
0.008047419 -0.043029327 -0.05601553 -0.009181329 -0.014611047 0.025125481 0.022170521 -0.014254652
0.028661693 -0.007782478 -0.071372494 -0.016839407 0.04436087 -0.039786655 0.021382611 0.01176846
00000000: 25ef 493d 4550 0bbd 5780 fabc b330 1c3d
00000010: 2022 953c 41e9 283c 4163 1cbd d6c1 24bd
00000020: f2fd b5bd 881c 8ebd a20e a6bb beff 3dbd
00000030: 45e4 49bc 60c0 88bd 0146 17bd 754e a5bc
00000040: 70e0 4abd c31f 34bd d9a0 9abd 18d7 9bbc
00000050: d2f4 973a 3117 373c e0ff 173c 4f95 ae3b
00000060: c6d6 ef3c 054e 85bd ec61 7fbd 8a41 92ba
00000070: d3c5 1dbd 2bc7 77bd 431e 07bd fd57 b5bd
00000080: 68fc d9bc 62ae 56bd 98f1 00bd 8829 333d
00000090: b82a 093c c620 0d3d 3a45 613c bc29 11bc
000000a0: 04b7 a23c 80c2 7a3b 0b12 123c 386c b93b
000000b0: b899 8cbd 1194 b2bd 2a80 80bd e3eb 67bd
000000c0: eb2b 85bd 278b aabd f6da 94bd babf aebc
000000d0: 6c2e b1bc f885 6bbd 653c 1f3b 889f 2f3d
000000e0: 509e 69bc c3a7 92bd ae36 59bd 60d9 d9bc
000000f0: d185 9fbd ad90 d8bd f329 bdbb f42a f4bc
00000100: 0454 3e3d a5e0 893d c8a7 803d 79ff 0d3d
00000110: 2b14 9f3d 1ffb 613d 2c53 723d 3683 1dbd
00000120: 0c85 70bd ada5 9dbd ab49 9fbd e165 dfbd
00000130: b857 02bd 19da 3cbd b54c b4bd f5c5 833d
00000140: 38fc 5b3d a16d 843d 1794 bf3b 62f0 7e3d
00000150: 0a3c 5c3c d8d7 0cbd a746 83bd 61c1 b4bd
00000160: f783 86bd 78b0 51bc 751a 813d cb45 953d
00000170: db1b fd3c 60a1 6e3b 006c 10bc 85f1 d8bc
00000180: 4afe 85bd f3de 1cbd a8c0 afbd 39e7 f93a
00000190: 80f4 13bd c8d5 71bd af83 c9bd 05f7 25bd
000001a0: 9dde 50ba 0b12 c9bc fdca 153d bdd6 23bd
000001b0: 0e61 76bd 92a0 56bd afb6 30ba 346e a13d
000001c0: b71e 8e3d bb07 413d 1992 013c 78b6 a7bb
000001d0: 2087 b3bd d728 de3c 6e06 e43c 33bb 763d
000001e0: 3c64 0b3d 7267 f13c 5134 8a3c 5649 723d
000001f0: 4c44 3a3c a419 b8bd 18e2 e9bc 9127 6abd
00000200: 1937 d3bc 325f a6bb 2670 6bbb 0616 fdbc
00000210: 35d7 053b a32e ea3c 595c 04bc 4716 4e3d
00000220: 8af2 843b 53e3 2c3d 38e4 57bd 4d82 f8bc
00000230: c72d 99bd 8555 81bd 5e09 6ebd eb12 503c
00000240: 64f0 7a3c 3770 6c3d 60de 5a3c f161 c7bb
00000250: 8f30 42bc 5123 a4bd 67c4 5bbd dfdd 88bd
00000260: f76f 00bd 3d70 303c e4db 18bd 9ee8 96bc
00000270: 4f3b 0abd b26f 443d 3233 12bc 2835 c83c
00000280: 40cb d63c f93f 81ba 8cf8 9abc a04c bfbc
00000290: 46dd 2d3d 32d1 c3ba a257 a7bc acbd b8bd
000002a0: 625d 04bd f413 19bd 3121 a839 a06e b8bc
000002b0: 2beb 103a 1649 07bd 9d59 053d f0f9 bb3c
000002c0: ff9f eebb b8fd df3b 3ced febc 3bf7 2a3d
000002d0: 5363 74bd ad48 8dbd 8fbd edbc 5083 a7bc
000002e0: 9a2c a33c b7ab 2e3d d00f 97bd ebfa d6bc
000002f0: ba27 4e3d 6b06 3abd b49f 18bd 5f0c 35bd
00000300: 5693 53bd 07de 3e3d da94 aabc f540 01bd
00000310: c723 7ebd c223 f53c 8430 a83a ac14 90bd
00000320: 3f8b 2dbb 927c 293d 255b 7f3c 0a56 d9bc
00000330: 1f0d dcbc 91ce c0bb 7e10 34bc d492 8cbc
00000340: 097f 3dbd 2f80 3abd 404f 4f3c 99b0 683d
00000350: feb6 2e3c 4520 a33d 2c41 04bd 69cb 953d
00000360: e5c3 d4bc ce32 81bd ffff ef3b 82f2 153d
00000370: fd63 303d eed2 08bd 53b4 cbbc 2330 4dbd
00000380: 6726 3fbd ff45 0bbc abad 7b3c c593 c8bb
00000390: 547a f8bc bd93 703c 3d1f a33d 8b49 90bc
000003a0: 57f9 3dbd 73d9 1bbd c682 4fbd 8489 56bd
000003b0: 2d37 73bd 4a6e a9bb 6471 98bc 3a53 b4bc
000003c0: 52d9 033c 853f 30bd 8a70 65bd 496d 16bc
000003d0: 2c63 6fbc f4d3 cd3c f49e b53c 588c 69bc
000003e0: edcb ea3c 2804 ffbb be2b 92bd ccf2 89bc
000003f0: beb3 353d 55f7 22bd 962a af3c 80d0 403c

x_lin_after_first_round.0.weight f4 [32, 1, 32, 1]
0.15460278 -0.20859581 0.13606927 -0.038328957 -0.02195591 0.087171316 0.055621766 0.024986451
-0.18933217 0.029156778 0.18912494 -0.070295624 0.111907564 -0.079838015 -0.06521417 0.0005638846
0.12044455 -0.035072178 -0.015983867 0.11006087 0.08278436 0.122939296 0.026128048 0.032388322
-0.074777566 -0.052527376 -0.039804727 -0.0018873452 -0.043572754 0.06451503 -0.17931303 0.15977179
0.061363336 -0.11280786 0.16225448 0.17112014 -0.06989585 0.06333569 0.1632249 -0.077301234
-0.07618688 0.012572284 -0.044504993 0.007952887 -0.10314696 -0.030644769 0.10317351 0.08708547
0.004042789 0.0025403516 0.09248539 -0.11821406 -0.108660065 0.003856738 -0.051223904 0.11502053
0.031716045 -0.16696152 0.16722448 -0.046034545 0.17564525 0.10194089 0.17457935 -0.006715018
-0.24512248 0.13566245 -0.004962909 -0.15336871 -0.13303915 -0.24644451 0.14679459 -0.17017724
0.018473 -0.19752917 0.13751015 -0.04627733 0.3510558 -0.016836619 -0.15096566 0.12444285
0.09611544 0.15130265 0.058476556 0.075210735 0.07667206 0.06795063 0.079084486 -0.029550057
0.1872652 -0.056612704 0.15879062 -0.09632332 0.042378195 0.08369546 -0.01247476 -0.018416936
0.061420217 0.14211504 0.12846547 -0.10300495 -0.18333882 -0.21823505 -0.004844462 -0.004758
0.032807093 -0.17829967 0.084985696 -0.05204037 0.18686326 0.11639293 -0.10706712 -0.07410491
0.20803088 0.054678176 -0.20950946 0.18022262 0.068234 -0.14636147 0.13013484 0.00022065282
0.047548898 0.13714127 0.15749443 -0.11886695 -0.03030106 -0.24521376 -0.15790838 -0.13397542
0.057846535 0.11708169 0.17975998 -0.07086685 0.14857067 -0.03393943 0.052338626 0.11635175
0.032405548 -0.011358437 0.046901528 0.047333743 0.012058337 0.03019761 -0.109402455 -0.043599438
-0.13351075 0.06968265 -0.10952807 -0.14893968 -0.037471525 0.05708569 0.21822478 0.07769362
0.01948134 -0.16414417 0.15050389 0.20823945 0.05479287 -0.06979106 0.1366501 0.12497327
0.011130676 0.075964645 -0.045960914 0.12260591 0.034448676 0.13934076 0.07035657 0.1481266
0.18467745 -0.11969427 -0.10357191 -0.1466703 0.12445044 -0.02724562 0.02479306 -0.009980266
0.10838211 0.049429998 -0.037683286 -0.14154196 -0.13158421 -0.058222596 -0.07584244 -0.04147523
-0.16848028 0.19110803 -0.085104354 -0.07741766 -0.09162014 0.054373693 0.19686209 -0.028634958
-0.15778293 0.15215409 0.10384247 -0.08910317 -0.1867702 -0.06921182 0.027920602 0.0068634707
-0.14759098 -0.17657332 0.07480464 -0.15978666 0.29022712 0.05945097 -0.12727535 0.14436917
0.0717524 -0.025045985 -0.286203 0.15266013 0.014464571 -0.089311846 -0.26822847 0.12964301
-0.03978517 -0.035918687 0.057853166 -0.105639465 0.114235066 -0.007340297 -0.18017663 -0.18009001
0.1354198 0.2672678 0.09435576 -0.029833017 0.024009392 0.112437785 0.117827974 0.08568912
-0.090493634 0.062790036 -0.08554394 -0.15423812 -0.035276983 -0.08842144 0.12954955 -0.12115225
-0.071338326 -0.120598435 -0.031186173 0.12908354 0.12021755 -0.15497422 0.14369617 -0.20380457
-0.06896167 -0.058912594 -0.09762786 0.041941706 -0.18846229 0.09934239 0.13135062 -0.039828744
00000000: 3150 1e3e 249a 55be be55 0b3e d3fe 1cbd
00000010: e1dc b3bc e086 b23d a6d3 633d 63b0 cc3c
00000020: 4be0 41be 32da ee3c f8a9 413e 27f7 8fbd
00000030: cb2f e53d 1d82 a3bd 028f 85bd a8d1 133a
00000040: a2ab f63d d8a7 0fbd 99f0 82bc 9867 e13d
00000050: d98a a93d 99c7 fb3d 7d0a d63c 9ea9 043d
00000060: fb24 99bd f226 57bd 480a 23bd cc60 f7ba
00000070: 5879 32bd 7520 843d d69d 37be 379b 233e
00000080: 1f58 7b3d cf07 e7bd 0a26 263e 1e3a 2f3e
00000090: 8e25 8fbd 24b6 813d 6e24 273e 1c50 9ebd
000000a0: de07 9cbd fbfb 4d3c de4a 36bd d34c 023c
000000b0: b73e d3bd bd0a fbbc a24c d33d de59 b23d
000000c0: 5f79 843b 077c 263b fb68 bd3d 371a f2bd
000000d0: 2b89 debd 54c1 7c3b 28d0 51bd e28f eb3d
000000e0: afe8 013d f6f7 2abe e53c 2b3e b88e 3cbd
000000f0: 59dc 333e 63c6 d03d eec4 323e a709 dcbb
00000100: 6301 7bbe 19eb 0a3e e69f a2bb b00c 1dbe
00000110: 6a3b 08be f35b 7cbe 5251 163e f142 2ebe
00000120: b054 973c 1645 4abe 76cf 0c3e 4c8d 3dbd
00000130: 96bd b33e f3ec 89bc be96 1abe e5db fe3d
00000140: 2cd8 c43d 15ef 1a3e 1d85 6f3d 1608 9a3d
00000150: 3e06 9d3d b329 8b3d 0cf7 a13d f612 f2bc
00000160: 73c2 3f3e b9e2 67bd 029a 223e 2945 c5bd
00000170: c294 2d3d 8668 ab3d f062 4cbc 1ddf 96bc
00000180: c493 7b3d 9b86 113e 748c 033e 42f4 d2bd
00000190: 2cbd 3bbe 0279 5fbe 4bbe 9ebb ffe8 9bbb
000001a0: bb60 063d 3094 36be fb0c ae3d 4828 55bd
000001b0: 1559 3f3e 6b5f ee3d 0246 dbbd 51c4 97bd
000001c0: 0c06 553e 39f6 5f3d a689 56be 478c 383e
000001d0: 44be 8b3d c8df 15be 1142 053e 0a5f 6739
000001e0: a2c2 423d c36e 0c3e 3846 213e 8470 f3bd
000001f0: ee39 f8bc 5119 7bbe bcb2 21be da30 09be
00000200: 7df0 6c3d 86c8 ef3d 0013 383e a422 91bd
00000210: e922 183e 1204 0bbd 0761 563d d449 ee3d
00000220: aebb 043d bd18 3abc d11b 403d 07e1 413d
00000230: 5590 453c fa60 f73c 650e e0bd 5395 32bd
00000240: 0bb7 08be c7b5 8e3d 4150 e0bd a583 18be
00000250: be7b 19bd afd2 693d 5176 5f3e d51d 9f3d
00000260: 5597 9f3c 6915 28be b11d 1a3e b93c 553e
00000270: 7d6e 603d 9eee 8ebd 01ee 0b3e fcf1 ff3d
00000280: 705d 363c 5a93 9b3d 8341 3cbd cf18 fb3d
00000290: 0e1a 0d3d 58af 0e3e 1b17 903d 80ae 173e
000002a0: 161c 3d3e 4522 f5bd 821d d4bd bd30 16be
000002b0: dfdf fe3d 3532 dfbc d11a cb3c 4584 23bc
000002c0: 71f7 dd3d 1c77 4a3d ca59 1abd 60f0 10be
000002d0: 03be 06be d17a 6ebd 4853 9bbd eee1 29bd
000002e0: 1886 2cbe d3b1 433e 314b aebd 268d 9ebd
000002f0: 57a3 bbbd f3b6 5e3d 3796 493e dc93 eabc
00000300: d991 21be 48ce 1b3e 5cab d43d b97b b6bd
00000310: b040 3fbe edbe 8dbd bfb9 e43c f7e6 e03b
00000320: 1722 17be a3cf 34be 2d33 993d 1d9f 23be
00000330: a698 943e dc82 733d 7854 02be 83d5 133e
00000340: ecf2 923d 3d2d cdbc 3389 92be f052 1c3e
00000350: cffc 6c3c 21e9 b6bd 3e55 89be 23c1 043e
00000360: c6f5 22bd 791f 13bd 71f7 6c3d 8159 d8bd
00000370: 13f4 e93d e086 f0bb 3980 38be 8469 38be
00000380: 7dab 0a3e 53d7 883e 983d c13d 5f64 f4bc
00000390: 58af c43c c845 e63d cb4f f13d c77d af3d
000003a0: ba54 b9bd 1098 803d a931 afbd 99f0 1dbe
000003b0: 997e 10bd 4d16 b5bd a3a8 043e ac1e f8bd
000003c0: d419 92bd 50fc f6bd 257a ffbc 7a2e 043e
000003d0: 9e34 f63d 90b1 1ebe 1725 133e 25b2 50be
000003e0: c73b 8dbd 554e 71bd 1ef1 c7bd 11cb 2b3d
000003f0: 42fc 40be 0674 cb3d c780 063e 7723 23bd

x_lin_after_first_round.0.bias f4 [32]
-0.021710165 0.13809197 0.08223944 0.016295679 -0.1359611 -0.13906774 0.009761587 -0.033959687
0.05846126 -0.0869735 -0.03751652 0.104886495 0.13757902 0.0014809485 -0.060032327 -0.070475176
0.049813062 -0.15171106 0.15491551 0.13326308 0.09546899 -0.049643487 0.028005514 0.07141025
-0.09443349 -0.14866836 -0.15114336 0.028688332 0.12547427 0.009996946 -0.04584211 0.0002452443
00000000: 84d9 b1bc fb67 0d3e 276d a83d 847e 853c
00000010: 6339 0bbe c667 0ebe 10ef 1f3c 5019 0bbd
00000020: 1375 6f3d 2a1f b2bd ecaa 19bd bbce d63d
00000030: 84e1 0c3e 631c c23a 75e4 75bd 4a55 90bd
00000040: c808 4c3d 255a 1bbe 2ca2 1e3e 1e76 083e
00000050: 3f85 c33d f856 4bbd d26b e53c 8a3f 923d
00000060: 5866 c1bd 853c 18be 53c5 1abe cb03 eb3c
00000070: 547c 003e 3bca 233c f0c4 3bbd 2294 8039
