reachability_classification/weights/SimpleMultiplePassGNNReachabilityNet_epoch_19.pt (torch_old, 36685 bytes, 16 tensors)

x_lin.0.weight f4 [32, 1, 1, 11]
00000000: 610d d23d b8e9 b9bd 1053 83bd c6ff 60bf
00000010: 235f 50be 6e2d a7bd 0160 87bc 8338 103e
00000020: ed99 083d 7856 b53b 8680 19be 21bd f63d
00000030: e5be 67bd 0ab1 93bc 23cd 843d 8868 53be
00000040: 9cbc b5be 6ad2 85bd 10e7 f0bd 4114 1c3e
00000050: bbf1 94be 97a9 1f3e a5b8 6abe a1fd 523d
00000060: ca89 583d 9d4b 2bbe 20a7 583e 3a20 a63d
00000070: bc2b 003e 1564 a6be f066 9b3d 8438 273f
00000080: 67b2 8a3c d9e2 093e 7bd8 2bbe 7e72 94be
00000090: 7c99 a83e adf9 17be 304e 4dbd 3370 e3be
000000a0: 0e8c f2bd f975 22be 0f9a 1abf 902f 8abe
000000b0: 61b3 acbc 4578 203e bddc b03d 9893 a0bc
000000c0: 3b8f c6be 3840 9a3d 5fc0 0abe 9b51 a53e
000000d0: d55a 823e c3c2 debd 9cc0 64be 2290 823d
000000e0: b3ba e3bd a8ef 05bd 86ed d43e 1a3c 783d
000000f0: ab9c 3c3e d52e a43e 2cfd 043d 4e7f 24be
00000100: acff d9be 8712 1dbe 94ec 5bbe 2e46 143e
00000110: 0462 8cbd bd59 913e f528 4dbe 565d e43d
00000120: c8d4 b73d 7981 233e 312c 50bf 23db df3d
00000130: ce17 0d3c c5d4 b4be 976a f2bd 2576 9abe
00000140: 57b8 b1bd 5aba 92be 3d0f 293d f7e4 8f3e
00000150: 7584 8f3e 7a06 593e 7ddc 043d acee 793e
00000160: 785c ef3e bb0d 54be a179 a4be 1824 57be
00000170: c22d 7c3e b52d 49be 425f 81bd 6105 b13d
00000180: bb9f 463e 7c4e 1e3d d96b 3a3e 348b be3e
00000190: f836 1d3d 3fa7 a03e a8ad 363e 159b c3bd
000001a0: 5730 853e 8706 a1bb 8a25 073f 0d49 4c3c
000001b0: 141d bf3c 90be 33be 48cc 37be d4c6 a73d
000001c0: 2674 0c3e 8a3a 9e3e 7716 48be 5055 4d3e
000001d0: c9b3 dfbd 7ce7 b2bd 9928 08be 34f1 343e
000001e0: 01cf 58be 8e18 17be c34d c03d c1ab b1bd
000001f0: 5f18 673d 1f4c abbe 130d e63d fbc9 81be
00000200: 232f 9f3e 72e0 0c3e e902 7abe eeaa c43d
00000210: 1ac7 e0be a789 a5bd e5bd 93bd cd34 d4bd
00000220: f730 83be 6217 c7bd 14bb 9b3e 5eee b53e
00000230: c555 9dbd 2f7b 03be f9cd c83e 68b6 2b3e
00000240: 753f 173d 12b4 e8bd f60d f63c 0962 82be
00000250: 32a1 26bd 5c02 adbe e94f 84bd ff5f 08be
00000260: b68f 2d3f 7afe 15bf e808 96be b8c0 2bbe
00000270: be11 82be d041 d03d cb2e 853e 677d 7bbe
00000280: 64b7 893e 1f22 bebe f10e 0cbe bd91 6c3e
00000290: eeb5 c2be 5c16 1bbb 29cf 65bd 200e 393e
000002a0: 9db5 9fbd ece0 a4be 3ab1 1ebe fb9c 7c3e
000002b0: d218 433d 9208 cebd 9ca5 3a3f 13ae 17bf
000002c0: 4331 de3e 5c3a 203e 1955 313e 0487 9cbe
000002d0: 5127 b83e a556 acbd 9427 4e3e fd43 01be
000002e0: f356 ac3c 1514 01bf 29bc 133f 494c 2cbd
000002f0: fb09 7d3d 3f78 de3c 2b2c ffbe f258 24be
00000300: 76c9 04be 1ba0 663e fb45 80be d4f7 94bd
00000310: 16b8 c53d e13d 30be c9c5 193e fde3 9dbe
00000320: da95 4d3d 8d94 c7be 2d21 33bd 4d6b 81bc
00000330: 1e2e 21bd f5ba a7bc eeb4 0dbe 5717 41bf
00000340: 5d63 1a3f ea81 313e 96f3 07bd f804 9cbd
00000350: cae1 db3e 7156 223e 9294 44be b97a 88bd
00000360: 696e 11be 66e1 d2be c61c e1be e2c7 ba3e
00000370: ff84 493c 8b55 66be 8614 8fbc ebd6 df3e
00000380: 41e2 173f 2c3f 30be 9532 0f3e 6516 003e
00000390: 5432 c13d 5cfe e63e b9c6 b5be 983f e53d
000003a0: 3f94 153e f2e8 03be 5d6e e3bd 6f1d 3a3e
000003b0: 629f adbe ddd7 28be d5ec 13be f6c8 273e
000003c0: eef6 ebbe b32a 003f 6c64 ab3d 714f 4dbd
000003d0: 7fdb 6c3e 144a 083d a515 92be 98f4 09bd
000003e0: 04a7 4bbd ad8b 1b3e 6840 ccbc 115e e83e
000003f0: 2fd7 febe 6010 b5bb c225 6abd 1db9 023d
0.10256458 -0.090777814 -0.06412327 -0.8789028 -0.20348792 -0.08162962 -0.01652527 0.14084058
0.03334992 0.0055339895 -0.14990434 0.12047792 -0.056578536 -0.018028755 0.06484439 -0.20645344
-0.3549546 -0.06534274 -0.11762822 0.15242101 -0.29090676 0.15592037 -0.22921999 0.05151141
0.05286578 -0.16728063 0.21157503 0.081116155 0.12516683 -0.32498232 0.07587993 0.6532061
0.016930772 0.13465442 -0.167818 -0.289936 0.329296 -0.14841338 -0.050123394 -0.4442154
-0.118431196 -0.15865315 -0.60391325 -0.26989412 -0.021081628 0.15670879 0.086358525 -0.019601628
-0.3878115 0.0753178 -0.13549946 0.32288823 0.25459924 -0.108769916 -0.223391 0.063751474
-0.111195944 -0.032699257 0.41587466 0.060604192 0.18419139 0.3206698 0.032468006 -0.16064188
-0.42577875 -0.15339099 -0.21476966 0.14479896 -0.068546325 0.28388777 -0.20035155 0.11150615
0.08976132 0.15967359 -0.8131743 0.10930469 0.0086116325 -0.3531858 -0.11836737 -0.30168262
-0.08677738 -0.286578 0.041274298 0.28104374 0.28030744 0.21193877 0.032436837 0.24407452
0.46750236 -0.20708363 -0.32124045 -0.21009862 0.2462683 -0.19646342 -0.06316997 0.08643604
0.1939687 0.038649067 0.18205203 0.3721558 0.0383825 0.313776 0.17839682 -0.09551064
0.26013443 -0.004914108 0.52791655 0.012468589 0.023329295 -0.17553163 -0.17949021 0.0819222
0.13716182 0.30904037 -0.1953982 0.20052075 -0.10922963 -0.087355584 -0.13296737 0.17670137
-0.21172716 -0.1475546 0.09389832 -0.086753376 0.056419726 -0.33456513 0.112329625 -0.2534941
0.3109065 0.13757494 -0.24415173 0.09602915 -0.43901902 -0.08082896 -0.07213954 -0.103616334
-0.25623295 -0.09721257 0.30416167 0.35533422 -0.07682375 -0.1283996 0.39219645 0.16768801
0.03692575 -0.11362471 0.030035954 -0.2546542 -0.04068107 -0.33790863 -0.06460554 -0.1331787
0.6779741 -0.58591425 -0.2930367 -0.16772735 -0.2540416 0.10168803 0.26012263 -0.24559556
0.26897728 -0.37135407 -0.13677575 0.2310247 -0.38029426 -0.002366445 -0.056105766 0.18071795
-0.07798312 -0.32202852 -0.15497294 0.24669258 0.047631092 -0.100602284 0.7290895 -0.5924999
0.4339696 0.15647262 0.17317618 -0.3057176 0.35967496 -0.08414964 0.20132285 -0.12623592
0.021037554 -0.5042127 0.57708985 -0.04206494 0.061777096 0.027156947 -0.49838385 -0.16049555
-0.12967476 0.22522013 -0.2505339 -0.07273832 0.09654252 -0.17211105 0.15016855 -0.30838004
0.050191738 -0.38980523 -0.04373281 -0.015798235 -0.03935062 -0.02047489 -0.1383855 -0.7542624
0.60307866 0.17334715 -0.033191286 -0.07618135 0.429457 0.15853287 -0.191973 -0.066640325
-0.14202274 -0.4118759 -0.43967265 0.36480623 0.012299775 -0.2249357 -0.017465841 0.43718657
0.5932961 -0.17211598 0.1398414 0.12508543 0.094334275 0.45115936 -0.35503176 0.1119377
0.14607333 -0.1288183 -0.111050345 0.1817529 -0.33910662 -0.16488595 -0.14445813 0.16385254
-0.4608683 0.50065154 0.08368763 -0.05012459 0.23130606 0.03327377 -0.28532138 -0.03368053
-0.049719825 0.15190001 -0.024933055 0.45384267 -0.49773547 -0.0055256337 -0.057164915 0.03191482

x_lin.0.bias f4 [32]
00000000: bc1f b3be 8e15 bfbe afe1 f5bd 1913 b73d
00000010: f42d 3cbe c7b6 3bbe 25a6 203e 326a 50bd
00000020: 79ab b23e ebe4 7d3d b86e 7ebe 815f f73d
00000030: 8bf7 d33e c02e 63be 97d7 59bd 9d6a 4ebd
00000040: 358b bc3e 9c7e febd 67bd cb3e 9e14 16be
00000050: 0149 4fbe 2521 803e b27a f33c 5c85 963c
00000060: eeed 2dbe 0498 de3d d90e 7bbe 3b70 3e3e
00000070: f71c 8e3e 25a9 acbd 958f 853d 5f3b d53e
-0.3498515 -0.37321132 -0.12005936 0.089391895 -0.18376905 -0.18331443 0.15688379 -0.050882526
0.34896448 0.06198589 -0.24846923 0.12078763 0.41399798 -0.22185802 -0.053184118 -0.050394643
0.36824957 -0.124264926 0.3979294 -0.14656302 -0.20242693 0.25025287 0.029721592 0.018374138
-0.16985294 0.108688384 -0.24517383 0.185975 0.27756473 -0.08430699 0.06521527 0.4164686

x_lin.2.weight f4 [32, 32, 1, 1]
00000000: cf42 133e 236e a03d a9af a03c fa91 993d
00000010: a0a1 7fbd 3e29 d2bd 9529 30bd 198d 5ebe
00000020: 7e72 89bd cdcf 073f 3f11 d73d ed94 0ebe
00000030: 151f 72be 531f 993e 19a4 9a3c 0b89 963e
00000040: ec20 8a3c 0a6b 99bd 6d22 21be 2467 35be
00000050: 80f8 393e 294a 0b3d 133a 923d 58a0 d9be
00000060: 443e 433e 3ff2 583c cd37 9d3d ddac af3d
00000070: f825 833e 6c38 b43d b2c2 99be 24f5 9ebe
00000080: e4d9 823e 921b 14be af75 653e c9bd 653d
00000090: 1212 fa3c 873f 92be 9065 81be bbe9 6a3d
000000a0: b106 1abe c2d5 a8bd 7010 8bbc 71ae 333e
000000b0: fcf7 e3bd fd02 d83e 345d 1c3e 1b8d 303e
000000c0: cabc 09bf c8c4 ce3d 6d86 e4be 7cf5 3bbe
000000d0: 4e63 c0be ce08 613d c0ce 073e d0cb 36bd
000000e0: 8dcf 07be cd63 ac3d 3d63 8a3e ef5b 65bc
000000f0: eaa2 b73e d574 093e 715a 02be e9e7 c23e
00000100: 8398 3a3e 82c6 3cbd 5a59 e73c f221 11be
00000110: 90f2 063e 9d22 1e3e a40e 27bd 8adc 3b3e
00000120: 2a3d 01be 7e10 a93d d0bc 84bd e3e9 de3d
00000130: a1cc 84be 3b2f b9bd 5f5f 463e 3ca9 6b3e
00000140: a453 52be 6348 d53c d34a 973d 9920 b63c
00000150: fe91 d03e 8a9f 28bd c171 423e 793e 35be
00000160: 9446 95bd 68e1 39be e522 4b3e 37ea 883e
00000170: e0e3 dfbe ef85 9c3e 54ad d5bd 8d5a 6fbe
00000180: bf68 703d 4fba 893d d13b e4bc 8256 a23d
00000190: 7396 4cbe fa86 2ebe 50cf 59be 3178 cbbe
000001a0: 144b 1bbc eb0e 7ebe 2221 74be 0d16 b4be
000001b0: b88c b5bd 0fa6 c1bd 6e68 f43d dcee 233e
000001c0: 7a35 553e 320d cbbe b7dd a1be 98ce ae3e
000001d0: 9963 c63e 261c a63d 811a 053e 72ee 96bd
000001e0: f1f3 a53e e3e5 84bc 992c 02bf 0ac5 32be
000001f0: 095f 8a3c 1e7b 57be 4efb b1be 26cc 2a3b
00000200: 090c 6bbd aaf3 a4bd baec 27bd 3307 a63d
00000210: e950 073c 5727 333c 223e 013d e461 0bbe
00000220: 1973 f7bc af80 c0bd 5e00 2d3e eb63 49bc
00000230: 0bf0 12be d3ee 10bd 5840 8bbc afac 893e
00000240: 3b31 4dbe 7ed2 633c 795b a6be 7339 3bbd
00000250: 43e4 76be c527 e2bd 0ca7 873e 8840 473e
00000260: 258b 203e 75a2 eb3d 8b4c 163e 31a8 083e
00000270: 2e63 02bf 497b 663e 8cdc 4ebe ab98 4e3e
00000280: 543d d83d c050 5bbd decc 823e 05ad 423d
00000290: 65ec 07be a39f f7bd 9bcf 08bc 3009 273e
000002a0: 286c c93d 8dfd fa3c 2c01 dbbd e417 043e
000002b0: 50d7 b23e 3a88 45be 6a1c c93d 6be7 2ebd
000002c0: 5e34 523e 26ae 853e 0196 1b3e f2c0 00be
000002d0: 71f2 0abf 49a9 713a 73d1 94be 867d 7a3e
000002e0: a95f eb3d b122 53be 583e 5f3e 2e86 ca3c
000002f0: 7878 a4be ccee 2f3d 9014 643d be81 563e
00000300: f7ba 253e bfbf 66bc f211 35be b110 6ebe
00000310: 530e 9abc c159 273e c6f1 68be a2c6 993d
00000320: f09e c8be 2cbc 8abe cda0 2d3e bc6f cd3c
00000330: fd74 38be 93e5 f13d d679 b3be 9fe6 483e
00000340: b3db 30be 76da 9d3e e180 d5bd 501f b1be
00000350: 4a75 edbc 49fd 68bd f3f8 3f3e 8a3b dbbd
00000360: 3d38 e0bc 0791 7fbd b4bf 8a3e 4be4 1abd
00000370: 4e58 803e b189 223e aeb6 2fbe d4c4 8a3e
00000380: 7058 babe fd5f afbe 1281 57be 18ee 96be
00000390: b5e2 1dbd e51f 1d3d a01a 52be 6476 40be
000003a0: 2359 093e 76c0 073e 135e d73c 25ac 953d
000003b0: 4c47 19bc ea46 25be a7fc 01be 0a70 833d
000003c0: 0f85 b83e 8e55 3cbe 21ad 7bbe 57d3 81be
000003d0: 39fa 913c babc cebc 3ca4 003e 0435 0dbd
000003e0: e054 b13d b765 23be b478 29be a956 a8be
000003f0: 2ef5 f63c 68ec ee3d 0cab bdbe 012d 49be
0.14380954 0.07833507 0.019615011 0.07498546 -0.062409997 -0.102617726 -0.043008406 -0.21733512
-0.06711291 0.53051454 0.10501336 -0.13923998 -0.2364467 0.2990671 0.018877076 0.2940143
0.016861401 -0.07491119 -0.15735789 -0.17715126 0.18161201 0.03400627 0.07139983 -0.42505145
0.19066721 0.01324135 0.07676659 0.08577893 0.25614905 0.08799824 -0.30031353 -0.31046402
0.25556862 -0.14463642 0.22408174 0.056089196 0.030526195 -0.28564093 -0.252728 0.05735181
-0.15041615 -0.08243896 -0.016975611 0.17547013 -0.11131284 0.4218978 0.15269929 0.17241327
-0.53803694 0.10096127 -0.4463381 -0.18355364 -0.37575763 0.054940037 0.13262463 -0.044627964
-0.13262768 0.08417473 0.27028838 -0.013998969 0.3586648 0.13423474 -0.12729813 0.38067558
0.18222241 -0.04608775 0.028240848 -0.14173105 0.13178468 0.15442891 -0.040785447 0.18345848
-0.12620988 0.08255099 -0.064813256 0.10884454 -0.2593737 -0.090422116 0.19372319 0.23013777
-0.20539719 0.026035493 0.073873185 0.02223234 0.40736383 -0.041167773 0.18988706 -0.17699613
-0.07288852 -0.18152392 0.1983753 0.26741192 -0.43728542 0.30570933 -0.1043345 -0.23374386
0.058693644 0.06724989 -0.027860554 0.07926656 -0.19979267 -0.17043677 -0.2127049 -0.39740136
-0.009478349 -0.24810378 -0.23840764 -0.35173073 -0.088647306 -0.09455501 0.11933981 0.16009086
0.20821181 -0.39658505 -0.31614468 0.34141994 0.38747862 0.08110838 0.12998392 -0.073696986
0.32412675 -0.0162229 -0.508493 -0.17457977 0.01689102 -0.21043059 -0.34762043 0.0026061623
-0.057384524 -0.08054288 -0.040997244 0.08106842 0.008259037 0.010934672 0.031553395 -0.13611561
-0.03020625 -0.093995444 0.16894671 -0.012291889 -0.14349382 -0.03538401 -0.016998455 0.2688956
-0.20038311 0.013905166 -0.32491663 -0.045709085 -0.24110512 -0.11042742 0.26494634 0.1945821
0.1567808 0.115055956 0.14677636 0.1334541 -0.50932586 0.22507967 -0.2020132 0.20175426
0.105585724 -0.053543806 0.25546926 0.047528286 -0.13273771 -0.12090995 -0.008350278 0.16312099
0.09835082 0.03063848 -0.10693583 0.12899739 0.34929895 -0.19290248 0.09819873 -0.042701166
0.20527789 0.26109427 0.1519394 -0.12573603 -0.54276186 0.0009218646 -0.29066047 0.24461946
0.11492855 -0.20618702 0.21801126 0.024722185 -0.3212316 0.042952344 0.055683672 0.2094793
0.16184603 -0.014083802 -0.17682627 -0.23248555 -0.018805658 0.16342832 -0.22748479 0.07508589
-0.3918376 -0.2709669 0.16955872 0.025077693 -0.18013377 0.11811366 -0.3505389 0.19619225
-0.17271309 0.30830735 -0.10424972 -0.34594202 -0.028986592 -0.056882177 0.1874731 -0.107047155
-0.027370567 -0.06239417 0.27099383 -0.037815373 0.2506737 0.15872838 -0.1715953 0.27103293
-0.36395597 -0.3425292 -0.2104533 -0.29478526 -0.038546283 0.038360495 -0.20517969 -0.18795162
0.13412909 0.13257012 0.026289975 0.073082246 -0.009355377 -0.16140333 -0.12694035 0.06417854
0.36039016 -0.18392012 -0.24577762 -0.25356552 0.01781951 -0.025236476 0.1256265 -0.034474388
0.08658767 -0.1595677 -0.16549951 -0.32878616 0.030146208 0.11666185 -0.3704456 -0.19646074

x_lin.2.bias f4 [32]
00000000: 767c 70be 07fb 1fbe 34be 2fbe 96cf 66be
00000010: 3914 38be d0ea 043e ed84 80bd d41d f33d
00000020: 0413 1ebe 7780 ab3d ce3f 113e 267f 323d
00000030: 18d5 be3d 7ec8 09bd e789 21bd 6ea2 043e
00000040: e3f6 10be 626f a93c 0bf9 c63d a38e 31be
00000050: f653 90bd 0b31 2a3e d4e1 41be 7828 a53c
00000060: d1b3 c23d dc48 1c3d 9592 ce3c 4c6f a2bd
00000070: 885d ff3d 4524 2a3e 1967 8bbd bf95 c7bd
-0.23484978 -0.15623103 -0.171624 -0.22540125 -0.17976464 0.12980199 -0.062753536 0.11870924
-0.15436941 0.08374112 0.14184496 0.04357829 0.09317988 -0.03363847 -0.039438155 0.12952587
-0.1415668 0.020682994 0.0971547 -0.17339568 -0.07047264 0.16620271 -0.18933803 0.020160899
0.095069535 0.03815542 0.02521638 -0.079313844 0.124690115 0.16615398 -0.06806774 -0.09745359

edge_lin.0.weight f4 [32, 1, 64, 1]
00000000: 5f2b 30bf d8bc 63be d940 76ba 010f 87be
00000010: 5e80 39be 4f6e b4be de44 11be c9d3 d53c
00000020: a54b 4bbe 51dc 0b3e e7b4 fcbe 4653 a13d
00000030: 8e2a babd aeca 55be 5fcd 1dbd 0839 77be
00000040: 0402 3cbe 3bed d8be 40a9 223d 8d28 88be
00000050: 5b6f 2ebe 8def d6be b65c e8bd 6fdc f33c
00000060: 285a 9dbd 0fb7 ce3d 872c 663d dbda 5bbe
00000070: e4fe 713e eb6e d8bc 828a 0a3e 4e31 893d
00000080: d655 53bd 4b28 2b3e ad92 763d ea4d 0abe
00000090: 1c8e d73c 8091 dcbe d28f ac3d 433b 003d
000000a0: 487a 863d 4edd 20be 5a96 f7be 8f4f 99bd
000000b0: d9b8 98be 87cb 893d 2b12 e4bd 3dcd cebd
000000c0: 83ab 83bd 6c95 efbe bae3 63bd 9ca7 4dbe
000000d0: eb60 45be c3a3 bdbe a29a a93d cbed 8c3c
000000e0: a870 483d 4d08 a43d 9a75 7f3c d418 a5be
000000f0: ec7f 9c3d 48df 5ebe 455b 043e ab0b 013d
00000100: cc6c 62be 2879 8d3d ac6e e9bc 9b78 acbe
00000110: b08a 263e afc2 0ebe 4594 d3bb 08c0 8ebe
00000120: 627c 6e3e 1a04 423e 7221 55be 99d9 ea3c
00000130: 0d84 843c af57 a6bd 834d 293e 27fa 193e
00000140: bd6e 76bd 730d d3be d073 033e a922 103f
00000150: bfb7 2bbd 0ce8 9bbd 1388 babd c0fa 24bd
00000160: b748 80be e87e 3d3e 1232 c33b de03 293e
00000170: fe3b 3abd 6b06 b9bc e391 3d3e ae44 ee3d
00000180: 6186 ce3c 8bff 3c3d 3c31 0e3d 81d3 5dbe
00000190: 8dd4 9a3c 2ade 8bbe 46df 013b d758 bfbd
000001a0: 5c69 9d3e 27c2 4a3d 1f45 36be 0a86 283e
000001b0: 3967 833d 711c 41be 6004 283e 490f a83d
000001c0: ea46 0dbe fb51 cdbe 44ad 53bd 6c1b 163f
000001d0: be5c a9bd a729 38be 17ae 2ebe 4a8a eebd
000001e0: fc68 50be 35cd 0bbc 83e7 913d 2e4f 993d
000001f0: 0aad 4fbe fb21 31bc b56b f13d b3c9 093e
00000200: 43f0 e3bd 3a5a ccbd 1a50 8abe 80b9 22be
00000210: 9c32 dabd a0eb a0be 7afb b2bd f47d a43e
00000220: dc90 48be ec92 f0bd e52d 05bd 3e5c 5bbc
00000230: 8205 10be 2bdc 933c 93c6 e03d 39c2 2c3d
00000240: c675 bfbd e15a 9dbe 8369 32bd bc2e 993d
00000250: 64cd 38be 11e1 99bd d863 343e df65 6cbe
00000260: 4655 1cbe a26f a0be 9281 2bbc 822d c83d
00000270: 2ab7 9f3c 6c19 933d 6181 29be e9e3 48bd
00000280: eb80 8cbd 52c1 a63d 7250 b4be 0c09 f2bd
00000290: 9607 abbd 0409 a5be 38f7 02bd 77a0 e43e
000002a0: 2f61 fdbd 429e 45be 293c 9c3d f489 ffbd
000002b0: 7a7c 4bbe 12af 04be 624d 1d3d b9cc 4abd
000002c0: 35f5 e8bd 51aa 65be 2260 0dbe a517 093e
000002d0: 55b8 acbd 790c 43be 3255 3c3d 6fce 0fbe
000002e0: 8277 9abc 0df3 79be 3ea4 2bbc e4d3 2e3d
000002f0: 5240 8dbd a222 cb3d e19d d7bd 4977 9d3d
00000300: 64d8 f83d 1128 a73e 035f 13bf 7c8f 03bf
00000310: ab2a 07bd 8abe 05be a5d5 57be 7d1a 05be
00000320: eb32 bbbd 29f7 be3d 7677 df3d d539 2c3e
00000330: a9bd 1fbe e102 013e 0f73 6f3e 7ced 9abb
00000340: 37b6 aebd 936f 59bc 8513 0dbe 123d 1abd
00000350: 3e9a cc3d 2c0b ff3d cdd1 75bd 3735 c1be
00000360: 3e16 0f3e 4847 69be c2e6 28be f8ec bb3c
00000370: b4e4 44bd 603a db3d a0c4 223e 7ac0 023e
00000380: fbd4 03ba e016 b43d 4863 d0be 460d d1be
00000390: d0fa 27be 3993 22be 74de 72be c1dd 4fbe
000003a0: 5d63 8f3d a3df 003e fe8f cb3c 24db b6bc
000003b0: fb8a 48bd da76 383e 761e 3e3e 8bfc 2a3e
000003c0: 3e6c 75bd 112a 19be 0982 73be 61d1 283d
000003d0: 36e2 b13d 196c 163d 827a cb3d f467 0bbe
000003e0: ceb9 c53d 79bd 28bc 97ac 4cbe 6592 8739
000003f0: 8571 883c e270 833c b3e2 a83d 72e2 2f3e
-0.6881618 -0.22240007 -0.00093938183 -0.26378635 -0.18115374 -0.3524041 -0.14186427 0.026101964
-0.19853075 0.13658263 -0.49356768 0.07877211 -0.09090148 -0.20878097 -0.038525935 -0.2414285
-0.18360144 -0.42368492 0.03971219 -0.26593438 -0.17034666 -0.41979638 -0.11345808 0.029768197
-0.076832116 0.100935094 0.05619481 -0.21470205 0.2363239 -0.026420077 0.13529399 0.06698857
-0.05159553 0.1671459 0.060198475 -0.13506284 0.02631288 -0.43079758 0.08425869 0.031306516
0.06566292 -0.15709421 -0.48356897 -0.07485878 -0.29828528 0.06728273 -0.11136278 -0.1009774
-0.06429198 -0.46793687 -0.0556371 -0.20083469 -0.19275253 -0.37039003 0.08281447 0.017203232
0.048935562 0.08009396 0.015592003 -0.32245505 0.07641587 -0.21764863 0.12925442 0.031505268
-0.22111815 0.06907874 -0.028495155 -0.33685765 0.16263843 -0.13941453 -0.006456884 -0.27880883
0.23289636 0.18946877 -0.2081354 0.028668212 0.016176248 -0.08122193 0.16533475 0.15036832
-0.060164202 -0.41221198 0.12837148 0.5630289 -0.04192328 -0.07612619 -0.09107985 -0.040278196
-0.25055477 0.18505442 0.0059568966 0.16505381 -0.04546737 -0.022586068 0.18512683 0.11634193
0.025210561 0.046142142 0.034714922 -0.21662714 0.01890018 -0.27317935 0.001981692 -0.09343117
0.30744445 0.049501564 -0.17799805 0.16457382 0.064161725 -0.18858506 0.16407919 0.082060404
-0.13796583 -0.4010161 -0.05167891 0.5863559 -0.08269642 -0.17984639 -0.17058598 -0.1164747
-0.20352548 -0.008532812 0.071242355 0.074858055 -0.20280853 -0.010811324 0.117881216 0.13455848
-0.11129811 -0.09978147 -0.27014238 -0.15891075 -0.10654184 -0.31429768 -0.087393716 0.32127345
-0.1958651 -0.11746773 -0.03251447 -0.0133886915 -0.14064601 0.01804932 0.10975375 0.042177413
-0.093486354 -0.30733398 -0.043557655 0.07479617 -0.180471 -0.07513631 0.17616212 -0.23085736
-0.15266904 -0.3133517 -0.010467904 0.09774305 0.01949652 0.07182583 -0.1655326 -0.049045477
-0.06860527 0.08142342 -0.35217625 -0.11818132 -0.08351056 -0.3223344 -0.031974047 0.44653675
-0.12372052 -0.19298652 0.07628662 -0.12477484 -0.19871703 -0.12957409 0.038403876 -0.049511645
-0.113748945 -0.22428252 -0.13806203 0.13387926 -0.08433596 -0.19047727 0.045979686 -0.14043592
-0.018855814 -0.24409123 -0.01047617 0.042682543 -0.06897034 0.09918715 -0.1052816 0.076887675
0.12150648 0.32647756 -0.5756685 -0.51390815 -0.032999676 -0.13060966 -0.21077593 -0.12998386
-0.09140571 0.09324486 0.10911457 0.16818936 -0.15599693 0.12598754 0.23383735 -0.0047280174
-0.085308485 -0.01327123 -0.13776977 -0.037655897 0.09990357 0.12453303 -0.060014535 -0.37735912
0.13973328 -0.22781098 -0.16494277 0.022940144 -0.04806967 0.107044935 0.15895319 0.12768736
-0.000502899 0.087934256 -0.40700746 -0.4083044 -0.16404271 -0.15876473 -0.23717672 -0.20299436
0.07001374 0.1258531 0.024848934 -0.022321291 -0.048960667 0.18014088 0.18566307 0.166979
-0.05991768 -0.14957453 -0.23780073 0.041215304 0.086857244 0.036724184 0.09935476 -0.13613874
0.0965458 -0.01029908 -0.19987713 0.0002585828 0.016655693 0.016045038 0.082463644 0.17176226

edge_lin.0.bias f4 [32]
00000000: 0c8d f6ba c77e 21bd a8d4 3c3d 60f0 1b3d
00000010: db6b debd d6ba d8bc 0b7a d43d ef8b 8abd
00000020: 8e42 c83d e5f5 0abd 9f56 a1bd 311f d13c
00000030: f9d4 ab3d fa61 dabd 865d c7bd 8c0e b23d
00000040: 3a00 11bd 3394 b9bc b723 00be 0298 a2bd
00000050: 9505 94bd cc0c bcbb 6930 5b3c 040d 90bd
00000060: 5a02 533b fd1b 783d a459 33bd ce78 19bd
00000070: c0e5 293d e527 febd 892e 833d 8ec2 78bc
-0.0018810346 -0.039427545 0.046101242 0.038071036 -0.108604155 -0.026456278 0.1037484 -0.067649715
0.09778319 -0.03392591 -0.0787785 0.025527569 0.08390231 -0.10663219 -0.09734635 0.08694181
-0.035400607 -0.022653675 -0.12513624 -0.079391494 -0.07227627 -0.00573883 0.013378241 -0.070337325
0.0032197447 0.060573567 -0.04378666 -0.037468724 0.041478872 -0.12409953 0.0640536 -0.015183104

edge_lin.2.weight f4 [32, 32, 1, 1]
00000000: 802b 763e dc21 fe3d 8a46 e93d 9826 db3d
00000010: 26ca 8c3e 4366 773d 3a09 14be b026 24be
00000020: 61cc 9f3d ca9b ea3d ea02 d83d cd04 103e
00000030: 6663 5c3d 0bc4 2abe 8d2c 6cbd b0c3 b6bc
00000040: 5822 a83e 77f5 ed3c c519 6a3e 7b5d 7fbe
00000050: c02e a63e 9952 80be 860f 093e beb7 533e
00000060: 8d20 8cbd 0c89 93be 417f b73e 0729 3b3d
00000070: cf64 16bf 4749 413e 4622 063e e611 67bb
00000080: adad 3dbe 6b79 5fbe 8ebd 713d caab 4fbe
00000090: ec3e 413e 60ce 663d 1ee1 183d 1588 fa3d
000000a0: 9552 083e 8f16 b43d 1c91 05be 8c63 9b3e
000000b0: 405c e83d 5455 8f3d ee0a afbd 1f72 033c
000000c0: d1f7 1e3d 35c1 173d f32d 263e 15f3 b8bd
000000d0: 7600 cdbe 6e37 b33e 7db2 35be b978 073d
000000e0: d190 063e bae8 93be d225 183d 80e6 123e
000000f0: 38af 783e 3c71 9fbe cbe4 b83d bb6e a9bd
00000100: 88a1 c2bd 4fb5 b23d 71f3 b13d c4dc 9b3d
00000110: df78 04bd 5c0f b2be 1ad9 b43d 2ba9 a43d
00000120: 09c8 b2be a82b 3cbe 2e4f 8f3d 5a30 223d
00000130: 3692 363d f671 08bd af6b a0bc d42d 933e
00000140: d687 a63d f8b7 b83d 04ad eebd 01c8 0fbe
00000150: 5ba7 6d3d f2bc ce3d 276b 0cbd efcb c53d
00000160: 0e1a 20bd 315b 4bbe 0fcb bdbd dc07 5fbc
00000170: 6b46 5cbe d621 3b3e 0c80 c73d 19b5 933d
00000180: 681e 62be 1cbb 6fbe 97cf 4cbe b31c a13e
00000190: 3f3f d5bd 0328 b53e 6ec0 38be bb36 573d
000001a0: 0969 48be a8ed a23d f906 acbe 2577 9ebc
000001b0: 0bc5 7e3d 3f12 b93e fb79 a93d 35ca 1a3c
000001c0: b54f 4dbe 1eb3 973d de44 363d 50e6 5bbe
000001d0: b49d 10bb b0bb 0d3d ca83 f7bd 96a5 56be
000001e0: e3fa 633d da1e 86be 4154 70bd a5c5 98bb
000001f0: 38fa 8bbe 56ea 593e d4f0 4cbd 48dd 49be
00000200: ec68 9a3e 7f0f fe3d ca71 29be cf17 8a3e
00000210: a869 4f3e f36b 1c3d dd48 35be cf83 ddbe
00000220: 441d 7dbe 867c 08be 698d b2b9 981e d83b
00000230: 2e14 a33d ae62 4cbe 01d3 dc3d 9010 a73d
00000240: dcb6 2ebc 5657 833e 8503 f53d f96b dabd
00000250: 33f2 e73d e692 0e3d f58d de3d 36fc 8d3e
00000260: 0c29 b63d 30eb 52be 8fe7 b23e e6a3 46be
00000270: decc f8be 76d7 a4bd 4878 f83d b80b c0bd
00000280: 04c2 143e beee a43e 5b12 08be 0fd6 3c3e
00000290: 277e a43e 31ff 68bd 2863 3bbe 0624 3abe
000002a0: 3887 eb3d 5d23 053d 47bb b5bd 47c7 753e
000002b0: cd08 9c3d 8f35 4cbe 7938 3f3d 83c0 883e
000002c0: c532 f93c 2298 19bd d3b8 ba3d ba19 f0bd
000002d0: a14c 443e 39e2 5bbe 2cfe 313e 8317 633e
000002e0: 136c 9cbb cf04 1fbe 3053 6b3e 17a1 3e3d
000002f0: 8de1 21be e858 993e 6614 a53c a6ce c53d
00000300: 06bd 8cbd eba6 57bc 68f6 1d3e f124 12bd
00000310: 4dde 513d 599c cebc 0832 5dbb 08e2 0dbe
00000320: baab 0abd 976f 08bc a83b 30bc 2eb1 9e3d
00000330: 65f5 74be 0dfd 66be 1751 313c 632e 84be
00000340: 555b 24be fffb e33c 84b2 853e 0dc6 af39
00000350: dce3 85be e0b1 7f3e 3882 ccbe 7023 743d
00000360: b9ed 95bd c63d 933b f536 bd3d 347a 093e
00000370: 8718 d1ba df21 dfbd 0404 00be 8fb0 d9bc
00000380: 6b62 803c 4cd5 143e 1b77 c23d 191f 9bbd
00000390: 4918 e3bd 6d4f cdbe 1ac3 f2bd 3e3e a43d
000003a0: 5563 d7bd f4e5 aebe f8ae bd3d bac5 b5bd
000003b0: cd3f 30bd f9b8 14be a39a 98bd e6b0 103e
000003c0: ebbb 3f3e d7e7 753e 8f3e 9a3e e98e b5bd
000003d0: 02d2 2b3d beb3 ebbd 26da 81ba 7d82 c63e
000003e0: 4cfe 72be b27d 13be 39c0 aa3e 5dc2 3e3c
000003f0: a0a7 43be 15f2 593e fde0 e33d 8113 ed3d
0.24040031 0.12408802 0.113904074 0.107007205 0.27497977 0.06040026 -0.14456645 -0.16030383
0.07802654 0.11455496 0.10547431 0.14064331 0.05380573 -0.16676347 -0.057659674 -0.022310108
0.32838702 0.02904771 0.22861393 -0.24938004 0.32457542 -0.25063017 0.13384828 0.20675561
-0.06842146 -0.28815496 0.35839275 0.045693424 -0.5874757 0.1887561 0.13099012 -0.003525847
-0.18523283 -0.21823661 0.059018664 -0.20280376 0.18871659 0.05634916 0.037324063 0.12232987
0.13312753 0.08793365 -0.13043636 0.30349386 0.1134572 0.06998697 -0.085470065 0.008022814
0.038810555 0.03704949 0.16228466 -0.09030739 -0.40039414 0.35003227 -0.17743869 0.033074114
0.1314118 -0.28888494 0.037145443 0.14345741 0.2428559 -0.31141078 0.09028014 -0.08273073
-0.09503466 0.08725988 0.08689011 0.07610467 -0.032341834 -0.34777343 0.08830471 0.08040079
-0.3491824 -0.18376029 0.06997524 0.039596893 0.04457303 -0.033311807 -0.019582598 0.28745902
0.081313774 0.09019464 -0.11654094 -0.14041139 0.05802093 0.10094632 -0.034281876 0.09658038
-0.039087348 -0.19859006 -0.09267246 -0.013612714 -0.21511237 0.18274626 0.0974122 0.07212276
-0.22081912 -0.2341122 -0.20001064 0.31467208 -0.10412454 0.3538209 -0.18042156 0.05254243
-0.19571318 0.079554856 -0.3359907 -0.019343922 0.062199634 0.36146733 0.08275219 0.009447624
-0.20049937 0.07407211 0.04449927 -0.21474576 -0.0022066655 0.03460282 -0.12085684 -0.20961604
0.055659186 -0.26195413 -0.0586741 -0.004662233 -0.2733934 0.21280798 -0.05003436 -0.19713318
0.30158174 0.124052994 -0.16547313 0.2697129 0.20255148 0.038188886 -0.17703576 -0.43264624
-0.24718195 -0.13328752 -0.00034056164 0.006595444 0.07962833 -0.19959518 0.10782433 0.08157456
-0.010663714 0.2565257 0.11963562 -0.106651254 0.11325493 0.034808062 0.1086692 0.27731484
0.08894548 -0.2059753 0.3494229 -0.1939846 -0.485938 -0.080489084 0.12132317 -0.09377235
0.14527136 0.32213396 -0.13288252 0.18441032 0.32127497 -0.056883994 -0.18299544 -0.18177804
0.115004 0.03250443 -0.08873611 0.240018 0.07618866 -0.19942306 0.046684716 0.26709375
0.030419717 -0.0374986 0.09117284 -0.11723657 0.19169857 -0.21473016 0.17382115 0.22176938
-0.0047736256 -0.15529178 0.22980952 0.046540346 -0.15808697 0.29950643 0.020151328 0.09658556
-0.06871991 -0.013162355 0.15426028 -0.03567976 0.051237393 -0.025221037 -0.0033751745 -0.13855755
-0.033855177 -0.008327386 -0.010756411 0.07748638 -0.23921736 -0.22557469 0.010822556 -0.2581664
-0.16050465 0.027830122 0.2611276 0.0003352616 -0.26150405 0.24970198 -0.399431 0.05960411
-0.073207326 0.004493448 0.09238998 0.13425523 -0.0015952744 -0.10895132 -0.12501532 -0.026573448
0.01567193 0.14534491 0.09495374 -0.07574291 -0.110886164 -0.4009966 -0.11853619 0.08019684
-0.10516993 -0.34159815 0.09261888 -0.08875604 -0.043029595 -0.14523686 -0.074513696 0.14129981
0.18724029 0.24014221 0.30125853 -0.088651486 0.041948326 -0.115088925 -0.0009906932 0.3877143
-0.23729819 -0.14403418 0.3334978 0.0116430195 -0.19106913 0.21283753 0.111268975 0.11575986

edge_lin.2.bias f4 [32]
00000000: 9dee d8bd 002f 38be 1c69 b33d 08ea 8cbd
00000010: a0ff 403d 6153 11be 22f3 99be 9e5d 173e
00000020: 8dde afbc b30a 2b3e 56f2 a53d 2458 13be
00000030: cc7b bbbe baf9 843d 62b1 ca3b cb23 5abd
00000040: 7725 983d 6a3a 12bd affc 06bc f591 153e
00000050: 3509 0ebe 5bc6 a6bd 5244 6d3d fa55 d63d
00000060: 6fd4 b8bd 987c 4dbe 4c4a ee3d ffdd 703d
00000070: be69 0e3e 1bc5 9fbb f44e 52bc 1a7a febc
-0.10592387 -0.17986679 0.087602824 -0.068805754 0.047118783 -0.14191963 -0.30068308 0.14781806
-0.021468425 0.167033 0.081028625 -0.14389092 -0.36617887 0.06492944 0.0061856965 -0.05325679
0.07429021 -0.03570024 -0.008238955 0.1460646 -0.138707 -0.08143302 0.057926483 0.104656175
-0.090248935 -0.2006706 0.11635265 0.058805462 0.13907525 -0.0048757917 -0.012836207 -0.031064082

vertex_output_lin.0.weight f4 [32, 1, 32, 1]
00000000: 59c4 373e a12f 79be 4a03 033d 0451 103d
00000010: 7e61 043e c603 49bd 7510 89be 5626 7cbd
00000020: 053f 1cbe 0b14 8cbd a984 1bbe 6b8c 203d
00000030: 5f0d 49be 77a3 abbd 857e d0bd ee61 203e
00000040: daf9 7cbd 9853 47be a6fb 143e 161d 203d
00000050: 1bcd 2cbe a95d 40bd 364f 34be 24ef 34be
00000060: fec5 bf3d 4d2f c9bd ad4c df3d d280 cfbd
00000070: d124 0f3e a75a 243d a99f 8dbb 9ef1 22be
00000080: 92be 6d3e 02ab ecbd 3fff cbbd a4d8 1fbe
00000090: d5f6 0a3e 8ceb 923e 91ea 1c3e 4c31 463d
000000a0: f040 be3d 4256 dfbc cfa6 88bd bf8f f33b
000000b0: bcf6 353e ff82 243d 1dcb c4bd adf9 843d
000000c0: 822c 413e dfae e6bc e9ca 9cbe c44c de3d
000000d0: d945 b0bd a592 38bd b88c 85bd 6a1f 8ebe
000000e0: 1d4e 323e 4892 95bd 701a 15be 925e 54bd
000000f0: dfd4 36be e1b9 cdbe 6edd 4fbe 8963 d1bd
00000100: 3f85 69bd daeb d43d b1bd 94bd 51ab 6fbc
00000110: 1d16 463c 2577 6e3d d760 1cbe 78e1 f6bd
00000120: 4691 3cbd 72f1 58bd eb98 4dbe 0e28 183d
00000130: dee7 49be def8 1cbe b389 9c3d acd1 5fbd
00000140: b495 233d 1cf0 31bd e4ed 8dbd 3e41 8a3d
00000150: 01e9 2ebd 5b70 f9bc fe89 91bd df39 cbbc
00000160: 6417 90ba 0e2a 0d3e c6af c93d 9648 aa3d
00000170: 60df a43d 4bab fabc ca4c 98bc 1ab3 593d
00000180: f71d b2bd 60e4 943d 5643 933c 4068 f23d
00000190: 28d2 f6bd 8d06 94bc 6f0a 70bc 7d85 3a3b
000001a0: ac8e 85bd 1945 063d ce90 e93d 2ff0 b9bd
000001b0: a5ad a23d 1e5c 4c3d 9ccb 553d 91e2 6fbe
000001c0: b37a 813e a673 933e 0fd9 d5be c5fa 963e
000001d0: a41e ebbc 0112 073e 3c62 c03d 57d7 853d
000001e0: 7f93 843e 6dd2 903d c26b fa3d 2a14 7cbd
000001f0: 854e 273b 3f6a 04bf e1a3 87be 5d21 efbe
00000200: 049d 01be 883b 613e b5a6 d1bd b239 b83d
00000210: 6d99 afbd 7c90 92bd 85be db3e 8c83 a6bc
00000220: 9e1e b8bd 23cb 17be 7c74 a43c cece 5ab9
00000230: f5c0 a43e e8c1 57be 0c35 b5bd fc08 99bd
00000240: 0750 7bbd a5c7 0c3e 20da 99bd 7e76 07be
00000250: 7c04 503e 5125 d0bc 2af1 c2bc 28c0 b7bd
00000260: 3bd5 9f3d 57ed 733e e73a 0ebc f1a6 3cbe
00000270: 37a7 d63d 4e64 13bc ce04 eebc 6fcf 08be
00000280: 7aaa 25bd 7755 3a3e 3533 54be 24e2 463d
00000290: 5926 42bc 2ec0 85bd d265 a0bd c2a3 12be
000002a0: 5a18 50be 3244 c1bb 7b06 92bc a6f9 963d
000002b0: ef09 e43e d3fe 813d 4e83 b0bd fb87 40be
000002c0: f2c1 b53b 4933 283e e42f 7fbe adb2 343e
000002d0: 0918 683e 5695 923c 1c9a 8dbe 7147 08be
000002e0: 2c91 ff3c 2638 2739 5ddd 60bd 50f6 a6be
000002f0: ffc9 89be d815 06be 65de 7a3b 054b d3bd
00000300: 3581 5b3e ea32 1dbe 0e7b 8bbc 8651 c4bd
00000310: df88 e3bd d822 0ebe 9e8f a6be 4cc3 debd
00000320: 354c 263d 6de7 11be 6a9b bebc 92ad 64bc
00000330: 45d6 e2be 0fe2 073e 9e14 1b3e 170d 4fbe
00000340: 1ac7 b93d 99df c8be 51fb 7a3e a07d febd
00000350: da13 85bd 20ad a8be 16c9 4fbd e473 393e
00000360: 165a 08bd bb37 50be ab04 9cbd 3984 313e
00000370: 033a acbd 15f0 953d ab53 f43c e817 bcbd
00000380: 77de a2bd 7017 69be bdbc dc3c 1247 683d
00000390: 487c 533e 8338 43be 1f33 05be 30de 9ebd
000003a0: 26fd d2be d706 d43d b000 163e 9bb6 9c3d
000003b0: 7c4f d13d 8bc8 f33d 4625 53be 7105 83be
000003c0: 4548 9a3e 4c28 8f3d c20c 9ebe da93 443e
000003d0: 3b55 1fbe 7b91 4d3e 5019 1ebe ba82 c1bd
000003e0: 89b7 9f3d 436f ecbd 55d8 6f3e 1582 a63d
000003f0: dc78 2e3e 26f1 74be 3768 a0be a08d 43be
0.17945994 -0.24334575 0.03198556 0.035233513 0.12927815 -0.049075864 -0.26770368 -0.061559997
-0.15258415 -0.068397604 -0.15187325 0.039196413 -0.19634007 -0.08380788 -0.10180382 0.15662357
-0.061761715 -0.19465482 0.14549121 0.03909024 -0.16875117 -0.04696432 -0.17608342 -0.1766935
0.09363936 -0.09823475 0.109032966 -0.101319924 0.13978888 0.040125515 -0.0043220115 -0.15912482
0.23217228 -0.11556055 -0.09960794 -0.15609986 0.13570721 0.28695333 0.15323855 0.048386857
0.092897296 -0.02726281 -0.06672441 0.0074329074 0.17769903 0.04016399 -0.09609053 0.064929344
0.18864635 -0.028159557 -0.30623558 0.10854486 -0.086070724 -0.045061726 -0.065209806 -0.27758342
0.1741261 -0.073032916 -0.14560866 -0.051848 -0.17854641 -0.40180877 -0.20299312 -0.10224063
-0.05701184 0.103965476 -0.07262743 -0.014628247 0.012090233 0.058219094 -0.15271316 -0.120547235
-0.04603698 -0.052964635 -0.20077865 0.037147574 -0.19717357 -0.1532931 0.076434515 -0.054643318
0.03993769 -0.043441877 -0.0693014 0.06750725 -0.04270268 -0.030449083 -0.07106398 -0.024807869
-0.0010993299 0.13785574 0.09847979 0.08314626 0.08050418 -0.030599257 -0.018591303 0.05314932
-0.086971216 0.072701216 0.017976444 0.1183629 -0.12051803 -0.01806953 -0.014650925 0.0028460913
-0.06521353 0.03278074 0.114045724 -0.090790145 0.07943276 0.049892537 0.05219613 -0.23426272
0.25288925 0.2879917 -0.41767165 0.29488197 -0.028701134 0.13190462 0.09393737 0.065352134
0.2589378 0.070713855 0.122275844 -0.061542667 0.002552898 -0.5172462 -0.26492217 -0.46705142
-0.12657553 0.21995366 -0.10236875 0.089953795 -0.085741855 -0.071564645 0.42918792 -0.020326398
-0.08990215 -0.14823584 0.020075075 -0.00020867141 0.32178465 -0.21070063 -0.088480085 -0.07472417
-0.061355617 0.13748033 -0.07512307 -0.13228795 0.2031421 -0.025408419 -0.023796637 -0.08972198
0.07804342 0.23821007 -0.008681036 -0.18423058 0.104811125 -0.0089960825 -0.029055025 -0.1336038
-0.040445782 0.18196665 -0.20722659 0.04855551 -0.011849963 -0.06530796 -0.07831921 -0.14320281
-0.2032179 -0.005898022 -0.017825356 0.073718354 0.4453883 0.06347432 -0.086187944 -0.18801872
0.0055468017 0.16425814 -0.24920613 0.17646284 0.22665419 0.017893475 -0.2765664 -0.13308503
0.031197153 0.00015947278 -0.05489861 -0.32609797 -0.26911923 -0.1309427 0.003827953 -0.10317043
0.21436007 -0.15351453 -0.01702645 -0.09585862 -0.111100905 -0.1388048 -0.32531446 -0.10877094
0.04060002 -0.14248438 -0.023267467 -0.013957398 -0.443041 0.13269828 0.15144584 -0.20219837
0.09071179 -0.3923309 0.24509932 -0.12426305 -0.06497927 -0.32944584 -0.05072888 0.18110615
-0.033289038 -0.2033376 -0.07618078 0.17335595 -0.08409502 0.07321183 0.029825052 -0.09184247
-0.07952588 -0.22762847 0.026945466 0.056708403 0.20652878 -0.19064526 -0.13007782 -0.07757223
-0.41208762 0.10352867 0.146487 0.07652017 0.102202386 0.11903485 -0.20619687 -0.2559009
0.30133262 0.06990108 -0.30869108 0.19197026 -0.15559857 0.20075028 -0.15439343 -0.09448762
0.077986784 -0.11544659 0.23422368 0.0813028 0.17038292 -0.23920116 -0.3132951 -0.19096994

vertex_output_lin.0.bias f4 [32]
00000000: c0c6 1abe 4855 47be ae6e 5d3d 4b3e 073d
00000010: 9dce c3bb 6a2c 193e 6f74 f6bd 454b 8b3d
00000020: f2eb acbd c692 7fbd cb39 3bbd ba87 28be
00000030: 00e0 d93c 8da9 d63b cf38 00be f656 a73c
00000040: 34a8 a4bd 3484 48bb 771c 1e3d a250 993c
00000050: db45 fc3d 491a 36bd c1a1 13be ccb0 813e
00000060: ffb3 0abd 0d47 efbd b2d6 afbc 5ff7 30be
00000070: c83c f0bc d033 8f3b 4b37 4f3e 8a11 17bd
-0.1511488 -0.19466126 0.05406063 0.03301839 -0.005975558 0.14958349 -0.12033927 0.06801466
-0.084434405 -0.062395833 -0.045709413 -0.16458026 0.02659607 0.0065509737 -0.12521671 0.020427208
-0.08039895 -0.0030596377 0.038601365 0.018715207 0.123180114 -0.04445866 -0.14417173 0.25330198
-0.033863064 -0.11683474 -0.02146468 -0.17281865 -0.029325858 0.00437019 0.20235936 -0.03688196

vertex_output_lin.2.weight f4 [1, 32, 1, 1]
00000000: d93e b83d 0b89 c3be f36c 2eba ecf6 b1be
00000010: d5c3 a5bd 6317 14be 2a4d ae3d fbb5 92be
00000020: 9928 763d f2c6 e3bd b12f 8fbe 54de 4bbd
00000030: 5afb cbbe afa8 be3c 5b24 6dbe e951 5d3e
00000040: 6c17 64be 625c 23bc 22fe cc3d 3075 25bd
00000050: db9b 95be cd59 623e 3bfa fcbe 87a4 3f3e
00000060: 8558 603d 817e f8bc e974 1abe de27 bf3a
00000070: 8d42 8bbd d48f 13be 9d0b d83d 6685 82be
0.08996362 -0.38190493 -0.0006653808 -0.347587 -0.080939926 -0.14462046 0.085108116 -0.28654465
0.06009731 -0.1112193 -0.27966073 -0.049772575 -0.39840204 0.023273794 -0.231584 0.21613277
-0.2227456 -0.009970756 0.100094095 -0.04039496 -0.2922047 0.22104569 -0.4940966 0.18715106
0.05477192 -0.03033376 -0.1508366 0.0014584025 -0.06799803 -0.14410335 0.1054909 -0.254924

graph_output_lin.0.weight f4 [1, 618]
00000000: ae22 debd 860b 18bd bc7e 36bd 0f6d 38be
00000010: e861 86bd a548 c4bd c19e f33b 45b3 b0bd
00000020: 115d 30be ff3f 3dbd aef5 873d 1bd0 163e
00000030: 8502 9fbe 9cbc 273d ef9f 5a3d c4da f6bd
00000040: 0874 a33d 842f e73c e2cd f2bd 6c17 b1bd
00000050: 8e33 12be e405 00bd 1cc1 7bbd a836 1abe
00000060: dfd4 713c eea7 a7bd 32ae 54be 6422 dcbd
00000070: a6f2 93bc d305 c7be fbff bdbd 05cd 08bc
00000080: 3945 afbd 4668 9ebe e8f1 753d a426 40bd
00000090: bfc8 eabd af08 ed3c 5d98 a33e 480d 9ebc
000000a0: 37c9 773b 6e86 61be ac65 30bc 31ef d03c
000000b0: fb98 febd dae9 99be 1fbd 293c 4a45 30bd
000000c0: e6f8 9fbe 44bb 4cbd b01c 15bc 5827 00bd
000000d0: b72e 523c 32cb 7abd a1b4 06be 4d68 b7bd
000000e0: 4eeb 0abe bc33 1c3c 0d3c c23d 31e8 c0be
000000f0: 7b4d c2b9 b3b0 e3bd 677d d9bd ffd4 3ebd
00000100: f0ad fabd d804 0b3e 1aef 643c e74c 373d
00000110: 650a 073e 03ed 093c 4efd 32be d5aa fdbe
00000120: 97d6 c6bc 71dc abbb 1e2e b2be 2c76 febd
00000130: d6c3 01bd 3acd 2fbd c467 a3bc 2717 9e3e
00000140: 4ddd 48be cc03 ff3c 7c45 9d3b 70b8 c43d
00000150: 47d8 49bd 6427 1fbd 1dd4 6cbd 044f 03be
00000160: 2add bfbd 23cd ccbd 5670 a1bc 9120 073e
00000170: 0c5d c43d 0d2e da3c 9f01 b6bd 68df 80be
00000180: f602 753d dcbd 09be ff00 e5be 13ca 2cbd
00000190: de87 c8bd 5423 9abc 91b8 cabd 7ccb 98be
000001a0: a416 abbb e936 053d 874c b1bc 76f3 0abe
000001b0: 38e4 85be 37fa e43d e1b2 2a3d 2006 d0bd
000001c0: c4ec 7c3d ad19 8e3c 2100 2a3e d25a a63c
000001d0: 6504 e9bd a490 ab3e 412c 62bd 4fe6 9f3d
000001e0: 1504 0e3e b774 643d 7b7e 09bd eb91 b03d
000001f0: 0d09 2abd 56c3 a9be c793 033d ccfa 3cbe
00000200: d7c1 c8bd 1b7a 8abd 9daa 0e3e 3933 abbd
00000210: b4ec 3dbe d6d4 b53c 9be0 79be 3221 1c3d
00000220: 0f1d 30be 6795 b63b 559c a3bd c2bd 1dbd
00000230: a071 37bc 5312 9abd 582e c2bc 3ef5 653e
00000240: 02b0 673e b552 b33d d650 8c3d bad7 913d
00000250: b6d4 833d 7d74 18be 24f7 f8bd bf79 12bd
00000260: 2689 de3c 2df3 89bd 45b7 57bc 23c9 d2bd
00000270: 3b8f 873a 62b3 f6bd be4a a6bc eb19 833c
00000280: 1842 cc3d c1a0 253d 409a f43d fae1 1cbd
00000290: 8570 e03d befd 1e3e 85c5 093e 5574 80bd
000002a0: 4781 2e3d 570f debc 236c 843d 6b34 243e
000002b0: f249 f43d ad97 e63d 2ce0 dd3d d9f6 b63d
000002c0: 7127 d43d 40df cabc a6d4 64be f1c2 82bd
000002d0: 2272 c7bd 8c7b 56bd 5042 a8bc f878 b23c
000002e0: 3c45 b03d 39bf 113e 8dc5 e7bd 533a 65bd
000002f0: 86fd 983d 0713 b3be 117f 9dbd 6dba adbc
00000300: 919e 833c 81c7 c03d ff84 d1bd 82f1 a3be
00000310: aade 85be eb22 6a3e 6e70 39bc 882d 4bbd
00000320: 98d4 7b3c c47c 1dbe 68e7 14bd 0165 1c3d
00000330: 29b6 66bc c3b6 893d 1468 c63c 8b95 f1bc
00000340: 59e5 13bd d667 f2bc de3b ccbc 79ac 843e
00000350: 461e 573d 454f 07bd 87b4 e33c 71e5 e83c
00000360: bfd5 4fbd 522f 6ebd c524 df3d 77b6 e93d
00000370: 0df7 7b3d 57d7 c83d f746 063d ae08 a53d
00000380: 6a65 ed3d 5cd4 283e 7bda 0b3e b41e 1a3e
00000390: 63fb 903d 124c fb3a 984d 9bbd 5ed9 df3c
000003a0: d15f 65bd 515c abbd bd85 d0bd 4986 ebbd
000003b0: c68b a6bd b454 f9bd d967 ef3d 6272 2ebe
000003c0: 766a a63c 410b 3abd 6eb9 bc3d 868e d6bd
000003d0: cb72 123b d31a 8dbd 8851 703c f653 5a3e
000003e0: a4b4 43be 9adf a8bd 7003 67bd de6f e7bc
000003f0: f59e 64bd bf5c d0bd 8e18 033d 64f0 8ebc
-0.108464584 -0.037120365 -0.044554457 -0.18010353 -0.06561643 -0.09584168 0.0074346964 -0.08627943
-0.17223002 -0.04620361 0.066386566 0.14727823 -0.3105661 0.040951356 0.05337518 -0.12053445
0.079811156 0.0282209 -0.11855675 -0.086470455 -0.14277479 -0.031255618 -0.06146346 -0.15059912
0.014760225 -0.08186327 -0.20769575 -0.10748747 -0.01806004 -0.3887163 -0.0927734 -0.008349662
-0.08558125 -0.3093893 0.060045153 -0.04691185 -0.114640705 0.028934805 0.3195218 -0.019293442
0.0037809142 -0.22023937 -0.010766428 0.02550468 -0.124315225 -0.30061227 0.010360031 -0.04303483
-0.31244582 -0.049983278 -0.009101078 -0.03128752 0.0128285205 -0.06122894 -0.13154842 -0.08955441
-0.13566324 0.009533819 0.0948411 -0.37677148 -0.0003706029 -0.11117687 -0.10619622 -0.046589848
-0.12240207 0.13576066 0.013973022 0.044751074 0.13187559 0.008418324 -0.1747944 -0.49544397
-0.024272246 -0.0052447845 -0.3480081 -0.12424883 -0.031680904 -0.04292033 -0.01994694 0.3087704
-0.1961567 0.03112974 0.004799543 0.09605491 -0.049278524 -0.038855925 -0.057819474 -0.12823111
-0.093683556 -0.10000064 -0.019706886 0.13196017 0.0958806 0.026633287 -0.08887028 -0.25170445
0.059817277 -0.13451332 -0.44727322 -0.0421849 -0.097915396 -0.018815674 -0.098984845 -0.29842746
-0.005221205 0.03252307 -0.021642936 -0.13569435 -0.2615068 0.11180537 0.0416745 -0.10157418
0.061749235 0.017346228 0.16601612 0.020306978 -0.11377791 0.3350879 -0.055217985 0.078076
0.13868745 0.05577537 -0.033567887 0.08621582 -0.041512538 -0.33156842 0.032123353 -0.18455046
-0.09802597 -0.06761571 0.13932271 -0.08359379 -0.18547326 0.022196215 -0.24402086 0.038117595
-0.17198585 0.0055720094 -0.07988802 -0.038511045 -0.011196524 -0.07523026 -0.023703739 0.22456834
0.22625735 0.087560095 0.06851356 0.07121225 0.06437056 -0.14888187 -0.12156513 -0.035760637
0.027165007 -0.06735835 -0.013166253 -0.1029227 0.0010342369 -0.12045933 -0.020299312 0.01600357
0.09973544 0.04043651 0.11943483 -0.038301446 0.109589614 0.15526482 0.13454254 -0.062721886
0.042603757 -0.027106924 0.06465938 0.16035621 0.119281664 0.112593986 0.10833773 0.08933801
0.10359085 -0.024764657 -0.22346744 -0.06384838 -0.09738566 -0.052363917 -0.020539433 0.021786198
0.086069554 0.14233102 -0.11316977 -0.055963825 0.07470231 -0.34975454 -0.076902516 -0.021207059
0.016066821 0.09413052 -0.10230445 -0.32020193 -0.26146442 0.22864883 -0.011318309 -0.04960397
0.0153705105 -0.15379626 -0.0363535 0.038182262 -0.014081516 0.06724312 0.02421955 -0.029490253
-0.036107395 -0.029590528 -0.02493089 0.25912836 0.052519105 -0.03303458 0.027796043 0.028429719
-0.050740954 -0.058150597 0.10895685 0.114117555 0.061514903 0.09806698 0.03278252 0.08058296
0.11591609 0.16487259 0.13657562 0.15050775 0.07079198 0.0019172451 -0.07583159 0.027325328
-0.05599958 -0.08367217 -0.101817586 -0.11500222 -0.081321284 -0.12174359 0.11689729 -0.17035821
0.020314436 -0.04542089 0.092150554 -0.10476403 0.0022346254 -0.06889882 0.014667876 0.21321091
-0.19111878 -0.082457736 -0.056399763 -0.028251585 -0.055815656 -0.1017394 0.03200584 -0.017448612

x_lin_after_first_round.0.weight f4 [32, 1, 32, 1]
00000000: e9ef 153e 2997 66bd ac90 26bd 04c1 48be
00000010: c9cb 66be 187c ce3c 18b4 2b3e 9811 eabd
00000020: 2e3f 92be 6cf6 21be 8274 f33d c05b a53d
00000030: 8a5c 963e aa39 50be 6acc b2be 304f 8cba
00000040: 4ad1 f73d 72e2 f9bd c831 5abe 0e67 523d
00000050: 92d2 1c3d 77a7 8d3e 0b17 0fbe 17af fb3d
00000060: af4a 6cbd 28f1 5f3b d023 55be 15ed 82be
00000070: c822 42be edd6 25be 46c9 c0bd 789f c03d
00000080: d2b2 163e dca6 69be a4e7 773e 2112 f83d
00000090: 23cd a5bd 817d 5c3e 71ac 113e 585a e43c
000000a0: 6e4e e73d fb52 a73d 1ecc e4bd 8287 a53d
000000b0: 756d d0bd 5c3a d0bc e2f7 cabd 1ed5 0e3e
000000c0: 5f19 15bd cb71 20bc d0e1 6e3e 5204 0ebe
000000d0: c5c0 a3bd 9bb3 e9bd 475b 4e3d b0d4 453e
000000e0: 692f a53d 981d 54be fcd6 043e 7460 debc
000000f0: cafb 623e 0333 773e fcdb 603e bc65 ce3c
00000100: 0741 84be fa04 fb3d 48b3 14be 373c 5abe
00000110: a0a0 c4bd 7cff 8dbe e80e a33d 2cb5 63be
00000120: b1ca 85bd 5ea4 81be 8248 133e 2c8a eebb
00000130: 5729 ba3e 0692 5dbc 9ecd 37be d82a 8cbd
00000140: 844a bf3d d63f db3d 1f0f fbbb 84ef 843d
00000150: 2b5c b3bc 19be cebc 7c5f 1f3d b408 47be
00000160: 8c9d 283e fdbf 813d 5de9 6d3e 40e9 c0bc
00000170: 4c29 f13c 2d1c d7bd 23fe 70be 59e2 2abe
00000180: d2a4 d53a 9604 293e ddb5 06bd eed3 4abe
00000190: 61f3 58be 425e 9fbe 3cf7 e5bc 14b7 cbbd
000001a0: 095e bebd ce05 8fbe 88ce 913d ddd0 f63c
000001b0: ac5b 3f3e 35f3 ed3d 25b3 09be 58ce 49be
000001c0: 6da4 453e 2263 e23c b27d 8abe 80c5 183e
000001d0: daca 87bd 848c 9abe 2062 853d 07d7 28be
000001e0: 2016 b23c ef1d 5e3e 6989 d93d 7bf2 05be
000001f0: 6159 75bd 3d81 c6be 6ef9 b1be 1f84 71be
00000200: 8a66 0f3e e123 823b 0bb0 ff3d 2511 a6be
00000210: d521 6c3e 3d09 b23d bfb5 ba3a c0b2 503e
00000220: ada0 143e 43e5 f53c bc37 533d b0bc 363d
00000230: 5de1 7ebd 7ea9 683e 1ee8 f5be 810d 14be
00000240: d775 27be 1023 cb3d e72d 1dbe cc14 40be
00000250: 983d 4abe aa08 5ebe 034f 393e 698a fb3d
00000260: 94ab b03b 6fbb e2be a7ac 493d 6144 513e
00000270: 9c99 c53d 67cc d13c 7c92 ca3d cb9e 513e
00000280: 25cc d23d 0aa0 49be c974 e83c 0140 f63d
00000290: 1af3 e43d 4676 8e3e e5ed 5abe a0ba 913e
000002a0: a2b0 783e 5b50 75bd 639f 9cbd aecc c4bd
000002b0: f9cc a43d 9301 563e 3097 a2be 5574 59be
000002c0: e6db 54bb 73e5 60bd 8365 1ebd 04de 8cbe
000002d0: 6505 0ebe 346c 23be 89fb 02bd abb9 e33c
000002e0: 2d75 debd 5e91 fb3d dd60 2fbd be26 25bd
000002f0: e5d8 7c3c 5435 153e f35d f73d e98b 133c
00000300: 489d 9cbe 90de 403e f8ff 293d 12da 52be
00000310: 6918 27be 31a2 6abe d6f6 283c 6c0b 58bc
00000320: 2d71 9dbe 487c 59be 7b55 713d 2682 f3bd
00000330: 683f 323e b534 593d a530 f1bd 44f3 8c3d
00000340: 3836 423c 2768 42bd 9de6 b4be 03ce e03d
00000350: 48d3 8cbd 30e4 89be cce1 9cbe 5ebd 49bc
00000360: d116 d5bd 8d50 503c 2583 f23c 5b55 2cbd
00000370: c5c2 fb3d d739 0bbe 32ae c6be f294 b2be
00000380: 3950 903e 8221 0b3e a810 083e a54b a4be
00000390: 79fb 713e f8a5 3a3e 5ba7 19bd 4ab5 6a3e
000003a0: 2811 27bd 1e6d f73d 79ba 3dbd 2f32 e4bd
000003b0: 59c1 9ebd b3b5 323e dca2 26be 0190 87be
000003c0: 9e5d 08be aa05 b9bd a678 53bb af91 183d
000003d0: bcbe 693d ef97 86be 4eee a23d 1585 9f3c
000003e0: 007f 21be 942b 87be 2a69 e1bd 93be 003e
000003f0: da6a 58bd 682a 4d3e 12c2 443e 4890 a93d
0.146423 -0.0562965 -0.040665314 -0.1960488 -0.22538675 0.025205657 0.16767919 -0.11429137
-0.28563827 -0.15816659 0.118874565 0.080741405 0.29367477 -0.20334497 -0.3492158 -0.0010704752
0.121004656 -0.12201394 -0.21308053 0.05136781 0.038286753 0.27666828 -0.13973634 0.12289255
-0.05768841 0.003417084 -0.20814443 -0.25571504 -0.1895858 -0.16195269 -0.0941339 0.09405416
0.14716652 -0.22817558 0.24209458 0.12112833 -0.08095767 0.21532251 0.14225937 0.02787511
0.11294256 0.08170124 -0.11171745 0.08082487 -0.10177127 -0.025418453 -0.09910561 0.13948485
-0.03640115 -0.009792755 0.23328328 -0.13868836 -0.07995752 -0.1141121 0.050380018 0.19319415
0.080656834 -0.20714414 0.12972635 -0.027145602 0.22166362 0.24140553 0.21958917 0.025194995
-0.25830862 0.122568086 -0.14521515 -0.21312033 -0.09600949 -0.27733982 0.079618275 -0.2223708
-0.06532801 -0.25320715 0.14383128 -0.007279655 0.36359665 -0.013523584 -0.1794953 -0.06844109
0.093403846 0.10705535 -0.0076617147 0.064909965 -0.021894535 -0.02523713 0.03890942 -0.19436914
0.1646635 0.06335447 0.23233552 -0.023548722 0.029438637 -0.10503421 -0.23534445 -0.16687907
0.0016299731 0.16505656 -0.032888282 -0.19807407 -0.21186592 -0.311266 -0.028071992 -0.09947029
-0.092952795 -0.27934116 0.07119471 0.03012889 0.18687314 0.11618654 -0.13447244 -0.1970762
0.19301005 0.02763516 -0.27049023 0.1491909 -0.06630488 -0.3018533 0.065128565 -0.16488276
0.021739066 0.21691106 0.10621912 -0.1308078 -0.05989969 -0.38770476 -0.34760612 -0.23585556
0.1400396 0.0039715623 0.124847494 -0.32434955 0.23059781 0.08693168 0.0014244838 0.20380688
0.14514418 0.030016547 0.051566824 0.04461354 -0.062226642 0.22720906 -0.48028654 -0.14458276
-0.16353546 0.09918797 -0.15349542 -0.18757933 -0.19750059 -0.21682993 0.18096547 0.12282259
0.0053915475 -0.44283625 0.04923692 0.2043624 0.09648439 0.025610162 0.09891221 0.20470731
0.10292844 -0.19689956 0.028376 0.120239265 0.111791804 0.2782461 -0.21379812 0.28462696
0.2428613 -0.059891086 -0.07647588 -0.09609352 0.08046908 0.20899038 -0.31755972 -0.21235783
-0.0032479702 -0.05490632 -0.038671028 -0.27513134 -0.13869245 -0.15959245 -0.031978164 0.027798494
-0.10862193 0.12283586 -0.042816985 -0.04032015 0.015432571 0.14571124 0.12078466 0.009005525
-0.30588746 0.18834901 0.041503876 -0.20591 -0.16317905 -0.22913434 0.0103127565 -0.013186317
-0.3075041 -0.21238816 0.05891941 -0.11890058 0.17407 0.05302878 -0.11776856 0.06882337
0.011853747 -0.04746261 -0.35332194 0.109767936 -0.06876236 -0.26931906 -0.3064102 -0.012313215
-0.104047425 0.012714517 0.02960355 -0.04207359 0.12293009 -0.13596283 -0.38804775 -0.3487926
0.28186205 0.13587001 0.13287604 -0.32088962 0.23631085 0.18227375 -0.03751312 0.22920719
-0.040787846 0.12081359 -0.046320412 -0.11142384 -0.07751722 0.17452125 -0.16273063 -0.26477054
-0.13316962 -0.090342835 -0.0032267957 0.03724831 0.057066664 -0.2628779 0.07955609 0.019472638
-0.15771103 -0.26400435 -0.110063866 0.12572698 -0.052836277 0.20035708 0.19214657 0.082794726

x_lin_after_first_round.0.bias f4 [32]
00000000: 58cb d4bd 0c91 943d a351 f13d 0fa8 8b3d
00000010: 5759 0fbe 58ab 90be 6be5 f63c de58 8bbd
00000020: 4b67 e53b ed2f 8dbd 827c 8abd df8f 8d3d
00000030: 8604 703e 319d 6b3d c8bc b0bd 2db7 f1bd
00000040: 7479 8fbd 393f 40be 9d15 683e e28e 4d3e
00000050: fe5e 543c a2f2 29bd f584 05bd 3478 c33d
00000060: b329 2abe 255d 8ebe b944 f8bd b166 1c3d
00000070: 106e 303e fd2b 87bd 26b6 1dbe 7d73 b2bd
-0.10390347 0.07254228 0.11783149 0.06819164 -0.13998924 -0.28255725 0.030138692 -0.068040594
0.007000839 -0.06893907 -0.06762029 0.06912207 0.23439226 0.057522956 -0.08629757 -0.11802516
-0.07005587 -0.18774118 0.22664495 0.20074037 0.012962101 -0.04149116 -0.0325975 0.09544411
-0.1661747 -0.2780544 -0.12122483 0.03818387 0.17229486 -0.06600187 -0.15401515 -0.08713434
