reachability_classification/weights/SimpleMultiplePassGNNReachabilityNet_epoch_20.pt (torch_old, 36685 bytes, 16 tensors)

x_lin.0.weight f4 [32, 1, 1, 11]
00000000: 7750 e43d 8871 dcbd aa40 a6bd dcce 60bf
00000010: 0e02 60be c36b 96bd 0fca f2ba ea21 f43d
00000020: 2189 273d f752 9e3c f7af 10be aa5d f43d
00000030: ca60 76bd a894 cebc 016f 8a3d 0bba 51be
00000040: 938c babe 6a50 72bd 89ff f5bd 1da6 203e
00000050: 9386 94be da53 203e b981 77be 4fcd 523d
00000060: 4e4c 403d d977 2dbe 0a82 5b3e c79f af3d
00000070: eaff 083e 74fe a3be 493f a43d af41 293f
00000080: ba88 353b af40 e43d abe9 2cbe 5dc1 93be
00000090: e83b a43e 5878 13be f9da 74bd 01d8 e6be
000000a0: 1263 e6bd 9ca8 23be 745e 1bbf baca 8cbe
000000b0: 8f98 a3bc 62bf 203e 9c46 933d 4bde 2cbc
000000c0: a511 c8be 8194 903d 62e9 18be 0876 a23e
000000d0: cf09 8a3e 9aa2 dbbd c0a3 5ebe 7360 6c3d
000000e0: 6a7c d3bd 084d d3bc 7b62 d83e b8e3 853d
000000f0: 06bd 383e 2ee3 ab3e 1975 ff3c c7e6 29be
00000100: 6f05 e5be 2300 0bbe 4d88 61be 85fe 103e
00000110: d393 90bd 7d54 993e e57a 4bbe b527 023e
00000120: 2db9 ba3d c812 2c3e 9772 4abf af8f ed3d
00000130: 4f78 0e3c 53ec c1be cab6 e7bd 06db 99be
00000140: 3fea d8bd cb2c 8fbe 35ed 003d 99c4 863e
00000150: 9883 943e 473e 4d3e 733e 143d 7cdc 703e
00000160: 03ae ec3e a736 58be b43c a2be 1889 60be
00000170: 84ca 803e 86d4 51be ce0e 91bd baba c13d
00000180: 9690 463e efcd 183d 3fea 3f3e 9677 bb3e
00000190: 7d01 3c3d 9e30 9d3e 204e 2a3e 0f0a c2bd
000001a0: e2f0 813e e5c7 a0bb 69f7 083f 9574 523b
000001b0: 870c 2c3c 1f48 2fbe 5f2f 2ebe 68d7 a83d
000001c0: ae37 1c3e 7ee6 a23e caaf 41be 7ac3 523e
000001d0: 8d8f babd 1e81 c2bd 8b1e f8bd 4688 343e
000001e0: bb56 53be 255a 11be 505c bf3d 7f66 e3bd
000001f0: 1306 8c3d e737 aebe 4002 df3d 69dd 83be
00000200: 04a7 9c3e 8821 163e bf39 83be d54d ea3d
00000210: 5166 e3be cab7 9bbd b4c6 6dbd b5b3 edbd
00000220: a233 84be c7ae b0bd e95f 9a3e 42d6 ba3e
00000230: d423 afbd 79ce fabd 6308 c93e 8dc1 313e
00000240: 5f1c f23c 0152 e8bd 547d e73c 46dd 84be
00000250: ff21 43bd cf83 abbe 3406 81bd 1dae 06be
00000260: 15c9 303f 221d 1abf 72b3 94be ddf8 33be
00000270: 368f 83be d675 e33d f5f7 843e cf52 75be
00000280: a205 8c3e 6242 bbbe b495 0abe a236 793e
00000290: 5016 cebe 9aae 033c 6d6f 62bd dd61 3f3e
000002a0: 86b7 94bd 0438 a5be 9c6a 25be 45ad 813e
000002b0: 27f5 3b3d 95c7 c3bd 394e 3c3f e3c5 19bf
000002c0: a2c4 e73e 8cb3 293e ceaa 2a3e 4caf a2be
000002d0: 5002 b33e c371 b6bd 5226 4c3e 1c79 f3bd
000002e0: f240 843c 1849 04bf e204 163f d3f6 13bd
000002f0: 82ea 893d 9d9b c73c 419e fcbe 4b1b 25be
00000300: 2971 05be 9e32 623e 2f7a 80be cbfb 8fbd
00000310: 06c0 cb3d b1c8 33be 701b 0f3e d297 9bbe
00000320: 87aa 293d ec73 c8be 0068 41bd 5e52 8cbc
00000330: c081 47bd 89eb 50bc 41c3 18be 7e79 45bf
00000340: b6e1 1d3f b2f3 463e 4c13 04bd 47a3 7dbd
00000350: 7a8a e13e add4 223e a5b5 43be a841 7dbd
00000360: 7099 0bbe 9747 cebe 063f efbe a2bd c03e
00000370: c933 f03c 063b 69be e6f1 f8bb 5d71 e53e
00000380: 4af1 163f 00db 33be 180e 1e3e 6e92 fa3d
00000390: 5a84 d33d b51c e93e 0ece b2be 2150 f63d
000003a0: 0371 243e 65c4 05be 1b0a e0bd 3594 3b3e
000003b0: 967e a5be 703a 2cbe d6c3 19be a230 2b3e
000003c0: c31f eebe 3c7f 023f 7268 c03d d0f8 50bd
000003d0: bf85 753e 80c3 1a3d 7614 95be 5fd0 02bd
000003e0: 8dbd 38bd 88dc 0d3e cc38 9bbc 78ee ea3e
000003f0: eb85 febe 5a44 f0bb 2627 81bd 6de5 b93c
0.1114816 -0.10763842 -0.081178024 -0.8781564 -0.21875784 -0.07344773 -0.0018523353 0.11920531
0.04090226 0.01932667 -0.14129625 0.119319275 -0.0601509 -0.02521737 0.067594536 -0.20481126
-0.36435375 -0.05915872 -0.1201163 0.15688367 -0.29008922 0.15656987 -0.24170579 0.05146533
0.04694777 -0.1694025 0.21436325 0.08575397 0.13378873 -0.3203007 0.08019883 0.6611585
0.0027699904 0.1114515 -0.16886012 -0.28858462 0.32076955 -0.14401376 -0.05977914 -0.45086673
-0.11249365 -0.15982288 -0.60691 -0.27498418 -0.019970207 0.15698007 0.07191202 -0.010551046
-0.39075962 0.07059575 -0.14932778 0.31730676 0.26960608 -0.10724373 -0.21742153 0.05770917
-0.103264645 -0.025793567 0.42262635 0.065375745 0.18040857 0.33571762 0.031183766 -0.16591941
-0.44730708 -0.13574271 -0.22024651 0.14159591 -0.07059445 0.29947272 -0.198711 0.1271046
0.09117351 0.1680404 -0.790811 0.11599671 0.008695676 -0.37875614 -0.11314161 -0.30049914
-0.10591554 -0.27963862 0.03147622 0.26321867 0.29006648 0.20043288 0.03619237 0.23521608
0.4622651 -0.21114598 -0.31686938 -0.21927297 0.25154507 -0.20491228 -0.07082902 0.094594434
0.19391093 0.03730577 0.18741702 0.36614674 0.045899857 0.30701154 0.16631365 -0.09474575
0.25379092 -0.004906642 0.5350252 0.0032112945 0.010501034 -0.17117356 -0.17010258 0.082442105
0.15255615 0.31816477 -0.18914714 0.20582381 -0.091094114 -0.094972834 -0.121152006 0.17630109
-0.20638554 -0.14194544 0.09343779 -0.11103534 0.06837096 -0.34027025 0.10889101 -0.2575486
0.30596173 0.14661229 -0.25629994 0.114406265 -0.44414 -0.07603414 -0.058050826 -0.11606542
-0.25820643 -0.08627086 0.301513 0.3649159 -0.085517555 -0.12246413 0.3926421 0.1735899
0.029554544 -0.11343766 0.028258003 -0.25950068 -0.047639843 -0.33499 -0.06300011 -0.13152356
0.69056827 -0.60200703 -0.29043156 -0.17575403 -0.256952 0.1110646 0.25970426 -0.2395737
0.27348047 -0.36574084 -0.1353367 0.24337247 -0.40251398 0.008037234 -0.055282045 0.18689676
-0.07261567 -0.322693 -0.1615395 0.25327507 0.045888092 -0.095595516 0.7355686 -0.60067576
0.45267206 0.16572398 0.1666672 -0.31774366 0.34962702 -0.08908417 0.19936493 -0.11888334
0.01614425 -0.5167403 0.586012 -0.03612406 0.06734182 0.024366194 -0.49339488 -0.16123693
-0.13031448 0.22089621 -0.2509322 -0.070304476 0.09948735 -0.17557026 0.1397531 -0.30389267
0.041422393 -0.3915094 -0.047218323 -0.01712912 -0.048707724 -0.012751468 -0.14918233 -0.7713851
0.6167253 0.194289 -0.032244965 -0.06192329 0.44050962 0.15901442 -0.1911226 -0.061830193
-0.1363275 -0.40288994 -0.4672777 0.37644678 0.029321568 -0.22776422 -0.007597196 0.44813052
0.5896193 -0.1756401 0.15435064 0.122349605 0.103279784 0.45529714 -0.34922832 0.12027002
0.16058736 -0.130632 -0.109394275 0.18318255 -0.3232314 -0.16819167 -0.15016112 0.1671777
-0.46508607 0.50975394 0.09394921 -0.051018536 0.23976801 0.0377841 -0.29117173 -0.031937
-0.045102645 0.13853657 -0.018947981 0.45885062 -0.49711546 -0.007332367 -0.06306295 0.022692407

x_lin.0.bias f4 [32]
00000000: b5e2 abbe 7495 bebe 2ad7 01be de83 aa3d
00000010: 720c 36be 1789 3bbe f93f 223e 60d7 66bd
00000020: 3f60 b43e 9d73 5f3d a7c3 79be f877 083e
00000030: e976 d63e 674b 66be 3f75 72bd 6d0a 55bd
00000040: 414b bf3e ebe8 00be 6358 cb3e 8700 14be
00000050: 1718 48be 69c5 833e dd69 083d 27f9 b83c
00000060: 391c 26be 559d d83d e426 80be 3f57 543e
00000070: c9bb 8c3e ed8d afbd 3a3b 8b3d f184 d93e
-0.335714 -0.372234 -0.12679735 0.08325933 -0.17778185 -0.18314014 0.15844716 -0.05635774
0.3522968 0.054553617 -0.24391042 0.13327014 0.41887596 -0.22489701 -0.059193846 -0.052011896
0.37362102 -0.12588851 0.3971587 -0.14453326 -0.1954044 0.2573655 0.033304084 0.022579743
-0.16221704 0.10576884 -0.2502967 0.20736407 0.2748702 -0.08571992 0.06798406 0.4248424

x_lin.2.weight f4 [32, 32, 1, 1]
00000000: 61cf 233e fe15 ab3d bb65 243c ff71 923d
00000010: 0f1d 85bd 3f03 cabd 32cf 41bd c683 57be
00000020: 534a 75bd 98a2 063f 000c df3d d905 16be
00000030: 6355 74be 22c3 9b3e 6ec7 853c 569d 9b3e
00000040: 0070 ab3c a114 8ebd 3136 1ebe 1736 2ebe
00000050: cc99 363e da71 dd3c a890 a43d 6d4d d7be
00000060: 49da 423e 4c8d 143c 14ee a03d 18c0 ae3d
00000070: 4703 813e cc9a b93d a9a7 9ebe 04cc a6be
00000080: 7bf1 833e 46e6 1bbe 9f46 6c3e 3643 6b3d
00000090: f977 8d3c 2489 97be 2aa4 83be dd91 4d3d
000000a0: 8dac 1bbe 711f c2bd ef71 dcbc 7680 263e
000000b0: bb90 05be 93ca d83e bd59 193e bd88 2e3e
000000c0: 3223 09bf 957c bf3d bd58 ebbe 3800 4ebe
000000d0: 68bb bebe 86a7 743d 9acd ff3d fc07 10bd
000000e0: 95c8 14be 370d ba3d 7456 883e e725 cebc
000000f0: e97d b83e 4770 fd3d 593b 02be fa68 c23e
00000100: 4f7a 2e3e e9e5 43bd 2738 b63c 6bbc 0cbe
00000110: f982 0a3e f8fc 213e 4c96 8abc 33e2 3d3e
00000120: 2489 07be 95e7 953d 1aeb 82bd 4375 eb3d
00000130: 8bc4 88be 09df b7bd 3ba3 443e 5fca 6d3e
00000140: 3240 62be fe87 f63c b9de 893d e392 463d
00000150: 5d43 d03e 2aaf 3abd 04df 3f3e e707 3dbe
00000160: 45df 9bbd 0408 3fbe 060d 4d3e 03bf 8b3e
00000170: 827e debe 5315 9c3e b00c cbbd bdde 75be
00000180: c893 883d 137f 8d3d 4660 25bd d25d 9b3d
00000190: 413f 3bbe 22b9 3bbe b96e 64be 3135 ccbe
000001a0: a4a9 c63b c8c9 6dbe f651 87be 43bb bdbe
000001b0: 78c0 9fbd b10c e1bd d48a da3d ce88 2d3e
000001c0: c99f 4c3e 0bcc dbbe 740f a4be 8899 a33e
000001d0: a899 cc3e b8be 9e3d 8fd2 0a3e 900e abbd
000001e0: cacc a73e 67e9 97bc a10e 06bf 1341 4fbe
000001f0: 628a e93c 320c 4ebe 19dc a6be 9440 043d
00000200: 6787 86bd 6f2e b1bd 053e 1cbd 20e5 aa3d
00000210: 46b2 aa3a 42c2 8d3c 3d5e 703d 7d07 1bbe
00000220: ee8f d1bc cc3f d8bd b1cf 2c3e 3851 9abc
00000230: 949d 1dbe ea1b f3bc 62aa 34bc bc0b 873e
00000240: 1b4d 48be 0b8e bb3b 26c5 a8be 57fb 10bd
00000250: b4d0 74be 8f54 f7bd 52e3 853e 5f93 533e
00000260: 7237 2b3e cb03 f43d 0ca8 163e 9114 0e3e
00000270: 101a 06bf ee67 593e 689b 51be 7a49 4a3e
00000280: d3a1 c23d d708 86bd 1683 843e d485 223d
00000290: f354 10be 4560 00be b30f 0dbc 2309 243e
000002a0: 2b77 c73d b7b5 cf3c bc02 e7bd dee1 f33d
000002b0: 180e b63e 3cf9 45be 7d5f cb3d bd46 2cbd
000002c0: a5ba 3f3e 7cb5 863e 5ad5 173e 07bd 16be
000002d0: 2ed0 0bbf e1cd dabc 0891 98be 86e5 783e
000002e0: 915c d73d eee1 5abe b5ec 693e dfe9 093d
000002f0: 0141 a7be 6ad4 313d 70d0 4e3d 1deb 623e
00000300: b2cb 1a3e 9224 afbb 5403 3dbe b4fc 72be
00000310: 66ef 73bc 5529 243e 9df1 5abe a4d0 9c3d
00000320: 1753 cfbe bb5c 8dbe d0be 2b3e 418c c93c
00000330: 16ba 40be b669 ed3d e9cb b8be 78a3 4a3e
00000340: afa8 27be 1e67 9d3e 3da6 ddbd aa3d b1be
00000350: 1cbb e6bc 6999 66bd cf38 443e 00cc e5bd
00000360: e006 07bd 2825 7fbd f562 8a3e d083 38bd
00000370: 9279 7b3e e345 243e 1143 2ebe ce83 8c3e
00000380: 9b2f c9be 39f4 b2be d216 49be 4c80 9ebe
00000390: 2e04 0ebd e2e3 263d c348 62be dcd4 2dbe
000003a0: e7c6 cc3d 9ff2 093e 566d b43c 0965 953d
000003b0: e5d6 503c e9b5 2fbe ca94 28be 86fd a43d
000003c0: 6817 bf3e b2eb 2fbe 84ea 77be fde0 83be
000003d0: 8204 a6bc 1c3c f7bc 5e4e 093e e067 f5bc
000003e0: a7ed 943d 9215 24be 55e3 2dbe 29e9 b1be
000003f0: 8639 423d 7256 023e be9a c5be 9a9f 56be
0.15997078 0.08353804 0.01003402 0.07150649 -0.06499683 -0.098639004 -0.047316737 -0.21046361
-0.059885334 0.5259185 0.10890961 -0.14650668 -0.23860697 0.30422312 0.016330447 0.30393475
0.02092743 -0.069375284 -0.1545036 -0.17012821 0.17832106 0.027031828 0.080354035 -0.4205126
0.19028582 0.009066891 0.0785791 0.08532733 0.25197813 0.09062728 -0.3098729 -0.32577527
0.25770172 -0.15224561 0.23073815 0.057437144 0.017269121 -0.29596817 -0.25711185 0.050187934
-0.15202542 -0.09478653 -0.026909797 0.16259941 -0.13043492 0.42342052 0.14975639 0.17044349
-0.5356933 0.09349934 -0.4596614 -0.20117271 -0.37252355 0.059730075 0.12490387 -0.035163864
-0.14529641 0.09084552 0.26628458 -0.025164558 0.36033562 0.12374931 -0.12717952 0.37970716
0.17038845 -0.04782668 0.022243572 -0.13743751 0.13526525 0.15819156 -0.01691737 0.1854332
-0.13235909 0.073195614 -0.06392498 0.11496975 -0.2671245 -0.089780875 0.19202892 0.2322173
-0.22094801 0.030094143 0.06731934 0.048479926 0.40676394 -0.045577206 0.18737417 -0.18460046
-0.07610945 -0.18655401 0.200245 0.27294168 -0.43455893 0.3048502 -0.09914529 -0.24010749
0.06668812 0.06909003 -0.040375017 0.07586254 -0.18285848 -0.18332341 -0.22307862 -0.39884332
0.006062703 -0.23221505 -0.2642972 -0.37056932 -0.078003824 -0.10988749 0.106710106 0.16946718
0.19982828 -0.4292911 -0.3204304 0.31953073 0.3996098 0.077512205 0.13556884 -0.08352387
0.3277343 -0.018543912 -0.5236607 -0.20239668 0.028508369 -0.2012184 -0.32589796 0.03228815
-0.06568795 -0.08651435 -0.038145084 0.083444834 0.00130231 0.017304543 0.058683623 -0.15139575
-0.025581326 -0.10559043 0.16876103 -0.018837556 -0.15392143 -0.029676396 -0.011026951 0.2637614
-0.19560663 0.00572372 -0.32962912 -0.035395946 -0.23907739 -0.12076675 0.26149994 0.20661686
0.1672037 0.11914786 0.14712542 0.13875033 -0.5238352 0.21231052 -0.20469439 0.19754592
0.09503522 -0.06544655 0.2588126 0.03967841 -0.14094906 -0.12536724 -0.0086097 0.1601911
0.09739526 0.025355203 -0.112798184 0.11908315 0.35557628 -0.19333357 0.09930322 -0.04205965
0.18723543 0.26310337 0.14827481 -0.14720546 -0.5461453 -0.026709499 -0.2979815 0.24306306
0.105157025 -0.21375248 0.22844203 0.033670302 -0.32666782 0.043415464 0.05049175 0.22160001
0.15116766 -0.0053449357 -0.18458301 -0.23729211 -0.01488862 0.16031392 -0.2138123 0.076569825
-0.4049308 -0.2760981 0.16772008 0.024603011 -0.18820986 0.115924284 -0.3609307 0.19788921
-0.16372941 0.30742735 -0.10822723 -0.34617358 -0.028165393 -0.056298647 0.19162296 -0.112205505
-0.03296554 -0.062291294 0.27028623 -0.04504758 0.24558094 0.16042285 -0.17017771 0.2744431
-0.39294133 -0.34951952 -0.19637612 -0.30957258 -0.034671955 0.04074467 -0.22098069 -0.1697573
0.09998875 0.13471459 0.022024792 0.072946616 0.012746547 -0.17159237 -0.16463009 0.08056168
0.37322545 -0.17179754 -0.24210554 -0.2575759 -0.020265821 -0.03018003 0.13408801 -0.029956758
0.07271891 -0.16023853 -0.16981252 -0.347482 0.04741814 0.12728289 -0.3859462 -0.2095932

x_lin.2.bias f4 [32]
00000000: 58f6 6fbe 80e6 28be 865c 32be 44a0 73be
00000010: 01bd 39be a32f f63d c60a 7ebd 79a0 fa3d
00000020: a268 22be fd46 c03d ec39 0b3e cab6 2c3d
00000030: 0a88 ab3d 4e11 e7bc d8e3 1bbd b9c2 063e
00000040: 721a 09be 2fbe 073c cf25 c83d ed38 33be
00000050: 8bb7 a5bd aaa0 243e 15df 40be 4177 8b3c
00000060: 569b cb3d 3e2b 383d 3c26 c53c 60e2 a8bd
00000070: e820 0c3e 3a54 2e3e 88e0 93bd b975 cdbd
-0.23433816 -0.16494179 -0.17418107 -0.23791605 -0.18138506 0.12020805 -0.062021993 0.12237639
-0.15860227 0.0938854 0.13596314 0.04216651 0.08375557 -0.028206494 -0.038059086 0.13160218
-0.13388994 0.008285089 0.097728364 -0.17502184 -0.08091649 0.16076913 -0.18835099 0.017024638
0.09941737 0.044963114 0.024066083 -0.082463026 0.13684428 0.17024317 -0.0722056 -0.100322194

edge_lin.0.weight f4 [32, 1, 64, 1]
00000000: d212 30bf 58fb 72be 287f 7b39 bd94 92be
00000010: 34d3 4fbe 75a5 b0be 7980 19be 1f44 ad3c
00000020: 0a69 42be e430 093e 0409 01bf 2840 a43d
00000030: 592d dcbd 8ea9 5bbe 4d50 33bd 522e 82be
00000040: 7c0a 3dbe 8c6b dbbe 27ad 4c3d 8d49 8dbe
00000050: 1d9f 2dbe 42bb eebe ac50 f5bd 2d46 083d
00000060: 504e a4bd 7f2e db3d 5ef2 913d ed81 5bbe
00000070: a457 723e 60b4 f0bb bbf5 023e 63ae 8f3d
00000080: 67d9 58bd 775e 263e b531 773d 54df 18be
00000090: 6cc9 683c 4c05 dabe 3b6f a23d 529d 2d3d
000000a0: df59 8a3d d6d8 1dbe 7322 f4be b08e 94bd
000000b0: 40aa 9cbe 32d6 843d 9c32 f5bd 94a2 cdbd
000000c0: ac8b a0bd 4023 f8be 21c6 18bd 7b31 51be
000000d0: d7ec 4abe 6d5f c4be bea0 a23d 92c9 e63c
000000e0: ec33 483d ded4 b23d c7ec e63c 22d1 aabe
000000f0: 9b38 a93d 059f 6cbe 59f7 fd3d cf72 f53c
00000100: 98e3 69be ae07 633d c6bb 32bd a91c acbe
00000110: 5e49 1d3e f79f 16be 5d20 d0bc 619f 97be
00000120: 7d11 6f3e 8917 463e 75f3 63be 7d97 073d
00000130: 084f a83b 7daa 9cbd 2ea4 263e 2d78 0f3e
00000140: 7eda 5fbd 58d5 d2be ea67 073e 714e 0f3f
00000150: 9229 59bd 4c73 9ebd e718 debd dbd2 2fbd
00000160: 8ea7 85be 45e8 353e 4c9e f53c da45 333e
00000170: 12de 45bd b649 33bd 3505 2e3e 4322 f03d
00000180: a7bb ce3c 7c20 e13c 3f3d bb3c 4238 5ebe
00000190: eaed 133c e917 93be b8c6 5fbc 3b26 c6bd
000001a0: d7e0 9e3e 5995 523d d65b 46be a842 2b3e
000001b0: 9450 603d 7409 3bbe acc6 213e 1c5c 963d
000001c0: e32e 1cbe ce05 d3be 2df4 5dbd 55cc 163f
000001d0: 0728 bdbd 40a9 3abe bda5 3cbe 216f f0bd
000001e0: 6f21 5fbe e0e9 69bc 3eaa b63d 1231 a73d
000001f0: 8eb1 53be bbfa 1cbd d3e2 d73d d722 0b3e
00000200: 5264 cebd 1b19 b8bd 8e83 98be c673 34be
00000210: f0fb bebd 4f95 a9be 14cd ccbd 801d ad3e
00000220: 50f5 45be 6290 09be 263e bebc 894b c2bc
00000230: fec1 09be f5d1 633c e8c5 053e fdb9 493d
00000240: 5d15 a6bd 2b82 a6be 5146 1abd 4ccd 7e3d
00000250: c8b3 4fbe a0b2 c5bd 3350 4a3e 331f 7ebe
00000260: a9c9 20be 0595 aebe b8f8 6838 e2d4 cc3d
00000270: fcbe 153d f29f 8f3d 5057 31be fc9e 07bd
00000280: 9ba9 78bd 69a5 c23d 8a95 c0be 25f4 fbbd
00000290: b15b 95bd 5f4d aabe 95d5 0dbd 7024 ea3e
000002a0: 5062 f9bd dd3c 58be 94db a93d 4e06 00be
000002b0: d083 4abe c461 03be 350b 703d 4d75 32bd
000002c0: e3d1 d6bd de1a 7abe b438 01be f81c 073e
000002d0: c868 e8bd b421 60be df5b 833d 1467 16be
000002e0: b829 86bc 7468 88be 8ab3 82bb 85f4 383d
000002f0: c5b6 4cbd 9ac5 d53d e017 d5bd 4ef0 b23d
00000300: 2569 0b3e 8669 ad3e eed0 12bf da97 05bf
00000310: 5561 c6bc c2ce 03be 2345 51be 1a41 12be
00000320: 0d92 c7bd e73f c23d 2447 ea3d 1669 1e3e
00000330: 62e2 18be a01e 073e 211c 633e fe04 ab3b
00000340: d70d 95bd 6cbe 1cbd c0c2 18be 65bc 26bd
00000350: df01 d63d 2ae2 063e 8619 3abd a5fe c1be
00000360: 52be 103e 82a8 73be 20e7 29be 3897 a73c
00000370: fc2c 28bd ca52 8d3d d65a 1f3e e30e 023e
00000380: 78d2 5d3c c6bf c53d e8bc cfbe 0cb1 d9be
00000390: d916 1fbe 1479 23be a250 6cbe 3443 4cbe
000003a0: 6fbc 883d 148b 023e cc53 f53c 88c3 32bd
000003b0: 040c 48bd e0cd 403e 431e 273e 6d85 3d3e
000003c0: 075e 5cbd 1352 3bbe f083 80be 5698 013d
000003d0: 2e33 b83d 78fa 233d 4b18 e73d 7a3e 06be
000003e0: e9d3 c33d 6466 87bc ac74 49be 98e5 3fbc
000003f0: 701f cb3c 3ab2 a5bc ac18 a53d 3c7a 2e3e
-0.6877872 -0.23728693 0.00023984595 -0.28629103 -0.20295411 -0.34501234 -0.14990415 0.021150647
-0.18985382 0.13397557 -0.5040438 0.08020049 -0.10750837 -0.21451399 -0.043777753 -0.25425965
-0.1846103 -0.4285549 0.04996982 -0.27595177 -0.16955228 -0.4662724 -0.119782776 0.03327005
-0.080227494 0.10702228 0.07126306 -0.21436282 0.23666245 -0.007345721 0.12789051 0.070156835
-0.052941706 0.16246973 0.06035014 -0.14928943 0.014208179 -0.42582166 0.07931372 0.04238636
0.06755423 -0.15414748 -0.47682533 -0.07253778 -0.3059864 0.06486167 -0.119725436 -0.10040775
-0.0783914 -0.48464394 -0.037298325 -0.20429032 -0.1981691 -0.38354054 0.079408154 0.028172288
0.04887764 0.087320074 0.028189076 -0.3336268 0.0826275 -0.23107536 0.124006934 0.029961972
-0.22840726 0.055427246 -0.043636106 -0.33615616 0.15360019 -0.14709459 -0.025406057 -0.29613784
0.23346515 0.19344915 -0.2226084 0.033103455 0.0051363744 -0.076497056 0.16273567 0.14010687
-0.05465173 -0.41178393 0.13223234 0.5597907 -0.05301816 -0.07736835 -0.108445935 -0.042925697
-0.26104397 0.17764385 0.029982708 0.17507115 -0.048307486 -0.043771468 0.16994174 0.11725285
0.025235964 0.02748131 0.022856353 -0.21701148 0.009028891 -0.2872918 -0.013658218 -0.09675261
0.31030914 0.05141196 -0.1937097 0.16724646 0.054764345 -0.18265325 0.15798444 0.07341787
-0.15252261 -0.41215366 -0.054187942 0.58905536 -0.0923615 -0.18228626 -0.18422599 -0.11739946
-0.21790098 -0.014276952 0.0891919 0.08163656 -0.206732 -0.038325053 0.1054131 0.13587509
-0.10077728 -0.089891635 -0.29787868 -0.17622289 -0.09325397 -0.33121726 -0.10000053 0.3381157
-0.1933186 -0.13433984 -0.023222994 -0.023717659 -0.13452908 0.013905038 0.13063776 0.049249638
-0.081095435 -0.32521185 -0.037664715 0.062207505 -0.20283425 -0.09653211 0.19757156 -0.24816589
-0.15701927 -0.34098068 5.5544748e-05 0.10001542 0.03655909 0.07012929 -0.17318463 -0.033110604
-0.060708623 0.09504206 -0.3761409 -0.12302426 -0.072928794 -0.33262154 -0.034627516 0.45730925
-0.12176955 -0.21116967 0.08293834 -0.12502405 -0.19776845 -0.12830263 0.058604438 -0.043568898
-0.104892515 -0.24424312 -0.12619287 0.13194644 -0.113481104 -0.21887857 0.064140074 -0.14687759
-0.016377315 -0.2664219 -0.003988688 0.045155067 -0.04997899 0.1043808 -0.104049444 0.08737241
0.13614328 0.3386957 -0.5735005 -0.5218483 -0.024216333 -0.1287184 -0.2043653 -0.14282647
-0.09744654 0.09484845 0.1143935 0.15469775 -0.14930108 0.13195276 0.22178699 0.005219101
-0.0727803 -0.038267538 -0.14918041 -0.04070701 0.10449576 0.13172212 -0.045434497 -0.3788959
0.14135101 -0.2379475 -0.16592073 0.020457849 -0.041058525 0.069005564 0.15561995 0.12700991
0.013538949 0.096557185 -0.40573812 -0.4251789 -0.1553606 -0.15964156 -0.23077634 -0.19947511
0.06676566 0.12748367 0.029947184 -0.043643504 -0.048839584 0.18828535 0.16320138 0.18507929
-0.05380061 -0.18293028 -0.2510066 0.03163942 0.08994137 0.040033787 0.112839304 -0.1310977
0.09561903 -0.016528316 -0.19673413 -0.011712454 0.024795264 -0.020226587 0.080613464 0.17038816

edge_lin.0.bias f4 [32]
00000000: b128 1f3b e0b2 50bd 367e 583d 3502 2f3d
00000010: 16a2 e2bd 8ed1 0ebd e2f5 033e b148 7dbd
00000020: 032a cf3d e00c f9bc 30d4 bdbd a146 e83c
00000030: 6e3e 9f3d d40e cfbd 80e4 c9bd 0e2f b53d
00000040: 3046 d9bc 109e 02bd 7f88 04be 7510 a1bd
00000050: ba70 98bd 89e0 9d3b a7ee ee3c e457 8abd
00000060: af83 c43b bc1f 9e3d e07b 4dbd 76ad c3bc
00000070: 39cc 573d 9d5a 03be 6de5 573d 9f0c 02bc
0.0024285729 -0.05095184 0.05285474 0.042726714 -0.11066072 -0.034867816 0.12886766 -0.061836902
0.10115435 -0.030401647 -0.09268987 0.028353991 0.077755794 -0.1011025 -0.09858036 0.088468656
-0.026522726 -0.03188902 -0.12942694 -0.07864467 -0.07443376 0.0048180264 0.029166533 -0.06755045
0.005997143 0.077208966 -0.050166965 -0.023886424 0.052684996 -0.12827535 0.05270903 -0.007937579

edge_lin.2.weight f4 [32, 32, 1, 1]
00000000: 69a1 823e 59d7 f43d 07c7 d93d 0f58 c63d
00000010: 5723 903e 46b6 6c3d 10ec 23be aa8e 23be
00000020: 92e4 683d e085 e03d 21e4 e13d fefc 0b3e
00000030: b077 613d b171 24be 7ade 8ebd b383 15bd
00000040: 4dbe a63e 0358 e73c bea4 4f3e 08cd 82be
00000050: ea22 a83e fc70 8bbe dbf4 003e e4ed 563e
00000060: 504e a5bd 69a6 9bbe 4073 b23e 568e 283d
00000070: a352 18bf ccee 353e fa2c af3d 866a ddbb
00000080: 2236 26be b060 60be 01b6 563d 41de 44be
00000090: bc71 423e b652 843d 1e52 833d 4e66 0c3e
000000a0: 5100 213e 314f de3d e99d f9bd 890a a03e
000000b0: 39cb 093e ba8b 8e3d fa10 8ebd 6ccb b33c
000000c0: 09f4 463d dfc5 a93c cffe 343e 05be dfbd
000000d0: 8bf1 c9be 922b ba3e 6523 30be 2d0a 2d3d
000000e0: 3ac2 143e 075c a4be a576 443d 3d79 0f3e
000000f0: 9191 823e 195c a2be adc0 b13d 6deb aebd
00000100: ea20 c1bd df6d b73d 7999 b73d e1d9 bd3d
00000110: c2ce 17bd 6194 b2be 6c0c c13d 4bfd e13d
00000120: 4db3 a9be 546c 2ebe 8ebb b83d 7ce8 613d
00000130: 3484 313d 935e 02bd ce15 bfbc 55cc 953e
00000140: 73db c73d 67d8 de3d fd87 d9bd 3748 06be
00000150: e056 663d 121b d43d 71dc 4fbb ce9c b83d
00000160: 9a5d 27bd d20d 4bbe 08b6 92bd e832 05bc
00000170: 4435 5dbe 8f47 3b3e 4d4e c83d c557 a33d
00000180: 3c7a 77be d9b9 82be 3bb2 5cbe 4963 aa3e
00000190: abeb d5bd c3ef b23e ef90 6ebe 2012 103d
000001a0: 53ee 68be 0a8b 943d 3275 b3be 6b3b 413b
000001b0: e838 3b3d c5d7 b63e 4cd9 b93d 62b5 44bb
000001c0: 2d33 6cbe 6b20 763d 31e7 8a3d 262d 70be
000001d0: 9aca a83c 8ee3 f33c ea70 0bbe b525 55be
000001e0: 96e2 123d a0f5 8ebe 41d1 febc 0ad3 84bc
000001f0: 490c 8bbe a0ee 6e3e 68f6 c0bd 4841 6dbe
00000200: b901 a83e 7930 f23d e225 23be 435a 8d3e
00000210: d661 563e 3821 4b3d ce01 38be 55ec e0be
00000220: 8dc1 90be 97d0 10be 431d 2c3c 0827 853b
00000230: 1e90 a93d 099d 63be 6ebf e23d da40 9b3d
00000240: 328e 10bc d821 853e b5fd c73d 37fe c2bd
00000250: c003 083e f3a9 fb3c 4b15 e83d 26b8 923e
00000260: 1882 c03d debe 6bbe 954e b13e 54d0 44be
00000270: 3506 fdbe e307 babd c526 0a3e a344 a2bd
00000280: ce16 273e d2d3 aa3e fa8a 0cbe 5907 2e3e
00000290: b050 a83e 4bd2 6dbd 66aa 51be fce6 37be
000002a0: 1bb0 cd3d 7c2c d83c a4ec c1bd 0d39 763e
000002b0: 6fb5 9c3d 364c 46be 0d7f 133d 4d3a 7e3e
000002c0: 4ba5 d53c c935 30bd 900b af3d 92ed dbbd
000002d0: d656 503e 3c7e 62be 6757 2b3e 3d45 683e
000002e0: 962b 1fbc 021d 1ebe ea9b 6a3e 0b86 433d
000002f0: d54b 1bbe 3af7 943e c944 f73a ff52 cb3d
00000300: a236 c2bd 7e73 15bd d002 0f3e 5af5 9fbc
00000310: 11f1 9a3c ccc4 36bd 85b6 a0bc 23eb 1abe
00000320: bf19 7fbd 3e7a 0cbd b321 0fbd 339c bc3d
00000330: ca80 69be c345 72be 0540 163d 2d1a 92be
00000340: 8e3c 1cbe 3585 34bb 2d1d 8e3e a23d 89bc
00000350: e7c6 85be abe0 893e 09f6 d3be 21ae 3d3d
00000360: 7785 a6bd 4af9 ffbc 95dc ec3d c876 043e
00000370: da3b 83bb 81e3 dcbd 11a7 06be 4970 2dbd
00000380: fa64 c33c 7b7b 193e c87f c63d a919 99bd
00000390: c07a 02be f534 dcbe 67a6 01be 6f2c b63d
000003a0: c0b4 e2bd a92f b2be 3ec4 f33d 827e a6bd
000003b0: 52df 29bd ca29 16be b80d a6bd 11af 023e
000003c0: 0458 4b3e 9d2c 823e 566c 933e 7e0a e8bd
000003d0: bfc8 2f3d 8d58 e2bd 41f0 7bb9 2c72 bf3e
000003e0: 1577 7abe 7ef7 25be 0994 a63e 72bc 5b3c
000003f0: f3e3 3abe 32c0 493e 45b7 e23d 3f0a c03d
0.2551377 0.11955137 0.106336646 0.096847646 0.28151962 0.057791017 -0.1600802 -0.15972391
0.056858607 0.10963035 0.1102984 0.13670728 0.055045784 -0.16058995 -0.06976028 -0.03650255
0.32567063 0.02824021 0.20277688 -0.2554705 0.32839137 -0.27234638 0.12593405 0.20989186
-0.080715775 -0.30400398 0.34853554 0.041151367 -0.59501094 0.17766875 0.085535005 -0.0067570833
-0.16231588 -0.21911883 0.052419666 -0.19225408 0.18988699 0.06461088 0.06412147 0.13710901
0.15722777 0.10854948 -0.12188322 0.31258038 0.1345643 0.069602445 -0.06936832 0.021947585
0.048572574 0.020724235 0.17675327 -0.10924915 -0.39442095 0.36361367 -0.17201002 0.042246033
0.14527217 -0.3210146 0.04796471 0.14011092 0.25501683 -0.3171089 0.08679328 -0.08540998
-0.09430106 0.08956503 0.089648195 0.09270073 -0.037062414 -0.3487883 0.094261974 0.1103464
-0.33144608 -0.17033511 0.09020148 0.055153355 0.04333897 -0.031828474 -0.023325827 0.29257455
0.097586535 0.10881119 -0.10621641 -0.13113485 0.056235194 0.10356726 -0.0031717087 0.09014283
-0.04086075 -0.19829491 -0.07163626 -0.008129813 -0.2160235 0.18289016 0.0978056 0.07975725
-0.24167722 -0.25532416 -0.21552365 0.33278874 -0.10445341 0.3494855 -0.23297475 0.035173535
-0.22747163 0.07253082 -0.3505035 0.0029484879 0.045708567 0.35711494 0.09074649 -0.003001534
-0.23066397 0.06008951 0.067823775 -0.23454723 0.02060442 0.029771592 -0.13617292 -0.20815165
0.03586062 -0.27921772 -0.03110564 -0.016213913 -0.2715781 0.23333216 -0.09421998 -0.23169434
0.32813814 0.11825652 -0.1593242 0.27607927 0.20935759 0.049592227 -0.17969438 -0.43930307
-0.28272668 -0.1414207 0.010505023 0.004063491 0.08279441 -0.22227873 0.110716686 0.07580729
-0.0088229645 0.26002383 0.09765188 -0.09521144 0.1328268 0.030720687 0.11332186 0.2865612
0.093998134 -0.23022029 0.34630266 -0.19220096 -0.49418798 -0.090835355 0.13491352 -0.07923248
0.16317293 0.3336473 -0.1372489 0.1699499 0.3287406 -0.05806188 -0.20475158 -0.17959207
0.10043355 0.0263884 -0.09468964 0.240452 0.07651793 -0.1936501 0.036009837 0.24826927
0.026079794 -0.043020044 0.08547127 -0.10738672 0.20345625 -0.22118467 0.1673256 0.22682662
-0.009714982 -0.15440753 0.22911039 0.047735255 -0.15165646 0.2909487 0.0018865104 0.099279396
-0.09483077 -0.036487095 0.13965917 -0.019526172 0.018913778 -0.044621274 -0.019618282 -0.1512876
-0.062280413 -0.034296267 -0.034944247 0.0920948 -0.22803035 -0.23659424 0.036682148 -0.28535596
-0.15257475 -0.0027545218 0.27756634 -0.016753022 -0.26128313 0.2692922 -0.41398647 0.04630864
-0.08130925 -0.0312468 0.1156551 0.12935936 -0.0040049376 -0.107855804 -0.13149668 -0.04234341
0.02385186 0.1498851 0.09692341 -0.074755974 -0.12742138 -0.43009153 -0.12661134 0.08895194
-0.110696316 -0.34801987 0.119026646 -0.08129598 -0.04147274 -0.14664379 -0.081080854 0.12762095
0.19857794 0.25424662 0.2879359 -0.11330126 0.042916056 -0.11052046 -0.00024026727 0.37391794
-0.24459489 -0.16207692 0.32534817 0.013411628 -0.18251018 0.19702223 0.11070112 0.09376954

edge_lin.2.bias f4 [32]
00000000: 304f dfbd 2aa7 2dbe 7d0b bd3d b52e 97bd
00000010: bbd6 293d b223 17be b98f 96be 8583 1b3e
00000020: 958f 1cbc dd79 293e 63d0 9f3d 6f18 22be
00000030: 1062 bbbe 8910 793d 5321 cfb9 2d67 33bd
00000040: 3332 8b3d aee8 06bd 9dc9 abbb 7338 0f3e
00000050: f54d 15be 6315 a4bd 5e64 753d 3b39 e33d
00000060: e1aa b6bd 7878 4fbe 7c4c e73d e657 683d
00000070: 1ea0 0c3e 295b c3bb b267 2bbc 4012 edbc
-0.10903776 -0.169583 0.09230707 -0.073819555 0.04146455 -0.1475971 -0.29406527 0.1518689
-0.009555717 0.16550393 0.078034185 -0.15829633 -0.36598253 0.060806785 -0.00039506945 -0.043799568
0.06796684 -0.032936744 -0.00524254 0.13986377 -0.1458052 -0.08011892 0.05991017 0.110949
-0.08919311 -0.20260799 0.11293885 0.05672445 0.13732955 -0.005961795 -0.010461735 -0.028939366

vertex_output_lin.0.weight f4 [32, 1, 32, 1]
00000000: 2a1a 3b3e e18d 86be 4e7e 083d e7a0 fc3c
00000010: 71c8 0b3e 85c1 48bd 2fda 9bbe 0a91 74bd
00000020: fb85 1dbe afed 89bd 5422 1abe 35fe 0c3d
00000030: 92b2 49be 29b5 aabd 73f8 d8bd f1b4 163e
00000040: 59c0 55bd 4e9a 58be de9a 153e 8541 2c3d
00000050: fd30 35be 933b 43bd e5c4 30be c772 3bbe
00000060: 29db c73d 8fb0 d9bd e8bd e63d eb23 cabd
00000070: a400 0d3e 0911 1e3d 6d4a d1bb 1d13 24be
00000080: 15b3 6c3e f943 e2bd 5ee9 d4bd afe8 30be
00000090: d4f3 093e 6d8e 963e 8008 293e b5eb 4b3d
000000a0: dfc9 c93d c653 d3bc b374 92bd 6212 a03b
000000b0: b99f 213e e9c5 1e3d 4554 ccbd 56d3 763d
000000c0: 7930 3f3e 0e1c 86bb 8443 a3be 2677 e23d
000000d0: a1e3 cabd 46db 63bd 7b1b 77bd 20ad 92be
000000e0: 2934 353e ca2e b9bd 6634 1bbe 8b1f 69bd
000000f0: b5de 38be cd84 d3be 9318 5cbe ec99 eebd
00000100: 6a2f 3cbd ec71 c63d 7170 aabd f7fd abbc
00000110: 928d 033c f587 533d c157 1cbe 713e f2bd
00000120: 772a 67bd 93ed 6dbd 7708 61be 50d5 473d
00000130: 4c96 47be c222 18be 9090 5f3d cc1c 7abd
00000140: 0fc8 023d cee8 89bd 2930 8bbd 06c7 353d
00000150: 7af5 64bd 77e7 42bd 9a23 84bd 5817 98bc
00000160: 3f16 6fbc 3969 f83d c512 aa3d 8a17 a23d
00000170: 0aef 993d da89 e2bc 1a8a 85bc e49c 613d
00000180: 12af aebd 4d84 a23d e650 8d3c c8b0 f33d
00000190: 8a9f 02be 8fb0 f7bb 4665 4dbc 7d82 f03b
000001a0: 0260 70bd dd70 093d 66ec f33d 8bdf b3bd
000001b0: 0353 973d c060 493d 6def 683d 9242 6ebe
000001c0: 5fa6 803e 03a5 933e 079b dabe 361d 9a3e
000001d0: 5c5e 08bd 4c29 043e ed34 c83d 1ae3 893d
000001e0: 82b1 853e 2351 8c3d 3186 ff3d 15dc 7bbd
000001f0: 56e9 ad3b f28d 05bf 074b 8abe cf5a f6be
00000200: 3b43 02be 37b9 5e3e f70f d4bd 9255 b73d
00000210: 2659 b8bd b6bd 91bd f1f8 d93e 3911 b9bc
00000220: b01a bdbd 2ed3 19be 8011 9a3c 100b cc3a
00000230: b100 a33e 1ae7 56be ca4f b7bd 0e25 9bbd
00000240: 42ac 82bd 1b4c 093e 0caa 9bbd 0132 09be
00000250: 636e 523e 091d d3bc fad7 d0bc ea7a bcbd
00000260: 4d0c 9f3d 5e11 773e dce5 27bc 763a 3fbe
00000270: 56d0 d23d b4ad 51bc 437c 01bd b11f 0cbe
00000280: d2dd 23bd c460 473e 47e3 55be 9df8 203d
00000290: 586c a7bc 99c9 75bd fba0 54bd 1a3e 13be
000002a0: 7544 50be 7ef9 21bc 70c5 56bc 163b 793d
000002b0: d890 e83e 8c10 a83d ad32 c0bd dd85 3dbe
000002c0: 1530 c83c 6bd6 3d3e 0fcf 7fbe f2b5 493e
000002d0: f822 623e 31e0 233c ff24 8ebe 56f2 08be
000002e0: 6a8d 553d 3315 a1bb d87a 7cbd 8e49 a7be
000002f0: eb9f 88be d577 01be 9dcd 92ba 0ae6 e5bd
00000300: 0175 5e3e bc0f 32be f0e8 83bc 9900 cbbd
00000310: 6891 d7bd 0dd4 0dbe b0c3 babe 0462 dbbd
00000320: 6f6f 223d da67 11be f42d b6bc 0b7d 9bbc
00000330: d5ec e2be ade0 073e 6e56 193e 52f6 53be
00000340: 2ee7 ce3d 96b0 d1be dd06 7b3e 85e0 f9bd
00000350: 3bac 92bd 99c3 a8be 916e 3bbd c6e4 333e
00000360: 1320 f8bc 1436 57be 5bfd 95bd 04c6 333e
00000370: 97bb b0bd 8cea 933d 8ea1 ec3c c9c5 bcbd
00000380: 7022 a1bd 6c4f 6cbe 3c97 8f3c efbd 753d
00000390: c75b 4c3e a1e5 47be 3698 09be 8242 b1bd
000003a0: fc77 d8be 8675 c43d 4cc2 143e ca1f b63d
000003b0: c208 ac3d 8e23 da3d 8d31 49be b8ee 80be
000003c0: 11e5 943e ab01 7d3d fb02 a8be c974 3e3e
000003d0: a261 22be 6d6e 4a3e d2f6 29be b676 d9bd
000003e0: 2e8a a63d ba5d e2bd 9f40 6c3e bb17 9b3d
000003f0: eab2 273e 2a3f 81be 982a a8be 8f0b 51be
0.182717 -0.2628012 0.03332358 0.030838443 0.13650681 -0.04901268 -0.30439898 -0.059708633
-0.1538314 -0.06734788 -0.15052158 0.03442212 -0.19697025 -0.08335335 -0.10594263 0.14717461
-0.05218539 -0.21152613 0.14609858 0.04205467 -0.17694469 -0.047664236 -0.1726261 -0.18305503
0.09758598 -0.10629379 0.112666905 -0.09870132 0.13769776 0.038590465 -0.006387046 -0.16022916
0.2311519 -0.11048121 -0.10396074 -0.17276262 0.1347192 0.29405537 0.16507149 0.049785335
0.09852957 -0.025796782 -0.07151165 0.004885004 0.15783586 0.03876296 -0.09977011 0.06026014
0.18670835 -0.0040927 -0.31887448 0.11057882 -0.09906698 -0.055629037 -0.06032894 -0.2864771
0.17695679 -0.090421274 -0.15156707 -0.056914847 -0.18053706 -0.41312256 -0.2149375 -0.11650452
-0.045943655 0.096896976 -0.08322228 -0.020995123 0.008029358 0.05164333 -0.1526785 -0.11828316
-0.056436982 -0.058087897 -0.21975885 0.048787415 -0.19490927 -0.14857009 0.054581225 -0.06106262
0.031929072 -0.06733857 -0.06796295 0.044379257 -0.055898167 -0.047584023 -0.06452103 -0.018565819
-0.014592706 0.12129445 0.08304361 0.07914646 0.07516296 -0.027653623 -0.016301204 0.055081263
-0.08529486 0.079353906 0.01725049 0.11898953 -0.12756172 -0.007558889 -0.0125363525 0.007339774
-0.05868531 0.0335549 0.11910324 -0.08782872 0.0738888 0.049164534 0.05686896 -0.23267582
0.2512693 0.2883683 -0.426964 0.3010041 -0.033293113 0.12906379 0.0977572 0.06732769
0.2611199 0.06851413 0.12476767 -0.061489183 0.005307357 -0.52169716 -0.27010366 -0.48116156
-0.12720959 0.21750341 -0.103546076 0.08951868 -0.09001379 -0.071162626 0.4257274 -0.02259122
-0.09233606 -0.15021965 0.018807173 0.0015567262 0.31836465 -0.20986596 -0.089507654 -0.07575427
-0.06380512 0.13407938 -0.07600793 -0.13397981 0.20549922 -0.025770681 -0.02549361 -0.092031315
0.07766018 0.24127719 -0.010247674 -0.18674645 0.10293643 -0.012797762 -0.031612646 -0.13683964
-0.040006466 0.19470507 -0.2088748 0.039299596 -0.020437405 -0.06000671 -0.051911335 -0.14379159
-0.20338614 -0.009886144 -0.013108596 0.060847364 0.45423007 0.08206281 -0.09384666 -0.18508096
0.02443699 0.18538825 -0.2498133 0.19698313 0.22083652 0.010002182 -0.277626 -0.13373694
0.052136816 -0.004915857 -0.06164059 -0.32673305 -0.26684508 -0.12643369 -0.0011200194 -0.11225517
0.21724321 -0.17388815 -0.016102284 -0.09912223 -0.10525781 -0.13850422 -0.36477423 -0.10712054
0.039657053 -0.14199772 -0.022238709 -0.018980524 -0.44321314 0.13269301 0.14974377 -0.20699432
0.10102688 -0.40955037 0.24514337 -0.12201027 -0.071617566 -0.3296173 -0.04575974 0.17567739
-0.030288732 -0.21016723 -0.07323714 0.17556006 -0.0862953 0.07222471 0.028885629 -0.09217412
-0.078678966 -0.23077172 0.017528169 0.059995588 0.19956885 -0.1952119 -0.1343697 -0.086552635
-0.4227904 0.09592728 0.14527243 0.08892782 0.08400108 0.10651313 -0.19647808 -0.25182128
0.29081014 0.06176917 -0.32814774 0.18599238 -0.15857556 0.19768687 -0.1659806 -0.106183454
0.081318244 -0.11053033 0.23071526 0.075728856 0.16376844 -0.25243503 -0.32844996 -0.20414566

vertex_output_lin.0.bias f4 [32]
00000000: 7782 17be 5ccb 48be 4429 273d f469 133d
00000010: d218 f9bb 8875 1a3e a80a f1bd 3c75 7a3d
00000020: 400b 97bd 8541 7bbd d6d0 00bd ef78 26be
00000030: 6132 973c 62c7 ca3c 8b71 0bbe 15f5 aa3c
00000040: e09c 9dbd d9b8 e2ba 8c81 243d 8e96 623c
00000050: ac29 fb3d 3ed9 33bd 6de3 0abe 750e 833e
00000060: 36e7 ecbc 3020 01be 936e 6cbc 0620 30be
00000070: f8bd ddbc 25ea 283c 89dd 4d3e 7b0a 18bd
-0.14795862 -0.19608825 0.04081084 0.035989717 -0.0076018358 0.15083897 -0.11769611 0.06114696
-0.07375193 -0.06134178 -0.03144916 -0.1625707 0.01845664 0.024753276 -0.13617532 0.020868817
-0.07695937 -0.001729752 0.040162608 0.01382984 0.12263808 -0.04390835 -0.13563319 0.25596967
-0.028918844 -0.12609935 -0.01443066 -0.17199716 -0.027068123 0.010309731 0.2010404 -0.03711937

vertex_output_lin.2.weight f4 [1, 32, 1, 1]
00000000: 1672 c23d d2fc c9be 6351 a53b 033d b4be
00000010: f562 abbd 933a 27be a293 ba3d d8f0 8ebe
00000020: ef41 693d 227d d7bd 1f39 9abe ad72 4dbd
00000030: 39f4 d0be 76ed 223c 4ddf 7fbe e6e6 5f3e
00000040: 4da0 7abe 8fb6 31bb f946 cd3d 4cc1 1ebd
00000050: db92 92be 279d 613e ba2b 04bf 207c 3e3e
00000060: d84f 733d a813 2ebd d28a 2dbe 088f e23a
00000070: 2726 8fbd e014 27be 026a d13d 9e9d 85be
0.094944164 -0.394507 0.0050451024 -0.35202798 -0.08368484 -0.16330938 0.0911019 -0.27918124
0.056947645 -0.10521914 -0.30121705 -0.05015819 -0.40811327 0.00994431 -0.24987526 0.21865425
-0.24475212 -0.002711687 0.100233026 -0.03875856 -0.28627667 0.22032605 -0.5162922 0.18602037
0.059402317 -0.042499214 -0.16947487 0.0017285058 -0.06989699 -0.16316557 0.102252975 -0.26096815

graph_output_lin.0.weight f4 [1, 618]
00000000: 0fb7 efbd 5488 36bd 48d9 25bd 17f0 3abe
00000010: a5d1 8fbd 5ca2 b9bd 7e31 423c c1f9 97bd
00000020: 2437 2bbe a6d4 39bd 7d37 6a3d 3554 1a3e
00000030: fc5b a4be 7137 3a3d 17ce 623d 1ba8 01be
00000040: 0289 b13d 33f2 093d 7c45 febd dbdc abbd
00000050: ccf8 10be 0f7c 9fbc ac90 79bd ba3a 22be
00000060: 16aa 0a3c b09c 9dbd 9bb3 4cbe 2428 e7bd
00000070: 42ff 82bb 8466 cabe c02c 9fbd fd57 1fbc
00000080: 4805 a0bd 541a 9cbe 4f79 693d 4145 35bd
00000090: 3cef fdbd 3f61 183d 7727 ae3e 78b9 afbb
000000a0: 82bd ba3b 97d8 62be 4ac8 bdbb 3676 083d
000000b0: ff26 d7bd ae5e 9bbe 5024 f73b 845b 16bd
000000c0: 2327 9fbe c209 5ebd 701f bdbb f6d2 b7bc
000000d0: 2190 943c cb3d 77bd d544 08be 7999 c1bd
000000e0: 7d65 0dbe 95b7 3c3c bf7e bf3d 77d9 c9be
000000f0: 7888 023b e68a ddbd 36e9 c3bd 7160 1dbd
00000100: ea06 09be c2bb 053e 90e8 e43c 1d8a 463d
00000110: 53e9 143e 56fb ca3b 017b 3cbe 0f1b 01bf
00000120: d3c0 02bd e732 e9bb c320 b0be d8a3 00be
00000130: 0456 31bd 782c 44bd b710 b1bc 888e 9f3e
00000140: 237f 60be ffbb db3c 1ad1 a1bb 388c df3d
00000150: cf89 49bd f0fa 3dbd 425d 8fbd a6c7 06be
00000160: 7edb b9bd 7722 cebd 5752 72bc edce 093e
00000170: 81f5 bf3d e1ee fb3b 2c09 d6bd b0dc 7dbe
00000180: eff7 6e3d cdda 0dbe 91ed e4be e669 0cbd
00000190: 3cb9 c2bd 3c5b 71bc e96b cfbd 5e54 9bbe
000001a0: 6e29 7abc 482b d33c af58 2abd 4f60 13be
000001b0: 273a 88be cdea de3d f1bd 243d 26cc f9bd
000001c0: 50ae 673d e688 113c 7333 353e 776d d33c
000001d0: 6a91 ebbd 7893 b13e a5b2 6cbd 7fa0 a93d
000001e0: 4915 1e3e b79d 7a3d aecd 18bd 6c3a b13d
000001f0: d2c7 30bd beda b1be 1d68 de3c 0418 3bbe
00000200: a88a babd 4946 6fbd d6da 143e 9e65 9ebd
00000210: 0b19 40be 4a23 9f3c f816 7bbe 282a 163d
00000220: 73a4 42be 23a3 84ba 7af6 9fbd 1cc8 21bd
00000230: 9342 62bc 4483 98bd be0d 24bd 88d7 663e
00000240: 5421 733e 555e b93d 9ccf 8d3d e283 8e3d
00000250: 3ceb 733d 56af 22be 85c4 05be 1cf7 fcbc
00000260: 7eda 723c 3f0b 91bd 839c 35bb df41 b2bd
00000270: 6f7a 6b3b 1aaf 00be a9c7 c4bc 6bb0 d53c
00000280: 9c42 d53d 89de e73c 054f e53d a7d0 39bd
00000290: 5268 f93d 63f1 253e d178 093e 7e4b 86bd
000002a0: 0a30 543d 29cd cbbc 2df1 8a3d 9e57 213e
000002b0: d0b0 ef3d 064b e33d b92a cc3d f432 b13d
000002c0: b64b dd3d 3c1c f1bc e480 6abe 6952 abbd
000002d0: 4985 d3bd ccc5 6fbd 07b3 b0bc 56ad af3c
000002e0: b9f0 b23d 61ee 0a3e e459 e9bd 96dc 8dbd
000002f0: dce9 9d3d ff3a b8be bd0c 92bd f3e1 9fbc
00000300: 66a4 283c 8ee3 b83d f1a5 cabd 3c60 a7be
00000310: bda9 86be 21dd 753e 09a8 48bc 6936 28bd
00000320: 5070 093d 131a 28be 32f8 4bbd 04e9 343d
00000330: 0426 c9bc a850 983d 6758 053d b8f3 23bd
00000340: 9986 32bd 05e3 2dbd 9610 e4bc a14a 873e
00000350: ca61 4f3d c768 22bd f9ff e33c f542 ac3c
00000360: fba8 26bd c5ff 52bd 7306 d43d e8a2 053e
00000370: 5a7b 773d 4db3 bf3d f05d d63c 291a 9b3d
00000380: 5a4a f53d cbe0 2b3e d6e8 083e b53a 153e
00000390: a6c8 8d3d 3856 063c d2d8 99bd 1986 ac3c
000003a0: a548 84bd 901d afbd dad2 a8bd 58ed e5bd
000003b0: 15d8 99bd 625b ffbd 86c7 063e c95a 2dbe
000003c0: 9559 a23c 3b80 4dbd 7b7d c73d a557 c9bd
000003d0: 3eea b63b 6b92 9dbd 2ba6 213c 748a 553e
000003e0: 25d8 4fbe 7027 98bd 9001 62bd a58b fcbc
000003f0: 4ff0 73bd 33ff b5bd 8f84 c63c 14fd 33bc
-0.117048375 -0.044563606 -0.04049042 -0.1825565 -0.070224084 -0.09064171 0.01185262 -0.07420684
-0.16720253 -0.045368813 0.057181824 0.15071185 -0.32101429 0.04546303 0.055372324 -0.12661783
0.0866871 0.033678245 -0.12415597 -0.08391734 -0.14157408 -0.019468335 -0.060928985 -0.15842715
0.008463403 -0.076959014 -0.19990389 -0.11286953 -0.0039977143 -0.39531338 -0.07772207 -0.009725568
-0.07813507 -0.30488837 0.057000455 -0.0442555 -0.12399146 0.037202116 0.34014484 -0.005362686
0.0056988606 -0.22152935 -0.0057916986 0.03331586 -0.10505485 -0.30345672 0.0075421706 -0.03670837
-0.31084546 -0.054208525 -0.00577157 -0.022439461 0.018135132 -0.060361665 -0.13307507 -0.09453101
-0.13808246 0.011518379 0.09350347 -0.39423725 0.0019917767 -0.108175084 -0.09565966 -0.03842205
-0.13381544 0.13059905 0.027942926 0.04847156 0.14542131 0.0061945124 -0.18406297 -0.50431913
-0.031922173 -0.0071166637 -0.34399995 -0.12562501 -0.04329492 -0.04789397 -0.021614416 0.3116343
-0.21923499 0.026823042 -0.004938257 0.109154165 -0.04920369 -0.04638189 -0.070002094 -0.13162097
-0.09075068 -0.100651674 -0.014790139 0.13457842 0.09372998 0.0076883887 -0.10450968 -0.24791217
0.058341917 -0.13852997 -0.447125 -0.03428068 -0.09507987 -0.014731225 -0.10128004 -0.30337805
-0.015268667 0.025777474 -0.04158848 -0.14392208 -0.26606867 0.108846284 0.040220205 -0.12197141
0.05656272 0.008882737 0.17695408 0.025809033 -0.11502345 0.34682822 -0.057787556 0.08282565
0.15437807 0.061185565 -0.037305526 0.08653721 -0.043159313 -0.347372 0.027149254 -0.1827088
-0.09108478 -0.05841664 0.14536604 -0.07734226 -0.18759553 0.019426007 -0.2452048 0.036661297
-0.19008045 -0.0010119419 -0.078106835 -0.03949748 -0.013809818 -0.07446912 -0.040052168 0.22543156
0.23743182 0.090511955 0.06924364 0.069587484 0.05955051 -0.15887198 -0.13063248 -0.03087955
0.0148226 -0.07082223 -0.0027711696 -0.0870397 0.003593113 -0.12566796 -0.024020987 0.0260851
0.10413095 0.028304355 0.111967124 -0.045365002 0.12178101 0.16205363 0.13424994 -0.06557368
0.051803626 -0.024878101 0.06784282 0.1575608 0.11703646 0.11098294 0.09969086 0.08652297
0.10805456 -0.029432409 -0.2290073 -0.08365328 -0.103281565 -0.058538243 -0.021569742 0.021444958
0.087373205 0.13567497 -0.113940984 -0.06926839 0.07710621 -0.3598251 -0.07131336 -0.01951692
0.010293102 0.090277776 -0.09894932 -0.32690609 -0.26301375 0.24010135 -0.012247094 -0.041067515
0.033554375 -0.16416197 -0.049797244 0.044167534 -0.02455426 0.07437259 0.03255501 -0.04002735
-0.043585394 -0.04245283 -0.02783994 0.26424125 0.05063037 -0.039650705 0.027832018 0.021028021
-0.040688496 -0.051513452 0.103527926 0.13050425 0.06042037 0.09360371 0.02616784 0.07573349
0.11977072 0.1678497 0.1337007 0.14573176 0.06923036 0.008199267 -0.07512058 0.021060036
-0.06459168 -0.085505605 -0.08243342 -0.1122691 -0.075119175 -0.12468602 0.1316205 -0.16929163
0.019818107 -0.05017112 0.097407304 -0.0983117 0.005582123 -0.07693943 0.009866278 0.20853597
-0.20297296 -0.07429397 -0.05517727 -0.030828306 -0.059555348 -0.08886566 0.02423313 -0.0109856315

x_lin_after_first_round.0.weight f4 [32, 1, 32, 1]
00000000: 6f43 233e 741f 46bd 2cfe 32bd d022 4fbe
00000010: 5bbd 78be 5707 fa3c 16ec 243e 023c f3bd
00000020: 79f9 8fbe 26e0 1ebe b95d f53d 1479 a93d
00000030: 0128 993e 1025 56be 2c29 bfbe 6a32 503b
00000040: 1a23 fa3d badc fdbd 34d7 67be d32f 483d
00000050: 00fa 7f3c afa8 923e 45db 1abe f264 063e
00000060: dad6 68bd f3a6 743b 0182 6bbe 50d6 86be
00000070: 939a 49be 9dbe 26be 4a75 acbd 7a78 ec3d
00000080: 52b9 1a3e 042d 60be 7905 743e 10fa f13d
00000090: 2da9 cebd 8baa 643e 6211 163e e58e f23c
000000a0: f21d eb3d dcf3 9b3d 719c e2bd d1f6 943d
000000b0: d5ac b4bd 04f7 7cbc 6ffc eabd fc48 0f3e
000000c0: 40da 04bd 7ac2 80bc e0a8 6f3e 6804 06be
000000d0: c418 87bd 33ea fdbd c1f6 563d e915 463e
000000e0: 05f5 c53d 729c 4abe 50e3 023e c77a 13bd
000000f0: 01ca 613e 195f 6d3e ec2c 563e 95f8 263c
00000100: 0a5f 80be 69e5 083e 76fd 13be 9dbb 6abe
00000110: b4d1 dfbd 6330 8abe 5d29 9b3d 5cdc 60be
00000120: 1847 77bd 771e 80be 18c9 223e d1bd a3bc
00000130: 1dca bf3e 0922 f0bb 107f 39be 7b95 9dbd
00000140: c7fc d33d ec89 ed3d 8a2b 55bb c1fd 9a3d
00000150: e34a 5abc 3a09 edbc cee8 503d 9ba9 42be
00000160: 7288 333e 09d8 c23d ec4f 843e b1fc 73bc
00000170: 2885 093d d0c2 c6bd 3809 6bbe 28cd 1ebe
00000180: 96cc 083c 8510 2d3e ee04 15bd 6855 5dbe
00000190: f269 66be 665c 9cbe 92ad 21bd e7f8 c7bd
000001a0: 8190 b9bd becd 8abe b51b ab3d 8921 bd3c
000001b0: 0bf5 463e e7b1 f93d 021c 07be b879 5bbe
000001c0: 51f8 4c3e bfa7 113d 0196 8abe d103 223e
000001d0: 37fd 7dbd 7978 a5be 4a96 b33d ff35 30be
000001e0: da13 fc3c 2d2e 793e c8a4 ff3d 1a4b f3bd
000001f0: a3cc 46bd e352 bfbe fd31 b3be e3a8 67be
00000200: 34a3 0b3e 9625 023d 94b7 003e aeca adbe
00000210: 8137 673e c5f2 b53d 2d61 4f3c 018b 5b3e
00000220: f593 1f3e f181 313d 13c0 703d 0c68 523d
00000230: 706f 61bd ea99 803e 6f42 f3be 0ade 07be
00000240: f096 24be a50f e33d 7d1a 2cbe a6a1 2cbe
00000250: 3717 4abe 9a9c 6abe 8270 3a3e 9384 183e
00000260: a463 2b3c 75c5 eabe 7b42 693d b20f 4c3e
00000270: 6daf d03d b062 a23c bf7b d73d 2134 5b3e
00000280: b618 c73d 916a 57be 8084 743c 7a0e e43d
00000290: 72da d43d bdc7 883e 3964 64be 2fa3 8d3e
000002a0: 6d57 663e 7448 96bd dc1c afbd 1f0b a2bd
000002b0: 4250 a43d 872f 5e3e 098e aabe 5729 6dbe
000002c0: 3917 f4bb 774d 33bd b071 40bd b665 94be
000002d0: 1d84 0ebe 1445 2abe b196 26bd ac10 bb3c
000002e0: 769e e1bd c60e f43d 5e84 51bd 94cf 47bd
000002f0: 4dc1 543b 6949 103e 55dd e73d f9ce 913b
00000300: 8f73 a4be 200e 523e 026f d53c 62b7 67be
00000310: 78ee 34be 1e15 7ebe fa8c de3b 887c cebc
00000320: a8db a6be bd84 67be 7b09 8f3d 487f f2bd
00000330: dae2 2e3e f8b6 723d bd7c e4bd 5044 683d
00000340: 9547 913c 1040 0cbd 145f bcbe 7b55 ea3d
00000350: 3da6 a1bd 898c 94be d8e0 9cbe c095 bcbc
00000360: 67eb c5bd d2c0 5a3d 814c ff3c 2b98 47bd
00000370: bb0b e83d 8a58 0abe ac5b cabe b0cf b9be
00000380: a04f 8d3e 4ae3 103e 0737 023e d33a acbe
00000390: 5021 6d3e b922 313e cca7 fdbc 2060 653e
000003a0: ca76 3fbd 4779 023e f88e 35bd 31b4 babd
000003b0: bdfb 9cbd ef68 403e f757 33be 29d4 90be
000003c0: c8c8 10be ff9d e4bd 0c65 69bc 0adc 263d
000003d0: 7444 6b3d ac1c 8cbe eaa4 a53d a2bf eb3c
000003e0: be51 27be 6706 8cbe 8567 debd 8cfb ed3d
000003f0: d8e0 6ebd f246 433e 00d7 413e 33e0 9d3d
0.15943693 -0.04836984 -0.04369943 -0.20228124 -0.24290983 0.030521078 0.16105685 -0.1187668
-0.2812002 -0.15515193 0.11980767 0.08275047 0.29913333 -0.20912576 -0.373361 0.003176833
0.12213726 -0.12395616 -0.22640687 0.048873734 0.0156235695 0.2864432 -0.15122707 0.13124445
-0.056845523 0.0037330955 -0.22998811 -0.26335382 -0.19687872 -0.1628365 -0.084208086 0.115464166
0.15109757 -0.21892172 0.23830213 0.11815274 -0.100908615 0.22330682 0.14655069 0.029609153
0.11480321 0.07614872 -0.11064995 0.07273639 -0.088220276 -0.0154397525 -0.11473929 0.13992685
-0.032434702 -0.015717734 0.23404264 -0.13087618 -0.065965205 -0.123981856 0.052481417 0.19344296
0.096658744 -0.19786242 0.12782025 -0.03600576 0.22049715 0.23180808 0.20915574 0.0101911025
-0.2507251 0.13368763 -0.14452156 -0.22923131 -0.109286696 -0.2699004 0.07576249 -0.2195906
-0.060370535 -0.25023243 0.15897024 -0.019987972 0.37458888 -0.007328276 -0.18114877 -0.07694527
0.10350948 0.11598572 -0.0032527172 0.07567931 -0.013323518 -0.028935064 0.05100327 -0.19010012
0.17532519 0.09513862 0.25842226 -0.014891789 0.033574253 -0.09705126 -0.22952735 -0.15507948
0.008349558 0.16900833 -0.036381654 -0.21614611 -0.22501352 -0.30539244 -0.03947217 -0.09764271
-0.09060765 -0.27110094 0.08354894 0.02308728 0.19429414 0.12192135 -0.13194278 -0.21433151
0.200166 0.035560366 -0.2706757 0.15821768 -0.062009063 -0.32318476 0.087689 -0.17208098
0.030771185 0.24334021 0.124826014 -0.11879559 -0.048535 -0.37367925 -0.34999076 -0.22623019
0.13636476 0.031774126 0.1257003 -0.33943695 0.22579767 0.08884195 0.012657446 0.21439745
0.15583785 0.043336812 0.058776926 0.051368758 -0.055037916 0.25117427 -0.47511622 -0.13268295
-0.16073203 0.11086968 -0.1680698 -0.16858539 -0.19735418 -0.22911301 0.18206981 0.14894323
0.010460768 -0.45853773 0.056948166 0.19927862 0.1018971 0.019822448 0.105216496 0.21406604
0.0972151 -0.21036746 0.014924169 0.11135574 0.10393228 0.26714888 -0.22303857 0.27663562
0.22494288 -0.07338038 -0.08550426 -0.079122774 0.080231205 0.21697818 -0.3331149 -0.23160301
-0.0074490574 -0.043775048 -0.04698342 -0.2898385 -0.13917585 -0.16627914 -0.040671054 0.022835098
-0.11016552 0.1191688 -0.051151626 -0.048781946 0.003246385 0.14090504 0.113215126 0.004449722
-0.32119414 0.20513201 0.02605391 -0.22628549 -0.17669094 -0.24812743 0.006791708 -0.025205866
-0.3258946 -0.2260923 0.0698423 -0.11840683 0.17078725 0.059256524 -0.111566044 0.056705773
0.017734328 -0.034240782 -0.3679129 0.11442085 -0.078930356 -0.2901347 -0.30640292 -0.023020625
-0.0966404 0.053406544 0.03116441 -0.048729103 0.113303624 -0.13510337 -0.39523065 -0.36291265
0.27599812 0.14149204 0.12716304 -0.3363863 0.23157239 0.17298402 -0.0309638 0.2239995
-0.046744145 0.12741576 -0.0443258 -0.091164 -0.07665203 0.18790029 -0.17514025 -0.28286865
-0.14139092 -0.11162948 -0.014245283 0.04073719 0.05743833 -0.27365625 0.080880955 0.028777901
-0.16339776 -0.27348635 -0.108595885 0.116202444 -0.058319896 0.19070032 0.18929672 0.07708778

x_lin_after_first_round.0.bias f4 [32]
00000000: c77e d6bd af41 a53d 70b0 fc3d 1fbd 973d
00000010: ca4e fcbd 597e 9cbe 9d8f 1d3d aa6c 83bd
00000020: 5e8f a33c 0f16 5bbd 23c8 79bd 89b3 903d
00000030: 1b21 683e a5f6 803d 32ce 9fbd a149 febd
00000040: 64e1 81bd d934 3cbe df1f 673e a836 463e
00000050: 0a59 d83c 45a8 fcbc b90e cdbc 0e70 9d3d
00000060: 2705 17be 63ce 91be d63a fabd ec26 093d
00000070: 2b23 353e db61 6abd fa2d 1fbe fcfa 94bd
-0.104733996 0.08069169 0.1233834 0.07409119 -0.12319715 -0.30565146 0.03846704 -0.064172104
0.019965824 -0.053487834 -0.06098188 0.070654936 0.22668879 0.06297044 -0.078030005 -0.12416387
-0.06341818 -0.18379535 0.22570752 0.19356787 0.026409645 -0.030841956 -0.025031434 0.07687388
-0.14748059 -0.28477773 -0.12218253 0.033484384 0.17689197 -0.05722223 -0.15544882 -0.07274434
