reachability_classification/weights/SimpleMultiplePassGNNReachabilityNet_epoch_60.pt (torch_old, 36685 bytes, 16 tensors)

x_lin.0.weight f4 [32, 1, 1, 11]
00000000: 808d 27bd 0f70 0fbe e1bc 0fbe c1e6 bdbf
00000010: a869 86be 896d eabc 0088 26bd 7510 c13d
00000020: 24e6 6abc 55f3 c03d 132d abbe cd9c 9b3d
00000030: 7a20 8bbd 7c32 99bc c07a 193e e52b 23be
00000040: df1e f6be cd5c b1bd cb72 42be ceae 6d3e
00000050: 7812 9ebe ca38 963d a220 d6be 9b45 653d
00000060: 4a7d c73d 9165 8abe 9433 913e 8ec0 d63d
00000070: 55f6 b43d f074 bbbe 358a ff3d a2ee 343f
00000080: 2726 78bd 212b f23d 476b 3cbe fb36 bbbe
00000090: c96f f93e 1aad b8bd 026e 87bd ada5 22bf
000000a0: 9909 93bd 777b edbd dea3 1fbf 68c4 7abe
000000b0: 834b 32bc 8213 153e 3864 6b3d c8be 54bd
000000c0: c69d ccbe ff5d 933d 5dd8 3bbe 6913 c13e
000000d0: a23b cb3e 575c 56bd b0f2 5dbe 1f4e 813d
000000e0: eae6 16be e363 afbd c36b 0d3f bb67 dc3d
000000f0: 758d 113e 0673 0e3f b9fb ee3b 1273 0bbe
00000100: 68df 0fbf fc2a 43be 2e5c a8be 753d b43d
00000110: b216 9cbd 105b d73e 2595 83be 777b 1c3e
00000120: bce5 db3c dc53 693e 53fa 8abf a26e a33e
00000130: c71a 90bb 7420 0ebf 147d 64be f7af 96be
00000140: 77c4 43be df6c a0be a0cd 2aba f0f4 b03e
00000150: 912b a33e 146d 4f3e 449f 8c3d 4f57 663e
00000160: 5841 d03e f3fe a3be 0fd0 93be b7f0 8abe
00000170: 0f2c ad3e 7101 8fbe 7535 d2bd ced0 ce3d
00000180: 5884 943e 7248 373e 7ddb 403e 45a9 0e3f
00000190: 671c 0ebd 7d35 bf3e 1bed 0a3e 521f 6abd
000001a0: 8a9d 743e fc68 2c3d 587c 263f 57ec 2fbd
000001b0: ba48 14bc e94a 01be 0ee6 d3bd 9155 cf3d
000001c0: 6f07 3c3e a265 c63e 90ba 1dbe 392b 543e
000001d0: 87e6 83bd 3928 ffbd b703 93bd 2d1f 093e
000001e0: 3244 bdbe 72f0 6dbe 34f2 323e 0c4f 63bd
000001f0: a221 ad3c b7d4 d7be 9068 d93d 9f6b bbbe
00000200: 1479 b03e 9617 103e 695b dfbd e8df 603e
00000210: c123 0cbf 7b52 cfbd a68a 2cbe f882 31be
00000220: aaf6 acbe 6da8 aebd cf61 903e 90ca e53e
00000230: 84cd 0ebd 8008 d6bd bd05 ff3e 3765 d73d
00000240: c9fc c83b 25be aabe 9ba3 5f3d 8a6a a3be
00000250: 7932 b2bc 2294 f3be f726 91bb 8931 ddbd
00000260: b656 403f 4399 41bf 012b aebe 033a 84be
00000270: 1b49 6fbe 45c5 9b3d d620 9f3e 202b 84be
00000280: 12c3 ad3e 3411 d5be 7d01 cdbd 222a a63e
00000290: edfc fbbe 44a5 c53d 6c63 88bc fd95 8d3e
000002a0: efd9 d73a 0d95 bfbe fc5a 33be d08e 8f3e
000002b0: ba53 a93d ee9b aebd cbf0 573f ebba 59bf
000002c0: 0f3a 213f e3a3 183e 3bb6 223e 9458 f3be
000002d0: 94f7 cf3e 000c f4bd bb14 8f3e 42cb f9bd
000002e0: 736c 053b 2054 07bf a21f 343f 24d5 f7bd
000002f0: f786 b03d a6a3 fb3d 6e6b edbe 6a18 26be
00000300: a9c1 50be deae 463e e4cb a4be f192 67bd
00000310: 961a 58be f0ca ebbd 3842 3f3e 4b77 c4be
00000320: 76a2 423d 9a18 f6be beb2 8ebc 377a fd3b
00000330: b03a 98bc fddc f63c 7cc0 19be 4427 70bf
00000340: e031 573f 132f 943e 7269 85bd 485b 7bbd
00000350: f735 093f ba88 403e 390b 96be 8d4e 60bd
00000360: 3ecf 16be 6a2d 01bf b116 17bf d190 f73e
00000370: 524e 873d 46af 91be dcaf 64bc 0fa0 e63e
00000380: 7a5f 703f 8e63 42be 3f5d 8a3e e7c1 293e
00000390: 0402 ed3d e923 193f c20d d4be 7c3f e63d
000003a0: 80c0 503e dddc 32be 287d e73b d305 333e
000003b0: 18d4 e5be 2290 92be 2c8f 55be 4268 853e
000003c0: ee09 42bf c8aa 1a3f 2b70 503e 3a80 43bd
000003d0: 006e 963e 6028 4dbd 775a a0be 45df 863d
000003e0: 9e86 f9bd 1343 2e3e f5c6 b8bd 0a63 0f3f
000003f0: e339 39bf 53de 513d 9bd8 92bd b703 3d3d
-0.04090643 -0.1400759 -0.14036895 -1.4836046 -0.26252484 -0.028616684 -0.040657043 0.09426967
-0.014337096 0.09421412 -0.33432826 0.07598267 -0.06793304 -0.01870083 0.14988232 -0.15934713
-0.48070428 -0.086602785 -0.18989103 0.23211214 -0.30873466 0.073350504 -0.41821772 0.055974584
0.09740694 -0.27030614 0.28359663 0.10485946 0.088360466 -0.36612654 0.12477533 0.70676625
-0.06058326 0.118246324 -0.18400298 -0.36565384 0.48718098 -0.090173915 -0.06612779 -0.6353405
-0.07179565 -0.11595815 -0.62359416 -0.24488986 -0.010882261 0.14558223 0.057468623 -0.051939756
-0.39964122 0.07195663 -0.18344255 0.3771012 0.39693934 -0.052334156 -0.21674609 0.063137285
-0.14736524 -0.08563974 0.55242556 0.107619725 0.14214118 0.5564426 0.0072931913 -0.13618115
-0.56200266 -0.19059366 -0.32882828 0.088007845 -0.07621516 0.42061663 -0.25699726 0.15281473
0.026842944 0.22785896 -1.0857643 0.31920344 -0.0043977234 -0.5551827 -0.22313339 -0.29431126
-0.19117914 -0.31333062 -0.0006515626 0.34561872 0.31869176 0.20256454 0.06866315 0.22494243
0.40674853 -0.32030448 -0.28869674 -0.27136776 0.33822677 -0.27930787 -0.10264102 0.1009842
0.2900722 0.1789873 0.18833728 0.55727035 -0.034695055 0.37345496 0.13567011 -0.057158776
0.23888221 0.04209231 0.65033484 -0.04295 -0.0090505425 -0.12626232 -0.10346614 0.10123742
0.1836221 0.38749415 -0.15403199 0.20719613 -0.06440454 -0.12458844 -0.07178443 0.13390799
-0.3696609 -0.23236254 0.17475206 -0.055495307 0.021134201 -0.42154476 0.10615647 -0.36605546
0.34467375 0.14071497 -0.10906107 0.21960413 -0.54742056 -0.10123154 -0.16849765 -0.17335117
-0.3378194 -0.085282184 0.28199622 0.44881105 -0.034863964 -0.1045084 0.49809065 0.10517352
0.00613365 -0.33348194 0.054599386 -0.3191722 -0.021752583 -0.47573954 -0.004429694 -0.10800464
0.7513231 -0.75624484 -0.34017184 -0.2582551 -0.23367731 0.076059856 0.3107974 -0.25814152
0.3393789 -0.41614687 -0.100100495 0.3245402 -0.49216405 0.096506625 -0.01664897 0.27653494
0.0016468148 -0.37418404 -0.17515177 0.28038645 0.08267923 -0.08525835 0.84351796 -0.8505084
0.62979215 0.14906268 0.15889828 -0.47528517 0.40618575 -0.11916351 0.27945504 -0.121969715
0.002035883 -0.5286274 0.7036077 -0.121012 0.086194925 0.12287073 -0.46371025 -0.1622025
-0.20386375 0.19402644 -0.32186806 -0.05653662 -0.21103892 -0.11513317 0.18677604 -0.38372263
0.047518216 -0.48065645 -0.017419215 0.0077355164 -0.018582672 0.030134672 -0.15014833 -0.93809915
0.8406048 0.28942165 -0.06514253 -0.06136635 0.5359797 0.18802157 -0.29305437 -0.05476241
-0.14727494 -0.5045992 -0.59019 0.48352674 0.06606735 -0.28454036 -0.013957944 0.4504399
0.93895686 -0.1898329 0.27024266 0.16577874 0.1157265 0.5982042 -0.41416746 0.112425774
0.20385933 -0.17467065 0.0070644803 0.1748269 -0.44888377 -0.2862559 -0.20855397 0.26056105
-0.757964 0.6041684 0.20355289 -0.04772971 0.29380798 -0.050087333 -0.3131902 0.06585554
-0.12183879 0.17017774 -0.09022323 0.56010497 -0.72353953 0.051237416 -0.071702205 0.04614612

x_lin.0.bias f4 [32]
00000000: 2d78 e0be ff95 ebbe 380b 17be 74f7 d13d
00000010: da45 22be 2d80 9abe 0399 4e3e caf6 3abd
00000020: dc4a ed3e b0d7 ae3d 7a5a d3be 70df 8a3e
00000030: af2a 073f a581 96be 72f1 8cbd 798c 26be
00000040: 4293 f73e dc55 56be 12db eb3e 215d b3bd
00000050: 6edf 3dbe d04a 873e 99d3 a2bd b644 6a3d
00000060: f955 65be 00fe eb3c db7e dbbe c6a3 663e
00000070: 590c 873e 99d2 f2bd 26d1 403e be1e 143f
-0.43841687 -0.46012875 -0.14750373 0.10252276 -0.15846959 -0.30175915 0.20175557 -0.045645513
0.46346176 0.08537233 -0.41279966 0.27123594 0.52799505 -0.29395786 -0.068819895 -0.16264524
0.48354536 -0.2093119 0.46065575 -0.08757997 -0.18542263 0.26424265 -0.07950515 0.057194434
-0.22396077 0.02880764 -0.4287022 0.22523412 0.26376608 -0.118565746 0.18829784 0.5785941

x_lin.2.weight f4 [32, 32, 1, 1]
00000000: 14e2 2a3e 14b1 023e f66a bf3c fdf9 2ebb
00000010: 1d3e 9fbd 967c 0ebe e1c7 03be 918b a3be
00000020: 31e5 c1bb 08e5 223f 9ae8 113e 13ae 29be
00000030: 1b09 65be fb57 9d3e c9f0 e73d 9c32 b23e
00000040: d2ed fd3c 9f0b da3b 2823 4ebe cb2c abbe
00000050: fbd9 683e 324a 083e 444b 0e3e e5a5 45bf
00000060: 7a0e e4bc 6293 de3d 9c42 ca3d 7260 173e
00000070: 6c67 8a3d b65b 563d 5956 c2be b0c4 0cbf
00000080: 9276 d83e 0669 babd a2fd a63e d096 cf3d
00000090: 8fe9 9d3d c44a edbe 7cec 87be aa9b 343d
000000a0: e7e9 32be aa38 0bbd 6698 633c bc69 253e
000000b0: 43f3 16be 2526 013f e80d 303e 556d a53e
000000c0: 430b efbe 2731 d83d 147e 26bf 2d11 58be
000000d0: 7555 8cbe 6e53 09bc 6471 013e a806 42ba
000000e0: f278 bfbe 77fb 923d ff72 aa3e 40f1 c1bd
000000f0: 43b4 243e bf12 443e b118 d9bd b046 de3e
00000100: 444d 003e b360 0ebe 0f10 c8bd 483e 66be
00000110: 75f8 753e 93e2 473e e38b 2b3d bc32 843e
00000120: 01e1 48be 9a90 863d 2e61 ccbd 4f94 383e
00000130: 040d f5be 926d 1dbe bc1c 6b3e e722 b73e
00000140: 85ae adbe ddb8 b53d 1472 3e3d d66e 593d
00000150: 49d7 ec3e 0c10 d9bc 2049 513e 6d33 a3bd
00000160: dea8 2b3a b06b a8be 442a 743e 2f62 b83e
00000170: 4a64 cfbe 1cb2 983e ef32 8bbe 38f7 ecbe
00000180: ab68 843d 7264 ad3d b9e4 f2bc dd1c 573e
00000190: af25 bebe 9694 7dbe 6eef d0be cc54 fbbe
000001a0: 98e6 b23c 1e53 bebe 169d cbbe 3490 48bf
000001b0: 67f8 bf3e a8ab 08bf 0e14 f43d 1a1f d13e
000001c0: aa3a 943e 079c 29bf 3150 cdbe c4ec 9d3e
000001d0: fe87 c73e 4b33 cd3d 45e4 923e 4e7e 33bd
000001e0: 8f7a bc3e 7217 7cbc af62 1cbf 4420 d9be
000001f0: 53dc cf3d ce62 1a3d 6b6e dabe 4d60 583f
00000200: e87b d93d 0d89 b2bd 6373 fdbc 2026 1e3d
00000210: 9009 cf3c 3e5a 133d a870 3c3e 05b0 95be
00000220: ce0f 9f3d 868b 85bd 9602 2a3e 8c5e 2c3d
00000230: 4a63 47be 2677 793d 6ccc 24ba 05df b63e
00000240: 4c45 2cbe b14b a63d 2078 fcbe f259 6abe
00000250: d527 d9bd 2d32 07be d95e ad3e 3f3a ba3e
00000260: a38c 7e3d 834b 303e 6c8d 093e 0744 8b3d
00000270: 3ebf 84bf a52b 663e 89ec 84be 68bf 5b3e
00000280: 4f7d 7e3d 3e82 8fbd 180a ae3e d001 04bd
00000290: e084 37be f3a7 21be 4e98 633d 344a 7a3e
000002a0: 7d0e d73d 8186 1a3c 97fc d1bd 4b9f fc3d
000002b0: ba99 eb3e f6ab b1be dabb 563e 59e4 493b
000002c0: 96fb 993e c6e8 8f3e 1f0b 233e e683 92be
000002d0: 4681 2ebf 40e4 bebd df94 b8be adaa 8a3e
000002e0: de1a bd3e c84a 64be 18bc 613e 1477 033d
000002f0: 3ed2 1dbe db3e 033e 7f6f 963d 8af5 833e
00000300: 9dcc b23d b0ab 043c 898f 37be a7a4 b4be
00000310: d4f3 40bc 26ba 123e 695d b1be a8dd 0e3e
00000320: f06c 17bf 9a64 0dbf 5b05 703e 3a7b 563c
00000330: d079 96be 26dd fe3d d6a2 0cbf 4afe 9f3e
00000340: c0a5 34be 65f0 833e 41c9 84be 82a3 d9be
00000350: 1da7 d0be 76e0 8abe 15f6 993e edd0 25be
00000360: 43ff d0bd 8146 e9bd 9fae 7b3e 0d4c 7b3d
00000370: f118 33be 0868 7e3e d46d 1ebe 2b2c ab3e
00000380: d130 e3be 2123 19bf c4ea 5fbe f933 40bf
00000390: 399f 18bd c234 163e 155c 93be 7959 5dbe
000003a0: 1087 be3c 778d 793e 7959 92ba 7e0b 033d
000003b0: 9a04 833c 50e4 45bd c6af 31bd e0b2 053d
000003c0: 100a 273f 2eec a1be 208c f1be 181b babe
000003d0: 5877 d2bd 19cb 043e 3ac8 123e 1f9a 11bd
000003e0: d231 58be 925c 51be 9e93 2fbe f1ef 49bf
000003f0: 37c8 073e 3735 2e3e 230e 3cbf 0932 b2be
0.16687804 0.12762862 0.023366433 -0.0026699298 -0.07775519 -0.13914713 -0.12869217 -0.31942418
-0.0059172143 0.63630724 0.14248887 -0.1657031 -0.22366755 0.30731186 0.11325223 0.34804237
0.03099719 0.0066542174 -0.20130599 -0.33432612 0.22739403 0.13309553 0.13895899 -0.7720626
-0.027838934 0.10867955 0.09875986 0.14782885 0.067580074 0.052333556 -0.37956503 -0.5498762
0.42277962 -0.09102063 0.3261538 0.10136187 0.077105634 -0.46346104 -0.2654761 0.044093765
-0.17472039 -0.033989586 0.013891315 0.16153616 -0.14741234 0.5044883 0.17192805 0.32309976
-0.4668828 0.1055625 -0.6503613 -0.21100302 -0.2740895 -0.008381708 0.12640911 -0.00074015046
-0.3739696 0.07176869 0.3329086 -0.09469843 0.1608439 0.19147776 -0.10600413 0.43413305
0.12529474 -0.13904075 -0.09768688 -0.22484696 0.2402056 0.19520025 0.041881453 0.25819957
-0.19617082 0.06570549 -0.09979473 0.18025325 -0.47861493 -0.15373829 0.2296018 0.35768816
-0.3392221 0.088731505 0.046495512 0.053084217 0.46258 -0.02649691 0.20438051 -0.07968793
0.00065482955 -0.3289466 0.23844248 0.36012408 -0.40506202 0.29823387 -0.27187297 -0.46282363
0.06465276 0.08466424 -0.02965008 0.21007104 -0.37138125 -0.24763712 -0.4080767 -0.49088132
0.021838471 -0.37172788 -0.39768285 -0.78345037 0.37494203 -0.53386927 0.11917888 0.4084404
0.28951007 -0.66253704 -0.40100244 0.308447 0.3897094 0.10019549 0.2868978 -0.043821625
0.36812255 -0.015386449 -0.6108808 -0.4240743 0.101494454 0.037691884 -0.42662367 0.84521943
0.10619336 -0.087175466 -0.03093881 0.038610578 0.025273114 0.035974734 0.1840235 -0.29235855
0.077666864 -0.065207526 0.16602549 0.042082354 -0.1947147 0.060904644 -0.0006286565 0.35717025
-0.1682331 0.08119906 -0.49310398 -0.22885874 -0.106033005 -0.13202734 0.33861426 0.36372563
0.06214584 0.17216305 0.13432854 0.068000846 -1.0370862 0.22477587 -0.25961712 0.21459734
0.062131222 -0.070072636 0.33992076 -0.03222829 -0.17921782 -0.15786724 0.05556517 0.24442369
0.1050081 0.009431482 -0.10253256 0.1233507 0.46015722 -0.34701508 0.20970097 0.0030806272
0.30074757 0.2810728 0.15922211 -0.28616256 -0.68166006 -0.09320879 -0.3605108 0.2708334
0.3693456 -0.22294152 0.22044408 0.032095984 -0.15412232 0.12816946 0.07345485 0.2577327
0.08730433 0.008097574 -0.17925848 -0.3528187 -0.011776883 0.14328822 -0.3464158 0.13951743
-0.591506 -0.5523163 0.23439543 0.013090903 -0.2938981 0.124445245 -0.5493597 0.31248695
-0.17641354 0.25769344 -0.25934795 -0.4250756 -0.40752497 -0.27124375 0.30070558 -0.1619298
-0.10204937 -0.11390401 0.24578331 0.061351825 -0.17489983 0.24844372 -0.15471584 0.33432135
-0.4437318 -0.5981923 -0.218669 -0.75079304 -0.03726122 0.14668563 -0.2878119 -0.21616162
0.023257762 0.24370371 -0.0011165581 0.03199338 0.015993405 -0.04831344 -0.04338052 0.03264129
0.6524973 -0.31625503 -0.4717722 -0.36348796 -0.10276669 0.129681 0.14334193 -0.035547372
-0.21112755 -0.20445469 -0.17146155 -0.78881747 0.1325997 0.17012487 -0.7345907 -0.348038

x_lin.2.bias f4 [32]
00000000: 8e26 6dbe d86a 60be d15f 6bbe b94c 64be
00000010: 5bf3 36be 85f6 9d3d c386 eebd 05ea 5d3e
00000020: c9b0 6ebe 936c e5bc 2235 283e bf48 3e3d
00000030: c77d 053e c38a d63c 889b 21be c263 133e
00000040: cb81 2cbe b854 753b 0e75 0f3e 7302 6bbe
00000050: bd0a babd d8eb 143e eae5 76be dcce 77bd
00000060: bc68 3c3e 58ca 0c3e af70 f7bc cf01 f5bd
00000070: 991c 453e 7321 2f3e f4d4 d1bd 0099 4fbd
-0.23159239 -0.21915758 -0.2298577 -0.22294892 -0.1786627 0.077130355 -0.116467975 0.21671303
-0.23309626 -0.028005874 0.16426519 0.046456095 0.13036261 0.026189214 -0.15781987 0.14393523
-0.16846387 0.003743453 0.14009497 -0.22950153 -0.090840794 0.14543092 -0.24111143 -0.06050001
0.18399328 0.13749063 -0.030205099 -0.119632356 0.1924919 0.17102604 -0.10245696 -0.05068302

edge_lin.0.weight f4 [32, 1, 64, 1]
00000000: 62aa 49bf 6fe4 e9be a8e6 a2bd d503 e8be
00000010: b7f5 8fbe e949 bdbe 2c86 96be a3ed 4f3d
00000020: 371a 2abe 22f8 703e d282 4cbf 655e f73d
00000030: ab63 c0be 6168 f5be de27 5fbc 773e 12bf
00000040: 8bc9 1abf d682 c1be d17a dd3d b8d4 b5be
00000050: e229 65be 1721 8abf 82c9 22bf bc86 6fbd
00000060: 6b26 7abd 8cd5 603e c845 0e3e 1ce6 22be
00000070: ebc8 973e 293d 7c3c 068a a23d b742 1c3e
00000080: 5917 15bd 7583 3d3e 6b45 6a3d 1c63 f6bd
00000090: 3fe8 783d 8b35 32bf b5c4 123e 96df cdbd
000000a0: c3b3 383e 6de7 f2be 519b 11bf 01d7 d1be
000000b0: 7cc1 91be 105b 0abe 20eb f1bd 65bc 923d
000000c0: 98cd 9dbe c3d2 4fbf c3f0 28be a5e5 3fbe
000000d0: 12f5 96be b0e6 fdbe 39df 233e 2d2a 7fbc
000000e0: 367d 6c3d 8c3c 7e3d 45e1 ab3d 0169 94be
000000f0: c4a9 6b3e e033 a6be 8b56 323e c8f6 45bc
00000100: 8fff 92be e125 e2bc 5822 d3bd a456 8fbe
00000110: 6173 8f3e d81e 16be e494 83bc 254f b8be
00000120: 5458 933e d9da 713e 0b10 0ebf a3db e23d
00000130: 179d d9bd 1d1c c0bd ef04 2b3e 785a 6e3e
00000140: 5b7c 813e 76dc b5be 5d35 623e ef63 da3e
00000150: 928b 12be f5af f7bd 363f 4abe a485 3fbe
00000160: 90bc 3dbe 7f61 873e c75e bb3d 3502 bb3e
00000170: c892 3dbd 54db f73d 3cdc 0c3e 06d1 5f3e
00000180: 1c28 e53d 4eeb aebc 214d 3c3d e289 60be
00000190: 14c1 c93c 1262 7dbe 2b01 b43b 2be8 56be
000001a0: d646 ed3e 66dc 633c 1aa7 c8be 756e 8f3e
000001b0: f99e 923d 885d 9bbe 9014 273e d45b 5e3e
000001c0: 49b4 18be 5162 c2be ecf2 58bc 7fa9 d83e
000001d0: 612d c2bd 1989 7fbe 881c 6ebc 5f92 8cbe
000001e0: 83ce 44be 87a7 c03d 5834 0a3e 991d 2a3e
000001f0: 0e97 42be 53b9 24bd f2ac 9c3d 0153 843e
00000200: 43ca 63be b3f4 9e3c 1471 35bf adf2 0abe
00000210: 7a0d ecbc e16c 3fbf 2e1c 7fbe 1f5b 9e3e
00000220: 4f19 bbbe 4987 fcbe 3d91 a33d f5f7 2b3e
00000230: 1629 d93c 8bf6 643e 35f5 48bd 581e 0b3e
00000240: 626a 0b3e 05f1 aebe ebb2 96bd 6905 40bd
00000250: e203 30bf 56c1 13bd 410a 853e 5dcc 16bf
00000260: 9e34 86bd 10bb 47bf 30f6 9fbc 6168 c83c
00000270: ae10 bd3d 1c78 2d3d 1b86 07bd 7c8a fd3c
00000280: 7734 933c 4ca5 2a3d cfd2 71bf 8eac 93be
00000290: 27f1 e9bd a7d0 32bf 15a8 df3d 61c9 d53e
000002a0: b545 a0be 5ac5 f8be 3a0b 8f3d 9499 d73d
000002b0: ee77 03bf a93b 2d3e a9d4 f0bd c370 d53d
000002c0: 5715 333e 7361 c2be 4efe b9bc 2010 523e
000002d0: 59ad e9be 7568 4bbe fa67 5abc b979 4d3d
000002e0: 5c18 353e 7575 51bf 9ad9 f4bd 2eb4 5e3e
000002f0: b1bd a6bd 0a11 64bd 3eb8 4c3e fc0d 843e
00000300: 5a86 da3e 671b cf3e 9500 1dbf d526 e1be
00000310: e8dc 97bb a333 25be dbeb c6bd 108a 04bf
00000320: d441 efbd 44d4 a33e 61f9 cd3d 1e1b 833e
00000330: 5045 10bc f8c3 0d3e 9289 c03e 9d87 a8bd
00000340: 1add 6dbe 280d ddbc f597 87be 1cb4 cebe
00000350: 90cd f03d e844 0e3e 1fe0 f7b9 ff7b c2be
00000360: e802 e53d 908c cebe bd9b b1be e1a0 ca3d
00000370: 49aa a7bd 40fc 203e e95c 8a3d e696 273e
00000380: 9c5f 1f3d 5266 473e 8df1 27bf 7d12 81be
00000390: 69ee 08be 4285 8dbe b100 46be ef17 16bf
000003a0: 8027 aa3c d9fc fe3d f9f3 a5bc df28 45be
000003b0: eca1 063d 2003 873e 0388 8f3e e865 a93e
000003c0: 61e4 f6bd f3d8 f1bd ffba f1be 49af 75be
000003d0: bcd3 b73d 250b 173c 2608 593e 8529 39bd
000003e0: 1c6f 043e dcf1 7fbe a298 4fbe 52c0 fa3c
000003f0: 20b8 ce3c bd8f 4abe 493f 9e3d 363b 913e
-0.7877561 -0.45682094 -0.079541504 -0.45315424 -0.28117153 -0.3697045 -0.2939924 0.050763737
-0.16611563 0.23532155 -0.79887116 0.12078551 -0.3757604 -0.47931197 -0.013620345 -0.57126564
-0.6046378 -0.37795132 0.10814441 -0.35513854 -0.22379258 -1.0791348 -0.63588727 -0.058478102
-0.061071794 0.21956462 0.13893807 -0.15908092 0.29645476 0.015395441 0.07936482 0.15259825
-0.03639922 0.18507178 0.05719511 -0.12030622 0.060768362 -0.6961295 0.1433285 -0.10052411
0.18037324 -0.4744219 -0.5687762 -0.40984347 -0.2846793 -0.135113 -0.11812425 0.0716484
-0.30820918 -0.8118097 -0.16498093 -0.18739946 -0.2948385 -0.49590063 0.16003121 -0.01557402
0.057736598 0.06206946 0.08392576 -0.28986362 0.23013979 -0.32461452 0.17415826 -0.012082763
-0.287106 -0.027605953 -0.10309285 -0.2799579 0.28017715 -0.14660203 -0.016062208 -0.35997882
0.28778327 0.2361864 -0.5549323 0.11077049 -0.10625666 -0.09380362 0.16701101 0.23276699
0.25290188 -0.3551976 0.22090669 0.42654368 -0.14311054 -0.12094108 -0.19750676 -0.18703324
-0.18528962 0.2644157 0.09148937 0.3652512 -0.04628256 0.121023804 0.13755888 0.2185708
0.11189291 -0.021352436 0.045971993 -0.21927598 0.0246282 -0.24744442 0.0054933033 -0.20987003
0.46343106 0.013907528 -0.39189988 0.2801396 0.07159228 -0.30344796 0.16316438 0.21714717
-0.14912523 -0.37965634 -0.013241511 0.42316815 -0.094813116 -0.24954642 -0.01453317 -0.27455422
-0.19219403 0.09406953 0.1349653 0.16612853 -0.19002935 -0.0402158 0.07650174 0.25844577
-0.22245125 0.019403791 -0.7087567 -0.13569136 -0.02881502 -0.7477551 -0.24913093 0.30928895
-0.36542746 -0.49321964 0.079866864 0.16793807 0.02650885 0.22359674 -0.049061973 0.13585794
0.136148 -0.34168258 -0.07358345 -0.04688016 -0.68755925 -0.03607305 0.25984386 -0.58905584
-0.06553005 -0.7801981 -0.019526571 0.024463834 0.09231697 0.042350873 -0.033086877 0.030949824
0.017969353 0.041661546 -0.94462293 -0.28842586 -0.11422949 -0.6984963 0.10920731 0.41755202
-0.31303182 -0.48588067 0.06984563 0.105273396 -0.51354873 0.1691729 -0.11759312 0.10421898
0.17488609 -0.37964973 -0.02270427 0.20513964 -0.45640066 -0.19864066 -0.013330454 0.050164912
0.17685074 -0.8181985 -0.11955567 0.2174842 -0.081416495 -0.055680312 0.19992158 0.2579192
0.42680627 0.40450594 -0.61329013 -0.4397494 -0.0046344884 -0.16132979 -0.097129546 -0.51773167
-0.116824776 0.31997883 0.10057331 0.25606626 -0.008805588 0.13844287 0.37604958 -0.08228991
-0.23228875 -0.026983812 -0.26483122 -0.40371788 0.11757958 0.13893473 -0.00047278494 -0.37985227
0.11182195 -0.40341616 -0.3468913 0.098939665 -0.08186776 0.15721226 0.067560025 0.16366157
0.03890954 0.19472626 -0.6560295 -0.25209418 -0.13372196 -0.2764073 -0.19336201 -0.5863027
0.020770788 0.124505706 -0.020257937 -0.19253872 0.032869264 0.26369572 0.28033456 0.3308556
-0.120552786 -0.11808958 -0.4721298 -0.23992647 0.08975932 0.009218966 0.21194515 -0.04520561
0.1293301 -0.24994606 -0.20273069 0.030609284 0.025234282 -0.19781394 0.077269144 0.28365487

edge_lin.0.bias f4 [32]
00000000: b82c fe3d 3d1e 5fbd 818d 0abd 83d9 bb3d
00000010: 2aeb 16be 6413 01be 9a91 ab3d 29ee 7dbc
00000020: 7503 5d3e 3261 cdbd 250c 94bd 85f6 733d
00000030: 6200 083e cf47 00be cd3c a7be 891a 0d3e
00000040: e5bc c53d af3c f8bd 8e0d 97be d5fb 60be
00000050: a100 6abe 6f85 5cbd d304 fabd 6740 6a3d
00000060: dbea ae3d ee6c 593e 6df9 d13d 1392 5f3d
00000070: d641 313e a41a fcbd f226 8bbd c073 81bd
0.12410873 -0.054472197 -0.033826355 0.091723464 -0.14738145 -0.12605053 0.08377381 -0.015498676
0.2158335 -0.10028304 -0.07228879 0.05956127 0.13281396 -0.12527393 -0.32663575 0.13779654
0.096551694 -0.121209495 -0.2950253 -0.21971066 -0.22851802 -0.05383819 -0.122079514 0.057190325
0.08540889 0.2123296 0.10252652 0.054582667 0.1731027 -0.12309769 -0.067945376 -0.06320906

edge_lin.2.weight f4 [32, 32, 1, 1]
00000000: a14a b93e 60e1 113e 3f9c e93e ad38 093e
00000010: c4b2 e23e e554 3b3d 6e89 dfbd 3f5c a5be
00000020: 5ca5 193e f8b8 bb3d 5dc7 9e3e bece 6c3d
00000030: adf9 a73d df85 bcbe 9598 b2bc a382 35be
00000040: c9a8 f13e b50f 7a3d 888a 733e e506 ccbe
00000050: eec7 903e d8a2 2bbe 3806 f53d 3c96 5a3e
00000060: ddd2 acbe f583 e0be 3c2e bc3e d63b 9fbd
00000070: 4815 1dbf 8dcd 783e c285 97bd e70e 08bd
00000080: f127 bdbe 64f8 5dbe 1bb8 4a3d c523 33be
00000090: 7b34 733e 2967 b6bd c6d8 343e a08d e83d
000000a0: b8a6 473e 8bb2 2a3d 2d0d 633d 76b1 853e
000000b0: 75a0 963d 1625 3d3c bbf8 a9bd 7618 fb3d
000000c0: 53d0 f8ba f7d4 55be 8790 163e 7c1e 62be
000000d0: 2950 37bf 2b24 bb3e 0d47 5fbe 41c3 2c3e
000000e0: ce9a eb3e 7d70 17bf aa22 2b3e c3e3 06bc
000000f0: bb7c a83e efa6 1cbf 7b54 063e f134 3fbd
00000100: 6dd0 813d e794 c8bb 8f51 aa3e 1c5f 853e
00000110: 77f2 adbd 922d 82be a713 1c3e f376 ab3e
00000120: 3015 33bf 3ea0 b3be d2e5 4f3e 3de1 003d
00000130: a917 34bb 25d3 cfbd c72e 63be c736 ba3e
00000140: 59c9 013e f9d5 9c3e 0d52 34be 88c8 1ebe
00000150: fa71 ddbd 95a3 ad3d 875b c43c 91fa d2ba
00000160: 15c1 5abe 2ce2 6dbe 80e8 f0bd 9a7b 103c
00000170: f7d2 84be cd88 f03d d0df 643c b9c2 193e
00000180: 129f 94be 2c4a 50be a72e 9cbe a123 183f
00000190: 27ea 29be dae6 c03e ca9d 73be b84b c63d
000001a0: c786 19bd ef44 703e 4609 3bbf 802b 193e
000001b0: ad08 10be b053 ef3e ae01 5f3d d347 04bf
000001c0: f627 28bf 59cf cf3e f29d 0f3e 7f0e 38be
000001d0: 189f eb3c 5338 e03d acf7 7fbe 9fd1 83be
000001e0: 5ff0 0cbd c44e 26bd 4f8d 38be 8662 163d
000001f0: 074a 1ebf 47cb 813e f426 45bd 0708 ccbd
00000200: fcae 1f3f 6352 6dbd 4120 fb3d c91a ca3e
00000210: 6638 a63e af51 0b3e d6e3 a9be da17 f7be
00000220: d0e1 45be df0b d0be 660f 183e ef65 2fbd
00000230: 7bd8 c3bd 8484 c1bd c2ec 1c3e c8f9 fd3e
00000240: 2cd6 8dbd 21f6 f93d dcec 3d3d 98e0 3bbe
00000250: e11a 0f3e b791 4c3d d6da 263e 710c c13e
00000260: 43a6 0d3e 408c 07bf 013a e73e 7c30 17be
00000270: b6d1 20bf 1910 8ebd 96ee f63d f7b7 b3be
00000280: c8ee 033e c0cf ab3e 4109 853c e3d7 bbbd
00000290: 1705 a53e b76d 8e3d 1dec 6ebe 1265 96be
000002a0: 2623 483e 7f20 12bc 28e4 c4bc 6e3b 76ba
000002b0: 473f bf3d 48b0 a3be 5fdc 083d 3422 8c3e
000002c0: 812b 3b3d 0ea0 dabd 5487 563c cb89 17bd
000002d0: ab5a 753e c919 60be 955c e73d be7e 8a3e
000002e0: ca3c 9d3d 12ec 7bbe 4080 193e 5850 453b
000002f0: fa1f 37bd eba4 8a3e 85a0 9cbe b896 023e
00000300: 043b 38be 1fa4 39be 9db2 573e 9285 1abe
00000310: 3bde aabe 8251 73bd e17f d2bd 6f2b 2abe
00000320: f635 1b3e d99f 3bbf c92c a1be e79b 043d
00000330: d1b4 8fbd 165a c2be 10a2 153e a585 cfbe
00000340: 257d 86be 45c3 5bbd 042b 833e ee68 c3bd
00000350: 9a6f 0cbf 1544 a43e 0ec6 10bf 426d fa3c
00000360: ea45 2fbe aa03 41be 53f0 573e 3dc5 393c
00000370: 9df8 123e 6431 8fbd 3dea 19be 152a bfbd
00000380: ce93 8ebd 0f31 093d 3929 af3e 8ac4 b4bc
00000390: c936 d3bd 4858 03bf c712 2ebe 68dc 7d3e
000003a0: 055b 80be 19fa c1be c47e db3e f196 55be
000003b0: 7a3d 0e3d 6370 9fbe 6217 c5be 017b 763e
000003c0: 6cec 9c3e 4838 a23e 4c81 d13e 42f9 dbbd
000003d0: 830a 84bc baf6 27bc b7a7 2bbe 3a55 d13e
000003e0: 892f 9abe 0a45 11be e46e 4e3e 53dc e83d
000003f0: 4611 90be 59c1 303e 0264 be3d 8c56 e43e
0.3618975 0.1424613 0.4562702 0.13400526 0.44277012 0.04573526 -0.109148845 -0.3229694
0.15004486 0.09166139 0.31011477 0.057814352 0.08201919 -0.36820886 -0.021801272 -0.17725615
0.47199085 0.061050136 0.23783314 -0.3984901 0.28277534 -0.16761339 0.11964077 0.21346372
-0.33754626 -0.43850675 0.36754024 -0.07775085 -0.613606 0.24297161 -0.07398559 -0.033217337
-0.36944535 -0.21676785 0.049491983 -0.17494114 0.23750488 -0.08906395 0.17660818 0.11355138
0.19497192 0.041674178 0.055432487 0.26111954 0.073548235 0.0115444865 -0.08299395 0.12260525
-0.0018982984 -0.20882021 0.1470357 -0.22081941 -0.7160669 0.3655103 -0.21804447 0.16871358
0.46016544 -0.5915602 0.16712442 -0.008233014 0.32907662 -0.6119222 0.13118164 -0.04668135
0.06338582 -0.006121266 0.3326535 0.26049125 -0.08493512 -0.25425392 0.15241872 0.3348919
-0.69954205 -0.35083193 0.20302513 0.031464804 -0.0027479923 -0.101476945 -0.22185813 0.36369917
0.12674464 0.30631998 -0.17609425 -0.15506184 -0.10812755 0.084784664 0.023969425 -0.0016096403
-0.21362717 -0.23230809 -0.11763096 0.008818531 -0.25942203 0.11744843 0.013969377 0.15015687
-0.2902761 -0.20340794 -0.30504343 0.59429365 -0.16593228 0.37676126 -0.2379066 0.09682411
-0.03748205 0.23463796 -0.73061025 0.14958 -0.1406581 0.46743536 0.05444496 -0.51672095
-0.65685976 0.4058788 0.14025095 -0.1797428 0.028762385 0.10948243 -0.24996823 -0.25745866
-0.034408923 -0.04060246 -0.18022655 0.036715053 -0.61831707 0.253504 -0.04813285 -0.099624686
0.6237638 -0.0579399 0.12262011 0.3947356 0.32464904 0.13605379 -0.33181638 -0.48260385
-0.19324422 -0.40634057 0.14849624 -0.04282182 -0.09562775 -0.094491035 0.15324691 0.4960463
-0.06925616 0.122051485 0.046368465 -0.18347394 0.13975097 0.049943652 0.16294417 0.37704805
0.13832955 -0.5294838 0.4516144 -0.14764589 -0.62819993 -0.06936664 0.120572254 -0.35101292
0.12884057 0.33556938 0.016239764 -0.091720365 0.32230446 0.0695452 -0.23332258 -0.29373986
0.19544658 -0.0089188805 -0.024034575 -0.0009393011 0.09338241 -0.3197043 0.033413287 0.27369845
0.045695785 -0.10675059 0.013093788 -0.036996644 0.23960368 -0.21884836 0.112969555 0.27049822
0.0767761 -0.24601772 0.1499033 0.0030107703 -0.04470823 0.27078947 -0.30591217 0.12752807
-0.17991263 -0.18129013 0.2106423 -0.15090016 -0.33372673 -0.059403904 -0.10278297 -0.16618131
0.15157303 -0.73290783 -0.3147948 0.032375243 -0.0701691 -0.37959355 0.14612603 -0.4053165
-0.26267353 -0.05365302 0.25618756 -0.09541498 -0.5485779 0.32083192 -0.5655221 0.030569676
-0.17116514 -0.18849054 0.2108777 0.011338529 0.14352651 -0.069918424 -0.15030761 -0.093341984
-0.06961785 0.03349405 0.34211138 -0.022066373 -0.10313184 -0.5130658 -0.1699935 0.2479111
-0.25069442 -0.37886122 0.42870152 -0.20858361 0.034726597 -0.31140432 -0.38494402 0.2407036
0.30649126 0.31683564 0.40918958 -0.107409015 -0.016118294 -0.010251695 -0.16763197 0.40885335
-0.3011439 -0.14186493 0.20159489 0.113701485 -0.2813818 0.17261256 0.09296419 0.4459728

edge_lin.2.bias f4 [32]
00000000: ca41 c1bd a088 a5be 896b e33d 85d5 33be
00000010: d7d2 94bd 2386 5cbe 61b3 11bf a9e1 213e
00000020: 64be 0dbe b4d4 413e 16a0 3d3d 7230 09be
00000030: 5d7f 0bbf b4a2 0d3e 26c7 bbb9 dfd4 bcbd
00000040: 54a0 cb3c 5c31 babd abbb a5bd 489e a93d
00000050: 908e 94be bcc9 37be 6210 a13d 2730 a93d
00000060: 1c14 d7bd de8b b7be baf8 073e cdd5 0f3e
00000070: 8b98 083e da9a e2bc e3d2 afbd 3696 ecbd
-0.094363764 -0.323308 0.11104495 -0.1756192 -0.07266777 -0.21535544 -0.56914335 0.15808739
-0.1384216 0.18928796 0.046295248 -0.13397387 -0.54491216 0.13831598 -0.00035815797 -0.092202894
0.024856724 -0.09091446 -0.080924354 0.08282143 -0.29015017 -0.1794805 0.07864453 0.082611375
-0.105018824 -0.35848898 0.13278475 0.14046402 0.1333944 -0.02766173 -0.08585145 -0.11552088

vertex_output_lin.0.weight f4 [32, 1, 32, 1]
00000000: 9ff9 de3d 694d eb3b 0ad0 313d 33ce a63b
00000010: 27cb 873d dce3 92bd ca1f 29be e90b 33bd
00000020: 4f17 e6bd 8586 04be 9791 10be 54a0 df3a
00000030: b71c 5bbe 3055 0abe 5a85 63bd de79 0f3e
00000040: 1323 b8bd f66a 92bd 5ce8 293e 5393 9b3d
00000050: dec3 4abe 9185 3ebc 7625 16be aa0e aebd
00000060: 7eee 433d 89a3 e2bd 21e9 a83d 0529 babd
00000070: 816c 0d3e fb51 f33d 8694 763d b7a3 39be
00000080: 71f4 9b3e a928 70be 8e37 26be 4c59 12be
00000090: fea6 6d3e 3241 9b3e 8d12 7e3e 36dc a43c
000000a0: 169b 643d 478e c4bd 7f06 7fbe 570e 7c3b
000000b0: 47bc f13c 1e39 7f3c 98c7 bbbd 936a 80bd
000000c0: b2a3 1b3e 884a 063f ba92 11bf 5413 723d
000000d0: 2ce6 e23c cc6d ca3d 8085 bebd 3abd 03bf
000000e0: a589 ac3e fd2c a93c 470b 69be 9bef b6bd
000000f0: e6e6 25be f0f9 e1be 44ee a7be 7e56 07be
00000100: 9c91 73bd 78df 0c3e 53e4 5abd 8571 693d
00000110: 31b4 803a b735 bc3a 1b66 24be 6150 1dbe
00000120: 1a3c f4bd 01bd c7bd be06 54be 07f9 38bd
00000130: 5b7f 4dbd 9c5e 02be 2390 2f3b 55be 25bd
00000140: f528 43bd d2dc 973b 3e85 b0bd 8918 94bc
00000150: ce04 b93c 8049 b7bb 833b 02be 0947 273d
00000160: ae36 21bd 8532 0a3e 86d4 823d 986f 2c3d
00000170: 4302 ae3c d50c cc3c 8fbf 29bd 6258 013d
00000180: a9bd 1abe 057a 523e e99a 4cb9 0b06 3a3e
00000190: 10f1 8dbe f3c4 993d 810a 13be fa70 c93d
000001a0: 98d4 18bc bbda 933d a584 483e 957f 32be
000001b0: 9168 d63d 54c6 de3b e046 b83d 8feb adbe
000001c0: c383 9a3e 76e8 533e 0bbc 2abf 2fc8 b53e
000001d0: 413f 203d b118 7d3e 8d11 fa3d 9d19 a23d
000001e0: 5400 4a3e da94 013e 928c 623e 32ee ff3a
000001f0: 6295 1d3d eb52 0cbf 92ed 8fbe bf88 34bf
00000200: 5521 44be 7639 9f3e cb5e 07be aa73 803e
00000210: ccd0 063c 9dd4 0fbe 6d13 193f d51e 0dbd
00000220: bf2b 883c ed15 adbd b79b 813d bd6c 013e
00000230: 5cef f93e f0bb f6bd e95a cd3c d143 073c
00000240: c7ae 91bc 3f47 4b3e d552 efbd adb4 dabd
00000250: 4e24 d23e 2432 da3d 6d2d e73c dd43 babc
00000260: 078a 2bbe 4dae a83e d761 563d 22a1 75be
00000270: 9af8 003e 63b9 8c3d 5edd 863d f674 ccbd
00000280: 25d2 ffbc 9f50 363e f029 a9be 50e0 efbd
00000290: 6b2c 8bbe bdfb 8dbd b2b0 8f3e 62f7 b1be
000002a0: 939d 97be 55b1 64be ca3d 30bd b249 d1bd
000002b0: 22e5 383f 3707 4b3e 6298 86be 476c 91be
000002c0: 3770 1b3e 508a a23e 67e0 ebbe 267d a13e
000002d0: a3cf 873e a9fc a5bc e136 b6be 4e94 74be
000002e0: 42f2 b13e 35cc c7bc ad63 67be 3e02 ffbe
000002f0: ba97 cdbe e8d0 8fbb 8e82 0bbe aae5 64be
00000300: 9cbe 603e a28f 66be c4b6 06bd 122f 30be
00000310: 94cb 59bd b942 23be 4c84 0abf ff5b 19be
00000320: ab52 3fbd 1dc8 4cbe bbea b3bd e0de 373c
00000330: 729a 07bf 6fcf 623e c4cb f43c 2b65 bebe
00000340: e395 033e 9bfb 05bf 5d37 ad3d 329b 00be
00000350: c30b 37be 3a41 edbe 6ba5 c5bd 8fcb 163e
00000360: b590 12be eb52 53be b932 d8bd d12e e23d
00000370: 1d1d 39be cc09 33bd e558 fcbd c86f 6ebe
00000380: 6757 8fbd 50ab 5fbd 5753 9e3d 675f 863c
00000390: 8564 c63d 0854 86be 0872 f1be e6e8 1ebe
000003a0: 0607 f7be 35bc 1f3e 3955 923e fe14 cd3e
000003b0: bcf8 163e 09ca e43c fcbe f0bd 482b 24be
000003c0: af6e cc3e 577d 00bc d96e 27bf 396a 643e
000003d0: da85 d6bd 9cb3 c13e f137 76be fccc 24be
000003e0: 5e0f 023e bccb 2cbe 33ef b63e 0696 1d3e
000003f0: e881 853e 8499 c1be d80e e1be fcd9 85be
0.10887455 0.007180859 0.043411292 0.005090499 0.06630545 -0.07172367 -0.16516033 -0.04371253
-0.112349145 -0.1294194 -0.14118038 0.0017061331 -0.21397673 -0.13509059 -0.055547096 0.14011332
-0.08991065 -0.071493074 0.16592544 0.07596459 -0.1980128 -0.011628524 -0.14662728 -0.08498891
0.047834866 -0.11066348 0.08247591 -0.09089855 0.13810922 0.11880871 0.060200237 -0.18128859
0.30459931 -0.2345301 -0.1623213 -0.14291877 0.23208234 0.30323178 0.24811764 0.020124536
0.055811964 -0.0959745 -0.24904822 0.0038460696 0.029508723 0.015577583 -0.09168929 -0.062703274
0.15199164 0.52457476 -0.5686451 0.059100464 0.027697645 0.09884223 -0.09302807 -0.5146061
0.33698764 0.020651335 -0.22758208 -0.0893242 -0.16201362 -0.44136 -0.3279897 -0.13216588
-0.059465036 0.13757122 -0.053440403 0.056993026 0.0009819326 0.001435927 -0.16054575 -0.15362693
-0.11925526 -0.097528465 -0.20705697 -0.045159366 -0.050170284 -0.12731403 0.0026788793 -0.040464718
-0.04764648 0.004634478 -0.08619164 -0.018078106 0.022585299 -0.0055934787 -0.12718014 0.04083923
-0.039358787 0.13495834 0.06388192 0.04209861 0.021241313 0.024908463 -0.04144245 0.03157843
-0.15111412 0.2055436 -0.00019512665 0.18166368 -0.2772298 0.07508268 -0.14359476 0.09836002
-0.00932803 0.07219454 0.1958185 -0.17431481 0.10469163 0.006798545 0.08997893 -0.3396878
0.3017865 0.20694146 -0.6669318 0.3550429 0.039122824 0.2471645 0.12210379 0.079150416
0.19726688 0.12654439 0.22123936 0.0019525944 0.03847254 -0.5481402 -0.2811094 -0.7052116
-0.1915334 0.31098527 -0.13219754 0.25088245 0.008228492 -0.1404595 0.59795266 -0.03445323
0.016622422 -0.08451448 0.063285284 0.12639137 0.4881543 -0.12047565 0.025067763 0.008255915
-0.017783536 0.19851397 -0.11685721 -0.106789924 0.41043323 0.10654095 0.028219903 -0.022737438
-0.16751872 0.3294548 0.0523394 -0.23987249 0.12594834 0.06871297 0.06585191 -0.09983246
-0.031228134 0.17804192 -0.33039808 -0.11712706 -0.27182326 -0.06932781 0.28064495 -0.3475905
-0.29612407 -0.22333272 -0.043027677 -0.102191344 0.7222463 0.19826971 -0.26288134 -0.28402922
0.15179525 0.3174615 -0.46069643 0.31540793 0.26525602 -0.02026208 -0.35588744 -0.23884699
0.3475514 -0.024389366 -0.22596617 -0.49806398 -0.4015482 -0.0043889172 -0.13624021 -0.22353235
0.21947712 -0.22515729 -0.032889143 -0.17205456 -0.053172663 -0.15943421 -0.5410812 -0.149765
-0.046709698 -0.19998212 -0.08785006 0.011222571 -0.5297004 0.22149442 0.02988232 -0.3718656
0.12850146 -0.52337044 0.08457825 -0.12559202 -0.1787558 -0.46338826 -0.096506916 0.14726089
-0.14313014 -0.206371 -0.105565496 0.11044086 -0.18077512 -0.043710515 -0.12321643 -0.23284829
-0.069990925 -0.054606736 0.077307396 0.016402913 0.09687141 -0.26235986 -0.4715731 -0.15518531
-0.48247546 0.15599139 0.28580645 0.40055078 0.14743322 0.02792837 -0.117551774 -0.16032135
0.39928195 -0.007842383 -0.65403515 0.22306146 -0.10474749 0.37832344 -0.24044777 -0.1609382
0.12701175 -0.16874593 0.3572937 0.1538926 0.26075673 -0.37812436 -0.43956637 -0.2614287

vertex_output_lin.0.bias f4 [32]
00000000: 8fc6 29be cb36 88be 19d3 f53b cc9f f73d
00000010: 9adf 7bbc 9f08 0e3e 8a65 03be f47a 623e
00000020: f583 0cbe 2d8c 5ebe 7d2e 2ebc 349e 98be
00000030: c3d7 853d 182d 55bb aa81 5fbe ea8a e53d
00000040: ce74 a4bd b40a 9dbd bc40 873c 0820 f3bb
00000050: aaae 523e 4dc1 863c c16b 0dbe ad39 c23e
00000060: 3621 a6bd 18e5 41be 8acb 46bc ed12 4bbe
00000070: e072 0bbe d816 a13d 9d23 fb3d dffd 04bc
-0.1657965 -0.26604304 0.0075019714 0.12091026 -0.015373135 0.13870476 -0.12831703 0.22117215
-0.13722213 -0.2173316 -0.010631201 -0.298082 0.06535294 -0.0032528099 -0.21826807 0.112081364
-0.08030091 -0.07668057 0.01651036 -0.00741959 0.20574442 0.016449595 -0.13810636 0.37934628
-0.08111803 -0.18935049 -0.012133488 -0.19831438 -0.1361804 0.07865685 0.12262652 -0.008117168

vertex_output_lin.2.weight f4 [1, 32, 1, 1]
00000000: 2dbb 243c 563f 9fbe 4b52 283b cafc b5be
00000010: b3aa 54bd 1f65 bebe 2429 833d 64ac d6be
00000020: 9efd 313e bbc4 3dbd 444f 08bf 416f e9bc
00000030: 62e6 b9be 0e19 0dbd 3275 ebbe c1e5 743e
00000040: 4420 f2be 318d 94bb 6936 193e e358 82bb
00000050: e396 aabe b711 353e e8e4 55bf fead 393e
00000060: 0e8c 953c 23ea 69bd decd 98be 8c66 d13b
00000070: 1fd0 26bd 706c 90be 9276 913d f286 99be
0.010054392 -0.3110301 0.0025683816 -0.35544425 -0.051920604 -0.37186524 0.06404331 -0.419284
0.17381904 -0.046330195 -0.5324595 -0.028495433 -0.3630858 -0.034447722 -0.4598785 0.23915769
-0.47290242 -0.004533433 0.14962162 -0.0039778813 -0.33318242 0.17682539 -0.8355241 0.18132779
0.01825526 -0.057108056 -0.29844564 0.0063903984 -0.040725823 -0.2820773 0.071026936 -0.29985768

graph_output_lin.0.weight f4 [1, 618]
00000000: 26d4 89bc 31c6 313d 89bb 92bd 8fef 50be
00000010: ff06 913d 9881 c2bc ac6d 0ebc 5aa8 71bb
00000020: b01b 13be a393 eabd 84bd dabc b958 723e
00000030: e87a 8dbe a814 1c3e ed1c 5b3e dfc6 14be
00000040: 2e4a 613e a505 d83d ae18 77be dd0a 873d
00000050: 5b3f 5cbe 406e fb3d a367 913c 658b 85be
00000060: b1ac 803d cbb9 b8bd 6e3d 31be 762c bdbe
00000070: 5f99 ffbd fe52 2bbf 4f4b 49be c78d 09be
00000080: bd55 a0bd aebd b0be faa5 0f3d d3c8 4fbd
00000090: ecdd 32be 17b3 fe3c b078 793e 770a 2dbd
000000a0: 4002 cabd e6ff 4abe e5f5 f2bd d85b c23d
000000b0: 36fe 093e 2da3 15bc fb7e b73d 0a0c 493e
000000c0: eadb c5be 9efd 24be 2679 31bb 334a 753d
000000d0: 6125 82bc f226 d33c 5b7a 93be 841e 07bd
000000e0: bc16 0ebe 3fa6 113e 638b 3b3e 1b7e e3be
000000f0: 46b1 573c 7ced 9dba 6aff cc3c ed72 38bd
00000100: c2e0 a0be 9aea 633a 1eed 983d 41a0 1b3d
00000110: 0fa2 a03e b2b9 12be 3d1b 9abe 3b1a 26bf
00000120: 1f13 1b3d 4250 c43c b2e2 adbc 6f48 fdbd
00000130: 757f 3e3d fe8f 86bc b7ce cebc 899a 9a3e
00000140: 69a0 86be 006b 9f3d 0de1 b13d 9b48 633e
00000150: 0d3c f1bc fed6 7abe b25b cebd 1bfc 88be
00000160: 6e41 263d 416e 42be cf29 aabc 40f4 973d
00000170: 42bb e4bb 6d08 76bc cec0 d0bd 5556 6fbe
00000180: 3155 b8bc 3a0d 51bd 6f8b 0dbf bafb 993d
00000190: 9bcb 9fbe 43e5 08bd d19e 44be b39a dabe
000001a0: 579d bc3c c892 293d 4f28 24be 5002 1fbe
000001b0: 0540 c7be 3169 6a3e 27eb db3d d8ee 85be
000001c0: ded3 023d a3db 16bc 9a73 ee3e f11d 773e
000001d0: 36b6 093d 6702 d93e 65a2 4abe d9f1 233e
000001e0: 6b1d 373e 97a3 c43d 6c39 723c 2828 323e
000001f0: 43de 58bd 9113 0dbf 94e1 ba3c 506b 8fbe
00000200: 1216 54be 41a8 98bd 0d42 9b3e ef83 1f3e
00000210: a0aa 77be f409 7c3d d6c1 5fbe 9c78 fcbd
00000220: 73d2 a1be 70a9 c3bd 10d4 d7bd e317 66bc
00000230: 9dad a7bd 8dcd 27be 871a 86be 3685 233e
00000240: 66e9 e23e 71ff 083e 933f 223e 3bd0 173e
00000250: 5dc6 b83d a7b7 7abe e2bd 53be 3ec6 ce3d
00000260: 9d43 58bc 848b a4bd 7591 2c3d e0c0 51bc
00000270: 0910 95bd 8a9f 23be db57 5cbd 0c77 113d
00000280: 6f84 473e 42a3 00be 43d9 653e 00a7 bebe
00000290: 89f1 cc3d b552 6a3e 4577 cc3d 4434 83bd
000002a0: 49ad 9a3d bf6b 91bd a3d1 de3d 1a6c c33d
000002b0: 0bc2 02bd 99ca 893e 3589 603d 8532 f93d
000002c0: 33dd d83c fab3 35be 5803 5cbe 41f9 8bbe
000002d0: ee6f 17be 0bdf 98be de46 c5bd f67a ee3d
000002e0: 49d6 513e d139 bd3d b49b efbd 923c 4abe
000002f0: 99f7 2b3e 1636 dfbe a793 1abe e4c0 a93e
00000300: 1e77 c73d da2c 44bc 6625 65be 91a0 3fbe
00000310: d150 63be 72cf 1b3e bc11 173d 6b3c 8b3d
00000320: 568e 703e 90d9 a8be c171 fdbd 62db d23d
00000330: 2d76 38be 7790 d03e aa13 223e f70a 3abd
00000340: b395 6f3d f8c0 54bd 83ff ac3d 7e1f b13e
00000350: accb b4bd 9951 c4bb 4d7f a23d 13d9 7dbe
00000360: 66af cdbd eb94 a43d f06f 7b3d cb1f d43e
00000370: 8e31 8fbd 7369 dcbc 747d 09be dcba b43d
00000380: 7db9 1c3e fc36 603e c551 3c3e eeb7 053d
00000390: 262b 513d 6bdd 8cbd c292 783d ec6f 3bbe
000003a0: 1b3a 763c 6d3a 82bd c4f2 613e f3dc 40be
000003b0: 4381 a9bc 06b2 c5be 4ddc df3d 9e71 9dbe
000003c0: 103e d33c 143b 8ebe 545f 223d 101f d1bd
000003d0: eb1c aabd 7640 f33b 9003 31be 6b36 123e
000003e0: ec65 a2be 84ce 253d 7bd4 223b 190d e8bc
000003f0: eb3e 5ebd 467d cf3c 7e61 c4bd 8818 ac3d
-0.016824793 0.0434019 -0.07164676 -0.20403884 0.070814125 -0.023743436 -0.00869314 -0.0036874027
-0.1436603 -0.11453941 -0.026701696 0.23666658 -0.27632833 0.15242255 0.21397753 -0.14528988
0.22000954 0.105479516 -0.24130508 0.06593869 -0.21508543 0.12276888 0.017749613 -0.26082912
0.06282938 -0.09019812 -0.1730859 -0.36947984 -0.12480425 -0.6692351 -0.19657634 -0.1343299
-0.07828853 -0.34519714 0.035070397 -0.05072863 -0.17467469 0.031091256 0.24362445 -0.04224631
-0.098637104 -0.1982418 -0.11863307 0.09490174 0.1347588 -0.009133142 0.089597665 0.19633499
-0.38644344 -0.16112372 -0.0027080267 0.059885215 -0.015886964 0.025775407 -0.28804287 -0.032988086
-0.1387586 0.14223574 0.1831489 -0.44432148 0.013164824 -0.0012048925 0.025024135 -0.045031477
-0.31421477 0.0008694321 0.074671015 0.037994627 0.3137364 -0.1432865 -0.30098906 -0.64883775
0.037860032 0.023964051 -0.02122626 -0.12367331 0.04650827 -0.016426083 -0.025245054 0.30196026
-0.26294258 0.077840805 0.08685503 0.22195666 -0.02944758 -0.24496076 -0.10076083 -0.2675484
0.040589742 -0.18987371 -0.020771889 0.07419634 -0.0069803307 -0.015016657 -0.101930246 -0.23372777
-0.02250156 -0.051038004 -0.55290884 0.07518716 -0.31210026 -0.033421766 -0.19201209 -0.4269615
0.023024244 0.041399747 -0.16031002 -0.15528226 -0.3891603 0.2289169 0.10738211 -0.26158786
0.031940334 -0.009207639 0.46572572 0.24132515 0.033621036 0.42384645 -0.19788511 0.16010226
0.17882316 0.09601515 0.014784198 0.17398131 -0.05294634 -0.5510798 0.022812642 -0.2801156
-0.20711544 -0.07453967 0.3032383 0.15577672 -0.24186182 0.06153293 -0.21851286 -0.12327692
-0.31605873 -0.09553802 -0.105384946 -0.014043781 -0.08187411 -0.16387005 -0.26192114 0.15968785
0.44318694 0.13378693 0.15844564 0.14825527 0.0902221 -0.2448412 -0.20677903 0.100964054
-0.013199714 -0.08034423 0.042130906 -0.012802333 -0.07278449 -0.15978828 -0.053794723 0.035513923
0.19484113 -0.12562278 0.2244616 -0.37236786 0.10007007 0.22883113 0.09983686 -0.06406453
0.07552583 -0.07100629 0.10879829 0.09542103 -0.031923335 0.26912382 0.05481835 0.12167839
0.026472664 -0.17744437 -0.2148565 -0.27338603 -0.14788792 -0.29857668 -0.096326575 0.11644547
0.204919 0.09239543 -0.1169962 -0.19749668 0.1679367 -0.43595952 -0.15095387 0.33154976
0.09739517 -0.011973584 -0.22377548 -0.18713595 -0.22198798 0.15215853 0.036882147 0.06798633
0.23491797 -0.32978487 -0.123752125 0.1029575 -0.1801383 0.40735218 0.15827814 -0.045420613
0.058492374 -0.05194184 0.084471725 0.3459434 -0.0882791 -0.0059911725 0.07934437 -0.24789838
-0.1004322 0.08036216 0.06138605 0.41430506 -0.06991874 -0.02690575 -0.13426763 0.08824703
0.15305133 0.21895975 0.18390568 0.032646112 0.05106654 -0.068781696 0.060686834 -0.18304414
0.015028502 -0.063588 0.22065264 -0.18834285 -0.02069152 -0.38612384 0.10930691 -0.30750746
0.02578643 -0.27779448 0.039641693 -0.10211003 -0.08306297 0.007423456 -0.17286515 0.14278571
-0.31718385 0.04048015 0.0024845887 -0.028326558 -0.054259222 0.02532829 -0.09588908 0.084031165

x_lin_after_first_round.0.weight f4 [32, 1, 32, 1]
00000000: 4251 883e 6c19 313d d007 80be 5c91 57bf
00000010: 4125 34bf 98e9 013e 3b34 4c3e 15ac 30be
00000020: 3586 a9be b2c8 f7be 9af4 c33d 34eb df3d
00000030: 0724 d93e 9191 6ebe 923e 2abf 142b 52bc
00000040: ac95 c03d 5b47 06be bfb4 81be 95f6 aa3c
00000050: baa3 07be 6034 a53e 5802 a7be 15d9 b43d
00000060: e181 e5bc efca c03e 7b86 aabd 3088 e8bc
00000070: 2432 e6be 89c4 54be 3ef9 84be 82b4 73bc
00000080: de35 913d 2c42 60be 8ad5 1e3e a843 033e
00000090: 5e12 49be 6291 7a3e 6476 563e 6594 ad3d
000000a0: 8a00 7b3e 6e00 c23d 05bf 1dbe 3f26 a63d
000000b0: 7ea4 a2be 307f 42be 64d4 0ebe dbae e93d
000000c0: c820 74be 87ab 223c 4c98 ce3e 6ea0 4fbe
000000d0: c578 e43b 36e6 cabd 7c6e 863d 7428 3b3e
000000e0: 81ce cebd 38e5 27be f77d 943d c946 86be
000000f0: 0919 893e 2be5 cd3e 1ad9 853e 85fe 87bc
00000100: ce84 70be 5daf aa3e 8812 8dbe c2fb 0dbf
00000110: 45ad adbe 0776 a8be 8634 f93d 144d 1bbe
00000120: d8c2 1bbe 8289 bebe 1c22 723e cd36 15be
00000130: d4fa b33e 3ffe 003c bbb3 0bbe 8461 793c
00000140: 1370 68bd 8d29 233c 76ce 013e d9fe 78bc
00000150: 09d8 3abe 3353 593d 9e96 81bd b77f 00be
00000160: 741c f93d b5c5 d23e 1965 b03e f28c 2d3e
00000170: ad38 cbbc 3da4 11bc 53c6 abbe a9e9 37be
00000180: 03ab d53c c278 bf3e 53a7 e2bd e0f8 babe
00000190: 298a d6be 351e a7be b27f 75bd 7cc5 963c
000001a0: 403c 50bb 608d b5be e913 0e3e 6965 d0bd
000001b0: 62c2 3e3e c8cf 2e3e 9781 bcbd b983 b9bd
000001c0: cd28 d03d 160f d7bc 4111 82be 84d8 d13d
000001d0: 0c1f cabd 3d49 c0be 6b03 13be ef57 5ebe
000001e0: b285 0e3d 0c41 ff3e da8f 6e3e c4d1 9b3d
000001f0: 7939 05bd d3d2 7fbe 5e70 00bf 2bc3 7abe
00000200: c16a 693e 5f95 0a3e 336e 3e3e f540 14bf
00000210: 2226 6d3e f76c c0bc f86c 79be 22bc 913e
00000220: 509f 483d 04b9 ec3d a809 a2bd 55f3 86bd
00000230: 096f ddbc b1c3 c33e bb44 1dbf 3b43 99bd
00000240: c592 2cbd 92f1 efbd f0e9 9cbe d1eb 8fbe
00000250: dc79 e2be a249 4abe 7e95 083e 84d3 5c3e
00000260: 9fff 883c a6de 39bf 0162 48bd f2e9 bb3e
00000270: 066b 403e 709d b0bd 0030 fc3d 1fd6 a73e
00000280: 7ec9 99bc dc28 60be 570e b6bd aaa9 883d
00000290: 56e6 d93b 6d74 513e 266a 31be b404 e53e
000002a0: 608e 643e fff5 1fbe c4e9 c1be cc65 3bbe
000002b0: 8de5 13be 3fab cebc d3d3 eabe ee9a 9ebe
000002c0: f99d 5bbe b121 79be 0d19 01bd f40e b3be
000002d0: 92f2 6cbe af3a 18be a748 58be 71a2 9c3d
000002e0: ef1a c73d eab4 b3bc 094c adbd b220 3abd
000002f0: 13fa 07be a71f f63d 9b14 c93d 7009 0d3e
00000300: 257a dabe d0f6 0d3f f557 193e 8a55 bebe
00000310: 3b84 efbd 9a6c 10be 2c1c b7bd f822 303e
00000320: e79d 97be fc49 9dbe 9dd4 0c3d f5ad 3bbe
00000330: b93c 103e 1786 013d 760b 6e3d 4e2b a83d
00000340: 9698 03be 82d6 c3bd 54fa 91be f641 ca3d
00000350: 18c7 e5bd 2715 10bf 8919 04bf c788 f73d
00000360: 27bf d7bd 32a9 fb3d ee1d 343e b121 af3e
00000370: 6db2 c03e 57d3 0dbd d571 a3be ab93 d3be
00000380: 5155 a03e e656 423e c65a 913d 912e 11bf
00000390: 3f31 0b3e b9cf 113e ee2e e0be ff62 a13e
000003a0: bb55 91bd f839 183e 899d 1bbc 7323 83be
000003b0: e81d fdbc e9df a53e 029c 66be 34c5 dcbe
000003c0: ca4d bbbd e3ed d6be be2a 133e 7fec 4d3d
000003d0: 5819 abbe ef62 7abe df7e 0b3e 37f1 cd3d
000003e0: 0cc1 07be db2c 13bf 2070 e1bd 0538 173e
000003f0: a757 41bd fb30 323e 1804 af3e cfe8 a03e
0.26624495 0.043237135 -0.2500596 -0.84206176 -0.70369345 0.12686765 0.199418 -0.17253144
-0.33110204 -0.48395306 0.095681384 0.10933533 0.424103 -0.23297717 -0.66501725 -0.012827653
0.09403548 -0.13113157 -0.2533321 0.020869533 -0.1324605 0.3226652 -0.32618976 0.088304676
-0.028016033 0.37654826 -0.08326431 -0.028385252 -0.4496013 -0.20778097 -0.25971407 -0.014874579
0.070903525 -0.21900243 0.15511146 0.12818778 -0.19635913 0.24469522 0.209436 0.0847557
0.24511924 0.09472738 -0.154049 0.081127636 -0.31766123 -0.1899383 -0.13948208 0.11410304
-0.2384063 0.009928591 0.40350568 -0.20276043 0.0069724047 -0.099071905 0.06564042 0.1827715
-0.10097981 -0.16396034 0.072505884 -0.2622588 0.26776913 0.40213904 0.26142198 -0.016600857
-0.23488161 0.33336917 -0.275532 -0.55462277 -0.33921257 -0.32902548 0.12168221 -0.15166122
-0.15211046 -0.37214285 0.23645824 -0.14571686 0.35152304 0.007873117 -0.1364278 0.015221003
-0.056747507 0.009958637 0.12676415 -0.015197479 -0.18246473 0.05305786 -0.06327556 -0.1254872
0.1216363 0.41166463 0.3445213 0.16948298 -0.024807299 -0.008889255 -0.33549747 -0.17960228
0.026082521 0.37396818 -0.11067071 -0.36518002 -0.41902283 -0.32640234 -0.059936233 0.018404715
-0.0031774193 -0.35459423 0.13874783 -0.101755925 0.18628839 0.1707145 -0.09204405 -0.09058327
0.10164032 -0.02625231 -0.2540379 0.10246375 -0.09869203 -0.37555876 -0.14356773 -0.21713232
0.03479547 0.49854314 0.23297063 0.07608369 -0.032525513 -0.24982767 -0.5017146 -0.24488513
0.2279463 0.13533543 0.18596725 -0.57911617 0.23159078 -0.023489458 -0.24357975 0.28463846
0.048980057 0.115587264 -0.07911998 -0.06589381 -0.027030485 0.38235238 -0.61433 -0.07483526
-0.042132158 -0.11715998 -0.3064723 -0.281096 -0.44233596 -0.19754651 0.13338277 0.21565062
0.016723452 -0.7260536 -0.04892159 0.36701924 0.18790826 -0.08623779 0.12313843 0.3278055
-0.018772837 -0.21890587 -0.08889454 0.06672986 0.0066497726 0.20454569 -0.17325649 0.4473015
0.22319937 -0.15621184 -0.37873662 -0.18300551 -0.14443035 -0.02522814 -0.45864734 -0.30977577
-0.2144698 -0.24329259 -0.03151803 -0.34972346 -0.23139408 -0.14866136 -0.21121465 0.07648171
0.09721934 -0.021936852 -0.08461768 -0.045441337 -0.1327899 0.12017756 0.09818383 0.13773131
-0.42671314 0.5545473 0.14974959 -0.37174636 -0.11695143 -0.14103928 -0.0894092 0.1720084
-0.29612657 -0.30720508 0.03438245 -0.18328078 0.14085664 0.03162202 0.0581164 0.08211385
-0.12851176 -0.095623985 -0.28511298 0.09875862 -0.11219615 -0.56282276 -0.51601464 0.12086635
-0.10534506 0.12288131 0.17589542 0.34205392 0.37636128 -0.034625378 -0.31922784 -0.413236
0.3131509 0.18978462 0.07097392 -0.5671168 0.13593005 0.14239396 -0.43785805 0.3152084
-0.0709643 0.14865863 -0.0094980085 -0.25612983 -0.03089805 0.32397392 -0.2252045 -0.43119204
-0.091456965 -0.41978368 0.14371774 0.05027437 -0.33417773 -0.24451803 0.13622616 0.10055774
-0.13257235 -0.5749032 -0.11007714 0.14767464 -0.047202732 0.17401497 0.3418281 0.3142762

x_lin_after_first_round.0.bias f4 [32]
00000000: aef3 97be a862 1e3c f8d7 b63d 511c 3b3e
00000010: 9672 773b 6f06 cdbe 8013 133e a388 4abc
00000020: bac3 343e 2ee2 ddbc 93eb 04be a46f b9bc
00000030: 2a9d 903e 4ecd cc3d a3f3 91bd 4cdc 87be
00000040: 5d6e b0bd a74e 19be add1 923e bef5 833e
00000050: 519c 2fbd 78a3 eb3d bfa4 5b3d fc91 4cbc
00000060: 6093 8ebe 36ab e0be 456f 223d ded6 f6bd
00000070: 6564 783e dd12 f5bc e0a6 74be e0e8 d2bd
-0.296781 0.009667076 0.089279115 0.1827252 0.0037757508 -0.4004397 0.14362907 -0.012361678
0.17652789 -0.02708539 -0.1298049 -0.022636242 0.28244907 0.10000096 -0.07126548 -0.2653526
-0.086148 -0.1497141 0.28675595 0.25773424 -0.042873684 0.115057886 0.05362391 -0.012485977
-0.27846813 -0.43880624 0.039656896 -0.120527014 0.24257047 -0.029916221 -0.23891783 -0.10298324
