reachability_classification/weights/SimpleMultiplePassGNNReachabilityNet_epoch_35.pt (torch_old, 36685 bytes, 16 tensors)

x_lin.0.weight f4 [32, 1, 1, 11]
000000 ca 5e b1 be 82 ce 0d be 1e 23 98 3b 6f bd 88 be
       -0.3464263 -0.13848308 0.004642858 -0.26707026
000010 f0 0c a8 be 19 f3 2b bd ff 87 9e be e2 25 86 3e
       -0.3282237 -0.041979883 -0.30963132 0.26200777
000020 90 10 21 3d 6f 72 76 bb 57 b8 c4 be 70 fe c6 3e
       0.039322436 -0.0037604829 -0.3842189 0.38865995
000030 4f 40 97 be 77 f9 9d be a6 cd dd 3e f3 65 d7 bc
       -0.2954125 -0.3085439 0.4332096 -0.02629373
000040 f7 74 23 bd 43 78 da be 9e 77 97 3e ef c6 62 bd
       -0.03990647 -0.42669877 0.29583448 -0.0553655
000050 c4 43 58 3e 65 e1 bc bd bb a0 03 bf 4b 8c 1f 3e
       0.211196 -0.09222678 -0.5141713 0.15580861
000060 65 e5 1d 3e f2 ae 3e 3e ff 02 f8 3d 10 0e 6f bd
       0.15419538 0.18621424 0.121099465 -0.05836302
000070 17 50 de 3d 5f 6d f2 3d 6e de b4 3e 6a 46 6e be
       0.1085512 0.11837267 0.3532595 -0.23269048
000080 d7 49 ce 3c ea 35 1e bd 47 d3 57 bb 39 81 a4 be
       0.025181694 -0.038625635 -0.0032932328 -0.3212984
000090 04 ab d4 3e 87 5f 2b 3e bd 80 22 be 0d a2 79 3c
       0.41536725 0.1673566 -0.15869422 0.01523639
0000a0 ee 56 a5 be be 6a cd bd ee ee 67 3e 01 a3 cc be
       -0.32292885 -0.10030125 0.22649738 -0.39968112
0000b0 1f 89 ed bd db b2 1b be 05 14 0c 3d 81 42 0b be
       -0.115984194 -0.15204947 0.03419878 -0.13599588
0000c0 fe 1a fa 3e d1 45 bb 3e 12 6a bc 3e 11 68 81 3e
       0.48848718 0.36576703 0.36799675 0.2527471
0000d0 1c 1e eb be 12 26 aa bd 5f 68 e6 3d 03 70 a0 be
       -0.4592141 -0.083080426 0.11250376 -0.31335458
0000e0 f0 b0 82 be 7d 30 24 3c f2 f3 7f be d7 95 77 be
       -0.25525618 0.010021326 -0.24995402 -0.24178253
0000f0 f1 76 4e be 1e 21 f9 3e bc 83 bf 3e c0 33 4d 3d
       -0.2016256 0.4865808 0.37405193 0.05009818
000100 e3 37 e8 3e 78 47 16 bf d6 ff d7 3d c2 02 d8 3e
       0.45355138 -0.587028 0.10546844 0.42189604
000110 b2 9f 0f 3e 96 5e 20 3e f3 84 9a 3e da 59 8f 3e
       0.14025763 0.15661082 0.30179557 0.2799824
000120 cb 35 a0 3e bd da 36 be 02 eb 93 be 7a cb a6 be
       0.3129104 -0.1785688 -0.28890234 -0.32577115
000130 15 b4 dd bc 49 74 49 3e 14 af ac be 96 c0 ce bd
       -0.027063409 0.19673266 -0.33727324 -0.100953266
000140 77 d7 89 3e af cf 02 be ea 43 45 be bf e7 89 bd
       0.269222 -0.12774538 -0.19264188 -0.06733655
000150 56 e0 6c bd 83 2a 36 bd 9f 1a 7c bf 22 b9 45 3f
       -0.05783113 -0.044474136 -0.9847812 0.77235615
000160 2f ef 9f 3e 96 d3 9a 3e 0a 47 a7 3e a0 14 1a be
       0.3123717 0.30239552 0.32671386 -0.1504693
000170 e2 13 44 bd 7b 77 10 bd 1b 33 10 3e 48 51 81 3e
       -0.047870524 -0.035270195 0.14081995 0.25257325
000180 c8 b6 fd bd ab b6 da bd b8 4c ad 3e 48 d5 9a 3e
       -0.123883784 -0.106793724 0.33847594 0.30240846
000190 bc 50 11 bd 73 e0 e0 3d 2c b8 e9 3e 8b 26 cd bb
       -0.035477385 0.1098031 0.45648324 -0.006260698
0001a0 21 1d 39 be 7b c9 da be 27 5b ff bd 5d d6 f6 3c
       -0.18077518 -0.42731842 -0.12468558 0.030131513
0001b0 ef a2 34 3f 9a bb d5 be ca 2e 6f 3e 03 a2 55 3c
       0.70561117 -0.4174469 0.23357692 0.013039115
0001c0 f4 0b 86 3d f3 9f 0d bf ad ba 46 be ca 71 6a 3e
       0.06545249 -0.5532219 -0.19407149 0.2289497
0001d0 88 98 9e bd a0 3f cd bd d7 2c 89 be 8a 28 54 3e
       -0.07743937 -0.10021901 -0.26792023 0.2071859
0001e0 8f f7 98 be 19 10 61 be 0d a1 8c 3c 65 4b 12 bd
       -0.29876372 -0.21978797 0.017166639 -0.035716433
0001f0 77 28 3e ba 65 ab a2 3d ca d7 ed bd 2d 41 f2 bd
       -0.00072539545 0.07942847 -0.11613424 -0.118288375
000200 1f 07 f2 3d e1 f2 de 3c ee 44 8a be 4b cb 0b be
       0.118177645 0.027215423 -0.27005714 -0.13651769
000210 d0 41 30 be 2d b9 ff 3d 85 5b 99 bd 07 54 bc 3e
       -0.17212605 0.12486491 -0.07488159 0.36782858
000220 fe c9 bf bd 58 bf 52 bd 28 80 c1 3e 85 c0 eb bb
       -0.09364699 -0.05145201 0.37793088 -0.007194581
000230 cf e9 36 bc 20 82 82 3f 4f 72 4a bf 03 79 78 be
       -0.011164143 1.0195961 -0.7908067 -0.24264912
000240 ce 31 0d be 82 8f 0d bd 73 6b c5 3e 66 99 ab 3e
       -0.1378853 -0.034560688 0.3855854 0.3351547
000250 6b 17 af bd 4f 77 16 be a5 8e 33 be 9a 2f 94 3e
       -0.085493885 -0.1469395 -0.17534883 0.28942567
000260 7c 1a 9d 3d 27 35 a0 3d 56 f7 2e 3e c6 8e a2 be
       0.07671067 0.07822638 0.17086539 -0.31749552
000270 d3 9a fe 3e 18 90 e8 be e5 e8 0b 3e ac 6e 61 bd
       0.49727497 -0.45422435 0.13663061 -0.055037186
000280 6c 02 90 be 7a 85 8a 3e 0a bf 3f bc 2d 7f 7f 3d
       -0.28126848 0.2705496 -0.011703262 0.062377144
000290 af 74 da 3e 2e 91 5f 3b 84 04 d8 bd 81 64 2f 3e
       0.42667148 0.0034113633 -0.10547736 0.17128183
0002a0 61 8d 82 3d 40 60 49 3d 8d fb 1b be 87 9f c1 be
       0.06374622 0.049164057 -0.15232678 -0.37817022
0002b0 8f c1 34 be 49 91 93 3e 01 6f d0 3e c3 c0 10 be
       -0.17651962 0.2882178 0.4070969 -0.14136033
0002c0 e5 21 51 3c 98 c8 a7 3c 9c 25 07 bd d6 4d 53 3c
       0.012764429 0.020481393 -0.03299485 0.0128969755
0002d0 0c 76 41 3e a6 44 4e 3e 7a 20 8a 3c 04 a3 8e 3e
       0.18892688 0.20143375 0.01686119 0.27858746
0002e0 97 94 60 3e ec b8 3c be d1 a5 ff 3e 35 74 5f be
       0.21931683 -0.18429917 0.49931195 -0.21821673
0002f0 62 98 92 3d 37 6b 4b 3a 59 16 7b be 58 78 bf be
       0.07157971 0.00077598117 -0.24520244 -0.37396502
000300 7f ec f6 3d 04 f2 24 be 5b 40 ad 3e e2 55 87 3e
       0.12056827 -0.16107947 0.33838162 0.2643271
000310 c1 e3 39 3f 30 e8 49 bf 14 44 a3 3b a7 ba a4 3e
       0.7261315 -0.78869915 0.004982481 0.32173654
000320 4a 33 ae 3d 2a ae 8d 3e ce 06 36 3d 47 ef 24 bd
       0.08505876 0.2767194 0.044440083 -0.040267255
000330 46 82 dc 3d 06 46 c8 3d 48 5f 14 c0 84 f6 5d 3e
       0.10767035 0.09778981 -2.3183155 0.2167607
000340 99 d2 8a bd bd 37 a7 3e 96 fe ce 3d c7 ca 48 be
       -0.067784496 0.32659712 0.10107152 -0.19608603
000350 97 d2 19 be 11 4c ca 3e 3f d3 0b 3e b8 c0 45 3e
       -0.1502174 0.3951116 0.13654803 0.19311798
000360 d6 ff c5 be b4 e7 4b 3d e1 3c 68 3f dd c3 87 3d
       -0.3867175 0.049781516 0.90717894 0.06629155
000370 1d fc 71 be 51 8f 50 3e f7 3b 2e bc 52 62 05 3d
       -0.2363133 0.20367171 -0.010634414 0.03256447
000380 1a fc 68 3e 7a 6b 1d be 7a f0 0d be 4e 44 6a 3e
       0.22752419 -0.1537303 -0.13861266 0.22877619
000390 99 cb 8d be 4d 6a 64 be 0b cb 2c bd 74 bb 96 3e
       -0.27694395 -0.22306176 -0.042185824 0.2943989
0003a0 bd 5c e8 3d 1f f7 17 3e a9 0d 28 3d 90 c7 16 be
       0.113458134 0.14840363 0.041028652 -0.14724565
0003b0 a7 8c 1e bf 01 40 8f 3d 70 95 35 3e 16 a0 ad 3d
       -0.6193337 0.0699463 0.17732787 0.084777996
0003c0 54 62 ca be 10 5f de bd 9e 60 ba 3d 41 9f 56 be
       -0.39528143 -0.108579755 0.091004595 -0.20959188
0003d0 22 19 d2 be 10 27 18 bc e4 f5 83 3d ca b4 95 be
       -0.410348 -0.009286657 0.06443384 -0.29239494
0003e0 37 73 b9 bc 17 04 37 bd 9d 72 e6 bc d4 46 3d 3f
       -0.022637947 -0.044681635 -0.028130824 0.739362
0003f0 62 84 c6 be 23 a1 1a bd 5c 06 5a bd 90 45 58 3e
       -0.38772875 -0.03775133 -0.05322872 0.21120286

x_lin.0.bias f4 [32]
000000 2c e0 6e 3d 89 ea 19 3c 7b 71 ab bd 88 d2 48 be
       0.058319256 0.009394296 -0.08371254 -0.19611561
000010 2a c5 41 be 4b 7a be bb fb 3a 87 bb 02 a1 4c 3d
       -0.18922868 -0.0058129183 -0.004126904 0.049958237
000020 c2 5c 5d 3d 9b 45 4b 3e e0 72 94 bc c6 7e 98 3d
       0.05404354 0.19850771 -0.018121183 0.07446055
000030 4b 1a 8f 3e b0 1d 0f 3e 99 3c ae 3e 2e d7 b8 be
       0.27949747 0.13976169 0.34030607 -0.3610167
000040 63 ec e9 3e 9c 18 c7 bb 1e 17 ac 3e 11 3f 9f bd
       0.4568816 -0.0060759317 0.33611387 -0.07775701
000050 92 f9 40 be e7 6f 1b be 24 d7 2c 3e 51 fb 1a be
       -0.18845204 -0.15179406 0.16878945 -0.15134932
000060 bf 1c 73 be c9 95 a4 3d c5 d5 3b 3e 5a e8 91 be
       -0.23741435 0.08036382 0.18343265 -0.28497583
000070 ee b6 8e 3e c1 76 b6 be bd a0 5a 3e 77 4f 81 be
       0.2787394 -0.35637477 0.2135038 -0.2525594

x_lin.2.weight f4 [32, 32, 1, 1]
000000 83 71 b3 3d 40 28 ec 3d d1 d8 c4 be 39 f6 28 3e
       0.08761885 0.115311146 -0.38446668 0.16500176
000010 21 78 dd bc a0 10 f0 3d bd fd a4 3d 70 c8 5d 3e
       -0.027034821 0.11721921 0.08056209 0.21658492
000020 10 69 bf bd 20 04 9a be 1a 37 cc bd 12 3b 07 3e
       -0.09346211 -0.30081272 -0.09971447 0.13206127
000030 a0 de 18 be 16 e6 47 3e 77 17 23 bd dd 4a b4 bd
       -0.14928675 0.19521365 -0.0398173 -0.088033415
000040 34 2d 7a 3e bd 28 6b 3e dd e3 d8 bd f7 04 1b bf
       0.24431306 0.22964759 -0.105903365 -0.6055445
000050 9b cd c9 3c ae ac bf 3d ce 1e c8 bc b4 30 fd bd
       0.024634173 0.09359108 -0.024428751 -0.12362805
000060 15 26 82 3d 5c 04 8f be d7 5d ee 3d d2 0a 11 bd
       0.0635492 -0.27933013 0.11638992 -0.03541071
000070 9e bf 80 3e 75 2b 2e 3e 10 32 c4 bd 84 ae 7d bc
       0.25146192 0.17008765 -0.09579861 -0.015483502
000080 0e 88 6c 3e 86 27 b2 3e 46 65 61 be ee 1d a8 bd
       0.23098776 0.3479578 -0.22011289 -0.08208834
000090 d0 5d d0 3d e4 a6 09 3e 74 57 9d bd c3 fc 1e be
       0.10174143 0.1344257 -0.07682696 -0.15526108
0000a0 b8 31 4d be 62 52 fd 3d 64 0e 98 3d f5 55 5b bd
       -0.20038497 0.12369229 0.0742462 -0.053548772
0000b0 02 48 9e 3e fe 91 eb bd 4a bd c9 3d 01 02 82 bd
       0.30914313 -0.11502455 0.09850557 -0.063480385
0000c0 55 5d f6 bd e4 47 89 3e d3 5c 5e 3d 08 73 0d bf
       -0.120295204 0.2681266 0.054287743 -0.5525365
0000d0 a6 53 de bd 23 0f 10 be 7f 77 6d 3d 21 60 58 be
       -0.108557984 -0.14068274 0.05797529 -0.2113042
0000e0 5c 5a 8c be ef b0 e8 be 73 90 0e 3e 17 53 a7 3c
       -0.2741269 -0.4544749 0.1392229 0.020425363
0000f0 fb 26 91 be 7a 26 fb 3d 14 52 dc 3e a6 f8 d7 3d
       -0.28350052 0.12263198 0.4303137 0.10545473
000100 43 4c 0c be 2c 5d e8 be 88 05 2f 3c a9 36 8c be
       -0.13700967 -0.45383584 0.010682471 -0.27385452
000110 bd d1 64 3d dc 7c 9e 3e 44 db a7 bc 8d 7c fd bc
       0.055864085 0.30954635 -0.020490296 -0.03094318
000120 fc f6 23 3d e7 12 2c be c7 df 8d bd d8 72 0b be
       0.040030465 -0.16804086 -0.06927448 -0.13618028
000130 98 e4 fd 3d 26 98 8a be 49 7b 86 3e 1c 77 6f be
       0.123971164 -0.27069205 0.26265934 -0.2338528
000140 cc b4 24 3e ef d4 8c 3d ff 48 9a be db a3 71 3e
       0.16084594 0.06876551 -0.30133817 0.23597662
000150 d3 19 91 bd 12 8d 42 bb b0 cd e5 bd a6 6b 8c 3e
       -0.07085004 -0.0029686135 -0.112208724 0.2742588
000160 ab b3 62 bd 29 82 45 3e b5 2e c4 3e bc f8 d2 bd
       -0.055347126 0.19287933 0.38316885 -0.103013486
000170 29 a4 52 be a3 c3 14 bd f6 4c 7d 3e 3b 48 c8 3d
       -0.20570435 -0.036319386 0.2473639 0.09779402
000180 42 0c 1f be 04 85 9e 3c 52 11 e8 bd c7 ef 2b 3d
       -0.1553202 0.019350536 -0.113314286 0.041976716
000190 f8 f6 e8 bd f7 a0 a3 3e ac 4d e5 bd c2 ea f3 be
       -0.113752306 0.31958744 -0.11196455 -0.47640043
0001a0 df 23 8d be ef 55 b6 3c 2f d6 09 bd f9 ac 16 3e
       -0.2756643 0.022257773 -0.033651527 0.14714421
0001b0 c1 88 39 3e a1 83 dd 3d 18 a1 8b 3e 73 e1 39 3d
       0.18118574 0.10816122 0.27271342 0.04538102
0001c0 41 5c 2a 3d 00 96 ef bc 3c 6f 90 bd ba c4 46 3e
       0.041591886 -0.02924633 -0.07052466 0.19410983
0001d0 44 ee 08 be c0 f4 4d 3e 8d c5 8a 3e 4a b3 02 be
       -0.13372141 0.20112896 0.27103844 -0.12763706
0001e0 4a 82 e2 3d 36 b5 1c 3e 9d 4e 81 3e a0 b3 56 bd
       0.11060007 0.15303501 0.2525529 -0.052417397
0001f0 08 14 4e bc 9d 51 21 bf e4 9b 41 be 8e 66 09 bf
       -0.012578018 -0.63015157 -0.18907124 -0.5367211
000200 65 2b a6 3d 4b 25 17 bf 5e 73 88 3d 96 3a bc 3d
       0.081137456 -0.5904128 0.066626295 0.09190862
000210 3b 0d 82 be 3e 84 af 3d e1 6a 85 3d 22 53 46 3e
       -0.2540072 0.08570145 0.06514526 0.1936765
000220 e4 86 51 be f1 ff 90 be ee 98 22 3e 8e 55 70 bd
       -0.20461613 -0.28320268 0.1587865 -0.05867534
000230 ae 87 df bd a4 fb 1b bc 60 7c 39 3e 5c 2a ad be
       -0.10914551 -0.009520445 0.18113852 -0.3382138
000240 ab d2 57 be 97 8d b8 be dd df 0c 3f 9b d6 e1 3d
       -0.21076457 -0.36045524 0.5502909 0.11027261
000250 98 4b 52 3e 04 77 8f be 51 02 9f bd b5 16 82 3e
       0.20536649 -0.2802049 -0.07764114 0.2540795
000260 c4 69 79 bd 9c 14 d6 bd 12 2f a2 3e ca 65 f9 be
       -0.06089188 -0.1045315 0.31676537 -0.4871047
000270 68 4d ae 3e 62 9d 60 be 8a 7d c0 3e d0 9c f6 3d
       0.3404343 -0.21935037 0.3759578 0.12041628
000280 40 92 13 be 22 1a c3 bd eb 60 0f be 95 08 44 3c
       -0.14411259 -0.09526469 -0.14001815 0.011964937
000290 86 b4 29 be 56 81 bb bd df d4 c8 bd 55 b2 b2 be
       -0.1657277 -0.09155528 -0.09806227 -0.34901682
0002a0 ab 15 60 3e 35 20 5c 3e 74 e1 7b 3e b4 a9 4b 3d
       0.21883266 0.21496661 0.24597722 0.04972239
0002b0 8b 29 1d 3d 63 14 30 be 28 18 87 3e 38 f7 b7 3d
       0.038369697 -0.17195277 0.26385617 0.089827
0002c0 6e f8 3a be 43 d8 62 be f8 a2 68 bf 60 be 01 3d
       -0.18258831 -0.2215281 -0.9087367 0.031675696
0002d0 34 f0 b0 bd 3a 1c 80 be b5 1a 15 be bf 49 e4 bc
       -0.08639565 -0.25021535 -0.14560969 -0.027867196
0002e0 6b 0f 7c 3e 9a 28 a8 be 36 1c b4 3e cc 61 91 3e
       0.24615256 -0.32843477 0.35177773 0.28394926
0002f0 41 5d 0f bf af fc b9 be 29 2c b2 be eb df e6 bd
       -0.5600167 -0.36325595 -0.34799317 -0.11273178
000300 60 56 ac be 3e 1a 24 bd dd f6 19 3e b4 8b 2d 3e
       -0.3365965 -0.04006409 0.15035577 0.16947824
000310 60 da f7 bd b6 84 5f 3d 05 b9 83 bd ce 3c 07 3e
       -0.121021986 0.054569922 -0.06431774 0.13206789
000320 d5 02 91 be 50 09 8a 3d 1c eb 83 bd 7b 40 e3 3d
       -0.28322473 0.067400575 -0.06441328 0.11096283
000330 8c 02 81 3e 6c fa 50 be 14 32 b3 bd 6a d8 41 be
       0.25197256 -0.20408028 -0.08749786 -0.18930212
000340 8d 62 58 be 4c 87 d7 be c1 d6 0c 3f 65 00 b9 bc
       -0.21131344 -0.4209541 0.5501519 -0.022583196
000350 78 29 81 bd e4 6e b4 bd 7d b8 c5 3d 80 be a6 3c
       -0.06306738 -0.08810213 0.09654329 0.02035451
000360 f7 de 78 be 63 1f c4 3d 49 20 c7 be 17 e9 df be
       -0.24303804 0.09576299 -0.3889182 -0.4373252
000370 09 ec 09 bf f3 e4 31 3e 46 73 91 be c0 94 86 3e
       -0.53875786 0.17372493 -0.2840826 0.26285362
000380 f9 30 66 3c da ac 68 be c9 9b c9 3c 4d ac 7d 3d
       0.014049762 -0.22722188 0.024610417 0.061931897
000390 1b c1 55 3e a4 74 c1 bd 28 7a b0 3c 31 33 92 3e
       0.20874445 -0.094460756 0.021542624 0.2855468
0003a0 b1 3b fa bd a5 f9 0e be 5a 8f 24 be fc 06 c1 3d
       -0.122184165 -0.1396242 -0.1607031 0.0942516
0003b0 38 e4 37 bf be 47 91 3e b5 85 4a be f0 7f 28 be
       -0.7183261 0.28375047 -0.19777568 -0.16455054
0003c0 67 b9 7f bd 15 28 7d be 70 18 3e 3d 34 04 c7 3d
       -0.062432673 -0.24722321 0.046410024 0.097175986
0003d0 6d 4d 12 bd 72 8b d3 3d 30 07 50 bd 81 66 80 3e
       -0.03571837 0.103293315 -0.050788105 0.25078204
0003e0 d7 3a 43 3e 22 1e 6a 3e 94 16 c4 be a0 54 82 3c
       0.19065414 0.22863057 -0.38298476 0.015909493
0003f0 af b1 f0 3d 9b e0 8e bc d2 8d 4e 3e 6f b0 f4 3d
       0.117526405 -0.017441085 0.20171288 0.119477145

x_lin.2.bias f4 [32]
000000 78 18 6d be d2 69 00 be 39 89 14 3e 71 17 12 3e
       -0.23153865 -0.12540367 0.14505471 0.14266755
000010 b0 5c 42 be 0f 65 45 be db 61 55 be 21 de 0b 3e
       -0.1898067 -0.19276832 -0.2083811 0.13658954
000020 3d dc 25 3e 50 45 83 3d ee 80 d8 3d 62 1b 41 bd
       0.16197295 0.06409705 0.105714664 -0.047145255
000030 c6 d0 1d 3c 82 d1 06 be ad cd bb 3a 91 6d 5d be
       0.009632295 -0.13165858 0.0014328264 -0.21623828
000040 17 5f ae bd e3 84 46 3d ae 56 2f be b9 df bd 3d
       -0.08514231 0.048466574 -0.1712291 0.09271187
000050 ef 94 c4 bd a5 17 4f 3e 9d a7 2d be 73 a0 09 be
       -0.09598719 0.20223863 -0.1695847 -0.13440113
000060 ca 6e e3 bd 05 7f 28 bd 45 a1 88 be 7c 61 5b be
       -0.11105116 -0.04113676 -0.2668554 -0.21423906
000070 7b 80 32 bd 1d 6b 63 be 5b 45 51 be 94 d3 97 3d
       -0.04357956 -0.22208829 -0.20436613 0.07413402

edge_lin.0.weight f4 [32, 1, 64, 1]
000000 07 93 23 3e fd 91 21 3e be f5 9a 3d ee d9 c7 be
       0.15974055 0.15778346 0.07566403 -0.39033455
000010 7b 4c c0 3d 41 69 59 be 11 52 7a bd f6 c6 8c 3e
       0.093895875 -0.21231557 -0.06111342 0.27495545
000020 eb fb 54 bd 49 1a 30 bd c2 e2 1f bd 0c e3 7f be
       -0.05199806 -0.042993817 -0.039034612 -0.24988955
000030 dd fe 87 3e 23 ac aa bd 25 61 13 3e e9 7a bc 3d
       0.26561633 -0.08333614 0.14392526 0.09203131
000040 58 08 a9 3e 71 43 f0 bd f9 e4 4e bd 33 b9 dc 3e
       0.33014178 -0.117316134 -0.050511334 0.43110046
000050 12 b4 d9 3d 1e e3 95 3d e9 c1 5a 3e 92 ed af 3c
       0.10630049 0.0731871 0.21363033 0.021475587
000060 7c 3d 49 3d 8e 06 df 3d 70 41 6e 3d 83 18 ee 3c
       0.0491309 0.10889922 0.058167875 0.029064422
000070 c0 c5 97 3d f3 df b9 bd 3c e1 45 3e 10 5b 09 3e
       0.07410765 -0.09075918 0.19324201 0.13413644
000080 24 f3 b6 3d 8a 9d 9f 3e d1 76 c9 3c 18 1a 0c bd
       0.08933094 0.3117488 0.024592789 -0.034204572
000090 0e 38 eb be d2 e0 92 be a2 36 9d be 62 f4 d2 bc
       -0.45941204 -0.2868715 -0.30705744 -0.025751296
0000a0 9b b3 99 be ce 07 aa 3e a4 13 3b 3e 9b ba d3 be
       -0.3001984 0.3320908 0.18269211 -0.41353306
0000b0 7e 21 00 be 8c 02 91 bd 6d fb ef 3e 36 57 f7 3d
       -0.12512776 -0.07080564 0.4687151 0.12077181
0000c0 fa 23 93 3e 19 35 9e 3b 70 4b 87 be e4 58 e8 3d
       0.28738385 0.004828107 -0.26424742 0.113450795
0000d0 a2 67 5b 3e 50 e0 ec 3c 73 3a 58 bd 10 ee a2 3d
       0.21426252 0.028915554 -0.052790117 0.07955563
0000e0 51 7c ea bd 5c 1a 64 be 0c 1a ad be a5 c1 7b 3e
       -0.11449493 -0.2227568 -0.33808935 0.24585588
0000f0 dd fa 1e 3e 85 ce 40 bd 37 00 6f be 88 37 23 be
       0.15525384 -0.047071952 -0.23339926 -0.15939152
000100 57 66 3a bc 72 eb 6d be 2a a8 93 bd e4 09 c9 bd
       -0.011376939 -0.23234347 -0.07209809 -0.098163396
000110 cb 4d 21 3e c5 11 ed 3d 29 91 a9 3c f2 de af 3c
       0.15752332 0.11575655 0.0206991 0.021468613
000120 00 80 b9 3c 4e 1a 8a 3e b5 72 85 be 41 47 10 bf
       0.022644043 0.26973194 -0.26064077 -0.56358725
000130 17 e8 44 3e 0a 1f 87 3d 26 de a1 3e 5b 00 a4 3d
       0.1922916 0.06597717 0.31614798 0.0800788
000140 91 5e dd be e2 31 a7 3d b8 59 f4 bd 80 e3 2a 3e
       -0.4323621 0.08163811 -0.11931175 0.16688347
000150 2c 13 04 be 94 51 1b be 9a 6b d6 ba 06 d0 9e 3d
       -0.12897938 -0.15167838 -0.0016358972 0.07754521
000160 52 9e 16 3e 42 17 99 3e 4f 63 25 be 99 49 28 3e
       0.14708832 0.29900557 -0.16151164 0.16434325
000170 e7 51 b0 bc 59 cd 3e ba 5a e3 7f 3d 9a bf de 3b
       -0.02152343 -0.0007278524 0.06247268 0.006797743
000180 3a a0 ce 3c bd 39 01 bd 2b 71 65 be 8c 5b 95 bd
       0.025222886 -0.031549204 -0.22406451 -0.07292852
000190 0b 38 a5 38 e7 8f a2 3e 33 f0 5d be 98 7f 64 3d
       7.878252e-05 0.31750414 -0.2167366 0.055785745
0001a0 08 fa 56 be 09 7a 48 3e 05 b6 11 be 31 ed 13 bf
       -0.20993817 0.19577803 -0.14229591 -0.577838
0001b0 f6 c0 50 3e 2b eb d5 bd 78 8f a6 3e b2 41 f2 3d
       0.20386109 -0.10445245 0.32531333 0.11828937
0001c0 c9 71 b1 be aa 0e 6e 3d 12 aa 98 bd 63 01 04 3e
       -0.34657124 0.058119453 -0.07454313 0.12891154
0001d0 fc 76 1f 3c 83 ec 0a 3d 15 c6 d4 3d 26 5d c1 bd
       0.009732958 0.03391696 0.10389344 -0.09441595
0001e0 da 4d 55 3d 7b bf c5 3d df d5 73 3e 56 54 0f 3d
       0.0520762 0.096556626 0.23812054 0.03499254
0001f0 cc bd 70 bd bd 8c c2 3d a4 9b 4a bd 5f f1 a6 bc
       -0.058774754 0.094995 -0.049464837 -0.020378767
000200 b3 0f 82 be d3 29 38 3e 69 1f 26 3e b9 ee 32 be
       -0.25402603 0.17984705 0.1622292 -0.17473878
000210 0c 1c c0 bd 8f 22 a3 bd 47 26 1d bd 9c 2f b6 3d
       -0.093803495 -0.07965576 -0.038366582 0.088957995
000220 6e c9 93 3e 1f 18 cc bd e6 de d5 bd 8e d0 19 be
       0.28864616 -0.09965538 -0.10442905 -0.15020964
000230 cf b1 3e 3d 41 c8 9f bd 52 9a a8 3d de 51 18 be
       0.04655629 -0.07801867 0.08232559 -0.1487498
000240 20 92 c0 3e 6a 39 6d 3d 1c 54 ae be 9e 3c 83 bd
       0.37611485 0.057916082 -0.34048545 -0.06408046
000250 3e bd b1 3d 00 a1 89 bd 47 6b 92 3d b1 01 8d 3d
       0.08678673 -0.067201614 0.07149368 0.06885088
000260 c1 2e c5 bd 9f 71 71 3e 12 04 83 bd 52 98 ad bd
       -0.09628058 0.235785 -0.06397261 -0.084763184
000270 fc 1f 01 be c5 2a 3c 3e 23 c6 e0 bd d7 62 c9 3e
       -0.12609857 0.1837569 -0.109752916 0.3933322
000280 3c 9a 8d be 88 48 42 3d ce a0 25 3e 80 96 93 bd
       -0.27656734 0.047432452 0.16174623 -0.0720644
000290 f3 d5 b7 bd cd 92 2e 3e 1e e1 6c 3d 3d 1d b3 bd
       -0.089763544 0.17048188 0.057831876 -0.08745811
0002a0 93 63 7f 3d af 14 e7 bd c1 52 60 be 4b ea 9d be
       0.06235082 -0.11283242 -0.21906568 -0.30842814
0002b0 09 54 80 3d 7a ca 9b be 52 b8 a2 bd 59 f5 e2 be
       0.062660284 -0.30427915 -0.079453126 -0.4432781
0002c0 3d 3e 15 bb fa 0f 67 3e 18 c7 d4 be 0d 7a 35 be
       -0.0022772693 0.22564688 -0.41558146 -0.1772234
0002d0 56 05 98 bd cd 13 b2 bc fc 24 20 be d9 af 5f 3e
       -0.07422893 -0.021737957 -0.15639108 0.21844424
0002e0 8d e3 f5 bd c9 8b a8 bd 8f 4b 9e be 3b 3b c1 bd
       -0.120062925 -0.08229787 -0.30917022 -0.094351254
0002f0 9f b3 df 3d 10 78 d0 bd 3c e0 cb bd 0e be c8 3d
       0.10922932 -0.1017915 -0.09954879 0.09801875
000300 34 5e 48 bd 1a f5 28 3d ce 17 76 be 84 2e 9d 3d
       -0.048917964 0.041249372 -0.24032518 0.07674888
000310 05 10 53 be 60 15 cf bd d7 60 e0 3d ae a5 92 be
       -0.2061158 -0.10111499 0.10955971 -0.2864203
000320 1b c7 5c be 98 eb d8 3d 80 46 a6 be 35 ab da 3b
       -0.21560328 0.10591811 -0.32475662 0.0066732415
000330 61 c1 93 bd f4 46 fa bc 8d 8e 48 3e be ed c3 3d
       -0.072146185 -0.030551411 0.19585629 0.0956683
000340 66 21 85 3e d4 07 c0 bd 7f 44 60 be 60 4e ad be
       0.26002043 -0.09376493 -0.21901129 -0.33848858
000350 84 ec 77 be b4 15 52 be 64 d6 8f be 35 7f 0f 3d
       -0.24211317 -0.20516092 -0.28093255 0.035033423
000360 b9 53 02 3e 97 c3 49 be 86 37 bf be 4b a6 ea bd
       0.1272725 -0.19703518 -0.3734705 -0.11457499
000370 14 a4 99 bd b2 c7 f7 bd 45 e6 1a 3c 0a fd 88 be
       -0.075019985 -0.12098636 0.009454315 -0.26755553
000380 94 3d 9b be 49 dd eb 3d 59 8c 7d bc 15 8e 2c be
       -0.30320418 0.11516816 -0.015475356 -0.16851075
000390 e7 6a 2b be 13 cd 92 3d 98 39 72 bd 9b b8 3e bd
       -0.16739999 0.07168021 -0.059136957 -0.046562772
0003a0 4d f5 35 bd dd 6c 10 be 77 c6 2c be de 24 0d 3d
       -0.04442339 -0.14104028 -0.16872583 0.034458987
0003b0 b0 b7 69 3e ee b3 6f 3b 72 0d d2 bd 36 c3 48 be
       0.22823977 0.0036575752 -0.10256471 -0.19605717
0003c0 17 6b f2 3c 41 a0 56 bd d7 47 f8 3d 9c 12 58 be
       0.02959208 -0.052398924 0.12123077 -0.21100849
0003d0 8a fc 93 be e9 f7 9c be 4a b5 bf be 2c 6f a0 be
       -0.2890361 -0.3065789 -0.37443 -0.31334817
0003e0 c2 e1 5b 3e ef cb 51 be d2 49 88 be 0d e6 f7 3d
       0.21472839 -0.2048795 -0.2661882 0.121044256
0003f0 c6 3c be 3d d6 aa 31 3e d0 bd 4f be 03 4f ec bd
       0.09288935 0.17350325 -0.20287251 -0.11538508

edge_lin.0.bias f4 [32]
000000 4d cd bd 3c ac 7a 1b be 63 48 37 3e 5c c6 93 3d
       0.023169184 -0.15183514 0.17898707 0.072155684
000010 f7 4b fe bc d0 26 2a be 50 85 06 bd dd 78 92 bc
       -0.031042082 -0.16616368 -0.03284198 -0.017879898
000020 66 e3 1d bd f5 bc 40 3e e3 48 fc 3c 34 e6 ee ba
       -0.038546942 0.18822081 0.030796474 -0.0018226565
000030 16 e2 2b 3d 51 f8 1b be bb 17 94 3b b0 b9 79 3d
       0.04196366 -0.15231444 0.0045194305 0.0609681
000040 b8 05 21 3e 54 7e b0 bd bb df 0c 3e 9f ff 29 bd
       0.15724838 -0.08617845 0.13757221 -0.041503545
000050 1b 9b 9b 3d f4 20 32 be 05 56 25 be d0 32 48 be
       0.075979434 -0.17395383 -0.16146095 -0.19550633
000060 15 32 9b 3e 70 75 54 be 48 fd 7a 3d 7c 1f 42 3e
       0.30311647 -0.20747924 0.061276704 0.18957323
000070 96 11 38 bd 83 58 23 bd 7c 4f 65 3d 32 43 2a 3e
       -0.044938646 -0.039879333 0.055984005 0.16627195

edge_lin.2.weight f4 [32, 32, 1, 1]
000000 02 71 df 3d bb e6 fb bd 65 52 f8 bd d4 6f 26 3e
       0.109102264 -0.12299868 -0.121250905 0.16253597
000010 26 2d e5 3e a9 d6 88 3e 84 1a 2a 3e ca bb 3b 3c
       0.44761008 0.26726273 0.16611677 0.011458347
000020 b1 3f a3 be 9c 8b b6 be 8f 96 3d be c0 a5 d0 3d
       -0.3188453 -0.35653389 -0.18514465 0.10187864
000030 cb a8 ce bd 77 60 da bd 6b 54 21 be 24 34 d7 3d
       -0.100907885 -0.106629305 -0.15754859 0.10507992
000040 60 27 95 3d 9a 0e 97 bd 0c 24 8f 3e 60 72 07 3c
       0.07282901 -0.07375832 0.2795719 0.008267015
000050 8a 4b e8 3e bc 7a 29 bb 97 a5 29 be 7a 0b 30 bd
       0.45370132 -0.002586051 -0.16567074 -0.042979695
000060 e2 a0 eb bd 89 e3 74 be b8 db 97 3e 7d a4 49 3e
       -0.11505295 -0.23914923 0.2965982 0.19691654
000070 59 0f 08 3e 42 70 98 3d 23 76 b6 3d cf 09 73 bd
       0.13287105 0.074432865 0.089092515 -0.059335526
000080 ac c1 28 3e 66 8d ae 3d c2 28 41 3e 58 57 61 3e
       0.1648013 0.08523063 0.18863204 0.22005975
000090 50 6b 01 3f 29 0b c6 bd 3a 94 d0 be 66 48 21 bc
       0.5055437 -0.096700974 -0.40738088 -0.009843921
0000a0 3e 2c 51 3e fe f3 e5 be 94 84 a3 be 3b 30 d8 3e
       0.20427033 -0.44912714 -0.31937087 0.42224297
0000b0 a9 5d 82 3d 25 c2 ca 3c 3d 68 6c bd 89 ac 5e 3e
       0.063655205 0.024750778 -0.057716597 0.21745504
0000c0 fa 35 11 3f 94 2e 77 be 67 ee ab bd f1 a9 3d be
       0.56722987 -0.24138862 -0.08395081 -0.18521859
0000d0 ec ba 9e 3e e8 67 43 3d 98 7e 08 3e 49 a3 ba bd
       0.31001985 0.047706515 0.13329542 -0.091131754
0000e0 e3 13 04 be d1 62 9b be 53 a4 48 3e ff 75 1e be
       -0.12898211 -0.30348828 0.19593935 -0.154747
0000f0 22 4e 85 3e 1f 95 0b 3e 1f 28 a9 be 28 71 08 bf
       0.26036173 0.13631104 -0.33038422 -0.5329766
000100 9c 33 b8 be db 1c 90 bd 3a b4 01 be be 29 c2 3e
       -0.35976875 -0.07036754 -0.12666407 0.37922472
000110 c2 8c 02 3f 99 33 eb be 8d b8 4b 3d e5 ff 7f 3e
       0.5099603 -0.45937803 0.04973655 0.2499996
000120 aa 28 93 be 7f c1 7b be 8f da 21 bd 7a 98 74 3e
       -0.28741962 -0.24585532 -0.039515074 0.2388629
000130 dc 9f 82 be 5a ff 2e be d3 91 5b be b0 a9 65 bc
       -0.25512588 -0.17089596 -0.21442346 -0.014017507
000140 8f dc b5 3e 24 0a bd bd 89 17 be 3e 00 bb a9 bd
       0.35519835 -0.0923045 0.3712733 -0.082876205
000150 83 e4 c8 3d d1 14 f7 bc 20 4a de be ec e0 b0 3d
       0.0980921 -0.030161293 -0.43415928 0.086366504
000160 14 ab b7 3d f5 94 84 be d9 80 47 be ee a7 2d bd
       0.089681774 -0.25894895 -0.19482745 -0.04239648
000170 45 d9 c7 3b 7d 4c 47 be a7 27 a8 3e 7a b1 a8 3e
       0.0060988986 -0.19462772 0.32842752 0.32947904
000180 2b 0e 24 3a 99 0c ed 39 c6 38 2b 3d 5b e3 89 be
       0.00062582147 0.0004521355 0.04180219 -0.2693127
000190 8a a6 6c be 8e f2 95 ba a7 84 90 be 2d f1 e9 3d
       -0.23110405 -0.0011440085 -0.28226206 0.11422954
0001a0 44 8b 3c 3e 29 2f 81 3e 47 eb af bc 04 40 8c 3e
       0.184125 0.25231293 -0.021474494 0.2739259
0001b0 94 c7 09 3e 86 9f 11 3e 11 4a 8a bd 9c 17 ef bc
       0.1345504 0.1422101 -0.06752408 -0.029186063
0001c0 72 2c 59 3e 12 75 00 bf 3d 74 66 3d d9 cd e7 3c
       0.21208361 -0.50178635 0.056263197 0.028296398
0001d0 08 df 01 3e 09 6d a5 3e a6 71 75 be ab 98 a5 bc
       0.12682736 0.3230975 -0.23969135 -0.0202144
0001e0 b2 1e 4a 3d b6 03 74 be b2 96 43 be a0 e9 0c bd
       0.04934568 -0.2382954 -0.19100454 -0.03440249
0001f0 8e 2b 16 3e 53 1f 71 be 6d 81 ed 3d 4c 93 cc bc
       0.14665052 -0.23547105 0.11596952 -0.02497258
000200 86 c5 2f bd 40 46 fe 3d 48 cf bc be c7 2f 05 bd
       -0.042912982 0.12415743 -0.36876893 -0.032516267
000210 a3 1f 2b be a7 02 ba 3d 05 2b 0f be 12 3a 00 be
       -0.16711287 0.09082537 -0.13981254 -0.12522152
000220 c7 04 f1 bd 98 2e 61 3d 75 ca e5 3d ad 3e 90 3e
       -0.11768489 0.054976076 0.11220256 0.28172818
000230 43 35 ac be 6a b5 72 3d 40 db f1 3e 98 cb ec bd
       -0.33634385 0.05925504 0.47237587 -0.1156227
000240 15 f6 92 3e 8c 21 03 3e d3 2d 21 3d 8a 2e 10 3e
       0.2870337 0.12805766 0.039350342 0.14080253
000250 ef 3b a2 3d 03 be 7b 3e 01 b5 2a bd da c9 b4 be
       0.07921588 0.24584202 -0.041676525 -0.3531025
000260 04 ce 94 be 59 23 1e bc 67 92 82 be 0b f0 64 3c
       -0.29063427 -0.009651982 -0.2550232 0.013973246
000270 a3 1c 2f be 2d 4d aa bc 2f 47 84 3e 8e e8 d6 3e
       -0.17100768 -0.020788753 0.2583556 0.419743
000280 1b 06 3c be 30 9b f3 bd a4 15 cb bb 7c 68 e7 3d
       -0.18361704 -0.11894834 -0.006197648 0.11299226
000290 65 c2 03 3d cd 74 1b be 4c 8b 18 3e 18 63 ae be
       0.03216781 -0.15181275 0.14896888 -0.34059978
0002a0 1c 64 6d 3e 02 d4 a3 be 4d b2 fc bd 5d c4 f2 bd
       0.2318272 -0.31997687 -0.12338696 -0.118538596
0002b0 76 21 8b 3d bc 47 c6 be 0c b2 96 be 28 07 67 3d
       0.067934915 -0.38726604 -0.29432714 0.05640331
0002c0 25 d7 3e be 43 c6 09 be 4e 42 c7 be 83 05 5e bd
       -0.18636759 -0.13454537 -0.38917774 -0.054204475
0002d0 d6 29 b0 3a b9 1a b1 3d c4 d4 05 be ce 17 14 bd
       0.0013440202 0.08647675 -0.13069445 -0.036155514
0002e0 c2 95 9e be 37 7c 76 bd 1b 12 6e 3b d9 b6 dd bd
       -0.3097363 -0.060177054 0.003632671 -0.10825891
0002f0 48 cf 5c be 93 5c 95 bd 55 c2 18 be 70 38 45 be
       -0.21563447 -0.07293048 -0.14917882 -0.1925981
000300 b6 7c da be 04 b4 30 bf e7 8a 6a bd 02 ed 53 bc
       -0.42673272 -0.6902468 -0.057261374 -0.012934925
000310 57 34 67 3c 44 d4 94 bd 89 46 29 3d 9a 95 c8 bd
       0.0141116 -0.07267049 0.041327033 -0.09794159
000320 90 21 0b 3e b9 23 a0 3e c2 08 45 3d ea 1b bf be
       0.13587022 0.31277254 0.048104055 -0.37325984
000330 2e 53 82 3e ae 91 cc 3d 1b d5 0f 3e 64 6e a2 3b
       0.25454086 0.09988724 0.14046137 0.0049570072
000340 ec c1 94 3c 48 3c 5e bc 6a 9a 17 be a1 33 e9 3d
       0.018158875 -0.013564177 -0.14804998 0.113868006
000350 65 c8 77 be f0 94 03 bf fa ad 6d 3e 73 89 17 bf
       -0.24197538 -0.51399136 0.23210898 -0.59194106
000360 65 fa 91 3e 26 50 d0 3d 49 59 a9 bb e3 40 b8 be
       0.28511348 0.10171537 -0.0051681143 -0.35987005
000370 f2 2b 10 bf 04 20 68 3e 2c 43 4d bd 47 a1 b9 3e
       -0.56317055 0.22668463 -0.05011289 0.36255857
000380 d8 79 39 bc f9 d7 48 be a3 85 b5 3d 0b c4 a1 be
       -0.011320554 -0.19613637 0.0886338 -0.3159488
000390 d9 e0 9b bd 61 ee 03 3d 80 56 bd be b5 52 9d 3e
       -0.07611246 0.032209758 -0.36980057 0.30727163
0003a0 52 ea 9d 3d e5 f9 58 be 4e 60 26 3e 67 a2 c2 3e
       0.07710709 -0.21189077 0.16247675 0.38014528
0003b0 82 a2 84 bd 13 10 2a be 46 b4 96 3d 96 21 42 3e
       -0.064763084 -0.16607694 0.07358603 0.18958125
0003c0 b3 35 0d 3f b3 6c 2d be 2e 28 d7 3b e0 23 e9 be
       0.55160064 -0.16935997 0.006566069 -0.45535183
0003d0 50 f0 74 3e f7 db 82 3e 34 85 82 be 4a d4 83 3d
       0.23919797 0.25558445 -0.2549225 0.06436975
0003e0 5a 67 53 3e ae 82 7b be ef b9 72 3e 0e 09 fe 3c
       0.20644894 -0.24561569 0.2370374 0.031010177
0003f0 7b e4 a0 bd e4 80 40 bd 3f c2 bf be 38 60 0c be
       -0.07856079 -0.04699792 -0.37452886 -0.1370858

edge_lin.2.bias f4 [32]
000000 03 90 57 3e 92 f4 99 bc 66 87 77 3e 4e e4 1a 3e
       0.2105103 -0.018793378 0.24172744 0.15126154
000010 1e 25 87 bd 01 9c fb bd 1f bc 3d bd 81 9a 4f 3e
       -0.065988764 -0.12285615 -0.046321984 0.20273782
000020 e8 b0 59 be 3a 7d c0 bd 8d 8b a9 bd f1 d1 2d bd
       -0.2125889 -0.09398885 -0.0827857 -0.042436544
000030 2e ec 16 be dd 52 69 3e d1 63 96 3e d7 ae 43 3d
       -0.14738533 0.22785516 0.2937303 0.047774162
000040 ed 12 2d 3e 93 dc 87 be 8a 46 3a be be 3c a6 be
       0.16901751 -0.26535472 -0.18190971 -0.32468218
000050 49 36 34 bd e4 f9 be be 2e d2 8c bd e4 59 0a be
       -0.043997083 -0.37300026 -0.06876026 -0.13510853
000060 76 90 91 bc 61 07 14 be 67 b6 05 be be eb 55 3e
       -0.01776908 -0.1445594 -0.13057862 0.2089071
000070 b9 4f 94 bd ca 3f 16 3d 4f 0d b3 3d e2 1f 1b 3e
       -0.072417684 0.036681928 0.08742773 0.15148881

vertex_output_lin.0.weight f4 [32, 1, 32, 1]
000000 cd 78 9f bd a0 44 cb 3d 39 8e 16 3e 33 6f 26 3e
       -0.07786713 0.099251986 0.14702691 0.16253357
000010 27 65 1f bd b4 88 e6 bc f3 ff 98 be 20 54 94 3e
       -0.038914826 -0.028141357 -0.29882774 0.28970432
000020 46 6d d4 be 87 57 cf 3d 04 44 ba ba 48 05 cd 3d
       -0.4148962 0.101241164 -0.0014210944 0.10010773
000030 f2 d2 65 be 0e b6 69 3d d8 a1 68 3e b7 10 5b 3d
       -0.2244375 0.057058387 0.22717988 0.053482737
000040 6b 57 08 3e ca 9f 02 be 5a 37 a7 3d 05 e5 f7 bd
       0.13314597 -0.12756267 0.08164854 -0.12104229
000050 e2 e4 de 3d 87 da b2 be e2 6a 89 be 3d da 09 be
       0.108835 -0.34932348 -0.26839358 -0.13462158
000060 f9 bb 20 be ea 64 41 3e 36 f8 a1 bc c5 53 75 be
       -0.15696706 0.18886152 -0.019771677 -0.23957737
000070 a0 db 77 be d9 ab 14 be 29 e8 3f be 82 3e 62 be
       -0.24204874 -0.1451868 -0.18740906 -0.22094157
000080 48 7c 24 be 92 c9 23 bd 04 be 5a 3d e3 fe 90 be
       -0.16063035 -0.039987154 0.05340387 -0.28319463
000090 a5 3c ec bd a1 12 8c 3d 5c e4 be bd 76 21 63 3d
       -0.115350045 0.06839491 -0.093209 0.055451833
0000a0 b9 1a ae 3d c3 f0 4b bd 66 27 15 bc 58 1b 26 3d
       0.08501191 -0.049790155 -0.009103632 0.04055342
0000b0 77 80 40 be 7b 23 16 3e fa b9 24 be 5e d9 92 3d
       -0.18799005 0.14661972 -0.1608657 0.07170366
0000c0 b0 a7 8c be e7 95 d7 bd c3 c2 a9 bd cd af 1f bd
       -0.27471685 -0.105266385 -0.08289101 -0.038986016
0000d0 6d da 12 3d 5f fe c0 bd d9 97 74 bc 9e c3 8c bd
       0.03585284 -0.094235174 -0.014928781 -0.068732485
0000e0 fa 82 bb bc 3a 48 c5 3d 9d 7e 1b bd 91 6d 01 be
       -0.022889603 0.09632917 -0.037962545 -0.12639453
0000f0 c8 9d 25 3d 10 16 d1 3c 50 fd 11 be 64 aa 33 3e
       0.040433675 0.025523216 -0.14256787 0.17545468
000100 30 49 fc 3b 82 8b 68 bc b1 e9 b5 3e 61 46 08 3d
       0.0076991543 -0.0141934175 0.35529855 0.033270244
000110 60 ce 4e 3e c5 fe c0 be d9 81 8e 3e 07 59 a9 bd
       0.20195913 -0.37694374 0.2783344 -0.08268934
000120 a0 d2 23 be 9a bb 1b be ff 7c 23 be 40 c8 46 3e
       -0.15998316 -0.15208283 -0.15965651 0.19412327
000130 b0 b4 1e bf 8d d7 44 be c0 17 fc bc 4f 11 16 3e
       -0.6199446 -0.19222851 -0.030773044 0.1465504
000140 e6 9a 6b 3d a7 8c 26 bd 59 88 7d 3e e7 50 e3 bc
       0.05752077 -0.04066148 0.24759044 -0.027748538
000150 fc 50 e9 bd a7 59 3e 3d 35 74 31 be de b9 52 bd
       -0.113924 0.046472218 -0.17329486 -0.051446788
000160 59 0e 57 be 1e 83 26 be bd fa 7e be 02 19 8d 3d
       -0.21001567 -0.16260955 -0.24900337 0.068895355
000170 fc a1 f2 bd bb b8 cf bd d6 e7 22 bf cc 41 8f 3c
       -0.11847302 -0.101426564 -0.63635004 0.01748743
000180 cf 21 d2 bd db 85 d9 3c f4 b0 f5 3d 98 33 93 bd
       -0.10260355 0.026553085 0.11996642 -0.07187575
000190 0c b9 30 3e 2f 0d 2f bd c9 b0 d4 3e dd 7b 4d 3e
       0.1725809 -0.042737182 0.41541126 0.20066781
0001a0 df 68 16 bf a8 a4 80 3e 87 57 fe 3d 1d 92 00 be
       -0.5875377 0.25125623 0.12419038 -0.12555738
0001b0 8e e2 49 3e b1 02 9f bd e2 ae ea be d2 49 10 3e
       0.1971533 -0.07764185 -0.4583655 0.1409066
0001c0 bd 89 90 3d 32 2b 33 be 67 e5 a1 3d 87 c5 2e be
       0.070575215 -0.17496946 0.07905083 -0.17067538
0001d0 68 7a 9c 3d 3a 13 59 3e 76 f1 4d 3e 90 4f 1b be
       0.07640535 0.2119874 0.20111641 -0.1516707
0001e0 a9 26 14 3e f4 66 47 bc fb 9e 12 3f b9 8d 6d be
       0.14467873 -0.012170542 0.57273835 -0.23198594
0001f0 ce 91 95 3e 15 d2 0b 3e b6 2c a6 3d 82 5d 49 3e
       0.29212803 0.13654359 0.08113997 0.19664577
000200 3b f1 31 be db be 39 3d 75 1c 00 bd fc 7d 9e bd
       -0.17377178 0.04534803 -0.03127714 -0.07738873
000210 a5 41 04 be 06 0c 33 be dc ac bc bd 9a b3 45 be
       -0.12915666 -0.17485055 -0.09212658 -0.19306794
000220 0d f9 81 bd d7 5e ee 3d 19 d9 eb b9 44 31 b8 3b
       -0.06346331 0.11639183 -0.00044984443 0.0056211073
000230 33 e4 41 bc 5d 7e 69 bd de 18 03 be 74 8b f2 bd
       -0.011834192 -0.057005275 -0.12802455 -0.11843005
000240 c1 80 37 be 5b 46 9c 3d 7a 67 a1 3d b7 7c f9 3d
       -0.1792021 0.07630607 0.07881065 0.121819906
000250 c9 bb a4 bd 88 e2 3e 3d c4 ed 84 bd f3 30 99 3d
       -0.0804363 0.046602756 -0.06490663 0.074800394
000260 af 53 64 3d 5d 71 eb bc 18 c6 ea bd e8 68 e8 3c
       0.05574387 -0.02874058 -0.11463565 0.028370336
000270 6c 76 0e be bf 4e 2f be 8b c9 05 3c 92 94 33 3d
       -0.13912362 -0.17119883 0.008165727 0.04384286
000280 12 a2 01 3d 6a 41 ca be e2 d4 91 3d 76 d6 89 bc
       0.031648703 -0.39503032 0.07120682 -0.016825896
000290 d3 d9 0a 3e 58 36 0d be e8 3a 0e be bd 15 34 be
       0.13559656 -0.13790262 -0.13889658 -0.17586417
0002a0 49 04 8e 3e 61 86 1d be 8d 35 a9 bd 1c 41 9c 3d
       0.27737644 -0.15383293 -0.08262167 0.07629606
0002b0 be 6a 50 be c7 3f b8 bd 30 4a 86 3d 2e 5c 48 bd
       -0.20353219 -0.089965396 0.06557119 -0.048916034
0002c0 9f 46 78 bc a9 26 7c be c4 ea a2 be 7c 52 60 3d
       -0.015153556 -0.24624123 -0.31819737 0.054766163
0002d0 86 63 ed 3d c2 08 46 be 29 08 41 be 32 04 f8 bc
       0.11591248 -0.19339278 -0.18850769 -0.030275438
0002e0 39 09 d6 3d 74 64 2a be 09 3c 2f 3d c5 a5 e7 bd
       0.10450978 -0.16639882 0.042781863 -0.11310915
0002f0 bb bf 3d bd bc 9f 5d be ac 33 f8 bd d4 9d 1f be
       -0.046325427 -0.21642965 -0.12119231 -0.1558755
000300 1c 58 6c bd fc b7 39 be 7d 83 53 be 22 e6 a3 bd
       -0.057701215 -0.1813659 -0.20655628 -0.08002879
000310 9a 03 27 3d 0b 38 3e bd 1e 41 be 3e ce 67 8a be
       0.04077492 -0.046440165 0.37159055 -0.27032322
000320 f3 90 2c bd 26 db 13 be bb a7 d6 bc 63 00 ec 3d
       -0.04213042 -0.14439067 -0.026203027 0.11523511
000330 bc 29 9b 3d 61 7b 8d 3e 76 24 59 3e 32 4b 5d bd
       0.075763196 0.27633193 0.21205315 -0.05402679
000340 9a ab 65 be 05 29 a5 bd 47 78 21 bf 8f b9 8c bd
       -0.22428742 -0.080644645 -0.63074154 -0.0687133
000350 ed 53 0e 3e 79 0a d5 3e b3 88 14 3f 8a ef 0f bf
       0.13899203 0.41609553 0.58021086 -0.5622488
000360 49 02 4a 3d c3 86 2a be 7a e1 d7 3e b8 1c 56 3e
       0.049318586 -0.1665297 0.42164212 0.20909393
000370 ac 4a 9a bc 27 d1 a3 3e 79 07 a1 3e 66 1c 00 3f
       -0.018834434 0.31995508 0.31451014 0.5004333
000380 04 82 35 3e 32 1d 0b bf 9b ed 53 be d5 cd f6 3c
       0.17725378 -0.54341424 -0.20696108 0.030127445
000390 12 39 83 be df ad 8b 3d 87 1c 98 3d c4 19 2d bf
       -0.2562948 0.06820273 0.07427316 -0.6761744
0003a0 a2 8d 71 3e 2d 3e 5b be fe a2 b4 be 52 93 07 3e
       0.23589185 -0.21410437 -0.35280603 0.13239792
0003b0 68 32 ad bd 61 6c 42 3e f3 3d 62 3e 44 46 22 bf
       -0.0845688 0.18986656 0.22093944 -0.63388467
0003c0 65 8e f2 be 2b e0 ee bd a8 7b ab bf ff 21 07 3e
       -0.47374263 -0.116638504 -1.3397112 0.13196562
0003d0 fb b7 9d 3d a0 b2 db 3d 70 54 f2 3d ad 06 80 bc
       0.07701107 0.107274294 0.118325114 -0.015628183
0003e0 64 4b 47 3e 73 f1 a4 be 18 22 dc 3e 4f 4f 4e bd
       0.19462353 -0.3221546 0.4299476 -0.050368603
0003f0 71 90 b4 bd f7 b0 aa 3c c1 24 3c 3e 70 5e 59 3e
       -0.088166125 0.020836337 0.18373396 0.21227431

vertex_output_lin.0.bias f4 [32]
000000 58 20 8a 3d 67 97 8a be 6e 48 21 3e 63 17 dc bd
       0.0674445 -0.27068636 0.15750286 -0.10746648
000010 d0 c4 5e bd 71 e0 c9 bd 0f 70 7d 3e f0 32 b4 3d
       -0.054386914 -0.09857262 0.24749778 0.08798778
000020 08 24 7a bc d2 42 92 bc d4 8b 84 3e b3 47 8d be
       -0.01526738 -0.017854128 0.2588793 -0.27593765
000030 bc fc 14 be 79 d1 f1 3d 0c f3 fc bd c5 74 7c 3e
       -0.14549536 0.11807532 -0.12351045 0.24653919
000040 dc 89 10 3e 21 b6 29 3e 66 97 47 bd 84 19 09 3e
       0.14115089 0.16573383 -0.04872837 0.1338864
000050 9c c2 84 bd dd 71 3d 3e 06 39 45 3e 40 3a 84 3d
       -0.06482431 0.18500467 0.19260034 0.06456423
000060 a6 08 19 bb 2f 88 e5 3d d1 65 d8 3d c4 97 0b 3d
       -0.0023351102 0.112076156 0.10566295 0.03408028
000070 ff e1 91 bc 2a 4c 1f be 6a 7a 15 3e 3f 11 41 be
       -0.017807959 -0.15556398 0.14597479 -0.18854235

vertex_output_lin.2.weight f4 [1, 32, 1, 1]
000000 86 3c ff bd d2 86 b2 3d 62 c0 01 be 8a 99 b1 3d
       -0.12462716 0.08717121 -0.12671044 0.086718634
000010 84 9a 65 bd f9 e5 7a 3d 1d 01 b8 3e f8 f1 da 3e
       -0.05605556 0.061254475 0.3593835 0.42762733
000020 d2 0f 6e be 79 c2 a7 bd 92 73 98 3e 36 5b 06 be
       -0.23248222 -0.081913896 0.29775673 -0.13120732
000030 0a f4 ac bb 0c d5 0a be 0b 98 3b ba a1 1d cd 3e
       -0.005278115 -0.13557833 -0.000715614 0.40061668
000040 5c 9b 0a be 44 fb 90 3e 05 42 0e be 7d 15 08 be
       -0.13535827 0.283167 -0.13892372 -0.13289447
000050 14 47 19 3e 74 b7 f1 3e 51 06 80 be 2e ba a8 bc
       0.1496852 0.47210276 -0.2500482 -0.02059659
000060 e9 90 6a be fc 67 11 3f 28 16 c5 3b d4 dc d6 3e
       -0.22906841 0.5679929 0.006014604 0.41965353
000070 ed c5 26 bb 05 52 0c 3d 4b 27 d2 3e 09 69 b9 3e
       -0.0025447563 0.034257907 0.41045603 0.36212948

graph_output_lin.0.weight f4 [1, 618]
000000 b2 e3 f2 bd 8b c5 21 be 80 03 9d bd 4c 2e 64 be
       -0.11859836 -0.15798013 -0.07666683 -0.22283286
000010 cf 4c b0 bd 16 04 e1 3c 14 90 fb 3d 82 8e 33 bd
       -0.086084 0.027467769 0.1228334 -0.043837078
000020 ad cc e1 bd 62 b1 4c be 96 e1 98 3e 93 da ce 3d
       -0.11025367 -0.19989541 0.29859608 0.101002835
000030 66 2f 06 be bd f2 1e 3e 64 89 75 ba e6 60 07 be
       -0.13104019 0.15522285 -0.0009366481 -0.13220558
000040 7d cf b3 3d 53 be 4a bd d0 26 3e 3d 7b d1 78 3d
       0.087798096 -0.049497914 0.046423733 0.06074665
000050 a4 59 11 be 5a 42 0e bd 45 4c ce bc dd 7d 5a bd
       -0.14194351 -0.034731247 -0.025182853 -0.05334269
000060 f1 05 3f 3d 89 df dc bd cb 3c 05 be 29 aa 13 bd
       0.046636526 -0.107848234 -0.13011472 -0.03605095
000070 67 0b 40 bd 1d b9 bc bb b4 86 10 3d ca 49 d6 bb
       -0.046885874 -0.005759372 0.035284713 -0.006539558
000080 29 18 9a bd be c9 09 be 63 ce a3 3e 3d 65 93 3c
       -0.075241394 -0.13455865 0.31993398 0.01799261
000090 3c 80 99 bd 3e 35 f9 3d 62 f2 18 3e b2 b0 f0 bb
       -0.07495162 0.12168358 0.14936212 -0.0073452825
0000a0 e2 30 2c bd 99 fe 85 3c ec 31 62 bd 73 01 2d 3e
       -0.042038806 0.016356753 -0.05522339 0.16895084
0000b0 31 8e 3a bd ca 99 3a 3e 23 f7 0e 3e bd 6e 22 3e
       -0.04554576 0.18222728 0.13961463 0.15862556
0000c0 75 ab 97 be 3c 27 d4 3b a7 06 22 bd 98 b1 2c 3d
       -0.29623 0.0064744037 -0.039557125 0.042161554
0000d0 d6 d6 7c bd 83 f7 88 3c 16 2f 13 be 64 c4 65 3d
       -0.06172832 0.016719585 -0.1437343 0.056095496
0000e0 01 e6 a1 be 44 6c 47 3d c7 0b 85 3d 3d 76 09 be
       -0.31620792 0.048687235 0.06496387 -0.1342401
0000f0 62 46 d5 bc e8 0b c0 bd 2b 95 37 be 0d 59 aa be
       -0.026034538 -0.09377271 -0.17927997 -0.33271065
000100 d9 00 8e be 61 27 65 3c 73 83 3d 3e 40 90 96 3d
       -0.27735022 0.013986439 0.18507175 0.07351732
000110 17 a1 82 3e f8 6b 37 be 1a 7a 18 3e 72 ae ba bd
       0.25513527 -0.1791228 0.14890328 -0.09115304
000120 24 b1 0c 3d 7e bd ad 3d eb f3 81 be d7 43 fc bd
       0.034348622 0.084834084 -0.25381407 -0.12317627
000130 cb 70 b3 bd 09 ef e1 3a 6d fb 90 3d 1a 3f af 3e
       -0.08761748 0.0017237376 0.07079206 0.3422783
000140 69 20 b6 be 29 42 9c 3e d7 64 e9 3e ca 0e 2a 3e
       -0.35571602 0.30519226 0.45584747 0.16607204
000150 42 17 0b 3e 34 c1 28 3d 9f 95 0e bd d9 8b 28 bd
       0.13583091 0.041199878 -0.03481066 -0.041148994
000160 a1 19 97 3d 11 eb 60 bd a2 2f 26 3d 89 57 e9 ba
       0.07377935 -0.054911677 0.04057277 -0.0017802577
000170 8d 98 1f bd e7 83 30 be e1 22 cf 3b be c9 dc bd
       -0.038963843 -0.17237817 0.0063212966 -0.10780667
000180 13 f2 bb bb c1 3c 57 bc c3 a0 79 be 46 e0 62 bc
       -0.0057356446 -0.013137043 -0.24377732 -0.013847416
000190 58 1e c9 bd 20 99 b3 3c 57 bf 79 bd b8 1e be bd
       -0.09820241 0.021923602 -0.06097349 -0.09283203
0001a0 ab fa 8c 3e 60 e2 cf 3a 75 30 97 3c 10 0b 59 be
       0.27534994 0.0015860312 0.018455723 -0.21195626
0001b0 5b 3e 7d be d4 64 16 bd c3 46 ed 3d e8 c7 d7 bd
       -0.24730818 -0.03671725 0.11585762 -0.10536176
0001c0 48 a8 71 bd 40 22 27 be ee c1 04 3f b3 23 b2 3d
       -0.058998376 -0.16321659 0.51858413 0.08698215
0001d0 c4 18 b7 bd 0d 71 40 be 87 04 8f bc bb a1 8e bd
       -0.089402705 -0.18793125 -0.017458213 -0.069644414
0001e0 e5 01 16 3e 03 f0 83 3d ed a4 52 3d 46 78 94 be
       0.1464916 0.06442263 0.051426817 -0.2899801
0001f0 10 18 8a bc 13 7a 4e be 74 33 56 bd 3a 8a 6e bd
       -0.016857177 -0.20163755 -0.052295163 -0.058237292
000200 f5 fb b5 bd 56 87 4b be 9e 63 64 bd 22 b6 9a bd
       -0.088859476 -0.19875845 -0.055759065 -0.0755427
000210 12 37 0b bd 10 83 06 3e 4f 66 9f 3e 6d 47 b4 be
       -0.033988066 0.13135934 0.31132743 -0.35210744
000220 33 17 c6 be 78 8a 01 be 54 45 20 be 1f 28 b6 bd
       -0.38689575 -0.12650478 -0.15651447 -0.08894371
000230 0d 3a 45 bc f6 3b 42 3d dd 95 1d 3d 1f b3 16 3e
       -0.012037766 0.047420464 0.038473 0.14716767
000240 3e 95 47 3e ac 0e 9f 3d 64 2c 61 3e 61 30 9d 3e
       0.19490525 0.0776647 0.2198959 0.30700973
000250 cf 2f d0 bd b6 ae 4b bd 4a 59 8c bd ac d5 2e 3e
       -0.10165369 -0.049727164 -0.06852968 0.17073697
000260 02 9e 89 bc d9 2a 8b 3c f3 39 27 bd 6d fc 4a 3e
       -0.016798977 0.016988205 -0.04082675 0.19822855
000270 b7 10 5e 3d c8 bd 50 be 09 36 6b bd 20 d7 d1 bc
       0.05421516 -0.20384896 -0.05742458 -0.025615275
000280 ba 3e c3 3d e5 cb 86 3e 29 62 98 3d 7a c4 e1 3e
       0.095334485 0.26327434 0.074405976 0.44095212
000290 61 77 74 3e 68 d7 3a 3e 9f 82 04 3e 0c 60 86 3d
       0.23873664 0.18246233 0.12940453 0.06561288
0002a0 69 c5 c2 bc 97 d5 46 3e e0 5f 33 3e ab df 9d 3c
       -0.023775773 0.19417416 0.17517042 0.019271692
0002b0 3f 81 bc bd 7f c8 85 3d 2a e5 0f 3c d7 1b ea bb
       -0.09204339 0.06532382 0.008782664 -0.007144432
0002c0 c5 33 c5 bd 5b b5 e0 3e 86 94 2c be 1b d3 5a 3d
       -0.09629015 0.43888363 -0.16853532 0.053423982
0002d0 95 54 69 bd 25 01 ab 3d fe 69 a7 bd d6 6e 7e 3d
       -0.05696543 0.08349828 -0.08174513 0.06211742
0002e0 a4 92 9a bd 71 95 bf 3c a6 58 1b bf 74 fb f7 3d
       -0.07547501 0.023386689 -0.6068214 0.12108508
0002f0 6c 9d 12 3e f8 8c 8e 3e ac 4e 35 be 54 d0 a6 3e
       0.14317864 0.27841926 -0.17705792 0.32580817
000300 f8 94 e2 3b 90 af e9 bc 8c 19 01 be d2 19 87 be
       0.006914731 -0.028526098 -0.12607402 -0.26386887
000310 4d e2 b2 bd 8a 7c c1 3d 68 57 18 be 83 1e aa bd
       -0.0873457 0.09447582 -0.14877093 -0.08306601
000320 0c e0 3f bc 17 c8 21 3d 72 b2 2c 3e 52 68 94 be
       -0.011711132 0.03949746 0.16864946 -0.2898584
000330 5f 49 72 3e 1a 0b b1 3e 42 3e c8 3d bb d1 33 3d
       0.23660801 0.34578782 0.097775 0.043901186
000340 18 24 b2 bc 08 ce cf 3d 82 2a 29 3e e2 ce 38 3e
       -0.021745726 0.10146719 0.16520122 0.1804767
000350 77 ae 62 be 0c 15 58 3d 9c 2d 44 3d 8c 52 03 bd
       -0.22136866 0.052754447 0.04789506 -0.032061145
000360 40 25 7e bd ef 2e a5 3d 9e d4 9b bc a7 62 5e 3b
       -0.062047243 0.080655925 -0.019022282 0.0033933313
000370 50 66 cc 3d 59 ee 1a 3d 7d 15 d1 bd 1a 66 03 bd
       0.09980452 0.037824962 -0.10209177 -0.032079794
000380 6a 70 ea bd 91 58 aa 3d dc 5b 43 bc 94 5a cf 3c
       -0.114472225 0.08317674 -0.011923756 0.025311746
000390 22 8c 97 bd 36 96 28 bd 4f 5d 9c bd 0d b1 87 3d
       -0.07399775 -0.041158877 -0.07634985 0.06625567
0003a0 7a c8 df bd 8b 28 dc bd a7 49 3d 3d a9 7f e6 bd
       -0.1092691 -0.107499205 0.04621282 -0.11254818
0003b0 54 1b ba bd 22 5a 76 be 92 bd 84 3d a2 c5 1e be
       -0.09087244 -0.2405782 0.0648147 -0.15505078
0003c0 b1 90 90 3d c1 66 14 37 cc 43 74 3e 05 be 29 be
       0.07058848 8.845412e-06 0.23853987 -0.16576393
0003d0 3b aa e3 bc c1 f6 a3 bd 2d bf 9b be 7a 16 82 3e
       -0.027791133 -0.08006049 -0.30419293 0.25407773
0003e0 00 c4 6b be 8c a0 2e be c2 ca 5a 3d 6f d3 2b 3e
       -0.23023987 -0.17053431 0.05341602 0.16779874
0003f0 3d 79 c2 bd ec 27 89 bc 1e f7 1a 3e 6d 17 6e bd
       -0.094957806 -0.016742669 0.1513333 -0.05812781
