reachability_classification/weights/SimpleMultiplePassGNNReachabilityNet_epoch_2.pt (torch_old, 36685 bytes, 16 tensors)

x_lin.0.weight f4 [32, 1, 1, 11]
0.07067836 0.027054984 -0.11657654 -0.34635475 -0.21693902 -0.08739017 0.006772629 0.0984997
0.09856318 0.008953261 -0.07286297 0.19208235 -0.057338808 0.08644326 0.09730711 -0.21908596
-0.3305911 -0.040337205 -0.13815996 0.10131757 -0.14492126 0.17699935 -0.2220761 -0.023362452
0.08887293 -0.08144943 0.19362067 0.1282081 0.17922617 -0.2794528 0.08074082 0.56192094
0.09647601 0.156518 -0.2631705 -0.15779613 0.3359866 -0.17301762 0.016159445 -0.26832807
-0.19152291 -0.16349791 -0.47095755 -0.28336874 -0.04993273 0.14437926 0.14025216 -0.04994958
-0.34794623 0.07762006 -0.037850477 0.30977213 0.2308199 -0.2114876 -0.22499274 0.121923506
-0.10298539 -0.04317067 0.365067 -0.014572249 0.22979975 0.13216244 -0.020305473 -0.20114183
-0.21991053 -0.15535606 -0.11976431 0.24233773 -0.10037456 0.21634379 -0.17537858 0.053440038
0.16819412 0.16084333 -0.44614238 -0.03933887 -0.03295558 -0.18182674 -0.03747873 -0.1680158
-0.07415006 -0.24309288 0.034559134 0.24025235 0.34002864 0.2667595 -0.07739928 0.18499541
0.36143833 -0.16926216 -0.3372777 -0.09190572 0.22965804 -0.31010914 -0.03643893 0.05416677
0.18620583 0.06925978 0.027116602 0.117278546 0.15796486 0.2086765 0.08060695 -0.016748864
0.23286669 -0.038136348 0.32271278 0.019794557 -0.08174742 -0.11447711 -0.13879164 0.1029735
0.20466426 0.17186111 -0.20911653 0.19946483 -0.07895014 -0.08697717 -0.1762313 0.04395668
-0.014483045 -0.1665834 0.053726967 0.008491418 -0.049428474 -0.28434828 0.14757861 -0.19105716
0.27552104 0.18432295 -0.3719013 0.047574703 -0.31459972 -0.063022256 0.015627913 -0.0951195
-0.29463124 -0.022635907 0.21704875 0.31978738 -0.09332261 -0.18029277 0.23905085 0.2162533
-0.0134493625 -0.04621337 0.13952665 -0.21837883 -0.10608996 -0.3018475 -0.029943665 -0.10669229
0.44082478 -0.32623005 -0.13219526 -0.1027005 -0.26735386 0.16735302 0.22963896 -0.3059014
0.1933564 -0.33932763 -0.10009665 -0.047209583 -0.23119868 -0.0880509 -0.12869975 0.090237185
-0.0966989 -0.30157587 -0.11017421 0.21077107 0.023701493 -0.14329714 0.5977542 -0.36893147
0.30227947 0.15220766 0.31950757 -0.2640667 0.283871 -0.09856344 0.10147189 -0.12509008
0.022408122 -0.25552124 0.39138162 0.012064368 0.017462207 -0.014256141 -0.37619138 -0.1598589
-0.07521043 0.21647476 -0.24561208 -0.1611854 0.080261305 -0.14023015 0.08181333 -0.28143522
0.084858686 -0.27756375 -0.03697001 -0.04177057 -0.026695333 -0.10628671 -0.20938481 -0.54601544
0.31354067 0.13372943 -0.11622295 0.018048204 0.3129347 0.13823664 -0.18745206 -0.028676435
-0.14994088 -0.36574385 -0.31346256 0.26795086 0.020084979 -0.21635021 -0.016203495 0.3111273
0.40108672 -0.18236297 0.04622229 0.033903446 0.053911176 0.21883681 -0.19827008 0.14085972
0.04507385 -0.19469392 -0.20556134 0.13251644 -0.31065294 -0.16360475 -0.108144194 0.14708452
0.006310855 0.3133427 0.031128082 -0.08253403 0.027360206 0.12547831 -0.2793259 -0.03985296
-0.04487378 0.13501896 -0.016606996 0.33564413 -0.29065982 0.0061649126 -0.06950925 0.0936058
00000000: d1bf 903d 6aa2 dd3c aebf eebd 6955 b1be
00000010: 4325 5ebe 9ef9 b2bd eeec dd3b 36ba c93d
00000020: 7edb c93d b3b0 123c 2e39 95bd 3cb1 443e
00000030: 19dc 6abd 2a09 b13d f348 c73d 1258 60be
00000040: 3d43 a9be a038 25bd ce79 0dbe 967f cf3d
00000050: 3d66 14be 513f 353e eb67 63be 9d62 bfbc
00000060: 0303 b63d f5ce a6bd 7f44 463e fc48 033e
00000070: 1187 373e 7014 8fbe 715b a53d 0dda 0f3f
00000080: 3795 c53d 4146 203e 49be 86be 4f95 21be
00000090: 7006 ac3e 882b 31be d060 843c 4c62 89be
000000a0: 951e 44be ff6b 27be 5921 f1be b515 91be
000000b0: 4386 4cbd 28d8 133e 439e 0f3e ee97 4cbd
000000c0: 0226 b2be 44f7 9e3d 1a09 1bbd 749a 9e3e
000000d0: 0d5c 6c3e 3590 58be 7f64 66be 08b3 f93d
000000e0: 01ea d2bd bad3 30bd 10ea ba3e 71c0 6ebc
000000f0: a050 6b3e 9755 073e aa57 a6bc 20f8 4dbe
00000100: 3a30 61be a915 1fbe fe46 f5bd 6227 783e
00000110: 2d91 cdbd 3a89 5d3e 7196 33be f1e3 5a3d
00000120: 143b 2c3e 1db4 243e c66c e4be cc21 21bd
00000130: 6efc 06bd ca30 3abe 4c83 19bd 550c 2cbe
00000140: fddb 97bd 57ed 78be e18d 0d3d b604 763e
00000150: 3c18 ae3e b494 883e 8483 9ebd 706f 3d3e
00000160: 720e b93e 0f53 2dbe aaaf acbe 1139 bcbd
00000170: 7a2b 6b3e a0c6 9ebe fd40 15bd fadd 5d3d
00000180: beac 3e3e 12d8 8d3d a323 de3c bc2f f03d
00000190: 8ac1 213e 4baf 553e 4215 a53d ea34 89bc
000001a0: 9b74 6e3e dc34 1cbd 9c3a a53e 3228 a23c
000001b0: 316b a7bd fa72 eabd 651f 0ebe c5e3 d23d
000001c0: 8293 513e 5cfc 2f3e a522 56be 8240 4c3e
000001d0: 9cb0 a1bd 1621 b2bd fa75 34be eb0b 343d
000001e0: 4b4a 6dbc d794 2abe cf10 5c3d 971f 0b3c
000001f0: 8375 4abd 1996 91be d91e 173e 7da4 43be
00000200: 1811 8d3e 28bf 3c3e d969 bebe b1dd 423d
00000210: 3713 a1be d011 81bd 1c06 803c 03ce c2bd
00000220: e8d9 96be f06e b9bc 0742 5e3e 2cbb a33e
00000230: ed1f bfbd ab9e 38be bfc9 743e 8171 5d3e
00000240: b75a 5cbc 3b4a 3dbd 13e0 0e3e b39e 5fbe
00000250: b145 d9bd c18b 9abe 6b4c f5bc 7d81 dabd
00000260: c9b3 e13e a007 a7be 325e 07be a454 d2bd
00000270: 9be2 88be 975e 2b3e 7a26 6b3e 1c9f 9cbe
00000280: 38ff 453e 5abc adbe 79ff ccbd d65e 41bd
00000290: 59bf 6cbe 0854 b4bd dec9 03be 46ce b83d
000002a0: 130a c6bd 2768 9abe 04a3 e1bd 5fd4 573e
000002b0: a229 c23c 7cbc 12be 6b06 193f 96e4 bcbe
000002c0: 60c4 9a3e 53dc 1b3e 7f96 a33e c033 87be
000002d0: 8a57 913e a1db c9bd 7fd0 cf3d 9d17 00be
000002e0: 3d91 b73c aed3 82be 2c63 c83e a1a9 453c
000002f0: e70c 8f3c 9792 69bc 289c c0be 0db2 23be
00000300: ed07 9abd 8fab 5d3e bc81 7bbe c90d 25be
00000310: 0a60 a43d 7e98 0fbe bf8d a73d 4718 90be
00000320: 64ca ad3d d61c 8ebe dd6d 17bd 9e17 2bbd
00000330: 2cb0 dabc d9ac d9bd f968 56be abc7 0bbf
00000340: 6788 a03e 5ef0 083e 4c06 eebd d4d9 933c
00000350: fa38 a03e e88d 0d3e 6ff3 3fbe d8ea eabc
00000360: 1a8a 19be c742 bbbe 2a7e a0be db30 893e
00000370: 4189 a43c e98a 5dbe 31bd 84bc 144c 9f3e
00000380: 3d5b cd3e 5cbd 3abe 9553 3d3d 57de 0a3d
00000390: f7d1 5c3d c216 603e 5007 4bbe 883d 103e
000003a0: 5b9f 383d d85d 47be ac7e 52be 64b2 073e
000003b0: e70d 9fbe 0188 27be b47a ddbd 539d 163e
000003c0: 4acb ce3b 746e a03e 5200 ff3c 9a07 a9bd
000003d0: 8322 e03c 637d 003e ce03 8fbe db3c 23bd
000003e0: 92cd 37bd 6942 0a3e 650b 88bc 8cd9 ab3e
000003f0: 5dd1 94be 0903 ca3b de5a 8ebd 66b4 bf3d

x_lin.0.bias f4 [32]
-0.27912453 -0.2841093 -0.098727085 0.15247948 -0.2220851 -0.039436866 0.09120893 -0.19141726
0.2340146 0.0887968 -0.10125712 0.03167537 0.25227258 -0.18321751 -0.12220337 0.06426899
0.25425848 -0.10159429 0.24213359 -0.19462897 -0.19401889 0.1748403 0.16061196 0.011734008
-0.16397436 0.19343458 -0.18509988 0.19111903 0.1238877 -0.03914932 0.012782664 0.3214289
00000000: 69e9 8ebe c676 91be 6d31 cabd 9523 1c3e
00000010: 476a 63be 8d88 21bd bfcb ba3d e302 44be
00000020: 86a1 6f3e 19db b53d e55f cfbd 08be 013d
00000030: df29 813e 5f9d 3bbe c345 fabd 769f 833d
00000040: 2b2e 823e ab10 d0bd def1 773e d14c 47be
00000050: e3ac 46be 5609 333e 7677 243e ff3f 403c
00000060: e5e8 27be b713 463e d38a 3dbe b5b4 433e
00000070: d6b8 fd3d 0a5b 20bd 616e 513c 5492 a43e

x_lin.2.weight f4 [32, 32, 1, 1]
0.11603848 0.08588683 0.045547124 0.10292426 -0.08953433 -0.1634304 0.03600299 -0.20783702
0.012617148 0.23342839 0.02270606 -0.10025116 -0.14978448 0.20733814 0.052807383 0.23270571
-0.002080118 -0.110228285 -0.10073718 -0.0018722704 0.08853247 0.1428755 -0.019225132 -0.34993565
0.17238861 -0.00087770564 0.086499535 -0.07041571 0.03719749 0.119490564 -0.109014966 -0.071875066
-0.0045556217 -0.057047 0.10588363 0.03458741 -0.05181009 -0.118269145 -0.12697707 0.02017454
-0.049298726 -0.029946111 -0.040745996 0.13600846 -0.12879877 0.21393551 0.021972146 0.14562368
-0.2797411 0.10210571 -0.18836239 -0.14228097 -0.11812313 0.0639223 0.12874049 0.029289959
0.08046485 0.006041126 0.2089288 -0.12854834 0.14262648 0.07669993 -0.16626213 0.076178156
0.048772216 -0.034526266 0.09039473 -0.12219692 0.1564222 0.07345321 0.09408354 0.15180269
-0.08784268 0.16389205 -0.051018167 0.109504804 -0.02278055 0.056118608 0.109959394 0.114358194
0.0447915 -0.055528764 0.025605666 0.029601803 0.26226756 -0.013555995 0.19816752 -0.163418
-0.055198785 -0.11217111 0.16379608 0.14381076 -0.1785007 0.20546085 -0.04106187 -0.05204442
0.13757168 0.067254454 -0.06371804 0.06334322 -0.21254824 -0.094449334 -0.20287493 -0.23181477
0.0127251595 -0.11440867 -0.24261245 -0.10366648 0.012561762 -0.066072695 0.07260098 0.1491642
0.13325888 -0.18027397 -0.12482275 0.28995565 0.21490818 -0.037755962 0.069272354 -0.0059939926
0.096634805 -0.055223905 -0.28400046 -0.11866615 0.06991116 -0.22472052 -0.2188044 -0.24702792
-0.1578135 -0.08665442 0.008688103 0.012770462 -0.03563093 -0.08139914 0.06024088 -0.13663432
-0.07990746 0.048870802 0.12471376 -0.112037934 -0.25389096 -0.100540675 -0.019885238 0.19611736
-0.14516369 -0.0070144255 -0.29172662 -0.051864855 -0.17199922 -0.011598966 0.2010858 0.09630627
-0.03161741 0.11206344 0.12950623 0.12672642 -0.09035771 0.20214614 -0.17615357 0.0691028
0.17488624 -0.043765284 0.21839638 0.06480798 -0.098592676 -0.12090419 -0.029733052 0.14408998
-0.059163563 0.10278049 -0.07032933 0.08111198 0.2130729 -0.2162879 0.05995323 0.021162566
-0.008013177 0.21245669 0.16413815 -0.16946623 -0.3723768 0.010133663 -0.19248971 0.22336954
0.065121114 -0.17662942 0.114183985 0.057698492 -0.14388873 -0.028653944 0.07221033 0.10962971
0.019725112 -0.101103045 -0.008485075 -0.19175473 -0.028032912 0.16454233 -0.07126093 0.112141214
-0.15563396 -0.1467227 0.1522504 0.008839319 0.009467311 0.1489872 -0.11640586 0.17535962
-0.20906906 0.22563054 -0.13334426 -0.08150313 -0.10778785 0.009213041 0.16753373 -0.06858575
0.005481831 0.003022629 0.21123447 -0.12961526 0.08216044 0.13795348 -0.17267299 0.16715601
0.099912986 -0.23103729 -0.20931779 -0.18814595 -0.027582472 -0.14689802 -0.1284571 -0.080101684
0.14552616 -0.015779274 0.026252547 0.05364963 -0.15281421 -0.11662718 -0.069159426 -0.12110046
0.09838717 -0.110766366 -0.1734502 -0.10135448 0.10659417 -0.108613774 0.040744614 -0.12012272
0.17634112 -0.13962935 -0.06022453 -0.1862597 -0.099989906 0.09156088 -0.2926756 -0.09753886
00000000: 95a5 ed3d 6fe5 af3d 9f8f 3a3d f4c9 d23d
00000010: c65d b7bd 4c5a 27be df77 133d 3ad3 54be
00000020: 28b8 4e3c da07 6f3e 0f02 ba3c 7b50 cdbd
00000030: 1a61 19be 7350 543e 8e4c 583d 684a 6e3e
00000040: 9752 08bb 5ebf e1bd 4b4f cebd f866 f5ba
00000050: 8350 b53d f44d 123e 067e 9dbc c42a b3be
00000060: a486 303e d415 66ba ab26 b13d 1d36 90bd
00000070: 655c 183d 78b7 f43d 3d43 dfbd 3c33 93bd
00000080: 5347 95bb 1daa 69bd 84d9 d83d 87ab 0d3d
00000090: d136 54bd 1837 f2bd 4706 02be 1445 a53c
000000a0: 76ed 49bd 8c51 f5bc 46e5 26bd cd45 0b3e
000000b0: d3e3 03be e911 5b3e eefe b33c 601e 153e
000000c0: 3a3a 8fbe cc1c d13d 12e2 40be 1ab2 11be
000000d0: 8aea f1bd b2e9 823d 8cd4 033e 7ff1 ef3c
000000e0: c1ca a43d a3f4 c53b 6ef1 553e 2da2 03be
000000f0: ad0c 123e da14 9d3d 9f40 2abe 4b03 9c3d
00000100: 60c5 473d 6a6b 0dbd df20 b93d 6142 fabd
00000110: 242d 203e a36e 963d dfae c03d 2a72 1b3e
00000120: dde6 b3bd 51d3 273e 6df8 50bd 0e44 e03d
00000130: 479e babc a0dc 653d 6432 e13d a134 ea3d
00000140: 4b77 373d 2172 63bd f9c2 d13c 7b7f f23c
00000150: ef47 863e f719 5ebc 6dec 4a3e 0c57 27be
00000160: 1f18 62bd f8b9 e5bd 29ba 273e 2143 133e
00000170: e3c8 36be 5464 523e 7e30 28bd 882c 55bd
00000180: 97df 0c3e b4bc 893d 9b7e 82bd 17ba 813d
00000190: 3fa6 59be a76e c1bd 72be 4fbe da60 6dbe
000001a0: 307d 503c 184f eabd 666f 78be 174f d4bd
000001b0: d9cf 4d3c 1f51 87bd d3af 943d 80be 183e
000001c0: 0475 083e bd99 38be 12a3 ffbd 1175 943e
000001d0: e410 5c3e ffa5 1abd aade 8d3d 4169 c4bb
000001e0: 78e8 c53d 7632 62bd 8268 91be 3d07 f3bd
000001f0: 952d 8f3d 231d 66be 430e 60be e3f4 7cbe
00000200: dd99 21be df77 b1bd 8c58 0e3c 333b 513c
00000210: bdf1 11bd 98b4 a6bd 24bf 763d dee9 0bbe
00000220: 86a6 a3bd c02c 483d ee69 ff3d 2574 e5bd
00000230: fffd 81be 45e8 cdbd 5ee6 a2bc fdd2 483e
00000240: caa5 14be 44d9 e5bb 315d 95be 3e70 54bd
00000250: 9020 30be 9709 3ebc 70e9 4d3e 393c c53d
00000260: 4281 01bd 8481 e53d 489d 043e 92c4 013e
00000270: 770d b9bd 66ff 4e3e 9a61 34be c585 8d3d
00000280: 6115 333e 3a43 33bd 4da3 5f3e 0cba 843d
00000290: f5ea c9bd 9e9c f7bd bb92 f3bc 538c 133e
000002a0: 7e55 72bd 947e d23d d308 90bd 0a1e a63d
000002b0: c82f 5a3e 937a 5dbe 8591 753d 1e5d ad3c
000002c0: b349 03bc 3f8e 593e d513 283e 8e88 2dbe
000002d0: 2ca8 bebe aa07 263c 061c 45be fcba 643e
000002e0: 385e 853d 58de 34be 4bd9 e93d 4155 6c3d
000002f0: 9157 13be adbb eabc 02e3 933d 8b85 e03d
00000300: 8f96 a13c 1d0f cfbd fc04 0bbc 5a5b 44be
00000310: 47a5 e5bc c97d 283e 40f1 91bd 4baa e53d
00000320: 825e 1fbe 7a3e 16be 87e7 1b3e cbd2 103c
00000330: c81c 1b3c 1a90 183e 3266 eebd 7991 333e
00000340: 3316 56be b10b 673e 668b 08be 1deb a6bd
00000350: e0bf dcbd 4bf2 163c f68d 2b3e b076 8cbd
00000360: eea0 b33b 4d17 463b d94d 583e ddb9 04be
00000370: bc43 a83d ad43 0d3e 30d1 30be f22a 2b3e
00000380: 2e9f cc3d 0a95 6cbe 6757 56be 55a9 40be
00000390: a3f4 e1bc 6f6c 16be 428a 03be 5a0c a4bd
000003a0: cf04 153e 8943 81bc 950f d73c b7bf 5b3d
000003b0: 547b 1cbe 3bda eebd 75a3 8dbd 8503 f8bd
000003c0: 367f c93d 7ad9 e2bd ee9c 31be f092 cfbd
000003d0: 0b4e da3d e670 debd d3e3 263d e702 f6bd
000003e0: c492 343e fffa 0ebe ffad 76bd ddba 3ebe
000003f0: 82c7 ccbd 4584 bb3d 94d9 95be 74c2 c7bd

x_lin.2.bias f4 [32]
-0.15764299 -0.12911256 -0.118616715 -0.13945843 -0.14250068 0.09607457 0.028956972 0.03902024
-0.06630232 0.073597856 0.16889244 -0.004579923 0.09809758 -0.045227718 -0.0024950958 0.07564009
-0.0686563 0.032740816 0.018057255 -0.15788962 -0.08629363 0.19351563 -0.13019647 0.05716804
0.069258325 -0.019347558 0.100683644 -0.095910005 0.08570623 0.15446664 -0.07141702 -0.095227376
00000000: 2a6d 21be 1536 04be 52ed f2bd 31ce 0ebe
00000010: b3eb 11be bfc2 c43d 2c37 ed3c b0d3 1f3d
00000020: 83c9 87bd 79ba 963d 24f2 2c3e 2e13 96bb
00000030: 62e7 c83d b340 39bd c384 23bb 31e9 9a3d
00000040: ad9b 8cbd 3c1b 063d cfec 933c d1ad 21be
00000050: b7ba b0bd f628 463e 3952 05be 0929 6a3d
00000060: 4fd7 8d3d c57e 9ebc 3a33 ce3d 776c c4bd
00000070: bf86 af3d 812c 1e3e 1643 92bd 9206 c3bd

edge_lin.0.weight f4 [32, 1, 64, 1]
-0.22347277 -0.08462408 0.020140199 -0.1371448 -0.09680021 -0.25309163 0.010945556 -0.01130412
-0.1106786 0.012913757 -0.07324869 0.10385831 -0.05209792 -0.1019381 0.07573012 0.020187337
-0.06474286 -0.096803986 -0.046187215 -0.10504445 -0.20645116 -0.14793341 0.0035828552 -0.0245109
-0.0074391924 -0.061638 0.04249824 -0.083211996 0.023158668 -0.14870298 0.10497527 0.14893691
-0.004958636 0.029379027 -0.00799078 0.0065129665 -0.07704529 -0.18030944 0.074241936 -0.12678544
0.106558494 -0.1353171 -0.15455134 0.07636533 -0.17321567 0.039801013 0.028489243 0.021356078
-0.061745804 -0.12914236 0.010696931 -0.068803824 -0.054543592 -0.17190607 -0.02037296 -0.14347275
-0.006055983 0.029574474 0.012259557 -0.059167117 -0.14840898 -0.057151843 0.072829016 0.16662586
-0.17370878 0.047112312 -0.066956796 -0.19839895 0.1178819 -0.1407542 -0.037322085 -0.12533003
0.08404397 -0.031455237 -0.13561751 -0.051677328 0.0016667171 -0.031862527 0.16369987 0.14033155
-0.050779704 -0.23194227 0.034333736 0.21281394 -0.091434196 0.0022579406 -0.011362929 0.057404403
-0.18196404 0.107856885 -0.15397188 0.15672208 -0.057162024 -0.056146532 0.16537711 0.07844155
0.025381897 0.095695384 -0.023479171 -0.08865531 -0.0246655 -0.22035056 -0.019414734 -0.00045279058
0.16196667 -0.04175717 -0.046480108 0.12318304 0.06813077 -0.1488834 0.16567585 0.05052035
0.0035315836 -0.05927446 -0.096646115 0.1924894 -0.11310638 -0.082992814 -0.12715936 -0.074747734
-0.098372586 -0.08191967 -0.08270061 0.06907166 -0.16357958 0.010103379 0.11428455 0.09867588
-0.09371368 -0.11631053 -0.0075121927 -0.0696629 -0.067627 -0.19107871 -0.052380197 0.31401712
-0.11425169 -0.049415506 -0.04592103 0.032686245 0.055552255 0.07321893 0.14009544 0.08736681
-0.05246566 -0.08365691 0.029268108 -0.097128734 -0.0867364 0.06632566 0.18171158 -0.10914635
-0.04885918 -0.1422688 0.0411761 0.16945653 0.037183583 -0.13544658 -0.11192686 -0.014908133
-0.040505655 0.095547944 -0.10644045 -0.050724775 -0.0141847525 -0.22903086 -0.034361158 0.46208858
-0.04729509 -0.07244371 0.07601868 -0.101514086 0.0054744803 -0.089257576 0.09893034 -0.0026372867
-0.04849825 0.0011077906 -0.12344953 0.02366552 0.025835484 -0.05006772 0.075320326 -0.06545891
0.048323672 -0.069698155 0.059627164 0.11597385 -0.04311847 -0.1313803 -0.13537656 0.122581795
0.06766545 0.10655771 -0.31684324 -0.13739523 -0.11914779 -0.11320153 -0.07169766 -0.062223785
-0.07808908 0.05989299 0.024450455 0.14316571 -0.13893314 0.07643233 0.09226118 -0.022885127
0.094386816 0.07312402 -0.04770887 -0.06065048 0.07663325 -0.016732357 -0.11571733 -0.32931575
0.11251584 -0.16503046 -0.04997948 0.033449918 -0.022577025 0.0004889694 0.022274887 0.10756015
-0.018276744 -0.031619243 -0.14747332 -0.04716853 -0.15036143 -0.1304821 -0.092734836 -0.19176398
0.060623005 0.071003295 0.0052113393 0.010510399 -0.025004061 0.13152012 0.08818036 0.084437884
0.10606966 -0.00802532 -0.116028465 0.04053219 0.06523858 0.008766492 0.053543933 -0.2352488
0.13007578 0.04100214 -0.01944939 0.012187636 0.095916346 -0.052112576 -0.030057745 0.14129049
00000000: 0cd6 64be 644f adbd 0ffd a43c b06f 0cbe
00000010: 303f c6bd 3a95 81be fd54 333c ea34 39bc
00000020: 76ab e2bd 3994 533c 6903 96bd aab3 d43d
00000030: a164 55bd ecc4 d0bd 6518 9b3d ea5f a53c
00000040: e897 84bd 2b41 c6bd ce2e 3dbd 8b21 d7bd
00000050: ef67 53be db7b 17be 56ce 6a3b 15cb c8bc
00000060: 78c4 f3bb 2178 7cbd a212 2e3d 0d6b aabd
00000070: 3fb7 bd3c 9845 18be 46fd d63d eb82 183e
00000080: 0e7c a2bb 49ac f03c c3eb 02bc b96a d53b
00000090: ecc9 9dbd 0aa3 38be 280c 983d 0bd4 01be
000000a0: 573b da3d 9190 0abe b542 1ebe 6d65 9c3d
000000b0: 735f 31be 6306 233d 4662 e93c f1f2 ae3c
000000c0: 2be9 7cbd e53d 04be 2e42 2f3c 05e9 8cbd
000000d0: 1a69 5fbd 2508 30be 32e5 a6bc 85ea 12be
000000e0: 4471 c6bb 2b46 f23c 4fdc 483c 3859 72bd
000000f0: 86f8 17be 0d18 6abd 6127 953d f89f 2a3e
00000100: b7e0 31be d7f8 403d a520 89bd 1829 4bbe
00000110: 116c f13d de21 10be 0bdf 18bd 8456 00be
00000120: 3f1f ac3d 35d7 00bd 51df 0abe 9bab 53bd
00000130: bf75 da3a 4882 02bd f0a0 273e 13b3 0f3e
00000140: 61fe 4fbd 4682 6dbe 88a1 0c3d e6eb 593e
00000150: da41 bbbd f5f9 133b 942b 3abc e120 6b3d
00000160: c854 3abe 12e4 dc3d ceaa 1dbe c17b 203e
00000170: ba22 6abd e8f9 65bd 9e58 293e f7a5 a03d
00000180: b2ed cf3c f1fb c33d 6457 c0bc ea90 b5bd
00000190: 4d0f cabc 94a3 61be a60b 9fbc 8664 edb9
000001a0: 97da 253e 9109 2bbd ed61 3ebd 6447 fc3d
000001b0: 2588 8b3d e474 18be eea6 293e 6dee 4e3d
000001c0: 2472 673b c7c9 72bd 66ee c5bd f11b 453e
000001d0: 51a4 e7bd 23f8 a9bd 1036 02be 5715 99bd
000001e0: 9177 c9bd 80c5 a7bd f05e a9bd 7175 8d3d
000001f0: 6881 27be a588 253c 050e ea3d 9416 ca3d
00000200: f5ec bfbd 3734 eebd d728 f6bb 6cab 8ebd
00000210: 0680 8abd 23aa 43be 9e8c 56bd dac6 a03e
00000220: cafc e9bd ea67 4abd b117 3cbd 03e2 053d
00000230: c38a 633d cef3 953d 2e75 0f3e 5fed b23d
00000240: 3be6 56bd 5054 abbd acc3 ef3c 6eeb c6bd
00000250: dba2 b1bd bfd5 873d 9a12 3a3e 1f88 dfbd
00000260: 9020 48bd eaae 11be 45a8 283d 0386 2d3e
00000270: d04d 183d 82b2 0abe e939 e5bd 3e41 74bc
00000280: 42e9 25bd a4ae c33d 73fd d9bd c8c4 4fbd
00000290: 2a67 68bc 1187 6abe 49be 0cbd e096 ec3e
000002a0: 7fb8 41bd 5e5d 94bd afaf 9b3d 9ee6 cfbd
000002b0: 4563 b33b adcc b6bd fd9b ca3d 54d6 2cbb
000002c0: 1aa6 46bd 4933 913a 1bd3 fcbd 31de c13c
000002d0: f0a4 d33c cf13 4dbd 8b41 9a3d 520f 86bd
000002e0: 0bef 453d e8bd 8ebd 9d3b 743d b383 ed3d
000002f0: fe9c 30bd 8f88 06be 27a0 0abe 2a0c fb3d
00000300: 2f94 8a3d ee3a da3d 4739 a2be 56b1 0cbe
00000310: c203 f4bd 34d6 e7bd 39d6 92bd 5ede 7ebd
00000320: 2bed 9fbd 5a52 753d 524c c83c 089a 123e
00000330: 7d44 0ebe 8e88 9c3d 6ef3 bc3d 9779 bbbc
00000340: e04d c13d 0cc2 953d 606a 43bd a36c 78bd
00000350: e5f1 9c3d 4c12 89bc 35fd ecbd 139c a8be
00000360: b46e e63d bffd 28be 49b7 4cbd c802 093d
00000370: 74f3 b8bc 2e2e 003a d379 b63c 7f48 dc3d
00000380: 1cb9 95bc 2e83 01bd 3f03 17be ca33 41bd
00000390: 59f8 19be 1a9d 05be c3eb bdbd c75d 44be
000003a0: d44f 783d 2d6a 913d e2c3 aa3b cf33 2c3c
000003b0: 51d5 ccbc 36ad 063e e897 b43d c5ed ac3d
000003c0: 0d3b d93d a27c 03bc 55a0 edbd 1505 263d
000003d0: ce9b 853d 55a1 0f3c e250 5b3d 10e5 70be
000003e0: 9632 053e dcf1 273d 5454 9fbc a7ae 473c
000003f0: ca6f c43d ff73 55bd a93b f6bc 74ae 103e

edge_lin.0.bias f4 [32]
-0.069522604 -0.057125315 0.067742564 -0.007742011 -0.060160436 0.0069946707 0.10478724 -0.05329147
0.06982806 0.073267184 -0.12439862 0.0343446 0.061233673 -0.10497077 -0.08340204 0.014031879
-0.076855816 -0.0029102238 -0.014431071 0.004598759 -0.04711839 -0.022973396 0.07468315 -0.10188841
-0.0009005559 0.045424502 -0.0057289186 0.046570975 -0.010216777 -0.12399962 0.04651027 0.08819945
00000000: de61 8ebd 3cfc 69bd 9dbc 8a3d b2b0 fdbb
00000010: ca6a 76bd 8d33 e53b b19a d63d 2848 5abd
00000020: 0402 8f3d 1b0d 963d b4c4 febd ecac 0c3d
00000030: 29d0 7a3d eafa d6bd b0ce aabd f7e5 653c
00000040: 9566 9dbd 74b9 3ebb 4c70 6cbc 30b1 963b
00000050: 37ff 40bd b432 bcbc 7bf3 983d dfaa d0bd
00000060: 4913 6cba 0b0f 3a3d a7b9 bbbb 35c1 3e3d
00000070: 4564 27bc 83f3 fdbd 8e81 3e3d eaa1 b43d

edge_lin.2.weight f4 [32, 32, 1, 1]
0.12251521 0.10130421 0.11370195 -0.08570191 0.12803185 -0.051637426 0.03489722 -0.1598811
0.000845643 0.10329279 0.115192235 0.021115126 0.21290024 0.061848253 -0.06224968 -0.0442058
0.20594445 -0.06952846 0.0028310544 -0.13063861 0.30888808 -0.10108912 0.04015111 0.067911014
-0.094556704 -0.018331135 0.035165064 0.12529577 -0.20131503 0.16778798 0.16229522 0.01898479
-0.20154077 -0.16461787 -0.060637157 -0.15929508 0.12951507 0.1850059 0.001493981 0.0055506625
0.1277494 0.19864115 -0.13076735 0.17702194 0.25616017 -0.07427403 -0.091043964 -0.09054105
0.10500225 0.07303111 0.01627038 -0.09516261 -0.2513797 0.27855858 -0.053264044 -0.13736656
0.060254324 -0.24198432 -0.044827797 0.059716772 -0.070780315 -0.16219981 0.089453384 0.026195245
-0.15026581 0.10031047 -0.004688984 0.04175832 -0.037338894 -0.16682202 -0.014547565 0.046856277
-0.17039184 -0.05830053 0.07478404 0.010231275 0.0752689 -0.061899815 0.0025204986 0.10474081
0.008964378 -0.060424447 -0.10441822 -0.032860015 0.17884122 0.120895825 0.010047213 -0.04235777
-0.0909375 -0.13192143 -0.12441352 -0.07142327 -0.021782216 0.15093067 0.033400647 0.015677273
-0.18960199 -0.14766225 -0.18946286 0.11771357 -0.17088076 0.16336514 -0.033317395 0.032534726
-0.06110288 -0.0231654 -0.11394416 -0.10947497 0.08785384 -0.07489582 -0.08130087 0.1299046
-0.10399031 0.015574463 0.008086489 0.022790108 -0.023674497 0.018281974 -0.15228552 -0.04426312
0.10983796 -0.07673854 -0.17694408 0.09288878 0.09871278 -0.02704784 -0.17659132 -0.08989375
0.15358435 0.13862541 -0.16821541 0.08325746 0.12051416 -0.033617236 -0.11373282 -0.18035454
-0.08921535 -0.06308091 -0.0025975623 -0.056192406 0.14653401 -0.114972785 0.18481134 -0.046397563
-0.08834956 0.22058913 -0.006139042 -0.07025331 0.15529954 0.12773071 0.08947214 0.06309514
0.06618465 -0.08307489 0.21683317 -0.15566482 -0.05381989 -0.109089755 0.12131597 -0.06771925
0.025400627 0.22996302 -0.095530555 0.12005225 0.18801297 -0.13992722 -0.029055834 -0.12591898
0.018082466 0.03531203 -0.033757333 0.20420064 0.19608736 0.0026896484 0.050211646 0.13568345
-0.05276639 -0.03650057 -0.06195014 -0.15649667 0.18613456 -0.0529229 0.11583256 0.08357028
0.03570398 -0.044088725 0.10559216 0.062366482 -0.04976287 0.23053034 0.050001092 0.047446333
-0.11903107 -0.0851732 0.040258553 -0.16546951 0.07272759 -0.0724755 -0.073604815 -0.006804896
0.066080056 0.018136112 0.039357528 -0.12084101 -0.16175345 -0.10813562 -0.09559337 -0.0729327
0.024098825 0.169302 0.11714121 -0.031087788 -0.0789333 0.12444211 -0.108691595 -0.11623607
0.013599729 -0.0072331987 -0.003962736 0.032638412 -0.06628247 -0.09045457 -0.049898952 -0.049170896
-0.15538152 0.10602182 0.099467486 -0.07606972 -0.13882026 -0.18903382 -0.14832312 0.082038954
0.12359926 -0.20494214 0.13255401 -0.09821093 0.009727983 -0.046523664 -0.028854413 -0.008126139
0.114367336 0.15611662 0.1633481 -0.028474722 0.14801979 -0.1342656 -0.023543287 0.19405802
-0.19164327 -0.06488318 0.10559927 0.032503366 -0.041283857 0.1328111 0.1563057 0.10238564
00000000: 41e9 fa3d 9578 cf3d 91dc e83d 7c84 afbd
00000010: c81a 033e c481 53bd 63f0 0e3d dfb7 23be
00000020: 24ae 5d3a 2c8b d33d e8e9 eb3d a1f9 ac3c
00000030: 8502 5a3e 9854 7d3d 85f9 7ebd 2411 35bd
00000040: 1ae3 523e f064 8ebd 3689 393b 21c6 05be
00000050: 9426 9e3e d007 cfbd 7e75 243d ee14 8b3d
00000060: f2a6 c1bd 2d2b 96bc 3e09 103d 894d 003e
00000070: 8725 4ebe 9dd0 2b3e b830 263e fe85 9b3c
00000080: b460 4ebe 9691 28be ab5e 78bd 401e 23be
00000090: 999f 043e 3072 3d3e afd1 c33a 55e2 b53b
000000a0: bdd0 023e 9668 4b3e e0e7 05be 3d45 353e
000000b0: 6d27 833e fc1c 98bd 4275 babd 966d b9bd
000000c0: 6b0b d73d 5691 953d 7649 853c 9de4 c2bd
000000d0: d7b4 80be 3b9f 8e3e 662b 5abd d2a9 0cbe
000000e0: 3dcd 763d bdca 77be 5a9d 37bd 9399 743d
000000f0: 45f5 90bd b517 26be 5633 b73d 6997 d63c
00000100: 48df 19be 936f cd3d 0ca6 99bb c60a 2b3d
00000110: abf0 18bd 64d3 2abe e958 6ebc 5eec 3f3d
00000120: 337b 2ebe 89cc 6ebd 6028 993d 14a1 273c
00000130: 9526 9a3d a98a 7dbd f32e 253b 5a82 d63d
00000140: 54df 123c a07f 77bd 38d9 d5bd 3998 06bd
00000150: 2722 373e 3b98 f73d 119d 243c 577f 2dbd
00000160: 713d babd 6916 07be 84cc febd 5d46 92bd
00000170: 9e70 b2bc 928d 1a3e 1ecf 083d a06d 803c
00000180: 0627 42be c634 17be 8d02 42be d013 f13d
00000190: 5efb 2ebe 3149 273e d277 08bd 2243 053d
000001a0: 0347 7abd 5dc5 bdbc 8e5b e9bd 6a34 e0bd
000001b0: b7ec b33d fb62 99bd 1281 a6bd b605 053e
000001c0: dff8 d4bd 082c 7f3c 317d 043c 52b2 ba3c
000001d0: 05f1 c1bc 14c4 953c bcf0 1bbe 3f4d 35bd
000001e0: b9f2 e03d 1829 9dbd d430 35be 793c be3d
000001f0: ed29 ca3d 6f93 ddbc 5bd4 34be 371a b8bd
00000200: 3745 1d3e d2f3 0d3e a940 2cbe e382 aa3d
00000210: 21d0 f63d 3ab2 09bd c1ec e8bd dcae 38be
00000220: 8ab6 b6bd 9030 81bd dd3b 2abb 022a 66bd
00000230: 030d 163e da76 ebbd 2f3f 3d3e 5f0b 3ebd
00000240: 9df0 b4bd 1ee2 613e 042a c9bb f8e0 8fbd
00000250: d806 1f3e d7cb 023e 2b3d b73d 0638 813d
00000260: d18b 873d 2b23 aabd 8409 5e3e 9966 1fbe
00000270: 3f72 5cbd 736a dfbd 8274 f83d 64b0 8abd
00000280: fa14 d03c 6d7b 6b3e 86a5 c3bd f4dd f53d
00000290: 7986 403e 1549 0fbe 8006 eebc e8f0 00be
000002a0: ae21 943c 59a3 103d 2145 0abd f919 513e
000002b0: 20cb 483e d044 303b baaa 4d3d 9af0 0a3e
000002c0: 9221 58bd 9f81 15bd 6ebf 7dbd aa40 20be
000002d0: 0f9a 3e3e afc5 58bd 9f39 ed3d e526 ab3d
000002e0: 563e 123d 6196 34bd b440 d83d ff73 7f3d
000002f0: 27d4 4bbd 2510 6c3e f2cd 4c3d 1657 423d
00000300: 90c6 f3bd 496f aebd 27e6 243d d770 29be
00000310: 34f2 943d 096e 94bd 1fbe 96bd 9bfb debb
00000320: fb54 873d 2f92 943c 5c35 213d 7e7b f7bd
00000330: b2a2 25be 3576 ddbd 75c6 c3bd bd5d 95bd
00000340: e66a c53c 815d 2d3e bbe7 ef3d d1ab febc
00000350: c8a7 a1bd 81db fe3d b399 debd 2d0d eebd
00000360: 66d1 5e3c 7804 edbb d7d9 81bb dbaf 053d
00000370: 1bbf 87bd 3f40 b9bd d862 4cbd 6c67 49bd
00000380: 551c 1fbe f821 d93d 9cb5 cb3d 71ca 9bbd
00000390: e626 0ebe 1592 41be 04e2 17be 0a04 a83d
000003a0: 9c21 fd3d 5adc 51be 3dbc 073e d022 c9bd
000003b0: 1e62 1f3c 998f 3ebd 1760 ecbc 7f23 05bc
000003c0: 6c39 ea3d 09dd 1f3e b944 273e d243 e9bc
000003d0: 8092 173e ec7c 09be dadd c0bc 25b7 463e
000003e0: 223e 44be 79e1 84bd 6e44 d83d 4022 053d
000003f0: 4319 29bd a2ff 073e 9a0e 203e 90af d13d

edge_lin.2.bias f4 [32]
-0.048572537 -0.072591506 0.07639666 0.041320458 0.08099499 -0.045019962 -0.17228052 0.1625885
-0.020369345 0.16172329 0.10009435 -0.12589899 -0.1630232 0.11932213 -0.047326878 0.035454642
0.111297555 -0.043548502 -0.018675882 0.1447133 -0.07779719 -0.005214749 0.052606106 0.13833421
-0.05722206 -0.15566055 0.07631402 0.06692967 0.13199563 0.012459192 -0.062370133 -0.005048247
00000000: fff3 46bd dbaa 94bd da75 9c3d a43f 293d
00000010: b4e0 a53d da66 38bd 4e6a 30be 9a7d 263e
00000020: 9ddd a6bc ca9a 253e 44fe cc3d aaeb 00be
00000030: 8eef 26be 295f f43d d4d9 41bd e338 113d
00000040: f9ef e33d ea5f 32bd 2afe 98bc b92f 143e
00000050: 2254 9fbd 7ce0 aabb 8079 573d 7ca7 0d3e
00000060: ae61 6abd 7b65 1fbe 864a 9c3d 6c12 893d
00000070: dd29 073e a421 4c3c d377 7fbd c46b a5bb

vertex_output_lin.0.weight f4 [32, 1, 32, 1]
0.19387887 -0.16313294 0.08442052 0.11885298 0.17271964 0.0013340131 -0.15304226 -0.02228675
-0.10341643 -0.027274143 -0.08034456 0.037374098 -0.09455077 -0.07401067 -0.100278266 0.16516525
-0.015644152 -0.10337404 0.19672215 0.08636029 -0.14859816 0.016714483 -0.14965351 -0.1703093
0.08179684 -0.057880953 0.17025584 -0.05640693 0.17194107 0.064291835 -0.0077464087 -0.17352363
0.053308804 0.019734778 -0.056651883 -0.14562373 0.114207745 0.10762445 0.114661455 0.09987962
-0.04628312 -0.06996727 -0.019263541 0.07191058 0.0808015 0.06593852 -0.013030707 0.13638213
0.13969685 -0.08768555 -0.16535477 0.08551376 -0.0046266993 0.02919239 -0.13734028 -0.16495222
0.08834111 -0.082694255 -0.14320543 0.043904282 -0.06415238 -0.20420194 -0.096309245 -0.10643343
-0.02459679 0.1301014 -0.02533056 0.022622049 0.03353724 0.1298951 -0.11714307 -0.17577916
-0.07941129 -0.09251642 -0.20129262 0.09400637 -0.26593688 -0.2063725 0.050169285 -0.074602105
0.101164915 -0.001882007 0.060192544 0.0990164 -0.05884343 -0.0052966992 -0.050514616 -0.15524133
0.06638836 0.021986522 0.10258398 0.109624535 0.06272964 0.0688673 -0.1611418 -0.12520985
0.007716616 -0.010542113 -0.0025324756 -0.02679292 -0.14186579 0.032713626 -0.08808576 -0.052539293
-0.02173138 -0.0030473336 -0.0060077393 -0.00962534 0.08308581 -0.031001994 0.06794011 -0.09148698
0.17863433 0.18352966 -0.20393753 0.18682364 -0.11636728 -0.02671549 0.10885893 -0.050277248
0.24570654 0.0031549819 0.03088454 -0.043951724 -0.029997556 -0.23960114 -0.11093868 -0.15238465
0.048295688 -0.016173122 -0.104958475 0.006421423 -0.047201972 -0.009395439 0.17847978 0.011847187
-0.11080519 -0.13202558 0.0174341 -0.031907313 0.15130849 -0.11291587 -0.10295535 -0.1657305
-0.08326974 -0.0155939525 -0.052439 -0.13098381 0.15996562 -0.07992728 0.032422785 -0.078416914
0.05581855 0.18695919 -0.005007613 -0.14970793 0.15368325 0.05108365 -0.1444163 -0.17342782
-0.08561041 0.0471637 -0.107710324 -0.029409735 0.063843876 -0.05610589 -0.13803497 -0.046311237
-0.17127688 0.08499122 -0.012510553 0.04127681 -0.008602367 0.0024798946 -0.041469622 -0.12663166
-0.05265059 0.11824501 -0.104004875 0.11936976 0.19819176 -0.06981242 -0.1288195 -0.07701225
-0.04936151 -0.083885364 -0.004749412 -0.19767176 -0.1672508 0.021399265 0.017551824 -0.031521313
0.14642495 0.061697852 0.0074257036 0.059418425 -0.11550743 -0.12742577 -0.14239135 -0.12737487
0.08372842 -0.13000353 0.043516513 0.009906858 -0.30004227 0.12597708 0.15665573 -0.14883555
0.10204108 -0.22496489 0.24691506 -0.087918974 0.041331686 -0.17570205 -0.10637164 0.15786725
-0.022899996 -0.08738182 -0.025461012 0.17519315 -0.10486097 0.06572127 0.088313796 -0.0621567
-0.14956455 -0.19715105 -0.011619819 -0.037446156 0.07740645 -0.15752323 -0.14010535 -0.15418363
-0.25988847 0.07306041 0.0602918 0.12826677 0.09268362 0.03586464 -0.18810074 -0.14312544
0.18035488 -0.06430784 -0.13206893 0.13682152 -0.09081255 0.07120419 -0.18159561 -0.12326599
0.1548397 -0.17423631 0.15551995 0.004144204 0.1132833 -0.14262666 -0.25716853 -0.04777228
00000000: 2f88 463e 520c 27be aae4 ac3d 3169 f33d
00000010: 6bdd 303e 0dda ae3a 1cb7 1cbe b492 b6bc
00000020: fecb d3bd 066e dfbc b08b a4bd 9515 193d
00000030: d6a3 c1bd e892 97bd b15e cdbd 1421 293e
00000040: 2a28 80bc c5b5 d3bd 8871 493e aadd b03d
00000050: 1e2a 18be d0ec 883c c53e 19be 9065 2ebe
00000060: 1a85 a73d 9414 6dbd 8c57 2e3e f40a 67bd
00000070: 5211 303e 70ab 833d 96d5 fdbb 2eb0 31be
00000080: 555a 5a3d d4aa a13c ce0b 68bd 631e 15be
00000090: c0e5 e93d 356a dc3d a0d3 ea3d b08d cc3d
000000a0: 5e93 3dbd 004b 8fbd 93ce 9dbc db45 933d
000000b0: 427b a53d c60a 873d bf7e 55bc c2a7 0b3e
000000c0: b10c 0f3e 7b94 b3bd c352 29be d721 af3d
000000d0: 919b 97bb e124 ef3c eea2 0cbe 3ce9 28be
000000e0: 2fec b43d 9b5b a9bd 72a4 12be fad4 333d
000000f0: 5362 83bd 501a 51be c83d c5bd c5f9 d9bd
00000100: 357f c9bc 4d39 053e 0982 cfbc e051 b93c
00000110: 585e 093d 3903 053e b5e8 efbd 74ff 33be
00000120: 63a2 a2bd 4079 bdbd a71f 4ebe 6986 c03d
00000130: e128 88be 5053 53be 4f7e 4d3d fdc8 98bd
00000140: 8d2f cf3d adad f6ba 758c 763d 1cc9 ca3d
00000150: cf05 71bd ef8f adbb 6ae8 4ebd 95f7 1ebe
00000160: 9ff6 873d 141d b43c 8d17 d23d d482 e03d
00000170: 6678 803d 4d0a 8d3d 5b02 25be 0337 00be
00000180: abdb fc3b d4b8 2cbc e4f7 25bb d37c dbbc
00000190: 4445 11be b9fe 053d 4f66 b4bd 7133 57bd
000001a0: 0206 b2bc c6b5 47bb 92dc c4bb 9ab3 1dbc
000001b0: e528 aa3d e5f7 fdbc 2f24 8b3d 875d bbbd
000001c0: ebeb 363e 33ef 3b3e 00d5 50be b24e 3f3e
000001d0: f851 eebd 71da dabc 6ef1 de3d 84ef 4dbd
000001e0: 7f9a 7b3e d0c3 4e3b 9301 fd3c b906 34bd
000001f0: 6fbd f5bc 005a 75be d233 e3bd b90a 1cbe
00000200: b3d1 453d 7f7d 84bc 78f4 d6bd cd6a d23b
00000210: db56 41bd 54ef 19bc 67c3 363e b41a 423c
00000220: d5ed e2bd b731 07be f5d1 8e3c 3eb1 02bd
00000230: 9df0 1a3e 7040 e7bd 41da d2bd 42b5 29be
00000240: 5389 aabd c77d 7fbc 47ca 56bd 9f20 06be
00000250: 07ce 233e eab0 a3bd c1cd 043d 0c99 a0bd
00000260: fea1 643d 3b72 3f3e e716 a4bb 094d 19be
00000270: 245f 1d3e 173d 513d dee1 13be 1097 31be
00000280: 8354 afbd b92e 413d 3b97 dcbd afec f0bc
00000290: 94c0 823d 4acf 65bd 0a59 0dbe dab0 3dbd
000002a0: 3563 2fbe e00f ae3d 10f9 4cbc df11 293d
000002b0: f1f0 0cbc ba85 223b 0ddc 29bd bbab 01be
000002c0: 25a8 57bd 712a f23d 8200 d5bd 2278 f43d
000002d0: c8f2 4a3e d0f9 8ebd 42e9 03be 99b8 9dbd
000002e0: 4b2f 4abd 17cc abbd f5a0 9bbb 776a 4abe
000002f0: cb43 2bbe 834d af3c d8c8 8f3c 7e1c 01bd
00000300: 6cf0 153e e3b6 7c3d 5153 f33b bc60 733d
00000310: 298f ecbd e77b 02be 0acf 11be 8f6e 02be
00000320: ce79 ab3d a51f 05be 5f3e 323d 6050 223c
00000330: 249f 99be 2300 013e 5c6a 203e 5968 18be
00000340: eafa d03d 325d 66be 4dd7 7c3e dd0e b4bd
00000350: 6a4b 293d 3deb 33be 60d9 d9bd f4a7 213e
00000360: c698 bbbc 3df5 b2bd 9d93 d0bc d565 333e
00000370: 59c1 d6bd e098 863d dddd b43d 0698 7ebd
00000380: 7327 19be f7e1 49be 0e61 3ebc 2461 19bd
00000390: 4687 9e3d c54d 21be c777 0fbe 50e2 1dbe
000003a0: 1a10 85be b2a0 953d 89f4 763d 5d58 033e
000003b0: e9d0 bd3d cde6 123d 7b9d 40be 7a8f 12be
000003c0: f3ae 383e d4b3 83bd 143d 07be f11a 0c3e
000003d0: eefb b9bd 81d3 913d 33f4 39be e172 fcbd
000003e0: 4c8e 1e3e 016b 32be 9f40 1f3e 1acc 873b
000003f0: 1301 e83d b90c 12be 98ab 83be deac 43bd

vertex_output_lin.0.bias f4 [32]
-0.11690597 -0.15543802 0.03550773 -0.053447448 0.027133556 0.10255515 -0.12436074 -0.0006493573
-0.10912067 -0.055670787 -0.058288544 -0.13267425 0.10543725 0.04339354 -0.15400235 -0.01579957
-0.0328356 0.022810081 -0.007895483 0.051388353 0.058264386 -0.08714781 -0.09404854 0.1898251
-0.03566563 -0.07027851 -0.09828658 -0.21269761 0.011314809 -0.12583329 0.1507137 0.04099744
00000000: 666c efbd 252b 1fbe 8e70 113d b6eb 5abd
00000010: 3147 de3c 6f08 d23d d8b0 febd a139 2aba
00000020: a87a dfbd 0d07 64bd f8bf 6ebd c2db 07be
00000030: 7cef d73d 6dbd 313d cbb2 1dbe 1a6e 81bc
00000040: 9f7e 06bd 35dc ba3c 0e5c 01bc 987c 523d
00000050: a3a6 6e3d 8d7a b2bd 859c c0bd 8361 423e
00000060: 2016 12bd 2eee 8fbd 794a c9bd 67cd 59be
00000070: c061 393c 71da 00be b154 1a3e efec 273d

vertex_output_lin.2.weight f4 [1, 32, 1, 1]
0.14205614 -0.22566122 0.0015978465 -0.20194985 -0.05868399 -0.031934388 0.10390541 -0.18550104
0.05845555 -0.13300462 -0.11977843 -0.024512941 -0.2610136 -0.038617015 -0.09837318 0.14806679
-0.123782046 0.021957759 0.0770537 -0.00532894 -0.123434655 0.18077005 -0.34484825 0.11147192
0.10281039 -0.0041408376 -0.044021614 0.00026119442 -0.09088833 -0.038344093 0.070561126 -0.17388989
00000000: 2a77 113e bc13 67be d56e d13a f1cb 4ebe
00000010: a05e 70bd a2cd 02bd 5ccc d43d fcf3 3dbe
00000020: 166f 6f3d 5d32 08be 654e f5bd 5dcf c8bc
00000030: 93a3 85be e02c 1ebd e177 c9bd d29e 173e
00000040: 7181 fdbd c2e0 b33c 55ce 9d3d 649e aebb
00000050: 4fcb fcbd c91b 393e f38f b0be 644b e43d
00000060: 418e d23d ddaf 87bb 0250 34bd ecf0 8839
00000070: a923 babd b20e 1dbd 5a82 903d 3110 32be

graph_output_lin.0.weight f4 [1, 618]
0.026729524 -0.051506974 -0.053279743 0.03630468 0.052350443 0.02882757 -0.07587316 -0.08775975
-0.16337216 -0.13312164 -0.03697797 -0.036620226 0.0032676738 -0.04480208 -0.025634183 -0.01813022
-0.0543589 -0.04450219 -0.086961016 -0.034002602 -0.0032593189 0.010915769 0.0056467312 0.0049499404
0.04016008 -0.074339524 -0.075936586 -0.01445184 -0.04642596 -0.07257234 -0.040959112 -0.14129551
-0.09987862 -0.12130876 -0.03520064 0.06297116 0.019945895 0.026375966 0.004600429 -0.03240838
0.00069374585 -0.02752582 0.0131642055 -0.0035337864 -0.12977111 -0.1605461 -0.091289125 -0.04433547
-0.055923842 -0.080097444 -0.076373585 -0.027487606 -0.025743974 -0.06225235 -0.00980866 0.070608415
-0.010934523 -0.08426241 -0.042781577 -0.015875086 -0.060865104 -0.08893112 -0.026299667 -0.044694845
0.05272116 0.10465152 0.09593686 0.05654699 0.10568107 0.070635766 0.08855315 -0.10659515
-0.109162904 -0.07601504 -0.067985386 -0.09915068 -0.022890702 -0.034042172 -0.08308631 0.105215326
0.059748612 0.10058487 0.04174728 0.09617711 -0.001466222 -0.0240958 -0.05838522 -0.0941712
-0.07404623 -0.012781244 0.0953431 0.11156302 0.052240074 0.032843664 -0.043867167 -0.09853813
-0.105010204 -0.02378794 -0.07773728 -0.008050483 -0.043650527 -0.06356403 -0.09301722 -0.03245459
0.01077106 -0.041530933 0.052032195 -0.045309424 -0.11889536 -0.061894666 0.00059903174 0.08571031
0.08496298 0.0605243 0.019762157 -0.007621635 -0.07785476 0.055567514 0.06008486 0.099941745
0.07180162 0.06215317 0.011806594 0.08777981 0.025139948 -0.07706088 -0.015415705 -0.06793134
-0.040175714 -0.025411766 -0.0053966693 -0.017767958 -0.017069483 0.049902573 0.018941926 0.05819654
0.03669574 0.052753117 -0.08445894 -0.0721899 -0.076253034 -0.070318185 -0.05328049 0.020891411
0.008177008 0.095816225 0.03886699 -0.04085283 -0.009745735 -0.07493136 -0.052376397 -0.063098244
-0.06456184 -0.020310348 -0.06050845 -0.0346079 -0.037436284 0.057929523 -0.015720135 0.007682872
0.017265363 0.044675995 0.0100714415 -0.0016145423 0.052110948 0.017429922 -0.008194316 -0.08400456
-0.034517232 -0.040270716 0.0036199277 -0.010791137 0.012464031 -0.019022733 0.04853366 0.03963587
0.023428187 0.039911766 -0.047781218 0.07478152 -0.054133125 -0.050496157 -0.023817716 -0.015754227
0.028624184 0.057707768 -0.12067866 -0.0078627085 0.07294741 -0.12059691 -0.05015993 -0.031318665
-0.06703314 0.07032177 -0.009486292 -0.021519799 -0.1134778 0.05088849 -0.030322306 -0.07202706
-0.014126495 0.07376439 0.055265002 -0.015433386 -0.060132626 0.012234932 -0.008703791 -0.025045803
-0.048780635 -0.039969742 0.02284511 0.08260959 0.029829748 0.08726481 -0.0191319 0.108906984
-0.033802196 -0.07417469 0.015659207 0.040800624 0.05181661 -0.02458317 -0.017538339 -0.03874471
-0.030813472 0.010837131 0.034711186 0.010546343 -0.020723475 0.02178451 0.107700765 -0.012422374
-0.047762115 -0.07888775 -0.1194945 -0.108865544 -0.077084504 -0.020666342 -0.024054803 -0.037164416
0.03500404 -0.03728449 -0.04796245 -0.028827563 -0.0063570105 0.037364315 0.022861155 0.000290458
0.007446975 -0.037930526 -0.080960415 -0.0020803055 0.047130957 -0.052916005 0.047867328 0.036459602
00000000: e0f7 da3c faf8 52bd dc3b 5abd 37b4 143d
00000010: 6b6d 563d cc27 ec3c 6363 9bbd 62bb b3bd
00000020: 084b 27be 0a51 08be 3676 17bd 17ff 15bd
00000030: 7826 563b 6382 37bd c7fe d1bc d485 94bc
00000040: 70a7 5ebd ee47 36bd 9e18 b2bd 5046 0bbd
00000050: 4c9a 55bb 0ed8 323c 3708 b93b 1c33 a23b
00000060: e57e 243d 523f 98bd a484 9bbd 69c7 6cbc
00000070: 2629 3ebd cfa0 94bd bec4 27bd c5af 10be
00000080: 298d ccbd ba70 f8bd 8c2e 10bd 06f7 803d
00000090: 9365 a33c 6912 d83c 32bf 963b a6be 04bd
000000a0: 7fdc 353a d47d e1bc aeae 573c 1997 67bb
000000b0: b8e2 04be 3266 24be cbf5 babd 1c99 35bd
000000c0: 6610 65bd 210a a4bd c169 9cbd b02d e1bc
000000d0: 07e5 d2bc 52fc 7ebd 80b4 20bc 259b 903d
000000e0: b726 33bc c591 acbd bc3b 2fbd 780c 82bc
000000f0: b04d 79bd 8521 b6bd 6672 d7bc f111 37bd
00000100: 25f2 573d 8953 d63d 8b7a c43d d19d 673d
00000110: 516f d83d 7ca9 903d 5b5b b53d 8f4e dabd
00000120: cd90 dfbd c6ad 9bbd ec3b 8bbd 830f cbbd
00000130: 4885 bbbc ce6f 0bbd 2829 aabd 227b d73d
00000140: f6ba 743d 71ff cd3d 32ff 2a3d 81f8 c43d
00000150: 3f2e c0ba 8e64 c5bc 5725 6fbd d5dc c0bd
00000160: 8da5 97bd 6c68 51bc 3e43 c33d 277b e43d
00000170: b0f9 553d 1487 063d 0fae 33bd 5cce c9bd
00000180: 970f d7bd edde c2bc b934 9fbd 2ce6 03bc
00000190: e5ca 32bd dc2d 82bd d07f bebd 1bef 04bd
000001a0: 1a79 303c 571c 2abd b61f 553d 6096 39bd
000001b0: 697f f3bd 4385 7dbd 5708 1d3a e388 af3d
000001c0: 1201 ae3d 54e8 773d 3fe4 a13c e9be f9bb
000001d0: 5172 9fbd c39a 633d 8b1b 763d 42ae cc3d
000001e0: ba0c 933d 5394 7e3d 7270 413c e7c5 b33d
000001f0: 4bf2 cd3c 18d2 9dbd 2792 7cbc 961f 8bbd
00000200: 4a8f 24bd 562c d0bc 8bd6 b0bb 1c8e 91bc
00000210: 4dd5 8bbc a466 4c3d 192c 9b3c 7f5f 6e3d
00000220: 464e 163d a713 583d cff8 acbd 4cd8 93bd
00000230: 8d2a 9cbd fb02 90bd a53c 5abd 7724 ab3c
00000240: dbf8 053c 4c3b c43d fe32 1f3d 4c55 27bd
00000250: 93ac 1fbc 9d75 99bd a288 56bd a739 81bd
00000260: ff38 84bd e361 a6bc b5d7 77bd 03c1 0dbd
00000270: ca56 19bd 8247 6d3d 83c7 80bc 9ac0 fb3b
00000280: 1770 8d3c 2dfe 363d b002 253c 0d9f d3ba
00000290: 4a72 553d 32c9 8e3c 7441 06bc 950a acbd
000002a0: f161 0dbd e8f2 24bd 4f3c 6d3b 4fcd 30bc
000002b0: ef35 4c3c 90d5 9bbc 3bcb 463d 3959 223d
000002c0: 78ec bf3c 857a 233d 3db6 43bd 0e27 993d
000002d0: b2ba 5dbd 0fd5 4ebd 5f1d c3bc 020f 81bc
000002e0: 447d ea3c fb5e 6c3d 6026 f7bd 97d2 00bc
000002f0: 7465 953d 83fb f6bd 8074 4dbd 0048 00bd
00000300: ac48 89bd dc04 903d 646c 1bbc 4a4a b0bc
00000310: 0c67 e8bd 7370 503d 7c66 f8bc ec82 93bd
00000320: d172 67bc c911 973d 8e5d 623d 50dc 7cbc
00000330: a14d 76bd 0675 483c 589a 0ebc db2c cdbc
00000340: 34ce 47bd 50b7 23bd ab25 bb3c 372f a93d
00000350: 845d f43c e5b7 b23d 81ba 9cbc a00a df3d
00000360: 2c74 0abd e6e8 97bd bd47 803c 8e1e 273d
00000370: a73d 543d a562 c9bc 90ac 8fbc c6b2 1ebd
00000380: 896c fcbc 398e 313c 512d 0e3d 92ca 2c3c
00000390: 47c4 a9bc 6e75 b23c 3892 dc3d 3787 4bbc
000003a0: 35a2 43bd e78f a1bd 88b9 f4bd e6f4 debd
000003b0: 7bde 9dbd 764c a9bc 940e c5bc b739 18bd
000003c0: 6560 0f3d 9fb7 18bd 4674 44bd c827 ecbc
000003d0: 784e d0bb 530b 193d 5147 bb3c 9d48 9839
000003e0: c105 f43b 0a5d 1bbd 93ce a5bd bc55 08bb
000003f0: 640c 413d 74be 58bd 8810 443d aa56 153d

x_lin_after_first_round.0.weight f4 [32, 1, 32, 1]
0.15653227 -0.20262599 0.1475799 -0.04573629 -0.014516267 0.09574366 0.04756478 0.03732046
-0.19232066 0.03722039 0.19107081 -0.074709326 0.13423648 -0.0862808 -0.06963276 -0.0076188566
0.12499771 -0.042750396 -0.027814569 0.112704895 0.112071976 0.12014166 0.04077456 0.03649644
-0.07953975 -0.063881196 -0.035265256 0.00038109365 -0.037490834 0.075536855 -0.17966712 0.1486415
0.10199255 -0.13804688 0.1751873 0.169829 -0.07239645 0.085374266 0.16511808 -0.06943624
-0.0392833 0.02115827 -0.057720892 0.008383864 -0.10127003 -0.034875963 0.10338498 0.11012852
-0.0044279 0.003588629 0.14118096 -0.12545058 -0.10844897 -0.018100768 -0.04378014 0.115354516
0.036168173 -0.16758426 0.15554371 -0.034910373 0.17550096 0.12197065 0.17304236 0.018496541
-0.27083796 0.15300626 -0.015883457 -0.14699346 -0.13149832 -0.25811443 0.14397255 -0.16936809
0.009641325 -0.19723251 0.14059176 -0.046500005 0.3566276 -0.01605333 -0.15087608 0.10030774
0.09842408 0.14823583 0.040731754 0.079277694 0.032162346 0.09677171 0.08836081 -0.030237844
0.18793672 -0.066559754 0.16738534 -0.09583841 0.05513876 0.074300885 -0.013662009 -0.037917912
0.03368792 0.15892635 0.11384613 -0.10401361 -0.17752558 -0.23212641 -0.0064857425 -0.007259159
0.023607926 -0.18047579 0.08757696 -0.052131493 0.19181243 0.11612265 -0.107164174 -0.09286773
0.21051313 0.052170433 -0.2273 0.18292978 0.022089882 -0.12880445 0.13239631 -0.0009902089
0.0484519 0.12607096 0.16458528 -0.12614448 -0.02755717 -0.2576076 -0.1542651 -0.15131803
0.06133151 0.094458535 0.17621784 -0.045342475 0.17107594 -0.004676939 0.048315816 0.118687846
0.072334535 0.006627066 0.07609228 0.031547043 -0.00037464357 0.07477393 -0.1426023 -0.01001117
-0.11465491 0.07317791 -0.07538298 -0.118359186 -0.108560346 0.06551442 0.22156917 0.09658683
0.02613077 -0.1936384 0.1506065 0.21789971 0.06464017 -0.047009323 0.17166892 0.16040605
-0.035073724 -0.016357958 -0.0670205 0.12841405 0.042364042 0.12455691 0.0858478 0.14482884
0.17366104 -0.12043833 -0.13307591 -0.11763723 0.063190386 -0.018965853 0.063339025 0.00044095708
0.0507767 0.07590544 -0.073870964 -0.1834445 -0.1178749 -0.047549322 -0.095225036 -0.030614424
-0.19997889 0.23016047 -0.09087235 -0.10146716 -0.08397594 0.06025424 0.21863244 -0.0061171805
-0.17771932 0.1695309 0.08110479 -0.08726641 -0.19048427 -0.08084538 0.03118822 -0.0010362276
-0.14844526 -0.18448102 0.07457607 -0.15720795 0.2989674 0.058874417 -0.1259799 0.12841065
0.07270766 -0.027574422 -0.29467887 0.15384091 -0.027485048 -0.07229889 -0.2768506 0.12116855
-0.038564127 -0.043705255 0.05144595 -0.11630082 0.110656664 -0.027811917 -0.18480054 -0.1944728
0.13077998 0.24870947 0.08555985 -0.039659668 0.02152884 0.10078089 0.1274308 0.076343596
-0.106807314 0.057512555 -0.103704065 -0.13996403 -0.073047645 -0.09770422 0.14530045 -0.118215844
-0.09178128 -0.1091407 -0.042115085 0.11168802 0.09146153 -0.15049937 0.13063549 -0.20022239
-0.09949829 -0.051553573 -0.10702757 0.038698975 -0.19851032 0.08781341 0.13576527 -0.014302924
00000000: ff49 203e 307d 4fbe 2f1f 173e fa55 3bbd
00000010: a3d5 6dbc 4115 c43d 49d3 423d 57dd 183d
00000020: b5ef 44be 6874 183d 11a8 433e 3401 99bd
00000030: 4a75 093e fdb3 b0bd 9f9b 8ebd 9aa7 f9bb
00000040: cdfe ff3d 0a1b 2fbd 61db e3bc d3d1 e63d
00000050: fe85 e53d d50c f63d 3a03 273d 4b7d 153d
00000060: bde5 a2bd 25d4 82bd 4d72 10bd 86cd c739
00000070: fd8f 19bd 11b3 9a3d a8fa 37be 7a35 183e
00000080: 78e1 d03d 295c 0dbe 4d64 333e a7e7 2d3e
00000090: 9744 94bd b4d8 ae3d b714 293e 9634 8ebd
000000a0: 87e7 20bd 1c54 ad3c be6c 6cbd 795c 093c
000000b0: a966 cfbd 19da 0ebd 81bb d33d 108b e13d
000000c0: eb17 91bb 342f 6b3b be91 103e 1e76 00be
000000d0: 7e1a debd 1048 94bc ce52 33bd fd3e ec3d
000000e0: 1425 143d 359b 2bbe da46 1f3e 2efe 0ebd
000000f0: 86b6 333e c0cb f93d 0432 313e 0f86 973c
00000100: 46ab 8abe acad 1c3e 061e 82bc 7485 16be
00000110: 7fa7 06be 9327 84be 8a6d 133e d46e 2dbe
00000120: a6f6 1d3c 52f7 49be 49f7 0f3e ca76 3ebd
00000130: e597 b63e 4682 83bc 427f 1abe 256e cd3d
00000140: 9092 c93d 22cb 173e 57d6 263d 585c a23d
00000150: aabc 033d 3f30 c63d 83f6 b43d 5bb5 f7bc
00000160: 7c72 403e 7b50 88bd 1067 2b3e ee46 c4bd
00000170: 2ed9 613d 102b 983d 9ed6 5fbc d04f 1bbd
00000180: 58fc 093d 97bd 223e 2928 e93d 1605 d5bd
00000190: 44c9 35be 8cb2 6dbe 5a86 d4bb 3dde edbb
000001a0: 6965 c13c a5ce 38be 8d5b b33d d587 55bd
000001b0: 7a6a 443e b6d1 ed3d e478 dbbd 7031 bebd
000001c0: c190 573e aab0 553d 55c1 68be f251 3b3e
000001d0: d7f5 b43c 50e5 03be e692 073e e6c9 81ba
000001e0: 8075 463d bf18 013e 0b89 283e 052c 01be
000001f0: 93bf e1bc 25e5 83be acf7 1dbe 1df3 1abe
00000200: c036 7b3d 7a73 c13d 7372 343e 08b9 39bd
00000210: 882e 2f3e 0241 99bb cee6 453d 9d12 f33d
00000220: 2124 943d dc27 d93b 45d6 9b3d 7937 013d
00000230: cf6b c4b9 1323 993d 5606 12be e405 24bc
00000240: 32d0 eabd 4dde 953d 6462 9abd 4d66 f2bd
00000250: e354 debd 6d2c 863d 07e3 623e 51cf c53d
00000260: 3210 d63c 2549 46be 9738 1a3e 1a21 5f3e
00000270: 1162 843d d98c 40bd fac9 2f3e 7c41 243e
00000280: 77a9 0fbd 2001 86bc 0b42 89bd f97e 033e
00000290: eb85 2d3d b117 ff3d f9d0 af3d 034e 143e
000002a0: 33d4 313e 5fa8 f6bd 0d45 08be caeb f0bd
000002b0: f669 813d 475e 9bbc e4b7 813d 4230 e739
000002c0: 3bfb 4f3d 5074 9b3d a949 97bd e0d8 3bbe
000002d0: 6568 f1bd 14c3 42bd 5805 c3bd 1acb fabc
000002e0: 44c7 4cbe 30af 6b3e 481b babd 04ce cfbd
000002f0: 94fb abbd 26cd 763d 2fe1 5f3e a172 c8bb
00000300: 0efc 35be 8299 2d3e 451a a63d bbb8 b2bd
00000310: 4f0e 43be 4392 a5bd 707e ff3c 07d2 87ba
00000320: 0902 18be 98e8 3cbe 57bb 983d 1ffb 20be
00000330: 4112 993e 4d26 713d e000 01be 157e 033e
00000340: c1e7 943d c1e3 e1bc 26e0 96be 7988 1d3e
00000350: 5328 e1bc 7111 94bd 5dbf 8dbe 3727 f83d
00000360: 6bf5 1dbd 4804 33bd fdb8 523d 202f eebd
00000370: f69f e23d d1d5 e3bc 5a3c 3dbe e123 47be
00000380: 30eb 053e b2ad 7e3e 013a af3d 2d72 22bd
00000390: 405d b03c 3666 ce3d 387d 023e 085a 9c3d
000003a0: cbbd dabd 4992 6b3d cc62 d4bd bb52 0fbe
000003b0: 019a 95bd 2619 c8bd a4c9 143e 261b f2bd
000003c0: d3f7 bbbd 2985 dfbd de80 2cbd b0bc e43d
000003d0: 2f50 bb3d 821c 1abe 4fc5 053e 1907 4dbe
000003e0: c2c5 cbbd d729 53bd 4531 dbbd d182 1e3d
000003f0: 4a46 4bbe 84d7 b33d 0d06 0b3e d056 6abc

x_lin_after_first_round.0.bias f4 [32]
-0.018759523 0.13475908 0.087062865 0.025809728 -0.1276097 -0.17828119 0.007849772 -0.03717338
0.06096836 -0.09631038 -0.044458173 0.104766205 0.13447292 0.0071346755 -0.04835064 -0.0779589
0.039860748 -0.1360502 0.15352601 0.13589193 0.100560814 -0.05210831 0.029015047 0.069906324
-0.097764984 -0.14860381 -0.15412623 0.029176043 0.13024706 0.0108536035 -0.092894495 -0.008496309
00000000: 92ad 99bc 49fe 093e 044e b23d ec6e d33c
00000010: 1eac 02be 588f 36be 559c 003c 1d43 18bd
00000020: f6b9 793d 603e c5bd c619 36bd aa8f d63d
00000030: 45b3 093e ffc9 e93b 520b 46bd eaa8 9fbd
00000040: 0645 233d be50 0bbe ec35 1d3e 4127 0b3e
00000050: d4f2 cd3d 866f 55bd f7b0 ed3c 0c2b 8f3d
00000060: 0239 c8bd 992b 18be 44d3 1dbe 9902 ef3c
00000070: 7c5f 053e 50d3 313c 783f bebd 1a34 0bbc
