reachability_classification/weights/SimpleMultiplePassGNNReachabilityNet_epoch_9.pt (torch_old, 36685 bytes, 16 tensors)

x_lin.0.weight f4 [32, 1, 1, 11]
0.1339247 -0.03209138 0.0033818083 -0.62094486 -0.20022132 -0.07899719 -0.012750102 0.14040706
0.06208403 0.07618404 -0.144034 0.13639103 -0.016213339 0.0095319655 0.060771596 -0.20355436
-0.32006955 -0.06919065 -0.1209821 0.13039462 -0.2584209 0.18616715 -0.22454923 0.024286091
0.039113265 -0.15991454 0.21913967 0.08243966 0.15494913 -0.31370604 0.053566486 0.5976239
0.04070719 0.13553223 -0.22028191 -0.2246454 0.31737077 -0.1491634 -0.011614865 -0.3985651
-0.14581741 -0.15755738 -0.50956714 -0.31333092 -0.053716477 0.13346627 0.08411272 -0.015469924
-0.37242776 0.05995149 -0.07988495 0.31290084 0.23376462 -0.14434642 -0.2306721 0.057314724
-0.10159047 -0.039371494 0.37787297 0.012305842 0.20343263 0.19764967 0.028941328 -0.19031897
-0.33093432 -0.13682461 -0.15220338 0.17586519 -0.05453133 0.27545983 -0.18435962 0.08062415
0.10370216 0.14007202 -0.74011415 0.055523258 0.009264098 -0.3171009 -0.08113796 -0.3043911
-0.08931268 -0.25540265 0.03866195 0.2677017 0.28678757 0.23110856 -0.061645877 0.25863338
0.45049736 -0.16638778 -0.36857557 -0.16827519 0.21722944 -0.2561768 -0.039877106 0.10458938
0.17205772 -0.0075581274 0.15678911 0.3409537 0.06872781 0.286922 0.13630493 -0.04695243
0.2246795 0.032147907 0.49942657 0.00040151319 0.038025226 -0.19439226 -0.17983425 0.073900156
0.12661178 0.24811499 -0.20677142 0.18537273 -0.065894686 -0.093728416 -0.13768104 0.15669172
-0.12778367 -0.1795649 0.06765793 -0.035178848 0.0059280368 -0.30502456 0.12088706 -0.20145959
0.28434315 0.14607693 -0.332541 0.07864619 -0.40471596 -0.07128449 -0.06649985 -0.0423392
-0.27238756 -0.05792547 0.23222429 0.36318326 -0.06628912 -0.15317975 0.31696713 0.17805287
0.023070088 -0.08660604 0.10019631 -0.23715796 -0.077244885 -0.3369506 -0.06201691 -0.12177368
0.569351 -0.4966961 -0.19349058 -0.13592489 -0.24166282 0.095742956 0.23681122 -0.2700764
0.22351116 -0.3707372 -0.107254565 0.1119047 -0.3019451 -0.024763199 -0.09988566 0.16546598
-0.08511609 -0.3136749 -0.14194193 0.22918406 0.045842566 -0.11587811 0.68524164 -0.46378133
0.36319396 0.14687136 0.24489243 -0.319275 0.3121619 -0.11164841 0.13567992 -0.13402516
0.025536595 -0.4337283 0.5061775 -0.047288746 0.035788957 -0.026330173 -0.4549064 -0.16043942
-0.10530809 0.19407682 -0.26236066 -0.09740976 0.09821634 -0.15300153 0.14789894 -0.29044738
0.01135975 -0.33260274 -0.050598934 -0.017956847 -0.033586986 -0.022481013 -0.15979066 -0.6327143
0.46351853 0.13853565 -0.08834164 -0.013819286 0.35750732 0.13930203 -0.15304315 -0.08910685
-0.17090543 -0.4016947 -0.31495446 0.3114031 0.048280764 -0.22889143 -0.022717154 0.42529416
0.47336197 -0.1926872 0.1442362 0.09343458 0.06501661 0.3972713 -0.3171532 0.14196864
0.10080859 -0.10069007 -0.13704064 0.17448427 -0.2983413 -0.17123345 -0.13379209 0.16560256
-0.39403623 0.45561504 0.08083812 -0.071514234 0.13348581 0.078094184 -0.28624305 -0.04572894
-0.05606335 0.15497221 -0.01332391 0.44800982 -0.41995502 -0.012116001 -0.042612936 0.01636473
00000000: 8e23 093e 4072 03bd 54a1 5d3b 3ef6 1ebf
00000010: d106 4dbe 47c9 a1bd cee5 50bc dec6 0f3e
00000020: d34b 7e3d 6106 9c3d a67d 13be 17aa 0b3e
00000030: d6d1 84bc f62b 1c3c a3eb 783d 8e70 50be
00000040: 28e0 a3be d4b3 8dbd 77c5 f7bd 2b86 053e
00000050: bf4f 84be 9aa2 3e3e 3cf0 65be a0f3 c63c
00000060: 3b35 203d a3c0 23be 2666 603e 20d6 a83d
00000070: fcaa 1e3e 149e a0be 8868 5b3d e1fd 183f
00000080: 95bc 263d f6c8 0a3e 9591 61be 7209 66be
00000090: 6c7e a23e 4abe 18be 464c 3ebc ba10 ccbe
000000a0: 2951 15be b956 21be fe72 02bf e96c a0be
000000b0: cf05 5cbd 62ab 083e 4a43 ac3d 9075 7dbc
000000c0: daae bebe b28f 753d b89a a3bd 8a34 a03e
000000d0: fe5f 6f3e 8ccf 13be 4f35 6cbe d8c2 6a3d
000000e0: aa0e d0bd 0144 21bd 9178 c13e 719e 493c
000000f0: a550 503e ad64 4a3e 5d16 ed3c fae2 42be
00000100: 3970 a9be c01b 0cbe 34db 1bbe 0116 343e
00000110: 3e5c 5fbd 1209 8d3e c5c8 3cbe 461e a53d
00000120: cc61 d43d 0a6f 0f3e 1f78 3dbf 5b6c 633d
00000130: 71c8 173c 0d5b a2be a92b a6bd 26d9 9bbe
00000140: 91e9 b6bd 23c4 82be fe5b 1e3d 3210 893e
00000150: d2d5 923e b9a7 6c3e 6380 7cbd 986b 843e
00000160: 97a7 e63e 8f61 2abe f0b5 bcbe 5550 2cbe
00000170: 6571 5e3e 9b29 83be 2d56 23bd f532 d63d
00000180: e62f 303e 2baa f7bb 538d 203e 7c91 ae3e
00000190: 2bc1 8c3d 71e7 923e 8593 0b3e 3151 40bd
000001a0: 6212 663e 86ad 033d d7b4 ff3e 3082 d239
000001b0: 57c0 1b3d c40e 47be 7826 38be f758 973d
000001c0: 85a6 013e db11 7e3e e3bb 53be 59d2 3d3e
000001d0: cbf3 86bd aff4 bfbd 42fc 0cbe cb73 203e
000001e0: b9d9 02be dcdf 37be 3e90 8a3d b217 10bd
000001f0: fa3f c23b 2e2c 9cbe a393 f73d 6c4b 4ebe
00000200: 6d95 913e 3195 153e d042 aabe 4111 a13d
00000210: ee36 cfbe 9afd 91bd 1331 88bd de6b 2dbd
00000220: 6276 8bbe 4243 6dbd 34cc 6d3e 28f3 b93e
00000230: 97c2 87bd 27db 1cbe 8449 a23e 7e53 363e
00000240: 7bfd bc3c 825e b1bd b933 cd3d 89d9 72be
00000250: 9132 9ebd ca84 acbe 7205 7ebd 7b64 f9bd
00000260: fdc0 113f f44e febe 6522 46be e52f 0bbe
00000270: 7576 77be e214 c43d a47e 723e 7447 8abe
00000280: 1ce0 643e 44d1 bdbe 48a8 dbbd 4b2e e53d
00000290: 8c98 9abe 31dc cabc da90 ccbd ea6f 293e
000002a0: 5851 aebd ff99 a0be 3a59 11be 3aaf 6a3e
000002b0: 6ac5 3b3d 8151 edbd ff6b 2f3f bf74 edbe
000002c0: 8ff4 b93e 7265 163e 15c5 7a3e 0378 a3be
000002d0: afd3 9f3e eca7 e4bd adef 0a3e e43d 09be
000002e0: 1f32 d13c a311 debe d994 013f d8b1 41bd
000002f0: 7197 123d 60b2 d7bc 7ee9 e8be 3b4a 24be
00000300: c5ab d7bd 13bc 463e 2354 86be c57e c7bd
00000310: a625 c93d 6fac 1cbe d272 173e 85b5 94be
00000320: 3f1e 3a3c e84a aabe d440 4fbd 3d1a 93bc
00000330: 8292 09bd 1a2a b8bc 2aa0 23be 90f9 21bf
00000340: 4d52 ed3e 4adc 0d3e 76ec b4bd 496a 62bc
00000350: 330b b73e 31a5 0e3e 58b7 1cbe a77d b6bd
00000360: d501 2fbe edaa cdbe b641 a1be 3a70 9f3e
00000370: 0dc2 453d 8462 6abe 5319 babc 28c0 d93e
00000380: 805c f23e cb4f 45be a8b2 133e a15a bf3d
00000390: 6e27 853d 2567 cb3e e761 a2be 3a60 113e
000003a0: bc74 ce3d 9836 cebd 6254 0cbe 01ac 323e
000003b0: 31c0 98be d257 2fbe cb00 09be b893 293e
000003c0: 1ebf c9be 6046 e93e 758e a53d 0e76 92bd
000003d0: 81b0 083e d8ef 9f3d 738e 92be 454e 3bbd
000003e0: afa2 65bd 09b1 1e3e 874c 5abc 8b61 e53e
000003f0: 5804 d7be 3182 46bc e78a 2ebd 540f 863c

x_lin.0.bias f4 [32]
-0.31008998 -0.33180657 -0.13260388 0.0958543 -0.20509513 -0.10490674 0.14549744 -0.10578188
0.29383183 0.05878551 -0.17560835 0.07605764 0.33557135 -0.2341753 -0.075079456 0.020966412
0.31803718 -0.1056007 0.35062712 -0.1532046 -0.19588377 0.22446941 0.088939466 0.008907597
-0.15236229 0.12590623 -0.22408657 0.16179098 0.19008389 -0.03763785 0.047264293 0.36305872
00000000: 1dc4 9ebe 8de2 a9be 50c9 07be 424f c43d
00000010: 7504 52be 58d9 d6bd 48fd 143e 2ca4 d8bd
00000020: 2071 963e 13c9 703d add2 33be 1cc4 9b3d
00000030: 02d0 ab3e a6cb 6fbe 42c3 99bd c1c1 ab3c
00000040: c5d5 a23e 2e45 d8bd 6685 b33e abe1 1cbe
00000050: c195 48be 4fdb 653e e525 b63d 2bf1 113c
00000060: dc04 1cbe 90ed 003e f376 65be 89ac 253e
00000070: 5aa5 423e 252a 1abd 3498 413d d5e2 b93e

x_lin.2.weight f4 [32, 32, 1, 1]
0.10777009 0.067982525 0.013526378 0.11502933 -0.045570776 -0.11754933 -0.042122245 -0.20041472
-0.092738114 0.5191448 0.039615106 -0.10312853 -0.19063844 0.27450323 0.029913967 0.28499842
-0.009620189 -0.10711952 -0.11305366 -0.090867884 0.19548129 0.020765513 0.056937195 -0.39517683
0.17308137 0.01743222 0.056570843 0.05624109 0.21012424 0.10818758 -0.2153002 -0.1757379
0.13762932 -0.110420555 0.14055103 0.009461813 -0.025102979 -0.22829926 -0.22198118 0.026601948
-0.15226978 -0.10347171 -0.04652668 0.15793248 -0.16607514 0.36631384 0.028961597 0.14858648
-0.4575607 0.13863976 -0.3213475 -0.25580886 -0.20902841 -0.006881472 0.12759633 -0.018179413
0.022398474 0.053430233 0.25362456 -0.049585365 0.3731622 0.0901113 -0.10250706 0.21574748
0.14964153 -0.008675194 0.028891025 -0.12228763 0.12272854 0.14564937 -0.012532162 0.18134089
-0.08905677 0.16178203 -0.065322876 0.08696187 -0.10530381 -0.01869092 0.11547854 0.18041764
-0.031284444 -0.032370217 0.08498636 -0.03665991 0.36284554 -0.025119407 0.2153394 -0.1769983
-0.0065136245 -0.16892782 0.15359026 0.23517737 -0.3141791 0.27088052 -0.08558103 -0.06556242
0.093146905 0.06515633 -0.05123263 0.057520628 -0.22428162 -0.11421963 -0.27141586 -0.24147326
0.063909955 -0.24738407 -0.30311313 -0.15400696 -0.0851758 -0.11123117 0.13523021 0.1767693
0.2077006 -0.21270604 -0.21743304 0.31810674 0.35076806 0.050838813 0.08204716 -0.043788426
0.25826865 -0.035650954 -0.38628998 -0.1556111 0.15851136 -0.22655997 -0.32606876 -0.17032883
-0.0819651 -0.055702265 -0.01087551 0.040389456 0.01652077 -0.008788308 0.026476376 -0.09762015
-0.15706132 -0.00074237084 0.15796074 -0.03408277 -0.1869693 -0.069292374 -0.037031528 0.23077706
-0.17114598 0.045317598 -0.27492473 0.027504697 -0.20074177 -0.030549506 0.23172747 0.18047693
0.06371464 0.10190143 0.13582629 0.16463718 -0.34116426 0.23311123 -0.18895084 0.15108451
0.207082 -0.043755397 0.24459317 0.048642002 -0.11490148 -0.1252849 0.019963786 0.1556096
0.06463565 0.03782378 -0.08462727 0.13128772 0.29109246 -0.23759176 0.059020124 -0.026053978
0.11039502 0.23895913 0.17238134 -0.1292534 -0.5257984 0.009866398 -0.25972652 0.25045347
0.105165005 -0.16956171 0.17244893 0.018421208 -0.37336725 0.01832323 0.06670635 0.15726441
0.1198402 -0.039932545 -0.10202237 -0.2041349 -0.030531093 0.14409088 -0.17804596 0.07911006
-0.29893506 -0.19666977 0.14775074 0.0026203042 -0.11742187 0.16361475 -0.24427764 0.20946488
-0.22609967 0.30939996 -0.083683826 -0.19431864 -0.08183684 -0.03376818 0.1809387 -0.09733065
0.011804202 -0.032514066 0.2475986 -0.066071674 0.23626992 0.14303808 -0.16943859 0.19883427
-0.0015966495 -0.31257012 -0.2333859 -0.16295038 -0.066064656 -0.043966994 -0.14990324 -0.18405804
0.16010375 0.0771539 0.013573845 0.05310872 -0.11163788 -0.17547156 -0.034143567 -0.09686758
0.280718 -0.1617503 -0.17844072 -0.12978163 0.14335038 -0.029770236 0.04485232 -0.0545977
0.18361476 -0.16166617 -0.08692579 -0.13541569 -0.069017015 0.06131435 -0.30583203 -0.07980093
00000000: 91b6 dc3d 6c3a 8b3d be9d 5d3c 7f94 eb3d
00000010: 6ca8 3abd b4bd f0bd 6088 2cbd 8439 4dbe
00000020: 7bed bdbd ace6 043f 7343 223d 0d35 d3bd
00000030: b936 43be b08b 8c3e 230e f53c 50eb 913e
00000040: ff9d 1dbc 7b61 dbbd ad88 e7bd f118 babd
00000050: 3f2c 483e 701c aa3c fa36 693d 9e54 cabe
00000060: 3e3c 313e 04ce 8e3c d4b6 673d 0f5d 663d
00000070: cf2a 573e 7391 dd3d a877 5cbe a3f4 33be
00000080: b3ee 0c3e 2c24 e2bd 9cec 0f3e b805 1b3c
00000090: c3a4 cdbc 48c7 69be 094f 63be 54ec d93c
000000a0: 9cec 1bbe fae8 d3bd c392 3ebd 0db9 213e
000000b0: 9a0f 2abe 7d8d bb3e df40 ed3c 0e27 183e
000000c0: 6545 eabe 95f7 0d3e a987 a4be 61f9 82be
000000d0: 8b0b 56be f97d e1bb 9da8 023e feec 94bc
000000e0: 017d b73c a9d9 5a3d 14db 813e 061a 4bbd
000000f0: 1e0f bf3e 468c b83d 39ef d1bd e8ec 5c3e
00000100: a13b 193e 6722 0ebc dfac ec3c f071 fabd
00000110: 1a59 fb3d 1c25 153e b253 4dbc 6db1 393e
00000120: 6563 b6bd 30aa 253e 00c8 85bd 1119 b23d
00000130: 86a9 d7bd b31d 99bc 0380 ec3d 67bf 383e
00000140: 1e24 00bd a296 04bd 540d ae3d b428 16bd
00000150: e4c6 b93e 37c7 cdbc ef81 5c3e 0b3f 35be
00000160: 3e70 d5bb 6afb 2cbe c446 1d3e 56d2 703e
00000170: 15dc a0be dab0 8a3e 1b45 afbd 9745 86bd
00000180: cec3 be3d af70 853d 4ed9 51bd c09a 6b3d
00000190: 15aa 65be fbeb e9bd 05f7 8abe c444 77be
000001a0: 39e3 823d 4052 7dbe a531 9bbe 00b4 1dbe
000001b0: a670 aebd 2bcd e3bd ca79 0a3e 0303 353e
000001c0: 77af 543e 9dcf 59be c4a6 5ebe e3de a23e
000001d0: df97 b33e 5c3c 503d 5708 a83d 7e5b 33bd
000001e0: ca3b 843e bc06 12bd cdc7 c5be 8458 1fbe
000001f0: cd50 223e 56ff 67be 7cf2 a6be ae6a 2ebe
00000200: 51dd a7bd 0f28 64bd 322f 32bc 6a6f 253d
00000210: 9156 873c d6fc 0fbc fce4 d83c 13ed c7bd
00000220: afd4 20be aa9b 42ba 76c0 213e 609a 0bbd
00000230: e174 3fbe 29e9 8dbd 5fae 17bd d250 6c3e
00000240: e440 2fbe f29e 393d efc2 8cbe 8851 e13c
00000250: 408f 4dbe f542 fabc f749 6d3e f2ce 383e
00000260: d27c 823d b2b1 d03d 0c16 0b3e a696 283e
00000270: 15ad aebe b6b4 6e3e 547c 41be e6b5 1a3e
00000280: 4e0d 543e dc38 33bd a276 7a3e d63c 473d
00000290: 7851 ebbd af4a 00be 188b a33c 1f58 1f3e
000002a0: b25f 843d 1ced 1a3d 1051 adbd 4a70 063e
000002b0: 120a 953e 414b 73be 16bf 713d 276f d5bc
000002c0: c916 e23d b4b1 743e bc84 303e 015b 04be
000002d0: b99a 06bf aca6 213c e0fa 84be 703b 803e
000002e0: c060 d73d 96a1 2dbe 7496 303e 13e8 963c
000002f0: fe29 bfbe 991a 963c 579d 883d ec09 213e
00000300: c76e f53d 4f90 23bd 1bf1 d0bd bd08 51be
00000310: 581c fabc 8f8c 133e ae51 36be 7504 a23d
00000320: 040e 99be cd63 49be f84b 173e 69b9 2b3b
00000330: e17a f0bd a08a 273e eb23 7abe f67d 563e
00000340: ac86 67be ac69 9e3e 6d62 abbd 77fb 46be
00000350: 139a a7bd 8150 0abd ff47 393e 4b55 c7bd
00000360: 6966 413c 782d 05bd 7d8a 7d3e 9650 87bd
00000370: bef0 713e 9378 123e 4f81 2dbe 369b 4b3e
00000380: ab46 d1ba 3109 a0be b7fc 6ebe 77dc 26be
00000390: e84c 87bd bc16 34bd 3c80 19be b679 3cbe
000003a0: 3df2 233e dd02 9e3d d564 5e3c 8788 593d
000003b0: 67a2 e4bd d1ae 33be 20da 0bbd 8362 c6bd
000003c0: 45ba 8f3e dfa1 25be 2ab9 36be 7ae5 04be
000003d0: 71ca 123e b6e0 f3bc 11b7 373d d6a1 5fbd
000003e0: 8205 3c3e d18b 25be 2606 b2bd 69aa 0abe
000003f0: cb58 8dbd c224 7b3d 0496 9cbe ac6e a3bd

x_lin.2.bias f4 [32]
-0.21454714 -0.16436522 -0.12342196 -0.1892269 -0.14429827 0.13073525 -0.023770044 0.09298763
-0.11268012 0.07664304 0.15099715 0.02858672 0.11350188 -0.048253693 0.00091271463 0.07306652
-0.12712038 0.01345015 0.07195246 -0.1652494 -0.071246736 0.15798229 -0.13382594 0.06982821
0.072372094 0.028855434 0.075071074 -0.10777966 0.09099935 0.15038554 -0.07652466 -0.109559745
00000000: 3fb2 5bbe 5b4f 28be a7c4 fcbd b2c4 41be
00000010: edc2 13be 76df 053e 65b9 c2bc 4c70 be3d
00000020: d6c4 e6bd 07f7 9c3d ff9e 1a3e b22e ea3c
00000030: ac73 e83d aaa5 45bd 3e43 6f3a e6a3 953d
00000040: d82b 02be 055e 5c3c d05b 933d 2437 29be
00000050: cfe9 91bd 1cc6 213e ab09 09be 1802 8f3d
00000060: d237 943d 3b62 ec3c ddbe 993d 95bb dcbd
00000070: de5d ba3d abfe 193e f6b8 9cbd dc60 e0bd

edge_lin.0.weight f4 [32, 1, 64, 1]
-0.39553347 -0.14429542 0.00050121354 -0.13759264 -0.121171884 -0.31854564 -0.07449003 -0.024155978
-0.18769933 -0.030445084 -0.14697151 0.098676026 -0.05662027 -0.08812514 -0.009882217 -0.06157586
-0.08875291 -0.20858441 -0.025099605 -0.16245331 -0.23630916 -0.2519271 -0.010425636 0.048538424
-0.03798682 0.024537612 0.013208456 -0.2135409 0.16384964 -0.17935577 0.110777415 0.12101983
-0.060337935 0.046380572 0.004482451 -0.03051258 -0.032392487 -0.35907808 0.049345233 -0.13206908
0.0663555 -0.17718048 -0.21955253 -0.00029659804 -0.20959695 0.14489254 -0.081844136 -0.040231958
-0.073643655 -0.23055604 -0.070148654 -0.11983741 -0.1655983 -0.18808345 -0.061157 -0.061531577
0.024337757 0.06546953 0.0054282034 -0.22659777 -0.012032877 -0.0876832 0.09543079 0.13403958
-0.21675454 0.06619384 -0.03812882 -0.2815161 0.15164101 -0.16857453 -0.014683796 -0.19312394
0.17127894 0.018008575 -0.16909127 -0.018735493 0.0061589903 -0.07701318 0.15872827 0.18763445
-0.08704279 -0.3623931 0.066415176 0.37867504 -0.077741735 -0.07753967 -0.07742351 0.0037583949
-0.26851454 0.16328223 -0.1251462 0.13820982 -0.10768626 -0.05204604 0.19639777 0.10337427
-0.011880524 0.07511174 0.0024414617 -0.17602526 -0.01596317 -0.2522241 -0.018726546 -0.014850984
0.22512983 -0.01013235 -0.095924295 0.14271352 0.05828356 -0.1811057 0.1466513 0.037842646
-0.058059584 -0.21818848 -0.08030442 0.3613237 -0.11170222 -0.15694088 -0.15207097 -0.10726307
-0.17750941 -0.03857659 -0.038360655 0.057217505 -0.2449186 -0.00786963 0.1190351 0.12807997
-0.11188202 -0.11568921 -0.072543435 -0.118751556 -0.088976376 -0.26215976 -0.071554735 0.32271913
-0.15093715 -0.06654993 -0.05103769 0.021613834 -0.03473386 0.019156212 0.14151105 0.06294227
-0.062412452 -0.11405959 -0.012280462 -0.06958727 -0.1275163 0.0035843346 0.18128246 -0.21209796
-0.13033888 -0.20208618 0.016526112 0.13388975 0.0006679918 -0.031719353 -0.14713013 -0.025541557
-0.06745941 0.08438851 -0.17505777 -0.08688538 -0.04504794 -0.29068166 -0.061757833 0.4607666
-0.091586694 -0.09433345 0.06336076 -0.10245228 -0.09265948 -0.14336698 0.08866146 -0.013532877
-0.071837604 -0.040986992 -0.15832041 0.007396886 -0.02137257 -0.11467742 0.06476735 -0.1544537
-0.016087936 -0.13584024 0.030337261 0.077468425 -0.07726964 -0.01871548 -0.14087981 0.10861686
0.052818935 0.23107907 -0.46299416 -0.4030914 -0.06699071 -0.15206039 -0.10520048 -0.13355204
-0.09424072 0.089858845 0.054741852 0.14605528 -0.17974526 0.09207295 0.15703067 -0.05159625
0.06744265 0.0023455091 -0.069457956 -0.07301569 0.11987058 0.075888544 -0.041118875 -0.33775967
0.14981864 -0.14383398 -0.14351672 0.008095061 -0.04615115 0.037775677 0.11162735 0.12166062
-0.043550856 0.01323547 -0.302705 -0.29766318 -0.1731761 -0.15331413 -0.14962386 -0.2579785
0.05033232 0.13169965 -0.009718239 0.006908144 -0.050083935 0.13482577 0.14372076 0.05851412
0.05762544 -0.09152361 -0.1661895 0.03688885 0.10994947 0.040191267 0.08493313 -0.16478068
0.13054724 0.05648093 -0.15884124 -0.008561036 0.05036549 -0.03485619 0.0369878 0.16025515
00000000: 5d83 cabe 2ec2 13be df63 033a 16e5 0cbe
00000010: f728 f8bd 6a18 a3be 3b8e 98bd c2e2 c5bc
00000020: 4134 40be f867 f9bc b37f 16be a816 ca3d
00000030: a8ea 67bd f47a b4bd 06e9 21bc f836 7cbd
00000040: 16c4 b5bd 2797 55be b09d cdbc 295a 26be
00000050: 07fb 71be 97fc 80be 49d0 2abc 3ad0 463d
00000060: 1198 1bbd 1a03 c93c 4868 583c 77aa 5abe
00000070: 33c8 273e 0aa9 37be 45df e23d 3fd9 f73d
00000080: e924 77bd 8ef9 3d3d 86e1 923b 85f5 f9bc
00000090: fcad 04bd 15d9 b7be 3a1e 4a3d 1e3d 07be
000000a0: 64e5 873d cd6e 35be 61d2 60be b780 9bb9
000000b0: 95a0 56be b65e 143e e69d a7bd 44ca 24bd
000000c0: 7cd2 96bd e216 6cbe 19aa 8fbd 516d f5bd
000000d0: 9a92 29be f398 40be c37f 7abd 8908 7cbd
000000e0: fa5f c73c e414 863d 12df b13b 3f09 68be
000000f0: 8b25 45bc 4093 b3bd 3871 c33d ac41 093e
00000100: e7f4 5dbe a390 873d f72c 1cbd e122 90be
00000110: c847 1b3e cd9e 2cbe 4e94 70bc 48c2 45be
00000120: bf63 2f3e b886 933c 4326 2dbe 2d7b 99bc
00000130: 5bd1 c93b 16b9 9dbd aa89 223e 3f23 403e
00000140: 7e43 b2bd 978b b9be ae04 883d b2e1 c13e
00000150: 0f37 9fbd 1ecd 9ebd 3890 9ebd 674f 763b
00000160: bd7a 89be 7533 273e 5326 00be e086 0d3e
00000170: 9d8a dcbd 3a2e 55bd 7f1c 493e e4b5 d33d
00000180: 88a6 42bc 2fd4 993d ee00 203b f73f 34be
00000190: 32c5 82bc 8423 81be 6a68 99bc 8b51 73bc
000001a0: 6f88 663e 2802 26bc f573 c4bd 7e23 123e
000001b0: beba 6e3d c673 39be c22b 163e e400 1b3d
000001c0: e3cf 6dbd cd6c 5fbe a576 a4bd 6cff b83e
000001d0: 22c4 e4bd 1cb5 20be 7eb8 1bbe beac dbbd
000001e0: 07c5 35be 7d02 1ebd 1020 1dbd e75c 6a3d
000001f0: f1cb 7abe 9fef 00bc adc8 f33d 6527 033e
00000200: 6722 e5bd 77ee ecbd a791 94bd 0434 f3bd
00000210: 3f39 b6bd ce39 86be 4a8b 92bd 713b a53e
00000220: 458f 1abe 544b 88bd e60c 51bd 7f0f b13c
00000230: 1845 0ebd 7ded 9c3c 46e8 103e e0e7 803d
00000240: 33a4 7fbd 1398 e9bd fe33 49bc c583 8ebd
00000250: a293 02be 28e7 6a3b 1ca2 393e 3530 59be
00000260: 8e77 05be aeef 4ebe c561 873c 651a 093e
00000270: 2c1c 2f3a 27ec 01bd 48a9 16be 873c d1bc
00000280: 2928 8abd e2d3 ac3d 5842 33be f6f0 b1bd
00000290: 3084 38bd 3ad4 94be c8f5 7cbd 9ae9 eb3e
000002a0: ce91 bbbd e531 c1bd 49c3 813d 80d2 d1bd
000002b0: 41c4 bdbd cbce 12be 2494 b53d 00b9 5dbc
000002c0: 981f 93bd fae1 27bd bf1e 22be 9461 f23b
000002d0: 8715 afbc ffdb eabd bfa4 843d 1c29 1ebe
000002e0: d9ca 83bc b419 0bbe d985 f83c c4a7 9e3d
000002f0: 8c3f 9ebd 3551 99bc cc42 10be 8472 de3d
00000300: ab58 583d fe9f 6c3e 920d edbe ff61 cebe
00000310: 6d32 89bd b8b5 1bbe 5973 d7bd dec1 08be
00000320: 4701 c1bd ea07 b83d fe38 603d 848f 153e
00000330: 240f 38be be90 bc3d a6cc 203e 9756 53bd
00000340: 5f1f 8a3d 1db7 193b f93f 8ebd 4089 95bd
00000350: b57e f53d 746b 9b3d 446c 28bd d6ee acbe
00000360: 0f6a 193e 3749 13be 0cf6 12be 26a1 043c
00000370: fd08 3dbd abba 1a3d e19c e43d 3429 f93d
00000380: 6262 32bd 96d9 583c 26fc 9abe 4f67 98be
00000390: 1355 31be 61fe 1cbe ff36 19be c215 84be
000003a0: 4329 4e3d 46dc 063e 4039 1fbc b65d e23b
000003b0: d024 4dbd c40f 0a3e 892b 133e 80ac 6f3d
000003c0: a708 6c3d bb70 bbbd 952d 2abe c318 173d
000003d0: 302d e13d 999f 243d 6cf1 ad3d 44bc 28be
000003e0: 2dae 053e 8c58 673d 47a7 22be 9643 0cbc
000003f0: 0b4c 4e3d 5dc5 0ebd 8580 173d ed19 243e

edge_lin.0.bias f4 [32]
-0.038373414 -0.043444067 0.061934207 0.011228412 -0.052050952 -0.007457696 0.11434417 -0.05624803
0.074941196 -0.0039271107 -0.099610604 0.025192872 0.06350803 -0.10916959 -0.092255585 0.024310863
-0.047716364 -0.017241951 -0.051614728 -0.04565864 -0.052439537 0.021462936 0.066540696 -0.09512695
0.00026189492 0.060863905 -0.029535597 0.03369309 0.018399661 -0.105844714 0.056073908 0.028218787
00000000: 712d 1dbd 68f2 31bd b9ae 7d3d 60f7 373c
00000010: 6133 55bd b05f f4bb 472d ea3d 5664 66bd
00000020: c57a 993d feae 80bb a500 ccbd 4861 ce3c
00000030: 7f10 823d 4e94 dfbd 7ff0 bcbd 9327 c73c
00000040: 3c72 43bd fe3e 8dbc f769 53bd 8e04 3bbd
00000050: d7ca 56bd 0ad3 af3c 7d46 883d ebd1 c2bd
00000060: f14e 8939 6e4c 793d a3f4 f1bc c401 0a3d
00000070: e3ba 963c 1dc5 d8bd c1ad 653d 162b e73c

edge_lin.2.weight f4 [32, 32, 1, 1]
0.15704979 0.15158372 0.13494284 -0.012543686 0.2134276 0.006978647 -0.081102006 -0.16552798
0.03943931 0.12954439 0.07381722 0.08274812 0.11651374 0.05159056 -0.07591413 0.044602014
0.25867948 -0.028668722 0.06523404 -0.20194179 0.29204828 -0.17106692 0.09189468 0.1477809
-0.072959036 -0.21573618 0.1739968 0.1371573 -0.43933135 0.18172422 0.1910932 -0.0020760999
-0.22896756 -0.22176456 -0.061379172 -0.19065657 0.1114514 0.09526709 -0.03346521 0.06416039
0.10853745 0.1288909 -0.14096126 0.2398649 0.12134012 0.009808143 -0.11381768 -0.03537654
0.038462188 0.05934298 0.07582557 -0.03412608 -0.45472902 0.32569945 -0.14419906 -0.08493045
0.04440058 -0.11902139 -0.03799615 0.102452874 0.19526927 -0.21323808 0.07395662 0.015253693
-0.15337911 0.1135046 0.034140877 0.037855454 0.013416747 -0.30492926 0.015620037 0.03854948
-0.2278227 -0.16176695 0.014571797 -0.0059234467 0.0287726 -0.008119768 -0.03136173 0.19073002
0.018943254 -0.0205383 -0.10729621 -0.14880356 0.090644196 0.044965904 -0.08529335 0.09277148
-0.07479324 -0.24688914 -0.12690379 -0.06910879 -0.22947587 0.1651018 0.06540851 0.0051522646
-0.1877613 -0.18242624 -0.17925586 0.16904299 -0.08956745 0.2777346 -0.13789865 0.021130191
-0.13177714 0.04751479 -0.17792691 -0.12585944 0.10368429 0.3050029 -0.026884217 0.14963737
-0.15215649 0.02783496 5.515632e-05 -0.1077887 -0.019981956 0.00770968 -0.12844452 -0.10239483
0.10036766 -0.18654343 -0.13238245 0.08331954 -0.07059812 0.06798966 -0.15099147 -0.1625357
0.20204324 0.16797274 -0.14522608 0.17739323 0.15563266 -0.037959155 -0.15503031 -0.291316
-0.12492538 -0.067050934 -0.0049940064 -0.028758133 0.15050511 -0.18491755 0.14643201 0.007906546
-0.04044466 0.2512492 0.041236576 -0.13620162 0.13845967 0.10499377 0.07882086 0.1571224
0.10909086 -0.20237136 0.27241552 -0.19301075 -0.2860735 -0.07251003 0.14548905 -0.12270019
0.06453684 0.29774636 -0.10557743 0.19042936 0.2774067 -0.10175459 -0.11959307 -0.16920495
0.05561893 0.041977137 -0.062427383 0.23993601 0.14815061 -0.10004544 0.07161958 0.21837395
-0.022941977 -0.009693219 0.018469121 -0.21542263 0.14129247 -0.09323183 0.1676303 0.19024795
0.02852914 -0.119184665 0.18808407 0.053960543 -0.16403995 0.28428128 0.04778521 0.03740583
-0.059934523 -0.08459988 0.065618075 -0.14313227 0.03941922 -0.016729243 -0.03826077 -0.043867838
-0.043691233 0.059888106 0.03368461 0.0061038886 -0.19812983 -0.3334364 -0.066694915 -0.16282919
-0.02965196 0.11893758 0.23896043 -0.034824017 -0.17609349 0.23504555 -0.20469397 -0.076135494
-0.016216699 0.004679807 0.03735123 0.040069055 0.043090995 -0.07626502 -0.04990126 -0.051107995
-0.10483563 0.13843907 0.085767396 -0.032808974 -0.083548844 -0.2969725 -0.1348889 0.03472509
0.09057286 -0.25156778 0.10224371 -0.09752171 -0.013894856 -0.10249644 -0.049975768 0.069603674
0.16626526 0.18813182 0.18807124 -0.09454348 0.074968904 -0.10898561 -0.043303207 0.32523865
-0.21760236 -0.09987314 0.1901517 0.011845759 -0.18437655 0.17518245 0.17231125 0.0736963
00000000: a9d1 203e c338 1b3e 752e 0a3e 0884 4dbc
00000010: c48c 5a3e 22ad e43b cf18 a6bd 2b80 29be
00000020: 1d8b 213d 49a7 043e 7c2d 973d d977 a93d
00000030: c19e ee3d 9f50 533d de78 9bbd 9ab0 363d
00000040: a371 843e abda eabc 6d99 853d d4c9 4ebe
00000050: 5a87 953e 2b2c 2fbe 4733 bc3d e053 173e
00000060: 8c6b 95bd f2e9 5cbe 382c 323e f772 0c3e
00000070: 0af0 e0be ea15 3a3e f0ad 433e 2d0f 08bb
00000080: 7976 6abe 4016 63be ba68 7bbd 7a3b 43be
00000090: a240 e43d 641b c33d d112 09bd 8666 833d
000000a0: e248 de3d fafb 033e 2658 10be 259f 753e
000000b0: 2b81 f83d 55b2 203c 3e19 e9bd fee6 10bd
000000c0: 878a 1d3d a011 733d 704a 9b3d cac7 0bbd
000000d0: 3ed2 e8be 14c2 a63e eba8 13be 04f0 adbd
000000e0: 62dd 353d 7dc1 f3bd daa1 1bbd d0d2 d13d
000000f0: abf4 473e 155b 5abe 9276 973d a0ea 793c
00000100: 6a0f 1dbe 1a75 e83d 4ed7 0b3d 520e 1b3d
00000110: ead1 5b3c b01f 9cbe 2feb 7f3c 0fe6 1d3d
00000120: 5b4a 69be 3ca6 25be 8cbe 6e3c 7919 c2bb
00000130: 84b4 eb3c c708 05bc 2875 00bd bb4e 433e
00000140: e22e 9b3c f03f a8bc 1ebe dbbd f65f 18be
00000150: aaa3 b93d 2b2e 383d 48ae aebd f9fe bd3d
00000160: 332d 99bd 82d0 7cbe 11f3 01be e988 8dbd
00000170: b9fb 6abe 7210 293e e6f4 853d 54d4 a83b
00000180: 8044 40be f2cd 3abe d98e 37be 9b19 2d3e
00000190: 246f b7bd 3b33 8e3e 4e35 0dbe 3919 ad3c
000001a0: 96f0 06be de9e 423d 7932 36be 4ce1 00be
000001b0: 6e58 d43d 5729 9c3e 4a3c dcbc 8a3a 193e
000001c0: e9ce 1bbe 2406 e43c a657 6738 52c0 dcbd
000001d0: 33b1 a3bc 7ca1 fc3b f686 03be 61b4 d1bd
000001e0: 8f8d cd3d 3e05 3fbe 448f 07be 6fa3 aa3d
000001f0: bf95 90bd 2a3e 8b3d 829d 1abe c26f 26be
00000200: 6ce4 4e3e 0c01 2c3e 25b6 14be 92a6 353e
00000210: 2b5e 1f3e 0f7b 1bbd 44c0 1ebe 5f27 95be
00000220: e1d8 ffbd 0052 89bd c3a4 a3bb 2d96 ebbc
00000230: 031e 1a3e 075b 3dbe 46f2 153e 758a 013c
00000240: 4da9 25bd bca3 803e afe7 283d 7078 0bbe
00000250: 5fc8 0d3e f906 d73d d56c a13d b2e4 203e
00000260: 076b df3d 703a 4fbe 0c7a 8b3e 9ca4 45be
00000270: 3a78 92be 2380 94bd 15fb 143e 3d4a fbbd
00000280: e42b 843d 3672 983e fb38 d8bd eaff 423e
00000290: 4008 8e3e b664 d0bd 36ed f4bd 1044 2dbe
000002a0: add0 633d 38f0 2b3d dbb3 7fbd c9b1 753e
000002b0: cbb4 173e a0e4 ccbd 49ad 923d 6c9d 5f3e
000002c0: d0f0 bbbc 4fd0 1ebc 8e4c 973c c097 5cbe
000002d0: f9ae 103e 54f0 bebd 47a7 2b3e 5cd0 423e
000002e0: f1b5 e93c 1717 f4bd 1c99 403e bb05 5d3d
000002f0: 17fa 27be 518d 913e 6dba 433d db36 193d
00000300: e77d 75bd b442 adbd c562 863d 4491 12be
00000310: 0c76 213d c40b 89bc 53b7 1cbd c3ae 33bd
00000320: 94f5 32bd 3b4d 753d e0f8 093d 2103 c83b
00000330: 8ce2 4abe 2db8 aabe 5897 88bd b2bc 26be
00000340: abe8 f2bc 8c95 f33d 0bb2 743e a1a3 0ebd
00000350: da51 34be c8af 703e 4c9b 51be edec 9bbd
00000360: e2d8 84bc 1159 993b 9afd 183d 731f 243d
00000370: 2f80 303d d630 9cbd 4365 4cbd 9e56 51bd
00000380: 10b4 d6bd f9c2 0d3e d1a6 af3d b462 06bd
00000390: a81b abbd c80c 98be 5120 0abe e53b 0e3d
000003a0: 437e b93d 7ecd 80be 2665 d13d 76b9 c7bd
000003b0: 40a7 63bc a7e9 d1bd 64b3 4cbd 5f8c 8e3d
000003c0: 7141 2a3e a1a5 403e bf95 403e 03a0 c1bd
000003d0: 4c89 993d d933 dfbd b45e 31bd ae85 a63e
000003e0: 27d3 5ebe 4a8a ccbd 21b7 423e b714 423c
000003f0: 35cd 3cbe 0763 333e 5c72 303e 16ee 963d

edge_lin.2.bias f4 [32]
-0.06291665 -0.1149644 0.08110449 -0.038878642 0.056706354 -0.030198682 -0.163527 0.16286828
0.00069689896 0.17081286 0.094299525 -0.09198872 -0.2510621 0.07024033 -0.107606485 -0.025347978
0.09177331 -0.01270547 -0.007047176 0.14274901 -0.10920864 -0.04036132 0.055513546 0.11462019
-0.052187175 -0.1907647 0.1066923 0.046180945 0.13434508 -0.005962909 -0.019186325 -0.0080654705
00000000: 72da 80bd 7572 ebbd 1c1a a63d 363f 1fbd
00000010: ec44 683d 3a63 f7bc 9f73 27be f1c6 263e
00000020: 19b0 363a 91e9 2e3e 1c20 c13d 9564 bcbd
00000030: 368b 80be 2ada 8f3d ca60 dcbd 90a6 cfbc
00000040: a5f3 bb3d 9b2a 50bc ffeb e6bb cc2c 123e
00000050: c8a8 dfbd e951 25bd 2c62 633d fdbd ea3d
00000060: 38c2 55bd d257 43be 7e81 da3d 3b28 3d3d
00000070: c291 093e 8264 c3bb a42c 9dbc 0925 04bc

vertex_output_lin.0.weight f4 [32, 1, 32, 1]
0.16905133 -0.1848017 0.051263615 0.08340284 0.13907969 -0.02414486 -0.12335562 -0.056871433
-0.12601845 -0.062064983 -0.11707312 0.07180668 -0.1642723 -0.10020302 -0.08943131 0.15219057
-0.058604963 -0.103867486 0.17688905 0.046267763 -0.1340497 -0.0043749227 -0.16593656 -0.19822769
0.06581433 -0.020738188 0.13446014 -0.08562844 0.14646524 0.060992707 -0.01858136 -0.16865595
0.13179411 -0.026719902 -0.07378567 -0.18381046 0.13265954 0.1721558 0.11380079 0.09032103
-0.0006468298 -0.04724683 -0.03737294 0.045469046 0.18906493 0.089168906 -0.09932598 0.08731678
0.19847563 -0.06929064 -0.17495908 0.13126628 -0.12306332 -0.06919024 -0.101469055 -0.16569512
0.15096901 -0.1036331 -0.14066114 0.014492348 -0.087715976 -0.29364944 -0.14966953 -0.12124876
-0.05159606 0.12174064 -0.03196533 0.014076252 0.038857847 0.099873714 -0.11143621 -0.1651729
-0.061479997 -0.07880624 -0.19737212 0.08849508 -0.2558299 -0.20344253 0.034622826 -0.059361488
0.096974514 -0.00985865 0.032162763 0.09834156 -0.08926682 -0.03355152 -0.069318786 -0.122150294
0.05695999 0.018791247 0.10776347 0.10118742 0.08456242 0.049766913 -0.11455233 -0.061426062
-0.02500938 -0.058701213 0.01698777 0.062325332 -0.12853193 0.00051827694 -0.08014645 -0.016697882
-0.046836805 0.019024726 0.05545209 -0.06440341 0.09451708 0.013351546 0.10329705 -0.17028207
0.23665448 0.19196025 -0.27311575 0.25768578 -0.0639197 0.091420166 0.11401985 -0.0052883117
0.29290947 0.0057182657 0.0871057 -0.06062173 -0.025926474 -0.37903336 -0.23395318 -0.33560157
0.00021141159 0.119378954 -0.10155166 0.050536744 -0.05430272 -0.0453647 0.23309268 -0.0013604822
-0.116555974 -0.13618626 0.016506968 -0.050979376 0.24814607 -0.11788338 -0.10938461 -0.107449435
-0.045089185 -0.010268629 -0.1345109 -0.107151285 0.17720857 -0.01870905 -0.0024855926 -0.06403859
0.12329927 0.21986102 0.008242546 -0.16336319 0.124381214 -0.012197353 -0.04589728 -0.1392895
-0.09232534 0.19655494 -0.1394384 0.0044500907 0.025561443 -0.087853886 -0.13912731 -0.07428059
-0.19707963 0.052506506 0.0013464607 0.02401428 0.25633612 0.035603996 -0.090010725 -0.12295101
-0.008975108 0.13755871 -0.22906454 0.16333295 0.18220675 -0.03146071 -0.18972196 -0.09288911
-0.017075311 -0.103613846 -0.018312303 -0.23632124 -0.21383762 -0.077099465 0.03790112 -0.07518293
0.16848215 -0.058124296 -0.0033363367 0.026963327 -0.11957929 -0.109294064 -0.1709923 -0.1250261
0.07826976 -0.13438793 0.041454487 0.027189191 -0.37175614 0.11920324 0.18610924 -0.18933779
0.07508006 -0.22717297 0.27195293 -0.10454745 0.040126283 -0.22667435 -0.083977535 0.14231007
-0.063074656 -0.089539126 -0.03177233 0.17068802 -0.08959699 0.0974009 0.029336061 -0.080523044
-0.154027 -0.3039997 0.018556554 0.055044603 0.107558005 -0.19429666 -0.17714077 -0.12102129
-0.37633306 0.08010361 0.09215238 0.09264451 0.058673766 0.067064226 -0.19318892 -0.14637472
0.22845376 -0.055617124 -0.22672449 0.17298858 -0.14724137 0.15901129 -0.15269828 -0.10698392
0.1844113 -0.18502463 0.18637578 0.03674976 0.13355604 -0.1669091 -0.27218276 -0.14621882
00000000: cb1b 2d3e a83c 3dbe ccf9 513d 1ccf aa3d
00000010: e86a 0e3e 71cb c5bc dfa1 fcbd 05f2 68bd
00000020: fb0a 01be da37 7ebd 08c4 efbd 610f 933d
00000030: ff36 28be 3e37 cdbd c327 b7bd d8d7 1b3e
00000040: c20b 70bd 7ab8 d4bd 6722 353e 4483 3d3d
00000050: 5344 09be 835b 8fbb 46eb 29be 33fc 4abe
00000060: aac9 863d 22e3 a9bc ebaf 093e f75d afbd
00000070: fcfa 153e 7dd3 793d f037 98bc 25b4 2cbe
00000080: 09f5 063e b2e3 dabc f11c 97bd cf38 3cbe
00000090: e7d7 073e 9c49 303e 6310 e93d 3bfa b83d
000000a0: 0390 29ba e485 41bd 5e14 19bd c03d 3a3d
000000b0: 3d9a 413e 309e b63d 6b6b cbbd 24d3 b23d
000000c0: 323d 4b3e 40e8 8dbd 7928 33be ab6a 063e
000000d0: 9f08 fcbd 9db3 8dbd 02cf cfbd fbab 29be
000000e0: 9f97 1a3e 973d d4bd 7909 10be 5071 6d3c
000000f0: 6fa4 b3bd 3859 96be f842 19be 4551 f8bd
00000100: 6456 53bd 2853 f93d 14ee 02bd 14a0 663c
00000110: 6829 1f3d 978a cc3d ab38 e4bd 1623 29be
00000120: 73d2 7bbd 2a65 a1bd eb1b 4abe e93c b53d
00000130: 23fc 82be 3d53 50be aad0 0d3d 0825 73bd
00000140: 939a c63d 2d86 21bc 1abd 033d 4d67 c93d
00000150: 86d1 b6bd 526d 09bd 02f7 8dbd ef29 fabd
00000160: e14e 693d 1af0 993c 18b3 dc3d 5a3b cf3d
00000170: 102f ad3d 64d8 4b3d 699a eabd e599 7bbd
00000180: 79e0 ccbc af70 70bd f029 8b3c d948 7f3d
00000190: e09d 03be fadc 073a d223 a4bd ffc9 88bc
000001a0: f3d7 3fbd bed9 9b3c bb21 633d efe5 83bd
000001b0: 2c92 c13d 71c0 5a3c 678d d33d 6c5e 2ebe
000001c0: 8d55 723e 3a91 443e d4d5 8bbe 64ef 833e
000001d0: 55e8 82bd 7f3a bb3d 3d83 e93d 9349 adbb
000001e0: 3bf8 953e 4a60 bb3b 7964 b23d 7e4e 78bd
000001f0: c263 d4bc a910 c2be 6c91 6fbe f8d3 abbe
00000200: 5eae 5d39 f47c f43d 51fa cfbd 9eff 4e3d
00000210: 876c 5ebd 56d0 39bd d9af 6e3e 3552 b2ba
00000220: e6b4 eebd 6974 0bbe 9f39 873c c0cf 50bd
00000230: 011a 7e3e d76c f1bd 0a05 e0bd 730e dcbd
00000240: 70af 38bd c03d 28bc 3abd 09be 2272 dbbd
00000250: 2a76 353e b943 99bc 53e5 22bb aa26 83bd
00000260: 5484 fc3d 3f23 613e be0b 073c ae48 27be
00000270: 94bb fe3d 68d7 47bc c9fe 3bbd e8a1 0ebe
00000280: 1115 bdbd b345 493e f1c8 0ebe 11d2 913b
00000290: 3b66 d13c bdec b3bd 6477 0ebe 6c20 98bd
000002a0: 3ecf 49be 1011 573d b97b b03a 98b9 c43c
000002b0: 7d3e 833e 7fd5 113d 8b57 b8bd bdcd fbbd
000002c0: 550c 13bc 31dc 0c3e e58f 6abe c140 273e
000002d0: 6894 3a3e f2dc 00bd 7946 42be a53c bebd
000002e0: 86e1 8bbc 7f33 d4bd af03 96bc 32fe 71be
000002f0: 40f8 5abe 53e6 9dbd 343e 1b3d 82f9 99bd
00000300: 9686 2c3e be13 6ebd 71a6 5abb 32e2 dc3c
00000310: fde5 f4bd 91d5 dfbd 9b18 2fbe d806 00be
00000320: e54b a03d fd9c 09be 2ecc 293d debb de3c
00000330: d256 bebe d420 f43d 6c93 3e3e c4e1 41be
00000340: 93c3 993d 08a0 68be 6a3d 8b3e f91c d6bd
00000350: 755b 243d 521d 68be 6afc abbd bbb9 113e
00000360: 492d 81bd 4a60 b7bd b423 02bd d7c8 2e3e
00000370: a07e b7bd 207a c73d 2e52 f03c 44e9 a4bd
00000380: 41b9 1dbe d9a5 9bbe ea03 983c 7376 613d
00000390: 5f47 dc3d b4f5 46be 6464 35be 03da f7bd
000003a0: baae c0be 5d0d a43d 63ba bc3d 68bc bd3d
000003b0: e753 703d f858 893d 51d3 45be 41e3 15be
000003c0: c8ef 693e c8ce 63bd 772a 68be eb23 313e
000003d0: 71c6 16be dbd3 223e f05c 1cbe 631a dbbd
000003e0: 51d6 3c3e 1977 3dbe 4bd9 3e3e eb86 163d
000003f0: eac2 083e 38ea 2abe 8a5b 8bbe 63ba 15be

vertex_output_lin.0.bias f4 [32]
-0.15420453 -0.15670429 0.052616462 -0.003763255 0.026184218 0.17607951 -0.12704729 0.027739782
-0.10550685 -0.07105405 -0.031993546 -0.14006263 0.047045402 0.03081179 -0.10301524 0.0018501199
-0.058005143 0.013407868 0.0071818926 0.024769286 0.10011212 -0.06961682 -0.115280606 0.2122862
-0.051356927 -0.08806625 0.015363339 -0.16434717 -0.0136053 0.060973883 0.16956139 -0.015423808
00000000: cbe7 1dbe 1777 20be 5c84 573d f1a0 76bb
00000010: 4980 d63c 304e 343e af18 02be 8a3e e33c
00000020: fa13 d8bd c984 91bd aa0b 03bd 946c 0fbe
00000030: aeb2 403d 0269 fc3c a7f9 d2bd b97f f23a
00000040: cd96 6dbd adac 5b3c 1556 eb3b f5e8 ca3c
00000050: 9507 cd3d 4393 8ebd 3d18 ecbd 8e61 593e
00000060: a45b 52bd 145c b4bd 84b6 7b3c a04a 28be
00000070: c4e8 5ebc c0bf 793d 80a1 2d3e 24b4 7cbc

vertex_output_lin.2.weight f4 [1, 32, 1, 1]
0.08956861 -0.273728 -0.00016742024 -0.26683795 -0.040730536 -0.074392006 0.064608954 -0.2323327
0.074016646 -0.1658595 -0.1889211 -0.05066445 -0.3405273 0.005772656 -0.15507568 0.18921752
-0.15533221 0.02240511 0.08813947 -0.019795638 -0.25592616 0.2137259 -0.40758643 0.16123722
0.09190756 -0.025403166 -0.08581143 0.0064579016 -0.07661975 -0.092160404 0.08579556 -0.22137047
00000000: bf6f b73d 1426 8cbe 878d 2fb9 fc9e 88be
00000010: 10d5 26bd d65a 98bd b351 843d a0e8 6dbe
00000020: 0a96 973d 13d7 29be 8874 41be 8785 4fbd
00000030: 9859 aebe 8c28 bd3b 29cc 1ebe 3dc2 413e
00000040: 680f 1fbe ec8a b73c 7782 b43d 762a a2bc
00000050: c108 83be f6da 5a3e 2baf d0be 5f1b 253e
00000060: 083a bc3d 4d1a d0bc e7bd afbd ce9c d33b
00000070: d1ea 9cbd 98be bcbd 95b5 af3d f1ae 62be

graph_output_lin.0.weight f4 [1, 618]
-0.04540418 -0.041289095 -0.029863942 -0.06525112 -0.049369276 -0.08043415 -0.07232364 -0.05502009
-0.2521814 -0.17883354 0.051638093 0.026295265 -0.19374688 -0.04320457 0.012161092 0.041853033
-0.0035936974 -0.03739617 -0.10970947 -0.07455235 -0.0528242 -0.038813476 -0.048196312 -0.02715451
0.022805348 -0.12969674 -0.14109503 -0.043784894 -0.046146464 -0.12059505 -0.04121225 -0.11964627
-0.20145302 -0.3398574 -0.04429525 -0.046047065 -0.1382936 0.028400818 0.12569192 -0.057148103
-0.039033532 -0.106875926 0.053488668 -0.028836748 -0.277076 -0.29969993 0.00050361216 -0.05090443
-0.28600845 -0.03482079 -0.010845041 -0.044574972 -0.00946841 -0.026608214 -0.029374814 -0.05642949
-0.107697174 0.0041818647 0.018467696 -0.22869508 -0.12669632 -0.17313763 -0.06443934 -0.070762806
-0.042262632 0.15853079 0.03635075 0.03617002 0.079112984 -0.036690317 -0.10283908 -0.3980697
-0.08569047 -0.014228357 -0.29856148 -0.103133425 0.033331092 -0.010897671 -0.08318964 0.261077
-0.08758367 0.02378374 0.008161413 0.08974209 -0.06965252 0.019598788 0.01621281 -0.094971046
-0.09234425 -0.02276902 0.09594833 0.15388557 0.03562692 0.013317542 -0.09042456 -0.28454602
-0.028389357 -0.14527448 -0.37213966 -0.0227012 -0.066036694 -0.024095032 -0.10057757 -0.30850583
0.016462198 0.052934807 0.03376873 -0.11626418 -0.22441381 0.05129455 0.058243286 0.027787548
0.10690689 0.033112608 0.068315275 -0.015622909 -0.11464958 0.17980228 0.032117303 0.08928743
0.08887698 0.06038413 0.0040406426 0.07205202 -0.1056283 -0.20010222 0.033912852 -0.10771442
-0.04442825 -0.051777065 0.033262823 -0.13750082 -0.13278978 0.02923224 -0.06867887 0.068415724
-0.06297069 0.0026873015 -0.063958906 -0.021422096 -0.016452197 -0.0789594 0.024259852 0.121217
0.04504848 0.062325284 -0.009764013 0.03525289 0.073182344 -0.11769979 -0.026965957 -0.020956466
0.0044969227 -0.0178372 -0.05552602 -0.07907466 -0.011229347 0.019012759 -0.026713872 -0.022897398
0.033355646 0.1010554 0.02547756 0.022967882 0.109447666 0.10015968 0.056494217 -0.07521125
0.003282025 -0.0020273149 0.028505268 0.09422665 0.10011767 0.07467527 0.13956833 0.107349955
0.019479005 0.031930037 -0.0963893 0.02887963 -0.095945306 -0.04347263 0.009647307 -0.031337727
0.098753445 0.13817017 -0.1491827 -0.04134413 0.06981481 -0.31795365 -0.060386684 -0.077191375
0.024288481 0.13624413 -0.0248388 -0.28271088 -0.18954149 0.14198269 -0.00890387 -0.083540805
-0.016650874 -0.019522076 0.09111984 -0.055570703 0.02568922 -0.060770646 0.0057102763 -0.009723373
-0.081954956 -0.050173067 -0.010137114 0.15081048 0.07861096 0.038163226 0.010793786 0.040262554
-0.042746693 -0.06113256 0.082549185 0.0021365709 0.047962166 0.08050344 -0.027656315 0.03784229
0.05232538 0.11355229 0.1275022 0.1161898 0.047830347 0.054391794 -0.025063166 0.014235266
-0.017795471 -0.12752925 -0.23875284 -0.16185527 -0.080699585 -0.043035705 0.011006021 -0.05059969
0.031144008 0.06642471 0.0750259 -0.053555083 0.020311452 0.015897384 0.049473513 0.10236595
-0.056234557 -0.0767693 -0.09654441 -0.044264056 -0.03964253 -0.09417833 0.077567145 0.009484033
00000000: bcf9 39bd c11e 29bd 3aa5 f4bc 61a2 85bd
00000010: 7037 4abd a9ba a4bd 6b1e 94bd bf5c 61bd
00000020: ec1d 81be 2420 37be 7782 533d 2b69 d73c
00000030: 9565 46be 46f7 30bd 513f 473c 166e 2b3d
00000040: 3d84 6bbb ba2c 19bd 5caf e0bd e7ae 98bd
00000050: 305e 58bd e1fa 1ebd 7f69 45bd 2373 debc
00000060: 48d2 ba3c 39cf 04be 377b 10be ca57 33bd
00000070: 1304 3dbd 8afa f6bd 2dce 28bd 1b09 f5bd
00000080: b349 4ebe ca01 aebe f06e 35bd d99b 3cbd
00000090: d69c 0dbe d5a8 e83c 62b5 003e 2114 6abd
000000a0: a0e1 1fbd c4e1 dabd ef16 5b3d 0b3b ecbc
000000b0: e8dc 8dbe 4572 99be d704 043a 2a81 50bd
000000c0: b36f 92be 3fa0 0ebd 66af 31bc 3f94 36bd
000000d0: 6421 1bbc 78f9 d9bc 73a3 f0bc 9c22 67bd
000000e0: 5690 dcbd 0608 893b 9149 973c 0b2f 6abe
000000f0: aebc 01be fe4a 31be c6f8 83bd 17ec 90bd
00000100: 951b 2dbd e555 223e 86e4 143d 0427 143d
00000110: fd05 a23d 9648 16bd 4c9d d2bd cbcf cbbe
00000120: 7c7e afbd 0e1e 69bc 0ddd 98be 9e37 d3bd
00000130: 2f86 083d 258c 32bc 545f aabd e2ab 853e
00000140: 115f b3bd 1ed6 c23c 72b7 053c b3ca b73d
00000150: fba5 8ebd a38d a03c bad0 843c 2e80 c2bd
00000160: fb1e bdbd 1986 babc 8f80 c43d 2e94 1d3e
00000170: 89ed 113d d231 5a3c 8330 b9bd 04b0 91be
00000180: cc90 e8bc d5c2 14be 1789 bebe def7 b9bc
00000190: 3f3e 87bd f262 c5bc 9dfb cdbd 7af4 9dbe
000001a0: bbdb 863c 2bd2 583d 1451 0a3d ea1b eebd
000001b0: bccc 65be 3c1a 523d 8390 6e3d b6a2 e33c
000001c0: 00f2 da3d 16a1 073d e1e8 8b3d 3bf7 7fbc
000001d0: 66cd eabd 171e 383e 6f8d 033d 54dc b63d
000001e0: 2205 b63d 5955 773d 5e67 843b 0290 933d
000001f0: a653 d8bd 99e7 4cbe 34e8 0a3d 6199 dcbd
00000200: 66fa 35bd 3014 54bd 993e 083d 04cd 0cbe
00000210: 0bfa 07be 7378 ef3c 82a7 8cbd 8b1d 8c3d
00000220: c7f6 80bd 701d 303b e3fc 82bd 647d afbc
00000230: c2c6 86bc 77b5 a1bd 99bc c63c 9e40 f83d
00000240: c184 383d cc48 7f3d 3df9 1fbc 5665 103d
00000250: a0e0 953d 960c f1bd b6e7 dcbc e5ac abbc
00000260: ec5a 933b 521f 92bc 406f 63bd e5f1 a1bd
00000270: 4cfb 37bc a5c0 9b3c 0dd7 dabc 5393 bbbc
00000280: ee9f 083d 22f6 ce3d 51b6 d03c 2427 bc3c
00000290: 1926 e03d 8520 cd3d 7b66 673d 5b08 9abd
000002a0: 3e17 573b b3dc 04bb e183 e93c e7f9 c03d
000002b0: 7e0a cd3d 59ef 983d 00eb 0e3e 4bda db3d
000002c0: 6f92 9f3c 12c9 023d c167 c5bd f994 ec3c
000002d0: f97e c4bd 5b10 32bd bd0f 1e3c fd5b 00bd
000002e0: 3f3f ca3d 7b7c 0d3e 5ac3 18be 7658 29bd
000002f0: 11fb 8e3d d2ca a2be 0758 77bd 8316 9ebd
00000300: a3f8 c63c 9583 0b3e bd7a cbbc 7bbf 90be
00000310: 2a17 42be e963 113e 8ae1 11bc 7117 abbd
00000320: 6a67 88bc c3ec 9fbc 0a9d ba3d 1b9e 63bd
00000330: 3372 d23c a4ea 78bd 451d bb3b c84e 1fbc
00000340: 00d8 a7bd 4682 4dbd 2316 26bc 106e 1a3e
00000350: c8fe a03d 0b51 1c3d 6bd8 303c 59ea 243d
00000360: 2817 2fbd 2366 7abd 8c0f a93d b605 0c3b
00000370: fa73 443d fdde a43d 7f8f e2bc 8400 1b3d
00000380: 2353 563d 1a8e e83d f08f 023e ebf4 ed3d
00000390: c1e9 433d eec9 5e3d 4551 cdbc 083b 693c
000003a0: cfc7 91bc 0797 02be a07b 74be 63bd 25be
000003b0: d345 a5bd 3546 30bd 9952 343c 9f41 4fbd
000003c0: b821 ff3c ae09 883d 2ea7 993d 935c 5bbd
000003d0: 3464 a63c 3b3b 823c bda4 4a3d 3da5 d13d
000003e0: 3556 66bd 3939 9dbd 13b9 c5bd 3a4e 35bd
000003f0: 3560 22bd 91e0 c0bd 86db 9e3d eb62 1b3c

x_lin_after_first_round.0.weight f4 [32, 1, 32, 1]
0.15947784 -0.2128005 0.057118576 -0.040376578 -0.06450701 0.048469163 0.10338447 -0.049473327
-0.24508205 -0.029457752 0.12829977 -0.044116568 0.19586109 -0.13498881 -0.06486133 -0.0056571965
0.120474465 -0.076836176 -0.10478324 0.08906585 0.08344717 0.22967726 -0.055742886 0.017369112
-0.060619842 -0.038988322 -0.11144768 -0.08455525 -0.10168576 -0.03495641 -0.17834255 0.112397365
0.16315593 -0.2045294 0.25329763 0.15125181 -0.040203873 0.1615464 0.13850076 -0.0076431176
0.03442808 0.07106683 -0.0731581 -0.0049812123 -0.1305053 -0.048341576 0.04198785 0.10220284
-0.019742869 -0.068078585 0.2260451 -0.11519011 -0.1054773 -0.0040284144 0.059937876 0.14991432
0.039336 -0.1691256 0.19650705 0.025566977 0.21005549 0.22861359 0.21221471 0.026249504
-0.3120428 0.15316363 -0.084086895 -0.14691338 -0.16369258 -0.3094374 0.1248395 -0.20775995
-0.028917778 -0.24845769 0.1424987 -0.017800683 0.3392384 -0.014742152 -0.12623395 0.07285238
0.086477205 0.14441982 0.05820536 0.068269625 0.046395943 0.057754975 0.014479967 -0.09038503
0.1692973 -0.056170486 0.13150294 -0.11371421 0.056423064 -0.0065857335 -0.106748454 -0.065569825
-0.0086152945 0.16011693 0.057108767 -0.10969146 -0.20780046 -0.2903902 -0.028551877 -0.040583506
-0.026093405 -0.23063327 0.0915515 -0.026871972 0.17849557 0.12074765 -0.08399733 -0.11700948
0.20157914 0.052298244 -0.23389095 0.17365594 0.021535667 -0.15965693 0.05331014 -0.048078112
0.034838825 0.1321992 0.12816538 -0.13696846 -0.019967005 -0.33800167 -0.24683061 -0.1717688
0.1223258 0.05592856 0.20580174 -0.1078107 0.20280355 0.061117474 0.054915868 0.15458289
0.12793005 0.03275712 0.08775086 0.03050682 -0.04519284 0.078588784 -0.22062954 -0.04836487
-0.13563229 0.06273595 -0.02508995 -0.11986093 -0.10804101 0.017316049 0.2531379 0.09932888
0.0050749555 -0.2335858 0.15209708 0.25307074 0.08654552 0.039731935 0.17885266 0.19820341
0.035265345 0.0064189713 -0.002688759 0.11343811 0.0670862 0.20299445 0.046504773 0.19811569
0.22010393 -0.0936327 -0.16289267 -0.13084504 0.07375199 -0.012732686 -0.09111855 -0.047040787
0.02088256 0.02510607 -0.017231844 -0.21913274 -0.16317023 -0.09956673 -0.04415273 -0.032559127
-0.15880026 0.17765935 -0.06790302 -0.05603124 -0.055994853 0.12426428 0.20848826 0.0018425816
-0.23124343 0.16377263 0.053450227 -0.1056284 -0.23099397 -0.13489139 0.017033705 -0.0079479795
-0.1870837 -0.21855488 0.08367614 -0.13148372 0.27385387 0.06354818 -0.09901419 0.095474035
0.056545135 -0.030740373 -0.29046398 0.14301322 -0.013676541 -0.1433169 -0.3274631 0.07955354
-0.060008075 -0.037043434 0.0433931 -0.106936224 0.12889192 -0.09416482 -0.28954187 -0.22974125
0.2175291 0.2355133 0.1600963 -0.078181 0.09414606 0.18482828 0.0966885 0.138969
-0.048907794 0.09017862 -0.12425948 -0.16054139 -0.08630194 -0.07355511 0.039309524 -0.12260335
-0.103441186 -0.12551698 0.03737407 0.09440555 0.06946667 -0.15400307 0.1676692 -0.13433208
-0.12778084 -0.08509965 -0.09097553 0.113816895 -0.14337385 0.18519413 0.19649856 0.006418153
00000000: 294e 233e 60e8 59be 2bf5 693d e961 25bd
00000010: 401c 84bd 9a87 463d 3dbb d33d 8ba4 4abd
00000020: caf6 7abe 6251 f1bc 0461 033e 93b3 34bd
00000030: cf8f 483e 823a 0abe 04d6 84bd 0160 b9bb
00000040: 51bb f63d 495c 9dbd 9898 d6bd 2868 b63d
00000050: 5ae6 aa3d 8430 6b3e a752 64bd ab49 8e3c
00000060: 834c 78bd 38b2 1fbd ae3e e4bd 4e2b adbd
00000070: a040 d0bd 742e 0fbd 6e9f 36be 9730 e63d
00000080: 5912 273e 2870 51be 3ab0 813e c1e1 1a3e
00000090: d1ac 24bd 6b6c 253e 25d3 0d3e 1e73 fabb
000000a0: 7504 0d3d 7c8b 913d ead3 95bd 7039 a3bb
000000b0: 2ea3 05be d101 46bd 74fb 2b3d b94f d13d
000000c0: ccbb a1bc c96c 8bbd 5e78 673e cbe8 ebbd
000000d0: 7c04 d8bd ca00 84bb 6b81 753d 2483 193e
000000e0: c91e 213d 432f 2dbe 2539 493e d671 d13c
000000f0: c918 573e ae19 6a3e d04e 593e 3309 d73c
00000100: 13c4 9fbe edd6 1c3e c035 acbd 7670 16be
00000110: 079f 27be 946e 9ebe daab ff3d 06bf 54be
00000120: fae4 ecbc b16b 7ebe 2eeb 113e bdd2 91bc
00000130: a8b0 ad3e 1189 71bc 7943 01be a133 953d
00000140: f61a b13d cae2 133e be68 6e3d f2d0 8b3d
00000150: ac09 3e3d 7b90 6c3d 623d 6d3c c91b b9bd
00000160: 455c 2d3e 0613 66bd b5a8 063e ffe2 e8bd
00000170: df1b 673d 23cd d7bb ef9e dabd 7949 86bd
00000180: 2a27 0dbc b1f5 233e e2ea 693d eba5 e0bd
00000190: a5c9 54be 06ae 94be a0e5 e9bc e43a 26bd
000001a0: d6c1 d5bc 212b 6cbe 5a7f bb3d 9c22 dcbc
000001b0: 8bc7 363e 8b4a f73d cb06 acbd aba2 efbd
000001c0: c36a 4e3e af36 563d 1c81 6fbe ddd2 313e
000001d0: 916b b03c 1b7d 23be bc5b 5a3d 8eed 44bd
000001e0: 28b3 0e3d 3a5f 073e c93d 033e 7641 0cbe
000001f0: d891 a3bc 8e0e adbe 2ac1 7cbe 29e4 2fbe
00000200: f385 fa3d 5915 653d b1bd 523e dbcb dcbd
00000210: bcab 4f3e 5156 7a3d 76ef 603d fa4a 1e3e
00000220: 1800 033e 542c 063d b9b6 b33d 70e9 f93c
00000230: 211c 39bd 28f3 a03d b6ec 61be 3e1a 46bd
00000240: 31e3 0abe b57b 803d 7089 cdbc a679 f5bd
00000250: 9b44 ddbd 63da 8d3c 4a9b 813e f16c cb3d
00000260: d04b a63b 1e31 6fbe 56bf 1b3e 7d92 813e
00000270: c73e b13d f4bd 223d 2725 373e d6f5 4a3e
00000280: 6572 103d 3c56 d23b e435 30bb 3d52 e83d
00000290: 7d64 893d c7dd 4f3e ca7b 3e3d d7de 4a3e
000002a0: ed62 613e 80c2 bfbd 56cd 26be 3efc 05be
000002b0: 490b 973d c19c 50bc 5d9c babd d7ad 40bd
000002c0: e711 ab3c 3fab cd3c cc29 8dbc 5564 60be
000002d0: 1916 27be a4e9 cbbd 7ed9 34bd b85c 05bd
000002e0: 899c 22be 55ec 353e bd10 8bbd 0381 65bd
000002f0: dc5a 65bd 457e fe3d f27d 553e c782 f13a
00000300: 14cb 6cbe 03b4 273e a0ee 5a3d b453 d8bd
00000310: af89 6cbe f820 0abe 458a 8b3c 3e38 02bc
00000320: df92 3fbe dacc 5fbe 655e ab3d aba3 06be
00000330: 9336 8c3e 8c25 823d f4c7 cabd e487 c33d
00000340: df9b 673d 3cd3 fbbc b2b7 94be 0f72 123e
00000350: 9213 60bc aac1 12be 3ea9 a7be f7ec a23d
00000360: 07cb 75bd dbba 17bd f7bc 313d 6101 dbbd
00000370: 3efc 033e 7cd9 c0bd d53e 94be 4a41 6bbe
00000380: f3bf 5e3e 662a 713e 49f0 233e 5c1d a0bd
00000390: a6cf c03d a043 3d3e 9f04 c63d e44d 0e3e
000003a0: 8a53 48bd 91af b83d c17b febd f664 24be
000003b0: 12bf b0bd 10a4 96bd 0603 213d 7717 fbbd
000003c0: f9d8 d3bd 8687 00be 8e15 193d b257 c13d
000003d0: 8b44 8e3d fbb2 1dbe 7ab1 2b3e 598e 09be
000003e0: fbd8 02be ba48 aebd 6151 babd d518 e93d
000003f0: 98d0 12be 88a3 3d3e eb36 493e 5f4f d23b

x_lin_after_first_round.0.bias f4 [32]
-0.078044206 0.11518493 0.112463914 0.06352686 -0.10183636 -0.20114465 0.043382443 -0.041751664
0.06766149 -0.09100914 -0.04766343 0.079217725 0.19082415 0.059854936 -0.049077 -0.10814178
0.00063220743 -0.15425546 0.19817339 0.16532746 0.055010784 -0.058627836 -0.0050197276 0.10318809
-0.12474638 -0.16564842 -0.15144463 0.05392608 0.16378483 -0.009201627 -0.14837383 -0.020819766
00000000: a4d5 9fbd 14e6 eb3d 7b53 e63d 5f1a 823d
00000010: 958f d0bd ddf8 4dbe cab1 313d cb03 2bbd
00000020: 1b92 8a3d 0063 babd bb3a 43bd e73c a23d
00000030: 6867 433e 732a 753d f704 49bd 7079 ddbd
00000040: b9ba 253a 25f5 1dbe f7ed 4a3e 9a4b 293e
00000050: fd52 613d be23 70bd 877c a4bb 4754 d33d
00000060: 087b ffbd bd9f 29be 4d14 1bbe 98e1 5c3d
00000070: 36b7 273e 6cc2 16bc 4fef 17be 378e aabc
