reachability_classification/weights/SimpleMultiplePassGNNReachabilityNet_epoch_40.pt (torch_old, 36685 bytes, 16 tensors)

x_lin.0.weight f4 [32, 1, 1, 11]
0.034076735 -0.11194045 -0.11098181 -1.2493854 -0.24716869 -0.043541968 -0.02267866 0.11946834
-0.005624437 0.08238271 -0.24507312 0.09917952 -0.05964853 -0.07103717 0.09996273 -0.15517658
-0.4488529 -0.062229853 -0.14111444 0.17425478 -0.36217466 0.12522174 -0.32989362 0.066882804
0.08689433 -0.22694872 0.2289138 0.08631253 0.09507649 -0.35002956 0.10054937 0.67650986
-0.014548753 0.07363714 -0.15790588 -0.31996825 0.4082208 -0.105618335 -0.068038024 -0.560782
-0.06426281 -0.12148287 -0.5871187 -0.2898868 -0.012599401 0.14567712 0.00031756985 -0.021255445
-0.37773874 0.07787697 -0.17041296 0.3584585 0.34532332 0.009426619 -0.22879858 0.07181974
-0.13277942 -0.054794595 0.52051985 0.08635469 0.16092952 0.4482719 0.016285518 -0.13947502
-0.52630794 -0.1815857 -0.29688266 0.10529966 -0.06330777 0.3575604 -0.23018898 0.16249347
0.032269828 0.20695746 -1.0041565 0.23402493 -0.020087954 -0.46379694 -0.19860034 -0.26643986
-0.13505514 -0.29832137 0.011861288 0.31209803 0.3118127 0.1907291 0.09726502 0.20677286
0.4037863 -0.27520642 -0.27107257 -0.25733465 0.300559 -0.22000705 -0.06906053 0.09690174
0.26256704 0.091847405 0.21020445 0.4453451 0.010567086 0.33566058 0.14373305 -0.09240755
0.24806121 0.02145118 0.60578054 0.005598347 -0.009776287 -0.1422837 -0.13084397 0.101897925
0.17240822 0.36761978 -0.16773923 0.19347301 -0.075859934 -0.10324124 -0.09821994 0.14083874
-0.3002757 -0.18061246 0.1573365 -0.04995456 0.04119926 -0.38540065 0.098321356 -0.3264162
0.32953313 0.13431183 -0.11246443 0.180786 -0.52213955 -0.08944321 -0.10906123 -0.16113347
-0.304653 -0.0946808 0.2552843 0.41289452 -0.027371699 -0.10866042 0.46588683 0.1306353
0.024617674 -0.24146497 0.040590286 -0.29703608 0.008029035 -0.4233384 -0.013397985 -0.11870327
0.74000543 -0.698792 -0.30702448 -0.22127475 -0.2443255 0.08528949 0.2867069 -0.26634315
0.3244708 -0.38693857 -0.1302618 0.2832103 -0.45708892 0.060109098 -0.018539447 0.23650716
-0.047397044 -0.3480479 -0.16567753 0.250361 0.056964654 -0.0779988 0.8063441 -0.74769807
0.5771036 0.16139911 0.16989289 -0.40120035 0.39076385 -0.10102537 0.24103564 -0.120521784
-0.0013639695 -0.4817638 0.64337313 -0.11498945 0.05642546 0.07479369 -0.464921 -0.15438038
-0.1717117 0.2111571 -0.2892003 -0.061626334 -0.061818123 -0.13801157 0.173088 -0.34312272
0.07525763 -0.45382106 -0.0186581 -0.0030132884 -0.018638464 0.013395218 -0.15997529 -0.87432593
0.7509418 0.24638973 -0.051788803 -0.0308035 0.5107185 0.16381274 -0.2509787 -0.05647295
-0.13538615 -0.44168842 -0.57328206 0.43401948 0.033216897 -0.27404252 -0.011880301 0.44227913
0.779125 -0.20122725 0.23282936 0.1403803 0.094897546 0.4857997 -0.34664768 0.07229615
0.18773367 -0.16194102 -0.030021124 0.18572456 -0.4180832 -0.22543488 -0.18009834 0.2207193
-0.58150434 0.5656302 0.18622752 -0.0374717 0.30095962 -0.03340731 -0.2949732 0.019362448
-0.08432984 0.14817731 -0.06958493 0.5162371 -0.60873854 0.03136909 -0.052319873 0.02224467
00000000: 0c94 0b3d 0941 e5bd 6e4a e3bd dceb 9fbf
00000010: ca19 7dbe 1059 32bd 99c8 b9bc d1ab f43d
00000020: 324d b8bb 44b8 a83d 73f4 7abe a21e cb3d
00000030: 0452 74bd f07b 91bd 43b9 cc3d 9ce6 1ebe
00000040: 0cd0 e5be bbe4 7ebd 4e80 10be d86f 323e
00000050: f56e b9be 213a 003e d1e7 a8be daf9 883d
00000060: a8f5 b13d 3f65 68be 6168 6a3e a0c4 b03d
00000070: 76b7 c23d 1337 b3be d4ec cd3d c02f 2d3f
00000080: e55d 6ebc 12cf 963d 14b2 21be e1d2 a3be
00000090: 5102 d13e 6d4e d8bd 8557 8bbd 698f 0fbf
000000a0: 389c 83bd 03cc f8bd 694d 16bf 0b6c 94be
000000b0: b86d 4ebc 622c 153e 817f a639 e61f aebc
000000c0: f966 c1be f67d 9f3d bc80 2ebe df87 b73e
000000d0: 38ce b03e 1b72 1a3c 2d4a 6abe 3a16 933d
000000e0: 54f7 07be 4c70 60bd ca40 053f bada b03d
000000f0: b5ca 243e e583 e53e 3569 853c 8ad2 0ebe
00000100: 1ebc 06bf 9af1 39be 0101 98be 59a7 d73d
00000110: 81a7 81bd 2812 b73e a9b6 6bbe b064 263e
00000120: 5e2d 043d a8ec 533e 3388 80bf 3ba4 6f3e
00000130: 7e8f a4bc cb76 edbe e35d 4bbe ce6a 88be
00000140: e54b 0abe 94bd 98be d955 423c 50cb 9f3e
00000150: eaa5 9f3e 7d4e 433e e232 c73d 44bc 533e
00000160: 14bd ce3e dbe7 8cbe 06ca 8abe 5ec1 83be
00000170: dfe2 993e 8749 61be 9b6f 8dbd 6b74 c63d
00000180: 306f 863e 7e1a bc3d d63f 573e 4604 e43e
00000190: 9221 2d3c b4db ab3e c22e 133e 2b40 bdbd
000001a0: c203 7e3e 63ba af3c 6f14 1b3f 5772 b73b
000001b0: b82c 20bc d1b2 11be f6fb 05be dcaf d03d
000001c0: c88b 303e a938 bc3e d5c3 2bbe ca1d 463e
000001d0: 745c 9bbd 2570 d3bd 8927 c9bd 0838 103e
000001e0: bdbd 99be 79f2 38be d21c 213e 279d 4cbd
000001f0: 8ec0 283d 3c53 c5be b55c c93d 0620 a7be
00000200: 91b8 a83e 0a89 093e c053 e6bd f71f 393e
00000210: f0aa 05bf 002e b7bd 7f5b dfbd 2c00 25be
00000220: 7afb 9bbe 02e8 c1bd a0b4 823e e966 d33e
00000230: 9d3a e0bc 5b89 debd b888 ee3e 43c5 053e
00000240: 01ab c93c 9842 77be 0042 263d 1d15 98be
00000250: 378c 033c d0bf d8be 3983 5bbc b31a f3bd
00000260: ff70 3d3f 08e4 32bf 5032 9dbe d995 62be
00000270: 7730 7abe 42ac ae3d 3fcb 923e 215e 88be
00000280: 0921 a63e d01c c6be 5963 05be f100 913e
00000290: 8f07 eabe f534 763d 0ae0 97bc ef2e 723e
000002a0: 6723 42bd 5633 b2be 5fa7 29be 512f 803e
000002b0: c553 693d d6bd 9fbd 916c 4e3f 2469 3fbf
000002c0: 10bd 133f cf45 253e 67f8 2d3e 226a cdbe
000002d0: 3312 c83e 64e6 cebd 0cd2 763e 20d4 f6bd
000002e0: 39c7 b2ba bfa9 f6be 1ab4 243f 977f ebbd
000002f0: 621e 673d 6f2d 993d 200a eebe e415 1ebe
00000300: 31d5 2fbe 9139 583e 1012 94be e56b 7cbd
00000310: 0035 7dbd e852 0dbe fb3d 313e c8ad afbe
00000320: ac20 9a3d 3c5b e8be dfd8 98bc 977a 45bb
00000330: b1af 98bc 9e77 5b3c 90d0 23be d3d3 5fbf
00000340: b93d 403f 974d 7c3e 7f20 54bd 9f57 fcbc
00000350: 73be 023f 87be 273e 4880 80be 2e50 67bd
00000360: aba2 0abe fc24 e2be 9dc2 12bf cd37 de3e
00000370: 710e 083d 4d4f 8cbe 98a5 42bc 6972 e23e
00000380: bc74 473f 840e 4ebe d26a 6e3e dabf 0f3e
00000390: a559 c23d bdba f83e ce7b b1be 0110 943d
000003a0: 413d 403e ded3 25be dcee f5bc 942e 3e3e
000003b0: 000f d6be 67d8 66be b36b 38be 3d04 623e
000003c0: 78dd 14bf 24cd 103f 6db2 3e3e ed7b 19bd
000003d0: 6117 9a3e 1ad6 08bd ba06 97be ff9d 9e3c
000003e0: 20b5 acbd cbbb 173e 8b82 8ebd 1d28 043f
000003f0: 4ad6 1bbf e07c 003d 5d4d 56bd 743a b63c

x_lin.0.bias f4 [32]
-0.37649673 -0.4343655 -0.13021076 0.07890105 -0.13416219 -0.272954 0.1656344 -0.040136162
0.4119254 0.06859008 -0.34815142 0.2361375 0.49643725 -0.26080242 -0.06926509 -0.11211324
0.43871763 -0.16247089 0.43549547 -0.12745708 -0.18082388 0.27409884 -0.018531512 0.044923145
-0.198895 0.06723204 -0.35326076 0.18729714 0.28321198 -0.10209421 0.13259113 0.51257914
00000000: 2ec4 c0be 2865 debe f855 05be e096 a13d
00000010: d061 09be a0c0 8bbe 109c 293e d165 24bd
00000020: e3e7 d23e f578 8c3d e740 b2be 07ce 713e
00000030: 062d fe3e e587 85be dbda 8dbd a09b e5bd
00000040: 999f e03e c55e 26be 43f9 de3e 1c84 02be
00000050: e529 39be af56 8c3e 66cf 97bc 5501 383d
00000060: 22ab 4bbe f4b0 893d 98de b4be d2ca 3f3e
00000070: 2901 913e c516 d1bd f8c5 073e 6338 033f

x_lin.2.weight f4 [32, 32, 1, 1]
0.19134623 0.12015149 0.029667959 0.025404908 -0.048359912 -0.12360845 -0.13442855 -0.26123595
-0.06699111 0.57336515 0.15124181 -0.14336962 -0.29376414 0.31629315 0.08661799 0.33818334
0.0040922244 -0.036447976 -0.17671345 -0.27750656 0.1771112 0.048145514 0.12797754 -0.569201
0.08446202 0.051740896 0.08995025 0.122429416 0.15939413 0.06220875 -0.3607712 -0.43940085
0.37777835 -0.11084548 0.2994611 0.12017203 0.0540073 -0.37397048 -0.2729609 0.0666589
-0.17763752 -0.04998417 -0.006832147 0.16609563 -0.14119378 0.4821334 0.1483199 0.24562396
-0.52895147 0.101650015 -0.5829338 -0.20495042 -0.27214733 0.01726979 0.14046119 -0.00649689
-0.39200968 0.06275364 0.31521353 -0.07869111 0.271819 0.16343951 -0.066161804 0.44801372
0.12877645 -0.11773412 -0.038240932 -0.16976552 0.22699238 0.18373491 0.013511169 0.2189891
-0.14447458 0.07398698 -0.07495273 0.18566373 -0.4046696 -0.15005752 0.23079124 0.28547084
-0.32479516 0.06351249 0.050723083 0.047193408 0.46103087 -0.08176427 0.18945989 -0.13959573
-0.04639274 -0.24343073 0.23389976 0.368931 -0.49552408 0.29697603 -0.16721532 -0.40906575
0.04990183 0.100726664 -0.03678427 0.15939 -0.22419998 -0.22202857 -0.3482083 -0.4106663
0.027236216 -0.36254436 -0.330188 -0.6418554 0.092299834 -0.35965624 0.1265938 0.288086
0.25693208 -0.5594835 -0.38098025 0.30230442 0.40614069 0.09796657 0.20562011 -0.0680252
0.27809006 -0.006926718 -0.62723505 -0.2566227 0.024550155 -0.019801404 -0.30113456 0.5760036
0.12661175 -0.096067995 -0.041724496 0.056109473 0.015319084 0.030827453 0.12635145 -0.25470206
0.07938446 -0.08569791 0.155014 0.021443103 -0.18305556 0.007036832 0.014107389 0.31730545
-0.19445218 0.03272471 -0.39846894 -0.1312784 -0.14694193 -0.10853532 0.31833512 0.28841704
-0.019508202 0.15944022 0.1479874 0.05875133 -0.7960425 0.19968304 -0.2117784 0.19075975
0.07002806 -0.04423312 0.30715045 0.0012755134 -0.17582181 -0.14024518 0.008623696 0.18557142
0.053755186 0.024269832 -0.1067338 0.103188716 0.42184857 -0.30095935 0.1761589 -0.011381544
0.27868855 0.27724934 0.17756833 -0.2423597 -0.6069774 -0.065324344 -0.31766316 0.2430539
0.23643821 -0.2039223 0.23014541 0.05335983 -0.22620143 0.072141446 0.06735686 0.22083084
0.12438318 0.028052589 -0.16585268 -0.26760855 -0.0012176996 0.1839782 -0.34049183 0.1135237
-0.5558532 -0.41267705 0.18191013 0.032350924 -0.23294747 0.13179907 -0.43386886 0.2714979
-0.18280055 0.28894112 -0.19340208 -0.3933239 -0.1997793 -0.20613402 0.25467438 -0.14923516
-0.07879646 -0.087924406 0.24898109 0.019360557 0.03509358 0.20428541 -0.16509917 0.2776466
-0.43224385 -0.50742894 -0.18847275 -0.4867839 -0.024768952 0.11142254 -0.23451951 -0.17539334
0.006621424 0.17489666 -0.012768483 0.04245374 0.027641635 -0.1355466 -0.13146524 0.046028163
0.5731551 -0.16386141 -0.36472738 -0.3279845 -0.04430805 -0.071713865 0.107124425 -0.032990422
-0.28734392 -0.17009962 -0.22820473 -0.6090064 0.04999064 0.16355103 -0.63084906 -0.27781525
00000000: 44f0 433e fc11 f63d 380a f33c f41d d03c
00000010: 0b15 46bd 6d26 fdbd a3a7 09be b8c0 85be
00000020: a332 89bd 0fc8 123f 22df 1a3e 7ccf 12be
00000030: 4168 96be 2df1 a13e c664 b13d 5e26 ad3e
00000040: 1118 863b 794a 15bd 5ff4 34be 5715 8ebe
00000050: a35c 353e 3b34 453d 8b0c 033e 28b7 11bf
00000060: 6cfa ac3d 43ee 533d d637 b83d 46bc fa3d
00000070: 3738 233e 9ace 7e3d 01b7 b8be 26f9 e0be
00000080: 2a6c c13e f402 e3bd f752 993e c11c f63d
00000090: c236 5d3d 0f79 bfbe 88c1 8bbe 7684 883d
000000a0: 9ce6 35be 33bc 4cbd 34e0 dfbb f914 2a3e
000000b0: 1a95 10be 30da f63e 2ce1 173e d984 7b3e
000000c0: 5d69 07bf e22d d03d 263b 15bf 86de 51be
000000d0: e556 8bbe 6079 8d3c 0fd5 0f3e dde3 d4bb
000000e0: 7eb5 c8be fb84 803d ab63 a13e ce28 a1bd
000000f0: dc2b 8b3e b05c 273e d77f 87bd 0e62 e53e
00000100: f9dd 033e 961e f1bd 86a2 1cbd 03d7 2dbe
00000110: b170 683e 0125 3c3e f35d 5d3c ae3e 603e
00000120: 25f1 13be 7c86 973d d180 99bd a21e 3e3e
00000130: db30 cfbe aea8 19be 8a54 6c3e 3c29 923e
00000140: 8d4b a6be d612 823d 02c3 4f3d e04d 413d
00000150: 3d0c ec3e 0774 a7bd c601 423e 2ff2 0ebe
00000160: 5006 3ebd e845 79be 6b83 6f3e 86e4 bc3e
00000170: 55b5 fdbe 3e0d 983e 7e3a 2bbe 1171 d1be
00000180: dc65 4c3d c849 ce3d 1aab 16bd 2237 233e
00000190: ae94 65be 755b 63be 5c48 b2be da42 d2be
000001a0: 7c1e df3c 6a9f b9be 670e a9be a350 24bf
000001b0: b207 bd3d dd24 b8be cea1 013e 0280 933e
000001c0: 9a8c 833e 503a 0fbf d80f c3be a5c7 9a3e
000001d0: acf1 cf3e b2a2 c83d 148e 523e cc50 8bbd
000001e0: d261 8e3e 86f9 e2bb 7a92 20bf 0d64 83be
000001f0: 681d c93c 8e36 a2bc 4f2e 9abe f974 133f
00000200: 83a6 013e 4cbf c4bd 4ee7 2abd 0cd3 653d
00000210: e5fc 7a3c db89 fc3c 4662 013e 4f68 82be
00000220: 5294 a23d 6382 afbd fdbb 1e3e 72a9 af3c
00000230: eb72 3bbe 3a95 e63b ae22 673c dc75 a23e
00000240: 791e 47be 580a 063d 1f04 ccbe d86d 06be
00000250: f277 16be c447 debd d2fc a23e 66ab 933e
00000260: aacf 9fbc 4c44 233e 028a 173e 3ca5 703d
00000270: 71c9 4bbf b679 4c3e 70dc 58be 8656 433e
00000280: df6a 8f3d ca2d 35bd d342 9d3e 212f a73a
00000290: a20a 34be 6f9c 0fbe 674a 0d3c 6f06 3e3e
000002a0: 662e 5c3d 87d1 c63c 4097 dabd 9b54 d33d
000002b0: 89fc d73e 5817 9abe 0063 343e a879 3abc
000002c0: 44b0 8e3e a0f3 8d3e 79d4 353e 242d 78be
000002d0: df62 1bbf c5c8 85bd bfa4 a2be 1fe3 783e
000002e0: dc1c 723e 02d1 50be 3dab 6b3e d68f 5a3d
000002f0: 59a1 67be e5be 933d 65f2 893d 7b21 623e
00000300: 9cbc fe3d 8bce e53c 49d5 29be fd03 89be
00000310: 389b 9fba c864 3c3e f254 aebe 1d7f e83d
00000320: 654c 0ebf 684a d3be a646 3a3e 6782 043d
00000330: c889 6ebe 56f6 063e 0f24 debe c601 8b3e
00000340: 1130 3bbe 17f0 933e 320b 46be c061 c9be
00000350: f292 4cbe cc14 53be ae64 823e 1ad1 18be
00000360: 0a60 a1bd b611 b4bd e6f4 7e3e 089a 9e3c
00000370: 49be 0f3d 3230 513e c20f 29be b227 8e3e
00000380: 114f ddbe dde6 01bf 00ff 40be bd3b f9be
00000390: 42e8 cabc 8031 e43d e225 70be 509a 33be
000003a0: 88f8 d83b 1c18 333e e632 51bc f9e3 2d3d
000003b0: b670 e23c bacc 0abe d39e 06be 0788 3c3d
000003c0: 4bba 123f 49cb 27be 8cbd babe 96ed a7be
000003d0: 5c7c 35bd b8de 92bd 0d64 db3d f720 07bd
000003e0: be1e 93be 982e 2ebe 80ae 69be d8e7 1bbf
000003f0: fcc2 4c3d ec79 273e 537f 21bf cd3d 8ebe

x_lin.2.bias f4 [32]
-0.22995073 -0.17652223 -0.2169981 -0.20988794 -0.19846106 0.103170685 -0.09525734 0.1628276
-0.18963021 0.025206832 0.1663921 0.03054628 0.10587661 0.014972042 -0.10251071 0.14141122
-0.15367506 -0.00012672259 0.12422115 -0.20559557 -0.07954664 0.15269469 -0.1960359 -0.046802178
0.13649361 0.090782784 0.0029683837 -0.077615894 0.15301888 0.16161758 -0.07867018 -0.054814436
00000000: 3478 6bbe 3ec2 34be c034 5ebe ddec 56be
00000010: 6039 4bbe 274b d33d 4816 c3bd 47bc 263e
00000020: 6c2e 42be 8f7e ce3c b162 2a3e 313c fa3c
00000030: d6d5 d83d 4c4d 753c 23f1 d1bd 1ace 103e
00000040: ff5c 1dbe d6e0 04b9 a967 fe3d a587 52be
00000050: 59e9 a2bd ff5b 1c3e a3bd 48be a4b3 3fbd
00000060: fbc4 0b3e 53ec b93d 3789 423b 15f5 9ebd
00000070: fbb0 1c3e 147f 253e d51d a1bd 1a85 60bd

edge_lin.0.weight f4 [32, 1, 64, 1]
-0.7432966 -0.33874 -0.0825169 -0.42130104 -0.27366167 -0.35758257 -0.28001943 0.052582793
-0.17941333 0.27507648 -0.69090813 0.074661754 -0.2528552 -0.39149123 -0.050736018 -0.5214831
-0.41321862 -0.2574795 0.08923387 -0.4160848 -0.15560904 -0.78810793 -0.4036468 -0.015575884
-0.07371264 0.14183348 0.14211676 -0.21290521 0.27392805 0.026523462 0.100821346 0.093071684
-0.024398793 0.23061965 0.05261703 -0.15955338 0.07110299 -0.61719906 0.099216 -0.026891528
0.093756154 -0.27776244 -0.55546546 -0.29394943 -0.3374538 -0.06757219 -0.1323351 -0.014710188
-0.14897765 -0.61825603 -0.07635955 -0.20768306 -0.27682683 -0.47759587 0.12760155 -0.0017378357
0.06854885 0.06028742 0.067977525 -0.39643332 0.18336861 -0.30418155 0.1490171 -0.056826804
-0.27936253 0.0366335 -0.069583595 -0.37964198 0.22164904 -0.1351197 -0.028805368 -0.37587142
0.29178828 0.13280131 -0.49227124 0.101421125 -0.091457635 -0.10213554 0.1848219 0.14315698
0.08369723 -0.33809182 0.19694854 0.3944142 -0.08065141 -0.079531096 -0.14581445 -0.130867
-0.21190166 0.22836152 0.07494863 0.2723689 -0.0035911058 0.032334697 0.13738218 0.18093447
0.08283397 0.005498372 0.04435698 -0.2547228 0.026537081 -0.2726223 -0.015170245 -0.18061791
0.41615167 -0.09101195 -0.3655071 0.2559804 0.03289809 -0.23474956 0.18306576 0.12293943
-0.20931992 -0.37186113 0.002553702 0.4715044 -0.083612666 -0.18366337 -0.103591494 -0.19149348
-0.21156012 0.053910702 0.098284334 0.13407297 -0.16331391 -0.00022608564 0.08133218 0.20863837
-0.16201012 -0.06872541 -0.7016382 -0.13298517 -0.07838353 -0.6177516 -0.16599278 0.35343918
-0.3603723 -0.31566092 0.07310407 0.097205244 0.06066308 0.1781189 -0.14299807 0.14970393
-0.050370738 -0.24043235 -0.04409227 -0.046653926 -0.41231632 0.0041248244 0.16618204 -0.42618546
-0.08129492 -0.5577546 -0.03799429 0.07009677 0.056100596 -0.041275088 -0.045061562 0.013072311
-0.012524111 0.12361988 -0.78813446 -0.17421387 -0.091002665 -0.6114007 0.040956095 0.4360205
-0.19540411 -0.4043775 0.11238681 -0.05015149 -0.33324695 0.09138162 -0.22883254 0.07917314
0.038753666 -0.2524134 -0.07649547 0.12442651 -0.4472191 -0.19806573 -0.01151427 -0.038908537
0.12437673 -0.50412357 -0.076010875 0.10988611 -0.05564609 -0.017899126 0.15505601 0.15674399
0.248077 0.38152334 -0.5813042 -0.49104932 -0.019639293 -0.13762614 -0.1297802 -0.35716814
-0.10452709 0.2536919 0.09741543 0.19438049 -0.08649974 0.14172682 0.3194097 0.031859502
-0.2564374 0.032719705 -0.19436528 -0.30678532 0.088313036 0.14441982 -0.028917013 -0.40297115
0.119644366 -0.3783067 -0.22760788 0.05671127 -0.07097871 0.11177512 0.10029856 0.13556395
0.0047885412 0.1725803 -0.50649166 -0.4032343 -0.10146402 -0.23508938 -0.20261002 -0.47738305
0.041582685 0.15593949 0.006416895 -0.15075842 -0.011665526 0.26733837 0.20877264 0.3443706
-0.19343464 -0.1500636 -0.35423923 -0.20237318 0.08263039 0.03769212 0.17279711 -0.06563168
0.11495109 -0.1981287 -0.15524547 0.006698596 0.01557567 -0.05640036 0.083471894 0.23533376
00000000: b048 3ebf 546f adbe 9ffe a8bd c5b4 d7be
00000010: 621d 8cbe 1015 b7be b55e 8fbe 0e61 573d
00000020: 21b8 37be d3d6 8c3e 5bdf 30bf 43e8 983d
00000030: 3d76 81be 8a71 c8be 92d0 4fbd eb7f 05bf
00000040: 6491 d3be 5ad4 83be 3fc0 b63d 1109 d5be
00000050: fa57 1fbe 71c1 49bf cbaa cebe fe31 7fbc
00000060: a7f6 96bd cc3c 113e 0e87 113e d303 5abe
00000070: 4c40 8c3e bb47 d93c 6c7b ce3d 5e9c be3d
00000080: fadf c7bc 8f27 6c3e f484 573d f661 23be
00000090: 729e 913d c200 1ebf c231 cb3d 9f4b dcbc
000000a0: 3a03 c03d e136 8ebe fc32 0ebf 8a80 96be
000000b0: bfc6 acbe 4a63 8abd da82 07be 0003 71bc
000000c0: 998d 18be 0746 1ebf 6562 9cbd deaa 54be
000000d0: 3fbc 8dbe 7287 f4be fba9 023e 17c8 e3ba
000000e0: 5763 8c3d f1ef 763d cd37 8b3d 4ff9 cabe
000000f0: fbc4 3b3e afbd 9bbe f097 183e 39c3 68bd
00000100: 9b08 8fbe 020d 163d d881 8ebd 6f60 c2be
00000110: f7f7 623e d25c 0abe 3cf9 ebbc 3872 c0be
00000120: 4665 953e 11fd 073e fa0a fcbe e1b5 cf3d
00000130: 244e bbbd 702c d1bd f441 3d3e be97 123e
00000140: 7469 ab3d 5f1a adbe e1ac 493e a8f0 c93e
00000150: 912c a5bd 33e1 a2bd 6250 15be 0002 06be
00000160: c0fc 58be 9ad7 693e ab7e 993d f073 8b3e
00000170: c258 6bbb 6371 043d eaad 0c3e e346 393e
00000180: dba4 a93d b02b b43b aaaf 353d 076b 82be
00000190: 4b64 d93c 2695 8bbe 9f8c 78bc e7f3 38be
000001a0: d511 d53e 7964 babd bf23 bbbe dd0f 833e
000001b0: 26c0 063d 3062 70be 9775 3b3e abc7 fb3d
000001c0: f657 56be 9564 bebe 035c 273b 0669 f13e
000001d0: 1e3d abbd 4012 3cbe c727 d4bd de16 44be
000001e0: 37a3 58be 78d1 5c3d 4c49 c93d 6d4a 093e
000001f0: c33b 27be 6711 6db9 7c91 a63d 4ca5 553e
00000200: fbe5 25be e8bf 8cbd 909e 33bf 442d 08be
00000210: 8b87 a0bd f824 1ebf 03fa 29be fbf5 b43e
00000220: b882 b8be 4f9e a1be 96b7 953d 8b13 c73d
00000230: da79 783d cd64 363e 166e 12be fd4b 193e
00000240: 8c51 4ebd e633 76be 199a 34bd 3018 3fbd
00000250: 201b d3be 8929 873b a02b 2a3e fb34 dabe
00000260: f37d a6bd 01c9 0ebf e79f 1bbd e58e 8f3d
00000270: bdc9 653d 1110 29bd 7992 38bd 3f2d 563c
00000280: ee31 4dbc 6b2c fd3d 2ec3 49bf 1f65 32be
00000290: 9b5f babd c284 1cbf 94c1 273d 143e df3e
000002a0: 0418 48be 910a cfbe 0e2b e63d a66b 4dbd
000002b0: 589f aabe 4926 bb3d 1453 6abe 8725 a23d
000002c0: 2abc 1e3d 543c 81be a8a9 9cbd 53d3 fe3d
000002d0: e7f9 e4be bed1 4abe 59a6 3cbc 8f5e 1fbd
000002e0: 3ab9 fe3d 3e0e 01bf 97ab 9bbd f80b e13d
000002f0: 28ed 63bd 30a1 92bc 01c7 1e3e 7f81 203e
00000300: e607 7e3e 0757 c33e 5ad0 14bf d16a fbbe
00000310: 95e2 a0bc deed 0cbe 1ae5 04be bede b6be
00000320: 4d12 d6bd e8e3 813e be81 c73d ae0b 473e
00000330: c726 b1bd d620 113e ab89 a33e 1c7f 023d
00000340: c34b 83be 1905 063d b107 47be f712 9dbe
00000350: 77dd b43d cae2 133e 5fe3 ecbc 3c52 cebe
00000360: 1b08 f53d 6ab1 c1be 0a12 69be 144a 683d
00000370: 495d 91bd 5bea e43d 5569 cd3d 47d1 0a3e
00000380: 32e9 9c3b e4b8 303e 70a9 01bf ba74 cebe
00000390: 5ecc cfbd 45bb 70be 0079 4fbe 8d6b f4be
000003a0: 9b52 2a3d 9aae 1f3e d144 d23b 6a60 1abe
000003b0: c320 3fbc 93e0 883e 7fc8 553e 5851 b03e
000003c0: bb13 46be 46aa 19be d85e b5be ea3a 4fbe
000003d0: 1f3a a93d 0d63 1a3d baf1 303e e769 86bd
000003e0: 7a6b eb3d 40e2 4abe abf8 1ebe e57f db3b
000003f0: 1831 7f3c 1004 67bd 50f3 aa3d 55fb 703e

edge_lin.0.bias f4 [32]
0.053409986 -0.053302202 0.0078779785 0.061809313 -0.13571502 -0.093671635 0.12178428 -0.059165996
0.174254 -0.06708299 -0.07476488 0.054480247 0.09121053 -0.115837835 -0.18880455 0.10806316
0.051475536 -0.10169934 -0.19589974 -0.1414783 -0.1807321 -0.048039325 -0.063769296 -0.0034413077
0.04915817 0.13575551 0.047323186 -0.04890341 0.11507909 -0.12981604 -0.0017912813 -0.076674975
00000000: 6ec4 5a3d 6953 5abd a312 013c c32b 7d3d
00000010: e1f8 0abe ead6 bfbd 096a f93d 0b58 72bd
00000020: a46f 323e cf62 89bd 541e 99bd ae26 5f3d
00000030: 96cc ba3d 633c edbd fb55 41be 3850 dd3d
00000040: 03d8 523d be47 d0bd f199 48be b0df 10be
00000050: d611 39be e2c4 44bd 7a99 82bd 9087 61bb
00000060: 145a 493d 7e03 0b3e f5d5 413d f14e 48bd
00000070: 96ae eb3d 7fee 04be 6dc9 eaba c507 9dbd

edge_lin.2.weight f4 [32, 32, 1, 1]
0.38682204 0.11186065 0.28267834 0.105893284 0.40307355 0.06180546 -0.10747082 -0.21108748
0.10552693 0.08391436 0.27258286 0.067567036 0.019707182 -0.27922264 -0.088966824 -0.13421413
0.40801764 0.03421489 0.16175157 -0.316543 0.34021044 -0.23841289 0.11601048 0.24801739
-0.17994496 -0.4000384 0.31142235 -0.053221058 -0.5904074 0.22857109 -0.10617922 -0.0008591043
-0.2337615 -0.24000078 0.09392413 -0.20513251 0.17611593 -0.06790811 0.1522838 0.12699078
0.17432368 0.07829267 -0.048098832 0.27553234 0.17932017 0.05535785 -0.049401782 0.14116935
0.04017608 0.004908501 0.2149062 -0.026856404 -0.5460775 0.36442393 -0.23027733 0.18510534
0.44680887 -0.5453736 0.10920377 0.05701699 0.30154637 -0.43485168 0.102404214 -0.12911198
-0.03674073 0.013965947 0.20262933 0.20568667 -0.07318139 -0.31579062 0.097115494 0.21808098
-0.61600876 -0.18967806 0.17281671 0.034514617 -0.039060794 -0.018013969 -0.07820117 0.4427552
0.104243636 0.24268895 -0.06908357 -0.051191226 -0.050022084 0.104523815 0.009330255 0.02882624
-0.11924685 -0.17839819 -0.072426006 -0.0031560678 -0.256638 0.16025813 0.102486685 0.1506179
-0.2524127 -0.2415703 -0.33538952 0.4912293 -0.123433635 0.34108147 -0.30257758 0.04148103
-0.05015449 0.22425231 -0.57718825 0.10349489 -0.11986283 0.42901373 0.081678964 -0.46129066
-0.43983373 0.3435296 0.1178072 -0.13172089 0.06430772 0.09585805 -0.22118206 -0.18305957
0.012959601 -0.2022246 -0.14726289 -0.039231945 -0.43323871 0.28023642 -0.109510176 -0.053734526
0.5350355 -0.0016166882 0.05395272 0.35055006 0.29260346 0.11782417 -0.13653366 -0.45686972
-0.30878907 -0.31031883 0.17108016 -0.09118516 -0.08242279 -0.20189919 0.12466843 0.32647824
-0.06699445 0.17250456 0.07440126 -0.20476109 0.22249222 0.054132942 0.11048614 0.31914824
0.086054385 -0.37675816 0.41963837 -0.1442355 -0.5951334 -0.09659045 0.08597719 -0.23022555
0.18397102 0.32192877 -0.043233696 -0.0023520577 0.32291463 0.0012867635 -0.2655302 -0.22738408
0.16753682 0.02336835 -0.09542597 0.13263223 0.017023064 -0.3219079 0.023488611 0.24087588
0.013892046 -0.04802138 0.045721855 -0.0951817 0.21727277 -0.14780496 0.13928035 0.2778968
0.047195483 -0.24590924 0.17529258 0.021980042 -0.10875154 0.3036552 -0.15156052 0.128147
-0.17965373 -0.11147232 0.14066271 -0.09767978 -0.09932536 -0.06709318 -0.030051984 -0.17755242
0.15361321 -0.41452742 -0.12772739 0.05717096 -0.1775347 -0.28540507 0.14590727 -0.36997828
-0.18925008 -0.027719153 0.31371295 -0.028551022 -0.4251409 0.26612577 -0.4748406 0.00019193253
-0.11764334 0.019362949 0.15904847 0.08750079 0.1344394 -0.034574255 -0.09662863 -0.045296337
0.03036287 0.08155753 0.25998136 -0.04957714 -0.15226796 -0.5220385 -0.13628794 0.2166764
-0.25750738 -0.41404745 0.27487975 -0.12805174 4.3250086e-05 -0.18537292 -0.24289544 0.1538072
0.30895913 0.3652778 0.3387592 -0.08588401 -0.057785597 -0.07454084 -0.09621745 0.41003203
-0.23131749 -0.1882028 0.3093271 0.05151635 -0.25465775 0.19049156 0.031092836 0.3069265
00000000: 8a0d c63e 3217 e53d 37bb 903e 94de d83d
00000010: a85f ce3e b927 7d3d a919 dcbd 5127 58be
00000020: 811e d83d 4bdb ab3d fb8f 8b3e 9660 8a3d
00000030: f570 a13c 45f6 8ebe 3d34 b6bd 6e6f 09be
00000040: b0e7 d03e ea24 0c3d 34a2 253e ed11 a2be
00000050: 1030 ae3e 8222 74be e796 ed3d 45f8 7d3e
00000060: 7e43 38be d5d1 ccbe c072 9f3e 53fe 59bd
00000070: f024 17bf 8a0e 6a3e 7e74 d9bd 8335 61ba
00000080: 2d5f 6fbe c4c2 75be 4b5b c03d 420e 52be
00000090: bc57 343e 6813 8bbd 49f0 1b3e df09 023e
000000a0: e881 323e e857 a03d 4803 45bd 9312 8d3e
000000b0: b59f 373e eabe 623d 8659 4abd b38e 103e
000000c0: ac8f 243d 7ed7 a03b 5f10 5c3e f601 dcbc
000000d0: bccb 0bbf c695 ba3e d2cd 6bbe 418c 3d3e
000000e0: 22c4 e43e 9b9d 0bbf 3aa6 df3d a68a 693d
000000f0: 4964 9a3e e1a4 debe 4db9 d13d ee35 04be
00000100: 737d 16bd 6dd1 643c 107e 4f3e 879f 523e
00000110: 20e0 95bd 4faf a1be 7de4 c63d 9f50 5f3e
00000120: c0b2 1dbf f73a 42be ddf6 303e 335f 0d3d
00000130: 36fe 1fbd 0892 93bc ef27 a0bd cfb0 e23e
00000140: b07d d53d 7483 783e b07b 8dbd e4ad 51bd
00000150: f5e3 4cbd 9510 d63d eddd 183c 0225 ec3c
00000160: b137 f4bd 04ae 36be 1654 94bd 08d6 4ebb
00000170: 0e66 83be b51a 243e 8ae4 d13d 943b 1a3e
00000180: 3d3c 81be 345e 77be 2db8 abbe 6882 fb3e
00000190: c6ca fcbd 3ba2 ae3e 73eb 9abe 03e8 293d
000001a0: cb6e 4dbd 66a2 653e 9cc2 13bf 21f5 d33d
000001b0: a57a f5bd b0a7 db3e 4d47 a73d 4a2e ecbe
000001c0: e331 e1be 1de3 af3e e744 f13d d7e1 06be
000001d0: c4b3 833d 3a51 c43d 8d7d 62be f873 3bbe
000001e0: 8254 543c f713 4fbe 15cc 16be adb1 20bd
000001f0: 77d1 ddbe 267b 8f3e df46 e0bd bc18 5cbd
00000200: 16f8 083f 0ee7 d3ba 87fd 5c3d 4c7b b33e
00000210: 1fd0 953e cc4d f13d 7bcf 0bbe d4ea e9be
00000220: 9a19 9ebe 1ce2 9ebe a32f 2f3e 49bf babd
00000230: 48cd a8bd a9be 4ebe 2952 ff3d 2828 a73e
00000240: 6334 89bd 09a5 303e b05f 983d e4ac 51be
00000250: 00d5 633e 81ba 5d3d 8f46 e23d 6667 a33e
00000260: 483d b03d 72e6 c0be d7da d63e 79b2 13be
00000270: aa5a 18bf 37d1 c5bd cf14 b03d 3fc0 6bbe
00000280: e662 3c3e d9d3 a43e d115 31bd fb24 1abb
00000290: 1155 a53e 9ea8 a83a 93f3 87be 5fd7 68be
000002a0: c68e 2b3e fb6e bf3c b16e c3bd bed0 073e
000002b0: f473 8b3c 1dd1 a4be 306b c03c 2ba8 763e
000002c0: 779b 633c 11b2 44bd d746 3b3d a0ee c2bd
000002d0: c17c 5e3e 2f5a 17be 829f 0e3e 7d48 8e3e
000002e0: 0d50 413d a2cf 7bbe e67f 333e 7d0f b43c
000002f0: 21b9 debd b278 9b3e ae32 1bbe f838 033e
00000300: 26f7 37be 9a4b e4bd e309 103e 560c c8bd
00000310: 186b cbbd 2668 89bd 942f f6bc 4dd0 35be
00000320: c84c 1d3e f03c d4be f8ca 02be 192c 6a3d
00000330: a8cb 35be 9d20 92be b768 153e cb6d bdbe
00000340: c6ca 41be 4713 e3bc fc9e a03e d5e3 e9bc
00000350: 11ac d9be a341 883e 4f1e f3be 7f41 4939
00000360: feee f0bd 0c9f 9e3c 9add 223e 9d33 b33d
00000370: 7baa 093e bc9d 0dbd 3be5 c5bd a788 39bd
00000380: 8ebb f83c a207 a73d 471c 853e 6611 4bbd
00000390: 22ec 1bbe 51a4 05bf 118f 0bbe 6be0 5d3e
000003a0: 02d8 83be 07fe d3be 0abd 8c3e ff1f 03be
000003b0: 6d67 3538 66d2 3dbe 95b9 78be a27f 1d3e
000003c0: e42f 9e3e b105 bb3e d971 ad3e f5e3 afbd
000003d0: 97b0 6cbd dea8 98bd a80d c5bd b8ef d13e
000003e0: 7ede 6cbe 3cb8 40be 1f60 9e3e cf02 533d
000003f0: 8062 82be 3810 433e 67b6 fe3c 7825 9d3e

edge_lin.2.bias f4 [32]
-0.08479274 -0.2744525 0.100150466 -0.12167832 -0.0025082147 -0.17970257 -0.5119034 0.1389302
-0.085965656 0.14672081 0.05777236 -0.15029323 -0.46725973 0.11375054 -0.006413486 -0.0879877
0.036715817 -0.06052904 -0.049016252 0.123698115 -0.22224677 -0.17523082 0.0489001 0.06664655
-0.089408405 -0.3155115 0.12695928 0.1135164 0.13728687 -0.010971993 -0.051283244 -0.0897124
00000000: d1a7 adbd 0a85 8cbe b01b cd3d 7c32 f9bd
00000010: dc60 24bb f303 38be 1a0c 03bf b843 0e3e
00000020: c30e b0bd fb3d 163e b6a2 6c3d 78e6 19be
00000030: ab3c efbe 0bf6 e83d 3828 d2bb e532 b4bd
00000040: 5363 163d 4ced 77bd 44c5 48bd 7055 fd3d
00000050: a894 63be b56f 33be 794b 483d fd7d 883d
00000060: c11b b7bd b98a a1be 9d01 023e 497b e83d
00000070: ee94 0c3e e0c3 33bc 610e 52bd 23bb b7bd

vertex_output_lin.0.weight f4 [32, 1, 32, 1]
0.17153907 -0.2178167 0.025086148 -0.016702924 0.1469401 -0.06559488 -0.30432546 -0.06139113
-0.16039881 -0.0798036 -0.14755528 0.020790877 -0.2750455 -0.041271925 -0.094088666 0.1537078
-0.046923224 -0.16771667 0.16853702 0.08679512 -0.29813308 -0.11211307 -0.15500824 -0.1539797
0.06317783 -0.17286792 0.08966838 -0.10317127 0.15268545 0.07700346 -0.03205413 -0.14473651
0.28029147 -0.21042553 -0.09187468 -0.14678597 0.1823083 0.3462757 0.21095543 0.07601541
0.13442494 -0.030422645 -0.15237628 -0.003578368 0.1131037 -0.008227929 -0.108918265 -0.020851584
0.19842818 0.16111471 -0.4228657 0.09395229 -0.002324282 0.055750754 -0.06854003 -0.41944778
0.2750551 -0.010744292 -0.19142018 -0.06101674 -0.18556081 -0.36051822 -0.2855937 -0.13731661
-0.018771613 0.10812617 -0.07435375 0.032411274 -0.016539138 0.077681854 -0.18332651 -0.11643763
-0.06634386 -0.06911384 -0.20519218 -0.017385948 -0.11579413 -0.08680201 0.052813314 -0.06373864
-0.021379901 -0.06671684 -0.07238459 0.014960562 -0.008431406 -0.0067574647 -0.07702858 -0.015229822
-0.09502166 0.107228264 0.07637624 0.07815991 0.043654997 -0.042640094 -0.014158926 0.03454301
-0.11921345 0.16121945 0.009009363 0.14533518 -0.19378513 0.06515667 -0.054833975 0.06836618
-0.007892472 0.03598147 0.15906876 -0.18146382 0.1015741 0.0015323294 0.09352968 -0.3056638
0.30021408 0.23205586 -0.6180668 0.33256507 -0.031982854 0.17674074 0.10572439 0.07537209
0.26712692 0.056623068 0.16684186 -0.049661618 0.028501699 -0.5562819 -0.28490233 -0.60500354
-0.1663617 0.23094945 -0.14501083 0.11880913 -0.16173695 -0.07046509 0.4426642 -0.043979988
-0.09720197 -0.18340532 0.019841138 -0.005416504 0.3876293 -0.23487873 -0.0467858 -0.0767807
-0.12923206 0.109858505 -0.12260316 -0.17470336 0.25722954 0.012755491 -0.101358585 -0.1171616
0.039098803 0.30695826 -0.029883722 -0.24190652 0.0620111 -0.06706435 -0.036161557 -0.15169653
-0.04240786 0.25839114 -0.25255376 -0.08565313 -0.27994695 -0.008812519 0.1998414 -0.2106089
-0.23103495 -0.15424219 -0.050066758 -0.03027194 0.6964138 0.10537139 -0.18665491 -0.2609586
0.119537994 0.2874813 -0.33995503 0.32929263 0.16763543 -0.069518544 -0.3451859 -0.23086973
0.22028573 -0.062619664 -0.16606876 -0.3981613 -0.33038944 -0.08653796 -0.1301709 -0.21376093
0.23168989 -0.29621464 0.0027400067 -0.13771237 -0.09280368 -0.16003999 -0.5693349 -0.12473241
-0.045374453 -0.1629861 -0.024746964 0.039709564 -0.4766729 0.19060668 0.052892312 -0.3061957
0.16955195 -0.5073719 0.13278891 -0.08723427 -0.17087649 -0.40037972 -0.12850927 0.16325642
0.0034928543 -0.21052223 -0.11880441 0.16163695 -0.14465892 -0.04924553 -0.07308679 -0.17463662
-0.08608246 -0.15013245 0.07936918 0.07764869 0.16015804 -0.26895747 -0.27623338 -0.11003737
-0.4571021 0.1483445 0.2096675 0.1698784 0.116221406 0.08050926 -0.11962245 -0.16932079
0.33871195 0.019811483 -0.5269278 0.19191647 -0.15893334 0.24474098 -0.23063365 -0.107855216
0.09242783 -0.16523857 0.293846 0.102709234 0.23338458 -0.33579275 -0.40656024 -0.23462677
00000000: f0a7 2f3e 570b 5fbe 7781 cd3c 92d4 88bc
00000010: 7777 163e 9c56 86bd 8cd0 9bbe 4475 7bbd
00000020: 963f 24be 1270 a3bd bb18 17be a151 aa3c
00000030: c4d2 8cbe c00c 29bd 8fb1 c0bd 9465 1d3e
00000040: 9132 40bd ebbd 2bbe f894 2c3e a4c1 b13d
00000050: e6a4 98be 8a9b e5bd 7bba 1ebe dbac 1dbe
00000060: 6163 813d 4a04 31be 0ea4 b73d 754b d3bd
00000070: 9359 1c3e fdb3 9d3d 314b 03bd cf35 14be
00000080: 5d82 8f3e ca79 57be cb28 bcbd 104f 16be
00000090: 07af 3a3e 0c4b b13e b304 583e f8ad 9b3d
000000a0: b1a6 093e e938 f9bc 8708 1cbe 0e83 6abb
000000b0: eaa2 e73d 6fce 06bc 8a10 dfbd f1d0 aabc
000000c0: c230 4b3e 41fb 243e da81 d8be 0f6a c03d
000000d0: fb52 18bb e75a 643d b75e 8cbd dcc1 d6be
000000e0: 06d4 8c3e d408 30bc a703 44be b0ec 79bd
000000f0: a703 3ebe d895 b8be 5639 92be ba9c 0cbe
00000100: edc6 99bc 4171 dd3d c746 98bd afc1 043d
00000110: 167d 87bc aa17 9f3d f2b9 3bbe da76 eebd
00000120: 4adf 87bd 8f8b 8dbd e61d 52be fa6c 8ebc
00000130: 7925 edbd 41c5 b1bd c652 583d 6789 82bd
00000140: e724 afbc d7a2 88bd 5f3e 94bd 251d 753c
00000150: e123 0abc b96d ddbb 29c1 9dbd 8186 79bc
00000160: b79a c2bd 7e9a db3d 256b 9c3d 4e12 a03d
00000170: 95cf 323d 61a7 2ebd d7fa 67bc f97c 0d3d
00000180: 2e26 f4bd b616 253e 029c 133c bfd2 143e
00000190: 9c6f 46be dc70 853d 9799 60bd 9103 8c3d
000001a0: 6d4f 01bc 4e61 133d ece2 223e a7d1 39be
000001b0: 1506 d03d 71d8 c83a 7d8c bf3d f77f 9cbe
000001c0: a9b5 993e 0da0 6d3e a039 1ebf f845 aa3e
000001d0: 7400 03bd 86fb 343e 0786 d83d af5c 9a3d
000001e0: dcc4 883e 97ed 673d 98d8 2a3e fb69 4bbd
000001f0: 657c e93c 7e68 0ebf b8de 91be 83e1 1abf
00000200: b95a 2abe 037e 6c3e b87d 14be 3352 f33d
00000210: 5f9e 25be 0050 90bd e2a4 e23e 5c24 34bd
00000220: d411 c7bd 9bce 3bbe e289 a23c ee7c b1bb
00000230: 5977 c63e 0d84 70be 78a2 3fbd 333f 9dbd
00000240: 6955 04be 7ffd e03d 5e17 fbbd 70e5 32be
00000250: 97b3 833e 68fc 503c 1795 cfbd 6cf2 efbd
00000260: 1126 203d a229 9d3e b5ce f4bc 58b6 77be
00000270: 5aff 7d3d 0959 89bd 241e 14bd 5656 1bbe
00000280: ddb3 2dbd d84b 843e ba4e 81be e96a afbd
00000290: 3555 8fbe 6262 10bc 39a3 4c3e dca9 57be
000002a0: 6d94 6cbe aaf1 1dbe cd12 4dbd dcfc f7bc
000002b0: 2d48 323f f5cc d73d 7722 3fbe 5e9c 85be
000002c0: 56d0 f43d c030 933e 960e aebe 0b99 a83e
000002d0: 9fa8 2b3e bd5f 8ebd 35bc b0be 1d69 6cbe
000002e0: 9592 613e bd3e 80bd ee0d 2abe ccdb cbbe
000002f0: ce28 a9be d03a b1bd 854b 05be 25e4 5abe
00000300: 1d40 6d3e 72a9 97be af91 333b 7904 0dbe
00000310: db0f bebd 86e1 23be efbf 11bf b573 ffbd
00000320: 90da 39bd d4e5 26be 25ba cabc 7fa6 223d
00000330: 780e f4be 662e 433e 9ca5 583d afc5 9cbe
00000340: 079f 2d3e 20e3 01bf d1f9 073e e2a7 b2bd
00000350: 3ffa 2ebe 92fe ccbe ef97 03be b12c 273e
00000360: 5fe8 643b 2493 57be ba4f f3bd 2884 253e
00000370: 7821 14be aeb5 49bd 87ae 95bd f1d3 32be
00000380: 004c b0bd 52bc 19be 4f8c a23d 4706 9f3d
00000390: 7800 243e cbb4 89be 766e 8dbe 465b e1bd
000003a0: 4909 eabe 9fe7 173e 14b3 563e 9af4 2d3e
000003b0: 7d05 ee3d 0ae2 a43d 9dfc f4bd 6e62 2dbe
000003c0: a76b ad3e b14b a23c bee4 06bf c085 443e
000003d0: 6cbf 22be 619d 7a3e 3a2b 6cbe 32e3 dcbd
000003e0: cd4a bd3d 4d34 29be fc72 963e 3859 d23d
000003f0: 5efc 6e3e 07ed abbe aa28 d0be 0042 70be

vertex_output_lin.0.bias f4 [32]
-0.13367076 -0.2212896 0.042954408 0.0860701 -0.045689013 0.17053713 -0.10041795 0.16178778
-0.12286975 -0.17677641 -0.011469557 -0.20512761 0.022872642 -0.033527113 -0.13545917 0.06922621
-0.05983285 -0.010950947 0.00075145194 -0.009005993 0.17116773 0.0075459033 -0.15550801 0.32722136
0.034050666 -0.16435815 -0.05413574 -0.17131601 -0.02795506 0.046118032 0.221055 -0.02414968
00000000: fde0 08be be99 62be f6f0 2f3d 8545 b03d
00000010: 6724 3bbd 49a1 2e3e eda7 cdbd b2ab 253e
00000020: 23a3 fbbd e004 35be cfea 3bbc f90c 52be
00000030: 685f bb3c ba53 09bd cfb5 0abe 79c6 8d3d
00000040: 4a13 75bd 9a6b 33bc 16fd 443a df8d 13bc
00000050: 9846 2f3e a043 f73b 7e3d 1fbe 8f89 a73e
00000060: b678 0b3d 814d 28be 70bd 5dbd 776d 2fbe
00000070: 0302 e5bc 43e6 3c3d 3e5c 623e 8dd5 c5bc

vertex_output_lin.2.weight f4 [1, 32, 1, 1]
-0.010076513 -0.3770073 0.0012429449 -0.37851992 -0.09954408 -0.33687913 0.10108459 -0.34900004
0.07828483 -0.08311463 -0.40974164 -0.010661582 -0.37649414 -0.004971559 -0.38323104 0.2529161
-0.36637157 -0.0010476195 0.12856503 -0.003957904 -0.34342048 0.20788191 -0.702135 0.19933888
0.010247852 -0.1487434 -0.25887504 0.0007776974 -0.045112748 -0.23106097 0.07875605 -0.27468753
00000000: f517 25bc 1a07 c1be 4fea a23a 5dcd c1be
00000010: c4dd cbbd 6c7b acbe 7005 cf3d 22b0 b2be
00000020: cc53 a03d 0138 aabd a8c9 d1be ebad 2ebc
00000030: d7c3 c0be 76e8 a2bb dc36 c4be 387e 813e
00000040: 0e95 bbbe 4750 89ba 8da6 033e 4eb1 81bb
00000050: cfd4 afbe ffde 543e 1fbf 33bf 7e1f 4c3e
00000060: 9be6 273c 3150 18be 458b 84be 64de 4b3a
00000070: 25c8 38bd 3f9b 6cbe da4a a13d d8a3 8cbe

graph_output_lin.0.weight f4 [1, 618]
-0.11507161 0.018182365 -0.083358474 -0.19671814 0.030420884 -0.013205265 0.014033636 -0.025386728
-0.14814189 -0.07685081 0.0088081565 0.23387511 -0.28078613 0.11097216 0.2139874 -0.15262802
0.15193129 0.06594056 -0.19278103 0.006746029 -0.19580022 0.096329585 0.0020371645 -0.24192543
0.053472027 -0.06798723 -0.1628127 -0.28156334 -0.07959174 -0.6088023 -0.101315044 -0.08675501
-0.03713854 -0.3130243 0.072358035 -0.038593564 -0.15923649 0.05855076 0.28870872 -0.05727974
-0.08546914 -0.2731944 -0.07865422 0.064205475 0.057884324 -0.19194254 0.09595267 0.12690698
-0.3518597 -0.09496263 -0.010551981 -0.018738445 -0.04104275 -0.02257536 -0.28504875 -0.05636336
-0.13279836 0.09210519 0.15034048 -0.44414318 0.012544978 -0.04802548 -0.037194505 -0.03155164
-0.2128282 0.01965697 0.10521827 0.03751971 0.30366534 -0.107403144 -0.25016484 -0.5945015
-0.0077954778 0.02271991 -0.15022767 -0.09775859 -0.0069555454 -0.046150416 -0.017606467 0.2546375
-0.2119755 0.09597723 0.036537413 0.21836078 0.023863329 -0.1681433 -0.10727453 -0.17530462
-0.03419283 -0.13301826 -0.008909191 0.08349528 0.009560428 -0.036596492 -0.09332443 -0.2338059
0.053639352 -0.077871464 -0.4958986 0.06999848 -0.20495723 -0.015973685 -0.1463453 -0.3420115
-0.020264357 0.025848141 -0.11649529 -0.15777981 -0.34130856 0.1717036 0.07047856 -0.26372558
0.021469522 0.019053275 0.3354179 0.1688949 -0.06365847 0.3958133 -0.16338035 0.15022632
0.15041558 0.12150772 -0.040594786 0.1738106 -0.03920148 -0.5058426 0.028620318 -0.26311645
-0.15777396 -0.05402841 0.2578254 0.06331633 -0.22435562 0.041366138 -0.28358 -0.10895277
-0.2760199 -0.06487557 -0.09321318 -0.017122416 -0.034937408 -0.13341692 -0.18321721 0.20846431
0.40207422 0.07701569 0.12134196 0.10839992 0.059972655 -0.21202233 -0.19767736 0.03733478
-0.006186821 -0.072607726 0.04147418 -0.057803307 0.024683708 -0.13780752 -0.05901732 0.07924434
0.18415928 -0.08167385 0.20012777 -0.2578528 0.13170238 0.21170568 0.13300197 -0.04632181
0.055666197 -0.056219358 0.09173 0.0799332 0.025140787 0.19156775 0.044306662 0.101451986
0.096697785 -0.102525055 -0.22653575 -0.23845372 -0.117987506 -0.18724976 -0.05302921 0.073547244
0.13807043 0.09181746 -0.11771937 -0.13021263 0.119665086 -0.4249915 -0.08232426 0.16097902
0.036715195 -0.011908115 -0.16768353 -0.2710711 -0.2529712 0.21582991 0.001160308 0.006061896
0.18376754 -0.2663655 -0.094485655 0.12075564 -0.10863907 0.25667956 0.16161409 -0.0681289
0.0048942813 -0.040048726 0.022335466 0.35869336 -0.04126665 0.008006552 0.060454447 -0.14682266
-0.045095157 0.01959916 0.04782847 0.31306228 -0.030044848 0.04201147 -0.043171838 0.092513286
0.18059832 0.2211467 0.14490214 0.08838416 0.042364746 -0.09510214 -0.0021566632 -0.07825595
-0.04396812 -0.059885636 0.10684708 -0.14231254 -0.057499163 -0.31925985 0.15105224 -0.2740221
0.01467766 -0.19270545 0.07449478 -0.09335055 -0.032584507 -0.027182892 -0.089412816 0.15762743
-0.3448117 1.3444483e-05 -0.0035285186 -0.02987116 -0.09805735 -0.034183472 -0.09656888 0.028971417
00000000: aaaa ebbd 2ff3 943c d9b7 aabd 7b70 49be
00000010: 3835 f93c e55a 58bc 56ed 653c d4f7 cfbc
00000020: 82b2 17be f563 9dbd 1650 103c f57c 6f3e
00000030: 33c3 8fbe 5f45 e33d 831f 5b3e 854a 1cbe
00000040: e093 1b3e d80b 873d 6468 45be cb0d dd3b
00000050: da7f 48be 7248 c53d f381 053b 4dbb 77be
00000060: 7c05 5b3d e43c 8bbd 5fb8 26be 1229 90be
00000070: ff00 a3bd 78da 1bbf 437e cfbd 9cac b1bd
00000080: 951e 18bd b944 a0be 7330 943d 4914 1ebd
00000090: e40e 23be ecd2 6f3d a1d1 933e 299e 6abd
000000a0: 720a afbd 23e0 8bbe 7715 a1bd 297e 833d
000000b0: 1d18 6d3d 968c 44be d582 c43d e7f3 013e
000000c0: f426 b4be c47b c2bd 37e2 2cbc 5e81 99bc
000000d0: 711c 28bd f6ef b8bc e9f1 91be 44dd 66bd
000000e0: 4bfc 07be a5a1 bc3d dbf2 193e bc66 e3be
000000f0: 7489 4d3c 5eb6 44bd 4459 18bd 4b3c 01bd
00000100: a3ef 59be a707 a13c ad7c d73d 44ae 193d
00000110: 067a 9b3e 2ef6 dbbd 9b15 80be 4031 18bf
00000120: 3571 ffbb 1b1f ba3c 48d5 19be a835 c8bd
00000130: 58eb e3bb 3808 3dbd 703b 90bc d95f 823e
00000140: 1b10 59be b68f c43d 41a8 153d f899 5f3e
00000150: 077d c33c c22d 2cbe c0b2 dbbd 0e83 33be
00000160: c80d 0cbd f035 08be dbf7 11bc 93ff aa3d
00000170: 57a3 1c3c 34e6 15bd e120 bfbd d06a 6fbe
00000180: f0b4 5b3d 137b 9fbd 6ce6 fdbe 5d5b 8f3d
00000190: 4fe0 51be 3fdb 82bc 8bdb 15be 221c afbe
000001a0: 7001 a6bc 7bbf d33c 1595 eebd 0891 21be
000001b0: ffbf aebe 12d3 2f3e 1057 903d 0a07 87be
000001c0: dae0 af3c 9d15 9c3c e5bb ab3e c9f2 2c3e
000001d0: 5f5f 82bd 0aa8 ca3e 2e4d 27be eed4 193e
000001e0: 8b06 1a3e 0ad9 f83d b846 26bd 68fb 313e
000001f0: bb91 20bd e77e 01bf 2875 ea3c 33b7 86be
00000200: 7f8f 21be e54c 5dbd b101 843e feab 813d
00000210: 7bbd 65be 8a6f 293d 6631 91be a122 dfbd
00000220: 7b52 8dbe 7cdd 84bd 8de6 bebd 4f44 8cbc
00000230: 871a 0fbd 729e 08be 4b9d 3bbe ab77 553e
00000240: acdc cd3e 67ba 9d3d 2282 f83d c700 de3d
00000250: e3a5 753d 621c 59be ef6b 4abe 5bec 183d
00000260: d1ba cabb 5cb3 94bd d4e0 293d 29c3 6cbd
00000270: 7d35 ca3c 6a1d 0dbe 25bc 71bd db4a a23d
00000280: 4094 3c3e 9f44 a7bd 4bee 4c3e 4805 84be
00000290: fddc 063e 60c9 583e ab31 083e f0bb 3dbd
000002a0: 3d02 643d 4546 66bd f0dc bb3d 04b4 a33d
000002b0: 0df4 cd3c 562a 443e e77a 353d 0fc6 cf3d
000002c0: 7d09 c63d a8f8 d1bd fdf8 67be 362d 74be
000002d0: 6fa3 f1bd 67be 3fbe 2835 59bd f09f 963d
000002e0: 5662 0d3e cb0a bc3d da16 f1bd 7656 05be
000002f0: f812 f53d 7c98 d9be 9f99 a8bd afd7 243e
00000300: ac62 163d 411a 43bc 3bb5 2bbe d5c9 8abe
00000310: 7185 81be 8402 5d3e 7a15 983a dfa2 c63b
00000320: 8f2d 3c3e 0f61 88be b281 c1bd bc4e f73d
00000330: 297e debd 816b 833e 2a7e 253e 2a87 8bbd
00000340: 3560 a03b 220a 24bd def8 b63c a8a6 b73e
00000350: 3807 29bd ea2d 033c 159f 773d ae58 16be
00000360: b3b5 38bd 6b8e a03c c9e7 433d b349 a03e
00000370: 9d20 f6bc 3814 2c3d f4d4 30bd 9b77 bd3d
00000380: c4ee 383e 4874 623e 3a61 143e c102 b53d
00000390: a886 2d3d e9c4 c2bd ce56 0dbb a844 a0bd
000003a0: ea17 34bd a44a 75bd a4d2 da3d 61ba 11be
000003b0: 3e84 6bbd 0776 a3be 70ad 1a3e a04c 8cbe
000003c0: 917a 703c 9454 45be b890 983d 932e bfbd
000003d0: 5577 05bd a8ae debc 111e b7bd 1669 213e
000003e0: 298b b0be 9d8f 6137 b83e 67bb 5db4 f4bc
000003f0: 4bd2 c8bd f803 0cbd e8c5 c5bd 7755 ed3c

x_lin_after_first_round.0.weight f4 [32, 1, 32, 1]
0.22198714 -0.07605711 -0.23502272 -0.5414621 -0.5216398 0.06809483 0.17889568 -0.1719523
-0.30901054 -0.3245525 0.17358415 0.15707725 0.37019253 -0.21337019 -0.55486214 -0.09281098
0.11333568 -0.17046794 -0.28006482 0.043313112 -0.11116742 0.28425565 -0.29945344 0.0782645
-0.055345185 0.17555602 -0.15338722 -0.16942436 -0.3712299 -0.08950106 -0.23761912 0.010288663
0.035144433 -0.13517673 0.24622929 0.12278559 -0.20981094 0.21026044 0.21594027 0.12354838
0.20155573 0.07328045 -0.12353003 0.11014908 -0.21270603 -0.14950167 -0.10473883 0.14446679
-0.17924055 0.059012424 0.3674694 -0.14318372 0.011255345 -0.10745838 0.08244168 0.17479356
0.002917215 -0.14902125 0.10539534 -0.09792415 0.30340526 0.38094527 0.21483245 -0.010963844
-0.22432637 0.24415438 -0.17586422 -0.3593744 -0.26023355 -0.2919931 0.066388905 -0.16098997
-0.07127051 -0.27457687 0.22768337 -0.048161935 0.36934736 0.023914197 -0.1254641 -0.00575054
0.036335748 0.06985071 0.044469714 0.03883727 -0.114636295 -0.03765479 -0.04831771 -0.18093017
0.16194408 0.2861384 0.3667284 0.18540277 -0.004857937 -0.08362569 -0.32962972 -0.18342267
0.012881569 0.27773273 -0.055415083 -0.25833246 -0.29805732 -0.31963217 -0.067843564 -0.074391425
-0.08169533 -0.31812498 0.12353509 -0.0014957493 0.20181096 0.16893342 -0.10328973 -0.09932538
0.16881663 -0.008929798 -0.26603827 0.13161243 -0.011822666 -0.38779277 -0.022183664 -0.22149423
0.038537502 0.3431916 0.16573855 0.07566041 -0.039077725 -0.29771283 -0.45939505 -0.24881734
0.16769832 0.12425467 0.08410791 -0.4575839 0.23840831 0.042881135 -0.096229464 0.2783898
0.08437234 0.027396811 0.0030506132 -0.14537832 -0.028884536 0.40666276 -0.56465554 -0.19092917
-0.08794324 0.08759542 -0.23898979 -0.21527193 -0.37605563 -0.24443863 0.118723124 0.1823323
0.06787275 -0.6057222 0.03989318 0.27904817 0.11502402 -0.06646731 0.09060504 0.28658518
0.056101166 -0.18545277 -0.05393587 0.1104245 0.055129204 0.22986966 -0.19330457 0.34995037
0.2541886 -0.06863338 -0.23295924 -0.029230058 -0.049297687 0.12352471 -0.3883431 -0.27260232
-0.112445734 -0.15345573 -0.10338425 -0.3363203 -0.13753329 -0.124651514 -0.13127625 0.059189294
-0.061176587 0.025370158 -0.092383526 -0.092251904 -0.09147161 0.16851017 0.17223626 0.13774788
-0.43033427 0.40222776 0.11708 -0.3745579 -0.1725719 -0.2512944 -0.0145588415 0.06349976
-0.34758055 -0.22873816 0.016224876 -0.11249488 0.034765698 0.06182283 -0.05209208 0.18667512
-0.037032686 -0.047102027 -0.3095693 0.13743655 -0.2030147 -0.4837748 -0.3749137 -0.012266991
-0.103120096 -0.06905433 0.11950856 0.19447936 0.24584484 -0.14813481 -0.44480723 -0.47109917
0.25465718 0.180714 0.11402099 -0.487659 0.15955423 0.14379153 -0.20555682 0.30052376
-0.06741193 0.15719576 -0.018443365 -0.35787597 -0.09168854 0.29798803 -0.19888449 -0.4106928
-0.11292123 -0.17333834 0.040244862 0.052947287 -0.1877573 -0.3233835 0.112450816 0.0007809599
-0.15019594 -0.47770396 -0.041029733 0.1422554 -0.064212225 0.18373625 0.26292837 0.17562854
00000000: 9950 633e d5c3 9bbd cca9 70be 439d 0abf
00000010: 308a 05bf 4d75 8b3d 6e30 373e 4414 30be
00000020: a136 9ebe bf2b a6be 0bc0 313e dcd8 203e
00000030: e089 bd3e b77d 5abe 720b 0ebf af13 bebd
00000040: 891c e83d 268f 2ebe a864 8fbe 1769 313d
00000050: bfab e3bd f589 913e f651 99be 2349 a03d
00000060: a2b1 62bd f5c4 333e 8a11 1dbe 947d 2dbe
00000070: d811 bebe 554c b7bd 6d52 73be c891 283c
00000080: 9cf3 0f3d c56b 0abe 8823 7c3e 0377 fb3d
00000090: aed8 56be 834e 573e 721f 5d3e ef06 fd3d
000000a0: a064 4e3e 1014 963d 50fd fcbd d795 e13d
000000b0: 9ccf 59be f716 19be 5081 d6bd 1aef 133e
000000c0: d68a 37be 03b7 713d f324 bc3e c19e 12be
000000d0: 5768 383c 2413 dcbd 2fd7 a83d 15fd 323e
000000e0: bf2e 3f3b 0799 18be 83d9 d73d 758c c8bd
000000f0: ef57 9b3e 420b c33e 0afd 5b3e b2a1 33bc
00000100: d0b5 65be 9b03 7a3e c015 34be ecff b7be
00000110: 553d 85be 1f80 95be e8f6 873d 8eda 24be
00000120: 46f6 91bd 5795 8cbe d425 693e 7345 45bd
00000130: 191b bd3e b5e7 c33c a979 00be 076f bcbb
00000140: cbd4 143d e40d 8f3d e025 363d d413 1f3d
00000150: 6fc6 eabd e93b 1abd cbe8 45bd c245 39be
00000160: abd4 253e bb80 923e d3c3 bb3e 39da 3d3e
00000170: 542f 9fbb f243 abbd 3ac5 a8be 27d3 3bbe
00000180: 370d 533c fc32 8e3e edfa 62bd 2744 84be
00000190: f89a 98be d4a6 a3be 91f1 8abd 885a 98bd
000001a0: e24f a7bd 47e1 a2be f7ff fc3d 050d c4ba
000001b0: 88a7 4e3e e2fc 2c3e 9189 d3bd 1b6b cbbd
000001c0: 44de 2c3e 4a4e 12bc 2b36 88be 69c5 063e
000001d0: dbb3 41bc c68c c6be 84ba b5bc 62cf 62be
000001e0: 80d9 1d3d cfb6 af3e 5eb7 293e d8f3 9a3d
000001f0: f70f 20bd d16d 98be d435 ebbe f9c9 7ebe
00000200: 1cb9 2b3e 3c79 fe3d c540 ac3d 7048 eabe
00000210: 4f21 743e 21a4 2f3d f413 c5bd 1c89 8e3e
00000220: 68cb ac3d 476f e03c ccec 473b 0ede 14be
00000230: 439f ecbc 1a36 d03e 448d 10bf f082 43be
00000240: 961b b4bd 3a65 b33d bdb9 74be 3f70 5cbe
00000250: 5d8a c0be 1f4e 7abe 1c25 f33d 52b5 3a3e
00000260: de00 8b3d 9c10 1bbf 0867 233d 67df 8e3e
00000270: b791 eb3d 0320 88bd 238f b93d 4bbb 923e
00000280: 56ca 653d 55e7 3dbe dceb 5cbd 3e26 e23d
00000290: 29cf 613d f462 6b3e a2f1 45be b22c b33e
000002a0: 0225 823e a88f 8cbd de8c 6ebe e073 efbc
000002b0: 5fec 49bd 86fa fc3d e8d4 c6be 8892 8bbe
000002c0: f349 e6bd 8023 1dbe 1fbb d3bd 2d32 acbe
000002d0: 87d5 0cbe 4b49 ffbd 486d 06be 7970 723d
000002e0: 4d94 7abd 14d5 cf3c 9333 bdbd 91ee bcbd
000002f0: 7855 bbbd ee8d 2c3e b45e 303e c80d 0d3e
00000300: c654 dcbe ccf0 cd3e a4c7 ef3d 0ec6 bfbe
00000310: b0b6 30be a9a9 80be 3588 6ebc 2a0c 823d
00000320: 14f6 b1be 563a 6abe 08ea 843c b763 e6bd
00000330: 7a66 0e3d f039 7d3d 815e 55bd c327 3f3e
00000340: 96af 17bd 0eee 40bd de7f 9ebe 2bbc 0c3e
00000350: 16e3 4fbe 55b1 f7be b0f4 bfbe 7dfb 48bc
00000360: a130 d3bd 5b6c 8dbd e7c0 f43d 9925 473e
00000370: c0be 7b3e a7b0 17be c6bd e3be e933 f1be
00000380: 6d62 823e 170d 393e d683 e93d 71ae f9be
00000390: 2f62 233e 163e 133e 7d7d 52be 40de 993e
000003a0: 440f 8abd edf7 203e 8a16 97bc 853b b7be
000003b0: 34c7 bbbd e391 983e 60a8 4bbe 5446 d2be
000003c0: 3f43 e7bd 9b7f 31be ccd7 243d 41df 583d
000003d0: 7343 40be 8692 a5be 9d4c e63d 55b9 4c3a
000003e0: f7cc 19be 9d95 f4be cb0e 28bd 66ab 113e
000003f0: b381 83bd 5b25 3c3e 8c9e 863e f8d7 333e

x_lin_after_first_round.0.bias f4 [32]
-0.21484858 0.027444538 0.11653458 0.1265169 -0.094840825 -0.3597191 0.127332 -0.07848831
0.05552578 -0.07139178 -0.05053664 -0.017970724 0.24008885 0.07094303 -0.12984638 -0.1747727
-0.05772563 -0.20673326 0.25011572 0.23853287 -0.08711853 0.10733505 -0.00983682 0.058624156
-0.2194267 -0.37089527 -0.040543254 -0.065066494 0.22969909 -0.05950762 -0.16122633 -0.059365015
00000000: 4401 5cbe 5ed3 e03c afa9 ee3d a58d 013e
00000010: e83b c2bd 1a2d b8be 5263 023e 7bbe a0bd
00000020: 006f 633d db35 92bd 82ff 4ebd 5737 93bc
00000030: dad9 753e 944a 913d 73f6 04be 9df7 32be
00000040: b671 6cbd e2b1 53be 2b0f 803e f641 743e
00000050: 336b b2bd 7bd2 db3d 9d2a 21bc e21f 703d
00000060: 65b1 60be fce5 bdbe af10 26bd 9541 85bd
00000070: 3d36 6b3e 43be 73bd 8418 25be bb28 73bd
