reachability_classification/weights/SimpleMultiplePassGNNReachabilityNet_epoch_53.pt (torch_old, 36685 bytes, 16 tensors)

x_lin.0.weight f4 [32, 1, 1, 11]
0	0xbd039ddb	-0.032132965
1	0xbe0696d8	-0.1314348
2	0xbdfb0067	-0.12255936
3	0xbfb130ed	-1.3843056
4	0xbe866477	-0.26248524
5	0xbd1d1d27	-0.03835788
6	0xbcd4b9e5	-0.025967548
7	0x3dc7b638	0.09751552
8	0xbb89a699	-0.004200768
9	0x3dec19bf	0.11528348
10	0xbea0bded	-0.31394902
11	0x3da6635d	0.08124421
12	0xbd67edb2	-0.05662317
13	0xbd774c81	-0.060375694
14	0x3e0dabba	0.1383504
15	0xbe1b8776	-0.15188393
16	0xbeeeb09f	-0.46619126
17	0xbdd7c86a	-0.10536273
18	0xbe37827e	-0.17920873
19	0x3e53e2da	0.20692006
20	0xbeacc980	-0.33747482
21	0x3dc2c12a	0.09509499
22	0xbeb54ecd	-0.35411683
23	0x3d852bf2	0.065025225
24	0x3dc406f2	0.09571637
25	0xbe8591f6	-0.26087922
26	0x3e8a6d48	0.270365
27	0x3daf567c	0.085614175
28	0x3dc10299	0.094243236
29	0xbeb7b4f5	-0.35880247
30	0x3df5b5d7	0.11997574
31	0x3f346551	0.70467097
32	0xbd478821	-0.048713807
33	0x3db59bb2	0.08867587
34	0xbe386d60	-0.18010473
35	0xbeaeb0f2	-0.34119374
36	0x3ee8219f	0.4533815
37	0xbdb7f2a0	-0.08981824
38	0xbd89104f	-0.06692564
39	0xbf1ffdf1	-0.6249686
40	0xbd83818a	-0.06421192
41	0xbdc01be9	-0.093803234
42	0xbf18ad81	-0.59639746
43	0xbe8e590d	-0.27802315
44	0xbc220917	-0.0098898625
45	0x3e12523d	0.14289184
46	0x3d41f6b4	0.047354415
47	0xbd45e205	-0.048311252
48	0xbecaef4b	-0.3963569
49	0x3d9b04aa	0.07569249
50	0xbe4058c9	-0.18783869
51	0x3eb7ff9b	0.359372
52	0x3ec811e5	0.39076152
53	0xbc4b15fa	-0.012395376
54	0xbe630178	-0.22168529
55	0x3d9481e7	0.072513394
56	0xbe1baa6a	-0.15201727
57	0xbd951ac5	-0.072804965
58	0x3f0a42f5	0.5400842
59	0x3dca2090	0.09869492
60	0x3e1ab9d2	0.15109947
61	0x3f06d61e	0.52670467
62	0x3c720857	0.014772496
63	0xbe1966a0	-0.14980555
64	0xbf0bedd2	-0.5465976
65	0xbe4ce412	-0.20008877
66	0xbea3dbe6	-0.32003707
67	0x3dc1832f	0.094488494
68	0xbd9ddf45	-0.07708601
69	0x3ec6f867	0.3886139
70	0xbe808f95	-0.25109544
71	0x3e20caf5	0.15702422
72	0x3cd0d4d8	0.025492117
73	0x3e6960e1	0.22790863
74	0xbf8810cc	-1.0630126
75	0x3e89f1a6	0.26942176
76	0xbbc17066	-0.0059032915
77	0xbf000d5c	-0.50020385
78	0xbe5b2ed8	-0.21404588
79	0xbea12576	-0.31473893
80	0xbe3bb521	-0.18330814
81	0xbe9957b7	-0.29949734
82	0x3b2db728	0.0026506875
83	0x3ea6f0e0	0.32605648
84	0x3ea5c6cd	0.32378235
85	0x3e5353c9	0.2063743
86	0x3da23cda	0.07921763
87	0x3e5b004d	0.21386833
88	0x3ec8dd9b	0.39231572
89	0xbe9b73bb	-0.30361733
90	0xbe9a0355	-0.30080667
91	0xbe8cc9cb	-0.27497706
92	0x3ea8ec5f	0.32992837
93	0xbe8a8518	-0.27054667
94	0xbddb7636	-0.10715906
95	0x3dcec658	0.10096425
96	0x3e8ad71c	0.2711724
97	0x3e18023a	0.148446
98	0x3e4ae65f	0.19814442
99	0x3f007fd6	0.5019506
100	0xbcea69fe	-0.028614994
101	0x3eb4e311	0.35329488
102	0x3e0d18cb	0.13778989
103	0xbd700d48	-0.058606416
104	0x3e718834	0.23587114
105	0x3d4e603e	0.050384752
106	0x3f272dd7	0.6530432
107	0xbd202958	-0.03910193
108	0x3c344829	0.011003532
109	0xbe1fdc9c	-0.156115
110	0xbdfac728	-0.12245017
111	0x3dc19fdf	0.09454321
112	0x3e4325de	0.19057414
113	0x3eba6c35	0.3641068
114	0xbe27c077	-0.16382013
115	0x3e4fdb5e	0.20298526
116	0xbd98d44d	-0.07462368
117	0xbde6b678	-0.11265272
118	0xbdb6d194	-0.089266926
119	0x3e113e7e	0.14183995
120	0xbeb83ec3	-0.35985383
121	0xbe4d69d9	-0.20059909
122	0x3e3089c8	0.1724006
123	0xbce2158e	-0.027598169
124	0x3d055fe4	0.03256215
125	0xbed03811	-0.40667775
126	0x3df08de6	0.11745815
127	0xbeae449f	-0.3403673
128	0x3eb10c79	0.34579828
129	0x3e183dd2	0.14867333
130	0xbddb65cd	-0.10712776
131	0x3e4e7045	0.20160015
132	0xbf062bf0	-0.52410793
133	0xbdbde139	-0.092714734
134	0xbe1bdc5f	-0.15220784
135	0xbe30afef	-0.17254613
136	0xbeae9d3f	-0.34104344
137	0xbd98ae6f	-0.074551456
138	0x3e917e1d	0.2841653
139	0x3edb7d8f	0.4286923
140	0xbd106f0b	-0.03526215
141	0xbdc1941e	-0.09452079
142	0x3efb523d	0.4908618
143	0x3e04885b	0.1294264
144	0x3c3f28a2	0.011667402
145	0xbe97dcca	-0.29660636
146	0x3d505e3e	0.050871126
147	0xbe9be22c	-0.30445993
148	0x3c0faff1	0.008769975
149	0xbeeaf49c	-0.45889747
150	0x396de960	0.0002268902
151	0xbe03ffbd	-0.12890525
152	0x3f3fe3ea	0.74957144
153	0xbf3c1a42	-0.73477566
154	0xbeb0cbe4	-0.34530556
155	0xbe719019	-0.23590125
156	0xbe723ebd	-0.23656745
157	0x3da9140d	0.082557775
158	0x3e9a079c	0.3008393
159	0xbe855749	-0.26043156
160	0x3eaee3ae	0.3415808
161	0xbed00982	-0.40632254
162	0xbddcc983	-0.10780623
163	0x3ea14858	0.31500506
164	0xbef585a2	-0.47953516
165	0x3d9b0f82	0.07571317
166	0xbc73044e	-0.014832569
167	0x3e836949	0.25666264
168	0xbbf3f3c1	-0.007444829
169	0xbebd638b	-0.36990008
170	0xbe2d11b7	-0.16901289
171	0x3e8782b2	0.264669
172	0x3d8f97be	0.070113644
173	0xbdb646fd	-0.08900259
174	0x3f55daf7	0.8353724
175	0xbf506c7a	-0.8141552
176	0x3f1e7f51	0.6191302
177	0x3e260281	0.16211893
178	0x3e1200e2	0.1425815
179	0xbee3c70a	-0.44487792
180	0x3ecfc19c	0.405774
181	0xbde5accc	-0.11214599
182	0x3e88a6a3	0.26689634
183	0xbe037738	-0.12838447
184	0x3bd08cbb	0.0063644326
185	0xbf06c9ea	-0.52651846
186	0x3f30b49a	0.69025576
187	0xbe0ace3a	-0.13555232
188	0x3d98dcbb	0.07463976
189	0x3de66555	0.11249796
190	0xbeedb0be	-0.46423906
191	0xbe2c5c54	-0.16832095
192	0xbe39caa2	-0.18143705
193	0x3e4fa588	0.20277989
194	0xbe9c66b0	-0.30547094
195	0xbd4af23e	-0.049547426
196	0xbe48161d	-0.19539686
197	0xbdd5269d	-0.104077555
198	0x3e4196c6	0.18905172
199	0xbec0a74e	-0.37627643
200	0x3d6031c4	0.05473496
201	0xbeef0514	-0.46683562
202	0xbc317028	-0.010829963
203	0x3bfbf17e	0.0076887
204	0xba1bcc0c	-0.0005943186
205	0x3ce91707	0.028453363
206	0xbe1638f6	-0.14670166
207	0xbf694c8e	-0.9113244
208	0x3f530547	0.8242993
209	0x3e852149	0.26001957
210	0xbd2f04b4	-0.042729095
211	0xbd80fc24	-0.06298092
212	0x3f055bca	0.52093184
213	0x3e28b495	0.16475137
214	0xbe9713fe	-0.2950744
215	0xbd5bff12	-0.05371005
216	0xbe1509ca	-0.14554515
217	0xbefe7825	-0.49701038
218	0xbf195b40	-0.5990486
219	0x3ef09c30	0.46994162
220	0x3d32057c	0.04346226
221	0xbe938f87	-0.2882044
222	0xbd35e13e	-0.04440426
223	0x3edb110a	0.42786437
224	0x3f6579e8	0.8963914
225	0xbe40a458	-0.18812692
226	0x3e8b2c3b	0.27182183
227	0x3e23e47b	0.16005127
228	0x3dc283d7	0.09497803
229	0x3f1be40c	0.60894847
230	0xbed67480	-0.41885757
231	0x3daee0e4	0.08538988
232	0x3e427603	0.1899033
233	0xbe081326	-0.13288555
234	0x3a9709bc	0.0011523287
235	0x3e3b1138	0.18268287
236	0xbeddf537	-0.43351147
237	0xbe8e2d22	-0.2776881
238	0xbe4c8099	-0.19970931
239	0x3e729789	0.23690619
240	0xbf2e915a	-0.6819054
241	0x3f15ea8e	0.5856103
242	0x3e47aaa1	0.19498684
243	0xbd0b96e4	-0.034079447
244	0x3ea09695	0.31364885
245	0xbd0da0c4	-0.034577146
246	0xbe9e1463	-0.3087493
247	0x3d48516c	0.048905775
248	0xbdd04f3a	-0.10171361
249	0x3e1f81d6	0.15576872
250	0xbd957361	-0.072973974
251	0x3f0b67a5	0.54455024
252	0xbf2eed69	-0.6833101
253	0x3d588714	0.052863196
254	0xbdac6680	-0.08417988
255	0x3d1f2150	0.03885013

x_lin.0.bias f4 [32]
0	0xbed15dbf	-0.40891835
1	0xbee7948c	-0.4523052
2	0xbe0f1f0b	-0.13976686
3	0x3db02469	0.08600695
4	0xbe0eeb10	-0.13956857
5	0xbe99d3bc	-0.30044353
6	0x3e3f9901	0.1871071
7	0xbd44e971	-0.04807419
8	0x3ee51b68	0.44747472
9	0x3d950720	0.072767496
10	0xbecd1b4c	-0.40059888
11	0x3e836aab	0.2566732
12	0x3f075777	0.52867836
13	0xbe8fa271	-0.2805362
14	0xbd85fa6d	-0.065419056
15	0xbe0fdb92	-0.14048603
16	0x3ef11a6f	0.4709048
17	0xbe44df39	-0.19225778
18	0x3eee7e89	0.46580914
19	0xbdd45975	-0.10368625
20	0xbe3c2360	-0.1837287
21	0x3e8896e2	0.26677614
22	0xbd6d416e	-0.057923727
23	0x3d6ca60f	0.057775553
24	0xbe55ccf3	-0.20878963
25	0x3d2aef23	0.041731965
26	0xbed27d5d	-0.4111127
27	0x3e594f80	0.21221733
28	0x3e85a368	0.26101232
29	0xbde914a2	-0.113808885
30	0x3e28548d	0.16438504
31	0x3f0d6338	0.5522952

x_lin.2.weight f4 [32, 32, 1, 1]
0	0x3e4538bd	0.19259925
1	0x3e004a13	0.12528257
2	0x3ca028df	0.019550739
3	0x3cc9002e	0.024536218
4	0xbdadebb3	-0.08492222
5	0xbe04fa9b	-0.12986223
6	0xbe11e48c	-0.1424734
7	0xbe99d926	-0.30048484
8	0xbc65716f	-0.014004095
9	0x3f1e0953	0.6173298
10	0x3e197824	0.14987236
11	0xbe2bb698	-0.16768873
12	0xbe798305	-0.24366386
13	0x3ea1735f	0.31533334
14	0x3db1a000	0.08673096
15	0x3eb3e28a	0.35133773
16	0x3c34da26	0.011038339
17	0xbc7dd4ef	-0.015492662
18	0xbe512db4	-0.2042759
19	0xbeaa05b0	-0.33207464
20	0x3e53f06a	0.2069718
21	0x3dbdd520	0.09269166
22	0x3e0f0a5b	0.13968794
23	0xbf3902c8	-0.7226987
24	0xbaf4b2ef	-0.0018669049
25	0x3da6395b	0.081164084
26	0x3db37b5f	0.087637655
27	0x3e1bd806	0.15219125
28	0x3e08cc01	0.13359071
29	0x3d36f73b	0.04466937
30	0xbebf5786	-0.37371463
31	0xbf05c6fb	-0.52256745
32	0x3ed6cd51	0.4195352
33	0xbdc0f55f	-0.09421801
34	0x3eabaf72	0.33532292
35	0x3db766a4	0.08955124
36	0x3d91343e	0.070900425
37	0xbee7c70c	-0.45269048
38	0xbe8f8c36	-0.2803666
39	0x3d387de9	0.045041952
40	0xbe446ce0	-0.19182158
41	0xbcb34da9	-0.021887617
42	0x3aba696f	0.0014222095
43	0x3e27b29b	0.16376726
44	0xbe1e2cd2	-0.15446785
45	0x3ef6c77f	0.48199078
46	0x3e1de484	0.15419203
47	0x3e96e7e7	0.29473802
48	0xbef59116	-0.47962254
49	0x3deaca68	0.11464387
50	0xbf20d76e	-0.6282872
51	0xbe5708ca	-0.20999447
52	0xbe823f7d	-0.25439063
53	0x3b9c2a01	0.0047657494
54	0x3e0a078b	0.1347944
55	0x3b5e8317	0.0033952647
56	0xbec19e7f	-0.37816235
57	0x3da39eac	0.07989249
58	0x3ea5e80b	0.32403597
59	0xbdbd578b	-0.09245213
60	0x3e5a82c7	0.2133895
61	0x3e370645	0.17873485
62	0xbdacaf05	-0.0843182
63	0x3edb18a0	0.42792225
64	0x3de08673	0.10963144
65	0xbe01da93	-0.12681036
66	0xbda6bf70	-0.081419826
67	0xbe4ae00e	-0.19812033
68	0x3e5b905b	0.21441786
69	0x3e470fdb	0.19439642
70	0x3d5c9fc5	0.053863306
71	0x3e82629c	0.25465858
72	0xbe1e0c7f	-0.15434454
73	0x3d979221	0.07400919
74	0xbdb8fbbc	-0.090323895
75	0x3e335ac5	0.17515095
76	0xbee7286c	-0.45148027
77	0xbe11b711	-0.1422999
78	0x3e765ab5	0.2405804
79	0x3eb64c1b	0.3560494
80	0xbeb0f9e5	-0.34565654
81	0x3de879ea	0.11351378
82	0x3d8c7cdd	0.06859753
83	0x3d6ed2d8	0.058306545
84	0x3eee6ba5	0.465665
85	0xbd74f215	-0.05980118
86	0x3e5ce23f	0.21570681
87	0xbdbdbfbd	-0.09265087
88	0x3d0e0f70	0.03468269
89	0xbe98ccd3	-0.29843768
90	0x3e81d95e	0.2536115
91	0x3eb75a11	0.35810903
92	0xbee84b4d	-0.4536995
93	0x3e916912	0.28400475
94	0xbe6d57a5	-0.23177965
95	0xbeeab439	-0.45840624
96	0x3d55e01d	0.052215684
97	0x3dd1874c	0.10230884
98	0xbd358459	-0.04431567
99	0x3e5ccac0	0.21561718
100	0xbec322a7	-0.38112375
101	0xbe725333	-0.2366455
102	0xbeca0638	-0.3945787
103	0xbed4fa65	-0.41597286
104	0x3d215008	0.039382964
105	0xbeb07795	-0.34466234
106	0xbec3cc22	-0.38241678
107	0xbf3fadf9	-0.74874836
108	0x3e9f5305	0.31118026
109	0xbee7fbd1	-0.45309308
110	0x3dfe6367	0.12421303
111	0x3eb8810c	0.36035955
112	0x3e84e289	0.25954083
113	0xbf2620d2	-0.6489383
114	0xbed1a1a4	-0.40943635
115	0x3e9bf075	0.30456892
116	0x3eccc5c0	0.3999462
117	0x3ddc03c3	0.10742905
118	0x3e633a6b	0.22190253
119	0xbd7f4c63	-0.062328707
120	0x3eb0d8ef	0.34540507
121	0xbc9d3a5d	-0.019192869
122	0xbf1f8cc9	-0.62324196
123	0xbeb0d5d1	-0.3453813
124	0x3debf63e	0.11521576
125	0x3da069bf	0.078326695
126	0xbea2428b	-0.31691393
127	0x3f6234db	0.883619
128	0x3dd8c2d0	0.105840325
129	0xbda6aaf1	-0.08138073
130	0xbd143003	-0.0361786
131	0x3d759fa4	0.0599667
132	0x3cc4febc	0.024047248
133	0x3d02abb4	0.03190203
134	0x3e42e1de	0.19031474
135	0xbe91d3e0	-0.2848196
136	0x3da33ccd	0.07970581
137	0xbd7abba0	-0.06121409
138	0x3e249fe3	0.16076617
139	0x3d2f5075	0.04280134
140	0xbe3eb1ef	-0.18622564
141	0x3c9dc634	0.01925955
142	0x3c2c130f	0.010502591
143	0x3eb0ff4c	0.34569776
144	0xbe43df0d	-0.19128056
145	0x3d9e67e5	0.0773466
146	0xbee87d08	-0.4540789
147	0xbe42ab64	-0.19010693
148	0xbe00ac7d	-0.12565799
149	0xbdcb4f5f	-0.09927248
150	0x3ea92a8c	0.33040273
151	0x3eae2b51	0.34017423
152	0x3d0bb0d6	0.03410419
153	0x3e2ee437	0.17079245
154	0x3e09fb2b	0.13474719
155	0x3d5b7094	0.05357416
156	0xbf705f64	-0.93895555
157	0x3e5123d0	0.20423818
158	0xbe79f9b7	-0.24411665
159	0x3e5795f2	0.21053293
160	0x3cf1a8aa	0.02949937
161	0xbd6a1e93	-0.057158064
162	0x3ea184fc	0.31546772
163	0xbce18251	-0.02752796
164	0xbe21a562	-0.15785745
165	0xbe100023	-0.14062552
166	0x3d3f5afd	0.046717633
167	0x3e5d60f6	0.21619019
168	0x3dc6c615	0.0970575
169	0x3d267132	0.040635295
170	0xbdcf5943	-0.10124447
171	0x3df4fae1	0.11961914
172	0x3ee6fd8d	0.4511532
173	0xbeafe841	-0.34356883
174	0x3e4e7df2	0.20165232
175	0x3bb622ac	0.0055583324
176	0x3ea4ba10	0.32173204
177	0x3e84cc16	0.25936955
178	0x3e256bbf	0.16154383
179	0xbe87b70a	-0.26506835
180	0xbf2948f7	-0.6612696
181	0xbd8914c3	-0.06693413
182	0xbea55c4e	-0.32296985
183	0x3e916880	0.2840004
184	0x3ea88cbb	0.3291987
185	0xbe4fb9a6	-0.20285663
186	0x3e6a61df	0.22888897
187	0x3d3418d7	0.043969
188	0xbe55fdfc	-0.20897669
189	0x3deece56	0.11660449
190	0x3d786fab	0.06065337
191	0x3e5244ff	0.20534132
192	0x3d99c47e	0.07508181
193	0x3c4697cc	0.012121152
194	0xbe26fe75	-0.16308005
195	0xbea05ae9	-0.3131936
196	0xbcf62d99	-0.03005104
197	0x3e362807	0.17788707
198	0xbeb6287b	-0.3557776
199	0x3e076cea	0.13225141
200	0xbf209e86	-0.6274189
201	0xbefa9ccc	-0.48947752
202	0x3e671c8c	0.22569484
203	0x3bf37632	0.0074298615
204	0xbe87ba4d	-0.26509324
205	0x3df54886	0.119767234
206	0xbefd9c4d	-0.4953331
207	0x3e9754b2	0.29556805
208	0xbe3c1eed	-0.18371172
209	0x3e92d806	0.28680438
210	0xbe61d05c	-0.22052139
211	0xbed8ab8e	-0.42318386
212	0xbea1ffb3	-0.31640396
213	0xbe7bbc63	-0.24583583
214	0x3e8eed50	0.2791543
215	0xbdf9789d	-0.12181208
216	0xbdcc6b00	-0.09981346
217	0xbdbe8b71	-0.0930394
218	0x3e8378d5	0.25678125
219	0x3d590ea2	0.05299247
220	0xbd691072	-0.05690045
221	0x3e61f92e	0.22067711
222	0xbe15f09f	-0.14642571
223	0x3ea14357	0.3149669
224	0xbed861ef	-0.42262217
225	0xbf125e45	-0.57175094
226	0xbe6ad1aa	-0.22931543
227	0xbf2abbf1	-0.66693026
228	0xbd2adeee	-0.04171651
229	0x3e1c0f0c	0.15240115
230	0xbe824441	-0.254427
231	0xbe59394f	-0.21213268
232	0x3cff8bb6	0.031194549
233	0x3e5a72be	0.21332833
234	0xbcb78006	-0.022399914
235	0x3cb74348	0.02237095
236	0x3bb4cc58	0.0055175237
237	0xbd403715	-0.04692753
238	0xbda69ef0	-0.08135784
239	0x3c5272b8	0.012844734
240	0x3f225137	0.63405174
241	0xbe8401bf	-0.25782582
242	0xbee6f389	-0.45107678
243	0xbeaa2769	-0.33233193
244	0xbd5c3830	-0.053764522
245	0x3dae967c	0.08524796
246	0x3dc69af6	0.09697525
247	0xbd14b25f	-0.03630292
248	0xbe7270d5	-0.23675855
249	0xbe4e7638	-0.20162284
250	0xbe53e446	-0.20692548
251	0xbf3f54a6	-0.7473854
252	0x3db4ab53	0.0882174
253	0x3e2805af	0.16408418
254	0xbf36280a	-0.71154845
255	0xbe9fe8e7	-0.31232378

x_lin.2.bias f4 [32]
0	0xbe6c8736	-0.23098454
1	0xbe544162	-0.20728067
2	0xbe5cd438	-0.2156533
3	0xbe59a88a	-0.21255699
4	0xbe435146	-0.19073972
5	0x3dcc2224	0.09967449
6	0xbdcdc7d7	-0.10047882
7	0x3e44342b	0.19160526
8	0xbe5974e8	-0.21236002
9	0xbc50c703	-0.012742761
10	0x3e4011d3	0.187568
11	0x3d1e6315	0.03866871
12	0x3df2e8ea	0.11860831
13	0x3cbe0f36	0.023200613
14	0xbe13004a	-0.14355579
15	0x3e11f8be	0.14255044
16	0xbe2314ad	-0.15925856
17	0x3c062188	0.008186705
18	0x3e06ff7e	0.131834
19	0xbe6b441c	-0.229752
20	0xbdaa2d16	-0.08309381
21	0x3e0df52e	0.1386306
22	0xbe6a2b14	-0.22867996
23	0xbd6834c6	-0.056690954
24	0x3e2406ee	0.16018268
25	0x3df44f43	0.119291805
26	0xbca62f25	-0.020286152
27	0xbdce38f4	-0.10069457
28	0x3e276167	0.1634575
29	0x3e2bb23b	0.16767208
30	0xbdb5e1f1	-0.088809855
31	0xbd3d6a03	-0.04624368

edge_lin.0.weight f4 [32, 1, 64, 1]
0	0xbf44b4c1	-0.7683831
1	0xbed80594	-0.42191756
2	0xbd9db1f7	-0.0769996
3	0xbeebdf3a	-0.46068746
4	0xbe76900e	-0.2407839
5	0xbeb9fb5c	-0.36324584
6	0xbe8247b7	-0.2544534
7	0x3cf3e362	0.02977151
8	0xbe245cde	-0.16051051
9	0x3e8c22ca	0.27370292
10	0xbf489e3d	-0.7836645
11	0x3dbeadd0	0.09310496
12	0xbeb37513	-0.35050258
13	0xbeed4406	-0.4634096
14	0x3c05c23b	0.008163984
15	0xbf1271fc	-0.57205176
16	0xbefcc902	-0.49372107
17	0xbeb6f6ec	-0.3573526
18	0x3dd7c252	0.105351105
19	0xbeb4d9bc	-0.35322368
20	0xbe3f42c4	-0.18677813
21	0xbf82d162	-1.0220149
22	0xbf0423b5	-0.51616985
23	0xbd38c413	-0.045108866
24	0xbd7a4dba	-0.061109282
25	0x3e45917d	0.1929378
26	0x3e22b1ad	0.1588809
27	0xbe201823	-0.15634207
28	0x3e96f5f8	0.29484534
29	0x3c8468a8	0.016163185
30	0x3dc96678	0.098339975
31	0x3e16a927	0.14712964
32	0xbc98f7ec	-0.018672906
33	0x3e45e795	0.19326623
34	0x3d6a2617	0.05716523
35	0xbe134ff8	-0.14385974
36	0x3d95c4d3	0.07312932
37	0xbf22677c	-0.63439155
38	0x3e18d382	0.14924434
39	0xbdcb7d74	-0.09936038
40	0x3e2afd7a	0.16698256
41	0xbecdceb5	-0.40196767
42	0xbf1ac986	-0.6046375
43	0xbed1268e	-0.40849727
44	0xbe9c5247	-0.30531523
45	0xbe06547a	-0.13118163
46	0xbdc8f6a0	-0.09812665
47	0x3d9dca9c	0.0770466
48	0xbe72b490	-0.23701692
49	0xbf445ea4	-0.7670691
50	0xbe04b120	-0.12958193
51	0xbe2ed3dd	-0.17073007
52	0xbe92c053	-0.28662357
53	0xbf025f4e	-0.50926673
54	0x3e1c816f	0.1528375
55	0xbbe97104	-0.007124068
56	0x3d8c3094	0.06845203
57	0x3d97754f	0.07395422
58	0x3dadf7a4	0.08494499
59	0xbea05197	-0.31312248
60	0x3e5dd9fa	0.21665183
61	0xbea994c0	-0.331213
62	0x3e2c9b74	0.16856176
63	0xbcd78948	-0.026310578
64	0xbe9a3036	-0.30114907
65	0xbd2485a5	-0.040166516
66	0xbdd4e978	-0.10396093
67	0xbea54b7f	-0.3228416
68	0x3e80e28d	0.25172845
69	0xbdfedeb6	-0.124448225
70	0xbccdb743	-0.0251118
71	0xbeb7323f	-0.35780522
72	0x3e93be70	0.2885623
73	0x3e4b00e3	0.19824557
74	0xbf0db19e	-0.5534915
75	0x3dd6aeda	0.10482569
76	0xbddfd3b0	-0.10929048
77	0xbdddb892	-0.108262196
78	0x3e306ded	0.17229433
79	0x3e4cea67	0.20011292
80	0x3e438d91	0.19096972
81	0xbe9ed911	-0.31024984
82	0x3e6d4cc3	0.23173814
83	0x3ecd2c00	0.40072632
84	0xbdbf3880	-0.093369484
85	0xbdfb39a6	-0.12266855
86	0xbe4ec79d	-0.20193334
87	0xbe32c44b	-0.17457692
88	0xbe656de9	-0.22405209
89	0x3e85a8fe	0.26105493
90	0x3dc352d2	0.09537281
91	0x3eacbd9f	0.3373842
92	0xbcecaa45	-0.028889785
93	0x3dd895fd	0.10575483
94	0x3e199eef	0.15002035
95	0x3e5e613b	0.21716778
96	0x3dcb15d2	0.09916271
97	0xbca8366a	-0.02053376
98	0x3d328aaa	0.04358927
99	0xbe7740cf	-0.24145816
100	0x3d3213ea	0.043476023
101	0xbe82573c	-0.2545718
102	0x3c9545d5	0.018221775
103	0xbe46a4d7	-0.19398819
104	0x3ee7999f	0.4523439
105	0xbd2f5706	-0.0428076
106	0xbed166cc	-0.4089874
107	0x3e7f9fe2	0.24963334
108	0x3d242144	0.040070787
109	0xbe9185be	-0.2842235
110	0x3e2898b5	0.16464503
111	0x3e31614d	0.17322274
112	0xbe21a89b	-0.15786974
113	0xbebc1b69	-0.36739662
114	0x3b92e3f0	0.0044827387
115	0x3ecebbb9	0.40377596
116	0xbd98109c	-0.07425043
117	0xbe5a18dc	-0.21298546
118	0xbcecf0f8	-0.028923497
119	0xbe90aa8a	-0.2825511
120	0xbe67dde4	-0.22643238
121	0x3daecff8	0.08535761
122	0x3df439ea	0.11925109
123	0x3e133834	0.14376909
124	0xbe3617f0	-0.17782569
125	0xbc8ad650	-0.016947895
126	0x3dbeb022	0.093109384
127	0x3e70f162	0.2352958
128	0xbe2f16f1	-0.17098595
129	0xbbac577a	-0.0052594515
130	0xbf343440	-0.7039223
131	0xbe01872d	-0.12649222
132	0xbd6447f2	-0.055732675
133	0xbf3066c2	-0.68906796
134	0xbe6afb69	-0.22947468
135	0x3ebadd7c	0.36497104
136	0xbeda3839	-0.4262102
137	0xbee1f197	-0.4412963
138	0x3d9c5eec	0.076352924
139	0x3e20a1a2	0.15686658
140	0x3c9d8e1f	0.019232808
141	0x3e621b71	0.2208078
142	0xbd744ae9	-0.059641752
143	0x3e1e8098	0.15478742
144	0x3db982fd	0.09058187
145	0xbe905e37	-0.2819688
146	0xbd6c7d56	-0.057736717
147	0xbd7b1e3b	-0.061308127
148	0xbf1c4887	-0.6104817
149	0xbd3d56c4	-0.046225324
150	0x3e5aa46c	0.21351784
151	0xbf048475	-0.51764613
152	0xbd8da478	-0.069161355
153	0xbf362346	-0.71147573
154	0xbce2295e	-0.027607616
155	0x3d596a4a	0.05307988
156	0x3d74673e	0.059668772
157	0x3d42db00	0.047572136
158	0xbd85ac8a	-0.0652705
159	0x3d254676	0.0403504
160	0x3c9150b5	0.01773868
161	0x3da3a98d	0.079913236
162	0xbf6539bf	-0.8954124
163	0xbe83ea2c	-0.25764596
164	0xbdf84db3	-0.12124195
165	0xbf2a1a75	-0.6644662
166	0x3db63a02	0.08897783
167	0x3eddb447	0.43301603
168	0xbeabac8d	-0.33530083
169	0xbecc9c91	-0.399632
170	0x3da50313	0.08057227
171	0x3dce8fe6	0.1008604
172	0xbee946bd	-0.45561782
173	0x3e211345	0.15730007
174	0xbe05a9c3	-0.1305304
175	0x3dd882f8	0.10571855
176	0x3df15c71	0.1178521
177	0xbe8801c4	-0.26563847
178	0xbc355fdf	-0.011070221
179	0x3e1afd35	0.15135653
180	0xbef23d26	-0.47312278
181	0xbe636284	-0.2220555
182	0xbd487f50	-0.04894954
183	0x3ca8c801	0.020603182
184	0x3e2bc5c9	0.16774668
185	0xbf33ad7f	-0.7018661
186	0xbdc2e96b	-0.09517177
187	0x3e444bbb	0.19169514
188	0xbdb86c42	-0.090050235
189	0xbb10acbf	-0.002207562
190	0x3e1d0168	0.15332568
191	0x3e6f74a0	0.23384333
192	0x3ec3e8d5	0.38263574
193	0x3ee0f315	0.43935457
194	0xbf1a9c11	-0.6039439
195	0xbee450bb	-0.44592842
196	0xbd160f7d	-0.036635865
197	0xbe19288c	-0.14956874
198	0xbdcfc634	-0.10145226
199	0xbee872e2	-0.4540015
200	0xbdb910da	-0.09036417
201	0x3e8e7127	0.27820703
202	0x3da6f72a	0.081526116
203	0x3e61ea13	0.22061948
204	0xbce620cf	-0.028091816
205	0x3e1b4560	0.15163183
206	0x3ebf5857	0.37372085
207	0xbcfca70d	-0.030841375
208	0xbe5d0cb4	-0.21586877
209	0x3a2a23e7	0.0006490335
210	0xbe6cfcd1	-0.23143317
211	0xbee116aa	-0.43962604
212	0x3dd50546	0.104013965
213	0x3deaf149	0.11471803
214	0x3d24bd09	0.04021934
215	0xbec08380	-0.37600327
216	0x3de84171	0.11340607
217	0xbebe4e67	-0.3716919
218	0xbe9a8031	-0.30175927
219	0x3dbf3fdf	0.09338354
220	0xbdd433ae	-0.103614196
221	0x3e1ec475	0.1550463
222	0x3db4aa14	0.08821502
223	0x3e25034e	0.16114542
224	0x3cc40ff9	0.023933398
225	0x3e4f6023	0.20251517
226	0xbf1967a9	-0.599238
227	0xbea46f9e	-0.32116407
228	0xbe09e272	-0.13465288
229	0xbe837c82	-0.2568093
230	0xbe2bfe44	-0.16796213
231	0xbf075a4c	-0.5287216
232	0x3d268895	0.0406576
233	0x3dfeda91	0.12444032
234	0xbbfb69fc	-0.0076725464
235	0xbe49d73b	-0.1971101
236	0x3cbae95f	0.022816358
237	0x3e8c27f1	0.27374223
238	0x3e8d4b09	0.2759631
239	0x3eac6d69	0.33677223
240	0xbe023199	-0.12714233
241	0xbe12bfd2	-0.14330986
242	0xbed2db00	-0.4118271
243	0xbe88f300	-0.26747894
244	0x3dd40f74	0.1035451
245	0x3ce1ee56	0.027579468
246	0x3e691173	0.22760563
247	0xbd316794	-0.04331167
248	0x3df09943	0.11747982
249	0xbe3707b6	-0.17874035
250	0xbe36402c	-0.17797917
251	0x3c925695	0.017863551
252	0x3af75c75	0.0018872159
253	0xbe0e2d90	-0.13884568
254	0x3dafd2e0	0.08585143
255	0x3e89938a	0.26870376

edge_lin.0.bias f4 [32]
0	0x3ddcfaac	0.10789999
1	0xbd8d887c	-0.06910798
2	0xbc98e2c3	-0.018662816
3	0x3d9286e4	0.071546346
4	0xbe14bf96	-0.14526209
5	0xbdf37014	-0.118866116
6	0x3dcb4a55	0.09926287
7	0xbd1e6253	-0.038667988
8	0x3e52b518	0.20576894
9	0xbdcf21d3	-0.10113873
10	0xbda8e434	-0.08246651
11	0x3d3b6e38	0.04575941
12	0x3e05b230	0.13056254
13	0xbe05926e	-0.1304414
14	0xbe94529a	-0.2896927
15	0x3e04ba74	0.12961751
16	0x3d9d19b0	0.07670915
17	0xbde42779	-0.11140341
18	0xbe80f52f	-0.2518706
19	0xbe4ebd0e	-0.20189306
20	0xbe534822	-0.20632985
21	0xbd26f6cc	-0.040762708
22	0xbddd6a40	-0.10811281
23	0x3d0b763d	0.034048308
24	0x3d9f70ae	0.07785164
25	0x3e346446	0.17616376
26	0x3dcc1b2e	0.099661216
27	0xbc2db843	-0.010603013
28	0x3e273f29	0.16332687
29	0xbdf7cece	-0.12099992
30	0xbd18f087	-0.03733876
31	0xbdb32105	-0.08746532

edge_lin.2.weight f4 [32, 32, 1, 1]
0	0x3eb8f445	0.36123863
1	0x3de1d14e	0.1102625
2	0x3ecdbc40	0.40182686
3	0x3de90a66	0.113789365
4	0x3edbc12f	0.42920825
5	0x3d332f2e	0.043746166
6	0xbe034553	-0.12819414
7	0xbea1c38d	-0.31594506
8	0x3df2912a	0.11844094
9	0x3d18be7f	0.037291046
10	0x3e8872a4	0.26649964
11	0x3d92fb5a	0.07176848
12	0x3d5cadb0	0.05387658
13	0xbeb3b85e	-0.35101599
14	0xbd47687c	-0.04868363
15	0xbe305bf1	-0.17222573
16	0x3ecc54ca	0.3990844
17	0x3d797570	0.060903013
18	0x3e809830	0.2511611
19	0xbeb4d3c8	-0.35317826
20	0x3e9957be	0.29949754
21	0xbe503080	-0.20331001
22	0x3d8a121f	0.067417376
23	0x3e6caa9f	0.23111962
24	0xbe7abbcb	-0.244857
25	0xbef0c5d2	-0.47025925
26	0x3eab532e	0.334619
27	0xbac31db7	-0.0014886175
28	0xbf1b2adf	-0.6061229
29	0x3e5a2ecd	0.21306916
30	0xbd28d352	-0.041217156
31	0xbcf70e98	-0.030158326
32	0xbeaa56f2	-0.3326946
33	0xbe7480e8	-0.23877299
34	0x3d6956b4	0.056967452
35	0xbe535678	-0.20638454
36	0x3e6a67bf	0.22891138
37	0xbdbdf2a3	-0.09274795
38	0x3e22470e	0.15847418
39	0x3dfcb812	0.12339796
40	0x3e325ac8	0.17417443
41	0x3d836c5c	0.06417152
42	0x3d10aa0f	0.03531843
43	0x3e7c7f35	0.246579
44	0x3dd79f82	0.105284706
45	0x3d4ee457	0.05051073
46	0xbdbad300	-0.09122276
47	0x3dbb8f48	0.09158188
48	0x3b367e75	0.002784637
49	0xbdf39896	-0.11894338
50	0x3e2e2138	0.1700486
51	0xbde51660	-0.11185908
52	0xbf2e98c6	-0.68201864
53	0x3eaff8d2	0.34369522
54	0xbe582259	-0.21106853
55	0x3e43127d	0.19050021
56	0x3ef4e486	0.478306
57	0xbf0fc11b	-0.5615403
58	0x3e1fab73	0.15592746
59	0xba565588	-0.00081761973
60	0x3ea5d7af	0.32391116
61	0xbf116855	-0.56799823
62	0x3debe6db	0.115186416
63	0xbdd9b7b6	-0.10630743
64	0x3ce41f3b	0.027846923
65	0xbbb6da50	-0.005580224
66	0x3e909e3f	0.28245732
67	0x3e8620a6	0.26196784
68	0xbda8a6c0	-0.0823493
69	0xbe843afd	-0.25826254
70	0x3df5aeee	0.11996256
71	0x3e97a63d	0.29619017
72	0xbf330e5e	-0.699438
73	0xbe9337c0	-0.2875347
74	0x3e4f469a	0.20241776
75	0x3c260db2	0.010135101
76	0xbd43dfc2	-0.047820814
77	0xbdb8d468	-0.09024888
78	0xbe645e89	-0.22301687
79	0x3ec9f49d	0.39444438
80	0x3df322f7	0.118719034
81	0x3e970dda	0.29502755
82	0xbdf4a7ee	-0.119460925
83	0xbdd5b778	-0.104353845
84	0xbdffb0a8	-0.124848664
85	0x3daa1ff3	0.08306875
86	0x3c4bb9e7	0.012434459
87	0x3c288521	0.010285647
88	0xbe3cca10	-0.18436456
89	0xbe58b174	-0.21161443
90	0xbdb86722	-0.09004046
91	0x3c1222be	0.008919416
92	0xbe84524e	-0.25844043
93	0x3e033d20	0.12816286
94	0x3d654d73	0.055982064
95	0x3e1a4ba6	0.1506792
96	0xbe6ef702	-0.23336414
97	0xbe73d594	-0.23811942
98	0xbe9c2773	-0.30498847
99	0x3f0c6362	0.54839146
100	0xbe2800b7	-0.16406523
101	0x3eb76e11	0.35826162
102	0xbe779dd4	-0.241813
103	0x3d58c1a6	0.052919053
104	0xbd3e9e35	-0.046537597
105	0x3e5cafae	0.21551391
106	0xbf3a33ca	-0.72735274
107	0x3e08a4da	0.13344136
108	0xbe21bf05	-0.15795524
109	0x3eea56d6	0.45769376
110	0x3d9a98f0	0.07548702
111	0xbf02d472	-0.51105416
112	0xbf1059dd	-0.5638712
113	0x3ece36df	0.40276238
114	0x3e2c5f55	0.16833241
115	0xbe15dd43	-0.14635186
116	0x3dc56180	0.09637737
117	0x3e0a2e5e	0.1349425
118	0xbe8cf689	-0.2753184
119	0xbe7818b3	-0.24228172
120	0xbcd685bb	-0.026186815
121	0xbd893f3e	-0.067015156
122	0xbe09e298	-0.13465345
123	0xbd536e3e	-0.051618807
124	0xbf0dfc13	-0.5546276
125	0x3e89dab3	0.26924667
126	0xbd8202e7	-0.0634821
127	0xbdab50aa	-0.08364995
128	0x3f192fbb	0.59838456
129	0xbd42134e	-0.04738169
130	0x3db1b99f	0.086779825
131	0x3ecd6ebf	0.40123555
132	0x3e9c47e6	0.30523604
133	0x3de97ffe	0.11401366
134	0xbe9176d4	-0.2841097
135	0xbeeb129b	-0.45912632
136	0xbe6a7275	-0.22895224
137	0xbec63614	-0.38713133
138	0x3e233ee0	0.15941954
139	0xbd838d05	-0.06423382
140	0xbdb6d964	-0.08928183
141	0xbe0d61c1	-0.13806821
142	0x3df50871	0.11964501
143	0x3eedafba	0.4642313
144	0xbda15124	-0.078768045
145	0x3e11ea6c	0.14249581
146	0x3d6212e5	0.0551938
147	0xbe3e06de	-0.18557307
148	0x3e3b1a75	0.18271811
149	0x3d76dc91	0.060268942
150	0x3e060418	0.13087499
151	0x3eb5b39e	0.354886
152	0x3e039737	0.12850653
153	0xbefd8206	-0.49513263
154	0x3eeeaabf	0.46614644
155	0xbdc638d0	-0.09678805
156	0xbf1d251c	-0.6138475
157	0xbdaefa9f	-0.08543896
158	0x3dad527e	0.08463
159	0xbea55e9d	-0.32298747
160	0x3e051189	0.1299497
161	0x3eac3466	0.33633727
162	0xbb2f1005	-0.002671243
163	0xbdd310fa	-0.103059724
164	0x3ea74e24	0.32676804
165	0x3d97eee2	0.0741861
166	0xbe680b7b	-0.2266063
167	0xbe8c11a8	-0.2735722
168	0x3e3cb772	0.18429354
169	0xbcc0a9d3	-0.023518478
170	0xbd903894	-0.070420414
171	0x3d2cfc8e	0.042233042
172	0x3d478c4a	0.048717774
173	0xbea8667e	-0.32890695
174	0x3b8456f9	0.0040386883
175	0x3e83e43c	0.25760067
176	0x38be1be8	9.065104e-05
177	0xbd96f27a	-0.073704675
178	0x3bf5ba88	0.007499043
179	0xbcdaa86e	-0.026691642
180	0x3e53074e	0.20608255
181	0xbe345402	-0.17610171
182	0x3dc22bf1	0.094810374
183	0x3e903c8a	0.28171188
184	0x3d6da0cd	0.05801468
185	0xbe6e9602	-0.23299411
186	0x3e02b2cb	0.12763517
187	0x3c1a4e9e	0.009418158
188	0xbd221832	-0.039573856
189	0x3e93e231	0.28883508
190	0xbe9bcf7d	-0.30431738
191	0x3e0efb0d	0.13962956
192	0xbe45f4c3	-0.1933165
193	0xbe352209	-0.17688765
194	0x3e383baf	0.17991517
195	0xbe23b920	-0.15988588
196	0xbe86bd30	-0.26316214
197	0xbd8d27e1	-0.06892372
198	0xbdd5538e	-0.104163274
199	0xbe559585	-0.20857818
200	0x3e610783	0.21975522
201	0xbf2f52be	-0.6848563
202	0xbe64d2c4	-0.22346026
203	0x3d13678d	0.035987426
204	0xbdd61492	-0.10453142
205	0xbeb40ae4	-0.3516456
206	0x3e21a8de	0.15787074
207	0xbed9b0ca	-0.42517692
208	0xbe5fff6b	-0.21874778
209	0xbda5810c	-0.08081254
210	0x3e8d9b46	0.27657527
211	0xbd9217aa	-0.0713342
212	0xbefccbfe	-0.49374384
213	0x3ea65ccc	0.32492673
214	0xbf04f0c7	-0.519299
215	0x3c38eeaf	0.011287375
216	0xbe45229e	-0.19251487
217	0xbddb3fd0	-0.10705531
218	0x3e2f401c	0.171143
219	0xbd0432ad	-0.03227489
220	0x3e086cee	0.13322803
221	0xbd70baf7	-0.058772054
222	0xbdfeb37b	-0.12436577
223	0xbdaed034	-0.08535805
224	0xbcc53d0d	-0.024076963
225	0x3d41f70d	0.047354747
226	0x3e974495	0.2954451
227	0xbd3c41e0	-0.04596126
228	0xbde40b20	-0.111349344
229	0xbf02af65	-0.5104888
230	0xbe1cd508	-0.1531564
231	0x3e8a64b8	0.27029967
232	0xbe858c5b	-0.26083645
233	0xbece2a27	-0.40266535
234	0x3ed47283	0.41493616
235	0xbe41aa5a	-0.1891264
236	0x3c80bca4	0.01571495
237	0xbe79aaf0	-0.24381614
238	0xbeaf8cd3	-0.34287128
239	0x3e805b28	0.25069547
240	0x3e9585a6	0.29203528
241	0x3ea434fc	0.32071674
242	0x3ec96fa6	0.39342993
243	0xbdf59ffc	-0.11993405
244	0xbd1c62f4	-0.038180307
245	0xbd09acf1	-0.033612195
246	0xbe138b4f	-0.14408611
247	0x3edbecbc	0.42954051
248	0xbe8d7295	-0.27626482
249	0xbe30dc1d	-0.17271467
250	0x3e8a3e29	0.2700055
251	0x3db720f4	0.08941832
252	0xbe819f9c	-0.25317085
253	0x3e32dd9b	0.17467348
254	0x3d7ce026	0.061737202
255	0x3ecacaeb	0.3960794

edge_lin.2.bias f4 [32]
0	0xbde914a2	-0.113808885
1	0xbe9f28df	-0.3108587
2	0x3ddc8669	0.10767824
3	0xbe2d0e7b	-0.16900055
4	0xbd33c5a1	-0.043889645
5	0xbe4fb64a	-0.20284382
6	0xbf0b23a7	-0.54351276
7	0x3e241868	0.16024935
8	0xbdf99d32	-0.12188186
9	0x3e31ebbb	0.1737508
10	0x3d347853	0.044060063
11	0xbe2b1d6d	-0.16710444
12	0xbf035759	-0.51305157
13	0x3e1236c1	0.142787
14	0xbc838d36	-0.016058546
15	0xbddbd0fd	-0.10733221
16	0x3cfe2f7d	0.031028504
17	0xbdb3aefd	-0.08773611
18	0xbdb10ce4	-0.08645037
19	0x3ddde3e1	0.1083448
20	0xbe8e0a2e	-0.2774214
21	0xbe382062	-0.17981103
22	0x3d60f53c	0.054921374
23	0x3daec7df	0.08534216
24	0xbdba4b7b	-0.09096428
25	0xbeb6cc45	-0.3570272
26	0x3df1d4c6	0.118081614
27	0x3e038619	0.12844123
28	0x3dfcc1ee	0.12341677
29	0xbc9c0ac8	-0.01904811
30	0xbd7bf0cd	-0.061508942
31	0xbda529c6	-0.08064608

vertex_output_lin.0.weight f4 [32, 1, 32, 1]
0	0x3e23095a	0.15921536
1	0xbd75d214	-0.0600148
2	0x3d69abec	0.057048723
3	0xbd43bad8	-0.04778561
4	0x3db56d53	0.088587426
5	0xbd2bff47	-0.0419915
6	0xbe74ef83	-0.23919491
7	0xbd7d6d28	-0.061871678
8	0xbe02c703	-0.1277123
9	0xbde6d931	-0.11271895
10	0xbe115b51	-0.1419499
11	0xbcc1c314	-0.02365259
12	0xbe82256b	-0.25419173
13	0xbe05e786	-0.130766
14	0xbdbfb1e8	-0.09360105
15	0x3e1205a3	0.14259963
16	0xbd6c6134	-0.057709888
17	0xbe23dc8e	-0.16002104
18	0x3e3ca87f	0.18423651
19	0x3dad9f07	0.08477598
20	0xbe8b6c12	-0.2723089
21	0xbd2a183b	-0.041527014
22	0xbe1faff7	-0.15594469
23	0xbdf0e9b9	-0.11763329
24	0x3d1a59a5	0.037683148
25	0xbe11cff0	-0.14239478
26	0x3d910ebc	0.070828885
27	0xbdb81e98	-0.0899021
28	0x3e1def0c	0.1542322
29	0x3de755c2	0.11295654
30	0x3d6b9ad9	0.05752072
31	0xbe259527	-0.16170178
32	0x3e9b25c3	0.30302247
33	0xbe72b6f8	-0.2370261
34	0xbdfb93ed	-0.12284074
35	0xbe1e846b	-0.15480201
36	0x3e6986ec	0.22805375
37	0x3ea877c4	0.32903874
38	0x3e584ff8	0.21124256
39	0x3d4333f8	0.047656983
40	0x3daa6a9c	0.083211154
41	0xbd89e318	-0.06732768
42	0xbe48b28e	-0.19599363
43	0x3b6e1d4d	0.0036333383
44	0x3da64d7f	0.0812025
45	0x3c3a9693	0.011388439
46	0xbdea6596	-0.11445157
47	0xbd57d663	-0.05269469
48	0x3e4dfc54	0.20115787
49	0x3eca1822	0.39471537
50	0xbef69a63	-0.48164663
51	0x3db4a405	0.08820347
52	0x3b64dcae	0.0034921574
53	0x3d8aad96	0.0677139
54	0xbda82083	-0.08209326
55	0xbef176bd	-0.47160903
56	0x3eaa1948	0.33222413
57	0xbbc41e15	-0.0059850314
58	0xbe58c227	-0.21167813
59	0xbd857798	-0.06516951
60	0xbe1df6cf	-0.15426181
61	0xbed18ae5	-0.4092628
62	0xbe987a46	-0.29780787
63	0xbde87ee5	-0.11352328
64	0xbd7894fa	-0.06068895
65	0x3e1bcb61	0.15214302
66	0xbd5a72e6	-0.053332232
67	0x3d68f076	0.056869946
68	0x3bba2b6e	0.0056814468
69	0xbbac01a0	-0.005249217
70	0xbe225a65	-0.15854795
71	0xbe1c3de8	-0.1525799
72	0xbdf89c55	-0.12139193
73	0xbdcc2306	-0.09967618
74	0xbe552483	-0.2081471
75	0xbd327a1c	-0.043573484
76	0xbd410294	-0.0471216
77	0xbe0878e8	-0.13327372
78	0xbafd8b0a	-0.0019343805
79	0xbd30c642	-0.043157823
80	0xbd2b636d	-0.041842867
81	0x3cdbec82	0.026846174
82	0xbdbbfcc3	-0.0917907
83	0xbc9d354c	-0.019190453
84	0x3cc95334	0.024575807
85	0x3badf6da	0.005308968
86	0xbe0346ab	-0.12819926
87	0x3d66c8ec	0.056343958
88	0xbd305721	-0.043051843
89	0x3e08f9aa	0.1337649
90	0x3d808991	0.06276239
91	0x3d4702c2	0.048586614
92	0x3ce395a7	0.02778132
93	0x3d0f21c8	0.034944326
94	0xbd160142	-0.036622293
95	0x3d141b4c	0.036158845
96	0xbe173038	-0.14764488
97	0x3e5a284c	0.21304435
98	0x3c9118f3	0.017712092
99	0x3e371ee3	0.17882876
100	0xbe6a1847	-0.22860824
101	0x3d8fc978	0.07020849
102	0xbdfe49aa	-0.12416394
103	0x3dea5ad2	0.11443104
104	0xbc164324	-0.009171281
105	0x3d82c807	0.063858084
106	0x3e41fbce	0.18943712
107	0xbe42e64b	-0.19033162
108	0x3dbe89f1	0.09303654
109	0x3ccaf799	0.024776267
110	0x3da66394	0.08124462
111	0xbeb00f03	-0.34386453
112	0x3ea4deaa	0.3220113
113	0x3e6fac32	0.23405531
114	0xbf2654f5	-0.64973384
115	0x3eaef9b5	0.34174886
116	0x3ccfc95c	0.02536457
117	0x3e7a3f83	0.2443829
118	0x3e0d0eb9	0.13775147
119	0x3dab3d0d	0.08361254
120	0x3e760057	0.24023567
121	0x3def5476	0.116860315
122	0x3e509bb1	0.20371892
123	0xbc6c1fbf	-0.014411866
124	0x3d62504b	0.055252355
125	0xbf06b1ab	-0.5261485
126	0xbe96714d	-0.29383317
127	0xbf2cb567	-0.674643
128	0xbe5c9103	-0.21539693
129	0x3eab91a7	0.3350956
130	0xbe114b63	-0.14188914
131	0x3e5153c1	0.20442106
132	0xbd9dfe79	-0.077145524
133	0xbdd8be99	-0.105832286
134	0x3f15c0d6	0.5849737
135	0xbc9f5d4b	-0.019453665
136	0xbd397416	-0.045276724
137	0xbe2107dd	-0.15725656
138	0x3d884912	0.06654562
139	0x3dd8835f	0.10571932
140	0x3eec0dad	0.46104184
141	0xbe5a3de8	-0.21312678
142	0xbc8ca270	-0.0171673
143	0xbd6bd1a7	-0.057572987
144	0xbd7cb960	-0.061700225
145	0x3e7a9f30	0.24474788
146	0xbe37baf6	-0.17942414
147	0xbe10afbf	-0.14129542
148	0x3ec327bd	0.38116255
149	0x3d9e3d14	0.077264935
150	0xbd468f65	-0.048476595
151	0xbd7831b7	-0.060594287
152	0xbe147ec3	-0.14501481
153	0x3ea8c0c8	0.3295958
154	0x3c97f3eb	0.018548926
155	0xbe707567	-0.23482285
156	0x3dd52284	0.10406974
157	0x3ca1f1c8	0.01976861
158	0xbc2a1e03	-0.010383132
159	0xbde8c940	-0.113665104
160	0xbcca3e09	-0.024687784
161	0x3e5ab5f3	0.2135847
162	0xbe909bfe	-0.28244013
163	0xbe0c35ee	-0.13692448
164	0xbe77d2a2	-0.24201444
165	0xbd14d469	-0.036335383
166	0x3e77243a	0.24134913
167	0xbe9d38ec	-0.3070749
168	0xbe93852d	-0.28812543
169	0xbe37e8f5	-0.1795996
170	0xbd3855a3	-0.045003545
171	0xbdf68db8	-0.120387495
172	0x3f3bea36	0.7340425
173	0x3e6698fd	0.22519298
174	0xbe87b178	-0.26502585
175	0xbe82eaaf	-0.25569674
176	0x3e381b78	0.17979228
177	0x3e999261	0.2999449
178	0xbee97e46	-0.4560415
179	0x3eafc70d	0.3433155
180	0x3e44fccb	0.19237058
181	0xbd872fc1	-0.06600905
182	0xbea9e64d	-0.33183518
183	0xbe80c65a	-0.2515133
184	0x3ead1bd3	0.3381029
185	0xbd704808	-0.058662444
186	0xbe49d9c5	-0.19711979
187	0xbef202bd	-0.47267714
188	0xbeb7b7cc	-0.35882413
189	0x3b8764ec	0.004131904
190	0xbe154ab0	-0.14579272
191	0xbe6aa471	-0.22914292
192	0x3e687191	0.22699572
193	0xbe85473c	-0.2603091
194	0xbc900ec6	-0.01758517
195	0xbe1ff2a9	-0.15619911
196	0xbd86a93c	-0.06575248
197	0xbe38e266	-0.18055114
198	0xbf0c48b1	-0.5479842
199	0xbe13723b	-0.14399044
200	0xbd7a20b8	-0.06106636
201	0xbe43338b	-0.19062631
202	0xbdcdd19f	-0.10049748
203	0x3ca236f1	0.019801589
204	0xbef3212e	-0.47486252
205	0x3e440125	0.19141062
206	0x3d428d69	0.04749814
207	0xbeaca4e5	-0.33719555
208	0x3e1f936f	0.15583585
209	0xbf0b8735	-0.54503185
210	0x3dd84b26	0.105612084
211	0xbdf207cc	-0.118178934
212	0xbe295b88	-0.16538823
213	0xbed6c0e2	-0.41944033
214	0xbdf8bdc3	-0.12145569
215	0x3e19cfd5	0.15020688
216	0xbd508436	-0.050907336
217	0xbe3f267a	-0.18667021
218	0xbe1597ec	-0.14608735
219	0x3e0a6d59	0.13518275
220	0xbe22bf06	-0.15893182
221	0xbcbfaa37	-0.023396594
222	0xbdd7cfd9	-0.10537691
223	0xbe504fa0	-0.20342875
224	0xbd754518	-0.059880346
225	0xbdeb08ea	-0.114763096
226	0x3d87a820	0.06623864
227	0x3d590c4d	0.052990247
228	0x3e0eda32	0.13950422
229	0xbe75309f	-0.23944329
230	0xbecaaf73	-0.39586982
231	0xbe157ad8	-0.14597642
232	0xbef4740a	-0.4774478
233	0x3e22866b	0.15871589
234	0x3e7c4f50	0.2463963
235	0x3e880cf4	0.26572382
236	0x3dcec8ae	0.1009687
237	0x3d301bea	0.04299537
238	0xbe08a1c4	-0.13342959
239	0xbe114b49	-0.14188875
240	0x3ec0f020	0.376832
241	0xbd07dde9	-0.033170614
242	0xbf2a2182	-0.6645738
243	0x3e55f30c	0.20893496
244	0xbdfc8e2c	-0.12331805
245	0x3ea9be4b	0.33152995
246	0xbe7d2187	-0.24719821
247	0xbe2a5cff	-0.16637038
248	0x3ddb6bfa	0.10713954
249	0xbe2272c9	-0.158641
250	0x3ea7dd55	0.3278605
251	0x3e042ac0	0.12906933
252	0x3e76d5fd	0.24105068
253	0xbec0f18e	-0.37684292
254	0xbee326b9	-0.4436548
255	0xbe8d2962	-0.27570635

vertex_output_lin.0.bias f4 [32]
0	0xbe18be34	-0.14916307
1	0xbe6740b6	-0.22583279
2	0x3c100e72	0.0087925065
3	0x3dedf77b	0.11619469
4	0xbcf725ca	-0.030169386
5	0x3e3ce503	0.18446736
6	0xbe14eb2b	-0.14542834
7	0x3e49bf62	0.19701913
8	0xbe138f47	-0.14410125
9	0xbe51fef5	-0.20507415
10	0x3d1ba628	0.038000256
11	0xbe8ed86d	-0.27899495
12	0x3d88f05b	0.06686469
13	0x3cb568b4	0.022144653
14	0xbe48b5ef	-0.19600652
15	0x3dc5b535	0.09653703
16	0xbd76c0ec	-0.06024258
17	0xbd7f2b45	-0.062297124
18	0x3c25f2be	0.010128675
19	0xbcb87a2a	-0.02251919
20	0x3e537a55	0.20652135
21	0x3b46a249	0.0030309132
22	0xbe11fdfa	-0.1425704
23	0x3ebc0385	0.36721435
24	0xbce49318	-0.027902171
25	0xbe10ff0a	-0.1415979
26	0xbcc0cdf3	-0.023535704
27	0xbe30bc27	-0.17259274
28	0xbdc354e7	-0.09537678
29	0x3da2a731	0.079420455
30	0x3e1ea914	0.15494186
31	0xbc97c79a	-0.018527795

vertex_output_lin.2.weight f4 [1, 32, 1, 1]
0	0x3b9cf07c	0.00478941
1	0xbea67642	-0.325121
2	0xbb9860d4	-0.0046502147
3	0xbebdb62c	-0.3705305
4	0xbe010891	-0.12600924
5	0xbec2ffa9	-0.38085678
6	0x3d9b3b18	0.075796306
7	0xbece81fd	-0.40333548
8	0x3de04fe4	0.10952738
9	0xbe03c6c7	-0.12868796
10	0xbf049737	-0.51793236
11	0xbc9631f4	-0.018334366
12	0xbebd6f57	-0.36999008
13	0x3b46fca8	0.0030362997
14	0xbee8ae8f	-0.45445678
15	0x3e8686c8	0.26274705
16	0xbeeaca5e	-0.4585752
17	0x3b4b9157	0.003106197
18	0x3e104809	0.14089979
19	0xbc477e49	-0.012176105
20	0xbeacc6f9	-0.33745554
21	0x3e483ee3	0.1955524
22	0xbf510e17	-0.81662124
23	0x3e48e260	0.19617605
24	0xbc09b53b	-0.008405025
25	0xbd2b0333	-0.041751098
26	0xbe9a5f85	-0.30151
27	0x3b0e0f9a	0.002167678
28	0xbd0d4c0d	-0.034496356
29	0xbe8cddce	-0.27512974
30	0x3d6e6d8b	0.058209937
31	0xbe90d0ca	-0.28284293

graph_output_lin.0.weight f4 [1, 618]
0	0xbd8e2e01	-0.06942368
1	0x3d337b3d	0.0438187
2	0xbd6f921b	-0.058488946
3	0xbe43ab4c	-0.19108313
4	0x3d777921	0.060418252
5	0xbc6d2795	-0.014474769
6	0x3bc4e75e	0.0060090264
7	0x3c79265e	0.015206901
8	0xbe110fea	-0.14166227
9	0xbdda83e4	-0.106696874
10	0xbb2d87ef	-0.0026478728
11	0x3e70a05c	0.23498672
12	0xbe92fcd6	-0.28708524
13	0x3e0803f6	0.13282761
14	0x3e6387fe	0.22219846
15	0xbe280e9c	-0.16411823
16	0x3e5fa8fa	0.21841803
17	0x3dc2a21a	0.09503575
18	0xbe726386	-0.23670778
19	0x3d47ed3d	0.048810232
20	0xbe58f380	-0.21186638
21	0x3df8e1db	0.121524535
22	0x3c701b05	0.014654879
23	0xbe820cf0	-0.25400496
24	0x3d6c592b	0.057702225
25	0xbdadf6c5	-0.08494333
26	0xbe23387f	-0.1593952
27	0xbeb6f24b	-0.3573173
28	0xbdcf3c2a	-0.10118897
29	0xbf27b021	-0.65503126
30	0xbe4026f3	-0.18764858
31	0xbe0bc0c9	-0.1364776
32	0xbd8691b9	-0.06570763
33	0xbea60d9d	-0.3243226
34	0x3d47a999	0.048745725
35	0xbd498a88	-0.04920438
36	0xbe2a2e40	-0.16619205
37	0x3d58b96d	0.05291121
38	0x3e81d4c3	0.25357637
39	0xbd5dca11	-0.054147784
40	0xbdc20e4f	-0.094753854
41	0xbe60545e	-0.21907184
42	0xbddd95b7	-0.108195715
43	0x3d97bab3	0.07408657
44	0x3df0f8f4	0.11766234
45	0xbda48dc3	-0.080348514
46	0x3dd25376	0.10269825
47	0x3e3c5814	0.18392974
48	0xbec29691	-0.38005498
49	0xbe1ce847	-0.15322982
50	0xbc41ff84	-0.011840705
51	0x3d0fea55	0.035135586
52	0xbc3a0c75	-0.011355509
53	0x3c3160db	0.010826315
54	0xbe92a112	-0.28638512
55	0xbd194037	-0.037414756
56	0xbe03bea4	-0.12865692
57	0x3e0ca859	0.13736095
58	0x3e2b4a31	0.1672752
59	0xbee095c3	-0.4386426
60	0x3c8b8249	0.017029898
61	0xbb8b7124	-0.004255431
62	0xbb1095a2	-0.0022061844
63	0xbd0eb156	-0.03483709
64	0xbe949956	-0.29023236
65	0x3b9fbf63	0.00487511
66	0x3da67ca9	0.08129246
67	0x3d3d5edd	0.046233047
68	0x3ea35871	0.31903413
69	0xbe0f0645	-0.13967235
70	0xbe94dc85	-0.29074493
71	0xbf1df909	-0.6170812
72	0x3cb7d9f9	0.022442805
73	0x3cc926bf	0.024554608
74	0xbd674d2b	-0.056470077
75	0xbdd52ff9	-0.10409541
76	0x3cc41b0d	0.02393868
77	0xbd10ccc9	-0.03535155
78	0xbcd870de	-0.026421007
79	0x3e8c23bd	0.27371016
80	0xbe8a48cf	-0.27008674
81	0x3daa0c76	0.08303158
82	0x3d7b2dec	0.06132309
83	0x3e62a345	0.22132595
84	0x3b0e54b1	0.002171796
85	0xbe762b88	-0.24040043
86	0xbdd32762	-0.10310246
87	0xbe778672	-0.2417238
88	0x3c9ea7b8	0.019367084
89	0xbe2a4fba	-0.16631976
90	0xbd293640	-0.041311502
91	0x3da41905	0.080125846
92	0xbc1b12ac	-0.009464901
93	0xbcde04d7	-0.027101917
94	0xbdc0c176	-0.094119
95	0xbe703c74	-0.23460561
96	0x3c61a312	0.013771789
97	0xbd5cbb31	-0.053889457
98	0xbf084020	-0.53222847
99	0x3d9524c4	0.07282403
100	0xbe894f22	-0.26818186
101	0xbd1f8946	-0.038949274
102	0xbe37b4bc	-0.17940038
103	0xbecd2212	-0.40065056
104	0x3b904e15	0.0044038394
105	0x3cf2f150	0.029656082
106	0xbe2462c2	-0.16053298
107	0xbe215254	-0.15754062
108	0xbebb4883	-0.3657876
109	0x3e566c55	0.20939763
110	0x3dd3f5f9	0.1034965
111	0xbe8c25c1	-0.27372554
112	0x3bcc4c7c	0.0062347036
113	0xbbba487b	-0.00568491
114	0x3ecb7973	0.39741096
115	0x3e824f26	0.2545101
116	0x3c20d2e2	0.009815903
117	0x3ece314b	0.40271983
118	0xbe3b9b10	-0.1832087
119	0x3e239058	0.15973032
120	0x3e238ba5	0.15971239
121	0x3dca76d6	0.098859474
122	0xbc55a020	-0.013038665
123	0x3e405f12	0.18786266
124	0xbd4dba59	-0.050226543
125	0xbf0a29f4	-0.53970265
126	0x3cfd2d5a	0.030905414
127	0xbe840934	-0.2578827
128	0xbe3b707b	-0.18304627
129	0xbd89ee33	-0.06734886
130	0x3e9acc81	0.3023415
131	0x3e040094	0.12890846
132	0xbe720073	-0.23632984
133	0x3d527032	0.05137653
134	0xbe76abb3	-0.24088936
135	0xbe03c48b	-0.12867944
136	0xbea29b6e	-0.31759208
137	0xbda1cc9e	-0.07900356
138	0xbd9d3ad3	-0.076772355
139	0xbca08b59	-0.019597696
140	0xbd6e78c1	-0.05822063
141	0xbe13cb28	-0.14432967
142	0xbe80f67b	-0.2518805
143	0x3e235a14	0.15952331
144	0x3eda723c	0.4266528
145	0x3dd62f26	0.104582116
146	0x3e16b3ea	0.1471707
147	0x3e093663	0.13399653
148	0x3d9b72b7	0.075902395
149	0xbe64d34c	-0.22346228
150	0xbe55cd1d	-0.20879026
151	0x3d97904c	0.07400569
152	0xbc0a6ac8	-0.00844831
153	0xbd87e29e	-0.06635021
154	0x3d3935d8	0.045217365
155	0xbd077b1e	-0.033076398
156	0xbd1ca1f8	-0.038240403
157	0xbe12e270	-0.14344192
158	0xbdb0aed4	-0.08627096
159	0x3cf25f9e	0.02958661
160	0x3e36ff91	0.17870928
161	0xbde0893c	-0.109636754
162	0x3e662b6b	0.224775
163	0xbeaefa24	-0.34175217
164	0x3de8195b	0.11332961
165	0x3e5fe423	0.21864371
166	0x3df3b859	0.11900396
167	0xbd75c4f9	-0.0600023
168	0x3d9f17f1	0.07768238
169	0xbd7c8978	-0.061654538
170	0x3dd6ef14	0.10494819
171	0x3dbdfac2	0.09276344
172	0xbc064cf7	-0.008197061
173	0x3e809547	0.2511389
174	0x3d6cbc0e	0.05779653
175	0x3dfa58d3	0.12223973
176	0x3d307e1a	0.04308901
177	0xbe29f6e0	-0.16598082
178	0xbe606c76	-0.21916375
179	0xbe8325b9	-0.25614718
180	0xbe14c2c3	-0.1452742
181	0xbe85580e	-0.26043743
182	0xbdafaec9	-0.085782595
183	0x3ddbc030	0.10730016
184	0x3e3ee5e3	0.18642382
185	0x3dba53a2	0.09097983
186	0xbdde5b3e	-0.10857247
187	0xbe3a170c	-0.18172854
188	0x3e22a826	0.15884456
189	0xbee0edb5	-0.43931356
190	0xbe0d18da	-0.13779011
191	0x3e8bf7a9	0.27337387
192	0x3d996302	0.07489587
193	0xbccbae90	-0.024863511
194	0xbe52cbcb	-0.20585553
195	0xbe6133fc	-0.21992487
196	0xbe7967b0	-0.2435596
197	0x3e394a32	0.1809471
198	0x3cd01096	0.025398534
199	0x3d91db90	0.07121956
200	0x3e644e40	0.22295475
201	0xbe9da074	-0.3078648
202	0xbdce79a2	-0.10081793
203	0x3ddc9e8e	0.107724294
204	0xbe28a45a	-0.16468945
205	0x3eb63e3d	0.3559436
206	0x3e264ef1	0.16241051
207	0xbd6e6c20	-0.058208585
208	0x3cc7b981	0.024380447
209	0xbd60019c	-0.054689035
210	0x3da8a13d	0.08233879
211	0x3eaa4829	0.3325818
212	0xbd561404	-0.052265182
213	0xbc5a7b44	-0.013335053
214	0x3da386dc	0.07984707
215	0xbe502920	-0.20328188
216	0xbda2ff54	-0.07958856
217	0x3d950eca	0.072782114
218	0x3d7b8257	0.0614036
219	0x3eca8888	0.3955729
220	0xbd8a70fd	-0.06759832
221	0xba162253	-0.00057271606
222	0xbdc94dc0	-0.09829283
223	0x3dd23abb	0.10265108
224	0x3e3404d2	0.17579964
225	0x3e633c9f	0.22191094
226	0x3e2574b9	0.16157807
227	0x3d39cd50	0.045361817
228	0x3d5b4677	0.053533997
229	0xbda4dbd9	-0.08049745
230	0x3d18c3fa	0.037296273
231	0xbe2544d5	-0.16139539
232	0x3bfe5b36	0.007762338
233	0xbd573a8a	-0.05254606
234	0x3e4bbc86	0.19896135
235	0xbe1f9eb8	-0.1558789
236	0xbcdcd89c	-0.026958756
237	0xbec0fb4b	-0.3769172
238	0x3dfe1ce5	0.12407855
239	0xbe975ea5	-0.29564396
240	0x3cb84dfa	0.02249812
241	0xbe861b7c	-0.26192844
242	0x3d2377fc	0.039909348
243	0xbdcb8913	-0.09938254
244	0xbd7bf71f	-0.06151497
245	0x3cd0ff22	0.025512282
246	0xbe11ed40	-0.1425066
247	0x3e09fe80	0.1347599
248	0xbeae4d4b	-0.34043345
249	0x3d13ca74	0.036081746
250	0x3b26f4ee	0.002547558
251	0xbd003fc5	-0.031310815
252	0xbd98ea03	-0.07466509
253	0x3c7de979	0.015497559
254	0xbdd4b5fc	-0.10386273
255	0x3d75071e	0.05982124
