reachability_classification/weights/SimpleMultiplePassGNNReachabilityNet_epoch_32.pt (torch_old, 36685 bytes, 16 tensors)

x_lin.0.weight f4 [32, 1, 1, 11]
0.09133781 -0.100363664 -0.09223572 -1.1537529 -0.23177601 -0.064246856 -0.018397715 0.12715444
0.005661277 0.03170332 -0.1926702 0.085496895 -0.068103194 -0.066196196 0.08660029 -0.17569287
-0.41087362 -0.056223385 -0.14187524 0.1869273 -0.3228816 0.14486383 -0.3092602 0.062417578
0.07900715 -0.2204363 0.22395636 0.07056701 0.10477842 -0.32881936 0.0997087 0.6513472
-0.004854223 0.082676806 -0.16407321 -0.30861694 0.38072985 -0.12687273 -0.061696492 -0.5118877
-0.07210728 -0.13176358 -0.59664553 -0.27950758 -0.005589894 0.14693666 0.0457492 -0.008289986
-0.3860731 0.07267064 -0.1609168 0.34743917 0.30751425 -0.0027259393 -0.22514488 0.07984702
-0.123769544 -0.04685676 0.49010828 0.08214249 0.18080078 0.40935153 0.015972333 -0.14049634
-0.51240224 -0.14918444 -0.26115355 0.11878561 -0.069644734 0.32946983 -0.21101151 0.1589604
0.019933673 0.18713272 -0.93512475 0.16513869 -0.0064362683 -0.42884603 -0.17054087 -0.2615906
-0.11821908 -0.29148817 0.012242978 0.29215145 0.31027588 0.19925925 0.07149581 0.22432294
0.41607556 -0.23964354 -0.2846452 -0.2263738 0.2937768 -0.21389915 -0.09328607 0.10811187
0.23902668 0.06194193 0.19848962 0.39794773 0.033642516 0.33889726 0.14764428 -0.07768105
0.2516737 0.012801991 0.5891631 -0.01827156 0.00011217685 -0.16259353 -0.146131 0.08750323
0.15451007 0.3544162 -0.17956321 0.20510454 -0.08625509 -0.10285007 -0.10303853 0.16863544
-0.26876473 -0.16880247 0.17034201 -0.09464931 0.050519314 -0.36345667 0.11592621 -0.31944257
0.3245234 0.13436578 -0.18377191 0.16076265 -0.4962968 -0.07122597 -0.09849104 -0.14646478
-0.28134105 -0.09546033 0.27276596 0.40088174 -0.036317416 -0.1339131 0.45983976 0.14682844
0.030730201 -0.19224674 0.017448874 -0.2848865 -0.027975304 -0.3898482 -0.031291984 -0.1280352
0.714209 -0.652012 -0.3082133 -0.19951726 -0.2641479 0.1009468 0.2696356 -0.25398448
0.33326638 -0.373547 -0.14499298 0.27004826 -0.4375859 0.023575014 -0.033407155 0.2420367
-0.06754651 -0.33289254 -0.17287223 0.24103267 0.050085776 -0.07300018 0.7894728 -0.7073908
0.5257913 0.16312526 0.16449064 -0.37756023 0.37370148 -0.09659597 0.22826442 -0.10666185
-0.013239216 -0.5382818 0.6274482 -0.10646371 0.06224471 0.06488374 -0.46219 -0.15744397
-0.15023306 0.2327498 -0.28029186 -0.05834301 0.019041508 -0.15966648 0.16499898 -0.32806677
0.06465718 -0.4196226 -0.033133768 -0.0046226876 -0.033032186 0.0012376221 -0.15444773 -0.84780574
0.7139948 0.24923608 -0.03189407 -0.034451146 0.47906125 0.1481355 -0.25482863 -0.05425214
-0.13410692 -0.43181545 -0.55603325 0.4240624 0.01617468 -0.262264 0.016844645 0.43760836
0.7165228 -0.17877118 0.19865175 0.14747378 0.09554307 0.46393338 -0.3472836 0.08158184
0.18665762 -0.16191268 -0.03527781 0.18917859 -0.3586703 -0.17622401 -0.1816682 0.21027622
-0.5286649 0.5639001 0.14727648 -0.044625413 0.29439455 -0.0023547953 -0.29243577 0.0010034252
-0.06219569 0.13929424 -0.04203688 0.5017707 -0.56855845 0.022351202 -0.06190688 0.023591803
00000000: 510f bb3d 778b cdbd 15e6 bcbd 2dae 93bf
00000010: b156 6dbe db93 83bd ceb6 96bc c634 023e
00000020: 3c82 b93b 57db 013d 564b 45be ff18 af3d
00000030: b079 8bbd df91 87bd 7e5b b13d d5e8 33be
00000040: 075e d2be 7e4a 66bd be47 11be df69 3f3e
00000050: bd50 a5be 2f57 143e 5a57 9ebe 93a9 7f3d
00000060: 80ce a13d 0eba 61be d154 653e 7085 903d
00000070: 1196 d63d 035b a8be 1334 cc3d b1be 263f
00000080: 2d10 9fbb 7552 a93d cf02 28be 0a03 9ebe
00000090: 06ef c23e edea 01be 76b5 7cbd 130b 03bf
000000a0: fbac 93bd 08ed 06be c3bd 18bf 9e1b 8fbe
000000b0: 6e2b b7bb 9076 163e 8363 3b3d b9d2 07bc
000000c0: 60ab c5be 58d4 943d 60c7 24be 8ce3 b13e
000000d0: 8272 9d3e aca5 32bb 618c 66be d686 a33d
000000e0: e37a fdbd e0ec 3fbd 79ef fa3e 523a a83d
000000f0: d723 393e 8696 d13e 69d8 823c 46de 0fbe
00000100: cb2c 03bf cec3 18be ebb5 85be df45 f33d
00000110: e6a1 8ebd 45b0 a83e 6713 58be 84c6 223e
00000120: f14b a33c b89f 3f3e 5664 6fbf 1e1a 293e
00000130: 55e7 d2bb b591 dbbe 44a2 2ebe 34ef 85be
00000140: d81c f2bd f03d 95be c696 483c e094 953e
00000150: 7bdc 9e3e 9e0a 4c3e 656c 923d eab4 653e
00000160: db07 d53e 1e65 75be 04bd 91be 89ce 67be
00000170: ea69 963e 6108 5bbe c40c bfbd c269 dd3d
00000180: 69c3 743e d2b6 7d3d dd40 4b3e cebf cb3e
00000190: bccc 093d f183 ad3e 1030 173e 3e17 9fbd
000001a0: 60db 803e 71bf 513c 65d3 163f 3dae 95bc
000001b0: 7d40 eb38 eb7e 26be 5da3 15be e534 b33d
000001c0: e337 1e3e 0a76 b53e 6bdf 37be ed06 523e
000001d0: 82a6 b0bd 0fa3 d2bd dd05 d3bd c5ae 2c3e
000001e0: 889b 89be 8eda 2cbe 236e 2e3e 7fd7 c1bd
000001f0: 57ed 4e3d fe16 babe b96a ed3d fa8d a3be
00000200: ee27 a63e 2f97 093e b42e 3cbe f79e 243e
00000210: 9d1a febe ecde 91bd acb5 c9bd ddfa 15be
00000220: ef0b 90be b580 c3bd fba7 8b3e 5f40 cd3e
00000230: 92c1 14bd 8420 09be 1e70 eb3e 325a 163e
00000240: e7bd fb3c 54dc 44be f1f0 8e3c a5dc 91be
00000250: 772c e5bc 2f9a c7be 062c 00bd a91b 03be
00000260: 67d6 363f 42ea 26bf 22ce 9dbe 414e 4cbe
00000270: 653e 87be 32bd ce3d ad0d 8a3e 410a 82be
00000280: e4a1 aa3e 8d41 bfbe 0a79 14be c443 8a3e
00000290: 420b e0be 6320 c13c f1d5 08bd 78d8 773e
000002a0: d355 8abd e470 aabe 6b05 31be 45d1 763e
000002b0: be26 4d3d 1e81 95bd e41a 4a3f 9017 35bf
000002c0: 429a 063f 4f0a 273e 3c70 283e 934f c1be
000002d0: cd55 bf3e 1cd4 c5bd 26be 693e 8771 dabd
000002e0: 4ce9 58bc d6cc 09bf 72a0 203f a509 dabd
000002f0: 4ff4 7e3d c4e1 843d 2ba4 ecbe fe38 21be
00000300: b2d6 19be f755 6e3e 6a82 8fbe 14f9 6ebd
00000310: f0fc 9b3c 9c7f 23be 7ef5 283e 5ef8 a7be
00000320: fc6a 843d c6d8 d6be 46b7 07bd ea79 97bb
00000330: c24c 07bd b537 a23a 8c27 1ebe cc09 59bf
00000340: 5dc8 363f be37 7f3e 5ba3 02bd a51c 0dbd
00000350: 8447 f53e d5b0 173e e678 82be 7e37 5ebd
00000360: 5353 09be ea16 ddbe 3258 0ebf b51e d93e
00000370: c380 843c 7847 86be c8fd 893c 340e e03e
00000380: 0a6e 373f cb0f 37be 5d6b 4b3e 5e03 173e
00000390: 16ac c33d ad88 ed3e 28cf b1be 6114 a73d
000003a0: 2d23 3f3e 70cc 25be 777f 10bd 08b8 413e
000003b0: a2a3 b7be 1174 34be 3b07 3abe a652 573e
000003c0: 9556 07bf c25b 103f a5cf 163e 23c9 36bd
000003d0: e2ba 963e e952 1abb 24ba 95be 5d85 833a
000003e0: e8c0 7ebd 26a3 0e3e dd2e 2cbd 0b74 003f
000003f0: 0c8d 11bf de19 b73c 1292 7dbd 9943 c13c

x_lin.0.bias f4 [32]
-0.36882833 -0.39811024 -0.13800906 0.08361983 -0.13598429 -0.23634641 0.15680373 -0.04252273
0.38081312 0.05786951 -0.3051011 0.19667542 0.47118136 -0.24572174 -0.063983425 -0.093172334
0.4085282 -0.14559993 0.4251408 -0.13097839 -0.19054426 0.2886354 0.004587802 0.026482062
-0.19252414 0.08239432 -0.31181523 0.1886562 0.2754036 -0.101012506 0.10958523 0.4846052
00000000: 11d7 bcbe 1bd5 cbbe 3f52 0dbe e040 ab3d
00000010: 773f 0bbe cb04 72be 2891 203e 502c 2ebd
00000020: f0f9 c23e 9408 6d3d 3636 9cbe 4865 493e
00000030: af3e f13e 7b9e 7bbe be09 83bd 23d1 bebd
00000040: 9c2a d13e 2618 15be 0eac d93e 331f 06be
00000050: 091e 43be 05c8 933e 4655 963b e9f0 d83c
00000060: 0c25 45be 5abe a83d 3fa6 9fbe 172f 413e
00000070: b301 8d3e a5df cebd 396e e03d 2c1e f83e

x_lin.2.weight f4 [32, 32, 1, 1]
0.18883586 0.10376279 0.044375643 0.05324781 -0.07707694 -0.11389833 -0.12518759 -0.24278168
-0.08140197 0.5466073 0.14259006 -0.17402962 -0.29327476 0.32115278 0.06387699 0.31750396
0.0064848936 -0.061502013 -0.17943694 -0.22597319 0.19099429 0.047620237 0.11168848 -0.49264973
0.12900385 0.03584406 0.07101891 0.07785153 0.21898577 0.05132152 -0.3411271 -0.3787417
0.34111425 -0.11991959 0.2615869 0.09478858 0.045837756 -0.34689182 -0.25005817 0.05577209
-0.16151778 -0.07905409 -0.010000672 0.16818954 -0.14517519 0.45462054 0.1507922 0.2148845
-0.53410393 0.09367406 -0.54391295 -0.21101984 -0.3062395 0.053081226 0.13986075 -0.0098568555
-0.28654608 0.069454625 0.30211952 -0.05679827 0.30225813 0.15192181 -0.07940268 0.43791038
0.120000735 -0.09892642 0.0021108107 -0.15462461 0.1835302 0.16792673 -0.035298347 0.19318508
-0.13704629 0.074467346 -0.062383905 0.15105096 -0.3592472 -0.14076975 0.2227039 0.2731769
-0.31580666 0.067028865 0.03490675 0.04860599 0.4404898 -0.086975075 0.18290333 -0.17469056
-0.09554734 -0.2128588 0.22349496 0.35137358 -0.4666475 0.30961034 -0.16073675 -0.3601521
0.055391535 0.09012633 -0.0151941 0.12602064 -0.2441492 -0.23106982 -0.31978223 -0.45011944
0.003149589 -0.3235464 -0.29708123 -0.5618604 0.0080406135 -0.26005027 0.12070308 0.23892526
0.2325869 -0.49310857 -0.3828618 0.30816478 0.41532734 0.087688796 0.18839595 -0.08669935
0.25358626 -0.005665096 -0.5736137 -0.2185229 0.038026053 -0.10523344 -0.31602746 0.38025224
0.10255164 -0.10595579 -0.03857939 0.07385236 -0.0017856403 0.049786083 0.10024963 -0.2236594
0.052422162 -0.10561754 0.16815315 -0.012560846 -0.18674703 0.0052974857 0.018614298 0.29238707
-0.20265687 0.009469493 -0.3723066 -0.11250801 -0.19151868 -0.1421853 0.29628554 0.25751483
0.022322709 0.14006338 0.1585336 0.08340254 -0.6914511 0.20427391 -0.17988582 0.15556595
0.06448718 -0.048620336 0.30939007 0.0067837224 -0.15833971 -0.13749047 -0.027583266 0.17628995
0.07594703 0.04101928 -0.115372114 0.10936812 0.41184503 -0.25588426 0.14726126 -0.005867551
0.245707 0.27126387 0.1535611 -0.22788484 -0.58299476 -0.05305029 -0.3118155 0.24449381
0.18226604 -0.19754322 0.24597743 0.038526535 -0.28142473 0.081690416 0.057441883 0.25410864
0.12416351 -0.0036118445 -0.17089728 -0.26000336 -0.008908657 0.18064742 -0.27552664 0.10763304
-0.5172048 -0.37895685 0.17256096 0.036278743 -0.21280576 0.11320254 -0.41307595 0.22811396
-0.20413285 0.2957876 -0.16400613 -0.42503917 -0.12301391 -0.1911207 0.20951407 -0.14642715
-0.07140272 -0.10349608 0.2592913 0.02453697 0.13085215 0.20273043 -0.14566809 0.2759327
-0.4682786 -0.42697895 -0.15792963 -0.47199932 -0.040679835 0.08509134 -0.21651614 -0.15874195
0.029784825 0.14783214 -0.023726834 0.027883982 0.03876236 -0.17003085 -0.13726805 0.0747413
0.52331007 -0.14212754 -0.2989058 -0.29844877 -0.02292007 -0.09573324 0.110388465 -0.022704111
-0.22928293 -0.15629831 -0.191601 -0.5370644 0.03952802 0.15076283 -0.5994789 -0.25392187
00000000: 305e 413e 9681 d43d 3cc3 353d 601a 5a3d
00000010: 84da 9dbd 8743 e9bd 2d31 00be c39b 78be
00000020: 13b6 a6bd 75ee 0b3f 2103 123e d234 32be
00000030: 1c28 96be 236e a43e f0d1 823d e18f a23e
00000040: 3b7f d43b 89e9 7bbd 51be 37be 8465 67be
00000050: 0294 433e 700d 433d eebc e43d 963c fcbe
00000060: 9619 043e 39d1 123d 5d72 913d 9f70 9f3d
00000070: ce3d 603e 8436 523d 36a8 aebe 6fea c1be
00000080: 87a6 ae3e 6798 f5bd b8ee 853e 8420 c23d
00000090: 5fc0 3b3d ce9b b1be a007 80be 4671 643d
000000a0: eb64 25be 1ce7 a1bd dcd9 23bc e139 2c3e
000000b0: cea8 14be 06c4 e83e 4569 1a3e af0a 5c3e
000000c0: 09bb 08bf 30d8 bf3d e13d 0bbf 9615 58be
000000d0: 6ccb 9cbe b36b 593d a837 0f3e a67e 21bc
000000e0: 2bb6 92be 3a3e 8e3d 69af 9a3e 4ea5 68bd
000000f0: 94c1 9a3e 6491 1b3e df9d a2bd ca35 e03e
00000100: f2c2 f53d ef99 cabd 8755 0a3b ea55 1ebe
00000110: 57ef 3b3e fcf4 2b3e 0095 10bd 4fd2 453e
00000120: dd55 0cbe 5682 983d 4486 7fbd 1aad 1a3e
00000130: 40ef b7be f225 10be 7e0c 643e d8dd 8b3e
00000140: 69b1 a1be 6e46 893d 61fa 0e3d 1317 473d
00000150: e187 e13e fd1f b2bd 034b 3b3e 15e2 32be
00000160: 53ae c3bd a8f7 59be dddb 643e 3de7 b33e
00000170: 6cec eebe 3f85 9e3e 2d98 24be db65 b8be
00000180: 3ce2 623d 2794 b83d adf0 78bc 8e0b 013e
00000190: 3f02 7abe 919d 6cbe 7fba a3be 0e76 e6be
000001a0: 5669 4e3b e0a7 a5be 081b 98be 15d6 0fbf
000001b0: c7bc 033c 4f25 85be 2d33 f73d d3a8 743e
000001c0: 432b 6e3e ba78 fcbe 7606 c4be c6c7 9d3e
000001d0: c9a5 d43e 2f96 b33d deea 403e 6e8f b1bd
000001e0: 0fd6 813e 45a2 b9bb 59d8 12bf 78c4 5fbe
000001f0: 35c1 1b3d a184 d7bd 5ace a1be 6cb0 c23e
00000200: 9806 d23d 59ff d8bd 6c05 1ebd e83f 973d
00000210: 250c eaba 7eec 4b3d ae4f cd3d f806 65be
00000220: 9fb8 563d 024e d8bd 5730 2c3e 02cc 4dbc
00000230: 9d3a 3fbe 8896 ad3b 037d 983c c2b3 953e
00000240: 4885 4fbe ef25 1b3c f89e bebe 996a e6bd
00000250: 791d 44be 0699 11be bdb2 973e fcd8 833e
00000260: 1dde b63c c66c 0f3e a256 223e f3ce aa3d
00000270: f002 31bf 2e2d 513e fd33 38be ae4c 1f3e
00000280: db11 843d 1e26 47bd 6068 9e3e fd49 de3b
00000290: ce23 22be 4dca 0cbe 4df6 e1bc 5a85 343e
000002a0: 1e8a 9b3d d503 283d 3748 ecbd 65fc df3d
000002b0: 5add d23e 4303 83be a8cb 163e 9644 c0bb
000002c0: 9e9a 7b3e 19e3 8a3e 1f3f 1d3e a55a 69be
000002d0: 253f 15bf 434b 59bd 48a6 9fbe 965c 7a3e
000002e0: f3a3 3a3e c548 4abe 82e1 7b3e 00ce 1d3d
000002f0: e716 90be 4e4d a73d 2e48 6b3d 871a 823e
00000300: 7049 fe3d b2b4 6cbb b2ff 2ebe 291f 85be
00000310: 9ef5 11bc a3fb 383e d411 8dbe b66e dc3d
00000320: 8967 04bf a206 c2be d2b3 303e 0599 143d
00000330: c1e9 59be bcd6 e73d b17e d3be b596 693e
00000340: 3408 51be 7971 973e 39f1 27be bc9e d9be
00000350: b8ee fbbd 25b5 43be db8a 563e 00f1 15be
00000360: 973b 92bd c1f5 d3bd d4c1 843e c101 c93c
00000370: 1bfe 053e 9198 4f3e 042a 15be 0d47 8d3e
00000380: 36c2 efbe fc9c dabe 4eb8 21be e5a9 f1be
00000390: e69f 26bd 5e44 ae3d 68b6 5dbe 408d 22be
000003a0: 4eff f33c 4f61 173e c75e c2bc f36c e43c
000003b0: 48c5 1e3d 911c 2ebe ff8f 0cbe f711 993d
000003c0: a6f7 053f e289 11be 2e0a 99be 47ce 98be
000003d0: dfc2 bbbc ca0f c4bd 5913 e23d f9fd b9bc
000003e0: 25c9 6abe aa0c 20be 0d33 44be 0d7d 09bf
000003f0: 22e8 213d 9261 1a3e 7377 19bf 0c02 82be

x_lin.2.bias f4 [32]
-0.23661022 -0.16574094 -0.20143472 -0.22293866 -0.19112596 0.11275368 -0.086672924 0.13544679
-0.17179844 0.04598145 0.14929709 0.034342162 0.09436114 -0.008614353 -0.08622885 0.15530409
-0.14498223 0.00552942 0.124220744 -0.18789572 -0.080580436 0.1395841 -0.18684565 -0.035202168
0.127454 0.078572914 0.008291306 -0.076590784 0.14638974 0.17569539 -0.07600123 -0.068899475
00000000: f349 72be feb7 29be e744 4ebe 084a 64be
00000010: 86b6 43be 67eb e63d 9381 b1bd 90b2 0a3e
00000020: eeeb 2fbe 0b57 3c3d 56e1 183e 5eaa 0c3d
00000030: 6a40 c13d 3723 0dbc c098 b0bd 0908 1f3e
00000040: 3976 14be 2330 b53b 7267 fe3d bc67 40be
00000050: 5b07 a5bd 22ef 0e3e 7754 3fbe 2630 10bd
00000060: 4d83 023e d6ea a03d 42d8 073c a1db 9cbd
00000070: 31e7 153e 7ee9 333e 88a6 9bbd 2b1b 8dbd

edge_lin.0.weight f4 [32, 1, 64, 1]
-0.76225686 -0.3092645 -0.043250326 -0.37866646 -0.24681123 -0.37149546 -0.23927933 -0.02913545
-0.18906732 0.22827263 -0.68160266 0.06204335 -0.16657324 -0.32086796 -0.04986123 -0.4028557
-0.39023387 -0.31947944 0.07514394 -0.42462072 -0.13424546 -0.62453026 -0.29322785 0.01149824
-0.065850906 0.110229164 0.1371257 -0.21035257 0.27307963 -0.01417324 0.1229941 0.091707386
-0.039519157 0.22280113 0.06901852 -0.16572613 0.059275366 -0.5607382 0.08704556 -0.022205036
0.055688392 -0.23280495 -0.5700671 -0.19508788 -0.32489684 -0.021280805 -0.13374868 -0.066445835
-0.14438415 -0.5770692 -0.039752617 -0.2058184 -0.24765208 -0.44020355 0.11529011 0.03037051
0.07272841 0.07302056 0.06178347 -0.4063063 0.16095734 -0.3302009 0.1459915 -0.02171252
-0.24781567 0.06659414 -0.04169557 -0.3951014 0.2015029 -0.14463983 -0.04252288 -0.3430672
0.28428543 0.1593607 -0.44230548 0.07360644 -0.052067433 -0.11945591 0.15843317 0.13268995
0.041441057 -0.34363207 0.16696526 0.4949973 -0.06350616 -0.060110733 -0.14790654 -0.11628588
-0.1869974 0.21152955 0.096760616 0.22599831 0.011063371 0.001060057 0.16163395 0.15619479
0.07530097 0.03207014 0.06437445 -0.27237922 0.046814997 -0.29639205 -0.017724236 -0.1533776
0.3946731 -0.05051422 -0.36271042 0.23217529 0.027578166 -0.23392306 0.17110491 0.11919683
-0.17618842 -0.38162825 -0.009771667 0.59013927 -0.09599859 -0.18663648 -0.15622118 -0.14987509
-0.18712883 0.04113467 0.12831663 0.098004706 -0.1503982 -0.01839035 0.102458134 0.18031283
-0.1308462 -0.065031275 -0.60814387 -0.20104955 -0.10479073 -0.47521153 -0.0976669 0.34480897
-0.22911716 -0.281714 0.0467415 0.08983975 -0.05262071 0.17140086 -0.032579623 0.12489289
-0.0969975 -0.33213684 -0.016844112 -0.018831143 -0.25349927 0.026135072 0.17278083 -0.32021636
-0.056751646 -0.4299214 -0.025623668 0.07170714 0.06443481 -0.013961403 -0.05551766 -0.0070974575
-0.039205533 0.18273892 -0.61066633 -0.15247825 -0.0722609 -0.48609522 0.07307123 0.43575063
-0.060636695 -0.45988828 0.11744855 -0.081407316 -0.32177275 0.055221744 -0.09842956 0.043513693
-0.04104621 -0.3401115 -0.087521866 0.14272705 -0.2872979 -0.17160325 0.03462871 -0.07020035
0.12154438 -0.31131852 -0.056514233 0.065632865 -0.025968246 0.04253094 0.118517786 0.1007319
0.20942327 0.34849972 -0.58872706 -0.52511525 -0.046681963 -0.14673589 -0.20610303 -0.2608541
-0.09434259 0.20243673 0.103722945 0.19137226 -0.16842374 0.12523988 0.2658387 0.07451695
-0.2168747 -0.012459235 -0.18819647 -0.16758782 0.06777463 0.13784318 -0.077041276 -0.38038236
0.13065188 -0.35094455 -0.19012238 0.053368848 -0.07693289 0.05310538 0.13542736 0.13682497
0.017332312 0.12849024 -0.45593992 -0.45266765 -0.13706727 -0.22233023 -0.24891223 -0.36504808
0.06370349 0.12867922 0.0042788563 -0.10166094 -0.04343813 0.2154649 0.17849012 0.3221985
-0.17614606 -0.19219925 -0.31386054 -0.06292046 0.074298695 0.03393259 0.14894101 -0.057077628
0.09816444 -0.13739134 -0.1695435 -0.0056203185 0.0021380102 -0.05867989 0.09910461 0.20233002
00000000: 4423 43bf eb57 9ebe 4127 31bd 92e0 c1be
00000010: 15bc 7cbe a734 bebe a405 75be 78ad eebc
00000020: dd9a 41be 4dc0 693e 837d 2ebf 2b21 7e3d
00000030: 2d92 2abe ce48 a4be 4a3b 4cbd 1a43 cebe
00000040: bccc c7be cf92 a3be 11e5 993d e367 d9be
00000050: a477 09be 37e1 1fbf f621 96be 1d63 3c3c
00000060: d7dc 86bd d4bf e13d ae6a 0c3e aa66 57be
00000070: 18d1 8b3e e136 68bc 55e4 fb3d 15d1 bb3d
00000080: d7de 21bd fb25 643e 9559 8d3d 1cb4 29be
00000090: baca 723d 8a8c 0fbf f144 b23d 56e7 b5bc
000000a0: 8319 643d 6c64 6ebe ebef 11bf 1ec5 47be
000000b0: e158 a6be 1555 aebc 6af5 08be c114 88bd
000000c0: 70d9 13be cfba 13bf a4d3 22bd 0fc2 52be
000000d0: 8298 7dbe 5c62 e1be 391d ec3d 93cb f83c
000000e0: a2f2 943d ce8b 953d aa10 7d3d 6107 d0be
000000f0: 00d2 243e 1810 a9be cc7e 153e 74de b1bc
00000100: 64c3 7dbe 8262 883d f9c8 2abd bb4a cabe
00000110: c756 4e3e 771c 14be 792c 2ebd 81a6 afbe
00000120: dc8d 913e 742f 233e dd75 e2be f9be 963d
00000130: a944 55bd 4da5 f4bd 4e3c 223e e0df 073e
00000140: 19be 293d 8bf0 afbe f1f8 2a3e 4970 fd3e
00000150: 850f 82bd ac36 76bd d074 17be 4b27 eebd
00000160: 3f7c 3fbe 349b 583e 6e2a c63d 1a6c 673e
00000170: 2443 353c 9cf1 8a3a 5f83 253e 87f1 1f3e
00000180: 6537 9a3d fb5b 033d c0d6 833d 4a75 8bbe
00000190: 15c1 3f3d b3c0 97be 6b32 91bc 040f 1dbe
000001a0: 9812 ca3e 00e8 4ebd 2eb5 b9be 5cbf 6d3e
000001b0: 9beb e13c 8789 6fbe 2036 2f3e 781d f43d
000001c0: bd6a 34be c764 c3be 5819 20bc 5e13 173f
000001d0: e99a c4bd a21d 3fbe 72f8 1fbe db78 19be
000001e0: b39e 3fbe d47c 283d 6f65 033e b1b6 c83d
000001f0: fc01 1abe 5ca7 96bc 92d5 d13d eda3 383e
00000200: 8cfc 05be 1e2f 85bd 51af 1bbf efdf 4dbe
00000210: 869c d6bd ed4e f3be 9505 c8bd cd8a b03e
00000220: b09d 6abe d13c 90be 0474 3f3d e7fd b73d
00000230: d088 57bd b583 2f3e 3672 05bd d8c7 ff3d
00000240: a0a6 c6bd d70d aabe aafc 89bc c543 9abc
00000250: a8ca 81be 3819 d63c 75ed 303e 66f3 a3be
00000260: 6a74 68bd a81e dcbe bae8 d1bc 31db 923d
00000270: 66f6 833d 5ebe 64bc 7c66 63bd ca91 e8bb
00000280: fb95 20bd e91f 3b3e a154 1cbf 4223 1cbe
00000290: 86fd 93bd 79e1 f8be 5ea6 953d b51a df3e
000002a0: 2f5e 78bd 7a76 ebbe de88 f03d e1b8 a6bd
000002b0: 66bf a4be 3230 623d 7095 c9bd 6a3b 323d
000002c0: 1220 28bd 1823 aebe aa3e b3bd 0a27 123e
000002d0: b618 93be c3b8 2fbe d6d6 0d3d 33c5 8fbd
000002e0: 43ec f83d 2465 9fbe 787b 67bd 866a 863d
000002f0: 5cbb d4bc ec34 2e3d 74b9 f23d 874c ce3d
00000300: 0e73 563e 8e6e b23e d1b6 16bf f46d 06bf
00000310: 9635 3fbd ef41 16be ac0c 53be ab8e 85be
00000320: b036 c1bd 934b 4f3e b26c d43d 17f7 433e
00000330: 4677 2cbe e23e 003e 031c 883e 589c 983d
00000340: 6714 5ebe d221 4cbc 93b6 40be 249c 2bbe
00000350: 6dcd 8a3d c326 0d3e d1c7 9dbd 7ac1 c2be
00000360: 9bc9 053e 01af b3be 71af 42be 4b99 5a3d
00000370: fe8e 9dbd 0785 593d 78ad 0a3e d81b 0c3e
00000380: 7efc 8d3c f292 033e f570 e9be 0ec4 e7be
00000390: 5d5b 0cbe 89aa 63be d9e2 7ebe 95e7 babe
000003a0: fa76 823d 7cc4 033e a635 8c3b 9c33 d0bd
000003b0: 2eec 31bd d5a2 5c3e 1dc6 363e 34f7 a43e
000003c0: a25f 34be e1cf 44be 54b2 a0be 71dc 80bd
000003d0: ea29 983d e6fc 0a3d fe83 183e 3bca 69bd
000003e0: 700a c93d 51b0 0cbe d09c 2dbe a62a b8bb
000003f0: dc1d 0c3b 535a 70bd 5cf7 ca3d 9a2f 4f3e

edge_lin.0.bias f4 [32]
0.041322157 -0.034978926 0.04987566 0.058314804 -0.1191679 -0.074549675 0.11180948 -0.061496336
0.15726463 -0.058091246 -0.087994486 0.03629975 0.096134625 -0.10695378 -0.15564902 0.10387071
0.006592175 -0.0598606 -0.16718124 -0.12111378 -0.14287104 -0.025547378 -0.032489713 -0.030874562
0.031025985 0.11193886 -0.0006254345 -3.2297842e-06 0.08174772 -0.12213367 0.02086481 -0.02544977
00000000: 6c41 293d 1046 0fbd 6c4a 4c3d 81db 6e3d
00000010: 4d0e f4bd 80ad 98bd 5efc e43d 95e3 7bbd
00000020: fb09 213e 16f1 6dbd 7436 b4bd 0caf 143d
00000030: 3be2 c43d 950a dbbd 7562 1fbe 2bba d43d
00000040: 2c03 d83b 6330 75bd 8f31 2bbe 800a f8bd
00000050: c94c 12be bc48 d1bc ef13 05bd a6ec fcbc
00000060: 352a fe3c 3340 e53d 33f4 23ba 45bf 58b6
00000070: 596b a73d 3821 fabd aeec aa3c 097c d0bc

edge_lin.2.weight f4 [32, 32, 1, 1]
0.39068568 0.12861258 0.13943225 0.102722354 0.36128443 0.06322744 -0.14495632 -0.16607107
0.08778223 0.105245 0.22144222 0.110424355 0.030813668 -0.27629316 -0.07426397 -0.07277907
0.38372028 0.029221429 0.16882648 -0.29999283 0.35756344 -0.26984876 0.13251868 0.2508162
-0.1206238 -0.3951197 0.33934358 -0.030658105 -0.59152734 0.20451067 -0.028930556 -0.03163819
-0.2371958 -0.23349342 0.15327977 -0.21532227 0.21831883 -0.014891076 0.15045083 0.13974231
0.16696121 0.10015907 -0.107093856 0.2868524 0.17332675 0.06311207 -0.058633145 0.14979684
0.04838894 0.09806765 0.21151912 -0.03650221 -0.451033 0.37159127 -0.23562865 0.17614423
0.35772645 -0.50080806 0.08791001 0.10268859 0.27029243 -0.36422485 0.066921346 -0.13492505
-0.07719716 0.05882212 0.10777368 0.13579261 -0.062243544 -0.3215995 0.11890927 0.19077176
-0.5645479 -0.19954348 0.13898897 0.020673785 -0.0064466842 -0.015749305 -0.07215911 0.3799311
0.088879585 0.20013687 -0.090174906 -0.08325414 -0.0063441796 0.10378966 -0.011641385 0.061764248
-0.08639357 -0.21207456 -0.057009276 -0.006665036 -0.26230514 0.1537986 0.07630999 0.10855901
-0.21989065 -0.23631236 -0.25865966 0.47017857 -0.11867697 0.34937912 -0.34373593 0.023097562
-0.11586119 0.15508166 -0.43744132 0.05265779 -0.050682206 0.40449625 0.1100012 -0.28953773
-0.35503098 0.18900289 0.08830112 -0.113428645 0.06725553 0.059269287 -0.15749775 -0.22389577
0.035187695 -0.25512177 -0.07499919 -0.015627183 -0.3457665 0.26737866 -0.09026266 -0.111518554
0.46657816 0.030604806 -0.08952641 0.30972698 0.28607994 0.10376353 -0.111707754 -0.43973777
-0.36624584 -0.23195106 0.1316364 -0.08252319 -0.029747704 -0.22978583 0.13053389 0.22533242
-0.048269995 0.19365087 0.08527527 -0.17244394 0.20885292 0.03644999 0.09762629 0.31540564
0.0688971 -0.38071877 0.38874876 -0.20753385 -0.5697254 -0.10169434 0.071190305 -0.1866808
0.20611829 0.31750175 -0.08678437 0.069205105 0.33357775 -0.036081623 -0.24927397 -0.15611584
0.16504212 0.039625626 -0.09228367 0.20398642 0.03596378 -0.29834887 0.060527485 0.22522622
0.038276266 -0.016544186 0.06713515 -0.10761959 0.21782759 -0.169386 0.16321391 0.2567135
0.034409363 -0.18888389 0.20654866 0.024581218 -0.14259963 0.3184839 -0.07154537 0.1243052
-0.15220368 -0.11631936 0.11561459 -0.06093004 -0.051221296 -0.06796832 -0.012683663 -0.14318438
0.08781949 -0.243032 -0.1252916 0.076054074 -0.2931219 -0.24477845 0.10051169 -0.32002702
-0.18721253 -0.003879873 0.316005 0.03221304 -0.39204296 0.2425681 -0.44694355 0.039950527
-0.10554915 0.024910346 0.15994124 0.1542198 0.06324935 -0.03624369 -0.102894455 -0.007078507
0.035838097 0.14327222 0.15864427 -0.084151484 -0.1582332 -0.4877516 -0.10212164 0.16813557
-0.2487794 -0.4030452 0.18010433 -0.09489466 0.0052271495 -0.16337772 -0.18797001 0.16616203
0.29131016 0.3442937 0.3232963 -0.07280568 0.007845992 -0.09834017 -0.052837554 0.4173723
-0.22379597 -0.18531355 0.32260966 0.039489165 -0.21626654 0.18644358 0.01762576 0.22655767
00000000: f407 c83e 04b3 033e 54c7 0e3e 1960 d23d
00000010: 46fa b83e 637d 813d 6e6f 14be 890e 2abe
00000020: 2bc7 b33d b18a d73d c0c1 623e 2a26 e23d
00000030: f26c fc3c 4c76 8dbe b517 98bd 310d 95bd
00000040: fc76 c43e c761 ef3c d9e0 2c3e a998 99be
00000050: 8e12 b73e 9e29 8abe fab2 073e fb6a 803e
00000060: 9c09 f7bd 214d cabe 71be ad3e b526 fbbc
00000070: 566e 17bf 3f6b 513e c6ff ecbc 0c97 01bd
00000080: 75e3 72be e618 6fbe 5ff5 1c3e 717d 5cbe
00000090: f98e 5f3e b3f9 73bc c80f 1a3e 9c18 0f3e
000000a0: e1f7 2a3e 3320 cd3d 0654 dbbd 51de 923e
000000b0: 917c 313e e740 813d 4f29 70bd 5864 193e
000000c0: 7b33 463d b1d7 c83d 7898 583e 5783 15bd
000000d0: cced e6be 3641 be3e a348 71be 275f 343e
000000e0: ec27 b73e f534 00bf 2a0a b43d 654e d23d
000000f0: c563 8a3e ae7b babe 0f0e 893d cb29 0abe
00000100: 8b19 9ebd 77ef 703d 72b8 dc3d 380d 0b3e
00000110: 16f3 7ebd b1a8 a4be b486 f33d ac59 433e
00000120: 3686 10bf 2055 4cbe 2053 0e3e 125c a93c
00000130: b53e d3bb b004 81bc 28c8 93bd 5486 c23e
00000140: 8006 b63d aef0 4c3e 9fad b8bd 2681 aabd
00000150: d6e2 cfbb ac8f d43d 82bb 3ebc 82fc 7c3d
00000160: 1def b0bd 132a 59be 8f82 69bd 6066 dabb
00000170: dc4c 86be 617d 1d3e 6948 9c3d 3054 de3d
00000180: 042b 61be defb 71be 0a6f 84be 3fbb f03e
00000190: e90c f3bd d2e1 b23e 28fe afbe 1937 bd3c
000001a0: a248 edbd bacd 1e3e 4ff8 dfbe b2af 573d
000001b0: 2598 4fbd 221a cf3e 4f48 e13d 4a3e 94be
000001c0: 9fc6 b5be f989 413e 38d7 b43d 474d e8bd
000001d0: 44bd 893d 5ac4 723d 1747 21be ef44 65be
000001e0: f920 103d 529f 82be 2d99 99bd 9404 80bc
000001f0: 4f08 b1be dbe5 883e a1db b8bd d763 e4bd
00000200: 55e3 ee3e eeb6 fa3c 9f59 b7bd 8994 9e3e
00000210: 1279 923e f981 d43d 09c7 e4bd 4f25 e1be
00000220: 9384 bbbe 9484 6dbe b1cb 063e eb01 a9bd
00000230: 75b1 f3bc fa4c 6bbe adaa 053e 8bbd 663e
00000240: c2b6 45bd 6a4c 463e cda4 ae3d 2595 30be
00000250: 8add 553e 964c 153d 4bf0 c73d d97c a13e
00000260: ec19 8d3d 92ed c2be 140a c73e c183 54be
00000270: 86d9 11bf 1f45 d0bd 39cc 913d 4029 3fbe
00000280: ac10 533e 978f a23e 01bc b1bd 68bb 8d3d
00000290: b4ca aa3e 53ca 13bd ad41 7fbe d5dc 1fbe
000002a0: cd00 293e 7b4e 223d 39ff bcbd d1e1 503e
000002b0: c24e 133d 2fc1 98be abeb 773d b4a1 663e
000002c0: 93c7 1c3d ac87 87bc 277e 893d a967 dcbd
000002d0: 320e 5f3e 8673 2dbe 8c21 273e f46f 833e
000002e0: d5f0 0c3d c76a 41be 7e81 533e 8d5e c93c
000002f0: a305 12be 5210 a33e 6186 92bd ba93 fe3d
00000300: 48db 1bbe d838 eebd 58c7 ec3d c791 79bd
00000310: 6ccd 51bd f932 8bbd 23cf 4fbc ed9e 12be
00000320: b4da b33d 61dd 78be 714c 00be 3dc2 9b3d
00000330: 1314 96be 34a7 7abe 13d9 cd3d 95da a3be
00000340: a4b4 3fbe 7845 7ebb 68cb a13e d2f1 033d
00000350: dbb9 c8be c663 783e c9d5 e4be 2aa3 233d
00000360: 272a d8bd c810 cc3c a3c7 233e cceb 1d3e
00000370: e088 813d 4374 14bd 54ba d2bd d2f2 e7bb
00000380: f8ca 123d f4b5 123e a573 223e 9d57 acbd
00000390: e207 22be 94ba f9be 2725 d1bd bb2b 2c3e
000003a0: 07c0 7ebe f15b cebe 456d 383e 2258 c2bd
000003b0: 8248 ab3b 7d4c 27be 367b 40be 6126 2a3e
000003c0: 9b26 953e 4447 b03e 1887 a53e 251b 95bd
000003d0: 7a8c 003c 9266 c9bd 316c 58bd d2b1 d53e
000003e0: c52a 65be d6c2 3dbe 182d a53e 64bf 213d
000003f0: fa74 5dbe 11eb 3e3e e663 903c bcfe 673e

edge_lin.2.bias f4 [32]
-0.1003966 -0.25286287 0.10206844 -0.104594655 0.047372017 -0.17677256 -0.45599136 0.14275298
-0.04966209 0.14036185 0.07182472 -0.15013584 -0.44071993 0.10705296 0.009921968 -0.08709307
0.042957433 -0.047047548 -0.02518595 0.12310459 -0.18229309 -0.13002221 0.06265695 0.09442244
-0.086119205 -0.26279658 0.13364705 0.1030171 0.15119776 -0.0014102651 -0.041878197 -0.06381077
00000000: bc9c cdbd 3e77 81be 4209 d13d b935 d6bd
00000010: 2909 423d de03 35be b377 e9be d62d 123e
00000020: 7a6a 4bbd 04bb 0f3e d718 933d 36bd 19be
00000030: 0ba6 e1be 953e db3d c08f 223c da5d b2bd
00000040: 22f4 2f3d eeb4 40bd c452 cebc 421e fc3d
00000050: 0aab 3abe 8b24 05be 4952 803d 8d60 c13d
00000060: 445f b0bd 468d 86be c6da 083e a1fa d23d
00000070: 96d3 1a3e a5d8 b8ba 7988 2bbd 39af 82bd

vertex_output_lin.0.weight f4 [32, 1, 32, 1]
0.19314761 -0.22087474 0.042058446 0.00740494 0.16505544 -0.044944014 -0.31893307 -0.039253563
-0.1439208 -0.06033876 -0.1294184 0.0059038284 -0.25644776 -0.013401789 -0.087224714 0.15529248
-0.020567335 -0.14600189 0.17943324 0.11539113 -0.28956258 -0.12097867 -0.114779726 -0.14323813
0.10620283 -0.17119959 0.12235371 -0.078749694 0.17356117 0.08130695 -0.033993907 -0.14802109
0.2644167 -0.19201675 -0.10477275 -0.15782963 0.18630834 0.3329579 0.19835453 0.06921517
0.1210887 -0.048722945 -0.11100282 -0.023305949 0.12672877 -0.009007389 -0.112375796 -0.048699565
0.19453509 0.08254969 -0.36821118 0.10544671 -0.05150402 0.0027240126 -0.050152995 -0.3650748
0.26982978 -0.060987864 -0.1693656 -0.051404323 -0.18040597 -0.36138988 -0.3075336 -0.14583333
-0.0029632826 0.10616853 -0.072550975 0.031186925 -0.009374131 0.08869814 -0.18567085 -0.11593218
-0.059299666 -0.0635501 -0.19996697 0.03364771 -0.11357498 -0.08101408 0.055927306 -0.06413563
-0.00977509 -0.06919223 -0.075797714 0.02505563 -0.011259423 -0.0072630006 -0.07442629 -0.0121404445
-0.087772086 0.10571262 0.082009695 0.089145735 0.04513204 -0.05258348 -0.007582871 0.045280293
-0.11264832 0.12106881 0.001513287 0.12545857 -0.16568509 0.045213155 -0.036452405 0.03677813
-0.028323086 0.03364118 0.13399285 -0.1643473 0.084837005 0.001519445 0.064583704 -0.28695437
0.28211817 0.24698243 -0.552582 0.30663544 -0.06510239 0.12927708 0.102659605 0.048372813
0.272966 0.033600565 0.14997856 -0.069653735 0.0073763016 -0.5845286 -0.289212 -0.57851315
-0.15347764 0.23785834 -0.12216143 0.113385014 -0.14377284 -0.063074306 0.4486683 -0.045227204
-0.0862864 -0.1591957 0.022005921 -0.008850317 0.37848467 -0.25064573 -0.04611626 -0.054500595
-0.110229105 0.12104294 -0.089645036 -0.15706326 0.23140182 0.009410268 -0.050733477 -0.109199956
0.045555744 0.28292394 -0.013214533 -0.22493742 0.07780461 -0.048869256 -0.012237649 -0.1284857
-0.02987449 0.27984822 -0.24139942 -0.044418667 -0.1648042 -0.010312575 0.11664876 -0.18049206
-0.21285774 -0.082650766 -0.07134577 -0.057229076 0.6297263 0.11115204 -0.18718807 -0.25503582
0.09563073 0.24606524 -0.29496104 0.28843662 0.14256564 -0.08976881 -0.29930133 -0.20513889
0.1529639 -0.06251892 -0.13046467 -0.3760383 -0.29546934 -0.11733645 -0.109184414 -0.18725334
0.22509384 -0.21819296 -0.0069077243 -0.13076858 -0.09015635 -0.15137644 -0.5005845 -0.11536319
-0.0047325343 -0.17455558 -0.045345504 0.027306743 -0.4868307 0.1555511 0.08564448 -0.24158096
0.14783932 -0.4391767 0.1890056 -0.11253385 -0.08828435 -0.34877256 -0.038031325 0.1506445
0.022159992 -0.2308587 -0.09399346 0.1765021 -0.09647602 0.08116998 -0.024636101 -0.13940454
-0.077309504 -0.13980523 0.06392045 0.08536182 0.20539322 -0.22708337 -0.20048755 -0.08384892
-0.45355272 0.114139795 0.19775784 0.052700825 0.12634592 0.08450313 -0.14399406 -0.18690844
0.35473397 0.07161743 -0.43049082 0.18243104 -0.15145537 0.24400608 -0.19416772 -0.09140287
0.10683721 -0.1333784 0.28413644 0.1088769 0.20713596 -0.3079261 -0.37775326 -0.2485381
00000000: 7dc8 453e fd2c 62be 7a45 2c3d 24a5 f23b
00000010: 4b04 293e 3717 38bd 324b a3be 58c8 20bd
00000020: f95f 13be c725 77bd 4286 04be e774 c13b
00000030: 1f4d 83be 2d93 5bbc dfa2 b2bd fe04 1f3e
00000040: d47c a8bc 8581 15be 59bd 373e 2f52 ec3d
00000050: 8c41 94be aac3 f7bd a211 ebbd 04ad 12be
00000060: df80 d93d f24e 2fbe 9594 fa3d 8547 a1bd
00000070: 05ba 313e 4284 a63d 323d 0bbd d792 17be
00000080: a061 873e 0aa0 44be 1893 d6bd 179e 21be
00000090: 9dc7 3e3e 7579 aa3e 731d 4b3e afc0 8d3d
000000a0: 5afd f73d b691 47bd 7255 e3bd 1eec bebc
000000b0: 30c5 013e ba93 13bc 4825 e6bd 3279 47bd
000000c0: 3534 473e d00f a93d 2d86 bcbe 72f4 d73d
000000d0: e1f5 52bd 5985 323b 3a6d 4dbd 16eb babe
000000e0: 2127 8a3e 69ce 79bd 2d6e 2dbe 578d 52bd
000000f0: 58bc 38be 1808 b9be 0b75 9dbe 5555 15be
00000100: a233 42bb e36e d93d 9b95 94bd b97b ff3c
00000110: f595 19bc 5fa7 b53d 8020 3ebe da6d edbd
00000120: 35e4 72bd 8e26 82bd 24c4 4cbe 2ed2 093d
00000130: 009a e8bd b6ea a5bd 0814 653d 8b59 83bd
00000140: b327 20bc a8b4 8dbd d53b 9bbd 7741 cd3c
00000150: 7179 38bc 77fe edbb d06c 98bd b7e8 46bc
00000160: dac1 b3bd dc7f d83d b3f4 a73d 0a92 b63d
00000170: 60dc 383d c661 57bd bb79 f8bb d477 393d
00000180: 2ab4 e6bd edf2 f73d 7c59 c63a 3678 003e
00000190: 5aa9 29be 6e31 393d 1e4f 15bd aaa4 163d
000001a0: d105 e8bc 55cb 093d 6c35 093e a94a 28be
000001b0: 06bf ad3d 1d28 c73a 7644 843d afeb 92be
000001c0: cb71 903e f6e8 7c3e 0476 0dbf 52ff 9c3e
000001d0: 6754 85bd 3661 043e 333f d23d 9222 463d
000001e0: 33c2 8b3e bfa0 093d fb93 193e 9ea6 8ebd
000001f0: e7b4 f13b aba3 15bf 9813 94be 7019 14bf
00000200: 3e29 1dbe 2391 733e c62f fabd 6736 e83d
00000210: 3039 13be 1a2d 81bd dab7 e53e 2940 39bd
00000220: edb6 b0bd 3304 23be c345 b43c ec00 11bc
00000230: bec8 c13e a354 80be 67e4 3cbd 043c 5fbd
00000240: ccbf e1bd 5ce5 f73d d197 b7bd 31d5 20be
00000250: 99f4 6c3e 862d 1a3c e8cd 4fbd 3aa4 dfbd
00000260: a998 3a3d 68db 903e c581 58bc ff55 66be
00000270: 0658 9f3d 212b 48bd 6c80 48bc c191 03be
00000280: 59bb f4bc 4448 8f3e 6931 77be 59f0 35bd
00000290: 6fc2 28be 13f6 28bc 8ce5 ee3d e9d2 38be
000002a0: 61f7 59be ce44 a9bd bb1d 92bd 0969 6abd
000002b0: be35 213f aea3 e33d 3bae 3fbe 0e94 82be
000002c0: 0bda c33d 87f8 7b3e 2205 97be f7ad 933e
000002d0: bafc 113e b6d8 b7bd 063e 99be ee0f 52be
000002e0: 92a2 1c3e eb09 80bd 8898 05be 1888 c0be
000002f0: c247 97be 184e f0bd 149c dfbd 57bf 3fbe
00000300: 007f 663e fa6d 5fbe 315a e2bb 33e8 05be
00000310: e4a3 b8bd 6d02 1bbe 4e26 00bf 8943 ecbd
00000320: 6013 9bbb b3be 32be 35bc 39bd 64b2 df3c
00000330: e041 f9be ca48 1f3e 6066 af3d 0061 77be
00000340: 3163 173e c5db e0be af8a 413e 2678 e6bd
00000350: 6dce b4bd 5192 b2be bcc6 1bbd 8d42 1a3e
00000360: df88 b53c 3966 6cbe a57f c0bd f7bc 343e
00000370: 3895 c5bd 723c a63d a6d1 c9bc 10c0 0ebe
00000380: 7254 9ebd 1a29 0fbe bae8 823d 2ed2 ae3d
00000390: 9a52 523e 8b88 68be 9c4c 4dbe fcb8 abbd
000003a0: 1038 e8be 20c2 e93d 0881 4a3e d2dc 573d
000003b0: d360 013e fa0f ad3d 2e73 13be ed64 3fbe
000003c0: b19f b53e 29ac 923d 4b69 dcbe 34cf 3a3e
000003d0: 1e17 1bbe bbdc 793e e7d3 46be 6e31 bbbd
000003e0: 78cd da3d 5994 08be 557a 913e dafa de3d
000003f0: 731b 543e 7da8 9dbe e068 c1be c680 7ebe

vertex_output_lin.0.bias f4 [32]
-0.10888098 -0.21825874 0.05187096 0.057304207 -0.025826203 0.1750868 -0.11890258 0.12314955
-0.08703696 -0.09168959 0.004411199 -0.19189703 0.0053731957 0.014488843 -0.14461567 0.06050271
-0.018158382 0.027544808 0.011562077 -0.0002863682 0.13903227 -0.00044251938 -0.114111856 0.3020368
0.08844983 -0.17431034 -0.022467453 -0.17505127 -0.025416045 0.014644709 0.23093632 -0.057549607
00000000: fefc debd 387f 5fbe a576 543d d1b7 6a3d
00000010: 7991 d3bc f449 333e 3283 f3bd d535 fc3d
00000020: 6f40 b2bd c0c7 bbbd d28b 903b a880 44be
00000030: a211 b03b 9d62 6d3c 2116 14be b1d1 773d
00000040: e3c0 94bc a6a5 e13c de6e 3d3c b023 96b9
00000050: 7a5e 0e3e f201 e8b9 7ab3 e9bd 91a4 9a3e
00000060: 2f25 b53d 697e 32be aa0d b8bc a440 33be
00000070: 4f35 d0bc 5df0 6f3c 927a 6c3e 23b9 6bbd

vertex_output_lin.2.weight f4 [1, 32, 1, 1]
0.010804401 -0.40870008 0.0026866882 -0.37922767 -0.101992115 -0.27447468 0.088769466 -0.3344116
0.047536734 -0.07869755 -0.35488382 -0.026732301 -0.40366206 -0.0050489493 -0.34369755 0.24861208
-0.30979094 -0.0029203058 0.10488526 0.0030863786 -0.3205242 0.22066079 -0.63718414 0.20879109
0.03795778 -0.11429536 -0.19902915 -0.0020426626 -0.02348994 -0.2390633 0.103245184 -0.2759744
00000000: f104 313c 2341 d1be 2613 303b 212a c2be
00000010: 3ee1 d0bd f287 8cbe c4cc b53d ff37 abbe
00000020: e1b5 423d 2e2c a1bd 55b3 b5be b3fd dabc
00000030: cbac cebe a871 a5bb 20f9 afbe 2a94 7e3e
00000040: eb9c 9ebe 9a62 3fbb 15ce d63d d744 4a3b
00000050: bf1b a4be e7f4 613e 801e 23bf 55cd 553e
00000060: 9e79 1b3d b013 eabd 4cce 4bbe 31de 05bb
00000070: fa6d c0bc 02cd 74be 3672 d33d 844c 8dbe

graph_output_lin.0.weight f4 [1, 618]
-0.14343075 -0.021035848 -0.08057887 -0.21003585 0.019611375 -0.034141358 0.041345023 -0.03979711
-0.1388117 -0.07498232 0.02479763 0.21672726 -0.2750088 0.09479928 0.17966013 -0.16058417
0.11346371 0.060379326 -0.16154549 -0.030687192 -0.16674292 0.061970662 -0.027963748 -0.2463654
0.0414571 -0.06788773 -0.18933111 -0.21389906 -0.029554496 -0.5976982 -0.11182676 -0.06449156
-0.027027769 -0.2951244 0.09377894 -0.028553942 -0.14144564 0.05466581 0.3284816 -0.033508986
-0.06081602 -0.2659331 -0.054800414 0.071065694 0.022805303 -0.24634072 0.06508318 0.07274012
-0.335015 -0.08229141 -0.014173414 -0.022118602 -0.01681984 -0.032501027 -0.23188694 -0.07189418
-0.12270196 0.048737247 0.12806447 -0.43598154 0.025071703 -0.07222098 -0.08940376 -0.015186628
-0.19156852 0.06293758 0.10940816 0.048977178 0.2525771 -0.074667215 -0.21192586 -0.5692662
-0.006986012 0.012557761 -0.22306335 -0.11716031 -0.036751233 -0.062380377 -0.009314139 0.279607
-0.22657686 0.07030392 0.012295689 0.18617228 0.010442177 -0.1293975 -0.09613666 -0.13969095
-0.057002153 -0.11778305 -0.025964811 0.102507584 0.045739908 -0.016901141 -0.09831694 -0.24194537
0.059441783 -0.10014819 -0.48466235 0.01086382 -0.16623403 0.009221983 -0.12576474 -0.31919459
-0.026944324 0.016985523 -0.075782545 -0.16297455 -0.31443042 0.13823594 0.06288635 -0.23464575
0.022616325 0.026224144 0.2894146 0.113712095 -0.09125548 0.3922292 -0.14216745 0.10059829
0.15655485 0.08844195 -0.07009206 0.14383535 -0.009794833 -0.45833927 0.024635639 -0.26536933
-0.12803875 -0.054755475 0.21962169 0.013095108 -0.21001838 0.041753747 -0.28310904 -0.078359775
-0.2517422 -0.05822599 -0.09356081 -0.011573855 -0.01847954 -0.099953696 -0.14597194 0.24994887
0.36532456 0.09569465 0.104724 0.08364083 0.05327656 -0.18950549 -0.17717227 0.020630846
-0.00041102676 -0.07808396 0.03874711 -0.07142425 0.019403627 -0.13270244 -0.059861623 0.08565984
0.16219044 -0.03254754 0.16585174 -0.17216805 0.12877612 0.19466789 0.13227615 -0.045027338
0.05051668 -0.048713118 0.08115583 0.10613828 0.066233814 0.14489312 0.044667523 0.098484136
0.1284772 -0.07668804 -0.24745832 -0.19686672 -0.103722505 -0.113477305 -0.041638117 0.041537393
0.091423854 0.120110095 -0.12181218 -0.09430486 0.0997726 -0.40650868 -0.078146026 0.086182415
0.0130235385 0.037397012 -0.1279238 -0.31496695 -0.25390896 0.23462053 -0.03134972 -0.012342829
0.11511907 -0.21096419 -0.08925051 0.13260688 -0.08043881 0.19119774 0.11799211 -0.07365174
-0.024630642 -0.04617156 -0.014501341 0.3416239 -0.016310513 -0.011293641 0.054221142 -0.07415297
-0.0455778 -0.008485341 0.063566126 0.2673662 0.013890106 0.061416022 0.00884325 0.09298459
0.1668489 0.20946343 0.1451282 0.11926785 0.051399097 -0.062174402 -0.046026777 -0.026921049
-0.05776879 -0.06682513 0.05122091 -0.13090181 -0.0639205 -0.26132143 0.1605437 -0.23624992
0.0062248516 -0.13973193 0.09875376 -0.09616365 -0.038317647 -0.04584105 -0.06898835 0.20183757
-0.30460975 -0.029431999 -0.021950562 -0.035851046 -0.09841257 -0.07197123 -0.064804874 0.012946917
00000000: 83df 12be 5f53 acbc 8906 a5bd a313 57be
00000010: 09a8 a03c cfd7 0bbd 6659 293d 4b02 23bd
00000020: a724 0ebe 5590 99bd 6624 cb3c c0ed 5d3e
00000030: f4cd 8cbe 2026 c23d d3f8 373e 2d70 24be
00000040: a95f e83d 5050 773d 2e6c 25be b563 fbbc
00000050: a8be 2abe f3d4 7d3d 3b14 e5bc 3647 7cbe
00000060: ecce 293d b908 8bbd 04e0 41be 5b08 5bbe
00000070: 451c f2bc c002 19bf 6e05 e5bd 2714 84bd
00000080: 5769 ddbc 8c1a 97be 2c0f c03d f5e9 e9bc
00000090: 20d7 10be 42e9 5f3d be2e a83e b840 09bd
000000a0: 381a 79bd 6228 88be 6676 60bd e48a 913d
000000b0: 30d2 ba3c be40 7cbe 554a 853d c6f8 943d
000000c0: 1687 abbe 6688 a8bd 9b37 68bc 1232 b5bc
000000d0: c3c9 89bc cc1f 05bd c573 6dbe 413d 93bd
000000e0: 2a4b fbbd b5a0 473d 5523 033e f938 dfbe
000000f0: 2c63 cd3c 98e8 93bd 5219 b7bd 56d1 78bc
00000100: 8a2a 44be 6be5 803d 6311 e03d 4b9c 483d
00000110: c951 813e 20eb 98bd 1803 59be 6ebb 11bf
00000120: ebea e4bb 11bf 4d3c b86a 64be bff1 efbd
00000130: 7688 16bd 9182 7fbd 559a 18bc a628 8f3e
00000140: c403 68be 80fb 8f3d dc73 493c f2a3 3e3e
00000150: aa15 2b3c c780 04be 4ce3 c4bd 250b 0fbe
00000160: 177b 69bd 3d38 f1bd 28b4 d4bc 7fef d13d
00000170: c559 3b3d 4374 8abc 645a c9bd 87c0 77be
00000180: 3a79 733d 7f1a cdbd aa25 f8be 2afe 313c
00000190: 4139 2abe cd17 173c 79c8 00be 796d a3be
000001a0: 58ba dcbc 3925 8b3c e133 9bbd cde2 26be
000001b0: 06fd a0be b98d 0d3e 8fca 803d fa46 70be
000001c0: df45 b93c 04d4 d63c 272e 943e e3e1 e83d
000001d0: 27e4 babd 44d2 c83e 5894 11be 7a06 ce3d
000001e0: ea4f 203e 0e21 b53d 6d8c 8fbd 9349 133e
000001f0: 827a 20bc 72ab eabe aed0 c93c 7dde 87be
00000200: 971c 03be 4747 60bd 82e4 603e dd8c 563c
00000210: 0f0f 57be fa05 2b3d abf3 90be 177b a0bd
00000220: 5be4 80be 607e 6ebd cf9c bfbd 44a0 3dbc
00000230: 6762 97bc 86b4 ccbd ab79 15be 99f2 7f3e
00000240: d20b bb3e 8ffb c33d 8979 d63d e24b ab3d
00000250: 8638 5a3d ba0d 42be a66c 35be 0502 a93c
00000260: 147f d7b9 7cea 9fbd 4ab5 1e3d e146 92bd
00000270: 5bf4 9e3c 26e3 07be 7631 75bd 6d6e af3d
00000280: 4015 263e 9250 05bd 0ad5 293e d24c 30be
00000290: e3dd 033e 0557 473e 6673 073e 966e 38bd
000002a0: 94ea 4e3d 6887 47bd 0735 a63d 075f d93d
000002b0: 98a5 873d dd5e 143e 4bf5 363d 0db2 c93d
000002c0: 878f 033e 9e0e 9dbd b765 7dbe 6e97 49be
000002d0: 776c d4bd ca66 e8bd bb8c 2abd 1d23 2a3d
000002e0: 6e3c bb3d 48fc f53d aa78 f9bd e822 c1bd
000002f0: 9455 cc3d e821 d0be 060b a0bd 6880 b03d
00000300: ae60 553c 9c2d 193d 75fe 02be 5943 a1be
00000310: 5b00 82be 5d40 703e 9068 00bd 9439 4abc
00000320: 8cc3 eb3d ff06 58be f9c8 b6bd 19ca 073e
00000330: 1abd a4bd 57c9 433e d9a5 f13d b9d6 96bd
00000340: 33c6 c9bc 641e 3dbd 0897 6dbc 54e9 ae3e
00000350: a09d 85bc f708 39bc fd16 5e3d 83dd 97bd
00000360: caaf 3abd 1a06 0bbc f52e 823d 39e4 883e
00000370: 5493 633c 5e8f 7b3d 47e3 103c b46e be3d
00000380: 70da 2a3e 957d 563e 7d9c 143e b442 f43d
00000390: dc87 523d 96aa 7ebd 9386 3cbd 8889 dcbc
000003a0: f79e 6cbd 9ddb 88bd 04cd 513d 200b 06be
000003b0: c0e8 82bd eccb 85be 9165 243e 80eb 71be
000003c0: d7f9 cb3b e315 0fbe 693f ca3d 73f1 c4bd
000003d0: f7f2 1cbd d3c3 3bbd c449 8dbd 82ae 4e3e
000003e0: cff5 9bbe 601b f1bc aad1 b3bc 8cd8 12bd
000003f0: 888c c9bd a765 93bd 6bb8 84bd 4e1f 543c

x_lin_after_first_round.0.weight f4 [32, 1, 32, 1]
0.16695869 -0.10028513 -0.105569 -0.38862887 -0.43478 0.006665351 0.17377187 -0.1359157
-0.34250873 -0.2621549 0.14731921 0.19860008 0.320067 -0.20982571 -0.49043325 -0.08283067
0.10218483 -0.13804187 -0.2979725 0.014389293 -0.007987509 0.34199512 -0.26476267 0.11452392
-0.062373705 0.13880058 -0.25642666 -0.24698089 -0.2977383 -0.11205312 -0.1859844 0.06309226
0.0653303 -0.13786289 0.23101483 0.121415816 -0.17742118 0.20781557 0.1915178 0.08410243
0.16952062 0.06696254 -0.12759371 0.07044369 -0.13661163 -0.14481238 -0.11248562 0.16129616
-0.13193661 0.01451945 0.3290996 -0.16497853 -0.033769574 -0.13890415 0.09110026 0.15510674
0.0033008968 -0.1884518 0.11220457 -0.077571966 0.26534513 0.32550853 0.21043286 -0.0072437194
-0.2337958 0.23578922 -0.16001768 -0.29413813 -0.16109258 -0.3000418 0.054991994 -0.18502636
-0.060643982 -0.26701787 0.20473902 -0.00050677324 0.38145602 0.037099015 -0.16134226 -0.037499983
0.07220059 0.08656822 -0.05559434 0.048017863 -0.058863807 0.0016588196 -0.059647862 -0.13591011
0.16117194 0.2237379 0.30994582 0.11709629 -0.020597277 -0.13708265 -0.26856285 -0.1271828
0.0048061935 0.2842717 -0.024680858 -0.25661683 -0.2341846 -0.33845052 -0.047169726 -0.07852424
-0.08576169 -0.26477042 0.1105307 0.058861066 0.18185751 0.17023052 -0.106031895 -0.12077707
0.17731543 0.01177884 -0.2864984 0.13696818 -0.06546594 -0.38424 0.028197804 -0.1890627
0.018607354 0.29718882 0.14201277 0.029158855 -0.040605985 -0.35412684 -0.4037584 -0.20708063
0.14278133 0.08104238 0.09900616 -0.39751503 0.24485637 0.10406093 -0.0044060433 0.2805207
0.15643056 0.07731005 0.04889956 -0.169754 -0.06294895 0.37008607 -0.5083508 -0.18258367
-0.11134735 0.12230205 -0.23020177 -0.18118015 -0.3094803 -0.26573884 0.18039955 0.16057985
0.035479605 -0.6081536 0.07566649 0.24359894 0.093152955 -0.033074543 0.11433753 0.25459975
0.055365648 -0.23790188 -0.023141962 0.11184502 0.08703488 0.23887278 -0.24243933 0.29371154
0.22843148 -0.06235294 -0.14957464 -0.033192858 -0.012818298 0.19651791 -0.386415 -0.2729594
-0.09915308 -0.18653968 -0.090405904 -0.34229285 -0.1588117 -0.18227765 -0.09530936 0.021938594
-0.10593214 0.036740955 -0.08918282 -0.09675691 -0.06970522 0.14478534 0.13930611 0.069410965
-0.38163266 0.36997092 0.1405122 -0.3054759 -0.15118912 -0.29305488 -9.2726565e-05 0.04292576
-0.36571425 -0.21084589 0.048103932 -0.04557281 0.08860006 0.061797384 -0.110972226 0.1287152
-0.012476166 -0.04542671 -0.36300644 0.13199551 -0.18145466 -0.41193783 -0.3281594 -0.0061650253
-0.113002665 -0.06684306 0.09390952 0.13582337 0.18321922 -0.18140261 -0.43088362 -0.44552383
0.28121477 0.18221545 0.13945168 -0.40497303 0.22038746 0.16572535 -0.11646899 0.26280996
-0.059180193 0.15093942 -0.0052770255 -0.34093747 -0.07785986 0.2828535 -0.17844953 -0.3546605
-0.11117726 -0.14070985 0.023806104 0.035141177 -0.09382562 -0.33041486 0.08990451 0.026941998
-0.15634035 -0.4373754 -0.06885804 0.14877929 -0.06471407 0.17638214 0.24797425 0.14688663
00000000: 38f7 2a3e 4a62 cdbd 8f34 d8bd 5dfa c6be
00000010: 7c9b debe 0469 da3b 41f1 313e 7c2d 0bbe
00000020: 4e5d afbe 2b39 86be d9da 163e d25d 4b3e
00000030: d2df a33e 8ddc 56be 111a fbbe 20a3 a9bd
00000040: 4846 d13d d95a 0dbe da8f 98be 12c1 6b3c
00000050: 0ade 02bc fc19 af3e f98e 87be 848b ea3d
00000060: 927b 7fbd bd21 0e3e 5b4a 83be 8fe8 7cbe
00000070: 2871 98be 1b7c e5bd b272 3ebe 8436 813d
00000080: e4cb 853d ee2b 0dbe 278f 6c3e dba8 f83d
00000090: e6ad 35be 9bcd 543e 3e1d 443e e53d ac3d
000000a0: d096 2d3e a823 893d eda7 02be c844 903d
000000b0: ebe3 0bbe b249 14be dc5e e6bd d22a 253e
000000c0: 641a 07be fde2 6d3c be7f a83e 22f0 28be
000000d0: f751 0abd e43c 0ebe c692 ba3d 4dd4 1e3e
000000e0: dc53 583b 82f9 40be 82cb e53d 0dde 9ebd
000000f0: 51db 873e 0ea9 a63e b67b 573e b95c edbb
00000100: 2b68 6fbe bb72 713e addb 23be 4699 96be
00000110: 74f5 24be 149f 99be 493f 613d 8d77 3dbe
00000120: d365 78bd 91b6 88be 1ba7 513e fad8 04ba
00000130: 344e c33e 23f5 173d e836 25be 9599 19bd
00000140: e7dd 933d ae4a b13d e4b6 63bd 61ae 443d
00000150: 2d1b 71bd c06c d93a 5151 74bd 052c 0bbe
00000160: 420a 253e 8c1b 653e 38b1 9e3e 2ed0 ef3d
00000170: 9fbb a8bc 655f 0cbe 1281 89be 353c 02be
00000180: 467d 9d3b 0f8c 913e 832f cabc 4863 83be
00000190: 16ce 6fbe 6349 adbe 0b35 41bd 51d1 a0bd
000001a0: d3a3 afbd fd8f 87be eb5d e23d 4d18 713d
000001b0: db38 3a3e e950 2e3e 4027 d9bd f859 f7bd
000001c0: 2d92 353e 09fc 403c ebaf 92be 6341 0c3e
000001d0: 0213 86bd 1bbb c4be 15ff e63c a799 41be
000001e0: 736e 983c 2229 983e cc6b 113e 8dde ee3c
000001f0: 7652 26bd 1d50 b5be 6cb9 cebe f20c 54be
00000200: 4535 123e 8cf9 a53d bec3 ca3d 1787 cbbe
00000210: a1bb 7a3e e61d d53d 9260 90bb 69a0 8f3e
00000220: 552f 203e bb54 9e3d e84a 483d fed3 2dbe
00000230: 61eb 80bd ec7b bd3e 4723 02bf 37f7 3abe
00000240: 140a e4bd 7f79 fa3d 03ba 6bbe 4a87 39be
00000250: 3474 9ebe ec0e 88be a9ba 383e 0b6f 243e
00000260: 1053 113d f4af 1bbf 08f7 9a3d 0072 793e
00000270: fac6 be3d 2c79 07bd cc29 ea3d e65a 823e
00000280: 17c7 623d 8d9c 73be 3694 bdbc 000f e53d
00000290: 583f b23d 119b 743e 0442 78be 5c61 963e
000002a0: f1e9 693e cc65 7fbd 182a 19be 3cf5 07bd
000002b0: d703 52bc fe3b 493e 30d8 c5be 56c1 8bbe
000002c0: c510 cbbd 4204 3fbe bb26 b9bd 0241 afbe
000002d0: 899f 22be fea6 3abe 8e31 c3bd 91b8 b33c
000002e0: f3f2 d8bd af7d 163d 7ba5 b6bd 7d28 c6bd
000002f0: 9cc1 8ebd 9c42 143e 43a6 0e3e 5627 8e3d
00000300: 5b65 c3be d46c bd3e 6ee2 0f3e 5667 9cbe
00000310: 52d1 1abe 4a0b 96be 3276 c2b8 ecd2 2f3d
00000320: e63e bbbe fce7 57be a108 453d 8eaa 3abd
00000330: f373 b53d 411f 7d3d 6845 e3bd ebcd 033e
00000340: d568 4cbc 5c11 3abd fbdb b9be d529 073e
00000350: 40cf 39be 84e9 d2be 8204 a8be fb03 cabb
00000360: f16d e7bd 04e5 88bd a253 c03d 4815 0b3e
00000370: d29d 3b3e 9bc1 39be c79c dcbe b31b e4be
00000380: 62fb 8f3e b096 3a3e 6ccc 0e3e a058 cfbe
00000390: 40ad 613e e8b3 293e 4b87 eebd 078f 863e
000003a0: ee66 72bd dd8f 1a3e e6ea acbb 5b8f aebe
000003b0: fe74 9fbd 2dd2 903e 79bb 36be 1096 b5be
000003c0: e7b0 e3bd 3e16 10be 0505 c33c 32f0 0f3d
000003d0: a627 c0bd 232c a9be db1f b83d 77b5 dc3c
000003e0: af17 20be abef dfbe 7205 8dbd 9959 183e
000003f0: cf88 84bd 859d 343e f6ec 7d3e 7369 163e

x_lin_after_first_round.0.bias f4 [32]
-0.1804236 0.041549552 0.13308914 0.11177384 -0.10782815 -0.31501147 0.09754449 -0.059327573
-0.016274115 -0.07043639 -0.044942357 -0.009431571 0.23318692 0.08524755 -0.12596822 -0.13230246
-0.09461515 -0.19656126 0.23738909 0.20029719 -0.0028429006 0.058068678 -0.051526524 0.049178284
-0.16550574 -0.36054763 -0.11997736 -0.025347633 0.21241991 -0.064279854 -0.16042112 -0.08342888
00000000: f7c0 38be dd2f 2a3d 8548 083e afe9 e43d
00000010: 01d5 dcbd 2f49 a1be 68c5 c73d 7801 73bd
00000020: 4b51 85bc f440 90bd 7a15 38bd e086 1abc
00000030: 8dc8 6e3e 4496 ae3d d0fd 00be 4c7a 07be
00000040: 96c5 c1bd 5b47 49be 2016 733e b51a 4d3e
00000050: f54f 3abb 6cd9 6d3d 7a0d 53bd 2b6f 493d
00000060: 567a 29be b399 b8be b1b6 f5bd d7a5 cfbc
00000070: 9b84 593e 28a5 83bd 6f45 24be c3dc aabd
